models/fsrcnn/track2/track2_x4__epoch_8.pth (torch, 57971 bytes, 22 tensors)

first_part.0.weight f4 [56, 1, 5, 5]
000000 89 b6 b4 bc 55 db ba 3d ff 68 db 3c b0 b9 88 3d
       -0.022059696 0.091238655 0.026783464 0.06676042
000010 46 78 a7 ba 19 31 44 bd 00 ef 72 3d 1e da 8a bd
       -0.0012776933 -0.047898386 0.05930996 -0.06779884
000020 25 9b 35 bd 39 6f a6 3b 39 3d fb 3c 07 96 ac 3b
       -0.04433741 0.0050791767 0.030668842 0.005266908
000030 56 af 2a 3d ab 88 13 3d b2 f4 81 3c 4a 78 4e 3d
       0.04167112 0.03601901 0.01586375 0.050407685
000040 09 c7 d7 bc 5f c2 b6 bc e5 78 56 3d d6 4a c7 bc
       -0.026340025 -0.02230948 0.052361388 -0.024327677
000050 70 f0 c3 bc cb e2 95 3a 80 80 94 3d 8c 98 b6 ba
       -0.02391836 0.0011435387 0.07251072 -0.001393096
000060 0f 92 30 bd 05 78 bb bc 99 31 66 bd 32 22 33 bd
       -0.043108042 -0.022884378 -0.056199644 -0.043733783
000070 17 da 98 3c 8c 94 49 3d bf 3c 33 bd 82 7c 2b 3d
       0.01865868 0.04921393 -0.043759104 0.041866787
000080 c0 4f 9a bc 65 39 12 bd 81 f8 3c bc 22 31 c2 bc
       -0.018836856 -0.035699267 -0.011533857 -0.023705069
000090 53 9a 12 3c 9c 02 b5 ba d3 f6 08 3c a4 be 4f bd
       0.008947927 -0.0013809982 0.008359629 -0.05071892
0000a0 20 d0 88 bc ec bd 25 3d 09 11 50 3c 6e d9 19 3c
       -0.016700804 0.040464327 0.012699374 0.009390218
0000b0 4f 97 d8 bc 78 01 18 3d 3c a9 a4 b8 c8 5d a7 bd
       -0.026439337 0.037110776 -7.851652e-05 -0.08172184
0000c0 7d 94 39 3d 18 d8 44 3c 8e 8c f4 bc 04 66 8b bd
       0.045307625 0.012014411 -0.029852178 -0.06806567
0000d0 60 70 73 bc e1 c3 31 bd cb 94 e6 3c 92 83 f7 3b
       -0.014858335 -0.043399695 0.028147122 0.007553526
0000e0 81 a3 a2 bc 9a e7 e4 bc 6a d8 2c bd a9 6c 6d bd
       -0.019853355 -0.027942467 -0.042198576 -0.057964955
0000f0 74 9c cb bc db b4 af bd 8d 2b 1b bd f8 34 d4 bc
       -0.024854876 -0.08579417 -0.03788333 -0.025904164
000100 64 ed 7b bd 4c 70 4a 3d 0e 72 95 bd f2 52 69 bd
       -0.06150569 0.0494235 -0.07297145 -0.05696387
000110 a5 24 24 bd 65 75 6a bc 94 c0 27 bd a0 62 26 3d
       -0.04007401 -0.014310216 -0.04095514 0.0406214
000120 29 2d 25 3d 7d 2d 0d bd 36 bf a1 bc 83 e9 8a 3d
       0.04032627 -0.03446721 -0.019744497 0.0678282
000130 7a 34 9a 3a c0 72 11 3e 0e d5 a1 3d e8 1f be bd
       0.0011764907 0.1420393 0.07901965 -0.092834294
000140 a4 93 48 bd 51 86 bc 3a a3 e6 a6 3d ff 37 66 bd
       -0.048968926 0.0014383291 0.08149459 -0.056205746
000150 46 7f b0 bd e4 bc 76 bc 0d 3a 9f 3d 8c 96 31 bd
       -0.086180255 -0.0150596835 0.07774744 -0.043356463
000160 48 c2 8b bd d5 68 7a 3c b4 04 de bb fb b7 69 bd
       -0.068241656 0.015283783 -0.006775463 -0.057060223
000170 55 f4 2d bd fb 6e 80 bc 69 0a 9e bd 70 fc 66 3d
       -0.04246934 -0.01567792 -0.07716829 0.056393087
000180 48 0a ff bc dc 7f d2 3c 37 93 59 bd 25 9e 09 be
       -0.031132832 0.025695734 -0.05311891 -0.13439234
000190 54 4d 54 39 8c b1 33 bd 59 6b 34 bd 63 80 56 bd
       0.00020246702 -0.043870494 -0.044047687 -0.052368533
0001a0 2a 06 8b ba 5e 22 ee bc 21 35 ad 3d 14 bd 5e bc
       -0.0010606695 -0.029069122 0.08457399 -0.013594884
0001b0 38 39 b0 3c 95 e6 d9 bb 1e f7 56 3c 38 0a 90 bd
       0.021511659 -0.006649802 0.013120441 -0.07033199
0001c0 f2 32 e0 bc e2 45 2d b8 fe 39 b7 3c 08 87 63 3a
       -0.027368043 -4.1311498e-05 0.02236652 0.0008679484
0001d0 76 4a a5 bd d8 78 27 bd f8 b4 d8 bc 37 ad 08 3d
       -0.08070843 -0.04088673 -0.02645348 0.033368316
0001e0 09 74 3c bd 09 f7 8c bc 8a 87 83 3d 90 33 95 bd
       -0.046009097 -0.01720764 0.064223364 -0.072852254
0001f0 81 98 e8 3c 28 5a af bd c6 49 78 bd 04 e8 22 3d
       0.028393032 -0.08562118 -0.06061723 0.03977205
000200 34 28 6d 3c 60 20 17 bb d8 a6 14 3d c7 3e 21 bd
       0.014474917 -0.0023060068 0.036291927 -0.03936651
000210 c5 81 ef bb bb 05 09 bd 4b e9 30 3c 50 ae 43 bd
       -0.007309171 -0.03345273 0.010797809 -0.04777366
000220 0c f8 08 bb 76 eb 27 3d d0 e7 d6 3c c4 85 58 bd
       -0.00208998 0.040996037 0.026233584 -0.052861944
000230 dd 9d 59 3d 64 5b 5f bd 67 a0 11 3d 9c c9 68 bc
       0.053129066 -0.054530516 0.035553362 -0.014208224
000240 a0 63 b9 bc c5 e2 6a 3d 59 10 90 3b 7e 38 12 bb
       -0.022630513 0.05734517 0.00439648 -0.0022311504
000250 af e6 3b bc c0 dc 41 bd 3c 2e c3 bd 9c bf 11 3c
       -0.0114685735 -0.047329664 -0.09530303 0.008895781
000260 4b 55 72 3b e5 34 7a 3d f2 2f f0 bb 2a c1 c9 bb
       0.0036977108 0.0610856 -0.0073299343 -0.00615706
000270 ec 37 93 3c aa f8 3b 3c 2b 3b 81 bd 40 92 37 bd
       0.017971002 0.01147286 -0.063101135 -0.04481721
000280 9b 0b f2 ba 27 85 4b bd 26 bf 70 bb 5b 23 b8 bc
       -0.0018466593 -0.04968753 -0.0036735027 -0.022477796
000290 fc 08 10 3d 64 69 a3 bd 92 b3 19 3c 24 33 b0 bc
       0.03516482 -0.07979086 0.009381192 -0.02150876
0002a0 38 0f 0a 3c 83 f5 b7 bc 53 da 48 bd 40 8e 6a 3c
       0.00842648 -0.022455936 -0.049036335 0.014316142
0002b0 ac 60 91 b7 d7 24 74 3b ef 01 8c bd f7 0e 36 3d
       -1.7330363e-05 0.0037253404 -0.06836306 0.044447865
0002c0 d7 5d ff bc 69 15 02 3e 98 71 03 be ee cf 59 bd
       -0.031172676 0.1270348 -0.12836301 -0.053176813
0002d0 f9 cf e1 bc 97 70 c3 bd a6 60 e1 3c 0b f8 e5 3d
       -0.02756499 -0.09542959 0.027511906 0.11228951
0002e0 d7 61 6f 3b aa 54 d7 3b 1f d6 80 bd e1 d2 bf 3d
       0.0036526823 0.006571372 -0.0629084 0.09366394
0002f0 18 c3 b3 3b d2 20 1e 3d f7 c1 f5 3b 31 29 fc bc
       0.0054859035 0.03860552 0.007499929 -0.03078136
000300 a1 ba b8 3d 13 61 62 bd 08 0e b0 3d 9d 1b 94 3d
       0.09019972 -0.05526836 0.08596426 0.07231829
000310 61 aa 9c 3c 1a 93 f5 bb 96 b1 48 3d 2e f3 46 3c
       0.019124212 -0.0074943425 0.048997484 0.0121429395
000320 53 79 7d 3d ca 95 16 3d 85 b8 d8 3c 2c fc ea 39
       0.061883282 0.036763944 0.026455173 0.0004481984
000330 a5 ee 82 3c 86 de 59 3d 70 ed 6b bc cf 5c 9b 3c
       0.015982935 0.05319073 -0.014399871 0.018965153
000340 e5 57 55 3d 61 3d c3 b8 08 8b 4b 3b 23 31 81 bc
       0.052085776 -9.309757e-05 0.003105821 -0.0157705
000350 d2 a3 5b 3d fc 97 57 bc d7 d4 78 bc ab 61 0b bd
       0.053623028 -0.0131587945 -0.015187464 -0.03402869
000360 ef 58 15 3a 54 4d 0d 3d d9 60 a1 bb 16 36 2e bd
       0.0005697151 0.034497574 -0.004924875 -0.04253205
000370 c9 08 d4 3c 62 67 f5 3c 1f 0f 7e 3d ec 25 c3 bc
       0.025883095 0.029956523 0.06202614 -0.023821793
000380 f1 16 8d bb 19 b7 b0 3d 69 85 1f bd c8 14 57 bd
       -0.0043057133 0.08628673 -0.03894559 -0.052510053
000390 2e 02 c5 3c 73 37 54 bd b6 03 7a bb f7 5b 3f bd
       0.02404889 -0.051810693 -0.0038149185 -0.046718564
0003a0 b6 4e a8 3c fe ad 2e bd e0 0c 0e 3d 12 79 aa 3c
       0.020545345 -0.0426464 0.034680247 0.020809684
0003b0 7a 9e 97 bc d5 d0 ab 3d bc f1 07 3d 52 73 0c 3d
       -0.018508185 0.08389441 0.03318952 0.034289666
0003c0 89 c4 5e 3d 8e a2 be bc 03 33 13 bc 5a 8b 3d bd
       0.05438665 -0.023270871 -0.00898433 -0.046275474
0003d0 80 05 6f 3d 24 e9 29 3d 23 78 d5 3c 8c e8 d5 3b
       0.058354855 0.041482106 0.026058262 0.006527966
0003e0 0d 5d 78 3d fa 01 f5 3c 57 01 eb bc c1 89 75 3d
       0.060635615 0.029908169 -0.028687162 0.059945825
0003f0 80 be 4c bd 75 13 c9 3c c1 bb bb bd 9d c4 a7 bb
       -0.049986362 0.02454541 -0.091666706 -0.0051198737

first_part.0.bias f4 [56]
000000 23 34 e6 bb 94 d9 87 ba 07 e9 b5 3b a8 7f fe bb
       -0.007025258 -0.0010364526 0.0055514607 -0.0077666827
000010 40 ea 58 3c 50 ef 0c 3d 21 a1 9f 3b 97 98 a5 bb
       0.013239443 0.034407914 0.004871503 -0.0050535905
000020 e9 c8 1e 3c 3d fb 83 b9 70 0c c7 bc 9c f9 20 3b
       0.009691455 -0.00025173454 -0.024297923 0.0024562841
000030 50 a4 49 3c f3 43 5d 3c c0 0d cf 3c 6c 17 70 bc
       0.012307242 0.01350497 0.025275111 -0.014654022
000040 31 e0 e4 3c 15 1d 1a bc 9e a0 fc 38 91 74 93 3b
       0.027938934 -0.009406348 0.00012046214 0.00449998
000050 f8 9b 1f 3b 31 55 ae 3c 71 5b e6 bc 28 35 3c bb
       0.002435444 0.021280857 -0.028119775 -0.0028718207
000060 9a ac 5d bc 4b b1 2f 3b f7 22 82 bb 7b 29 af b9
       -0.013529921 0.0026808556 -0.0039714533 -0.00033409506
000070 a8 e3 71 bc 3b 65 32 bb 3a 80 50 3c a9 0e a0 ba
       -0.01476375 -0.0027220983 0.012725884 -0.00122114
000080 5e 0a d7 3b 7c 01 b2 bb 56 a7 2e 3c 21 59 4a 3c
       0.006562515 -0.005432306 0.010660013 0.012350352
000090 79 90 a6 bb 49 5d 51 3c 90 a0 ef bb 79 9d aa 3c
       -0.0050831405 0.012778589 -0.0073128417 0.020827042
0000a0 0f 1b 7b 3d 4e 56 41 b9 bf ea a4 3b 49 99 f2 bc
       0.061305102 -0.00018438065 0.0050328667 -0.029614108
0000b0 8b ce 83 3c b5 66 a1 3b 7c 3f d6 3c c0 2b ad bb
       0.016089698 0.0049255737 0.026153319 -0.0052847564
0000c0 f4 17 8c bd c6 64 31 3c c2 b7 3f bb 6a 5b 32 b8
       -0.06840506 0.010827249 -0.0029253815 -4.2523643e-05
0000d0 75 9c 29 bc a8 72 7f bb 76 70 d1 3b b8 1d cf bc
       -0.010352244 -0.0038978253 0.00639158 -0.025282726

first_part.1.weight f4 [56]
000000 e5 c0 94 3e 67 d5 74 3e ff 7a 84 3e f9 77 67 3e
       0.29053417 0.23909532 0.2587509 0.2260436
000010 b3 ac 79 3e 49 f3 5d 3e fa 87 78 3e 19 0e ff 3b
       0.24382286 0.21674837 0.24270621 0.007783663
000020 60 81 41 3f d2 0d 36 be c5 24 4a 40 40 eb 7f 3e
       0.75588036 -0.1777871 3.1584942 0.24992085
000030 7d 03 98 3e 94 45 78 3e 97 29 6f 3e aa 72 89 be
       0.2969016 0.24245292 0.23355709 -0.26845294
000040 fb 91 1c 3f 2e 69 9a 3e d5 97 5e 3e 5f f6 87 3e
       0.6116025 0.3015837 0.21737607 0.26555154
000050 a0 07 80 3e 08 2e 5c 3c ba c1 82 3e c1 53 6e 3e
       0.25005817 0.013438709 0.25538427 0.23274137
000060 4c a1 f6 bf 06 88 80 3e 46 67 43 bd 91 8b 84 3e
       -1.9267974 0.25103778 -0.04770591 0.2588773
000070 65 52 7e 3e 38 7a 72 3e 4f cc 6e 3e fe 9c 07 bf
       0.24836119 0.23679435 0.23320125 -0.52973926
000080 c6 38 52 3f 00 00 80 3e bc 63 85 3e fb 2d ec 3e
       0.8211788 0.25 0.26052654 0.4612883
000090 e2 d9 53 3e 44 01 86 3f f5 3c 9e 3e 47 32 59 3e
       0.20688584 1.0469136 0.30905882 0.21210586
0000a0 98 a3 f3 3e d6 b9 96 3e 5b 21 87 3e 56 36 08 3f
       0.4758575 0.29438657 0.26392636 0.5320791
0000b0 4d a1 dc 3f 9d c4 71 3e cf 8d 67 3e f7 1f 7f 3e
       1.7236725 0.23610158 0.2261269 0.24914537
0000c0 81 3e 17 3f d0 c5 75 3e a6 af 43 3f 37 8d 77 3e
       0.5907975 0.2400124 0.76439893 0.24174963
0000d0 e1 b0 7e 3e 1d 0f 33 3e d2 ec 88 3e a2 da a8 3e
       0.24872161 0.17486234 0.2674318 0.32979304

mid_part.0.weight f4 [12, 56, 1, 1]
000000 86 a9 12 3f a7 1c 80 3e e8 bf 45 bf 85 09 17 3f
       0.5728992 0.2502186 -0.7724595 0.589989
000010 62 91 c4 3e 3b 99 73 3e 2f c8 66 bd 39 d7 ba 3e
       0.38392168 0.23788922 -0.056343254 0.36492327
000020 5b fb 3e 3e 57 27 97 bf 62 32 1c 3f 59 e3 de bc
       0.18650572 -1.180888 0.6101438 -0.027208017
000030 ee 45 96 be 73 fc 82 3f 09 19 d9 3e 02 e0 b4 3e
       -0.29350227 1.0233291 0.42401913 0.35327154
000040 b7 0d d6 3d 31 62 b5 3d 48 ac 1c 3f 9e 31 8d be
       0.10451835 0.08856619 0.6120038 -0.27576917
000050 87 1d 9c bc d3 63 43 3f 15 3a be be 4c 91 ff be
       -0.019057048 0.76324195 -0.37153688 -0.4991554
000060 68 c8 9b bd 8c 3c 8a bd 4d b3 d9 3e 76 2b 41 bf
       -0.07606584 -0.0674983 0.42519608 -0.7545694
000070 59 c3 58 3e 86 6b c0 3e ee f1 9a bc fc b2 01 3f
       0.21168269 0.37582034 -0.01891419 0.50663733
000080 98 09 08 3f f9 ef 14 3e dd ac 05 bf b3 ec 2e bf
       0.5313964 0.14544667 -0.52216893 -0.68329924
000090 a6 8f c7 3d 65 d8 d1 bc d1 d3 3b be 03 e3 fe 3e
       0.09744196 -0.02561588 -0.1834252 0.4978257
0000a0 20 b3 d0 bc 99 2e 09 3f a1 74 d5 be 77 08 20 be
       -0.025476038 0.5358673 -0.41690543 -0.15628229
0000b0 e0 f4 15 be d6 df c6 bd bd 87 f8 bd 53 af 1d bf
       -0.14644194 -0.09710662 -0.12135265 -0.6159565
0000c0 c4 e9 4c be 75 0f 2b bf a6 ff 56 bd 34 e9 47 be
       -0.2001105 -0.6682046 -0.0524899 -0.19522554
0000d0 e3 20 32 bf 6f a3 d8 3d 45 78 a5 be cb 9f 24 be
       -0.6958143 0.105780475 -0.3231832 -0.16076581
0000e0 54 a4 af be 27 09 75 bf ed 21 f7 3e 00 3c 81 3b
       -0.3430506 -0.9571709 0.4826807 0.00394392
0000f0 a3 a0 1b bd 61 26 75 3f 33 23 3d 3f 42 09 05 3f
       -0.037994992 0.95761687 0.73881835 0.5196725
000100 7f 47 35 3d f3 dc c5 bd 0d db 14 bd ba 91 fc be
       0.044257637 -0.09661283 -0.036341716 -0.4932993
000110 bd 73 15 3e bf 22 27 3e 97 85 14 bf c8 a0 4d 3e
       0.14594932 0.16321848 -0.5801634 0.20080864
000120 13 28 e2 be 72 86 63 3e 8b 26 2d 3f 49 3a e5 bd
       -0.441712 0.22219256 0.67636937 -0.11192758
000130 16 1d 5a 3f 4f 8c 54 be f5 0a d9 3d 8c 95 c0 be
       0.8520063 -0.20756648 0.10597793 -0.37614095
000140 54 a0 b8 be 9f 32 ba bd 33 c8 e8 3d 34 ab 10 bf
       -0.3605982 -0.090916865 0.1136631 -0.56511235
000150 13 c5 06 3f 35 d0 3d 3f b2 95 56 be 16 9e ec 3e
       0.5264446 0.74145824 -0.20955542 0.4621436
000160 3e ed 0f 3e 7b e2 d3 be af 1f bd 3d 51 a6 ea bd
       0.14055344 -0.41383728 0.09234559 -0.114575036
000170 3b 16 87 3e 1d 62 74 3e ee d1 27 bf 80 80 63 be
       0.26384148 0.23865552 -0.655547 -0.22216988
000180 50 3c 1a 3e fe 15 2d 3f 38 83 8d be 6a e3 65 3f
       0.1506207 0.6761168 -0.27639174 0.8980013
000190 25 f2 3a 3f d9 5e e2 3d 79 32 fd 3e 40 b7 e4 3d
       0.73025733 0.11053247 0.4945257 0.11167765
0001a0 f7 44 ba 3e 37 82 08 3d 2a f3 57 3f 39 64 ff be
       0.3638074 0.033327308 0.84355414 -0.4988115
0001b0 d8 c9 90 bd 3f e9 4e be 56 f9 23 3f e6 f2 f1 be
       -0.07069749 -0.20206164 0.6405233 -0.4725563
0001c0 a3 c0 88 3e 2c d8 1c bf b1 17 8a be f8 15 c6 be
       0.2670947 -0.6126735 -0.269712 -0.38688636
0001d0 4d de a2 bd e1 03 16 3f 29 a2 f3 bd 83 91 63 bd
       -0.07952557 0.5859967 -0.11896164 -0.055558693
0001e0 14 e9 25 3f 97 c6 48 3f 82 1e c9 3d 09 8a 51 3f
       0.64808774 0.78428024 0.09820272 0.8185125
0001f0 f9 5d dc be 68 2f 17 be 6a 7d d5 bd e9 91 d0 3e
       -0.43040445 -0.14764178 -0.104243115 0.4073632
000200 a2 87 41 bc 59 99 20 be 68 2e f1 3e f7 b2 bb 3e
       -0.011812123 -0.15683497 0.47105718 0.36659977
000210 c0 a9 08 bf 5e 03 6e 3e 63 b7 08 be f4 58 92 be
       -0.5338402 0.23243472 -0.13351206 -0.2858349
000220 3f 2d d1 3e a0 91 aa be 53 72 25 be 10 dd 80 be
       0.40854833 -0.33314228 -0.16156892 -0.25168657
000230 26 6e f3 be 34 e8 dd 3e d4 ef e3 3c 85 7a 1c be
       -0.47544974 0.4334122 0.02782432 -0.15281112
000240 d7 b3 f6 3e 0a 0a 32 3f 26 b2 23 3f f1 ec c4 3e
       0.48184082 0.6954657 0.6394371 0.38462022
000250 c3 d6 9d 3e 26 8d a0 3e 86 4b e9 be 6e 66 08 3e
       0.30827913 0.31357688 -0.45565432 0.13320324
000260 c8 4a e1 bc 29 21 0e 3e ff 77 57 be 8e 1e c2 bb
       -0.027501479 0.13879837 -0.21041869 -0.0059240526
000270 c4 45 13 3e 32 03 d3 3e df 1b 80 3e e7 dd f7 3e
       0.14382082 0.41213375 0.25021264 0.48411486
000280 cd b9 ee bb 3b 9f 0c 3f ef c2 62 3e f7 3a 16 bf
       -0.007285333 0.54930466 0.22144674 -0.58683723
000290 18 5c b6 3c 9a 4b e8 3e 17 26 b3 be 08 05 a3 be
       0.02226071 0.4537018 -0.34989998 -0.31839776
0002a0 42 0a 61 3d 56 d3 84 3e dd 60 14 be 4a f7 ef 3d
       0.054941423 0.25942487 -0.14490075 0.117170885
0002b0 14 09 86 3e 14 56 9d bd e6 56 18 be 3a 36 9f 3e
       0.261788 -0.07682434 -0.14876899 0.3109606
0002c0 97 21 11 bf db dc c8 be 0b 5b 0c 3f 1d 66 af be
       -0.5669188 -0.39231 0.5482642 -0.34257594
0002d0 1c 57 9e 3e b2 19 01 bf 23 37 28 3f 52 3b 52 bd
       0.30925834 -0.5042983 0.6570913 -0.051326104
0002e0 9a be 1b 3e c4 f7 7a 3e aa bf 76 3c 9f 19 5e 3f
       0.15209427 0.24508578 0.015060345 0.86757845
0002f0 5d 31 f4 be 85 95 20 3f 57 db ae be 53 52 be be
       -0.4769391 0.6272815 -0.34151718 -0.37172183
000300 2f a6 fb 3e a8 a5 8f 3d d7 2e e8 be 5a 3a 76 3f
       0.49150226 0.07014018 -0.45348236 0.9618279
000310 e1 47 fb 3d 3f d3 c5 3e 15 f8 0d bc 42 da 04 be
       0.12269569 0.3863773 -0.008665104 -0.12973884
000320 d7 cf 08 bf eb cf 60 3e fd e0 09 be 4d 8e f3 3e
       -0.5344214 0.21954314 -0.13464732 0.47569504
000330 3b 8d 0c 3e d8 a0 fc bd 32 8e 59 3c ff 7e 91 3e
       0.1372575 -0.12335366 0.013278531 0.28417203
000340 71 db 17 be fb 06 87 3f ef db 42 3f d3 69 2f 3f
       -0.14829804 1.0549005 0.7611684 0.6852085
000350 54 d8 7a bf 5e 53 4d be 0a a9 fa 3e 2d a3 a3 bd
       -0.9798634 -0.20051333 0.48957092 -0.07990108
000360 95 44 cb 3e cd db 1e 3f f7 69 8f be dc 9c c3 be
       0.3970076 0.6205414 -0.28010532 -0.38205612
000370 b6 96 55 be 08 40 ed 3e b4 d4 55 be 8f e7 01 3f
       -0.20858273 0.46337914 -0.20881921 0.50743955
000380 4e 2a c0 be f5 54 cc bc 4b a4 03 3e 59 85 1d be
       -0.37532276 -0.024942854 0.12855642 -0.153829
000390 a8 03 2b be fb 7c a2 be d3 03 61 be 4d 16 30 3f
       -0.16700613 -0.31735978 -0.21974115 0.6878403
0003a0 05 31 e8 3e 9a b0 89 be 3d 33 83 be 4a 8f 24 3c
       0.453499 -0.2689255 -0.2562503 0.010043928
0003b0 4c 1a cd bf 69 2a 4f 3f f8 6e 44 3f 3c 84 dd 3d
       -1.602365 0.8092409 0.76731825 0.10816237
0003c0 2d 51 8a 3e 68 70 11 be 4e 31 30 be d3 91 9c be
       0.27015057 -0.14203036 -0.17206308 -0.30580005
0003d0 aa 81 89 3e 8a 0d 64 3e 7a b5 b4 3e 1d eb 2b 3d
       0.26856738 0.2227079 0.35294706 0.04197227
0003e0 b6 e4 65 bd d4 f2 40 be 22 db 0e 3f 53 e8 8f 3e
       -0.05612632 -0.18842632 0.5580312 0.28106937
0003f0 9b df 20 bf 01 fb 92 be 26 95 2e 3e 1e df 38 bd
       -0.62841195 -0.28707126 0.17049083 -0.045134656

mid_part.0.bias f4 [12]
000000 7a 33 df 3c 35 8a 98 bc 97 75 5b 3a a6 dc 1b bc
       0.027246226 -0.01862059 0.0008371709 -0.009513056
000010 5c aa 5c 3d b8 b2 69 3c cc 1b f7 bb 93 d1 2b 3d
       0.053873405 0.014263801 -0.0075411554 0.041947912
000020 fa 8a 46 bc 07 15 3e bc 80 3c f4 bb e2 76 c9 3c
       -0.0121180955 -0.011601693 -0.007453501 0.02459282

mid_part.1.weight f4 [12]
000000 2d 57 7e 3e 99 f4 b9 3e 00 00 80 3e ca ce 79 3e
       0.24837942 0.36319426 0.25 0.2439529
000010 ad 7c d7 3e 3d ff cd 3f 03 a7 1e 3e 9c d6 90 be
       0.42087308 1.6093518 0.15493397 -0.28288734
000020 2e f7 87 3e 90 43 08 3f 5b d6 9f 3f c8 96 86 3e
       0.2655577 0.5322809 1.2487291 0.26286912

mid_part.2.weight f4 [12, 12, 3, 3]
000000 db 9c 74 3e 40 e7 8d 3d 7e b2 84 bc 92 b7 8f be
       0.2388796 0.06928873 -0.016198393 -0.2806974
000010 61 9b 34 3e 00 2a 02 be 3a b6 d6 bd 32 e9 56 bd
       0.17637397 -0.12711334 -0.10483976 -0.052468486
000020 31 f1 74 3d bb c0 2a 3e a2 3f 6d be 46 f2 50 3e
       0.05980033 0.16675083 -0.23168805 0.2040492
000030 27 17 1c 3d 3b a1 08 be c2 80 0c be 18 4a 81 bd
       0.038108017 -0.13342755 -0.13720992 -0.063129604
000040 7f 7a 20 be ec 42 08 3d 81 90 b7 3d 42 0e 20 3e
       -0.15671729 0.033266947 0.08963109 0.15630439
000050 2b 72 79 3d 5e fa 21 3e 86 f0 d2 3a d3 95 d7 bc
       0.060899895 0.15818164 0.001609341 -0.026316559
000060 5b c0 84 3e aa 9e 64 3d ec 8b 95 bd 33 23 28 3d
       0.25928006 0.055815376 -0.073020786 0.041049194
000070 60 71 65 bd b4 da f8 3d 71 f0 16 3e d3 3e ad be
       -0.056016326 0.12151089 0.14740159 -0.33836994
000080 89 f9 85 be ca b5 01 be a3 2d 66 bc 11 aa 06 3e
       -0.26166943 -0.12667003 -0.014048967 0.13150813
000090 bf 37 2d be 0f 6f ce bd 75 bb a0 bd 65 06 8e bb
       -0.16915797 -0.100797765 -0.078482546 -0.0043342584
0000a0 33 87 73 3e 2f 3d 6a be b5 de c8 3c f9 36 77 bc
       0.23782043 -0.22874902 0.024520257 -0.01508879
0000b0 95 3b 43 3d 5e 1a 64 3e 48 60 41 3d 39 de 5a 3e
       0.047664244 0.22275683 0.04721096 0.21373834
0000c0 b6 47 63 bd 32 12 df bd 3f 09 9a 3d 93 b6 c5 bd
       -0.05548831 -0.10892142 0.07521295 -0.09653964
0000d0 ab 1b 89 3d c5 b8 cb bd d0 40 2f be 3e 0b 98 bb
       0.0669473 -0.09947351 -0.17114568 -0.004640012
0000e0 16 f8 a6 3b 24 2b 51 3e c9 55 4d bd 97 0d 5a 3d
       0.005095492 0.20426613 -0.05013064 0.053235617
0000f0 6b 9f aa bd 13 49 d2 3d d6 90 17 3e c3 76 1f 3e
       -0.08331188 0.10267844 0.14801344 0.15572648
000100 11 c9 96 bc 44 1e 40 3e 6c 76 9f bc e0 5d 56 3d
       -0.018406423 0.18761545 -0.019465648 0.05233562
000110 2a 62 f5 3c c3 27 47 bc b5 41 47 be e5 d6 59 be
       0.029954035 -0.012155476 -0.19458659 -0.21273382
000120 e2 1e be bc 69 12 25 bd 1b 88 02 3d 23 12 3b be
       -0.023208085 -0.04030076 0.03186808 -0.18268637
000130 66 7c 95 3e e3 5b 95 bd aa 10 5b bd 3c cd 3d bd
       0.2919647 -0.072929166 -0.05348269 -0.046338305
000140 84 2b 05 3d eb 51 42 be 9d 66 05 3d 45 2a 2e 3d
       0.032512203 -0.18976562 0.032568563 0.04252078
000150 13 8c e2 3c 73 0d e0 3d ba ef e0 3d a9 3b 11 be
       0.027654683 0.10940065 0.10983224 -0.14182915
000160 11 a8 0b bd 0c 15 b1 3c 04 7f 85 3d ca fe 75 bb
       -0.034095827 0.021616481 0.06518367 -0.00375359
000170 b7 21 6f 3e 43 3b f4 bd 1a 69 64 bd e2 4a ad bd
       0.23352705 -0.11925366 -0.055764295 -0.084615484
000180 fa 96 fc 3c 8b 72 d2 3d 4e 54 b3 3c 09 44 b4 3d
       0.03083371 0.102757536 0.021890786 0.08802039
000190 95 89 7e bd c8 f0 b5 bd 87 c4 2c bc ba 39 00 3e
       -0.062142927 -0.08883816 -0.010544903 0.12522021
0001a0 ba ec 08 3d 71 0a 03 3e af 79 90 3d ec e0 d3 39
       0.033428885 0.12796952 0.07054459 0.00040412636
0001b0 be 4d 07 3d 2f 7c 4b bd 70 62 a8 3b ba 24 29 bd
       0.033033125 -0.049678978 0.005138688 -0.04129479
0001c0 82 c2 6f 3c 1f f8 7b be dc 8b 5a 3e 83 86 8f 3d
       0.014633777 -0.2460637 0.21342415 0.07008078
0001d0 54 1f 18 3e d3 9a 1e 3e e3 f4 a7 3d 71 6d 89 3b
       0.148557 0.15488748 0.08201005 0.0041939546
0001e0 ea ac 68 3e f8 d8 d4 3d 62 d0 9d 3b df d6 85 3d
       0.22722211 0.10392946 0.004816101 0.06535124
0001f0 7d 1f f2 bd c1 8f 04 3e a7 3c e7 bc c7 47 a5 be
       -0.11822412 0.12945463 -0.028227163 -0.32281324
000200 71 1b 25 be c3 69 b7 3c b8 3e 7d 3d 65 a6 95 be
       -0.1612375 0.022389298 0.06182739 -0.2922851
000210 b5 92 e4 bd 72 d2 bc 3d 09 fe ba bd 37 65 fd bb
       -0.11160795 0.09219827 -0.091304846 -0.007733013
000220 f6 6a 71 3e e0 40 fe bd 3d 0f e0 bd 79 d0 da bd
       0.23575959 -0.12414718 -0.109404065 -0.10684294
000230 5b c3 7c bd d4 d7 3a be 72 c4 9a 3e d2 59 fe bd
       -0.061709743 -0.18246394 0.30228 -0.124194756
000240 dd 6a 5e 3e 02 1a 36 be 44 07 ab bd 50 06 44 be
       0.21720453 -0.17783359 -0.08350995 -0.19143033
000250 99 20 28 be 95 c9 81 bb e2 fb d0 bd 65 eb 08 be
       -0.16418685 -0.003960798 -0.10204293 -0.13371046
000260 92 c2 6a bc 96 18 fb bd ae 87 1e 3d 18 a0 84 be
       -0.014328616 -0.12260549 0.038703613 -0.25903392
000270 9b e5 08 bb 81 13 d3 3d 3d fa d0 3d ea 13 18 3e
       -0.0020888809 0.103064544 0.10203979 0.14851347
000280 5a 24 69 bd 7b 09 ec bc 5e 41 25 3e a4 37 3a be
       -0.056919433 -0.028813114 0.16138217 -0.18185288
000290 e8 4b cc bd 53 17 91 3b a8 a8 62 3e b6 fa c7 3c
       -0.099754155 0.0044278293 0.2213465 0.02441154
0002a0 f4 25 ac be 4e 19 f9 3b ef 93 21 3e 17 ef 2a be
       -0.33622706 0.0076018935 0.15779088 -0.16692768
0002b0 3e 79 6b 3e 0a 66 1f bd 76 55 bc bd e0 b9 7e 3e
       0.22995469 -0.03891567 -0.09195988 0.24875593
0002c0 4f 45 7c 3e 74 3e 24 bd 9b 19 2d bd 78 85 53 bd
       0.24635814 -0.040098622 -0.042260747 -0.051640958
0002d0 e3 80 9a 3d 82 51 fb bd f9 a6 e0 3d cc 11 ef bc
       0.075441144 -0.12271406 0.109693475 -0.02918329
0002e0 7c a3 a0 3d 09 03 93 be 55 98 6e 3d 36 86 b2 bd
       0.07843682 -0.28713253 0.058250744 -0.08717005
0002f0 5a 84 d3 bd 0a db ca bd 53 ac d5 bc dc fa 32 bd
       -0.103279784 -0.0990506 -0.026083147 -0.04369627
000300 c7 66 8c bb 7c e6 44 bd 4a c9 67 3b 76 f0 2a be
       -0.004284713 -0.04807137 0.003536778 -0.16693291
000310 ca 13 ba bc 5a 44 1b 3d 39 2f 89 bd b7 a6 0c 3e
       -0.022714514 0.037906982 -0.0669846 0.13735472
000320 d0 4a 2a 3d 30 f5 81 3e ee 77 44 bd 51 6b 0e be
       0.041575253 0.25382376 -0.047965936 -0.13908125
000330 aa a2 14 be 86 b2 cc 3c 06 8b f4 3d c5 06 70 3e
       -0.14515176 0.02498747 0.11940579 0.23440082
000340 77 35 5f 3e 96 e3 a5 3d 80 d1 31 3d 3e e1 c5 3d
       0.21797739 0.08100049 0.043412685 0.09662102
000350 d1 54 4e 3e 1f 70 e2 bc 63 d7 21 3e ab 62 37 3e
       0.20149542 -0.027641354 0.1580482 0.17908733
000360 4a 08 8b 3d 68 a9 21 be 76 4c b7 3c 26 5d 97 bd
       0.067886904 -0.1578728 0.022375327 -0.073908135
000370 8a 53 07 3e f4 6e 37 3e cb 29 15 3e 7f 75 6b bd
       0.13215461 0.17913419 0.14566724 -0.0574851
000380 4a 10 8d 3e f0 08 9e bd 7b 93 d2 bd aa 92 80 3d
       0.2755149 -0.077165484 -0.10282036 0.06277974
000390 22 76 57 3e 74 7e 78 bd 08 c6 16 bc 60 c3 79 bd
       0.21041158 -0.06066747 -0.009202488 -0.06097734
0003a0 3a 8b f7 3d d6 2b d9 3d fb d5 11 3e 7c 62 8a be
       0.12087102 0.10604064 0.14241783 -0.27028263
0003b0 2e ef 52 be d8 27 88 3d d2 ed fb bd 39 c2 01 bc
       -0.20599052 0.066482246 -0.1230122 -0.007919841
0003c0 5c 57 f1 3d 58 29 07 3d 0a f8 12 3d ca 33 a1 bd
       0.117842406 0.032998413 0.03588108 -0.07871206
0003d0 ea 1e 8c 3b 48 0b 6b bd 6d a6 68 3e b9 f9 38 3e
       0.004276146 -0.057383806 0.22719736 0.18064012
0003e0 ff 09 17 3e 03 43 a4 3d 65 32 ba 3d 2b 1e a3 3c
       0.14749907 0.08020594 0.09091643 0.019911846
0003f0 4b fa a6 3e 38 b8 69 be bb d2 8e bd ae ff 29 3c
       0.32612833 -0.2282418 -0.069737874 0.0103759

mid_part.2.bias f4 [12]
000000 22 64 b9 3b 07 bc 84 bb dd b1 22 3c f0 28 91 bb
       0.0056576887 -0.004050735 0.009930101 -0.004429929
000010 99 e4 5e 3d 5a 54 d9 ba b2 13 2b bc f1 fe 37 bb
       0.054417226 -0.0016580925 -0.010441707 -0.002807554
000020 b8 4d 42 3d a6 6c fd 3b 44 4f 0b bc fd 2a d9 3c
       0.0474374 0.007733899 -0.008502785 0.026509756

mid_part.3.weight f4 [12]
000000 d3 a9 f1 bd 40 2b 7f 3e 31 d8 84 3e a9 5b a9 3f
       -0.117999695 0.24918842 0.2594619 1.3231097
000010 12 92 90 3e 06 c4 83 3e 46 d7 2b bf 06 8e cc 3e
       0.28236443 0.25735492 -0.67125356 0.39952105
000020 2d bc 01 3f 54 31 6a 3e f1 a6 86 3e 84 0b ae 3e
       0.5067776 0.2287038 0.2629924 0.3399316

mid_part.4.weight f4 [12, 12, 3, 3]
000000 f1 b4 53 3d 4b 45 26 bd 7a 68 70 3e af c3 94 3e
       0.05168623 -0.040593427 0.23477355 0.29055545
000010 16 c3 7b bc b9 12 02 3e 84 1c 01 be f1 8f 6f 3d
       -0.015366336 0.12702455 -0.12608534 0.058486883
000020 1e 7e b1 bd dc 26 62 be b3 6c ed bd 6f 9c b6 3e
       -0.08666633 -0.22085136 -0.11592998 0.35666224
000030 f2 8a 69 bd 33 a5 0c 3e d5 ea 0c be 4f d4 e2 bd
       -0.057017274 0.13734894 -0.13761456 -0.11075651
000040 d8 f7 8e 3c 52 3f 77 3e 6c 6a 30 be 63 f8 f0 3d
       0.017452165 0.24145249 -0.17228097 0.11766126
000050 fe a6 49 3d ce 5f 01 3e 4b 26 bc bc 07 1e 94 bd
       0.04923152 0.12634203 -0.022967478 -0.0723229
000060 7f 3e 61 bd cd 38 1c 3e 56 c4 55 3e 7c 95 01 bd
       -0.05499124 0.15256043 0.20875677 -0.0316367
000070 ab 04 8f be e1 1a b0 3e eb 62 ef 3d 79 14 0a 3d
       -0.2793325 0.34395507 0.11688789 0.03371093
000080 1f f7 d2 be b8 8e 8e bd 1a 44 61 3e fe 08 02 3e
       -0.41204163 -0.06960815 0.21998635 0.12698743
000090 8e 23 9f bd 7a be fe 3d 78 e8 a2 3e 7a 23 f4 bd
       -0.077704534 0.12438674 0.31817985 -0.11920829
0000a0 9b ec 66 3e cd 36 b1 3d e3 b9 93 be 88 f0 ab bd
       0.22551195 0.086530305 -0.28852758 -0.08395487
0000b0 a7 00 96 3e 9a 65 1d bd b4 e0 eb bd eb 6e e6 3d
       0.29297373 -0.038426973 -0.11517468 0.11251625
0000c0 84 fb 87 be de 2d d2 3d df a8 b8 be 3d 86 01 3d
       -0.2655908 0.10262655 -0.36066338 0.03162216
0000d0 58 b5 90 3e bd a8 1a be 59 34 fa 3d a7 7f 2a be
       0.28263354 -0.15103431 0.12217016 -0.16650258
0000e0 ff 4e 1d be 44 29 d9 3d 07 cb 02 3b 3a 71 00 be
       -0.15362166 0.10603574 0.001995744 -0.12543193
0000f0 46 9e fe bc 69 a9 86 be 3e d2 8b 3e 9b e5 d4 3c
       -0.03108133 -0.26301125 0.2730884 0.02598839
000100 56 bb e1 bd 67 d5 86 3e 0e 5b de bc 74 12 8c 3d
       -0.110220596 0.26334688 -0.027143028 0.06839457
000110 1e b2 fb 3d 56 6a 45 be 43 2d a8 bd 1e 3f da bd
       0.122898325 -0.19278845 -0.08211758 -0.1065657
000120 1d 84 39 bd e8 74 3b be d2 92 89 3b b6 ef 75 bd
       -0.04529201 -0.18306315 0.0041984105 -0.06004306
000130 3c bc 7d bd 53 a1 8b bd 06 ee 62 3d 9c ba 55 3c
       -0.061947092 -0.068178795 0.055402778 0.013044979
000140 8f f2 7b 3e e8 11 fa 3d 5f 80 c8 3c cb de 67 3e
       0.24604248 0.122104466 0.024475275 0.22643583
000150 34 66 08 3e db be 12 3e 2e 63 4c bd c2 c1 ab 3d
       0.13320237 0.14330618 -0.049899273 0.08386566
000160 28 98 33 3e a5 28 ab be 70 94 3e be ee ac 51 3e
       0.17538512 -0.33429447 -0.18611312 0.20476124
000170 5c 15 22 bb a5 91 1e 3d 42 43 e0 ba 28 ef 41 bc
       -0.002473197 0.038713116 -0.0017109888 -0.011836804
000180 75 b7 43 be 65 ed 5f 3a 71 ec f4 3d ba a8 d3 bc
       -0.19112952 0.00085421494 0.1195916 -0.025837291
000190 11 56 95 bd 3e 9f b5 be 7c 29 6e be 6c 48 91 3e
       -0.072918065 -0.35473055 -0.23258013 0.28375566
0001a0 dd 9a cb be e6 d6 93 bd 16 dc f9 3d b7 2c 5e 3d
       -0.3976659 -0.07218723 0.12200181 0.054241862
0001b0 9c a0 fc 3d c2 0a 54 be a6 0a 15 bd 5a c7 7f 3e
       0.12335321 -0.20707229 -0.03638711 0.2497839
0001c0 52 b4 73 3d 10 f1 ad 3d 1f 48 8d 3e 95 e8 83 be
       0.05949814 0.08493245 0.27594087 -0.25763384
0001d0 77 89 9f 3c f4 c1 0a bd 0a 14 92 3d 1c b9 9a bc
       0.019474728 -0.033876374 0.071327284 -0.018887095
0001e0 e8 81 93 3e 1d ea 9a 3d 70 fe b1 3e 53 4c 7e be
       0.28810048 0.07564185 0.34764433 -0.24833803
0001f0 f9 f6 82 be 4f b0 97 bd 68 3c 4e be 19 9f 00 3e
       -0.2557905 -0.07406675 -0.2014023 0.12560691
000200 35 ec 22 bd 73 c1 ed be e9 f6 21 be fe 0c f3 bc
       -0.039776046 -0.46436653 -0.15816845 -0.029669281
000210 a1 ec 00 bf 38 90 3d be d9 1d ca 3d b1 84 a7 bc
       -0.5036107 -0.18512046 0.09868974 -0.020449014
000220 59 4d 37 3e 14 d9 58 3e 64 e7 e4 3d 11 8c 9b 3e
       0.179006 0.21176559 0.11176947 0.303803
000230 d0 da 53 3d 56 89 c6 3e c9 1c ad 3e 7a 68 70 bd
       0.051722348 0.38776654 0.33811024 -0.058693387
000240 d4 af 58 bd 0f b1 8c bd 12 14 d3 bd de d6 b7 bd
       -0.052902058 -0.06869709 -0.103065625 -0.089765295
000250 33 c0 a3 3d 77 9a 4c 3d a1 cf a2 be 7d 66 86 bd
       0.079956435 0.049951997 -0.31799033 -0.06562517
000260 0d a5 77 bc 86 2a 74 bb 99 81 34 be 1b 43 82 3e
       -0.015115035 -0.0037256791 -0.17627563 0.25441822
000270 dc 46 65 be f7 96 1e bb a2 e2 09 3e 4b 9a 0d be
       -0.22390312 -0.0024198869 0.1346536 -0.1382839
000280 fd 43 a1 3d 4b 9b 33 bd c3 3c 8b 3e 2c c8 90 b9
       0.07874296 -0.04384927 0.27194795 -0.0002761496
000290 b0 41 65 bd 37 ed ad 3e 65 0b 93 bd 78 ce 01 3d
       -0.055970848 0.33970043 -0.07179908 0.031691045
0002a0 6f a5 f2 3d b4 ef 5a bd 22 79 8a be 69 a1 aa 3e
       0.1184796 -0.053451255 -0.27045542 0.3332627
0002b0 ad 45 5e be da f9 62 be 00 33 3e bd a6 ae a0 bc
       -0.21706267 -0.22165623 -0.046435356 -0.019614529
0002c0 ab 71 ca 3d 11 67 6e 3e c8 92 ec 3d bb 29 d5 3e
       0.09884962 0.23281504 0.11551434 0.416334
0002d0 9c c0 67 3d 08 7c 7d be c4 b8 36 be b8 dc 49 3c
       0.05658017 -0.24754345 -0.1784392 0.01232069
0002e0 ec a7 02 be 12 0f a2 3d 28 25 37 3e f4 1f 8b 3e
       -0.1275937 0.07913031 0.17885268 0.27172816
0002f0 ae 6f ec 3d c2 7c e3 be 8a 6c e2 3d 65 69 26 be
       0.11544739 -0.4443112 0.110558584 -0.16251142
000300 31 a7 37 3e 89 ec 5c 3e c1 e6 3f bd a0 a9 b8 3c
       0.17934872 0.21574606 -0.046850923 0.022541821
000310 f9 6a 2c bd 30 be bf 3d 58 ce e4 bd 9d 2d 22 be
       -0.042094205 0.09362447 -0.111721694 -0.15837713
000320 cc 9e 8b 3d a1 f8 a4 3e b9 53 d8 3e 0b d1 24 3e
       0.068173975 0.3222094 0.42251375 0.16095369
000330 9b c8 73 be d2 95 20 bc 95 12 c7 3c 83 63 81 be
       -0.23806994 -0.009801345 0.024300853 -0.25271234
000340 bd 0a 93 be 60 f3 b8 be 2e 15 05 be ce 3c 85 3d
       -0.2871913 -0.3612318 -0.1299636 0.06505738
000350 17 60 a9 bc 64 0a 29 3f e9 73 a9 3e 7a 8b 47 3e
       -0.020675702 0.6603148 0.33096245 0.194868
000360 6b 3b 44 3e 43 fe 4c be cb 71 20 3e 51 af 62 3d
       0.19163291 -0.20018868 0.15668409 0.055342976
000370 11 d7 ce 3c 84 87 d9 bc 0d 57 2c be e5 71 97 3e
       0.025249036 -0.026553877 -0.16830082 0.29579082
000380 fa 63 a8 3c fd f6 5d 3e d3 b5 84 3c 53 36 35 3e
       0.020555485 0.2167625 0.016199982 0.17696504
000390 15 a8 e9 bb 52 4c 13 3d f1 93 d0 3d 56 55 2b 3b
       -0.0071306326 0.035961457 0.101844676 0.0026143393
0003a0 a2 eb ae 3d 03 f5 ad 3c 87 69 c8 bd bf fd 63 3d
       0.08541037 0.021234995 -0.09785753 0.055661913
0003b0 67 cc 29 3e 16 1e 14 bd 4c 8f 35 3e 77 ff 36 3e
       0.1658188 -0.036161505 0.17730445 0.1787089
0003c0 aa cf 50 3d a1 73 ce bb af 46 3e be ea ce 75 be
       0.050979294 -0.006300405 -0.18581651 -0.24004713
0003d0 12 72 84 be 05 35 e0 bd f8 d5 86 3c 11 68 37 3e
       -0.2586828 -0.10947613 0.01645945 0.17910792
0003e0 6c 3a af 3d 64 a9 27 3e 1d 1d 02 be af 0f 53 bd
       0.08556065 0.16373211 -0.12706418 -0.05152863
0003f0 50 33 11 be 96 95 8b be f3 3a e0 bd 62 96 c3 bc
       -0.1417973 -0.27262563 -0.10948744 -0.023875419

mid_part.4.bias f4 [12]
000000 1a 9c 80 3c 54 f5 c2 bc ef a5 01 bd 6b 7a 77 3d
       0.015699435 -0.023798622 -0.031652387 0.06041948
000010 6b 99 d5 3b 0a dd 89 3b 49 39 a9 3b 38 d5 e4 ba
       0.006518533 0.004207258 0.0051642996 -0.0017458564
000020 f4 3c 24 3d ce a6 cb 3c e8 04 0f bd eb b6 18 bd
       0.040097192 0.024859812 -0.03491679 -0.03728382

mid_part.5.weight f4 [12]
000000 cb af db 3e b1 2e 2a 3f f4 4c a7 3e 9d d5 8c 3e
       0.42907557 0.66477495 0.32675898 0.27506724
000010 13 ff aa 3f b7 7b 5b 3f 66 87 f0 bd 56 94 b3 3d
       1.3359092 0.8573565 -0.11744575 0.08768527
000020 55 4e 8c bd e8 de 26 3e 70 59 a7 3e a9 06 77 3e
       -0.06850878 0.1629597 0.32685423 0.24123634

mid_part.6.weight f4 [12, 12, 3, 3]
000000 60 41 4b 3d f2 e8 d2 bd 73 86 70 bd cf 27 ad 3c
       0.049622893 -0.10298337 -0.05872197 0.021137146
000010 95 3d fe 3d c0 f3 04 3e ce 2e eb bc b8 c9 d3 3d
       0.124140896 0.12983608 -0.028708842 0.10341209
000020 61 69 33 3d a3 38 82 3d df 72 99 3e f3 43 1a 3e
       0.04380167 0.06358459 0.29970452 0.15064983
000030 24 36 2a 3d cc eb 48 3e f0 43 05 3e 78 45 aa bc
       0.04155554 0.196212 0.13014197 -0.020785078
000040 8c 82 79 be ac 92 8d 3d a9 21 87 3d 52 8b d4 bd
       -0.24366206 0.06912741 0.06598217 -0.10378136
000050 9f 2b 4b 3d 88 5b c5 3d f2 03 06 3d dd b5 dc bd
       0.049602147 0.09636599 0.032718606 -0.10776875
000060 0b 53 54 be c0 c5 0f be 64 dc d5 3d 46 df de 3d
       -0.20734803 -0.1404028 0.10442427 0.1088243
000070 c7 e3 e5 bd 5d 7c 49 be 17 c3 1c be 7c 61 3b 3e
       -0.11225086 -0.19676347 -0.15308796 0.18298906
000080 b6 ba e1 3d 52 6b 72 3d 78 d0 44 be e8 77 0a be
       0.110219404 0.05918438 -0.1922015 -0.13522303
000090 dc 5c 9a bb 4f 90 3c 3e bb f2 b1 bd 28 e0 34 3e
       -0.0047107767 0.18414424 -0.08688875 0.17663634
0000a0 70 b4 04 3e d5 20 f7 bd 86 b9 0e bd 7f ca 40 3e
       0.12959456 -0.12066809 -0.034844898 0.18827246
0000b0 66 cd 2b bd 6b f7 28 be ff 35 cf be e9 02 c8 3d
       -0.04194393 -0.16500632 -0.40470883 0.0976618
0000c0 a1 ff 4a 3e b3 16 df 3c 54 72 bd 3c fa 9e af 3d
       0.19824077 0.027232504 0.023125805 0.08575244
0000d0 6f f3 e7 3d 5f c0 5a 3e a7 a2 18 3e c2 c9 5b be
       0.11325728 0.21362446 0.14905797 -0.21463683
0000e0 7c e1 2a 3d 60 37 85 3d 18 fd 0d 3d e1 ba 57 3d
       0.041718945 0.065047026 0.034665197 0.052668456
0000f0 e2 a5 53 3e 39 c9 62 3e 96 a8 0a 3e 58 f4 d1 bd
       0.20668748 0.22147073 0.13540873 -0.10251683
000100 e7 7d ad bd ef c0 18 3e a4 fa 36 bd 87 16 20 be
       -0.084712796 0.14917348 -0.044672623 -0.15633593
000110 5c 5b a3 3c 7a a1 5f 3d 93 8d 11 3d 5a 00 44 be
       0.019941024 0.054597355 0.035535406 -0.19140759
000120 e5 60 9a bc 96 84 15 3e 5f ef 76 3e 70 77 26 bc
       -0.018845031 0.14601359 0.2411475 -0.010160312
000130 07 a7 73 3d 08 c5 35 3c f5 50 5a 3c e9 2b 33 be
       0.05948546 0.011094339 0.013324966 -0.17497219
000140 bb 71 6f 3d 26 18 04 bc 53 3a 3b 3e b8 2a 0a 3d
       0.05845807 -0.008062398 0.18283968 0.033732146
000150 3e 3a 2b be 83 7e 2e 3d 21 9d 43 3e 56 a2 59 be
       -0.16721436 0.04260112 0.19102909 -0.21253332
000160 ec c8 00 be 3b 8e 73 be b9 7a f8 bd c2 e6 3f 3e
       -0.12576646 -0.23784725 -0.121327825 0.18740371
000170 5c 64 6a 3b ef 0b d6 bc ae e9 c3 bd eb db 67 3d
       0.0035765385 -0.026128737 -0.09566055 0.056606214
000180 a3 dd cd bd 79 b8 45 3e 0e 68 e9 bd 6e ae 07 3e
       -0.100520395 0.19308652 -0.113968 0.13250133
000190 ff d2 0f 3d d5 90 f5 3c 1a 93 94 3d 62 83 e7 bd
       0.03511333 0.029976288 0.0725462 -0.11304356
0001a0 86 17 d5 bc e9 54 2b 3e 06 9f 06 be 12 c3 82 bb
       -0.026012193 0.1673161 -0.131466 -0.0039905393
0001b0 b8 9e 8f 3e d4 0a ba 3d a5 ee 17 3e b8 68 98 bd
       0.2805078 0.090840966 0.1483713 -0.074418485
0001c0 6f 9c 85 be 6c 47 3e 3e e6 9f f7 3d 6d 80 a7 3d
       -0.26095912 0.18581933 0.12091045 0.08178792
0001d0 dd 2b f5 bc c1 6f c0 bd 61 98 9a bc 70 90 ea 3e
       -0.029928142 -0.09396315 -0.018871488 0.45813322
0001e0 b0 ef 6e be 87 d1 9d 3c cb 25 b7 3c 79 91 b0 3d
       -0.23333621 0.01926495 0.022356888 0.08621497
0001f0 12 69 40 3d 88 af 45 3d 83 9e 2c 3e 7d 11 f4 3d
       0.046975203 0.048263103 0.16857342 0.11917398
000200 a6 a4 59 bd 58 0c f8 3d 90 09 d6 3d c9 5a 2f 3e
       -0.053135537 0.121117294 0.10451043 0.17124476
000210 5a 80 00 bc cd 27 98 bd a3 31 46 3d 86 bb fb 3c
       -0.007843101 -0.074294664 0.04838718 0.030729067
000220 4a 46 16 3e 86 c8 a9 be e2 69 84 be 41 f1 84 3e
       0.1467525 -0.331608 -0.25862032 0.25965312
000230 a5 a7 cd 3c b5 27 1f be dd 8b 69 be 8c 5c 21 3e
       0.025104353 -0.15542491 -0.2280726 0.1575796
000240 a5 41 65 3d 5d 8e a1 bd 8b ba 08 3e 48 68 d6 3d
       0.055970807 -0.07888482 0.1335241 0.10469109
000250 2c 90 52 bd 33 b3 18 be 1c 01 96 3d 10 74 7e 3e
       -0.051407024 -0.14912109 0.0732443 0.24848962
000260 0d dc 05 3d 52 2f 4d 3d 2e df 27 3d e8 5b 0e 3e
       0.03268056 0.050093956 0.040984325 0.13902247
000270 33 8c 3e be 4f 02 a2 3c bb 64 55 3d 92 83 41 3c
       -0.1860817 0.019776491 0.052098017 0.011811154
000280 b6 be bf bc ec c9 1c 3d 15 aa 3c 3e 71 74 9d bb
       -0.023406368 0.038278505 0.18424256 -0.0048051407
000290 8b b1 ac bc ee 97 bd bb 54 b8 d7 3d 01 da 58 3c
       -0.021080753 -0.0057859337 0.10533205 0.01323557
0002a0 4c e4 75 bd 89 e2 eb bd d2 32 b0 bd d7 4a 07 3e
       -0.060032174 -0.115178175 -0.08603443 0.13212143
0002b0 2e e2 e3 bc 1b 0d e8 3d d9 8c 3f 3d 6b af 2c 3e
       -0.027817812 0.11330625 0.046765182 0.16863792
0002c0 15 d4 68 be a6 78 5b bd d0 85 ea bc 82 5c 0c be
       -0.22737153 -0.053581856 -0.02862826 -0.13707164
0002d0 94 11 30 3e e4 f1 ca be 04 98 60 3e 69 fe 5e 3d
       0.17194206 -0.39637673 0.2193299 0.054441843
0002e0 85 0b eb bc 0d 0e 06 3e b6 66 ad bc 83 1f 56 3e
       -0.028692016 0.13091297 -0.02116714 0.20910458
0002f0 83 cd 94 bd cb 2b e4 3d 44 eb 06 3d 69 b5 b7 3c
       -0.07265761 0.11141165 0.03293921 0.02242537
000300 02 34 f1 3d 9e 88 67 3e 4d a1 4f be a5 9a d9 bb
       0.11777498 0.22610709 -0.20276375 -0.0066407495
000310 1e 7e 17 3e 19 c3 59 3e 61 1a 30 bc 3e 12 68 3e
       0.14794204 0.2126583 -0.010748477 0.22663209
000320 07 21 e0 3d 33 e9 35 be f6 b1 0f be b9 85 7a 3e
       0.109437995 -0.1776474 -0.1403273 0.24465074
000330 c5 d4 e0 3d f1 c7 9d be 6e 58 90 3e 7f 98 d6 bd
       0.109780826 -0.30816606 0.28192466 -0.10478305
000340 d0 d5 06 bd 38 c4 c8 3c 8f 45 e0 3d 76 eb ac 3c
       -0.03291875 0.024507627 0.10950767 0.02110837
000350 2f bc 41 3a bd d8 68 be 56 0a 3c be 2e 21 4b 3d
       0.0007390407 -0.22738929 -0.18363318 0.04959219
000360 3d 30 91 be b8 98 a0 bd ff 52 66 be 38 79 82 bc
       -0.28357115 -0.07841629 -0.22492598 -0.015926942
000370 c6 2a 9f bd 89 c8 ac bd 17 4a 7f 3e a2 67 59 3e
       -0.0777183 -0.084366865 0.24930607 0.21230939
000380 41 cd 48 be b4 6f 2d be da a7 81 bd 6d 50 6a 3d
       -0.19609548 -0.16937143 -0.06330843 0.057205606
000390 8c 75 7e be 28 56 11 bd 82 88 22 be ee 21 3d 3e
       -0.24849528 -0.035482556 -0.15872386 0.18469974
0003a0 42 46 1b 3e c6 5f 48 3e 1e 7b 49 be b5 e5 7a 3d
       0.1516352 0.19567785 -0.19675872 0.061254222
0003b0 0f f1 b1 bc 83 73 94 3c c9 f9 f2 3b ee 8e 3d be
       -0.021721391 0.018121487 0.0074150306 -0.18511555
0003c0 9a ae 5d 3d 78 a1 3d be b1 ce a5 be ec 3b 5c 3e
       0.05412159 -0.18518627 -0.32384256 0.21507233
0003d0 51 91 9a 3d 25 7e 35 3d ba 4c 66 3e 8d 57 49 bc
       0.07547248 0.044309754 0.22490206 -0.01228894
0003e0 e0 15 14 be f3 42 10 be 19 6a 21 be d6 f6 2a bb
       -0.1446147 -0.14088039 -0.1576313 -0.0026087067
0003f0 2b 7e 8a be 5a 9c 2c be ec f4 50 3e f2 7a 83 bc
       -0.27049384 -0.16856518 0.2040593 -0.016049836

mid_part.6.bias f4 [12]
000000 3b 9f 6d 3c 6f fd 06 3d 90 01 f3 3b f9 11 52 3d
       0.0145032955 0.032956537 0.0074159577 0.05128667
000010 b2 c3 51 3c 89 92 93 3c 7c b9 89 bb 2d fc 90 3c
       0.012803005 0.01801421 -0.0042030197 0.017698372
000020 f2 dc 07 3d d6 fa 02 3c 8a a6 0c bd 8e ac 05 bd
       0.033169694 0.007994374 -0.03433851 -0.032635264

mid_part.7.weight f4 [12]
000000 c8 a0 c2 3e a5 2d 0a be d7 df 91 3e 0b 6c 96 3e
       0.3801329 -0.13493975 0.2849109 0.29379305
000010 2b 8d 5b 3e 60 d6 3c 3f 04 c8 46 3f 3a 22 37 3e
       0.2144057 0.7376461 0.7764895 0.1788415
000020 71 fb 85 3e 90 42 ab 3f 9f 64 c5 3e cf 56 2e 3e
       0.26168397 1.3379688 0.3855333 0.17025302

mid_part.8.weight f4 [12, 12, 3, 3]
000000 3f ed ba 3d 6b e3 ca bd fe 11 04 be 97 a4 93 bd
       0.09127282 -0.09906658 -0.12897488 -0.072091274
000010 66 db 53 3e 80 fc 2d 3e ee 7d 8b be a5 93 ea 3d
       0.20689163 0.16990852 -0.27244514 0.11453942
000020 49 da 87 bd 9d e9 2b bd 1a e6 37 3d e7 65 94 3d
       -0.066334315 -0.041970838 0.044897176 0.07245999
000030 2a 40 d2 3d e4 e8 9c 3e 71 24 f1 3c ac 2d 56 3e
       0.102661446 0.3064643 0.029436322 0.2091586
000040 a9 e8 87 3d f4 4a 46 bd 82 55 d7 3d f1 c0 12 bd
       0.06636173 -0.048411325 0.10514356 -0.035828535
000050 c7 02 74 bc ae 05 41 be 80 b7 f9 bc 96 fd d7 bb
       -0.01489324 -0.18849823 -0.030483007 -0.006591509
000060 ee bd 5b 3d f1 77 2f be 19 c0 b0 bb 15 69 a3 bc
       0.053647928 -0.17135598 -0.0053939936 -0.019947568
000070 a2 4d 6b bd 5f ca fb 3c 3b 5e d6 bd 14 e5 28 bd
       -0.057447083 0.030736146 -0.10467192 -0.04123409
000080 a9 0a 05 3e aa 13 4d bc 25 8d d4 bd c2 3f 4a be
       0.12992348 -0.012516895 -0.10378484 -0.19750884
000090 34 3d f3 bc a5 89 14 bc 39 0b fe 3c 5f a7 c4 3d
       -0.02969227 -0.00906602 0.03101121 0.09602236
0000a0 9c 8b 9c bc 02 3a 6b 3e c4 a3 aa bd 11 a9 91 3d
       -0.01910954 0.22971347 -0.08332017 0.07112325
0000b0 45 d0 15 bc 94 ef dd 3d 7a 5b 04 3e 8a a7 8f 3d
       -0.009143894 0.108367115 0.1292552 0.070143774
0000c0 80 6b 20 be e6 2b 3c 3c d9 53 a2 bc b0 87 d0 3e
       -0.15666008 0.011485076 -0.019815372 0.4072852
0000d0 91 5f 2e be 64 15 66 3d 28 3b a1 3d 88 32 a1 be
       -0.17028643 0.056172743 0.07872611 -0.31483865
0000e0 b7 a6 6c 3d 98 17 33 3c 02 cd 2d bc 44 8d 48 bd
       0.05777618 0.010930918 -0.01060796 -0.048962846
0000f0 ab f7 02 be 64 92 cf bd 32 11 46 3d dc af 85 bb
       -0.1278979 -0.10135344 0.048356242 -0.004079802
000100 14 66 a2 3e 85 cb eb bc d7 6b 4e 3d f4 42 6a 3e
       0.31718504 -0.02878357 0.050395813 0.22877103
000110 2a 6a 97 bd ce 3b 13 be ea b0 30 bd de 6e 7c be
       -0.07393296 -0.14378282 -0.04313747 -0.24651667
000120 d5 b3 a7 be 3f e4 7a bd ae 67 a3 3c 86 fc 6a 3d
       -0.32754388 -0.06125283 0.0199469 0.05736973
000130 fe 8e 39 3e 21 e2 08 bc 46 86 06 3d 48 de 50 be
       0.18120953 -0.008354695 0.032842897 -0.20397294
000140 27 91 8e bd 02 de ac 3d 01 bb 4e bd db 6a 00 be
       -0.06961279 0.08440782 -0.05047131 -0.12540762
000150 e0 d7 12 be 74 f0 6d bd 95 33 b8 bc de 18 7a 3e
       -0.14340162 -0.058090642 -0.022485534 0.24423549
000160 e2 82 10 bd 25 14 c8 3b 40 ee 21 3c 4d 25 3b 3e
       -0.03528107 0.006105917 0.009883463 0.18275948
000170 48 f5 01 3d f9 55 94 bd 67 fb 47 bd bc f4 06 3d
       0.03172806 -0.072429605 -0.04882374 0.03294824
000180 18 b9 d3 3d 3f 77 cd 3d ff c7 ec bc 1b 5b 40 3e
       0.10338038 0.1003251 -0.02890396 0.18784754
000190 56 09 c8 3e b8 3f 96 be 78 33 ec 3e 1d ce 1f 3d
       0.39069623 -0.2934549 0.46133018 0.039014924
0001a0 d1 ec 48 3e 9e 9b 46 be bf e2 25 3e aa 33 53 3e
       0.19621588 -0.19395301 0.16199778 0.20625177
0001b0 e9 aa ea 3d 75 86 c5 bd 25 31 19 be 89 73 34 3e
       0.1145838 -0.09644786 -0.14960153 0.17622198
0001c0 d8 b1 1a 3e 8b 97 25 3d e3 85 cf 3c 5e 1c 9e be
       0.15106905 0.040427726 0.025332397 -0.30881017
0001d0 da 44 91 be eb 62 7d 3d e2 f1 0f be 9f 5e 01 3d
       -0.28372842 0.061861914 -0.14057115 0.03158438
0001e0 fb 35 fb 3d 9f fe 55 3e e3 e8 7b be e3 7f 15 be
       0.12266155 0.20897911 -0.24600558 -0.14599566
0001f0 c2 e4 b5 3b 31 0d d6 bd b4 ec b3 3c 2a 63 27 bd
       0.0055509517 -0.10451735 0.021963455 -0.040866055
000200 1e cf 95 3d db 44 ec 3c c1 d0 84 be 55 79 79 3e
       0.07314895 0.028841427 -0.25940517 0.24362691
000210 85 23 e4 bd 3f 91 a7 3d 23 53 25 3d b4 ad 39 bd
       -0.11139587 0.08182 0.04036249 -0.04533167
000220 c0 0b bf 3e df ef 67 3d 33 71 33 3e fb 28 dd bc
       0.37313652 0.056625243 0.17523651 -0.02699708
000230 07 a3 c8 3d b3 df 25 be 96 a7 9a 3d 21 fd e7 3d
       0.0979672 -0.16198616 0.07551496 0.113275774
000240 c2 70 23 3e 36 14 38 3c c5 b9 cd bd 5f 8e 32 3d
       0.15960982 0.011235287 -0.10045198 0.043592807
000250 c3 18 45 3e 84 19 9b be a0 1d 29 3e 92 e4 a9 be
       0.19247727 -0.30292904 0.16515207 -0.33182198
000260 80 d4 67 3d e5 0b f9 3d 77 66 34 3e b3 c7 a9 bc
       0.05659914 0.12160472 0.17617212 -0.020725107
000270 24 f0 a3 3d 47 22 4d 3e df 11 cd 3c d4 21 37 be
       0.080047876 0.20032607 0.025032936 -0.17883998
000280 ef 4d 88 bd d1 bc 80 bd 8b b3 9e 3b 53 35 a7 bc
       -0.0665549 -0.06286014 0.0048431805 -0.02041117
000290 81 7e 32 3e 54 c9 0b 3e 8e 12 eb 3c 8d 2f 51 3d
       0.1743107 0.1365102 0.028695371 0.05107074
0002a0 a4 ae d8 bb 56 fa 29 bd e2 5b 82 3d 52 1b 1c 3e
       -0.0066126157 -0.041498505 0.063651815 0.15244797
0002b0 37 f7 60 3e bb ea ab 3d be 2d 4a 3d f9 a1 ae be
       0.21969305 0.08394381 0.04936003 -0.3410795
0002c0 ad e2 da 3b c3 cd ef 3c bc c0 65 bd d8 10 97 3d
       0.006679854 0.02927292 -0.05609201 0.073762596
0002d0 7c f7 a3 3d 30 2e a0 bd 8b ed c8 bc bd 24 1c 3d
       0.08006188 -0.078213096 -0.024527332 0.038120974
0002e0 67 e8 37 be 73 c5 ed 3c 06 a5 97 3e 78 c3 c6 bd
       -0.17959748 0.029024815 0.2961809 -0.097052515
0002f0 9b 86 03 3e db fb 9c 3e dd c9 b3 3c 8a 84 93 3c
       0.12844317 0.306609 0.021946842 0.018007535
000300 0f a0 7c 3e 42 f6 1c 3d 5c cb 6a 3e aa fa 4c 3e
       0.24670433 0.038320787 0.22929138 0.20017496
000310 9b 4e 0e bc c1 90 36 3d dd a0 c9 3c 19 51 ed bc
       -0.008685733 0.04457164 0.024612838 -0.028969334
000320 e4 df ba 3d df ed 15 bc 44 70 2a be fb c1 18 be
       0.09124735 -0.009150951 -0.16644388 -0.14917748
000330 a4 42 c4 bd dd 32 97 3d f0 b6 2b 3e 6d b0 08 3e
       -0.09583023 0.07382748 0.16769004 0.13348551
000340 14 21 79 be cd 81 8b bc fa 20 0c 3e 02 de 6c 3d
       -0.24329025 -0.017029667 0.13684455 0.05782891
000350 84 f7 02 3c 64 ac d7 bc cc a8 c3 bc 40 c4 1b 3e
       0.007993583 -0.02632732 -0.0238842 0.15211582
000360 d6 45 48 bd 70 a0 3f 3e 46 e1 15 3e ba d0 06 bd
       -0.048894726 0.18713546 0.14636716 -0.0329139
000370 4c b1 a9 bc 19 19 96 bd 34 5b e6 3d d4 7a c2 3d
       -0.020714425 -0.07329006 0.11247864 0.09496084
000380 45 55 24 3e 1d 4e 90 3d ef fb 4e 3d 15 09 44 3e
       0.16048153 0.07046149 0.05053323 0.1914409
000390 5d 2c cd 3c 1f 77 2e 3e 81 d0 f4 bd 54 5a be 3d
       0.025045568 0.17037629 -0.119538315 0.092945725
0003a0 b4 be 9d 3d b7 41 18 be 46 58 8d ba 1a e7 13 bd
       0.07702389 -0.14868818 -0.0010783754 -0.036109067
0003b0 06 93 2a be 73 ff 09 bd 30 29 22 be 4d b1 46 3d
       -0.16657647 -0.03369088 -0.15836024 0.04850893
0003c0 34 0f 80 bd 27 e1 7c bd ea 03 2f bd 83 da 47 be
       -0.062529 -0.06173816 -0.042728342 -0.1951695
0003d0 92 3d 8a bd e3 b5 75 bd 21 ca 5c 3e f1 c1 e7 3d
       -0.06750025 -0.059987914 0.21561481 0.11316288
0003e0 03 e4 6b be 19 88 69 3d 15 06 7a bd a6 e2 ad 3c
       -0.23036198 0.05701456 -0.061040957 0.021226238
0003f0 b9 ee 84 3d ea c7 18 3d 33 8c 8a be 55 c8 33 3e
       0.06490845 0.037300028 -0.2706009 0.1755689

mid_part.8.bias f4 [12]
000000 87 5d ec 3a 5f 37 94 3c e3 ed af 3c 54 85 10 3b
       0.0018033244 0.01809281 0.021475738 0.0022052126
000010 0e 69 0d 3c 6f 77 a8 3c 83 17 73 3c 1f a7 b7 38
       0.008631004 0.020564763 0.014837149 8.757249e-05
000020 c1 a4 ea bc 5f 01 63 3d 2d d7 27 3d b6 58 a3 3c
       -0.028643014 0.05542123 0.040976692 0.019939762

mid_part.9.weight f4 [12]
000000 f6 fe 22 c0 97 8d 07 be c4 ae d4 3e b6 54 72 3e
       -2.5468116 -0.13237606 0.41539586 0.23665127
000010 32 63 82 bf 9e 1c f0 be 48 c2 69 3f 50 13 82 3f
       -1.0186522 -0.46896833 0.91312075 1.0162144
000020 4d ef 8b 3e 7b 4f 17 3e 11 b3 1f 3e 70 41 66 3f
       0.2733101 0.14776413 0.15595652 0.899436
