models/fsrcnn/track2/track2_x4__epoch_9.pth (torch, 57971 bytes, 22 tensors)

first_part.0.weight f4 [56, 1, 5, 5]
00000000: d42d abbc ce82 b83d 9311 d03c 4765 8f3d
00000010: 7148 0bbb 35fc 48bd 2e0e 783d 973c 89bd
00000020: 2fc8 34bd e73d 103b f1c9 0a3d 733f 9f3b
00000030: 9555 363d c688 253d 7b8e 933c b7d9 5c3d
00000040: 03ab d7bc 8b3f c1bc b312 4d3d 2805 c9bc
00000050: 1e9b b9bc 6df4 1e3b d48e 993d a623 c23a
00000060: 3ea2 32bd 2bb0 bdbc 1dfa 65bd 697a 3abd
00000070: 8561 8b3c 94e1 4e3d 6d3d 32bd 9db7 263d
00000080: b7cc 9dbc 3d75 1cbd a65c 55bc 078c d2bc
00000090: 3807 3d3c 3569 4cbb 6cc6 293c afe7 50bd
000000a0: 8e2d a1bc f3cf 233d e379 3f3c 51d2 073c
000000b0: 59bb eabc 56cb 193d cf1f 923a 30e3 a5bd
000000c0: 48da 353d 75f4 4e3c 70db f5bc 1503 8dbd
000000d0: c3a0 7ebc a6d7 30bd 4976 ed3c 24fa de3b
000000e0: 5731 a9bc cfbb ecbc dd82 2fbd e7b8 69bd
000000f0: 2525 d6bc 44a9 b4bd 2a44 21bd 9265 e4bc
00000100: 8938 7abd 5800 463d adb0 97bd 2780 6bbd
00000110: 77ca 23bd 8ef6 43bc 360a 2abd f09c 223d
00000120: cd99 203d a6d3 10bd 234b a9bc 0df4 7c3d
00000130: 2488 423b ad96 1c3e 7569 ae3d 3348 c1bd
00000140: 4f09 61bd 6bcc e6b9 444a b03d 8936 56bd
00000150: ed9d babd 1f14 b0bc f9de a43d 5c27 2bbd
00000160: be44 65bd 04f3 903c 982a 7dbc 10d1 84bd
00000170: efcf 4dbd e7e5 babc 0842 babd 4ec2 6c3d
00000180: c9ee d9bc c5e7 003d 78dd 62bd 38a9 0fbe
00000190: 0ce1 b63a 477d 34bd a883 3bbd be09 52bd
000001a0: ab7a 09bb ae2c f5bc a2fe ad3d dfc9 5cbc
000001b0: 0650 a43c d0db 12bc b587 5a3c e5b4 93bd
000001c0: a836 ebbc 6eda e43a e479 c53c 2f23 fe39
000001d0: 8d0b a9bd 5ac6 33bd adcf efbc bb9c 073d
000001e0: f55b 3cbd 3a4f 85bc 6dfe 833d cb6e 93bd
000001f0: ce22 e63c f01f bfbd a42a 88bd f021 1a3d
00000200: 9b86 223c 3b74 9cbb fa8e 183d 328a 2bbd
00000210: 367a 10bc 9bad fdbc 9467 903c b31d 44bd
00000220: 5e8b 3bbb bd0b 293d 72d7 9f3c 8239 6abd
00000230: 4a31 613d cd33 66bd 83bd 163d 0115 35bc
00000240: 999e b9bc ba40 6d3d 0a6c 7e3b 27bb e3bb
00000250: b1f9 79bc 0786 49bd 8a98 c0bd 11ad 083c
00000260: c790 753b b433 7b3d 0d58 e9bb 3770 c7bb
00000270: 3357 923c 2e9e 2b3c 9c8b 82bd a05f 35bd
00000280: 9234 2cbb e182 53bd aa8a afbb 8599 b6bc
00000290: fdba 133d def7 a3bd 5195 0b3c d32a b5bc
000002a0: 3a6e 0d3c 0ef8 a6bc acea 48bd 62a5 653c
000002b0: 63bc 4cba a083 683b 1046 8dbd c4f0 583d
000002c0: 550c 3dbd 61ad 0c3e 3678 10be d438 89bd
000002d0: dc81 f4bc c1a7 c8bd cf4d d73c 4c5c 0a3e
000002e0: 5c18 443c 03f1 693b c715 5fbd 6918 ce3d
000002f0: 0aa7 5bbc 39c5 163d 8d3f 623b 33ca 1abd
00000300: 1c32 c33d 7cad 40bd b683 bb3d 7bf2 ae3d
00000310: 2269 be3c 09b2 a0bc 879b 6c3d 6805 373c
00000320: 32b3 7d3d af44 213d f1fe 0c3d 1850 1dbb
00000330: 41db 433c 4c2b 553d 0b21 96bc 5a27 743c
00000340: 3583 613d dda1 823b dcc1 8fba 4126 34bc
00000350: 8131 5a3d 2546 b0bc 66be a2bc 3ff6 01bd
00000360: 2046 6bb9 f681 223d 249a 6b3b 1e01 30bd
00000370: 6a9e dd3c 5cca 053d 71c8 643d abbd e4bc
00000380: b9c6 57bb 7c08 ae3d a33f 12bd fcaf 48bd
00000390: df72 e73c 82e9 44bd e7d3 a8bb eae6 43bd
000003a0: bd4a a93c c652 2fbd 3ba2 1e3d 7a9b a23c
000003b0: e6d6 9dbc af1d ad3d 1f7a 023d c6c9 063d
000003c0: a4ce 693d 83d6 a4bc b38a eabb d9b2 2bbd
000003d0: a959 783d 98b4 1e3d ee2f cf3c fab0 b03b
000003e0: a062 693d a757 e93c cebe f1bc 6cc6 783d
000003f0: 8682 4cbd 07f4 b73c 5c92 cabd bd7a 57bb
-0.020895876 0.09009324 0.025399005 0.07001739 -0.0021252895 -0.04906865 0.060560398 -0.0670101
-0.044136222 0.0022009553 0.033883993 0.0048598587 0.04451521 0.04041364 0.018012276 0.053918567
-0.026326662 -0.02358987 0.05006666 -0.024538592 -0.022656973 0.0024254576 0.074979454 0.001481165
-0.043611757 -0.023155292 -0.05614673 -0.045526896 0.017014274 0.050508097 -0.04351561 0.04070245
-0.019262655 -0.038197745 -0.013022577 -0.025701536 0.011537366 -0.0031190638 0.010362249 -0.0510022
-0.019675042 0.039993238 0.011686775 0.008289889 -0.028653787 0.037547432 0.0011148396 -0.08099973
0.044397622 0.012631525 -0.030011863 -0.068853535 -0.015541258 -0.04317441 0.028987067 0.0068047214
-0.02065341 -0.028898148 -0.04284941 -0.057061102 -0.026140759 -0.08821347 -0.039371647 -0.027880464
-0.061089072 0.04834017 -0.07406745 -0.057495262 -0.039988007 -0.011960639 -0.041513644 0.03970045
0.039209176 -0.035358094 -0.02066571 0.061756182 0.0029683197 0.15291853 0.08516208 -0.09437599
-0.054940518 -0.00044021322 0.08607915 -0.052298103 -0.09112153 -0.02149397 0.08050341 -0.041785583
-0.05597376 0.017694004 -0.01545205 -0.06485188 -0.05024713 -0.022814704 -0.09094626 0.05780249
-0.02660312 0.031471033 -0.05538699 -0.14029396 0.0013952567 -0.044064786 -0.045779854 -0.051278822
-0.0020977657 -0.029928531 0.08495833 -0.013475864 0.02005769 -0.00896354 0.013338019 -0.07212237
-0.028712586 0.0017460117 0.024105974 0.0004847287 -0.08254156 -0.043890335 -0.029273832 0.033108454
-0.045986135 -0.01627313 0.06445012 -0.071988665 0.028092768 -0.093322635 -0.06648758 0.03763002
0.009919788 -0.004774598 0.037245728 -0.04187984 -0.0088182 -0.03096657 0.017627515 -0.047879886
-0.0028617005 0.04127096 0.019511912 -0.05718375 0.054978646 -0.056201745 0.036801826 -0.011052371
-0.022658633 0.057923056 0.003882172 -0.0069498005 -0.015257285 -0.049200084 -0.094040945 0.0083420435
0.0037470327 0.061328605 -0.007121092 -0.006086375 0.017863845 0.010474725 -0.063742846 -0.04428065
-0.0026276452 -0.051638488 -0.005357106 -0.02229 0.036066998 -0.08006261 0.0085194865 -0.022115147
0.008632237 -0.020381954 -0.049051926 0.014016481 -0.0007810054 0.0035478845 -0.06898129 0.052963987
-0.04615434 0.13738014 -0.14108357 -0.06700292 -0.029847078 -0.097976215 0.02628222 0.13511771
0.011968698 0.0035696633 -0.054464128 0.100632496 -0.013406524 0.03680918 0.0034522742 -0.03779049
0.09531042 -0.047040448 0.09155981 0.08542343 0.02324349 -0.019616144 0.05776551 0.011170723
0.061938472 0.039372142 0.03442282 -0.0024004038 0.01195413 0.052043244 -0.018326303 0.01490196
0.05505677 0.0039865808 -0.0010967809 -0.010995449 0.053269867 -0.021517823 -0.01986618 -0.03172898
-0.0002243747 0.03967472 0.003595003 -0.042969815 0.027053077 0.032663688 0.05585522 -0.027922472
-0.0032924844 0.08497712 -0.03570522 -0.048995957 0.028253017 -0.048074253 -0.005152214 -0.04782764
0.02066552 -0.04280355 0.038728934 0.019849528 -0.01926751 0.08452927 0.031854745 0.03290727
0.057081833 -0.020121818 -0.0071576475 -0.04191861 0.06063238 0.038746446 0.02529141 0.005392191
0.05697882 0.028484179 -0.029509928 0.060736105 -0.049929164 0.022455228 -0.09891197 -0.0032879554

first_part.0.bias f4 [56]
00000000: 1d88 10bc 2313 19b8 59a3 fd3b a27c 01bc
00000010: 10e8 763c 4ee7 153d 00a2 df3b 9c16 dfbb
00000020: b959 163c 40be ccb9 be79 dabc 8881 b53a
00000030: 8d4a 493c da5a 8f3c 17c7 c93c b3e8 8ebc
00000040: 056c c33c 45df eabb e1be b9ba 2dd7 863a
00000050: 9851 833b 13df a03c 6e6a efbc 8ca2 06ba
00000060: d52a 40bc 7525 883b 245c 8fbb 4770 263a
00000070: 6985 4fbc ea3c 0fbb bb0f 763c 3f3f dd3a
00000080: 7a9e 883b bf77 e9bb 6a48 0a3c f51a 653c
00000090: 45b9 e0bb 13d4 483c 8c4b 00bc 3af0 a13c
000000a0: 3ba0 833d 7bd7 42bb 275f cd3b 0772 e7bc
000000b0: 2c21 933c beb0 8d3b da23 e43c 8823 cebb
000000c0: 02bd 8abd bcfd 133c 6039 17bb 57b8 723a
000000d0: c95d 2abc 435d cebb 670c 0c3c a5c9 c9bc
-0.008821514 -3.6495865e-05 0.00774042 -0.00790325 0.015069976 0.036597542 0.006824732 -0.006808115
0.009176665 -0.0003905166 -0.02666938 0.0013847807 0.012285841 0.017499376 0.024631066 -0.017444944
0.023855219 -0.007167729 -0.0014171266 0.0010287516 0.0040075295 0.01963762 -0.029225554 -0.00051359157
-0.011728962 0.004154856 -0.0043749977 0.0006349128 -0.012666085 -0.0021856376 0.015018399 0.0016879811
0.0041692825 -0.0071248705 0.008440116 0.013983478 -0.0068580233 0.012257594 -0.007830512 0.01976787
0.06427046 -0.0029730487 0.0062674466 -0.028252615 0.017960154 0.004324048 0.027849127 -0.0062908567
-0.06774332 0.009032663 -0.002307497 0.0009259036 -0.010398337 -0.0062977388 0.008547879 -0.024632284

first_part.1.weight f4 [56]
00000000: a0d2 933e 174a 733e 3768 843e ade6 5e3e
00000010: 506f 7a3e 4e4b 5b3e cc1f 773e ded1 c23b
00000020: 2361 6f3f f7a2 f8bd e706 5240 40eb 7f3e
00000030: 0e3a 8b3e d5f5 763e edfd 623e f269 a3be
00000040: 92ca 1e3f 10ea a03e 7800 5d3e f339 773e
00000050: 5869 7f3e 119c afbc 6759 843e be07 6c3e
00000060: 396d 07c0 c021 803e f8cc a6bc 57c9 843e
00000070: f9ea 7c3e 4a72 6e3e 9190 6c3e 03f7 2dbf
00000080: 829a 573f 0000 803e 2972 843e 5c5d fe3e
00000090: e07c 483e 56df 803f 30a7 9e3e 3033 433e
000000a0: a222 023f fce1 953e 6d78 873e b2c3 093f
000000b0: 30b9 de3f 7208 763e 0fe2 663e 3ea3 7e3e
000000c0: 9339 173f 0d0f 763e dcd3 403f 366d 6d3e
000000d0: 609b 7f3e afcf 273e be38 893e 441d af3e
0.28871632 0.23758732 0.2586076 0.21767683 0.24456525 0.21415445 0.24133223 0.0059454283
0.93507594 -0.12140458 3.2816713 0.24992085 0.2719273 0.24117215 0.22167177 -0.31916767
0.6202785 0.31428576 0.2158221 0.241432 0.24942529 -0.021436723 0.2584946 0.23049828
-2.1160414 0.2502575 -0.020361409 0.2593486 0.2469901 0.23285785 0.23102023 -0.67955035
0.84220135 0.25 0.25868347 0.49680603 0.19578886 1.0068157 0.3098693 0.19062495
0.50834095 0.29273975 0.26459065 0.5381423 1.7400265 0.24026659 0.22547172 0.2486696
0.59072226 0.24029179 0.7532327 0.23186192 0.24961615 0.16387819 0.26801103 0.34202015

mid_part.0.weight f4 [12, 56, 1, 1]
00000000: b16e 133f 7a7c 793e 8e9f 45bf 46b3 203f
00000010: 6ac7 c53e 2ad9 713e 71c5 72bd 3e25 c13e
00000020: eaeb 3f3e 5e66 96bf f6ce 203f d9b3 f8bc
00000030: f95d 96be 9fd4 833f c654 de3e 3614 b73e
00000040: 1d8e e43d 29d4 a93d 4d05 163f f60c 8bbe
00000050: ef32 98bc 7472 423f d186 bcbe b6c2 febe
00000060: b748 8cbd 9217 87bd 5917 dc3e 553a 42bf
00000070: e62e 563e 5de7 c23e cdf6 a6bc 614b 053f
00000080: da59 083f 21eb 1a3e dcbb 02bf 4971 2dbf
00000090: 600a c73d c5f9 e3bc b4b9 42be d533 083f
000000a0: 399e efbc 459a 073f 6bff d4be 0c47 1fbe
000000b0: b35e 18be 3b53 d4bd 3bd1 e6bd b8e0 1dbf
000000c0: 78d0 45be ea6e 29bf 61b1 3abd bf39 4abe
000000d0: 4009 33bf 05f0 cf3d bee1 a6be ee9b 1fbe
000000e0: f417 adbe 530e 77bf 6589 f53e f02e c9bb
000000f0: ca7a 2cbd 0cab 7b3f 52e7 3b3f f39d 063f
00000100: 305f 493d 3948 babd 279d 3ebd 72cf fabe
00000110: c1ce 013e 16be 223e a0c0 12bf 57c6 5d3e
00000120: 0ad2 e0be bebf 593e e7c8 2c3f a81e dabd
00000130: c92e 593f e108 52be 8333 d03d 5185 c0be
00000140: b4d7 b4be aa13 c8bd 6f5c f63d 6e6f 11bf
00000150: 086d 053f 33a4 3f3f 1086 5bbe 9663 ee3e
00000160: ae14 153e c6be d1be 0e90 c63d bff9 dfbd
00000170: af2d 893e 45cc 7a3e 15a9 27bf 058e 67be
00000180: a178 193e 6aa6 2b3f 34ab 8ebe 92c8 643f
00000190: 4358 3b3f bc5b ed3d 2da9 fe3e 21f1 ec3d
000001a0: 0ac0 b83e 8005 163d 130f 583f e104 05bf
000001b0: d24f 8bbd 3a9e 4dbe 403d 233f 784b f4be
000001c0: b76d 883e cb44 1cbf 751c 8abe 787b c4be
000001d0: f38a a3bd 8169 153f 5660 f2bd 7382 5abd
000001e0: 31cf 253f 7f62 483f 134e c73d 4761 513f
000001f0: 782c dbbe a594 16be a145 d4bd 815d ce3e
00000200: d161 2fbc ceb2 20be 2c27 f13e 2c2e bb3e
00000210: c570 08bf 6e7b 6e3e 39d7 06be f685 91be
00000220: 0c00 d03e 87ee a9be e60a 24be f56c 80be
00000230: 408a f2be c800 dc3e c5c9 fa3c 494f 19be
00000240: 0b6b f63e 12de 313f bcbe 233f ecd7 c43e
00000250: 8ad5 9c3e 8343 a03e d926 e9be 1feb 0e3e
00000260: d24c dbbc 41fb 0e3e 13e6 57be c54b b9bb
00000270: cd1f 173e 2169 d23e 4a40 813e 5b03 f83e
00000280: 5c8d f6bb c379 0c3f e00c 653e ba56 19bf
00000290: 9234 963c dfbb e83e 8e55 b3be 4853 a4be
000002a0: 79c8 4f3d cd46 823e 2007 1bbe daa3 ed3d
000002b0: f3dc 833e 291c a9bd cf3b 1cbe 0373 a23e
000002c0: 17b2 0fbf 2046 c8be af4a 0a3f 6b8b acbe
000002d0: e55a 993e fa0a 03bf fe1b 2b3f 704b 18bd
000002e0: 363e 253e 412a 733e 843e 893c fcff 5d3f
000002f0: a41d f6be ec7c 223f d775 b2be c02e c2be
00000300: 9729 ff3e 054f 843d 24ec e4be c1f2 743f
00000310: ea40 f43d cda8 c23e a1e8 aa3a 7aba 04be
00000320: 5ef4 08bf 2a94 663e 1ac6 02be 5a3e f63e
00000330: f7bc 0e3e 3b57 f8bd 262d c83c 3903 aa3e
00000340: 0ac0 18be 085c 863f cb0c 413f 4c35 2f3f
00000350: a971 7dbf 324c 44be 34c2 ff3e 867d 9abd
00000360: 87f5 c93e 55ce 243f 21fc 8ebe caef b0be
00000370: 01a7 51be 8044 ec3e 8f19 5abe 41fe 003f
00000380: 74b3 c8be 0302 74bc b5c1 013e 6459 29be
00000390: 4741 2ebe 34cc a1be cbfc 65be 2209 333f
000003a0: 803d e83e 05dd 87be 9393 83be 9277 df3b
000003b0: 6a76 cdbf 6690 4d3f 3f63 473f dc58 dc3d
000003c0: 2225 8d3e b9ee 16be 88f7 28be 761c a0be
000003d0: 995f 8a3e fb3c 6a3e e206 b53e 8140 2c3d
000003e0: 1beb 67bd c8e6 44be 1de7 113f 75bd 8e3e
000003f0: e7b0 20bf 8013 8fbe 48e6 373e c84c 66bd
0.57590777 0.2436389 -0.77196586 0.6277355 0.38628703 0.23617998 -0.059270326 0.37723726
0.18742338 -1.174999 0.628158 -0.030359196 -0.2936857 1.0299262 0.43424052 0.35757607
0.111599185 0.082924195 0.5860184 -0.27158326 -0.018578975 0.7595589 -0.36821607 -0.49757928
-0.06849807 -0.065962926 0.42986563 -0.7587026 0.20916328 0.3806714 -0.020381356 0.52068144
0.532621 0.15128757 -0.510679 -0.67750984 0.09718776 -0.02782906 -0.19016153 0.5320409
-0.029250251 0.5296977 -0.41601118 -0.15554446 -0.14879875 -0.103674375 -0.11270376 -0.6167102
-0.19317806 -0.66184866 -0.045579318 -0.19748591 -0.6993599 0.10153202 -0.32594103 -0.15586826
-0.33807337 -0.9650623 0.47956386 -0.0061396286 -0.04210929 0.9830787 0.7339984 0.5258476
0.049163043 -0.09095807 -0.04653659 -0.48986393 0.12676527 0.15892825 -0.5732517 0.21657692
-0.43910247 0.2126455 0.6749405 -0.106503785 0.84837013 -0.205112 0.10166075 -0.37601712
-0.35320818 -0.097693756 0.12029349 -0.56810653 0.52119493 0.74859923 -0.2143786 0.46560353
0.1455867 -0.4096586 0.09695445 -0.10936307 0.26792666 0.24491985 -0.65492374 -0.2261277
0.14987423 0.670508 -0.27864993 0.89368546 0.7318155 0.115897626 0.49738446 0.11569429
0.36084014 0.03662634 0.84398 -0.5196057 -0.06802334 -0.2007989 0.63765335 -0.47713828
0.26646206 -0.6104247 -0.26974836 -0.3837545 -0.07985487 0.5836411 -0.11834781 -0.053347062
0.64769274 0.78275293 0.09731688 0.8178906 -0.42807364 -0.14705141 -0.10364843 0.40305713
-0.010704474 -0.15693209 0.47100198 0.36558664 -0.5329707 0.23289272 -0.13168038 -0.28422517
0.40625036 -0.33189794 -0.16019782 -0.25083128 -0.473711 0.42969346 0.03061379 -0.14971651
0.48128542 0.6947948 0.6396291 0.38445985 0.30631667 0.31301507 -0.4553745 0.13956879
-0.02677003 0.13963033 -0.2108386 -0.0056547844 0.14758225 0.41095832 0.2524436 0.4844006
-0.0075241756 0.54873294 0.22368193 -0.5989796 0.018335614 0.45455834 -0.3502621 -0.3209479
0.050728295 0.25444642 -0.15139437 0.11603518 0.25754508 -0.08257324 -0.1525719 0.31728372
-0.5613112 -0.39116 0.5402021 -0.33700117 0.2995216 -0.51188624 0.6683959 -0.037181318
0.16137013 0.23746587 0.016753443 0.86718726 -0.4806949 0.63471866 -0.3485553 -0.37926292
0.49836418 0.06460384 -0.4471141 0.95682913 0.11926444 0.3801941 0.00130393 -0.1296176
-0.53497875 0.22517458 -0.12770882 0.48094445 0.13939272 -0.12126013 0.024435591 0.33205584
-0.14917007 1.0496836 0.75410146 0.684407 -0.99001557 -0.19169691 0.49952853 -0.07543473
0.39445135 0.6437734 -0.27926734 -0.34557945 -0.20473863 0.4614601 -0.21298812 0.5038796
-0.39199412 -0.014893058 0.1267155 -0.16538006 -0.17017089 -0.31601107 -0.22459714 0.6993581
0.4535942 -0.26535812 -0.25698528 0.006819674 -1.6051762 0.8029846 0.7788581 0.10759136
0.27567393 -0.14739503 -0.16500676 -0.31271714 0.2702606 0.22874825 0.35356814 0.042053703
-0.0566207 -0.19228661 0.56993276 0.2787892 -0.6276993 -0.27944565 0.17958939 -0.056225568

mid_part.0.bias f4 [12]
00000000: bd43 ea3c 3599 84bc 0f9c 54b9 c16a aabb
00000010: 2272 643d c961 843c 7b4e 98bb 2524 303d
00000020: 25f8 2abc 1713 60bc 5bdf 1cbc 8e1a 9c3c
0.028596753 -0.016186336 -0.00020276032 -0.0052007143 0.055772908 0.016159909 -0.0046480275 0.04300322
-0.010435139 -0.013676426 -0.0095747365 0.019055631

mid_part.1.weight f4 [12]
00000000: 526c 833e e724 b83e 0000 803e 1587 7a3e
00000010: cc2c e33e 8fb9 c93f 5f38 2f3e c963 b4be
00000020: f5f4 843e 5ab0 263f ebfa a93f fc53 923e
0.2566858 0.35965654 0.25 0.24465592 0.44370115 1.5759753 0.17111348 -0.3523238
0.25968137 0.6511284 1.3279699 0.285797

mid_part.2.weight f4 [12, 12, 3, 3]
00000000: 459a 743e f3f5 8c3d ea94 8fbc 71b9 8fbe
00000010: d69f 363e 1add 03be 8089 d8bd 89eb 54bd
00000020: bd54 703d c7dd 2c3e 6529 6cbe 6669 533e
00000030: 728c 213d 6332 07be cca8 0bbe 6007 81bd
00000040: 2390 1ebe b952 113d 1a66 b63d 191d 1f3e
00000050: c581 743d 257e 213e 721c 043a 538c e4bc
00000060: 07ca 843e 32b4 603d 484f 98bd 66bb 413d
00000070: 20a0 63bd 7fa7 f23d d5ce 183e 90fc acbe
00000080: 92ac 86be a383 04be 316c acbc bed0 033e
00000090: 037f 2ebe 6b0e cebd 2cd9 a5bd d66a 85bb
000000a0: d902 743e 11dd 6cbe da86 ca3c 90fd 8ebc
000000b0: c6b7 433d 2d96 633e b4e0 393d 7fd6 583e
000000c0: 3e75 68bd 1be0 e3bd 807c 933d 1f54 cbbd
000000d0: 0992 833d d421 cdbd 0428 2cbe f65d a2bb
000000e0: fd3b 303c f6c7 503e 2971 5abd 412b 6c3d
000000f0: a008 a3bd 2501 d33d d284 123e 4fdc 1d3e
00000100: 22d3 aebc 0ce7 3b3e 5736 b5bc 063b 523d
00000110: 3089 0e3d 4aa4 53bc d137 48be f032 60be
00000120: ae5c b9bc 9aa6 26bd 8a1e 073d 9c86 3bbe
00000130: d766 953e 2bc5 93bd 8608 61bd 6bf7 38bd
00000140: 3900 073d 573d 45be 7f78 fb3c 570d 233d
00000150: 68ac d03c d68a dd3d 1787 de3d 7b0d 12be
00000160: 3292 12bd 1b03 a23c fc36 833d 82ce b8bb
00000170: 456f 6b3e 45f2 f6bd 373f 68bd 0d29 b6bd
00000180: 2b9b e93c b1a9 ce3d 7563 9d3c 2efa c43d
00000190: 8f96 7cbd 219a a6bd 1df1 23bc f681 f93d
000001a0: 8e68 133d b17e 083e 56c0 903d c981 aabb
000001b0: a775 003d 9c4a 57bd 8f1c 663a 7ecc 39bd
000001c0: 399c 373c e1cc 80be f1e1 533e 00b4 863d
000001d0: 3669 133e 2626 1e3e 3785 a63d 7ace 353b
000001e0: 89c3 683e f381 d53d e312 973b f280 853d
000001f0: e1c0 f2bd aa79 043e da1a edbc 6e9b a5be
00000200: d28e 25be c4f0 ac3c fa3c 7b3d be47 95be
00000210: 657d e5bd b95a be3d e1aa b6bd 4e34 0cbc
00000220: a226 773e 298f f5bd 17be efbd 700d d6bd
00000230: 46bc 7abd 9772 48be 6336 9a3e 42cd 02be
00000240: bfba 5e3e 0508 37be 946c aabd 6f9e 46be
00000250: e748 28be 0411 4ebb aecc d6bd 84ae 09be
00000260: 048a 53bc 6b13 fabd f14f 193d 8e58 85be
00000270: 36a3 48bb b9b2 d63d a697 d83d c00b 193e
00000280: 77e6 5abd 5be7 b5bc d56c 203e 7709 39be
00000290: 90c8 c2bd f6ae e03b 4544 5e3e b20f b43c
000002a0: 00e0 a9be 2246 0b3c 6ef7 1e3e 7cb0 2dbe
000002b0: f211 6a3e e241 25bd 4541 bbbd 456c 7c3e
000002c0: ac75 7a3e 2a5a 20bd a28d 22bd 6329 5abd
000002d0: 908b 9a3d 4b8b f9bd 76b4 e03d 6775 e2bc
000002e0: 6eb9 a23d 46cc 92be 01bd 743d 7f01 b1bd
000002f0: 6edc d3bd 98e0 cbbd a533 d6bc c019 36bd
00000300: 60f6 bdbb 5cb2 48bd 8569 5f3b 376b 2bbe
00000310: 6db2 bfbc c42b 1b3d 5123 88bd 8596 0c3e
00000320: 5311 293d 003c 813e 43e5 42bd d975 0dbe
00000330: 137e 16be 9058 d03c aa31 f93d 12bb 6a3e
00000340: 6f0b 5f3e 036c ad3d a011 4a3d 313b bc3d
00000350: 65df 4f3e 6e74 8dbc 6309 283e 127e 3a3e
00000360: 0059 863d 0d1f 22be 0833 aa3c 2643 9bbd
00000370: 1948 053e 1d4a 363e 47db 123e f579 78bd
00000380: 4a2d 8c3e bce1 9ebd 6b90 d3bd 1afe 7c3d
00000390: c91d 573e 62dc 78bd 8511 1ebc f123 7dbd
000003a0: cd6b f63d 7359 d73d b979 113e b3ab 8abe
000003b0: 3604 53be 371c 893d 2d79 fbbd e433 f8bb
000003c0: 4c4c f23d ed55 083d ea00 143d 65e5 9dbd
000003d0: c22d af3b e853 61bd c3e1 6a3e fd61 363e
000003e0: cd5e 183e c387 b13d e814 b53d 73b2 9e3c
000003f0: 57d8 a63e 351e 6bbe 5561 8ebd ec4f 243c
0.23886974 0.068828486 -0.017527062 -0.28071168 0.1783441 -0.12877312 -0.10573101 -0.051982436
0.058674563 0.16881476 -0.23062666 0.20645675 0.03944058 -0.13202815 -0.1363861 -0.06300235
-0.15484671 0.03547928 0.08906193 0.15538444 0.05969407 0.15770777 0.0005039639 -0.027898943
0.25935385 0.054859348 -0.07436997 0.047297858 -0.05557263 0.118483536 0.1492265 -0.3378644
-0.26303536 -0.1294084 -0.021047683 0.12872598 -0.17040639 -0.10061344 -0.08098063 -0.0040715737
0.23829211 -0.23131205 0.024722505 -0.017454892 0.047782682 0.22225256 0.04538031 0.21175574
-0.056752436 -0.11126729 0.07201481 -0.09928154 0.06424338 -0.10016218 -0.1681214 -0.0049550487
0.01075649 0.20388779 -0.053330574 0.057658438 -0.079606295 0.10302953 0.1430848 0.15416072
-0.02134091 0.18349856 -0.022120638 0.05132582 0.0347988 -0.0129175875 -0.19552542 -0.21894431
-0.0226272 -0.040686227 0.03298811 -0.18313068 0.29180023 -0.07215341 -0.05493977 -0.04515783
0.032959197 -0.1926168 0.030697105 0.039807644 0.025472835 0.108174965 0.1086561 -0.14262955
-0.035783954 0.019776871 0.06406972 -0.005639852 0.22991665 -0.12057928 -0.05670091 -0.088945486
0.028516373 0.1009096 0.019212464 0.096180305 -0.06166702 -0.081348665 -0.010006216 0.12182991
0.035988383 0.13329579 0.07067935 -0.00520346 0.031362202 -0.052561387 0.0008778059 -0.045361035
0.01120668 -0.2515631 0.20691659 0.06577301 0.14395604 0.1544424 0.081308775 0.0027741478
0.2273084 0.104251765 0.004610406 0.06518735 -0.11853195 0.12937036 -0.028943468 -0.32345146
-0.16167763 0.0211109 0.06133745 -0.29156297 -0.11205558 0.09294648 -0.08919311 -0.008557392
0.24135831 -0.11990196 -0.11706179 -0.10451782 -0.061214708 -0.19574963 0.3011962 -0.12773612
0.21750925 -0.17874153 -0.08321491 -0.19396375 -0.1643406 -0.0031443248 -0.10488258 -0.13445479
-0.012911323 -0.12210735 0.037429754 -0.26044124 -0.003061486 0.104833074 0.105758 0.14945889
-0.053442445 -0.022205045 0.15666516 -0.18070017 -0.095109105 0.0068567945 0.2170573 0.02198014
-0.3317871 0.008500608 0.15524074 -0.16961855 0.22858408 -0.040346034 -0.091433086 0.24650677
0.24458951 -0.039148487 -0.039685853 -0.053262126 0.07546151 -0.12184771 0.1097192 -0.027643872
0.07945524 -0.28671473 0.05975056 -0.086428635 -0.10344778 -0.09954947 -0.026147673 -0.04445815
-0.0057971925 -0.04899822 0.0034089994 -0.16740118 -0.02340051 0.037883535 -0.06647361 0.13729294
0.041276287 0.2524109 -0.047581922 -0.13814487 -0.14696531 0.025432855 0.12167676 0.22922924
0.21781705 0.08467867 0.049333215 0.09190977 0.20300062 -0.017267432 0.16409831 0.18212155
0.06559944 -0.15832157 0.020776287 -0.07581167 0.13015784 0.1780171 0.1434146 -0.060663182
0.27378303 -0.07757899 -0.1033028 0.061765768 0.21007456 -0.06075705 -0.009647732 -0.061801855
0.1203228 0.10515108 0.1420659 -0.2708412 -0.20607075 0.06694835 -0.12278972 -0.007574545
0.11830959 0.03328507 0.036133684 -0.07709769 0.005346031 -0.05501166 0.22937684 0.17810817
0.14879914 0.086684726 0.08841878 0.0193722 0.3258693 -0.22960742 -0.06952158 0.0100288205

mid_part.2.bias f4 [12]
00000000: 2a8b 923b a4aa 74bb 1819 433c 8bf3 aabb
00000010: ded2 6f3d e14e d9b9 5c44 28bc f8b6 66bb
00000020: b608 5e3d d5cb e63b dafb 0abc bb6e ee3c
0.004472156 -0.0037333155 0.011907838 -0.005217021 0.058550708 -0.00041448235 -0.010270204 -0.0035204273
0.054207526 0.0070433416 -0.008482898 0.029105535

mid_part.3.weight f4 [12]
00000000: 836e 0bbf b6bf 7e3e 8d9a 843e dc82 c33f
00000010: 895a 9d3e 6a53 833e 9704 28bf 27a5 e93e
00000020: 3614 123f bd80 bd3e 1a39 873e 738e b83e
-0.544655 0.2487782 0.25899163 1.527431 0.30733135 0.25649577 -0.65632004 0.45633814
0.5706209 0.37012282 0.26410753 0.3604618

mid_part.4.weight f4 [12, 12, 3, 3]
00000000: 41ab 5d3d 004a 2dbd 3b6b 6e3e 2e74 943e
00000010: 9dd8 84bc f492 fc3d 5394 05be 5c29 643d
00000020: 7074 b0bd 94c5 5abe 4777 f8bd e1d2 b43e
00000030: f965 46bd d272 0e3e 7b80 0bbe 5530 d9bd
00000040: f976 aa3c 6433 783e 5b53 33be afa6 053e
00000050: 042a 9a3d e729 053e b80e e3bc e0ea 9bbd
00000060: 63c8 1abd 6e33 283e 8ba8 5a3e 7a8c 78bd
00000070: 2ded 93be d67f 013f 3bcb 073e 3423 ceba
00000080: 69cc e6be 2be3 98bd d992 773e a318 093e
00000090: f92b e2bd c167 a03d f9f9 c03e 7ce9 c0bd
000000a0: 16ce 773e 1917 113d e146 a4be f348 bfbd
000000b0: 2a1b a23e 52c9 01bd a55a f8bd aff9 e83d
000000c0: 555e 85be 6bd7 d53d 04e7 b8be 8ba4 113d
000000d0: 4fb2 923e 35d3 22be 1a5f 073e 43e9 1fbe
000000e0: f289 3ebe 91cf c93d 35fe 653c 513d e4bd
000000f0: a04c 05bd 78b8 87be 5c4c 8f3e 956c 223d
00000100: 36c6 ccbd ad08 9e3e b255 2bbd 6344 533d
00000110: b7fc d33d 3544 3fbe 4aeb 99bd 68c5 f0bd
00000120: 6379 87bd d5a9 14be 7fb1 223e dce5 1bbd
00000130: 4b16 0ebe 457d 76bd 81fb a73d b31b 883d
00000140: 6f37 953e e0a1 df3d a11d d03c 9d91 7b3e
00000150: 1f80 0d3e 0ac8 0d3e a7f2 7cbd 9c68 aa3d
00000160: f0ce 383e 3378 acbe 9d93 58be 912c 443e
00000170: 670b a43d 97d9 863d d436 3cbb ffe0 10bd
00000180: eb91 2ebe 3688 4a3c 56d1 003e 51ae 08bd
00000190: 540c aabd 3f5b bfbe 46b6 71be dd2a a13e
000001a0: ded1 c3be 7c63 b9bd ae69 ea3d 5958 5d3d
000001b0: 7fa8 fc3d 75ea 54be d09e 1bbd 406d 7f3e
000001c0: ce12 743d 7e62 ac3d c44b 8d3e 8651 84be
000001d0: 94ab a23c 5f0c 0bbd e774 923d afd9 98bc
000001e0: 6d8d 933e c86a 9b3d 4809 b23e c960 7ebe
000001f0: 91e6 82be 77b9 97bd 2d21 4cbe d3ef 023e
00000200: c4d3 19bd 0269 edbe d350 22be 5256 edbc
00000210: 6096 00bf d78b 3bbe 2cca cc3d d358 b0bc
00000220: 5ce8 353e 7e35 5d3e 2a10 e33d 9d51 9a3e
00000230: cde6 483d 4ba8 c63e 1af9 ac3e 5e6d 6bbd
00000240: 0f0b 54bd a078 90bd ae33 cebd ef83 b3bd
00000250: 58b0 a43d e69e 463d cf3c a2be 86ae 84bd
00000260: 11b1 54bc f9d8 66bb ed16 34be 66c7 823e
00000270: 51a6 65be 5f52 41bb ea0e 0a3e 6bf4 0dbe
00000280: 2c42 a13d 4e58 35bd b698 8a3e dcf9 ccba
00000290: 4a7c 74bd a5e4 ad3e 5f15 91bd e56f 003d
000002a0: 6d59 f13d 932a 62bd 9438 8bbe 9763 a93e
000002b0: 555c 60be 8d2f 63be b091 3ebd 2433 b6bc
000002c0: 8fc3 c83d 0e02 6e3e 98d0 eb3d 2834 d43e
000002d0: 4b68 723d e529 7fbe 9b5d 30be 7da4 5d3c
000002e0: 8205 03be 0109 b23d 1dd1 363e 7b69 893e
000002f0: 403a e03d 5b97 e3be 6557 e13d 679c 24be
00000300: 97b2 373e 06a1 5b3e 1a62 45bd 0a93 bc3c
00000310: 75bb 25bd c52a c33d a604 edbd f628 29be
00000320: 8f6e 823d cadc a13e 78f1 d43e c3c2 183e
00000330: 1934 7abe 2143 63bc 0a6a a03c 30ad 80be
00000340: 691b 92be e115 b8be 33ed 01be 8ec9 893d
00000350: f282 87bc 9284 293f c70f aa3e 904c 483e
00000360: e087 463e b12c 4abe 6753 243e 70b9 6c3d
00000370: 39fa c93c 71b5 efbc 46a1 2cbe 19fc 963e
00000380: f8a0 ad3c 16f9 593e 6ce3 853c 699e 333e
00000390: fa5f 29bc 11be 123d 4cf6 cb3d 7492 bdb6
000003a0: 956b ae3d 40ab b73c 88ca c5bd 14a3 5d3d
000003b0: 2970 1d3e 2736 2fbd c123 373e b9a8 373e
000003c0: 3a02 413d 6cd6 8fbb f42f 3ebe 4df3 5abe
000003d0: b950 8dbe fd0c 14be 621f 143c d55d 333e
000003e0: 31e3 c83d a344 373e 577e 07be 2cdf 97bd
000003f0: f7d1 fabd e45e 7fbe 28c1 cabd c89b 0ebd
0.0541184 -0.0423069 0.23283093 0.28994888 -0.01621657 0.123327166 -0.13044862 0.055703506
-0.08615959 -0.21364433 -0.12132125 0.35317138 -0.048437092 0.13910988 -0.1362323 -0.10604922
0.020808684 0.24238354 -0.17512266 0.13051866 0.07527545 0.13004266 -0.02771698 -0.07613158
-0.03778876 0.16425869 0.21353357 -0.060680844 -0.28891888 0.5058569 0.1326112 -0.0015727044
-0.45077828 -0.07465204 0.24177112 0.13388304 -0.11043543 0.078322895 0.37690714 -0.094195336
0.2419971 0.03542242 -0.32085326 -0.09340086 0.3166135 -0.031686135 -0.12126664 0.11375748
-0.26048532 0.10441478 -0.3611375 0.03555731 0.28651664 -0.15900882 0.13219872 -0.15616326
-0.1860731 0.09854043 0.014037658 -0.11144508 -0.03254378 -0.26507926 0.27987945 0.039654333
-0.09998743 0.30865994 -0.041829772 0.05157889 0.10350936 -0.18678363 -0.07515581 -0.11756402
-0.066149496 -0.14517911 0.15888022 -0.038061008 -0.13875692 -0.06017806 0.082022674 0.06645908
0.29143855 0.10919547 0.025404753 0.24567266 0.13818406 0.1384584 -0.06175485 0.08320734
0.1804769 -0.33685455 -0.2115006 0.19157626 0.08009987 0.06584471 -0.0028719204 -0.035370823
-0.17047851 0.012361577 0.12579855 -0.033369366 -0.08303133 -0.37374303 -0.23604688 0.31478015
-0.38246053 -0.09052178 0.11445938 0.054039333 0.123368256 -0.20792563 -0.037993252 0.2494402
0.059588246 0.084172234 0.27596867 -0.25843447 0.019857205 -0.033947345 0.071512036 -0.018658487
0.28818837 0.07588726 0.34772706 -0.24841608 -0.25566533 -0.074084215 -0.1993453 0.12786798
-0.03755547 -0.46369177 -0.15851144 -0.028971825 -0.50229454 -0.18315063 0.09999499 -0.02152673
0.1776442 0.21602437 0.110870674 0.3014039 0.049048234 0.38800272 0.337838 -0.057477348
-0.05176836 -0.070542574 -0.10068451 -0.08765399 0.080414474 0.04849138 -0.31687018 -0.064786
-0.012981669 -0.003522454 -0.1758687 0.25542754 -0.22426726 -0.002949856 0.13482252 -0.1386277
0.078739494 -0.044273667 0.27069634 -0.0015638429 -0.059688844 0.33963504 -0.07084154 0.03135671
0.11784635 -0.055216383 -0.27191603 0.33083794 -0.21910222 -0.22186108 -0.046525657 -0.022241183
0.09802925 0.23242971 0.115143955 0.41446042 0.059181493 -0.24918325 -0.17223208 0.013527987
-0.1279507 0.086931236 0.17853208 0.26838288 0.1094861 -0.44451413 0.11002997 -0.16075288
0.1793922 0.21448144 -0.04818926 0.023019332 -0.040461976 0.09529642 -0.11573152 -0.16519532
0.06368744 0.3161376 0.41590476 0.14918046 -0.24433936 -0.013870985 0.019581813 -0.25132132
-0.28536537 -0.35954192 -0.1268814 0.06727897 -0.016541932 0.6621791 0.33215162 0.19560456
0.1938777 -0.19743611 0.1604744 0.057794034 0.024655448 -0.029261323 -0.16858396 0.2948921
0.02119492 0.21286425 0.016343795 0.17540897 -0.010337824 0.035825793 0.09959087 -5.6496883e-06
0.085166134 0.022420526 -0.096577704 0.0541106 0.15374817 -0.042776253 0.17884733 0.17935456
0.047121264 -0.0043895748 -0.1857298 -0.21381874 -0.2760065 -0.1445808 0.009040685 0.17516263
0.09808958 0.17897277 -0.13231789 -0.074156135 -0.12247079 -0.24938542 -0.09900123 -0.034816533

mid_part.4.bias f4 [12]
00000000: 074c 7f3c 2d03 c2bc aeef 03bd ecb2 843d
00000010: 388c d83b 699a 893b 69aa bd3b 4de7 43bb
00000020: 4bbe 2a3d f952 cc3c d279 17bd 08aa 1cbd
0.015582091 -0.023683155 -0.032211 0.06479439 0.0066085123 0.0041993153 0.0057881367 -0.0029892505
0.041685384 0.024941908 -0.03698141 -0.038248092

mid_part.5.weight f4 [12]
00000000: 4942 063f 2862 353f 88c7 a73e 206f 8e3e
00000010: 6de8 cc3f 4661 803f f7fb 0abe 737e 743d
00000020: e75f 28bd 9116 613e 870c a83e 1531 743e
0.52444893 0.708529 0.32769418 0.27819157 1.6008431 1.0029685 -0.1357268 0.059690904
-0.041107085 0.21981265 0.32822058 0.23846848

mid_part.6.weight f4 [12, 12, 3, 3]
00000000: 22a7 433d 4722 d5bd 1779 62bd 249e 8a3c
00000010: 2fc3 f73d fc06 033e 5c0f 08bd f1de e03d
00000020: 4bb9 3d3d a4f5 7f3d 3c7c 993e 4ef9 193e
00000030: 9a7d 2d3d 1154 4a3e 2f7c 073e 1549 9ebc
00000040: 3caa 77be 5617 8f3d 007d 823d 0e8e d9bd
00000050: 2167 3d3d e159 c13d 4982 f73c f15e e0bd
00000060: bdff 56be 5577 11be dd35 d13d e4e6 e53d
00000070: 0ae7 dbbd df40 43be 3947 19be 9566 3d3e
00000080: 1255 e53d b8ed 813d 4f50 44be 6e5e 04be
00000090: c27c afbb 1de5 3a3e 3819 b3bd dc6d 353e
000000a0: 17b6 053e 8987 f4bd d56a 0ebd 7e2c 413e
000000b0: 1d66 2ebd 62e3 28be 5a35 cebe c5c1 c53d
000000c0: b477 483e ad5f c83c da90 a33c 191c af3d
000000d0: 1159 ee3d c61d 5b3e f878 153e e5fa 5abe
000000e0: 2341 2d3d 20bf 813d f9eb 023d c5f9 3d3d
000000f0: 78d5 543e 6617 613e f61e 0c3e 868c d1bd
00000100: 83b7 adbd a486 183e a06f 37bd a52d 20be
00000110: 9604 ac3c 9912 623d dcf2 173d ef57 43be
00000120: 6738 9dbc e70f 173e fa03 763e 8f49 24bc
00000130: 1dad 733d c19b 273c 7967 7f3c 4073 33be
00000140: c52e 713d d581 12bc e781 393e 7bb9 053d
00000150: b33e 2abe 1c82 393d 36ef 453e bf9b 59be
00000160: cbcb 02be 78f1 74be 6fcb fcbd 0049 3e3e
00000170: 0fd7 7c3a 15e4 edbc d888 c9bd 56b4 5a3d
00000180: b964 d4bd cb52 443e fc6e eebd aa21 063e
00000190: d351 0a3d 0ca4 e43c 14c7 933d 944a e8bd
000001a0: 8dd3 d7bc 5981 2a3e 6cb2 07be 596e b0bb
000001b0: 24f8 8b3e 90c2 993d eff8 323e 9a78 39bd
000001c0: f99a 91be ea51 3a3e e2a4 e63d 7f21 d23d
000001d0: a0d4 43bd d68e b1bd 042b 97bc a4f9 eb3e
000001e0: 756c 6ebe a5de c93c 5fa2 1e3c 71c6 9d3d
000001f0: 815a 323d 1c68 683d b5c1 373e c539 043e
00000200: 83cd 86bd 3b15 d23d c1fa e23d b4a4 2d3e
00000210: 420d 3f39 1d07 b9bd f336 5b3d 919d 4f3c
00000220: abef 0e3e bb2f c4be 2d2e 86be 4445 8f3e
00000230: 873d 883b aca9 0abe f151 7cbe f4eb 1e3e
00000240: bc80 653d 1517 92bd 1ae3 093e 0afc c73d
00000250: f56d 89bd 1414 1fbe 67bf a23d 715f 823e
00000260: 2508 aa3c 42c3 7e3d d642 0c3d 787b ec3d
00000270: cd61 3ebe ae3f 103d b663 3a3d 544b 083b
00000280: 535f d6bc 8e13 153d 1b2a 543e d83d e1bc
00000290: 5fa8 57bd 3355 5cbc 3f73 043e 9103 ba3c
000002a0: 3e3f 91bd 00b8 07be df6a c7bd 535e 013e
000002b0: 9a56 efbc ba24 ed3d 40d9 503d 1be2 2a3e
000002c0: 6caf 73be 87de 6abd c9dd e7bc 336c 0dbe
000002d0: 777a 243e fba5 cdbe 5985 7b3e ae4e 7b3d
000002e0: 9eb3 f4bc 3ef9 ff3d 9483 05bd 58b4 5b3e
000002f0: 0194 87bd 022e df3d f06a 173d 2477 ad3c
00000300: b9e1 e83d 6b6a 643e e9da 57be 0032 babb
00000310: c5b9 183e d7ed 5d3e 2a63 183c 40fc 703e
00000320: 13c9 9a3d 54ab 41be 2a98 f4bd bec7 843e
00000330: 9269 cf3d 948f a9be fe78 933e 63da d4bd
00000340: 351f a2bc d551 3a3d f58d dc3d 32e8 303c
00000350: bcfe 0c3c 633b 60be bbe4 36be 88d5 513d
00000360: 9611 93be 8faa a4bd c8e4 6dbe f2c7 6bbc
00000370: b765 abbd bc67 acbd d1ae 813e 6dfa 613e
00000380: 349b 4cbe e671 2abe aa50 84bd d7d8 613d
00000390: ca6b 80be 963d 19bd 1632 21be d2f6 353e
000003a0: 4863 183e df38 473e a1da 49be 957b 763d
000003b0: 47a7 d7bc bbc3 853c 772e 273c 57ee 3bbe
000003c0: 8483 603d 56de 3dbe 89c8 a4be c600 573e
000003d0: 5ec8 9b3d 6ce9 0f3d 7efc 643e f454 54bc
000003e0: 0120 1bbe 33ed 09be c29d 28be 95b0 a23a
000003f0: 1ec9 88be 3994 2abe dbd6 513e 92d3 6abc
0.047766812 -0.104069285 -0.05529126 0.01692111 0.12097775 0.12795633 -0.033217773 0.10980023
0.046319287 0.06249012 0.29977596 0.15036508 0.04235611 0.19758631 0.13230966 -0.019321958
-0.24186033 0.06986873 0.06371498 -0.10622798 0.04624093 0.09440971 0.030213492 -0.10955609
-0.20995994 -0.14205678 0.10215352 0.112256795 -0.107374266 -0.19067715 -0.14968576 0.18496163
0.111978665 0.063441694 -0.1917126 -0.12926647 -0.0053554485 0.18251462 -0.087450445 0.1771769
0.13057743 -0.11939914 -0.03476985 0.18864629 -0.04257785 -0.1649299 -0.4027508 0.09656099
0.19576913 0.024459684 0.019966532 0.08550281 0.11638082 0.21398076 0.14596927 -0.21384771
0.042298447 0.06335282 0.031963322 0.046380777 0.20784557 0.21981582 0.13683686 -0.10231881
-0.08482268 0.14895111 -0.04478419 -0.15642412 0.02099828 0.055193517 0.037096843 -0.19076513
-0.019191934 0.1475216 0.24024954 -0.010027303 0.059491266 0.010230006 0.015588635 -0.17524433
0.058882494 -0.008942087 0.1811596 0.03264759 -0.1662548 0.045290098 0.19329533 -0.21250819
-0.12773053 -0.23920238 -0.123434894 0.18582535 0.00096450833 -0.029039422 -0.09840554 0.053394638
-0.10370774 0.19172208 -0.11642262 0.1309878 0.03376944 0.027910255 0.072157055 -0.1134235
-0.026345992 0.16650905 -0.13251656 -0.005384248 0.27337754 0.07507813 0.17477773 -0.04528103
-0.28438547 0.1819531 0.11261918 0.10260295 -0.047810197 -0.08669822 -0.018453129 0.46088898
-0.2328356 0.024642298 0.009682267 0.07703865 0.043543343 0.05673991 0.17944987 0.12912662
-0.06582167 0.10257956 0.11082984 0.1695736 0.00018220118 -0.0903456 0.0535192 0.012671844
0.13958614 -0.38317665 -0.26207104 0.27982533 0.0041577253 -0.13541287 -0.24640633 0.15519696
0.056030974 -0.07133309 0.13465539 0.097648695 -0.06710426 -0.15535003 0.07946663 0.2546344
0.020755837 0.06219793 0.034243427 0.11546987 -0.18591996 0.03521698 0.045505248 0.0020796852
-0.026168501 0.036395602 0.20719187 -0.02749531 -0.052650806 -0.013448047 0.12934588 0.022706779
-0.070921406 -0.13253784 -0.09737181 0.12633638 -0.0292161 0.11579271 0.050988436 0.16687815
-0.23797387 -0.057341125 -0.028303998 -0.13810806 0.16062342 -0.40165696 0.24562587 0.06135433
-0.029870804 0.12498711 -0.032596186 0.21455514 -0.066200264 0.10897447 0.036967218 0.021174975
0.11371178 0.2230622 -0.21079601 -0.00568223 0.14914615 0.2167276 0.009300986 0.23533726
0.07557883 -0.18913013 -0.119430855 0.2593364 0.10127558 -0.33117354 0.28803247 -0.103932165
-0.019790271 0.045488197 0.10769264 0.010797547 0.008605655 -0.21897654 -0.17860691 0.05122903
-0.28724355 -0.08040344 -0.23231804 -0.014390932 -0.0836901 -0.08418223 0.25328687 0.22068186
-0.1998108 -0.16645011 -0.06460698 0.055138435 -0.25082237 -0.03741225 -0.15741763 0.17769936
0.14881623 0.19455288 -0.19712307 0.06017645 -0.026324881 0.016328683 0.010203949 -0.18352638
0.054812923 -0.18541846 -0.32184246 0.20996389 0.076065764 0.035134718 0.22361943 -0.0129597075
-0.15148927 -0.1346939 -0.1646643 0.0012412245 -0.2671594 -0.16658105 0.20492117 -0.014332669

mid_part.6.bias f4 [12]
00000000: 9609 803c 64b2 123d e75e 123c 5a91 503d
00000010: 45c2 693c 5bc1 a33c 0194 503a f738 b33c
00000020: f8c5 133d a694 133c eb50 30bd 2786 f0bc
0.01562957 0.035814658 0.008933759 0.050919868 0.014267509 0.01998966 0.00079566246 0.021877749
0.03607747 0.0090076085 -0.04304592 -0.029360844

mid_part.7.weight f4 [12]
00000000: 50c5 d23e 6158 11be 41e1 923e 3fea 963e
00000010: e5ba 5b3e e935 403f 55e1 513f 21ec 843e
00000020: 4358 873e 3a21 c13f 1727 dd3e e686 2a3e
0.41166162 -0.1419387 0.2868748 0.2947559 0.21458013 0.7508226 0.81984454 0.25961402
0.26434526 1.5088265 0.43193886 0.16653022

mid_part.8.weight f4 [12, 12, 3, 3]
00000000: 6450 b63d d8e7 cdbd f5dc 03be 8571 97bd
00000010: 5bd0 533e 076c 2f3e 4c5f 8bbe 5646 eb3d
00000020: 4cd7 86bd 441e 2abd 141d 373d 6af3 9a3d
00000030: d8d6 d13d c412 9d3e 4e82 e93c 1e01 583e
00000040: deae 873d 6f38 3dbd 14a8 e33d 918d 08bd
00000050: dca6 81bc 2f88 41be 0749 edbc d2ff c6bb
00000060: 1258 803d 350c 28be 6df4 123b 5ce0 20bc
00000070: db8a 47bd ccb1 d53c 57a2 b8bd d7bd 13bd
00000080: 0cee 053e eb41 dbbb 1aa4 c5bd 179e 4cbe
00000090: dbe3 ebbc c52e fcbb 99b9 093d 7bb0 c53d
000000a0: 9371 94bc 39ac 6c3e e868 a6bd 22cc 953d
000000b0: 800e f8bb 2a29 dc3d 9a1f 0b3e b3f0 a23d
000000c0: 2d4d 23be 56a1 d13b 613f b0bc ffe1 d43e
000000d0: e729 2cbe 4211 5a3d db44 ac3d 5cba a1be
000000e0: ec52 6d3d 0c76 e33b 196d 3abc 18f0 46bd
000000f0: ee12 05be e8ad cabd 021c 403d 8fbb abbb
00000100: a634 a23e e99b b3bc 6db7 473d 9183 6a3e
00000110: b39a 90bd e50b 14be 267a 33bd 4942 79be
00000120: d0f0 a8be b369 81bd cf55 863c cc67 8e3d
00000130: ac06 443e ecba c4bb ca09 0c3d bdab 4ebe
00000140: 9fde 85bd 7c9f ae3d 4bac 48bd f21e fabd
00000150: 1570 12be dd41 6abd 807a afbc 97ad 7b3e
00000160: 859c 0cbd 9001 d03b e9ab 323c aa62 3e3e
00000170: 70b1 1b3d d9e9 9bbd 7009 4dbd 1571 053d
00000180: 9baf d53d 13c6 d03d dc85 e1bc d1ba 3c3e
00000190: 28d4 c73e d1a6 98be 6d89 ea3e c1d4 183d
000001a0: 6b90 403e e541 4dbe f12c 1f3e bfdf 483e
000001b0: 9375 e83d b6b5 d1bd 8eee 1dbe e862 333e
000001c0: d111 1a3e 3a54 1c3d 9f63 b73c 39f9 9ebe
000001d0: 7a1b 92be 4c6e 6f3d 2f70 10be f6c0 173d
000001e0: 2cea fb3d 68f7 513e ebb7 7ebe ec87 14be
000001f0: 6c26 cb3b ca38 dbbd 3899 a93c bde3 2fbd
00000200: 4f52 973d 7f37 d13c bba0 85be 77f9 7c3e
00000210: 6b6e dfbd da2e ac3d 0bcc 2e3d 160c 20bd
00000220: d777 c03e 33be 6a3d 931f 373e d592 f2bc
00000230: 5636 c23d 147f 1cbe 3286 a53d af89 e83d
00000240: 0c7c 223e 5ade 1f3c 3421 d2bd a428 303d
00000250: 405a 443e f3cf 9bbe e7d1 283e 13b0 aabe
00000260: 022c 633d 7c54 f93d ffbc 313e 4f48 bcbc
00000270: 8b30 a13d a257 513e c657 e23c d96c 35be
00000280: 8015 99bd 995a 86bd 2f0b 273c 6c8b cabc
00000290: 0f1f 343e b296 0d3e 41cf 053d ff60 463d
000002a0: aed8 3dbc 345f 2bbd 5076 853d 5b16 1a3e
000002b0: 2747 643e a52e ad3d 5c36 3d3d 061e b1be
000002c0: 0b53 293c 7ff3 ed3c 90f3 61bd 64ac 953d
000002d0: c5d3 ad3d 38d2 9ebd 7025 cebc a59d ed3c
000002e0: 92c1 3dbe c098 843c c3fd 9b3e 7b41 b2bd
000002f0: a57d 0a3e 948f 9c3e 8ab1 a13c 6506 8e3c
00000300: bc57 7d3e fe4f 203d 682b 693e b114 4c3e
00000310: 8664 21bc 4afa 2d3d 8019 d53c e9d4 00bd
00000320: ae76 b83d d47b 18bc 7ce9 25be e39d 18be
00000330: decc cabd d366 903d 0d84 293e e947 143e
00000340: eae0 69be 81b0 4abc daa3 0e3e f3aa 6a3d
00000350: 2112 a23b 0d8b f3bc 4a8d 04bd 2739 153e
00000360: 20f5 34bd 563b 4b3e 271a 163e 9abb 1fbd
00000370: d737 03bd 8060 abbd 2dc2 f33d 0ef7 d23d
00000380: 72cd 1b3e ea73 903d d4bf 4c3d 9ccf 443e
00000390: 86a9 d93c d4b5 2d3e 59e8 f3bd 16d3 b93d
000003a0: 23a6 a03d 06a2 1cbe 33a5 b439 11c2 09bd
000003b0: ccd7 28be 07d8 c6bc 8135 19be 0906 533d
000003c0: c33c 95bd 944e 93bd ff00 5abd f9f1 40be
000003d0: 15bc 8dbd 7f15 62bd 334f 533e fac0 ed3d
000003e0: ad48 66be b9cc 7f3d 0cd6 9bbd bf8a d53c
000003f0: c920 7d3d dcad 0f3d 382e 8cbe 4692 343e
0.08902052 -0.10053986 -0.12877257 -0.07394699 0.2068495 0.17131053 -0.27221143 0.11488025
-0.06584033 -0.04153277 0.044705465 0.07565959 0.10246056 0.3067838 0.028504517 0.21094176
0.0662515 -0.046196397 0.11116043 -0.033338133 -0.015826635 -0.18899606 -0.028965486 -0.0060729766
0.06266798 -0.16410907 0.002242352 -0.009819116 -0.048716407 0.026085757 -0.09015339 -0.036069717
0.13079089 -0.0066912076 -0.096504405 -0.19982181 -0.028795173 -0.007696005 0.033624265 0.096528016
-0.018120563 0.23112573 -0.08125478 0.07314326 -0.007570088 0.10750039 0.13586274 0.07956066
-0.15947409 0.0063974066 -0.021514596 0.4157867 -0.1681286 0.053239115 0.08411571 -0.31587493
0.05794041 0.0069415625 -0.01137855 -0.048568815 -0.12995502 -0.09896451 0.04690171 -0.0052408646
0.31680793 -0.02192493 0.048758913 0.22901751 -0.070607565 -0.14457662 -0.04381766 -0.24341692
-0.32996225 -0.06318989 0.016398339 0.069533914 0.1914317 -0.006003728 0.034189023 -0.201827
-0.06536602 0.08526513 -0.048992436 -0.122129336 -0.14300568 -0.05719172 -0.021420717 0.24577938
-0.034328956 0.0063478425 0.010905244 0.18592325 0.038011014 -0.07612962 -0.05005783 0.032578547
0.10433885 0.1019403 -0.02752965 0.1843064 0.3902905 -0.2981477 0.45807973 0.037312273
0.18805091 -0.20044668 0.15544488 0.19616602 0.113505505 -0.10239737 -0.15423033 0.17518198
0.15045859 0.038166262 0.02238637 -0.31049517 -0.28536588 0.058454797 -0.14105295 0.037049256
0.12300524 0.20504534 -0.24874847 -0.14504975 0.0061996486 -0.10704191 0.020702943 -0.042941798
0.07388746 0.025539158 -0.2609919 0.24704538 -0.109097324 0.08407374 0.04267506 -0.039074026
0.3759143 0.057310294 0.17883138 -0.02961103 0.0948302 -0.15282851 0.08082236 0.11354386
0.15867633 0.009757603 -0.10260239 0.043007508 0.19175053 -0.3043209 0.16486321 -0.3333746
0.05546189 0.12174317 0.17357253 -0.022983698 0.07870587 0.20443586 0.027629744 -0.17717303
-0.07474804 -0.06560249 0.0101955375 -0.024724685 0.17589973 0.13827017 0.032668356 0.048432346
-0.011587305 -0.04183884 0.06516707 0.1504759 0.22292767 0.08456162 0.04619442 -0.3459322
0.01033474 0.029046772 -0.05516392 0.073082715 0.084876575 -0.0775494 -0.025164336 0.029005835
-0.18530872 0.016186118 0.30467042 -0.08703896 0.13524492 0.3057829 0.019737978 0.017337034
0.247405 0.039138786 0.22770464 0.19929768 -0.009850627 0.042475022 0.026013136 -0.031453047
0.09007011 -0.009306867 -0.16202348 -0.14903979 -0.099023566 0.07050862 0.1655428 0.14480557
-0.22839704 -0.012371183 0.13929692 0.057291936 0.004946009 -0.02972939 -0.032361306 0.14572583
-0.044179082 0.19846854 0.14658414 -0.03899727 -0.032035675 -0.08368015 0.119022705 0.10301028
0.1521509 0.07053359 0.04998763 0.19219822 0.026570093 0.16963893 -0.11909551 0.090734646
0.07844188 -0.15296182 0.00034455358 -0.03363234 -0.1648857 -0.024272932 -0.14961816 0.051519427
-0.0728698 -0.07192722 -0.053223606 -0.18842305 -0.069206394 -0.05519628 0.20635681 0.11609073
-0.22488661 0.062451098 -0.076091856 0.026067136 0.061798844 0.035077915 -0.27379012 0.17633924

mid_part.8.bias f4 [12]
00000000: f788 923b d4fa 983c ad4f d43c 0412 933b
00000010: 2311 4f3c a127 c03c 5bd1 993c e4d0 fb3a
00000020: 353e 07bd 8119 673d 7961 413d e520 bb3c
0.004471894 0.018674292 0.025916899 0.0044882316 0.012638363 0.023456397 0.018776586 0.0019212035
-0.03301831 0.056420807 0.047212098 0.022842834

mid_part.9.weight f4 [12]
00000000: f94a 2bc0 49e0 0fbe 0412 0d3f 96eb 6e3e
00000010: dc72 67bf a71b f8be 3f32 6c3f 59c0 813f
00000020: 5574 8c3e a26e fe3d 76f6 1e3e 5c88 843f
-2.676451 -0.14050402 0.55105615 0.23332056 -0.90409636 -0.48458597 0.9226417 1.0136825
0.27432504 0.12423445 0.15523705 1.0354114

mid_part.10.weight f4 [56, 12, 1, 1]
00000000: 0a66 94bd e2f8 3a3e c8f1 41bd 6c08 c8be
00000010: 6d15 adbd 8a58 7e3e a2fd cd3d 9e57 9c3e
00000020: 2ec8 2ebe c23c 9bbd 6080 bb3e 25a1 02be
00000030: 1c02 933d 01c8 333e 3153 a93d 2dfa 37bd
00000040: 024f 70be 68f5 9c3e 1b80 80bd 3506 b13e
00000050: 3fed 4a3c 06ea ea3d c3be 5a3e 5558 df3d
00000060: 485a cdbc 608d 183e 3c91 ec3c 48f5 74be
00000070: a014 aabe 8efa a4be 2aaf b63e 7b33 7a3d
00000080: 6c3d f83c 129b 75bd 46cd 75be b377 0d3c
00000090: 3968 873d 1adb 58be 1700 14bd 4ea7 0dbe
000000a0: 48cf 34be 2261 b2be 6671 a73e 0e09 173f
000000b0: f21b 9bbe 76a2 e7bb 4984 fa3d ccb3 2d3e
000000c0: d16a 3dbe 9cd3 2a3e baea b63e beb3 e73d
000000d0: d05e 5dbd 7331 373e efb0 79bd 2eea 7c3e
000000e0: ec94 5d3e 2213 6abd fe8d 123e 5ab2 62be
000000f0: 117e 33be bedf cfbd 9dcc 123e 0f65 993e
00000100: 472b 32be d5a7 863c ad32 6abe b84b 4ebe
00000110: d5ad 283e be83 b4be b6fc eb3d 8d50 103e
00000120: 8e75 5d3e 065f ad3d ba9e afbe 042b 19be
00000130: be47 af3e ded7 55be badb 1cbd f0e1 debd
00000140: 842c 993e 2dce 75be 0cd6 393d c79d 42be
00000150: 5fbf da3d 7b82 b83b d4cf f13d 9716 de3e
00000160: 8185 c73d 432c 3abe 0d58 a9be 4c4f a8be
00000170: 3d63 b03d fb0e 193e 7efa 163f 03de 063e
00000180: 3cc4 c2bd d1f3 ac3d 949f babd 33e4 b2bc
00000190: 6241 4b3e ef81 79be b59a 3cbd 67e0 193d
000001a0: 3342 953c 3afc 4abe 72d1 383d fa60 483c
000001b0: db1c ddbe fb58 193e 434c 0b3e 63a1 e6bd
000001c0: 23ab b83d 80e3 43be f8df 8eb6 032f 87bc
000001d0: 97e9 4cbe 96c3 7fbe f370 e5bc d59e 2d3e
000001e0: e937 4bbd c4b1 22be 9ea8 82bd 7fa6 84be
000001f0: ea42 203e 9cc9 363d d72e 72bd c3a3 b5be
00000200: fbbc 2bbe c2a2 4f3e 7701 143e 55ae 31be
00000210: 8b9c 823d 40a5 183e 715e af3d 2158 a6be
00000220: 5024 433d b810 1d3e 871c 0e3e 4a77 833d
00000230: e009 aebe ec36 00bc 0685 24be 3007 8cbd
00000240: a154 a73d 2fe8 453e 999b 1abd 262c 183a
00000250: fc0a 8a3d e976 0a3d 6622 79bd 9e43 71ba
00000260: efe1 623e 3253 4a3e f018 95be a7f6 82be
00000270: 6b42 babe e943 003c 5c9b 3dbe bec5 04be
00000280: 67d5 c83d 4d7e 64be 653c 613d aa64 c53e
00000290: 3421 2f3d b0ac e03e b195 f63e 7a80 d7bd
000002a0: 10ae 2abe ed28 c9bc 28ac 98bd 1e08 233d
000002b0: 4cc0 953e 104a 513d 0e53 81bc 2d61 debc
000002c0: 32cb 1e3e e443 483d 33bd 2ebe 607b fd3d
000002d0: 636c afbd f322 2c3d 7192 cfbe f74a c5bb
000002e0: a946 8b3e 348a ae3e f80d b63b 94f4 7fbe
000002f0: 8cfe ebbc da25 9f3e a024 bdbe d092 e63d
00000300: b544 713e 0e6e 653e 6d77 bfbc d2af 1abe
00000310: 009c 0c3e 007a cfbe 6250 1c3c c1bd fa3d
00000320: 2064 793d 9316 9c3e f127 583e b717 d2bd
00000330: 767e 3e3d 2ba4 043e 916a 8c3d cf9f 1fbe
00000340: 7edd a63c 2709 293d 9e6a 2d3e e26d 7a3d
00000350: 1efa 0a3e 123b 33be 339d f23d 922d 09be
00000360: f523 05be 53e1 67bd de6f ddbd 665d a2bd
00000370: d4f6 6fbd 7fee 883e e12f f53d 6146 053e
00000380: 8be6 98be cba6 b1bd 4959 e0bd bf5a cfbd
00000390: 9e18 173d 430c ab3a b538 20bd ac39 49be
000003a0: 0fd9 63bd 691c 64be 8106 e83d b9fd dabe
000003b0: a9f8 383e a88a d6be 50b3 f03d 5080 66be
000003c0: d5a0 25bd 1648 00be 9b5f 77be 0459 82be
000003d0: 0de2 79bd 06ca eabd 85e8 1e3d e853 343e
000003e0: b388 213d eb19 5bbd e71f ffbe c7fb 9abe
000003f0: dc39 2e3d dfa6 8bbd aac1 043d d5b4 2bbe
-0.07246025 0.18259004 -0.04734972 -0.39068925 -0.08451352 0.24838462 0.10058142 0.30535597
-0.1706855 -0.07579948 0.3662138 -0.12756784 0.07178137 0.17556764 0.082678206 -0.04491632
-0.23467639 0.3065598 -0.06274434 0.34575048 0.012385665 0.11470418 0.21361832 0.1090552
-0.025067464 0.1489768 0.028877847 -0.23921692 -0.3321886 -0.32222408 0.35680515 0.06108425
0.030302726 -0.05996234 -0.24004087 0.008634496 0.06611676 -0.2117733 -0.0361329 -0.13833353
-0.17657197 -0.3483973 0.32703704 0.5899819 -0.30294758 -0.0070689274 0.12232263 0.16963118
-0.18497778 0.16682285 0.35725957 0.1131358 -0.0540455 0.17889957 -0.060959753 0.24698707
0.2163884 -0.057147153 0.14311978 -0.22138348 -0.1752856 -0.10150097 0.14335866 0.29959914
-0.17399321 0.01643745 -0.22870894 -0.20146072 0.16472562 -0.3525676 0.1152281 0.14093228
0.21626875 0.0846539 -0.34300786 -0.14957815 0.34234422 -0.20883128 -0.038295485 -0.10882938
0.29916775 -0.24004431 0.045370147 -0.190055 0.106810324 0.005630789 0.11807218 0.4337661
0.09742261 -0.18180947 -0.3307499 -0.32873 0.08612678 0.14947121 0.5897597 0.13170628
-0.09510085 0.08444942 -0.09112468 -0.02183733 0.1984916 -0.24365972 -0.046045978 0.037567522
0.018220043 -0.1982278 0.045121618 0.012230152 -0.43186077 0.1497535 0.1360331 -0.11261251
0.09017017 -0.19129753 -4.258003e-06 -0.01650191 -0.20010982 -0.24976954 -0.02800796 0.16955121
-0.049613867 -0.15888125 -0.063798174 -0.25908276 0.15650526 0.044625863 -0.0591267 -0.35476503
-0.16771309 0.20276931 0.14453684 -0.17351659 0.063775145 0.14906788 0.08562935 -0.32489112
0.047642052 0.15338409 0.1387807 0.06419237 -0.3399191 -0.007825594 -0.1606637 -0.068373084
0.081704386 0.19326852 -0.037746046 0.00058049185 0.06740376 0.033804808 -0.06082382 -0.0009203496
0.221565 0.19758299 -0.29120588 -0.25578806 -0.36378798 0.007828691 -0.18516296 -0.12966058
0.09806328 -0.22313805 0.054989237 0.38553363 0.042756274 0.4388175 0.4816108 -0.10522552
-0.16667962 -0.024555648 -0.07454711 0.039802663 0.29248273 0.051096022 -0.015786674 -0.027145946
0.155072 0.04889287 -0.17064361 0.123770475 -0.08565595 0.042025518 -0.40541413 -0.0060208994
0.27202347 0.34089816 0.0055558644 -0.24995643 -0.0288079 0.31083566 -0.36942005 0.11258471
0.23561366 0.22405264 -0.023372376 -0.15106133 0.13731384 -0.40522766 0.009540649 0.12243224
0.060886502 0.30485973 0.21108986 -0.102584295 0.04650732 0.1295325 0.068562634 -0.15588306
0.020369288 0.041268494 0.16935202 0.06113995 0.13571975 -0.17503002 0.118463896 -0.1339629
-0.13001998 -0.05661137 -0.108123526 -0.079279706 -0.058585003 0.26744458 0.11972023 0.13015129
-0.2986339 -0.08674391 -0.1095453 -0.1012473 0.03688871 0.0013049919 -0.03911658 -0.19650906
-0.055626925 -0.22276463 0.113293655 -0.427717 0.18063606 -0.4190266 0.11752951 -0.22509885
-0.040436585 -0.12527499 -0.24157564 -0.2545854 -0.061006594 -0.11464314 0.038795967 0.17610133
0.039437007 -0.053491514 -0.49829027 -0.30270216 0.042535648 -0.068189375 0.032411255 -0.167682
