models/fsrcnn/track2/track2_x4__epoch_2.pth (torch, 57971 bytes, 22 tensors)

first_part.0.weight f4 [56, 1, 5, 5]
000000 d3 25 ea bb 48 61 97 3d 93 a4 06 3d b6 63 09 3d
       -0.0071456223 0.07391602 0.032871794 0.033542357
000010 6c f3 5b 3c 3c d1 9e bc 6d 92 a4 3c 03 56 7b bd
       0.0134247355 -0.01938688 0.020089353 -0.061361324
000020 d3 bc 30 bd 6c 27 25 3c 4f 17 f6 3c 03 58 44 bc
       -0.043148827 0.0100802 0.030040411 -0.011983874
000030 a1 dc 1d 3d d0 c7 91 3c c2 00 9c 3c 3e b4 da 3c
       0.038540486 0.017795473 0.01904333 0.026697274
000040 75 d4 27 bd 59 4d a0 bc 7e 8e 65 3d 77 58 f1 bc
       -0.0409741 -0.019568132 0.056044094 -0.029461129
000050 d4 70 05 bd 86 34 72 bb cc b6 7b 3d 4b a5 38 3b
       -0.032578304 -0.0036957576 0.061453626 0.0028174694
000060 56 d6 65 bd e5 38 16 bd b2 d6 21 bd 34 a1 1a bd
       -0.05611261 -0.036675353 -0.03951139 -0.03775139
000070 2f 83 74 3c 7b 5e 3f 3d 87 cf 40 bd 94 b8 3e 3d
       0.014923855 0.046720963 -0.047072913 0.046562746
000080 5d 1d de bc 4a 7d c7 bc 8b 47 52 bb fe 0a 99 bc
       -0.02711361 -0.024351735 -0.00320861 -0.018682
000090 ed 20 b8 3a c3 b8 a6 3a cd 53 c1 3b e9 44 72 bd
       0.0014047899 0.0012719858 0.0058998824 -0.05914775
0000a0 4e ff b7 bb 5f dc 22 3d a3 ec b0 3b 4d 9d 91 3a
       -0.0056151515 0.039760944 0.005399303 0.0011109501
0000b0 a7 e4 5f bc 10 61 24 3d 3f c7 0e bb bb dc a7 bd
       -0.013665355 0.04013163 -0.002178624 -0.08196398
0000c0 0a b9 39 3d b6 50 15 ba 84 0a e7 bc 24 13 87 bd
       0.045342483 -0.0005695926 -0.028203256 -0.06595448
0000d0 78 d0 ab bc a7 ea e7 bc f8 4c 96 3c 48 20 c6 3a
       -0.02097343 -0.028310133 0.018347248 0.0015115822
0000e0 57 b3 f6 bb 0b 14 c5 bc 46 de 17 bd d9 61 88 bd
       -0.007528703 -0.024057409 -0.03707721 -0.06659288
0000f0 7d c5 ee bc cb 02 8f bd 07 2a 28 bd 8d 3c c5 bc
       -0.029146904 -0.069829546 -0.041055705 -0.024076724
000100 8a fe 74 bd d4 f0 46 3d a8 d3 77 bd ee 3d 5d bd
       -0.05981306 0.048569515 -0.060504586 -0.05401414
000110 08 2e 05 bd 50 65 b0 bc b4 71 2a bd 21 e6 3c 3d
       -0.032514602 -0.021532685 -0.041612342 0.046117906
000120 9d d6 39 3d de 07 17 bd 29 62 8d bc 40 76 28 3d
       0.045370687 -0.036872737 -0.01725872 0.041128397
000130 69 c8 b1 3b 30 e4 a7 3d 4e 88 31 3d a9 99 0f bd
       0.005425502 0.0819782 0.04334288 -0.03505865
000140 21 9c 05 bd a8 fa 5c 3b e4 96 25 3d af 51 5a bd
       -0.0326196 0.0033718739 0.040427104 -0.053300556
000150 22 be ca bc 89 e9 c0 3c 5b c1 aa 3d b1 fa 27 bd
       -0.024748866 0.023548858 0.08337661 -0.041010562
000160 83 31 86 bd 3a d1 f3 3c 06 42 14 3d d9 c1 02 bd
       -0.06552412 0.029762853 0.036195777 -0.03192315
000170 e8 e8 03 bd 7f b3 93 3b 99 89 cd bb 9e ec 2f 3d
       -0.03220454 0.0045074816 -0.0062725064 0.042950265
000180 09 92 67 bd c8 ed dd ba 70 3d 17 bd f0 42 e0 bd
       -0.056535754 -0.0016931826 -0.036923826 -0.10950267
000190 5a d8 7a b9 66 a0 39 bd b0 4e 08 bd d7 05 90 bd
       -0.00023922455 -0.045318983 -0.033278167 -0.07032364
0001a0 d3 70 1c 3b 06 e8 51 bc 70 b2 8a 3d 6d af 4c bc
       0.002387096 -0.012811666 0.067723155 -0.012492997
0001b0 9c 3c df 3c 4e c5 27 bb d0 5d 85 3c 83 07 8e bd
       0.02725058 -0.002559978 0.016280085 -0.069350265
0001c0 46 29 bb bc 04 a5 05 bc e8 94 be 3c 1e e5 f9 bb
       -0.02284683 -0.008157019 0.023264363 -0.00762619
0001d0 7a 9c a0 bd 1e eb 16 bd 9b 7b df bc 3d 1d 18 3d
       -0.078423455 -0.03684532 -0.02728062 0.03713726
0001e0 d7 0a 54 bd d9 4f ad bc 8e ae 85 3d 8f 56 86 bd
       -0.05176815 -0.021156238 0.06527434 -0.065594785
0001f0 c0 20 40 3c 50 6e 9a bd 1e e4 59 bd 90 9e 30 3d
       0.011726558 -0.07540572 -0.053196065 0.043119967
000200 23 0e bc 3c ca a3 51 3b 4f fd d7 3c 4e 67 1f bd
       0.02295596 0.0031988495 0.026365904 -0.03891688
000210 3f 1e 1e bc a6 4c 46 bd 5a 95 90 bb 21 68 45 bd
       -0.009650766 -0.04841294 -0.0044123353 -0.04819501
000220 64 8f 28 bc 75 1b b7 3c f8 c3 08 3d 36 2e 23 bd
       -0.010288093 0.02235196 0.033390015 -0.039838992
000230 08 a3 4f 3d b0 46 5d bd 26 d7 d3 3c c5 31 7e bc
       0.050692588 -0.05402249 0.025859427 -0.015514796
000240 fd 32 30 bc 32 c5 4b 3d 7f 20 ad ba 80 3c d5 bb
       -0.010754344 0.049748607 -0.0013208537 -0.0065074563
000250 81 02 52 bc 96 ee ee bc 50 39 ca bd 9a 72 06 3c
       -0.01281798 -0.029166501 -0.09874213 0.008206034
000260 40 b6 2f 3b 3d 29 82 3d da 58 3b bc a2 b7 04 bc
       0.002681151 0.06355522 -0.011434758 -0.008100422
000270 e5 32 88 3c c8 8c 89 3c e5 c0 75 bd cc fb 45 bd
       0.01662583 0.016790763 -0.05999841 -0.048335835
000280 72 39 b7 bb ae 7a 2f bd 8c cb 66 b9 4a 4b d9 bc
       -0.005591565 -0.042841606 -0.00022010336 -0.026525158
000290 3f b0 1c 3d 02 6d aa bd 6a ea 86 3c 77 53 95 bc
       0.03825402 -0.08321573 0.0164692 -0.018228276
0002a0 19 ac 4f 3c 8b d1 b3 bc 4e 10 5c bd de aa 66 3c
       0.012675309 -0.021950504 -0.053726487 0.014078824
0002b0 41 7c 46 3b b3 f4 a8 3b 6e 9c 8e bd b1 9d 9e 3d
       0.0030286463 0.0051561235 -0.0696343 0.07744921
0002c0 0d 8d 1c 3d c1 4f 51 3d e5 9e c6 bd a9 9c 7b bd
       0.038220454 0.05110145 -0.096982755 -0.0614287
0002d0 58 61 27 bd 8f 42 a6 bd 0f 69 fb 3c db e8 70 3d
       -0.04086432 -0.08118164 0.030689744 0.05881582
0002e0 e0 d0 5c bc 02 d7 0d 3d 5f 12 49 bd 74 a3 7c 3d
       -0.013477534 0.034628876 -0.049089786 0.06167932
0002f0 a5 a6 61 3d 72 f3 4a 3d 61 af aa 3c 71 7a b9 bc
       0.055090565 0.049548574 0.02083558 -0.022641392
000300 8e d9 4e 3d 38 20 2f bd fb 51 4d 3d 6f 86 58 3d
       0.050500445 -0.042755336 0.05012701 0.05286258
000310 98 e1 c7 3c 8f 3e a6 3c a5 27 b8 bc e9 7a 9c 3c
       0.024399564 0.020293502 -0.022479841 0.019101577
000320 92 dd 13 3d b9 ea 54 3d cd 2c c2 bb f4 b7 ce 3b
       0.036099978 0.05198166 -0.005925751 0.00630855
000330 8f 08 54 3c 15 dd b0 3c 4c 22 9d 3c cd d2 93 3c
       0.012941494 0.021589795 0.019181393 0.018044854
000340 a3 7c 16 3d 6c 88 2b bc 9c 87 8f 3c 82 0d 52 bc
       0.036739957 -0.010469537 0.017520718 -0.012820603
000350 b3 ad 1d 3d e2 2b 83 3c 02 3b d3 bc 4d 3d 30 bc
       0.03849573 0.016012136 -0.025784973 -0.010756803
000360 9b 81 b0 3c 69 60 d9 3c 02 a3 aa bc d3 ed 1d bd
       0.021546176 0.02653523 -0.020829681 -0.038556885
000370 1d 53 05 3d a7 77 07 3d aa 8f ae 3d 90 a0 3b bd
       0.032549966 0.033073094 0.085234955 -0.04580742
000380 f3 a1 62 3c 73 a2 a1 3d 98 af 62 bd 20 71 86 bd
       0.013832557 0.07892313 -0.05534324 -0.06564546
000390 8e 6c 1d 3d 24 9d 80 bd 08 29 91 bc d7 23 69 bc
       0.038433604 -0.06279972 -0.01771976 -0.014229736
0003a0 6d 0a d8 3c f8 b8 26 bd b5 3f ad 3c 42 8a 46 3c
       0.026372159 -0.040703744 0.021148542 0.012117924
0003b0 19 61 34 bc 9a c0 98 3d 87 ca 1e 3d 16 10 0c 3d
       -0.011009478 0.07458611 0.038767364 0.03419503
0003c0 65 fe 52 3d 62 15 66 bc 35 e7 66 3b 6b 92 53 bd
       0.05151214 -0.014043184 0.0035233025 -0.051653307
0003d0 bd 28 4f 3d fd 82 2d 3d 6d 71 0c 3d 80 c3 6a 3c
       0.05057596 0.04236125 0.03428786 0.014328837
0003e0 01 55 6e 3d 18 f4 64 3d f2 55 b4 bc ff 78 4b 3d
       0.058186535 0.05589685 -0.022013638 0.049675938
0003f0 4c c2 29 bd a6 61 26 3c 15 ac 83 bd 93 b7 e6 3b
       -0.04144506 0.010155117 -0.064293064 0.0070409267

first_part.0.bias f4 [56]
000000 1b 56 ed bb 07 99 4a bb 4c 70 d7 b9 65 23 f9 3b
       -0.0072429306 -0.0030913965 -0.00041091663 0.0076030963
000010 77 74 8a 3b dd 87 29 bb e9 b6 57 ba e8 c3 9c bb
       0.0042253095 -0.0025868334 -0.0008228855 -0.004784096
000020 3d 07 96 38 3f 38 ac ba 63 60 4f bb f6 d5 e4 39
       7.1539056e-05 -0.0013139321 -0.0031643144 0.00043646962
000030 98 d1 10 3b 94 1f b3 3b 78 26 7c 3c ac e0 90 bb
       0.0022097584 0.005466411 0.015390031 -0.004421314
000040 93 4c 98 3c cd e2 2d bc 74 72 86 bb 41 01 2e 3a
       0.018591201 -0.010613156 -0.0041029993 0.000663776
000050 e4 2d 9e 3a 18 7b 16 3c a8 1a db ba 57 44 d2 bb
       0.001206812 0.009184621 -0.0016716318 -0.006416838
000060 0e 9f 32 bc e1 f7 d7 ba d4 49 9c bb 24 bb 08 3b
       -0.010902179 -0.0016477072 -0.004769543 0.0020863498
000070 e5 f2 17 bc 76 0d 0c 3b 6d ee 80 3b 50 fd 73 bb
       -0.009274219 0.0021370328 0.0039346726 -0.0037229843
000080 9f d4 91 3a 94 16 b3 ba e5 4f 05 3c 15 26 84 ba
       0.0011125988 -0.0013663345 0.008136724 -0.001008215
000090 9f 70 57 ba 98 c4 b0 3a e2 b7 73 ba 94 3f 15 bb
       -0.0008218381 0.0013486324 -0.0009297115 -0.0022773491
0000a0 c1 e1 42 3d ce 7b 85 b9 aa 8c e6 3a 53 0d 4f bc
       0.047578577 -0.00025459978 0.0017589529 -0.012637454
0000b0 8a c6 72 3b 3d de 6e 3b f6 66 50 3c 26 5d 14 bb
       0.0037044608 0.0036448382 0.01271986 -0.0022638529
0000c0 ff 31 8f bd 48 c8 8e 3c 54 3a 98 bb 09 e9 00 bb
       -0.06991958 0.017429486 -0.004645625 -0.001967015
0000d0 0c 00 9c bb f6 66 c6 3a 1e df 31 bb 4b b5 fb ba
       -0.004760748 0.0015136886 -0.0027141045 -0.001920381

first_part.1.weight f4 [56]
000000 ed 6e 6b 3e 95 5b 77 3e b2 91 83 3e 00 e7 84 3e
       0.22991534 0.2415603 0.25697094 0.2595749
000010 1d 08 78 3e 94 34 6d 3e fc 12 80 3e 0f 1c 32 3c
       0.24221845 0.23164588 0.25014484 0.0108709475
000020 76 1e a1 3e d9 45 a3 3e 92 7b 74 3f 40 eb 7f 3e
       0.31468552 0.31889227 0.95501053 0.24992085
000030 0a e8 c8 3e f1 98 7e 3e cf 39 72 3e 2f 94 f1 3c
       0.39239532 0.2486303 0.23654865 0.029489605
000040 af 62 b2 3e 99 1d 72 3e 3a 81 61 3e ff 47 80 3e
       0.34840915 0.23644103 0.22021952 0.2505493
000050 7f 47 80 3e c9 cc 64 3e c8 df 76 3e d8 18 7c 3e
       0.25054547 0.22343744 0.24108803 0.24618852
000060 3a 22 d0 bd 98 61 81 3e 3c 44 82 be 7d 58 83 3e
       -0.10162778 0.2526977 -0.25442684 0.2565345
000070 bd fb 82 3e fd 46 80 3e c5 ff 7e 3e ea a4 66 3e
       0.25582686 0.2505416 0.24902256 0.22523847
000080 75 03 ea 3e 00 00 80 3e 59 78 80 3e f9 f5 80 3e
       0.45705763 0.25 0.25091818 0.25187662
000090 c1 eb 7b 3e 55 e9 35 3e eb a9 98 3e 9e 4d 97 3e
       0.24601652 0.1776479 0.29817137 0.29551405
0000a0 8f f5 90 3e 3d 05 88 3e 43 87 85 3e a5 32 dc 3e
       0.28312346 0.26566496 0.2607976 0.4300739
0000b0 aa 75 82 3f c3 36 76 3e 27 40 09 3e a0 eb 7f 3e
       1.0192158 0.24044327 0.13403378 0.24992228
0000c0 71 0d 14 3f cf bf 74 3e d0 24 9e 3f 5f 57 7a 3e
       0.5783301 0.23901294 1.2354984 0.24447392
0000d0 21 d9 7b 3e c1 dd 5e 3e 75 b3 86 3e 14 bd 84 3e
       0.24594547 0.2176428 0.2630879 0.25925505

mid_part.0.weight f4 [12, 56, 1, 1]
000000 f0 04 0c 3f c0 00 63 3e 03 4a 44 bf 95 c7 8d 3e
       0.54695034 0.22168255 -0.7667543 0.27691332
000010 f3 69 be 3e e5 29 8b 3e 96 89 6c bd 0d 32 d7 3e
       0.37190208 0.271804 -0.0577484 0.42030373
000020 2b 61 31 3e a8 3f 98 bf 69 8b 09 3f b2 ec 46 bd
       0.17322223 -1.1894426 0.5372835 -0.048565574
000030 ff ab e3 be c8 0a 86 3f 45 4f db 3e 92 9f c0 3e
       -0.4446716 1.047204 0.42833915 0.37621742
000040 20 6f c7 3d fd 4f a7 3d bc 13 1e 3f ee 57 85 be
       0.09737992 0.081695534 0.6174886 -0.26043648
000050 7a e5 13 bc a4 a6 3b 3f ea 1b c3 be 89 13 ff be
       -0.009026879 0.7330115 -0.38107234 -0.49819592
000060 4f a9 60 bd 2c 9b 99 bd 5d 5c d6 3e 31 29 3a bf
       -0.054848965 -0.075003 0.41867343 -0.72719103
000070 db 1c 74 3e 56 04 be 3e 4f d7 ae 3c 6c 02 d6 3e
       0.23839132 0.37112683 0.021342902 0.41798723
000080 37 0c 09 3f 8c 1b 06 3e 63 c4 0b bf 55 05 30 bf
       0.53534263 0.13096446 -0.5459654 -0.68758136
000090 18 43 51 3b 9c e4 44 bd b5 22 69 be d8 54 b6 3e
       0.003193086 -0.04806958 -0.22767146 0.35611606
0000a0 5b 2f 16 bd 2d 7d 01 3f 50 98 d0 be cb a6 1a be
       -0.036666255 0.5058163 -0.40741205 -0.15102689
0000b0 a8 aa 02 be 92 a0 e4 bd 1a 3e 19 be f2 4f 1a bf
       -0.12760413 -0.11163439 -0.14965096 -0.60278237
0000c0 8a f3 4e be 37 9a 20 bf fa 37 bf bd 28 2f 18 be
       -0.2021009 -0.62735313 -0.093368486 -0.14861739
0000d0 8a f2 2e bf 9c 2a 08 3e 4e 44 9c be c6 34 30 be
       -0.68338835 0.13297504 -0.30520862 -0.17207631
0000e0 50 78 9d be ea bb 70 bf ec 02 f9 3e 7d c9 9a 3d
       -0.30755854 -0.94036734 0.48635042 0.07557962
0000f0 9f 5e 10 bd 84 d3 4f 3f 14 b9 3e 3f 74 47 ef 3e
       -0.035246488 0.8118212 0.74501157 0.46734202
000100 0f d7 b9 3c 64 06 d2 bd 50 3a ae bb 81 3d fb be
       0.022685556 -0.10255125 -0.00531701 -0.4907036
000110 98 f3 59 3e 52 6a 35 3e 4e fa 1f bf e8 c7 b8 3d
       0.2128433 0.17716339 -0.6249131 0.09022504
000120 3f 80 ea be 5a 88 72 3e ec 0e 2f 3f 6f 20 07 be
       -0.4580097 0.23684826 0.68382144 -0.13195966
000130 da a6 58 3f af 49 68 be f6 6f f5 3d 3f 36 c4 be
       0.84629595 -0.22684358 0.119842455 -0.38322636
000140 8f 6c c7 be 76 a0 b1 bd 6a 00 90 3d c2 c4 0f bf
       -0.3895001 -0.086731836 0.07031329 -0.56159604
000150 52 5c 08 3f 4b 38 3a 3f ff dc 48 be 32 bc dc 3e
       0.5326587 0.72742146 -0.19615553 0.43112332
000160 c4 86 1f 3e a4 91 d7 be fe ee 10 3d ae 1a 15 be
       0.15578753 -0.42103302 0.03538417 -0.14560959
000170 06 eb 8f 3e 13 92 5c 3e 56 1c 15 bf 20 bc 52 be
       0.28108996 0.21540098 -0.5824636 -0.20579576
000180 f1 3e 3f 3e 4f f5 32 3f 9b cd 90 be 19 3d 62 3f
       0.18676354 0.6990556 -0.28281865 0.8837448
000190 db a1 3d 3f bd a0 d9 3d 59 35 e1 3e 9c f0 c7 3d
       0.74075097 0.106263615 0.43986014 0.097626895
0001a0 f1 eb af 3e 2a f9 af 3c 92 99 5c 3f 35 53 ee be
       0.34359697 0.021481115 0.8617183 -0.46547857
0001b0 4d f5 7d bd a1 fd 26 be d6 c1 25 3f 74 36 e4 be
       -0.062001515 -0.16307689 0.64748895 -0.44572794
0001c0 2b 25 87 3e e6 ef 1c bf 00 8a 89 be 27 86 cd be
       0.26395544 -0.61303556 -0.26863098 -0.40141413
0001d0 0c 0a 9f bd f0 3e 17 3f 15 86 f8 bd 76 b4 7a bd
       -0.07765588 0.5908041 -0.12134949 -0.061207257
0001e0 24 24 26 3f ba df 49 3f a0 a0 ca 3d 54 de 51 3f
       0.64898896 0.78857005 0.09893918 0.8197987
0001f0 cc 7c e1 be e6 18 1b be 9d e7 e2 bd 5a 57 d2 3e
       -0.44040525 -0.15146217 -0.11079333 0.4108227
000200 e0 11 90 bc 0e 6f 1c be b0 d7 f0 3e 20 fa bc 3e
       -0.017586648 -0.15276739 0.47039557 0.3690958
000210 c4 fe 08 bf 95 16 6c 3e ba 2e 08 be b8 f9 96 be
       -0.5351374 0.2305549 -0.13299075 -0.29487395
000220 08 f0 d2 3e 95 0e ac be ad 04 25 be ba d0 81 be
       0.41198754 -0.33604875 -0.16115065 -0.25354558
000230 5e 75 f7 be 5a 27 e1 3e f5 33 ab 3c a7 bd 24 be
       -0.48331732 0.43975335 0.020898798 -0.16087972
000240 e8 cc f7 3e f6 04 33 3f c9 30 23 3f 34 c3 c4 3e
       0.4839852 0.69929445 0.63746315 0.38430178
000250 66 3f a3 3e 5d 2c a0 3e 46 c1 e8 be d3 87 d3 3d
       0.31884307 0.31283846 -0.45459956 0.10328641
000260 2a 3d fd bc 66 8c 08 3e 38 e9 57 be 9d 4b 8f bb
       -0.030912954 0.13334808 -0.2108506 -0.0043730275
000270 6f 1d 0c 3e e7 e2 d5 3e 35 52 7a 3e 36 c7 f6 3e
       0.13683103 0.41774675 0.24445422 0.4819886
000280 23 0f 98 bb 78 b0 10 3f 04 2e 5c 3e dd 4d 11 bf
       -0.0046404763 0.5651927 0.21501929 -0.56759435
000290 7f 39 d4 3c e7 d8 e0 3e 43 81 b2 be 00 8a a1 be
       0.025906323 0.43915483 -0.34864244 -0.31550598
0002a0 82 16 5c 3d ea 30 8e 3e e7 fe 09 be 89 30 05 3e
       0.053732403 0.27771693 -0.13476144 0.13006796
0002b0 b5 d7 87 3e 4f b3 51 bd 63 65 11 be 74 10 93 3e
       0.2653176 -0.051196393 -0.14198832 0.2872349
0002c0 0b 39 13 bf 02 38 c5 be 70 2d 0e 3f 73 57 b2 be
       -0.57508916 -0.38519293 0.5553808 -0.34832343
0002d0 c3 72 ad 3e c2 16 fb be a0 62 22 3f 4c f8 90 bd
       0.3387662 -0.490408 0.6343174 -0.07078609
0002e0 b8 d4 08 3e 7b e3 7c 3e 9d 72 2a 3a 44 05 5d 3f
       0.13362396 0.24696152 0.0006502064 0.8633616
0002f0 d1 eb f1 be fc a2 1e 3f 06 5d a9 be 12 6e b1 be
       -0.47250226 0.61967444 -0.33078784 -0.3465429
000300 4c 88 f5 3e ea 92 88 3d 5f 5a e7 be 66 22 76 3f
       0.4795555 0.06668647 -0.45186135 0.9614624
000310 02 b3 01 3e 81 50 d1 3e 8f 9b 07 bd 78 f0 e0 bd
       0.12665942 0.40881732 -0.033107337 -0.10983366
000320 81 1a 07 bf 65 57 5b 3e ac 2b 21 be f8 ed ee 3e
       -0.52774817 0.21420057 -0.15739316 0.4666593
000330 dc 1f 04 3e c7 b6 ff bd c8 a5 9d bc 77 f1 1b 3e
       0.12902778 -0.12486034 -0.01924409 0.1522883
000340 59 c8 0c be 3f 48 88 3f 9d 25 45 3f e1 2a 2f 3f
       -0.13748302 1.0647048 0.7701052 0.68424803
000350 37 8f 77 bf 23 34 5d be 23 23 fb 3e ca 3b bb bd
       -0.96702904 -0.2160192 0.49050245 -0.09142263
000360 bf 7f cb 3e a8 c9 0a 3f 22 c6 8e be 48 00 d0 be
       0.397459 0.54213953 -0.27885538 -0.40625215
000370 9d 61 6f be fa 07 e8 3e 9d a1 4e be f7 51 fe 3e
       -0.2337708 0.45318586 -0.20178838 0.4967191
000380 0d af 8e be 81 0e 25 bd 9c d4 06 3e ed 8d 71 3d
       -0.27867928 -0.040297035 0.13167042 0.05897324
000390 6d f8 12 be 54 66 cb be 56 29 49 be 48 3d 18 3f
       -0.1435258 -0.39726508 -0.19644675 0.5946851
0003a0 97 66 f1 3e 93 a6 96 be 2c da 4e be 13 bb 34 3d
       0.47148582 -0.2942396 -0.20200413 0.04412372
0003b0 17 77 bf bf c0 56 50 3f 61 10 39 3f 6c 73 8b 3d
       -1.4958218 0.8138237 0.7229062 0.06809124
0003c0 64 c6 80 3e 2f 8a 13 be 6e 67 09 be a6 25 a8 be
       0.2515136 -0.14408182 -0.13418362 -0.32841223
0003d0 eb 17 84 3e fb c6 67 3e 5f 70 b5 3e c5 a9 a2 3d
       0.25799498 0.22634499 0.35437295 0.07942537
0003e0 bc 6d c3 bd 80 a7 31 be 71 48 06 3f df e5 92 3e
       -0.095424145 -0.17349052 0.52454287 0.28691003
0003f0 a5 58 23 bf bf 41 5c be 9a 6a e5 3d cd 0c e4 3c
       -0.63807136 -0.21509455 0.11201973 0.027838135

mid_part.0.bias f4 [12]
000000 d7 bf 94 3b 1d 66 3d bc 40 cd 13 ba ea 87 a0 bb
       0.0045394707 -0.01155999 -0.00056381896 -0.0048990147
000010 58 27 47 3d 42 cd 25 3b 17 95 39 bc 99 da 4d 3d
       0.048621505 0.0025299345 -0.01132705 0.0502573
000020 f2 04 6b bb 4e f5 80 ba 29 57 30 bb bc 97 a6 3c
       -0.0035861102 -0.0009838731 -0.002690742 0.020336024

mid_part.1.weight f4 [12]
000000 66 a9 73 3e 86 f9 b4 3e 00 00 80 3e 4c df 80 3e
       0.23795089 0.3534662 0.25 0.25170362
000010 c9 a8 b0 3e f9 d6 73 3f cd e9 49 3e 33 35 be 3d
       0.34503773 0.952499 0.19718094 0.09287491
000020 2a 37 94 3e c7 ef a8 3e 47 20 40 3e 47 ce 86 3e
       0.28948337 0.32995436 0.18762313 0.26329252

mid_part.2.weight f4 [12, 12, 3, 3]
000000 08 7c 7c 3e af 4f 08 3d 0b ed 02 3c 74 1b 84 be
       0.24656689 0.033279117 0.007991086 -0.25802195
000010 c2 28 06 3e d5 bf 03 be 1e cd 8e bd 32 52 a4 bd
       0.13101485 -0.12866147 -0.06972717 -0.0802349
000020 54 ac a0 3d 3a 41 25 3e b6 81 6d be b4 48 4b 3e
       0.07845369 0.16138163 -0.23194012 0.19851953
000030 37 0c 14 3d a9 f3 06 be 37 7a 09 be ec 67 83 bd
       0.03614446 -0.13178886 -0.13425528 -0.06416306
000040 07 e5 22 be 87 40 1a 3d ae 13 bb 3d 9b d2 21 3e
       -0.1590768 0.037659194 0.09134613 0.15802996
000050 69 6f 78 3d c1 2c 23 3e 82 a3 7c 3b 82 3e db bc
       0.060653124 0.15935041 0.0038549607 -0.026763204
000060 95 9c 84 3e a1 bf 6f 3d 13 85 96 bd 88 65 0c bb
       0.25900713 0.05853236 -0.07349601 -0.0021422822
000070 6a 91 82 bd 43 c5 04 3e e5 14 fd 3d 18 0d b3 be
       -0.06375392 0.12965874 0.12357501 -0.34970927
000080 b0 d0 7b be c2 1a 1a be aa d0 e5 bc 1f 07 0d 3e
       -0.24591327 -0.1504927 -0.0280536 0.13772248
000090 79 19 2e be 58 2f d4 bd 4b 3f b0 bd b4 33 35 bc
       -0.17001905 -0.103605926 -0.08605822 -0.01105969
0000a0 8e 1b 70 3e d7 90 69 be 80 36 88 3c 39 c4 1f bc
       0.23448011 -0.22809158 0.01662755 -0.009751373
0000b0 fe 9a 17 3d ab 90 5f 3e d0 65 36 3d 58 65 5c 3e
       0.037013046 0.2183253 0.04453069 0.21523035
0000c0 89 35 56 bd 08 53 d8 bd bd 66 9b 3d f4 e9 bf bd
       -0.05229715 -0.10562712 0.07587955 -0.09370795
0000d0 e9 47 8f 3d 6b 72 ca bd b7 cb 2c be 9a ae 84 3c
       0.06996138 -0.09885105 -0.16874586 0.016196538
0000e0 f4 1b 3e bb 1e d5 58 3e 98 a3 61 bd f8 7d 3f 3d
       -0.002900836 0.21175048 -0.055087656 0.046750993
0000f0 d0 d5 a5 bd 1e b6 de 3d be ac 28 3e 44 34 14 3e
       -0.08097422 0.1087458 0.16472146 0.14473063
000100 7b 95 31 bd b5 a6 6f 3e de 40 63 b8 b5 e7 10 3d
       -0.043355446 0.23403437 -5.418143e-05 0.035377223
000110 9d 1d 1b bc 88 5f 7d 3c cd 42 5c be d1 5f 40 be
       -0.00946751 0.015464671 -0.21509857 -0.18786551
000120 d3 e3 ca bc 3d 4d 0b bd e3 ac 0f 3d d9 1b 37 be
       -0.024766838 -0.034009207 0.035076987 -0.17881717
000130 48 26 98 3e f4 fd 8e bd 39 ab 40 bd 61 8f 44 bd
       0.29716706 -0.069820315 -0.04703829 -0.0479883
000140 ba 9f 26 3d bf 6c 2e be dd 28 16 3d 9b 29 5b 3d
       0.04067967 -0.17033671 0.036660064 0.053506475
000150 e8 59 3b 3d d3 32 df 3d 70 d0 eb 3d 86 20 fc bd
       0.04574004 0.10898366 0.11514366 -0.12310891
000160 b9 b6 f6 bc 6d ee b6 3c da 65 8c 3d 00 a6 99 ba
       -0.030116426 0.022330487 0.06855364 -0.0011722445
000170 46 b5 74 3e 46 46 f0 bd 0e 88 68 bd ab da 95 bd
       0.23897275 -0.117321536 -0.056770377 -0.07317098
000180 41 9e 16 3d b2 74 d1 3d 09 7a e7 3c 63 c2 43 3d
       0.036772016 0.10227336 0.028256433 0.047792803
000190 8a a0 8d bd c3 d2 cf bd 7a fe f4 bc 15 9a c8 3d
       -0.06915386 -0.101476215 -0.0299065 0.09795014
0001a0 f6 48 e0 3c 85 ba bd 3d 48 92 51 3d b6 a4 10 3c
       0.02737854 0.092640914 0.051164895 0.008828333
0001b0 65 e1 16 3c c6 ba 78 bd 2b 8a 87 3c fb be 6a bd
       0.009209012 -0.060724996 0.016545376 -0.05731104
0001c0 26 6f eb 3b a9 4e 63 be f8 18 57 3e f3 38 94 3d
       0.007184881 -0.22197975 0.21005619 0.07237425
0001d0 ba 29 37 3e cc 89 23 3e 5f 51 ad 3d 58 43 c9 3b
       0.17887011 0.15970534 0.08462786 0.006142061
0001e0 74 95 6c 3e 5c c1 d7 3d bc 2f 2b 3c ad 28 88 3d
       0.23103887 0.10534927 0.0104483925 0.06648383
0001f0 77 0f f0 bd 01 c2 07 3e b5 82 ea bc 87 d1 a5 be
       -0.117217 0.132576 -0.02862678 -0.3238642
000200 35 33 28 be 7d 04 cd 3c f3 31 7a 3d a9 61 99 be
       -0.16425784 0.025026554 0.06108279 -0.2995732
000210 04 f2 e6 bd 83 7c b7 3d f9 b6 ce bd fa 4c 1f 3d
       -0.112766296 0.089592956 -0.10093493 0.03889177
000220 eb 42 82 3e 0d 72 08 be 0b 11 24 bd f2 d1 92 bd
       0.2544168 -0.13324757 -0.040055316 -0.0716895
000230 90 1f 22 bd e5 ac e1 bd 03 20 a9 3e 4d 23 b2 bd
       -0.03958088 -0.11019305 0.33032236 -0.08698139
000240 b6 4d 5b 3e 39 1b 33 be 3c 7e bf bd 45 50 3f be
       0.21416363 -0.17490853 -0.09350249 -0.18682964
000250 23 ac 28 be 80 43 68 bc 19 a1 c5 bd f8 5e 02 be
       -0.16471915 -0.0141762495 -0.096498676 -0.1273154
000260 18 5b 3b bc a4 da fd bd 52 ca 29 3d 17 ee 85 be
       -0.011435293 -0.12395218 0.041452713 -0.2615821
000270 29 a7 0b 3c ad a5 ca 3d 33 f5 b8 3d 40 cc 12 3e
       0.008523741 0.098948814 0.09031143 0.14335728
000280 fd 4a 8c bd 33 12 42 bd 76 ce 44 3e e4 a5 55 be
       -0.068502404 -0.047380637 0.19219384 -0.20864064
000290 a0 5c c6 bd ef 73 61 ba a1 30 62 3e 65 44 1e 3b
       -0.096856356 -0.00086003443 0.22088863 0.0024149653
0002a0 04 cd a6 be 1b 4c 01 3c 83 17 0f 3e 73 7b 2d be
       -0.3257829 0.00789168 0.13973813 -0.16941623
0002b0 19 ce 5e 3e 10 71 9d bc 77 c7 d2 bd 6b 30 70 3e
       0.21758308 -0.019218951 -0.10291951 0.2345597
0002c0 15 38 83 3e f6 bc 61 bd f8 27 97 bd f0 d1 65 bd
       0.25628725 -0.055111848 -0.0738067 -0.056108415
0002d0 48 72 a1 3d 1c 1b 01 be ed fb e1 3d f4 84 05 bd
       0.078831255 -0.12607998 0.11034379 -0.032597497
0002e0 ed 3a 98 3d 10 7e 91 be a6 da 5a 3d b3 17 bc bd
       0.07433114 -0.2841649 0.053431176 -0.09184208
0002f0 d2 8f d0 bd 07 cd e5 bd e5 af 26 bd f7 7a 40 bd
       -0.101836815 -0.112207465 -0.04069509 -0.04699227
000300 8f 4c 22 bc 5d 43 62 bd a5 c3 00 bb 7e 5c 30 be
       -0.009905948 -0.055240024 -0.0019647863 -0.17222783
000310 51 41 04 bd a8 a1 b9 3c ff c2 91 bd f0 b8 0a 3e
       -0.032288853 0.022660092 -0.07117271 0.1354711
000320 29 6e 10 3d e0 b6 7d 3e cb b4 4c bd 95 91 0d be
       0.035261307 0.24776793 -0.049977105 -0.13825066
000330 d5 10 15 be ab 51 bd 3c 1a a2 f6 3d 43 21 8e 3e
       -0.14557202 0.023110231 0.12042637 0.27759752
000340 96 fb 4d 3e 40 64 cf 3d 00 1b ac 3d 33 07 ee 3d
       0.20115504 0.10126543 0.08403587 0.11622467
000350 c3 a5 41 3e 2d dd d1 bc b7 c3 0c 3e a0 67 1a 3e
       0.1891089 -0.02561816 0.13746534 0.15078592
000360 f2 fa a1 3d 66 b7 25 be f1 3f 85 3c 48 2c 93 bd
       0.07909192 -0.16183242 0.016265841 -0.0718618
000370 c9 62 19 3e ec 89 38 3e 05 5d 0c 3e ac 4e 28 bd
       0.1497909 0.18021363 0.13707359 -0.041090652
000380 b0 13 89 3e c7 05 99 bd 6a 3b d0 bd 38 e2 8c 3d
       0.26772833 -0.07471805 -0.10167582 0.06879085
000390 e9 ba 59 3e 69 36 77 bd f9 d9 a3 bb 31 bf 63 bd
       0.21262707 -0.060354624 -0.0050003496 -0.055602256
0003a0 c1 b5 f4 3d 23 f9 da 3d 36 a4 10 3e 43 ca 89 be
       0.11948729 0.1069205 0.14125142 -0.26912126
0003b0 fb e7 54 be da 10 83 3d 69 8e fd bd b0 64 2c bc
       -0.20791619 0.063996986 -0.12380678 -0.010522053
0003c0 d7 4b e7 3d e6 c1 f6 3c 89 99 09 3d 06 d3 8a bd
       0.11293762 0.030121755 0.03359369 -0.06778531
0003d0 3c 8f 03 3c 21 dd 83 bd ab f0 75 3e bc 50 56 3e
       0.008029755 -0.06438661 0.24017589 0.20929235
0003e0 33 08 22 3e d6 f4 b0 3d 10 6b f4 3d 9d 30 03 3d
       0.1582344 0.08640449 0.11934483 0.032028783
0003f0 98 f3 a6 3e 05 66 61 be 04 1c a2 bd 60 07 29 3c
       0.32607722 -0.22011574 -0.079155 0.0103167

mid_part.2.bias f4 [12]
000000 64 c7 94 3b c8 63 15 3a 59 e5 ac ba fe 75 04 3b
       0.004540371 0.00056987675 -0.001319091 0.002021193
000010 77 bc f6 3c bb 31 fb ba 78 8f 11 bc 4f 17 1c 3b
       0.030119164 -0.0019164601 -0.008884303 0.0023817604
000020 52 c4 85 3c 10 de 81 3b 7f 4b e8 bb fd b2 31 3c
       0.016328964 0.0039632395 -0.007089078 0.010845897

mid_part.3.weight f4 [12]
000000 d3 f3 1e 3e 55 e4 81 3e 3d 52 86 3e 7d bb 0f 3f
       0.15522699 0.25369516 0.26234618 0.5614546
000010 be 1f 87 3e bf c6 82 3e 72 b8 d8 be 36 9a 45 3e
       0.26391405 0.25542256 -0.4232822 0.19297108
000020 d4 e3 8a 3e e9 e0 4c 3e 99 24 81 3e 6f a7 46 3e
       0.27126944 0.20007671 0.25223234 0.19399808

mid_part.4.weight f4 [12, 12, 3, 3]
000000 dc 42 26 3d 6a a9 82 bd a0 b9 6a 3e 73 e3 8e 3e
       0.040591106 -0.063799694 0.22922373 0.27907905
000010 cc b1 ee bc 71 7b 0b 3e 69 70 01 be 2c d0 6f 3d
       -0.029137515 0.13621308 -0.12640537 0.058548138
000020 1a cb bb bd 9f 2d 60 be 84 c1 e9 bd 32 bd b0 3e
       -0.09169598 -0.21892403 -0.11413863 0.34519345
000030 91 18 6a bd 9d a5 15 3e 9e 74 15 be 83 e8 ef bd
       -0.057152335 0.14613958 -0.14595267 -0.1171427
000040 f7 22 98 3c 34 a8 6f 3e ee 72 0c be 33 08 ee 3d
       0.01857136 0.23404008 -0.13715717 0.116226576
000050 38 fe 9c 3c 40 48 0f 3e 8e 89 d9 bc 05 6d 98 bd
       0.01916419 0.13992405 -0.026554849 -0.07442669
000060 1f c1 80 bd b1 54 1b 3e e8 24 4c 3e 17 45 bf bd
       -0.06286835 0.15169026 0.19935954 -0.0933935
000070 07 a5 97 be d4 7b fb bc bc 77 27 bd e8 d4 ba 3c
       -0.29618093 -0.030698694 -0.040885672 0.0228066
000080 a1 23 6c be 22 1b 4a bd 41 c2 0d 3e ff 16 ae 3d
       -0.23060466 -0.049342282 0.13843633 0.0850048
000090 f0 db cc bc 38 a6 ec 3d 6a 16 12 3e b9 92 17 be
       -0.025007218 0.11555141 0.14266363 -0.14802064
0000a0 67 ef 0d 3e 0f ed ee 3d 83 b4 80 be a2 7f 9c bd
       0.13860856 0.11666309 -0.2513772 -0.076415315
0000b0 34 02 17 3e 13 e3 08 bd c0 31 ad bd 89 fa f0 3d
       0.14746934 -0.03341968 -0.08456755 0.11766536
0000c0 eb 29 81 be 5b 76 c6 3d 72 32 b5 be bc 87 57 3d
       -0.25227293 0.09690543 -0.3539005 0.05261968
0000d0 8c 3b 8c 3e fe 3a 05 be 61 95 ce 3d 28 c6 56 be
       0.2738918 -0.13010785 0.100870855 -0.20974028
0000e0 be 21 00 be b5 49 ad 3d 3a b0 c2 bb 8c fc 0b be
       -0.12512872 0.08461324 -0.005941418 -0.13670558
0000f0 90 ae 1c bd f3 6b 89 be e1 0c 7e 3e ea a7 94 ba
       -0.038252413 -0.2684017 0.248096 -0.0011341546
000100 e5 46 f1 bd d3 c6 1f 3e 9c b9 73 bb a9 c9 1c 3d
       -0.117811 0.15603189 -0.003718949 0.038278256
000110 b7 9b 25 3e 52 29 65 be 2c 42 a7 bd d6 bc 96 bd
       0.16172682 -0.22379044 -0.08166918 -0.07360236
000120 9c 1e b0 bb 92 b2 1c bd 54 50 e2 bd a8 dc 1b be
       -0.0053747427 -0.038256235 -0.110504776 -0.15220892
000130 86 58 a3 3c 10 09 19 bc 5a 3c 6f 3d e6 56 2a bd
       0.019939672 -0.00934054 0.058407165 -0.04158678
000140 69 5d 59 3e 18 58 ed 3d 1b 3a 35 3b d8 c5 5f 3e
       0.2122704 0.11589068 0.0027653042 0.21852815
000150 87 c1 f3 3d 75 e8 1c 3e d4 6e 0c bd a1 87 a5 3d
       0.11902147 0.1532305 -0.03428538 0.0808251
000160 cc 76 23 3e 58 c8 ae be 78 d6 51 be 74 bb 22 3e
       0.15963286 -0.34137225 -0.2049197 0.1589182
000170 36 af e6 bd f1 9b c1 3b 5b 9c 95 bc 6a 02 04 3c
       -0.112638876 0.0059084822 -0.018263033 0.008057216
000180 c6 c3 84 be 78 b4 a0 bd 3f d0 7d 3d 31 49 ad 3d
       -0.25930613 -0.07846922 0.061966177 0.08461226
000190 c5 4f 76 3d c9 45 cb bd 85 21 79 be 52 eb 2e 3e
       0.060134668 -0.0992542 -0.24329193 0.17081955
0001a0 76 a2 ab be b1 58 20 3d 2b 41 9c 3d 73 8e 9a 3d
       -0.33522385 0.039147083 0.07629617 0.07546701
0001b0 c6 5c fc 3d 8b 79 53 be 0a 7b 06 bd f4 31 81 3e
       0.12322383 -0.20651834 -0.032832183 0.25233424
0001c0 d0 e2 61 3d 64 56 ae 3d a1 a1 8d 3e f6 4e 82 be
       0.055147946 0.085125715 0.27662376 -0.25450867
0001d0 d2 b7 9c 3c 1f 52 03 bd 23 98 92 3d 72 b8 8e bc
       0.019130621 -0.03206074 0.07157924 -0.017421935
0001e0 f0 cf 93 3e 4a f1 9c 3d 4b eb b0 3e 39 81 7f be
       0.2886958 0.0766321 0.34554514 -0.24951638
0001f0 40 d9 82 be f7 ba 8f bd fa 7d 59 be 90 a7 f2 3d
       -0.25556374 -0.070180826 -0.21239462 0.11848366
000200 a3 8d 3c bd 38 18 ee be 5c 7e 1b be 0e cd df bc
       -0.046033513 -0.46502852 -0.15184921 -0.027319457
000210 72 da 01 bf f5 ad 41 be 71 b3 ca 3d bd a6 01 bd
       -0.50723946 -0.18914016 0.09897507 -0.031653155
000220 47 07 47 3e ca 9b 5a 3e 62 45 f9 3d d9 ad 9a 3e
       0.1943637 0.21348491 0.12171437 0.3021076
000230 2a 12 b3 3d 3d c7 c5 3e 61 d7 a9 3e 04 2c 47 bd
       0.08743699 0.3862857 0.33172134 -0.04862596
000240 80 f2 81 bd 47 ce 88 bd 64 75 d0 bd b9 f0 c2 bd
       -0.06345081 -0.06679969 -0.101786405 -0.095185705
000250 b0 49 8f 3d af b0 1e 3d 6b 8f a5 be fa e5 8c bd
       0.06996477 0.038742717 -0.32335982 -0.06879802
000260 d0 c0 ce bc 8c 0c 86 bb ad 24 38 be 42 b8 85 3e
       -0.025238425 -0.004090851 -0.1798274 0.2611714
000270 20 01 64 be 88 0d 12 3a cc bc 11 3e dc 8a 0a be
       -0.22266054 0.00055714743 0.14232177 -0.13529533
000280 d9 ea 98 3d 0c 15 20 bd 04 12 90 3e 0e f7 f8 3b
       0.07466669 -0.039082572 0.28138745 0.0075978106
000290 25 a1 1b bd 47 a3 ae 3e f6 99 9d bd 95 4d 0a 3d
       -0.037995476 0.34108946 -0.07695381 0.033765394
0002a0 16 fa f0 3d 91 77 3a bd df d8 82 be 4f 5d a4 3e
       0.1176645 -0.045524184 -0.25556085 0.3210244
0002b0 86 e1 64 be ba e8 5e be 0d d0 53 bd 2e e4 39 bc
       -0.22351655 -0.21768466 -0.051712085 -0.011345906
0002c0 71 83 ce 3d bf 10 6c 3e 50 c8 e0 3d 59 f4 d9 3e
       0.10083664 0.23053263 0.109757066 0.42569235
0002d0 57 11 19 3d cc da 61 be 19 03 46 be 88 59 f6 3b
       0.037370052 -0.2205612 -0.19337119 0.007517997
0002e0 de ab e0 bd 11 8b 88 3d 6e b5 3b 3e 7a e5 89 3e
       -0.10970281 0.0666715 0.18330929 0.2693289
0002f0 f0 96 16 3e f2 93 e1 be 69 55 ee 3d f0 01 29 be
       0.14706016 -0.44058186 0.116373844 -0.16504645
000300 b5 02 3a 3e 25 f3 5d 3e cf ea 22 bd ff 99 c7 3c
       0.18165095 0.21674784 -0.039774712 0.024365423
000310 e0 76 25 bd e5 5b ad 3d 34 ea bb bd 47 9d 0c be
       -0.04039657 0.08464793 -0.0917553 -0.13731872
000320 23 39 05 3e ac 8b a6 3e b2 e5 d6 3e 10 3b 6d 3e
       0.13010077 0.32528436 0.4197212 0.23167062
000330 61 b8 69 be bb c8 8f bb 8e f5 db 3c 94 f3 8c be
       -0.22824241 -0.0043879426 0.026850488 -0.27529585
000340 a6 22 99 be d7 27 bf be 0e cb 10 be 29 b6 7e 3d
       -0.29909247 -0.37335083 -0.14139959 0.06218544
000350 f0 45 db bc 47 f8 26 3f 39 25 a5 3e 62 4f 41 3e
       -0.026766747 0.6522259 0.3225496 0.18877938
000360 11 41 46 3e 37 5f 4c be 32 22 1c 3e 7e 7a 82 3d
       0.19360758 -0.19958197 0.1524742 0.0637102
000370 b0 6e 01 3d 64 f1 98 bc 80 06 27 be 6e 7e 9c 3e
       0.0315997 -0.018669792 -0.16311073 0.30565208
000380 cc a1 f5 3c 21 fe 5e 3e de 49 91 3c ac a9 30 3e
       0.029984377 0.2177663 0.017735418 0.17252225
000390 77 36 27 bc 08 a2 f7 3c 8d bb dc 3d 91 cf 9a 39
       -0.0102058565 0.03022863 0.1077796 0.00029527818
0003a0 f0 bc 9b 3d 90 42 a3 3c 2d a8 dc bd 0c 2c 72 3d
       0.07604396 0.0199292 -0.107742645 0.059124038
0003b0 a5 69 37 3e 7c e1 e0 bc 61 71 31 3e 2d fa 32 3e
       0.17911394 -0.02745127 0.17328407 0.17478247
0003c0 24 c9 41 3d c4 7e 38 bc cf c2 39 be 6e 86 55 be
       0.047310963 -0.011260692 -0.1814072 -0.20852062
0003d0 e0 e0 55 be f3 b9 1b bd 76 a5 59 3d 4e e6 11 3e
       -0.20886564 -0.038019132 0.05313631 0.1424801
0003e0 4c aa f6 3d 8b 85 42 3e e7 4b cd bc 6e 0e 60 3d
       0.120442 0.18996255 -0.025060607 0.05470126
0003f0 ce bb 0f be c5 95 88 be 21 d5 42 be 9a 15 f8 bb
       -0.14036486 -0.26676765 -0.19026615 -0.0075709345

mid_part.4.bias f4 [12]
000000 e9 ca 1e 3c 63 2d 93 bc 9e 9a ac bc ca cf ea 3c
       0.009691932 -0.017965978 -0.021069821 0.028663535
000010 32 6b 05 bb 0c 54 06 3a f1 2e ee 3a e1 a2 18 3b
       -0.0020358083 0.00051242183 0.0018171949 0.0023290443
000020 70 d2 c3 3c d3 8a 3b 3c 44 39 93 bc e3 3b 95 bc
       0.023904055 0.0114466725 -0.017971642 -0.018217033

mid_part.5.weight f4 [12]
000000 bd 5d 07 3e 67 75 fb 3e ac d8 8f 3e 4b f8 86 3e
       0.13219352 0.49113008 0.28094995 0.26361308
000010 94 e0 10 3f 70 f1 a9 3e 9c 4b 2a 3d cf d9 f9 3d
       0.5659268 0.33192015 0.041576013 0.12199747
000020 c2 64 af bd 23 fc 7f 3e ef e2 a2 3e 6d b2 83 3e
       -0.0856414 0.24998526 0.31813762 0.25722066

mid_part.6.weight f4 [12, 12, 3, 3]
000000 5f a8 53 3d a7 3e d4 bd b7 8f 45 bd 1f 1c fa 3c
       0.051674243 -0.103635125 -0.04823276 0.030530987
000010 2e a0 f1 3d 5e 5e 12 3e b1 4f 5a bc 6b a4 9a 3d
       0.1179813 0.1429381 -0.013324664 0.075508915
000020 ec df 15 3d 93 bd 8f 3d fe dd 97 3e 57 93 2a 3e
       0.0365905 0.0701858 0.29661554 0.16657768
000030 d6 db ce 3c ab a7 3e 3e 81 b9 04 3e 73 52 11 bd
       0.02525131 0.18618648 0.12961389 -0.03547902
000040 74 f5 7f be 56 e1 93 3d a9 e2 a7 3d f1 7e b5 bd
       -0.24995977 0.07220714 0.08197529 -0.08862103
000050 02 ef 88 3d 25 61 cb 3d 28 2a 24 3d 3b 4d c7 bd
       0.06686212 0.09930638 0.040079266 -0.097315274
000060 9e c7 41 be ea 3d 06 be 6b 51 eb 3d 5e dc 03 3e
       -0.18923804 -0.13109556 0.114901386 0.12877032
000070 7f b1 2d be 03 f3 50 be e4 4d de bd a7 57 fb 3d
       -0.1696224 -0.20405202 -0.108547 0.12272578
000080 e5 59 0e 3e 5f 22 7c 3d 1f 1a 7f be 4a a0 f4 bd
       0.1390148 0.061556216 -0.24912308 -0.11944635
000090 b4 71 b2 3b 5a 68 42 3e 25 56 97 bd a2 89 35 3e
       0.0054456834 0.1898512 -0.07389478 0.17728284
0000a0 05 b7 05 3e 2f b6 f7 bd 81 21 fb bc e5 5d 3f 3e
       0.13058098 -0.12095296 -0.030655624 0.18688162
0000b0 db 33 41 bd 4b e0 29 be 54 14 d2 be ae ba f3 3d
       -0.047168594 -0.16589467 -0.41031134 0.11900841
0000c0 dc ae 47 3e 12 7b 0d 3d a5 bc 55 3d 14 bf a2 3d
       0.19500297 0.034541197 0.05218186 0.079466015
0000d0 61 c0 ec 3d ba d9 54 3e e6 9e 26 3e 3b b3 57 be
       0.11560131 0.20786181 0.16271552 -0.21064465
0000e0 4f 26 34 3d b3 69 97 3d f3 0c 17 3d 99 60 99 3d
       0.043981846 0.073932074 0.036877584 0.07489128
0000f0 10 7f 4b 3e 04 0f 67 3e a3 93 08 3e 40 91 d2 bd
       0.19872689 0.22564322 0.13337569 -0.102816105
000100 4d 88 af bd 8a 35 1f 3e 07 34 35 bd 6e 2f 20 be
       -0.08570919 0.15547767 -0.04423907 -0.15643093
000110 f1 5b 9b 3c 39 d7 68 3d 4f 1d 01 3d 80 f0 46 be
       0.01896474 0.056845877 0.03152209 -0.19427681
000120 05 47 af bc 45 49 10 3e 53 74 76 3e 23 a4 a2 bc
       -0.02139617 0.1409045 0.24067812 -0.019853657
000130 e4 92 57 3d 28 69 3f 3c 54 4f 23 bc f3 37 2f be
       0.05263032 0.011682786 -0.009967644 -0.17111187
000140 41 79 60 3d bc 57 df bb af e8 3c 3e 84 89 db 3c
       0.054803137 -0.0068158787 0.18448137 0.026798971
000150 5a af 27 be ff 47 16 3d c5 e0 33 3e 2e ae 51 be
       -0.16375485 0.036689755 0.17566212 -0.204766
000160 6b d2 03 be 28 1a 72 be d9 29 ee bd 30 8d 41 3e
       -0.12873237 -0.2364279 -0.116290756 0.18901515
000170 e7 09 78 3c ab 4e ad bc 1c e1 b5 bd 9b 00 89 3d
       0.01513908 -0.021155676 -0.08880827 0.066895686
000180 e3 3c b9 bd 9c d4 4c 3e 2a 85 d4 bd 7c ec 0a 3e
       -0.09044816 0.20002979 -0.103769615 0.13566774
000190 22 e3 13 3d 1c 02 0b 3d e7 1c 91 3d 0e 51 e4 bd
       0.036105283 0.03393756 0.07085591 -0.111482725
0001a0 f9 89 c1 bc 5c 53 2f 3e e0 c0 fe bd f9 a4 79 3b
       -0.02362536 0.17121643 -0.12439132 0.0038092716
0001b0 a4 0d a0 3e 4c 16 bc 3d f7 8b ba 3d dd 61 bb bd
       0.31260407 0.0918394 0.091087274 -0.09149525
0001c0 23 e1 4b be db 5e e6 3d 1d 76 ac 3d 2a 1b 86 3d
       -0.19910102 0.11248561 0.08420966 0.0654815
0001d0 8a 46 15 3c b0 d3 e2 bd 29 60 cf 3c cc a4 a4 3e
       0.009111056 -0.110755324 0.025314407 0.3215698
0001e0 83 2f 53 be f2 37 a0 3b 8e 8e a2 3d 7c 80 1f 3e
       -0.20623593 0.0048894817 0.079373464 0.15576357
0001f0 78 89 38 3d 69 03 ea 3b a0 c0 e7 3d b9 5e d1 3d
       0.045052975 0.00714152 0.11316037 0.10223145
000200 66 57 61 3c 8d bc 4a 3e 46 03 b2 3c 1f 8f 33 3e
       0.013753748 0.19798489 0.021730077 0.17535065
000210 6a 0b b5 3c bc fb 65 3c 26 69 c2 bb f0 bf e8 3d
       0.02210017 0.014037069 -0.005932945 0.11364734
000220 c2 cb ed 3c f7 ea 11 bd d9 d0 f9 bd ca 19 0f 3e
       0.029027823 -0.03562447 -0.12198038 0.13974681
000230 ca a2 1c 3d b4 0d 28 be 52 21 43 be aa 15 91 3d
       0.038241185 -0.16411477 -0.1905568 0.0708421
000240 71 d5 6c 3d 81 df bf bd 36 86 08 3e d6 2a 02 3e
       0.05782074 -0.09368802 0.13332447 0.12711653
000250 16 40 73 bd be 11 dd bd 55 bc c0 3d 06 7d 80 3e
       -0.05938729 -0.107944 0.094109215 0.25095385
000260 9a ff 54 3d 27 36 68 3d d6 f1 43 3d 57 66 07 3e
       0.052001573 0.05669227 0.047838055 0.13222633
000270 43 aa 36 be a9 dd 9b 3c 37 56 8a bc 70 fc 31 bc
       -0.17838387 0.019026594 -0.016886814 -0.010863408
000280 81 9f 1c bc 12 ef 5a 3d 13 20 27 3e 23 87 3b 3c
       -0.009559513 0.05345065 0.16320829 0.011445793
000290 b4 90 06 3d 62 a0 d6 3c 81 42 b0 3d 08 5f 16 bd
       0.032852843 0.026199523 0.086064346 -0.036711723
0002a0 c5 c1 4a bd c4 f7 c4 bd 6d da bc bd 73 f0 11 3e
       -0.0495012 -0.0961757 -0.09221349 0.1425188
0002b0 5f d4 c1 bc 89 56 c4 3d 16 42 33 3d d5 92 33 3e
       -0.023660837 0.09586818 0.043764196 0.1753648
0002c0 82 2a 57 be 03 30 3f bd 5b ea 03 bd 59 4b 00 be
       -0.21012309 -0.046676647 -0.03220592 -0.12528743
0002d0 26 3a 06 3e d0 34 92 be 11 03 dc 3d 8b 43 0d b9
       0.1310812 -0.28555918 0.10742772 -0.0001347197
0002e0 ac 1d 10 3c 80 2c 1e 3e 60 00 f3 3c 33 86 17 3e
       0.008796137 0.15446663 0.029663265 0.14797287
0002f0 af 59 0b bd 26 e2 dd 3d b1 90 84 3c 64 5a 5d 3d
       -0.034021076 0.1083415 0.016182275 0.05404128
000300 a1 88 0b 3e e3 53 5d 3e 15 8c 27 be bd de 82 3c
       0.13626339 0.21614031 -0.16362031 0.01597535
000310 da e2 26 3e 55 b7 3e 3e 25 99 2f bd 9c 49 4f 3e
       0.16297475 0.18624623 -0.04287066 0.20242923
000320 13 40 80 3d 6b b8 0d be e2 58 0f be 9f 82 9b 3d
       0.06262221 -0.13839881 -0.1399875 0.07593273
000330 61 cb 72 3d 4d ca 61 be a7 7b 20 3e fa 33 c7 bd
       0.05927599 -0.22049828 0.1567217 -0.097267106
000340 43 c9 06 bd fd a8 10 bd 80 04 c8 3d 44 82 44 3d
       -0.032906782 -0.03531741 0.09766483 0.047975793
000350 e9 3c 0c bc ec 6c 7c be f0 f0 4b be 57 bf 61 3d
       -0.008559444 -0.24650925 -0.19916129 0.055114117
000360 b6 08 90 be dd a7 5e bd d1 b8 55 be 44 25 b4 bb
       -0.28131646 -0.054359306 -0.20871283 -0.0054976065
000370 5d 59 ac bd c4 e5 dd bd db 4a 8b 3e 27 86 67 3e
       -0.08415482 -0.1083484 0.27205548 0.22609769
000380 46 a3 48 be da e0 10 be d4 32 5c bd 8c 4e 70 3c
       -0.19593534 -0.14148274 -0.05375941 0.0146671645
000390 18 06 5f be 62 73 75 bd ad b5 51 be 87 14 66 3e
       -0.21779668 -0.05992449 -0.2047946 0.22468768
0003a0 a6 95 03 3e af 04 24 3e f6 a3 3d be 36 86 ae 3d
       0.12850055 0.16017412 -0.18519577 0.085216925
0003b0 48 f7 cf bb fc 20 80 39 db 64 41 bc 4b d0 53 be
       -0.006346617 0.00024438638 -0.011803831 -0.20684926
0003c0 ce 90 51 3d b0 34 34 be 1f fc a7 be 2e 2f 3f 3e
       0.051163487 -0.17598224 -0.3280954 0.18670341
0003d0 72 21 9b 3d e1 53 4a 3d 81 6c 2b 3e 2d 81 03 3d
       0.075747386 0.0493964 0.1674061 0.032105613
0003e0 37 c0 d8 bd 27 8e 3d be 6b a1 15 be 2b 99 b5 3b
       -0.10583537 -0.18511258 -0.14612357 0.0055419407
0003f0 25 ee 91 be 9d 1a 3d be 8f 2b 3e 3e fe a7 0d bd
       -0.28502002 -0.18467183 0.18571304 -0.034584038

mid_part.6.bias f4 [12]
000000 da 93 48 3c 0f 69 f9 3b bc 5e 68 3b 85 7c 24 3d
       0.012242282 0.007611401 0.0035456857 0.040157814
000010 c3 63 0c 3c b9 18 62 3c 51 7e ad bc a5 6f 9d 3b
       0.008568707 0.01379984 -0.021178396 0.004804569
000020 82 e2 76 3a 49 43 8e 3b d1 49 32 b9 09 bd 41 bd
       0.00094179076 0.004341517 -0.00017002902 -0.04729942

mid_part.7.weight f4 [12]
000000 8c 82 83 3e c1 1c 7f 3e 41 68 8e 3e 79 0c 89 3e
       0.25685537 0.24913312 0.27813914 0.26767328
000010 bf 9c a7 3e f2 d5 ea 3e 53 84 a1 3e 35 2e f2 3d
       0.32736775 0.45866352 0.31546268 0.118252195
000020 b1 a0 80 3e ed 26 9c 3e 25 94 97 3c 15 00 3b 3e
       0.25122598 0.30498448 0.018503258 0.1826175

mid_part.8.weight f4 [12, 12, 3, 3]
000000 92 b8 d2 3d 0e 53 b3 bd 02 62 ed bd 0c f1 58 bd
       0.1028911 -0.08756076 -0.11590959 -0.052964255
000010 bc 1e 53 3e 95 fe 37 3e 94 dc 84 be 36 34 e8 3d
       0.20617193 0.17968209 -0.25949538 0.113380834
000020 0d a3 73 bd 5c 80 49 bd 21 1c 0f 3d 33 0b 8f 3d
       -0.05948167 -0.04919468 0.034938935 0.06984558
000030 99 d2 d5 3d 45 59 97 3e 6e 5c 1c 3d 5f 17 4c 3e
       0.10440559 0.29560295 0.038174085 0.1993079
000040 b9 30 8b 3d f6 fa 6b bd b5 29 be 3d 75 96 0b bd
       0.067964025 -0.057612382 0.09285299 -0.034079034
000050 b9 a3 e7 bb 82 86 4a be 5c ea 2b bd a0 96 06 bc
       -0.007069078 -0.19777873 -0.04197155 -0.008214623
000060 5e 92 42 3d 35 6f 32 be 94 39 cd bc 68 29 41 bd
       0.047502868 -0.17425235 -0.02505187 -0.04715863
000070 e8 d3 bb bd e3 93 94 3c ab 2b 2b be dc 19 51 bd
       -0.09171277 0.018136924 -0.16715877 -0.051050052
000080 2a fe b5 3d d3 36 94 bc 8a d7 e0 bd 26 5a 4e be
       0.088863686 -0.018092548 -0.10978611 -0.20151576
000090 b3 b5 05 bd f5 ab 69 bc 63 5f b9 3c 1a 9e c0 3d
       -0.032643985 -0.014262189 0.022628492 0.094051555
0000a0 44 2a be bc 81 a4 68 3e a4 39 be bd a3 d7 7a 3d
       -0.023213513 0.22719003 -0.09288338 0.061240803
0000b0 31 d0 89 bc b3 19 ce 3d c5 9a ea 3d 97 93 92 3d
       -0.016822906 0.100634955 0.11455301 0.07157057
0000c0 4d 80 28 be 08 da 1c 3d 4e 7c 68 3c 06 8b af 3e
       -0.16455193 0.03829387 0.014189793 0.34285754
0000d0 94 80 32 be e6 63 af 3d 4d 42 94 3d 83 95 a1 be
       -0.17431861 0.08563976 0.07239208 -0.3155938
0000e0 bf 16 15 3d ce 7d 8d 3c 31 b0 d1 bb cb a9 6b bd
       0.036398645 0.017271902 -0.0063991775 -0.057534974
0000f0 f6 62 fd bd 18 ac d6 bd 6d e6 59 3d 06 f3 91 bb
       -0.12372391 -0.10482043 0.053198267 -0.0044540195
000100 02 4d a0 3e 91 e4 04 bb 0b ef 7f 3d 60 3f 45 3e
       0.31308752 -0.0020277838 0.06248383 0.19262457
000110 2c 43 63 bd fe 5b 09 be b1 61 70 bd f6 f6 79 be
       -0.055483982 -0.13413998 -0.058686916 -0.24410614
000120 d6 45 a3 be fd 14 a8 bb f3 bc 91 3c 81 05 2f bd
       -0.31889218 -0.005129455 0.017790293 -0.04272986
000130 18 f2 42 3e 93 c9 8d bd fa 68 4d bd 41 99 40 be
       0.19037664 -0.06923213 -0.05014894 -0.18808462
000140 de 30 9f bd fe 3c a0 3d 23 42 64 bd 3d be 08 be
       -0.077729926 0.07824133 -0.055727135 -0.1335382
000150 d7 54 15 be d5 db 6c bd 5d 03 bb bc 4e 75 6d 3e
       -0.14583145 -0.057826836 -0.022828752 0.2318928
000160 89 ed 19 bd 4c 7d 12 3c 18 f6 fd 3b 75 01 31 3e
       -0.037580047 0.008941006 0.007750284 0.17285712
000170 6f 8f ad 3c 95 2b 87 bd 81 09 48 bd 3d 94 30 3d
       0.021186559 -0.066001095 -0.04883719 0.04311012
000180 7f e1 bd 3d dd 40 b8 3d 13 ca 0e bd cb c1 3e 3e
       0.092715256 0.08996747 -0.03486068 0.18628614
000190 8c b6 cd 3e 7c 12 61 be 72 7e f5 3e 9a ff bd 3c
       0.40178335 -0.21979707 0.47948033 0.02319317
0001a0 5c 48 80 3e ef b4 22 be 94 d9 3b 3e 19 92 88 3e
       0.25055206 -0.15889333 0.18344718 0.26673964
0001b0 8a db d9 3d 1e 26 84 bd 87 70 00 be 1b fe 40 3e
       0.10637577 -0.06452583 -0.12542926 0.18846934
0001c0 52 e5 1e 3e 3c 7b 3e 3d 27 91 4a 3d 45 a8 9c be
       0.15517166 0.046504244 0.049454834 -0.3059713
0001d0 bd a2 8d be 19 8b 80 3d d3 7e 11 be a9 71 94 3c
       -0.27663222 0.06276531 -0.14208536 0.018120604
0001e0 90 ec fc 3d ac a4 55 3e c5 82 74 be b8 8c 1c be
       0.12349808 0.20863599 -0.2387801 -0.15288055
0001f0 0e 58 e3 3b 5a 89 dd bd 1d c2 11 3d f9 91 03 bd
       0.006937987 -0.10817213 0.03558551 -0.032121632
000200 66 b2 94 3d f5 73 16 3d 20 6a 83 be 83 62 7a 3e
       0.07260589 0.03673168 -0.25666904 0.24451642
000210 9f 9e f4 bd 42 f1 9f 3d fd ae cb 3c 92 98 85 bd
       -0.11944317 0.07809688 0.024863714 -0.06523241
000220 f5 d8 b0 3e e7 82 37 3d 01 df 13 3e bf 01 6a bc
       0.34540525 0.044802573 0.14440538 -0.014282643
000230 ce df a7 3d db 68 40 be 63 f0 7f 3d fd 24 e5 3d
       0.08196984 -0.18789999 0.06248511 0.111886956
000240 4b fd 22 3e e7 08 5a 3c f5 87 c4 bd 4b 1c 26 3d
       0.15916936 0.013307787 -0.09596244 0.040554326
000250 ca 39 45 3e 95 97 98 be db af 27 3e 23 12 a8 be
       0.19260326 -0.29803148 0.16375677 -0.32826337
000260 df f6 71 3d a0 fe f4 3d 52 65 2a 3e 67 ae 4c bc
       0.059073325 0.11962628 0.16640213 -0.012492753
000270 78 9f 71 3d c6 0f 4f 3e 5a d7 2e 3d 05 90 5c be
       0.058989972 0.20220861 0.042685844 -0.21539314
000280 8c 12 4a bd 36 43 39 bd 01 08 28 bc 68 92 0b bc
       -0.049334094 -0.045230113 -0.0102558145 -0.008518793
000290 60 8e 2c 3e 88 58 0e 3e d7 b6 c7 3c 1a 97 72 3d
       0.16851187 0.1390096 0.024379177 0.059226133
0002a0 0f ac 48 bb c6 e8 28 bd 7b 4f 89 3d 85 5f 16 3e
       -0.0030620133 -0.041237615 0.06704613 0.14684875
0002b0 bc a7 54 3e a2 de b2 3d f9 d7 8b 3d f0 50 b0 be
       0.2076711 0.0873387 0.06828303 -0.3443675
0002c0 fc 57 73 3c fd 82 0c 3d b9 22 97 bd 1b b1 99 3d
       0.01485252 0.034304608 -0.0737967 0.07504483
0002d0 c1 96 50 3d 6f ee 83 bc 15 aa 0f bc c4 33 cd 3b
       0.05092502 -0.016104905 -0.008768578 0.0062622745
0002e0 4a 05 fb bd 22 b5 b7 bc 1d 73 64 3e d5 b1 c9 bd
       -0.12256868 -0.022425238 0.22309537 -0.09848372
0002f0 a7 a3 cf 3d 39 9e 99 3e df 03 d1 3c 50 b1 a5 3c
       0.10138636 0.30003527 0.025514541 0.02022615
000300 9b 44 78 3e 72 29 26 3d 0a a5 6e 3e a9 37 49 3e
       0.24244921 0.04056687 0.23305145 0.19650139
000310 4a 37 a0 bb ab 06 58 3d 3d da 87 3c 62 c5 e0 bc
       -0.0048894035 0.052740734 0.016583556 -0.02743787
000320 a0 9d bc 3d ee 1e 73 bc 50 b1 35 be a1 71 12 be
       0.09209752 -0.014838917 -0.1774342 -0.14301158
000330 d4 ac c4 bd 23 f4 9c 3d f8 39 2e 3e c6 76 be 3d
       -0.09603277 0.07663753 0.17014301 0.09299998
000340 e6 e0 86 be eb e4 12 3d ac 15 0f 3e 8e 53 a6 3d
       -0.2634346 0.035862844 0.13973111 0.081214055
000350 9d ab aa 3d 51 0a 01 bc e7 ce 9f 3c 3c 96 5c 3e
       0.08333514 -0.007875995 0.019507838 0.21541685
000360 81 1b 0f bd c0 9b 1e 3e cb 3e 00 3e d7 f0 d0 3b
       -0.03493834 0.15489101 0.12523954 0.0063763666
000370 3e 8b 54 3d be cd c1 bd e6 fe 96 3d 2c 65 ad 3d
       0.051890604 -0.0946307 0.07372837 0.08466563
000380 80 e6 1f 3e 71 c0 90 3d 64 03 70 3d 83 2b 44 3e
       0.15615273 0.07067955 0.058596984 0.19157223
000390 42 ec b6 3c 57 6f 34 3e 6b 56 06 be 7a ca c6 3d
       0.022329453 0.17620598 -0.13118903 0.09706588
0003a0 e2 cd 8e 3d d6 65 0a be f3 65 92 bc e0 3f 41 bd
       0.06972863 -0.1351541 -0.017870879 -0.047180057
0003b0 f5 cf 2e be dd 89 4c bd 8e 59 34 be 2c 3d 14 3d
       -0.17071517 -0.049936164 -0.17612287 0.03619115
0003c0 58 de 44 bd 98 8f 35 bd e7 14 52 bc 99 cb 5d be
       -0.048063606 -0.044326395 -0.012822366 -0.21659698
0003d0 75 47 a0 bd e2 84 85 bd 8b 3c 73 3e 56 12 ca 3d
       -0.07826129 -0.06519486 0.23753564 0.098667786
0003e0 77 7a 52 be 1a 8d 47 3d f6 eb 12 bd f1 78 7f 3b
       -0.20554529 0.04871855 -0.03586956 0.0038981999
0003f0 64 11 94 3d 9c d8 3a 3d 25 4c 86 be 88 28 33 3e
       0.072298795 0.04561673 -0.2622997 0.1749593

mid_part.8.bias f4 [12]
000000 53 23 99 bb bc eb 8d 3c e6 8d 24 3c d5 73 65 bb
       -0.0046734004 0.017324321 0.010043597 -0.0035011668
000010 a9 81 a3 3a 64 03 11 3c 21 0d 8b 3b d0 63 18 ba
       0.0012474555 0.008850906 0.0042435084 -0.0005813213
000020 b1 9f 32 bc 3c ee 62 3d 90 23 3d 3c 02 a3 22 3c
       -0.010902331 0.05540298 0.011544123 0.009926559

mid_part.9.weight f4 [12]
000000 5b f3 4e bf 29 d2 af bd aa 22 26 3f 58 97 7d 3e
       -0.8084008 -0.08585007 0.64896643 0.24764764
000010 ca 82 ac bf f6 19 7a 3e a9 0b 8f 3f 37 bc 7e 3f
       -1.3477414 0.24423966 1.1175433 0.99505943
000020 e7 09 88 3e 98 d2 50 3e ec c7 20 3e 1e 02 cf 3e
       0.26570055 0.20392835 0.15701264 0.40431303
