models/fsrcnn/track2/track2_x4__epoch_1.pth (torch, 57971 bytes, 22 tensors)

first_part.0.weight f4 [56, 1, 5, 5]
0	0xbc432c15	-0.011912365
1	0x3d7b11bb	0.061296206
2	0x3d05d238	0.032671183
3	0x3cf91a49	0.030408042
4	0x3c618ccb	0.013766478
5	0xbcc44702	-0.02395964
6	0x3c46272a	0.012094298
7	0xbd4f7f08	-0.050658256
8	0xbd119ec3	-0.035551798
9	0x3bffccf5	0.007806415
10	0x3d0addcd	0.033902932
11	0xbc7ac263	-0.0153051345
12	0x3d1aa295	0.037752707
13	0x3c8928e8	0.016743138
14	0x3ca127c6	0.019672286
15	0x3d13e7b2	0.036109634
16	0xbd2bbc29	-0.04192749
17	0xbcdcfc8c	-0.026975892
18	0x3d7103f9	0.05884168
19	0xbc71cacb	-0.014757822
20	0xbcd67900	-0.026180744
21	0x39f548a4	0.00046784163
22	0x3d607ecc	0.054808423
23	0xbb742aee	-0.0037257033
24	0xbd5fef2f	-0.054671463
25	0xbd15bf2c	-0.03655927
26	0xbd13144e	-0.035908036
27	0xbd2dbb89	-0.042415176
28	0x3c014f57	0.007892451
29	0x3d37852a	0.04480473
30	0xbd376fef	-0.044784483
31	0x3d40eea5	0.04710259
32	0xbcfd1cf4	-0.030897595
33	0xbcc93733	-0.024562454
34	0x3ae2860c	0.0017282381
35	0xbc91b7d8	-0.017787859
36	0x3b24b58c	0.0025132624
37	0x3b43c755	0.002987345
38	0x3be14ff0	0.0068759844
39	0xbd710d19	-0.05885038
40	0xbbc362b3	-0.0059626936
41	0x3d24e324	0.04025568
42	0x3bbe2fb7	0.005804028
43	0x38b20c95	8.490045e-05
44	0xbc341358	-0.01099094
45	0x3d212e5b	0.03935085
46	0xbb6c5942	-0.0036063944
47	0xbda91b45	-0.082571544
48	0x3d438290	0.047731936
49	0x3b9102e7	0.004425395
50	0xbccada56	-0.024762314
51	0xbd820a58	-0.06349629
52	0xbcad0562	-0.02112073
53	0xbccde958	-0.025135681
54	0x3c860c6a	0.016363341
55	0x3b2c4f88	0.0026292522
56	0xbbb94b39	-0.005654719
57	0xbcd0f96d	-0.02550956
58	0xbd178413	-0.03699119
59	0xbd8f215d	-0.069887854
60	0xbcfc94b7	-0.030832632
61	0xbd8df6fb	-0.069318734
62	0xbd341b89	-0.043971572
63	0xbcc1236d	-0.023576463
64	0xbd784d83	-0.060620796
65	0x3d3e7703	0.046500217
66	0xbd70021a	-0.058595754
67	0xbd5995fe	-0.05312156
68	0xbceee6cb	-0.029162785
69	0xbcc365e9	-0.023852305
70	0xbd32194a	-0.04348115
71	0x3d43fdd2	0.047849484
72	0x3d40409f	0.046936627
73	0xbd0fceca	-0.03510932
74	0xbcb26954	-0.02177874
75	0x3d21ae9c	0.03947316
76	0x3c36aec9	0.0111500705
77	0x3d8ebcb3	0.06969585
78	0x3d03fceb	0.032223623
79	0xbcac4d37	-0.021032913
80	0xbce2ee4f	-0.027701525
81	0x3b6513c8	0.0034954417
82	0x3d0196f1	0.03163809
83	0xbd4ba825	-0.049720902
84	0xba852816	-0.0010159041
85	0x3cee3de1	0.02908224
86	0x3db2d44b	0.08731898
87	0xbd172933	-0.036904525
88	0xbd762ef6	-0.06010338
89	0x3d1a0dd7	0.037610855
90	0x3d1919aa	0.03737799
91	0xbd039a2e	-0.03212946
92	0xbd0bc30f	-0.03412157
93	0x3a8bb94a	0.0010660079
94	0x3b8eb39c	0.004354907
95	0x3d1c2ca6	0.038128518
96	0xbd86760a	-0.06565483
97	0xbc28d1af	-0.010303899
98	0xbd1ddbd3	-0.03853972
99	0xbdc41698	-0.09574622
100	0x3ae85b2f	0.001772737
101	0xbd39643f	-0.045261618
102	0xbd0d73b9	-0.03453419
103	0xbd9ea678	-0.07746595
104	0xbb3bbc81	-0.0028646293
105	0xbc3de453	-0.011590081
106	0x3d832da0	0.06405187
107	0xbc35e10e	-0.0111010205
108	0x3cec059f	0.028811274
109	0xbb69530a	-0.0035602474
110	0x3c954502	0.018221382
111	0xbd92048e	-0.07129775
112	0xbcac5db0	-0.021040767
113	0xbbf0eb11	-0.007352241
114	0x3cb82c09	0.022481935
115	0xbb761ede	-0.003755502
116	0xbda13417	-0.078712635
117	0xbd1ea71c	-0.038733587
118	0xbcdde05a	-0.027084518
119	0x3d2fa5bc	0.042882666
120	0xbd4a4723	-0.049384248
121	0xbca7830d	-0.020448232
122	0x3d7e079c	0.062018976
123	0xbd88fd4d	-0.06688938
124	0x3c6ae58b	0.014336954
125	0xbd9a2632	-0.075268164
126	0xbd5b1c97	-0.053494062
127	0x3d381e98	0.04495105
128	0x3cc3c6d0	0.023898512
129	0x3bdb383d	0.0066900537
130	0x3cd13ae4	0.025540777
131	0xbd23c2e0	-0.03998077
132	0xbc1c632b	-0.009545128
133	0xbd4b7506	-0.04967215
134	0xbb551139	-0.0032511486
135	0xbd46741d	-0.048450578
136	0xbc3d2b4a	-0.011545965
137	0x3cc138db	0.023586681
138	0x3d0b8764	0.034064665
139	0xbd1b2452	-0.037876435
140	0x3d4ec403	0.0504799
141	0xbd61aee7	-0.05509844
142	0x3ce36e70	0.027762622
143	0xbc7acf44	-0.015308205
144	0xbc3ada37	-0.011404566
145	0x3d4ecb35	0.050486762
146	0xbb1329c6	-0.0022455319
147	0xbbb4d39f	-0.0055183913
148	0xbc4cae1b	-0.012492682
149	0xbcea3927	-0.028591705
150	0xbdc29e29	-0.09502823
151	0x3c1ed66f	0.00969468
152	0x3b301dd8	0.0026873257
153	0x3d800c81	0.06252385
154	0xbc76c84d	-0.015062404
155	0xbbd1a69e	-0.006398036
156	0x3c6c823d	0.014435348
157	0x3c82abd2	0.015951071
158	0xbd738038	-0.05944845
159	0xbd4f935c	-0.050677642
160	0xbba9f3ad	-0.005186519
161	0xbd374644	-0.044744745
162	0xba162741	-0.0005727895
163	0xbcd26de0	-0.025687158
164	0x3d1876d3	0.037222695
165	0xbda8c349	-0.08240373
166	0x3c8b0c1e	0.016973551
167	0xbc94b5a0	-0.018153012
168	0x3c60cb3e	0.013720332
169	0xbcb0f31b	-0.021600297
170	0xbd613e01	-0.054990772
171	0x3c6879d3	0.014189201
172	0x3b09f53b	0.002105071
173	0x3b8d78d4	0.0043173824
174	0xbd92c3fe	-0.07166289
175	0x3d8bd245	0.06827215
176	0x3caadaaa	0.02085622
177	0x3d194552	0.037419625
178	0xbdc43b08	-0.09581572
179	0xbd6c35f3	-0.057668637
180	0xbd55adbb	-0.052167635
181	0xbd9ca39b	-0.07648393
182	0x3d2109b7	0.039315905
183	0x3d69e7e6	0.05710592
184	0xbbd80a4e	-0.0065930253
185	0x3cce5cd9	0.025190758
186	0xbd1721ce	-0.036897473
187	0x3d805d0e	0.06267749
188	0x3d49dd51	0.04928333
189	0x3d6d3c4d	0.057918835
190	0x3c34007b	0.010986443
191	0xbcb744cf	-0.022371678
192	0x3d482c7c	0.04887055
193	0xbd1a2159	-0.03762946
194	0x3d406c3a	0.046978213
195	0x3d68e66c	0.056860372
196	0x3cb9cc4d	0.022680426
197	0x3cf08b67	0.029363347
198	0xbc18040f	-0.009278311
199	0x3c47875b	0.012178267
200	0x3d05298d	0.03251033
201	0x3d6238f0	0.05523008
202	0xbbfb0265	-0.0076601976
203	0x3be91235	0.007112766
204	0x3c8ca9fc	0.017170899
205	0x3ca01d84	0.019545324
206	0x3cd97922	0.026547018
207	0x3c7f56c8	0.015584655
208	0x3d03554e	0.032063775
209	0xbbe9eb47	-0.007138643
210	0x3c594455	0.0132609205
211	0xbc106ff2	-0.008815752
212	0x3d2339fc	0.03985022
213	0x3c93b1d1	0.018029125
214	0xbcbdee59	-0.023184942
215	0xbc7f86cb	-0.015596102
216	0x3cb6c515	0.022310773
217	0x3d0233fc	0.031787857
218	0xbc99f859	-0.01879518
219	0xbd37cee7	-0.04487505
220	0x3d0684b3	0.032841396
221	0x3cfb14d9	0.03064959
222	0x3db55b40	0.08855295
223	0xbd293863	-0.04131354
224	0x3c60efc9	0.013729044
225	0x3da22db5	0.07918874
226	0xbd550884	-0.052010074
227	0xbd7e77a7	-0.062125828
228	0x3d3e858d	0.046514083
229	0xbd7a61b2	-0.061128326
230	0xbc8f6d3a	-0.017508138
231	0xbbfc8487	-0.007706228
232	0x3cc8dae4	0.024518438
233	0xbd311003	-0.04322816
234	0x3c8d2233	0.017228222
235	0x3c191c64	0.009345148
236	0xbc1f424a	-0.009720394
237	0x3d937f2b	0.0720199
238	0x3d25cd6f	0.04047912
239	0x3d0f3cea	0.0349702
240	0x3d46d802	0.048545845
241	0xbc3489ba	-0.011019165
242	0x3c0d8890	0.008638516
243	0xbd43adfc	-0.047773346
244	0x3d375a1e	0.044763677
245	0x3d27e4f2	0.040989824
246	0x3d178189	0.03698877
247	0x3c8b733c	0.017022721
248	0x3d704139	0.05865595
249	0x3d5358bd	0.0515983
250	0xbcc8bc5d	-0.024503881
251	0x3d361de9	0.04446212
252	0xbd2986e3	-0.041388404
253	0x3be42b0d	0.00696314
254	0xbd6da85d	-0.05802189
255	0x3b86c9e1	0.0041134213

first_part.0.bias f4 [56]
0	0xbb9ee584	-0.0048491377
1	0xbb167fda	-0.002296439
2	0xb9c862b8	-0.00038220524
3	0x3c173c83	0.009230736
4	0x3b871b3c	0.0041231196
5	0xbb33f6b7	-0.0027460286
6	0xba556246	-0.0008139949
7	0xbbd21d46	-0.006412181
8	0xbac6e503	-0.0015174452
9	0xbb27d539	-0.0025609268
10	0xbb6f049e	-0.0036471258
11	0x395e06c9	0.00021174097
12	0x3a13d888	0.00056398707
13	0x3bb0a61c	0.0053908955
14	0x3ca2773c	0.019832246
15	0xbbabff91	-0.0052489717
16	0x3c6e37bf	0.014539658
17	0xbc1b68de	-0.0094854515
18	0xbb25809f	-0.0025253666
19	0xbc23ce0d	-0.009997857
20	0x3a8be60a	0.0010673415
21	0x3b71a193	0.0036869987
22	0x3a146b93	0.0005661782
23	0xbbcc0202	-0.0062258253
24	0xbbf43a9d	-0.0074532763
25	0xba8d6132	-0.0010786413
26	0xbb599d02	-0.0033205156
27	0x3aed8731	0.0018121955
28	0xbbe38f58	-0.006944578
29	0x38ec9ece	0.000112829366
30	0xba347592	-0.00068839744
31	0xbb81a951	-0.0039569517
32	0xba250150	-0.0006294446
33	0xbad12749	-0.0015957142
34	0x3b986dbf	0.0046517546
35	0xbb0eb0e1	-0.0021772909
36	0xbb27a80a	-0.0025582337
37	0x39e61488	0.00043884316
38	0xb9f0733d	-0.00045862226
39	0xbacaa908	-0.0015461752
40	0x3d37acb0	0.044842422
41	0xbb8b38a7	-0.004248697
42	0x39dffa1f	0.0004272023
43	0xbcafbb11	-0.021451505
44	0x390c4d1f	0.0001338017
45	0x3b35c51c	0.0027735895
46	0x3b6ced78	0.0036152285
47	0xbaf7298a	-0.0018856984
48	0xbd9f8a9e	-0.07790111
49	0x3c837869	0.016048627
50	0xbba3dabf	-0.005000442
51	0x3814d91a	3.548814e-05
52	0xbbafc2e3	-0.0053638085
53	0xba093f44	-0.00052355626
54	0xbb680018	-0.0035400447
55	0x3b2cfbc5	0.0026395184

first_part.1.weight f4 [56]
0	0x3e749909	0.23886503
1	0x3e786bb7	0.2425984
2	0x3e83c4b0	0.25735998
3	0x3e82fd23	0.25583753
4	0x3e7a7ba9	0.24461235
5	0x3e74c1d1	0.2390206
6	0x3e801fa4	0.2502414
7	0x3c2d263d	0.010568199
8	0x3e876358	0.2644298
9	0x3e2c6aa5	0.16837557
10	0x3f1b683d	0.6070593
11	0x3e7feb40	0.24992085
12	0x3eb87b27	0.36031458
13	0x3e803118	0.25037456
14	0x3e72506f	0.23663495
15	0x3dfc04d2	0.12305607
16	0x3e98d754	0.29851782
17	0x3e742076	0.23840508
18	0x3e5fae79	0.218439
19	0x3e1d8d87	0.1538602
20	0x3e80714a	0.25086433
21	0x3e6f137d	0.23347278
22	0x3e772423	0.24134879
23	0x3e7cf0e3	0.24701266
24	0x3d88f1d2	0.066867486
25	0x3e811706	0.25212878
26	0xbe0a2081	-0.13488962
27	0x3e830149	0.25586918
28	0x3e854d53	0.26035556
29	0x3e800b96	0.2500884
30	0x3e7e7d4c	0.24852484
31	0x3eb43f5c	0.3520459
32	0x3ece51b4	0.4029671
33	0x3e800000	0.25
34	0x3e7bb022	0.24578908
35	0x3e80e5d0	0.25175333
36	0x3e7636f0	0.24044394
37	0x3e630f50	0.2217381
38	0x3e95e4e1	0.29276183
39	0x3e967012	0.29382378
40	0x3e89e47d	0.26932135
41	0x3e855055	0.2603785
42	0x3e85048b	0.2598003
43	0x3ecb00b5	0.39648977
44	0x3f458b59	0.7716575
45	0x3e66a8c5	0.22525318
46	0x3da6740b	0.08127602
47	0x3e7ffb37	0.24998175
48	0x3f1213cb	0.5706145
49	0x3e748e8b	0.23882501
50	0x3f89b4f4	1.0758348
51	0x3e7c9988	0.24667943
52	0x3e7e03cb	0.24806134
53	0x3e51ad93	0.2047637
54	0x3e866857	0.2625148
55	0x3e842b16	0.25814122

mid_part.0.weight f4 [12, 56, 1, 1]
0	0x3f07f428	0.5310693
1	0x3e5bfe79	0.21483792
2	0xbf4416bf	-0.7659721
3	0x3e80de00	0.25169373
4	0x3ec19a8f	0.3781323
5	0x3e900618	0.2812965
6	0xbd8e6927	-0.0695365
7	0x3ee837ea	0.4535516
8	0x3e2f1959	0.17099513
9	0xbf974c83	-1.1820225
10	0x3f066ae5	0.5250686
11	0xbd5b3ef5	-0.053526837
12	0xbef4e8e0	-0.4783392
13	0x3f86a3ce	1.0518739
14	0x3eddbb98	0.43307185
15	0x3ec69f74	0.38793528
16	0x3dda47e0	0.1065824
17	0x3d9df6f9	0.07713122
18	0x3f1af98a	0.60537016
19	0xbe6f1d4c	-0.2335102
20	0xbb991bd6	-0.0046725078
21	0x3f39f8ce	0.7264527
22	0xbec148b4	-0.3775078
23	0xbefc8044	-0.4931661
24	0xbd6e74a7	-0.058216717
25	0xbd9bde55	-0.07610766
26	0x3ed16e8d	0.40904656
27	0xbf3a1338	-0.72685575
28	0x3e7a3da2	0.24437574
29	0x3eb559f1	0.35420182
30	0x3cf33f0e	0.029693153
31	0x3ec53ed3	0.38524494
32	0x3f09fc33	0.5390045
33	0x3e095c48	0.13414109
34	0xbf0b34e6	-0.5437759
35	0xbf2dfca2	-0.6796361
36	0xbc3469c7	-0.011011547
37	0xbd45dcee	-0.048306398
38	0xbe8511a5	-0.25990024
39	0x3eafc657	0.3433101
40	0xbd1ea6a9	-0.03873316
41	0x3efe7790	0.49700594
42	0xbece8469	-0.40335396
43	0xbe1ba8f0	-0.15201163
44	0xbdfc4f4a	-0.12319811
45	0xbdef5004	-0.11685184
46	0xbe06a621	-0.1314931
47	0xbf196def	-0.5993337
48	0xbe4a05e7	-0.19728814
49	0xbf1df6cd	-0.61704713
50	0xbdc3ba2c	-0.09556994
51	0xbe15424c	-0.14576072
52	0xbf2ee9ec	-0.68325686
53	0x3e04532f	0.12922357
54	0xbe9c759d	-0.30558482
55	0xbe2f7dba	-0.17137805
56	0xbe9f2053	-0.3107935
57	0xbf6df5eb	-0.92953366
58	0x3efbec63	0.49203786
59	0x3d404fb7	0.046951022
60	0xbd09b41a	-0.033619024
61	0x3f52110c	0.8205726
62	0x3f3e9ade	0.7445506
63	0x3ee65ca4	0.44992554
64	0x3ca4ed79	0.020132767
65	0xbddf1553	-0.10892739
66	0xbc976d95	-0.01848487
67	0xbefab81e	-0.48968595
68	0x3e516262	0.20447686
69	0x3e374f08	0.17901242
70	0xbf1f3d4e	-0.6220292
71	0x3d5d3ce2	0.05401314
72	0xbefb79ab	-0.49116263
73	0x3e70ebb7	0.23527418
74	0x3f301cb7	0.68793815
75	0xbe0716c9	-0.13192286
76	0x3f591a27	0.8480553
77	0xbe6db01b	-0.2321171
78	0x3de52a13	0.11189666
79	0xbec3251c	-0.3811425
80	0xbec32465	-0.38113704
81	0xbdb431f0	-0.08798587
82	0x3d9f6996	0.07783811
83	0xbf0bb3d2	-0.5457126
84	0x3f09d1cd	0.53835756
85	0x3f3ff9f7	0.7499079
86	0xbe3a5c98	-0.18199384
87	0x3ed9af6a	0.42516643
88	0x3e1b824a	0.1518642
89	0xbed88ad7	-0.42293426
90	0xbcda4411	-0.026643785
91	0xbe1dc707	-0.15407954
92	0x3e8dd47e	0.2770118
93	0x3e675001	0.22589113
94	0xbf089f5b	-0.5336816
95	0xbe336fab	-0.17523067
96	0x3e435ad2	0.19077614
97	0x3f365e1a	0.7123734
98	0xbe8d1d9d	-0.27561656
99	0x3f5800ba	0.8437611
100	0x3f3d5691	0.73960215
101	0x3df31600	0.118694305
102	0x3ed391e5	0.41322246
103	0x3dbc57dc	0.09196445
104	0x3e9c51fa	0.30531293
105	0xbd064cb9	-0.032788012
106	0x3f5911e7	0.8479294
107	0xbef06541	-0.4695225
108	0xbcd9a177	-0.02656625
109	0xbe248d3d	-0.16069503
110	0x3f27eb7d	0.655937
111	0xbee85eb3	-0.4538475
112	0x3e89c77f	0.26910016
113	0xbf1cc44a	-0.61237013
114	0xbe89bc97	-0.26901695
115	0xbecc5f14	-0.3991629
116	0xbda34498	-0.079720676
117	0x3f190ae9	0.5978227
118	0xbdf5c7bd	-0.12000988
119	0xbd85898c	-0.065203756
120	0x3f264ebd	0.64963895
121	0x3f49ce66	0.78830564
122	0x3dcd2e93	0.10018649
123	0x3f51fafb	0.8202359
124	0xbee09b87	-0.43868658
125	0xbe1c0628	-0.15236723
126	0xbde27231	-0.110569365
127	0x3ed1d975	0.4098622
128	0xbc978d3f	-0.018499969
129	0xbe18e0fe	-0.14929578
130	0x3ef0f68b	0.47063097
131	0x3ebce7fb	0.36895737
132	0xbf0902f6	-0.53520143
133	0x3e6e14b9	0.23250093
134	0xbe0840dc	-0.13305992
135	0xbe98f01b	-0.29870686
136	0x3ed3664e	0.4128899
137	0xbeabbbfd	-0.3354186
138	0xbe23b7b9	-0.15988053
139	0xbe81fe56	-0.25389355
140	0xbef8beea	-0.48583156
141	0x3ee0a7dd	0.4387807
142	0x3ca31240	0.019906163
143	0xbe292760	-0.16518927
144	0x3ef78c89	0.48349407
145	0x3f332667	0.6998047
146	0x3f23cea9	0.63987213
147	0x3ec41988	0.3830073
148	0x3ea4211f	0.3205652
149	0x3ea044d7	0.3130252
150	0xbee60e97	-0.44933006
151	0x3dd20e7a	0.102566674
152	0xbceec7a6	-0.029147934
153	0x3e08785c	0.13327163
154	0xbe58a416	-0.21156344
155	0xbb99d653	-0.004694739
156	0x3e0bf33f	0.1366701
157	0x3ed75ea2	0.42064387
158	0x3e79646a	0.24354711
159	0x3ef719b6	0.48261803
160	0xbbba69e5	-0.005688893
161	0x3f131fc2	0.57470334
162	0x3e5d7070	0.21624923
163	0xbf11bfa7	-0.56933063
164	0x3cd253ce	0.025674727
165	0x3edfb933	0.43695983
166	0xbeb2a22b	-0.3488935
167	0xbea2b6aa	-0.31779987
168	0x3d695aa6	0.056971215
169	0x3e8eda58	0.27900958
170	0xbe0aa397	-0.13538967
171	0x3e147ed2	0.14501503
172	0x3e86cd10	0.26328325
173	0xbd646455	-0.055759747
174	0xbe0fecc9	-0.1405517
175	0x3e9169a9	0.28400925
176	0xbf132f1b	-0.5749375
177	0xbec4de9e	-0.38451093
178	0x3f0eeb6a	0.55827963
179	0xbeb24fca	-0.348265
180	0x3eb24f2a	0.34826022
181	0xbefa3188	-0.48865914
182	0x3f218ebe	0.6310843
183	0xbd8f222e	-0.06988941
184	0x3e0786c6	0.13235006
185	0x3e79123c	0.24323362
186	0x3a58ffb2	0.00082778477
187	0x3f5c49e7	0.86050266
188	0xbef29742	-0.47381026
189	0x3f1f1527	0.6214165
190	0xbea9ba36	-0.3314988
191	0xbeafbfe2	-0.34326082
192	0x3ef44f36	0.47716683
193	0x3d8be421	0.068306215
194	0xbee6fa25	-0.4511272
195	0x3f75bf68	0.9599519
196	0x3dfe4295	0.12415043
197	0x3ed03499	0.4066513
198	0xbd0c9fff	-0.03433227
199	0xbdd14793	-0.1021873
200	0xbf06d16c	-0.526633
201	0x3e5a937a	0.2134532
202	0xbe142443	-0.14466958
203	0x3eeeb87f	0.46625134
204	0x3e0711e8	0.13190424
205	0xbe01710d	-0.12640782
206	0xbd0bebe8	-0.034160525
207	0x3e0f2e9c	0.13982624
208	0xbe01f883	-0.12692456
209	0x3f88501d	1.0649449
210	0x3f45091c	0.76967025
211	0x3f2f3b78	0.6845012
212	0xbf77288a	-0.9654623
213	0xbe5f63e9	-0.21815456
214	0x3efaae3e	0.4896106
215	0xbdbd39b7	-0.09239524
216	0x3eca8dc4	0.39561284
217	0x3f0a760a	0.54086363
218	0xbe8ce226	-0.27516288
219	0xbecefe21	-0.4042826
220	0xbe7bf4fe	-0.24605176
221	0x3ee89288	0.45424294
222	0xbe4f2fa0	-0.20233011
223	0x3efeb493	0.49747142
224	0xbe8af028	-0.2713635
225	0xbc5c8aee	-0.013460858
226	0x3e0834a4	0.13301331
227	0x3e04ca21	0.12967731
228	0xbe1a49b8	-0.15067184
229	0xbecd088b	-0.4004558
230	0xbe312193	-0.17297964
231	0x3f0bd5ce	0.54623115
232	0x3ef0b8cf	0.47015998
233	0xbe9adea5	-0.3024799
234	0xbe2db408	-0.16963208
235	0x3d410221	0.04712117
236	0xbfbbef1a	-1.4682343
237	0x3f505099	0.8137298
238	0x3f364c4d	0.71210176
239	0x3d5cef42	0.05393911
240	0x3e775298	0.24152601
241	0xbe06e2c6	-0.13172445
242	0xbe0277b1	-0.12740971
243	0xbeb1f726	-0.34758872
244	0x3e8416a0	0.25798512
245	0x3e7a7ab4	0.2446087
246	0x3eb0d26a	0.34535533
247	0x3da71079	0.08157439
248	0xbdd12a20	-0.10213113
249	0xbe289efe	-0.164669
250	0x3f05f445	0.5232585
251	0x3e906ca4	0.28207886
252	0xbf25ba41	-0.64737326
253	0xbe4db187	-0.20087253
254	0x3dd4f792	0.10398783
255	0x3d5879b7	0.05285045

mid_part.0.bias f4 [12]
0	0x3b9a67bc	0.004712073
1	0xbc95d3b8	-0.018289432
2	0xba9632d8	-0.0011459244
3	0xbb685412	-0.00354505
4	0x3d4ecba0	0.05048716
5	0x3b0dd2b8	0.002164049
6	0x3b3cea20	0.0028826073
7	0x3d546469	0.05185357
8	0xbb33f0c3	-0.0027456738
9	0xb9824c12	-0.0002485221
10	0xbb3ade0f	-0.0028513705
11	0x3c47d0b8	0.0121957585

mid_part.1.weight f4 [12]
0	0x3e787471	0.24263169
1	0x3ea8c733	0.32964477
2	0x3e800000	0.25
3	0x3e8121e4	0.2522117
4	0x3eaac898	0.33356166
5	0x3e77315c	0.24139923
6	0x3e635509	0.22200407
7	0x3e391dc7	0.18077765
8	0x3e979861	0.29608443
9	0x3ea86532	0.32889706
10	0x3db41a3f	0.087940685
11	0x3e883d1d	0.26609126

mid_part.2.weight f4 [12, 12, 3, 3]
0	0x3e8181c1	0.25294307
1	0x3bf0febd	0.007354586
2	0x3c18071d	0.00927904
3	0xbe7ee64b	-0.24892537
4	0x3de65514	0.11246696
5	0xbe04363e	-0.12911317
6	0xbd8553f3	-0.06510153
7	0xbdc2c6f0	-0.095106006
8	0x3d90a5f7	0.07062905
9	0x3e24d24a	0.16095844
10	0xbe7045e8	-0.23464167
11	0x3e46627b	0.19373505
12	0x3d0cbb93	0.034358572
13	0xbe074c88	-0.13212788
14	0xbe0b3175	-0.13593085
15	0xbd887d30	-0.066645026
16	0xbe24aad3	-0.1608079
17	0x3d122ad7	0.035685387
18	0x3dbb5908	0.09147841
19	0x3e22dfe5	0.15905721
20	0x3d794865	0.060860056
21	0x3e23470d	0.15945072
22	0x3b9c2b99	0.0047659394
23	0xbcd9f646	-0.02660669
24	0x3e84d0b4	0.25940478
25	0x3d73d9d9	0.059533928
26	0xbd953fb8	-0.07287544
27	0xbc0c9875	-0.00858127
28	0xbd801304	-0.06253627
29	0x3e01eda6	0.12688312
30	0x3dff214f	0.12457525
31	0xbeb1171c	-0.34587944
32	0xbe7a1b4f	-0.2442448
33	0xbe1d7a4a	-0.15378681
34	0xbd0a7e55	-0.033811886
35	0x3e0a116c	0.13483208
36	0xbe2fe660	-0.17177725
37	0xbdd0277d	-0.10163782
38	0xbdbd0a17	-0.0923044
39	0xbc253c5b	-0.010085191
40	0x3e7133dc	0.23554939
41	0xbe67ca58	-0.22635782
42	0x3c97f971	0.01855156
43	0xbc098877	-0.008394352
44	0x3d23d6d1	0.039999787
45	0x3e5e845c	0.21730179
46	0x3d3651fa	0.044511773
47	0x3e5d3c42	0.21605018
48	0xbd567e2d	-0.052366424
49	0xbdd75b87	-0.10515504
50	0x3d9b33a4	0.07578209
51	0xbdbec113	-0.0931417
52	0x3d901954	0.07036081
53	0xbdc98530	-0.098398566
54	0xbe1f98bb	-0.15585606
55	0x3c9a3e50	0.018828541
56	0xbaac6135	-0.0013151529
57	0x3e61e395	0.22059472
58	0xbd846451	-0.06464446
59	0x3d26a883	0.04068805
60	0xbd9fb157	-0.07797497
61	0x3dddad36	0.10824053
62	0x3e2af1f1	0.16693856
63	0x3e122a62	0.1427398
64	0xbd5fd750	-0.054648697
65	0x3e81ae58	0.25328326
66	0x3bc60bfd	0.0060439096
67	0x3cfa6379	0.03056501
68	0xbc6397d4	-0.013891179
69	0x3cb943bc	0.022615306
70	0xbe5fc940	-0.21854115
71	0xbe45dc55	-0.19322331
72	0xbcc5734d	-0.024102831
73	0xbd0d0e8c	-0.0344377
74	0x3d0a82f0	0.033816278
75	0xbe38474f	-0.17995952
76	0x3e97b2dd	0.2962865
77	0xbd9448dc	-0.07240459
78	0xbd47808f	-0.048706587
79	0xbd464a82	-0.0484109
80	0x3d1f1638	0.03883955
81	0xbe2a06f2	-0.16604212
82	0x3d11232d	0.035433937
83	0x3d757ccb	0.059933465
84	0x3d4a8d4a	0.04945115
85	0x3dddc392	0.10828318
86	0x3df9abed	0.12190995
87	0xbdef3667	-0.11680298
88	0xbce099bf	-0.027417062
89	0x3cdb05a2	0.026736084
90	0x3d8dff60	0.069334745
91	0xb93c2319	-0.00017942152
92	0x3e73d7e4	0.23812824
93	0xbdeef677	-0.11668103
94	0xbd677c8a	-0.056515254
95	0xbd93ac7f	-0.072106354
96	0x3d19a717	0.037512865
97	0x3dd1a39a	0.10236283
98	0x3cef5945	0.029217372
99	0x3d4af7c8	0.04955271
100	0xbd94171c	-0.0723097
101	0xbdc5c87d	-0.09657381
102	0xbd0f4f5c	-0.034987792
103	0x3db6806a	0.08911212
104	0x3cb2bb35	0.021817783
105	0x3daa3684	0.08311179
106	0x3d32b433	0.043628883
107	0x3ab613b5	0.0013891371
108	0x3c315b6b	0.010825018
109	0xbd2012c4	-0.039080396
110	0x3cbf8b76	0.02338193
111	0xbd1b0c06	-0.037853263
112	0x3cce3549	0.025171893
113	0xbe73a393	-0.23792867
114	0x3e4fd3ef	0.2029569
115	0x3d7de6a1	0.061987523
116	0x3e1dc5a4	0.15407425
117	0x3e1bb65f	0.15206288
118	0x3dabd32d	0.08389888
119	0x3c23a30f	0.009987607
120	0x3e68af31	0.2272308
121	0x3dddbc5f	0.108269446
122	0x3caccf9a	0.021095086
123	0x3d79b421	0.0609628
124	0xbde96489	-0.11396129
125	0x3e136c2f	0.14396738
126	0xbcde2c72	-0.027120803
127	0xbea5db0f	-0.3239369
128	0xbe2a82d5	-0.16651471
129	0x3cccd6f4	0.025004841
130	0x3d793dd3	0.060849976
131	0xbe99f5d9	-0.3007038
132	0xbde2b78f	-0.11070167
133	0x3dbbdaba	0.09172578
134	0xbdcc7b8d	-0.09984503
135	0x3d4dc70a	0.050238647
136	0x3e871ae2	0.26387697
137	0xbe06fca0	-0.13182306
138	0xbd04445c	-0.032291755
139	0xbd81b6a5	-0.06333665
140	0xbcdc93de	-0.026925977
141	0xbdeadf8b	-0.11468419
142	0x3ea5d5b7	0.32389614
143	0xbdb0d4d2	-0.08634342
144	0x3e60b08e	0.2194235
145	0xbe2d4d93	-0.16924123
146	0xbdc39255	-0.09549395
147	0xbe406d48	-0.18791687
148	0xbe244af6	-0.1604422
149	0xbc3eeb44	-0.011652771
150	0xbdc0d5f3	-0.094158076
151	0xbe022158	-0.12708032
152	0xbc1b6eff	-0.009486913
153	0xbdf98391	-0.121832974
154	0x3d2a8c39	0.041637633
155	0xbe874b89	-0.26424816
156	0x3c20f8e2	0.009824963
157	0x3dcb1128	0.09915382
158	0x3db6f9ca	0.08934362
159	0x3e13a2ba	0.14417544
160	0xbd871893	-0.06596484
161	0xbd375969	-0.044763003
162	0x3e48611c	0.19568294
163	0xbe61bbe5	-0.22044332
164	0xbdd875d1	-0.10569347
165	0x3b565953	0.003270705
166	0x3e535f9f	0.20641945
167	0xbd1fbf73	-0.03900094
168	0xbea07187	-0.31336614
169	0xbac90fcc	-0.0015339791
170	0x3dd7375b	0.10508605
171	0xbe2aa933	-0.16666107
172	0x3e510752	0.20412949
173	0xbcd59f7b	-0.026077023
174	0xbd9be497	-0.076119594
175	0x3e682395	0.22669823
176	0x3e6169a6	0.22012958
177	0xbd3abdc3	-0.045591127
178	0xbda1c121	-0.078981645
179	0xbda2a32d	-0.079412796
180	0x3d96048e	0.073250875
181	0xbe04641b	-0.12928812
182	0x3de81e60	0.113339186
183	0xbd0899b0	-0.033349693
184	0x3d938b9e	0.07204364
185	0xbe9083cc	-0.28225553
186	0x3d546324	0.05185236
187	0xbdba5da8	-0.09099895
188	0xbdc43e83	-0.09582236
189	0xbde51e27	-0.11187392
190	0xbd3ceb82	-0.046123035
191	0xbd4d64cf	-0.050144967
192	0xbbeb05af	-0.0071723084
193	0xbd782064	-0.060577765
194	0xbc26ab52	-0.010172682
195	0xbe2df9f4	-0.16989881
196	0xbd1f848b	-0.038944762
197	0x3c1db88f	0.009626522
198	0xbd931773	-0.07182207
199	0x3e0be5d6	0.13661894
200	0x3d0f52a7	0.034990933
201	0x3e7bcbd4	0.24589473
202	0xbd486056	-0.048919998
203	0xbe0c666b	-0.13710944
204	0xbe142052	-0.14465454
205	0x3cc65083	0.024208313
206	0x3df8384a	0.12120111
207	0x3e93abe8	0.28842092
208	0x3e4684e8	0.19386637
209	0x3dc59989	0.09648425
210	0x3dc7d7d0	0.0975796
211	0x3dd38dc0	0.10329771
212	0x3e2dfadd	0.16990228
213	0xbc92ed61	-0.017935457
214	0x3e03de57	0.12877785
215	0x3e0d88f3	0.13821773
216	0x3da42746	0.08015303
217	0xbe22eb6a	-0.15910116
218	0x3c050f93	0.008121389
219	0xbd80481d	-0.062637545
220	0x3e246fd1	0.1605828
221	0x3e392085	0.18078811
222	0x3e0cd1f0	0.1375196
223	0xbd0486ac	-0.032354996
224	0x3e8b432b	0.27199683
225	0xbd9714d4	-0.073770195
226	0xbdcef3b1	-0.10105074
227	0x3d8f1c0b	0.06987771
228	0x3e59bf6f	0.21264432
229	0xbd7f8533	-0.062382888
230	0xbbbf6535	-0.0058409222
231	0xbd65c056	-0.05609163
232	0x3dee7a6c	0.11644444
233	0x3dd6d578	0.10489935
234	0x3e10f483	0.14155774
235	0xbe897dd4	-0.26853812
236	0xbe53dbf7	-0.20689379
237	0x3d821bea	0.063529804
238	0xbdfd65c1	-0.12372924
239	0xbc1db489	-0.0096255625
240	0x3de6b389	0.11264712
241	0x3cf891a8	0.030342892
242	0x3d0f2ef6	0.034956895
243	0xbd844b5b	-0.064596854
244	0x3c5d5f2a	0.013511458
245	0xbd677248	-0.05650547
246	0x3e71d2fc	0.2361564
247	0x3e57c02c	0.21069402
248	0x3e2a6082	0.16638377
249	0x3da685f6	0.0813102
250	0x3def643e	0.116890416
251	0x3d0865c0	0.03330016
252	0x3ea83137	0.32850048
253	0xbe5c2a73	-0.21500568
254	0xbd96524d	-0.073399164
255	0x3c1280e7	0.0089418655

mid_part.2.bias f4 [12]
0	0x3b8353cc	0.004007792
1	0x3b431e92	0.002977286
2	0xbac14309	-0.001474471
3	0x3b1c33ea	0.0023834654
4	0x3ce37727	0.027766777
5	0xbab0c20e	-0.0013485567
6	0xbbce0748	-0.006287489
7	0x3ab034a4	0.0013443423
8	0x3c328ade	0.010897366
9	0x3af728ab	0.0018856724
10	0xbc0148db	-0.007890905
11	0x3c40b8a6	0.011762774

mid_part.3.weight f4 [12]
0	0x3e0e9d58	0.1392721
1	0x3e814fe0	0.25256252
2	0x3e86e828	0.26348996
3	0x3f05354a	0.5203444
4	0x3e864b7b	0.26229462
5	0x3e824ad8	0.25447726
6	0xbe56d1ca	-0.20978466
7	0x3e33b8bf	0.17550944
8	0x3e80050a	0.25003844
9	0x3e7af569	0.24507679
10	0x3e82489b	0.2544602
11	0x3e472e48	0.19451249

mid_part.4.weight f4 [12, 12, 3, 3]
0	0x3d26d82f	0.040733512
1	0xbd825d50	-0.06365454
2	0x3e6bb7d7	0.23019348
3	0x3e8e49be	0.27790636
4	0xbcf3aecc	-0.029746436
5	0x3e091e4f	0.13390468
6	0xbe03d9dc	-0.12876076
7	0x3d735ff5	0.059417684
8	0xbdbd8ea9	-0.09255726
9	0xbe5eb5cf	-0.21749042
10	0xbdf04011	-0.1173097
11	0x3ead6c8e	0.33871883
12	0xbd694170	-0.05694717
13	0x3e12f962	0.14352944
14	0xbe184371	-0.14869477
15	0xbdf25909	-0.11833388
16	0x3c961e35	0.01832495
17	0x3e727802	0.23678592
18	0xbe0b6273	-0.13611774
19	0x3de7f95a	0.11326857
20	0x3c859847	0.016307963
21	0x3e0f05ff	0.13967131
22	0xbd0e673a	-0.034766413
23	0xbd97f7a0	-0.074202776
24	0xbd7e5915	-0.062096674
25	0x3e18a793	0.14907674
26	0x3e5299be	0.2056646
27	0xbdb3b148	-0.08774048
28	0xbea119f9	-0.31465128
29	0xbd340328	-0.043948323
30	0xbd291ade	-0.04128539
31	0x3cdcb2e6	0.026940774
32	0xbe4db5a3	-0.2008882
33	0xbd49b24d	-0.049242307
34	0x3e14b49e	0.14522025
35	0x3d96499d	0.07338259
36	0xbc17bd99	-0.009261512
37	0x3dfa8d65	0.12234
38	0x3dd01333	0.10159912
39	0xbe0a5cfe	-0.13512036
40	0x3e101e88	0.14074147
41	0x3dcad557	0.099039726
42	0xbe7ee0ac	-0.24890393
43	0xbd83585c	-0.064133376
44	0x3e1e0115	0.154301
45	0xbcffae6b	-0.031211099
46	0xbdb56534	-0.088571936
47	0x3debf677	0.11521619
48	0xbe7fe60c	-0.249901
49	0x3dbe0785	0.09278778
50	0xbeb63083	-0.35583887
51	0x3d605e5f	0.0547775
52	0x3e8a4e62	0.27012926
53	0xbe08857f	-0.13332175
54	0x3ddad140	0.106844425
55	0xbe52c496	-0.20582804
56	0xbdf2d1d2	-0.11856426
57	0x3db156a1	0.08659101
58	0xbbd8501b	-0.006601346
59	0xbe0e561c	-0.13900036
60	0xbcfe361c	-0.03103166
61	0xbe8773c7	-0.2645552
62	0x3e7dc539	0.24782266
63	0x3be6a64c	0.007038867
64	0xbde47009	-0.111541815
65	0x3e1eb6cd	0.1549942
66	0xbaae689e	-0.0013306325
67	0x3d0cfee5	0.034422774
68	0x3e22d523	0.15901618
69	0xbe687758	-0.22701776
70	0xbd97d51a	-0.07413693
71	0xbd842244	-0.06451848
72	0xbb281827	-0.0025649162
73	0xbd03d89f	-0.032189008
74	0xbdc7e2c8	-0.09760052
75	0xbe1e5b0d	-0.1546442
76	0x3c43ab50	0.0119427
77	0xbadad605	-0.0016695863
78	0x3d80dbfd	0.062919594
79	0xbd2b80be	-0.041870825
80	0x3e60ecfb	0.21965401
81	0x3de6d186	0.11270432
82	0xb9592b5d	-0.00020710887
83	0x3e5e8e6a	0.21734014
84	0x3df0b0e0	0.11752486
85	0x3e1f9d9e	0.1558747
86	0xbcfed961	-0.031109514
87	0x3da831e2	0.082126394
88	0x3e25a7df	0.16177319
89	0xbeaf9de6	-0.34300154
90	0xbe5790cf	-0.21051334
91	0x3e18d162	0.14923623
92	0xbdcb41b2	-0.0992464
93	0x3c700a18	0.014650844
94	0xbc459e30	-0.012061641
95	0x3c8b3f40	0.016997933
96	0xbe8a85ef	-0.27055308
97	0xbdb6421f	-0.0889933
98	0x3d76654d	0.0601552
99	0x3d8725a3	0.065989755
100	0x3d6e037c	0.05810879
101	0xbc32fc6d	-0.010924441
102	0xbe83e2f6	-0.25759095
103	0x3e3d80a9	0.18506111
104	0xbe6b9d29	-0.2300917
105	0x3d9e3b92	0.07726206
106	0x3dc45c3a	0.09587903
107	0x3de54a47	0.11195808
108	0x3df96037	0.12176555
109	0xbe56e20a	-0.20984665
110	0xbd115e48	-0.035490304
111	0x3e8194a4	0.25308716
112	0x3d5cd189	0.053910766
113	0x3dab7d87	0.08373552
114	0x3e8e1bc1	0.2775555
115	0xbe825156	-0.2545268
116	0x3c8cf4da	0.017206598
117	0xbcfe317f	-0.031029461
118	0x3d91ffaf	0.07128846
119	0xbc88c66b	-0.016696176
120	0x3e95016d	0.2910265
121	0x3d9f2617	0.07770937
122	0x3eaf20d6	0.3420474
123	0xbe7d60e2	-0.24743989
124	0xbe81a1ac	-0.25318658
125	0xbd92fa36	-0.0717663
126	0xbe61936d	-0.22028895
127	0x3df2f33d	0.118628
128	0xbd272152	-0.04080326
129	0xbeefd7be	-0.46844286
130	0xbe19864b	-0.14992635
131	0xbcdd6702	-0.027026657
132	0xbf0221ce	-0.5083283
133	0xbe433434	-0.19062883
134	0x3dc27fc7	0.09497028
135	0xbcfbf7ff	-0.030757902
136	0x3e4f1027	0.20221005
137	0x3e67b60b	0.22628038
138	0x3e034a58	0.12821329
139	0x3e957e90	0.29198122
140	0x3db832bc	0.08994052
141	0x3ecae4bd	0.39627638
142	0x3ea56a4e	0.32307667
143	0xbd34ea46	-0.044168733
144	0xbd90d902	-0.07072641
145	0xbd93796d	-0.072008945
146	0xbdde5ca0	-0.108575106
147	0xbdc6fbe4	-0.09716013
148	0x3d88c288	0.06677729
149	0x3cadea81	0.021229984
150	0xbea55198	-0.32288814
151	0xbd8d7b20	-0.0690825
152	0xbd198084	-0.037476078
153	0xbb29f30d	-0.0025932223
154	0xbe376f79	-0.17913617
155	0x3e87c7b7	0.26519558
156	0xbe62f761	-0.2216468
157	0xba40b6e1	-0.000735147
158	0x3e147ef5	0.14501555
159	0xbe082fff	-0.13299559
160	0x3d966ea6	0.07345323
161	0xbd124a31	-0.035715286
162	0x3e91b858	0.28460956
163	0x3bdc5991	0.0067245443
164	0xbd111597	-0.03542098
165	0x3eaf6c5e	0.34262365
166	0xbda461c6	-0.08026461
167	0x3d0f8e14	0.035047606
168	0x3de7b684	0.11314109
169	0xbd533092	-0.051559992
170	0xbe8236a5	-0.25432315
171	0x3e9d344c	0.30703962
172	0xbe69adf8	-0.2282027
173	0xbe571d3b	-0.21007244
174	0xbd57e3cb	-0.052707475
175	0xbc27020f	-0.010193362
176	0x3dc6fc5e	0.09716104
177	0x3e6f1b06	0.23350152
178	0x3ddac505	0.1068211
179	0x3ed6179b	0.41814885
180	0x3cd4ebd3	0.025991356
181	0xbe56b535	-0.20967562
182	0xbe38e513	-0.18056135
183	0x3b5b2601	0.00334394
184	0xbdd5f3c6	-0.10446887
185	0x3d95c416	0.07312791
186	0x3e3a09e9	0.18167843
187	0x3e86ee53	0.26353702
188	0x3e1a3986	0.15061006
189	0xbee17bd3	-0.44039783
190	0x3dedb96c	0.11607632
191	0xbe29128e	-0.16510984
192	0x3e39386c	0.1808793
193	0x3e5acde4	0.21367604
194	0xbd234d73	-0.039868783
195	0x3cce60c2	0.025192622
196	0xbd22776c	-0.03966467
197	0x3daffbdd	0.08592961
198	0xbda3a957	-0.079912834
199	0xbe14d58a	-0.14534584
200	0x3e11066a	0.14162603
201	0x3eab540f	0.3346257
202	0x3ed42e63	0.4144164
203	0x3e76196d	0.24033137
204	0xbe5c8649	-0.215356
205	0xbb5e8b56	-0.0033957562
206	0x3c58d0ee	0.0132334065
207	0xbe90b90d	-0.28266183
208	0xbe939d73	-0.28831062
209	0xbeba8486	-0.36429232
210	0xbe1dd745	-0.1541415
211	0x3d6a5839	0.057213042
212	0xbc956b85	-0.018239746
213	0x3f246150	0.6421099
214	0x3ea10bd3	0.31454334
215	0x3e502aa0	0.2032876
216	0x3e46feaa	0.19433084
217	0xbe4beae7	-0.19913827
218	0x3e1c1b83	0.1524487
219	0x3d8451b3	0.064608954
220	0x3d070c4b	0.032970708
221	0xbc8b69ba	-0.017018188
222	0xbe26bd3c	-0.16283125
223	0x3e9cd455	0.30630746
224	0x3cffdfda	0.03123467
225	0x3e5d589a	0.2161583
226	0x3c92b929	0.017910557
227	0x3e303307	0.17206965
228	0xbc39621d	-0.011314896
229	0x3cf7cf4b	0.030250212
230	0x3ddb0e4e	0.10696088
231	0x362f7c92	2.6149542e-06
232	0x3d9a5555	0.07535807
233	0x3ca30ad5	0.019902626
234	0xbde28072	-0.11059655
235	0x3d6ebb3b	0.058284026
236	0x3e37e111	0.1795695
237	0xbce4d7df	-0.027934967
238	0x3e317f51	0.17333724
239	0x3e2f74e5	0.17134435
240	0x3d3c8981	0.04602957
241	0xbc4b4758	-0.012407146
242	0xbe3c204e	-0.18371698
243	0xbe4940aa	-0.19653574
244	0xbe476418	-0.19471776
245	0xbd1fba5d	-0.03899609
246	0x3d72f197	0.05931243
247	0x3e08af4b	0.13348119
248	0x3dd5140c	0.10404214
249	0x3e454dfa	0.19268027
250	0xbcb762a9	-0.022385912
251	0x3d883976	0.06651585
252	0xbe0971de	-0.13422343
253	0xbe73d173	-0.23810367
254	0xbe2afa5a	-0.16697064
255	0xbbbc8420	-0.005753055

mid_part.4.bias f4 [12]
0	0x3c50a3db	0.012734379
1	0xbc94e91e	-0.018177565
2	0xbc9925e5	-0.018694827
3	0x3cf50b27	0.029912544
4	0xbb4b9a27	-0.0031067224
5	0xbaa5a317	-0.0012637106
6	0x390e83aa	0.00013591224
7	0x3ad6d892	0.0016391447
8	0x3cadf15a	0.02123325
9	0x3c32b850	0.010908201
10	0xbc9b43ae	-0.01895317
11	0xbc7b5cec	-0.0153419785

mid_part.5.weight f4 [12]
0	0x3e06726e	0.13129589
1	0x3ee6863a	0.45024282
2	0x3e8accee	0.27109474
3	0x3e83f7f8	0.25775123
4	0x3f045557	0.5169272
5	0x3defb2a7	0.11703997
6	0x3d951eff	0.07281303
7	0x3e022196	0.12708125
8	0xbd8b7881	-0.06810094
9	0x3e7ffb46	0.24998197
10	0x3e9fe9dc	0.31233108
11	0x3e83a35f	0.2571058

mid_part.6.weight f4 [12, 12, 3, 3]
0	0x3d52c0fb	0.05145357
1	0xbde450dd	-0.11148236
2	0xbd4b3d16	-0.049618803
3	0x3ce788b4	0.028263427
4	0x3de212c2	0.11038734
5	0x3e0a54fb	0.1350898
6	0xbc8e780e	-0.01739123
7	0x3d93aed2	0.07211079
8	0x3ceb9665	0.028758237
9	0x3da4630e	0.08026706
10	0x3e93dbc2	0.288786
11	0x3e2bab40	0.16764545
12	0x3ccf5a0b	0.02531149
13	0x3e3b9401	0.18318178
14	0x3e07dab0	0.13267016
15	0xbd26b569	-0.04070035
16	0xbe81286a	-0.25226146
17	0x3d8544b9	0.065072484
18	0x3db38361	0.08765293
19	0xbdad4c14	-0.084617764
20	0x3d8b7519	0.06809444
21	0x3dd328a3	0.10310485
22	0x3d3463ff	0.044040676
23	0xbdb6b673	-0.08921518
24	0xbe375b3e	-0.179059
25	0xbdfe2a25	-0.12410382
26	0x3dfc7ad9	0.12328119
27	0x3dd086bb	0.10181948
28	0xbe3ca442	-0.18422034
29	0xbe41424d	-0.18872948
30	0xbded6dd3	-0.11593213
31	0x3dc779c6	0.09740023
32	0x3e06d0ca	0.13165584
33	0x3d219dbb	0.039457064
34	0xbe9b36cf	-0.30315253
35	0xbe1fe9bf	-0.15616511
36	0x3c06d367	0.008229113
37	0x3e400214	0.18750793
38	0xbd9675b1	-0.073466666
39	0x3e348bac	0.17631406
40	0x3e056413	0.13026457
41	0xbdf3631d	-0.11884139
42	0xbcf6b6cf	-0.030116467
43	0x3e423652	0.18966034
44	0xbd3b76ec	-0.04576771
45	0xbe29b6be	-0.16573617
46	0xbed37e54	-0.41307318
47	0x3dfdc2a7	0.123906426
48	0x3e4a51a7	0.1975771
49	0x3cd5bc55	0.02609078
50	0x3d405a20	0.04696095
51	0x3da23e68	0.07922059
52	0x3dee5ebc	0.11639163
53	0x3e556f94	0.20843345
54	0x3e29637d	0.16541858
55	0xbe5b1632	-0.21395186
56	0x3d2da2c2	0.042391546
57	0x3da0da56	0.07854144
58	0x3d1b3648	0.037893564
59	0x3d924509	0.07142074
60	0x3e4c05c4	0.19924074
61	0x3e6756de	0.22591731
62	0x3e0587a3	0.13040023
63	0xbdcea1d7	-0.10089462
64	0xbdb1b7f3	-0.08677664
65	0x3e1edad7	0.15513168
66	0xbd311224	-0.04323019
67	0xbe1fd5e0	-0.1560893
68	0x3ca17553	0.019709265
69	0x3d6c20df	0.057648536
70	0x3d0a61a3	0.03378452
71	0xbe460dbc	-0.19341177
72	0xbc5a73a0	-0.013333231
73	0x3e09f033	0.13470535
74	0x3e66970e	0.2251856
75	0xbcb38cd8	-0.021917745
76	0x3d41f4b2	0.0473525
77	0x36a702b0	4.9773007e-06
78	0xbcbd9888	-0.023144022
79	0xbe2e7809	-0.17037977
80	0x3d64c97d	0.055856217
81	0xbc10f1c8	-0.008846708
82	0x3e3b6cfd	0.18303294
83	0x3cceb3b8	0.025232181
84	0xbe28bdd7	-0.16478668
85	0x3d1a21c6	0.037629865
86	0x3e370fcd	0.17877121
87	0xbe5220d0	-0.2052033
88	0xbe076f0b	-0.13225953
89	0xbe74401a	-0.23852578
90	0xbde94171	-0.11389435
91	0x3e3fca66	0.18729553
92	0x3c95aba1	0.018270316
93	0xbc923b9f	-0.017850695
94	0xbdb79aa7	-0.089650445
95	0x3d85e444	0.06537679
96	0xbdb1192e	-0.08647381
97	0x3e4eff34	0.2021454
98	0xbdd165e8	-0.10224515
99	0x3e0af876	0.13571343
100	0x3d1206b2	0.035650916
101	0x3d05c8c8	0.032662183
102	0x3d8eb498	0.06968039
103	0xbde0a4cd	-0.10968933
104	0xbcca47b7	-0.0246924
105	0x3e30a1a8	0.17249167
106	0xbdf7bdc7	-0.12096744
107	0x3ba36f98	0.0049876682
108	0x3ea39e09	0.3195651
109	0x3dc6460f	0.09681331
110	0x3da974fe	0.082742676
111	0xbdad7f3f	-0.08471536
112	0xbe44e045	-0.19226177
113	0x3de1a591	0.110179074
114	0x3dad8340	0.084722996
115	0x3d8d1085	0.068879165
116	0x3c5a7155	0.0133326845
117	0xbd80f68e	-0.062970266
118	0x3d44f391	0.048083846
119	0x3e7a5c24	0.24449211
120	0xbe3ef2f4	-0.18647367
121	0x3b311202	0.002701879
122	0x3d47e64c	0.048803613
123	0x3e21d2d8	0.15803087
124	0x3d32ff04	0.043700233
125	0x3d8020a1	0.062562235
126	0x3dce3df9	0.10070414
127	0x3dc70212	0.09717192
128	0x3c531eb9	0.012885743
129	0x3e4616e1	0.19344665
130	0x3c1a975d	0.009435502
131	0x3e297307	0.16547786
132	0x3d099f50	0.033599198
133	0x3c5c5e6f	0.013450249
134	0xbc0c46ef	-0.008561834
135	0x3df0afc0	0.11752272
136	0x3c8cadee	0.01717278
137	0xbd0116ab	-0.03151576
138	0xbded9ec0	-0.11602545
139	0x3e0a9f6e	0.1353738
140	0x3d04e121	0.032441262
141	0xbe20138b	-0.15632455
142	0xbe3e78ee	-0.18600819
143	0x3d6a1f59	0.0571588
144	0x3d7d03c6	0.061771177
145	0xbdb97c14	-0.09056869
146	0x3e0b43bf	0.13600062
147	0x3e054b4c	0.13017005
148	0xbd768f58	-0.060195297
149	0xbdd67023	-0.10470607
150	0x3dbff3b5	0.09372655
151	0x3e7fa89b	0.24966662
152	0x3d56c0f3	0.052430104
153	0x3d74fc9c	0.05981122
154	0x3d4c5592	0.049886294
155	0x3dfd3822	0.12364222
156	0xbe326212	-0.17420223
157	0x3cc9fe98	0.024657533
158	0xbce27fd2	-0.02764884
159	0xbc1ffeea	-0.009765366
160	0xbbb32e99	-0.0054682014
161	0x3d4e3ff2	0.05035395
162	0x3e2c04b5	0.1679867
163	0x3c84be4e	0.016204026
164	0x3cfcf946	0.030880582
165	0x3cdcb33a	0.02694093
166	0x3dbc658d	0.09199057
167	0xbd154d22	-0.036450513
168	0xbd4f6f50	-0.050643265
169	0xbdbc09d2	-0.091815606
170	0xbdb59433	-0.088661574
171	0x3e13a575	0.14418586
172	0xbcb0133d	-0.021493549
173	0x3dc184e1	0.09449173
174	0x3d38f551	0.045155827
175	0x3e35fcef	0.17772268
176	0xbe56f29d	-0.20990987
177	0xbd43994b	-0.047753613
178	0xbd01a814	-0.031654432
179	0xbdfeb3e8	-0.12436658
180	0x3e0c9991	0.13730456
181	0xbe85ef8f	-0.2615933
182	0x3dc8a00a	0.0979615
183	0x386e8c71	5.6874418e-05
184	0x3ce5d3db	0.028055122
185	0x3e253b7c	0.16135973
186	0x3cca8a12	0.02472404
187	0x3e17815c	0.1479544
188	0xbc8ea23b	-0.017411342
189	0x3ddeb0dd	0.10873578
190	0x3c6ec38e	0.014572991
191	0x3d7024d6	0.05862888
192	0x3e0c0e18	0.13677251
193	0x3e5af5c2	0.21382812
194	0xbe24a8a2	-0.16079953
195	0x3c8cfd8c	0.017210744
196	0x3e26c593	0.16286306
197	0x3e3e5fd4	0.18591243
198	0xbd22b2e7	-0.039721396
199	0x3e52e90c	0.20596713
200	0x3b92f21f	0.0044844295
201	0xbe075aae	-0.13218185
202	0xbdfc60dc	-0.12323162
203	0x3d34e5c6	0.04416444
204	0x3d8adc0a	0.0678025
205	0xbe4ce410	-0.20008874
206	0x3e23d181	0.15997888
207	0xbdc64430	-0.096809745
208	0xbd03b4fc	-0.032155022
209	0xbd1d7f7a	-0.03845165
210	0x3dc39920	0.09550691
211	0x3d44cd0a	0.048047103
212	0xbbb9b1cb	-0.0056669465
213	0xbe7de4e4	-0.24794346
214	0xbe4cd875	-0.20004447
215	0x3d6ffb63	0.05858935
216	0xbe8eb41b	-0.27871785
217	0xbd26a602	-0.04068566
218	0xbe5648e2	-0.2092624
219	0xba853f84	-0.0010166024
220	0xbda7d40b	-0.08194741
221	0xbdd976f5	-0.106183924
222	0x3e8d3a1b	0.27583393
223	0x3e64f151	0.2235768
224	0xbe40bd88	-0.188223
225	0xbe20d225	-0.15705164
226	0xbd5a2ce4	-0.053265467
227	0x3b0990dd	0.0020990886
228	0xbe5ecded	-0.21758242
229	0xbd965db5	-0.07342092
230	0xbe5357d2	-0.2063897
231	0x3e812135	0.25220647
232	0x3dd802ad	0.10547385
233	0x3e0b31dc	0.13593239
234	0xbe3f32f9	-0.18671788
235	0x3daff3b8	0.085914075
236	0xbb451801	-0.0030074122
237	0xbab0a9e8	-0.001347837
238	0xbc3cd83c	-0.011526164
239	0xbe53b5f3	-0.20674877
240	0x3d62290c	0.055214927
241	0xbe2df328	-0.16987288
242	0xbea87052	-0.32898194
243	0x3e552458	0.20814645
244	0x3da5d661	0.0809753
245	0x3d1c6c22	0.03818906
246	0x3e33b80f	0.17550682
247	0x3d65fb9e	0.056148164
248	0xbddd81a8	-0.108157456
249	0xbe4e3c3c	-0.20140165
250	0xbe0d25a1	-0.13783886
251	0x3c7a9292	0.015293734
252	0xbe928bce	-0.28622288
253	0xbe4558a2	-0.19272092
254	0x3e309de8	0.17247736
255	0xbd160edf	-0.036635276

mid_part.6.bias f4 [12]
0	0x3c3cd179	0.011524552
1	0x3c27feff	0.010253667
2	0xbb2a2e20	-0.0025967434
3	0x3cc8044f	0.024416117
4	0x3bf49871	0.0074644615
5	0x3bf74fac	0.0075473394
6	0xbc7fac83	-0.015605095
7	0x3b1c3ab2	0.0023838696
8	0xbb293845	-0.0025820893
9	0x3a688d09	0.00088711135
10	0x3b89b746	0.004202756
11	0xbd3fd3dc	-0.046832904

mid_part.7.weight f4 [12]
0	0x3e76f40e	0.24116537
1	0x3e7fa151	0.24963881
2	0x3e8d4eb7	0.27599117
3	0x3e860332	0.26174313
4	0x3e9a698f	0.3015866
5	0x3eac1b31	0.33614495
6	0x3e921181	0.2852898
7	0x3db4603a	0.08807416
8	0x3e807b61	0.2509413
9	0x3e838027	0.2568371
10	0xbdeef7d0	-0.1166836
11	0x3e3ebd70	0.18626952

mid_part.8.weight f4 [12, 12, 3, 3]
0	0x3df00368	0.117194
1	0xbdb1983a	-0.08671613
2	0xbdfa7048	-0.12228447
3	0xbd354070	-0.044250906
4	0x3e551c98	0.20811689
5	0x3e3af808	0.18258679
6	0xbe85fd1a	-0.26169664
7	0x3dee3a89	0.116322584
8	0xbd57af64	-0.0526575
9	0xbd4deb95	-0.050273497
10	0x3d0060ff	0.031342503
11	0x3d9090f7	0.070589
12	0x3dd396af	0.10331475
13	0x3e95728d	0.29188958
14	0x3d1ad2f1	0.037798826
15	0x3e4a2940	0.19742298
16	0x3d86b4f0	0.0657748
17	0xbd79bee4	-0.060973063
18	0x3dbf067d	0.093274094
19	0xbd0547f0	-0.032539308
20	0xbbbc52e7	-0.0057471874
21	0xbe4ae77a	-0.19814864
22	0xbd2c87cd	-0.042121697
23	0xbb440ddc	-0.0029915487
24	0x3d4c21cd	0.049836922
25	0xbe3066e8	-0.17226756
26	0xbca2afd8	-0.01985924
27	0xbd4e78d2	-0.050408192
28	0xbdb9c227	-0.09070235
29	0x3c946ff3	0.018119788
30	0xbe334aa7	-0.17508946
31	0xbd419c8a	-0.047268428
32	0x3db39128	0.08767921
33	0xbc9a0845	-0.018802771
34	0xbdd2e67f	-0.1029787
35	0xbe4b2739	-0.19839181
36	0xbcfff5f3	-0.031245207
37	0xbc70f478	-0.014706723
38	0x3cb541e3	0.022126144
39	0x3dc093b3	0.094031714
40	0xbcc31ce1	-0.023817481
41	0x3e68a459	0.22718944
42	0xbdc4158c	-0.09574422
43	0x3d715baf	0.058925327
44	0xbc9193c4	-0.017770655
45	0x3dd72e2f	0.10506856
46	0x3de26e65	0.11056212
47	0x3d930ace	0.07179795
48	0xbe261209	-0.16217817
49	0x3d2c7626	0.042104863
50	0x3c9c3ef7	0.019072993
51	0x3eaaf97a	0.3339346
52	0xbe329424	-0.17439324
53	0x3dad968a	0.08475979
54	0x3d9a1c67	0.075249486
55	0xbea14ae0	-0.31502438
56	0x3d010309	0.031497035
57	0x3c9ce32a	0.019151289
58	0xbc1504a0	-0.009095341
59	0xbd778890	-0.06043297
60	0xbdf78329	-0.12085564
61	0xbdd64be7	-0.10463696
62	0x3d5ca559	0.053868625
63	0xba6b53aa	-0.00089770055
64	0x3e9aa1ad	0.30201474
65	0x3c0fe9e2	0.008783789
66	0x3d8d1d99	0.06890411
67	0x3e38b352	0.18037155
68	0xbd72d1c4	-0.05928208
69	0xbe0f3bd7	-0.13987671
70	0xbd818c74	-0.063256174
71	0xbe7e3d93	-0.24828176
72	0xbe978a1a	-0.2959755
73	0x3c88c368	0.01669474
74	0x3cab1ecb	0.020888707
75	0xbd6d75ea	-0.05797378
76	0x3e4a2ce1	0.19743682
77	0xbdc0df77	-0.094176225
78	0xbdb12fc5	-0.086516894
79	0xbe3e524b	-0.1858608
80	0xbda328d6	-0.07966773
81	0x3da1584d	0.0787817
82	0xbd6b5e7e	-0.05746316
83	0xbe09e71a	-0.13467064
84	0xbe149af6	-0.14512238
85	0xbd6e3497	-0.058155622
86	0xbcc640db	-0.024200847
87	0x3e6b5cc8	0.22984612
88	0xbd1cfaf4	-0.038325265
89	0x3bfd1964	0.007723974
90	0x3c1d8161	0.009613366
91	0x3e2e14e3	0.17000155
92	0x3c9f9812	0.019481692
93	0xbd866c4f	-0.06563627
94	0xbd464f6a	-0.04841558
95	0x3d39b78a	0.045341052
96	0x3db8e18d	0.090273954
97	0x3db570bb	0.08859392
98	0xbd103136	-0.03520318
99	0x3e3b5aea	0.182964
100	0x3ecda67d	0.40166083
101	0xbe4dc4e3	-0.20094638
102	0x3ef442b6	0.47707146
103	0x3c803440	0.015649915
104	0x3e839132	0.25696713
105	0xbe1d7adc	-0.15378898
106	0x3e3bf16c	0.18353814
107	0x3e8a6381	0.2702904
108	0x3dec9cb7	0.115533285
109	0xbd76af33	-0.060225677
110	0xbdff93b9	-0.12479348
111	0x3e470e36	0.19439015
112	0x3e1e6b54	0.1547063
113	0x3d3f1395	0.046649534
114	0x3d49f098	0.049301714
115	0xbe9a3867	-0.30121157
116	0xbe89c71d	-0.26909724
117	0x3d7ee7ba	0.06223271
118	0xbe134421	-0.14381458
119	0x3c993c73	0.018705582
120	0x3dfb555f	0.122721426
121	0x3e535567	0.20638047
122	0xbe740537	-0.23830114
123	0xbe1d9255	-0.15387852
124	0x3bc42c6e	0.0059867417
125	0xbde17f8e	-0.11010657
126	0x3d155da7	0.036466267
127	0xbcfabc3f	-0.03060734
128	0x3d92eafc	0.07173726
129	0x3d163c79	0.036678765
130	0xbe832f8e	-0.2562222
131	0x3e7cf820	0.24704027
132	0xbdf3ad7f	-0.11898326
133	0x3da3ca90	0.0799762
134	0x3cf19f9b	0.029495051
135	0xbd8d4d9d	-0.06899569
136	0x3eafa7ec	0.34307802
137	0x3d28b4a5	0.0411879
138	0x3e0ec44c	0.13942069
139	0xbc34d2b3	-0.011036563
140	0x3d9fa36e	0.077948436
141	0xbe42846e	-0.1899583
142	0x3d85b148	0.06527954
143	0x3de034e4	0.10947588
144	0x3e23aa8e	0.1598303
145	0x3c43f053	0.011959153
146	0xbdc781ed	-0.09741578
147	0x3d240255	0.040041286
148	0x3e4376c4	0.19088274
149	0xbe9943dc	-0.29934585
150	0x3e261b87	0.16221438
151	0xbea8e379	-0.32986048
152	0x3d6d27c1	0.05789924
153	0x3dfcf321	0.12351061
154	0x3e26ff75	0.16308387
155	0xbc2b21df	-0.010445087
156	0x3d76510e	0.060135894
157	0x3e51cc57	0.20488106
158	0x3d49f79d	0.049308408
159	0xbe6192fc	-0.22028726
160	0xbd420620	-0.047369123
161	0xbd3ac9b2	-0.045602508
162	0xbbeac283	-0.007164301
163	0xbbbdf3e9	-0.0057968986
164	0x3e2d30e2	0.16913179
165	0x3e108c54	0.14116031
166	0x3cb4058a	0.021975297
167	0x3d75acc7	0.059979226
168	0xbac2c6eb	-0.0014860308
169	0xbd276fc8	-0.040878087
170	0x3d914e5e	0.070950255
171	0x3e1091e2	0.1411815
172	0x3e4a9afb	0.19785683
173	0x3dca0cd7	0.0986573
174	0x3d970af0	0.07375133
175	0xbeb241e2	-0.3481589
176	0x3c9905c7	0.018679513
177	0x3d033a15	0.032037813
178	0xbd9b3f95	-0.07580487
179	0x3d907308	0.070531905
180	0x3d6a5aac	0.057215378
181	0xbc4d69fd	-0.012537477
182	0xbc2ed616	-0.010671159
183	0x3ad00a91	0.001587229
184	0xbde18392	-0.11011423
185	0xbd276c62	-0.040874846
186	0x3e519c76	0.20469841
187	0xbdc2724e	-0.09494458
188	0x3da9ad4d	0.082850076
189	0x3e99aaff	0.30013272
190	0x3cc71338	0.024301156
191	0x3caa9e75	0.020827511
192	0x3e78d99c	0.24301761
193	0x3d244c6f	0.040111955
194	0x3e6e82cd	0.23292084
195	0x3e48d79b	0.19613497
196	0xbba1c85b	-0.0049372143
197	0x3d55261b	0.052038293
198	0x3c9693cb	0.01838102
199	0xbcf33f3a	-0.029693235
200	0x3dbb20ef	0.09137141
201	0xbc839ccd	-0.01606598
202	0xbe36cedd	-0.1785235
203	0xbe1087d4	-0.14114314
204	0xbdc60c23	-0.09670284
205	0x3d9ef779	0.077620454
206	0x3e2e7589	0.17037024
207	0x3db92bd7	0.09041565
208	0xbe841e32	-0.25804287
209	0x3d797446	0.060901903
210	0x3dfae069	0.12249834
211	0x3d8ed256	0.06973712
212	0x3dbf2ecf	0.093351
213	0xbc21e7b1	-0.0098819
214	0x3caa44b2	0.02078471
215	0x3e6534bf	0.22383402
216	0xbd02cdcf	-0.031934556
217	0x3e2c3843	0.16818337
218	0x3e084036	0.13305745
219	0x3c179172	0.009250985
220	0x3d78efb2	0.060775466
221	0xbdcdd3b7	-0.10050147
222	0x3d94588d	0.07243452
223	0x3db04bd9	0.08608217
224	0x3e1a517a	0.15070143
225	0x3d90d9ab	0.07072767
226	0x3d73dd25	0.05953707
227	0x3e439c7f	0.19102667
228	0x3cb54c86	0.022131216
229	0x3e3481ba	0.17627612
230	0xbe07c989	-0.13260473
231	0x3dc711bb	0.09720179
232	0x3d8f20a3	0.06988647
233	0xbe09f843	-0.1347361
234	0xbc9ba6ea	-0.01900049
235	0xbd438e27	-0.04774299
236	0xbe2f966c	-0.17147225
237	0xbd473104	-0.04863073
238	0xbe339964	-0.17538983
239	0x3d116251	0.035494152
240	0xbd425443	-0.04744364
241	0xbd394618	-0.045232862
242	0xbc777180	-0.015102744
243	0xbe5ead78	-0.2174586
244	0xbda7dc42	-0.08196308
245	0xbd89a424	-0.067207605
246	0x3e74f25f	0.23920582
247	0x3dc86532	0.097849265
248	0xbe4e8f47	-0.20171843
249	0x3d3a7ef8	0.045531243
250	0xbd204d36	-0.039136134
251	0x3b26e59c	0.0025466448
252	0x3d928be0	0.07155585
253	0x3d3ca1b8	0.046052665
254	0xbe86224e	-0.26198047
255	0x3e32635e	0.17420718

mid_part.8.bias f4 [12]
0	0xbb0d0d9f	-0.0021523011
1	0x3c4572c3	0.012051287
2	0x3c12c165	0.008957242
3	0xba942e8e	-0.0011305378
4	0x3b7eebc9	0.0038897863
5	0x3ba26c9b	0.0049567944
6	0x3b9748c8	0.0046168305
7	0x3a6b8787	0.0008984734
8	0xbc56a3db	-0.01310059
9	0x3d615a61	0.055017833
10	0x3bdcd9dc	0.006739838
11	0x3c1bb609	0.00950385

mid_part.9.weight f4 [12]
0	0x3e08f7ce	0.1337578
1	0xbdc57dd1	-0.09643138
2	0x3ee831c9	0.45350483
3	0x3e7f56b9	0.24935426
4	0xbf062a16	-0.5240797
5	0x3e7a46ab	0.2444102
6	0x3f6bd3ee	0.92120254
7	0x3f0b7c8b	0.5448691
8	0x3e872165	0.26392666
9	0x3e4e956c	0.20174187
10	0x3e22d9c8	0.1590339
11	0x3e6c69f8	0.23087299
