models/fsrcnn/track2/track2_x4__epoch_3.pth (torch, 57971 bytes, 22 tensors)

first_part.0.weight f4 [56, 1, 5, 5]
000000 f7 51 32 bc 11 64 b8 3d 06 0a e0 3c bf 3d 26 3d
       -0.0108838 0.09003461 0.02734853 0.04058623
000010 d9 4d 40 3c f4 c4 d0 bc 88 2f 1c 3d 1b 96 8d bd
       0.01173731 -0.02548454 0.038131267 -0.06913396
000020 1b 44 35 bd 9b d4 47 3c dd f3 be 3c fa 46 d0 b9
       -0.044254404 0.012196685 0.023309642 -0.00039725733
000030 e2 3d 10 3d 19 e3 9d 3c 67 0d b8 3c 6d a1 af 3c
       0.035215266 0.019273328 0.022467328 0.021439278
000040 85 d0 0a bd 9e e9 97 bc 44 e0 5f 3d 40 c2 f1 bc
       -0.033890266 -0.018544015 0.054657236 -0.02951157
000050 ae 4a 12 bd 2b 66 7d bb 0b 7b 7f 3d 21 2a b6 3b
       -0.03571575 -0.0038665633 0.062373202 0.0055592214
000060 d9 26 5c bd 33 ff 0a bd 4e d4 37 bd e2 cc 0d bd
       -0.053747986 -0.033934783 -0.044880204 -0.03461922
000070 ae d2 9b 3c b6 4d 45 3d 48 b5 42 bd e5 89 36 3d
       0.019021358 0.048169814 -0.047536165 0.0445651
000080 47 9b b5 bc 82 f8 c7 bc ce 73 eb bb 6d 1f 96 bc
       -0.022168769 -0.02441049 -0.007185436 -0.018325532
000090 d2 99 b3 b8 5f 4b 14 3b 84 23 c3 3b 6b 39 79 bd
       -8.5640364e-05 0.0022627932 0.0059551615 -0.060845774
0000a0 35 82 93 bb 12 49 1d 3d 8f 58 f1 3b fa 1c 43 3b
       -0.004501606 0.038399763 0.0073652933 0.002977191
0000b0 6a 06 93 bc 42 6e 29 3d 9a e2 12 bb e6 52 a5 bd
       -0.017947394 0.041364916 -0.0022412897 -0.08072452
0000c0 51 aa 33 3d d1 f1 a7 ba 89 a7 e2 bc c5 6e 8e bd
       0.0438636 -0.0012813156 -0.027667778 -0.06954721
0000d0 5d 7f 91 bc f3 0c 0c bd c2 73 a5 3c ee 54 84 3b
       -0.017760927 -0.034192037 0.0201968 0.0040384447
0000e0 12 a9 65 bc 29 76 b8 bc 2c 7f 23 bd b8 2f 85 bd
       -0.01401736 -0.02251728 -0.039916202 -0.06503242
0000f0 2e 53 d3 bc 6f f9 9a bd 50 35 18 bd 8e 77 d2 bc
       -0.0257965 -0.07567107 -0.037160218 -0.025691774
000100 0b e1 79 bd 51 70 55 3d 2e 28 86 bd 3d 60 59 bd
       -0.061005633 0.052109066 -0.065506324 -0.053070296
000110 cf 2f 16 bd 30 f9 b1 bc b0 fa 1d bd c0 f3 2e 3d
       -0.036666688 -0.021725267 -0.038569152 0.042712927
000120 5b 43 38 3d 01 0f 22 bd e6 9c 86 bc 88 c5 4a 3d
       0.04498611 -0.03956509 -0.016432237 0.049504787
000130 c9 2a 73 3a 82 11 c0 3d ce 5b 53 3d 61 02 58 bd
       0.000927609 0.09378339 0.051601224 -0.052736644
000140 c6 8b 0c bd cf f5 91 3a 41 d4 55 3d 97 0c 54 bd
       -0.034312986 0.0011135879 0.052204374 -0.05176982
000150 f6 fc 40 bd 62 2d a1 3c 74 34 9f 3d 48 17 20 bd
       -0.047116242 0.01967496 0.077736765 -0.039084703
000160 6f 2f 87 bd a3 a0 82 3c b7 41 02 3d ad ad 20 bd
       -0.06600844 0.015945738 0.03180095 -0.03922813
000170 5c 73 ff bc 45 ff e6 3b 44 1b b8 bc b6 c3 2f 3d
       -0.031182937 0.0070494735 -0.022473939 0.042911254
000180 70 c1 6b bd 28 62 5f 3b 92 7b 09 bd 04 1b f2 bd
       -0.057557523 0.0034085605 -0.03356511 -0.11821559
000190 5b 39 ac ba 26 a7 2a bd bb db 14 bd bd e9 85 bd
       -0.0013139652 -0.04166331 -0.036342364 -0.06538723
0001a0 08 a3 8f 3b eb a3 85 bc b7 70 98 3d 8c d5 6e bc
       0.0043834485 -0.016313514 0.07443374 -0.014577281
0001b0 f4 2e e0 3c be d3 15 bb 06 8f 5c 3c bb ec 85 bd
       0.027366139 -0.0022861804 0.013461834 -0.065392934
0001c0 d0 a5 ca bc 6b 69 f1 bb 34 9c bb 3c 3c 78 17 bc
       -0.024737269 -0.007367303 0.022901632 -0.009244975
0001d0 ab d5 9b bd ad 36 12 bd 6d 09 df bc 54 00 0a 3d
       -0.07609113 -0.035696674 -0.027226174 0.03369172
0001e0 79 dd 54 bd 28 f2 aa bc 04 30 87 3d f6 d2 88 bd
       -0.051969025 -0.020867422 0.06600955 -0.066808626
0001f0 b9 5f 3b 3c e9 9f 99 bd 56 04 59 bd 05 ec 2c 3d
       0.011436396 -0.075012036 -0.05298265 0.042217273
000200 83 b4 c0 3c 65 ae 3d 3a f4 03 dc 3c 84 59 21 bd
       0.023523575 0.00072357646 0.026857354 -0.03939201
000210 2f 53 2e bc f5 86 3e bd c3 b7 99 bb 57 e8 46 bd
       -0.01063995 -0.046515424 -0.0046910956 -0.04856142
000220 f2 84 12 bc 0b 38 b6 3c 72 01 0c 3d c3 91 26 bd
       -0.008942829 0.02224352 0.034181066 -0.040666353
000230 a4 63 4a 3d aa 68 57 bd ca 5b c9 3c d0 4f 75 bc
       0.04941143 -0.05259005 0.024579901 -0.014972642
000240 90 62 2a bc f7 47 41 3d e6 34 a5 39 74 c3 de bb
       -0.010399476 0.04718777 0.00031510665 -0.006798202
000250 ff 3a 49 bc e6 94 f6 bc 8e 2c cd bd 2e d6 ff 3b
       -0.012282132 -0.030100297 -0.10018264 0.0078075146
000260 7c 99 10 3b 0e ab 7c 3d f4 d8 17 bc 8b fe 21 bc
       0.002206414 0.061686568 -0.009268034 -0.009887348
000270 0a 2b 84 3c 1f 43 84 3c 52 a8 7d bd 01 c7 43 bd
       0.016133804 0.016145287 -0.0619281 -0.047797207
000280 cb 3b d5 bb c7 57 34 bd 31 a1 48 39 c2 df e3 bc
       -0.006507372 -0.044029023 0.00019133535 -0.027816657
000290 0f 64 15 3d 72 8f aa bd 31 19 6f 3c 11 ef 92 bc
       0.036472376 -0.08328141 0.014593408 -0.017936261
0002a0 63 0d 23 3c b3 fc c7 bc f4 4f 57 bd e3 46 4e 3c
       0.009951922 -0.024412489 -0.052566484 0.012590143
0002b0 2c 4d 36 3b 57 08 46 3b ad d5 8e bd 9a 4b 8f 3d
       0.0027816994 0.0030217373 -0.06974349 0.06996842
0002c0 e0 f0 fd 3c 75 95 8d 3d d7 07 c3 bd b6 4c 7c bd
       0.030998647 0.06913272 -0.0952298 -0.061596595
0002d0 2b 3c f8 bc d3 97 b5 bd fd 2e 00 3d 2e 00 80 3d
       -0.030302128 -0.08866849 0.03129481 0.06250034
0002e0 4a 25 78 bc 7c 37 22 3d d4 4c 83 bd 5f f8 81 3d
       -0.015145609 0.039603695 -0.06411138 0.06346201
0002f0 8b 15 62 3d 73 51 32 3d 18 ff c3 3c eb e1 e3 bc
       0.055196326 0.043534707 0.02392535 -0.027817687
000300 3b 55 58 3d 66 d6 3d bd 40 e1 69 3d d8 75 45 3d
       0.052815657 -0.046347044 0.05709958 0.048208088
000310 af 7f c3 3c 26 47 85 3c 6e d0 a1 bc 5d 19 02 3d
       0.023864595 0.016269278 -0.019752707 0.03176247
000320 72 b5 38 3d b1 dd 28 3d 1c 2e 79 3b 41 bb ca 3b
       0.045094915 0.041227046 0.0038021868 0.006186873
000330 20 de 25 3c 8d 6a 01 3d b9 97 9c 3b f1 fd c8 3c
       0.0101237595 0.031595755 0.004778829 0.024535151
000340 b7 8f 23 3d 71 be 5f bc b6 c2 c4 3c f4 e8 b9 bc
       0.03993198 -0.013656245 0.024018627 -0.022694089
000350 5f b9 2e 3d 2d fc 7a 3c 6f 48 dd bc 21 2f 0e bc
       0.042657252 0.015318912 -0.027012078 -0.008678229
000360 64 72 72 3c 85 ac cc 3c 66 c5 9e bc 39 35 0d bd
       0.014797781 0.024984607 -0.019381236 -0.034474585
000370 6f 5f ef 3c ca 6e 00 3d 46 3e ac 3d ce 85 3a bd
       0.029220311 0.031355657 0.08410315 -0.045537762
000380 05 37 64 3c c0 b1 ad 3d c4 a4 70 bd 40 57 7c bd
       0.013929133 0.08481169 -0.058750883 -0.061606646
000390 1b 4c f6 3c bf 00 82 bd 07 95 3a bc d4 dc d4 bc
       0.030065587 -0.063477986 -0.01138807 -0.025984205
0003a0 c1 1f ef 3c c5 ce 2d bd e8 a2 bd 3c c1 b8 96 3c
       0.029189946 -0.04243352 0.023148969 0.018398644
0003b0 db f4 88 bc 7a 1b a3 3d 38 ed 16 3d b8 a8 0d 3d
       -0.016718319 0.07964225 0.036847323 0.03458473
0003c0 4a 84 61 3d f0 30 a5 bc c5 8b 9f 3a d2 81 5e bd
       0.0550578 -0.020164937 0.0012172392 -0.054323025
0003d0 29 df 5c 3d 66 ca 33 3d d9 99 f3 3c 6b 6a 67 3c
       0.05392376 0.043894194 0.029736446 0.014124493
0003e0 41 89 6b 3d 5a 4d 5b 3d 55 76 c7 bc 95 49 64 3d
       0.057503942 0.053540565 -0.024348417 0.055734236
0003f0 21 14 3f bd 15 2f 90 3c 85 5d 8e bd 08 12 88 3b
       -0.046650056 0.017600575 -0.06951431 0.00415254

first_part.0.bias f4 [56]
000000 94 f0 b9 bb 13 82 62 bb 90 50 7a ba 4c 87 f5 3b
       -0.005674431 -0.0034562394 -0.0009548748 0.0074929353
000010 25 aa b7 3b aa 2c e1 ba dd 69 d5 ba 8f 30 c9 ba
       0.0056049996 -0.0017179449 -0.001628216 -0.0015349555
000020 36 f1 a1 3a 87 b2 d0 ba cc 39 0f bb be 61 f9 3a
       0.0012355212 -0.0015922346 -0.0021854518 0.0019026322
000030 ce fc c3 3b 62 df b7 3b 5b 68 93 3c 73 fd 47 bb
       0.0059810644 0.005611346 0.017994097 -0.0030516058
000040 9d 60 b5 3c 8d a0 14 bc c4 59 77 bb fa 57 cf 3b
       0.022140795 -0.009071481 -0.0037742713 0.0063276263
000050 b7 66 e7 37 8f 40 74 3c fe 62 23 bc 16 40 eb bb
       2.7585176e-05 0.01490797 -0.009972332 -0.0071792705
000060 9a 1d 4f bc 55 6a e2 ba 8a 88 d2 bb 49 15 db 3a
       -0.012641335 -0.0017274121 -0.006424968 0.0016714717
000070 c1 d8 7a bc ec dd d5 3a 15 68 18 3c 11 ad bb b9
       -0.015310467 0.0016316748 0.009302159 -0.00035796364
000080 c7 e8 8e 3b 73 63 a8 ba cb 25 27 3c 23 14 15 3b
       0.0043612453 -0.0012847021 0.010201882 0.0022747598
000090 13 a4 61 b9 c1 6a b7 3b 36 2f c7 bb 1c 10 2d 3b
       -0.00021518795 0.005597443 -0.006078626 0.0026407307
0000a0 47 9a 3d 3d bd 06 27 3b 51 9a 61 3b 44 22 95 bc
       0.04628971 0.0025486194 0.0034424255 -0.018204816
0000b0 b0 aa 00 3c b9 fa 93 3b d1 0d 79 3c f4 90 2c bb
       0.007853195 0.0045159725 0.015201048 -0.0026331516
0000c0 ff e2 90 bd c8 6a 8e 3c a5 a4 ec bb 30 bb d5 b9
       -0.07074546 0.017384902 -0.0072217756 -0.0004076599
0000d0 8c 29 b9 bb 5e 91 13 3b 33 30 03 bb 16 d2 a6 bb
       -0.0056507047 0.0022517066 -0.0020017743 -0.005090962

first_part.1.weight f4 [56]
000000 21 dc 7a 3e 6d c5 76 3e 9f 69 84 3e 24 79 86 3e
       0.24498035 0.2409875 0.25861832 0.26264298
000010 d4 b6 76 3e 7f cf 66 3e bc e4 7f 3e 2f 4c 38 3c
       0.24093181 0.22540091 0.24989599 0.011248632
000020 d2 20 bf 3e 19 d6 ec 3e a0 3d bf 3f 40 eb 7f 3e
       0.37329727 0.46257094 1.4940681 0.24992085
000030 c6 46 e6 3e a7 83 7d 3e c8 5e 72 3e ee da c6 3a
       0.4497587 0.24757253 0.23668969 0.0015171447
000040 ee 5e c8 3e b1 29 73 3e 1e db 67 3e d6 9f 8c 3e
       0.39134926 0.23746373 0.2264218 0.27465695
000050 57 6f 81 3e 6f f6 57 3e 95 c1 80 3e 7f 6e 79 3e
       0.25280258 0.210901 0.2514769 0.24358557
000060 38 08 a2 be 7f c0 81 3e bf cf 67 be 85 e1 83 3e
       -0.31646895 0.25342175 -0.22637843 0.25757995
000070 ad 75 82 3e 39 1f 7c 3e 0e 16 7f 3e 5e 37 8c 3d
       0.25480404 0.24621285 0.24910757 0.06846498
000080 b9 05 01 3f 00 00 80 3e a5 df 81 3e 11 9c 81 3e
       0.5039936 0.25 0.2536594 0.25314382
000090 c3 80 7b 3e 40 eb 2a 3e c1 40 99 3e d5 75 96 3e
       0.24560837 0.16691303 0.29932216 0.29386774
0000a0 28 5e 9e 3e f2 8f 8d 3e 22 eb 85 3e c5 33 f2 3e
       0.3093121 0.27648884 0.26155955 0.47305122
0000b0 a2 6b 8f 3f af 2d 84 3e 5a 4a 30 3e 02 f8 7f 3e
       1.1204722 0.25816104 0.17215863 0.24996951
0000c0 b2 6c 16 3f 6e e8 74 3e 12 79 94 3f 75 b0 7b 3e
       0.58759606 0.2391679 1.1599448 0.24579032
0000d0 91 79 7c 3e 26 27 6f 3e 93 25 87 3e 4e 32 8b 3e
       0.24655749 0.23354778 0.26395854 0.27186817

mid_part.0.weight f4 [12, 56, 1, 1]
000000 52 43 10 3f ac 48 76 3e 43 d7 45 bf 7d 50 9f 3e
       0.5635272 0.2405116 -0.7728159 0.31116095
000010 f7 32 bc 3e 42 4d 79 3e b1 df 46 bd 96 da c1 3e
       0.36757633 0.24345878 -0.048553172 0.3786208
000020 09 d1 31 3e 19 94 99 bf 11 9c 10 3f 00 03 1d bd
       0.17364897 -1.1998321 0.5648814 -0.03833294
000030 d4 0b c8 be 28 d8 84 3f 2f 7b d6 3e b8 17 bb 3e
       -0.39071524 1.0378466 0.41890857 0.36541533
000040 aa d5 c0 3d b1 87 ad 3d c6 dc 25 3f db b4 8f be
       0.09415753 0.08473147 0.6479 -0.2806767
000050 22 8c ae bc d6 1d 3d 3f 89 8e c9 be a5 48 fd be
       -0.021307055 0.7387365 -0.39366558 -0.49469486
000060 9a 14 6a bd 49 17 96 bd 84 a7 d5 3e 94 0a 3c bf
       -0.057148553 -0.0732866 0.41729367 -0.7345364
000070 19 7b 6d 3e 13 dd c2 3e f6 f2 08 3c 5a 56 e9 3e
       0.2319149 0.3805929 0.008358708 0.45573694
000080 a1 04 08 3f ef 0a 03 3e aa 87 08 bf 9a 4a 31 bf
       0.53132063 0.1279714 -0.53332007 -0.6925446
000090 57 e7 28 3d bd a9 2a bd fc 74 3e be 6e 9d bb 3e
       0.041236248 -0.04166578 -0.18599313 0.36643547
0000a0 e1 8b 1a bd 96 4a 05 3f b7 a5 d2 be 18 e7 17 be
       -0.037731055 0.52066934 -0.41142055 -0.14834249
0000b0 5e 23 01 be 7c 48 ce bd 73 73 26 be af ae 1b bf
       -0.12611148 -0.10072419 -0.16254978 -0.6081342
0000c0 71 88 56 be da 99 28 bf 2d 95 b2 bd c2 e0 25 be
       -0.20950486 -0.6585976 -0.08719859 -0.1619902
0000d0 bd 74 2f bf 83 8b 13 3e f9 83 9e be 49 80 1c be
       -0.68537503 0.14408688 -0.30960062 -0.15283312
0000e0 aa 9a a9 be 6a e3 6d bf 86 81 fc 3e 87 25 a9 3d
       -0.33125812 -0.9292513 0.4931757 0.08259111
0000f0 e2 07 ef bc 31 24 53 3f 56 21 41 3f 1d bd f0 3e
       -0.029178564 0.824771 0.7544149 0.47019282
000100 a0 49 33 3c 1c d0 d0 bd bb b4 21 b9 d7 13 00 bf
       0.010942847 -0.10195944 -0.00015421484 -0.50030273
000110 89 13 5c 3e 2d 53 36 3e a7 3e 21 bf 33 01 f3 3d
       0.21491827 0.17805167 -0.62986225 0.11865463
000120 33 e0 ea be 1e 77 7d 3e 95 d2 2f 3f 0b 5a f9 bd
       -0.45874175 0.24752471 0.686807 -0.121753775
000130 e3 ad 5b 3f 38 58 6d be b0 d1 06 3e a2 b2 be be
       0.85812205 -0.23178184 0.13165927 -0.3724566
000140 bd d5 cc be ab 4a 9a bd 6e f3 71 3d 8f 7a 0f bf
       -0.4000682 -0.07533773 0.059070043 -0.56046385
000150 78 75 0b 3f 1f 7f 35 3f 25 44 4c be 91 2f d8 3e
       0.5447612 0.70897096 -0.1994787 0.4222379
000160 00 a5 0e 3e 48 1e db be e4 b3 73 3d 75 1d 13 be
       0.1393013 -0.4279654 0.05949773 -0.14366706
000170 96 fa 8d 3e 48 c4 50 3e 7d 8e 22 bf 1b fb 68 be
       0.27730244 0.20387375 -0.6349867 -0.22752039
000180 4b 12 2d 3e 76 10 33 3f 50 81 8b be 94 3f 69 3f
       0.1690151 0.6994699 -0.27247095 0.9111264
000190 2b a7 3b 3f 82 dc c5 3d 63 01 ee 3e 2c 74 c0 3d
       0.73301953 0.09661199 0.46485433 0.09397158
0001a0 15 f5 bf 3e fa 1a 1b 3c 38 23 5d 3f 45 a1 e9 be
       0.3749167 0.009466881 0.86381865 -0.4563085
0001b0 f6 80 82 bd bc 20 2a be 1e 12 28 3f da b8 de be
       -0.063722536 -0.1661405 0.65652645 -0.43500406
0001c0 1b 1e 87 3e 74 96 1d bf 79 e7 89 be 6a a5 ce be
       0.26390156 -0.615577 -0.26934412 -0.40360576
0001d0 13 dc 9d bd 9f 8c 15 3f b5 ef f8 bd 79 e2 76 bd
       -0.077079915 0.58417696 -0.121550955 -0.060274575
0001e0 dd 03 26 3f 1d d9 49 3f f2 09 cc 3d b0 08 52 3f
       0.64849645 0.78846914 0.099628344 0.82044506
0001f0 c5 71 e1 be 3f 77 1a be db b6 e1 bd 0f bf d3 3e
       -0.44032112 -0.15084551 -0.11021205 0.41356704
000200 17 80 84 bc e7 25 1f be 1c 16 f1 3e a7 88 bb 3e
       -0.01617436 -0.15541802 0.4708718 0.36627695
000210 99 38 09 bf 2b 4f 6b 3e e4 c9 09 be d0 8e 95 be
       -0.53601986 0.22979419 -0.13455921 -0.2921052
000220 3f f2 d2 3e bc c8 ac be a2 96 25 be 43 0d 82 be
       0.41200444 -0.33746898 -0.16170743 -0.25400743
000230 f8 ad f6 be 76 12 e1 3e f4 db aa 3c e1 68 1f be
       -0.48179603 0.43959397 0.020856835 -0.15567352
000240 e4 7b f8 3e 85 ee 32 3f 56 09 23 3f 1d 1a c5 3e
       0.4853202 0.698952 0.6368612 0.38496485
000250 39 1b a3 3e 15 ec 9f 3e e3 98 ea be 07 cc db 3d
       0.31856707 0.31234804 -0.45819768 0.107322745
000260 d3 0f fd bc 0c f1 08 3e 5c c8 58 be aa 6a a5 bb
       -0.030891335 0.13373202 -0.21170181 -0.0050481157
000270 1f 8b 0c 3e a4 4a d5 3e 07 97 79 3e a2 dc f6 3e
       0.13724945 0.4165851 0.24374019 0.48215204
000280 a9 99 ba bb 5a e1 0e 3f 30 d6 5b 3e 32 07 11 bf
       -0.0056945872 0.5581261 0.21468425 -0.56651604
000290 3e 80 dd 3c 29 1e e3 3e e0 a8 b2 be aa 3f a0 be
       0.02703869 0.44358948 -0.34894466 -0.31298572
0002a0 f2 0a 57 3d 2b e1 8d 3e 0f 53 09 be d3 c1 f6 3d
       0.052500673 0.27710852 -0.1341059 0.12048688
0002b0 f3 3e 88 3e 5d 47 48 bd f1 e6 12 be cc 40 94 3e
       0.26610526 -0.048896182 -0.1434591 0.28955686
0002c0 c1 f4 12 bf d0 ab c5 be 54 3f 0d 3f 1d 9c b2 be
       -0.57404715 -0.38607645 0.55174756 -0.3488473
0002d0 08 94 aa 3e 56 d2 fa be 66 18 22 3f 63 6d 91 bd
       0.33316064 -0.489886 0.6331848 -0.07100942
0002e0 04 55 09 3e 6d 68 7d 3e aa 53 f5 3a 80 83 5d 3f
       0.13411337 0.24746867 0.001871695 0.8652878
0002f0 0b 1c f2 be cf fe 1d 3f 9b 61 a9 be 8e bb b2 be
       -0.4728702 0.6171693 -0.3308228 -0.34908718
000300 11 91 f5 3e 87 ca 89 3d dd 0e e8 be 7a 3f 76 3f
       0.4796224 0.06728082 -0.4532384 0.9619061
000310 5f 4b 03 3e 5f 61 d0 3e bc 0a 06 bd 43 ca ea bd
       0.1282172 0.40699288 -0.03272508 -0.114643596
000320 f9 31 07 bf 94 64 5b 3e 52 2c 25 be b8 1d ef 3e
       -0.5281063 0.21425086 -0.16130188 0.4670236
000330 83 74 02 3e 02 be fd bd 7f 4c 83 bc ba da 21 3e
       0.12739758 -0.12389757 -0.016027687 0.15806094
000340 5d 38 0d be 83 19 88 3f db 64 45 3f f4 13 2f 3f
       -0.13791032 1.0632786 0.7710702 0.6838982
000350 7d 3b 77 bf bd ab 5c be d2 87 f9 3e ec 9f ba bd
       -0.96575147 -0.21549888 0.48736435 -0.09112534
000360 71 15 cb 3e 0b d3 0a 3f a1 25 8f be 64 07 d1 be
       0.39664796 0.54228276 -0.27958396 -0.4082595
000370 6d 2a 6a be 9f 44 e7 3e 31 5f 4f be eb 93 fe 3e
       -0.22867747 0.4516954 -0.20251156 0.49722227
000380 b0 9c 9b be ec 4c 80 bd 0f 8a 0a 3e 7e 61 b6 3b
       -0.3039298 -0.06264672 0.13529228 0.005565821
000390 e0 40 0f be 06 26 bd be 8a af 55 be 4f aa 21 3f
       -0.13989592 -0.36943072 -0.20867744 0.63150495
0003a0 42 b5 f1 3e 2e 9c 90 be 0a d0 76 be a2 25 12 3d
       0.472086 -0.28244156 -0.24102798 0.03568042
0003b0 e7 83 c5 bf b7 d9 50 3f c4 59 3c 3f 5b d9 bd 3d
       -1.5430878 0.81582206 0.7357447 0.09269973
0003c0 a6 cc 83 3e bf 65 15 be e9 d3 30 be f3 06 9b be
       0.25742072 -0.14589594 -0.17268337 -0.3027874
0003d0 38 44 88 3e b1 f1 62 3e 87 37 bb 3e 2d 30 89 3d
       0.26614547 0.2216251 0.36565802 0.06698642
0003e0 a6 a6 b2 bd c7 53 37 be 3a fe 06 3f df 4f 94 3e
       -0.08723192 -0.17903052 0.5273167 0.28967187
0003f0 27 6e 22 bf 68 f6 80 be 49 50 02 3e d3 7e 4a 3b
       -0.6344933 -0.25187993 0.12725939 0.0030898347

mid_part.0.bias f4 [12]
000000 4e 18 20 3c 9d 1a a1 bc cf 9a 81 39 f6 33 d2 bb
       0.00977142 -0.01966601 0.0002472014 -0.0064148856
000010 cb 45 48 3d 6f 8c ed 3b 11 29 4e bc b2 15 40 3d
       0.048894685 0.007249407 -0.012583033 0.04689569
000020 57 cd 0e bc a3 6c 1b bb c9 9a fd ba 3b 6a ee 3c
       -0.008715949 -0.0023715876 -0.0019348498 0.029103389

mid_part.1.weight f4 [12]
000000 75 ef 6e 3e c5 be c2 3e 00 00 80 3e 32 68 7b 3e
       0.23333533 0.3803617 0.25 0.24551466
000010 a4 d6 b4 3e 8f 80 8e 3f cd ba 2e 3e 87 68 a4 3c
       0.35320008 1.1132983 0.17063446 0.020069374
000020 48 f6 92 3e 30 95 a9 3e 8b f0 e1 3e 20 df 81 3e
       0.28703523 0.33121634 0.44128832 0.25365543

mid_part.2.weight f4 [12, 12, 3, 3]
000000 c5 3c 75 3e 84 ad 6f 3d 5d 45 12 bb 55 7f 89 be
       0.23948963 0.058515087 -0.0022319176 -0.2685496
000010 78 cd 20 3e f5 5f 01 be ec 49 a7 bd e4 77 7c bd
       0.1570338 -0.12634261 -0.08168396 -0.061637774
000020 d6 51 a1 3d e8 7a 24 3e 72 56 6e be 8e 23 4d 3e
       0.07876937 0.1606251 -0.23275164 0.20033094
000030 0b 69 11 3d d1 9c 09 be 9e 39 0b be 1b 5d 82 bd
       0.035500567 -0.13438727 -0.13596198 -0.06365415
000040 9b 40 24 be 26 ce 0c 3d dd cb bb 3d 27 c3 21 3e
       -0.1604027 0.034376286 0.09169743 0.15797101
000050 2e fb 7d 3d 96 66 23 3e 16 58 6d 3b a4 98 cf bc
       0.06200712 0.15957102 0.0036215833 -0.02534134
000060 4a 93 84 3e c1 a8 6d 3d 17 a6 94 bd 1d f8 8b 3b
       0.25893623 0.058022264 -0.072582416 0.004271521
000070 65 58 7d bd ec dd 03 3e 4d b9 02 3e ea 23 b2 be
       -0.061851878 0.12877625 0.12765999 -0.34793025
000080 5c bd 80 be a8 05 12 be d4 d0 a7 bc a9 c1 08 3e
       -0.2514447 -0.1425997 -0.02048532 0.13355125
000090 67 2c 2a be fc 01 d7 bd 36 c7 a2 bd ce 55 e5 bb
       -0.166185 -0.10498425 -0.07948153 -0.006998754
0000a0 52 6a 6f 3e d9 07 66 be 94 1e af 3c ea 37 30 bc
       0.23380402 -0.22463931 0.021376885 -0.010755518
0000b0 e3 ee 22 3d d4 b2 5f 3e 24 33 3b 3d 8f 62 5d 3e
       0.0397786 0.21845561 0.04570307 0.21619628
0000c0 6d fe 5a bd ea 92 d8 bd e5 1e 9e 3d 6c 71 c2 bd
       -0.053465296 -0.10574897 0.077207364 -0.0949429
0000d0 39 8e 8e 3d 08 58 ca bd bb 35 35 be 79 17 90 3c
       0.069607206 -0.09880072 -0.17696278 0.017589318
0000e0 b0 11 4a bc 72 1b 50 3e 58 80 29 bd 66 11 3c 3d
       -0.012333319 0.2032297 -0.041382164 0.04591503
0000f0 9d 71 bb bd e8 db ee 3d 9f e8 2a 3e f4 d3 16 3e
       -0.091525294 0.116630375 0.166903 0.14729291
000100 3a 6b d8 bc d8 31 5e 3e c7 50 ff bb 33 d3 45 3d
       -0.026418317 0.21698701 -0.007791612 0.04829712
000110 a1 ec 86 bb 25 17 cc 3a 7a 6c 51 be f7 b9 3c be
       -0.004117564 0.0015570862 -0.20451537 -0.18430315
000120 c0 b5 cb bc 8f 01 13 bd 88 fe 0b 3d 18 c3 37 be
       -0.024866939 -0.03589016 0.034178287 -0.17945516
000130 73 36 97 3e e3 6d 91 bd 2a 88 42 bd 25 03 49 bd
       0.2953373 -0.07101037 -0.047493137 -0.049075264
000140 73 e2 1e 3d d7 6b 31 be 2f 66 2b 3d ef 16 4e 3d
       0.038790178 -0.17326294 0.041845497 0.05031484
000150 09 4f 2d 3d f0 4e ec 3d da f8 e8 3d ee a3 04 be
       0.042311702 0.11538494 0.1137559 -0.12953159
000160 5c 39 d7 bc bb fe bc 3c 3d 37 8e 3d e7 8f ba ba
       -0.026272468 0.023070684 0.069441296 -0.001423356
000170 c5 c4 75 3e 16 1e ee bd 7b 16 66 bd 82 95 96 bd
       0.24000843 -0.11626832 -0.056173783 -0.07352735
000180 fc a0 19 3d 8e 0d d3 3d 49 15 e4 3c 19 b3 2c 3d
       0.037507042 0.1030532 0.02784218 0.04216299
000190 22 43 7b bd e9 85 eb bd f8 49 0c bd 54 99 e7 3d
       -0.06134332 -0.11500151 -0.03425023 0.11308542
0001a0 69 f9 b9 3c f1 13 b2 3d d0 73 82 3d 27 bf 24 3c
       0.022701936 0.0869521 0.06369746 0.01005534
0001b0 85 c8 57 3c 2b 69 80 bd e1 04 c8 3c 75 67 51 bd
       0.013170366 -0.06270059 0.024416389 -0.051124055
0001c0 f5 5e 3a 3c 60 99 54 be da d0 61 3e c1 30 9b 3d
       0.011375179 -0.20761633 0.22052327 0.075776584
0001d0 3f 92 40 3e 9e 8d 25 3e 1b db aa 3d 33 67 b5 3b
       0.18805788 0.16167304 0.08342572 0.005535984
0001e0 4f bb 6c 3e a3 4f d1 3d e2 cd b3 3b 8f c8 8a 3d
       0.23118328 0.102202676 0.0054871896 0.06776535
0001f0 ea 86 f4 bd c8 fc 03 3e fe ea e7 bc 6b 62 a5 be
       -0.11939795 0.12889397 -0.028310295 -0.3230165
000200 c4 ef 25 be d9 44 d4 3c 65 5b 7d 3d 86 81 98 be
       -0.16204745 0.025911735 0.06185474 -0.2978632
000210 c5 0f e6 bd c2 b6 b6 3d e8 8a ce bd f1 4d 05 3d
       -0.112334765 0.08921577 -0.10085088 0.032545034
000220 16 22 7e 3e 5c ea 08 be 21 12 4c bd 70 4e a2 bd
       0.2481769 -0.13370651 -0.049821977 -0.07925117
000230 16 94 37 bd d8 27 eb bd d4 1c a9 3e a6 c1 b9 bd
       -0.04481896 -0.11482209 0.33029807 -0.09070139
000240 8e 96 5b 3e 92 f5 31 be 10 5c b9 bd f0 9a 3e be
       0.21444151 -0.17378834 -0.09050763 -0.18613791
000250 9a c3 25 be 3b 85 27 bc e1 bd c5 bd 67 47 ff bd
       -0.16187897 -0.010224636 -0.09655357 -0.12464791
000260 02 da 60 bc a6 d4 fc bd b9 a9 2b 3d fe 39 84 be
       -0.013723852 -0.12345247 0.041909907 -0.25825495
000270 47 d5 04 3c a7 49 ca 3d 3d e5 bc 3d 70 2a 14 3e
       0.00810749 0.09877329 0.09223411 0.14469314
000280 23 25 8e bd f8 db 42 bd f6 bc 39 3e 4c f8 4e be
       -0.06940677 -0.04757306 0.18138489 -0.20211905
000290 4c 16 cd bd c6 d4 20 bb 53 21 6b 3e a6 eb 8d 3c
       -0.100140184 -0.0024540885 0.22961931 0.01732428
0002a0 9e 3e ab be ba b3 49 3c 6f b7 1e 3e d1 f7 2d be
       -0.3344621 0.012310917 0.15499662 -0.16989066
0002b0 fc 59 62 3e 92 bc a3 bc 51 45 d0 bd 5e bb 75 3e
       0.22104639 -0.019987378 -0.10169471 0.23997256
0002c0 f5 2a 86 3e 05 b6 4c bd 2a 68 94 bd 89 3b 46 bd
       0.2620465 -0.049978275 -0.0724643 -0.04839662
0002d0 67 41 a3 3d 73 27 01 be 93 f8 dd 3d 53 4f 05 bd
       0.07971459 -0.12612705 0.108384274 -0.032546353
0002e0 a2 26 96 3d 76 82 93 be 23 a2 5e 3d 1c 49 be bd
       0.073315874 -0.2881047 0.054353844 -0.09291288
0002f0 fa d3 d6 bd 17 37 e8 bd 2c fc 11 bd 0f 63 36 bd
       -0.1048965 -0.113386326 -0.03564088 -0.044528063
000300 e4 ab 38 bc 0c 96 51 bd 0f 5c 30 3b 10 65 32 be
       -0.011271451 -0.051168486 0.002691034 -0.17421365
000310 d9 4b f1 bc e2 67 ee 3c 4f ad 8e bd 7e e5 0a 3e
       -0.029455112 0.02910227 -0.0696665 0.13564107
000320 78 f3 17 3d 48 42 80 3e 84 6c 49 bd ef 14 0d be
       0.037097424 0.2505057 -0.049175754 -0.13777517
000330 1c c0 13 be bb d4 c1 3c 8e de f3 3d 2b 88 85 3e
       -0.14428753 0.023661008 0.11907683 0.2608045
000340 0b 34 57 3e c7 d7 cb 3d 19 a7 88 3d f4 9f 01 3e
       0.21015947 0.09953266 0.06672496 0.12658674
000350 0e f3 48 3e 62 96 1c bd e4 87 14 3e 1d 8c 22 3e
       0.19623968 -0.038229354 0.14504963 0.15873761
000360 0e c1 99 3d ab e4 28 be 08 62 91 3c 77 47 95 bd
       0.075075254 -0.1649348 0.01774694 -0.072890215
000370 c4 0e 12 3e 72 78 36 3e 25 33 0f 3e 70 28 46 bd
       0.14263445 0.17819384 0.13984354 -0.048378408
000380 9f b0 88 3e ea 2e 9b bd 2e e2 d0 bd 84 de 88 3d
       0.2669725 -0.075773075 -0.1019939 0.066830665
000390 a9 04 58 3e 15 bb 75 bd e0 a4 d3 bb db 32 6e bd
       0.21095528 -0.05999287 -0.0064588636 -0.05815397
0003a0 b1 39 f7 3d 51 8b db 3d ef 83 11 3e f6 d7 89 be
       0.12071551 0.10719932 0.14210485 -0.26922578
0003b0 d9 e7 54 be 31 db 85 3d a2 07 fd bd e5 65 2c bc
       -0.20791568 0.06535948 -0.123549715 -0.01052234
0003c0 bb 06 eb 3d 3d 50 fc 3c ef 2b 09 3d b9 27 98 bd
       0.11475893 0.03079998 0.033489164 -0.074294515
0003d0 59 8d 64 3b 71 ca 82 bd d8 f7 6d 3e b3 47 4f 3e
       0.0034874289 -0.06386269 0.23239076 0.20242195
0003e0 d1 6e 20 3e 3b d5 9f 3d 9d f8 e6 3d 5d 1e 04 3d
       0.15667273 0.07804342 0.11277888 0.03225552
0003f0 1e 97 a6 3e 2e 2c 63 be f9 d7 9e bd 62 f8 25 3c
       0.32537168 -0.22184822 -0.07756037 0.01013002

mid_part.2.bias f4 [12]
000000 7d 9e af 3b 6c d7 cc b9 cb c2 36 3a 2f 61 b5 3a
       0.0053594694 -0.00039070414 0.00069717754 0.0013838167
000010 06 ab 0c 3d 98 07 ac ba c2 4f 3a bc af fd ec 3a
       0.03434279 -0.0013124822 -0.011371555 0.0018080975
000020 f0 b0 5b 3c 74 96 ca 3b 4b c6 25 bc 18 b0 72 3c
       0.013408884 0.006182486 -0.0101180775 0.014812492

mid_part.3.weight f4 [12]
000000 cb 98 19 3e 6f 72 81 3e 5f 35 86 3e 77 66 19 3f
       0.14999692 0.25282618 0.26212594 0.59921974
000010 7c 6c 87 3e ff 54 83 3e 9c a1 35 bf 84 9d 66 3e
       0.26449955 0.25650784 -0.7094972 0.22521025
000020 f5 54 9f 3e 69 37 36 3e c0 5c 82 3e 56 7c 4f 3e
       0.31119505 0.17794575 0.25461388 0.20262274

mid_part.4.weight f4 [12, 12, 3, 3]
000000 78 10 32 3d 2d 3e 74 bd 75 b1 6d 3e 86 3d 91 3e
       0.043472737 -0.059629608 0.23212226 0.2836725
000010 e9 f9 c7 bc cf 2f 10 3e d5 9e fa bd 14 f1 78 3d
       -0.024411159 0.14080738 -0.12237326 0.060776785
000020 13 91 b5 bd d6 02 65 be 0f 89 ed bd 4b 4a b2 3e
       -0.08865561 -0.22364363 -0.115984075 0.34822306
000030 55 c0 7c bd 51 2e 11 3e 3c cf 17 be 88 d9 f5 bd
       -0.06170686 0.14177825 -0.14825147 -0.120043814
000040 ed 93 4c 3c 5c 73 6a 3e a0 2b 13 be 32 fc eb 3d
       0.01248644 0.22895569 -0.1437211 0.11522712
000050 ca 29 92 3c 81 19 09 3e 76 c4 cd bc c8 58 a4 bd
       0.017842192 0.13388635 -0.025118094 -0.08024746
000060 96 34 8a bd 09 27 17 3e ab 3c 43 3e e5 65 c4 bd
       -0.06748311 0.14760984 0.19066112 -0.09589747
000070 1d 8c 7e be d0 9c 22 bb 80 54 fc bc d1 0d 43 3d
       -0.24858136 -0.0024812706 -0.030802011 0.0476206
000080 0a 5a 80 be 4f 35 5d bd 8c 70 1b 3e 09 10 ec 3d
       -0.25068694 -0.054005917 0.15179652 0.11526496
000090 3f 71 df bc 82 fc 08 3e 7f ff 51 3e 3f b3 10 be
       -0.02727568 0.13377574 0.2050762 -0.14130877
0000a0 f9 62 1c 3e c0 d5 17 3e 2e c2 73 be e7 bd b5 bd
       0.1527213 0.14827633 -0.23804542 -0.088741116
0000b0 dc e8 25 3e f3 71 38 bd 12 2d a9 bd e4 2a e8 3d
       0.1620211 -0.045030545 -0.082605496 0.11336306
0000c0 d5 67 88 be 9b 34 c9 3d 4d 4e b7 be 2f ab 1c 3d
       -0.26641718 0.09824487 -0.35801926 0.03824919
0000d0 4a 8e 8c 3e 07 01 07 be 8e 95 d4 3d 87 5a 53 be
       0.27452308 -0.13183986 0.10380088 -0.20640002
0000e0 da e9 0a be 2f 87 ba 3d 50 1b 7b 3a 57 df 11 be
       -0.1356577 0.091078155 0.000957896 -0.14245354
0000f0 4f 57 1d bd 5a 10 87 be 41 25 77 3e 1c ed 23 bc
       -0.038413342 -0.26379663 0.24135305 -0.010005262
000100 b1 a4 ec bd 9c 35 2a 3e 86 51 ba bb 9a d7 4f 3d
       -0.1155485 0.16622013 -0.005685988 0.050742723
000110 d6 f0 2f 3e bc 7f 5c be 39 e0 a8 bd 14 62 93 bd
       0.17181715 -0.21533102 -0.08245892 -0.07196441
000120 57 0c 36 bc 61 8e 80 bd 00 ef 0f be 7d 42 18 be
       -0.0111113405 -0.062771566 -0.14056015 -0.14869113
000130 3b e4 8c 3c 31 bb 11 bd cb ba 6f 3d 4d 7f 49 bd
       0.017198673 -0.03557891 0.05852775 -0.04919367
000140 11 9d 3f 3e c3 32 f6 3d ed 2a 17 3c b5 2d 62 3e
       0.1871226 0.12021401 0.009226543 0.22087748
000150 71 7c f9 3d 78 c0 1c 3e ca 45 0f bd 4e ec a5 3d
       0.121819384 0.15307796 -0.034978665 0.08101712
000160 ad 0d 25 3e ba 5b ac be 98 d9 4c be d3 9d 35 3e
       0.16118498 -0.33663732 -0.2000488 0.17735986
000170 a6 63 fd bd e1 3c 1c ba 05 4e 7c bc 4f 29 1d ba
       -0.12372522 -0.00059599994 -0.015399461 -0.000599523
000180 06 2d 83 be 95 32 7b bd 0f bd 85 3d 4f d9 6f 3d
       -0.25620288 -0.061327536 0.06530201 0.05855685
000190 d1 0a a0 3d 03 e7 50 be 0d 5a 85 be cc ab 4b 3e
       0.07814563 -0.20400624 -0.26045266 0.19889754
0001a0 6f 34 cf be 1b dd 33 bc 26 82 db 3d 9f 78 87 3d
       -0.4046969 -0.010978009 0.10718183 0.066148035
0001b0 6f f1 fa 3d 8a 5f 52 be b2 8e 00 bd e7 9c 80 3e
       0.12253081 -0.20544258 -0.031386085 0.25119707
0001c0 b7 23 66 3d f2 05 b1 3d 63 1a 8d 3e 54 62 82 be
       0.056186404 0.08643712 0.27559194 -0.25465643
0001d0 33 0e a5 3c 0b 47 06 bd 43 96 91 3d 56 91 97 bc
       0.020148372 -0.032782596 0.07108738 -0.018501919
0001e0 71 a1 93 3e 57 98 9b 3d fd 59 b1 3e 84 07 7f be
       0.28834108 0.07597416 0.34638968 -0.2490521
0001f0 89 46 83 be e4 21 91 bd 05 07 57 be 21 7f f3 3d
       -0.25639752 -0.07086542 -0.20998771 0.11889482
000200 5e cb 41 bd 86 08 ee be 12 51 1d be 23 ea ef bc
       -0.047313087 -0.46490878 -0.15362957 -0.02928645
000210 84 f5 01 bf 7b 57 42 be 07 60 c7 3d a7 bc f8 bc
       -0.5076525 -0.18978684 0.09735113 -0.030363394
000220 84 5e 47 3e 26 58 54 3e 59 3c ee 3d f0 d1 9d 3e
       0.19469649 0.20736751 0.11632604 0.30824232
000230 48 68 a1 3d 3d 75 c4 3e 7c 3b ac 3e 5c 3c 61 bd
       0.07881218 0.38370696 0.33639133 -0.054989204
000240 e4 ce 79 bd 91 63 82 bd 87 6a cb bd 88 32 c4 bd
       -0.060988322 -0.06366647 -0.09932428 -0.095799506
000250 1f db 94 3d 3a 9b 41 3d 63 8d a5 be 2f d8 88 bd
       0.072683565 0.047267176 -0.32334432 -0.06681859
000260 8c f2 93 bc 62 c9 a5 bb c3 b7 36 be e2 bf 83 3e
       -0.018059991 -0.005059407 -0.17843537 0.25732332
000270 ec 49 65 be 6b 19 d3 3a 9d fc 0d 3e e1 7c 0c be
       -0.2239148 0.0016105598 0.13865896 -0.13719513
000280 00 ca 9b 3d 45 8c 29 bd fa 7a 8f 3e fc 6f d8 3b
       0.07606888 -0.041393537 0.2802351 0.0066051465
000290 a0 af 27 bd c8 35 af 3e b6 25 99 bd 25 4f 05 3d
       -0.040938973 0.3422072 -0.07477896 0.03254618
0002a0 7b 95 f5 3d 2a 7b 33 bd d3 af 84 be 6e c3 a6 3e
       0.11991402 -0.04381863 -0.25915393 0.32570976
0002b0 ba 97 5e be 04 74 60 be cc 97 59 bd 11 34 40 bc
       -0.21737567 -0.21919256 -0.05312328 -0.011731164
0002c0 05 4f d0 3d 1d 10 69 3e 9f 60 e2 3d 55 5f da 3e
       0.10171322 0.22760053 0.11053585 0.42650858
0002d0 5d e5 33 3d d2 38 69 be 7f 3d 4a be c8 35 23 3c
       0.04391991 -0.22775581 -0.19750021 0.009961553
0002e0 39 69 eb bd b8 9b 7f 3d f7 bf 3c 3e f0 68 8a 3e
       -0.11494679 0.062404364 0.18432604 0.27033186
0002f0 8a 38 0e 3e 7c 11 e2 be 40 99 ee 3d 91 fb 28 be
       0.13888755 -0.44153965 0.11650324 -0.16502215
000300 97 4f 39 3e f7 77 5f 3e f1 a0 23 bd 30 16 c4 3c
       0.18096767 0.21823107 -0.039948408 0.023936361
000310 40 1e 27 bd 4c 4e af 3d 4a 27 ca bd 85 74 0b be
       -0.040800333 0.08559856 -0.09870775 -0.13618667
000320 a6 cd e9 3d 69 5f a5 3e 90 3c d9 3e 72 64 5c 3e
       0.114161775 0.32299355 0.42429018 0.21522692
000330 bc 20 6c be 16 dc ce ba 15 f7 ec 3c 4d 28 8a be
       -0.23059362 -0.0015782143 0.028926412 -0.26983872
000340 9d 23 98 be cd 5a c1 be 19 06 10 be 89 16 7f 3d
       -0.2971467 -0.37764588 -0.14064826 0.06227735
000350 08 45 08 bd b5 62 26 3f 14 de a5 3e 56 c0 3c 3e
       -0.03326896 0.64994365 0.32395995 0.18432745
000360 72 ef 44 3e 31 70 4d be 7e 39 1b 3e 79 aa 7a 3d
       0.19231966 -0.20062329 0.1515865 0.06119773
000370 aa 78 f4 3c 32 63 a9 bc 44 13 29 be 6f ac 9b 3e
       0.029842693 -0.020677183 -0.16511256 0.30404994
000380 5e 45 e3 3c 76 6f 60 3e 2f fc 93 3c 0c b4 32 3e
       0.027743038 0.21917519 0.018064586 0.17451495
000390 76 bc 0b bc 39 85 03 3d 8b 05 e1 3d cc e3 2e 3b
       -0.008528819 0.032109473 0.10987385 0.002668607
0003a0 11 41 a2 3d 5e ae ab 3c a9 3f d9 bd 75 7e 73 3d
       0.07922567 0.020957168 -0.10607845 0.05944677
0003b0 12 1f 3a 3e 05 4b d8 bc 57 f1 32 3e 7d 24 37 3e
       0.18175915 -0.02640296 0.17474876 0.17885013
0003c0 ab 97 4f 3d 28 db 0d bc f4 b8 38 be ea 8c 65 be
       0.05068175 -0.008658208 -0.18039304 -0.22417036
0003d0 e3 fa 5f be c6 92 11 bd e1 9f 50 3d e5 04 1d 3e
       -0.2187305 -0.035540365 0.050933722 0.15333898
0003e0 e7 58 f2 3d e0 17 45 3e c2 4c 04 bd 9f b3 f9 3c
       0.11833363 0.19247389 -0.032299764 0.030481158
0003f0 0a d7 19 be 6f 70 95 be 8d 99 49 be 2e 48 89 bc
       -0.15023437 -0.29187343 -0.19687481 -0.01675805

mid_part.4.bias f4 [12]
000000 4b 48 60 3c 4d 1f 97 bc 62 da c7 bc e9 25 30 3d
       0.013689111 -0.018447543 -0.024396125 0.043004904
000010 43 7f 95 3a 71 b1 0f 3b 60 3f df 3a 65 22 e3 3a
       0.0011405725 0.0021925832 0.0017032437 0.0017328976
000020 fc 8a de 3c 62 d7 62 3c 99 59 b6 bc b9 53 ab bc
       0.027165882 0.013845297 -0.02225952 -0.020913946

mid_part.5.weight f4 [12]
000000 39 f2 11 3e ec f8 06 3f 17 c7 96 3e 16 fe 88 3e
       0.14252557 0.52723575 0.29448768 0.26756352
000010 79 e0 12 3f eb c5 f2 3e a1 ac 26 3d bc 4c f6 3d
       0.5737377 0.47416624 0.040691976 0.12026355
000020 41 a3 b6 bd a2 06 80 3e e8 4d a5 3e 75 15 83 3e
       -0.08917857 0.2500506 0.32286 0.25602308

mid_part.6.weight f4 [12, 12, 3, 3]
000000 96 fa 5b 3d 1b 1b ce bd 3e b3 44 bd e9 78 02 3d
       0.053705774 -0.10063764 -0.0480225 0.03185359
000010 a0 50 f2 3d 3a c1 17 3e b5 5f 3e bc 16 84 96 3d
       0.11831784 0.14819804 -0.011619498 0.07349412
000020 56 c9 3d 3d 00 e4 8a 3d 26 6a 98 3e 83 d2 25 3e
       0.046334587 0.06781769 0.29768485 0.16193585
000030 d1 79 f2 3c 60 1f 40 3e 2c 3a 02 3e 94 7d f3 bc
       0.029599102 0.18761969 0.12717503 -0.029722966
000040 2b b1 7e be d8 f7 96 3d be 6f a4 3d c6 f7 ba bd
       -0.24872272 0.07371491 0.08029126 -0.0912929
000050 c1 46 84 3d cf 58 cd 3d 92 a9 22 3d f6 c5 cf bd
       0.06458808 0.100267045 0.039712496 -0.1014518
000060 bb 37 45 be 85 cb 08 be e4 93 e2 3d 05 ec d0 3d
       -0.1925954 -0.13358887 0.11063364 0.10201267
000070 60 b3 08 be d0 2b 6a be 62 d8 1e be 14 20 2b 3e
       -0.13349676 -0.22868276 -0.15512231 0.16711456
000080 8d 9f e3 3d af 99 2b 3d d7 0d 45 be 93 ee 15 be
       0.11114416 0.04189461 -0.1924356 -0.1464179
000090 9b d3 15 3b 3d 65 43 3e 50 cd 9b bd cb d7 33 3e
       0.0022861722 0.19081588 -0.076075196 0.17562787
0000a0 28 2a 05 3e 50 fb fa bd 30 d5 0a bd fc 98 3e 3e
       0.13004363 -0.12254965 -0.033894718 0.18613046
0000b0 84 4d 3b bd d6 9b 27 be cd 48 d2 be 3d 87 ef 3d
       -0.04572822 -0.1636804 -0.41071168 0.116957165
0000c0 5d c7 4b 3e 6c c4 08 3d 25 96 54 3d ae 89 b3 3d
       0.1990027 0.033390447 0.051901 0.08766495
0000d0 c2 7d df 3d 11 f1 59 3e 26 60 27 3e 0a e3 55 be
       0.10912658 0.21283366 0.16345271 -0.2088739
0000e0 4a 2a 38 3d 4e 1d 99 3d 4f 9d 1e 3d 27 e9 98 3d
       0.044962205 0.074762926 0.03872424 0.07466345
0000f0 5b 4e 51 3e 37 14 6b 3e 42 0d 0b 3e 65 bc d3 bd
       0.20440046 0.2295693 0.13579276 -0.10338668
000100 8c b7 ad bd 90 e7 1e 3e 39 b6 37 bd 64 ba 1f be
       -0.084822744 0.15518022 -0.044851515 -0.15598446
000110 df f6 9f 3c 71 73 62 3d 08 b8 ff 3c 62 81 45 be
       0.019526897 0.055285875 0.031215683 -0.19287637
000120 26 f6 8a bc ec 59 10 3e a5 64 7a 3e b1 24 4b bc
       -0.016963076 0.14096802 0.24452455 -0.012398885
000130 3b 25 56 3d eb a6 82 3c 31 de a1 37 63 7d 32 be
       0.0522816 0.015948733 1.9296162e-05 -0.17430644
000140 9b ed 74 3d 1e 8e 08 bc c4 59 3e 3e e3 56 ea 3c
       0.05979691 -0.008334665 0.1858893 0.028605884
000150 2f 4b 2a be e3 26 1f 3d 80 92 34 3e 27 da 55 be
       -0.16630243 0.038855445 0.1763401 -0.20884
000160 64 dd fd bd b5 20 72 be 42 94 ea bd 53 8b 42 3e
       -0.123957425 -0.23645289 -0.11454059 0.1899846
000170 27 e0 6b 3c 54 19 97 bc 49 7c b6 bd 25 54 8a 3d
       0.014396704 -0.018444695 -0.08910424 0.067543305
000180 a5 e2 b3 bd 7f 78 4a 3e 67 c8 d2 bd f8 ca 0b 3e
       -0.087834634 0.19772528 -0.1029213 0.13651645
000190 85 ea 12 3d f6 4b 0b 3d e1 4c 94 3d 35 61 e6 bd
       0.035868187 0.03400799 0.07241226 -0.112490095
0001a0 5f 0d c3 bc b0 95 2e 3e 22 ce 01 be fe 0d 0f 3b
       -0.023810087 0.17049289 -0.1267629 0.0021828408
0001b0 05 ff 9e 3e 75 9c aa 3d 4b 8b e9 3d 44 35 bc bd
       0.3105394 0.08330623 0.11403521 -0.09189847
0001c0 72 ef 5a be 16 2a 04 3e 3f df bb 3d 5a a2 56 3d
       -0.21380404 0.1290668 0.0917344 0.052400924
0001d0 aa 29 83 3c 0d db ea bd 4b 2f 63 3c 69 e2 bf 3e
       0.016011078 -0.11467562 0.013866256 0.37477425
0001e0 7d 01 4f be 7d e9 65 3c 9b f3 d5 3d d5 ff 20 3e
       -0.20215411 0.014032719 0.10446855 0.15722592
0001f0 35 ba 30 3d 6d 52 6f ba 3a 0d fe 3d b1 5d d6 3d
       0.04314633 -0.0009129409 0.124048665 0.10467089
000200 b8 81 ab 3b 36 2c 4a 3e 1a 0a 1a 3d f9 4c 3d 3e
       0.0052339695 0.19743428 0.03760729 0.18486394
000210 52 3e 12 3c 62 c8 6d 3c f4 bc 5d bb 5c 72 97 3d
       0.008925991 0.014513107 -0.0033834549 0.07394859
000220 10 5c 8c 3d 41 9c 7b bd d9 06 2a be 21 67 27 3e
       0.06853497 -0.061428312 -0.16604175 0.16347934
000230 94 cc 10 3d 22 17 4e be 65 86 2f be db d3 b8 3d
       0.03535135 -0.20126012 -0.17141111 0.09024783
000240 10 36 5a 3d 97 a4 be bd b9 fe 05 3e dd 67 f8 3d
       0.053274214 -0.09308737 0.1308545 0.12129185
000250 10 8c 61 bd 1d 90 e5 bd 8e bf b8 3d f8 b5 80 3e
       -0.055065215 -0.11209128 0.09020911 0.2513883
000260 c5 06 4f 3d f9 64 64 3d 54 5b 1e 3d 7a d6 18 3e
       0.050543565 0.055760358 0.038661316 0.14925566
000270 a3 34 34 be e5 94 ed 3b f5 52 4a 3b a6 36 8e ba
       -0.17598204 0.0072504156 0.00308722 -0.0010850027
000280 e5 a4 93 bc aa 7c 7e 3d fd 8c 25 3e f0 c7 f8 3b
       -0.018022964 0.062130608 0.16167064 0.007592194
000290 1c 1b 09 3d 6f c9 d5 3c 37 7f a7 3d 46 df 0b bd
       0.03347312 0.026097028 0.08178561 -0.034148477
0002a0 a7 75 49 bd 84 0a c8 bd 14 5b bd bd a3 b8 10 3e
       -0.049184468 -0.09767631 -0.092458874 0.14132933
0002b0 9b 3e cc bc 5a c6 ca 3d 5a 73 2d 3d 48 85 31 3e
       -0.024932196 0.09901114 0.042346336 0.17335999
0002c0 ec ba 55 be fe 56 41 bd 92 09 0b bd 08 4a ff bd
       -0.20872086 -0.047202103 -0.033944674 -0.12465292
0002d0 aa cc 14 3e 3c 39 9e be a7 81 00 3e 75 47 4a 3c
       0.14531198 -0.3090304 0.12549458 0.012346138
0002e0 71 05 c0 bb 62 ad 1e 3e 2f 0e 20 3d de bd 15 3e
       -0.0058600237 0.15495828 0.039076027 0.1462321
0002f0 49 98 4d bd 5a d4 d7 3d f6 36 ab 3c 67 0a 36 3d
       -0.05019406 0.1053855 0.02090023 0.044443514
000300 40 07 07 3e ae 50 62 3e a0 61 2e be 87 a8 14 3c
       0.1318636 0.2210109 -0.17029428 0.009073383
000310 c7 23 28 3e 04 30 3e 3e 55 05 04 bd 1f 65 39 3e
       0.16419898 0.18573004 -0.032231648 0.18104981
000320 a8 f7 03 3e bf 42 03 be bc e1 2d be 08 9f 02 3e
       0.12887442 -0.1281843 -0.16980642 0.12755978
000330 ee e6 a5 3d 5b fc 80 be f8 1e 3a 3e 3e 07 c2 bd
       0.08100687 -0.25192532 0.18175876 -0.094740376
000340 a5 08 10 bd 34 ce fb bc f2 53 cf 3d 42 ce 41 3d
       -0.035164494 -0.030737974 0.10123433 0.047315843
000350 a3 28 21 bc 58 c7 7a be 9b 52 4b be 1a e7 58 3d
       -0.009836349 -0.24490106 -0.1985573 0.05295477
000360 a5 06 8e be 34 74 82 bd a4 7d 53 be 13 bb 62 bb
       -0.27739444 -0.0636982 -0.20653397 -0.0034596368
000370 0c 7b ac bd e9 38 e1 bd f6 7a 8d 3e 89 c2 6b 3e
       -0.08421907 -0.10997183 0.27632874 0.23023428
000380 40 af 4d be 90 47 1a be 07 9a 5e bd 65 82 ef 3c
       -0.20086384 -0.15066361 -0.05434611 0.029236982
000390 b7 f4 6c be bd 0a 56 bd 25 74 48 be e3 e3 5a 3e
       -0.23140226 -0.052256335 -0.19575556 0.21375994
0003a0 1c 43 11 3e ef 50 34 3e 3b 77 45 be bc 68 9d 3d
       0.14185756 0.17608999 -0.19283764 0.07685992
0003b0 37 30 35 bc 66 ac 93 3a f3 9f 57 bc b8 c6 52 be
       -0.011058859 0.0011266589 -0.013160693 -0.20583618
0003c0 eb 3d 47 3d 73 4e 3b be fe 85 a9 be 2b 71 56 3e
       0.048643034 -0.18291645 -0.3311004 0.20941608
0003d0 c7 f0 9e 3d 81 a9 b5 3d 9f fb 4f 3e 0d eb 67 3c
       0.077607684 0.08870221 0.2031083 0.014155162
0003e0 a2 c9 a5 bd a6 aa 1a be d9 e9 0b be 55 f6 aa 3c
       -0.08095099 -0.1510416 -0.13663425 0.020869413
0003f0 e2 98 90 be 9c 39 37 be c8 83 48 3e c4 ca e1 bc
       -0.2824164 -0.1789307 0.1958152 -0.027562506

mid_part.6.bias f4 [12]
000000 fc f6 55 3c 20 93 04 3c ed 28 1c 3c ba d9 49 3d
       0.013059374 0.008091718 0.009531242 0.049279906
000010 11 fd 21 3c 76 ea 47 3c 84 0e cd bc 1c 50 d3 3b
       0.009886996 0.012201896 -0.025031336 0.0064487588
000020 df 30 20 3c 26 6c bb 3b 44 6c 3f bb bc 56 43 bd
       0.009777277 0.0057196794 -0.0029208818 -0.04769014

mid_part.7.weight f4 [12]
000000 b7 12 8a 3e 69 95 75 3e 56 ce 8f 3e af 83 8c 3e
       0.26967403 0.23982777 0.2808711 0.27444217
000010 f8 89 ac 3e 8c 8b 0f 3f 40 ef f4 3e 21 1d 2a 3e
       0.33699012 0.56072307 0.47838783 0.16612674
000020 5e 0f 81 3e c5 2b df 3e 30 bd 19 3e c3 07 3b 3e
       0.25207037 0.4358808 0.15013576 0.1826468

mid_part.8.weight f4 [12, 12, 3, 3]
000000 3e 16 c6 3d 56 be ad bd 04 e1 f8 bd 72 05 71 bd
       0.09672211 -0.08483569 -0.12152293 -0.058843084
000010 31 41 59 3e cc 39 33 3e 6c c5 87 be b6 76 f4 3d
       0.21216275 0.17502517 -0.26517808 0.11936705
000020 41 3d 78 bd 57 18 53 bd d3 9b 1d 3d 3f 80 87 3d
       -0.06060529 -0.051536884 0.038478684 0.06616258
000030 86 5b cf 3d 10 c5 98 3e 07 4b 11 3d 07 64 4a 3e
       0.101248786 0.29837847 0.035471942 0.1976472
000040 b9 77 8c 3d 6a 15 69 bd 3f 31 bb 3d 90 e5 10 bd
       0.06858773 -0.056905188 0.09140252 -0.035375178
000050 2b 77 03 bc 7b e9 49 be d4 a0 28 bd 62 e4 2b bc
       -0.008024017 -0.19717972 -0.041169003 -0.010491462
000060 df fc 3b 3d 4c a3 34 be d9 e1 e4 bc 7d bb 39 bd
       0.045895454 -0.17640418 -0.027939724 -0.04534482
000070 8d 26 be bd 9c d8 b9 3c 20 b1 24 be 1d 51 61 bd
       -0.09284697 0.022686295 -0.16083193 -0.055008996
000080 e6 13 c5 3d 57 00 a1 bc 01 78 ea bd 7b f9 4c be
       0.09622936 -0.019653482 -0.1144867 -0.20017044
000090 94 64 07 bd 17 6c 6c bc f2 50 be 3c 5b f1 c0 3d
       -0.033054903 -0.0144300675 0.023231957 0.09421035
0000a0 9d 23 bd bc 2f dc 68 3e 77 2e ba bd 59 a1 80 3d
       -0.02308827 0.22740243 -0.09090894 0.062807746
0000b0 79 20 75 bc 34 a4 d2 3d 56 81 e8 3d 25 1e 8f 3d
       -0.014961355 0.102852255 0.11352794 0.069881715
0000c0 fc eb 23 be a1 e7 00 3d 1a e8 2c 3c 1d 2d b6 3e
       -0.1600799 0.0314709 0.010553384 0.35581294
0000d0 07 f0 35 be 73 c0 b6 3d 5a c2 95 3d 2a 44 a4 be
       -0.17767344 0.089234255 0.0731246 -0.32083255
0000e0 47 f1 33 3d 9c 80 97 3c 3e 90 31 bc ab fa 57 bd
       0.043931272 0.018493943 -0.010837613 -0.05272929
0000f0 62 b4 f8 bd d7 61 e2 bd c0 0e 62 3d 72 a8 88 bc
       -0.1214378 -0.11053818 0.055189848 -0.016681883
000100 c0 d8 a7 3e 30 c6 e0 bc eb 32 42 3d d9 f1 5a 3e
       0.32782555 -0.027438253 0.04741184 0.2138132
000110 02 5a 8a bd b2 7c 14 be 17 1d 39 bd 45 63 7f be
       -0.06755449 -0.14500692 -0.045193758 -0.24940212
000120 03 e2 a8 be 66 ac 19 bd 90 5e bd 3c 08 8c c0 bc
       -0.32984933 -0.037517928 0.02311638 -0.023504272
000130 27 65 2a 3e 53 fc 38 bd 59 18 a7 bc a5 1b 4c be
       0.16640149 -0.04516251 -0.020397352 -0.1993242
000140 69 b3 81 bd 72 d1 9f 3d 3d b0 63 bd 5b 59 08 be
       -0.06333048 0.078036204 -0.055587996 -0.13315336
000150 ca bb 15 be 76 9c 70 bd 01 ce b5 bc 15 14 6f 3e
       -0.14622417 -0.058742963 -0.022192957 0.23347504
000160 70 5d 1a bd a8 b6 29 3c d3 1c f9 3b c8 10 34 3e
       -0.037686765 0.01035849 0.007602313 0.17584527
000170 3e 46 a7 3c 9e 11 86 bd d9 96 41 bd 95 82 23 3d
       0.020419236 -0.06546329 -0.047263 0.039919455
000180 c0 bb c2 3d 01 32 c0 3d 4e 26 09 bd 06 22 45 3e
       0.09508467 0.093845375 -0.033483796 0.1925126
000190 43 71 ce 3e 78 bd 74 be d7 57 f6 3e 02 2d 00 3d
       0.40320787 -0.23900402 0.4811389 0.031292923
0001a0 3e d6 78 3e cd 21 28 be 04 b9 3b 3e 00 15 86 3e
       0.24300477 -0.16419144 0.18332297 0.26187897
0001b0 2a 5d d6 3d e9 40 85 bd bf 34 09 be 7c 06 3d 3e
       0.104669884 -0.06506521 -0.13399027 0.18459505
0001c0 8e 8e 22 3e 8e e1 28 3d 45 94 36 3d f3 20 9b be
       0.15874693 0.04123073 0.044574995 -0.30298576
0001d0 4a fb 8f be 7f 14 7c 3d 9f 8e 0f be 16 dd 82 3c
       -0.28121406 0.061542984 -0.1401925 0.015974563
0001e0 43 32 f9 3d 56 38 57 3e c9 e6 76 be 71 a3 1d be
       0.1216779 0.21017584 -0.24111475 -0.15394379
0001f0 b6 f4 dd 3b c2 95 dd bd f9 2b 06 3d dc 25 0a bd
       0.0067735566 -0.1081958 0.03275678 -0.03372751
000200 06 27 95 3d 70 9a 12 3d cb 78 83 be d9 ee 79 3e
       0.07282834 0.035791814 -0.25678095 0.2440752
000210 69 d3 f3 bd fe 52 9f 3d 2d 01 cf 3c e4 83 7f bd
       -0.11905558 0.077795014 0.025269115 -0.06238164
000220 76 ee b1 3e 1f ac 50 3d d7 9b 17 3e 8f 8b 8e bc
       0.34752244 0.050945397 0.14805542 -0.017400531
000230 71 b2 b6 3d 40 99 3f be 2b 68 80 3d 75 1d f0 3d
       0.08920754 -0.18710804 0.062698685 0.117243685
000240 c7 65 23 3e f2 a3 5a 3c c0 87 c3 bd 46 70 2a 3d
       0.15956794 0.013344752 -0.09547377 0.04161098
000250 96 bb 45 3e 57 85 98 be d8 d7 28 3e c6 f0 a7 be
       0.1930984 -0.2978923 0.16488588 -0.32800883
000260 61 57 73 3d 69 79 f7 3d 02 25 2a 3e 9d 74 6d bc
       0.059409503 0.12083704 0.1661568 -0.014493135
000270 32 80 83 3d 13 d0 4a 3e 8b 24 1b 3d 8b 15 55 be
       0.06420936 0.19805937 0.037876647 -0.20808999
000280 e1 af 5d bd c5 12 38 bd c2 b8 07 bc f2 08 4c bc
       -0.05412281 -0.044939775 -0.008283796 -0.012453305
000290 2f 49 2f 3e 7b 1d 0f 3e fc d7 b4 3c fb 98 77 3d
       0.17117761 0.1397609 0.022075646 0.060448628
0002a0 bb 28 69 b9 d4 18 39 bd eb 68 87 3d 87 f3 0f 3e
       -0.00022235785 -0.045189694 0.066118084 0.14057742
0002b0 20 c9 5f 3e 3e bf 8b 3d 62 04 65 3d 03 fe aa be
       0.21854067 0.06823586 0.055912383 -0.3339692
0002c0 38 63 3d b8 9e 25 de 3c bc d6 83 bd 33 05 8d 3d
       -4.5153516e-05 0.027117547 -0.06437442 0.06885757
0002d0 a3 c1 4c 3d b5 b1 10 bd 12 39 c2 bb 62 f5 72 3c
       0.049989354 -0.035325725 -0.0059272135 0.014829012
0002e0 20 aa 18 be 18 d1 8e bb c6 62 72 3e 67 f6 de bd
       -0.14908648 -0.004358422 0.23670492 -0.10886841
0002f0 9f 92 f4 3d 26 f2 99 3e f8 87 d0 3c d2 92 9d 3c
       0.11942028 0.30067557 0.02545546 0.019235048
000300 d2 78 78 3e bd cd 22 3d b5 f3 6d 3e 32 88 49 3e
       0.2426484 0.03974699 0.23237498 0.1968086
000310 56 46 c3 bb 1a 2a 55 3d d2 1d 8a 3c 75 97 d3 bc
       -0.0059593124 0.052042104 0.016859923 -0.025829056
000320 a9 92 b9 3d 64 dc 4d bc 26 c7 33 be 3e 6e 15 be
       0.09061176 -0.012564752 -0.17556438 -0.14592835
000330 d9 3f c2 bd d2 bc 9d 3d e1 ed 2c 3e 77 6f ce 3d
       -0.09484834 0.0770203 0.16887619 0.10079854
000340 8f ae 86 be df 44 95 3c 4e d1 16 3e 65 e4 ad 3d
       -0.26305053 0.018221317 0.14728281 0.084908284
000350 63 e3 8e 3d 4b 30 1b bc 0f 07 81 3c 08 cd 51 3e
       0.06976964 -0.009471963 0.015750436 0.2048837
000360 8d 91 f3 bc 4f ae 14 3e 84 9a 0a 3e d8 f3 29 3b
       -0.02973249 0.14519618 0.13535506 0.0025932696
000370 02 81 07 3d 13 09 aa bd ec 66 a4 3d 1e c6 9b 3d
       0.033082016 -0.08302512 0.08027443 0.07606147
000380 7b f2 26 3e 0d ed 90 3d 78 a9 67 3d 0e d4 45 3e
       0.16303436 0.07076464 0.056558102 0.19319174
000390 40 28 b8 3c 9b 6f 33 3e 2a 31 04 be 5a 1c c6 3d
       0.02248013 0.17523043 -0.1290938 0.096733764
0003a0 1f e4 8c 3d c0 0d 0b be 92 bc 81 bc 1a 5a 3d bd
       0.06879448 -0.13579464 -0.015836988 -0.046228506
0003b0 e5 73 2e be eb 9b 49 bd 3c 01 33 be a2 8c 1a 3d
       -0.17036398 -0.04922096 -0.1748094 0.037731774
0003c0 38 e5 46 bd 8a c2 32 bd a1 58 4a bc cc a7 5d be
       -0.048558444 -0.04364256 -0.012350232 -0.2164604
0003d0 39 24 97 bd 07 4c 87 bd 75 ea 72 3e 79 1a d0 3d
       -0.07379956 -0.06606298 0.23722251 0.10161299
0003e0 53 57 58 be b5 73 53 3d 48 ae 0a bd b2 23 98 3b
       -0.21127062 0.05162402 -0.033857614 0.004642927
0003f0 b1 43 93 3d d1 e4 37 3d 10 a0 86 be 28 bf 32 3e
       0.071906455 0.04489595 -0.26293993 0.17455733

mid_part.8.bias f4 [12]
000000 88 96 db bb 70 8b 96 3c 60 51 37 3c 81 e7 93 bb
       -0.0067012943 0.018377036 0.011188835 -0.0045136814
000010 47 fe 8c 39 9b 8a 3c 3c fd 81 94 3b c6 79 5a bb
       0.00026892332 0.0115076555 0.0045320974 -0.0033336743
000020 de 24 4d bc 93 24 64 3d e8 6c 5c 3c 4e a9 1e 3c
       -0.012520997 0.055698942 0.0134537 0.00968392

mid_part.9.weight f4 [12]
000000 2a 84 cb bf 8b 8e f7 bd 86 26 2a 3f 57 3b 7d 3e
       -1.5899708 -0.12087735 0.6646503 0.24729668
000010 69 b0 d5 bf e4 ea 79 3e e3 f4 74 3f ab a7 96 3f
       -1.6694461 0.2440601 0.9568617 1.1769918
000020 07 05 89 3e 17 23 4e 3e 11 95 1f 3e 6a c9 d7 3e
       0.26761648 0.20130573 0.15584208 0.42145854
