models/fsrcnn/track2/track2_x4__epoch_11.pth (torch, 57996 bytes, 22 tensors)

first_part.0.weight f4 [56, 1, 5, 5]
-0.019429978 0.08801628 0.022154966 0.07514313 -0.0068087657 -0.05036936 0.0594099 -0.06854026
-0.039673075 -0.002652023 0.03805752 0.006500168 0.048735313 0.040621758 0.022250101 0.057846267
-0.027438926 -0.019118698 0.04388237 -0.025545614 -0.018890921 0.0031213325 0.07280805 0.0058645583
-0.04331457 -0.02391949 -0.05231397 -0.046907306 0.015704399 0.05528936 -0.043161023 0.03863348
-0.01604552 -0.042283416 -0.014322055 -0.02857837 0.016652467 -0.0072672633 0.016288636 -0.05400681
-0.024781937 0.042260654 0.010952584 0.008855756 -0.029441722 0.039544318 0.0017165982 -0.07517498
0.042235035 0.012684489 -0.028979003 -0.06924185 -0.01675613 -0.042974446 0.029202618 0.0049726656
-0.021693952 -0.030733587 -0.044608522 -0.055289652 -0.027071703 -0.091650516 -0.04028488 -0.030723052
-0.058470067 0.048519775 -0.075736016 -0.05791255 -0.038935874 -0.009499919 -0.041348476 0.03908747
0.03826325 -0.03664588 -0.023797883 0.04547726 0.0031432807 0.16167098 0.08686094 -0.10469243
-0.065097824 -0.011418796 0.09526446 -0.045431294 -0.109569825 -0.028698932 0.087539844 -0.041709848
-0.035483547 0.008028489 -0.023672197 -0.06764917 -0.052393127 -0.029863454 -0.1124288 0.06713148
-0.022722146 0.04585903 -0.060444254 -0.15480697 0.002944917 -0.041794326 -0.04722959 -0.048482973
-0.00611546 -0.029542718 0.0849808 -0.012901025 0.020556623 -0.012325565 0.014034973 -0.072635114
-0.032306734 0.0011453177 0.028570192 4.1442363e-05 -0.08379749 -0.04359327 -0.033925936 0.034157287
-0.0415203 -0.014150579 0.06285968 -0.0697511 0.027205462 -0.10706726 -0.0775436 0.037501533
0.0022898414 0.00046848046 0.05150437 -0.032511003 0.004229626 -0.029555911 0.027152242 -0.043077715
-0.003496629 0.04338544 0.0066647045 -0.066345274 0.060795404 -0.05450207 0.034217294 -0.011314919
-0.026947642 0.054376557 0.004103268 -0.012693436 -0.027270542 -0.05825219 -0.091721505 0.008081261
0.0035492643 0.06118565 -0.008039907 -0.0070641767 0.016911063 0.008007509 -0.065373436 -0.043474358
-0.004621296 -0.05479543 -0.008557521 -0.02273382 0.03874617 -0.08015158 0.0073612873 -0.022432322
0.009124129 -0.016844751 -0.048381846 0.013481034 -0.002043553 0.0033030964 -0.07098017 0.07353588
-0.07614899 0.17476055 -0.15599178 -0.07892422 -0.052736834 -0.08881788 0.035258997 0.1614914
0.012867299 -0.0053036935 -0.05290467 0.11283625 -0.02976027 0.032137953 0.0040495717 -0.04519457
0.09245331 -0.026509501 0.09728057 0.09650918 0.04332802 -0.02822486 0.06447891 -0.00675448
0.05656132 0.041817784 0.048094537 -0.009965505 0.018393183 0.049928594 -0.021121293 0.017239986
0.053524353 0.00502267 -0.0041726357 -0.0074653495 0.050842434 -0.021544674 -0.030173821 -0.026490595
0.0031091531 0.03952365 0.019065928 -0.042414427 0.02029441 0.035403974 0.058719564 -0.034781165
-0.0034350671 0.082207516 -0.034084283 -0.048028436 0.030207315 -0.042979803 -0.005659592 -0.048774853
0.019303538 -0.045259304 0.04367192 0.021001967 -0.02083859 0.0881671 0.03136332 0.03151902
0.06260897 -0.017479014 -0.0064292955 -0.03727759 0.060022272 0.032664377 0.02274947 0.004877543
0.053506274 0.027279519 -0.033780582 0.058874127 -0.052166864 0.016903903 -0.11208738 4.0571842e-05
00000000: 9e2b 9fbc e141 b43d 557e b53c a4e4 993d
00000010: 111c dfbb 1a50 4ebd cc57 733d d65e 8cbd
00000020: 3c80 22bd 90cd 2dbb 34e2 1b3d 5cff d43b
00000030: ae9e 473d 0063 263d d845 b63c 35f0 6c3d
00000040: 99c7 e0bc d19e 9cbc 00be 333d 0945 d1bc
00000050: 22c1 9abc 458f 4c3b 631c 953d 7b2b c03b
00000060: 9e6a 31bd cef2 c3bc 2c47 56bd e021 40bd
00000070: 83a6 803c 1977 623d 9dc9 30bd 243e 1e3d
00000080: e571 83bc 6031 2dbd 0da7 6abc 301d eabc
00000090: c16a 883c 3922 eebb bf6f 853c 3f36 5dbd
000000a0: 7d03 cbbc 8219 2d3d 7872 333c bc17 113c
000000b0: c42f f1bc 39f9 213d 7aff e03a 57f5 99bd
000000c0: a5fe 2c3d 9ad2 4f3c 6065 edbc acce 8dbd
000000d0: 2744 89bc f905 30bd 543a ef3c bef1 a23b
000000e0: 84b7 b1bc 01c5 fbbc 6db7 36bd 6777 62bd
000000f0: 7ac5 ddbc 44b3 bbbd c201 25bd e9ae fbbc
00000100: 4f7e 6fbd acbc 463d 7c1b 9bbd b635 6dbd
00000110: 397b 1fbd 8ca5 1bbc 055d 29bd 2f1a 203d
00000120: edb9 1c3d fe19 16bd c7f3 c2bc 5d46 3a3d
00000130: 80ff 4d3b 148d 253e 26e4 b13d fc68 d6bd
00000140: 0252 85bd e715 3bbc 031a c33d 2a16 3abd
00000150: 2566 e0bd 061a ebbc 1748 b33d f2d7 2abd
00000160: 3257 11bd ec89 033c 32ec c1bc a68b 8abd
00000170: 2d9a 56bd 34a4 f4bc 1241 e6bd 3b7c 893d
00000180: cb23 babc aed6 3b3d 6594 77bd b885 1ebe
00000190: 82ff 403b 8730 2bbd d173 41bd 1596 46bd
000001a0: 3264 c8bb 9203 f2bc 6a0a ae3d d25e 53bc
000001b0: 5d66 a83c 2bf1 49bc f2f2 653c b8c1 94bd
000001c0: 1154 04bd 7c1e 963a 090c ea3c 66d2 2d38
000001d0: 059e abbd db8e 32bd ecf5 0abd 83e8 0b3d
000001e0: 3111 2abd d5d7 67bc 93bc 803d aad9 8ebd
000001f0: fddd de3c 1446 dbbd 2ecf 9ebd 359b 193d
00000200: 2a11 163b 629e f539 3ff6 523d 422a 05bd
00000210: ad98 8a3b 3d1f f2bc 616e de3c 4272 30bd
00000220: b327 65bb eeb4 313d 9863 da3b 08e0 87bd
00000230: 9a04 793d 903d 5fbd 6f27 0c3d 3662 39bc
00000240: 4dc1 dcbc f4b9 5e3d b574 863b 21f8 4fbc
00000250: 7966 dfbc d999 6ebd 7cd8 bbbd 4467 043c
00000260: c69a 683b ce9d 7a3d d0b9 03bc 9c7a e7bb
00000270: 1289 8a3c ed31 033c 82e2 85bd 2b12 32bd
00000280: 3e6e 97bb 2c71 60bd d834 0cbc 473c babc
00000290: 4eb4 1e3d 8326 a4bd f436 f13b fdc3 b7bc
000002a0: 5f7d 153c 01fe 89bc 0b2c 46bd 8edf 5c3c
000002b0: 21ed 05bb c378 583b 0d5e 91bd fb99 963d
000002c0: 00f4 9bbd 6ef4 323e 4fbc 1fbe 05a3 a1bd
000002d0: 9402 58bd 26e6 b5bd bd6b 103d 005e 253e
000002e0: 5dd1 523c 9bca adbb 91b2 58bd b116 e73d
000002f0: cfcb f3bc 16a3 033d 45b2 843b f11d 39bd
00000300: 2958 bd3d 742a d9bc 093b c73d 9ba6 c53d
00000310: b978 313d d237 e7bc 850d 843d af54 ddbb
00000320: d8ac 673d 2049 2b3d c7fe 443d 5c46 23bc
00000330: 4dad 963c ed81 4c3d 9006 adbc df3a 8d3c
00000340: 5a3c 5b3d 3695 a43b 9bba 88bb e49f f4bb
00000350: 2840 503d 757e b0bc 172f f7bc ce02 d9bc
00000360: efc2 4b3b 8de3 213d 2630 9c3c c0ba 2dbd
00000370: 7640 a63c c203 113d ed83 703d b276 0ebd
00000380: dd1e 61bb 6a5c a83d f69b 0bbd 77b9 44bd
00000390: 5575 f73c 970b 30bd 1974 b9bb 24c8 47bd
000003a0: 7422 9e3c d261 39bd 54e1 323d 510c ac3c
000003b0: b1b5 aabc f490 b43d d376 003d 171a 013d
000003c0: 2239 803d 2630 8fbc d7ac d2bb 63b0 18bd
000003d0: ead9 753d 15cb 053d 195d ba3c ccd3 9f3b
000003e0: 6529 5b3d 4c79 df3c 825d 0abd ff25 713d
000003f0: ecac 55bd 0e7a 8a3c 118e e5bd af2b 2a38

first_part.0.bias f4 [56]
-0.009773901 0.00043925337 0.0089902505 -0.0063353474 0.017715452 0.02972146 0.0071714004 -0.00790784
0.008746232 -0.0013796578 -0.025092177 0.0019895188 0.009699316 0.021235982 0.03154562 -0.018651238
0.02568025 -0.0047079977 -0.0065217144 6.215131e-05 0.0045996243 0.017061317 -0.039964 0.008726108
-0.012226185 0.0052911006 -0.0038463888 -0.0017360597 -0.01354738 0.0034347032 0.015807683 0.0016263007
0.0028120943 -0.008031959 0.0073034447 0.022218678 -0.008091141 0.016151188 -0.0031247395 0.023208102
0.06528976 -0.017777178 0.0069079213 -0.03550602 0.021802867 0.0038418865 0.02805873 -0.005839353
-0.06979062 0.007840507 -0.009270137 0.0015121872 -0.010566901 -0.009587766 0.0100704 -0.017905122
00000000: b622 20bc 974b e639 d84b 133c bf98 cfbb
00000010: ff1f 913c 6b7a f33c 11fe ea3b e38f 01bc
00000020: 5b4c 0f3c a2d5 b4ba 1c8e cdbc 9662 023b
00000030: e1e9 1e3c 15f7 ad3c fb35 013d 7bca 98bc
00000040: 635f d23c 8c45 9abb 1bb4 d5bb 3b57 8238
00000050: 72b8 963b 2dc4 8b3c 4bb1 23bd f3f7 0e3c
00000060: 5650 48bc f860 ad3b b213 7cbb 7f8c e3ba
00000070: d5f5 5dbc c218 613b 1d7f 813c 9929 d53a
00000080: 1d4b 383b 7a98 03bc bc51 ef3b f203 b63c
00000090: b490 04bc 7f4f 843c 6ec8 4cbb eb1e be3c
000000a0: a3b6 853d 72a1 91bc d85b e23b c36e 11bd
000000b0: ed9b b23c 29c8 7b3b 6cdb e53c 0b58 bfbb
000000c0: 62ee 8ebd 7875 003c c6e1 17bc 9534 c63a
000000d0: cc20 2dbc 0116 1dbc 52fe 243c c3ad 92bc

first_part.1.weight f4 [56]
0.2757435 0.23633528 0.258944 0.2065951 0.24355097 0.21543668 0.24095844 -0.021002725
1.2671219 -0.18252605 3.398866 0.24992085 0.25245512 0.24015634 0.17878115 -0.2809621
0.62035644 0.31279334 0.21585631 0.2101018 0.24873842 -0.045139927 0.27133432 0.23347798
-2.2066429 0.25020534 0.025134394 0.2598436 0.24871632 0.23282892 0.22945635 -0.9146975
0.7468695 0.2499997 0.2506768 0.54802525 0.1739359 0.7587778 0.31111968 0.16679873
0.609184 0.29472286 0.26534763 0.556008 1.7594514 0.2448404 0.22047454 0.24791852
0.5911212 0.24063405 0.83770585 0.21898861 0.25718915 0.15020984 0.26892668 0.35063896
00000000: 412e 8d3e e001 723e 4f94 843e aa8d 533e
00000010: 6d65 793e 6f9b 5c3e cfbd 763e e80d acbc
00000020: 0d31 a23f 1ce8 3abe 0587 5940 40eb 7f3e
00000030: cc41 813e 8beb 753e 6812 373e 44da 8fbe
00000040: aecf 1e3f 7326 a03e 7009 5d3e ed24 573e
00000050: 49b5 7e3e a5e4 38bd 55ec 8a3e da14 6f3e
00000060: a339 0dc0 ea1a 803e a5e6 cd3c 380a 853e
00000070: 7eaf 7e3e b46a 6e3e 9bf6 6a3e 9e29 6abf
00000080: d732 3f3f ecff 7f3e b658 803e 624b 0c3f
00000090: 411c 323e 433f 423f 144b 9f3e 49cd 2a3e
000000a0: 7cf3 1b3f eae5 963e a5db 873e 8a56 0e3f
000000b0: b435 e13f 71b7 7a3e 14c4 613e 5ade 7d3e
000000c0: b853 173f c668 763e e473 563f 8d3e 603e
000000d0: 4cae 833e 9cd0 193e c2b0 893e f386 b33e

mid_part.0.weight f4 [12, 56, 1, 1]
0.56662637 0.23536871 -0.7738286 0.6750784 0.38499108 0.22108623 -0.06356222 0.40849647
0.18795677 -1.1732517 0.65575457 -0.033451863 -0.2916272 1.0473223 0.46173444 0.36795014
0.12778479 0.06999494 0.50692946 -0.2680699 -0.01631412 0.7597958 -0.36772773 -0.49794438
-0.05774873 -0.06320333 0.43718344 -0.76363117 0.20619035 0.3868607 -0.011862828 0.5691659
0.53157854 0.15557484 -0.48742563 -0.66350245 0.09489833 -0.030530175 -0.20401202 0.61320007
-0.031990405 0.5193437 -0.41412032 -0.1565019 -0.14631608 -0.10982394 -0.09756402 -0.6151854
-0.18450008 -0.65732986 -0.04191676 -0.19103563 -0.70295376 0.0818866 -0.33166924 -0.15137069
-0.33402383 -0.973344 0.47942927 -0.016179562 -0.04386221 0.9970152 0.7333469 0.5286933
0.052108493 -0.08909112 -0.05757308 -0.4877828 0.10236398 0.15672988 -0.57373464 0.2333576
-0.4414072 0.20320238 0.67942494 -0.10612445 0.8460305 -0.20460714 0.101771265 -0.37001583
-0.35500136 -0.10274127 0.12354699 -0.5661635 0.5190458 0.76345855 -0.2305322 0.46716258
0.14946763 -0.40812048 0.100210145 -0.10666031 0.2714569 0.24624321 -0.66034275 -0.24370852
0.14493059 0.66973644 -0.28038424 0.8943362 0.7522233 0.11990395 0.49625632 0.11729414
0.3600865 0.038360517 0.8426529 -0.5115384 -0.06913091 -0.19468111 0.6371262 -0.47884884
0.26647237 -0.6084255 -0.26996654 -0.38130924 -0.080770425 0.5837982 -0.11870383 -0.05074808
0.64762825 0.78166074 0.09712304 0.81750715 -0.42731914 -0.14795943 -0.10098037 0.39796352
-0.008723383 -0.15624848 0.47095057 0.36652046 -0.53261304 0.23367688 -0.13014893 -0.28543118
0.40506434 -0.33160868 -0.15717705 -0.2505765 -0.47317192 0.42804453 0.033688836 -0.1484015
0.48161304 0.695472 0.641866 0.3849288 0.30559433 0.3134808 -0.4554226 0.15937491
-0.02733033 0.13875893 -0.21176007 -0.0063401093 0.14740899 0.4109665 0.25506684 0.48468134
-0.007660237 0.5504974 0.2251866 -0.6346674 0.015697122 0.4573239 -0.351213 -0.32339957
0.028924657 0.2583332 -0.15609047 0.11558527 0.25229958 -0.08169061 -0.15547825 0.31913325
-0.55302024 -0.39218742 0.52295107 -0.3296652 0.29504082 -0.5232552 0.6682874 0.0019487306
0.16988245 0.23409407 0.018182306 0.85265243 -0.48554745 0.6472126 -0.35029292 -0.3931936
0.5078259 0.057696182 -0.44173622 0.9455448 0.1186532 0.36150682 0.0024726223 -0.14298442
-0.53958154 0.23078991 -0.122065194 0.484865 0.13894086 -0.12251683 0.025340836 0.42213434
-0.15553617 1.0492029 0.7449422 0.6929366 -1.0050081 -0.18099816 0.51251477 -0.073164366
0.3963095 0.6679106 -0.27945465 -0.27947897 -0.19778976 0.43611202 -0.21710949 0.49826577
-0.3929594 -0.0027025877 0.12391102 -0.17485017 -0.17554253 -0.3090234 -0.23322213 0.71904033
0.46009314 -0.25825584 -0.25234962 0.0043675634 -1.6247007 0.79109067 0.8106381 0.10584575
0.29118478 -0.14877999 -0.14463863 -0.31372416 0.2686377 0.24285747 0.35979706 0.031571984
-0.048893485 -0.19840528 0.60168374 0.2755953 -0.63074666 -0.27934706 0.19564572 -0.10613193
00000000: 6d0e 113f 7f04 713e a219 46bf f0d1 2c3f
00000010: 8d1d c53e 6e64 623e e92c 82bd 7326 d13e
00000020: bd77 403e 1d2d 96bf 88df 273f d204 09bd
00000030: 2950 95be a80e 863f 7568 ec3e f663 bc3e
00000040: 04da 023e 8259 8f3d 21c6 013f 7540 89be
00000050: 30a5 85bc fa81 423f cf46 bcbe 91f2 febe
00000060: ef89 6cbd bf70 81bd 82d6 df3e 557d 43bf
00000070: 9023 533e 9b12 c63e 4f5c 42bc dbb4 113f
00000080: 8815 083f 034f 1f3e da8f f9be 4cdb 29bf
00000090: 0e5a c23d 6b1a fabc 87e8 50be aefa 1c3f
000000a0: 5f08 03bd b5f3 043f 9407 d4be 0942 20be
000000b0: e2d3 15be 60eb e0bd a5cf c7bd ca7c 1dbf
000000c0: 97ed 3cbe c546 28bf e9b0 2bbd d89e 43be
000000d0: c7f4 33bf 29b4 a73d 8dd0 a9be eb00 1bbe
000000e0: 2c05 abbe 132d 79bf c177 f53e 008b 84bc
000000f0: dca8 33bd 633c 7f3f 9fbc 3b3f 7258 073f
00000100: b76f 553d 6875 b6bd c0d1 6bbd abbe f9be
00000110: 35a4 d13d cc7d 203e 46e0 12bf 4bf5 6e3e
00000120: 2000 e2be 4914 503e cbee 2d3f c757 d9bd
00000130: 7495 583f 8984 51be 746d d03d b772 bdbe
00000140: bdc2 b5be 046a d2bd 3406 fd3d 17f0 10bf
00000150: 30e0 043f 0572 433f a210 6cbe ef2f ef3e
00000160: 0b0e 193e 2bf5 d0be fa3a cd3d b870 dabd
00000170: 66fc 8a3e 2e27 7c3e 390c 29bf ba8e 79be
00000180: af68 143e d973 2b3f 868e 8fbe 38f3 643f
00000190: b591 403f 3490 f53d 4f15 fe3e e937 f03d
000001a0: 425d b83e eb1f 1d3d 1ab8 573f 2ef4 02bf
000001b0: 8294 8dbd 7c5a 47be b41a 233f ad2b f5be
000001c0: 116f 883e c6c1 1bbf 0e39 8abe f73a c3be
000001d0: f76a a5bd cd73 153f fe1a f3bd 38dd 4fbd
000001e0: f7ca 253f eb1a 483f 72e8 c63d 2648 513f
000001f0: 93c9 dabe ad82 17be ccce cebd e0c1 cb3e
00000200: 85ec 0ebc 9aff 1fbe 6f20 f13e 92a8 bb3e
00000210: 5459 08bf fe48 6f3e c345 05be 0924 92be
00000220: 9864 cf3e 9dc8 a9be 05f3 20be 904b 80be
00000230: 9743 f2be a728 db3e 4efd 093d 90f6 17be
00000240: fc95 f63e 740a 323f 5551 243f 6315 c53e
00000250: dc76 9c3e 8e80 a03e 272d e9be 2d33 233e
00000260: dbe3 dfbc d216 0e3e a2d7 58be b1c0 cfbb
00000270: 62f2 163e 336a d23e 1f98 823e 2728 f83e
00000280: ba02 fbbb 66ed 0c3f 5197 663e 9079 22bf
00000290: 4097 803c 5c26 ea3e 31d2 b3be a194 a5be
000002a0: 67f3 ec3c 4044 843e 2ed6 1fbe f8b7 ec3d
000002b0: 692d 813e 684d a7bd b135 1fbe 6f65 a33e
000002c0: bc92 0dbf cacc c8be 1fe0 053f e1c9 a8be
000002d0: 970f 973e 0ef4 05bf e214 2b3f 8c6c ff3a
000002e0: aaf5 2d3e 5bb6 6f3e 0ff3 943c 6e47 5a3f
000002f0: ad99 f8be baaf 253f 9859 b3be ac50 c9be
00000300: e100 023f d552 6c3d 402b e2be 390f 723f
00000310: 7300 f33d 6c17 b93e b80b 223b 826a 12be
00000320: 0422 0abf 3154 6c3e 51fd f9bd 3a40 f83e
00000330: 8346 0e3e 1bea fabd 9697 cf3c fe21 d83e
00000340: e044 1fbe 484c 863f 88b4 3e3f 4b64 313f
00000350: 1ba4 80bf 9557 39be 2b34 033f 33d7 95bd
00000360: 14e9 ca3e 30fc 2a3f ae14 8fbe de17 8fbe
00000370: 6689 4abe 134a df3e f351 5ebe b11c ff3e
00000380: f931 c9be e61d 31bb 10c5 fd3d ec0b 33be
00000390: 6cc1 33be 5138 9ebe c8d1 6ebe 0713 383f
000003a0: 5491 eb3e 1c3a 84be f833 81be c71d 8f3b
000003b0: 31f6 cfbf eb84 4a3f fb85 4f3f a8c5 d83d
000003c0: 2c16 953e c859 18be 261c 14be 74a0 a0be
000003d0: e18a 893e a1af 783e 5237 b83e a051 013d
000003e0: 8944 48bd c12a 4bbe f207 1a3f d41a 8d3e
000003f0: 9d78 21bf 9406 8fbe 5a57 483e b35b d9bd

mid_part.0.bias f4 [12]
0.0343746 -0.020697545 -0.00046523495 -0.0062975693 0.05970479 0.025543591 0.0046911133 0.03835743
-0.018312274 -0.015352648 -0.009780182 0.016402878
00000000: 61cc 0c3d e68d a9bc c7ea f3b9 d75b cebb
00000010: 038d 743d cb40 d13c e9b7 993b ae1c 1d3d
00000020: 9f03 96bc ac89 7bbc 0e3d 20bc 545f 863c

mid_part.1.weight f4 [12]
0.2678229 0.36153448 0.25 0.24063265 0.47877535 1.5493655 0.22474083 -0.4478994
0.25717786 0.8982221 1.2824682 0.34709182
00000000: 1520 893e 0c1b b93e 0000 803e 6868 763e
00000010: 0b22 f53e 9c51 c63f 7622 663e 1253 e5be
00000020: d1ac 833e e2f1 653f eb27 a43f 05b6 b13e

mid_part.2.weight f4 [12, 12, 3, 3]
0.23911043 0.06926303 -0.0196509 -0.280872 0.18278173 -0.13146377 -0.10460051 -0.05127899
0.057884585 0.17036434 -0.23079006 0.2083614 0.03951127 -0.13158204 -0.13713306 -0.06405621
-0.15371823 0.03699602 0.08971444 0.15552212 0.059655447 0.1584523 0.00050295825 -0.02878422
0.26104063 0.05514781 -0.07486393 0.060357854 -0.050148685 0.11631119 0.15279527 -0.33417696
-0.25801522 -0.12862113 -0.036698945 0.12049431 -0.17222315 -0.09789173 -0.083885066 -0.0042147725
0.24125353 -0.23270854 0.026329428 -0.020341355 0.049196843 0.22258438 0.044988353 0.21257398
-0.058471326 -0.113449804 0.07086894 -0.101200126 0.06086732 -0.10043697 -0.1617546 -0.008552309
0.021667814 0.20617977 -0.059532266 0.06430122 -0.07728488 0.10546451 0.13581304 0.14814922
-0.027022572 0.17868799 -0.026924402 0.050289366 0.040872704 -0.013785832 -0.19753414 -0.22714658
-0.021811182 -0.0419053 0.035220113 -0.18399757 0.29077172 -0.07156234 -0.057339717 -0.043973096
0.03255704 -0.19402285 0.030140156 0.038536195 0.024783436 0.10776675 0.10924872 -0.14137416
-0.036542043 0.019011134 0.065123856 -0.005184077 0.22675848 -0.120683506 -0.05457041 -0.09303484
0.028238151 0.100051284 0.016978567 0.112720974 -0.06224809 -0.06254976 -0.00450558 0.11737734
0.04146043 0.14085338 0.07574017 -0.00990272 0.031365175 -0.053116195 -0.0028120736 -0.050144754
0.008774394 -0.25545722 0.19991024 0.06140859 0.1376708 0.15350626 0.08112515 0.0011199497
0.22709413 0.10422776 0.004299802 0.06539091 -0.11810875 0.13061538 -0.029551493 -0.32405207
-0.16237085 0.018967135 0.05979877 -0.2914349 -0.11375413 0.09257992 -0.08757083 -0.013561637
0.24706575 -0.11669533 -0.12925379 -0.10388255 -0.066779785 -0.21294053 0.3023367 -0.13815176
0.21922845 -0.17925082 -0.08137833 -0.19679478 -0.16525707 -0.002741435 -0.10883026 -0.13564466
-0.011672505 -0.12310847 0.036017317 -0.2624253 -0.008082184 0.10341165 0.106591575 0.14635755
-0.05133462 -0.015512972 0.15264192 -0.1825863 -0.08850304 0.014154449 0.2130547 0.023501234
-0.3240016 0.008458756 0.15295209 -0.17233269 0.2265379 -0.042249218 -0.09078566 0.24469659
0.24400151 -0.038991623 -0.04125709 -0.059820373 0.074197896 -0.12157626 0.10871956 -0.026653452
0.07954727 -0.28695947 0.061092768 -0.08577258 -0.10383377 -0.10142511 -0.026968155 -0.045174785
-0.009242307 -0.050670255 0.002971529 -0.16994122 -0.025040524 0.036355466 -0.066450335 0.13724184
0.039161533 0.2485928 -0.049827576 -0.13875327 -0.15079996 0.023618218 0.121132344 0.22404936
0.21341322 0.08784334 0.05878701 0.0849494 0.20451808 -0.0069517945 0.16785479 0.18243164
0.06379762 -0.15938084 0.018280813 -0.078262694 0.1273057 0.17836621 0.14097741 -0.06379128
0.2739371 -0.07670769 -0.10308251 0.061640732 0.21028163 -0.060481936 -0.009693857 -0.062493067
0.12018971 0.10535388 0.14111993 -0.27184862 -0.20650074 0.066719025 -0.12320278 -0.008235793
0.117762014 0.032947518 0.03540438 -0.07560594 0.0029229054 -0.054988526 0.23475702 0.17009489
0.14725927 0.10705106 0.08335273 0.01500812 0.32620174 -0.2310168 -0.069862954 0.009955797
00000000: 5dd9 743e c7d9 8d3d edfa a0bc 74ce 8fbe
00000010: 222b 3b3e 709e 06be cb38 d6bd eb09 52bd
00000020: 6318 6d3d fd73 2e3e 3b54 6cbe b15c 553e
00000030: 92d6 213d 71bd 06be 9c6c 0cbe e72f 83bd
00000040: 5068 1dbe 2389 173d 34bc b73d 3141 1f3e
00000050: 4559 743d 5241 223e f5d8 033a e2cc ebbc
00000060: 1ea7 853e ace2 613d 4352 99bd cc39 773d
00000070: b568 4dbd 9034 ee3d 5d76 1c3e 3e19 abbe
00000080: 921a 84be 42b5 03be a251 16bd b9c5 f63d
00000090: 445b 30be 767b c8bd efcb abbd 131c 8abb
000000a0: 2a0b 773e 264b 6ebe d0b0 d73c eaa2 a6bc
000000b0: a182 493d 29ed 633e b545 383d feac 593e
000000c0: a17f 6fbd 5f58 e8bd bc23 913d 0342 cfbd
000000d0: 0350 793d e6b1 cdbd ffa2 25be fc1e 0cbc
000000e0: b380 b13c ca20 533e 1bd8 73bd 5cb0 833d
000000f0: 8947 9ebd c7fd d73d 9312 0b3e 6eb4 173e
00000100: 715e ddbc fcf9 363e 9090 dcbc 39fc 4d3d
00000110: 236a 273d f8dd 61bc 6446 4abe 1d99 68be
00000120: 5dad b2bc e4a4 2bbd f742 103d dc69 3cbe
00000130: 08e0 943e 478f 92bd 0ddd 6abd 221d 34bd
00000140: 885a 053d edad 46be 7de8 f63c 21d8 1d3d
00000150: a206 cb3c d0b4 dc3d cbbd df3d 63c4 10be
00000160: 1cad 15bd 3dbd 9b3c a85f 853d 31df a9bb
00000170: 6033 683e ea28 f7bd 3985 5fbd 0d89 bebd
00000180: b253 e73c b0e7 cc3d a316 8b3c 41da e63d
00000190: daf7 7ebd 171a 80bd 8ba3 93bb 8863 f03d
000001a0: 69d2 293d de3b 103e aa1d 9b3d 053f 22bc
000001b0: c578 003d 5e90 59bd c44a 38bb 9664 4dbd
000001c0: 7ac2 0f3c 4acb 82be 45b5 4c3e 9387 7b3d
000001d0: 93f9 0c3e bf30 1d3e f124 a63d 47cb 923a
000001e0: 5d8b 683e 5d75 d53d 5ae5 8c3b abeb 853d
000001f0: 00e3 f1bd 0ac0 053e f915 f2bc 27ea a5be
00000200: 8b44 26be f760 9b3c 8eef 743d f536 95be
00000210: edf7 e8bd 8b9a bd3d 5658 b3bd a131 5ebc
00000220: cefe 7c3e f6fd eebd 1b5b 04be 60c0 d4bd
00000230: d7c3 88bd 150d 5abe e0cb 9a3e a877 0dbe
00000240: 6c7d 603e 878d 37be afa9 a6bd 9284 49be
00000250: 2639 29be a6a9 33bb 66e2 debd 6fe6 0abe
00000260: 093e 3fbc 4b20 fcbd e586 133d 9c5c 86be
00000270: 236b 04bc 7dc9 d33d af4c da3d c1de 153e
00000280: 4044 52bd 1f2a 7ebc 2a4e 1c3e e7f7 3abe
00000290: 1541 b5bd 10e8 673c 032b 5a3e a985 c03c
000002a0: 8ae3 a5be 9896 0a3c 799f 1c3e fb77 30be
000002b0: 8df9 673e 840d 2dbd d5ed b9bd be91 7a3e
000002c0: 88db 793e aeb5 1fbd 32fd 28bd 3506 75bd
000002d0: 11f5 973d f9fc f8bd 5ca8 de3d 5758 dabc
000002e0: aee9 a23d 5aec 92be 693c 7a3d 89a9 afbd
000002f0: cda6 d4bd f8b7 cfbd 52ec dcbc 3209 39bd
00000300: 0c6d 17bc 9d8b 4fbd fcbd 423b 1205 2ebe
00000310: c921 cdbc 78e9 143d 1d17 88bd 2089 0c3e
00000320: d867 203d 1c8f 7e3e 0018 4cbd 5615 0ebe
00000330: 4e6b 1abe fe7a c13c 3c14 f83d 326d 653e
00000340: ff88 5a3e 36e7 b33d a6ca 703d f3f9 ad3d
00000350: 306d 513e e1cb e3bb 20e2 2b3e 5ccf 3a3e
00000360: 54a8 823d bb34 23be a5c1 953c 3148 a0bd
00000370: 6d5c 023e a2a5 363e 625c 103e 01a5 82bd
00000380: 7c41 8c3e ec18 9dbd ec1c d3bd fe7a 7c3d
00000390: 1154 573e e8bb 77bd fcd2 1ebc bbf8 7fbd
000003a0: 0626 f63d c6c3 d73d be81 103e be2f 8bbe
000003b0: ee74 53be fca3 883d bd51 fcbd 6bef 06bc
000003c0: 362d f13d faf3 063d 2f04 113d 49d7 9abd
000003d0: 378e 3f3b a63b 61bd 2564 703e 5b2d 2e3e
000003e0: 22cb 163e 963d db3d d6b4 aa3d 9ee4 753c
000003f0: ea03 a73e ab8f 6cbe 4f14 8fbd a41d 233c

mid_part.2.bias f4 [12]
0.0041526123 -0.004618865 0.01285907 -0.0052074166 0.06688491 -0.00027374615 -0.009158346 -0.0043762014
0.05024805 0.009265736 -0.011335713 0.034827456
00000000: a312 883b d959 97bb d9ae 523c faa2 aabb
00000010: f5fa 883d 9685 8fb9 e30c 16bc 3d66 8fbb
00000020: e6d0 4d3d 50cf 173c 6db9 39bc 3ca7 0e3d

mid_part.3.weight f4 [12]
-1.3735776 0.24890219 0.2595549 1.6031424 0.340759 0.25861016 -0.6044709 0.5237031
0.68848014 0.7990141 0.2619342 0.3684472
00000000: 64d1 afbf 37e0 7e3e 61e4 843e c533 cd3f
00000010: f777 ae3e 8d68 843e 9bbe 1abf 6811 063f
00000020: 3c40 303f 308c 4c3f 3d1c 863e 1da5 bc3e

mid_part.4.weight f4 [12, 12, 3, 3]
0.06122043 -0.050711397 0.2340732 0.29344568 -0.018071633 0.120065406 -0.12652943 0.06311
-0.07498012 -0.20376803 -0.14045878 0.34421968 -0.027486345 0.14506395 -0.13271917 -0.10834045
0.023442056 0.23557098 -0.1838982 0.1619182 0.10686094 0.14656715 -0.008088225 -0.0761323
-0.010431341 0.174486 0.2009224 -0.057084505 -0.3284847 0.7032679 0.13547619 -0.068132155
-0.4426682 -0.077789865 0.23107444 0.1205228 -0.16338012 0.01132712 0.5093256 -0.06064988
0.2779639 -0.023412598 -0.33744377 -0.07764619 0.33598408 -0.0030281437 -0.13286158 0.119520895
-0.25636965 0.10436263 -0.3693459 0.03654293 0.28905264 -0.17340031 0.1412933 -0.12067306
-0.22870545 0.07873977 0.037010852 -0.09498697 -0.032321323 -0.25464153 0.304612 0.08080504
-0.092345454 0.38242438 -0.058633767 0.031110797 0.08936435 -0.17179848 -0.07775073 -0.15589589
-0.068401165 -0.061255384 0.39519247 -0.011304079 -0.24657561 0.008479834 0.13831933 0.07243764
0.3163112 0.08069592 0.028834043 0.26572332 0.15442921 0.13454555 -0.07299804 0.08799955
0.18389043 -0.35627177 -0.21039641 0.1736145 0.17056552 0.09231932 0.008643969 -0.056745056
-0.1082665 0.022801248 0.10644815 -0.011397583 -0.04351686 -0.38151148 -0.26049343 0.34181562
-0.37075785 -0.11730911 0.10071147 0.06116916 0.123983905 -0.2084053 -0.039687634 0.24924424
0.05975962 0.08312786 0.2756756 -0.25992188 0.021032209 -0.034874793 0.0717598 -0.018274637
0.2883326 0.0763287 0.34825084 -0.2479953 -0.25502497 -0.07355981 -0.19598655 0.1310151
-0.036171302 -0.46354064 -0.15985015 -0.028995972 -0.50041986 -0.18038157 0.10203802 -0.019433236
0.1768557 0.22287498 0.1092988 0.29938468 0.047581997 0.3895645 0.33687526 -0.055460885
-0.04913351 -0.07431482 -0.09821583 -0.087247945 0.077106275 0.043484107 -0.31764403 -0.06562641
-0.0109567605 -0.00384934 -0.17653185 0.25652134 -0.22503693 -0.0038456107 0.13508269 -0.13891199
0.07900475 -0.04509023 0.26959544 -0.0012974442 -0.06399719 0.34038252 -0.068794526 0.030977884
0.11727126 -0.056969814 -0.27253857 0.32979292 -0.22016175 -0.22173622 -0.04575894 -0.02498633
0.09815456 0.23239662 0.116249405 0.4130086 0.06981675 -0.25482893 -0.16667818 0.018810686
-0.124635495 0.09941715 0.17954576 0.25962394 0.11012384 -0.44373423 0.10978322 -0.15917139
0.17912553 0.21303882 -0.049754933 0.023898628 -0.038471904 0.09639608 -0.119000316 -0.1682597
0.06210143 0.30408365 0.4090899 0.12937069 -0.2543105 -0.019087447 0.011888265 -0.24970476
-0.28346333 -0.35970318 -0.122383706 0.07016644 -0.010355699 0.6645867 0.33282295 0.19446386
0.19952491 -0.19265497 0.1692396 0.061262652 0.020210411 -0.039042927 -0.17663224 0.29004085
0.021046288 0.199565 0.014075325 0.17088223 -0.017870314 0.036592074 0.099528804 -0.0016168362
0.085369155 0.028768795 -0.09824252 0.054448992 0.1302999 -0.05848456 0.17811917 0.18166892
0.043577746 0.0023186095 -0.1834953 -0.18794256 -0.30057564 -0.16054942 0.013658425 0.14843893
0.106462784 0.22323127 -0.10842071 -0.123494975 -0.0909235 -0.23043026 -0.05800185 -0.05213931
00000000: 46c2 7a3d c1b6 4fbd e3b0 6f3e 833e 963e
00000010: f60a 94bc dae4 f53d ee90 01be d13f 813d
00000020: 2d8f 99bd 91a8 50be 6dd4 0fbe 903d b03e
00000030: 0b2b e1bc a58b 143e 89e7 07be 99e1 ddbd
00000040: 8e09 c03c 8539 713e cf4f 3cbe e2cd 253e
00000050: e9d9 da3d b315 163e 7984 04bc 40eb 9bbd
00000060: 37e8 2abc 75ac 323e 9abe 4d3e 71d1 69bd
00000070: 262f a8be 5d09 343f 45ba 0a3e df88 8bbd
00000080: 68a5 e2be 4b50 9fbd c79e 6c3e a8d4 f63d
00000090: 1e4d 27be 6295 393c 2a63 023f 026c 78bd
000000a0: 4951 8e3e c7cb bfbc 6ec5 acbe f704 9fbd
000000b0: 1b06 ac3e d273 46bb de0c 08be 5fc7 f43d
000000c0: e242 83be 13bc d53d e81a bdbe 0aae 153d
000000d0: b5fe 933e da8f 31be 31af 103e 7023 f7bd
000000e0: c331 6abe 5142 a13d b198 173d 8788 c2bd
000000f0: 5d63 04bd 6060 82be 1bf6 9b3e 1d7d a53d
00000100: 9d1f bdbd 21cd c33e f629 70bd 12dc fe3c
00000110: a804 b73d f1eb 2fbe c63b 9fbd 2ca3 1fbe
00000120: e915 8cbd ede6 7abd ab56 ca3e be34 39bc
00000130: 517e 7cbe 00ef 0a3c 95a3 0d3e 2f5a 943d
00000140: 8bf3 a13e e743 a53d 5f35 ec3c e30c 883e
00000150: b122 1e3e 4fc6 093e ff7f 95bd 1c39 b43d
00000160: c64d 3c3e 4169 b6be 2872 57be 00c8 313e
00000170: baa8 2e3e e911 bd3d 6f9f 0d3c 816d 68bd
00000180: d4ba ddbd afc9 ba3c 7d01 da3d eebc 3abc
00000190: bc3e 32bd 7955 c3be 655f 85be 7502 af3e
000001a0: f9d3 bdbe c23f f0bd d141 ce3d 838c 7a3d
000001b0: 46eb fd3d 3368 55be 808f 22bd e239 7f3e
000001c0: 81c6 743d f13e aa3d 5a25 8d3e 7b14 85be
000001d0: bd4b ac3c dfd8 0ebd cdf6 923d b1b4 95bc
000001e0: 55a0 933e 3952 9c3d ef4d b23e 7bf2 7dbe
000001f0: a292 82be 87a6 96bd b3b0 48be d328 063e
00000200: 5c28 14bd 3355 edbe c2af 23be f688 edbc
00000210: 841b 00bf f2b5 38be 4ff9 d03d 7332 9fbc
00000220: a919 353e 5739 643e 0dd8 df3d f348 993e
00000230: 57e5 423d 0075 c73e ea7a ac3e f42a 63bd
00000240: 3840 49bd 5e32 98bd 6225 c9bd 0daf b2bd
00000250: e5e9 9d3d 641c 323d 3da2 a2be 2467 86bd
00000260: fc83 33bc 3545 7cbb c4c4 34be c456 833e
00000270: 1570 66be a406 7cbb 1e53 0a3e f23e 0ebe
00000280: 3ecd a13d 88b0 38bd 6a08 8a3e 010f aaba
00000290: f510 83bd 9e46 ae3e 25e4 8cbd 55c5 fd3c
000002a0: ea2b f03d 2e59 69bd 2d8a 8bbe 9eda a83e
000002b0: 1572 61be d20e 63be ba6d 3bbd 22b0 ccbc
000002c0: 4205 c93d 61f9 6d3e 2b14 ee3d dd75 d33e
000002d0: 16fc 8e3d f078 82be afad 2abe de18 9a3c
000002e0: e540 ffbd 389b cb3d d8da 373e 6eed 843e
000002f0: 9c88 e13d 2231 e3be 06d6 e03d d3fd 22be
00000300: af6c 373e d926 5a3e d4cb 4bbd 0ec7 c33c
00000310: b794 1dbd 4f6b c53d 70b6 f3bd 454c 2cbe
00000320: 125e 7e3d dab0 9b3e 3b74 d13e c079 043e
00000330: fc34 82be 475d 9cbc ffc6 423c 9bb2 7fbe
00000340: 1b22 91be 042b b8be 4fa4 fabd 6cb3 8f3d
00000350: f3aa 29bc 5b22 2a3f c567 aa3e 8921 473e
00000360: 4250 4c3e 5847 45be 254d 2d3e 8cee 7a3d
00000370: 4e90 a53c 7aeb 1fbd 15df 34be 3c80 943e
00000380: 4469 ac3c c45a 4c3e 319c 663c c0fb 2e3e
00000390: c464 92bc 92e1 153d c2d5 cb3d 05ec d3ba
000003a0: 06d6 ae3d 89ac eb3c 6033 c9bd e805 5f3d
000003b0: 566d 053e 828d 6fbd df64 363e 6b07 3a3e
000003c0: 947e 323d d0f3 173b 31e6 3bbe 0474 40be
000003d0: 0de5 99be 1167 24be 96c7 5f3c 6000 183e
000003e0: 2909 da3d bd96 643e ad0b debd efea fcbd
000003f0: 1a36 babd e9f5 6bbe 5993 6dbd 0790 55bd

mid_part.4.bias f4 [12]
0.017750463 -0.023314975 -0.04002907 0.075300075 0.0039484263 0.0048550093 0.006819453 -0.0011420278
0.043839414 0.024318464 -0.04152284 -0.041344304
00000000: 6b69 913c 0cff bebc 86f5 23bd ed36 9a3d
00000010: cd61 813b c516 9f3b b875 df3b 18b0 95ba
00000020: f590 333d 8437 c73c da13 2abd a558 29bd

mid_part.5.weight f4 [12]
0.59928834 0.7929169 0.33363155 0.2848601 1.9104052 1.265457 -0.09258827 -0.030263446
-0.038672958 0.21949565 0.33271903 0.2369217
00000000: f66a 193f 9afc 4a3f c1d1 aa3e 2fd9 913e
00000010: 2888 f43f 7ffa a13f eb9e bdbd 0ceb f7bc
00000020: 8967 1ebd 78c3 603e 265a aa3e 9a9b 723e

mid_part.6.weight f4 [12, 12, 3, 3]
0.0453629 -0.10375814 -0.046419572 0.012559716 0.11058736 0.1282772 -0.040798683 0.114034615
0.04547568 0.059521087 0.3000598 0.1510184 0.042006757 0.19811629 0.1346553 -0.018259292
-0.24018572 0.07000269 0.06351718 -0.10615229 0.045027103 0.094304726 0.029400708 -0.11061042
-0.2110928 -0.14063148 0.10187644 0.115287155 -0.10587274 -0.18718152 -0.14746319 0.1859032
0.11136735 0.06521894 -0.19245563 -0.12156122 -0.0057817986 0.17985532 -0.08719943 0.17728055
0.13120277 -0.118084 -0.034536827 0.18849142 -0.04378494 -0.16407944 -0.3977627 0.09332704
0.19060884 0.021582702 0.016025044 0.08389755 0.11961834 0.21271569 0.14291552 -0.21095952
0.044698443 0.060557716 0.02849206 0.03767797 0.20806393 0.21617226 0.14247239 -0.10232389
-0.085503645 0.14874068 -0.04458652 -0.15736298 0.02264272 0.05568601 0.03831944 -0.19095114
-0.02350947 0.14944847 0.23665112 -0.009130604 0.056648247 0.0073810536 0.02073976 -0.17578474
0.057034764 -0.011937483 0.17650662 0.030299906 -0.1643882 0.04979409 0.19544187 -0.21282434
-0.13123336 -0.24045712 -0.12341705 0.18708754 -0.0010745099 -0.03128842 -0.099480204 0.050312754
-0.106392816 0.19249862 -0.11772256 0.12910628 0.033037756 0.02558218 0.07195515 -0.11377334
-0.026029347 0.16671066 -0.13282894 -0.0069150478 0.33041817 0.0012270862 0.23608063 -0.0013810355
-0.30217648 0.16670203 0.07358568 0.12704965 -0.060688317 -0.072617 -0.021712085 0.4725399
-0.21104102 0.040949285 0.0027164808 0.08210212 0.03711416 0.054479524 0.16532263 0.14871103
-0.07235396 0.08974285 0.12036629 0.17353742 0.0063598603 -0.09958861 0.064247325 -0.048950348
0.15076491 -0.45428008 -0.23747933 0.28284976 -0.051650733 -0.09143477 -0.277904 0.16142227
0.06735396 -0.061342843 0.12412118 0.08971962 -0.08611137 -0.16061865 0.09586401 0.2655034
0.0047585946 0.08121353 0.022536036 0.093047075 -0.18450229 0.059133288 0.012826355 -0.021732984
-0.011329507 0.03856335 0.23839504 -0.08963984 -0.06881476 -0.0037160045 0.15561754 0.018480137
-0.09420994 -0.14811145 -0.1320401 0.12102315 -0.021538375 0.11317595 0.05605714 0.16669765
-0.25654814 -0.054904442 -0.030881856 -0.13627067 0.15942891 -0.4025077 0.26616293 0.051121935
-0.009126504 0.122160085 -0.015586804 0.21130046 -0.052869067 0.09339395 0.054426063 0.0075830477
0.10696632 0.21225852 -0.21952422 0.007294225 0.15772277 0.21396679 0.008947995 0.24321139
0.06513606 -0.1843744 -0.098030254 0.262973 0.0702801 -0.35049623 0.286417 -0.091882795
-0.011590683 0.07741475 0.10449391 0.006189047 0.021464912 -0.21491891 -0.17706567 0.06640053
-0.28522554 -0.07822024 -0.23325457 -0.008579836 -0.0867528 -0.09030036 0.24880365 0.2422489
-0.21507062 -0.16184606 -0.0678405 0.050440814 -0.25595683 -0.04470871 -0.16081427 0.16209267
0.1424905 0.1919252 -0.20335805 0.057621498 -0.033888493 0.009329612 0.009205991 -0.187304
0.053865798 -0.18864805 -0.31928673 0.20139547 0.081673145 0.024428036 0.22552744 -0.01442957
-0.1520586 -0.10898438 -0.17886043 0.015367782 -0.2620673 -0.16271348 0.20677921 -0.011951537
00000000: 73ce 393d 267f d4bd 7322 3ebd 44c7 4d3c
00000010: a07b e23d 195b 033e 851c 27bd fb8a e93d
00000020: b544 3a3d 62cc 733d 70a1 993e 91a4 1a3e
00000030: 470f 2c3d ffde 4a3e 14e3 093e 8394 95bc
00000040: 3ff3 75be 925d 8f3d 4c15 823d 5f66 d9bd
00000050: 576e 383d d622 c13d c1d9 f03c b787 e2bd
00000060: b628 58be b301 10be 98a4 d03d ac1b ec3d
00000070: cfd3 d8bd 83ac 3fbe 9700 17be 695d 3e3e
00000080: 9114 e43d 8291 853d 1713 45be 17f5 f8bd
00000090: 3e75 bdbb fe2b 383e 9d95 b2bd 0889 353e
000000a0: 055a 063e 06d6 f1bd 7d76 0dbd e503 413e
000000b0: d657 33bd 7104 28be 8da7 cbbe 3f22 bf3d
000000c0: f72e 433e 35ce b03c f446 833c 7bd2 ab3d
000000d0: 76fa f43d 24d2 593e 7258 123e c605 58be
000000e0: b715 373d 5e0b 783d 2e68 e93c 3754 1a3d
000000f0: b60e 553e 435c 5d3e 48e4 113e 308f d1bd
00000100: 891c afbd 7a4f 183e 5ba0 36bd c323 21be
00000110: 3a7d b93c 0317 643d d8f4 1c3d b288 43be
00000120: ef96 c0bc 0509 193e ac54 723e 8798 15bc
00000130: fe07 683d c4dc f13b 6ee6 a93c ea00 34be
00000140: 499d 693d 6f95 43bc 27be 343e 8237 f83c
00000150: 6155 28be e3f4 4b3d ea21 483e a0ee 59be
00000160: 0a62 06be 643a 76be 14c2 fcbd e093 3f3e
00000170: 92d6 8cba 4928 00bd 47bc cbbd bf14 4e3d
00000180: 7ae4 d9bd 5c1e 453e 8718 f1bd 7034 043e
00000190: 9952 073d b891 d13c 395d 933d ff01 e9bd
000001a0: 7f3b d5bc 33b6 2a3e 4f04 08be a097 e2bb
000001b0: 922c a93e 2ed6 a03a 1fbf 713e dd03 b5ba
000001c0: e0b6 9abe f0b3 2a3e 17b4 963d 4e19 023e
000001d0: 5094 78bd 39b8 94bd 8bdd b1bc c0f0 f13e
000001e0: 231b 58be 70ba 273d fc06 323b 2825 a83d
000001f0: 0405 183d ec25 5f3d 564a 293e b447 183e
00000200: 502e 94bd 19cb b73d 9a82 f63d cbb3 313e
00000210: 6066 d03b 1df5 cbbd 1a94 833d 2980 48bd
00000220: 1e62 1a3e 6697 e8be c82d 73be afd1 903e
00000230: b88f 53bd 2742 bbbd 6f49 8ebe e14b 253e
00000240: dff0 893d a242 7bbd 3f33 fe3d ecbe b73d
00000250: 285b b0bd 3779 24be 5a54 c43d 10f0 873e
00000260: fced 9b3b 4753 a63d 7e9d b83c 778f be3d
00000270: 2bee 3cbe bf35 723d a225 523c 5f09 b2bc
00000280: 669f 39bc 9af4 1d3d d41d 743e 1895 b7bd
00000290: c1ee 8cbd 3688 73bb 345a 1f3e a863 973c
000002a0: 24f1 c0bd 87aa 17be 8535 07be fcda f73d
000002b0: 3f71 b0bc cbc8 e73d 2c9c 653d cab2 2a3e
000002c0: 475a 83be 7be3 60bd f2fb fcbc 8a8a 0bbe
000002d0: 5541 233e 7d15 cebe 8246 883e 3c65 513d
000002e0: 5587 15bc 112f fa3d cb5f 7fbc 265f 583e
000002f0: 3c8d 58bd 5445 bf3d dded 5e3d 377b f83b
00000300: 2811 db3d 4c5a 593e f5ca 60be 6504 ef3b
00000310: 1482 213e 1c1a 5b3e 9c9a 123c 680c 793e
00000320: 0e66 853d a5cc 3cbe 16c4 c8bd 66a4 863e
00000330: 03ef 8f3d 3e74 b3be 40a5 923e 0c2d bcbd
00000340: d9e6 3dbc a08b 9e3d e700 d63d 7dcd ca3b
00000350: 2fd7 af3c b413 5cbe b450 35be 00fd 873d
00000360: 1509 92be ef31 a0bd 49da 6ebe 7192 0cbc
00000370: 74ab b1bd 65ef b8bd 62c6 7e3e 1810 783e
00000380: 793b 5cbe f9ba 25be f6ef 8abd 079b 4e3d
00000390: c60c 83be 7b20 37bd 7fac 24be 9ffb 253e
000003a0: 08e9 113e 0a88 443e 183d 50be 8504 6c3d
000003b0: a9ce 0abd 3bdb 183c bad4 163c 9fcc 3fbe
000003c0: 62a2 5c3d f42c 41be 8d79 a3be 9d3a 4e3e
000003d0: 4044 a73d 4e1d c83c aaf0 663e 016a 6cbc
000003e0: 40b5 1bbe 3433 dfbd 3027 37be 26c9 7b3c
000003f0: af2d 86be 5d9e 26be eebd 533e 61d0 43bc

mid_part.6.bias f4 [12]
0.015198357 0.030286703 0.013163879 0.049044676 0.023177024 0.019285398 -0.009522836 0.028535947
0.029008713 0.0102656465 -0.043213822 -0.022557167
00000000: 8802 793c d21b f83c 4fad 573c 12e3 483d
00000010: bedd bd3c 69fc 9d3c ab05 1cbc 38c4 e93c
00000020: aea3 ed3c 3e31 283c fa00 31bd cfc9 b8bc

mid_part.7.weight f4 [12]
0.46881458 -0.22914542 0.29357722 0.30603904 0.21458729 0.74981236 0.9129862 0.35545182
0.2614529 1.6642063 0.49912077 0.1666045
00000000: 7708 f03e 19a5 6abe c14f 963e 26b1 9c3e
00000010: c5bc 5b3e b4f3 3f3f 77b9 693f c8fd b53e
00000020: 28dd 853e b604 d53f c28c ff3e 5f9a 2a3e

mid_part.8.weight f4 [12, 12, 3, 3]
0.08371896 -0.10342669 -0.12745994 -0.077220075 0.206138 0.17344369 -0.2719948 0.113063954
-0.064886265 -0.04366746 0.046990037 0.08001153 0.102571614 0.30482253 0.030618124 0.21586987
0.06858981 -0.042257883 0.114358164 -0.0327417 -0.019821988 -0.19883274 -0.03130492 -0.0074131205
0.0865766 -0.1470467 0.01662051 0.007651526 -0.03289141 0.021602731 -0.07037408 -0.025041785
0.13430658 0.00488954 -0.07769151 -0.19565232 -0.028223617 -0.007438141 0.036331184 0.096380785
-0.016976355 0.23262523 -0.078606695 0.07476241 -0.0061065676 0.10796244 0.14086396 0.09455523
-0.16289294 0.0068003912 -0.02093328 0.42428854 -0.16886538 0.055203065 0.09655852 -0.32401228
0.060821973 0.00081673823 -0.011093718 -0.05079499 -0.13926183 -0.09512319 0.043340005 -0.010835924
0.31826195 -0.013212445 0.042905487 0.22597483 -0.06187319 -0.14132677 -0.042766783 -0.23469266
-0.33367848 -0.06364365 0.011559712 0.07667063 0.19846107 -0.00960067 0.03191552 -0.2058722
-0.05627711 0.08544125 -0.04811131 -0.116948366 -0.14254788 -0.056158844 -0.020426452 0.24662735
-0.034283917 0.0064405883 0.010327417 0.18577455 0.04683895 -0.0819677 -0.050644856 0.03171011
0.10076108 0.098766685 -0.029218549 0.17242174 0.384829 -0.315771 0.45369148 0.036636196
0.17962173 -0.20752193 0.14756802 0.19127396 0.11328879 -0.10990867 -0.1577387 0.17535998
0.15158078 0.035879627 0.020571819 -0.31115922 -0.28660643 0.055210203 -0.14418715 0.040837113
0.12427282 0.20274337 -0.25029936 -0.1418545 0.009656371 -0.11048771 0.01994153 -0.04483967
0.08206379 0.013369653 -0.26802906 0.24900529 -0.11079836 0.0842697 0.041278064 -0.03345183
0.38780808 0.06753229 0.18447064 -0.03799403 0.08918238 -0.14165287 0.089001715 0.11197974
0.15625505 0.0063073556 -0.10635018 0.042221922 0.1910128 -0.3061985 0.16493201 -0.3348418
0.05550294 0.118808955 0.16453324 -0.030330349 0.07949649 0.21333835 0.03204376 -0.16891746
-0.082478225 -0.06384918 0.023967762 -0.028280701 0.18850772 0.14647882 0.046401158 0.049200732
-0.018652232 -0.03710553 0.07169192 0.15057828 0.2223374 0.0712564 0.041279852 -0.35148066
0.018556917 0.031171745 -0.049898867 0.072413236 0.08390601 -0.076921016 -0.02060891 0.014561703
-0.20188813 -0.010783625 0.31280088 -0.078793935 0.1360957 0.3037332 0.015303743 0.014031872
0.24941754 0.04219394 0.2267013 0.19990125 -0.009952782 0.041434437 0.02682838 -0.038759235
0.086176984 -0.0070297075 -0.15249437 -0.14768052 -0.09946779 0.07001957 0.16598845 0.17123139
-0.198373 0.0025636947 0.14682977 0.060989182 0.0036309415 -0.025672952 -0.038204413 0.14356709
-0.020867376 0.23365441 0.17795418 -0.04320329 -0.04226383 -0.09040036 0.11229825 0.1292406
0.14263925 0.07873732 0.044486083 0.18691602 0.027094545 0.17241718 -0.11922441 0.08771362
0.07411418 -0.16445595 0.010685595 -0.018014979 -0.15096472 -0.0021132892 -0.12727441 0.05829747
-0.10631628 -0.10017554 -0.07424715 -0.18056984 -0.06635729 -0.02736094 0.21208823 0.13500158
-0.21858665 0.07813815 -0.09719743 0.03703762 0.053636193 0.032250892 -0.27746296 0.17769128
00000000: d974 ab3d 5fd1 d3bd dc84 02be 8f25 9ebd
00000010: d715 533e 399b 313e e742 8bbe 138e e73d
00000020: 17e3 84bd a7dc 32bd a078 403d 16dd a33d
00000030: 1111 d23d b311 9c3e dcd2 fa3c fe0c 5d3e
00000040: d078 8c3d 9a16 2dbd 9d34 ea3d 291c 06bd
00000050: b961 a2bc cf9a 4bbe 9639 00bd c3e9 f2bb
00000060: 134f b13d 6993 16be bc27 883c a7b9 fa3b
00000070: 25b9 06bd 36f8 b03c 4920 90bd 6e24 cdbc
00000080: aa87 093e 6f38 a03b ba1c 9fbd 1559 48be
00000090: 3735 e7bc a6bb f3bb 02d0 143d 4a63 c53d
000000a0: ff11 8bbc 4f35 6e3e 8cfc a0bd 091d 993d
000000b0: 9a19 c8bb 691b dd3d a43e 103e 2ca6 c13d
000000c0: 68cd 26be d1d5 de3b 457c abbc 593c d93e
000000d0: 0ceb 2cbe 9c1c 623d 79c0 c53d f0e4 a5be
000000e0: 7620 793d 601a 563a 6dc2 35bc 680e 50bd
000000f0: a79a 0ebe f2cf c2bd 4a85 313d 2989 31bc
00000100: 3bf3 a23e 0379 58bc aabd 2f3d f265 673e
00000110: be6e 7dbd f7b7 10be 392c 2fbd 4653 70be
00000120: e8d7 aabe 9a57 82bd f264 3d3c 7e05 9d3d
00000130: 6139 4b3e 214c 1dbc d9b9 023d 29d0 52be
00000140: d482 66bd d2fb ae3d 5d10 45bd a082 efbd
00000150: 12f8 11be d106 66bd 6055 a7bc e18b 7c3e
00000160: 4b6d 0cbd 920b d33b 5434 293c af3b 3e3e
00000170: 33da 3f3d aede a7bd fb70 4fbd 76e2 013d
00000180: d35b ce3d 3046 ca3d bd5b efbc 538f 303e
00000190: 4f08 c53e bdac a1be 404a e83e d60f 163d
000001a0: c2ee 373e a180 54be 121c 173e 52dd 433e
000001b0: f403 e83d cc17 e1bd 4186 21be 9191 333e
000001c0: fe37 1b3e 84f6 123d 3b86 a83c 4350 9fbe
000001d0: 14be 92be 1824 623d cca5 13be d144 273d
000001e0: c082 fe3d f59b 4f3e 3d27 80be 4e42 11be
000001f0: c135 1e3c 6147 e2bd 6b5c a33c cda9 37bd
00000200: 0f11 a83d 640c 5b3c 1b3b 89be 3efb 7e3e
00000210: 40ea e2bd 9895 ac3d 3013 293d c904 09bd
00000220: c88e c63e 5f4e 8a3d dfe5 3c3e a19f 1bbd
00000230: 40a5 b63d 730d 11be 8846 b63d a255 e53d
00000240: 5301 203e efad ce3b 20ce d9bd e5f0 2c3d
00000250: dc98 433e 0dc6 9cbe f0e3 283e 6270 abbe
00000260: 0d57 633d 1c52 f33d 677b 283e 5a77 f8bc
00000270: 0ecf a23d 5e75 5a3e 5140 033d b3f8 2cbe
00000280: 58ea a8bd 5cc3 82bd 0a58 c43c eeac e7bc
00000290: 2b08 413e 8bfe 153e 240f 3e3d b586 493d
000002a0: 91cc 98bc f8fb 17bd 37d3 923d 3131 1a3e
000002b0: 6aac 633e e0ee 913d 1015 293d 46f5 b3be
000002c0: ad04 983c e35b ff3c c162 4cbd 644d 943d
000002d0: ead6 ab3d c488 9dbd 04d4 a8bc 3694 6e3c
000002e0: c3bb 4ebe cdad 30bc 7027 a03e b75e a1bd
000002f0: ac5c 0b3e eb82 9b3e 8dbc 7a3c f0e5 653c
00000300: 5067 7f3e 8ed3 2c3d 6324 683e eab2 4c3e
00000310: fe10 23bc 28b7 293d 31c7 db3c 01c2 1ebd
00000320: 8f7d b03d 7659 e6bb 7c27 1cbe 9039 17be
00000330: c5b5 cbbd 6c66 8f3d e0f8 293e 4857 2f3e
00000340: 4b22 4bbe a903 283b 8b5a 163e cbcf 793d
00000350: 17f5 6d3b 1550 d2bc 3b7c 1cbd 4003 133e
00000360: 0ff2 aabc 1a43 6f3e 9f39 363e eff5 30bd
00000370: d61c 2dbd d323 b9bd a0fc e53d a657 043e
00000380: 0610 123e 0841 a13d 0a37 363d ea66 3f3e
00000390: 61f5 dd3c 218e 303e ed2b f4bd 33a3 b33d
000003a0: 2dc9 973d 2467 28be a212 2f3c 2694 93bc
000003b0: 7f96 1abe 1c7f 0abb 3954 02be 54c9 6e3d
000003c0: 5abc d9bd d528 cdbd e40e 98bd 4de7 38be
000003d0: 55e6 87bd 0d24 e0bc a82d 593e db3d 0a3e
000003e0: 2ed5 5fbe e506 a03d 720f c7bd c2b4 173d
000003f0: a0b1 5b3d 8319 043d a00f 8ebe b4f4 353e

mid_part.8.bias f4 [12]
0.0062243612 0.016407948 0.03847152 0.0054189926 0.012990585 0.031106383 0.026574148 0.0028611894
-0.03848644 0.05602233 0.050036695 0.039666075
00000000: baf5 cb3b f669 863c 5094 1d3d ce91 b13b
00000010: 76d6 543c d0d2 fe3c 07b2 d93c cb82 3b3b
00000020: f5a3 1dbd ac77 653d 47f3 4c3d e578 223d

mid_part.9.weight f4 [12]
-2.9304054 -0.07339432 1.038409 0.2313386 -0.7508537 -0.38331783 0.85750824 0.9807304
0.2764886 0.08461283 0.15492493 1.2198563
00000000: c38b 3bc0 c34f 96bd 96ea 843f 07e4 6c3e
00000010: f337 40bf 3c42 c4be a985 5b3f 2611 7b3f
00000020: ea8f 8d3e 7e49 ad3d a4a4 1e3e 4024 9c3f

mid_part.10.weight f4 [56, 12, 1, 1]
-0.07315514 0.18177164 -0.04588207 -0.3901257 -0.086032115 0.24918897 0.09891586 0.30504012
-0.17075129 -0.07713104 0.36942068 -0.12754978 0.06910827 0.17584154 0.08547989 -0.041354105
-0.2370609 0.30669025 -0.06445161 0.34882167 0.013639524 0.11527562 0.21735238 0.11094262
-0.026415905 0.16875124 0.037220083 -0.23592846 -0.32704628 -0.32891282 0.35898298 0.077299505
0.041364398 -0.031945612 -0.2560127 0.016668534 0.06215545 -0.21359175 -0.03576018 -0.13762988
-0.17761174 -0.3511837 0.32588628 0.5953448 -0.30103746 -0.005778073 0.12605764 0.16965061
-0.19069843 0.16799788 0.36394545 0.124160685 -0.060764533 0.17938618 -0.06551191 0.25140673
0.21764888 -0.057311364 0.15216266 -0.21674846 -0.17535192 -0.10300649 0.14424364 0.2951027
-0.17172411 0.017459787 -0.22779197 -0.20508946 0.16424626 -0.35327366 0.11290208 0.14004378
0.21991602 0.08234566 -0.34755132 -0.15303688 0.3445429 -0.21085878 -0.037382364 -0.11152866
0.2999539 -0.24116613 0.03288529 -0.19562379 0.11514039 -0.00044189033 0.11136775 0.44057757
0.09206107 -0.18544994 -0.33729848 -0.33105668 0.08285532 0.1413119 0.62157845 0.12302978
-0.09229162 0.08606713 -0.09295995 -0.027628409 0.20268092 -0.24384579 -0.044040214 0.03359286
0.013531321 -0.19896357 0.05762496 0.009823593 -0.43000552 0.16037789 0.14227459 -0.10931599
0.087390594 -0.18157217 0.0036359716 -0.0199014 -0.20705214 -0.2532826 -0.026345624 0.17500564
-0.048260793 -0.16802529 -0.07784558 -0.27097565 0.17732309 0.043391846 -0.063612595 -0.384763
-0.17922117 0.18328892 0.15331863 -0.18724136 0.06364527 0.14737058 0.08450404 -0.32452723
0.04570783 0.15242527 0.13691667 0.06327044 -0.33921146 -0.009074378 -0.1575158 -0.06926526
0.09413798 0.20477356 -0.044727236 0.0021489584 0.070506066 0.0291987 -0.06159349 0.0068216384
0.22436935 0.20547782 -0.29082534 -0.26604253 -0.36047214 0.0040784823 -0.18398733 -0.12368012
0.08723048 -0.22825903 0.05059124 0.40024328 0.04721859 0.44075218 0.4860196 -0.10143456
-0.16549577 -0.02575886 -0.07862201 0.036666114 0.28710285 0.046033207 -0.014608845 -0.028388314
0.1482488 0.049748242 -0.15525556 0.12307173 -0.07623197 0.045562588 -0.4154816 -0.0034444772
0.26612678 0.33521873 0.0046904916 -0.24504964 -0.031433314 0.31488177 -0.36854774 0.10755321
0.23819126 0.22877038 -0.026089437 -0.14745851 0.13545552 -0.406835 0.0061482033 0.12686265
0.06402169 0.3038876 0.21496567 -0.10601232 0.046176657 0.12737937 0.067604855 -0.1581161
0.019297652 0.039980136 0.1670137 0.058922887 0.13650018 -0.17764689 0.12184766 -0.13536716
-0.13957633 -0.05433182 -0.106553696 -0.087004334 -0.04782761 0.27881616 0.12156419 0.11555202
-0.3181912 -0.088332064 -0.09114038 -0.11095385 0.038774658 0.000795721 -0.041321877 -0.19856733
-0.05411941 -0.22214916 0.114211485 -0.43102092 0.17931363 -0.42007348 0.11771114 -0.22710814
-0.03984687 -0.122026585 -0.24166471 -0.26000422 -0.058079578 -0.11580323 0.04096866 0.17844631
0.038837887 -0.051588412 -0.50497127 -0.3029883 0.042616203 -0.0669515 0.033326652 -0.16638225
00000000: 5dd2 95bd 5822 3a3e d6ee 3bbd 8ebe c7be
00000010: 9b31 b0bd 652b 7f3e 6694 ca3d 382e 9c3e
00000020: 6dd9 2ebe e1f6 9dbd b524 bd3e 699c 02be
00000030: a388 8d3d ce0f 343e 1510 af3d ec62 29bd
00000040: 18c0 72be 8106 9d3e 35ff 83bd c198 b23e
00000050: 4f78 5f3c a015 ec3d 9f91 5e3e e235 e33d
00000060: 2b66 d8bc 20cd 2c3e 1674 183d 3b97 71be
00000070: 9c72 a7be 4367 a8be 9ecc b73e 344f 9e3d
00000080: b76d 293d 67d9 02bd 1914 83be 738c 883c
00000090: b796 7e3d ccb7 5abe 4479 12bd d9ee 0cbe
000000a0: dadf 35be 5ace b3be 91da a63e 8468 183f
000000b0: 9521 9abe fd55 bdbb 4115 013e e4b8 2d3e
000000c0: 7346 43be a307 2c3e 0f57 ba3e f547 fe3d
000000d0: 3be4 78bd 03b1 373e 1c2b 86bd 62b8 803e
000000e0: 59df 5e3e 52bf 6abd 87d0 1b3e 4ff3 5dbe
000000f0: 748f 33be 11f5 d2bd 9bb4 133e b317 973e
00000100: 72d8 2fbe d407 8f3c 4c42 69be f902 52be
00000110: 2c30 283e 49e0 b4be 3539 e73d a367 0f3e
00000120: aa31 613e d7a4 a83d 3ff2 b1be b3b5 1cbe
00000130: ed67 b03e 5deb 57be 401e 19bd 2369 e4bd
00000140: 8f93 993e 41f4 76be bab2 063d 9a51 48be
00000150: bace eb3d 84ad e7b9 c614 e43d 6293 e13e
00000160: 848a bc3d 97e6 3dbe 63b2 acbe 4380 a9be
00000170: 0db0 a93d 11b4 103e c41f 1f3f 0af7 fb3d
00000180: 6403 bdbd f743 b03d c961 bebd f954 e2bc
00000190: 968b 4f3e b6b2 79be 8363 34bd ab98 093d
000001a0: 79b2 5d3c 1bbd 4bbe 2608 6c3d 23f3 203c
000001b0: af29 dcbe 1a3a 243e 6eb0 113e 10e1 dfbd
000001c0: d7f9 b23d 0eee 39be 7b49 6e3b 4308 a3bc
000001d0: 7a05 54be 42ae 81be c7d2 d7bc ae34 333e
000001e0: 1cad 45bd d20e 2cbe 816d 9fbd 52bd 8abe
000001f0: 2f94 353e a6bb 313d 5247 82bd a8ff c4be
00000200: c185 37be 17b0 3b3e 8fff 1c3e 33bc 3fbe
00000210: 7458 823d 50e8 163e 7410 ad3d 6f28 a6be
00000220: 2238 3b3d 5f15 1c3e e233 0c3e ef93 813d
00000230: 20ad adbe b3ac 14bc d24b 21be f2da 8dbd
00000240: 6acb c03d 29b0 513e e833 37bd 8ad5 0c3b
00000250: 7c65 903d 1d32 ef3c 7549 7cbd 0d88 df3b
00000260: 14c1 653e c768 523e 0fe7 94be ba36 88be
00000270: ce8f b8be caa4 853b 2d67 3cbe 014c fdbd
00000280: e5a5 b23d bcbc 69be c338 4f3d b0ec cc3e
00000290: 4868 413d 45aa e13e 90d7 f83e ecbc cfbd
000002a0: b977 29be 3f04 d3bc 9404 a1bd 352f 163d
000002b0: 25ff 923e 518d 3c3d f059 6fbc 9c8e e8bc
000002c0: 89ce 173e d0c4 4b3d 50fb 1ebe 080d fc3d
000002d0: 821f 9cbd d69f 3a3d 01ba d4be bdbc 61bb
000002e0: c541 883e caa1 ab3e b2b2 993b 4bee 7abe
000002f0: 38c0 00bd 2f38 a13e 4ab2 bcbe db44 dc3d
00000300: 69e8 733e c842 6a3e 84b9 d5bc 5dff 16be
00000310: dab4 0a3e ad4c d0be de76 c93b 48e8 013e
00000320: ce1d 833d 2897 9b3e f61f 5c3e fd1c d9bd
00000330: bc23 3d3d bd6f 023e 6a74 8a3d 30e9 21be
00000340: 1c16 9e3c 36c2 233d a405 2b3e 2059 713d
00000350: b4c6 0b3e 11e9 35be 448b f93d b09d 0abe
00000360: 19ed 0ebe 0b8b 5ebd d338 dabd 542f b2bd
00000370: e2e6 43bd fec0 8e3e a5f6 f83d 8aa6 ec3d
00000380: f5e9 a2be 71e7 b4bd cfa7 babd c63b e3bd
00000390: 2dd2 1e3d ef97 503a 2141 29bd 3c55 4bbe
000003a0: 51ac 5dbd 127b 63be b6e7 e93d c6ae dcbe
000003b0: fe9d 373e df13 d7be 8a12 f13d 098f 68be
000003c0: 7936 23bd 13e9 f9bd f476 77be 461f 85be
000003d0: dae4 6dbd 3e2a edbd c1ce 273d a1ba 363e
000003e0: 7a14 1f3d 5f4e 53bd cc45 01bf 4821 9bbe
000003f0: 548e 2e3d de1d 89bd 8781 083d 1c60 2abe
