models/fsrcnn/track1/track1_x4__epoch_3.pth (torch, 57971 bytes, 22 tensors)

first_part.0.weight f4 [56, 1, 5, 5]
-0.02411278 0.052737653 0.026239108 0.007062754 -0.0057664914 -0.025537545 0.025285352 -0.024903063
-0.03361187 0.008312791 0.05659673 -0.021572482 0.030640742 0.02006709 0.018109154 0.039684612
-0.030860757 -0.013022557 0.07204098 -0.00678091 -0.0145683335 0.009157223 0.053684764 0.0034466798
-0.038519554 -0.032947704 -0.03988302 -0.046315063 0.010747492 0.04428754 -0.04891544 0.044185508
-0.03824442 -0.017165799 0.0052226908 -0.029824238 0.017285733 0.004794745 0.0010999346 -0.06556225
-0.009953235 0.03253811 -0.0048620286 0.002060906 -0.014230341 0.04372626 -0.0031851728 -0.087696195
0.048082173 0.0015624886 -0.023128804 -0.05040298 -0.016034776 -0.018923813 0.017347667 -0.0035879926
0.004210848 -0.019049274 -0.02688119 -0.07610415 -0.03872086 -0.07903555 -0.05444324 -0.011692339
-0.057223402 0.045975752 -0.057057187 -0.062867194 -0.028553031 -0.016087981 -0.05686121 0.047456253
0.04210344 -0.040947348 -0.020296773 0.03470867 -0.003045874 0.052781217 0.02271703 -0.024430078
-0.042594783 -0.014131802 0.014339429 -0.04863364 -0.0018470094 0.010642452 0.09078338 -0.03639432
-0.070703216 0.02627289 0.033078354 -0.045953672 -0.055734012 -0.005936354 -9.804637e-05 0.034553632
-0.06991027 -0.018399123 -0.04284572 -0.10245106 0.005431046 -0.03885887 -0.034853954 -0.087136
-0.015905643 -0.016939618 0.07404757 0.002986551 0.039400864 -0.007014799 0.008577037 -0.077183224
-0.032891303 0.0019212458 0.018792486 -0.0108482195 -0.07891299 -0.049767736 -0.025110941 0.04191102
-0.04658056 -0.016808948 0.05248447 -0.0726327 0.020736104 -0.07227911 -0.051233362 0.043247286
0.022775318 0.010263668 0.031717096 -0.04210563 -0.01214045 -0.060453173 0.00038586103 -0.049876638
-0.022711027 0.03155528 0.027682703 -0.03594497 0.0554916 -0.060787443 0.025673281 -0.017151427
-0.009398883 0.047751542 -0.0058086687 -0.0074382853 -0.013372279 -0.029248923 -0.09346783 0.018915158
0.007380617 0.06202941 -0.01956889 -0.012539977 0.020670312 0.02692497 -0.04836329 -0.057716783
-0.01187816 -0.056423336 -0.010582705 -0.012078028 0.033707414 -0.08204723 0.017638745 -0.02901633
0.01138143 -0.020525027 -0.062288288 0.012058482 -0.003834306 -0.005077894 -0.070055336 0.040865533
0.0066087614 0.04872312 -0.065468915 -0.04285978 0.021722319 -0.018836277 -0.0650145 0.038754053
0.074944556 0.0140283555 -0.036860842 0.18053418 -0.011280219 0.018768404 0.010239732 -0.08798521
0.10296671 -0.09556836 0.097251505 0.08471167 0.0028078621 0.002626086 0.023885656 0.07175772
0.03566696 0.0608936 -0.013352 0.011792169 0.025648575 0.029777398 0.03369315 -0.009944581
0.0136960335 -0.0037047758 -0.0006846766 -0.014587204 0.06011621 0.010422495 -0.021657802 -0.0023558023
0.014978312 0.031022543 -0.020440733 -0.035654306 0.030047225 0.026151223 0.08770199 -0.033511996
0.013482299 0.08398994 -0.040856276 -0.05959772 0.050523862 -0.058431964 -0.014181498 0.0013796217
0.027447104 -0.050197612 0.011254179 0.007153161 -0.018636469 0.073060095 0.048554476 0.043033406
0.055570845 -0.0043248497 0.012171312 -0.04283809 0.048111726 0.03528066 0.039880123 0.022969123
0.0606519 0.046924144 -0.02150154 0.037759304 -0.045405984 0.004149227 -0.048156355 0.014567707
00000000: 2a88 c5bc 7003 583d 66f3 d63c ad6e e73b
00000010: d6f4 bcbb 1d34 d1bc 3a23 cf3c 8201 ccbc
00000020: 9aac 09bd 5f32 083c f9d1 673d c6b8 b0bc
00000030: 4b02 fb3c bd63 a43c a659 943c 558c 223d
00000040: b3cf fcbc 905c 55bc 398a 933d 6532 debb
00000050: 05b0 6ebc 2d08 163c 8ee4 5b3d b1e1 613b
00000060: aec6 1dbd 2cf4 06bd 615c 23bd ddb4 3dbd
00000070: 4016 303c da66 353d 8e5b 48bd ddfb 343d
00000080: 2ea6 1cbd 4a9f 8cbc 1b23 ab3b f651 f4bc
00000090: cf9a 8d3c 3c1d 9d3b ae2b 903a 8045 86bd
000000a0: e512 23bc ae46 053d a751 9fbb 4410 073b
000000b0: 6026 69bc 4f1a 333d 55be 50bb 109a b3bd
000000c0: d0f1 443d 6bcc cc3a 9e78 bdbc 5b73 4ebd
000000d0: 5d5b 83bc 1d06 9bbc b21c 8e3c 8724 6bbb
000000e0: 27fb 893b 390d 9cbc f135 dcbc 7edc 9bbd
000000f0: c499 1ebd 64dd a1bd e0ff 5ebd 3991 3fbc
00000100: 1663 6abd 1251 3c3d ccb4 69bd 84c0 80bd
00000110: 0ce8 e9bc f1ca 83bc 4de7 68bd 7d61 423d
00000120: a874 2c3d 68b8 27bd 6b45 a6bc ae2a 0e3d
00000130: 499d 47bb 1e31 583d 1119 ba3c 9621 c8bc
00000140: de77 2ebd 1389 67bc edef 6a3c 1134 47bd
00000150: 5a17 f2ba ae5d 2e3c a3ec b93d 3612 15bd
00000160: d9cc 90bd 3e3a d73c 2b7d 073d eb39 3cbd
00000170: 5949 64bd bf85 c2bb 3e9e cdb8 1c88 0d3d
00000180: 1e2d 8fbd c2b9 96bc fe7e 2fbd ddd1 d1bd
00000190: eaf6 b13b 7a2a 1fbd 05c3 0ebd 5c74 b2bd
000001a0: 8d4c 82bc f4c4 8abc 41a6 973d 03ba 433b
000001b0: cd62 213d 66dc e5bb b386 0c3c 3d12 9ebd
000001c0: 08b9 06bd 50d2 fb3a b3f2 993c bbbc 31bc
000001d0: 229d a1bd 41d9 4bbd 76b5 cdbc e4aa 2b3d
000001e0: 42cb 3ebd ebb2 89bc f5f9 563d 74c0 94bd
000001f0: c3de a93c 1207 94bd 13da 51bd 1124 313d
00000200: 4e93 ba3c f228 283c c9e9 013d f476 2cbd
00000210: bde8 46bc bf9d 77bd 644d ca39 724b 4cbd
00000220: 7a0c babc 1c40 013d d6c6 e23c 083b 13bd
00000230: 294b 633d 41fc 78bd c650 d23c 2681 8cbc
00000240: c6fd 19bc 1f97 433d a556 bebb dcbc f3bb
00000250: 6717 5bbc 709b efbc 106c bfbd f6f3 9a3c
00000260: 1ad9 f13b 8d12 7e3d f04e a0bc 7a74 4dbc
00000270: c954 a93c c191 dc3c 9618 46bd 6f68 6cbd
00000280: 9d9c 42bc 281c 67bd 1563 2dbc ece2 45bc
00000290: c910 0a3d 6108 a8bd 217f 903c a8b3 edbc
000002a0: 2d79 3a3c 1a24 a8bc 0122 7fbd f090 453c
000002b0: fb48 7bbb 7664 a6bb 2c79 8fbd 9e62 273d
000002c0: 4f8e d83b e591 473d 9114 86bd bd8d 2fbd
000002d0: 01f3 b13c 894e 9abc 5226 85bd 92bc 1e3d
000002e0: 887c 993d 30d7 653c 65fb 16bd f4dd 383e
000002f0: abd0 38bc 32c0 993c 8dc4 273c 9731 b4bd
00000300: 36e0 d23d 58b9 c3bd cc2b c73d 507d ad3d
00000310: 1c04 383b 691a 2c3b daab c33c b6f5 923d
00000320: 8517 123d 916b 793d 59c2 5abc f133 413c
00000330: f61c d23c bbef f33c d401 0a3d 99ee 22bc
00000340: 5465 603c d3cb 72bb de7b 33ba 2bff 6ebc
00000350: 6a3c 763d 1dc3 2a3c b46b b1bc ce63 1abb
00000360: 9867 753c fd22 fe3c 5373 a7bc 400a 12bd
00000370: 9925 f63c 173b d63c 1a9d b33d e043 09bd
00000380: dce4 5c3c eb02 ac3d e958 27bd bd1c 74bd
00000390: 1cf2 4e3d 5b56 6fbd 8459 68bc 6cd4 b43a
000003a0: c0d8 e03c 039c 4dbd 7363 383c 1065 ea3b
000003b0: 82ab 98bc 88a0 953d 0fe1 463d cc43 303d
000003c0: 419e 633d 78b7 8dbb 2f6a 473c fe76 2fbd
000003d0: cd10 453d 7482 103d 5759 233d be29 bc3c
000003e0: 206e 783d 8833 403d ff23 b0bc 80a9 1a3d
000003f0: a0fb 39bd 3df6 873b 993f 45bd 64ad 6e3c

first_part.0.bias f4 [56]
-0.0024316553 -0.0025916575 -8.6594766e-05 -0.001835673 0.0046035945 -0.007241126 -0.0016652538 0.007713409
-0.0059461743 -0.004738135 -0.0034818067 0.00040895818 0.0138782365 0.0063650995 0.029988023 -0.006499731
0.007607326 -0.0077541047 0.007604093 -0.019651674 0.0010395028 -0.00086952775 -0.0045607598 -0.006982122
-0.010163489 0.0009351157 -0.004462282 0.0044256854 -0.014259254 0.0048117205 -0.0014347403 -0.007202593
-0.0019664858 -0.0031761448 0.0029393684 0.011614853 0.00036490487 0.0030350904 0.0013914229 0.01822655
0.063319 -0.006219972 0.005075133 -0.033131614 -0.004132954 0.002998782 -0.008255394 -0.002136014
-0.09628267 0.014528806 -0.013664547 0.020625459 -0.0036987986 0.0040682396 -0.006112747 0.03539107
00000000: 685c 1fbb ccd8 29bb 369a b5b8 f79a f0ba
00000010: c0d9 963b f846 edbb a544 daba c4c0 fc3b
00000020: 20d8 c2bb 5b42 9bbb 062f 64bb 7069 d639
00000030: 8b61 633c 5392 d03b 71a9 f53c b2fb d4bb
00000040: e046 f93b 2516 febb c12b f93b 8cfc a0bc
00000050: ed3f 883a 05f1 63ba 6d72 95bb 49ca e4bb
00000060: c384 26bc 8d22 753a 5638 92bb 5705 913b
00000070: a59f 69bc a3ab 9d3b e50d bcba bb03 ecbb
00000080: 28e0 00bb de26 50bb 6ba2 403b 394c 3e3c
00000090: b450 bf39 5ee8 463b 6860 b63a d94f 953c
000000a0: 64ad 813d e8d0 cbbb 4d4d a63b 04b5 07bd
000000b0: bb6d 87bb 3787 443b a241 07bc 5efc 0bbb
000000c0: d92f c5bd 3b0a 6e3c 44e1 5fbc b9f6 a83c
000000d0: 8b67 72bb de4e 853b 704d c8bb 3af6 103d

first_part.1.weight f4 [56]
0.24339622 0.25547436 0.25870144 0.26431382 0.25202587 0.26506123 0.25289205 0.28825757
0.5066848 0.24793926 1.023889 0.2509224 0.633572 0.25411794 0.2372911 0.08253238
0.3341835 0.28087425 0.25381732 0.2240446 0.2569654 1.0518955 0.25076607 0.24420351
0.04505491 0.24992532 0.61541903 0.25262165 0.29550117 0.272958 0.24806926 0.24866925
0.6808518 0.30069238 0.2487192 0.25308543 0.2687022 0.15139864 0.27255556 0.25130844
0.47473192 0.26605973 0.2548666 0.33006015 0.65323514 0.23766498 1.0119679 0.24943477
0.5379826 0.2432329 1.0773848 0.24917586 0.22323124 0.20743486 0.2691219 0.25852692
00000000: dc3c 793e 89cd 823e 8474 843e 2454 873e
00000010: 8909 813e 1bb6 873e 117b 813e 7f96 933e
00000020: 18b6 013f cae3 7d3e cb0e 833f e778 803e
00000030: c631 223f bf1b 823e 70fc 723e bd06 a93d
00000040: 1a1a ab3e c0ce 8f3e 58f4 813e f36b 653e
00000050: f890 833e 83a4 863f 6964 803e 7c10 7a3e
00000060: 7f8b 383d 6cec 7f3e 1a8c 1d3f a057 813e
00000070: ee4b 973e 27c1 8b3e de05 7e3e 27a3 7e3e
00000080: 4e4c 2e3f 5af4 993e 3fb0 7e3e 6a94 813e
00000090: 5693 893e 3f08 1b3e 678c 8b3e 80ab 803e
000000a0: 1010 f33e fb38 883e e07d 823e a5fd a83e
000000b0: 6b3a 273f 735e 733e 2a88 813f d46b 7f3e
000000c0: 3ab9 093f 0c12 793e bfe7 893f f527 7f3e
000000d0: bb96 643e ce69 543e 58ca 893e a45d 843e

mid_part.0.weight f4 [12, 56, 1, 1]
0.50887483 0.21448751 -0.7595491 0.24460255 0.39140874 0.32294825 -0.08392311 0.5077493
0.16619 -1.180162 0.5074759 -0.07259181 -0.54229146 1.0618395 0.42547476 0.39111152
0.093888186 0.06946891 0.5531066 -0.24177407 0.010467937 0.70524335 -0.3664234 -0.4594732
-0.0737711 -0.0766628 0.41614026 -0.7227059 0.2679153 0.37763357 0.04501382 0.3612694
0.5395019 0.13576107 -0.5720981 -0.6859143 -0.050667115 -0.047585692 -0.2425267 0.37046278
-0.08384586 0.5012775 -0.38844967 -0.1258785 -0.12835965 -0.15227775 -0.114322744 -0.60686153
-0.16069068 -0.58643293 -0.101568334 -0.14464572 -0.67566484 0.14048314 -0.29861438 -0.17868853
-0.34586495 -0.9673006 0.505973 0.012043591 0.021784205 0.803875 0.747998 0.51344436
0.015436538 -0.09394874 -0.063483134 -0.4900589 0.16858403 0.19163898 -0.62896794 0.11821322
-0.55724484 0.25480163 0.59053904 -0.10786366 0.86020666 -0.26823065 0.09660292 -0.36861026
-0.38126206 -0.0887925 0.072872624 -0.53928536 0.5849049 0.8061296 -0.17496815 0.41547135
0.16284491 -0.40177473 -0.11907919 -0.15286657 0.22687715 0.20879035 -0.67647314 -0.2652287
0.2269205 0.7060476 -0.28021225 0.8559666 0.7282479 0.10638794 0.44479132 0.08404731
0.33060846 -0.13521852 0.8370718 -0.52557766 0.0107774995 -0.21603785 0.66798687 -0.4417521
0.279411 -0.61219454 -0.26884872 -0.40008527 -0.079170704 0.61060005 -0.120593116 -0.051614214
0.6520232 0.7921217 0.10245197 0.8187876 -0.43033287 -0.15098162 -0.103626415 0.40826702
-0.009457579 -0.14753704 0.47890544 0.372179 -0.5375878 0.23281386 -0.13059627 -0.30635032
0.41269225 -0.3343414 -0.15691495 -0.25630537 -0.49143133 0.43402022 0.018292502 -0.15336278
0.49212834 0.70238185 0.6373465 0.38199636 0.32343587 0.31198826 -0.4680773 0.112130776
-0.02306318 0.1272099 -0.21297078 -0.005430887 0.1388607 0.41467634 0.24311726 0.4843716
-0.012160676 0.600828 0.21741241 -0.5723911 0.021784194 0.4348808 -0.35126057 -0.32227984
0.055508707 0.2780092 -0.13749611 0.15712456 0.2540257 -0.028764911 -0.15426342 0.31115365
-0.5721939 -0.3874982 0.5491247 -0.35570315 0.35248208 -0.48601577 0.62498564 -0.06982608
0.13932829 0.22176746 -0.014377506 0.8551312 -0.47595456 0.6262948 -0.33499062 -0.36226577
0.4729317 0.067374006 -0.44771984 0.95412546 0.12968554 0.42837515 -0.03737818 -0.09467482
-0.5216857 0.20725013 -0.13961862 0.4679465 0.12722753 -0.120901905 -0.024621291 0.21280979
-0.0683178 1.0610267 0.77425474 0.6755047 -0.9638978 -0.23030339 0.46408212 -0.09210209
0.38072285 0.5766744 -0.27466142 -0.3870442 -0.29459864 0.46307743 -0.20797777 0.5128337
-0.26447576 0.103565484 0.11994929 0.072305284 -0.17369507 -0.3520593 -0.19308898 0.5411876
0.47470668 -0.28313893 -0.15767042 0.020704683 -1.3806047 0.78890234 0.8149146 -0.06971785
0.3530337 -0.18392263 0.3338351 -0.38784012 0.22085214 0.2758292 0.36875722 0.035182744
-0.105903365 -0.10217346 0.5296178 0.238447 -0.6870873 -0.4420248 0.089956656 0.21875489
00000000: 9f45 023f 9da2 5b3e cf71 42bf 1779 7a3e
00000010: ba66 c83e 7959 a53e e1df abbd dcfb 013f
00000020: b62d 2a3e 8c0f 97bf f1e9 013f 04ab 94bd
00000030: 9dd3 0abf 5bea 873f d4d7 d93e c53f c83e
00000040: 7348 c03d b745 8e3d 6598 0d3f 9f93 77be
00000050: b681 2b3c d48a 343f d99b bbbe 1240 ebbe
00000060: 4d15 97bd 6301 9dbd 5610 d53e 4103 39bf
00000070: 322c 893e 3059 c13e 6960 383d 4ef8 b83e
00000080: cc1c 0a3f f304 0b3e 0575 12bf 1498 2fbf
00000090: 5288 4fbd 37e9 42bd eb58 78be 4cad bd3e
000000a0: 61b7 abbd b953 003f e0e2 c6be 4be6 00be
000000b0: b670 03be b3ee 1bbe 0b22 eabd 475b 1bbf
000000c0: 198c 24be 7820 16bf 0f03 d0bd 021e 14be
000000d0: 5ff8 2cbf d0da 0f3e fce3 98be 20fa 36be
000000e0: 3615 b1be 03a1 77bf 7287 013f 7b52 453c
000000f0: ca74 b23c c1ca 4d3f cc7c 3f3f 1771 033f
00000100: 88e9 7c3c 3268 c0bd 7203 82bd 00e9 fabe
00000110: 4ba1 2c3e 023d 443e 0b04 21bf c619 f23d
00000120: 99a7 0ebf 5c75 823e 912d 173f 9fe7 dcbd
00000130: 8136 5c3f 8755 89be c0d7 c53d 7cba bcbe
00000140: c834 c3be d8d8 b5bd 3e3e 953d 9b0e 0abf
00000150: 54bc 153f 825e 4e3f da2a 33be a9b8 d43e
00000160: d1c0 263e 6bb5 cdbe cadf f3bd 0e89 1cbe
00000170: 7c52 683e 23cd 553e 582d 2dbf 0ecc 87be
00000180: d95d 683e 89bf 343f fb77 8fbe a120 5b3f
00000190: 746e 3a3f ece1 d93d b0bb e33e ff20 ac3d
000001a0: 8345 a93e b976 0abe 564a 563f 428c 06bf
000001b0: 1c94 303c 0739 5dbe 3001 2b3f 552d e2be
000001c0: f50e 8f3e c8b8 1cbf 8aa6 89be fad7 ccbe
000001d0: 4024 a2bd 4950 1c3f 86f9 f6bd 6d69 53bd
000001e0: feea 263f 7dc8 4a3f 57d2 d13d 109c 513f
000001f0: 9754 dcbe ed9a 1abe 163a d4bd 6008 d13e
00000200: f6f3 1abc f313 17be 1833 f53e 3f8e be3e
00000210: 5b9f 09bf c266 6e3e 07bb 05be f3d9 9cbe
00000220: 664c d33e cc2e abbe 50ae 20be 753a 83be
00000230: e39c fbbe e637 de3e 28da 953c 220b 1dbe
00000240: 3ff8 fb3e 4ccf 333f 2429 233f 0795 c33e
00000250: 6399 a53e edbc 9f3e d4a7 efbe d2a4 e53d
00000260: feee bcbc 5043 023e 0315 5abe 95f5 b1bb
00000270: 8031 0e3e 7550 d43e bbf3 783e 8eff f73e
00000280: 923d 47bc ddcf 193f 5ca1 5e3e 3988 12bf
00000290: c474 b23c b2a8 de3e 6dd8 b3be dd01 a5be
000002a0: 195d 633d 3957 8e3e c8cb 0cbe 43e5 203e
000002b0: a80f 823e 64a4 ebbc 3bf7 1dbe 884f 9f3e
000002c0: 4d7b 12bf 2a66 c6be 7093 0c3f b91e b6be
000002d0: 8878 b43e 0fd7 f8be 0fff 1f3f fa00 8fbd
000002e0: 13ac 0e3e 0217 633e a28f 6bbc e1e9 5a3f
000002f0: 51b0 f3be db54 203f e483 abbe e67a b9be
00000300: 1b24 f23e 62fb 893d 893b e5be 9141 743f
00000310: 49cc 043e fd53 db3e dd19 19bd dfe4 c1bd
00000320: 328d 05bf 6139 543e 2ff8 0ebe af96 ef3e
00000330: ef47 023e 6b9b f7bd 97b2 c9bc cfea 593e
00000340: 34ea 8bbd b9cf 873f 8f35 463f e0ed 2c3f
00000350: 02c2 76bf a7d4 6bbe 2c9c ed3e 05a0 bcbd
00000360: 1bee c23e efa0 133f 6ca0 8cbe a82a c6be
00000370: a2d5 96be 7c18 ed3e 20f8 54be 1249 033f
00000380: 5e69 87be 241a d43d f9a7 f53d cb14 943d
00000390: 1fdd 31be 1e41 b4be 1eb9 45be 458b 0a3f
000003a0: c10c f33e 96f7 90be 5b74 21be de9c a93c
000003b0: a8b7 b0bf 81f5 493f 3e9e 503f 3bc8 8ebd
000003c0: d5c0 b43e 3756 3cbe 6fec aa3e fb92 c6be
000003d0: 1027 623e 7c39 8d3e bfcd bc3e c81b 103d
000003e0: dde3 d8bd 5240 d1bd 0895 073f 732b 743e
000003f0: f4e4 2fbf 1351 e2be 323b b83d 4801 603e

mid_part.0.bias f4 [12]
0.003925689 -0.035115633 -0.0024291377 -0.0009979164 0.0630427 0.0052646846 0.024761548 0.02460234
-0.015654365 -2.3857345e-05 -0.0031330155 0.030274337
00000000: 11a3 803b 69d5 0fbd 2b32 1fbb 85cc 82ba
00000010: 881c 813d 6083 ac3b bbd8 ca3c d98a c93c
00000020: 953d 80bc 4221 c8b7 4753 4dbb e301 f83c

mid_part.1.weight f4 [12]
0.25730345 0.37556309 0.24992615 0.2547855 0.3321413 0.23758167 0.23790558 0.47345212
0.29410425 0.41212812 0.24448727 0.2754975
00000000: 47bd 833e ce49 c03e a4ec 7f3e 3f73 823e
00000010: 6d0e aa3e 9c48 733e 859d 733e 5168 f23e
00000020: d594 963e 7502 d33e df5a 7a3e 020e 8d3e

mid_part.2.weight f4 [12, 12, 3, 3]
0.24840778 -0.019058498 0.014845117 -0.25607875 0.107380904 -0.11506394 -0.07111809 -0.10998878
0.072640195 0.18335353 -0.21960375 0.21054775 0.03917722 -0.12548175 -0.1195048 -0.07814625
-0.15877779 0.03516358 0.09106692 0.15850107 0.05894897 0.16098374 0.007257185 -0.026803104
0.26125327 0.06313065 -0.071851395 0.0010796131 -0.07342918 0.11850412 0.14491971 -0.31767562
-0.26092532 -0.12837788 -0.02998839 0.15505587 -0.17874965 -0.112532884 -0.09164952 -0.015416397
0.24747385 -0.23777644 0.028718403 -0.011589255 0.04397969 0.21709962 0.044864643 0.21362646
-0.05142964 -0.10614974 0.07867155 -0.09259659 0.06921834 -0.0992948 -0.17389655 0.0059652785
0.003788466 0.22169146 -0.08528859 0.02673114 -0.09750647 0.11597632 0.15681934 0.13192144
-0.06522416 0.24112807 0.007367116 0.013982132 -0.0010608148 0.0047037643 -0.23260832 -0.20350745
-0.016780907 -0.018016107 0.04076432 -0.19253866 0.28208143 -0.06791538 -0.06443425 -0.059574064
0.027413748 -0.17511484 0.020327946 0.04516529 0.048340537 0.11591134 0.13651828 -0.113102406
-0.036400985 0.025932802 0.07132125 -0.0022881394 0.2362037 -0.11658648 -0.049297597 -0.06973454
0.03962823 0.10595409 0.033713695 0.037532534 -0.06500728 -0.09946181 -0.03067413 0.087359585
0.02809723 0.074819796 0.04431386 0.007607738 0.0075277174 -0.0394067 0.0042535355 0.013740394
0.06907607 -0.24629202 0.2158048 0.0716462 0.13665685 0.14745475 0.09585815 -0.005820475
0.2322142 0.11937646 0.012621335 0.055698913 -0.110916704 0.1513432 -0.02949295 -0.32508233
-0.1650942 0.020040093 0.05830479 -0.2976184 -0.11078401 0.09169411 -0.09901681 0.034397747
0.25799307 -0.10278558 -0.022430826 -0.07835316 -0.027201608 -0.11535599 0.3293543 -0.11931629
0.23330693 -0.160983 -0.054257177 -0.18629389 -0.15255919 0.030858245 -0.078765504 -0.096102625
-0.00045066365 -0.116829276 0.041761782 -0.26355648 0.010373135 0.101412766 0.09312311 0.13828345
-0.06452945 -0.037161097 0.19583493 -0.20697637 -0.16163424 -0.014347067 0.21458918 -0.059163302
-0.31028742 -0.02943882 0.110770166 -0.17630528 0.16375272 -0.10559235 -0.041281752 0.23000781
0.16044483 -0.057403076 -0.11836282 -0.11306142 0.09518374 -0.108266935 0.10086198 -0.01987367
0.087234214 -0.2925019 0.04675335 -0.07708273 -0.06977099 -0.11894594 -0.08970822 -0.06967345
0.007445652 -0.0654912 -0.010689206 -0.17476563 -0.043502327 0.015577018 -0.07624691 0.13210219
0.038896985 0.24664195 -0.050823208 -0.13573156 -0.13877475 0.033132963 0.12006568 0.28054506
0.19152367 0.07213888 0.10460269 0.10309883 0.15572967 -0.0071867174 0.11087033 0.14703214
0.07537443 -0.16095756 -0.032029055 -0.025846405 0.1878916 0.17806952 0.1480439 -0.019967617
0.2839102 -0.0811116 -0.10809326 0.0684621 0.19655943 -0.07530362 -0.016770411 -0.060317557
0.10261085 0.09657062 0.14516418 -0.26614013 -0.20217629 0.06284828 -0.1275808 -0.0090860855
0.112973966 0.027805055 0.035208903 -0.12288944 -0.0022235543 -0.057820126 0.2167343 0.20119129
0.17946282 0.035373155 0.13738428 0.034201384 0.3316422 -0.21897274 -0.085500725 0.035809826
00000000: 9c5e 7e3e 9120 9cbc ef38 733c c11c 83be
00000010: 85ea db3d a5a6 ebbd 5ca6 91bd cc41 e1bd
00000020: 62c4 943d 07c1 3b3e cedf 60be d499 573e
00000030: 4b78 203d 4a7e 00be efbe f4bd 240b a0bd
00000040: a596 22be b007 103d 4b81 ba3d 1b4e 223e
00000050: 7a74 713d ecd8 243e aecd ed3b 2f92 dbbc
00000060: fdc2 853e a44a 813d d326 93bd ce81 8d3a
00000070: 0a62 96bd 4ab2 f23d d565 143e 61a6 a2be
00000080: 0198 85be 7e75 03be 36aa f5bc f7c6 1e3e
00000090: 260a 37be a477 e6bd beb2 bbbd 0e95 7cbc
000000a0: c969 7d3e ab7b 73be db42 eb3c dce0 3dbc
000000b0: 0c24 343d 5d4f 5e3e fdc3 373d e5c0 5a3e
000000c0: e3a7 52bd 0965 d9bd 8d1e a13d 48a3 bdbd
000000d0: 58c2 8d3d 125b cbbd f011 32be 6278 c33b
000000e0: ea47 783b 1603 633e c9ab aebd 44fb da3c
000000f0: 79b1 c7bd fe84 ed3d 4095 203e 6a16 073e
00000100: 3f94 85bd 47ea 763e d967 f13b 5015 653c
00000110: 0a0b 8bba 0922 9a3b e030 6ebe 4264 50be
00000120: 1d78 89bc 8496 93bc 7df8 263d db28 45be
00000130: fa6c 903e 3817 8bbd 1bf6 83bd ef03 74bd
00000140: cc92 e03c 4e51 33be cb86 a63c 3dff 383d
00000150: ba00 463d ed62 ed3d 73cb 0b3e 3ca2 e7bd
00000160: 3319 15bd 0771 d43c e010 923d 9cf4 15bb
00000170: 62df 713e e4c4 eebd 47ec 49bd fcd0 8ebd
00000180: 3651 223d 75fe d83d 5f17 0a3d b7bb 193d
00000190: 8922 85bd a2b2 cbbd 5048 fbbc 95e9 b23d
000001a0: 292c e63c 1f3b 993d 7382 353d 554a f93b
000001b0: 12ab f63b eb68 21bd 3e61 8b3b 641f 613c
000001c0: c177 8d3d fa33 7cbe effb 5c3e 3ebb 923d
000001d0: c6ef 0b3e 61fe 163e 4751 c43d afb9 bebb
000001e0: 8fc9 6d3e a57b f43d b7c9 4e3c 8b24 643d
000001f0: 4c28 e3bd b6f9 1a3e 339b f1bc 3171 a6be
00000200: 740e 29be 1f2b a43c 01d1 6e3d 7061 98be
00000210: bae2 e2bd 1fca bb3d 53c9 cabd a7e4 0c3d
00000220: ab17 843e 3f81 d2bd dac0 b7bc 9f77 a0bd
00000230: e8d5 debc c33f ecbd 20a1 a83e 195c f4bd
00000240: 03e8 6e3e bad8 24be c63c 5ebd d3c3 3ebe
00000250: 7a38 1cbe 6eca fc3c cf4f a1bd 74d1 c4bd
00000260: 0d47 ecb9 3044 efbd 670e 2b3d e0f0 86be
00000270: 15f4 293c 7fb1 cf3d 54b7 be3d 2d9a 0d3e
00000280: 0428 84bd 3c36 18bd f488 483e 9df1 53be
00000290: 7283 25be f60f 6bbc 44bd 5b3e 3855 72bd
000002a0: fedd 9ebe ae29 f1bc 78db e23d 5f89 34be
000002b0: cbae 273e cd40 d8bd 0e17 29bd 2b87 6b3e
000002c0: a64b 243e 7d1f 6bbd 3568 f2bd bf8c e7bd
000002d0: b1ef c23d 0ebb ddbd ba90 ce3d 1bce a2bc
000002e0: daa7 b23d cfc2 95be 7180 3f3d 8ddd 9dbd
000002f0: 18e4 8ebd ee99 f3bd f1b8 b7bd f4b0 8ebd
00000300: a8fa f33b 4020 86bd c821 2fbc c3f5 32be
00000310: 7f2f 32bd c036 7f3c 5727 9cbd cc45 073e
00000320: 7252 1f3d b58f 7c3e ff2b 50bd 37fd 0abe
00000330: f81a 0ebe 6eb6 073d ffe4 f53d 9aa3 8f3e
00000340: c81e 443e 8dbd 933d ef39 d63d 7b25 d33d
00000350: 9977 1f3e 8e7e ebbb fc0f e33d 988f 163e
00000360: e95d 9a3d 0fd2 24be e630 03bd d7bb d3bc
00000370: a866 403e db57 363e d298 173e 2193 a3bc
00000380: ae5c 913e d71d a6bd 0060 ddbd dc35 8c3d
00000390: e046 493e c938 9abd 1a62 89bc 8b0f 77bd
000003a0: a325 d23d d1c6 c53d eba5 143e 8543 88be
000003b0: 4d07 4fbe 99b6 803d 8ba4 02be cedd 14bc
000003c0: e55e e73d 6dc7 e33c 3637 103d 75ad fbbd
000003d0: 0db9 11bb ccd4 6cbd 99ef 5d3e 1705 4e3e
000003e0: 1ac5 373e 71e3 103d 77ae 0c3e c016 0c3d
000003f0: 02cd a93e 643a 60be 011b afbd 53ad 123d

mid_part.2.bias f4 [12]
0.0031665498 0.0045457273 -0.0019528518 0.0041154698 0.03140472 -0.001811851 -0.0046858224 0.00096386584
0.014746452 0.00037354336 0.014903603 0.027538514
00000000: e485 4f3b 53f4 943b d5f6 ffba 10db 863b
00000010: 3ca2 003d a27b edba 878b 99bb f1ab 7c3a
00000020: 1a9b 713c 24d8 c339 3e2e 743c 7398 e13c

mid_part.3.weight f4 [12]
-0.3363705 0.24967764 0.26281634 0.6404824 0.2954665 0.2542538 0.1640634 0.15216404
0.23716655 0.34500623 0.25748622 0.24329399
00000000: c138 acbe 7fab 7f3e dd8f 863e a8f6 233f
00000010: 6347 973e 8e2d 823e 3c00 283e e4d0 1b3e
00000020: cadb 723e a8a4 b03e 3cd5 833e 0f22 793e

mid_part.4.weight f4 [12, 12, 3, 3]
0.038227577 -0.074084245 0.218826 0.2874943 -0.02750136 0.13466384 -0.12846686 0.061963372
-0.07908999 -0.21765335 -0.12205961 0.33271214 -0.058543283 0.14634019 -0.15734458 -0.11997729
0.0064129937 0.22024271 -0.14130907 0.11790751 0.017829368 0.1299206 -0.026318448 -0.0843156
-0.06442376 0.15118746 0.17961384 -0.026159404 -0.32826614 0.029623268 0.08822012 -0.10724354
-0.29567963 -0.038586203 0.19896561 0.11251774 -0.073514946 0.20816182 0.09374085 -0.2227917
0.28778213 0.050563477 -0.26346424 0.010493418 0.12165927 -0.027289148 -0.08696391 0.11981734
-0.25159377 0.06844107 -0.35686016 0.05644852 0.24883725 -0.15330675 0.11120291 -0.23053357
-0.10960594 0.11203763 -0.008028168 -0.13038088 -0.027890157 -0.2576116 0.26945558 0.035060808
-0.1231743 0.16115296 -0.019490724 0.043933846 0.13262527 -0.24549115 -0.068444066 -0.071950994
-0.02275225 -0.004631 -0.0903102 -0.17342147 -0.0042570876 -0.02269484 0.06344259 -0.049954772
0.2002999 0.11039484 -0.009075979 0.21941619 0.122022875 0.16088042 -0.029602135 0.086957574
0.17608073 -0.331114 -0.0007116948 0.1543782 -0.06588825 0.13925353 -0.18349904 0.04526357
-0.2166291 -0.043073613 0.19099486 0.1739652 0.056703996 0.15026607 -0.29638913 0.17591716
-0.38398823 0.017068982 0.24046299 0.26105568 0.11734776 -0.22025244 -0.045205913 0.2761902
0.08667561 0.09960306 0.28789693 -0.23938437 0.033769462 -0.021774955 0.061035335 -0.038049195
0.29028907 0.05928999 0.32553235 -0.2435341 -0.25327414 -0.081762716 -0.20895025 0.11330614
-0.054869093 -0.46466956 -0.17202175 -0.047819253 -0.5413086 -0.18485038 0.09718009 0.0202962
0.17401896 0.23999308 0.17842503 0.32383326 0.05868869 0.36858174 0.35114595 -0.094580665
-0.03031183 -0.032627366 -0.03418946 -0.19505586 -0.019803684 -0.0031075 -0.34551138 -0.056667656
-0.035404257 -0.029803408 -0.1881639 0.28254676 -0.24306424 -0.044483908 0.13836977 -0.12676725
0.03441234 -0.067736566 0.27010673 -0.03725497 -0.04307923 0.3727865 -0.08043294 0.027863529
0.12682131 -0.037832446 -0.24973473 0.34178627 -0.24680874 -0.24085598 -0.046207853 -0.00037839264
0.07467455 0.16847047 0.13583992 0.42728624 -0.07405106 -0.2655018 -0.1754998 -0.025664832
-0.12811732 0.06986695 0.2007056 0.2716259 0.107421644 -0.4147436 0.12789579 -0.15177357
0.19163348 0.22182228 -0.03878785 0.034435242 -0.014923974 0.10388481 -0.10776949 -0.3617749
-0.008480169 0.41485348 0.38712496 0.13259575 -0.38540974 -0.23214501 0.14396995 -0.23587327
-0.25969046 -0.2908213 -0.19714919 0.054597527 -0.0069863936 0.59935266 0.36600697 0.27124983
0.19355787 -0.1982456 0.15107666 0.066393256 0.033802334 -0.014684284 -0.16418217 0.30351248
0.032216985 0.21889958 0.017976787 0.17236964 -0.015880167 0.03108058 0.10693811 0.0013676411
0.078714125 0.017997244 -0.110632576 0.056728248 0.17882255 -0.035082035 0.1729312 0.1673937
0.04487525 -0.0085079735 -0.18769631 -0.23313393 -0.14984438 -0.053898446 0.07683993 0.14654236
0.11789672 0.20084617 -0.108169846 0.051331926 -0.12370427 -0.2783794 -0.14444846 -0.11459401
00000000: 8594 1c3d 7bb9 97bd ec13 603e 7432 933e
00000010: 884a e1bc 51e5 093e d18c 03be 4ecd 7d3d
00000020: eff9 a1bd 85e0 5ebe 64fa f9bd 3f59 aa3e
00000030: 15cb 6fbd 34da 153e f01e 21be a7b6 f5bd
00000040: 1724 d23b 4e87 613e 53b3 10be 7e79 f13d
00000050: e50e 923c e809 053e c999 d7bc a8ad acbd
00000060: 9bf0 83bd e3d0 1a3e b1ec 373e 3f4c d6bc
00000070: 8012 a8be 7fac f23c c0ac b43d 80a2 dbbd
00000080: 5263 97be 910c 1ebd a4bd 4b3e b36f e63d
00000090: 018f 96bd 5f28 553e 34fb bf3d 8223 64be
000000a0: 2e58 933e a61b 4f3d c9e4 86be 96ec 2b3c
000000b0: 7f28 f93d 7e8d dfbc 221a b2bd cb62 f53d
000000c0: e6d0 80be d52a 8c3d 60b6 b6be 9036 673d
000000d0: 31cf 7e3e 72fc 1cbe 5abe e33d fe10 6cbe
000000e0: 1479 e0bd fc73 e53d 9488 03bc 9182 05be
000000f0: e679 e4bc abe5 83be 15f6 893e ec9b 0f3d
00000100: cf42 fcbd 4805 253e 03ab 9fbc faf3 333d
00000110: ebce 073e 0862 7bbe 672c 8cbd 0b5b 93bd
00000120: ed62 babc a5bf 97bb 8ef4 b8bd 6695 31be
00000130: 0a7f 8bbb 87ea b9bc 30ee 813d 609d 4cbd
00000140: 6b1b 4d3e b116 e23d 6ab3 14bc a3ae 603e
00000150: 21e7 f93d d6bd 243e 2d80 f2bc d016 b23d
00000160: 824e 343e c687 a9be 0891 3aba 5215 1e3e
00000170: 6bf0 86bd 7a98 0e3e 2ce7 3bbe 4b66 393d
00000180: 05d4 5dbe f56d 30bd 2894 433e ef23 323e
00000190: 7342 683d 59df 193e 51c0 97be a123 343e
000001a0: 1b9a c4be 40d4 8b3c ee3b 763e 17a9 853e
000001b0: 0654 f03d db89 61be d629 39bd cd68 8d3e
000001c0: fb82 b13d b0fc cb3d 3a67 933e 2d21 75be
000001d0: d951 0a3d 6461 b2bc 3000 7a3d 79d9 1bbd
000001e0: c5a0 943e 10da 723d 2dac a63e 0161 79be
000001f0: 26ad 81be 3673 a7bd 0ef7 55be 0d0d e83d
00000200: 6abe 60bd 2be9 edbe 7826 30be 1fde 43bd
00000210: 3393 0abf 6b49 3dbe 5b06 c73d 3744 a63c
00000220: 0732 323e bfc0 753e 0db5 363e 79cd a53e
00000230: 8d63 703d bfb6 bc3e 67c9 b33e 82b3 c1bd
00000240: 8450 f8bc 46a4 05bd 3f0a 0cbd b9bc 47be
00000250: 563b a2bc 33a7 4bbb dee6 b0be 581c 68bd
00000260: 0e04 11bd 4726 f4bc 0aae 40be f8a9 903e
00000270: d5e5 78be c234 36bd ceb0 0d3e 46cf 01be
00000280: f4f3 0c3d 78b9 8abd 6e4b 8a3e ab98 18bd
00000290: d973 30bd dfdd be3e 06ba a4bd 0e42 e43c
000002a0: 72dd 013e 32f6 1abd 76ba 7fbe 9cfe ae3e
000002b0: 6ebb 7cbe f3a2 76be 7244 3dbd 0063 c6b9
000002c0: f8ee 983d 8683 2c3e 9f19 0b3e 43c5 da3e
000002d0: 15a8 97bd daef 87be 38b6 33be 0e3f d2bc
000002e0: 3031 03be 6716 8f3d c585 4d3e 8d12 8b3e
000002f0: e1ff db3d 4659 d4be 1df7 023e 886a 1bbe
00000300: 913b 443e 6125 633e 02e0 1ebd f80b 0d3d
00000310: af83 74bc 8fc1 d43d 40b6 dcbd 8f3a b9be
00000320: 68f0 0abc ad67 d43e 3e35 c63e 2ec7 073e
00000330: 6d54 c5be 6cb7 6dbe dc6c 133e c388 71be
00000340: 26f6 84be 88e6 94be 7ae1 49be a8a1 5f3d
00000350: 1eee e4bb 2d6f 193f 4465 bb3e 42e1 8a3e
00000360: 0934 463e e500 4bbe d7b3 1a3e 30f9 873d
00000370: 5174 0a3d 5a96 70bc 5f1f 28be fd65 9b3e
00000380: f5f5 033d 3627 603e 0e44 933c ab81 303e
00000390: 2017 82bc b39c fe3c 5e02 db3d 6c42 b33a
000003a0: df34 a13d f56e 933c 5593 e2bd e15b 683d
000003b0: 421d 373e 2eb2 0fbd e014 313e 4169 2b3e
000003c0: 1ccf 373d 0765 0bbc 7633 40be a9ba 6ebe
000003d0: ce70 19be 9ec4 5cbd 415e 9d3d 330f 163e
000003e0: d673 f13d 9eaa 4d3e 2788 ddbd 6d41 523d
000003f0: aa58 fdbd bf87 8ebe 4cea 13be 44b0 eabd

mid_part.4.bias f4 [12]
0.016402135 0.005241801 -0.019381236 0.017489577 -0.0017475691 -0.0020659226 -0.0025062666 0.0038042096
0.015319153 0.008174954 -0.024471745 -0.008719885
00000000: c55d 863c 6ac3 ab3b 66c5 9ebc 4d46 8f3c
00000010: b00e e5ba 6e64 07bb 2d40 24bb 0c50 793b
00000020: 2ffd 7a3c 3ef0 053c f878 c8bc d9dd 0ebc

mid_part.5.weight f4 [12]
0.26626766 0.5269109 0.30701956 0.26116583 1.2932209 0.5203937 -0.014665513 0.15164924
0.7211358 0.39235735 0.4120306 0.2572383
00000000: 3c54 883e a2e3 063f ab31 9d3e 87b7 853e
00000010: 4388 a53f 8638 053f 9f47 70bc f049 1b3e
00000020: 5b9c 383f 10e3 c83e adf5 d23e bdb4 833e

mid_part.6.weight f4 [12, 12, 3, 3]
0.05675364 -0.08102343 -0.023460392 0.031717047 0.11962314 0.16828501 -0.007880737 0.08551681
0.024324369 0.048972104 0.2613424 0.19873719 0.08404676 0.20679529 0.2579248 -0.01063335
-0.2939077 0.072947994 0.09263885 -0.15480563 0.05194134 0.118309565 0.022928592 -0.07797537
-0.1877059 -0.13755056 0.16389404 0.11926195 -0.1514691 -0.18728074 -0.1042247 0.09219336
0.12828892 0.060943317 -0.3419938 -0.16976193 0.0019446564 0.16590679 -0.07427585 0.17815271
0.13052468 -0.13669047 -0.04978502 0.1880927 -0.038123056 -0.13187873 -0.4182469 0.13561769
0.21403329 -0.0025387334 0.051163618 0.093570456 0.09988582 0.19415884 0.18386513 -0.20380372
0.05252545 0.09497198 0.049235076 0.06601064 0.20191829 0.21018171 0.12045341 -0.11554901
-0.08950038 0.14828962 -0.043286216 -0.15971893 0.026667852 0.07576689 0.036658876 -0.18822776
-0.04061169 0.08928383 0.1657324 -0.037672576 0.070516564 -0.036760837 -0.07273479 -0.17354663
0.030233156 -0.02970232 0.18293528 -0.0032681522 -0.16866718 0.05815138 0.1874229 -0.2045779
-0.12551932 -0.22759445 -0.100167476 0.13258973 0.12451815 -0.054428615 -0.20257287 0.10465501
-0.07832764 0.1606871 -0.028463373 0.12417137 0.049775705 0.05285358 0.06316214 -0.11874899
-0.0152280405 0.16582376 -0.1341053 0.0020503486 0.34177372 0.12853754 0.065897524 -0.095449366
-0.20022635 0.13538833 0.118654564 0.0641967 0.01372734 -0.10685716 0.01999447 0.15424857
-0.013946672 0.095989525 0.10049887 0.20926173 -0.1127296 -0.050352283 0.11858716 0.038685806
0.02351237 0.2118441 0.031667233 0.18282391 -0.03462535 -0.028934978 0.027734766 0.11755339
0.017383331 -0.042717084 -0.12582298 0.14417233 0.023337103 -0.15617682 -0.20821452 0.06526343
0.0539797 -0.10329745 0.15742962 0.13919571 -0.059756443 -0.120587386 0.08084103 0.25254095
0.05102862 0.074895665 0.047322433 0.12254693 -0.17014217 0.014270081 -0.028549872 0.00530578
0.00321225 0.05231008 0.18013796 0.01679206 0.03666549 0.034950543 0.0974306 -0.03328635
-0.055257156 -0.08243512 -0.07572482 0.14746603 -0.016263908 0.086874336 0.03824604 0.16999327
-0.20977455 -0.030371547 -0.02657476 -0.11678319 0.18628827 -0.26035535 0.12212927 0.008060526
0.045717616 0.19311127 0.015052162 0.17851838 -0.04187045 0.10319501 0.010620768 0.047195286
0.14261045 0.22790399 -0.16588756 0.013285654 0.16099365 0.19578172 0.10888925 0.18150322
0.09732276 -0.17539653 -0.24711855 0.003258034 0.13188085 -0.115540355 0.27262262 -0.09117465
-0.017677315 -0.034232035 0.07890542 0.048173144 0.008156954 -0.25233403 -0.21032861 0.05268567
-0.26670915 -0.047512226 -0.2003337 -0.005085028 -0.107849784 -0.10248972 0.24282517 0.19426845
-0.18570256 -0.14207363 -0.174076 0.022834022 -0.11373686 0.019783491 -0.15184785 0.26514333
0.17888099 0.15524858 -0.12853101 0.14609452 0.02388349 0.07406162 -0.0014767806 -0.14196359
0.15187322 -0.14337558 -0.2871683 0.19611694 0.077228315 0.036602512 0.18508245 0.079161
-0.125733 -0.19748554 -0.11935864 0.014682408 -0.29740244 -0.18663298 0.17137592 -0.052829582
00000000: 8176 683d 9def a5bd 0230 c0bc bce9 013d
00000010: fafc f43d e852 2c3e 351e 01bc 7023 af3d
00000020: e643 c73c f996 483d acce 853e c381 4b3e
00000030: b520 ac3d 25c2 533e b80e 843e 8137 2ebc
00000040: 127b 96be c265 953d 70b9 bd3d 5e85 1ebe
00000050: 71c0 543d 494c f23d bed4 bb3c 8db1 9fbd
00000060: fa35 40be 0eda 0cbe d7d3 273e 9c3f f43d
00000070: b71a 1bbe 86c6 3fbe c273 d5bd dfcf bc3d
00000080: 2c5e 033e b39f 793d d019 afbe 12d6 2dbe
00000090: d7e3 fe3a 78e3 293e f01d 98bd aa6d 363e
000000a0: 43a8 053e 96f8 0bbe 61eb 4bbd 5f9b 403e
000000b0: ec26 1cbd 380b 07be 7524 d6be 5ddf 0a3e
000000c0: 8b2b 5b3e e160 26bb f190 513d dea1 bf3d
000000d0: f090 cc3d 93d1 463e 2447 3c3e ecb1 50be
000000e0: ed24 573d ab80 c23d b8aa 493d 9630 873d
000000f0: abc3 4e3e e039 573e 47b0 f63d f6a4 ecbd
00000100: fa4b b7bd 3cd9 173e e34c 31bd 5c8d 23be
00000110: 8a76 da3c ac2b 9b3d 9e27 163d c7be 40be
00000120: 7258 26bd 71da b63d c1b5 293e 8f4e 1abd
00000130: fd6a 903d 8892 16bd faf5 94bd 35b6 31be
00000140: 86ab f73c 4852 f3bc 6353 3b3e 7f2e 56bb
00000150: 17b7 2cbe 2430 6e3d caeb 3f3e de7c 51be
00000160: 2388 00be 850e 69be 9b24 cdbd 9ac5 073e
00000170: 5f03 ff3d 8af0 5ebd 436f 4fbe 5e55 d63d
00000180: 3e6a a0bd 298b 243e 052c e9bc 8f4d fe3d
00000190: 9ce1 4b3d ff7c 583d 275b 813d ac32 f3bd
000001a0: 087f 79bc b4cd 293e e652 09be 245f 063b
000001b0: f7fc ae3e 589f 033e 48f5 863d f57a c3bd
000001c0: 2308 4dbe 3da3 0a3e 2a01 f33d 8f79 833d
000001d0: a3e8 603c edd7 dabd 71cb a33c 56f3 1d3e
000001e0: 9580 64bc 2896 c43d 5ad2 cd3d b548 563e
000001f0: c7de e6bd 323e 4ebd d3dd f23d 0275 1e3d
00000200: 049d c03c a9ed 583e 80b5 013d 3136 3b3e
00000210: 50d3 0dbd 0c09 edbc 0534 e33c d5bf f03d
00000220: 7d67 8e3c 1cf8 2ebd bdd7 00be e9a1 133e
00000230: 742d bf3c d1ec 1fbe 3036 55be d5a8 853d
00000240: d119 5d3d 9d8d d3bd 3b35 213e 5289 0e3e
00000250: 2cc3 74bd 85f6 f6bd fb8f a53d 0c4d 813e
00000260: 6303 513d e662 993d 2bd5 413d e3f9 fa3d
00000270: c039 2ebe 0fcd 693c 6ce1 e9bc 1cdc ad3b
00000280: 9d84 523b 1843 563d 1676 383e 818f 893c
00000290: 8e2e 163d 4d28 0f3d b289 c73d 4557 08bd
000002a0: 5455 62bd bfd3 a8bd 9d15 9bbd 5601 173e
000002b0: e33b 85bc 2ceb b13d e1a7 1c3d b712 2e3e
000002c0: 24cf 56be c0cd f8bc 50b3 d9bc 062c efbd
000002d0: 5ac2 3e3e 4c4d 85be e91e fa3d 4c10 043c
000002e0: 6542 3b3d f6be 453e 589d 763c 86cd 363e
000002f0: 5980 2bbd e857 d33d bb02 2e3c d84f 413d
00000300: 7908 123e aa5f 693e 6ede 29be 12ac 593c
00000310: 85db 243e 017b 483e 5401 df3d fbdb 393e
00000320: 2851 c73d 269b 33be a50c 7dbe bd84 553b
00000330: c60b 073e 6ca0 ecbd 3195 8b3e c6b9 babd
00000340: 04d0 90bc e436 0cbd 2a99 a13d 3451 453d
00000350: bfa4 053c ed31 81be 6260 57be eecc 573d
00000360: 1a8e 88be 2e9c 42bd 4724 4dbe 4ea0 a6bb
00000370: 59e0 dcbd 21e6 d1bd 29a7 783e 4fee 463e
00000380: d028 3ebe c07b 11be fb40 32be 6a0e bb3c
00000390: dfee e8bd fd10 a23c 017e 1bbe dec0 873e
000003a0: 942c 373e 7cf9 1e3e a29d 03be cd99 153e
000003b0: 4fa7 c33c 9ead 973d 8990 c1ba e75e 11be
000003c0: a784 1b3e 0cd1 12be b907 93be e1d2 483e
000003d0: e129 9e3d 84ec 153d 4186 3d3e 2a1f a23d
000003e0: 27c0 00be a639 4abe 4d72 f4bd 7c8e 703c
000003f0: 2245 98be b71c 3fbe 2b7d 2f3e d563 58bd

mid_part.6.bias f4 [12]
0.012231869 0.006335128 0.0021820264 0.007396634 0.009543796 0.00897461 0.01708821 0.012490402
0.000739411 0.0005262671 0.011996646 -0.045968376
00000000: 2d68 483c e896 cf3b 5400 0f3b 775f f23b
00000010: 955d 1c3c 3e0a 133c 93fc 8b3c 8ba4 4c3c
00000020: 08d5 413a 30f5 093a 958d 443c 5649 3cbd

mid_part.7.weight f4 [12]
0.24191125 0.28563917 0.27753296 0.27887812 -0.01479987 0.508816 0.19577323 -0.00415102
0.25195476 0.23064244 -0.1517312 0.23063076
00000000: 95b7 773e 4c3f 923e cd18 8e3e 1dc9 8e3e
00000010: 277b 72bc c441 023f c778 483e 4805 88bb
00000020: 3700 813e 882d 6c3e 6c5f 1bbe 782a 6c3e

mid_part.8.weight f4 [12, 12, 3, 3]
0.10348245 -0.115507536 -0.19273627 -0.07890811 0.22834982 0.13362786 -0.29572272 0.1406111
-0.064685665 -0.05215766 0.03457564 0.06529947 0.09333006 0.301854 0.038586915 0.1944549
0.058662836 -0.057848703 0.08098553 -0.03210304 -0.0073082536 -0.21601205 -0.039937887 -0.0147207
0.04594612 -0.17525476 -0.011878334 -0.05736383 -0.078573845 0.030795695 -0.16965796 -0.05784272
0.106302835 0.008101362 -0.10375148 -0.1924584 -0.025854794 -0.017534126 0.018370649 0.09933259
-0.018543612 0.2264549 -0.095099576 0.05732494 -0.020247886 0.08262191 0.1266001 0.05346005
-0.1707456 0.053049635 0.017633634 0.3336981 -0.17908031 0.09040582 0.10012685 -0.34261075
0.037338894 0.03472337 -0.03616947 -0.05034338 -0.11417736 -0.11640962 0.03930192 -0.014804516
0.30541936 0.0056025204 0.04511845 0.2011417 -0.09542452 -0.17509884 -0.022567654 -0.22263844
-0.2661061 0.035766136 0.062321916 -0.013689728 0.18245353 -0.13559099 -0.06539124 -0.13354518
-0.12261745 0.076538965 -0.062315676 -0.1411909 -0.14282651 -0.05732767 -0.025223533 0.22794993
-0.03953041 0.00011710478 0.008426081 0.15931818 0.016677804 -0.06723699 -0.042028163 0.042591732
0.084310964 0.08514539 -0.046491835 0.21513076 0.4308462 -0.18159465 0.44951674 0.0013593964
0.22558762 -0.18293042 0.1510666 0.23848301 0.11057515 -0.087507926 -0.15234599 0.20735087
0.14607337 0.011053226 0.059325594 -0.2705911 -0.24110119 0.056734484 -0.14782165 0.014269322
0.1211693 0.20806573 -0.23890807 -0.16040277 0.0055894284 -0.105591655 0.045842927 -0.021943154
0.0863401 0.03742395 -0.26355767 0.24832791 -0.1210615 0.074870564 0.02671758 -0.056915283
0.3547783 0.045284186 0.13287649 -0.0074130483 0.07983453 -0.18170501 0.06731235 0.10807531
0.15599668 0.006003603 -0.10189772 0.042396884 0.19159555 -0.2994948 0.16019298 -0.32973805
0.060313642 0.13003613 0.15362698 -0.022644034 0.067356914 0.21098965 0.06116493 -0.22055608
-0.043837562 -0.029129533 -0.019126216 -0.0059789717 0.17183232 0.12949477 0.018324984 0.063018344
-0.007623359 -0.04818885 0.07825637 0.15704082 0.201638 0.12161721 0.09176906 -0.3533262
0.033983484 0.025733855 -0.06422716 0.075201735 0.07883882 -0.016514499 0.009022637 0.035576813
-0.1312681 0.013153383 0.26334706 -0.10315383 0.100811586 0.29165995 0.017158294 0.013586352
0.24272744 0.041227102 0.23462713 0.19544159 -0.005077888 0.056160297 0.011685229 -0.037173092
0.08180623 -0.011196384 -0.17483413 -0.13611738 -0.09610905 0.07817248 0.17703716 0.18193577
-0.1903105 0.13648282 0.13802311 0.062350545 0.09005068 -0.008097028 0.008486308 0.21924998
-0.044990204 0.17398657 0.115759544 -0.007932225 0.07447531 -0.11111022 0.0554809 0.10168451
0.13922687 0.07077101 0.060935296 0.19296767 0.023718141 0.18221657 -0.12959488 0.09893722
0.07655248 -0.13127822 -0.018041562 -0.045338795 -0.16963093 -0.051719956 -0.17926708 0.025613924
-0.047135003 -0.04332574 -0.022166725 -0.21550448 -0.08209995 -0.0671793 0.23264746 0.08479621
-0.20122246 0.040631972 -0.051950287 0.009967842 0.072128765 0.045693852 -0.26473874 0.17598093
00000000: 9bee d33d 378f ecbd a85c 45be 939a a1bd
00000010: 89d4 693e bed5 083e f868 97be 5bfc 0f3e
00000020: eb79 84bd 45a3 55bd 309f 0d3d bbbb 853d
00000030: d523 bf3d 9c8c 9a3e 500d 1e3d 2f1f 473e
00000040: 7148 703d c3f2 6cbd bedb a53d 7a7e 03bd
00000050: 137a efbb 4332 5dbe e995 23bd 172f 71bc
00000060: 0032 3c3d fc75 33be 589d 42bc 56f6 6abd
00000070: 53eb a0bd 4147 fc3c d1ba 2dbe 7dec 6cbd
00000080: 4db5 d93d 93bb 043c a87b d4bd d113 45be
00000090: 6fcd d3bc baa3 8fbc 0b7e 963c e36e cb3d
000000a0: c6e8 97bc cbe3 673e 91c3 c2bd 8ecd 6a3d
000000b0: e5de a5bc ad35 a93d 75a3 013e edf8 5a3d
000000c0: efd7 2ebe 934a 593d 6974 903c 7ada aa3e
000000d0: d460 37be b026 b93d 4e0f cd3d ad6a afbe
000000e0: abf0 183d 183a 0e3d 7026 14bd dc34 4ebd
000000f0: d2d5 e9bd 2b68 eebd 0dfb 203d a48e 72bc
00000100: ed5f 9c3e 5995 b73b 20ce 383d 17f8 4d3e
00000110: ee6d c3bd 1c4d 33be cddf b8bc 55fb 63be
00000120: 0f3f 88be 837f 123d 4445 7f3d e24a 60bc
00000130: 19d5 3a3e 5dd8 0abe d8eb 85bd 11c0 08be
00000140: dc1e fbbd 76c0 9c3d b93e 7fbd 5994 10be
00000150: 1d41 12be 6bd0 6abd 95a1 cebc b56b 693e
00000160: a4ea 21bd 2696 f538 8c0d 0a3c 4e24 233e
00000170: e49f 883c 8cb3 89bd b925 2cbd ab74 2e3d
00000180: 3aab ac3d b560 ae3d 396e 3ebd 3d4b 5c3e
00000190: e097 dc3e f3f3 39be 0f27 e63e c62d b23a
000001a0: 7100 673e 1d52 3bbe 34b1 1a3e e434 743e
000001b0: 3975 e23d 5b37 b3bd 9600 1cbe c953 543e
000001c0: 4294 153e 9718 353c 65ff 723d eb8a 8abe
000001d0: 3be3 76be 6b62 683d 8f5e 17be e0c9 693c
000001e0: 9c27 f83d 2f0f 553e 51a4 74be a040 24be
000001f0: 8627 b73b 7040 d8bd cbc5 3b3d 21c2 b3bc
00000200: 14d3 b03d db49 193d 08f1 86be ac49 7e3e
00000210: 17ef f7bd bd55 993d d4de da3c 0020 69bd
00000220: 80a5 b53e e97b 393d c610 083e 28e9 f2bb
00000230: 4980 a33d e110 3abe 0fdb 893d 9756 dd3d
00000240: 98bd 1f3e dfb9 c43b c0af d0bd 5ba8 2d3d
00000250: a031 443e 6257 99be a109 243e 6dd3 a8be
00000260: 700b 773d 3128 053e 6450 1d3e fb7f b9bc
00000270: 6cf2 893d ac0d 583e 1488 7a3d 74d9 61be
00000280: 048f 33bd 0fa1 eebc 95ae 9cbc 40eb c3bb
00000290: d0f4 2f3e 479a 043e 471e 963c c30f 813d
000002a0: 5fcd f9bb ac61 45bd e044 a03d 4fcf 203e
000002b0: 317a 4e3e 7212 f93d 6bf1 bb3d 2ce7 b4be
000002c0: 4432 0b3d cecf d23c 8789 83bd 5e03 9a3d
000002d0: 3f76 a13d 6a49 87bc afd3 133c feb8 113d
000002e0: 256b 06be 4981 573c 6dd5 863e 5142 d3bd
000002f0: 4e76 ce3d 7454 953e 8d8f 8c3c 4a99 5e3c
00000300: 8b8d 783e c0dd 283d 1842 703e d721 483e
00000310: 6964 a6bb 5708 663d 6773 3f3c d042 18bd
00000320: 068a a73d 0a71 37bc b807 33be 5b62 0bbe
00000330: d2d4 c4bd e518 a03d 3b49 353e 5f4d 3a3e
00000340: c1e0 42be 27c2 0b3e ee55 0d3e 4963 7f3d
00000350: 7e6c b83d 66a9 04bc 280a 0b3c 1183 603e
00000360: a647 38bd 8929 323e 5713 ed3d 2af6 01bc
00000370: 8386 983d c18d e3bd f13f 633d f83f d03d
00000380: 7d91 0e3e 64f0 903d 4a97 793d 5199 453e
00000390: 8c4c c23c fb96 3a3e 85b4 04be 999f ca3d
000003a0: 8cc7 9c3d cc6d 06be e6cb 93bc 2cb5 39bd
000003b0: bbb3 2dbe 4ed8 53bd ca91 37be 4bd4 d13c
000003c0: a210 41bd 5576 31bd fe96 b5bc 35ad 5cbe
000003d0: 0524 a8bd 4d95 89bd 233b 6e3e a3a9 ad3d
000003e0: 430d 4ebe b66d 263d d3c9 54bd 2950 233c
000003f0: 3fb8 933d 7a29 3b3d d68b 87be 5834 343e

mid_part.8.bias f4 [12]
-0.0059565296 0.008557396 0.0017484576 -0.015723541 0.012716529 0.00090234296 0.0017535314 0.005775667
-0.009212024 0.051890496 0.0047394754 0.009575997
00000000: fe2e c3bb 5234 0c3c 802c e53a a8ce 80bc
00000010: fd58 503c 368b 6c3a c0d6 e53a ce41 bd3b
00000020: 07ee 16bc 218b 543d 9a4d 9b3b a4e4 1c3c

mid_part.9.weight f4 [12]
-0.6612386 -0.03532573 0.5622044 0.26186767 0.47636408 0.9762399 0.5147411 -0.027699802
0.26655695 0.22469334 0.09244269 0.5959694
00000000: ef46 29bf b6b1 10bd a1ec 0f3f 8513 863e
00000010: fee5 f33e dcea 793f 13c6 033f b2ea e2bc
00000020: 277a 883e 0316 663e 9852 bd3d 7391 183f

mid_part.10.weight f4 [56, 12, 1, 1]
-0.074409924 0.18269497 -0.05014807 -0.38256902 -0.0865911 0.2520179 0.103796184 0.30046064
-0.16990997 -0.08024092 0.36359355 -0.12620293 0.07154484 0.17365365 0.077988856 -0.04636614
-0.23236498 0.31329137 -0.057936728 0.33314258 0.0067692706 0.10227035 0.20217104 0.106447965
-0.046974298 0.1323075 0.012608722 -0.22425169 -0.33729744 -0.31378993 0.3447625 0.033209812
0.050244153 -0.15293747 -0.1961263 0.0025660642 0.06591092 -0.20756106 -0.03883049 -0.13254142
-0.17468086 -0.34262326 0.33022496 0.5738133 -0.3030476 -0.0301433 0.11560231 0.17019342
-0.18534435 0.16337946 0.3454515 0.11223402 -0.05320204 0.1813811 -0.06029422 0.23312785
0.21814911 -0.08195094 0.13887924 -0.22681642 -0.1706435 -0.115983084 0.13793837 0.30170235
-0.17638856 0.0045578387 -0.23071294 -0.18891893 0.16626373 -0.33490023 0.06558166 0.12977988
0.21829137 0.0825898 -0.33768958 -0.1495994 0.33708304 -0.21690522 -0.04203839 -0.08931729
0.30569926 -0.22938614 0.06045896 -0.18628561 0.15425049 0.026449258 0.15601856 0.35269925
0.06846503 -0.133905 -0.29939312 -0.24539267 0.055295665 0.37133294 0.5808783 0.17433369
-0.083133265 0.113850236 -0.073621765 -0.034863807 0.20947506 -0.23560272 -0.042795055 0.07100344
0.0077439677 -0.20233308 0.1121493 0.056418054 -0.42949593 0.1302021 0.12972884 -0.13877706
0.09646815 -0.21860692 0.0052554747 0.06296692 -0.16949733 -0.15187652 -0.064019516 0.14242868
-0.05401631 -0.16276282 -0.064919434 -0.23154578 0.10874894 0.017103907 -0.07753672 -0.32945314
-0.15028423 0.17154604 0.14621179 -0.15197133 0.06238671 0.15430579 0.08697486 -0.31884545
0.044062886 0.16197987 0.14323343 0.06239201 -0.34034935 -0.020653011 -0.16627926 -0.064381436
0.06627347 0.2068714 -0.004944875 -0.051372733 0.060000442 0.065142035 -0.061722837 -0.017560013
0.2168476 0.33789635 -0.36353987 -0.19327275 -0.37462914 0.0071354616 -0.18616095 -0.11357166
0.08002164 -0.19743808 0.035030812 0.27151468 0.11634167 0.4514844 0.6259719 -0.20013866
-0.15782389 -0.01775544 -0.06762717 0.03759662 0.28613344 0.067288935 -0.012827712 -0.0245859
0.16016442 -0.004582884 -0.17445943 0.13406006 -0.1553316 0.13657802 -0.3702636 -0.088394284
0.2649432 0.41254112 0.0128021175 -0.29365385 0.0063488944 0.3339464 -0.42522758 0.1915343
0.22963126 0.21920215 -0.019682048 -0.15297756 0.13218854 -0.3940759 0.016619544 0.11522903
0.06177749 0.29780966 0.21164203 -0.092378415 0.04819271 0.13418117 0.071680516 -0.14052252
0.01618186 0.051654473 0.17443064 0.0668034 0.13447048 -0.16436517 0.105459146 -0.12747085
-0.11581485 -0.04634874 -0.08677627 -0.061213095 -0.07141288 0.2170125 0.104502484 0.13188025
-0.2689941 -0.017486053 -0.1556279 -0.08770489 0.040441424 -0.0023440223 -0.036541842 -0.19569954
-0.058070473 -0.23080811 0.1086789 -0.4120801 0.18333696 -0.40298682 0.118001185 -0.2242661
-0.036721293 -0.1258922 -0.23426022 -0.25396237 -0.052407973 -0.119573265 0.04553354 0.17797542
0.049453918 0.0027279288 -0.51804036 -0.3045567 0.03721531 -0.061935525 0.031735405 -0.16204402
00000000: 3b64 98bd 6414 3b3e 1068 4dbd 16e0 c3be
00000010: ad56 b1bd 7d08 813e 1893 d43d fad5 993e
00000020: e1fc 2dbe 5a55 a4bd ef28 ba3e 573b 01be
00000030: 1a86 923d 43d2 313e 9fb8 9f3d 6cea 3dbd
00000040: 16f1 6dbe ba67 a03e 104f 6dbd aa91 aa3e
00000050: c2d0 dd3b 1e73 d13d ed05 4f3e 6401 da3d
00000060: 1f68 40bd 9e7b 073e d094 4e3c 3ca2 65be
00000070: 40b2 acbe 13a9 a0be b684 b03e 0307 083d
00000080: d0cc 4d3d a49b 1cbe 55d5 48be 6a2b 283b
00000090: 4efc 863d e38a 54be b80c 1fbd f0b8 07be
000000a0: 8adf 32be 516c afbe 3f13 a93e 6ee5 123f
000000b0: 0e29 9bbe 15ef f6bc e7c0 ec3d 2f47 2e3e
000000c0: e9ca 3dbe f24c 273e 05df b03e f3da e53d
000000d0: 62ea 59bd f8bb 393e 12f7 76bd 11b9 6e3e
000000e0: 7b62 5f3e e5d5 a7bd 5c36 0e3e 9042 68be
000000f0: 2bbd 2ebe 8a88 edbd b73f 0d3e bb78 9a3e
00000100: 349f 34be ec59 953b 0340 6cbe f773 41be
00000110: 0a41 2a3e 0b78 abbe ad4f 863d 04e5 043e
00000120: c687 5f3e d724 a93d a6e5 acbe 9630 19be
00000130: 2696 ac3e 671c 5ebe 7230 2cbd fceb b6bd
00000140: 9d84 9c3e 33e4 6abe d0a3 773d a8c1 3ebe
00000150: d7f3 1d3e 1dac d83c 54c3 1f3e ff94 b43e
00000160: 6537 8c3d 641e 09be 0e4a 99be 3748 7bbe
00000170: b57d 623d 5a1f be3e 71b4 143f 8884 323e
00000180: c641 aabd 502a e93d 02c7 96bd 5acd 0ebd
00000190: a180 563e d741 71be de49 2fbd 406a 913d
000001a0: 1cc1 fd3b 6730 4fbe 88ae e53d 9e16 673d
000001b0: e4e6 dbbe b353 053e a3d7 043e 931b 0ebe
000001c0: 1891 c53d 7eda 5fbe 1e36 ac3b cdf4 803d
000001d0: b590 2dbe 8585 1bbe aa1c 83bd d3d8 113e
000001e0: 3540 5dbd 4cab 26be 7bf4 84bd 561a 6dbe
000001f0: c4b7 de3d 7e1d 8c3c 92cb 9ebd 15ae a8be
00000200: 1ce4 19be c4a9 2f3e 8bb8 153e 5f9e 1bbe
00000210: 3589 7f3d 5602 1e3e e01f b23d b63f a3be
00000220: 497b 343d 0dde 253e c9ab 123e c48e 7f3d
00000230: 4542 aebe 8130 a9bc 1c45 2abe 6ada 83bd
00000240: 63ba 873d 19d6 533e 9e08 a2bb 376c 52bd
00000250: 06c3 753d 3069 853d 16d1 7cbd 04da 8fbc
00000260: 4c0d 5e3e c000 ad3e e621 babe 4be9 45be
00000270: 64cf bfbe 97d0 e93b faa0 3ebe 4298 e8bd
00000280: 63e2 a33d 352d 4abe 787c 0f3d f903 8b3e
00000290: 8b44 ee3d f728 e73e b23f 203f 26f1 4cbe
000002a0: 969c 21be db73 91bc 1d80 8abd eafe 193d
000002b0: 1580 923e c8ce 893d 532b 52bc 5f68 c9bc
000002c0: 2402 243e 042c 96bb 7ea5 32be 0a47 093e
000002d0: 3f0f 1fbe 1cdb 0b3e 3193 bdbe 1008 b5bd
000002e0: a3a6 873e 9738 d33e f9bf 513c cc59 96be
000002f0: 630a d03b 06fb aa3e 6eb7 d9be 9121 443e
00000300: 7524 6b3e 8776 603e 3f3c a1bc 26a6 1cbe
00000310: 6f5c 073e 51c4 c9be b625 883c 33fd eb3d
00000320: 650a 7d3d 827a 983e b0b8 583e e530 bdbd
00000330: b865 453d ca66 093e 3ccd 923d 23e5 0fbe
00000340: d28f 843c a493 533d f29d 323e 39d0 883d
00000350: a1b2 093e 584f 28be f7fa d73d b887 02be
00000360: 5630 edbd 2dd8 3dbd c2b7 b1bd 95ba 7abd
00000370: eb40 92bd 8638 5e3e 6605 d63d 9e0b 073e
00000380: 98b9 89be e93e 8fbc ec5c 1fbe 9f9e b3bd
00000390: e8a5 253d 2b9e 19bb e6ac 15bd 7665 48be
000003a0: 4edb 6dbd f658 6cbe 0b93 de3d 2afc d2be
000003b0: afbc 3b3e 4a54 cebe 9baa f13d 03a6 65be
000003c0: 1169 16bd e3e9 00be e9e1 6fbe 5b07 82be
000003d0: bea9 56bd d4e2 f4bd 6181 3a3d 303f 363e
000003e0: 3190 4a3d 0dc7 323b 4b9e 04bf dbee 9bbe
000003f0: 156f 183d 1bb0 7dbd fcfc 013d deee 25be
