models/fsrcnn/track1/track1_x4__epoch_14.pth (torch, 57996 bytes, 22 tensors)

first_part.0.weight f4 [56, 1, 5, 5]
000000 85 18 cb bb cd 9f 1c 3d ea e3 f8 3c 31 eb e0 3b
       -0.0061979913 0.038238335 0.030382115 0.0068639745
000010 1f 68 38 bc f2 96 fa bc 48 de 1a 3d ac 03 35 bc
       -0.011255293 -0.030589554 0.03780964 -0.011048239
000020 01 97 f0 bc 90 72 4e 3b b3 39 84 3d 99 b3 c5 bc
       -0.02936888 0.003150139 0.06456318 -0.02413349
000030 e5 97 3d 3d 0d 5d a0 3c 16 1a b5 3c 0b 76 b9 3c
       0.046287436 0.01957562 0.022107165 0.022639295
000040 3a e5 54 bc 8b df 0e bc 2b 65 a9 3d 7c b8 db ba
       -0.012994105 -0.008720289 0.082712494 -0.0016763355
000050 36 ac 3b 3c 5d fb c3 3b ba b7 83 3d b0 22 2d 3a
       0.0114546325 0.0059808926 0.064315274 0.0006604595
000060 09 d7 25 bd 52 ab e1 bc ae 0e 14 bd e5 ed 2f bd
       -0.040488277 -0.027547512 -0.036146812 -0.042951483
000070 36 6b f8 3b c0 17 3b 3d 89 d2 31 bd d9 2b 1c 3d
       0.00758114 0.045676947 -0.043413673 0.038127754
000080 4c 10 3b bd c2 6b 8f bc 69 5f 35 3b 85 9a 13 bd
       -0.04566984 -0.017507438 0.0027675277 -0.036036033
000090 aa 07 6d 3c 89 11 3e bb 04 4b 08 bb 7a da 8c bd
       0.014467159 -0.002900215 -0.0020796666 -0.068776086
0000a0 5e ff b4 ba 6c dc ce 3c 46 43 2a bc 7e 9b 91 bb
       -0.0013809016 0.02525159 -0.010392016 -0.004443585
0000b0 15 20 6c bc ee 47 06 3d 6b c0 57 3a 41 a0 c4 bd
       -0.014411946 0.03278344 0.00082302716 -0.096008785
0000c0 16 df 3c 3d 76 c4 cd ba 44 6c d2 bc d3 aa 39 bd
       0.04611119 -0.0015698809 -0.02568639 -0.045328926
0000d0 a7 d1 57 bc 6e 16 62 bc 89 af a9 3c b4 75 0f bc
       -0.013172544 -0.013799293 0.020713584 -0.00875609
0000e0 27 02 ed ba f9 d9 b5 bc b6 4c d7 bc 29 2c 97 bd
       -0.0018082306 -0.022198664 -0.026281696 -0.0738147
0000f0 65 f1 31 bd 52 5c ab bd 59 3e 8d bd 5a 15 89 bc
       -0.043443102 -0.08367218 -0.068966575 -0.016733814
000100 7a 8b 68 bd a0 1c 2b 3d d8 f2 70 bd 17 0f 93 bd
       -0.05677364 0.041775346 -0.058825344 -0.071806125
000110 c6 65 01 bd 73 ab 6a bc 48 55 8a bd 96 29 32 3d
       -0.0315912 -0.014323103 -0.06754547 0.04349669
000120 bf 18 23 3d 91 a6 30 bd d5 78 99 bc cd c3 1e 3d
       0.03981852 -0.0431276 -0.018734375 0.03876095
000130 48 e6 f2 ba c2 ed 54 3d 61 99 6c 3c 4f 0c cb bc
       -0.0018531764 0.051984556 0.014440865 -0.024786143
000140 19 6a 3c bd 10 66 b3 bc 2f 9b 0f ba 11 76 43 bd
       -0.04599962 -0.021899253 -0.0005478141 -0.04772002
000150 7a 32 c8 bb a4 ea eb 3b b9 4e b7 3d 5e dc 24 bd
       -0.006109533 0.007199602 0.08950562 -0.04024922
000160 97 19 a4 bd de d2 bf 3c 98 b6 4c 3d d9 f3 39 bd
       -0.080126934 0.023415979 0.049978822 -0.045398567
000170 c1 d1 81 bd ac 85 53 ba 4e 7e 13 ba 29 2d e5 3c
       -0.063388355 -0.000806893 -0.0005626426 0.027975636
000180 4d e6 80 bd 7a 70 a9 bc 9d a5 40 bd 23 04 d2 bd
       -0.062939264 -0.020683516 -0.04703294 -0.10254695
000190 ea a0 48 3c f6 3d 18 bd 8f c8 fd bc 54 6e a4 bd
       0.012245396 -0.037168466 -0.030979423 -0.08028856
0001a0 e0 a5 1d bc 29 6c 8e bc ab 1f 8c 3d a9 57 fa 3a
       -0.009622067 -0.01738556 0.06841978 0.0019099611
0001b0 0f a5 0f 3d 97 5c 44 bb 1b 8a 6d 3b bc 74 a4 bd
       0.03506952 -0.0029962414 0.0036245647 -0.08030078
0001c0 bf 54 47 bd b4 a5 90 bb 13 f8 35 3c 6e 4f 69 bc
       -0.048664805 -0.0044142846 0.011106509 -0.014240129
0001d0 33 51 a8 bd ba c9 67 bd f7 63 1e bd d9 1a 29 3d
       -0.082186125 -0.056588866 -0.038669553 0.04128537
0001e0 7f ef 5f bd 14 7c 76 bc 8b df 45 3d 28 ea 92 bd
       -0.05467176 -0.015044231 0.04830889 -0.07173568
0001f0 00 14 83 3c ac 8d a5 bd 76 84 5a bd c8 62 36 3d
       0.016000748 -0.080836624 -0.05334898 0.0445278
000200 26 37 87 3c 46 6e 72 3c 19 57 e2 3c 69 82 08 bd
       0.016505789 0.014796799 0.027629422 -0.033327494
000210 66 38 65 bc c7 d5 64 bd 6a c4 99 3b f0 ff 32 bd
       -0.013990497 -0.055867936 0.004692604 -0.043701112
000220 61 cc f5 bc 8d 5f 53 3d 8c ba e1 3c 0e 90 de bc
       -0.030004682 0.051604796 0.027554773 -0.0271683
000230 e0 f8 48 3d 26 74 61 bd 20 c3 66 3c 63 a6 99 bc
       0.04906547 -0.05504241 0.014084607 -0.018756097
000240 22 31 88 bc 80 3b 5a 3d 40 0c 89 bb 1c 56 c9 bb
       -0.01662499 0.0532794 -0.0041823685 -0.0061442982
000250 6d 85 c0 bc dd 49 04 bd 8f aa bc bd b1 d1 dc 3c
       -0.023501122 -0.032297004 -0.09212219 0.026955457
000260 a7 6d 42 3c c3 a7 91 3d 20 62 5e bc 10 a4 6c bc
       0.0118669635 0.07112076 -0.0135731995 -0.014443412
000270 39 37 66 3c 3c 41 cb 3c 0f e1 4c bd f7 32 55 bd
       0.014051252 0.02481138 -0.05001932 -0.052050557
000280 7e 4b 67 bc c7 25 6d bd a0 7b e1 bc 22 74 89 bc
       -0.01411712 -0.057897355 -0.02752477 -0.01677901
000290 b3 41 08 3d 48 8b a5 bd 15 3d 90 3c b4 96 0b bd
       0.03326578 -0.080832064 0.017607251 -0.03407927
0002a0 24 03 03 3c b5 b3 8f bc cd 4e 8c bd 7c 20 64 3c
       0.007996354 -0.017541746 -0.068509676 0.0139237605
0002b0 26 5f 21 bb 14 1a 6b bb b1 62 89 bd 19 b4 9f 3d
       -0.0024623363 -0.0035873698 -0.06708277 0.07798023
0002c0 51 b6 91 bd f8 c1 9e 3d 96 78 03 be 21 f7 0d 3a
       -0.07114852 0.0775184 -0.12838969 0.0005415548
0002d0 3e cb cc bc b7 b4 4a 3d 7a 4a f2 bd 98 cf 98 3d
       -0.024999257 0.04948875 -0.118306115 0.0746147
0002e0 b6 d3 e9 3c 71 26 1d 3d 56 9b 0c be 21 7a 96 3e
       0.028543334 0.03836674 -0.13731131 0.29390052
0002f0 dd 3b 9a bd 24 1a 0a 3d 32 10 5e 3b 82 a8 bf bd
       -0.07530949 0.033716336 0.0033884165 -0.09358312
000300 a5 2a 2c 3d 3e 1c d9 bd d7 2d ab 3d d1 21 11 3e
       0.042032856 -0.1060109 0.08358353 0.14173056
000310 59 71 9a ba 78 98 0f 3d 96 1f 03 bc ea 96 ac 3c
       -0.0011783048 0.035057515 -0.008003136 0.021068055
000320 58 4c bd 3c ee f1 52 3d a6 73 e6 bb 1a 9c c5 bb
       0.023107693 0.051500253 -0.0070328293 -0.0060305716
000330 67 4f ca 3c 62 59 a8 3c 39 91 3c 3d a1 f3 d6 bc
       0.024696065 0.020550434 0.046036933 -0.026239218
000340 61 4c d7 3c 97 4c 6b bc 7e 9e 21 3c 0e f1 fa bc
       0.026281537 -0.014361522 0.009864448 -0.030632522
000350 34 e8 ae 3d 20 53 3d ba 6d a7 9a bc ec be 02 bc
       0.08540383 -0.00072221644 -0.018878663 -0.00798009
000360 29 93 9f 3c 83 95 68 3c 28 88 7f bc f6 86 3c bd
       0.019479351 0.014195803 -0.015596427 -0.046027146
000370 3f cf b9 3c 0c 6f 92 3c 22 ff c9 3d 36 1e 4c bd
       0.02268183 0.017875217 0.09863116 -0.0498335
000380 8c 3f 4c 3c 02 81 9b 3d 1f b2 21 bd cb 59 7c bd
       0.012466323 0.07592966 -0.03947651 -0.06160907
000390 64 0e 56 3d ed 0a 71 bd ae ab 5e bc 3f dd f0 3b
       0.052259818 -0.05884831 -0.013590736 0.0073505933
0003a0 7b 42 0a 3d f3 59 3c bd 82 21 81 3c c4 6b 71 3c
       0.033754807 -0.04598422 0.015763048 0.014735166
0003b0 22 11 4c bc 6d 8f 9e 3d 55 fe 6f 3d 9b f0 3c 3d
       -0.012455257 0.077422 0.05859216 0.046127897
0003c0 66 17 4f 3d c1 d3 10 3b 14 a4 98 3c 8c e1 19 bd
       0.050559424 0.0022098871 0.018632926 -0.037568614
0003d0 68 08 58 3d 56 92 e2 3c 91 33 13 3d 65 5b e8 3c
       0.05274239 0.027657669 0.03593785 0.028363893
0003e0 cf af 7b 3d af a0 4d 3d 6e 3c b8 bc a0 40 bf 3c
       0.06144696 0.050202068 -0.022489753 0.023346245
0003f0 f4 e2 34 bd d8 7c 0f bc 4b 8b 4a bd f1 a5 3b 3c
       -0.044161752 -0.008757792 -0.049449246 0.011453138

first_part.0.bias f4 [56]
000000 59 27 40 bc 3a ed e9 ba 72 ae d4 3b 3b b4 96 bb
       -0.011728131 -0.0017847188 0.006490522 -0.004599122
000010 38 df db 3b 94 18 11 bc c9 40 5a 3b f7 c7 17 3d
       0.0067099594 -0.008855958 0.0033302775 0.037055936
000020 40 9a 32 bc cc 14 0d bc a6 82 28 bc 98 fc 39 bb
       -0.010901034 -0.008610915 -0.010285055 -0.0028379317
000030 c5 09 e5 bc 0c bf 89 3c c0 49 91 3d 0f 1e a7 bc
       -0.02795876 0.016814731 0.07094145 -0.020400075
000040 bf d0 d0 bb 28 4f 38 bb 71 b1 aa 3b a2 ed 00 bd
       -0.0063725407 -0.0028123353 0.005209141 -0.031476624
000050 d3 30 f6 3b 51 d1 d0 3b 05 fb b0 bc 71 7b 55 bb
       0.0075131445 0.0063726087 -0.02160407 -0.0032574798
000060 cd 48 9a bc 74 f1 fe 3b 77 f5 55 3b ed 40 17 3c
       -0.018833542 0.0077802483 0.003264753 0.009231788
000070 0f 6d 9d bc 0a a7 d3 3b 0e ff 1e bc f9 f9 fe 38
       -0.019217042 0.0064591216 -0.009704364 0.00012158225
000080 50 81 04 bc 31 51 0d bc 23 6b 71 bb 5f e7 a1 3c
       -0.008087471 -0.008625315 -0.003683754 0.019763647
000090 ff 81 72 bb 0f dc c9 3b 78 1d a4 3b a6 40 89 3c
       -0.0037003753 0.006160266 0.0050083958 0.01675446
0000a0 9b 93 88 3d 4c 58 17 bb 15 09 5c 3c a1 65 2e bd
       0.066687785 -0.00230934 0.0134299 -0.04257739
0000b0 0a ae 48 3c 11 6f 27 3b 04 91 2f bb 82 6f a4 bb
       0.012248525 0.0025548378 -0.0026789317 -0.0050181756
0000c0 37 d1 a0 bd d0 91 38 3c 02 a5 00 bd 4b 98 a9 3c
       -0.078524046 0.011265233 -0.031407364 0.020702502
0000d0 4f 68 30 3c 9d 00 b7 3b 74 d0 70 ba 3f 25 30 3d
       0.010767057 0.00558479 -0.00091863354 0.04300427

first_part.1.weight f4 [56]
000000 25 3d 7b 3e 40 ea 73 3e 41 a8 83 3e 1c 23 83 3e
       0.24535044 0.23819828 0.25714305 0.25612724
000010 49 a1 7a 3e 6f 44 81 3e b9 26 7c 3e 2f ab e9 3e
       0.24475588 0.25247523 0.24624147 0.45638415
000020 59 17 e9 3f a6 30 9b bd 93 29 ba 3f 87 09 82 3e
       1.821025 -0.07577638 1.4543937 0.25397894
000030 57 39 65 3f 11 7d 81 3e e7 04 9c 3e 77 fa 86 3c
       0.8954062 0.2529073 0.3047249 0.016476853
000040 58 59 6a 3e 8e e0 8e 3e d5 bb 8f 3e 84 93 2a 3e
       0.22885644 0.27905697 0.28072992 0.16657835
000050 13 cf 81 3e e1 ae bf 3f e2 fc 6e 3e de 3d 70 3e
       0.25353298 1.4975244 0.23338655 0.234611
000060 b8 01 a8 3e ed 9b 70 3e dc fa 13 40 2e f0 81 3e
       0.3281381 0.23496981 2.3121862 0.25378555
000070 f3 59 96 3e 41 8c 8a 3e 69 d0 72 3e cd 64 87 3e
       0.293655 0.2706013 0.23712315 0.26444092
000080 c0 06 20 40 3d 38 df 3e f9 6d 73 3e 6a 94 81 3e
       2.500412 0.43597594 0.2377242 0.25308543
000090 e0 09 1d 3e a8 46 3a 3e fd 06 8a 3e 38 a9 80 3e
       0.15335798 0.18191016 0.26958457 0.25129104
0000a0 7d 8f 2e 3f 50 6f 89 3e 79 34 80 3e 27 db 9b 3e
       0.68187696 0.26842737 0.25040033 0.30440637
0000b0 d3 62 49 3f 32 c1 48 3e 48 a1 1d 40 7d 84 84 3e
       0.7866642 0.19604948 2.4629688 0.2588233
0000c0 b3 a1 0a 3f 8b 61 7b 3e 5d 00 f5 3f c9 0d 84 3e
       0.54152983 0.24548928 1.9140736 0.25791767
0000d0 7c bd 4a 3e 09 2a 2e 3e 05 b5 8b 3e 69 57 81 3e
       0.19798845 0.17008223 0.27286544 0.25262

mid_part.0.weight f4 [12, 56, 1, 1]
000000 98 7c 04 3f 56 57 59 3e 6a c6 40 bf 96 e4 78 3e
       0.51752615 0.21224722 -0.75302756 0.24305949
000010 e4 4e c9 3e 64 73 b4 3e 02 6c b0 bd 7f 2d 03 3f
       0.39318 0.35244286 -0.08614351 0.51241297
000020 5a 70 2f 3e 39 79 97 bf e9 76 01 3f 76 82 a4 bd
       0.17132702 -1.1833869 0.5057207 -0.08032696
000030 18 b0 0c bf dc c2 87 3f a7 3c df 3e 83 08 d4 3e
       -0.549562 1.0606341 0.43600962 0.41412744
000040 01 25 b5 3d fc ae 83 3d 63 f5 0f 3f e1 5b 7d be
       0.088449486 0.0642986 0.56233805 -0.2474208
000050 f6 55 6e 3c 70 bc 36 3f 6f a4 b9 be ef 66 f1 be
       0.014546862 0.7138128 -0.36258265 -0.47148845
000060 05 50 9c bd fd 85 a1 bd 20 75 dd 3e 09 93 39 bf
       -0.0763245 -0.07886884 0.43253422 -0.7248998
000070 04 a7 8a 3e 44 ba da 3e b2 6c 2d 3d 2c dc ae 3e
       0.27080548 0.42720234 0.042339988 0.34152353
000080 9f c8 0a 3f 88 bc 0e 3e b6 bf 0d bf 3d e4 30 bf
       0.54212373 0.13939106 -0.5537065 -0.69098264
000090 57 fb 5c bd af 0d 29 bd 9f 7e 91 be 7b a4 c1 3e
       -0.053950634 -0.041272815 -0.28416917 0.378208
0000a0 94 af ca bd e4 e0 00 3f 1c 28 c3 be 86 ae eb bd
       -0.0989677 0.50343156 -0.3811654 -0.11507897
0000b0 78 2c 15 be 40 79 1b be ee c7 cd bd 83 7b 1c bf
       -0.14567745 -0.15182972 -0.10047899 -0.61125964
0000c0 c7 d5 17 be a8 38 14 bf ac 39 ce bd db cf 4c be
       -0.14827643 -0.5789895 -0.10069594 -0.20001166
0000d0 9c 58 28 bf 72 6e 3a 3e 8d 38 97 be 8a 5c 74 be
       -0.6576021 0.18206194 -0.29535332 -0.23863426
0000e0 21 2b 98 be 2a b6 7b bf 71 36 fd 3e f4 46 5d bc
       -0.29720405 -0.98324835 0.49455598 -0.013505686
0000f0 1c 85 12 3c a3 40 4d 3f 64 b0 3b 3f 32 df 06 3f
       0.008942869 0.8017675 0.73316026 0.5268432
000100 5c 9e 24 3d be b5 b0 bd 9a df a8 bd dd 77 f8 be
       0.040190086 -0.086284146 -0.082457736 -0.48528948
000110 72 d2 43 3e 4b 4a 36 3e 0a ea 1c bf 6a 3b 22 3e
       0.19123247 0.17801778 -0.61294615 0.15842977
000120 e8 e0 0c bf da 85 6c 3e 9d fd 23 3f 3c 22 bd bd
       -0.5503068 0.23097935 0.6405886 -0.09235045
000130 19 65 58 3f 65 82 79 be 63 a2 a2 3d 3d e2 cd be
       0.8452926 -0.24366148 0.07941129 -0.4021167
000140 0f 0d c0 be ea 9f 97 bd d8 f1 c8 3d 80 ec 0d bf
       -0.37509963 -0.07403548 0.09811753 -0.55438995
000150 17 ea 10 3f c4 a4 4f 3f 80 d4 4b be 5f 89 da 3e
       0.5660719 0.8111079 -0.19905281 0.4268293
000160 4c e8 3a 3e 2d 67 c4 be e5 9b a6 bd bd fa 10 be
       0.18252677 -0.38359967 -0.08135203 -0.14158149
000170 25 1a 83 3e 4f 17 6a 3e eb bc 34 bf cb 59 75 be
       0.25605884 0.22860454 -0.70600766 -0.23960035
000180 21 58 7b 3e b9 7f 30 3f 4a 07 97 be 80 8c 58 3f
       0.24545337 0.6894489 -0.2949775 0.84589386
000190 c3 53 37 3f 69 5b 0e 3e 3f 73 e2 3e 86 79 bf 3d
       0.71612185 0.13902058 0.4422855 0.09349351
0001a0 0f 24 a0 3e ba 17 dd bd 42 3a 5c 3f c6 e7 18 bf
       0.3127751 -0.10795541 0.86026394 -0.5972866
0001b0 fc 00 61 bc 82 a9 63 be 5d 1f 28 3f 68 b1 f2 be
       -0.013733145 -0.22232631 0.65672857 -0.47400975
0001c0 1f 21 8a 3e f4 39 19 bf 5b 6a 88 be c4 b7 c9 be
       0.26978394 -0.59854054 -0.26643643 -0.39398015
0001d0 43 66 8f bd 95 81 19 3f 8f 58 e8 bd 56 c0 24 bd
       -0.07001927 0.5996335 -0.11345016 -0.04022249
0001e0 e8 49 26 3f 39 ed 49 3f a1 93 ba 3d 4f f4 4f 3f
       0.6495652 0.788776 0.09110189 0.8123216
0001f0 c8 a6 db be c2 20 17 be a5 fd ce bd 35 0b c5 3e
       -0.42900681 -0.1475859 -0.101069726 0.38485113
000200 83 70 09 bc 7e 18 05 be 54 63 ee 3e be 92 ba 3e
       -0.008388641 -0.12997624 0.46560156 0.3644008
000210 ed f3 08 bf 13 c6 6c 3e 7d 29 01 be 90 c6 98 be
       -0.534972 0.23122434 -0.12613483 -0.2983899
000220 22 e1 d1 3e e8 d2 a4 be 32 e7 20 be 47 e3 83 be
       0.40992075 -0.3219216 -0.15713194 -0.25759336
000230 ef 43 fa be 0b 21 c7 3e f4 62 c4 3c 65 27 05 be
       -0.48879954 0.38892397 0.023972966 -0.13003309
000240 e2 47 f8 3e f7 c2 33 3f 07 97 1f 3f a0 ad c2 3e
       0.48492342 0.7021937 0.62339824 0.3802309
000250 90 2e 9f 3e 8b ff 9d 3e 70 f6 f1 be d7 64 e0 3d
       0.31090212 0.30859026 -0.4725833 0.10956734
000260 d9 70 be bc 26 bb 03 3e d1 46 57 be 95 ae b5 ba
       -0.02324717 0.1286436 -0.21023108 -0.0013861234
000270 13 22 14 3e 09 4c d0 3e d2 d1 86 3e 48 c6 f6 3e
       0.14466123 0.4068301 0.26331955 0.48198152
000280 ee 77 1c bc 73 3e 19 3f 6c ed 5e 3e 50 cf 0c bf
       -0.009550078 0.59860915 0.21770257 -0.55003834
000290 c8 ef 84 bc af 4b d4 3e 72 09 b3 be 3a c1 a5 be
       -0.016227618 0.41463992 -0.34968144 -0.32373983
0002a0 1c 6e 34 3d f0 1b 9d 3e 5c db 00 be eb de 25 3e
       0.04405032 0.30685377 -0.12583679 0.16198318
0002b0 5a 33 7f 3e 6c a6 49 3c 04 3a 2c be c6 24 9a 3e
       0.24921933 0.0123077445 -0.16819006 0.3010618
0002c0 ee 81 14 bf 95 4a be be dc 4f 19 3f 0d 6c b4 be
       -0.58010757 -0.37166277 0.5988748 -0.35238686
0002d0 0d 1d c3 3e 3f e2 f5 be c0 3b 1d 3f 4b e0 bc bd
       0.381081 -0.48024175 0.61419296 -0.09222468
0002e0 c1 24 09 3e 0e 1b 67 3e 71 55 79 bd 08 76 5f 3f
       0.13392927 0.22568914 -0.0608725 0.87289476
0002f0 ee 9c fb be 67 6d 23 3f 2c 89 a2 be 1d 27 da be
       -0.49143165 0.6383881 -0.3174528 -0.42607966
000300 c1 46 f6 3e 0c f3 51 3d b6 72 e5 be d6 76 76 3f
       0.48100856 0.05125718 -0.4481408 0.9627508
000310 3d 94 00 3e 42 50 d4 3e 29 6c b5 bd 15 d4 3d be
       0.12556548 0.41467482 -0.088585205 -0.18537934
000320 1d ad 03 bf b4 50 4c 3e 44 0f e8 bd 32 ad f0 3e
       -0.51436025 0.19952661 -0.11331037 0.47007138
000330 d1 63 0f 3e 43 f9 fd bd fb 77 99 39 a5 77 42 3e
       0.1400292 -0.124010585 0.00029271826 0.18990953
000340 17 61 9b bd 93 2b 8a 3f 08 63 47 3f 24 59 2a 3f
       -0.07586878 1.0794548 0.77885485 0.6654227
000350 8a cb 7b bf e7 99 7d be 1e d0 f0 3e 3b 92 b2 bd
       -0.9835745 -0.2476574 0.4703378 -0.087192975
000360 c2 c6 ca 3e fe c0 0e 3f 0d 8a 9a be d4 94 02 bf
       0.39604765 0.5576323 -0.3018345 -0.51008344
000370 2b 4b f8 be 77 2f f2 3e 81 d3 57 be f5 f4 05 3f
       -0.4849485 0.47301838 -0.21076776 0.523269
000380 ef 00 70 be 11 63 a3 3d 54 b4 05 3e 63 85 ba 3d
       -0.23437856 0.0797788 0.13057071 0.09107473
000390 49 86 16 be bc 53 a6 be c4 17 52 be 44 a1 10 3f
       -0.14699663 -0.3248576 -0.20516878 0.5649607
0003a0 66 4d f4 3e d3 40 89 be 3e 06 22 be c1 ae 00 3c
       0.477153 -0.2680727 -0.15822694 0.007854165
0003b0 8c 4b aa bf 00 51 4e 3f 23 6a 4b 3f 83 72 8a bd
       -1.3304305 0.80592346 0.79458827 -0.067601226
0003c0 84 71 b5 3e aa d8 40 be 2e 61 9a 3e e9 a2 ce be
       0.35438168 -0.18832651 0.30152267 -0.40358666
0003d0 52 4f 66 3e 13 04 91 3e 75 89 ba 3e 8b d6 21 3d
       0.22491196 0.2832342 0.36432996 0.039511245
0003e0 d1 37 f5 bd 0d 5b 0a be 6f 40 0c 3f c7 a3 63 3e
       -0.11973537 -0.13511296 0.5478582 0.22230445
0003f0 fe 5a 2e bf 02 61 97 be 39 be e4 3c ce ca 60 3e
       -0.68107593 -0.295662 0.027922736 0.21952364

mid_part.0.bias f4 [12]
000000 38 61 88 3b 33 82 b2 bc a2 eb c2 bb b8 5c 5a 3a
       0.00416198 -0.0217906 -0.0059485 0.0008329856
000010 69 3d ca 3d ca 93 ea 3b 36 36 1f 3d 59 55 09 3d
       0.09874994 0.007158731 0.03887006 0.03352866
000020 37 11 cb bc 5e ce ac bb 7a 7b ff bb ca e3 3d 3d
       -0.024788482 -0.0052736243 -0.007796702 0.046359815

mid_part.1.weight f4 [12]
000000 cd b6 8d 3e 41 b2 be 3e 83 ec 7f 3e d4 e2 8c 3e
       0.27678528 0.37245372 0.24992566 0.27516806
000010 8f 0d 4b 3f 09 5c 8a 3f 20 b6 86 3e b5 85 e7 3e
       0.79317564 1.0809337 0.26310825 0.45219198
000020 da 20 9c 3e 26 05 d3 3e f1 cf 47 3f 53 92 9c 3e
       0.30493814 0.41214865 0.7805167 0.30580387

mid_part.2.weight f4 [12, 12, 3, 3]
000000 a1 68 8a 3e 86 8d 19 bd 88 68 e4 3c 56 e9 8f be
       0.2703295 -0.037488483 0.027881876 -0.2810771
000010 51 e4 11 3e f4 7c 02 be 18 79 31 bd f6 55 0c be
       0.14247252 -0.12742978 -0.043328375 -0.13704666
000020 4e 12 dc 3d ff eb 4b 3e a1 e8 67 be 91 3f 65 3e
       0.10745679 0.19914244 -0.22647335 0.2238753
000030 ea e8 0b 3d 79 72 f3 bd 09 66 fd bd e5 7b 85 bd
       0.03415767 -0.11887068 -0.12372977 -0.06517772
000040 d7 fa 2a be 65 40 35 3d a6 7c b3 3d c2 57 1c 3e
       -0.1669725 0.044250865 0.08764009 0.15267852
000050 4f 6f 63 3d 92 2f 20 3e 53 a7 08 3c 55 6b fa bc
       0.055526074 0.15643147 0.008340674 -0.030568758
000060 dc 42 85 3e 18 f8 73 3d a8 4d 95 bd db 69 4b 3c
       0.26027572 0.059562773 -0.072902024 0.012415375
000070 bd 4e 90 bd ae d4 01 3e 3d 6e 15 3e ce d0 98 be
       -0.07046268 0.12678787 0.14592834 -0.29846805
000080 29 56 8b be 0b 8c 10 be 99 92 1f bd 67 29 46 3e
       -0.27214172 -0.14115922 -0.038958166 0.19351731
000090 f6 bb 2d be 11 55 f5 bd 14 90 ba bd 68 d9 a8 bc
       -0.16966233 -0.11979116 -0.09109512 -0.02061148
0000a0 ae 51 87 3e 2a d6 70 be 20 db 0f 3d b0 51 64 bc
       0.26429504 -0.23519197 0.035121083 -0.013935491
0000b0 1f 4b 56 3d 7f bd 55 3e 3a bc 29 3d 42 c0 54 3e
       0.052317735 0.20873068 0.041439272 0.20776466
0000c0 95 79 66 bd c8 3c e4 bd 23 dc 9d 3d d2 a2 c4 bd
       -0.056268293 -0.111444056 0.07708003 -0.09601368
0000d0 09 7e 89 3d ed 7d e0 bd c2 31 49 be 74 01 06 3d
       0.067134924 -0.109615184 -0.19647887 0.03271623
0000e0 95 bf 50 bc 06 00 77 3e 60 3c dd bd f0 f4 16 3d
       -0.012740989 0.24121103 -0.10802531 0.036854684
0000f0 27 9d fa bd 78 0c 11 3e 8b 3e 12 3e 9b 6e 06 3e
       -0.12237006 0.14164913 0.14281671 0.1312813
000100 43 e7 70 bd 4b 9f 7e 3e 46 68 15 3c 6a fc 2c 3c
       -0.0588143 0.24865453 0.009119099 0.010558227
000110 42 58 bd bb 51 5d 12 3c 08 f5 6e be 30 62 54 be
       -0.0057783434 0.008933381 -0.2333566 -0.2074058
000120 68 a4 cf bb b3 a3 9b bc 52 23 45 3d 2c d4 4c be
       -0.0063367374 -0.018998956 0.048129387 -0.20002812
000130 84 03 8c 3e 3b 8d ac bd e9 83 4e bd 7b 02 95 bd
       0.27346432 -0.08425375 -0.050418768 -0.07275864
000140 90 c8 d8 3c dd 5a 3e be a0 96 3f 3c 35 07 06 3d
       0.026462823 -0.18589349 0.011693627 0.032721717
000150 45 37 20 3d a4 45 de 3d c1 14 05 3e 6d 1a f6 bd
       0.03911521 0.10853127 0.12996198 -0.12016759
000160 28 20 24 bd 05 d8 86 3c e4 d8 93 3d 50 bd 63 bc
       -0.04006973 0.016460428 0.07219103 -0.013900116
000170 8c 37 72 3e 45 ec 01 be 19 df 2b bd 51 4c 9c bd
       0.23654002 -0.12687786 -0.04196081 -0.07631744
000180 d2 33 2c 3d c0 82 c3 3d 0e c7 16 3d d9 ba cc 3c
       0.042041607 0.09546423 0.036810927 0.02499144
000190 1a fa 3d bd 8e ce d5 bd 76 2a bd bc b2 29 9c 3d
       -0.046381094 -0.10439788 -0.023091536 0.0762514
0001a0 a7 27 f7 3c 2c 55 7c 3d c9 06 88 3d 67 26 3f 3c
       0.030170275 0.061604664 0.06641919 0.011666871
0001b0 d5 23 8f 3c 78 50 62 bd 2d a5 a6 bc 18 04 18 3d
       0.01747314 -0.055252522 -0.020342434 0.03711328
0001c0 a5 17 87 3d 5e f9 83 be 38 73 34 3e 2c 96 9d 3d
       0.06596307 -0.2577619 0.17622077 0.07694659
0001d0 f3 1e cd 3d 0a 5d 16 3e 07 49 ca 3d fa 41 86 bc
       0.10015669 0.14683929 0.0987721 -0.016388882
0001e0 b0 89 6d 3e 4d ce e6 3d a9 0a 94 3a 59 17 20 3d
       0.23197055 0.112698175 0.0011294681 0.039084766
0001f0 42 29 f1 bd 9e 00 11 3e 97 0a 09 bd 76 47 a6 be
       -0.117754474 0.14160392 -0.033457365 -0.32476395
000200 ba d2 25 be 42 6c a7 3c 72 88 7f 3d 47 20 95 be
       -0.16193667 0.020437364 0.062385984 -0.29126188
000210 fb a6 de bd 9b cb d0 3d d9 8a b7 bd 9b 5b a7 bc
       -0.10871693 0.10195085 -0.0896203 -0.020429423
000220 37 4e 8c 3e f0 21 2a bd ca c0 97 bc 34 39 a8 bd
       0.27403423 -0.04153627 -0.018524546 -0.08214036
000230 c8 c0 1a 3d 12 a3 a8 bd ef 2d b7 3e 18 b1 33 be
       0.037781507 -0.08234228 0.35777232 -0.17548025
000240 9b 61 65 3e 00 a1 26 be d3 15 06 bd 08 7e 2f be
       0.22400515 -0.16272354 -0.032735657 -0.17137921
000250 95 26 01 be e6 04 49 3d 20 3f 9f bd 79 88 ac bd
       -0.12612374 0.049076937 -0.07775712 -0.084244676
000260 57 aa 61 bc 22 34 e2 bd f8 d3 29 3d d9 2d 86 be
       -0.013773522 -0.110451 0.041461915 -0.26206854
000270 4f 3c 34 3c 71 eb e1 3d 2f 0c cc 3d 5b 61 15 3e
       0.011000707 0.11031235 0.09963261 0.1458792
000280 5c a5 67 bd 25 87 97 bc 13 21 45 3e 4f cc 50 be
       -0.056554183 -0.01849706 0.19250898 -0.20390438
000290 78 38 2d be d5 78 af bc 0e 3a 50 3e f9 64 6a bd
       -0.16916072 -0.021419922 0.20334646 -0.0572252
0002a0 6e 31 92 be 3c 16 0e bc 1a 57 04 3e 92 d0 23 be
       -0.28553337 -0.008672293 0.12923852 -0.15997532
0002b0 9a 54 30 3e 67 78 f1 bd dd 66 35 bd 9e a6 58 3e
       0.17219773 -0.11790543 -0.04428755 0.2115731
0002c0 56 a8 15 3e 16 22 71 bd 32 ee fc bd c5 ee cc bd
       0.14614996 -0.058870398 -0.1235012 -0.10006479
0002d0 91 18 a9 3d 79 90 cc bd f5 58 89 3d ae 90 c1 bc
       0.08256639 -0.099884935 0.0670642 -0.023628559
0002e0 e2 7b 80 3d 87 5f a5 be db e8 bf 3c 09 81 88 bd
       0.06273629 -0.32299444 0.023426464 -0.066652365
0002f0 3a 68 77 bd 38 39 f6 bd 5a e8 be bd e9 f0 8f bd
       -0.060402133 -0.12022632 -0.09321661 -0.07028372
000300 a9 79 5d 3c 69 18 85 bd 6d 3b a4 bb 78 f6 2f be
       0.013517776 -0.064987965 -0.005011967 -0.17183864
000310 fe d3 05 bd fc 7a d8 3c 51 36 ad bd 0b d1 07 3e
       -0.032672875 0.026425831 -0.08457626 0.13263337
000320 32 9a 38 3d b3 c5 83 3e af 81 37 bd b3 e4 00 be
       0.045068927 0.2573677 -0.04480141 -0.12587242
000330 1a 95 0d be 86 1c 4c 3d 7f 01 fe 3d ee 03 88 3e
       -0.13826409 0.04983189 0.12402629 0.26565498
000340 91 82 46 3e 2c da 7f 3d 59 c3 c9 3d d3 b8 9d 3d
       0.19385745 0.062463924 0.09851713 0.07701268
000350 d2 06 17 3e 95 48 ab 3b 01 40 06 3e 8c dd 2d 3e
       0.14748695 0.0052271583 0.13110353 0.16979045
000360 3b 73 91 3d e2 f0 22 be 01 d3 01 bd d5 5a c9 bc
       0.071020566 -0.15912202 -0.03169537 -0.024579445
000370 2a fa 3e 3e fd 1b 33 3e c6 fc 25 3e e7 b8 8c bc
       0.18650118 0.17491145 0.16209707 -0.017178012
000380 d3 74 98 3e 28 18 9b bd aa 0d db bd 24 29 8e 3d
       0.2977663 -0.07572967 -0.106959656 0.06941441
000390 6e b0 45 3e ce f2 8b bd c5 6c 99 bc 0c d5 73 bd
       0.19305584 -0.06833421 -0.018728623 -0.05952935
0003a0 7a 27 ca 3d d7 0e c3 3d 03 95 10 3e 2f 69 8a be
       0.09870811 0.09524315 0.14119343 -0.27033374
0003b0 5d de 4e be 0f ef 7b 3d 86 59 05 be 42 56 e1 bb
       -0.20202012 0.06150728 -0.13022432 -0.006876738
0003c0 b6 e7 e6 3d 88 8e da 3c e4 6f 1e 3d fc e0 17 be
       0.11274664 0.026679292 0.038680926 -0.14831918
0003d0 02 05 53 3b 31 7d 82 bd 6a 6e 84 3e ff 8c 2c 3e
       0.003219903 -0.063715346 0.2586549 0.1685066
0003e0 24 92 3b 3e 2a 31 0b 3d 60 cb 25 3e 58 b3 3b 3d
       0.18317467 0.033982433 0.16190863 0.045825332
0003f0 67 e7 a5 3e 4e 13 6b be 7f 59 b7 bd 16 df 35 3d
       0.32403108 -0.22956583 -0.08952617 0.044402204

mid_part.2.bias f4 [12]
000000 9a 88 2b 3c fc ea 2d 3c e1 31 60 bb f2 88 9c 38
       0.01046958 0.010615107 -0.0034209418 7.464168e-05
000010 f0 8b 17 3d 76 fa 36 bc 76 ed 97 bb a4 dc c1 3a
       0.03699869 -0.011168113 -0.004636462 0.0014790487
000020 68 3a 99 3c 84 07 97 ba 0a 16 e6 3c e5 88 ce 3c
       0.018704608 -0.0011522626 0.02808668 0.02521176

mid_part.3.weight f4 [12]
000000 49 81 8c 3e d5 bc 77 3e f4 cc 84 3e 42 5c af 3f
       0.27442387 0.24193127 0.25937617 1.370003
000010 02 9e 2a 3f 39 2b 80 3e 1f 2e 50 3f ac 73 ea 3d
       0.6664735 0.25032976 0.81320375 0.11447844
000020 15 70 52 3e 35 d2 69 3f 57 8a 8d 3e b6 aa 99 3e
       0.20550568 0.91336375 0.27644607 0.30013055

mid_part.4.weight f4 [12, 12, 3, 3]
000000 b9 03 85 3b 3c f3 5a bd f4 e8 52 3e a9 9d 98 3e
       0.0040592817 -0.053454623 0.20596677 0.29807785
000010 cb 13 b0 bd bb 35 e2 3d 9b 49 41 be 7b 96 a7 3d
       -0.08597525 0.110454045 -0.18875735 0.08182999
000020 be 40 0a be 55 10 4c be 9e 97 d3 bd 26 64 b0 3e
       -0.1350126 -0.19928105 -0.10331653 0.34451407
000030 a5 aa 39 bd ce d9 2b 3e 47 28 22 be 57 d9 f4 bd
       -0.045328755 0.16782305 -0.15835677 -0.11955517
000040 db 9a ad 3c a4 ad 66 3e 21 a1 13 be 4b f1 3b 3e
       0.021192005 0.22527176 -0.14416935 0.18353765
000050 97 0b 4b bc 65 8b 0a 3e 6b 2a 5e ba 88 6b 23 bd
       -0.0123929 0.13529737 -0.00084749487 -0.03989747
000060 1a 20 db bc d3 25 47 3e 62 7c e5 3d 5c c1 f9 bd
       -0.026748706 0.19448023 0.11205365 -0.121950835
000070 1a 50 90 be 5b 3c ab bc 0d 1e 47 3e 37 55 35 be
       -0.28186113 -0.020902803 0.19445057 -0.17708288
000080 3b dc 80 be 88 ad 24 be 8c 3b 39 3e 9b c6 c6 3d
       -0.25168023 -0.16081822 0.18089122 0.0970585
000090 d5 ad 01 be 33 2c 14 3e fd 65 12 3e b9 aa 36 be
       -0.12663968 0.14469986 0.14296718 -0.17838563
0000a0 98 cf c4 3e 0f fe f1 3c 82 0a 81 be 88 f8 a0 3d
       0.3843963 0.02954009 -0.2520333 0.078599036
0000b0 1d 27 0d 3e 1e bd 0d bc 9e 19 69 bd 14 57 dd 3d
       0.13784452 -0.008651046 -0.056909196 0.108076245
0000c0 a1 b7 6d be e9 6a a1 3d 44 d7 ad be 9f f2 5c 3d
       -0.2321458 0.078817196 -0.33953297 0.05394232
0000d0 63 bb 7d 3e 2d e0 02 be 88 ff 20 3e 9f 33 79 be
       0.24778514 -0.12780829 0.15722477 -0.24336098
0000e0 df 2f 8a bd b1 f6 a1 3d 6e ce 9f bb 05 98 0f be
       -0.06747412 0.07908381 -0.0048769033 -0.14022835
0000f0 49 e9 1d bd 4d ba 92 be f6 02 94 3e 60 4f 9f 3d
       -0.038552556 -0.2865776 0.2890851 0.077788115
000100 43 1d ca bd de 48 2f 3e f8 23 1c bd 30 3b 39 3d
       -0.098688625 0.1711764 -0.03812024 0.04522246
000110 c7 ab c7 3d ea ba 5d be 9e 33 d9 bd c7 23 d2 bd
       0.09749561 -0.21653333 -0.10605548 -0.1026073
000120 7e 51 aa bb ae c0 0b 3d 99 18 9e bd e8 36 27 be
       -0.005197703 0.0341193 -0.077195354 -0.16329539
000130 0a 01 82 3c de ee 19 3d e4 cf a6 3c 6d ed 9d bd
       0.015869636 0.037581317 0.020362802 -0.07711301
000140 1a fb 40 3e ce 2d a1 3d 7c 76 bd bc de b2 3f 3e
       0.18845788 0.07870065 -0.023127787 0.18720576
000150 0a 4d b6 3d fa 3f 0c 3e 41 ae 1a bd c6 b5 82 3d
       0.08901413 0.1369628 -0.037763838 0.06382327
000160 bd 10 28 3e 53 2f b0 be 5c 12 43 3d 6d cb 2a 3e
       0.16412635 -0.34411106 0.04762493 0.16679163
000170 16 21 09 3d 51 87 53 3e bf dd 0b be 88 88 2a bc
       0.03347882 0.20657088 -0.13658808 -0.010408528
000180 cf 9f 43 bd b8 a7 9c 3c 93 33 57 3d 39 f9 43 3e
       -0.047759827 0.019122943 0.05253942 0.1913804
000190 a6 22 f5 bb f3 17 89 3e 98 8e 9b be 7c e6 7d 3e
       -0.007480937 0.26776084 -0.30382228 0.24794954
0001a0 d3 52 f0 be 84 91 64 bc ec 9f 2f 3e 0e b3 90 3e
       -0.4693819 -0.013950709 0.17150849 0.28261608
0001b0 8e 0a fa 3d a8 6e 66 be ab dd 4a bd 04 79 8a 3e
       0.122090444 -0.2250315 -0.049527805 0.27045453
0001c0 17 ea b6 3d b8 ab c4 3d 45 e5 94 3e d1 fa 75 be
       0.08931368 0.09603065 0.2908117 -0.2402146
0001d0 6c 5e 25 3d 8c 53 b1 bc fd 65 84 3d 54 22 1b bd
       0.04037325 -0.021646284 0.06464765 -0.037874535
0001e0 99 63 94 3e 73 f6 67 3d c3 37 a6 3e dc 9e 79 be
       0.28982237 0.056631517 0.32464418 -0.24377006
0001f0 4e 6c 81 be 47 70 a2 bd e2 dc 4f be 3c 40 04 3e
       -0.25277942 -0.079315715 -0.20299104 0.12915128
000200 42 d8 3c bd 6f 71 eb be 1b a6 2e be 6d 9c 3f bd
       -0.046104677 -0.4598498 -0.17055552 -0.04678004
000210 c2 72 0a bf 0c 4e 3a be 10 17 df 3d 2d 13 95 3c
       -0.54081357 -0.18193835 0.10893071 0.01819762
000220 9b c7 26 3e fc ad 6d 3e eb 4b 31 3e cb 54 ac 3e
       0.16287081 0.23210901 0.17314117 0.33658442
000230 8e 51 7b 3d ea db ba 3e 4e 19 ad 3e f3 40 cf bd
       0.061357073 0.36495906 0.33808368 -0.1011981
000240 5e 0e c5 bc 50 07 d7 bc f7 69 fd bc dc 53 40 be
       -0.024054702 -0.026248604 -0.030934317 -0.1878199
000250 64 52 73 bc 49 b7 d1 3b 13 14 ae be 97 50 42 bd
       -0.014851186 0.006400023 -0.3399969 -0.047440138
000260 2f 16 db bc 9b 0d f1 bc a7 20 3f be 9a 1a 92 3e
       -0.026743976 -0.029425433 -0.186648 0.2853592
000270 16 62 79 be 58 d9 3f bd 39 07 0d 3e bf 3d fe bd
       -0.24353823 -0.046838135 0.13772286 -0.12414121
000280 c0 b6 08 3d 92 ee 86 bd 7f ef 86 3e 20 2c 30 bd
       0.03337741 -0.065884724 0.26354596 -0.04301083
000290 5c 0b 64 bd 9a fa b8 3e 1f 21 c1 bd 9b cc b2 3c
       -0.055674896 0.36128694 -0.094301455 0.02182608
0002a0 c3 fc fe 3d 47 62 2b bd fc 9b 82 be 0c a3 a9 3e
       0.12450554 -0.04184177 -0.25509632 0.33132207
0002b0 bc e5 7d be 7c 07 77 be fb b5 35 bd 12 06 6c bb
       -0.24794668 -0.24123949 -0.044363003 -0.003601436
0002c0 aa a0 99 3d 7e b6 25 3e 57 95 0a 3e a5 48 da 3e
       0.07501347 0.16182896 0.13533531 0.42633548
0002d0 76 74 89 bd b7 d4 87 be 17 f3 24 be 25 02 59 bc
       -0.06711666 -0.26529476 -0.16108356 -0.01324514
0002e0 f3 d7 e4 bd ac d8 c1 3d 7a 34 50 3e 35 6b 98 3e
       -0.111740015 0.09465155 0.20332518 0.29769292
0002f0 34 ac f8 3d a8 fa d5 be 41 28 00 3e bd e7 19 be
       0.1214222 -0.41792798 0.12515356 -0.15029807
000300 1e 06 47 3e 97 6b 69 3e bf 83 0b bd a5 67 15 3d
       0.19435927 0.22794949 -0.03406119 0.036475796
000310 13 91 66 bc fe de d1 3d b6 56 dc bd 0e 1a bd be
       -0.014072674 0.102476105 -0.10758726 -0.3693394
000320 37 36 9b bc 82 93 ce 3e f1 f1 cb 3e f4 84 06 3e
       -0.01894675 0.40346915 0.39833024 0.13136655
000330 73 65 d2 be 0d fb 7d be 9d 76 0b 3e d2 64 6f be
       -0.41093025 -0.248028 0.13619466 -0.23378304
000340 63 39 83 be 34 71 92 be 7a 41 46 be c9 ee 81 3d
       -0.2562972 -0.28601992 -0.19360915 0.06344373
000350 95 e3 25 3b cc e5 18 3f f0 ed b9 3e d7 87 87 3e
       0.0025312651 0.5972564 0.36314344 0.26470825
000360 f0 80 53 3e 9f ce 49 be ad 2c 1d 3e e4 7a a2 3d
       0.20654655 -0.19707726 0.15349074 0.07933596
000370 b9 54 2f 3d 51 12 0d bc 49 1b fa bd 91 27 9c 3e
       0.042805407 -0.008610324 -0.122122355 0.30498937
000380 77 6a 5c 3d 4a 0d 68 3e 6d e3 1a 3c 62 e6 2e 3e
       0.05381247 0.2266132 0.009453637 0.17080072
000390 dd cd b3 bc 70 ca fe 3c 39 6e c7 3d e6 16 e9 bb
       -0.02194875 0.03110239 0.0973782 -0.0071133254
0003a0 5a 4d 9e 3d 6b c2 92 3c 44 da 8c bd c5 aa 3d 3d
       0.077295974 0.017914971 -0.06877568 0.046305437
0003b0 c8 3b 34 3e 16 f7 3a bd d1 25 1d 3e 87 8b fa 3d
       0.1760093 -0.045645796 0.15346457 0.12233644
0003c0 4b 17 e5 3c e9 18 68 bc d9 92 2b be c5 f5 b3 be
       0.027965209 -0.014166095 -0.16755237 -0.35148445
0003d0 83 32 01 be c5 52 97 bd f9 86 4d 3c 1c b0 85 3e
       -0.12616925 -0.07388834 0.012544387 0.26110923
0003e0 d9 b9 2b 3e 2c 9c 27 3e dd 51 70 be c3 17 8c 3d
       0.16770114 0.16368169 -0.23468728 0.0684047
0003f0 a6 6b 96 bc fd 4c dc be 01 46 70 be 01 6f 3c be
       -0.018361878 -0.43027487 -0.23464204 -0.1840172

mid_part.4.bias f4 [12]
000000 d4 77 85 3d c1 75 27 3c 02 13 fb bc 1e c0 a0 3c
       0.06516996 0.010220946 -0.030648712 0.019622859
000010 9e b0 b9 3b d2 2e bf bb 6c 49 a0 3b ba 46 9d 3c
       0.0056668064 -0.005834439 0.004891565 0.019198764
000020 05 6f 0d 3d a2 c3 74 3c ba 11 21 bd 0c b5 b0 bc
       0.034529705 0.014939221 -0.039323546 -0.021570705

mid_part.5.weight f4 [12]
000000 ef 27 ac 3f b7 03 35 3f 37 aa c9 3e a8 ce 86 3e
       1.3449687 0.70708793 0.39387676 0.2632954
000010 00 bb 02 40 96 6a aa 3f b5 f7 b7 be a4 98 d7 3c
       2.0426636 1.3313777 -0.35931173 0.026317902
000020 5f be 22 3f 7a bd 9c 3f c3 fb dd 3e 28 70 80 3e
       0.63571733 1.2245324 0.4335614 0.25085568

mid_part.6.weight f4 [12, 12, 3, 3]
000000 c9 07 6c 3d 6c 8b 7a bd 5a 91 c7 bc 91 88 29 3d
       0.057624612 -0.06116812 -0.024361301 0.041390005
000010 7d 56 06 3e 06 cf 38 3e fc 9d 30 bd 80 f1 eb 3d
       0.1311893 0.18047723 -0.043119416 0.11520672
000020 24 8e b2 3c 29 7b d9 3c ab 47 87 3e f6 b7 3c 3e
       0.021796294 0.026547985 0.26421866 0.1842955
000030 5e b3 c3 3d 07 ec 5e 3e 6b d3 8b 3e bf 99 4a bb
       0.09555696 0.21769725 0.27309737 -0.0030914394
000040 6b 95 8c be 35 eb 7c 3d 71 98 88 3d 31 75 24 be
       -0.27457747 0.06174775 0.06669701 -0.1606033
000050 71 e1 2e 3d f2 19 04 3e e5 ba f6 3b d2 d4 90 bd
       0.042695466 0.12900522 0.007529604 -0.07071842
000060 4c 49 41 be 68 5d 09 be 8e 99 36 3e 43 37 19 3e
       -0.18875617 -0.13414538 0.17832014 0.14962487
000070 af 15 cf bd 48 37 4a be e6 ff f7 bb 26 e5 be 3d
       -0.10111558 -0.1974765 -0.0075683473 0.0932105
000080 18 c6 d0 3d 40 7f e8 3d e9 36 bf be 1b a4 24 be
       0.101940334 0.11352396 -0.3734658 -0.16078226
000090 44 68 6e bc ee 50 18 3e a8 05 ab bd f6 5d 2d 3e
       -0.014551226 0.14874622 -0.08350688 0.16930375
0000a0 7e eb fb 3d 2c 0e 0c be d7 27 1b bd 2a ab 30 3e
       0.12300776 -0.13677281 -0.03787979 0.17252794
0000b0 58 0c 23 bd ea 0e 03 be 79 59 cc be 7e 2a ae 3d
       -0.039806694 -0.12798658 -0.39912012 0.085041985
0000c0 de 9c 63 3e f8 11 09 3c f2 19 58 3d 7a 7b ba 3d
       0.22227809 0.0083661005 0.05275912 0.091055825
0000d0 5c a9 f4 3d 07 bc 28 3e 7d 4f 22 3e 09 55 5c be
       0.11946365 0.16477977 0.15850635 -0.21516813
0000e0 ec fd 23 3d b6 5f b1 3d 85 23 5c 3d 80 b2 82 3d
       0.04003708 0.086608335 0.05374481 0.063817024
0000f0 2c 9f 54 3e 63 6f 3d 3e 92 47 07 3e bf ce ec bd
       0.20763844 0.18499522 0.13210896 -0.11562871
000100 fb 0d a4 bd 3d 5d 0a 3e d5 ad 17 bd 7c d1 29 be
       -0.08010479 0.1351213 -0.037031014 -0.16583818
000110 98 dc e4 3c fa ff 86 3d 9b c2 4a 3d 24 ab 43 be
       0.027937219 0.065917924 0.049501996 -0.19108254
000120 3d 5f 89 bd 4a 81 c2 3d 59 a6 07 3e 0e d9 f8 bc
       -0.067076184 0.09497316 0.1324705 -0.030376937
000130 06 5c 3d 3d 51 17 8c bc 19 e2 aa bd 82 d9 38 be
       0.04623034 -0.017100962 -0.08343906 -0.18051723
000140 38 69 c4 3c 45 da 19 bd f2 c2 3a 3e 42 ad 3b 3b
       0.023975953 -0.037561674 0.18238428 0.0028637205
000150 89 2d 2f be c7 33 8a 3d cc 44 3c 3e a1 5a 4a be
       -0.17107214 0.06748157 0.18385619 -0.19761135
000160 f0 f5 fe bd bd 83 6f be d7 2f a6 bd d5 44 22 3e
       -0.124492526 -0.23390098 -0.081145935 0.1584657
000170 24 2f c2 3d a0 90 6d bd d4 03 64 be 91 62 e2 3d
       0.094816476 -0.057999253 -0.22267085 0.11053956
000180 6f 7c ae bd 10 a7 35 3e b5 0a 24 bd 29 3d d6 3d
       -0.085198276 0.1773951 -0.040049274 0.10460884
000190 48 27 56 3d 70 06 75 3d ff 2f 82 3d 43 b3 05 be
       0.052283555 0.059820592 0.06356811 -0.13056664
0001a0 1a d0 9f bb 1c e1 1a 3e be d5 03 be 72 1b 85 3c
       -0.0048771026 0.15124935 -0.12874505 0.016248439
0001b0 06 a9 a7 3e 43 23 1b 3e 65 3d b1 3b dd a5 25 be
       0.32746142 0.1515017 0.00540893 -0.16176553
0001c0 a3 05 61 be 30 63 05 3e 5b e8 04 3e 0e aa df 3d
       -0.21974806 0.13026118 0.12979262 0.10921107
0001d0 c6 0b 8a 3c d6 46 ec bd fa 12 da bc b1 46 13 3e
       0.016851317 -0.115369484 -0.026620377 0.14382435
0001e0 00 d7 61 bd fb f7 27 3e d9 22 82 3d 54 85 12 3e
       -0.05513668 0.16403191 0.06354303 0.14308673
0001f0 6a e3 1c be f7 d5 b1 3c 68 5c ff 3d 35 8f 91 3c
       -0.15321127 0.021708472 0.12468797 0.017768482
000200 82 19 3e 3c b3 41 24 3e ef dc 8b 3d e1 9d 3f 3e
       0.011602761 0.16040687 0.06829249 0.1871257
000210 82 03 eb bb 46 a6 00 be b6 f3 73 3c 85 2e d3 3d
       -0.007172049 -0.12563428 0.014889648 0.10311607
000220 06 63 4a 3d c5 77 dc bc 6f b8 99 bd d7 68 24 3e
       0.049410842 -0.02691258 -0.07505881 0.16055618
000230 be e9 e6 bb 0d 0e ba bd 4c c9 4f be 07 f6 2c 3d
       -0.007046907 -0.09084711 -0.20291632 0.042226817
000240 b8 b9 57 3d 08 45 c7 bd f8 1a 26 3e 33 cd de 3d
       0.05266735 -0.097299635 0.16221225 0.108789824
000250 c5 02 1b bd d9 e5 ff bd ab c6 cf 3d 4e bc 52 3e
       -0.037844438 -0.12495012 0.10145315 0.20579645
000260 99 d3 2a 3d 3e ba 91 3d ce 70 00 3d 2a 95 c1 3d
       0.0417057 0.07115601 0.03135758 0.09452279
000270 17 a2 62 be bb b0 a5 3c 80 76 41 bd a8 a1 da bc
       -0.22132145 0.020225873 -0.04723215 -0.026688412
000280 b6 7d 29 3d 6d 1f 36 3d d0 c6 05 3e ef c5 a9 3c
       0.041379653 0.044463564 0.13064122 0.020724265
000290 a1 d5 63 bb 7e d9 42 3d cd 12 ae 3d c8 d8 de bc
       -0.0034764784 0.047570698 0.0849968 -0.027202979
0002a0 a5 0b c2 bd 46 b1 8e bd 81 34 bb bd 3b f8 1d 3e
       -0.09474877 -0.06967406 -0.09140874 0.15426724
0002b0 a5 0b 38 bd ef 21 dd 3d 63 51 d7 3b 4f 16 39 3e
       -0.04493298 0.10797488 0.0065709813 0.18074916
0002c0 4c 14 70 be cc 7c a9 bc 1b 76 e4 bc 70 d9 c0 bd
       -0.23445243 -0.02068939 -0.027888348 -0.09416473
0002d0 f2 75 7f 3e c6 55 a3 be a9 c2 14 3e 08 28 f3 bc
       0.24947336 -0.31901377 0.14527382 -0.029682174
0002e0 1a ec 2e 3d 9d 2d 6c 3e 90 fd dd 39 bd 57 ff 3d
       0.042705633 0.23064275 0.00042341324 0.124679066
0002f0 98 82 01 bd 96 aa af 3d 39 ed 4d bb 5a a2 64 3d
       -0.031618685 0.085774586 -0.0031421913 0.055818893
000300 3e a9 1c 3e b3 03 5c 3e 9b 33 31 be dc 81 ef b9
       0.15298936 0.21485786 -0.17304842 -0.00045682385
000310 df 0c 1b 3e b5 ad 4c 3e 55 8f b6 3d 6f 39 6d 3e
       0.15141629 0.19988139 0.08914057 0.2316644
000320 3a a4 67 3d 5d 9c 5a be be df 88 be 33 02 61 bd
       0.056553103 -0.2134871 -0.26733202 -0.054933738
000330 e4 22 df 3d 0d ba 9c bd 9f 1a 98 3e ea 02 94 bd
       0.10895327 -0.07652674 0.2970781 -0.07227118
000340 74 78 ad bc a9 30 d5 bc 08 2a 42 3d 03 2a 84 3d
       -0.0211756 -0.02602418 0.047403365 0.064533256
000350 b6 03 a2 3b fd 32 76 be f7 3c 78 be df e2 94 3d
       0.00494429 -0.24042888 -0.24242006 0.07269835
000360 4c 17 8f be 46 f0 df bc 7f dc 48 be e3 d5 8d bc
       -0.27947462 -0.027336251 -0.19615363 -0.017313903
000370 10 7e fd bd f3 3c a5 bd 49 d8 84 3e 49 79 2a 3e
       -0.1237756 -0.08068266 0.25946262 0.16647829
000380 c2 3c 4b be ce 71 21 be 39 f3 47 be 6f 8a 20 3d
       -0.19847396 -0.1576607 -0.19526376 0.03919452
000390 ab c1 0c be 28 af 3e 3d 66 94 01 be e3 55 8c 3e
       -0.13745753 0.04655376 -0.12654266 0.27409276
0003a0 f6 00 40 3e f3 0c 3a 3e 75 1c 01 be 48 c1 09 3e
       0.18750367 0.18169002 -0.12608512 0.13452637
0003b0 d1 c8 f9 3b cc 78 9a 3d e8 aa 77 3c ab 46 0c be
       0.007622816 0.075425714 0.015116431 -0.13698833
0003c0 1f aa 2b 3e e5 da 0e be 72 fc 8a be d4 67 fe 3d
       0.16764115 -0.13950689 -0.27145725 0.124221474
0003d0 5b 42 b9 3d 78 c2 6d 3c 33 f0 27 3e 69 73 53 3e
       0.090458594 0.014511697 0.16400222 0.20649494
0003e0 d7 d7 d3 bd 61 09 25 be 07 c3 b3 bd 2d 47 ad 3c
       -0.103439026 -0.16116859 -0.08777433 0.021152103
0003f0 92 99 9a be 15 63 3c be f3 e4 28 3e f7 ed 85 bd
       -0.3019529 -0.18397172 0.16493587 -0.06539529

mid_part.6.bias f4 [12]
000000 35 f8 b6 3c cd 43 d1 3b 5b 43 04 3d 4c c7 b3 3b
       0.022335151 0.0063862563 0.032290798 0.0054864045
000010 10 43 e0 3c a6 e6 a6 3d 70 ec 99 3d 10 a8 8d 3d
       0.027375728 0.081494614 0.075158 0.06916821
000020 e9 4b f8 3b 2e 3e af 3b 9a a6 11 3e 4c c4 4a bd
       0.0075774086 0.0053479886 0.1422371 -0.04950361

mid_part.7.weight f4 [12]
000000 41 35 15 3f c8 d7 c1 3f 85 4f 9a 3e 7e 5f 8c 3e
       0.58284384 1.5143976 0.30138794 0.27416605
000010 af 6e 19 be dc f3 a2 3f 94 38 8c 3f 86 aa 9d 3e
       -0.14983629 1.273067 1.0954766 0.30794162
000020 df 82 a7 3e 0e 56 46 3e 7a dc 94 be 53 87 63 3e
       0.32717034 0.19368765 -0.2907446 0.22219591

mid_part.8.weight f4 [12, 12, 3, 3]
000000 b3 72 cb 3d d0 6b e2 bd c6 3d 42 be 30 0c a8 bd
       0.099339865 -0.1105572 -0.18968877 -0.082054496
000010 c9 a6 71 3e 83 ac 06 3e d5 41 9c be 80 95 0e 3e
       0.2359878 0.13151745 -0.30518976 0.13924217
000020 ef 33 9d bd 1d cb 2e bd a0 e3 13 3d 02 81 8f 3d
       -0.07675921 -0.042674173 0.036105752 0.07007028
000030 e5 33 ba 3d ac 26 a1 3e e6 02 17 3d 19 23 4d 3e
       0.09091929 0.31474817 0.036868 0.2003292
000040 08 9c 63 3d 11 01 74 bd 27 6e b2 3d dd 80 20 bd
       0.055568725 -0.05957133 0.08712416 -0.039185394
000050 34 e3 2e bc fb 93 67 be 0e ec db bc b9 2f c7 bc
       -0.010674287 -0.22615044 -0.026845958 -0.024314748
000060 42 df 81 3d 4a da 42 be 54 1f 7e 38 93 31 75 bd
       0.06341411 -0.19028583 6.0587496e-05 -0.05986173
000070 52 41 b3 bd 5e 0a ee 3c 7b 31 2f be 07 73 87 bd
       -0.08752693 0.029057678 -0.17108719 -0.066137366
000080 60 2e dc 3d 41 61 ae 3b 51 7c e0 bd b7 55 41 be
       0.10751033 0.005321652 -0.109612115 -0.18880354
000090 a7 ff 88 bc 5c 40 4d bc 07 41 9b 3c cb 4d e9 3d
       -0.016723467 -0.0125275515 0.018951906 0.11391791
0000a0 1b e1 6e bc 53 e9 69 3e 1d bb a8 bd 4a 2e 66 3d
       -0.0145800365 0.22842912 -0.08238814 0.05619649
0000b0 bf c2 d9 bc da 51 6f 3d b2 39 22 3e e9 75 4c 3d
       -0.02658212 0.05842767 0.15842322 0.049917135
0000c0 ee bd 1e be 9e d5 99 3d de a4 f2 3c 0c 4d a9 3e
       -0.1550214 0.07511447 0.02961963 0.33066595
0000d0 dd 63 16 be 59 05 ca 3d 4f 1f fb 3d ad 74 af be
       -0.14686532 0.09864301 0.12261831 -0.34268704
0000e0 48 0a 06 3d 4e 50 4f 3d 0d 5a c0 bc d2 df 44 bd
       0.03272465 0.050613694 -0.02348044 -0.048065014
0000f0 3e f8 d3 bd 22 fc f5 bd 00 8e 30 3d d6 89 a9 bc
       -0.10350083 -0.12010981 0.04310417 -0.020695608
000100 82 b2 9e 3e 1d e2 30 3c e2 c2 3a 3d 82 68 4c 3e
       0.30995566 0.010796097 0.04559601 0.19961742
000110 df fc b9 bd 74 3b 37 be 50 dd 65 bc 68 9d 59 be
       -0.090814345 -0.17893773 -0.014029816 -0.21251452
000120 c7 b1 76 be b6 0b 04 3d 70 ea 69 3d 7b f1 b7 3c
       -0.24091254 0.03223773 0.057108343 0.022454014
000130 74 71 3d 3e 87 49 1b be e7 bb 13 bd ab bb 09 be
       0.1850031 -0.15164767 -0.03606787 -0.13450496
000140 16 15 03 be 83 a5 ac 3d c3 5d 80 bd fe 55 0b be
       -0.12801012 0.08430006 -0.06267884 -0.13607022
000150 e0 bc 0d be e8 e4 4e bd c6 4c d9 bc 0d 31 6c 3e
       -0.13841581 -0.05051127 -0.026525866 0.23065586
000160 c7 31 1e bd d4 f4 34 bb 80 1b 93 3c 93 00 20 3e
       -0.03862169 -0.002761175 0.017957449 0.15625219
000170 cc 4d 89 3c f6 43 7e bd cf f3 08 bd a8 89 33 3d
       0.01676073 -0.06207653 -0.03343564 0.04383245
000180 05 5d a8 3d 2b 10 aa 3d 15 3f 5a bd f3 a0 26 3e
       0.08220867 0.08303865 -0.053282816 0.16272335
000190 a6 9c c8 3e dc 2f 49 be ce 39 dd 3e 0a a2 bf bc
       0.39182013 -0.19647163 0.43208164 -0.023392696
0001a0 86 28 4f 3e 05 ed 4c be 86 fb ea 3d 6c 7e 73 3e
       0.20230302 -0.20012291 0.114737555 0.23778695
0001b0 72 72 ef 3d f1 b2 c7 bd 68 4e 19 be 08 21 75 3e
       0.116917506 -0.09750927 -0.14971316 0.23938382
0001c0 64 8c 1f 3e e3 c2 5c 3c cf b8 97 3d 23 10 86 be
       0.15580899 0.013474199 0.07408296 -0.26184186
0001d0 1f 4b 64 be 52 62 59 3d be b2 1a be d6 67 1e 3c
       -0.22294281 0.05307228 -0.15107247 0.009668311
0001e0 03 1c fb 3d 58 e2 56 3e cb ba 7b be 57 8b 2a be
       0.12261202 0.20984781 -0.24582975 -0.16654716
0001f0 8a 0e d5 ba f2 b6 d1 bd af 5a a3 3d 4a a2 c8 bc
       -0.0016254943 -0.10239972 0.07976281 -0.024491448
000200 24 1e ba 3d b6 af 92 3d 73 8c 8f be df 11 79 3e
       0.0908778 0.071624205 -0.28036842 0.24323224
000210 55 79 e5 bd 40 36 90 3d c4 11 8e 3c 3a 52 3a bd
       -0.11204783 0.07041597 0.017342456 -0.045488574
000220 d7 7e b7 3e 19 3a 4b 3d 45 91 08 3e d8 a7 a6 bb
       0.3583896 0.049615953 0.13336666 -0.0050859265
000230 8e 77 9a 3d 76 97 38 be 56 45 84 3d 40 c9 de 3d
       0.075423345 -0.18026528 0.06458537 0.10878229
000240 d4 6f 1b 3e 80 f7 c4 3b c3 a9 d2 bd 0a b7 26 3d
       0.15179378 0.0060109496 -0.10286286 0.040701903
000250 a6 a4 4a 3e 2a cb 96 be d6 97 1e 3e 13 95 a7 be
       0.19789371 -0.29451877 0.15487608 -0.32730922
000260 76 22 89 3d 72 08 2e 3e f4 14 24 3e 11 ac 38 bd
       0.06696026 0.16995409 0.16023618 -0.04508597
000270 bd df b5 3d 5a a7 68 3e 37 27 a4 3d 1d e1 3b be
       0.08880565 0.2272009 0.08015292 -0.18347593
000280 9e 78 88 bd c7 37 d4 39 ce 82 57 bd f3 c6 16 bc
       -0.06663631 0.00040477348 -0.05261498 -0.009202707
000290 65 2a 1e 3e f6 c6 d3 3d 09 ea c4 3c 5a d1 2f 3d
       0.1544586 0.10340683 0.024037378 0.042924263
0002a0 e4 c8 3d bd 64 9f 25 bd 1b a5 6e 3d fc fe 2e 3e
       -0.046334162 -0.04043521 0.058262926 0.17089456
0002b0 8b 83 52 3e f7 d7 0b 3e 5c 81 0d 3e 44 67 b8 be
       0.20557992 0.13656603 0.13818878 -0.36016285
0002c0 89 48 7f 3d 8f 1d 20 3d 33 1a 3a bd e0 a4 87 3d
       0.062325034 0.03909069 -0.04543514 0.06623244
0002d0 22 52 a2 3d e8 81 94 bb 5b e3 cb bb 9a d8 8d 3d
       0.07925822 -0.0045320876 -0.0062221712 0.06926079
0002e0 ca 75 09 be 4c 40 3b 3d 9c c1 92 3e 1e 69 94 bd
       -0.13423839 0.045715615 0.28663337 -0.07246612
0002f0 bb 8c bf 3d 9e d2 8e 3e 65 fc 7b 3c c1 b8 1b 3c
       0.09353014 0.27895063 0.01538 0.009504498
000300 87 a7 74 3e fd b5 2f 3d a6 25 6c 3e cd 3d 40 3e
       0.23892032 0.042898167 0.23061237 0.18773575
000310 9a 90 e3 bb a1 90 72 3d 5a 04 84 3b c0 2c 1b bd
       -0.006944728 0.05921996 0.004028839 -0.037884474
000320 62 8c 9a 3d b0 44 15 bc ac 29 28 be 7b 20 04 be
       0.07546307 -0.009110615 -0.16422147 -0.12903015
000330 19 f3 c5 bd b7 37 9e 3d 0c 45 41 3e dc c0 38 3e
       -0.09665508 0.077254705 0.18873996 0.1804232
000340 dc 2b 4a be 37 a5 b6 3d 74 5f 30 3e ac 57 95 3d
       -0.19743294 0.08918231 0.17223912 0.07292113
000350 03 29 94 3d 6a cd ce bc 5c a9 19 3b 93 d1 3f 3e
       0.07234385 -0.025244433 0.0023446893 0.1873229
000360 f7 e0 73 bd af 75 2d 3e 74 83 b9 3d 90 c8 1c bc
       -0.059540715 0.16939424 0.09058276 -0.009569302
000370 f9 23 a4 3d 98 ef f0 bd b9 bf 56 3d b5 32 00 3e
       0.08014674 -0.11764449 0.052428935 0.12519343
000380 e4 91 13 3e b5 19 7c 3d ea f9 5c 3d 6c 53 40 3e
       0.14411122 0.061547954 0.053949274 0.18781823
000390 01 36 9c 3c a7 3b 3e 3e 13 72 f5 bd 9e e6 c3 3d
       0.01906872 0.18577443 -0.119846486 0.09565471
0003a0 14 55 ae 3d 34 b4 fd bd 8f b4 a6 3b 87 5f 83 bc
       0.08512321 -0.12387887 0.005087442 -0.016036762
0003b0 17 a9 1c be 89 3a 56 bd 5e 9a 30 be 1e 3a cf 3c
       -0.15298878 -0.052301917 -0.17246386 0.025296267
0003c0 dd 67 1e bd 64 d8 04 bd ce e4 fd bc 9a e4 50 be
       -0.03867327 -0.03243293 -0.030992892 -0.20399705
0003d0 ad 5c 9d bd f1 63 91 bd 9d de 6f 3e 26 e8 a0 3d
       -0.07683692 -0.070991404 0.23424764 0.07856779
0003e0 8e 4d 50 be 8c de 47 3d 1b 50 66 bd a1 6b 18 bb
       -0.20342085 0.04879622 -0.05622874 -0.0023257511
0003f0 82 85 8d 3d d3 b4 22 3d be 3a 8a be 98 48 3a 3e
       0.0691023 0.03972323 -0.26997942 0.18191755

mid_part.8.bias f4 [12]
000000 81 8c d7 3a 0a 91 fd 3c 10 9b 00 bc 81 13 f8 bc
       0.0016445072 0.03095295 -0.00784947 -0.030282738
000010 b3 ac 02 3c 89 c6 2c bb ac 3f 4d 3c 51 64 1c 3d
       0.007975745 -0.0026363453 0.012527388 0.038181607
000020 e1 72 e9 bc 18 82 75 3d 41 40 fb 3c 9b 7b 01 3d
       -0.028497161 0.05993852 0.030670287 0.03161202

mid_part.9.weight f4 [12]
000000 f1 f4 aa be 22 df e3 3c 28 6d 9c bd a9 16 88 3e
       -0.3339 0.027816359 -0.076380074 0.26579788
000010 ef 97 f3 3e 67 55 99 3f 84 7c 2b be 2d 55 86 3f
       0.47576854 1.1979188 -0.16746718 1.0494744
000020 6a 2c 89 3e 08 02 ac 3e 7f fd ad 3d 06 b2 d9 3f
       0.26791698 0.335953 0.08495616 1.7007453
