models/fsrcnn/track1/track1_x4__epoch_3.pth (torch, 58227 bytes, 22 tensors)

first_part.0.weight f4 [56, 1, 5, 5]
0	0xbcc65dc4	-0.024214633
1	0x3d589512	0.05287654
2	0x3cd8ee9a	0.026480962
3	0x3be326ec	0.00693213
4	0xbbbdc790	-0.005791612
5	0xbccd8961	-0.025089921
6	0x3cd07f94	0.025451459
7	0xbccaeb82	-0.024770502
8	0xbd0970f8	-0.033555
9	0x3c09ec7a	0.008418197
10	0x3d687438	0.05675146
11	0xbcafb567	-0.021448804
12	0x3cfd3929	0.030911045
13	0x3ca3f33e	0.020013448
14	0x3c9400e2	0.018066827
15	0x3d23d328	0.039996296
16	0xbcfbdc7c	-0.030744784
17	0xbc5288d1	-0.012850002
18	0x3d93584b	0.07194575
19	0xbbe1aca7	-0.006887037
20	0xbc704150	-0.014664009
21	0x3c17a4f5	0.009255637
22	0x3d5c3170	0.053758085
23	0x3b611f7e	0.0034351046
24	0xbd1d55a1	-0.03841174
25	0xbd070a2b	-0.03296868
26	0xbd23b105	-0.03996374
27	0xbd3e48ba	-0.046456076
28	0x3c32d4d0	0.010914996
29	0x3d357a4c	0.044306085
30	0xbd48fa36	-0.049066745
31	0x3d34f9f3	0.044183683
32	0xbd1cfb65	-0.038325686
33	0xbc8ca601	-0.017169
34	0x3ba9fa2e	0.0051872944
35	0xbcf4fc69	-0.029905515
36	0x3c8dd4e2	0.017313424
37	0x3b969e41	0.004596502
38	0x3a8527ed	0.0010158994
39	0xbd866165	-0.06561545
40	0xbc2498c5	-0.010046189
41	0x3d04fe66	0.032469176
42	0xbba6d52a	-0.005091329
43	0x3b0c3a41	0.0021397027
44	0xbc6a5556	-0.014302572
45	0x3d336a51	0.043802563
46	0xbb54e1dd	-0.0032483258
47	0xbdb3f7ea	-0.0878752
48	0x3d447337	0.04796144
49	0x3ab55579	0.0013834677
50	0xbcbd41f8	-0.023102745
51	0xbd4e6950	-0.050393403
52	0xbc8423a9	-0.016130285
53	0xbc9c175c	-0.019054107
54	0x3c8da60b	0.01729109
55	0xbb70d0f1	-0.0036745633
56	0x3b8733fc	0.00412607
57	0xbc9cfe7c	-0.019164316
58	0xbcdcc945	-0.026951442
59	0xbd9c175d	-0.07621644
60	0xbd1f0d9d	-0.038831342
61	0xbda22366	-0.07916908
62	0xbd5f706a	-0.054550566
63	0xbc3fab96	-0.011698624
64	0xbd6a87bc	-0.057258353
65	0x3d3bf164	0.045884505
66	0xbd6a0bbe	-0.057140104
67	0xbd80ccf3	-0.06289091
68	0xbce9f87f	-0.028560875
69	0xbc83a89a	-0.016071606
70	0xbd694be4	-0.05695714
71	0x3d424f55	0.04743894
72	0x3d2c9839	0.04213736
73	0xbd27aea7	-0.040938046
74	0xbca611ad	-0.0202721
75	0x3d0e5273	0.0347466
76	0xbb4d8eaf	-0.0031365564
77	0x3d5720f2	0.052521653
78	0x3cba798c	0.022763036
79	0xbcc7f134	-0.024407007
80	0xbd2f8844	-0.042854562
81	0xbc68dbbc	-0.014212545
82	0x3c693f46	0.014236277
83	0xbd478d83	-0.04871894
84	0xbb0202e2	-0.0019838144
85	0x3c2d5616	0.0105796065
86	0x3db9ce00	0.090724945
87	0xbd161867	-0.036644366
88	0xbd90fc6d	-0.070793964
89	0x3cd6ee87	0.026236786
90	0x3d0716e6	0.032980822
91	0xbd3c83fd	-0.04602431
92	0xbd653180	-0.05595541
93	0xbbc23692	-0.0059269154
94	0xb921fa27	-0.00015447346
95	0x3d0dae11	0.03458983
96	0xbd8f6ccc	-0.07003173
97	0xbc994300	-0.018708706
98	0xbd3054e2	-0.0430497
99	0xbdd24859	-0.102677055
100	0x3bb1d241	0.0054266755
101	0xbd1ee265	-0.038790125
102	0xbd0f0e28	-0.03492561
103	0xbdb267b5	-0.08711187
104	0xbc81c8f5	-0.015842894
105	0xbc8a3a38	-0.016873464
106	0x3d97d36f	0.07413375
107	0x3b41d2c0	0.002957508
108	0x3d213c53	0.03936417
109	0xbbe860df	-0.007091626
110	0x3c0bff5a	0.008544767
111	0xbd9e2c27	-0.07723265
112	0xbd072e16	-0.033002935
113	0x3af8eb19	0.0018990963
114	0x3c9a4a60	0.018834293
115	0xbc321b1a	-0.010870719
116	0xbda188ca	-0.078874186
117	0xbd4bf9f7	-0.049798932
118	0xbccce9bc	-0.025013797
119	0x3d2b7fe5	0.041870017
120	0xbd3fb22d	-0.04680078
121	0xbc89ee93	-0.016837394
122	0x3d575ea7	0.052580502
123	0xbd94b93a	-0.07261892
124	0x3caa0c86	0.020757925
125	0xbd93eeb8	-0.07223266
126	0xbd51b3c3	-0.051196825
127	0x3d30cb4e	0.043162636
128	0x3cba6857	0.022754831
129	0x3c2828c7	0.010263628
130	0x3d01c572	0.03168244
131	0xbd2ce796	-0.042213045
132	0xbc472d2d	-0.012156767
133	0xbd77a07b	-0.06045578
134	0x39d4475c	0.00040488958
135	0xbd4c3b06	-0.049860977
136	0xbcba7292	-0.02275971
137	0x3d01449e	0.03155958
138	0x3ce26dc4	0.027640231
139	0xbd133ab2	-0.035944648
140	0x3d636125	0.055512566
141	0xbd79462b	-0.060857933
142	0x3cd20f3c	0.02564203
143	0xbc8cf456	-0.017206352
144	0xbc194569	-0.009354928
145	0x3d434196	0.04766997
146	0xbbc079a7	-0.005873877
147	0xbbf80db5	-0.0075699934
148	0xbc5b093c	-0.013368901
149	0xbcefda1a	-0.029278804
150	0xbdbf5fe0	-0.093444586
151	0x3c9b306f	0.018943993
152	0x3beeeda6	0.0072915135
153	0x3d7d8cdb	0.06190191
154	0xbca02fa8	-0.019553974
155	0xbc4eb057	-0.012615285
156	0x3ca951bd	0.020668859
157	0x3cdbbcbe	0.026823398
158	0xbd4618e5	-0.048363585
159	0xbd6cd0f5	-0.057816464
160	0xbc43f2fa	-0.011959786
161	0xbd6792e7	-0.05653658
162	0xbc2f09f2	-0.0106835235
163	0xbc44e776	-0.012018075
164	0x3d0a0b28	0.033702046
165	0xbda82fdf	-0.08212256
166	0x3c900ff2	0.017585728
167	0xbced7378	-0.028985724
168	0x3c3b0d77	0.0114167845
169	0xbca80bf7	-0.020513518
170	0xbd7fa3dd	-0.06241213
171	0x3c455749	0.012044736
172	0xbb789193	-0.0037928566
173	0xbba5d4d5	-0.005060772
174	0xbd8f7147	-0.07004028
175	0x3d251468	0.040302664
176	0x3bed830f	0.0072482894
177	0x3d450479	0.04809997
178	0xbd85433e	-0.06506966
179	0xbd32d7fd	-0.043663014
180	0x3cb8f88d	0.022579456
181	0xbca0d2b5	-0.019631723
182	0xbd8492d9	-0.064733215
183	0x3d1dd75f	0.038535472
184	0x3d9b688c	0.075883
185	0x3c683972	0.014173852
186	0xbd172ccd	-0.03690796
187	0x3e39b826	0.18136653
188	0xbc49bcca	-0.012313077
189	0x3c9a3d5a	0.018828083
190	0x3c2e2dbc	0.010631021
191	0xbdb496cd	-0.088178255
192	0x3dd279df	0.10277151
193	0xbdc472bf	-0.095921986
194	0x3dc859cf	0.09782755
195	0x3dad981a	0.08476277
196	0x3b32a5c3	0.0027259446
197	0x3b1cdf90	0.0023936965
198	0x3cc01283	0.023446327
199	0x3d95e684	0.07319358
200	0x3d1228be	0.035683386
201	0x3d797a10	0.060907423
202	0xbc5bfc5c	-0.013426866
203	0x3c41ec0d	0.011836064
204	0x3cd21853	0.025646364
205	0x3cf26802	0.02959061
206	0x3d094253	0.033510517
207	0xbc24afaa	-0.010051647
208	0x3c60e51a	0.013726497
209	0xbb6f44ac	-0.0036509437
210	0xba5909cd	-0.00082793535
211	0xbc7004e1	-0.014649601
212	0x3d765492	0.060139246
213	0x3c2a8ff2	0.010410296
214	0xbcb22af4	-0.021748997
215	0xbb1696b5	-0.0022978012
216	0x3c727ba0	0.014799982
217	0x3cfd9cf0	0.030958623
218	0xbca8aab3	-0.020589208
219	0xbd11546c	-0.0354809
220	0x3cf6fb91	0.030149253
221	0x3cd55076	0.026039343
222	0x3db345f5	0.087535776
223	0xbd08ec23	-0.033428323
224	0x3c5bfd79	0.013427132
225	0x3dac0f8e	0.08401404
226	0xbd2742f2	-0.04083533
227	0xbd73f4f2	-0.05955977
228	0x3d4eb7c2	0.050468214
229	0xbd6f1fb7	-0.058379855
230	0xbc6975fb	-0.01424932
231	0x3ab0166a	0.0013434414
232	0x3ce0b464	0.027429767
233	0xbd4d8611	-0.050176684
234	0x3c37f2f4	0.011227358
235	0x3be7e766	0.0070771454
236	0xbc990e1b	-0.018683484
237	0x3d95bced	0.07311425
238	0x3d47391a	0.04863844
239	0x3d30554b	0.04305009
240	0x3d63dade	0.05562865
241	0xbb8f52d6	-0.0043738885
242	0x3c487485	0.012234812
243	0xbd2fa008	-0.042877227
244	0x3d456061	0.048187617
245	0x3d1045c7	0.035222795
246	0x3d23348c	0.039845034
247	0x3cbcfeb6	0.023070674
248	0x3d78fb3f	0.060786482
249	0x3d401ad8	0.0469006
250	0xbcb025c9	-0.021502392
251	0x3d1ac2ad	0.037783314
252	0xbd3a15cf	-0.045430955
253	0x3b8e1b2e	0.004336736
254	0xbd453567	-0.04814663
255	0x3c712e3a	0.014720494

first_part.0.bias f4 [56]
0	0xbb2064e0	-0.0024474189
1	0xbb298c7e	-0.0025871093
2	0xb90221b3	-0.0001241032
3	0xbaf01ef4	-0.0018319772
4	0x3b94e3e5	0.0045437687
5	0xbbee8dd4	-0.007280091
6	0xbad9912c	-0.0016599051
7	0x3c065b7c	0.0082005225
8	0xbbc2b9e2	-0.005942569
9	0xbb9d6193	-0.0048028915
10	0xbb671f18	-0.0035266336
11	0x39d257cd	0.00040119738
12	0x3c5b9575	0.013402333
13	0x3bd0f193	0.006376454
14	0x3cf9cc5e	0.030492958
15	0xbbd4bd31	-0.00649228
16	0x3c007ed7	0.007842741
17	0xbbff36a3	-0.0077884956
18	0x3bf9f067	0.007627535
19	0xbca26674	-0.019824244
20	0x3a9029ef	0.0010998825
21	0xba7ffe1d	-0.0009765344
22	0xbb9812b9	-0.004640904
23	0xbbe66b49	-0.0070318324
24	0xbc2765b8	-0.010217123
25	0x3a4b3a60	0.0007752534
26	0xbb8d0f62	-0.0043048123
27	0x3b8f1940	0.0043670237
28	0xbc69ea2e	-0.014277024
29	0x3ba455f6	0.00501513
30	0xbabbb72f	-0.0014321561
31	0xbbf24ff8	-0.007394787
32	0xbafea8a6	-0.0019428923
33	0xbb4ea742	-0.00315328
34	0x3b40774c	0.0029367981
35	0x3c3ca406	0.011513716
36	0x39cdc718	0.00039248983
37	0x3b430d25	0.0029762473
38	0x3b1c6cfa	0.0023868666
39	0x3c964dc7	0.018347634
40	0x3d809077	0.062775545
41	0xbbd0d17a	-0.006372628
42	0x3ba1cfd8	0.004938107
43	0xbd0871ec	-0.03331177
44	0xbb88f16a	-0.0041791694
45	0x3b44e8ea	0.0030046054
46	0xbc09f221	-0.008419544
47	0xbb0abe88	-0.0021170694
48	0xbdc42715	-0.09577767
49	0x3c6f6043	0.014610353
50	0xbc5f79a6	-0.013639843
51	0x3ca8c0ab	0.020599684
52	0xbb747114	-0.0037298845
53	0x3b8ad299	0.004236531
54	0xbbc9781b	-0.006148351
55	0x3d1385c2	0.036016233

first_part.1.weight f4 [56]
0	0x3e793a9f	0.24338768
1	0x3e82f840	0.25580025
2	0x3e847a41	0.25874522
3	0x3e877019	0.2645271
4	0x3e810dd2	0.25205857
5	0x3e879dad	0.26487485
6	0x3e817877	0.2528722
7	0x3e936f97	0.28796074
8	0x3effaa17	0.49934456
9	0x3e7e09a1	0.2480836
10	0x3f84fbdc	1.0389361
11	0x3e807b9c	0.25094306
12	0x3f22999a	0.6351563
13	0x3e821b6c	0.25411546
14	0x3e732dce	0.23747942
15	0x3da67334	0.08127442
16	0x3eab9c3c	0.33517635
17	0x3e8fc875	0.28082624
18	0x3e81eeda	0.25377542
19	0x3e64087f	0.22268866
20	0x3e8390a2	0.25696284
21	0x3f88a5f4	1.0675645
22	0x3e807d91	0.250958
23	0x3e79f16c	0.24408501
24	0x3d3a527b	0.045488816
25	0x3e7fe882	0.24991038
26	0x3f1be9c6	0.60903585
27	0x3e815a48	0.25264192
28	0x3e979e8c	0.2961315
29	0x3e8b0ad5	0.27156702
30	0x3e7dfa04	0.24802405
31	0x3e817f81	0.2529259
32	0x3f2f9d90	0.68599796
33	0x3e9a0e20	0.30088902
34	0x3e7eb84b	0.2487499
35	0x3e81946a	0.25308543
36	0x3e89686c	0.2683748
37	0x3e18855c	0.14894623
38	0x3e8b127d	0.27162543
39	0x3e80ac49	0.25131443
40	0x3ef41593	0.4767271
41	0x3e883db4	0.26609576
42	0x3e8276f3	0.25481376
43	0x3ea91815	0.33026186
44	0x3f225e02	0.63424695
45	0x3e7328d2	0.2374604
46	0x3f832012	1.0244162
47	0x3e7f4842	0.24929908
48	0x3f0996c1	0.5374566
49	0x3e7914bc	0.24324316
50	0x3f890bac	1.0706687
51	0x3e7f2a3f	0.2491846
52	0x3e643fa5	0.22289903
53	0x3e549f4b	0.2076389
54	0x3e89c782	0.26910025
55	0x3e8465fb	0.25859055

mid_part.0.weight f4 [12, 56, 1, 1]
0	0x3f024e2d	0.50900537
1	0x3e5b7eda	0.21435109
2	0xbf427ad8	-0.75968695
3	0x3e7a7ad0	0.24460912
4	0x3ec8557c	0.3912772
5	0x3ea52f31	0.32262567
6	0xbdac4715	-0.08411995
7	0x3f01f6e0	0.50767326
8	0x3e2a4337	0.16627203
9	0xbf970d06	-1.180085
10	0x3f01ecdf	0.5075206
11	0xbd946e34	-0.07247582
12	0xbf0ac4f3	-0.5420677
13	0x3f87e71c	1.0617404
14	0x3ed9cf15	0.42540804
15	0x3ec834ff	0.39102933
16	0x3dc02079	0.09381194
17	0x3d8e21aa	0.06940015
18	0x3f0d9fda	0.5532204
19	0xbe776783	-0.2416058
20	0x3c29b7ee	0.010358794
21	0x3f348d88	0.7052846
22	0xbebbad4b	-0.3665565
23	0xbeeb66b6	-0.459768
24	0xbd96f94c	-0.07371768
25	0xbd9d6448	-0.07685143
26	0x3ed50d01	0.41611484
27	0xbf39073e	-0.72276676
28	0x3e891761	0.2677565
29	0x3ec1a23e	0.37819093
30	0x3d374a47	0.04474857
31	0x3eb8ec14	0.36117613
32	0x3f0a2568	0.5396333
33	0x3e0b2314	0.135876
34	0xbf127df7	-0.5722346
35	0xbf2f9168	-0.6858125
36	0xbd4ecef8	-0.05049035
37	0xbd42a2fb	-0.04751871
38	0xbe77360e	-0.24141714
39	0x3ebdd1f8	0.37074256
40	0xbdabe63e	-0.083935246
41	0x3f005245	0.50125533
42	0xbec6f66b	-0.38859877
43	0xbe00e2df	-0.12586544
44	0xbe037648	-0.1283809
45	0xbe1bce1e	-0.15215346
46	0xbdebbf5d	-0.11511109
47	0xbf1b561e	-0.6067828
48	0xbe24b045	-0.16082866
49	0xbf160dc2	-0.5861474
50	0xbdcfe564	-0.10151175
51	0xbe14aff6	-0.14520249
52	0xbf2cf6ec	-0.6756427
53	0x3e0fa5bd	0.14028068
54	0xbe98ee96	-0.29869527
55	0xbe36e109	-0.17859282
56	0xbeb18733	-0.3467346
57	0xbf77b8f9	-0.9676662
58	0x3f018739	0.5059696
59	0x3c407921	0.011747629
60	0x3cb2b550	0.021814972
61	0x3f4de2ec	0.8042438
62	0x3f3f5e5c	0.74753356
63	0x3f037baf	0.513606
64	0x3c7c76a3	0.015409145
65	0xbdbfa9ad	-0.09358535
66	0xbd824f37	-0.06362765
67	0xbefacc52	-0.4898401
68	0x3e2c328a	0.16816154
69	0x3e44302a	0.19158998
70	0xbf2107e0	-0.6290264
71	0x3df1d298	0.11807746
72	0xbf0e7df0	-0.55660915
73	0x3e825776	0.25457352
74	0x3f16ca16	0.5890211
75	0xbdddad23	-0.10824039
76	0x3f5c3a18	0.86026144
77	0xbe896772	-0.26836735
78	0x3dc5e8eb	0.09663566
79	0xbebcb3f8	-0.36856055
80	0xbec31823	-0.38104352
81	0xbdb70557	-0.08936565
82	0x3d950344	0.072760135
83	0xbf0a0e84	-0.539284
84	0x3f15a632	0.5845672
85	0x3f4ebb26	0.80754316
86	0xbe32fea3	-0.17479949
87	0x3ed4af2c	0.41539896
88	0x3e272e4d	0.16326256
89	0xbecd8958	-0.40143847
90	0xbdf2bc8a	-0.11852367
91	0xbe1c3e67	-0.1525818
92	0x3e685683	0.22689252
93	0x3e55e243	0.20887093
94	0xbf2e2702	-0.6802827
95	0xbe880cc3	-0.26572236
96	0x3e698667	0.22805177
97	0x3f34a12c	0.7055843
98	0xbe8f812d	-0.2802824
99	0x3f5ab897	0.8543791
100	0x3f3a7a72	0.72843087
101	0x3dda4c3e	0.10659073
102	0x3ee39341	0.44448283
103	0x3dac420c	0.08411035
104	0x3ea7bf93	0.32763347
105	0xbe0965c3	-0.13417725
106	0x3f56469d	0.837015
107	0xbf066619	-0.5249954
108	0x3c2d6df0	0.010585293
109	0xbe5d1c9f	-0.2159295
110	0x3f2af6f7	0.6678309
111	0xbee3b18c	-0.44471395
112	0x3e8f0f6a	0.27941447
113	0xbf1cc049	-0.61230904
114	0xbe89ab1f	-0.26888368
115	0xbeccdb62	-0.40011126
116	0xbda22d3a	-0.079187825
117	0x3f1c4977	0.610496
118	0xbdf709c5	-0.1206241
119	0xbd52959f	-0.05141222
120	0x3f26edc3	0.65206546
121	0x3f4acb6a	0.79216635
122	0x3dd1efbb	0.10250803
123	0x3f519e96	0.8188261
124	0xbedc6093	-0.4304243
125	0xbe1a9a29	-0.1509787
126	0xbdd42a23	-0.103595994
127	0x3ed1080c	0.40826452
128	0xbc1bbccb	-0.009505461
129	0xbe173de2	-0.147697
130	0x3ef52737	0.4788148
131	0x3ebea3b0	0.3723426
132	0xbf099fc1	-0.5375939
133	0x3e6e664e	0.23281214
134	0xbe05c7d2	-0.13064507
135	0xbe9cd572	-0.30631596
136	0x3ed34d50	0.41269922
137	0xbeab31fd	-0.33436576
138	0xbe20a04a	-0.15686145
139	0xbe833b1c	-0.25631034
140	0xbefb9aff	-0.4914169
141	0x3ede4990	0.434155
142	0x3c96b15d	0.01839512
143	0xbe1cfa5d	-0.15329881
144	0x3efbfffc	0.49218738
145	0x3f33d17f	0.7024154
146	0x3f232b5c	0.63738036
147	0x3ec399f9	0.3820341
148	0x3ea590b7	0.3233697
149	0x3e9fc1d5	0.3120257
150	0xbeefde94	-0.468495
151	0x3de506cb	0.11182936
152	0xbcb7fbbe	-0.022458907
153	0x3e023aa5	0.12717684
154	0xbe5a1d5e	-0.21300265
155	0xbbb56929	-0.0055362177
156	0x3e0e4775	0.13894446
157	0x3ed44df4	0.41465724
158	0x3e791aac	0.24326581
159	0x3ef80656	0.48442334
160	0xbc48a764	-0.01224694
161	0x3f19cb1d	0.6007555
162	0x3e5ea910	0.2174418
163	0xbf126b47	-0.5719494
164	0x3cb2522a	0.021767695
165	0x3edeadf1	0.43492082
166	0xbeb3dc93	-0.35129222
167	0xbea51a2f	-0.3224654
168	0x3d65526e	0.055986814
169	0x3e8def95	0.2772185
170	0xbe0cc926	-0.13748607
171	0x3e210717	0.15725361
172	0x3e8227d1	0.25421003
173	0xbcf8a64c	-0.030352734
174	0xbe1d6f26	-0.15374431
175	0x3e9eca24	0.31013596
176	0xbf127e6e	-0.57224166
177	0xbec6870b	-0.38774905
178	0x3f0c9c04	0.5492556
179	0xbeb5ec84	-0.3553201
180	0x3eb4bef7	0.35301945
181	0xbef8c566	-0.48588103
182	0x3f1fbbdd	0.6239603
183	0xbd8eebed	-0.06978593
184	0x3e0dceb6	0.13848385
185	0x3e633256	0.2218717
186	0xbc5eca7b	-0.01359808
187	0x3f5aeb28	0.8551507
188	0xbef39942	-0.47577864
189	0x3f203e48	0.62595034
190	0xbeab9aaf	-0.33516452
191	0xbeb91008	-0.36145043
192	0x3ef1f967	0.4726059
193	0x3d896c82	0.06710149
194	0xbee55947	-0.44794676
195	0x3f745313	0.9543926
196	0x3e0519bd	0.129981
197	0x3edbdef8	0.4294355
198	0xbd192f33	-0.03739853
199	0xbdc0d30a	-0.094152525
200	0xbf058d54	-0.52168775
201	0x3e541c0e	0.20713827
202	0xbe101578	-0.1407069
203	0x3eef7e3c	0.46775997
204	0x3e026389	0.12733282
205	0xbdf80f36	-0.12112276
206	0xbc945416	-0.018106502
207	0x3e592a76	0.21207604
208	0xbd8aad10	-0.0677129
209	0x3f87db7c	1.0613856
210	0x3f461d49	0.77388436
211	0x3f2d07bd	0.6758993
212	0xbf76c049	-0.96387154
213	0xbe6b9f3d	-0.23009963
214	0x3eed64e9	0.4636605
215	0xbdbcf564	-0.09226492
216	0x3ec2f2f1	0.38075975
217	0x3f136ec1	0.5759087
218	0xbe8c808c	-0.27441823
219	0xbec58d85	-0.38584533
220	0xbe95c362	-0.29250628
221	0x3eed689b	0.4636887
222	0xbe54c3e2	-0.20777848
223	0x3f040377	0.51567787
224	0xbe87769d	-0.26457682
225	0x3dd2d45f	0.10294413
226	0x3df56f2a	0.119840935
227	0x3d93c43a	0.072151616
228	0xbe32251d	-0.1739697
229	0xbeb4b438	-0.35293746
230	0xbe458df4	-0.19292432
231	0x3f0a50cc	0.54029536
232	0x3ef32c3b	0.47494683
233	0xbe91003c	-0.2832049
234	0xbe2162ac	-0.15760297
235	0x3cad4c5b	0.021154573
236	0xbfb0c803	-1.3811039
237	0x3f49f221	0.78885084
238	0x3f508d60	0.8146572
239	0xbd8b73a3	-0.06809165
240	0x3eb3fc44	0.351534
241	0xbe3cb27b	-0.1842746
242	0x3eab65ce	0.33476108
243	0xbec68b4f	-0.3877816
244	0x3e622dc2	0.22087768
245	0x3e8d0b99	0.2754791
246	0x3ebce62d	0.3689436
247	0x3d11de26	0.035612248
248	0xbdd92104	-0.10602
249	0xbdd1f01c	-0.10250875
250	0x3f0787a9	0.52941376
251	0x3e7443af	0.23853944
252	0xbf2fe301	-0.68705755
253	0xbee4e2cf	-0.4470429
254	0x3db893da	0.090125754
255	0x3e606790	0.21914506

mid_part.0.bias f4 [12]
0	0x3b7fb246	0.0039016171
1	0xbd0f292a	-0.034951366
2	0xbb1fd1d0	-0.0024386533
3	0xba94960e	-0.0011336224
4	0x3d81489e	0.06312679
5	0x3ba9a5aa	0.0051772194
6	0x3ccbf54d	0.024897242
7	0x3cc87d98	0.02447395
8	0xbc83c309	-0.016084211
9	0x3884b0a9	6.327156e-05
10	0xbb4b81f0	-0.003105279
11	0x3cf59663	0.029978937

mid_part.1.weight f4 [12]
0	0x3e839e26	0.25706595
1	0x3ebfdc1f	0.37472627
2	0x3e7feca4	0.24992615
3	0x3e82c6fd	0.2554244
4	0x3eaaca6a	0.33357555
5	0x3e72fd48	0.23729432
6	0x3e73d679	0.23812284
7	0x3ef3440c	0.47512853
8	0x3e970bad	0.29501095
9	0x3ed317f0	0.412292
10	0x3e7a4c01	0.24443056
11	0x3e8d6095	0.2761275

mid_part.2.weight f4 [12, 12, 3, 3]
0	0x3e7e5461	0.24836875
1	0xbc9c7837	-0.019100292
2	0x3c741f79	0.014900082
3	0xbe8316db	-0.25603375
4	0x3ddbb2fb	0.10727497
5	0xbdebc8a2	-0.11512877
6	0xbd91e1f0	-0.07123172
7	0xbde14fc5	-0.11001543
8	0x3d94c934	0.07264939
9	0x3e3b8b7b	0.18314926
10	0xbe60b39f	-0.2194352
11	0x3e57943f	0.21052645
12	0x3d20f683	0.039297592
13	0xbe002691	-0.12514712
14	0xbdf4d660	-0.11954951
15	0xbd9fc0c3	-0.07800438
16	0xbe226c66	-0.15861663
17	0x3d116649	0.035497937
18	0x3dba9f7a	0.09112449
19	0x3e2259da	0.15854588
20	0x3d719f14	0.0589896
21	0x3e24e36b	0.16102378
22	0x3bef59ce	0.0073044067
23	0xbcdb6223	-0.026780194
24	0x3e85c5f6	0.26127595
25	0x3d815fd7	0.06317108
26	0xbd93280e	-0.07185374
27	0x39bf8e65	0.0003653645
28	0xbd973440	-0.07383013
29	0x3df0c176	0.1175565
30	0x3e1439a2	0.1447511
31	0xbea36ae0	-0.31917477
32	0xbe8585dc	-0.2607869
33	0xbe045f5e	-0.12927005
34	0xbcf29c58	-0.029615566
35	0x3e1de70a	0.15420166
36	0xbe37151c	-0.17879146
37	0xbde66422	-0.112495676
38	0xbdbbb704	-0.09165767
39	0xbc7bc76e	-0.015367372
40	0x3e7d2aca	0.24723354
41	0xbe734f27	-0.23760663
42	0x3cebc2e1	0.028779449
43	0xbc3c88c0	-0.011507213
44	0x3d32a896	0.043617807
45	0x3e5e6279	0.21717252
46	0x3d37eee1	0.044905547
47	0x3e5ac2f4	0.21363431
48	0xbd527e83	-0.051390182
49	0xbdd9591a	-0.10612698
50	0x3da12aa3	0.078694604
51	0xbdbd9ef3	-0.09258833
52	0x3d8dc9d1	0.06923259
53	0xbdcb4ef4	-0.099271685
54	0xbe31e4df	-0.17372464
55	0x3bc735ce	0.006079412
56	0x3b898054	0.004196206
57	0x3e631cae	0.22178909
58	0xbdae7943	-0.085192226
59	0x3cdc1fee	0.026870694
60	0xbdc80332	-0.097662345
61	0x3ded3ccb	0.11583861
62	0x3e209b23	0.1568418
63	0x3e072f2b	0.13201587
64	0xbd85c0d6	-0.06530921
65	0x3e76f1d4	0.24115688
66	0x3bf171bb	0.007368294
67	0x3c682b28	0.0141704455
68	0xbaa0dd9f	-0.001227308
69	0x3b98e947	0.0046664807
70	0xbe6e6023	-0.23278861
71	0xbe504433	-0.20338516
72	0xbc8937e0	-0.016750276
73	0xbc939470	-0.018015116
74	0x3d27144d	0.040790845
75	0xbe4540e4	-0.19263035
76	0x3e906345	0.28200737
77	0xbd8ac1b1	-0.06775225
78	0xbd844ad8	-0.06459588
79	0xbd741c24	-0.05959715
80	0x3ce2852e	0.027651396
81	0xbe336e04	-0.17522436
82	0x3ca62e54	0.020285763
83	0x3d38cdc9	0.045118127
84	0x3d458974	0.04822679
85	0x3decce05	0.115627326
86	0x3e0bb30f	0.13642524
87	0xbde7c897	-0.11317556
88	0xbd15e107	-0.036591556
89	0x3cd346f2	0.025790665
90	0x3d92249c	0.07135889
91	0xbb15910e	-0.0022822055
92	0x3e71e0ff	0.23620985
93	0xbdeeb71b	-0.11656018
94	0xbd49c8f8	-0.049263924
95	0xbd8ed2c5	-0.06973795
96	0x3d225077	0.03962752
97	0x3dd9065f	0.10596918
98	0x3d09ed22	0.033673413
99	0x3d193167	0.03740063
100	0xbd85455b	-0.06507369
101	0xbdcbd1ba	-0.099521115
102	0xbcfca981	-0.030842545
103	0x3db2cb82	0.08730222
104	0x3ce5ebe3	0.028066581
105	0x3d98e0e8	0.074647725
106	0x3d34a69e	0.04410421
107	0x3bf8b4e9	0.0075899255
108	0x3bf6700c	0.0075206812
109	0xbd218903	-0.039437305
110	0x3b89a25a	0.004200262
111	0x3c5f4992	0.01362838
112	0x3d8d06ea	0.068860844
113	0xbe7c9127	-0.24664746
114	0x3e5ca569	0.21547474
115	0x3d923b29	0.0714019
116	0x3e0b7d4f	0.1362202
117	0x3e16e79e	0.14736792
118	0x3dc3bb5a	0.09557219
119	0xbbc5907a	-0.006029186
120	0x3e6db3c4	0.23213106
121	0x3df45409	0.11930091
122	0x3c4f30b3	0.012645888
123	0x3d643dee	0.055723123
124	0xbde33235	-0.110935606
125	0x3e1a9c2f	0.15098642
126	0xbcf1f015	-0.029533425
127	0xbea6733f	-0.325098
128	0xbe2907da	-0.16506901
129	0x3ca43234	0.02004347
130	0x3d6edbb6	0.058315
131	0xbe98584b	-0.29754862
132	0xbde2cb33	-0.110739134
133	0x3dbbe748	0.09174973
134	0xbdca9646	-0.09891944
135	0x3d0e25fa	0.034704186
136	0x3e843e0b	0.25828585
137	0xbdd2357e	-0.10264109
138	0xbcb269a3	-0.021778887
139	0xbd9fe9dc	-0.07808277
140	0xbcdb9a18	-0.026806876
141	0xbde9b36f	-0.11411177
142	0x3ea8693a	0.32892781
143	0xbdf2c4e6	-0.11853962
144	0x3e6ed77d	0.2332439
145	0xbe24c575	-0.16090949
146	0xbd5dddf6	-0.054166757
147	0xbe3e8955	-0.18607076
148	0xbe1c5f6d	-0.15270777
149	0x3cfaca5c	0.03061407
150	0xbda1c22e	-0.07898365
151	0xbdc587c0	-0.09645033
152	0xb8e9a0fb	-0.00011140291
153	0xbdef4b6b	-0.11684307
154	0x3d2ae37f	0.041720863
155	0xbe86ed4f	-0.26352927
156	0x3c2a239f	0.010384469
157	0x3dcfc0b9	0.10144181
158	0x3dbee1dc	0.09320423
159	0x3e0da107	0.13830958
160	0xbd83f5a2	-0.06443335
161	0xbd1795ac	-0.037007973
162	0x3e486e21	0.19573261
163	0xbe53beab	-0.20678203
164	0xbe256cc6	-0.16154775
165	0xbc728c0d	-0.0148038985
166	0x3e5becec	0.21477097
167	0xbd70c0b1	-0.058777515
168	0xbe9ee642	-0.31035048
169	0xbcf152cb	-0.029458424
170	0x3de43428	0.111427605
171	0xbe348696	-0.17629465
172	0x3e27841a	0.16358986
173	0xbdd8751b	-0.10569211
174	0xbd2a6c35	-0.0416071
175	0x3e6b5771	0.22982575
176	0x3e2461b3	0.16052894
177	0xbd6bc153	-0.057557415
178	0xbdf27cb0	-0.118401885
179	0xbde84544	-0.11341336
180	0x3dc2be0a	0.09508903
181	0xbddded3e	-0.10836266
182	0x3dce03a4	0.10059288
183	0xbca32eb5	-0.019919733
184	0x3db2a2cd	0.08722458
185	0xbe95c807	-0.2925417
186	0x3d4046e7	0.046942618
187	0xbd9dc57e	-0.07703684
188	0xbd8edc66	-0.069756314
189	0xbdf3262f	-0.11872517
190	0xbdb76e1a	-0.08956547
191	0xbd8e6ea1	-0.069546945
192	0x3bf5e1a7	0.0075037065
193	0xbd85a88b	-0.06526288
194	0xbc2c73cb	-0.010525654
195	0xbe32e1e3	-0.17468981
196	0xbd318a6e	-0.043344907
197	0x3c822370	0.015886039
198	0xbd9c3757	-0.07627743
199	0x3e07406d	0.1320817
200	0x3d1f9a8b	0.038965743
201	0x3e7c9cff	0.24669264
202	0xbd500890	-0.050789416
203	0xbe0af270	-0.13569045
204	0xbe0e1885	-0.13876541
205	0x3d0810f6	0.0332193
206	0x3df60a13	0.1201364
207	0x3e8f9c2e	0.28048843
208	0x3e4423d8	0.19154298
209	0x3d939a03	0.0720711
210	0x3dd5de88	0.10442835
211	0x3dd2ebf9	0.102989145
212	0x3e1fad0a	0.15593353
213	0xbbe38483	-0.006943287
214	0x3de34e4c	0.11098918
215	0x3e16c3a8	0.14723074
216	0x3d9adea8	0.075619996
217	0xbe24dd96	-0.16100153
218	0xbd0310a8	-0.031998307
219	0xbcd456e0	-0.025920331
220	0x3e407fa8	0.18798697
221	0x3e366f70	0.17815948
222	0x3e1774a0	0.14790583
223	0xbca3406b	-0.019928178
224	0x3e914483	0.28372583
225	0xbda61cbf	-0.08110952
226	0xbddd89ee	-0.108173236
227	0x3d8c3099	0.06845207
228	0x3e49551c	0.19661373
229	0xbd9a91d7	-0.07547348
230	0xbc8911e8	-0.016732171
231	0xbd7674d7	-0.06017002
232	0x3dd258f4	0.10270873
233	0x3dc5b387	0.09653383
234	0x3e14a4aa	0.1451594
235	0xbe8848f4	-0.2661816
236	0xbe4f1391	-0.20222308
237	0x3d80c521	0.06287599
238	0xbe02a85e	-0.1275954
239	0xbc15455c	-0.009110775
240	0x3de78043	0.11303761
241	0x3ce40151	0.027832659
242	0x3d104f4c	0.035231873
243	0xbdf7da72	-0.12102212
244	0xbaf2823a	-0.0018501945
245	0xbd671cf1	-0.056424085
246	0x3e5ed23d	0.21759887
247	0x3e5024f3	0.20326595
248	0x3e3862b2	0.180064
249	0x3d143120	0.03617966
250	0x3e0c80fc	0.13721079
251	0x3d120a4c	0.03565435
252	0x3ea9d929	0.33173493
253	0xbe604f33	-0.21905212
254	0xbdaf8f17	-0.08572214
255	0x3d122235	0.035677154

mid_part.2.bias f4 [12]
0	0x3b4e0ff2	0.003144261
1	0x3b96a66f	0.004597477
2	0xbb097281	-0.002097279
3	0x3b8f2020	0.0043678433
4	0x3cff7137	0.031181915
5	0xbae95427	-0.0017801569
6	0xbb977c06	-0.004622939
7	0x3a85d63b	0.001021094
8	0x3c781946	0.015142744
9	0x39b54107	0.0003457146
10	0x3c7746cc	0.015092563
11	0x3ce1db13	0.027570283

mid_part.3.weight f4 [12]
0	0xbeac9c5f	-0.33713052
1	0x3e7f9f1d	0.2496304
2	0x3e869bd7	0.2629077
3	0x3f254020	0.6455097
4	0x3e980455	0.29690805
5	0x3e822cdb	0.25424847
6	0x3e25971e	0.16170928
7	0x3e1bf6f5	0.15230925
8	0x3e72e14f	0.23718761
9	0x3eafa27a	0.34303647
10	0x3e83d720	0.25750065
11	0x3e796248	0.24353898

mid_part.4.weight f4 [12, 12, 3, 3]
0	0x3d1e1307	0.038592365
1	0xbd975cc5	-0.07390741
2	0x3e6023f2	0.21888712
3	0x3e9359a2	0.28779322
4	0xbce0d9c0	-0.027447581
5	0x3e0a1a08	0.13486493
6	0xbe036d6e	-0.12834713
7	0x3d7df50d	0.062001277
8	0xbda1926c	-0.07889256
9	0xbe5f3838	-0.2179879
10	0xbdfa5096	-0.12222402
11	0x3eaa4d32	0.3326202
12	0xbd7046a6	-0.058661126
13	0x3e15db0b	0.1463434
14	0xbe213e61	-0.15746452
15	0xbdf62894	-0.120194584
16	0x3bd05383	0.0063576116
17	0x3e614a1e	0.2200093
18	0xbe1117e6	-0.14169273
19	0x3df1128f	0.11771118
20	0x3c91932f	0.017770378
21	0x3e04d58b	0.12972085
22	0xbcd602f4	-0.026124455
23	0xbdad4693	-0.084607266
24	0xbd845a09	-0.06462485
25	0x3e1b03d1	0.15138175
26	0x3e376136	0.17908177
27	0xbccabb45	-0.0247475
28	0xbea7a9c4	-0.32746708
29	0x3cf7aec4	0.030234702
30	0x3db7cb60	0.089743376
31	0xbddbc900	-0.10731697
32	0xbe98137f	-0.29702374
33	0xbd168a9c	-0.036753282
34	0x3e4b4f28	0.19854414
35	0x3de90ab8	0.113789976
36	0xbd9ae205	-0.07562641
37	0x3e5571b6	0.20844159
38	0x3dbf3315	0.09335915
39	0xbe659324	-0.22419411
40	0x3e94ba9c	0.29048622
41	0x3d4920bf	0.049103495
42	0xbe8719d6	-0.263869
43	0x3c3be958	0.011469208
44	0x3df75b19	0.120779224
45	0xbce011fd	-0.027352327
46	0xbdb27a35	-0.087147154
47	0x3df56039	0.11981244
48	0xbe80e2b4	-0.2517296
49	0x3d8b6d84	0.06807998
50	0xbeb6c0db	-0.35694012
51	0x3d674bd7	0.05646881
52	0x3e7e7e1b	0.24852793
53	0xbe1d176d	-0.15340967
54	0x3de48b38	0.11159366
55	0xbe6c3262	-0.23066095
56	0xbde01294	-0.109410435
57	0x3de68f09	0.112577505
58	0xbc04cee4	-0.008105967
59	0xbe051742	-0.12997153
60	0xbce35d30	-0.027754396
61	0xbe83cd91	-0.25742772
62	0x3e8a19de	0.2697286
63	0x3d1225d6	0.035680614
64	0xbdfbd67f	-0.12296771
65	0x3e257906	0.16159448
66	0xbc9ce44f	-0.019151835
67	0x3d35c265	0.044374842
68	0x3e07f598	0.1327728
69	0xbe7b5a42	-0.2454615
70	0xbd8b0751	-0.06788505
71	0xbd93eb26	-0.072225854
72	0xbcbca614	-0.023028411
73	0xbb8cc25a	-0.0042956294
74	0xbdb8f723	-0.090315126
75	0xbe31f9e5	-0.17380483
76	0xbb867c7c	-0.004104195
77	0xbcbf4e38	-0.023352727
78	0x3d823043	0.063568614
79	0xbd4c1c88	-0.049831897
80	0x3e4ca57b	0.19985001
81	0x3de26c1c	0.110557765
82	0xbc145a0e	-0.009054674
83	0x3e60cbe0	0.21952772
84	0x3dfa1604	0.122112304
85	0x3e24dbe8	0.16099513
86	0xbcf1c21d	-0.029511506
87	0x3db24593	0.087046765
88	0x3e348571	0.17629029
89	0xbea96e29	-0.33091858
90	0x3b67f013	0.0035390898
91	0x3e1e0adf	0.15433834
92	0xbd848e50	-0.064724565
93	0x3e0fe522	0.14052251
94	0xbe3dde57	-0.18541847
95	0x3d3c2c1e	0.04594051
96	0xbe5bd961	-0.21469642
97	0xbd30fb2e	-0.043208294
98	0x3e475abf	0.1946821
99	0x3e3480e6	0.17627296
100	0x3d69a58f	0.057042655
101	0x3e1dc218	0.15406072
102	0xbe96df9a	-0.2946747
103	0x3e34f777	0.17672525
104	0xbec54f35	-0.38536993
105	0x3c84e0e0	0.01622051
106	0x3e788c9a	0.24272385
107	0x3e8642e6	0.26222914
108	0x3df07788	0.11741549
109	0xbe616140	-0.22009754
110	0xbd39063a	-0.045171954
111	0x3e8d8a25	0.27644458
112	0x3db1897d	0.08668802
113	0x3dcc01fd	0.09961317
114	0x3e9371f1	0.28797868
115	0xbe750901	-0.23929216
116	0x3d09db2d	0.033656288
117	0xbcb2f3d4	-0.021844782
118	0x3d79d6f1	0.060996
119	0xbd1b0b54	-0.0378526
120	0x3e94922f	0.2901778
121	0x3d732186	0.059358142
122	0x3ea6ae0e	0.32554668
123	0xbe798c68	-0.24369967
124	0xbe81bd33	-0.2533966
125	0xbda73adf	-0.08165526
126	0xbe55f29d	-0.20893331
127	0x3de7e10b	0.113222204
128	0xbd60834c	-0.054812714
129	0xbeee0e19	-0.4649513
130	0xbe300ce4	-0.17192417
131	0xbd42a0dd	-0.047516692
132	0xbf0a93dd	-0.5413187
133	0xbe3d71a4	-0.18500382
134	0x3dc7d01e	0.09756492
135	0x3ca8a153	0.020584738
136	0x3e32a0d5	0.17444165
137	0x3e744ca3	0.2385736
138	0x3e36a54d	0.17836495
139	0x3ea5ff68	0.32421422
140	0x3d70139c	0.05861245
141	0x3ebcf1cb	0.36903223
142	0x3eb3d4f3	0.35123405
143	0xbdc258ad	-0.0948957
144	0xbcf77805	-0.030208597
145	0xbd04b9dd	-0.032403816
146	0xbd0aa4f1	-0.033848707
147	0xbe479a66	-0.19492492
148	0xbca2cffe	-0.019874569
149	0xbb3e7714	-0.0029062675
150	0xbeb0df6c	-0.34545457
151	0xbd6870c9	-0.056748185
152	0xbd101325	-0.035174508
153	0xbcf3f90c	-0.02978184
154	0xbe409e54	-0.18810397
155	0x3e90b013	0.28259334
156	0xbe790cb5	-0.24321254
157	0xbd359511	-0.044331614
158	0x3e0dc10e	0.13843176
159	0xbe01e3f6	-0.12684616
160	0x3d0d0d36	0.034436427
161	0xbd8a97fa	-0.067672685
162	0x3e8a2cb7	0.2698724
163	0xbd1975d4	-0.037465885
164	0xbd31461d	-0.043279756
165	0x3ebee793	0.37286052
166	0xbda53637	-0.08066981
167	0x3ce3189f	0.027721701
168	0x3e01ee69	0.12688603
169	0xbd1bd441	-0.038044218
170	0xbe800907	-0.25006887
171	0x3eaed81b	0.3414925
172	0xbe7cae4d	-0.24675865
173	0xbe76e1f4	-0.24109632
174	0xbd3de20f	-0.046358164
175	0xb92d0370	-0.00016499846
176	0x3d98912e	0.07449566
177	0x3e2cbbab	0.16868465
178	0x3e0b02df	0.13575314
179	0x3edaaf29	0.42711762
180	0xbd982a58	-0.074299514
181	0xbe8801af	-0.26563784
182	0xbe33965e	-0.1753783
183	0xbcd3a5a5	-0.025835821
184	0xbe032155	-0.12805684
185	0x3d8f5d02	0.07000162
186	0x3e4d6641	0.20058538
187	0x3e8b1e04	0.27171338
188	0x3ddd77cc	0.10813865
189	0xbed4540d	-0.41470376
190	0x3e0329fc	0.12808985
191	0xbe1b7ed3	-0.15185098
192	0x3e4453fa	0.1917266
193	0x3e634770	0.2219522
194	0xbd1efa66	-0.038813017
195	0x3d0d9f4a	0.034575738
196	0xbc7485be	-0.014924465
197	0x3dd4ea8b	0.10396298
198	0xbddc8eba	-0.107694104
199	0xbeb91741	-0.36150554
200	0xbc1c3386	-0.0095337685
201	0x3ed46186	0.41480654
202	0x3ec6a335	0.38796392
203	0x3e086cd5	0.13322766
204	0xbec4e424	-0.38455307
205	0xbe6bb035	-0.23016436
206	0x3e0ff4d9	0.14058246
207	0xbe71e62b	-0.23622958
208	0xbe84e1c6	-0.259535
209	0xbe951560	-0.2911787
210	0xbe4a0816	-0.19729647
211	0x3d5ee2fb	0.054415684
212	0xbbe9b88b	-0.007132595
213	0x3f1989e4	0.5997603
214	0x3ebb7b75	0.36617628
215	0x3e8ad637	0.27116558
216	0x3e463457	0.19355904
217	0xbe4af697	-0.19820629
218	0x3e1ac30a	0.15113464
219	0x3d8818d4	0.066453606
220	0x3d0a7a32	0.03380794
221	0xbc704bdf	-0.014666527
222	0xbe28133c	-0.16413587
223	0x3e9b69b2	0.30354077
224	0x3d043d75	0.032285172
225	0x3e601acf	0.21885227
226	0x3c92e003	0.017929083
227	0x3e306c1d	0.17228742
228	0xbc82baef	-0.015958278
229	0x3cfe076a	0.031009395
230	0x3ddadb7d	0.10686395
231	0x3aa67b5f	0.0012701562
232	0x3da10ac3	0.07863381
233	0x3c926e78	0.017874941
234	0xbde2b57e	-0.11069773
235	0x3d6818d2	0.056664295
236	0x3e36f53c	0.17866987
237	0xbd1085c5	-0.035283823
238	0x3e30fdec	0.17284364
239	0x3e2b6325	0.1673704
240	0x3d373ff0	0.04473871
241	0xbc0b7e0a	-0.008513937
242	0xbe404f5d	-0.18780275
243	0xbe6e1218	-0.2324909
244	0xbe19d075	-0.15020926
245	0xbd5af766	-0.053458594
246	0x3d9d6730	0.07685697
247	0x3e16e6e5	0.14736517
248	0x3df262a3	0.1183522
249	0x3e4e6a5a	0.20157757
250	0xbdddcada	-0.108297065
251	0x3d4fb670	0.050711095
252	0xbdfd965f	-0.12382197
253	0xbe8de709	-0.27715328
254	0xbe1377ca	-0.14401165
255	0xbdeb51f6	-0.11490242

mid_part.4.bias f4 [12]
0	0x3c839967	0.016064359
1	0x3bb1d37f	0.0054268236
2	0xbc9df657	-0.019282503
3	0x3c8e869a	0.017398167
4	0xbad2a040	-0.0016069487
5	0xbb09d3de	-0.0021030824
6	0xbb1ff3a2	-0.002440669
7	0x3b77e8c1	0.003782794
8	0x3c7c92a4	0.015415821
9	0x3c07c52d	0.008286756
10	0xbcc25565	-0.02372236
11	0xbc0d5ce6	-0.008628106

mid_part.5.weight f4 [12]
0	0x3e8d1f60	0.27563
1	0x3f074d25	0.5285209
2	0x3e9d1750	0.3068185
3	0x3e85d0ef	0.26135966
4	0x3fa3b578	1.2789755
5	0x3f058b85	0.52166015
6	0xbc7380ef	-0.014862283
7	0x3e1e5253	0.15461092
8	0x3f3b2e17	0.731172
9	0x3eca6c35	0.3953568
10	0x3ed27b7e	0.41109842
11	0x3e83b0bf	0.25720784

mid_part.6.weight f4 [12, 12, 3, 3]
0	0x3d69f0ec	0.057114527
1	0xbda6f8ff	-0.08152961
2	0xbcbd3948	-0.023098603
3	0x3d01e176	0.031709157
4	0x3df42e2d	0.1192287
5	0x3e2c60ac	0.16833752
6	0xbc00825b	-0.007843579
7	0x3daf1324	0.08548573
8	0x3cc957ba	0.024577964
9	0x3d484961	0.048898105
10	0x3e85ae3c	0.26109493
11	0x3e4c3a2d	0.19944067
12	0x3daa1941	0.08305598
13	0x3e532594	0.20619804
14	0x3e83a3df	0.2571096
15	0xbc2b0f27	-0.010440624
16	0xbe9711a1	-0.29505637
17	0x3d95bcc5	0.073113956
18	0x3dbd90af	0.09256112
19	0xbe1e16cb	-0.15438382
20	0x3d54ea2f	0.051981147
21	0x3df1d048	0.118073046
22	0x3cbb405d	0.02285784
23	0xbd9ff19d	-0.07809756
24	0xbe400ff0	-0.1875608
25	0xbe0c728c	-0.13715571
26	0x3e2784f7	0.16359316
27	0x3df50ed6	0.1196572
28	0xbe1b1897	-0.15146099
29	0xbe3fe315	-0.18738969
30	0xbdd5437b	-0.104132615
31	0x3dbd64d7	0.09247749
32	0x3e037205	0.12836464
33	0x3d7962ef	0.060885366
34	0xbeaf21cb	-0.3420547
35	0xbe2dc90b	-0.16971223
36	0x3b02b047	0.0019941495
37	0x3e2a0626	0.16603908
38	0xbd98a160	-0.07452655
39	0x3e36a219	0.17835273
40	0x3e05ae59	0.1305479
41	0xbe0bfd93	-0.1367095
42	0xbd4b897f	-0.049691673
43	0x3e40b141	0.18817617
44	0xbd1cc26a	-0.038271345
45	0xbe07104a	-0.13189808
46	0xbed65bd7	-0.41866943
47	0x3e0b6f77	0.13616739
48	0x3e5b4253	0.2141202
49	0xbb343cf8	-0.002750216
50	0x3d5273b9	0.051379893
51	0x3dc0168f	0.09379303
52	0x3dcc62d6	0.09979789
53	0x3e46d143	0.19415765
54	0x3e3c4563	0.18385844
55	0xbe50b8c6	-0.20382985
56	0x3d579817	0.05263528
57	0x3dc2add6	0.09505813
58	0x3d493ac6	0.049128316
59	0x3d879e97	0.066220455
60	0x3e4f00fa	0.20215216
61	0x3e578923	0.21048407
62	0x3df62f41	0.12020732
63	0xbdece1a3	-0.11566474
64	0xbdb783fc	-0.08960721
65	0x3e17d0e7	0.14825784
66	0xbd324e65	-0.043531794
67	0xbe23b007	-0.15985118
68	0x3cda3a05	0.026638994
69	0x3d9b0440	0.0756917
70	0x3d161863	0.03664435
71	0xbe408bd3	-0.18803339
72	0xbd25cc67	-0.040478136
73	0x3db725c1	0.08942748
74	0x3e29f98c	0.16599101
75	0xbd199820	-0.037498593
76	0x3d8fcd1b	0.07021543
77	0xbd15a2b6	-0.036532126
78	0xbd93caf1	-0.072164424
79	0xbe3176d2	-0.17330483
80	0x3cf4862f	0.02984914
81	0xbcf5432a	-0.029939253
82	0x3e3b615b	0.18298857
83	0xbb62a1e4	-0.0034581358
84	0xbe2d06d7	-0.1689714
85	0x3d6e862a	0.058233418
86	0x3e3fc20d	0.18726368
87	0xbe51b690	-0.20479798
88	0xbe00a79a	-0.12563935
89	0xbe68fc3e	-0.22752473
90	0xbdd14c4b	-0.1021963
91	0x3e06b594	0.13155204
92	0x3dfe9f90	0.12432778
93	0xbd631868	-0.055443197
94	0xbe4f5318	-0.20246542
95	0x3dd77668	0.10520631
96	0xbda0f31a	-0.07858868
97	0x3e243407	0.16035472
98	0xbceaf188	-0.028679624
99	0x3dff24e5	0.12458209
100	0x3d4b3dd3	0.049619507
101	0x3d58453d	0.052800406
102	0x3d81b40f	0.063331716
103	0xbdf36121	-0.1188376
104	0xbc7a2e79	-0.015269869
105	0x3e2a0529	0.16603531
106	0xbe090f3d	-0.13384719
107	0x3b0a2606	0.0021079793
108	0x3eaf2d98	0.34214473
109	0x3e03a02e	0.12854072
110	0x3d879631	0.066204436
111	0xbdc3357e	-0.09531687
112	0xbe4d5edc	-0.20055717
113	0x3e0ab9f3	0.13547496
114	0x3df3cef5	0.11904708
115	0x3d8352ae	0.06412254
116	0x3c60f54e	0.01373036
117	0xbddb523d	-0.10709045
118	0x3c9be5e2	0.019030515
119	0x3e1eefe0	0.15521193
120	0xbc7abe85	-0.015304212
121	0x3dc2dae8	0.09514409
122	0x3dce234a	0.100653246
123	0x3e562a45	0.20914562
124	0xbde5e8a4	-0.11226013
125	0xbd4fd5dd	-0.050741065
126	0x3df2e938	0.11860889
127	0x3d205bf1	0.039150182
128	0x3cc34bd3	0.023839867
129	0x3e590c68	0.21196139
130	0x3d006fb7	0.03135654
131	0x3e3b5620	0.18294573
132	0xbd0ae9e4	-0.03391446
133	0xbce690e7	-0.028145267
134	0x3ce555c3	0.027994996
135	0x3df0c3fd	0.11756132
136	0x3c8eeb97	0.017446322
137	0xbd2f635f	-0.042819377
138	0xbe00d9c8	-0.12583077
139	0x3e13c186	0.14429292
140	0x3cbf2ca3	0.023336714
141	0xbe202305	-0.15638359
142	0xbe553ca7	-0.20823918
143	0x3d85c7a2	0.065322176
144	0x3d5c7814	0.053825453
145	0xbdd40b8c	-0.10353765
146	0x3e213f4c	0.15746802
147	0x3e0e9165	0.13922651
148	0xbd746f00	-0.05967617
149	0xbdf723bb	-0.12067362
150	0x3da58b79	0.08083243
151	0x3e81416d	0.25245228
152	0x3d4ff624	0.050771847
153	0x3d99b69c	0.07505533
154	0x3d41fd9b	0.047360998
155	0x3dfa9b5d	0.122366644
156	0xbe2def43	-0.16985802
157	0x3c667efc	0.014068361
158	0xbce94ce3	-0.028479045
159	0x3bb2a738	0.005452063
160	0x3b50bbc5	0.00318502
161	0x3d56ad82	0.052411564
162	0x3e3867b8	0.18008316
163	0x3c89a97b	0.016804447
164	0x3d15d1e0	0.036577106
165	0x3d0eec65	0.034893412
166	0x3dc74fb1	0.09731997
167	0xbd0890fa	-0.033341385
168	0xbd619710	-0.055075705
169	0xbda8c8bb	-0.08241411
170	0xbd9afcf8	-0.07567781
171	0x3e17191a	0.14755669
172	0xbc84d14c	-0.016213082
173	0x3db214c2	0.086953655
174	0x3d1c7f21	0.038207177
175	0x3e2dea12	0.16983822
176	0xbe56f5bb	-0.20992176
177	0xbcf7b283	-0.030236488
178	0xbcd94a7f	-0.02652478
179	0xbdef142a	-0.11673768
180	0x3e3ecfdf	0.18633984
181	0xbe85552c	-0.26041543
182	0x3dfa2561	0.12214161
183	0x3c04bc8d	0.008101595
184	0x3d3b402b	0.045715492
185	0x3e459e8f	0.19298767
186	0x3c798351	0.015229062
187	0x3e370d4b	0.17876165
188	0xbd2c98e7	-0.042138007
189	0x3dd358b2	0.10319652
190	0x3c2eda68	0.010672189
191	0x3d406e1e	0.046980016
192	0x3e11ef12	0.14251354
193	0x3e697c70	0.22801375
194	0xbe29e326	-0.16590557
195	0x3c58e1fb	0.013237472
196	0x3e24db4d	0.16099282
197	0x3e487163	0.19574504
198	0x3dd74cdb	0.10512706
199	0x3e398c9f	0.18120049
200	0x3dc535ec	0.096294254
201	0xbe33f325	-0.17573221
202	0xbe7baca6	-0.24577579
203	0x3b97dc1d	0.004634394
204	0x3e055dd0	0.13024068
205	0xbdf29428	-0.11844665
206	0x3e8b30c4	0.27185643
207	0xbdbadc21	-0.091240175
208	0xbc8f3541	-0.017481448
209	0xbd0b758f	-0.03404766
210	0x3da1ced2	0.07900776
211	0x3d45056a	0.048100866
212	0x3c07b903	0.008283856
213	0xbe8129c7	-0.25227186
214	0xbe573d8c	-0.21019572
215	0x3d57a1ac	0.052644417
216	0xbe885f01	-0.26634982
217	0xbd4309be	-0.047616713
218	0xbe4d42d6	-0.20045027
219	0xbb94b919	-0.004538667
220	0xbddcf79f	-0.107894175
221	0xbdd18a93	-0.10231509
222	0x3e786d9c	0.24260563
223	0x3e46bd4e	0.19408152
224	0xbe3d9e31	-0.18517376
225	0xbe102bf9	-0.14079274
226	0xbe30fad2	-0.1728318
227	0x3cb94fa2	0.02262098
228	0xbde64c14	-0.112449795
229	0x3c9fcb7c	0.019506209
230	0xbe1c1b30	-0.15244746
231	0x3e883164	0.26600182
232	0x3e38935e	0.18024966
233	0x3e1da530	0.15395045
234	0xbe04d145	-0.12970455
235	0x3e14c038	0.1452645
236	0x3cc0240e	0.023454692
237	0x3d95a7ab	0.07307371
238	0xbadcf81d	-0.0016858611
239	0xbe11c2e5	-0.14234503
240	0x3e1a75d5	0.15084012
241	0xbe13688b	-0.14395349
242	0xbe9336d4	-0.28752768
243	0x3e48a24d	0.19593163
244	0x3d9e33d4	0.07724729
245	0x3d16ca41	0.036813978
246	0x3e3d92e9	0.18513073
247	0x3da1f932	0.07908858
248	0xbe00ec5a	-0.12590161
249	0xbe49d5bd	-0.19710441
250	0xbdf380c5	-0.11889795
251	0x3c6f353d	0.014600095
252	0xbe983d25	-0.2973415
253	0xbe3f2eb7	-0.18670164
254	0x3e2f73bc	0.17133993
255	0xbd58940f	-0.052875575

mid_part.6.bias f4 [12]
0	0x3c4c56c0	0.012471855
1	0x3bc92818	0.0061388128
2	0x3b0ec175	0.002178279
3	0x3be4430f	0.006966002
4	0x3c1c286e	0.009531124
5	0x3c218b49	0.009859868
6	0x3c8f7ad4	0.017514624
7	0x3c47a232	0.0121846665
8	0x3a4283cd	0.00074201525
9	0x3a0ea6b0	0.00054417085
10	0x3c443799	0.011976146
11	0xbd3b3e0f	-0.04571348

mid_part.7.weight f4 [12]
0	0x3e786b3a	0.24259654
1	0x3e93a217	0.28834602
2	0x3e8deed5	0.27721277
3	0x3e8eaa4c	0.278643
4	0xbcb078a0	-0.021541893
5	0x3f030b7f	0.51189417
6	0x3e4d06fc	0.20022196
7	0xbc0907d0	-0.008363679
8	0x3e811687	0.252125
9	0x3e6be460	0.23036337
10	0xbe148fc4	-0.14507967
11	0x3e6c0a36	0.2305077

mid_part.8.weight f4 [12, 12, 3, 3]
0	0x3dd3c1bc	0.10339686
1	0xbdeccfe3	-0.11563089
2	0xbe457a84	-0.19285017
3	0xbda00f63	-0.07815435
4	0x3e69490b	0.2278177
5	0x3e091186	0.13385591
6	0xbe96fc5a	-0.29489404
7	0x3e103e66	0.14086303
8	0xbd837740	-0.064192295
9	0xbd55f3ad	-0.05223434
10	0x3d0db739	0.034598563
11	0x3d85934c	0.06522235
12	0x3dbf2544	0.0933328
13	0x3e9a848b	0.30179247
14	0x3d1da60c	0.038488433
15	0x3e4701b3	0.19434242
16	0x3d702f48	0.05863884
17	0xbd6d9e63	-0.058012377
18	0x3da604d6	0.08106391
19	0xbd038ab1	-0.03211469
20	0xbbf0066c	-0.0073249843
21	0xbe5cfe3d	-0.21581359
22	0xbd238613	-0.039922785
23	0xbc7186d5	-0.014741619
24	0x3d3bd4d1	0.045857254
25	0xbe337123	-0.17523627
26	0xbc4208a6	-0.011842882
27	0xbd69609b	-0.056976896
28	0xbda0ea5e	-0.07857202
29	0x3cfcd440	0.030862927
30	0xbe2dde57	-0.16979347
31	0xbd6b69a8	-0.05747381
32	0x3dd945e3	0.10609033
33	0x3bf97305	0.0076125883
34	0xbdd47839	-0.10374493
35	0xbe44c405	-0.192154
36	0xbcd48a45	-0.025944838
37	0xbc904770	-0.017612189
38	0x3c9604d7	0.018312855
39	0x3dcb3f2f	0.09924161
40	0xbc99077b	-0.018680325
41	0x3e67d495	0.22639687
42	0xbdc2ca3f	-0.09511232
43	0x3d6a9a94	0.057276323
44	0xbca6799b	-0.020321658
45	0x3da93774	0.0826253
46	0x3e015daa	0.12633386
47	0x3d5a79f6	0.053338967
48	0xbe2ef6ad	-0.17086287
49	0x3d57e6be	0.052710287
50	0x3c8dd5cb	0.017313858
51	0x3eaad77e	0.33367532
52	0xbe378a8b	-0.17923944
53	0x3db89b12	0.09013952
54	0x3dcc59eb	0.09978088
55	0xbeaf69f8	-0.34260535
56	0x3d18e545	0.037328023
57	0x3d0d70d1	0.03453142
58	0xbd141953	-0.036156964
59	0xbd4e4b04	-0.05036451
60	0xbde9f32b	-0.11423334
61	0xbdee8da8	-0.116481125
62	0x3d218950	0.039437592
63	0xbc646396	-0.013939759
64	0x3e9c8031	0.30566552
65	0x3bb7ee53	0.0056131273
66	0x3d3cb589	0.046071563
67	0x3e4d7425	0.20063837
68	0xbdc2c431	-0.09510077
69	0xbe327e4b	-0.1743099
70	0xbcc0703f	-0.023491023
71	0xbe64dd16	-0.22349963
72	0xbe881162	-0.26575762
73	0x3d13600c	0.03598027
74	0x3d809018	0.06277484
75	0xbc60944a	-0.01370723
76	0x3e3b2470	0.18275619
77	0xbe0abd4b	-0.13548772
78	0xbd862867	-0.06550675
79	0xbe086d56	-0.13322958
80	0xbdfae4aa	-0.122506455
81	0x3d9c921c	0.07645056
82	0xbd7fa33c	-0.06241153
83	0xbe10bad0	-0.14133763
84	0xbe12642a	-0.14296022
85	0xbd6b34ab	-0.057423275
86	0xbccf57af	-0.025310365
87	0x3e6958dc	0.22787803
88	0xbd22706e	-0.039658003
89	0x3845721b	4.707473e-05
90	0x3c06ffec	0.0082397275
91	0x3e2334b8	0.1593808
92	0x3c86f0a5	0.01647217
93	0xbd89bd56	-0.06725566
94	0xbd2cfe48	-0.04223469
95	0x3d2e1233	0.042497825
96	0x3dacc6f7	0.08436387
97	0x3dae3e67	0.08507996
98	0xbd3e96dd	-0.046530593
99	0x3e5c3afa	0.21506873
100	0x3edc93cf	0.4308152
101	0xbe39d294	-0.18146735
102	0x3ee60e7a	0.4493292
103	0x3a953e81	0.0011386425
104	0x3e66fdec	0.22557801
105	0xbe3b68cd	-0.18301697
106	0x3e1a7d01	0.15086748
107	0x3e741fc6	0.23840246
108	0x3de2d29f	0.11075329
109	0xbdb2b2cf	-0.08725511
110	0xbe1c268a	-0.15249076
111	0x3e540f1a	0.20708886
112	0x3e1586d2	0.14602211
113	0x3c343b80	0.011000514
114	0x3d71e837	0.059059348
115	0xbe8ab9c1	-0.27094844
116	0xbe774533	-0.24147491
117	0x3d6835d9	0.056691978
118	0xbe1766eb	-0.14785354
119	0x3c68734e	0.014187647
120	0x3df816b1	0.12113703
121	0x3e550359	0.20802058
122	0xbe74a92c	-0.23892659
123	0xbe245fb8	-0.16052139
124	0x3bb4ce4a	0.0055177556
125	0xbdd84cc2	-0.105615154
126	0x3d3bec1e	0.045879476
127	0xbcb41f9f	-0.021987734
128	0x3db0eaff	0.08638572
129	0x3d19abc8	0.03751734
130	0xbe86f5af	-0.26359317
131	0x3e7e5540	0.24837208
132	0xbdf7e324	-0.121038705
133	0x3d998334	0.07495728
134	0x3cdbcf54	0.02683226
135	0xbd690ca8	-0.056896836
136	0x3eb5b49a	0.3548935
137	0x3d39f541	0.045399908
138	0x3e083dd2	0.13304833
139	0xbbf0b609	-0.007345919
140	0x3da3b893	0.07994189
141	0xbe39d9f7	-0.18149553
142	0x3d8a3f30	0.06750333
143	0x3dddb8ef	0.10826289
144	0x3e1fabb8	0.15592849
145	0x3bc2f617	0.0059497464
146	0xbdd0c866	-0.10194473
147	0x3d2d8095	0.042358954
148	0x3e44273e	0.19155595
149	0xbe995c62	-0.29953295
150	0x3e23f7b9	0.16012467
151	0xbea8de35	-0.3298203
152	0x3d76a908	0.060219795
153	0x3e053b92	0.13011006
154	0x3e1d4cca	0.15361324
155	0xbcba2901	-0.02272463
156	0x3d89b398	0.06723708
157	0x3e5805a5	0.21095903
158	0x3d7a9c8d	0.061184455
159	0xbe61e550	-0.22060132
160	0xbd33f302	-0.043932922
161	0xbcef1cba	-0.029188503
162	0xbc9f37ea	-0.019435842
163	0xbbc11f9b	-0.0058936602
164	0x3e2fdbc3	0.17173676
165	0x3e046e3a	0.12932673
166	0x3c96a6bb	0.01839005
167	0x3d80ee93	0.062955044
168	0xbc0133e0	-0.007885903
169	0xbd456cb8	-0.048199385
170	0x3da00115	0.078127064
171	0x3e21252b	0.15736835
172	0x3e4e8583	0.20168118
173	0x3df8dbb9	0.12151284
174	0x3dbb4ee6	0.09145908
175	0xbeb4d642	-0.35319716
176	0x3d0a1120	0.033707738
177	0x3cd2881a	0.025699664
178	0xbd83b615	-0.06431214
179	0x3d9a1d65	0.07525138
180	0x3da22ee1	0.07919098
181	0xbc86ee08	-0.016470924
182	0x3c1ef12c	0.009701055
183	0x3d1305d1	0.03589422
184	0xbe06da4d	-0.13169213
185	0x3c5aeb38	0.013361745
186	0x3e86f48e	0.26358455
187	0xbdd3def6	-0.10345261
188	0x3dcecc39	0.10097546
189	0x3e954b35	0.2915894
190	0x3c8c1d7d	0.017103905
191	0x3c5dd8f9	0.0135405
192	0x3e787e59	0.24266948
193	0x3d28aee5	0.041182417
194	0x3e703f1c	0.23461574
195	0x3e480701	0.19533922
196	0xbbaac599	-0.0052115438
197	0x3d65bba9	0.05608717
198	0x3c3dd4e0	0.011586398
199	0xbd1857c1	-0.037193064
200	0x3da776c3	0.08176949
201	0xbc3867ed	-0.011255247
202	0xbe33174f	-0.1748936
203	0xbe0b5b8d	-0.13609143
204	0xbdc52704	-0.09626582
205	0x3d9fdad5	0.07805411
206	0x3e352ddf	0.1769328
207	0x3e3a8ed7	0.18218552
208	0xbe429a4a	-0.19004169
209	0x3e0bde1f	0.13658951
210	0x3e0d797e	0.13815877
211	0x3d7ffc84	0.062496677
212	0x3db86075	0.09002773
213	0xbc032e45	-0.008006637
214	0x3c0c6aab	0.0085703535
215	0x3e60b77c	0.21944994
216	0xbd37b5c4	-0.04485108
217	0x3e321710	0.1739161
218	0x3ded5d6e	0.11590086
219	0xbbf6f80f	-0.007536895
220	0x3d993489	0.074807234
221	0xbde34b4b	-0.11098345
222	0x3d635207	0.05549815
223	0x3dcfa956	0.1013972
224	0x3e0e8e59	0.13921489
225	0x3d910ccd	0.0708252
226	0x3d79f57f	0.06102514
227	0x3e45b8c6	0.19308767
228	0x3cc20265	0.023682782
229	0x3e3ab213	0.18231992
230	0xbe04a2b1	-0.12952687
231	0x3dca900f	0.09890758
232	0x3d9cc6df	0.07655119
233	0xbe0665e0	-0.131248
234	0xbc946fc8	-0.018119708
235	0xbd3a0ed4	-0.045424297
236	0xbe2dd082	-0.1697407
237	0xbd54133b	-0.051776152
238	0xbe37a312	-0.179333
239	0x3ccfde6d	0.025374616
240	0xbd407f7a	-0.04699657
241	0xbd314c2b	-0.04328553
242	0xbcb5f434	-0.022211172
243	0xbe5cabe4	-0.21549946
244	0xbda84f58	-0.082182586
245	0xbd89e2ea	-0.067327335
246	0x3e6e57b6	0.23275647
247	0x3dadb71b	0.0848219
248	0xbe4e1a65	-0.20127256
249	0x3d272c83	0.040813934
250	0xbd54103a	-0.051773287
251	0x3c223bf1	0.009901986
252	0x3d93e90f	0.07222187
253	0x3d3b9270	0.04579395
254	0xbe878064	-0.26465142
255	0x3e343c77	0.1760119

mid_part.8.bias f4 [12]
0	0xbbc083d4	-0.00587509
1	0x3c0d5363	0.008625838
2	0x3ae3d9c4	0.0017383625
3	0xbc7e804d	-0.015533519
4	0x3c4e7eac	0.012603443
5	0x3a6fa6d8	0.0009141988
6	0x3aeb99a6	0.0017974868
7	0x3bbedc66	0.0058246134
8	0xbc159e34	-0.009131957
9	0x3d566ca7	0.052349713
10	0x3bca0189	0.006164734
11	0x3c1bf5cf	0.009519055

mid_part.9.weight f4 [12]
0	0xbf280983	-0.65639514
1	0xbd10e0cf	-0.035370644
2	0x3f0e37a3	0.55553645
3	0x3e8635ca	0.26212913
4	0x3efd1d1a	0.49436265
5	0x3f7c61cb	0.9858672
6	0x3f014060	0.50488853
7	0xbcdf6012	-0.02726749
8	0x3e887c97	0.26657555
9	0x3e665e85	0.22496994
10	0x3dbd5263	0.0924423
11	0x3f17d93c	0.5931585
