models/fsrcnn/track1/track1_x4__epoch_7.pth (torch, 57971 bytes, 22 tensors)

first_part.0.weight f4 [56, 1, 5, 5]
00000000: 7cc5 47bc f1e8 353d 9e14 c83c a795 f93b
00000010: d549 61bc e74b 03bd 60db 063d 9f3a 97bc
00000020: c58c 11bd c150 f63b 1615 783d 9337 bdbc
00000030: 181d 0f3d dabe b03c 7494 703c 480a ed3c
00000040: b8bc 9dbc 96b9 2fbc 7db6 953d ea62 97ba
00000050: e0d4 2cb9 907c f13b 9184 643d 74e6 2d3b
00000060: 8e4b 36bd c107 efbc 594f 20bd e271 2fbd
00000070: 38b1 ce3b 8968 433d b032 33bd e810 1f3d
00000080: d2c8 28bd 2153 78bc ae9f a43b 0955 04bd
00000090: e7bd 7b3c 4459 543b e725 6939 5f61 84bd
000000a0: 525b 41bb 9b32 e93c 9aed c5bb f47a ea3a
000000b0: b2d4 77bc 403b 183d 3d83 8eb9 9509 b7bd
000000c0: 2a8e 4a3d 5147 0d3b de93 dcbc 21ba 42bd
000000d0: 7f9d 56bc f083 78bc ec3a a43c 1987 c9bb
000000e0: a1e6 163b 3bb5 a4bc a4dd d1bc f561 98bd
000000f0: 1898 27bd 081c a3bd 1933 77bd f931 69bc
00000100: e1eb 64bd 4b10 363d 6763 68bd ca95 8abd
00000110: 85b7 ebbc bfac 65bc 05aa 7dbd 5694 3b3d
00000120: 7239 253d 85d7 2dbd 09cf 9abc 8c34 113d
00000130: 38db e0ba f58e 6b3d 68e9 953c a96c aebc
00000140: 7c7b 28bd 873c 9abc d885 d73b bb00 39bd
00000150: e692 91ba 4f76 0e3c 66cd bd3d 367a 0fbd
00000160: 0a34 99bd 4937 eb3c 3ab0 463d 457b 3dbd
00000170: 0543 70bd caf4 c0ba 8187 8dba db57 fa3c
00000180: f0ad 84bd fa39 8dbc 2e47 31bd 4055 d1bd
00000190: 742d 143c ea0d 21bd 701c f5bc 14b9 adbd
000001a0: 1c9d 6ebc 78b6 99bc 3b8a 953d 8a4e 613b
000001b0: 0df4 1c3d a567 c5bb 960f cf3b 5671 a0bd
000001c0: b4d0 22bd 3084 5c39 ebfc 6a3c 29a6 50bc
000001d0: 906a 9ebd 07e5 57bd 32d5 f9bc 24e4 343d
000001e0: 81b4 44bd 86cf 67bc 844f 4b3d 1d52 8ebd
000001f0: 5014 a03c 657f a5bd adc5 4fbd c36c 3b3d
00000200: 1dc1 a03c c837 523c e580 f93c c3bc 0fbd
00000210: 1d8b 6fbc c48d 6bbd 4ede 903a 049d 41bd
00000220: e6ba cebc a1ab 213d 5819 e63c 6133 0abd
00000230: 7cc6 583d 244a 6fbd 0885 af3c 1164 85bc
00000240: 27a9 3cbc 7c02 463d 5c13 c0bb ddf6 87bb
00000250: 14ea 93bc c7cd f5bc c68c c2bd d403 bd3c
00000260: 9683 4d3c a9c7 8b3d 429e 90bc 86d6 5fbc
00000270: db87 983c 556e da3c 3683 45bd 5fe7 61bd
00000280: 5e57 59bc b927 64bd 6afd 93bc b849 68bc
00000290: 6e32 0d3d da8e a7bd e7e1 9a3c c222 03bd
000002a0: 0540 333c 916c 91bc d263 84bd 514d 573c
000002b0: 74e7 6ebb effb 83bb a281 8bbd 3179 903d
000002c0: ca10 29bd e011 8e3d 94d3 e1bd cc2a fdbb
000002d0: abd5 ffba bad7 203d 570d c5bd 68ee 853d
000002e0: 6b3f 6b3d 8b75 033d 6642 b4bd 8945 7b3e
000002f0: 074f f3bc 3806 963c 5322 af3c 8c8d b5bd
00000300: f846 9b3d bbdc d3bd c4e2 e13d 7c16 b53d
00000310: 0047 6b3c ef2b 9a3c 8277 de3c 7fe2 fc3c
00000320: d019 c43c bb30 6a3d ab62 9dbb 9ee5 823b
00000330: 57c7 e53c 33af 013d fecd 293d af8b 9bbc
00000340: d7b9 b73c ba2b 03bc 42a4 bc3b 5ff2 acbc
00000350: 0320 973d 048b ba3b 5b8c 8abc 0527 e7ba
00000360: 8a46 6b3c 5b5c bb3c b231 7fbc 622c 25bd
00000370: 867c a33c 6229 cb3c 9230 c33d c302 31bd
00000380: 4fed 673c 3def 9f3d 11c8 23bd c020 73bd
00000390: adcb 573d 5ff5 73bd 7ac1 6fbc db3f a43b
000003a0: 8998 e93c b41a 4abd 887a 453c 8b62 393c
000003b0: 0116 89bc 7a00 983d 15fa 4f3d 0141 313d
000003c0: 30af 523d 99cb 8bba 4811 583c d78e 2abd
000003d0: 5974 4a3d decd 023d 7de5 1a3d 4516 ca3c
000003e0: 2a33 6c3d 1a64 493d 8fd4 b0bc da0c ff3c
000003f0: d4ad 3dbd c8d6 ccbb b9ca 3fbd c1b7 3c3c
-0.01219308 0.044411603 0.024423894 0.007616717 -0.013750513 -0.032054808 0.032924056 -0.01846057
-0.03553464 0.007516951 0.060566984 -0.023097789 0.034939855 0.02157538 0.0146838315 0.028935567
-0.019255027 -0.0107253995 0.073101975 -0.0011549864 -0.000164825 0.0073695853 0.055790488 0.0026535066
-0.04450565 -0.029178502 -0.03913817 -0.042833216 0.006307747 0.047707114 -0.04374951 0.038834482
-0.041207142 -0.015156538 0.005023918 -0.03230766 0.0153651005 0.003240184 0.00022234731 -0.064638846
-0.0029503894 0.028466513 -0.006040287 0.0017889426 -0.015126394 0.03716588 -0.0002718213 -0.089373745
0.049451984 0.00215574 -0.026925977 -0.047540788 -0.013099073 -0.015168175 0.020047627 -0.006150138
0.002302565 -0.020105949 -0.025618382 -0.07440559 -0.040916532 -0.07964331 -0.060351465 -0.014233106
-0.055889014 0.044449132 -0.056735422 -0.06766851 -0.028774032 -0.014018237 -0.06192972 0.04579576
0.040337987 -0.042441864 -0.01889755 0.035450503 -0.0017155176 0.05750938 0.018299773 -0.021292048
-0.04113339 -0.01882769 0.0065772347 -0.045166712 -0.0011106401 0.008695199 0.09267692 -0.03502866
-0.07480629 0.028712885 0.048507906 -0.046260137 -0.058657665 -0.001472139 -0.001079783 0.03055947
-0.064784884 -0.01723956 -0.043280773 -0.10221338 0.00904404 -0.03931991 -0.029920787 -0.084825665
-0.014563825 -0.018763766 0.07301756 0.0034379088 0.038318682 -0.0060243183 0.0063189967 -0.07834117
-0.039749816 0.00021030079 0.014342527 -0.012734928 -0.07735169 -0.052708652 -0.030497167 0.044162884
-0.048023704 -0.014148599 0.04963638 -0.069492556 0.019540936 -0.08080939 -0.050725628 0.04575802
0.019623334 0.012830682 0.03045697 -0.035092127 -0.01462057 -0.057508245 0.001105258 -0.047268882
-0.025235604 0.03947032 0.028088257 -0.033740405 0.052923664 -0.058420315 0.021425739 -0.016283067
-0.011514938 0.048342213 -0.005861683 -0.0041493014 -0.018055953 -0.030005349 -0.09499507 0.023073114
0.01254358 0.068251915 -0.017653588 -0.013661986 0.018619468 0.026663939 -0.048220836 -0.055152293
-0.013265459 -0.055701945 -0.018065173 -0.014177732 0.03447192 -0.08181544 0.018906547 -0.03201557
0.010940556 -0.017751964 -0.06464352 0.013140992 -0.0036453875 -0.0040278356 -0.06811835 0.070543654
-0.041275777 0.06937003 -0.110266834 -0.007726049 -0.0019518634 0.039268233 -0.09621685 0.06539613
0.057433527 0.03209452 -0.08801727 0.24538244 -0.02970077 0.018313512 0.021378672 -0.088648885
0.075818956 -0.10344835 0.1102958 0.08842179 0.014360189 0.018819777 0.027156595 0.03086972
0.02393809 0.05717538 -0.004803022 0.0039946577 0.028049154 0.031661224 0.041456215 -0.018987505
0.022427483 -0.008006031 0.0057568857 -0.021111665 0.073791526 0.0056928415 -0.01691263 -0.001763553
0.01436008 0.022871187 -0.015575813 -0.04032553 0.019956838 0.024800006 0.095307484 -0.043215524
0.0141557 0.07809303 -0.03998572 -0.059357405 0.052684475 -0.059560176 -0.014633531 0.005012495
0.028515117 -0.049341872 0.0120531395 0.011314998 -0.016734125 0.07421966 0.050775606 0.043274883
0.051436603 -0.0010665535 0.013187714 -0.04164013 0.049427364 0.03193461 0.037816513 0.024668822
0.05766598 0.04916773 -0.02158573 0.031134058 -0.046308354 -0.00625119 -0.04682419 0.01151842

first_part.0.bias f4 [56]
00000000: b819 b7bb d4df d7ba 7604 f53a 0957 06bb
00000010: 5c50 c13b a123 10bc dc10 6239 fe01 cc3c
00000020: 09b3 08bc 4fae f1bb 64f7 bebb cf22 39ba
00000030: 187a ae3b 4cbf 343c 27bc 443d f90f 2ebc
00000040: af4c 223b a6ee bdbb d7ec f13b be2f a4bc
00000050: 5153 4f3b c141 5dba d577 f2bb 80a9 cabb
00000060: e31f 48bc ae12 2c3c afe7 02bc 96f5 c23b
00000070: aef8 97bc 1c73 583b 4637 90bb d928 e43a
00000080: e716 87bb 9b03 adbb 5622 2f3a e498 833c
00000090: 899b 69ba 2d72 7f3b d978 be3b c6e4 993c
000000a0: 9412 873d 4ada 513b a0a2 1b3c 945c 1dbd
000000b0: 2e21 46bb e1c1 2b3b 6a8c 7cbc ae10 69bb
000000c0: c409 bdbd 3837 5b3c 00a1 9bbc ea4a f43c
000000d0: 2805 3c39 4884 c33b 3a2e 96bb d984 2c3d
-0.0055877827 -0.0016469904 0.0018693346 -0.0020498654 0.005899472 -0.008797557 0.0002155932 0.024903294
-0.008343467 -0.0073755155 -0.005827831 -0.0007062377 0.0053246133 0.011031937 0.048031 -0.010623925
0.0024764945 -0.0057962714 0.00738297 -0.020042296 0.0031635354 -0.0008440279 -0.007399539 -0.0061847568
-0.012214634 0.0105025 -0.007989808 0.0059496863 -0.018551197 0.0033027595 -0.0044011204 0.0017407193
-0.004122603 -0.005279971 0.00066808367 0.016064115 -0.0008911421 0.0038977966 0.005812746 0.018785845
0.0659534 0.003202098 0.009499222 -0.038418368 -0.003023218 0.002620809 -0.015414337 -0.003556292
-0.09230378 0.013379864 -0.01899767 0.029820878 0.00017930998 0.005966697 -0.0045831474 0.04211888

first_part.1.weight f4 [56]
00000000: adb2 7a3e 4aaf 7b3e c3f2 833e 91fb 853e
00000010: e22e 7e3e 0eb3 863e 97bc 803e 7173 953e
00000020: 6158 a43f 1fea d33d 88ee a63f b31e 813e
00000030: 3e19 5a3f 7c21 823e e4c3 743e ec29 323d
00000040: 779e ae3e 4404 913e 162c 843e ce11 4e3e
00000050: 3c99 833e e15a d03f 43da 7d3e 5edf 7a3e
00000060: 3525 123e 78a2 7b3e 4160 c03f 8ed1 813e
00000070: fcc9 983e fc08 8c3e ff60 793e 6172 923e
00000080: 1b3f a63f 0986 ba3e 33c5 7a3e 6a94 813e
00000090: 9b82 773e 61ae cbbc 33b1 8b3e bbb5 803e
000000a0: d105 0b3f 3746 893e 885b 813e 5a29 aa3e
000000b0: f32a 4e3f f948 463e 71cf de3f 709b 813e
000000c0: 0f1b 0d3f c3cf 793e b832 b03f 7e6a 803e
000000d0: c582 643e c9b6 343e fdae 8a3e 5e83 843e
0.24482222 0.24578586 0.2577115 0.26168492 0.24822572 0.26308483 0.25143883 0.29189637
1.2839471 0.103473894 1.3041544 0.25218734 0.85194767 0.25416172 0.23902851 0.04349701
0.34105274 0.28323567 0.25814885 0.2012398 0.25702846 1.6277734 0.24790291 0.2449927
0.14272006 0.24573696 1.5029374 0.2535519 0.29841602 0.27350605 0.24353407 0.2860289
1.2988008 0.36430386 0.24489288 0.25308543 0.24170916 -0.024863424 0.2728363 0.2513865
0.5430575 0.26811382 0.25265145 0.33234674 0.80534285 0.19363774 1.7407056 0.25313902
0.55119413 0.24395661 1.3765478 0.25081247 0.2231551 0.17647852 0.2708663 0.25881475

mid_part.0.weight f4 [12, 56, 1, 1]
00000000: 9656 033f 570b 5b3e 70a4 41bf db7e 773e
00000010: 6e56 c93e ca83 ac3e 7e79 adbd 6ef6 023f
00000020: 28d2 2a3e f84c 97bf 210b 023f f8c8 9dbd
00000030: 018a 0bbf 8ae4 873f 79d0 dc3e fd7f d03e
00000040: a284 bd3d e643 8b3d 55f9 0d3f cab9 7cbe
00000050: 2be1 4b3c 1d72 353f ce67 babe 8c58 ecbe
00000060: c82a 99bd 9eb6 9abd 1c3c d93e 7998 39bf
00000070: c8f7 893e 0c4e cc3e 3eb7 3b3d f2de b43e
00000080: 2964 0a3f 4170 0d3e 0de9 0ebf 5c34 30bf
00000090: 1126 62bd bb79 3fbd b66c 8cbe 078c bf3e
000000a0: e461 bdbd 0773 003f 5e9b c4be 80c5 f3bd
000000b0: bee0 08be 2ee4 1bbe 8e21 d6bd ffca 1bbf
000000c0: a048 1dbe 30b8 14bf 9eee cbbd 43e3 29be
000000d0: 95fb 2cbf c0ac 233e f485 98be 342b 5bbe
000000e0: f46d a0be 1549 79bf acfb ff3e f804 f23a
000000f0: 43e5 833c 89aa 4c3f 6cf5 3e3f ee92 043f
00000100: e98a dd3c 1f88 c2bd 6224 95bd b8c1 fabe
00000110: 77aa 3e3e ae42 403e a0f4 1ebf cb60 0a3e
00000120: 85de 0cbf 7eaf 7b3e 0c36 1f3f 9167 dfbd
00000130: c352 5a3f f600 83be 1dd5 ab3d 084a c2be
00000140: 1f98 c3be 4d6d 9dbd a730 ac3d 7108 0cbf
00000150: bef3 133f c5ef 493f 1a8a 42be b3b9 da3e
00000160: bbaa 2a3e f388 cabe 0233 c3bd 5be0 16be
00000170: 92b1 763e 9016 5f3e 7e1a 32bf b014 81be
00000180: 97d0 6f3e 473f 333f 86b5 92be d644 5a3f
00000190: b163 3a3f f3a2 fc3d d9e7 e33e 8ee8 b63d
000001a0: 3936 a43e ca3b f7bd 0143 593f fd48 0ebf
000001b0: 9ab1 7dbc 5915 6fbe a987 293f 4055 eabe
000001c0: f34a 8d3e ae44 1bbf 2001 89be 9b2f ccbe
000001d0: a4dc 98bd 176b 1b3f e637 f1bd 2ac3 38bd
000001e0: 5af0 263f aaab 4a3f 22d2 c73d a7ba 503f
000001f0: b7dd ddbe 5bd4 19be b79d cbbd 0bd3 cc3e
00000200: ec4b 07bc c5b3 0dbe 33cd f23e 27b7 bd3e
00000210: b073 09bf 4c34 6f3e eff1 03be 56e3 9cbe
00000220: 9d72 d33e 1747 a8be 9610 22be 33e8 83be
00000230: 37c3 fbbe 72bd d33e 787f 9c3c 0a50 14be
00000240: 57b6 fa3e c4f5 333f 1910 223f 5cb6 c33e
00000250: 0293 a33e d7bb 9f3e 65ed f2be dbc1 e63d
00000260: 5b76 cbbc 5eae 023e ed55 59be ee64 aabb
00000270: 76a1 0d3e f5b6 d23e ffdf 803e b46e f73e
00000280: cb17 34bc 1d7c 193f 327b 5d3e ba80 11bf
00000290: 62ff 983c b4f0 dc3e cc82 b3be ec13 a5be
000002a0: 8656 3d3d 63c8 9e3e 243f 09be 8ce0 1d3e
000002b0: a660 813e 38bc 62bc a891 2ebe ee52 a93e
000002c0: f0cf 13bf d59b bebe 53ce 113f 7e56 b8be
000002d0: 677f be3e a900 f9be 3cd5 223f 9aa6 c3bd
000002e0: 5ca5 0d3e 067f 6a3e 65b8 44bd 8f97 603f
000002f0: 152c fbbe 4acc 223f 0577 a7be e8da c9be
00000300: be10 f93e 35da 823d d755 e0be b48a 743f
00000310: 0991 ea3d 64f4 ca3e 1f8f 5dbd d116 11be
00000320: 300e 02bf 660c 5c3e eb7d e2bd 69bf f23e
00000330: df27 0c3e c8d8 f3bd d021 a8bc 5e47 553e
00000340: e1bb 8fbd 8f8c 883f 9338 463f 55ee 2a3f
00000350: 73db 79bf da4b 76be 8b3a f33e 3c19 b9bd
00000360: 36eb c53e 3149 123f e044 96be 6c65 fdbe
00000370: 3428 bbbe e2de e73e bbd0 59be 04e1 003f
00000380: 8d9d 80be fd81 c83d 57f0 fc3d 4f43 a13d
00000390: c267 26be a639 b2be acbd 52be b0ba 0f3f
000003a0: e676 f23e d864 87be 4cbf 1abe 4f67 943c
000003b0: 1021 adbf 7f63 4b3f 4c70 513f bbad a9bd
000003c0: 9ab2 b63e 0a30 42be 83c4 9c3e b30a c9be
000003d0: cb8b 5f3e 6451 933e 101d bb3e c618 093d
000003e0: 30ab d2bd 0178 fbbd d458 0b3f af32 6b3e
000003f0: aa6e 30bf 554c b2be 551d 5e3d 0643 5c3e
0.51303995 0.21391045 -0.75641537 0.24169485 0.39323753 0.33694297 -0.084704384 0.5115727
0.16681731 -1.1820364 0.5079823 -0.07704347 -0.5450745 1.061662 0.43127802 0.40722647
0.09253813 0.0680006 0.55458575 -0.24680248 0.012443821 0.7087725 -0.36407322 -0.46161306
-0.07478863 -0.07554363 0.42428672 -0.7249828 0.26946855 0.39903295 0.04582905 0.35326344
0.5405908 0.13812353 -0.5582436 -0.68829894 -0.055212084 -0.04674695 -0.2742669 0.3741152
-0.09247187 0.5017552 -0.38399786 -0.119029045 -0.13366982 -0.15223762 -0.10455619 -0.6085662
-0.15359735 -0.5809355 -0.09957622 -0.165906 -0.67571384 0.15983868 -0.29789698 -0.214032
-0.31333888 -0.9737714 0.49996698 0.0018464616 0.016100531 0.79947716 0.74593234 0.51786697
0.027043777 -0.09498619 -0.0728233 -0.4897592 0.18619715 0.18775436 -0.6209202 0.13513486
-0.5502704 0.24578664 0.62191844 -0.109084256 0.85282534 -0.2558667 0.083902575 -0.37947106
-0.38201997 -0.07686863 0.08407717 -0.5470038 0.57793796 0.78881484 -0.18997994 0.42719802
0.16666691 -0.3955761 -0.09531213 -0.14734022 0.24091175 0.2178595 -0.69571674 -0.25211096
0.23419414 0.7001843 -0.28654116 0.85261285 0.72808367 0.123357676 0.44512823 0.08931075
0.3207262 -0.12071951 0.84867865 -0.5558012 -0.015484238 -0.23347987 0.66222626 -0.45768166
0.27596244 -0.6065167 -0.2675867 -0.3988007 -0.07463959 0.6071028 -0.1177824 -0.045107998
0.652105 0.7916819 0.097568765 0.8153481 -0.43333218 -0.15022413 -0.09942191 0.40004763
-0.008257847 -0.13838108 0.4742218 0.37053797 -0.5369215 0.23359793 -0.12885259 -0.30642194
0.4129838 -0.32866737 -0.1582664 -0.2576309 -0.49172375 0.41355473 0.01910375 -0.14483657
0.4896724 0.70296884 0.63305813 0.38225067 0.31948096 0.31197998 -0.47446743 0.11267444
-0.02483671 0.12761828 -0.21224184 -0.00520002 0.13831124 0.4115521 0.25170895 0.48326647
-0.010992001 0.59955007 0.21629027 -0.56837046 0.018676464 0.43152392 -0.35060728 -0.32241762
0.046225093 0.31012258 -0.13402992 0.15417689 0.2526905 -0.01383882 -0.17047751 0.33071083
-0.5773916 -0.37228265 0.5695545 -0.36003488 0.37206575 -0.48633316 0.6360662 -0.09553261
0.13832611 0.22900018 -0.048027415 0.8773126 -0.4905707 0.6359297 -0.32707992 -0.39424825
0.48645586 0.06389276 -0.4381549 0.95524144 0.114534445 0.3963958 -0.05409157 -0.1416886
-0.508029 0.21489105 -0.11059173 0.4741166 0.13687085 -0.11906582 -0.020523936 0.20828006
-0.07018257 1.0667895 0.77430075 0.66769916 -0.9760048 -0.24052373 0.47505602 -0.09038016
0.38656014 0.5714293 -0.29349422 -0.4949144 -0.3655411 0.45287234 -0.2127103 0.50343347
-0.25120202 0.09790418 0.12350529 0.07874166 -0.16250518 -0.34809607 -0.20580167 0.5614424
0.47356337 -0.26444125 -0.15112036 0.018115668 -1.3525715 0.79448694 0.81811976 -0.082850896
0.35683137 -0.18963638 0.30618677 -0.39265975 0.2183067 0.28773034 0.3654561 0.03347089
-0.10286558 -0.12278748 0.54432416 0.22968553 -0.6891886 -0.34823862 0.054227192 0.21509942

mid_part.0.bias f4 [12]
00000000: 65b3 b83b 65c0 efbc e480 7dbb 1c9a 363b
00000010: c72d a03d 0e76 df3b 4fa4 f93c 83ad 053d
00000020: c189 cfbc 7d30 02bb 9f3d 99bb 5fd6 2a3d
0.00563662 -0.029266546 -0.003868156 0.0027862852 0.07821231 0.006819493 0.030473856 0.032636177
-0.02533424 -0.0019865327 -0.0046765353 0.041708346

mid_part.1.weight f4 [12]
00000000: 93af 893e c354 bf3e a4ec 7f3e 0997 843e
00000010: 5e8b e03e ba75 303f 5668 793e d74f ed3e
00000020: a7a3 963e 2e08 d33e 9b6e c93e 5281 903e
0.26891765 0.37369356 0.24992615 0.2589648 0.4385633 0.68929636 0.24356207 0.46349975
0.29421732 0.41217178 0.39342198 0.28223664

mid_part.2.weight f4 [12, 12, 3, 3]
00000000: 9dda 843e 87b5 dfbc 6bc4 9c3c aa84 8abe
00000010: 54e2 fd3d bb57 edbd ba8f 5fbd 578e f8bd
00000020: 7335 ad3d 45de 433e d9d9 63be 6188 5c3e
00000030: 08af 173d 3ae8 fbbd 301b f2bd 3d05 97bd
00000040: 88e7 24be 7036 123d db0e b83d 645d 203e
00000050: 0609 6a3d 84ab 233e f385 023c 95b7 e6bc
00000060: 8cd8 853e 1331 7f3d e63b 93bd 3c6e 163c
00000070: fb27 9cbd 365c 073e 112a 093e 7d53 96be
00000080: 343c 8fbe a8ea 00be b30f 51bd 7363 4b3e
00000090: dba8 32be a120 ebbd 6eda bfbd 0383 9abc
000000a0: 6090 823e 2eef 74be e870 0b3d dd24 6fbc
000000b0: 1107 4b3d 2c77 5c3e bd87 333d 7d85 583e
000000c0: c42c 57bd 4755 dcbd 2932 a13d fd63 bdbd
000000d0: 49d9 8e3d 3f68 d4bd 8394 3dbe 9a1d 9d3c
000000e0: 058f 8bba 9c24 713e 2341 c8bd db9e ed3c
000000f0: eb3d e2bd 1d5a 053e 4d9c 1c3e b530 053e
00000100: 64df 81bd c5f7 7a3e 3bad 0b3c da71 443c
00000110: 73ff 07bb d226 993b b3b0 6dbe f435 55be
00000120: e796 4abc ffb8 adbc 19fd 3c3d c23e 45be
00000130: 2d92 8d3e 1f16 8fbd 16be 7fbd bfec 7ebd
00000140: 9806 b33c cab6 3abe 5cba 6f3c 94e4 1f3d
00000150: a893 303d 15b2 e23d 92cb 063e b132 f0bd
00000160: d830 1dbd a920 ab3c 2a1d 923d a750 cdbb
00000170: 8172 713e cd18 f7bd 99a2 3dbd 2a2d 94bd
00000180: ece0 293d 233f d03d 7306 0f3d 6cc8 f83c
00000190: 4d3c 61bd 97ba cbbd 9843 aebc 30ed a53d
000001a0: 7ba9 f43c 0f2c 853d 573a 723d 08bb 5d3c
000001b0: dd31 403c d2ac 5ebd 2b11 0fbc 9711 ab3c
000001c0: 6474 933d 6832 85be 1396 4a3e 6d0c 823d
000001d0: d77d 023e 126d 173e af9e bf3d ba9e 1abc
000001e0: 87c8 6c3e 6207 f33d 83b5 bf3a 90ac 4a3d
000001f0: b736 edbd 6b7c 173e 68fe f9bc 7bd9 a6be
00000200: 2479 26be f9ea 9f3c e028 723d ad16 97be
00000210: dabb e2bd fc68 c23d b5bd c2bd e9b6 123b
00000220: 7108 883e 09ab a3bd c4ed 37bc d416 afbd
00000230: d473 cf3b ea7b ebbd f40f b33e 7929 1dbe
00000240: 2ecf 6b3e 8dee 28be f5c6 3abd 13cb 3abe
00000250: 1097 0ebe 4532 253d c3d0 a4bd 752a c0bd
00000260: 5a2f 05bc 37cb eabd d17e 2c3d fa87 86be
00000270: 32b3 183c e7d1 d33d 7671 c23d 8a60 103e
00000280: e511 7cbd 5e9f e6bc d1ee 433e 6d6c 49be
00000290: d72b 25be bbbb 3dbc d5bf 4f3e f19a 37bd
000002a0: 1758 98be 4fae 8dbc e1f3 ea3d 2261 2dbe
000002b0: 9948 2c3e 3fc1 e6bd 769d 26bd 6151 613e
000002c0: 3ffb 1a3e 3ef3 64bd 1600 f2bd 1432 d1bd
000002d0: 761a bc3d 4b72 d8bd 28a5 b33d 1a69 a4bc
000002e0: 557f 9e3d 2de8 9cbe 6d6e 2c3d f5f6 91bd
000002f0: cb1c 69bd d3cf f2bd e2fb b1bd f900 89bd
00000300: d4c4 3f3c 3d5c 85bd 24ca 71bb f56d 30be
00000310: 5ac2 1dbd 6072 ae3c e561 9fbd de63 053e
00000320: 57e8 253d 5172 7f3e 5c8d 45bd 18ee 07be
00000330: 759a 0ebe e8a7 1d3d 4c34 fd3d 9810 8b3e
00000340: c7e7 4d3e 4373 963d 5e79 dd3d a98a b23d
00000350: e970 233e 5e9e 1eba 7682 fa3d 1de9 1c3e
00000360: 0aae 883d af70 21be 7fbb 09bd c0ca f0bc
00000370: 351e 403e 8062 343e deab 1a3e a971 b4bc
00000380: f9ba 933e 5954 9ebd 1cb4 d8bd 1f99 8f3d
00000390: 1bc2 483e a0b9 8fbd 68e4 8ebc 5e6c 6abd
000003a0: b8a0 d03d 29a3 c43d a54e 123e 6699 89be
000003b0: e253 4fbe 46e0 7d3d 0a80 04be dae2 04bc
000003c0: b00d e63d e5ee d83c d08d 153d e525 12be
000003d0: cb92 f43b dfd7 8bbd 9f5f 7b3e 455f 3c3e
000003e0: 589a 393e 7194 dc3c 16f4 183e cd21 2c3d
000003f0: 188e a53e c832 65be edba b5bd 62aa 173d
0.2594804 -0.027308239 0.019136628 -0.2705434 0.12396684 -0.11588999 -0.054580428 -0.12136524
0.0845746 0.19127758 -0.22251071 0.215364 0.037032157 -0.12300153 -0.11821592 -0.07374046
-0.16103947 0.035696447 0.089872085 0.15660626 0.05713751 0.15983397 0.007966506 -0.02816371
0.26141775 0.06230266 -0.07189159 0.009181555 -0.07624813 0.1321877 0.13394953 -0.29360572
-0.2797562 -0.12589514 -0.051040363 0.19862156 -0.17447226 -0.11480833 -0.09367834 -0.0188613
0.25500774 -0.23919365 0.034043223 -0.014596191 0.049567286 0.21529835 0.043830622 0.21144672
-0.052532926 -0.10758453 0.078708954 -0.09247587 0.069750376 -0.10371446 -0.18513684 0.019179154
-0.0010647482 0.23549122 -0.09778049 0.029006412 -0.11046966 0.13022657 0.15293999 0.13006862
-0.063414365 0.24508579 0.008525188 0.011990035 -0.0020751625 0.004673817 -0.23211937 -0.20821363
-0.0123650795 -0.021206377 0.04613981 -0.19262221 0.27650586 -0.06986641 -0.06243714 -0.062237497
0.02185373 -0.18233791 0.014631834 0.03903635 0.043109566 0.11069123 0.13163593 -0.117284186
-0.03837666 0.020889597 0.07134469 -0.006265718 0.23578836 -0.12065277 -0.046297643 -0.07235177
0.041474268 0.101682924 0.03491826 0.030369006 -0.054989148 -0.099476986 -0.021272466 0.081018806
0.02986597 0.06502544 0.05913767 0.013533361 0.011730638 -0.054364033 -0.0087321205 0.02088241
0.07199934 -0.2601502 0.19783811 0.06350026 0.12743317 0.14787701 0.09356438 -0.009437257
0.2312337 0.118666425 0.0014626238 0.049480975 -0.11582702 0.14793555 -0.030516818 -0.325878
-0.16257149 0.019521223 0.059121013 -0.29509488 -0.11070986 0.094926804 -0.0950884 0.0022386855
0.2656894 -0.07991607 -0.011226121 -0.08549276 0.0063309465 -0.11498244 0.3497311 -0.15347852
0.23028252 -0.1649725 -0.045599896 -0.18241529 -0.13924813 0.040331144 -0.08047631 -0.09383098
-0.008128965 -0.114645414 0.04211313 -0.26275617 0.009320067 0.1034277 0.09494297 0.14099327
-0.061540503 -0.028152164 0.1913407 -0.19670267 -0.16130005 -0.011580403 0.20288022 -0.044825498
-0.29754707 -0.01729503 0.114722975 -0.16931584 0.16824569 -0.112673275 -0.04067751 0.220037
0.15134905 -0.055896036 -0.11816423 -0.1021463 0.091847345 -0.10568675 0.087717354 -0.020069648
0.077391304 -0.30645886 0.042097498 -0.071271814 -0.056912225 -0.118560456 -0.08690621 -0.06689639
0.011704642 -0.06511734 -0.0036894167 -0.17229445 -0.038515426 0.021294773 -0.07782344 0.13026378
0.04050478 0.24945952 -0.048230514 -0.1327442 -0.13926108 0.038490206 0.123634905 0.27161098
0.20107947 0.07346203 0.108141646 0.087178536 0.1596104 -0.000605082 0.12231915 0.153233
0.0667382 -0.15765642 -0.033626076 -0.029393554 0.18761523 0.176157 0.15104625 -0.022026854
0.28853586 -0.07730932 -0.10581228 0.070116274 0.19605295 -0.07017827 -0.017442897 -0.057232253
0.10186905 0.09601433 0.14287813 -0.26874846 -0.20246843 0.061981462 -0.12939468 -0.008110726
0.112330794 0.026481101 0.036512196 -0.14272268 0.007463788 -0.068282835 0.24548195 0.18395717
0.18125284 0.026926251 0.14936861 0.042024422 0.3233497 -0.22382653 -0.08873544 0.037027724

mid_part.2.bias f4 [12]
00000000: ac3f ab3b 4b94 043c adcf 8dbb 6853 5f3b
00000010: aee2 053d 1043 a0bb d0f4 9bbb 7ae5 9739
00000020: 4dae 903c 344e b63a 8eb5 b93c 200a f43c
0.005226096 0.008091996 -0.0043277354 0.0034076814 0.03268688 -0.004890807 -0.0047594085 0.00028971938
0.017661238 0.0013908804 0.02266958 0.029789984

mid_part.3.weight f4 [12]
00000000: de7c a0be 6196 7c3e dd45 863e ab8d 513f
00000010: 4f2e c83e 2777 813e 1011 f73e 3010 0c3e
00000020: 407b 693e 7a8f 233f 5be9 863e 7398 823e
-0.31345266 0.2466674 0.26225176 0.81856793 0.3909783 0.2528622 0.48255205 0.1367805
0.22800922 0.638908 0.2634991 0.25506935

mid_part.4.weight f4 [12, 12, 3, 3]
00000000: a56a e23c 2a12 90bd 60dd 653e c240 9b3e
00000010: c829 3fbd 557d fe3d 93af 17be 0a26 973d
00000020: 0bf2 afbd 5b2e 5abe 20aa f4bd a01b aa3e
00000030: b1dc 70bd 9f64 1e3e 0526 26be b33c e9bd
00000040: d1a7 ba3b efbc 683e 9125 15be e606 103e
00000050: cb0e 5e3b de07 013e a287 c3bc 92f7 a9bd
00000060: a414 73bd f4d3 2d3e 0000 2c3e 8f30 5cbd
00000070: fd05 9dbe ea5e 703d 006e 353e b8cc 11be
00000080: bd42 85be 3347 f9bd 5946 483e f5bd ca3d
00000090: e1fe dabd 088d 2a3e 89fd c23d 8b78 6abe
000000a0: 5ece b53e 931c 993c df02 98be 7bc9 c63c
000000b0: 5c53 2c3e 6457 d2bc 4136 a3bd edee ef3d
000000c0: 83bc 74be fc6c 873d 386e b2be f154 673d
000000d0: 1d0c 793e 8e2a 14be e121 033e edca 74be
000000e0: 5a06 bbbd 6e78 d33d 21ec a2bb 65cf 0cbe
000000f0: ad04 dcbc e74a 8abe ad4d 953e d897 713d
00000100: 506a e7bd 6a58 3d3e 228b 02bd ee23 5b3d
00000110: 8111 f23d f8d2 5dbe 3eb7 c8bd 6ba7 83bd
00000120: 58a9 22bd 1c33 a03c a690 c3bd 377a 31be
00000130: 6cf2 ca3a d809 253c 102a 473d 5225 5cbd
00000140: 9a1f 3a3e ec04 d53d e61a 52bc 45f6 5c3e
00000150: 530e ed3d 6715 1d3e 44b6 07bd 0032 a93d
00000160: 5832 303e c690 aabe a11a 633d 7f2a 5a3e
00000170: d9ff 5fbd 89eb 453e 5314 4fbe acee bd3d
00000180: 1667 bbbd 5216 0c3d 73e1 9d3c 5022 6e3e
00000190: ce3f 12bd 7ed5 9b3e 1d0d a4be 9903 853e
000001a0: e704 f1be f6c7 00bc b615 333e 641e 9e3e
000001b0: d06c f53d f18f 63be 1d0d 43bd dbf6 8b3e
000001c0: b54b b23d 8cce c83d 9d4d 943e b966 75be
000001d0: f49d 173d de18 b5bc 3d31 813d 9d47 1bbd
000001e0: d2c3 943e 5392 6b3d 8b5e a63e 0203 7abe
000001f0: d458 81be 9cd9 a5bd 19d0 54be 2ee1 f23d
00000200: 2fdb 54bd 6401 ecbe 1a4c 2ebe f49c 4cbd
00000210: b7ed 0abf f6a4 3cbe ed45 cc3d 0fbc a13c
00000220: 49cb 2e3e dabb 6f3e 9e6f 303e 4c6a a93e
00000230: b15c 813d b69d bc3e 7d0a b03e 3e5f c4bd
00000240: 3b11 cdbc 789c e4bc e003 03bd 81eb 42be
00000250: 9172 8ebc f059 c03a c8db aebe 31cc 50bd
00000260: ef57 fdbc 2d6a f9bc 6e18 40be 5905 923e
00000270: 9190 79be ec40 3cbd 27a2 0d3e 6caf 00be
00000280: 1ee3 073d c552 8abd b8ff 883e 39b6 22bd
00000290: 8386 4fbd 1e2b bb3e 1981 b5bd 3e24 c73c
000002a0: e301 003e db1c 28bd ae02 81be ac98 ac3e
000002b0: 55c6 7bbe a212 76be 9e75 37bd ffae 2ebb
000002c0: a9bc 9b3d 96c1 283e 2c20 0a3e eb71 da3e
000002d0: e140 8cbd 62dc 87be ee3e 2bbe 2d79 9cbc
000002e0: adb6 f1bd fef0 a43d 5745 4b3e 6231 923e
000002f0: d381 ea3d 33c4 d4be f159 013e 3c2d 1bbe
00000300: a400 463e a344 663e 08c6 10bd ac5c 163d
00000310: 143f 5dbc f54b d43d 17b2 d5bd 3bb3 babe
00000320: 52d9 38bc 4ba3 cf3e 17e1 ca3e 16a2 083e
00000330: 8d28 cbbe 7606 79be 7955 153e af35 6fbe
00000340: 39a0 82be 50bc 93be f8a7 47be 0cfb 6a3d
00000350: 5845 533a c187 193f 5a27 bb3e 7666 893e
00000360: 0af7 483e 96e2 47be ec01 1b3e 44d5 933d
00000370: fbd9 113d a9ba 54bc 78bf 1fbe 5810 9b3e
00000380: d08c 223d 8ca4 613e 23ac 7c3c 5f72 303e
00000390: 28bd a8bc 698b fe3c 2b17 d53d cff9 89ba
000003a0: 3f0d 9c3d 73e7 6e3c f949 dbbd 8478 563d
000003b0: 4ccc 343e c937 1bbd f8b3 2f3e 3238 213e
000003c0: 95da 1d3d 2925 6abc 2ae7 41be 2ccc 9fbe
000003d0: 9678 03be af3d abbd 0275 7e3d debf 2c3e
000003e0: 85e0 223e 7411 263e 2edc 15be 0593 a13d
000003f0: 5f4e 7abd c9af abbe 715a 15be 1e30 fdbd
0.027638743 -0.070347145 0.22447729 0.30322844 -0.046670705 0.12426249 -0.1481307 0.07380302
-0.08591088 -0.21306746 -0.11946511 0.332242 -0.058804218 0.15468071 -0.16225441 -0.113885306
0.005696275 0.22728322 -0.14565112 0.14065132 0.003388333 0.12600657 -0.023868386 -0.082991734
-0.059345856 0.16975385 0.16796875 -0.053757247 -0.3066863 0.058684267 0.17717743 -0.1423825
-0.2602748 -0.12171783 0.19558086 0.09899513 -0.106931455 0.16655362 0.09521014 -0.22897546
0.35509008 0.018690383 -0.2968969 0.024265995 0.16828674 -0.025676437 -0.079693325 0.11715493
-0.23900037 0.06612584 -0.34849715 0.05647749 0.24321027 -0.14469358 0.12805893 -0.23905535
-0.09132071 0.103257045 -0.0049719964 -0.1375099 -0.026857698 -0.2701027 0.29160824 0.0589827
-0.112995744 0.18490759 -0.03187097 0.053501062 0.11819745 -0.2166251 -0.09800576 -0.06428417
-0.03971228 0.01955562 -0.09549074 -0.17331778 0.0015483624 0.010073148 0.0486241 -0.05374653
0.18176118 0.104013294 -0.012823796 0.2157832 0.11574998 0.15340196 -0.033132806 0.0826149
0.17206705 -0.33313578 0.055445317 0.21305273 -0.054687355 0.19328131 -0.20222597 0.09274039
-0.091505215 0.034200974 0.019272542 0.23255277 -0.03570538 0.3043632 -0.32041255 0.25979307
-0.47074053 -0.007860174 0.17488751 0.3088256 0.11983645 -0.22222878 -0.047619928 0.27336773
0.08705846 0.09805021 0.28965464 -0.23964967 0.03701587 -0.022106584 0.063082196 -0.037910093
0.2905565 0.057512593 0.32494006 -0.2441521 -0.25263083 -0.08098146 -0.20782508 0.11859356
-0.051966842 -0.4609481 -0.17021218 -0.04995437 -0.54268974 -0.18422303 0.09974275 0.019742994
0.17069735 0.23411503 0.17230079 0.3308891 0.063165076 0.36839074 0.34383002 -0.095884785
-0.02503263 -0.027906641 -0.031986117 -0.1903515 -0.017388614 0.0014675241 -0.34152055 -0.050975982
-0.030925719 -0.030446136 -0.18759319 0.28519705 -0.24371554 -0.04596035 0.13831387 -0.12566918
0.03317558 -0.06754068 0.26757598 -0.039724562 -0.05066539 0.36556333 -0.08862514 0.024309274
0.1250072 -0.041043144 -0.25197357 0.3371023 -0.24587376 -0.24030545 -0.044789903 -0.0026654599
0.076043434 0.16480097 0.13488835 0.42665038 -0.06848312 -0.26535326 -0.16723225 -0.01910075
-0.11802421 0.08053778 0.1985067 0.285533 0.11450543 -0.41555938 0.12631966 -0.15153974
0.19336182 0.2248712 -0.035345107 0.036709473 -0.0135038085 0.1036605 -0.104343586 -0.36464867
-0.011282282 0.4055427 0.39624855 0.13343081 -0.39679375 -0.24318871 0.14583386 -0.23360322
-0.25512865 -0.2885461 -0.19497669 0.057368323 0.0008059344 0.5997277 0.3655346 0.26835984
0.19625488 -0.1952003 0.15137452 0.072184116 0.035608273 -0.012983956 -0.15600383 0.30285907
0.03968507 0.22035426 0.0154219 0.17231129 -0.02059801 0.031072335 0.104048096 -0.0010526719
0.07619714 0.014581549 -0.107074685 0.052361026 0.17656058 -0.037894998 0.17158496 0.15744093
0.038538534 -0.014291086 -0.18935838 -0.31210458 -0.12838969 -0.083613746 0.062123306 0.16870067
0.1590596 0.16217595 -0.14634773 0.0788937 -0.061109897 -0.3353255 -0.14585282 -0.12362693

mid_part.4.bias f4 [12]
00000000: 61ae 2a3d e48c 013c b720 c0bc 3883 973c
00000010: e2ee cfba cda4 75bb 14a1 abba 6e99 143c
00000020: 4dd7 ad3c 1d0a 123c de88 cebc e11a 2ebc
0.041670207 0.007907126 -0.0234531 0.018495187 -0.0015864039 -0.0037482262 -0.001309427 0.009069784
0.021220827 0.008913544 -0.025211748 -0.010626526

mid_part.5.weight f4 [12]
00000000: 293a 323f b1cc 223f 11b6 af3e 7f8c 853e
00000010: 0e95 fd3f a5ce 553f a521 3fbe cd14 723d
00000020: c1eb 3b3f 6a60 823f 3f55 da3e bd44 823e
0.69619995 0.63593584 0.34318593 0.26083753 1.9811113 0.8351844 -0.18665178 0.05910187
0.73406607 1.0185673 0.42643163 0.25443068

mid_part.6.weight f4 [12, 12, 3, 3]
00000000: 5a88 793d 1397 8bbd 954c aabc da08 233d
00000010: d46f 013e 3a18 2a3e ba17 e4bc 6f50 c13d
00000020: 28ca f13c c464 1d3d a4c6 863e 6a4a 413e
00000030: c675 c23d 6614 5a3e ac59 893e 26de f6bb
00000040: 921c 92be cd73 6c3d e0ff a03d cb53 22be
00000050: 86ab 333d 5097 ff3d 71ad 6e3c 3270 9cbd
00000060: 8912 41be 4da7 0dbe c90f 333e f992 0c3e
00000070: bcc0 02be 3e9a 3fbe 3852 78bd 499b b83d
00000080: 9558 ec3d a356 9f3d be3b b3be 3cea 2bbe
00000090: c016 f3bb b7ec 223e 7bd2 9bbd fe62 2f3e
000000a0: da2a 003e 5fec 09be f600 32bd 2751 363e
000000b0: 6a62 16bd 2150 03be f8cc cfbe 032b d43d
000000c0: df21 633e 38e3 bd3b a27e 573d d1df c13d
000000d0: 2274 eb3d a0c4 393e 8134 343e 0aa8 4fbe
000000e0: fc84 483d 700f c03d 1c88 613d 2afa 833d
000000f0: 5b64 553e 71c5 493e 6dee 093e a85e ebbd
00000100: d7aa adbd a669 113e 8637 22bd db6d 26be
00000110: 1e79 cb3c 8a77 8f3d b941 2d3d a68f 40be
00000120: 5c1e 4cbd 14d7 bd3d 67cd 173e 4e2e 07bd
00000130: 6d65 6b3d 29e4 d0bc 51ba a0bd 450e 40be
00000140: 25fa 153d 6526 0abd a4a4 3a3e 304e 6e3a
00000150: 86b0 2bbe 68bd 7f3d 6658 403e e469 4ebe
00000160: a4e1 fdbd 152d 73be b6a9 b2bd bfc1 1b3e
00000170: c50a dc3d 887f 6dbd cca9 5ebe 71a5 de3d
00000180: 78b0 a2bd e1c8 303e 97e0 fdbc 760d e53d
00000190: 4947 5e3d 094d 643d e159 7f3d c357 00be
000001a0: d9ea 2ebc e9cb 1e3e 0303 08be 343e 433c
000001b0: 4a7d b33e ae8f 153e efb1 7b3c a541 00be
000001c0: 57e9 56be e94b 1a3e 1c68 153e 3d69 b83d
000001d0: bac0 cf3b 9d53 d3bd e68e 62bc 2f25 1d3e
000001e0: d939 9bbc a868 0c3e 51fc 8c3d 8be7 303e
000001f0: 1a58 12be 869f 2bbb 112a ff3d faae ca3c
00000200: 0ebb 833c 5043 3e3e d9a8 623d 165b 3e3e
00000210: ed6d d8bc fa0d a7bd cd8a 983c 109f f03d
00000220: f1cc b53c 86d7 17bd 3a42 00be a41b 183e
00000230: b459 823c bd35 01be 3c8e 5ebe 0c7c 703d
00000240: 9886 6a3d 5d9c d7bd e0b5 293e cad0 fd3d
00000250: 038a 44bd 2ff7 f4bd 1c1b a33d b45e 673e
00000260: a3f7 6e3d c403 9a3d 87b7 233d 683b f33d
00000270: 98d0 3cbe 6a5a a23c 6f8f 26bd 862d 52ba
00000280: 6261 b43c 7c0d 513d 4fee 333e f3d9 783b
00000290: eb20 0f3d 55d2 113d 518c cc3d e2d3 03bd
000002a0: 7ad1 91bd 6e2b a1bd e874 9cbd c8e3 193e
000002b0: 5a16 d5bc bf8b b73d dcd1 f33c fa0a 313e
000002c0: 2afb 5ebe 805a bfbc 3416 c1bc b9ff e2bd
000002d0: 3844 663e df16 94be 6a89 0b3e 34ef 2cbb
000002e0: a309 633d a24c 563e 7469 b63b 013d 223e
000002f0: 2490 2ebd c884 c23d 5c10 b73b 77ab 5d3d
00000300: b90d 193e 161a 663e 85b8 2fbe 9464 363c
00000310: 733b 1f3e e7c3 4d3e 9ced e53d c331 493e
00000320: ed22 c33d 0170 4bbe 84ca 7bbe 4741 0ebd
00000330: b201 063e 5405 d8bd 921a 963e 0596 9fbd
00000340: bb19 cdbc 72e1 12bd 10b0 6d3d f9c2 7a3d
00000350: 3fd9 d93b f4ec 7abe 783a 68be 7f46 823d
00000360: 7ee4 8dbe 05d5 00bd 9d58 52be 31f7 4bbc
00000370: efc0 e3bd 2a3c b4bd 2090 8a3e 8465 333e
00000380: e1cd 4ebe 1c57 17be cc8f 3dbe cbd0 113d
00000390: 8756 04be c2e0 103d 5f2a 0ebe 8ee0 8d3e
000003a0: e5f9 3e3e f492 313e cc4b 06be 6ff5 0c3e
000003b0: 4232 5d3c 86ef 8f3d d608 c03b c8ab 14be
000003c0: 92fa 1e3e b3df 0ebe 3468 90be 2e92 2c3e
000003d0: 1e57 b13d f4c6 bc3c c036 323e 7655 fc3d
000003e0: a124 f6bd 423f 32be 4816 05be 5c8b b13c
000003f0: 6a8d 96be 9874 3cbe c503 323e 6e86 58bd
0.06092105 -0.068159245 -0.02078847 0.039803363 0.12640315 0.16610804 -0.027843345 0.094391696
0.02951534 0.038426176 0.26323426 0.18876043 0.0949512 0.21296844 0.26826227 -0.0075338064
-0.28537422 0.057727624 0.07861304 -0.15852277 0.04386475 0.124800324 0.014567719 -0.07638587
-0.18854727 -0.13833351 0.1748649 0.1372794 -0.12768835 -0.18711182 -0.060625285 0.09013993
0.11540333 0.077801965 -0.35006517 -0.16788572 -0.0074184835 0.15910612 -0.07608505 0.17127606
0.12516347 -0.13469075 -0.043457948 0.17804395 -0.03671495 -0.12823536 -0.40586066 0.10359766
0.2218089 0.005794909 0.052611 0.09466518 0.1149676 0.18141413 0.17598154 -0.20278946
0.04895495 0.093779445 0.055061445 0.064441994 0.20839064 0.19704224 0.13469858 -0.114926636
-0.08479851 0.14200458 -0.039603733 -0.16252844 0.024838027 0.07005222 0.042299006 -0.18804798
-0.04983364 0.092695385 0.14824449 -0.033003144 0.057469774 -0.02549942 -0.07848037 -0.18755443
0.03661551 -0.033728022 0.18226868 0.00090906303 -0.16766557 0.06243649 0.18783721 -0.20157582
-0.12396553 -0.23747666 -0.08723776 0.15210627 0.107442416 -0.05798295 -0.2174446 0.10871399
-0.07943815 0.17264129 -0.030990882 0.11184208 0.0542672 0.05573753 0.062341575 -0.12533478
-0.010676109 0.15507473 -0.13282399 0.011916686 0.35056525 0.1460559 0.015362247 -0.12525041
-0.2098745 0.1506802 0.14590496 0.090044476 0.0063401135 -0.10318682 -0.013828015 0.15346216
-0.018948482 0.13711798 0.06884063 0.17275827 -0.1429142 -0.0026187613 0.124591954 0.024741638
0.016080406 0.18580365 0.055336807 0.18589434 -0.026419604 -0.08156963 0.018620873 0.11749089
0.02219245 -0.037070774 -0.12525263 0.14854294 0.015911914 -0.12618156 -0.21733946 0.05871205
0.057257265 -0.10527871 0.16573286 0.12393339 -0.04798318 -0.11961209 0.07964155 0.2259472
0.058341634 0.075202495 0.039969947 0.11876565 -0.18438947 0.019818503 -0.040664133 -0.0008017648
0.022019092 0.05103825 0.17571376 0.0037971705 0.034943502 0.03560098 0.09987701 -0.03218449
-0.071200326 -0.07869612 -0.076394856 0.15028298 -0.026011635 0.08962201 0.029763155 0.17289343
-0.21775499 -0.023358583 -0.023570158 -0.110839315 0.22486961 -0.289237 0.13626638 -0.0026387693
0.055429112 0.2092767 0.00556677 0.15843584 -0.042617932 0.09497982 0.005586667 0.0541186
0.14946641 0.22470888 -0.17160232 0.011132378 0.15550022 0.20094262 0.11226961 0.19647889
0.09528146 -0.19866945 -0.24588972 -0.034730222 0.13086584 -0.10547891 0.29317147 -0.07792286
-0.025036683 -0.035859533 0.058029234 0.061221097 0.006648212 -0.24504453 -0.22678554 0.06361102
-0.27713388 -0.03145315 -0.20541616 -0.012449072 -0.111207835 -0.08800538 0.27063084 0.17519194
-0.20195724 -0.14779323 -0.18511885 0.03559951 -0.12923633 0.035370596 -0.13883351 0.27710384
0.18650015 0.17341214 -0.13114852 0.137655 0.013500752 0.07028107 0.0058604283 -0.14518654
0.15525272 -0.13952522 -0.282045 0.16852638 0.086591944 0.023044087 0.17403698 0.12320988
-0.12018705 -0.17406943 -0.12996781 0.021672897 -0.29404765 -0.18403852 0.1738425 -0.052862577

mid_part.6.bias f4 [12]
00000000: 8724 9b3c ae66 fe3b 189b b13c 45e8 aa3b
00000010: 0801 823c a089 073d 547c 283d 72ef 0a3d
00000020: 01bf 9cbb 3c4d 003b 8004 063d 0c32 48bd
0.018938316 0.007763705 0.0216804 0.005215677 0.015869632 0.033090234 0.041134194 0.03391976
-0.0047835116 0.0019577285 0.032719135 -0.048875853

mid_part.7.weight f4 [12]
00000000: eb2e a03e 4631 323f fa64 963e 0b74 8e3e
00000010: 7e18 60bd 1dba 813f 3c8b e33e 477c 313e
00000020: 4c73 883e 9bbd 543e 3a92 9dbe f104 673e
0.31285796 0.69606435 0.29373914 0.2782291 -0.054710858 1.0134922 0.44442165 0.17332564
0.26650465 0.20775454 -0.30775625 0.22560479

mid_part.8.weight f4 [12, 12, 3, 3]
00000000: fc60 d53d f61c e7bd 1e5f 45be 4b6f a5bd
00000010: 3ab2 703e f6eb 083e a917 9abe cd8b 103e
00000020: d1c5 89bd 0cd7 41bd 24af 0b3d 73cf 893d
00000030: 26c8 b53d 7dbc 9e3e b64c 1b3d fad4 483e
00000040: 64e9 633d 1630 65bd cbc6 ac3d 742d 1bbd
00000050: f62a 03bc 38f9 65be 11ed 0bbd 888c aebc
00000060: 59b7 603d 9aa7 38be 872f b9bb f40e 72bd
00000070: 66f3 a6bd bb0c f33c f175 2cbe 22b8 7fbd
00000080: c32f dc3d 549b 0a3c 4f5a dbbd 834c 46be
00000090: 3c63 b6bc dbce 74bc 7776 973c 0b68 d63d
000000a0: e7ad 81bc 6960 693e 8a36 b8bd 3767 693d
000000b0: 4b50 b2bc 416b 8b3d 8056 163e d616 373d
000000c0: 7348 2ebe ac89 833d 2d76 ff3c 7596 ad3e
000000d0: a32f 2fbe 51bc bf3d 2203 eb3d 1232 b1be
000000e0: 9995 163d 1b0c 343d 79e4 06bd 1da8 4dbd
000000f0: e39e e6bd 0787 edbd 35f9 2a3d d64b 80bc
00000100: 2a3a 9d3e 8d1f 383c ab13 483d 4ffd 503e
00000110: 8a75 bcbd 40f2 34be 5f06 16bc e247 5cbe
00000120: 871b 81be 8eaf 163d c88b 723d d891 2a3c
00000130: 022b 3b3e f14d 16be 269c 74bd 41af 04be
00000140: fbc1 05be 1964 a03d 30d3 81bd 7e90 0ebe
00000150: 7e00 11be 3551 5bbd 878a d5bc fef3 683e
00000160: 83b1 21bd d118 d2ba 3935 6d3c 9cb0 1f3e
00000170: e63d 983c e6ad 88bd 8a29 18bd ba7b 343d
00000180: 2c50 a63d 8e64 ac3d 6c46 46bd 7100 463e
00000190: 3138 d63e 29b0 46be 00d5 e33e 5c0c b0bb
000001a0: 8159 5b3e 836f 44be a0fd 0b3e 1564 723e
000001b0: c735 e33d cdfa b9bd 5da2 1abe 95dc 623e
000001c0: d91c 1c3e 4bff 573c 3fd4 873d ea16 86be
000001d0: 17de 6cbe fcc6 5a3d 5c6d 18be 45f8 673c
000001e0: 1531 fb3d d3cb 553e 2fda 77be b1d9 26be
000001f0: dcc8 b53b 366d d5bd 6bb9 653d 2dd9 b2bc
00000200: 9a8c ba3d 92d3 4d3d 6a38 8abe 9592 7e3e
00000210: 6d50 ecbd 1710 953d 3b80 a13c 3fab 44bd
00000220: f40a b63e 32c5 403d a7dc 093e feef a0bb
00000230: e8da 993d 67b8 39be 40ee 883d 78dc df3d
00000240: a511 1f3e 9e8d b63b 9605 d0bd c7af 2d3d
00000250: 305c 463e 3bcf 97be 0333 223e 4e63 a8be
00000260: 7090 843d 0f95 143e 215e 1a3e 36ed b8bc
00000270: 07b1 9d3d 8999 623e 2bcc 843d f02d 5cbe
00000280: 8d51 40bd fb26 92bc 9cae 06bd 13f1 0fbc
00000290: 3981 293e 161d f63d 5653 983c 188c 6a3d
000002a0: a4c8 8dbc cbdf 43bd 03b1 993d e01f 283e
000002b0: c483 593e bc58 053e aa94 ec3d 6567 b5be
000002c0: 3f5b 673d 9073 153d 10cb 5ebd 89af 8c3d
000002d0: 052c b53d 71f5 f5bb 36f4 1f3a 227a 763d
000002e0: 03d4 04be 6664 303d 3ccb 913e eb92 b3bd
000002f0: 276d d63d 017b 923e b887 803c 0057 423c
00000300: 6b1e 773e 86b2 293d 9f96 6e3e f33c 443e
00000310: ec78 a5bb 8dec 6f3d fbf4 f33b e31c 18bd
00000320: 237c a03d 3fee 11bc 49e5 2fbe b2ed 07be
00000330: 44c7 c3bd 874f 9e3d 5e14 3b3e f4dd 343e
00000340: 8034 50be efe6 e83d 56ee 1d3e d80b 7c3d
00000350: 7cf3 af3d b863 3bbc a5e0 503b 6a39 513e
00000360: 9575 4fbd c592 2f3e 5322 d63d b243 0cbc
00000370: 7761 9b3d f3ad e9bd a9ae 5f3d 052c ea3d
00000380: cae2 113e 80b4 8a3d 70c3 703d 10aa 433e
00000390: a277 b23c 7dfa 3b3e e044 01be 853b c63d
000003a0: cfb9 a63d f311 03be eb2a 1dbc a97a 0dbd
000003b0: 023c 28be 6d10 59bd 70d4 37be d05b bf3c
000003c0: 5aa8 4abd 39c5 21bd fdff ddbc 9260 58be
000003d0: d1db a0bd 4b7c 8bbd f692 6c3e 1302 a63d
000003e0: 8c2f 4dbe 78b5 3b3d 4675 5bbd 1be8 dc3b
000003f0: f2c7 8f3d e726 323d 5887 88be b2dc 363e
0.10418889 -0.11284821 -0.19274566 -0.08077868 0.23505488 0.13371262 -0.30096176 0.1411583
-0.067271836 -0.047324225 0.034102574 0.06729021 0.08876066 0.3100318 0.037914954 0.19612494
0.0556425 -0.05595406 0.08436354 -0.037885144 -0.008005848 -0.2245835 -0.03416163 -0.021307245
0.054862354 -0.18032685 -0.0056514177 -0.05909629 -0.08151893 0.029669156 -0.16841866 -0.062431462
0.10751297 0.008459885 -0.10710584 -0.19365124 -0.022264116 -0.014941896 0.018489106 0.10469063
-0.015829993 0.22790684 -0.089947775 0.0569832 -0.021766802 0.068075664 0.14681435 0.044699512
-0.17019825 0.06422743 0.03118428 0.33903852 -0.17108016 0.093620904 0.11475207 -0.34608513
0.03676376 0.043956857 -0.032932732 -0.050209153 -0.11260774 -0.1159802 0.04174157 -0.015661161
0.30708438 0.011237991 0.04884688 0.2040913 -0.09202106 -0.17670536 -0.009156792 -0.21511796
-0.25216314 0.036788516 0.059215337 0.010410748 0.18278125 -0.1467817 -0.059719227 -0.12957479
-0.13062279 0.07831592 -0.06339109 -0.13922307 -0.14160344 -0.053544242 -0.026067032 0.22749326
-0.03947593 -0.0016029124 0.014478021 0.15594715 0.018584203 -0.066737935 -0.03714899 0.044063307
0.0812076 0.08417617 -0.048407003 0.19336106 0.41839746 -0.19403137 0.44498444 -0.005372567
0.21420862 -0.19183163 0.13670969 0.23670991 0.110942416 -0.090810396 -0.15100999 0.22154458
0.1524538 0.013183425 0.066322796 -0.26189357 -0.23131596 0.053412423 -0.14885467 0.014158313
0.12265221 0.20878534 -0.24204324 -0.1629398 0.005547626 -0.10421221 0.05608503 -0.021832073
0.09108849 0.050250597 -0.26996166 0.24860604 -0.115387775 0.072784595 0.019714465 -0.048014876
0.35555232 0.04706306 0.13463078 -0.004911422 0.07512456 -0.1813675 0.066860676 0.10930723
0.15534075 0.0055710813 -0.101573154 0.042403962 0.19371104 -0.29650292 0.15839772 -0.32888263
0.06472862 0.14509986 0.1507497 -0.022574048 0.07699781 0.22128882 0.064842544 -0.21501899
-0.046952773 -0.017840853 -0.032881364 -0.008785504 0.16553201 0.120172665 0.018594425 0.05726251
-0.017307587 -0.047820847 0.075044654 0.1641841 0.21241671 0.1302213 0.11551793 -0.35430446
0.056483503 0.036487162 -0.054392874 0.06869418 0.08846287 -0.0075060655 0.0006101759 0.06017507
-0.12971501 0.043064497 0.28475368 -0.08768257 0.10470038 0.2860947 0.015689716 0.011861563
0.24132697 0.04143002 0.23299645 0.19163875 -0.0050498154 0.0585752 0.0074449754 -0.037136924
0.07836177 -0.0089069 -0.17177309 -0.13274267 -0.09559491 0.077300124 0.18269488 0.17662793
-0.20332527 0.11372172 0.15422949 0.061534733 0.08591363 -0.011437349 0.003187218 0.20432058
-0.050649244 0.17145832 0.104557656 -0.008561062 0.07586949 -0.11410131 0.05460993 0.11434177
0.1424667 0.06772709 0.058780134 0.19107842 0.021785561 0.18357272 -0.1262393 0.09679321
0.08140909 -0.12799816 -0.009592752 -0.034540806 -0.16429141 -0.05299418 -0.17952132 0.02335921
-0.04947696 -0.039494727 -0.027099604 -0.21130589 -0.07854427 -0.068108164 0.23102936 0.081058644
-0.20037669 0.04582736 -0.053578638 0.0067415363 0.070205584 0.04349413 -0.2666576 0.17857626

mid_part.8.bias f4 [12]
00000000: a19b 45bb 73f3 553c 4eba acba 4b14 9abc
00000010: 8a4c c83b 891e 523b bc12 143b 870c 813c
00000020: af52 6abc 99d2 623d 6420 933c 9771 5e3c
-0.0030152577 0.013058531 -0.0013178082 -0.018808505 0.00611264 0.0032061657 0.0022594174 0.015753044
-0.01430194 0.055376623 0.017959781 0.013576887

mid_part.9.weight f4 [12]
00000000: a99d 6abf ab90 adbc 3c9a 9b3e bcc9 863e
00000010: 340a 103f 92f4 9d3f 4ebb a53c 6c05 1d3f
00000020: 7fab 883e ac23 803e 8d08 b63d f2d7 a43f
-0.9164682 -0.021187147 0.3039111 0.26325786 0.5626557 1.2340262 0.020230915 0.613364
0.2669334 0.25027215 0.0888835 1.2878401

mid_part.10.weight f4 [56, 12, 1, 1]
00000000: 9d7d 9cbd 1b44 393e 2c0e 54bd 37e8 c3be
00000010: ec9a b3bd c266 803e 0c44 d03d a0de 983e
00000020: 6fbf 2bbe 5056 a9bd 09ba bb3e 2fae 03be
00000030: 72a7 8e3d f14e 2f3e 9897 9d3d 02ad 3bbd
00000040: 4c6a 6fbe d87a 9f3e a1c4 75bd 5913 aa3e
00000050: b627 153c 1071 cb3d e7b5 513e 6a5d d33d
00000060: 3bb6 53bd e2c8 013e ca80 073c 39bc 66be
00000070: 0ba0 adbe 2c20 a4be d9da b03e e401 0b3d
00000080: 66cd 5d3d 9896 2bbe 8a26 3abe 5df0 31ba
00000090: eecb 823d 711b 57be c422 25bd 7711 08be
000000a0: b663 34be a9ac afbe 3200 a83e 4959 123f
000000b0: b3aa 9abe d5e5 0abd 32b9 ed3d 0d4c 2c3e
000000c0: ac8f 43be 1ff4 233e 46e2 ae3e 8659 f33d
000000d0: 7e4a 6fbd 59bb 383e caf8 87bd 1b8f 6f3e
000000e0: 295f 643e e38c b0bd b39a 113e 5e23 6fbe
000000f0: 397b 2bbe 1792 e4bd 90b2 103e 3781 993e
00000100: 1c6b 32be aa3e 033c ec43 68be 7db9 3cbe
00000110: 02bd 263e caa0 a9be 0254 7e3d 4dca 093e
00000120: e009 643e b5fa aa3d 18d7 abbe b50c 1bbe
00000130: 288d ad3e 689f 5bbe 7b05 18bd c474 afbd
00000140: 9f78 9c3e 0a26 63be 36e1 2e3d 3013 3dbe
00000150: 8e3b 3d3e 34d0 4e3c 4663 1c3e 718a bb3e
00000160: a0b8 5f3d 552a 03be 6409 9abe 1108 79be
00000170: 668d 543d caec c53e e4ea 253f 3ab2 293e
00000180: 4bda a8bd c7b5 113e b611 89bd 3937 36bd
00000190: 4a04 5d3e ac25 5ebe b9f6 1ebd 30a8 833d
000001a0: 8448 a1bc 5450 6ebe 3a00 ea3d fbfa c33d
000001b0: acdc dabe 89d5 073e 66c6 093e 2b42 13be
000001c0: 59b3 cb3d 1e1a 5dbe 989a 5d3c d93d 9f3d
000001d0: c902 31be f39e 17be 771c 98bd 77c9 153e
000001e0: 305b 5bbd ca78 22be 07e2 80bd 0d5d 6ebe
000001f0: d86d e43d 84bb 943c 1aec 9dbd 18ca a9be
00000200: fccb 1ebe f3c4 2c3e bb66 1d3e 53a6 15be
00000210: 6599 733d 76f3 1b3e 8c8d ab3d 23b9 a2be
00000220: b9ba 2f3d 2209 223e 22a0 0f3e 219b 703d
00000230: 4bdb acbe 6d29 cfbc b30d 23be f7df 89bd
00000240: 6405 873d dc79 533e 2eb1 90bb 9911 4bbd
00000250: 3c0a 7c3d 5c4a 723d 39eb 84bd 86f9 babc
00000260: fcd3 6d3e b3d7 ad3e 23ad c1be f324 44be
00000270: 83e0 aabe 63e2 883c 541f 4dbe 002d a7bd
00000280: 40ee 143d 21bc 26be 5dec 183c 584c 973e
00000290: df90 5b3e d97f 093f 82a8 2d3f 80bf 89be
000002a0: 15cd 23be 3234 65bc 74d3 91bd c5a8 283d
000002b0: b6c6 913e bf78 8a3d c713 73bc 0f4d bbbc
000002c0: d834 273e 6161 b8bb 5a3b 1dbe c38c 0a3e
000002d0: f15f 26be 2097 123e e026 bebe 5ee8 a4bd
000002e0: 13c6 863e 627f d03e 8237 953b 9ae7 9abe
000002f0: 80ba 803c fb0b ab3e beff bdbe 8403 403e
00000300: d18b 6a3e 0f26 5d3e bf7a b9bc adc7 1bbe
00000310: 88ad 063e caac cbbe 4c7a 633c 401a e63d
00000320: 101b 853d b39c 953e 9ef6 613e 9f28 c2bd
00000330: 4efa 3d3d a348 073e 5e0b 8e3d 3d35 0fbe
00000340: 1358 773c a1ec 463d 2b88 303e 08d1 843d
00000350: de87 0a3e b78f 2dbe bca5 e13d 18af 05be
00000360: 780e 10be d85b 1abd c11d b2bd 55e0 6abd
00000370: 99f5 9bbd 9b45 763e e736 c93d 61e4 093e
00000380: e258 90be eec9 94bb 3dc6 17be 3e72 d7bd
00000390: d07f 303d dac5 f139 603b 0dbd 12bf 49be
000003a0: 8174 66bd 7cdf 69be cb5b e63d e380 d1be
000003b0: 0777 393e bc2f ccbe 81c1 e93d 202e 62be
000003c0: 5cb8 1abd f42a ffbd 1d3e 70be 1330 81be
000003d0: ea43 5ebd be81 f5bd 0b6a 3c3d b077 383e
000003e0: 8e74 513d 48ef 6c3a b8b5 06bf 6d76 9bbe
000003f0: 8de6 043d e735 89bd a0c8 f23c 3d0f 26be
-0.07641146 0.18092386 -0.051771328 -0.38263103 -0.087697834 0.25078398 0.10169229 0.2985735
-0.16772245 -0.08268416 0.3666537 -0.12859415 0.069655314 0.17119958 0.0769493 -0.04581929
-0.23380393 0.3114841 -0.060001973 0.33217886 0.009103706 0.09933674 0.20479546 0.10320552
-0.05168746 0.12674287 0.008270452 -0.22532739 -0.33911166 -0.32055795 0.34541968 0.03393735
0.05415096 -0.16756666 -0.18178764 -0.0006787831 0.06386553 -0.21006562 -0.04031636 -0.13287912
-0.17616162 -0.34311417 0.3281265 0.5716749 -0.30208358 -0.03391059 0.11607589 0.16825886
-0.19097775 0.16011094 0.34157008 0.118823096 -0.05842065 0.18040217 -0.066392496 0.23394434
0.22301926 -0.08620622 0.1421917 -0.23353335 -0.16746224 -0.11160677 0.14130616 0.29981396
-0.17423671 0.008010546 -0.2268216 -0.18430133 0.16283038 -0.33130485 0.062091835 0.13456078
0.22269392 0.083486 -0.3356254 -0.15141566 0.33896756 -0.21447527 -0.0371146 -0.08567193
0.30560777 -0.2218248 0.042695247 -0.1846435 0.1847975 0.012622882 0.15272245 0.3662906
0.05461943 -0.12809117 -0.3008529 -0.24319483 0.05189266 0.38657218 0.6481154 0.16571894
-0.08244761 0.14229499 -0.06692831 -0.04448626 0.21583667 -0.21694058 -0.03880951 0.064285636
-0.019687898 -0.2327283 0.114258245 0.09569355 -0.42746484 0.13265051 0.13454589 -0.1438071
0.09946317 -0.21591994 0.013525628 0.077754684 -0.17286219 -0.14806728 -0.07427304 0.14627634
-0.05355376 -0.1586639 -0.06293111 -0.23277684 0.111537635 0.01815582 -0.077110484 -0.33161998
-0.15507501 0.16872005 0.1537122 -0.14614229 0.05947246 0.15229592 0.08376607 -0.31781873
0.042902682 0.15823796 0.1402593 0.058741692 -0.33761057 -0.025288308 -0.15923195 -0.06732171
0.06592825 0.20651954 -0.0044156527 -0.04957733 0.061533198 0.059152946 -0.06490178 -0.02282406
0.23225397 0.33953628 -0.37827405 -0.1915472 -0.33374414 0.016709512 -0.20031482 -0.0816288
0.036360025 -0.16282703 0.009333697 0.29550433 0.21441983 0.53710705 0.6783525 -0.26903915
-0.15996201 -0.013989495 -0.071204096 0.041176576 0.28471917 0.06761312 -0.014836258 -0.022863893
0.16328752 -0.005626843 -0.15354672 0.13530259 -0.16247536 0.14315462 -0.37139034 -0.08052133
0.26322994 0.40722185 0.004553736 -0.30254823 0.01571393 0.33407578 -0.37109178 0.18751341
0.22904898 0.2159655 -0.022641538 -0.15212889 0.13152134 -0.39780265 0.013884138 0.112354755
0.064993024 0.29221115 0.22066733 -0.09480404 0.046381287 0.13211302 0.06935762 -0.13985153
0.015096682 0.04856551 0.17239444 0.06485182 0.13528392 -0.16949354 0.110179394 -0.13055074
-0.1406802 -0.037685245 -0.08697081 -0.057342846 -0.076152034 0.2404999 0.09824925 0.13466026
-0.28192812 -0.0045406735 -0.14821716 -0.10519837 0.04309064 0.00046114513 -0.034480453 -0.19701794
-0.05626345 -0.22839159 0.11247977 -0.40918645 0.18111812 -0.39880168 0.11413861 -0.22087908
-0.037773475 -0.124593645 -0.23461194 -0.2523199 -0.054263987 -0.11987637 0.045999568 0.18014407
0.051136546 0.0009038341 -0.5262103 -0.3036379 0.032446433 -0.06699734 0.029636681 -0.1621675
