models/fsrcnn/track1/track1_x2__epoch_0.pth (torch, 58227 bytes, 22 tensors)

first_part.0.weight f4 [56, 1, 5, 5]
-0.0365795 0.040064245 0.019831002 0.011784999 -0.005666068 -0.042723376 0.005206751 -0.051185273
-0.044120733 -0.0032508061 0.024279015 -0.024876537 0.019982118 -0.0020851772 0.012360797 0.032989897
-0.053991206 -0.047532395 0.049138818 -0.006983304 -0.021697318 0.00039722782 0.050032906 -0.0032851738
-0.046099838 -0.036060397 -0.03991915 -0.050064523 0.0017035556 0.040030874 -0.04510249 0.044982545
-0.031622514 -0.02382285 0.0020267742 -0.017053422 0.007101882 0.012478557 0.011607825 -0.060767718
-0.00637987 0.040866293 0.009835474 -0.0009209994 -0.013468182 0.0421807 -0.0035300576 -0.08084764
0.047548924 0.005522172 -0.018521016 -0.056942407 -0.014755176 -0.022236468 0.015724875 0.007871828
0.0017299089 -0.013973917 -0.026772218 -0.06839452 -0.03262201 -0.069158845 -0.04009367 -0.017723007
-0.05621958 0.04607256 -0.053278342 -0.046741292 -0.025490444 -0.019687926 -0.047728665 0.051442504
0.051702894 -0.03470651 -0.021724438 0.038189277 0.0017050239 0.055689134 0.0229028 -0.023764703
-0.033841603 -0.0057975478 0.026641611 -0.04880275 0.0024023138 0.024820207 0.086469494 -0.030450152
-0.055763822 0.037699033 0.03156329 -0.038612656 -0.036581688 -0.0057870923 0.0011932731 0.04096537
-0.06934808 -0.0127960285 -0.042024888 -0.091755524 0.009630813 -0.043234114 -0.036432512 -0.08920094
-0.018904261 -0.006407973 0.06984048 0.0010720323 0.037865188 -0.0064169737 0.01834175 -0.067354485
-0.011173636 0.0006936085 0.019967709 -0.0031854692 -0.076595 -0.03745375 -0.025449118 0.045229703
-0.044428166 -0.012748185 0.06596863 -0.06387665 0.02137652 -0.07477647 -0.0497589 0.05195463
0.026399437 0.014149755 0.026261533 -0.042062026 -0.0066238316 -0.047624983 0.00032339335 -0.04286558
-0.010022534 0.03225359 0.045634568 -0.031854928 0.05440529 -0.050455675 0.037467606 -0.0022876365
-0.00555851 0.050042048 0.00018002102 -0.002536696 -0.005867161 -0.023207502 -0.08743865 0.012544154
0.0081078345 0.06146408 -0.02363979 -0.0009773915 0.018546386 0.027987823 -0.047198623 -0.051199548
-0.0065046027 -0.046942577 0.0014943738 -0.020146517 0.037473854 -0.08251779 0.021084178 -0.015317147
0.014332402 -0.021947837 -0.057047494 0.018196423 0.0047473577 0.0014500442 -0.073811494 0.07521535
-0.00429884 -0.0124589 -0.11055587 0.051803477 -0.021195067 -0.11793916 0.012383864 -0.013570653
0.010384073 0.048891556 -0.03897835 0.14369363 0.013085703 -0.019369964 0.021296723 -0.09017528
0.06878803 -0.057080206 0.028046452 0.12909397 -0.012771754 0.015003177 0.0022407502 0.07460207
0.033030197 0.059120066 -0.008788449 0.005880286 0.031504836 0.023248134 0.023140104 0.0046364404
0.017051622 -0.005117243 0.013077467 -0.016561229 0.032961 0.011930628 -0.020963907 -0.013579238
0.021742558 0.035941858 -0.015676973 -0.045153823 0.030374065 0.023560682 0.084304065 -0.042655904
0.009664305 0.08090566 -0.045342516 -0.055414595 0.050235964 -0.059599627 -0.015634242 -0.004697861
0.0231964 -0.04732989 0.013195569 0.006465052 -0.015522013 0.063165784 0.038470745 0.037938315
0.04718681 -0.008692658 0.008045559 -0.04563612 0.042731244 0.03553469 0.039292667 0.016710099
0.05687775 0.04295999 -0.026561739 0.044730917 -0.04638687 0.0062756035 -0.040971972 0.0021809405
00000000: 63d4 15bd 681a 243d a074 a23c de15 413c
00000010: 6caa b9bb b5fe 2ebd 659d aa3b a6a7 51bd
00000020: f1b7 34bd 7a0b 55bb c9e4 c63c e1c9 cbbc
00000030: 8ab1 a33c 78a7 08bb f184 4a3c 6a20 073d
00000040: e225 5dbd 54b1 42bd c945 493d 33d4 e4bb
00000050: 93be b1bc 0443 d039 4eef 4c3d 124c 57bb
00000060: 2fd3 3cbd 11b4 13bd 4382 23bd 7510 4dbd
00000070: d749 df3a 6af7 233d 63bd 38bd 9e3f 383d
00000080: 9c86 01bd 2328 c3bc a1d3 043b 9eb3 8bbc
00000090: e7b6 e83b dd72 4c3c bf2e 3e3c 92e7 78bd
000000a0: 3b0e d1bb 6a63 273d f824 213c 396f 71ba
000000b0: a6a9 5cbc abc5 2c3d 8a58 67bb 7393 a5bd
000000c0: a9c2 423d 56f3 b43b 63b9 97bc 713c 69bd
000000d0: b2bf 71bc 4129 b6bc 74d1 803c d7f8 003c
000000e0: 1cbe e23a dbf2 64bc 6951 dbbc 6d12 8cbd
000000f0: a89e 05bd 27a3 8dbd 4339 24bd d72f 91bc
00000100: 8146 66bd 95b6 3c3d 643a 5abd cc73 3fbd
00000110: 56d1 d0bc 9348 a1bc 227f 43bd 60b5 523d
00000120: 6ac6 533d 6a28 0ebd 73f7 b1bc 5c6c 1c3d
00000130: 1c7b df3a 4a1a 643d a79e bb3c 32ae c2bc
00000140: 7e9d 0abd 5bf9 bdbb 823f da3c 64e5 47bd
00000150: 2370 1d3b bf53 cb3c eb16 b13d 9972 f9bc
00000160: 9b68 64bd 4d6a 1a3d 8248 013d 4e28 1ebd
00000170: aed6 15bd a6a1 bdbb 9a67 9c3a 4ecb 273d
00000180: 5e06 8ebd 6fa6 51bc 4a22 2cbd 52ea bbbd
00000190: 8fca 1d3c 4116 31bd 423a 15bd fcae b6bd
000001a0: 1cdd 9abc f9f9 d1bb 8708 8f3d 6f83 8c3a
000001b0: 8718 1b3d 7a45 d2bb 7041 963c 26f1 89bd
000001c0: a011 37bc 47d3 353a 5293 a33c 4ec3 50bb
000001d0: d7dd 9cbd 1a69 19bd ab7a d0bc c842 393d
000001e0: 4ffa 35bd c3dd 50bc 901a 873d c3d1 82bd
000001f0: d01d af3c 6824 99bd fdcf 4bbd 61ce 543d
00000200: a243 d83c 60d4 673c 6d22 d73c 3b49 2cbd
00000210: ba0c d9bb 6a12 43bd 1f8d a939 d293 2fbd
00000220: 8e35 24bc 571c 043d 50eb 3a3d 507a 02bd
00000230: 15d8 5e3d 9caa 4ebd a277 193d 2cec 15bb
00000240: 2924 b6bb e4f8 4c3d 06c4 3c39 b23e 26bb
00000250: 5041 c0bb a91d bebc 0913 b3bd ff85 4d3c
00000260: b9d6 043c c2c1 7b3d 3ca8 c1bc d11b 80ba
00000270: 97ee 973c b846 e53c 5853 41bd 9eb6 51bd
00000280: 9024 d5bb dc46 40bd ddde c33a 4f0a a5bc
00000290: 2f7e 193d 16ff a8bd bab8 ac3c c5f4 7abc
000002a0: 73d2 6a3c f3cb b3bc a2aa 69bd aa10 953c
000002b0: b98f 9b3b 690f be3a 7b2a 97bd 810a 9a3d
000002c0: 49dd 8cbb 6a20 4cbc 1e6b e2bd e22f 543d
000002d0: 47a1 adbc 168a f1bd b1e5 4a3c 7257 5ebc
000002e0: f521 2a3c 8342 483d c3a7 1fbd 6c24 133e
000002f0: 6b65 563c c2ad 9ebc 7776 ae3c d1ad b8bd
00000300: bde0 8c3d efcc 69bd acc1 e53c 3631 043e
00000310: 9e40 51bc e3cf 753c 8dd9 123b f8c8 983d
00000320: ac4a 073d e227 723d 6dfd 0fbc 6aaf c03b
00000330: 370b 013d df72 be3c 5190 bd3c 48ed 973b
00000340: d8af 8b3c 8cae a7bb df42 563c 6aab 87bc
00000350: 1d02 073d ae78 433c 80bc abbc 747b 5ebc
00000360: 731d b23c c537 133d ff6c 80bc 37f3 38bd
00000370: 08d3 f83c 5502 c13c 9ca7 ac3d f5b7 2ebd
00000380: 0857 1e3c deb1 a53d 13b9 39bd 6afa 62bd
00000390: 3ac4 4d3d bd1e 74bd 6213 80bc 84f0 99bb
000003a0: 6006 be3c fddc 41bd 3a32 583c c9d8 d33b
000003b0: 0b50 7ebc 105d 813d 8093 1d3d 3565 1b3d
000003c0: f546 413d a66b 0ebc 85d1 033c f1ec 3abd
000003d0: f506 2f3d d38c 113d 59f1 203d 9ee3 883c
000003e0: a5f8 683d d1f6 2f3d 0198 d9bc c437 373d
000003f0: 2900 3ebd 94a3 cd3b 3ad2 27bd 1cee 0e3b

first_part.0.bias f4 [56]
-0.0073965844 -0.004388006 0.0022422206 0.004169348 0.004842396 -0.004378219 0.0016073331 -0.0108535485
-0.003948567 -0.0041092937 -0.0030676879 -0.0032735604 0.0051680636 0.0062205237 0.014525107 -0.0088029
0.028075248 -0.0074757957 0.0068756705 -0.0027099964 0.0048931343 -0.007407105 0.0015209276 0.0009716431
-0.0051832157 -0.0030846915 -0.0016790631 0.0028471285 -0.001591449 -0.0061573237 -0.0030705647 0.0039775656
-0.004845935 -0.0034630203 -0.00428461 0.00047774753 -0.0076716887 -0.0035450305 0.008000744 0.0068477346
-0.023676103 -0.001805998 0.0024748868 -0.010587672 -0.006475793 0.0006569434 -0.005800674 -0.0031650264
0.0143020395 -0.0074705435 -0.0075377654 -0.003854338 -0.004835162 -0.0007175954 -0.003031038 0.015323433
00000000: 0c5f f2bb 43c9 8fbb 38f2 123b 079f 883b
00000010: f6ac 9e3b 2a77 8fbb 26ad d23a 15d3 31bc
00000020: fb62 81bb 41a7 86bb 430b 49bb 3b89 56bb
00000030: dc58 a93b 89d5 cb3b b7fa 6d3c 0a3a 10bc
00000040: 10fe e53c 85f7 f4bb 4e4d e13b 329a 31bb
00000050: 9656 a03b 4db7 f2bb dd59 c73a ddb5 7e3a
00000060: f7d7 a9bb 8928 4abb 0214 dcba e496 3a3b
00000070: 2b98 d0ba 60c3 c9bb 873b 49bb 3d56 823b
00000080: a6ca 9ebb d7f3 62bb ea65 8cbb 307a fa39
00000090: ca62 fbbb be53 68bb 8d15 033c f662 e03b
000000a0: 63f4 c1bc 3db7 ecba b631 223b ea77 2dbc
000000b0: e432 d4bb ba36 2c3a 9513 bebb 556c 4fbb
000000c0: 1a53 6a3c 76cb f4bb 5cff f6bb 1099 7cbb
000000d0: 4770 9ebb 031d 3cba 61a4 46bb 230f 7b3c

first_part.1.weight f4 [56]
0.23472238 0.24275707 0.253893 0.25178888 0.24657544 0.2429188 0.24731849 0.04069768
0.6229632 0.18422703 0.54024255 0.2606945 0.623588 0.2495277 0.22929353 0.11962332
0.23971991 0.17205478 0.24019007 0.27522513 0.25187412 0.35028267 0.24090916 0.24099803
0.25409743 0.24682704 0.28348723 0.24729276 0.2539794 0.23929654 0.24722496 0.33839086
0.405011 0.26942122 0.24555565 0.25254658 0.17228886 0.7980535 0.37653434 0.24187753
0.29202053 0.24871996 0.2600614 0.2108635 0.31530264 0.33987954 0.28710708 0.27419293
0.26114067 0.24624607 0.2849648 0.25268936 0.23802416 0.23997344 0.25704136 0.2559721
00000000: 105b 703e 4f95 783e 43fe 813e 79ea 803e
00000010: 467e 7c3e b5bf 783e 0f41 7d3e 9cb2 263d
00000020: 847a 1f3f 03a6 3c3e 564d 0a3f c079 853e
00000030: 77a3 1f3f 3084 7f3e eccb 6a3e 12fd f43d
00000040: 2379 753e 212f 303e 63f4 753e 4fea 8c3e
00000050: a5f5 803e 4058 b33e e4b0 763e 30c8 763e
00000060: 0f19 823e 3ac0 7c3e 3d25 913e 503a 7d3e
00000070: 9709 823e 270a 753e 8a28 7d3e 9141 ad3e
00000080: 9a5d cf3e 94f1 893e f172 7b3e c94d 813e
00000090: 7e6c 303e 3c4d 4c3f 1cc9 c03e beae 773e
000000a0: b783 953e 72b0 7e3e c526 853e 9aec 573e
000000b0: 596f a13e b104 ae3e b3ff 923e 0463 8c3e
000000c0: 3bb4 853e ee27 7c3e e8e6 913e 8060 813e
000000d0: 9bbc 733e 99bb 753e ed9a 833e c60e 833e

mid_part.0.weight f4 [12, 56, 1, 1]
0.5165413 0.22672732 -0.76475376 0.24533668 0.3823769 0.25792533 -0.085427515 0.47758767
0.16408812 -1.1769361 0.525919 -0.06637993 -0.5357631 1.0567861 0.47661817 0.39443287
0.09343271 0.07138258 0.6212173 -0.20042643 0.0048856917 0.7129707 -0.35944113 -0.47586274
-0.06195199 -0.07541764 0.4130821 -0.7213146 0.25172517 0.3729719 0.04146433 0.35740983
0.5472435 0.13367108 -0.53467643 -0.67948055 -0.02639078 -0.051901884 -0.28355327 0.31933248
-0.114318475 0.501694 -0.39630872 -0.1441683 -0.12349016 -0.14541212 -0.12406651 -0.6053552
-0.18682018 -0.59311724 -0.09296284 -0.14011379 -0.6852194 0.14587995 -0.30168644 -0.16013701
-0.29229978 -0.9341184 0.47876376 -0.0055796285 -0.042313058 0.8055115 0.71699303 0.4780965
0.03411998 -0.09495768 -0.031115016 -0.4716191 0.18733984 0.15829052 -0.55169356 0.11020365
-0.47866085 0.22790967 0.67909145 -0.112867735 0.8328555 -0.23150668 0.08566217 -0.3964597
-0.36461407 -0.12149303 0.11562257 -0.5590151 0.52100694 0.7624202 -0.19932772 0.40943816
0.14693823 -0.40345636 -0.007249142 -0.13462514 0.29267356 0.2546121 -0.5149774 -0.20202947
0.1202715 0.69056314 -0.282377 0.8072169 0.7480555 0.16234523 0.44779623 0.10246154
0.30828464 -0.012087231 0.85048157 -0.49439773 -3.3112363e-05 -0.15774961 0.64447916 -0.46323127
0.26612514 -0.6101618 -0.26680058 -0.39334753 -0.08053947 0.60956705 -0.11611837 -0.07274117
0.64635396 0.78497803 0.10127064 0.8182557 -0.42518756 -0.14860764 -0.08855022 0.40238324
-0.01689121 -0.15325306 0.50312626 0.36963263 -0.5343712 0.2294985 -0.12952986 -0.3053595
0.4098995 -0.3317772 -0.16350956 -0.25129926 -0.4837749 0.43608811 0.02472734 -0.16426118
0.48438558 0.69680446 0.62750584 0.3780174 0.31878415 0.30869958 -0.45490563 0.120142356
0.043691393 0.13527222 -0.21075359 -0.008440635 0.13592565 0.4173364 0.23664202 0.48087257
-0.0031961347 0.51960844 0.21576592 -0.56607074 0.023996253 0.4458536 -0.3470519 -0.3137176
0.06650346 0.32546175 -0.14559768 0.12246233 0.2397008 -0.05755549 -0.17549081 0.3359089
-0.5654093 -0.35401276 0.5738674 -0.3400362 0.3879936 -0.49731192 0.82984424 -0.081503205
0.17227687 0.24582659 0.10544912 1.047937 -0.4923163 0.6113772 -0.33286342 -0.369584
0.4808887 0.062172957 -0.44723493 0.9379011 0.115218095 0.42259806 -0.05373804 -0.11028926
-0.51821214 0.23749162 -0.20049818 0.47881615 0.14045316 -0.09907092 0.027712248 0.14845373
-0.12530783 1.0414522 0.7800124 0.6688105 -0.95550144 -0.21531236 0.55168265 -0.08766141
0.5293116 0.44913432 -0.24905731 -0.4727628 -0.2639713 0.4265601 -0.21894309 0.4970721
-0.3482181 0.06425796 0.1504172 0.14613114 -0.13868989 -0.32429174 -0.15390353 0.54215646
0.44117308 -0.30780426 -0.18598388 0.03157543 -1.2692554 0.83036906 0.7363369 -0.13645095
0.22292188 -0.10848684 0.030643832 -0.32413384 0.27055106 0.23544762 0.35739002 0.033040337
-0.14190505 -0.14863192 0.46451968 0.29202107 -0.61847365 -0.21837382 0.13802046 0.23561597
00000000: 0d3c 043f 352b 683e e7c6 43bf 8a39 7b3e
00000010: e8c6 c33e ca0e 843e 9ff4 aebd 5f86 f43e
00000020: b706 283e d8a5 96bf a1a2 063f 33f2 87bd
00000030: c527 09bf c444 873f 4c07 f43e 1bf3 c93e
00000040: a659 bf3d 0831 923d 1908 1f3f 963c 4dbe
00000050: 2718 a03b 3f85 363f ab08 b8be 48a4 f3be
00000060: 5fc1 7dbd 9074 9abd 7f7f d33e 13a8 38bf
00000070: 1fe2 803e 2cf6 be3e 80d6 293d 6cfe b63e
00000080: 2618 0c3f 12e1 083e 8ee0 08bf 70f2 2dbf
00000090: 7a31 d8bc 1297 54bd e52d 91be 8c7f a33e
000000a0: ce1f eabd 056f 003f fae8 cabe dba0 13be
000000b0: 69e8 fcbd eae6 14be 9516 febd 8ff8 1abf
000000c0: ca4d 3fbe 88d6 17bf 4d63 bebd fd79 0fbe
000000d0: 8a6a 2fbf 8e61 153e a576 9abe f5fa 23be
000000e0: 51a8 95be 6222 6fbf 8620 f53e 51d5 b6bb
000000f0: 7550 2dbd 0036 4e3f db8c 373f 10c9 f43e
00000100: 64c1 0b3d 2c79 c2bd ebe4 febc 0f78 f1be
00000110: 04d6 3f3e e916 223e ca3b 0dbf 74b2 e13d
00000120: 0913 f5be 2761 693e f0d8 2d3f 3327 e7bd
00000130: 0536 553f 1610 6dbe a66f af3d c4fc cabe
00000140: b2ae babe 56d1 f8bd 87cb ec3d 9d1b 0fbf
00000150: b660 053f f82d 433f 911c 4cbe e1a1 d13e
00000160: fa76 163e d591 cebe 368a edbb 2cdb 09be
00000170: 4fd9 953e 845c 823e 8fd5 03bf d0e0 4ebe
00000180: e750 f63d bfc8 303f b893 90be c4a5 4e3f
00000190: 9180 3f3f d43d 263e 8c45 e53e 5bd7 d13d
000001a0: 7cd7 9d3e 8509 46bc 29b9 593f b321 fdbe
000001b0: 21e2 0ab8 1d89 21be 96fc 243f a62c edbe
000001c0: 8e41 883e 9033 1cbf 169a 88be d964 c9be
000001d0: e1f1 a4bd 960c 1c3f 78cf edbd 53f9 94bd
000001e0: 7477 253f 52f4 483f fb66 cf3d 3579 513f
000001f0: 2fb2 d9be 9a2c 18be d159 b5bd 2d05 ce3e
00000200: 6f5f 8abc 5fee 1cbe e2cc 003f 7d40 bd3e
00000210: 8dcc 08bf a801 6b3e 7aa3 04be 1558 9cbe
00000220: 59de d13e b3de a9be 0d6f 27be 4caa 80be
00000230: 58b1 f7be f146 df3e fe90 ca3c 1534 28be
00000240: 6301 f83e c761 323f 39a4 203f 7f8b c13e
00000250: ad37 a33e df0d 9e3e 64e9 e8be 320d f63d
00000260: bff5 323d cd84 0a3e cacf 57be 974a 0abc
00000270: 1830 0b3e 1ead d53e 4952 723e ee34 f63e
00000280: 3e76 51bb 0f05 053f bef1 5c3e 03ea 10bf
00000290: ca93 c43c ec46 e43e c9b0 b1be 989f a0be
000002a0: f732 883d eca2 a63e 8f17 15be 88cd fa3d
000002b0: 2074 753e 4ebf 6bbd ddb3 33be 40fc ab3e
000002c0: aabe 10bf 2941 b5be f9e8 123f 3a19 aebe
000002d0: 19a7 c63e ab9f febe ac70 543f 27eb a6bd
000002e0: 5969 303e f7b9 7b3e b5f5 d73d cd22 863f
000002f0: e210 fcbe 3783 1c3f 136d aabe 1d3a bdbe
00000300: 0b37 f63e 12a9 7e3d fafb e4be 491a 703f
00000310: 77f7 eb3d c65e d83e 6b1c 5cbd 56df e1bd
00000320: 8da9 04bf 0131 733e 654f 4dbe 6427 f53e
00000330: f4d2 0f3e b2e5 cabd cc04 e33c 4104 183e
00000340: b250 00be 4e4e 853f e5ae 473f 2a37 2b3f
00000350: be9b 74bf d87a 5cbe 133b 0d3f d387 b3bd
00000360: f780 073f eff4 e53e e108 7fbe f70d f2be
00000370: 3f27 87be 1666 da3e 9e32 60be 3c80 fe3e
00000380: a549 b2be ad99 833d f706 1a3e 67a3 153e
00000390: b904 0ebe 9109 a6be e398 1dbe c4ca 0a3f
000003a0: 70e1 e13e 8598 9dbe 8f72 3ebe 3d55 013d
000003b0: f676 a2bf 1193 543f 9380 3c3f ccb9 0bbe
000003c0: a245 643e 592e debd c608 fb3c dff4 a5be
000003d0: ab85 8a3e 2e19 713e d3fb b63e 4e55 073d
000003e0: 8f4f 11be f732 18be 86d5 ed3e c983 953e
000003f0: 4a54 1ebf 639d 5fbe 3c55 0d3e 5045 713e

mid_part.0.bias f4 [12]
-0.0027035987 0.00026605744 -0.0034933835 -0.000980833 0.027209852 -0.005695129 -0.0030258002 -0.008281567
-0.0071242526 0.0018899703 -0.0041686418 -0.003002909
00000000: dc2e 31bb a07d 8b39 40f1 64bb 4b8f 80ba
00000010: 32e7 de3c 349e babb 814c 46bb 69af 07bc
00000020: 9072 e9bb e1b8 f73a 1a99 88bb 74cc 44bb

mid_part.1.weight f4 [12]
0.25168407 0.29182273 0.24907283 0.2481008 0.24415313 0.18308662 0.24662821 0.28616133
0.24234791 0.25210342 0.25615308 0.25822428
00000000: bcdc 803e ca69 953e f30c 7f3e 230e 7e3e
00000010: 4703 7a3e 0f7b 3b3e 1b8c 7c3e bd83 923e
00000020: 0d2a 783e b313 813e 7f26 833e f935 843e

mid_part.2.weight f4 [12, 12, 3, 3]
0.25534016 -0.0110237105 0.010486645 -0.24840733 0.10815275 -0.11076656 -0.063414544 -0.095072165
0.07861954 0.18215933 -0.2105838 0.22127324 0.04151596 -0.12031175 -0.11609966 -0.087475374
-0.1760024 0.032121252 0.08554845 0.15366155 0.054406855 0.15485981 0.000177823 -0.03177402
0.2552455 0.055063665 -0.0781393 -0.0109975375 -0.06768793 0.13192596 0.12927727 -0.34590137
-0.23513134 -0.14603454 -0.027089432 0.15825462 -0.20195103 -0.13228583 -0.12820622 -0.026802385
0.21139173 -0.24806769 0.03549275 -0.0017232009 0.041965183 0.21013558 0.038631763 0.20971115
-0.056282494 -0.10883771 0.07081209 -0.099059604 0.064188085 -0.105326 -0.1535862 0.015148973
-0.011198355 0.22218542 -0.06353269 0.03809808 -0.08160416 0.116438985 0.17768577 0.13427459
-0.07228371 0.23944578 0.015202701 0.04507569 -0.0054994035 0.012996869 -0.21799743 -0.19286369
-0.012787312 -0.024876649 0.04532089 -0.17336524 0.3054825 -0.061923806 -0.047478467 -0.04060135
0.04711647 -0.19195981 0.00546507 0.024293475 0.0459184 0.10702261 0.11101442 -0.10658401
-0.017763587 0.020909915 0.06524619 -0.00522884 0.23361619 -0.120605245 -0.062178746 -0.07442283
0.03441164 0.09772127 0.026804257 0.051819693 -0.07091245 -0.09759928 -0.029842652 0.09685935
0.022601519 0.082897834 0.0489047 0.002511435 -0.00078768766 -0.028793648 0.016237358 0.008771794
0.07145106 -0.23241626 0.23322271 0.07447293 0.15379615 0.15560663 0.07760525 0.012082532
0.25711024 0.1252633 0.03411399 0.07480826 -0.117847316 0.13844155 -0.026153298 -0.3226178
-0.16572742 0.023861382 0.061802298 -0.29831836 -0.111065984 0.0919618 -0.09883231 0.042523906
0.25822136 -0.11042416 -0.034820285 -0.066711575 0.010375307 -0.08493096 0.36787257 -0.017126514
0.2270932 -0.1351972 -0.04843991 -0.20479336 -0.148309 0.023293454 -0.06858573 -0.098229945
0.04620115 -0.120551 0.041506294 -0.26674223 0.011044609 0.10213615 0.09232206 0.1385434
-0.06849198 -0.046927195 0.18532808 -0.24530382 -0.14928518 0.0075000296 0.190804 -0.089743555
-0.30653697 -0.009221496 0.07619569 -0.20268458 0.13783196 -0.093603656 -0.050554823 0.20314348
0.15459047 -0.059979424 -0.12619393 -0.1586412 0.0626176 -0.14993028 0.10062467 -0.032716542
0.054353587 -0.30461928 0.052447632 -0.105479114 -0.11714085 -0.12564266 -0.05823769 -0.06801729
-0.018321965 -0.062231332 -0.016232425 -0.19036783 -0.04646883 -0.007207742 -0.0727589 0.13807546
0.03901816 0.24598894 -0.044766854 -0.13070086 -0.13858843 0.028579893 0.12627444 0.28597924
0.18209255 0.07958636 0.09921136 0.09136389 0.15004718 -0.023093944 0.12106831 0.1264826
0.08172172 -0.16154869 -0.028781515 -0.034585565 0.18176813 0.17579159 0.14365822 -0.019878631
0.28649423 -0.101758204 -0.1316119 0.042408124 0.19845709 -0.08356823 -0.03352374 -0.049120083
0.118541926 0.09219396 0.15363424 -0.25716966 -0.19531289 0.067516 -0.12125961 -0.0060159294
0.11539406 0.031015947 0.037026066 -0.08624831 -0.020511528 -0.06345292 0.23733692 0.17867751
0.1352676 0.07343295 0.09529471 0.00655995 0.36556295 -0.18326432 -0.034631934 0.02917999
00000000: f2bb 823e cb9c 34bc 2dd0 2b3c 7e5e 7ebe
00000010: 307f dd3d 94d9 e2bd 7cdf 81bd 32b5 c2bd
00000020: 4803 a13d fa87 3a3e 48a3 57be 7495 623e
00000030: a40c 2a3d 0266 f6bd a9c5 edbd 4a26 b3bd
00000040: f939 34be 9391 033d 0734 af3d 7459 1d3e
00000050: b9d9 5e3d 9293 1e3e 0076 3a39 7a25 02bd
00000060: 8aaf 823e 708a 613d 7f07 a0bd 042f 34bc
00000070: f89f 8abd 9917 073e 4361 043e fc19 b1be
00000080: 45c6 70be 148a 15be a8ea ddbc 800d 223e
00000090: 40cc 4ebe f075 07be 7e48 03be ad90 dbbc
000000a0: 1377 583e 7505 7ebe d960 113d 07dd e1ba
000000b0: afe3 2b3d c82d 573e 573c 1e3d 85be 563e
000000c0: 7988 66bd 4ee6 debd ee05 913d c3df cabd
000000d0: 0b75 833d 28b5 d7bd b345 1dbe 6633 783c
000000e0: 4e79 37bc 9384 633e 6d1d 82bd bb0c 1c3d
000000f0: 1520 a7bd 9077 ee3d 42f3 353e 477f 093e
00000100: 7b09 94bd 4631 753e c014 793c 49a1 383d
00000110: 5734 b4bb d2f0 543c b83a 5fbe 0f7e 45be
00000120: e081 51bc 1dca cbbc 66a2 393d a886 31be
00000130: 3468 9c3e d1a3 7dbd c878 42bd 9a4d 26bd
00000140: 33fd 403d 1d91 44be 5414 b33b 1c03 c73c
00000150: ef14 3c3d ac2e db3d 875b e33d b848 dabd
00000160: f184 91bc 454b ab3c cb9f 853d b056 abbb
00000170: 1539 6f3e e2ff f6bd 24af 7ebd ff6a 98bd
00000180: 38f3 0c3d 1722 c83d 9a94 db3c e340 543d
00000190: 8c3a 91bd 22e2 c7bd 9478 f4bc 325e c63d
000001a0: d226 b93c 57c6 a93d 4b50 483d e396 243b
000001b0: d37c 4eba a8e0 ebbc 3504 853c 92b7 0f3c
000001c0: ef54 923d 87fe 6dbe efd1 6e3e 4385 983d
000001d0: bd7c 1d3e 5857 1f3e 80ef 9e3d d0f5 453c
000001e0: f4a3 833e 0645 003e 1cbb 0b3d 1335 993d
000001f0: ef59 f1bd 9fc3 0d3e 713f d6bc 292e a5be
00000200: 73b4 29be f278 c33c 6824 7d3d 2fbd 98be
00000210: 9076 e3bd 7856 bc3d 9868 cabd 8c2d 2e3d
00000220: 9735 843e 1026 e2bd b79f 0ebd 14a0 88bd
00000230: 31fd 293c 48f0 adbd cb59 bc3e e74c 8cbc
00000240: 1f8b 683e 2371 0abe ed68 46bd 5ab5 51be
00000250: 51de 17be ead1 be3c ad76 8cbd c82c c9bd
00000260: 6b3d 3d3d 71e3 f6bd 8102 2a3d 7092 88be
00000270: 73f4 343c c22c d13d 5913 bd3d 52de 0d3e
00000280: 8645 8cbd bb36 40bd a5c6 3d3e ed30 7bbe
00000290: 37de 18be cfc2 f53b 2062 433e 78cb b7bd
000002a0: 6af2 9cbe c215 17bc 7c0c 9c3d 8c8c 4fbe
000002b0: d223 0d3e 46b3 bfbd 9312 4fbd d804 503e
000002c0: f74c 1e3e fcac 75bd fb38 01be d772 22be
000002d0: a83d 803d 5387 19be 4f14 ce3d c801 06bd
000002e0: dea1 5e3d 0ff7 9bbe 54d3 563d 6f05 d8bd
000002f0: 8be7 efbd 78a8 00be a58a 6ebd a64c 8bbd
00000300: f217 96bc 48e6 7ebd ddf9 84bc c9ef 42be
00000310: 1a56 3ebd ec2e ecbb 9e02 95bd a763 0d3e
00000320: 82d1 1f3d 86e4 7b3e 735d 37bd 72d6 05be
00000330: 20ea 0dbe 6120 ea3c 164e 013e df6b 923e
00000340: 7876 3a3e 2cfe a23d 532f cb3d fe1c bb3d
00000350: f8a5 193e 832f bdbc aaf2 f73d a884 013e
00000360: b85d a73d 056d 25be 36c7 ebbc 98a9 0dbd
00000370: 6d21 3a3e b602 343e 241b 133e 83d8 a2bc
00000380: 5faf 923e 9b66 d0bd 45c5 06be 24b4 2d3d
00000390: 5638 4b3e d225 abbd 3050 09bd 2432 49bd
000003a0: 1cc6 f23d 30d0 bc3d 4b52 1d3e beab 83be
000003b0: 1a00 48be d445 8a3d f556 f8bd 4621 c5bb
000003c0: b953 ec3d 2815 fe3c a5a8 173d f4a2 b0bd
000003d0: cb07 a8bc 9bf3 81bd 7308 733e 3df7 363e
000003e0: 9783 0a3e 0464 963d df29 c33d d9f4 d63b
000003f0: 112b bb3e a4a9 3bbe 37da 0dbd e00a ef3c

mid_part.2.bias f4 [12]
-0.003000741 0.0020347305 0.00033678362 -0.00092795887 -0.00041036247 0.0016866906 -0.005296192 -0.00066767726
0.022233037 0.00074152794 0.0006685569 0.02319021
00000000: 14a8 44bb 1d59 053b 5592 b039 4442 73ba
00000010: eb25 d7b9 f213 dd3a ae8b adbb 1007 2fba
00000020: 0f22 b63c 1963 423a 1842 2f3a 65f9 bd3c

mid_part.3.weight f4 [12]
0.17132065 0.25070512 0.25696406 0.3006757 0.26580602 0.2502924 0.23284116 0.12784764
0.23680022 0.24481852 0.24970856 0.24324329
00000000: ae6e 2f3e 6c5c 803e cb90 833e 2af2 993e
00000010: ba17 883e 5326 803e ea6d 6e3e 7eea 023e
00000020: c27b 723e b5b1 7a3e 9ab3 7f3e c514 793e

mid_part.4.weight f4 [12, 12, 3, 3]
0.026953489 -0.07026446 0.22525863 0.27232364 -0.02954895 0.1322838 -0.1368621 0.053945486
-0.09878322 -0.20637186 -0.11435992 0.33913302 -0.052766196 0.14216454 -0.1486226 -0.12500209
0.012901335 0.23770438 -0.097888045 0.10808021 0.023678897 0.16195348 -0.054861754 -0.058246862
-0.066608086 0.13360855 0.2377163 -0.14241141 -0.30161196 -0.005547375 -0.10228399 0.105631515
-0.08987189 -0.09249199 0.25753295 0.17435944 0.034504957 0.104381405 0.029348943 -0.115654096
0.11521095 0.082240835 -0.2810668 -0.11082152 0.14257254 -0.027125768 -0.08701386 0.11715318
-0.24852507 0.091458365 -0.35902604 0.059362344 0.2694042 -0.1407349 0.10362213 -0.21001926
-0.14059876 0.09388725 -0.011236489 -0.16418128 -0.021088494 -0.26783442 0.23559868 0.005502503
-0.1139102 0.1393103 -0.0066483184 0.032243896 0.16671361 -0.23340185 -0.058984093 -0.021663876
0.010790166 -0.049810506 -0.075323574 -0.16508043 -0.0061674924 0.010806561 0.09010738 0.012374375
0.27858394 0.10713033 -0.0014883752 0.21105134 0.1132291 0.15597717 -0.03450561 0.07628113
0.15987077 -0.34868416 -0.22575217 0.15420347 -0.08787298 0.016227923 -0.00039617298 0.022541793
-0.2907781 -0.11076722 0.049680773 0.008921702 0.0639648 0.10215545 -0.38761768 0.19139259
-0.050525837 0.11027997 0.24033874 0.3739622 0.11464795 -0.22065695 -0.08334001 0.24483871
0.046049513 0.06304981 0.25714812 -0.27873197 0.00060930336 -0.007774799 0.088610455 0.0035425955
0.3178358 0.11664859 0.37187845 -0.23043257 -0.21128145 -0.032116365 -0.17067978 0.08793809
-0.016090602 -0.43661407 -0.116663955 0.06135212 -0.55580926 -0.15286335 0.19228867 -0.18946397
0.24060854 0.28784943 0.041606974 0.39576456 0.15579775 0.24352401 0.3294105 -0.10697622
-0.0037715312 -0.062285185 -0.16219594 -0.11865834 0.34399632 0.34899256 -0.60596126 -0.08643717
0.1665393 -0.0067207953 -0.17389156 0.3016933 -0.20761731 -0.00737126 0.1612037 -0.10591132
0.0650348 -0.048002694 0.27722427 -0.078203894 -0.10514909 0.36477646 -0.14358234 -0.017658422
0.12495774 -0.10093494 -0.290617 0.34737855 -0.20016024 -0.24078058 -0.042918965 0.012100073
0.05419156 0.14214192 0.10151248 0.40047035 0.003915488 -0.25043362 -0.09760671 0.04066408
-0.083509326 0.105328135 0.2276815 0.35140342 0.18461569 -0.44172174 0.10430841 -0.18165708
0.15990975 0.18599902 -0.07807125 0.024520213 -0.049872264 0.060704764 -0.050135523 -0.19479042
0.13855591 0.16983719 0.24980675 0.13839167 -0.20326279 -0.11932331 -0.022256592 -0.19452836
-0.15632546 -0.2661357 -0.12857784 0.05436475 -0.043347564 0.6076357 0.35533467 0.27956924
0.20079254 -0.19436237 0.15554409 0.074038 0.041908022 -0.008546406 -0.15654202 0.3130861
0.038099766 0.20879583 0.013211427 0.16721316 -0.018542776 0.025443487 0.10160143 -0.0067710043
0.06862441 0.013395146 -0.124260336 0.05314191 0.17845103 -0.03616906 0.17071898 0.16514207
0.041259345 -0.016461134 -0.19300424 -0.16032729 -0.16298519 -0.018889884 0.07101352 0.11409126
0.06269092 0.24010606 -0.01818583 0.068322584 -0.15214786 -0.19380233 -0.09318659 -0.010659514
00000000: 90cd dc3c d0e6 8fbd 33aa 663e 016e 8b3e
00000010: a410 f2bc 6875 073e 9425 0cbe f1f5 5c3d
00000020: db4e cabd 2553 53be 8935 eabd d8a2 ad3e
00000030: 5e21 58bd 9593 113e 8630 18be 8c00 00be
00000040: 1f60 533c c768 733e 8779 c8bd 2859 dd3d
00000050: 3ffa c13c 22d7 253e b8b6 60bd 4394 6ebd
00000060: d269 88bd aed0 083e e76b 733e 4cd4 11be
00000070: e26c 9abe c1c6 b5bb 457a d1bd 5655 d83d
00000080: c10e b8bd 716c bdbd 5cdb 833e 488b 323e
00000090: 1255 0d3d ebc5 d53d 326d f03c 0edc ecbd
000000a0: b8f3 eb3d e26d a83d fde7 8fbe 65f6 e2bd
000000b0: 89fe 113e dc36 debc 5334 b2bd 02ee ef3d
000000c0: 5b7d 7ebe 864e bb3d 43d2 b7be ee25 733d
000000d0: 59ef 893e cf1c 10be d737 d43d 4a0f 57be
000000e0: 1ff9 0fbe f547 c03d 4019 38bc 231f 28be
000000f0: c7c1 acbc 9821 89be c840 713e 574e b43b
00000100: c049 e9bd 5ca7 0e3e 23da d9bb 2d12 043d
00000110: f9b6 2a3e e500 6fbe 4e99 71bd 7178 b1bc
00000120: 3dc9 303c 1a06 4cbd 3f43 9abd d80a 29be
00000130: ad18 cabb 010e 313c 388a b83d e4bd 4a3c
00000140: 8ea2 8e3e 2567 db3d 9615 c3ba d81d 583e
00000150: a9e4 e73d 7bb8 1f3e c155 0dbd 4839 9c3d
00000160: 2ab5 233e bb86 b2be 942b 67be 84e7 1d3e
00000170: c0f6 b3bd 6cf0 843c 70b5 cfb9 91a9 b83c
00000180: dee0 94be edd9 e2bd 117e 4b3d 552c 123c
00000190: faff 823d e036 d13d d375 c6be 6bfc 433e
000001a0: 2ef4 4ebd 77da e13d 5c1b 763e f977 bf3e
000001b0: 8bcc ea3d e5f3 61be 2bae aabd 00b7 7a3e
000001c0: 6a9e 3c3d 4220 813d eba8 833e f5b5 8ebe
000001d0: a8b9 1f3a bec3 febb 6679 b53d e42a 683b
000001e0: 60bb a23e 75e5 ee3d da66 be3e 84f6 6bbe
000001f0: 2a5a 58be 738c 03bd aec6 2ebe e318 b43d
00000200: 70d0 83bc e18b dfbe 83ed eebd 5c4c 7b3d
00000210: 8449 0ebf 3688 1cbe 52e7 443e d802 42be
00000220: 1662 763e 0061 933e 136c 2a3d a7a1 ca3e
00000230: 7289 1f3e 5c5e 793e 7ea8 a83e 5916 dbbd
00000240: cb2b 77bb c01e 7fbd b116 26be 2503 f3bd
00000250: 4920 b03e 27af b23e 4720 1bbf f905 b1bd
00000260: 4789 2a3e 1e3a dcbb a110 32be 8b77 9a3e
00000270: a299 54be 9c8a f1bb 9512 253e 09e8 d8bd
00000280: f730 853d 799e 44bd 57f0 8d3e 5d29 a0bd
00000290: 6858 d7bd fbc3 ba3e 4007 13be 65a8 90bc
000002a0: d8e9 ff3d fab6 cebd c0cb 94be 9adb b13e
000002b0: cef6 4cbe 2f8f 76be cccb 2fbd 623f 463c
000002c0: f8f7 5d3d a78d 113e c6e5 cf3d 730a cd3e
000002d0: 7e4d 803b d638 80be 07e6 c7bd 618f 263d
000002e0: f006 abbd 47b6 d73d 5725 693e 26eb b33e
000002f0: e50b 3d3e 5a29 e2be a69f d53d 5004 3abe
00000300: 62bf 233e 8776 3e3e d2e3 9fbd 9dde c83c
00000310: dc46 4cbd 8fa5 783d e85a 4dbd 2477 47be
00000320: 9ae1 0d3e cde9 2d3e 57cd 7f3e 8cb6 0d3e
00000330: 1f24 50be c85f f4bd 7553 b6bc 7132 47be
00000340: c813 20be f042 88be e9a9 03be 92ad 5e3d
00000350: 378d 31bd 038e 1b3f 6dee b53e b323 8f3e
00000360: 8f9c 4d3e ee06 47be f346 1f3e 3ca1 973d
00000370: bfa7 2b3d 3a06 0cbc 8d4c 20be d24c a03e
00000380: 800e 1c3d 93ce 553e be74 583c ed39 2b3e
00000390: 05e7 97bc dc6e d03c 6914 d03d 4ddf ddbb
000003a0: f48a 8c3d 5077 5b3c 347c febd 55ab 593d
000003b0: debb 363e 0226 14bd f5d0 2e3e 011b 293e
000003c0: 8fff 283d 80d9 86bc e7a2 45be d62c 24be
000003d0: 97e5 26be f5be 9abc 896f 913d aea8 e93d
000003e0: 1964 803d 5dde 753e 73fa 94bc b6ec 8b3d
000003f0: a6cc 1bbe 1e74 46be 9cd8 bebd 3ea5 2ebc

mid_part.4.bias f4 [12]
0.010423354 -0.016512427 -0.0111626815 0.01392838 -0.006851418 -0.0020824606 -0.00015177896 0.00085799186
0.001950033 0.0005933767 -0.0056488523 -0.0072608143
00000000: b7c6 2a3c 1245 87bc aee3 36bc dc33 643c
00000010: dc81 e0bb e479 08bb db26 1fb9 dcea 603a
00000020: 4098 ff3a d68c 1b3a 021a b9bb 20ec edbb

mid_part.5.weight f4 [12]
0.14329647 0.26957974 0.25202277 0.26133162 0.3524359 0.7560317 -0.112480335 0.8728481
0.2503693 0.23176773 0.26534164 0.25159115
00000000: 4fbc 123e 5b06 8a3e 2109 813e 42cd 853e
00000010: 7a72 b43e 4b8b 413f 175c e6bd f972 5f3f
00000020: 6830 803e 8554 6d3e dcda 873e 8ed0 803e

mid_part.6.weight f4 [12, 12, 3, 3]
0.019712016 -0.13421032 -0.06818844 0.02631528 0.14269167 0.16411674 -0.049790833 0.06441363
0.027325435 -0.035797134 0.037859686 -0.050057396 0.08802562 0.23388089 0.22645701 -0.030639345
-0.31054914 0.06940298 0.12240594 -0.14011586 0.002000067 0.12102145 -0.0109418295 -0.1444511
-0.1306514 -0.1241124 0.115771085 0.1061358 -0.18240352 -0.1888083 -0.089245416 0.12138219
0.12113788 0.030577455 -0.3058173 -0.17585498 -0.0064477106 0.18239439 -0.08036857 0.15693292
0.1362357 -0.12276649 -0.053853896 0.18912011 -0.056620542 -0.14632355 -0.4242058 0.14430629
0.21520078 -0.010086655 0.040296536 0.10266018 0.09780317 0.21764728 0.15025522 -0.2307562
0.02574577 0.08551788 0.044510465 0.07184913 0.21717238 0.22876805 0.12397509 -0.11081077
-0.09588546 0.14661302 -0.050895005 -0.1540018 0.02475074 0.047147695 0.03608011 -0.18912442
-0.015412495 0.06897143 0.1287339 0.0014459147 0.033057548 -0.032374553 -0.027533755 -0.18234901
0.047922466 -0.027444 0.17544487 0.020014163 -0.1733561 0.041368652 0.18818353 -0.2062945
-0.12686959 -0.23046273 -0.079208285 0.1301346 -0.02622416 0.053208906 -0.102797486 0.069830716
-0.08202372 0.15906554 -0.0738857 0.13988341 0.023476833 0.0022944938 0.085382216 -0.104146115
-0.031566307 0.17212331 -0.13512194 -0.015728246 0.33627853 0.11100418 0.09987779 -0.0728339
-0.19043177 0.11277665 0.07857735 0.061178323 0.016107885 0.06319767 -0.01652898 0.055341367
-0.041122247 -0.002397374 -0.0143282935 0.13218908 -0.07409943 -0.013059172 0.08256069 0.0916975
-0.0071858913 0.17880088 -0.0016132583 0.15346998 0.02979081 0.0012600288 -0.016336564 0.111695886
0.031838946 -0.017832587 -0.106606595 0.1211325 0.015783485 -0.15435143 -0.18593441 0.063709185
0.06557627 -0.088254474 0.14334661 0.12651059 -0.06663725 -0.10114636 0.09161654 0.24642782
0.05556355 0.072695166 0.048276857 0.111047134 -0.16807269 0.01994556 -0.03417414 -0.005229528
-0.007059781 0.05034074 0.17225745 0.022422161 0.034773428 0.03706819 0.1024365 -0.03657829
-0.05558161 -0.094887525 -0.09182806 0.1485248 -0.021019192 0.09308163 0.044123463 0.17443524
-0.21226195 -0.0486948 -0.03221916 -0.12165142 0.15701611 -0.24420196 0.10295118 0.015354126
0.047823027 0.17953178 0.027005244 0.14608996 -0.00822554 0.10761181 0.012607796 0.05907786
0.14171153 0.21739532 -0.1607164 0.018435149 0.16198969 0.18305473 -0.058635034 0.19034751
-0.07908898 -0.119457275 -0.1243343 -0.0054543074 0.06996168 -0.20966057 0.0997436 -0.094349444
-0.02433245 -0.03208587 0.08652989 0.04889861 -0.0004564855 -0.25801232 -0.20081851 0.06292758
-0.26031947 -0.029460404 -0.20195287 0.0144967735 -0.075089835 -0.10042067 0.2735005 0.21700121
-0.19125585 -0.09134419 -0.040821724 -0.10846905 -0.110576116 0.11737292 -0.06870845 0.098424435
0.13921085 0.10358936 -0.17789406 0.11411307 0.035261028 -0.006883495 -0.007269931 -0.17431735
0.07138692 -0.15065742 -0.29186 0.17841431 0.055226173 0.034815848 0.17413183 0.056295883
-0.103678726 -0.17978217 -0.13329573 0.013785802 -0.27747717 -0.19300672 0.1673189 -0.029555634
00000000: 187b a13c 6e6e 09be 61a6 8bbd 2493 d73c
00000010: c41d 123e 380e 283e 79f1 4bbd 4beb 833d
00000020: 97d9 df3c 04a0 12bd c212 1b3d fc08 4dbd
00000030: c746 b43d 797e 6f3e 59e4 673e 5dff fabc
00000040: 4c00 9fbe 2623 8e3d f7af fa3d 887a 0fbe
00000050: 8e13 033b 18da f73d 5c45 33bc fdea 13be
00000060: 7bc9 05be a42e febd 6419 ed3d ba5d d93d
00000070: fdc7 3abe f756 41be 4dc6 b6bd 3a97 f83d
00000080: 2317 f83d 927d fa3c 1694 9cbe 5413 34be
00000090: 5147 d3bb 98c5 3a3e 4798 a4bd 06b3 203e
000000a0: 5f81 0b3e ff6c fbbd e795 5cbd b4a8 413e
000000b0: f1ea 67bd d7d5 15be 8131 d9be 07c5 133e
000000c0: 985d 5c3e 7f42 25bc fb0d 253d 803f d23d
000000d0: 074d c83d eede 5e3e 81dc 193e 5a4b 6cbe
000000e0: cbe8 d23c 0024 af3d 9b50 363d a325 933d
000000f0: 7062 5e3e 2c42 6a3e a7e6 fd3d c2f0 e2bd
00000100: 995f c4bd b921 163e 4877 50bd a6b2 1dbe
00000110: 10c2 ca3c f11d 413d bdc8 133d d5a9 41be
00000120: b084 7cbc e540 8d3d d2d2 033e d984 bd3a
00000130: 5a67 073d 2e9b 04bd 788e e1bc b3b9 3abe
00000140: 594a 443d 3dd2 e0bc d2a7 333e bef4 a33c
00000150: 4384 31be 2d72 293d 2fb3 403e de3e 53be
00000160: 1aea 01be 6cfe 6bbe f437 a2bd 0142 053e
00000170: 0dd4 d6bc 95f1 593d 7d87 d2bd 6803 8f3d
00000180: 0dfc a7bd 14e2 223e 6351 97bd 993d 0f3e
00000190: 7d52 c03c 385f 163b dfdc ae3d 8f4a d5bd
000001a0: ac4b 01bd 1841 303e 685d 0abe 86d8 80bc
000001b0: b32c ac3e 2956 e33d ba8c cc3d f129 95bd
000001c0: 8c00 43be 72f7 e63d 29ed a03d 1f96 7a3d
000001d0: aff4 833c c86d 813d c967 87bc a1ad 623d
000001e0: cd6f 28bd 431d 1dbb 38c1 6abc 935c 073e
000001f0: 71c1 97bd 23f6 55bc 9415 a93d e6cb bb3d
00000200: a077 ebbb 9417 373e f773 d3ba 3c27 1d3e
00000210: db0b f43c 8d27 a53a 42d4 85bc d0c0 e43d
00000220: 8e69 023d a515 92bc 8f54 dabd 5114 f83d
00000230: 5e4c 813c 4d0e 1ebe 9765 3ebe f679 823d
00000240: da4c 863d c3be b4bd 74c9 123e fe8b 013e
00000250: 1c79 88bd d325 cfbd 74a1 bb3d 9357 7c3e
00000260: 9b96 633d 34e1 943d f4bd 453d ae6c e33d
00000270: 3f1b 2cbe df64 a33c 2ffa 0bbd 765c abbb
00000280: bc55 e7bb 1732 4e3d 4264 303e aeae b73c
00000290: 956e 0e3d d0d4 173d 3aca d13d 1ed3 15bd
000002a0: 8ba9 63bd 6454 c2bd 5a10 bcbd e316 183e
000002b0: 7130 acbc 95a1 be3d ceba 343d 279f 323e
000002c0: 325b 59be 3374 47bd 3df8 03bd 6124 f9bd
000002d0: d5c8 203e 1410 7abe 11d8 d23d df8f 7b3c
000002e0: 14e2 433d 2ed7 373e 1a3a dd3c 9b98 153e
000002f0: 6ac4 06bc 9563 dc3d ee90 4e3c a0fb 713d
00000300: d41c 113e e19c 5e3e d792 24be 4f05 973c
00000310: a0e0 253e b372 3b3e 4a2b 70bd 75ea 423e
00000320: 67f9 a1bd 04a6 f4bd fba2 febd 0cba b2bb
00000330: 1248 8f3d 43b1 56be 5f46 cc3d 483a c1bd
00000340: d954 c7bc 796c 03bd 9536 b13d e949 483d
00000350: 7254 efb9 311a 84be 5ea3 4dbe 2de0 803d
00000360: 9848 85be f256 f1bc bccc 4ebe e083 6d3c
00000370: b3c8 99bd 5aa9 cdbd 4208 8c3e 9135 5e3e
00000380: 93d8 43be aa12 bbbd ae34 27bd 0525 debd
00000390: bb75 e2bd 3761 f03d 04b7 8cbd c092 c93d
000003a0: 4a8d 0e3e a926 d43d dc29 36be 1db4 e93d
000003b0: de6d 103d f18e e1bb 9a38 eebb 3f80 32be
000003c0: 4e33 923d f045 1abe ad6e 95be 3eb2 363e
000003d0: d734 623d 109b 0e3d 9d4f 323e 8396 663d
000003e0: 8355 d4bd d118 38be ad7e 08be d8dd 613c
000003f0: 7d11 8ebe 8ea3 45be a555 2b3e a81e f2bc

mid_part.6.bias f4 [12]
0.0042872205 0.0077736937 -0.00815378 0.036757346 0.0035951587 -0.004228805 0.00011982051 0.017411489
-0.0026718145 -0.000194771 0.011362367 -0.019141858
00000000: d07b 8c3b 78ba fe3b 6f97 05bc df8e 163d
00000010: c19c 6b3b ca91 8abb 2548 fb38 8aa2 8e3c
00000020: 9c19 2fbb 713b 4cb9 3929 3a3c 63cf 9cbc

mid_part.7.weight f4 [12]
0.3029623 -0.19353287 0.25541562 0.24746156 0.19149578 0.2831146 0.5653508 0.61696446
0.25316057 0.8071403 0.70142204 0.22891861
00000000: e01d 9b3e 7b2d 46be d6c5 823e 9066 7d3e
00000010: 7817 443e 66f4 903e d4ba 103f 62f1 1d3f
00000020: 439e 813e bfa0 4e3f 6590 333f a469 6a3e

mid_part.8.weight f4 [12, 12, 3, 3]
0.035774823 -0.13666049 -0.22910777 -0.038968034 0.22299922 0.12171626 -0.3173579 0.1298858
-0.0920155 -0.046467904 0.03242244 0.074408814 0.102680266 0.2898596 0.04168399 0.19980618
0.06851813 -0.054526437 0.08983393 -0.029645965 0.0027716283 -0.21341339 -0.04569864 -5.9977483e-05
0.041666567 -0.17460841 -0.021932717 -0.03596136 -0.07440177 0.033086658 -0.16595526 -0.050531656
0.06802609 -0.004002876 -0.098920375 -0.20748055 -0.030087767 -0.018680166 0.020150876 0.097585954
-0.022812614 0.22836637 -0.092850395 0.062234044 -0.016801646 0.09537506 0.094633386 0.06705324
-0.16366674 0.043758895 0.029168867 0.32579592 -0.1732539 0.094592124 0.10125975 -0.33280587
0.040087402 0.030756122 -0.022514876 -0.046536367 -0.11692619 -0.09603357 0.07883737 0.005470827
0.31430086 0.051040843 0.045496136 0.18333678 -0.045888804 -0.16907486 -0.07150265 -0.26285705
-0.3204328 0.008470244 0.011063756 -0.051073536 0.22803698 -0.087621264 -0.10179136 -0.17213064
-0.081746735 0.07990337 -0.06548989 -0.13627955 -0.14412512 -0.06418705 -0.024550326 0.23344058
-0.03498745 0.01261715 0.014406986 0.16400263 0.011828169 -0.05908577 -0.052277606 0.04025454
0.09594392 0.0930729 -0.029624462 0.1915527 0.41452286 -0.1738155 0.37987715 -0.074228846
0.16709211 -0.22833712 0.11720722 0.19934948 0.1846469 -0.061949477 -0.14686283 0.22912739
0.15979262 0.039458986 0.038805988 -0.31031734 -0.25469923 0.058921188 -0.14728536 0.021337584
0.120566845 0.20415163 -0.23463097 -0.15590224 0.007052084 -0.103124276 0.040459484 -0.023008924
0.075613916 0.030641584 -0.2582727 0.24724944 -0.124110185 0.07850685 0.027814781 -0.08577356
0.34043577 0.038267948 0.13407229 0.0042129625 0.08674629 -0.19331418 0.06576713 0.10441185
0.15899155 0.011139333 -0.10088474 0.040741824 0.19168313 -0.30015677 0.16153541 -0.32755366
0.060996495 0.11683124 0.14337668 -0.014575049 0.0573956 0.1987907 0.058291834 -0.22177461
-0.043451414 -0.031606402 -0.0051819286 0.013247275 0.17543285 0.13878329 0.023945214 0.06504953
-0.006909712 -0.045413017 0.08624249 0.1408219 0.18219523 0.09425938 0.05843929 -0.3692743
0.011702184 0.028473375 -0.071046926 0.058368936 0.07662932 0.00020339453 -0.0131165935 0.008362411
-0.104596086 -0.038754683 0.19589716 -0.09816489 0.08160902 0.2969114 0.021040777 0.015564331
0.24376829 0.03892714 0.23008934 0.19397722 -0.003629349 0.057320397 0.017580206 -0.034587856
0.08706644 -0.014953667 -0.17665257 -0.13751847 -0.09523025 0.08407469 0.17733194 0.15950301
-0.19568962 0.13770142 0.0704653 0.018135566 0.05681042 -0.044546977 -0.0051601627 0.19622861
-0.044330552 0.19072387 0.114238836 -0.019649021 0.092565425 -0.11541522 -0.01165481 0.051656254
0.10149931 0.06858865 0.058049466 0.18967614 0.02052827 0.1742042 -0.13490556 0.09716558
0.06962771 -0.13497385 -0.020654134 -0.048040453 -0.17146789 -0.049534675 -0.17589347 0.034744874
-0.046244856 -0.044194985 -0.015725464 -0.2004182 -0.070462935 -0.0613825 0.24707195 0.09927663
-0.20285304 0.052235194 -0.041634496 0.004910025 0.06909654 0.043181732 -0.2659564 0.1717122
00000000: 9f88 123d baf0 0bbe 3a9b 6abe f29c 1fbd
00000010: e859 643e 6046 f93d bc7c a2be c800 053e
00000020: 9f72 bcbd 2155 3ebd 64cd 043d a663 983d
00000030: 084a d23d 7a68 943e d5bc 2a3d fe99 4c3e
00000040: 3c53 8c3d 1d57 5fbd dafa b73d 18dc f2bc
00000050: 35a4 353b 0a89 5abe 7f2e 3bbd 5590 7bb8
00000060: 90aa 2a3d 8ccc 32be 3eac b3bc 384c 13bd
00000070: f55f 98bd e085 073d 2df0 29be 48fa 4ebd
00000080: 4351 8b3d 8f2a 83bb c496 cabd c875 54be
00000090: 9f7a f6bc 2607 99bc 7313 a53c 25db c73d
000000a0: 85e1 babc e0d8 693e 5928 bebd 20e9 7e3d
000000b0: 9ba3 89bc 0054 c33d 26cf c13d 3653 893d
000000c0: 4198 27be 873c 333d 8cf3 ee3c b9ce a63e
000000d0: 7869 31be 84b9 c13d 4661 cf3d 8865 aabe
000000e0: b032 243d 43f4 fb3c 1e71 b8bc eb9c 3ebd
000000f0: 0077 efbd 40ad c4bd 7d75 a13d a044 b33b
00000100: 0bec a03e 3410 513d 285a 3a3d a3bc 3b3e
00000110: e6f5 3bbd f621 2dbe fb6f 92bd 3395 86be
00000120: c50f a4be c7c6 0a3c c244 353c 7c32 51bd
00000130: 8782 693e c772 b3bd fd77 d0bd 0443 30be
00000140: d56a a7bd 61a4 a33d 901f 86bd de8c 0bbe
00000150: 8995 13be 8074 83bd c41d c9bc 0c0b 6f3e
00000160: 004f 0fbd 2ab8 4e3c 470b 6c3c 4ef0 273e
00000170: f0ca 413c ec03 72bd 0b21 56bd f2e1 243d
00000180: 3f7e c43d 019d be3d 00af f2bc 6426 443e
00000190: 573c d43e b1fc 31be 427f c23e 4b05 98bd
000001a0: 321a 2b3e 35d1 69be 570a f03d 4522 4c3e
000001b0: 1414 3d3e bcbe 7dbd 3663 16be 5fa0 6a3e
000001c0: ada0 233e bf9f 213d 07f3 1e3d eae1 9ebe
000001d0: f067 82be 5857 713d f9d1 16be 28cc ae3c
000001e0: c0eb f63d 200d 513e 1a43 70be d6a4 1fbe
000001f0: 2b15 e73b d232 d3bd d8b8 253d 367d bcbc
00000200: 78db 9a3d 0f04 fb3c 523c 84be f52e 7d3e
00000210: 7b2d febd 33c8 a03d d3db e33c 0caa afbd
00000220: 994d ae3e dabe 1c3d 3f4a 093e e40c 8a3b
00000230: 0aa8 b13d 27f4 45be ebb0 863d e1d5 d53d
00000240: aece 223e c081 363c a99c cebd e6e0 263d
00000250: 9548 443e 26ae 99be 8a69 253e 1db5 a7be
00000260: 76d7 793d 3845 ef3d 56d1 123e 30cc 6ebc
00000270: a617 6b3d ca8f 4b3e 6bc3 6e3d e218 63be
00000280: 1cfa 31bd b775 01bd 2bcd a9bb 190b 593c
00000290: aba4 333e 351d 0e3e c128 c43c b038 853d
000002a0: de6a e2bb 0003 3abd e79f b03d 9e33 103e
000002b0: 6391 3a3e 100b c13d 095e 6f3d 8511 bdbe
000002c0: 84ba 3f3c ff40 e93c 0d81 91bd 4414 6f3d
000002d0: d5ef 9c3d 4e46 5539 fbe6 56bc 7e02 093c
000002e0: 7936 d6bd 3bbd 1ebd 4499 483e ad0a c9bd
000002f0: a122 a73d c504 983e b55d ac3c 8901 7f3c
00000300: 659e 793e 1172 1f3d 8a9c 6b3e f7a1 463e
00000310: 5fda 6dbb cbc8 6a3d 5d04 903c ffab 0dbd
00000320: e44f b23d 3a00 75bc 69e4 34be a4d1 0cbe
00000330: 1408 c3bd 5a2f ac3d 8196 353e c254 233e
00000340: dc62 48be 9a01 0d3e 1c50 903d 0a91 943c
00000350: 0bb2 683d e476 36bd 9516 a9bb 27f0 483e
00000360: f493 35bd 1e4d 433e 0df6 e93d fcf6 a0bc
00000370: f192 bd3d d15e ecbd d1f3 3ebc 8295 533d
00000380: dfde cf3d 3578 8c3d 47c5 6d3d 763a 423e
00000390: e72a a83c 9662 323e af24 0abe bffe c63d
000003a0: f998 8e3d 9636 0abe dc32 a9bc 11c6 44bd
000003b0: 4795 2fbe dfe4 4abd 6b1d 34be a450 0e3d
000003c0: 3f6b 3dbd cd05 35bd b0d2 80bc 6e3a 4dbe
000003d0: df4e 90bd 376c 7bbd 6e00 7d3e 8c51 cb3d
000003e0: b5b8 4fbe 92f4 553d ef88 2abd 46e4 a03b
000003f0: 7d82 8d3d 54df 303d 702b 88be 53d5 2f3e

mid_part.8.bias f4 [12]
0.003470214 0.012655761 0.010031304 -0.010126335 0.004604085 0.0010334784 0.011284998 0.0037396192
-0.0028059348 0.011447809 -0.0232931 0.0037296498
00000000: 886c 633b 1c5a 4f3c 575a 243c ede8 25bc
00000010: dddd 963b c875 873a b6e4 383c 6614 753b
00000020: c6e3 37bb 978f 3b3c 2cd1 bebc 246d 743b

mid_part.9.weight f4 [12]
0.7363518 0.0014995044 0.7996007 0.2510405 0.3519448 0.84786284 0.20696124 -0.15804945
0.25738057 0.22719905 0.22621055 -0.45800206
00000000: 8d81 3c3f 058b c43a a2b2 4c3f 6188 803e
00000010: 1c32 b43e 8a0d 593f a6ed 533e b7d7 21be
00000020: 63c7 833e dea6 683e bda3 673e 3f7f eabe

mid_part.10.weight f4 [56, 12, 1, 1]
-0.07815965 0.17684686 -0.05174076 -0.38304883 -0.08889879 0.24700212 0.1017888 0.29767546
-0.16453168 -0.100872725 0.23633054 -0.12901309 0.06812768 0.16701037 0.074925035 -0.04624456
-0.23534997 0.30620378 -0.060994916 0.33007506 0.010166937 0.08325234 0.057921037 0.10524389
-0.046802368 0.13743898 0.0076733744 -0.21975954 -0.33482486 -0.30575556 0.346996 0.032991722
0.060701936 -0.15169854 -0.31449485 0.0035659357 0.062425867 -0.21115693 -0.0390174 -0.13032928
-0.17327602 -0.34950772 0.3283829 0.5723768 -0.29752985 -0.042380374 -0.0071229353 0.1661688
-0.18544187 0.16069205 0.34659088 0.10778457 -0.05091561 0.17845558 -0.059944637 0.22939748
0.22009836 -0.091358535 0.04780008 -0.22731186 -0.16653198 -0.110575944 0.13836747 0.30308956
-0.17439507 0.009773049 -0.22836596 -0.18715985 0.16020069 -0.31297392 0.15279466 0.13194963
0.2268276 0.100551575 -0.33683223 -0.1445681 0.35716847 -0.21770783 -0.045550454 -0.08229167
0.31016648 -0.21930392 0.26832175 -0.17722635 0.10101192 0.05657444 0.19213998 0.27952847
0.11173585 -0.1222205 -0.25771692 -0.26530695 0.1078009 0.15560053 0.05882345 0.18206656
-0.07921902 0.11392733 -0.08286974 -0.016956398 0.21714534 -0.2431706 -0.05106919 0.0810699
0.03016623 -0.18229985 0.2554819 0.031654112 -0.42998818 0.14092432 0.108893365 -0.138849
0.09192617 -0.18311715 0.008907951 0.036237705 -0.14270408 -0.1125065 -0.09366438 0.14990096
-0.050523218 -0.16473071 -0.06625278 -0.22989401 0.108380936 0.017415281 -0.07488462 -0.32586282
-0.15074097 0.18195169 0.1663184 -0.15017557 0.05795087 0.14981225 0.085382655 -0.3191239
0.03823477 0.15804704 0.14022748 0.05812129 -0.33569765 -0.034517344 -0.28919792 -0.06871706
0.08314755 0.20388548 0.0041328147 -0.055595845 0.051365323 0.05783641 -0.05632619 0.024897322
0.20739783 0.17377843 -0.24436787 -0.18943337 -0.35606492 0.09424192 -0.11237121 -0.1900476
0.22622454 -0.09218394 0.15954812 0.36976728 -0.026164703 0.4482766 0.1695008 -0.03801521
-0.1607767 -0.01989502 -0.06644554 0.026669782 0.30219916 0.07599098 -0.006545608 -0.020939449
0.1866615 0.03605803 -0.22065066 0.13941172 -0.12781453 0.059114665 -0.3668912 -0.13206562
0.25142467 0.44445956 0.031407103 -0.24698731 0.043253127 0.41056985 -0.22903155 0.22289565
0.22628874 0.21389978 -0.018363906 -0.15705697 0.13669571 -0.399261 0.018285707 0.1155801
0.06931197 0.27402657 0.113928534 -0.09612069 0.044774726 0.13257658 0.07069362 -0.140138
0.0127033545 0.04877564 0.17304064 0.06275931 0.13902825 -0.18501471 -0.020565037 -0.13047063
-0.11148984 -0.055371623 -0.10410334 -0.04009843 -0.09399915 0.24990875 0.10494536 0.12590759
-0.30634284 -0.09071623 0.1430267 -0.06333586 0.04309799 0.0032095122 -0.036068026 -0.19606395
-0.055774864 -0.22662088 0.11061532 -0.411533 0.18084474 -0.38334802 0.2278442 -0.22419769
-0.035270795 -0.122651316 -0.23760363 -0.24681294 -0.056264445 -0.113389276 0.039839637 0.17378615
0.04438963 -0.010213066 -0.37626103 -0.3002088 0.034841925 -0.05726766 0.034516416 -0.16333935
00000000: 2b12 a0bd 5817 353e 1fee 53bd fa1e c4be
00000010: 9210 b6bd 20ee 7c3e a576 d03d eb68 983e
00000020: fe7a 28be 5c96 cebd a200 723e 021c 04be
00000030: 8686 8b3d c404 2b3e 4c72 993d f06a 3dbd
00000040: 95ff 70be bec6 9c3e ced5 79bd 99ff a83e
00000050: 3993 263c 3480 aa3d 9c3e 6d3d 1c8a d73d
00000060: d7b3 3fbd cebc 0c3e ee70 fb3b a508 61be
00000070: 2a6e abbe fe8b 9cbe 76a9 b13e 5422 073d
00000080: 98a2 783d dd56 1bbe 7805 a1be 79b2 693b
00000090: 44b2 7f3d 8639 58be b6d0 1fbd 0a75 05be
000000a0: 456f 31be adf2 b2be ce21 a83e 4987 123f
000000b0: d555 98be 0b97 2dbd 8367 e9bb 2728 2a3e
000000c0: 79e4 3dbe 758c 243e 5c74 b13e 28be dc3d
000000d0: e38c 50bd 0fbd 363e 8288 75bd 2ce7 6a3e
000000e0: 7761 613e 2f1a bbbd 04ca 433d 71c4 68be
000000f0: 5c87 2abe a475 e2bd 34b0 0d3e 8e2e 9b3e
00000100: 9f94 32be 231f 203c c4d8 69be d5a6 3fbe
00000110: a60b 243e 1e3e a0be 3476 1c3e ce1d 073e
00000120: 7f45 683e fced cd3d 4675 acbe a909 14be
00000130: c9de b63e cdee 5ebe 1d93 3abd 8988 a8bd
00000140: 24ce 9e3e 3591 60be 7861 893e d37a 35be
00000150: 56df ce3d 9aba 673d 58c0 443e 5b1e 8f3e
00000160: c4d5 e43d be4e fabd 79f3 83be 50d6 87be
00000170: b8c6 dc3d bf55 1f3e dcf0 703d a86f 3a3e
00000180: 953d a2bd bb52 e93d 9cb7 a9bd 25e8 8abc
00000190: 595b 5e3e b701 79be ed2d 51bd fa07 a63d
000001a0: 2b1f f73c d0ac 3abe 86ce 823e bea7 013d
000001b0: 6927 dcbe 774e 103e 7c03 df3d 6f2e 0ebe
000001c0: ca43 bc3d 1083 3bbe a8f2 113c fd6d 143d
000001d0: 0521 12be cf69 e6bd 1cd3 bfbd a37f 193e
000001e0: 6ff1 4ebd 2baf 28be 8aaf 87bd 5669 6bbe
000001f0: d3f6 dd3d 7eaa 8e3c 1c5d 99bd 7ed7 a6be
00000200: d75b 1abe 8b51 3a3e 5f4f 2a3e a0c7 19be
00000210: e45d 6d3d 6268 193e 1add ae3d 3564 a3be
00000220: 109c 1c3d 15d7 213e cb97 0f3e 9710 6e3d
00000230: 90e0 abbe 0f62 0dbd c011 94be 88bb 8cbd
00000240: 4349 aa3d 5bc7 503e 906c 873b 78b8 63bd
00000250: 7264 523d dfe5 6c3d 4ab6 66bd 78f5 cb3c
00000260: 1960 543e f9f2 313e 923b 7abe d2fa 41be
00000270: 244e b6be e801 c13d e022 e6bd d79b 42be
00000280: 68a7 673e efca bcbd 9560 233e 2352 bd3e
00000290: 5c57 d6bc 8384 e53e 9e91 2d3e d6b5 1bbd
000002a0: a6a2 24be e2fa a2bc 9914 88bd 967a da3c
000002b0: d9b9 9a3e 29a1 9b3d 8a7c d6bb 3589 abbc
000002c0: 3124 3f3e 96b1 133d 3ff2 61be f2c1 0e3e
000002d0: d0e1 02be 3822 723d 2ad9 bbbe 363c 07be
000002e0: bcba 803e 3490 e33e bca4 003d 3eea 7cbe
000002f0: 312a 313d 3636 d23e 3f87 6abe c23e 643e
00000300: 3cb8 673e 8b08 5b3e e76f 96bc 8bd3 20be
00000310: f6f9 0b3e f06b ccbe e8cb 953c 42b5 ec3d
00000320: 6ff3 8d3d 364d 8c3e 5d53 e93d edda c4bd
00000330: b465 373d 28c2 073e d1c7 903d 5680 0fbe
00000340: bb21 503c f7c8 473d 9131 313e f487 803d
00000350: 6c5d 0e3e 7f74 3dbe 0278 a8bc 189a 05be
00000360: c954 e4bd 5bcd 62bd 2234 d5bd 403e 24bd
00000370: a082 c0bd 14e8 7f3e 98ed d63d ebed 003e
00000380: f8d8 9cbe 6ec9 b9bd 9775 123e 3bb6 81bd
00000390: 8587 303d ae56 523b 11bc 13bd fdc4 48be
000003a0: 2f74 64bd 4e0f 68be 498a e23d 74b4 d2be
000003b0: 5d2f 393e 3146 c4be fd4f 693e 1494 65be
000003c0: 1c78 10bd 9d30 fbbd 5e4e 73be 88bc 7cbe
000003d0: 8c75 66bd a338 e8bd e32e 233d fff4 313e
000003e0: e7d1 353d b454 27bc 49a5 c0be f8b4 99be
000003f0: 68b6 0e3d 7e91 6abd 1661 0d3d 6e42 27be
