models/fsrcnn/track1/track1_x4__epoch_6.pth (torch, 58227 bytes, 22 tensors)

first_part.0.weight f4 [56, 1, 5, 5]
-0.014009192 0.04562918 0.022420105 0.008589789 -0.013859061 -0.031301666 0.031244263 -0.01979296
-0.03590009 0.007804056 0.05995506 -0.021815604 0.032669406 0.022574542 0.014613411 0.030867297
-0.02168651 -0.010389294 0.07261205 -0.0018652345 -0.0032276593 0.008243906 0.055240054 0.0030679058
-0.04406085 -0.029324083 -0.03859888 -0.0425483 0.0055823834 0.047096193 -0.04425864 0.04016634
-0.040190507 -0.01556392 0.004589599 -0.032359093 0.015351573 0.0041796775 -0.00033569112 -0.064941406
-0.003919439 0.028849192 -0.006387318 0.0018212278 -0.015776886 0.038347032 -0.0008705691 -0.089301534
0.048805695 0.002169152 -0.026913863 -0.04830433 -0.012954204 -0.015065099 0.02038417 -0.006049847
0.00258348 -0.020150503 -0.025384394 -0.07379446 -0.04043714 -0.07948665 -0.05941468 -0.013746416
-0.055519547 0.044836387 -0.056418125 -0.0667949 -0.028588085 -0.01355608 -0.060693976 0.045998953
0.040394265 -0.041690253 -0.01848114 0.035347987 -0.00074201095 0.05887585 0.018527001 -0.02125662
-0.03979181 -0.016961358 0.0085866945 -0.045269452 -0.000811802 0.009698588 0.09294809 -0.033613786
-0.07428898 0.029086197 0.047251973 -0.04570357 -0.057818864 -0.0016807289 -0.00032953353 0.03164791
-0.065311946 -0.016505783 -0.042271923 -0.10145885 0.008010266 -0.039282233 -0.03067597 -0.084540606
-0.01448497 -0.018824171 0.0731666 0.0031335612 0.039026212 -0.005355693 0.006490856 -0.07821449
-0.038964678 0.0008796922 0.015740138 -0.01252552 -0.07726779 -0.052340917 -0.029448932 0.04418218
-0.047124244 -0.014713783 0.04939759 -0.0699037 0.020629758 -0.07940715 -0.04973083 0.04659188
0.021713734 0.012670709 0.031987824 -0.035530787 -0.013469148 -0.05664317 0.0019388109 -0.047106277
-0.024710549 0.038935516 0.029621549 -0.033191666 0.054451592 -0.0580844 0.022811638 -0.014671933
-0.009224454 0.048329864 -0.005063889 -0.0034758702 -0.015522093 -0.028753333 -0.09511183 0.022476302
0.012814803 0.06867423 -0.016950617 -0.013344489 0.019423889 0.02684717 -0.047352016 -0.05418974
-0.012469594 -0.055334847 -0.016535249 -0.013407949 0.035468165 -0.081534274 0.01960956 -0.031234205
0.01140834 -0.016991945 -0.063392654 0.012843029 -0.0036800127 -0.00343418 -0.06747333 0.06475028
-0.03576789 0.067678146 -0.1099658 -0.016671466 0.0015373292 0.033245392 -0.093388446 0.06413253
0.05790652 0.022735035 -0.0845005 0.23343141 -0.019488063 0.012104866 0.02073243 -0.09453695
0.079321474 -0.10356063 0.11002615 0.08157788 0.015241836 0.013987045 0.03386469 0.034109082
0.025468823 0.05874567 -0.004021728 0.0060543558 0.027455421 0.032446757 0.041301977 -0.016852623
0.02212681 -0.006632553 0.0048460513 -0.02098234 0.07312671 0.0077323094 -0.017528864 -0.00012881054
0.014790132 0.024254093 -0.015141611 -0.037587248 0.021602321 0.02683984 0.094432205 -0.03921159
0.014375716 0.07875009 -0.040044587 -0.05868408 0.05367124 -0.05897528 -0.014606588 0.0045867288
0.028423304 -0.049070694 0.012695568 0.011074476 -0.017298697 0.07440266 0.050655585 0.043658067
0.052476477 -0.0010384892 0.013135538 -0.041376032 0.049786277 0.032874387 0.038752932 0.024333453
0.058297917 0.04918038 -0.021634208 0.03327584 -0.04712874 -0.005177467 -0.048108023 0.012634027
00000000: cf86 65bc aae5 3a3d 5eaa b73c 30bc 0c3c
00000010: 1d11 63bc 2d36 00bd f8f3 ff3c d824 a2bc
00000020: f90b 13bd 2bb9 ff3b 7093 753d a3b6 b2bc
00000030: 5bd0 053d 3fee b83c 176d 6f3c 6add fc3c
00000040: e8a7 b1bc db37 2abc a0b5 943d e27a f4ba
00000050: 2387 53bb 7311 073c 6543 623d eb0e 493b
00000060: 2679 34bd 0f39 f0bc dc19 1ebd 2047 2ebd
00000070: 6dec b63b f0e7 403d 8c48 35bd 7685 243d
00000080: cd9e 24bd d0ff 7ebc 5964 963b f88a 04bd
00000090: 2a85 7b3c adf5 883b b3ff afb9 0000 85bd
000000a0: a36e 80bb 2455 ec3c b54c d1bb 44b6 ee3a
000000b0: 873e 81bc c711 1d3d e736 64ba b9e3 b6bd
000000c0: 7be8 473d 5528 0e3b 767a dcbc c3da 45bd
000000d0: df3d 54bc 9bd3 76bc b4fc a63c cc3d c6bb
000000e0: 9a4f 293b ab12 a5bc eff2 cfbc 8d21 97bd
000000f0: 6aa1 25bd e6c9 a2bd cf5c 73bd a638 61bc
00000100: 7768 63bd 5ca6 373d b116 67bd c4cb 88bd
00000110: 8f31 eabc 521a 5ebc 3f9a 78bd 6669 3c3d
00000120: 7574 253d 66c3 2abd c265 97bc 0dc9 103d
00000130: 8383 42ba ce27 713d f0c5 973c 5d22 aebc
00000140: bdfc 22bd 8cf2 8abc 35af 0c3c 766c 39bd
00000150: 1ccf 54ba d4e6 1e3c 915b be3d 9cae 09bd
00000160: d224 98bd 2d46 ee3c 498b 413d ab33 3bbd
00000170: 79d3 6cbd e74b dcba 3ec5 acb9 3da1 013d
00000180: 45c2 85bd 2337 87bc 5325 2dbd a8c9 cfbd
00000190: 7e3d 033c 68e6 20bd 2c4c fbbc a023 adbd
000001a0: 5e52 6dbc 2635 9abc 5fd8 953d 6f5c 4d3b
000001b0: f3d9 1f3d cf7e afbb 3fb1 d43b eb2e a0bd
000001c0: 6d99 1fbd 259b 663a 76f1 803c d737 4dbc
000001d0: 933e 9ebd 6e63 56bd e33e f1bc 60f8 343d
000001e0: 5a05 41bd 1412 71bc 2155 4a3d ac29 8fbd
000001f0: bdff a83c 37a0 a2bd 8eb2 4bbd 21d7 3e3d
00000200: 00e1 b13c ce98 4f3c aa05 033d bb88 11bd
00000210: b4ad 5cbc ab02 68bd b31f fe3a 83f2 40bd
00000220: c76d cabc d97a 1f3d e4a8 f23c fcf3 07bd
00000230: a208 5f3d e8e9 6dbd 79df ba3c 8c62 70bc
00000240: 2a22 17bc 89f5 453d fbee a5bb 6dcb 63bb
00000250: 6050 7ebc 1c8c ebbc fec9 c2bd 3920 b83c
00000260: 2ef5 513c 13a5 8c3d 05dc 8abc d8a2 5abc
00000270: d91e 9f3c 99ee db3c 30f4 41bd 10f6 5dbd
00000280: 454d 4cbc cba6 62bd ee74 87bc 04ad 5bbc
00000290: 1147 113d 71fb a6bd 3aa4 a03c e0de ffbc
000002a0: 0cea 3a3c b132 8bbc 02d4 81bd 916b 523c
000002b0: 5e2c 71bb fb0f 61bb 752f 8abd cb9b 843d
000002c0: 5a81 12bd d79a 8a3d c035 e1bd 9992 88bc
000002d0: 3580 c93a 522c 083d 7142 bfbd ea57 833d
000002e0: 632f 6d3d d33e ba3c 990e adbd a508 6f3e
000002f0: 6ea5 9fbc 7d53 463c 0fd7 a93c 979c c1bd
00000300: 4c73 a23d 9817 d4bd 6455 e13d 4e12 a73d
00000310: e5b8 793c eb29 653c b4b5 0a3d f7b5 0b3d
00000320: fea3 d03c 4d9f 703d b3c8 83bb 9e63 c63b
00000330: 31ea e03c e4e6 043d 432c 293d 830e 8abc
00000340: 4943 b53c e355 d9bb a0cb 9e3b 28e3 abbc
00000350: 75c3 953d 505f fd3b b198 8fbc 5111 07b9
00000360: 4f52 723c 85b0 c63c 8514 78bc 16f5 19bd
00000370: 5af7 b03c 39df db3c ac65 c13d 559c 20bd
00000380: 2088 6b3c ba47 a13d cb05 24bd b85e 70bd
00000390: 60d6 5b3d 1090 71bd 7850 6fbc 454c 963b
000003a0: fdd7 e83c 5afe 48bd 1201 503c b871 353c
000003b0: ffb5 8dbc 6c60 983d 3b7c 4f3d cdd2 323d
000003c0: 93f1 563d ea1d 88ba 7136 573c ea79 29bd
000003d0: b2ec 4b3d 4ba7 063d 65bb 1e3d f356 c73c
000003e0: ccc9 6e3d 5e71 493d 393a b1bc 3f4c 083d
000003f0: 110a 41bd bea7 a9bb eb0c 45bd f3fe 4e3c

first_part.0.bias f4 [56]
-0.0053610853 -0.0011870372 0.0019458999 0.00018691168 0.0061956164 -0.008131395 0.0009993318 0.015279906
-0.007798424 -0.0072033335 -0.0059894314 -0.0016399991 0.015748613 0.010627203 0.031389255 -0.009760533
6.4404696e-05 -0.006514461 0.0066159437 -0.0224422 0.0035953203 -0.0021319964 -0.0036417195 -0.0058920165
-0.01222712 0.008836875 -0.0052721677 0.0055797696 -0.0138541935 0.0029531766 -0.0032940786 0.002303653
-0.0039518313 -0.005183014 0.0003293663 0.009310374 -0.0013219507 0.000385745 0.0037878384 0.016294178
0.06900169 0.0044017686 0.00805371 -0.029040786 -0.003366369 0.0013299951 -0.016556354 -0.004171776
-0.087131225 0.012924251 -0.013382999 0.024274867 -0.00087743415 0.0049384576 -0.004035225 0.03884518
00000000: 0bac afbb 5c96 9bba 910d ff3a b9fd 4339
00000010: 9904 cb3b 8b39 05bc 03fc 823a 9258 7a3c
00000020: ec89 ffbb f109 ecbb fe42 c4bb 3df5 d6ba
00000030: 3c03 813c b81d 2e3c 0592 003d a5ea 1fbc
00000040: 0211 8738 4277 d5bb 8fca d83b b4d8 b7bc
00000050: 779f 6b3b f7b8 0bbb eaa9 6ebb d111 c1bb
00000060: 4254 48bc 8ac8 103c 26c2 acbb 80d6 b63b
00000070: b3fc 62bc 158a 413b 78e1 57bb e2f8 163b
00000080: 5d7e 81bb 46d6 a9bb ccae ac39 8a8a 183c
00000090: 4e45 adba d13d ca39 623d 783b 5e7b 853c
000000a0: c250 8d3d b63c 903b b5f3 033c f1e6 edbc
000000b0: 4d9e 5cbb 3b53 ae3a 31a1 87bc 65b3 88bb
000000c0: db71 b2bd 3dc0 533c 5e44 5bbc 16dc c63c
000000d0: 9c03 66ba c9d2 a13b ec39 84bb 201c 1f3d

first_part.1.weight f4 [56]
0.24439743 0.2463676 0.25729227 0.26100492 0.24819936 0.26210946 0.25086525 0.2901053
1.0837413 0.13601604 1.2615554 0.25207314 0.79641616 0.25381783 0.24001008 0.052563574
0.34185243 0.28121898 0.25690836 0.20093945 0.25658122 1.4099365 0.24633321 0.24431303
0.116724886 0.24575233 1.266238 0.2536069 0.29669568 0.27087 0.24395658 0.289876
1.1329652 0.35079548 0.24637036 0.25313154 0.25106052 0.042898607 0.27201673 0.25138742
0.5285631 0.26531884 0.2537901 0.3182541 0.75606287 0.2076205 1.6534173 0.2520177
0.54762083 0.24377878 1.3132515 0.2500887 0.22270282 0.18006113 0.2699943 0.25938278
00000000: 5243 7a3e ca47 7c3e d0bb 833e 70a2 853e
00000010: f927 7e3e 3633 863e 6971 803e af88 943e
00000020: 09b8 8a3f ca47 0b3e a67a a13f bb0f 813e
00000030: eee1 4b3f 69f4 813e 34c5 753e e74c 573d
00000040: 4807 af3e effb 8f3e 7e89 833e 12c3 4d3e
00000050: 9d5e 833e cd78 b43f c63e 7c3e 322d 7a3e
00000060: 750d ef3d 80a6 7b3e 1614 a23f c3d8 813e
00000070: 7fe8 973e 79af 8a3e c1cf 793e a16a 943e
00000080: 0105 913f 779b b33e 8348 7c3e 759a 813e
00000090: 018b 803e 73b6 2f3d c745 8b3e dab5 803e
000000a0: e94f 073f dfd7 873e c7f0 813e 34f2 a23e
000000b0: 568d 413f 789a 543e 2ea3 d33f 7708 813e
000000c0: e130 0c3f 25a1 793e a018 a83f a00b 803e
000000d0: 350c 643e f261 383e b13c 8a3e d2cd 843e

mid_part.0.weight f4 [12, 56, 1, 1]
0.51314825 0.213669 -0.7565973 0.24108814 0.39322844 0.3357112 -0.08445073 0.5104306
0.16631804 -1.1815794 0.5090463 -0.07661569 -0.5453573 1.0619274 0.4304338 0.4075296
0.09254737 0.06811216 0.55521715 -0.24644637 0.01223798 0.70753926 -0.3639579 -0.46126524
-0.07495626 -0.076227754 0.42253503 -0.7247495 0.26926795 0.39904627 0.044844735 0.3532969
0.54042345 0.13751613 -0.558955 -0.6881188 -0.054026753 -0.047348525 -0.27135846 0.3738221
-0.09277639 0.50133276 -0.3841523 -0.1194997 -0.13342036 -0.15239121 -0.10750836 -0.6084849
-0.1540337 -0.5814986 -0.09991945 -0.16442949 -0.67266583 0.15813212 -0.29788008 -0.20803052
-0.31152028 -0.9765614 0.4970793 -0.0009942707 0.013270315 0.79748625 0.7440942 0.51961434
0.027652895 -0.0918565 -0.06639446 -0.486825 0.18839873 0.1856548 -0.618519 0.13647285
-0.54673886 0.2433016 0.62433016 -0.107521094 0.8504376 -0.2550658 0.07996081 -0.37778676
-0.3796176 -0.084834225 0.08470425 -0.5488714 0.5755484 0.79741377 -0.19174896 0.43062532
0.16906612 -0.39437807 -0.09380833 -0.14480776 0.24369746 0.21968548 -0.6948891 -0.2504933
0.23723796 0.69593835 -0.2882362 0.8486416 0.73109967 0.12438888 0.44581884 0.09230165
0.31559294 -0.11853363 0.8478984 -0.5467938 -0.009697201 -0.23093721 0.6601779 -0.45194456
0.27598596 -0.6067814 -0.26745743 -0.39877707 -0.07496077 0.6074683 -0.117694736 -0.045761652
0.65190893 0.79161793 0.09797239 0.8156145 -0.4339684 -0.15004 -0.10001725 0.40079147
-0.008670026 -0.13877174 0.47383887 0.370938 -0.5367928 0.23322223 -0.12878673 -0.30554008
0.41288912 -0.3286454 -0.1580257 -0.2571725 -0.4914485 0.4145548 0.019682493 -0.14565693
0.48964387 0.7025449 0.6331002 0.3820986 0.31964803 0.3118626 -0.4746012 0.111747704
-0.024090027 0.12780884 -0.21214603 -0.0055331606 0.13885646 0.41173887 0.25153902 0.48330233
-0.011052084 0.598498 0.21643159 -0.56849676 0.01800427 0.4322082 -0.35050768 -0.32309455
0.045761246 0.30563664 -0.13444288 0.15439366 0.25390264 -0.013777471 -0.16832623 0.32837373
-0.57562214 -0.376301 0.56282747 -0.36054572 0.36512524 -0.48679262 0.63285136 -0.090733156
0.13851191 0.22906333 -0.04472523 0.87391055 -0.48763314 0.6333995 -0.32772732 -0.38943034
0.4840099 0.06520604 -0.43865246 0.954066 0.11652594 0.40034375 -0.047964446 -0.1349794
-0.51107955 0.2140615 -0.11497695 0.4724097 0.13328372 -0.1190302 -0.011569043 0.20778604
-0.07142455 1.0655887 0.774689 0.6701667 -0.972391 -0.23791924 0.47300565 -0.091242164
0.3866173 0.5722207 -0.29000914 -0.47669592 -0.34898633 0.45534578 -0.2118992 0.5005913
-0.25801402 0.10618271 0.12716408 0.0798351 -0.16081125 -0.3435312 -0.20259607 0.55799115
0.47088856 -0.27027655 -0.15476006 0.012860054 -1.3618251 0.7956719 0.81889325 -0.08843996
0.3519368 -0.18320599 0.30294687 -0.39261594 0.22056067 0.2861677 0.37009332 0.029072503
-0.10362569 -0.114504166 0.54335654 0.23330683 -0.6869881 -0.36884758 0.06408834 0.20508969
00000000: af5d 033f 0ccc 5a3e 5cb0 41bf cfdf 763e
00000010: 3d55 c93e 57e2 ab3e 81f4 acbd 94ab 023f
00000020: 474f 2a3e fe3d 97bf dc50 023f b0e8 9cbd
00000030: 899c 0bbf 3ded 873f d261 dc3e b8a7 d03e
00000040: 7a89 bd3d 637e 8b3d b622 0e3f 705c 7cbe
00000050: cf81 483c 4b21 353f b158 babe f52a ecbe
00000060: ab82 99bd 4c1d 9cbd 8356 d83e 2f89 39bf
00000070: 7ddd 893e cb4f cc3e 1daf 373d 55e3 b43e
00000080: 3159 0a3f 07d1 0c3e ad17 0fbf 8e28 30bf
00000090: 284b 5dbd 87f0 41bd 7fef 8abe 9c65 bf3e
000000a0: 8c01 bebd 5857 003f 9caf c4be 42bc f4bd
000000b0: 599f 08be 710c 1cbe 582d dcbd abc5 1bbf
000000c0: 03bb 1dbe 18dd 14bf 92a2 ccbd 3460 28be
000000d0: d433 2cbf 63ed 213e bd83 98be f405 55be
000000e0: 967f 9fbe eeff 79bf 2e81 fe3e 3052 82ba
000000f0: bc6b 593c 0f28 4c3f f57c 3e3f 7205 053f
00000100: 5388 e23c 431f bcbd d2f9 87bd 2041 f9be
00000110: 99eb 403e 4b1c 3e3e 4357 1ebf 8abf 0b3e
00000120: 14f7 0bbf 0e24 793e 1ad4 1f3f 0534 dcbd
00000130: 47b6 593f fc97 82be 7ec2 a33d 446d c1be
00000140: 3d5d c2be 91bd adbd 6c79 ad3d d682 0cbf
00000150: 2457 133f 4f23 4c3f d759 44be ec7a dc3e
00000160: ab1f 2d3e eceb c9be 951e c0bd 7c48 14be
00000170: d48b 793e 3bf5 603e 41e4 31bf a840 80be
00000180: 82ee 723e 0429 323f b293 93be 9340 593f
00000190: 5929 3b3f 99bf fe3d 5e42 e43e a608 bd3d
000001a0: 6695 a13e c3c1 f2bd df0f 593f aefa 0bbf
000001b0: 02e1 1ebc ce7a 6cbe 6b01 293f 4765 e7be
000001c0: 084e 8d3e 0756 1bbf 2ef0 88be 822c ccbe
000001d0: 0885 99bd 0b83 1b3f f009 f1bd 9270 3bbd
000001e0: 81e3 263f 79a7 4a3f c0a5 c83d 1dcc 503f
000001f0: 1b31 debe 16a4 19be d8d5 ccbd 8a34 cd3e
00000200: ba0c 0ebc 2e1a 0ebe 029b f23e 96eb bd3e
00000210: 416b 09bf cfd1 6e3e abe0 03be c06f 9cbe
00000220: 3466 d33e 3644 a8be 7dd1 21be 1dac 83be
00000230: 239f fbbe 8740 d43e 2e3d a13c 1727 15be
00000240: 9ab2 fa3e fcd9 333f db12 223f 6da2 c33e
00000250: e8a8 a33e 74ac 9f3e eefe f2be fbdb e43d
00000260: 7358 c5bc 52e0 023e cf3c 59be 844f b5bb
00000270: 6330 0e3e 70cf d23e b9c9 803e 6773 f73e
00000280: cd13 35bc 2a37 193f 3ea0 5d3e 0189 11bf
00000290: b17d 933c 654a dd3e be75 b3be a66c a5be
000002a0: 2570 3b3d 687c 9c3e 65ab 09be 5f19 1e3e
000002b0: 87ff 813e e7ba 61bc b65d 2cbe 9a20 a83e
000002c0: f95b 13bf 86aa c0be 7615 103f 7399 b8be
000002d0: b2f1 ba3e e23c f9be 8c02 223f 4ed2 b9bd
000002e0: 11d6 0d3e 948f 6a3e ce31 37bd 9ab8 5f3f
000002f0: 0dab f9be 7826 223f e0cb a7be 6a63 c7be
00000300: 25d0 f73e bf8a 853d 0e97 e0be ab3d 743f
00000310: 27a5 ee3d dbf9 cc3e 5e76 44bd 0a38 0abe
00000320: 1cd6 02bf f032 5b3e 0979 ebbd afdf f13e
00000330: 877b 083e 1bc6 f3bd 158c 3dbc ddc5 543e
00000340: 0947 92bd 3665 883f 0552 463f 0b90 2b3f
00000350: 9eee 78bf 1aa1 73be cc2d f23e 2cdd babd
00000360: b4f2 c53e 0e7d 123f 147c 94be 7d11 f4be
00000370: 56ae b2be 1523 e93e 1bfc 58be c026 003f
00000380: 6a1a 84be 5276 d93d 4d37 023e 9680 a33d
00000390: b4ab 24be 52e3 afbe 5875 4fbe 82d8 0e3f
000003a0: 4e18 f13e b061 8abe 6c79 1ebe fab2 523c
000003b0: 4950 aebf 27b1 4b3f fda2 513f 0220 b5bd
000003c0: 0f31 b43e 5a9a 3bbe da1b 9b3e f504 c9be
000003d0: a8da 613e 9384 923e df7c bd3e 7529 ee3c
000003e0: b539 d4bd 2981 eabd 6a19 0b3f fce7 6e3e
000003f0: 74de 2fbf 97d9 bcbe bf40 833d 0803 523e

mid_part.0.bias f4 [12]
0.005347941 -0.02654669 -0.0042143776 0.0014422066 0.069254756 0.0031490962 0.021394923 0.039008133
-0.021703785 -0.0017801763 -0.0048896857 0.033746798
00000000: c83d af3b 7278 d9bc c318 8abb 6c08 bd3a
00000010: 70d5 8d3d 1161 4e3b 6844 af3c fec6 1f3d
00000020: 23cc b1bc ce54 e9ba a839 a0bb 153a 0a3d

mid_part.1.weight f4 [12]
0.26729107 0.36973906 0.24992615 0.2591642 0.40675282 0.36227536 0.2432467 0.46243504
0.29227605 0.41233534 0.34036717 0.2808967
00000000: 60da 883e 704e bd3e a4ec 7f3e 2cb1 843e
00000010: e841 d03e 287c b93e aa15 793e 49c4 ec3e
00000020: 35a5 953e 9e1d d33e 9b44 ae3e b1d1 8f3e

mid_part.2.weight f4 [12, 12, 3, 3]
0.25746098 -0.025339426 0.018919913 -0.2680857 0.12066815 -0.11366165 -0.05787543 -0.11783959
0.08097955 0.19085108 -0.22098342 0.2154446 0.038479246 -0.12241872 -0.11680221 -0.074074164
-0.15905458 0.035917744 0.08942938 0.15646355 0.056755416 0.15954208 0.0072713494 -0.02847305
0.26080516 0.062058594 -0.072366424 0.006131375 -0.07566904 0.12924828 0.1313609 -0.2968516
-0.27845335 -0.12662114 -0.050902665 0.18996687 -0.17586033 -0.11488544 -0.0940617 -0.019527134
0.25309062 -0.24009217 0.03239992 -0.01513183 0.048239097 0.2152493 0.04324786 0.211371
-0.052669067 -0.10800598 0.07813153 -0.09288172 0.06934122 -0.10341155 -0.18306626 0.015548646
-0.0007822781 0.23328067 -0.09625111 0.027077727 -0.10769013 0.12665023 0.15375109 0.13057692
-0.06340086 0.24505761 0.009485944 0.0128222 -0.0008401631 0.005272604 -0.23116848 -0.20723116
-0.012969064 -0.020319108 0.04612652 -0.19122393 0.27715945 -0.06751147 -0.06283892 -0.060008977
0.022108365 -0.18301862 0.014240245 0.038880914 0.04260672 0.10953773 0.13099922 -0.11792975
-0.03951795 0.020529417 0.07045709 -0.006123007 0.2352116 -0.12072027 -0.047617454 -0.07233868
0.04030075 0.10196385 0.033740174 0.030464374 -0.05643863 -0.10058868 -0.021858351 0.08095928
0.02880771 0.06655804 0.055699315 0.012276539 0.011435078 -0.052078106 -0.0075895726 0.018020447
0.0721928 -0.26012957 0.20137534 0.062459916 0.12777607 0.1474505 0.09291431 -0.008994946
0.23083186 0.11838126 0.0025277818 0.050076585 -0.11571373 0.14715564 -0.02993242 -0.32553285
-0.16249348 0.02014996 0.05931464 -0.29503384 -0.11003907 0.095027216 -0.09506308 0.012168772
0.2616682 -0.08598472 -0.008618239 -0.079768926 -0.003791376 -0.1152375 0.34751242 -0.14312604
0.23174186 -0.16419844 -0.04776476 -0.18240026 -0.14074942 0.03855232 -0.07951199 -0.093464926
-0.005938044 -0.11483111 0.042933468 -0.26242843 0.009689179 0.10335062 0.09546831 0.14072761
-0.06151172 -0.028967626 0.1901031 -0.19730958 -0.15968592 -0.012661841 0.2038616 -0.045085464
-0.2980823 -0.021776125 0.11392742 -0.17127043 0.16741212 -0.11151578 -0.04165029 0.22078858
0.15255639 -0.056545462 -0.11947367 -0.105147734 0.09266715 -0.10583208 0.09069486 -0.020828238
0.07926689 -0.30335754 0.042818524 -0.073808625 -0.05968493 -0.117661804 -0.085490964 -0.066144325
0.011473873 -0.06353026 -0.0029838802 -0.17170508 -0.0383512 0.022298511 -0.07640223 0.13069953
0.04022075 0.2495128 -0.047795177 -0.13325617 -0.138522 0.03832288 0.12396001 0.27235287
0.20032944 0.074958615 0.10725337 0.08960275 0.16115607 -0.00048314818 0.118724726 0.15260515
0.067854136 -0.15699965 -0.03353393 -0.028144833 0.18815084 0.17673789 0.1500437 -0.02144316
0.28755948 -0.0778947 -0.10578488 0.06985714 0.19681959 -0.07071653 -0.016856983 -0.05700319
0.10264735 0.0966315 0.14331073 -0.2683463 -0.20252769 0.061803453 -0.12944567 -0.008583039
0.11198932 0.026324885 0.03593819 -0.13831416 0.0067932745 -0.0669881 0.24104592 0.1872759
0.1800131 0.02764713 0.14779864 0.03912342 0.32389995 -0.22280934 -0.08859798 0.035890047
00000000: edd1 833e a194 cfbc effd 9a3c 8742 89be
00000010: dd20 f73d 70c7 e8bd c90e 6dbd e255 f1bd
00000020: 9bd8 a53d 776e 433e 7a49 62be 829d 5c3e
00000030: 6a9c 1d3d aab6 fabd ff35 efbd 32b4 97bd
00000040: 34df 22be 7c1e 133d c026 b73d fb37 203e
00000050: 5e78 683d 005f 233e 8044 ee3b 5040 e9bc
00000060: 4188 853e 2731 7e3d d934 94bd b4e9 c83b
00000070: 5ff8 9abd a959 043e 7983 063e effc 97be
00000080: 7091 8ebe f9a8 01be 507f 50bd ad86 423e
00000090: bb14 34be 0f49 ebbd 6ca3 c0bd 5ef7 9fbc
000000a0: 1895 813e b9da 75be c7b5 043d 7feb 77bc
000000b0: 5c96 453d 506a 5c3e ab24 313d a471 583e
000000c0: 85bb 57bd 3d32 ddbd 6c03 a03d c538 bebd
000000d0: c502 8e3d 6fc9 d3bd b975 3bbe c0bf 7e3c
000000e0: cb11 4dba 21e1 6e3e 4d1f c5bd 1cd2 dd3c
000000f0: a58c dcbd 99b0 013e ed70 1d3e f5b5 053e
00000100: 4fd8 81bd 62f0 7a3e ef6a 1b3c 3414 523c
00000110: 643e 5cba cfc5 ac3b 6eb7 6cbe 6834 54be
00000120: 327c 54bc 4274 a6bc 29ef 3c3d 35d0 43be
00000130: d8e7 8d3e 7443 8abd b1b1 80bd f9cb 75bd
00000140: 9a1c b53c 3c69 3bbe eb4f 693c 9841 1f3d
00000150: 6284 2e3d 5155 e03d a924 063e 2785 f1bd
00000160: 93dd 21bd 4f2d a83c cf4b 903d 81a3 c8bb
00000170: 4fdb 703e 303c f7bd 850a 43bd 4d26 94bd
00000180: 6612 253d 6cd2 d03d 2333 0a3d 6c90 f93c
00000190: 312c 67bd 7001 cebd 4910 b3bc fbcd a53d
000001a0: 26fe eb3c 954f 883d f724 643d 8923 493c
000001b0: 325a 3b3c da4f 55bd f3b1 f8bb 9e9f 933c
000001c0: d2d9 933d b42f 85be 5635 4e3e f8d5 7f3d
000001d0: bbd7 023e 44fd 163e dc49 be3d 8a5f 13bc
000001e0: 305f 6c3e e071 f23d 24a9 253b 1b1d 4d3d
000001f0: 52fb ecbd f8af 163e d634 f5bc 3eac a6be
00000200: b164 26be 8711 a53c e8f3 723d ad0e 97be
00000210: 2a5c e1bd a19d c23d 6fb0 c2bd 875f 473c
00000220: 60f9 853e c218 b0bd 8433 0dbc e45d a3bd
00000230: bc78 78bb a301 ecbd 26ed b13e a28f 12be
00000240: bd4d 6d3e a323 28be fba4 43bd 22c7 3abe
00000250: 9e20 10be 0ae9 1d3d 2fd7 a2bd 8a6a bfbd
00000260: ec93 c2bb 932c ebbd 01db 2f3d 055d 86be
00000270: 5dbf 1e3c 7da9 d33d e484 c33d e61a 103e
00000280: b7f3 7bbd 844d edbc 63aa 423e 860b 4abe
00000290: b584 23be 9c73 4fbc 18c1 503e 89ab 38bd
000002a0: 3e9e 98be d863 b2bc c752 e93d 8461 2fbe
000002b0: 156e 2b3e 6362 e4bd 7f99 2abd 6716 623e
000002c0: be37 1c3e 379c 67bd 9dae f4bd b257 d7bd
000002d0: 46c8 bd3d 7dbe d8bd 3abe b93d fb9f aabc
000002e0: ae56 a23d ae51 9bbe 7a62 2f3d fa28 97bd
000002f0: 2f78 74bd acf8 f0bd e315 afbd ad76 87bd
00000300: e9fc 3b3c 271c 82bd 348d 43bb 75d3 2fbe
00000310: 2616 1dbd 5eab b63c c678 9cbd 19d6 053e
00000320: 83be 243d 4980 7f3e e0c4 43bd 4e74 08be
00000330: b6d8 0dbe 74f8 1c3d bfde fd3d d671 8b3e
00000340: 2923 4d3e e783 993d a8a7 db3d a681 b73d
00000350: 1906 253e 0d4f fdb9 f325 f33d 8644 1c3e
00000360: 1cf7 8a3d 84c4 20be e05a 09bd fe8f e6bc
00000370: 9daa 403e c7fa 343e 0ea5 193e 91a9 afbc
00000380: ff3a 933e 4287 9fbd bea5 d8bd 4311 8f3d
00000390: 138b 493e d4d3 90bd a817 8abc 2d7c 69bd
000003a0: c638 d23d bce6 c53d 0cc0 123e b064 89be
000003b0: 6b63 4fbe 9e25 7d3d 688d 04be e09f 0cbc
000003c0: a85a e53d 49a7 d73c ec33 133d 3aa2 0dbe
000003d0: 1e9a de3b 0f31 89bd bed4 763e 41c5 3f3e
000003e0: 5b55 383e 3c7c e23c 8758 173e e13f 203d
000003f0: 37d6 a53e 2228 64be dc72 b5bd 7101 133d

mid_part.2.bias f4 [12]
0.003886127 0.007838843 -0.004745989 0.0040992326 0.03055838 -0.0034208938 -0.0047028787 7.6588905e-05
0.023248311 0.0013417592 0.021288423 0.026675453
00000000: 64ae 7e3b 7e6e 003c 3e84 9bbb db52 863b
00000010: 9155 fa3c 1331 60bb 9b1a 9abb 5b9e a038
00000020: 3e73 be3c f8dd af3a 0f65 ae3c 7b86 da3c

mid_part.3.weight f4 [12]
-0.33989713 0.24644738 0.262051 0.7662779 0.35530293 0.25253168 0.4139067 0.14134686
0.22814266 0.59302264 0.2619413 0.25012589
00000000: ff06 aebe b45c 7c3e 8c2b 863e ca2a 443f
00000010: 44ea b53e d54b 813e 94eb d33e 3bbd 103e
00000020: 3b9e 693e 55d0 173f 2c1d 863e 8010 803e

mid_part.4.weight f4 [12, 12, 3, 3]
0.028315462 -0.07540213 0.22076094 0.29672033 -0.044564564 0.123582095 -0.14458975 0.067671366
-0.0853636 -0.21109979 -0.11659895 0.33527383 -0.056818552 0.15596303 -0.15813997 -0.11110134
0.0077774464 0.22837295 -0.13960053 0.14107943 0.009480098 0.12753919 -0.019470835 -0.08161104
-0.0575874 0.16769595 0.17510764 -0.048959028 -0.32346222 0.058794558 0.1674156 -0.14755951
-0.27025917 -0.12392345 0.19870004 0.10046794 -0.11263976 0.16482426 0.075998604 -0.24648558
0.3349613 -0.0077587157 -0.31092337 -0.0015466597 0.15641633 -0.024306871 -0.07971127 0.12222195
-0.23772883 0.06750257 -0.34649226 0.060526315 0.2475592 -0.14474763 0.11995309 -0.24135177
-0.098785035 0.10532519 -0.008221288 -0.13826114 -0.031218851 -0.2699498 0.2847447 0.04666228
-0.12230468 0.17348182 -0.038890906 0.04701282 0.11396491 -0.23121221 -0.10098615 -0.0717669
-0.036028832 0.018401852 -0.094970316 -0.16922261 0.003176305 0.005152302 0.05451604 -0.05101507
0.18722376 0.105115265 -0.013956355 0.21608225 0.11650742 0.1550058 -0.034120813 0.08317827
0.17200805 -0.33392623 0.043813866 0.2003856 -0.060780346 0.17146878 -0.22266357 0.09173325
-0.12435891 0.01883012 0.030073224 0.21612847 -0.049461383 0.281905 -0.32661167 0.24498156
-0.48402813 -0.03622093 0.17361958 0.30291033 0.11943444 -0.22165608 -0.04736453 0.27406102
0.08684269 0.0980872 0.2895321 -0.23964624 0.03603043 -0.022233166 0.062751845 -0.03736949
0.2904764 0.057890527 0.3253211 -0.24418558 -0.2526872 -0.08080085 -0.20797928 0.11776116
-0.05200213 -0.46144 -0.16951238 -0.049013164 -0.5426901 -0.18410002 0.099466994 0.020161234
0.17174542 0.23240788 0.17173858 0.3298313 0.06259173 0.36791566 0.34437442 -0.095646106
-0.024571756 -0.027447162 -0.031645928 -0.18981841 -0.016906645 0.0009824364 -0.34075117 -0.05124069
-0.031352103 -0.030573739 -0.18789372 0.2855431 -0.24365766 -0.045697637 0.13879529 -0.1257099
0.033588674 -0.06717924 0.26771733 -0.039790533 -0.0503786 0.36604846 -0.088077925 0.023859764
0.12450458 -0.041812353 -0.25231668 0.3378439 -0.24579223 -0.24079378 -0.04534272 -0.0020907812
0.075995035 0.16565761 0.13480435 0.42672056 -0.06945203 -0.26575586 -0.16843419 -0.020084854
-0.11995911 0.07769951 0.19870692 0.28305602 0.113279745 -0.4153774 0.1265589 -0.15220019
0.19296482 0.22414908 -0.036023162 0.036145132 -0.014039097 0.10329537 -0.1042914 -0.36304379
-0.011872081 0.4057079 0.39576906 0.1347309 -0.39428428 -0.24004637 0.14366838 -0.23352624
-0.2549748 -0.2895539 -0.19549379 0.056583975 6.0877096e-06 0.6003802 0.36602104 0.26927638
0.19585532 -0.19495015 0.15205733 0.07161446 0.035458487 -0.012859149 -0.15844889 0.3035429
0.038319036 0.21909413 0.014796456 0.17152947 -0.020664142 0.03041786 0.10400467 -0.00091370475
0.07593079 0.01391493 -0.109839454 0.052441236 0.17664453 -0.038085893 0.17160414 0.15953024
0.03959238 -0.013560736 -0.1917708 -0.29590666 -0.12083852 -0.0724135 0.07199306 0.16111785
0.1570645 0.16941518 -0.136087 0.07852892 -0.06812092 -0.32319564 -0.12600939 -0.1105737
00000000: d4f5 e73c 6f6c 9abd 280f 623e baeb 973e
00000010: 5589 36bd 9c18 fd3d 560f 14be 4997 8a3d
00000020: 1cd3 aebd 8b2a 58be 6ecb eebd 03a9 ab3e
00000030: 92ba 68bd c6b4 1f3e 72ef 21be 1989 e3bd
00000040: f3d9 fe3b 99da 693e 71f3 0ebe 2077 103e
00000050: 6a52 1b3c a299 023e 4d81 9fbc b023 a7bd
00000060: c4e0 6bbd 7db8 2b3e 6b4f 333e 4389 48bd
00000070: d79c a5be 90d2 703d ff6e 2b3e d719 17be
00000080: 695f 8abe 94cb fdbd 0678 4b3e 23c2 cd3d
00000090: adaf e6bd b1c7 283e 28a5 9b3d b766 7cbe
000000a0: 0c80 ab3e d33c febb 5931 9fbe 4ab9 caba
000000b0: 9a2b 203e 341f c7bc aa3f a3bd 804f fa3d
000000c0: 306f 73be ca3e 8a3d 6f67 b1be 71ea 773d
000000d0: 2980 7d3e b938 14be f7a9 f53d eb24 77be
000000e0: cf4f cabd bcb4 d73d 95b2 06bc 5494 0dbe
000000f0: adbe ffbc dc36 8abe 0fca 913e f220 3f3d
00000100: e07a fabd 38a5 313e 124c 1fbd 8490 403d
00000110: 6f66 e93d e5c2 6cbe d4d1 cebd 86fa 92bd
00000120: f892 13bd 7bbf 963c cc7f c2bd b148 2dbe
00000130: 8e29 503b a4d4 a83b 364c 5f3d 2ef5 50bd
00000140: 96b7 3f3e ac46 d73d 32a9 64bc aa44 5d3e
00000150: 719b ee3d d7b9 1e3e 44c2 0bbd 5e59 aa3d
00000160: e122 303e 61f8 aabe 2b76 333d e231 4d3e
00000170: d0f4 78bd 8395 2f3e eb01 64be a4de bb3d
00000180: e2af febd a041 9a3c 1f5c f63c c850 5d3e
00000190: 0598 4abd da55 903e a539 a7be 72dc 7a3e
000001a0: 89d2 f7be 665c 14bd 55c9 313e 1017 9b3e
000001b0: 0b9a f43d d0f9 62be 4f01 42bd ba51 8c3e
000001c0: 95da b13d f1e1 c83d 8d3d 943e d365 75be
000001d0: a594 133d 5422 b6bc 0a84 803d c010 19bd
000001e0: 53b9 943e 9e1e 6d3d 7d90 a63e c90b 7abe
000001f0: 3760 81be eb7a a5bd 85f8 54be c32c f13d
00000200: 2f00 55bd dd41 ecbe a794 2dbe 07c2 48bd
00000210: bded 0abf b784 3cbe 5ab5 cb3d 2c29 a53c
00000220: 08de 2f3e 55fc 6d3e 3ddc 2f3e a6df a83e
00000230: 1830 803d 715f bc3e d851 b03e 1be2 c3bd
00000240: b54a c9bc dfd8 e0bc 299f 01bd c25f 42be
00000250: ce7f 8abc 18c5 803a f076 aebe c2e1 51bd
00000260: 106b 00bd c775 fabc 3667 40be b532 923e
00000270: 6581 79be 722d 3bbd 5a20 0e3e 19ba 00be
00000280: 4794 093d 4595 89bd 3f12 893e 66fb 22bd
00000290: ca59 4ebd b46a bb3e 3362 b4bd 8d75 c33c
000002a0: 42fc fe3d 6e43 2bbd a72f 81be e0f9 ac3e
000002b0: f5b0 7bbe a592 76be 4ab9 39bd 7d05 09bb
000002c0: 49a3 9b3d 26a2 293e 270a 0a3e 1e7b da3e
000002d0: de3c 8ebd 2711 88be 037a 2cbe fe88 a4bc
000002e0: 1fad f5bd ec20 9f3d d479 4b3e b8ec 903e
000002f0: 36ff e73d 59ac d4be a898 013e 5eda 1bbe
00000300: 9298 453e 5687 653e 068d 13bd eb0c 143d
00000310: 3e04 66bc 868c d33d bb96 d5bd e0e0 b9be
00000320: 1e83 42bc f2b8 cf3e 3ea2 ca3e e6f6 093e
00000330: a1df c9be b7ce 75be ce1d 133e 8121 6fbe
00000340: 0f8c 82be 6940 94be 862f 48be 99c4 673d
00000350: 0745 cc36 84b2 193f 1c67 bb3e 98de 893e
00000360: 4c8e 483e 03a1 47be ebb4 1b3e 9aaa 923d
00000370: eb3c 113d 2eaf 52bc 6d40 22be fa69 9b3e
00000380: 6cf4 1c3d 365a 603e d66c 723c 6ca5 2f3e
00000390: d947 a9bc e02e f93c 6700 d53d b085 6fba
000003a0: 9a81 9b3d 72fb 633c 82f3 e0bd 9fcc 563d
000003b0: 4ee2 343e f4ff 1bbd ffb8 2f3e e55b 233e
000003c0: 9f2b 223d d92d 5ebc 915f 44be 1481 97be
000003d0: 307a f7bd 874d 94bd 1971 933d 14fc 243e
000003e0: 84d5 203e 2c7b 2d3e 645a 0bbe c5d3 a03d
000003f0: fb82 8bbd e679 a5be 9b08 01be 7774 e2bd

mid_part.4.bias f4 [12]
0.02985408 0.007921982 -0.022006767 0.019476281 -0.004460405 -0.0027949528 -0.0015721143 0.007600366
0.019549675 0.008177085 -0.021303073 -0.0101121785
00000000: 8b90 f43c 33cb 013c 8947 b4bc b98c 9f3c
00000010: 9728 92bb 872b 37bb 670f ceba 7e0c f93b
00000020: a426 a03c 2ef9 053c c883 aebc 8dad 25bc

mid_part.5.weight f4 [12]
0.57580477 0.62370604 0.3267576 0.2596429 1.9588301 0.7511536 -0.15914822 0.08818806
0.7707444 0.7961664 0.42034262 0.25410318
00000000: f167 133f 33ab 1f3f c64c a73e eaef 843e
00000010: f2ba fa3f 9a4b 403f c0f7 22be f19b b43d
00000020: 814f 453f 90d1 4b3f 2637 d73e d019 823e

mid_part.6.weight f4 [12, 12, 3, 3]
0.061746683 -0.07016827 -0.019260641 0.041063685 0.12511039 0.16594386 -0.021888997 0.09252592
0.02964503 0.039949976 0.26240882 0.19090052 0.09348768 0.2110144 0.2665238 -0.008247478
-0.2890371 0.05857843 0.08000225 -0.15836534 0.043758724 0.12259627 0.014875921 -0.07807637
-0.18930656 -0.13991903 0.17287597 0.1316335 -0.13152617 -0.18659393 -0.07165507 0.089675106
0.11856449 0.073893785 -0.34815857 -0.16888863 -0.0049184063 0.16215977 -0.075772084 0.17233616
0.12727553 -0.13434044 -0.04464104 0.18053272 -0.036246154 -0.12873843 -0.40936494 0.10836584
0.22033079 0.0026339346 0.05168259 0.09392704 0.11100144 0.18473694 0.17753904 -0.20169406
0.04983512 0.09242439 0.053354036 0.062177137 0.20676918 0.19772433 0.13105786 -0.11510454
-0.085519455 0.14363146 -0.039916523 -0.16174962 0.024520563 0.07156088 0.04125879 -0.18814558
-0.047153372 0.09266785 0.15210555 -0.033789884 0.061020102 -0.027619677 -0.07707183 -0.18761969
0.038717404 -0.032997314 0.18249628 0.00056393363 -0.16777505 0.06193188 0.1887329 -0.20154639
-0.12413072 -0.23729423 -0.091807984 0.14656967 0.10892865 -0.05893675 -0.21743013 0.10711733
-0.07928395 0.16725308 -0.028004257 0.113162525 0.054219227 0.05523131 0.06245153 -0.12389892
-0.012299281 0.15661265 -0.13313188 0.011317879 0.34843275 0.14515287 0.02040977 -0.11937009
-0.21127293 0.15288903 0.14752841 0.08407823 0.004771008 -0.10590962 -0.012797711 0.154093
-0.016836904 0.12951508 0.07098503 0.17487094 -0.14096044 -0.010585169 0.12470479 0.02553398
0.017440816 0.19096735 0.054267958 0.18422373 -0.030593866 -0.07283394 0.021253593 0.118623465
0.02129568 -0.038782064 -0.12883794 0.14994726 0.018028816 -0.13272698 -0.21882164 0.06293436
0.056043465 -0.106412634 0.16398099 0.12733832 -0.049313087 -0.12133039 0.074694805 0.23187633
0.058699183 0.075385 0.04028346 0.11954189 -0.181861 0.016812958 -0.039048746 0.0017589771
0.0171274 0.048692066 0.17856471 0.004810004 0.03767647 0.03401064 0.0989688 -0.034779377
-0.06969152 -0.079766236 -0.07602999 0.14807038 -0.02381024 0.087095425 0.031232845 0.17050073
-0.21552323 -0.024317252 -0.02447207 -0.11353146 0.2186195 -0.28547534 0.13494143 -0.00010322982
0.053198043 0.20518246 0.0028917212 0.166315 -0.0457942 0.09598704 0.0061423164 0.0523631
0.14741774 0.22569527 -0.17131543 0.0111414 0.15547135 0.2008876 0.11088282 0.19163835
0.09766783 -0.19464116 -0.24440561 -0.028140722 0.13083954 -0.11011727 0.2882588 -0.07964762
-0.023476176 -0.035790984 0.062157247 0.06033689 0.007379883 -0.24639452 -0.22249487 0.061396774
-0.27566367 -0.03190509 -0.20857815 -0.011774307 -0.11040263 -0.0895449 0.26819262 0.17669183
-0.19876873 -0.14510082 -0.1823765 0.03352935 -0.12539205 0.034009647 -0.14152014 0.2795516
0.18889774 0.1716784 -0.13197444 0.13868988 0.01591018 0.070799306 0.0053084283 -0.14531448
0.15344574 -0.13946705 -0.2836263 0.17716177 0.08228707 0.025525643 0.17571189 0.11164203
-0.12363494 -0.18228608 -0.1306601 0.020209689 -0.29440373 -0.18484166 0.17489219 -0.051569134
00000000: 17ea 7c3d 62b4 8fbd 7ec8 9dbc 6532 283d
00000010: f01c 003e 30ed 293e 8e50 b3bc 3b7e bd3d
00000020: 22da f23c 96a2 233d 735a 863e 6d7b 433e
00000030: 7876 bf3d 2914 583e cf75 883e 6e20 07bc
00000040: acfc 93be f0ef 6f3d 38d8 a33d 862a 22be
00000050: 593c 333d c113 fb3d 23ba 733c 81e6 9fbd
00000060: 94d9 41be ef46 0fbe 6606 313e efca 063e
00000070: ccae 06be 7b12 3fbe e5bf 92bd 95a7 b73d
00000080: f0d1 f23d a055 973d d741 b2be 24f1 2cbe
00000090: 952a a1bb 360d 263e 652e 9bbd e478 303e
000000a0: 8454 023e 8a90 09be 86d9 36bd 92dd 383e
000000b0: d976 14bd 02d4 03be 4898 d1be e9ee dd3d
000000c0: 659e 613e 179e 2c3b 20b1 533d d25c c03d
000000d0: b954 e33d ae2b 3d3e cbcc 353e e388 4ebe
000000e0: e91f 4c3d 0049 bd3d c389 5a3d 74ad 7e3d
000000f0: 4dbb 533e 3f78 4a3e 0834 063e eebb ebbd
00000100: d324 afbd 2014 133e 827f 23bd b1a1 25be
00000110: 59df c83c 838e 923d fafe 283d 3ca9 40be
00000120: e523 41bd a4c8 bd3d 8fc1 1b3e 4367 0abd
00000130: 37f0 793d a942 e2bc d6d7 9dbd 601f 40be
00000140: 2496 1e3d 3128 07bd 4ee0 3a3e f2d4 133a
00000150: 39cd 2bbe 48ac 7d3d 3343 413e 2d62 4ebe
00000160: 3f38 febd 42fd 72be d305 bcbd 5c16 163e
00000170: fc15 df3d a967 71bd 01a6 5ebe 5560 db3d
00000180: a05f a2bd 6444 2b3e 2f69 e5bc c1c1 e73d
00000190: fb14 5e3d 3a3a 623d 2dcd 7f3d b8be fdbd
000001a0: ec82 49bc 115f 203e b953 08be a06e 393c
000001b0: c765 b23e f4a2 143e 6432 a73c 4e78 f4bd
000001c0: ee57 58be f18e 1c3e b011 173e 3531 ac3d
000001d0: 1e56 9c3b 25e7 d8bd 7ead 51bc 8eca 1d3e
000001e0: 8ced 89bc 9a9f 043e 9960 913d 5e11 333e
000001f0: ef57 10be 6b6d 2dbc 3a65 ff3d a32c d13c
00000200: 0be0 8e3c f28c 433e 1448 5e3d 25a5 3c3e
00000210: fd9f fabc f629 95bd 041c ae3c dcf0 f23d
00000220: 4774 ae3c f1d9 1ebd 18ee 03be c68b 193e
00000230: 2bb1 933c 95e9 07be c812 60be bbe3 803d
00000240: d58d 653d deee d9bd a2ea 273e fa64 023e
00000250: 85fc 49bd 117c f8bd 97f9 983d fd70 6d3e
00000260: 8e6e 703d 7363 9a3d 4500 253d 61d2 f43d
00000270: c539 3abe 54bb 893c 94f1 1fbd 7a8d e63a
00000280: c34e 8c3c 5571 473d abd9 363e 3d9d 9d3b
00000290: a452 1a3d be4e 0b3d 27b0 ca3d d274 0ebd
000002a0: 6dba 8ebd 7b5c a3bd 9db5 9bbd c39f 173e
000002b0: b10d c3bc 165f b23d 06dc ff3c be97 2e3e
000002c0: 1fb2 5cbe f934 c7bc a779 c8bc 2f83 e8bd
000002d0: cadd 5f3e d329 92be 162e 0a3e 167d d8b8
000002e0: 31e6 593d 5a1b 523e 0883 3d3b 7b4e 2a3e
000002f0: b392 3bbd da94 c43d 7c45 c93b b17a 563d
00000300: adf4 163e a91c 673e 506d 2fbe 6b8a 363c
00000310: e233 1f3e 7bb5 4d3e 8816 e33d d83c 443e
00000320: 1206 c83d 0350 47be 7745 7abe 5f87 e6bc
00000330: cdfa 053e 2a85 e1bd a896 933e 4b1e a3bd
00000340: 1c51 c0bc 9199 12bd 9998 7e3d d123 773d
00000350: f2d2 f13b d84e 7cbe b2d5 63be 2f7b 7b3d
00000360: ca23 8dbe e9ae 02bd 8395 55be 06e9 40bc
00000370: c61a e2bd 5163 b7bd 8b50 893e b4ee 343e
00000380: 088a 4bbe 4f95 14be e8c0 3abe 1256 093d
00000390: c666 00be b34d 0b3d a8ea 10be 6321 8f3e
000003a0: 696e 413e 76cc 2f3e 4f24 07be b804 0e3e
000003b0: 1156 823c 3aff 903d 53f2 ad3b 52cd 14be
000003c0: e120 1d3e 73d0 0ebe 7737 91be e569 353e
000003d0: 2086 a83d 271b d13c d1ed 333e 94a4 e43d
000003e0: 5134 fdbd 34a9 3abe c3cb 05be ca8e a53c
000003f0: 16bc 96be 2247 3dbe f016 333e 283a 53bd

mid_part.6.bias f4 [12]
0.018842906 0.0066723963 0.017773958 0.0023993813 0.014833247 0.027832765 0.028720137 0.023604862
-0.008578676 0.0026633027 0.021595169 -0.046469215
00000000: 705c 9a3c 1ea4 da3b b19a 913c f03e 1d3b
00000010: 2607 733c 8a01 e43c 7e46 eb3c fc5e c13c
00000020: 938d 0cbc ce8a 2e3b 5ae8 b03c 8156 3ebd

mid_part.7.weight f4 [12]
0.29123518 0.54308546 0.29143986 0.27919424 -0.05751046 0.8653162 0.35096005 0.15330946
0.26177186 0.2129241 -0.2880582 0.22401646
00000000: c71c 953e a607 0b3f 9b37 953e 8cf2 8e3e
00000010: 1790 6bbd 5d85 5d3f 09b1 b33e 28fd 1c3e
00000020: f606 863e c608 5a3e 5d7c 93be 9264 653e

mid_part.8.weight f4 [12, 12, 3, 3]
0.10467026 -0.11293527 -0.19216748 -0.0798502 0.2344449 0.13455242 -0.29932234 0.14189246
-0.06561666 -0.047591753 0.034893658 0.0677092 0.089506134 0.309897 0.038708154 0.19674823
0.05660812 -0.055248447 0.083045796 -0.037498366 -0.008861469 -0.2244419 -0.03539087 -0.02137865
0.052792214 -0.18007262 -0.0072662877 -0.059335187 -0.0816216 0.0289285 -0.16934818 -0.062656
0.10646107 0.006985493 -0.10761696 -0.19486557 -0.022111705 -0.014420555 0.019214693 0.10426048
-0.015169556 0.22856492 -0.089995064 0.057798706 -0.020295454 0.06912704 0.14599699 0.045238905
-0.17074932 0.06243594 0.03077161 0.33999363 -0.17381889 0.09571827 0.113589175 -0.34621462
0.037913818 0.04306762 -0.03351383 -0.05016226 -0.11222989 -0.11476782 0.041096892 -0.013187942
0.30782783 0.012071297 0.050987255 0.20444736 -0.091546394 -0.17544627 -0.010355175 -0.21532364
-0.25236678 0.03934807 0.061654028 0.008653042 0.1846455 -0.14295237 -0.061964344 -0.12620662
-0.12764193 0.077888235 -0.06282008 -0.13918692 -0.14164428 -0.053725835 -0.025468782 0.22778884
-0.038954988 -0.0008650304 0.014402156 0.1568511 0.019474162 -0.06621271 -0.036832735 0.044485264
0.08283775 0.08521641 -0.04715176 0.1956637 0.41951612 -0.19493304 0.44371447 -0.0064848405
0.2135741 -0.19336818 0.13636103 0.23387113 0.10912493 -0.09057556 -0.15283984 0.21722196
0.15026398 0.011395398 0.06328785 -0.26471043 -0.23508051 0.053415857 -0.14896679 0.013855782
0.121992454 0.20814006 -0.24203318 -0.16323262 0.005230265 -0.10543289 0.053924378 -0.021474965
0.091053285 0.04775982 -0.26803687 0.24963394 -0.11597939 0.07381836 0.021944229 -0.04842483
0.3559144 0.047673423 0.13524655 -0.004191949 0.07665633 -0.18055919 0.06814201 0.11043315
0.1552123 0.0048766215 -0.10207252 0.04219643 0.19245397 -0.29785866 0.15809889 -0.32987675
0.06308102 0.14181171 0.14993705 -0.021689348 0.07408888 0.2186089 0.06319746 -0.21814328
-0.045675244 -0.021811415 -0.03137447 -0.009072006 0.16665217 0.12148537 0.01730172 0.05791006
-0.0154931415 -0.050140575 0.07547615 0.16236562 0.21082559 0.12745336 0.10948908 -0.3554957
0.05231985 0.03423603 -0.057141285 0.067471154 0.08866629 -0.009760687 0.0021744093 0.056982797
-0.13053693 0.03893707 0.28398734 -0.09176025 0.1042779 0.2865533 0.015062165 0.011511733
0.24076663 0.040339198 0.23236935 0.191513 -0.00608603 0.05663863 0.007440356 -0.037630595
0.07808406 -0.00957627 -0.17345518 -0.1342021 -0.09632387 0.07643929 0.18065825 0.17584805
-0.20324644 0.117592864 0.14860965 0.058796227 0.08583133 -0.011751964 0.001854754 0.2060847
-0.04874663 0.17213684 0.10675502 -0.007922582 0.075698435 -0.1133908 0.054959156 0.111538485
0.14136964 0.06918621 0.059846498 0.19203131 0.022593291 0.18378003 -0.12669867 0.097694404
0.08095489 -0.1287283 -0.011590114 -0.037823398 -0.16600688 -0.052898336 -0.18023653 0.023194132
-0.049621664 -0.040574193 -0.026505806 -0.21269146 -0.07942583 -0.06806658 0.23065911 0.08112704
-0.20046107 0.044489156 -0.053635024 0.007767012 0.071114875 0.04457871 -0.26601216 0.17855263
00000000: 5c5d d63d 9b4a e7bd 8dc7 44be 8088 a3bd
00000010: 5312 703e 1cc8 093e c740 99be 424c 113e
00000020: 0762 86bd 92ef 42bd a7ec 0e3d 1fab 8a3d
00000030: fe4e b73d d2aa 9e3e 718c 1e3d 5e78 493e
00000040: ebdd 673d 324c 62bd ea13 aa3d e397 19bd
00000050: b22f 11bc 19d4 65be 04f6 10bd 4722 afbc
00000060: a63c 583d f564 38be 0a1a eebb 7409 73bd
00000070: 3a29 a7bd 76fb ec3c 9c69 2dbe ca51 80bd
00000080: 4308 da3d 90e6 e43b 4866 dcbd d78a 47be
00000090: 9b23 b5bc 3144 6cbc 2268 9d3c 8586 d53d
000000a0: bb89 78bc ec0c 6a3e 554f b8bd 56be 6c3d
000000b0: a742 a6bc 7a92 8d3d 3c80 153e 6e4c 393d
000000c0: e9d8 2ebe d4bc 7f3d be14 fc3c a513 ae3e
000000d0: 94fd 31be f107 c43d 71a1 e83d 0b43 b1be
000000e0: 854b 1b3d ac67 303d cc45 09bd f176 4dbd
000000f0: c9d8 e5bd 640b ebbd 3755 283d 3d12 58bc
00000100: 9c9b 9d3e b0c6 453c 03d8 503d a65a 513e
00000110: ad7c bbbd 30a8 33be c0a8 29bc cd7d 5cbe
00000120: 3836 81be 712b 213d ef88 7c3d 7dc5 0d3c
00000130: b613 3d3e 1b62 12be 53ce 7dbd 4f3c 01be
00000140: 91b4 02be de83 9f3d d0a7 80bd 0487 0ebe
00000150: 330b 11be 9f0f 5cbd e8a3 d0bc 7a41 693e
00000160: 448f 1fbd 35c3 62ba 05f7 6b3c 939d 203e
00000170: 4788 9f3c 889a 87bd ecdd 16bd 2e36 363d
00000180: d7a6 a93d f185 ae3d 3422 41bd 115c 483e
00000190: d1ca d63e 879c 47be 8b2e e33e c97e d4bb
000001a0: 2bb3 5a3e 4f02 46be 3aa2 0b3e ea7b 6f3e
000001b0: e47c df3d ae7f b9bd 0c82 1cbe 6f6f 5e3e
000001c0: cdde 193e c3b3 3a3c 0f9d 813d 2088 87be
000001d0: f2b8 70be 96ca 5a3d c08a 18be 5d03 633c
000001e0: 2ed7 f93d ab22 553e 8cd7 77be 7426 27be
000001f0: a562 ab3b 33ed d7bd cfdf 5c3d 44ec afbc
00000200: 257a ba3d cd9f 433d 213c 89be 0aa0 7f3e
00000210: 9a86 edbd 152e 973d 62c4 b33c 1d59 46bd
00000220: 6a3a b63e 3545 433d 127e 0a3e 9e5c 89bb
00000230: fefd 9c3d 82e4 38be 0a8e 8b3d c62a e23d
00000240: f9ef 1e3e 11cc 9f3b 660b d1bd 2ad6 2c3d
00000250: a712 453e ee80 98be ade4 213e 9be5 a8be
00000260: 9f30 813d 1737 113e 1989 193e dcad b1bc
00000270: e9bb 973d 03db 5f3e ab6d 813d f460 5fbe
00000280: f715 3bbd daad b2bc 8482 00bd c0a2 14bc
00000290: dea6 2a3e 52cd f83d 56bc 8d3c 1933 6d3d
000002a0: f2d6 7dbc 3460 4dbd 3d93 9a3d 2c43 263e
000002b0: aae2 573e 2283 023e d03b e03d 8803 b6be
000002c0: 574d 563d 143b 0c3d fb0c 6abd 512e 8a3d
000002d0: ac96 b53d 4aeb 1fbc 8980 0e3b cb66 693d
000002e0: 79ab 05be 7a7c 1f3d ca66 913e ccec bbbd
000002f0: a78f d53d 1db7 923e 4dc7 763c b59b 3c3c
00000300: 878b 763e b73a 253d 3bf2 6d3e fc1b 443e
00000310: 526d c7bb e8fd 673d 3bce f33b 8a22 1abd
00000320: 89ea 9f3d cae5 1cbc 3c9e 31be 466c 09be
00000330: 7345 c5bd 348c 9c3d 7afe 383e 8311 343e
00000340: d61f 50be 87d4 f03d 212d 183e 50d4 703d
00000350: 56c8 af3d 4f8b 40bc 381b f33a de07 533e
00000360: 8caa 47bd a444 303e 60a2 da3d b8cd 01bc
00000370: c807 9b3d 7039 e8bd da1c 613d 4a6e e43d
00000380: 34c3 103e 80b1 8d3d 9a21 753d dba3 443e
00000390: 9115 b93c d530 3c3e 4cbd 01be 0114 c83d
000003a0: adcb a53d 5ad1 03be 76e4 3dbc b5ec 1abd
000003b0: b5fd 29be edab 58bd ed8f 38be 9f01 be3c
000003c0: 1640 4bbd 2031 26bd b422 d9bc cacb 59be
000003d0: 02aa a2bd 7e66 8bbd e731 6c3e ef25 a63d
000003e0: ab45 4dbe 433a 363d 66b0 5bbd 6b82 fe3b
000003f0: ada4 913d 2a98 363d bf32 88be 80d6 363e

mid_part.8.bias f4 [12]
-0.0012035777 0.01096492 0.0006970366 -0.013317162 0.0048435414 0.005138619 0.00284188 0.013919354
-0.014472784 0.057436593 0.020272795 0.010803653
00000000: 5ec1 9dba 35a6 333c 56b9 363a 3a30 5abc
00000010: 92b6 9e3b dc61 a83b d63e 3a3b 010e 643c
00000020: 411f 6dbc a242 6b3d 2213 a63c ce01 313c

mid_part.9.weight f4 [12]
-0.936631 -0.03164491 0.372045 0.25989205 0.66134375 1.1891687 0.094627485 0.44399145
0.26721337 0.2441957 0.088071264 1.1335964
00000000: 0dc7 6fbf 189e 01bd af7c be3e 9210 853e
00000010: d34d 293f ae36 983f 0ecc c13d d952 e33e
00000020: 31d0 883e 700e 7a3e b55e b43d b019 913f

mid_part.10.weight f4 [56, 12, 1, 1]
-0.07621641 0.1809612 -0.051122706 -0.38356945 -0.08685001 0.25045198 0.10239027 0.29855883
-0.16849296 -0.082927585 0.36543992 -0.12819636 0.069800675 0.17128175 0.07744864 -0.046825964
-0.23295295 0.3112727 -0.059361402 0.3320882 0.00829185 0.09906126 0.20380178 0.103785865
-0.051278807 0.12781627 0.009604203 -0.22559454 -0.3386306 -0.32031837 0.34531155 0.03336143
0.05306344 -0.16752274 -0.1848945 -0.00060779153 0.06410033 -0.21021034 -0.039924994 -0.13355495
-0.17542309 -0.34377754 0.32870907 0.57165724 -0.3023199 -0.034241665 0.11568611 0.1684461
-0.18975243 0.16070786 0.34299684 0.11606157 -0.05664146 0.18009883 -0.064480126 0.2334544
0.22126354 -0.086334094 0.14120054 -0.23166476 -0.16782178 -0.11232729 0.14069523 0.30071363
-0.17508264 0.008054659 -0.22748725 -0.1846665 0.163629 -0.33084807 0.06113989 0.13353418
0.22219744 0.083525814 -0.3361602 -0.15034425 0.3382363 -0.21428931 -0.038195025 -0.08601825
0.30555537 -0.22217381 0.045550745 -0.18466173 0.18395069 0.015600631 0.15590058 0.3600267
0.060579874 -0.12842566 -0.29798192 -0.24165273 0.05051931 0.38615385 0.6303606 0.16892679
-0.081496395 0.13617298 -0.06869181 -0.0411798 0.21460895 -0.22176242 -0.04026965 0.067640126
-0.011306804 -0.2234281 0.11475361 0.08456433 -0.42913556 0.13234739 0.13229278 -0.1405626
0.09710639 -0.21608716 0.010398717 0.07437354 -0.17231649 -0.14914279 -0.06926371 0.14448838
-0.0535682 -0.15814142 -0.06350587 -0.23196468 0.110868305 0.01871197 -0.07750923 -0.33086348
-0.15363021 0.16967171 0.1591321 -0.14735277 0.059768967 0.15220225 0.08446426 -0.31873006
0.04358927 0.15813269 0.14089152 0.05894242 -0.33809257 -0.025596358 -0.16134787 -0.06708436
0.065072805 0.20612113 -0.0062702303 -0.047342185 0.059570946 0.05944609 -0.065976776 -0.022785004
0.23203863 0.33909976 -0.37200543 -0.19351877 -0.34222558 0.017549554 -0.19478527 -0.091776654
0.04825802 -0.16920325 0.017012406 0.2920011 0.19670324 0.5279806 0.6832587 -0.2538747
-0.16172811 -0.016820926 -0.07362847 0.044595547 0.2823391 0.06543022 -0.017611194 -0.025451964
0.16489406 -0.008694969 -0.15470941 0.13242596 -0.1626871 0.1398289 -0.37339166 -0.07925896
0.26057085 0.4060051 0.0033873632 -0.3024214 0.017320853 0.33128718 -0.38673243 0.18662527
0.22884643 0.21594308 -0.02208188 -0.15291074 0.13211693 -0.39795455 0.014392773 0.11237219
0.064537145 0.29210964 0.21787882 -0.09478288 0.046461694 0.13204531 0.07003446 -0.14075235
0.015806103 0.048310228 0.17298806 0.0649113 0.1350675 -0.16946955 0.10828044 -0.1302213
-0.13816373 -0.041692343 -0.08954429 -0.054631542 -0.07934751 0.23586012 0.0965281 0.13390192
-0.27899718 -0.007507182 -0.14457573 -0.10302759 0.0428612 0.0003255406 -0.03490628 -0.19611858
-0.056963325 -0.2281782 0.1116844 -0.40929893 0.18155682 -0.39863047 0.11490312 -0.22138396
-0.037195466 -0.12456985 -0.23473117 -0.251889 -0.05448634 -0.119153544 0.04596961 0.18040113
0.052050717 0.0024899575 -0.52428657 -0.30406708 0.033236858 -0.06697919 0.029790167 -0.16256808
00000000: 5917 9cbd e54d 393e 0b66 51bd 3763 c4be
00000010: 6bde b1bd 3e3b 803e fdb1 d13d b4dc 983e
00000020: 6b89 2cbe f0d5 a9bd f11a bb3e e845 03be
00000030: a8f3 8e3d 7c64 2f3e 649d 9e3d 95cc 3fbd
00000040: 388b 6ebe 235f 9f3e f124 73bd 7707 aa3e
00000050: 8ada 073c a1e0 ca3d 6ab1 503e af8d d43d
00000060: ba09 52bd 45e2 023e f25a 1d3c 4102 67be
00000070: fd60 adbe c500 a4be adcc b03e ffa5 083d
00000080: 0d59 593d 158b 2bbe fc54 3dbe 3354 1fba
00000090: 0947 833d 6141 57be 6488 23bd a1c2 08be
000000a0: 1ca2 33be 9c03 b0be 8e4c a83e 2158 123f
000000b0: adc9 9abe fd40 0cbd d7ec ec3d 227d 2c3e
000000c0: 764e 42be 9a90 243e 489d af3e b0b1 ed3d
000000d0: e000 68bd d46b 383e 280e 84bd ac0e 6f3e
000000e0: e992 623e eecf b0bd e096 103e 8739 6dbe
000000f0: 79d9 2bbe da0b e6bd 6912 103e 23f7 993e
00000100: dd48 33be b0f7 033c 6bf2 68be 3719 3dbe
00000110: 5c8e 273e eb64 a9be d26d 7a3d 2fbd 083e
00000120: ba87 633e 950f ab3d 311d acbe d8f3 19be
00000130: 4f2d ad3e a86e 5bbe 6372 1cbd 562a b0bd
00000140: c171 9c3e 8881 63be 6b93 3a3d f717 3dbe
00000150: 925d 3c3e ca99 7f3c 67a4 1f3e 6b55 b83e
00000160: 9a22 783d 0482 03be 1691 98be d073 77be
00000170: 56ed 4e3d f5b5 c53e 505f 213f 25fb 2c3e
00000180: 95e7 a6bd ee70 0b3e 4bae 8cbd 26ac 28bd
00000190: 73c2 5b3e b015 63be caf1 24bd e886 8a3d
000001a0: 2c40 39bc 56ca 64be f103 eb3d 1030 ad3d
000001b0: a8b7 dbbe 1386 073e c277 073e a4ef 0fbe
000001c0: b7df c63d f445 5dbe 615f 2a3c 2851 983d
000001d0: bc73 30be e3b8 18be 22da 8dbd c3f4 133e
000001e0: 546a 5bbd d3ef 21be 5e0f 82bd 2688 6dbe
000001f0: ec0e e33d d849 993c 29bd 9ebd f066 a9be
00000200: 3d51 1dbe 6cbe 2d3e 86f3 223e a5e3 16be
00000210: 4ed0 743d e8da 1b3e 99fb ac3d 9630 a3be
00000220: aa8a 323d 89ed 213e de45 103e 9b6d 713d
00000230: 781a adbe 74af d1bc 6038 25be 8663 89bd
00000240: e444 853d 6b11 533e 8176 cdbb e1e9 41bd
00000250: aa00 743d be7d 733d d51e 87bd 9ea7 babc
00000260: 899b 6d3e 7c9e ad3e 7f77 bebe c929 46be
00000270: 3138 afbe 15c4 8f3c ca75 47be 66f5 bbbd
00000280: 34aa 453d 9e43 2dbe 9a5d 8b3c 2b81 953e
00000290: 936c 493e bd29 073f 0bea 2e3f ddfb 81be
000002a0: 0e9c 25be 0acc 89bc 86ca 96bd d2a9 363d
000002b0: c08e 903e 4700 863d 5a45 90bc a380 d0bc
000002c0: fdd9 283e 5875 0ebc 256c 1ebe ac9a 073e
000002d0: 7297 26be 4f2f 0f3e 312d bfbe 8652 a2bd
000002e0: 8b69 853e e7df cf3e 86fe 5d3b fad6 9abe
000002f0: 76e4 8d3c 799e a93e cb01 c6be b21a 3f3e
00000300: b856 6a3e 2f20 5d3e 0fe5 b4bc a294 1cbe
00000310: a949 073e b3c0 cbbe aacf 6b3c 6423 e63d
00000320: 0d2c 843d 658f 953e a01b 5f3e 871d c2bd
00000330: 9e4e 3e3d e336 073e 3a6e 8f3d 6221 10be
00000340: cd7b 813c f2e0 453d c823 313e 37f0 843d
00000350: 224f 0a3e 6d89 2dbe 23c2 dd3d bc58 05be
00000360: cb7a 0dbe 97c5 2abd ff62 b7bd 53c5 5fbd
00000370: f380 a2bd 5185 713e 86b0 c53d 961d 093e
00000380: b8d8 8ebe cffe f5bb a90b 14be 2100 d3bd
00000390: 3a8f 2f3d 52ad aa39 e3f9 0ebd 4fd3 48be
000003a0: 6052 69bd 8ca7 69be caba e43d a18f d1be
000003b0: 08ea 393e 4b19 ccbe 5452 eb3d 7ab2 62be
000003c0: 465a 18bd 7a1e ffbd 5e5d 70be 98f7 80be
000003d0: 122d 5fbd c606 f4bd a14a 3c3d 13bb 383e
000003e0: 2233 553d 8e2e 233b a537 06bf aeae 9bbe
000003f0: 5f23 083d 632c 89bd 820a f43c 3f78 26be
