models/fsrcnn/track1/track1_x4__epoch_17.pth (torch, 57996 bytes, 22 tensors)

first_part.0.weight f4 [56, 1, 5, 5]
-0.004203963 0.03953007 0.031702742 0.0081379665 -0.012390508 -0.029527346 0.039241113 -0.008386234
-0.02795401 0.0027845616 0.06523406 -0.022885757 0.04997016 0.021522619 0.024428025 0.023450531
-0.012417323 -0.0061296835 0.08551693 -0.0023188002 0.013176854 0.0066849077 0.06633277 -6.119559e-05
-0.039838802 -0.026368221 -0.03554656 -0.042438313 0.0072974185 0.046236407 -0.043162826 0.039233103
-0.047045458 -0.018697409 0.0010526174 -0.03733134 0.014705924 -0.0056494414 -0.0047515426 -0.070813626
-0.0028629976 0.024289776 -0.013157932 -0.0068525337 -0.0145994825 0.031775873 0.00035614232 -0.097626664
0.045057688 -0.002001168 -0.026066689 -0.045780685 -0.013865263 -0.014247291 0.020179054 -0.010791693
-0.0038147157 -0.023502957 -0.026874013 -0.07450493 -0.045218837 -0.086487 -0.072323196 -0.018150754
-0.057972405 0.040115967 -0.060786687 -0.07430841 -0.033290185 -0.01496131 -0.069064125 0.04229181
0.038681325 -0.043520823 -0.019060994 0.04000387 -0.0006324552 0.051788583 0.014364795 -0.02414971
-0.046251327 -0.021203123 -0.001714254 -0.04819335 -0.007190319 0.006710245 0.08875623 -0.04214281
-0.082047686 0.022454128 0.04840445 -0.046758916 -0.066181876 -0.0016298793 -0.0005790984 0.026029015
-0.06431806 -0.022469388 -0.048332438 -0.10273391 0.013198569 -0.035332337 -0.03107885 -0.07898648
-0.008019168 -0.017503982 0.06721449 0.00048037054 0.034372672 -0.0024347666 0.002447242 -0.08174966
-0.051959075 -0.0061641843 0.010430477 -0.014878643 -0.08356032 -0.05863591 -0.040238496 0.04052778
-0.05540208 -0.015225052 0.048150588 -0.07219381 0.01613126 -0.08202713 -0.05346233 0.04303112
0.015520855 0.01494283 0.027815873 -0.033840515 -0.0133453095 -0.054370467 0.008079191 -0.042887066
-0.03226587 0.056159396 0.028467733 -0.024235085 0.047995254 -0.055836096 0.010717484 -0.019424878
-0.01871919 0.05366653 -0.0038600895 -0.0073088063 -0.024630146 -0.034279298 -0.09207193 0.027661324
0.011362358 0.07142176 -0.012901497 -0.015789596 0.012483976 0.02365505 -0.050405655 -0.051884443
-0.015032488 -0.05980498 -0.03091456 -0.018104974 0.0322963 -0.08101449 0.016708305 -0.035985604
0.006932176 -0.01796141 -0.068993635 0.013748446 -0.0026334405 -0.0036694654 -0.0671094 0.07813761
-0.076247975 0.07713542 -0.13158523 -0.0011248667 -0.031258337 0.044093605 -0.12981439 0.07233675
0.02239728 0.031430233 -0.15554002 0.29404402 -0.09080497 0.032661863 -0.007797219 -0.10909234
0.030745225 -0.114712365 0.07592317 0.1434054 -0.011220625 0.029205734 -0.022774668 0.014857048
0.01957315 0.04716798 -0.010468354 -0.009762256 0.022469195 0.01677877 0.045268983 -0.028049892
0.028812582 -0.014169987 0.008445286 -0.03411447 0.0900897 -0.0014464968 -0.020619053 -0.010651387
0.01782592 0.010426453 -0.016633283 -0.0469987 0.021834444 0.0145715885 0.098576635 -0.0500032
0.011821588 0.07474111 -0.039879933 -0.0626754 0.05257611 -0.0586765 -0.012695855 0.008143858
0.035890926 -0.043604337 0.018069457 0.016227672 -0.0104425745 0.079776846 0.06253538 0.04799771
0.051548168 0.0040423837 0.020954689 -0.035422783 0.054002434 0.027286734 0.035969652 0.029644243
0.06325646 0.050610308 -0.02328136 0.022812808 -0.043595202 -0.008489189 -0.05035641 0.012501574
00000000: 66c1 89bb 48ea 213d bcda 013d 1b55 053c
00000010: 8f01 4bbc 55e3 f1bc 4abb 203d 6a66 09bc
00000020: cfff e4bc 317d 363b 6f99 853d e97a bbbc
00000030: 83ad 4c3d 3450 b03c 481d c83c 541b c03c
00000040: 0772 4bbc 83db c8bb 8023 af3d 03f7 17bb
00000050: bbe3 573c 120d db3b 7ad9 873d 2256 80b8
00000060: 032e 23bd 2b02 d8bc 4599 11bd ccd3 2dbd
00000070: 2f1f ef3b 6362 3d3d 81cb 30bd e4b2 203d
00000080: bdb2 40bd 4f2b 99bc fbf7 893a bfe8 18bd
00000090: 1ef1 703c f31e b9bb d4b2 9bbb bc06 91bd
000000a0: 21a1 3bbb 5afb c63c 5e94 57bc 388b e0bb
000000b0: ab32 6fbc 6b27 023d 9db8 ba39 7df0 c7bd
000000c0: 698e 383d 0726 03bb cf89 d5bc 8784 3bbd
000000d0: 212b 63bc 786d 69bc 8b4e a53c a4cf 30bc
000000e0: 4f00 7abb 4689 c0bc e426 dcbc 0a96 98bd
000000f0: 6337 39bd 1920 b1bd 2f1e 94bd e4b0 94bc
00000100: 7974 6dbd a450 243d 76fb 78bd 022f 98bd
00000110: 4a5b 08bd 4820 75bc 7e71 8dbd 2d3a 2d3d
00000120: 4f70 1e3d e442 32bd cd25 9cbc 19db 233d
00000130: 5acb 25ba 4420 543d 515a 6b3c 9dd5 c5bc
00000140: 0872 3dbd 2cb2 adbc d2b0 e0ba 6466 45bd
00000150: c49c ebbb 9de1 db3b d4c5 b53d f09d 2cbd
00000160: 9e08 a8bd b8f1 b73c bf43 463d 4786 3fbd
00000170: 5d8a 87bd ada1 d5ba a3ce 17ba cd3a d53c
00000180: 30b9 83bd b911 b8bc 3cf8 45bd 2866 d2bd
00000190: d03e 583c a4b8 10bd 1399 febc aac3 a1bd
000001a0: d462 03bc 8364 8fbc c0a7 893d 3eda fb39
000001b0: 5cca 0c3d 9b90 1fbb e861 203b 5e6c a7bd
000001c0: 0ad3 54bd edfc c9bb 97e4 2a3c 8dc5 73bc
000001d0: ac21 abbd 352c 70bd 1fd1 24bd 7500 263d
000001e0: 4bed 62bd 7f72 79bc 8d39 453d 59da 93bd
000001f0: b425 843c d7fd a7bd 51fb 5abd 6641 303d
00000200: 2f4b 7e3c c6d2 743c 1dde e33c 5a9c 0abd
00000210: 49a6 5abc 91b3 5ebd 955e 043c 59aa 2fbd
00000220: 3829 04bd 6507 663d 2a35 e93c a888 c6bc
00000230: ac96 443d 64b4 64bd 6398 2f3c ec20 9fbc
00000240: fd58 99bc 6fd1 5b3d 8ef9 7cbb b67e efbb
00000250: 29c5 c9bc 7368 0cbd 3590 bcbd 009a e23c
00000260: 2f29 3a3c 9245 923d cd60 53bc 2f59 81bc
00000270: 9789 4c3c 3cc8 c13c 2976 4ebd c884 54bd
00000280: d34a 76bc 11f6 74bd 8840 fdbc e250 94bc
00000290: 2049 043d edea a5bd dbdf 883c a465 13bd
000002a0: 4f27 e33b cf23 93bc 894c 8dbd 2941 613c
000002b0: cd95 2cbb 6a7b 70bb a770 89bd 9c06 a03d
000002c0: e627 9cbd 2df9 9d3d 47be 06be 4370 93ba
000002d0: be08 00bd 7f9b 343d 10ee 04be 4a25 943d
000002e0: 807a b73c fdbc 003d e245 1fbe f08c 963e
000002f0: f5f7 b9bd 72c8 053d d07f ffbb ce6b dfbd
00000300: 69dd fb3c 51ee eabd 9b7d 9b3d ddd8 123e
00000310: b6d6 37bc dd40 ef3c f191 babc fa6a 733c
00000320: df57 a03c 3633 413d 7683 2bbc dff1 1fbc
00000330: 5111 b83c a273 893c f86b 393d e3c8 e5bc
00000340: 5d08 ec3c 3c29 68bc 195e 0a3c 9dbb 0bbd
00000350: f380 b83d 6198 bdba 4ae9 a8bc 2883 2ebc
00000360: aa07 923c b7d3 2a3c 8642 88bc b581 40bd
00000370: 26de b23c acbd 6e3c 8ce2 c93d 28d0 4cbd
00000380: 55af 413c de11 993d 2459 23bd f65b 80bd
00000390: 0c5a 573d c556 70bd 4702 50bc d16d 053c
000003a0: 5d02 133d 769a 32bd 6606 943c e5ef 843c
000003b0: 5517 2bbc 0b62 a33d 8d12 803d 3f99 443d
000003c0: 2c24 533d f975 843b 2ba9 ab3c 7b17 11bd
000003d0: a831 5d3d 6e88 df3c ea54 133d 7cd8 f23c
000003e0: 9a8c 813d c14c 4f3d 8db8 bebc ede1 ba3c
000003f0: e290 32bd 3d16 0bbc 8642 4ebd 67d3 4c3c

first_part.0.bias f4 [56]
-0.0136010125 -0.0011960614 0.007676834 -0.0033506148 0.0077445437 -0.009326777 0.0042030243 0.03705093
-0.013312211 -0.009655704 -0.011739755 -0.003331313 -0.042022597 0.020510206 0.08665478 -0.023477241
-0.010193092 -0.0028894658 0.004623357 -0.032780353 0.009148052 0.0032616616 -0.027756449 -0.000103213504
-0.0210968 0.008269763 0.0013324965 0.010682077 -0.018405152 0.007713697 -0.010317527 -0.0009820389
-0.009969805 -0.0095706675 -0.0051337504 0.01897459 -0.0050397804 0.007423404 0.006829822 0.015878439
0.06663698 -0.0044352226 0.014509978 -0.04840919 0.010376055 0.0025701576 0.00089636183 -0.0055936775
-0.07709748 0.010360445 -0.03961162 0.016860155 0.021010013 0.009060952 0.00021118649 0.05135618
00000000: c8d6 5ebc 29c5 9cba f38d fb3b fd95 5bbb
00000010: f1c5 fd3b 57cf 18bc 86b9 893b b7c2 173d
00000020: 761b 5abc f532 1ebc 1a58 40bc 2852 5abb
00000030: e31f 2cbd 0505 a83c 1078 b13d 5853 c0bc
00000040: ed00 27bc 315d 3dbb 887f 973b b144 06bd
00000050: b6e1 153c 9ac1 553b 7e61 e3bc 5474 d8b8
00000060: 32d3 acbc e67d 073c 2aa7 ae3a e103 2f3c
00000070: 67c6 96bc 2ec3 fc3b d80a 29bc c2b7 80ba
00000080: 6558 23bc 4ace 1cbc 0539 a8bb 9970 9b3c
00000090: be24 a5bb 0740 f33b b3cc df3b 8013 823c
000000a0: f878 883d 5855 91bb 42bb 6d3c b748 46bd
000000b0: 5400 2a3c 1770 283b d3f9 6a3a 2b4b b7bb
000000c0: 49e5 9dbd dbbe 293c cb3f 22bd 4f1e 8a3c
000000d0: 311d ac3c 6374 143c f171 5d39 dc5a 523d

first_part.1.weight f4 [56]
0.24612647 0.23425353 0.25717762 0.2537323 0.2428182 0.2462018 0.24400306 0.7529146
1.7901399 -0.14503108 1.497468 0.25485733 0.8784715 0.2519476 0.42415464 -0.0017796258
0.17106985 0.2746758 0.3056428 0.2091873 0.2521001 1.495155 0.22161402 0.22590806
0.36078 0.22898535 2.4637682 0.25385576 0.29141417 0.27412674 0.2342232 0.23927008
3.0141869 0.4574618 0.24722326 0.25308543 0.07599636 0.3037489 0.25519478 0.25111717
0.7508699 0.26603028 0.24873303 0.29859048 0.75934726 0.28579032 2.6924543 0.25976264
0.54201335 0.24606113 2.0708144 0.24163614 0.18205032 0.16659613 0.27359283 0.25542283
00000000: 9408 7c3e 28e0 6f3e c9ac 833e 33e9 813e
00000010: 56a5 783e 531c 7c3e f0db 793e 03bf 403f
00000020: 4e23 e53f 0783 14be 08ad bf3f a97c 823e
00000030: 82e3 603f 47ff 803e cc2a d93e 5542 e9ba
00000040: ef2c 2f3e 4ea2 8c3e 377d 9c3e 3235 563e
00000050: 4413 813e 3d61 bf3f c9ee 623e 7154 673e
00000060: 28b8 b83e 237b 6a3e 61ae 1d40 62f9 813e
00000070: 3d34 953e 575a 8c3e 35d8 6f3e 3703 753e
00000080: 70e8 4040 6f38 ea3e 1828 7d3e 6a94 813e
00000090: fba3 9b3d fa84 9b3e e4a8 823e 6e92 803e
000000a0: 0339 403f 1f35 883e dfb3 7e3e dae0 983e
000000b0: 9564 423f 1c53 923e 2c51 2c40 9cff 843e
000000c0: 63c1 0a3f 73f7 7b3e 3988 0440 776f 773e
000000d0: 666b 3a3e 2d98 2a3e 5c14 8c3e c8c6 823e

mid_part.0.weight f4 [12, 56, 1, 1]
0.5202446 0.20971945 -0.75242865 0.24253997 0.3921125 0.36006242 -0.08790331 0.5126372
0.17519453 -1.182715 0.50893736 -0.080388315 -0.55280036 1.0599898 0.43944722 0.42018032
0.08725455 0.060456228 0.5670201 -0.24612072 0.014245598 0.7165548 -0.36230555 -0.47832745
-0.076005206 -0.081598 0.43133643 -0.7256304 0.27046752 0.43648764 0.03815883 0.33546275
0.5439811 0.1398346 -0.5502835 -0.6913467 -0.051254477 -0.037453067 -0.2845646 0.37970755
-0.10064741 0.5035333 -0.38100493 -0.11582793 -0.15308428 -0.15101837 -0.10033774 -0.61138135
-0.14694986 -0.5782579 -0.10099337 -0.21188386 -0.64224154 0.19726692 -0.29510888 -0.24086595
-0.2925901 -0.9869542 0.49368066 -0.017751912 0.0066166576 0.80861825 0.7314726 0.5256439
0.044400167 -0.08453396 -0.07943969 -0.48393983 0.18562242 0.17471246 -0.6067915 0.16752209
-0.55061585 0.22687382 0.648185 -0.08803584 0.8442883 -0.23490414 0.07750207 -0.40905175
-0.3728317 -0.079939455 0.09873399 -0.5548479 0.5637422 0.8184869 -0.2001032 0.422175
0.18564075 -0.38263303 -0.07724608 -0.14076793 0.26077995 0.23194203 -0.7066259 -0.23714289
0.24516022 0.686622 -0.29663163 0.84249544 0.70372456 0.14356585 0.44270644 0.095458016
0.31239325 -0.1061764 0.8585157 -0.6096299 0.0016553402 -0.20237544 0.65664285 -0.47868663
0.266882 -0.59483933 -0.266055 -0.39164305 -0.06835604 0.5943929 -0.11155661 -0.037706982
0.6465359 0.78750056 0.08753606 0.81120044 -0.42525262 -0.14586246 -0.10185469 0.37787396
-0.008252349 -0.12656432 0.46083358 0.36165544 -0.5339663 0.22879781 -0.12452615 -0.29227275
0.4077877 -0.31762323 -0.15440166 -0.2570851 -0.48722956 0.37941423 0.028528402 -0.122901544
0.48298427 0.7014701 0.61947083 0.3795084 0.30746943 0.3055664 -0.47259164 0.10757621
-0.021902055 0.12875633 -0.20915483 0.0010263235 0.1516624 0.40449157 0.2672887 0.48144695
-0.009428124 0.5977698 0.21881618 -0.54440826 -0.04465587 0.40540147 -0.34960148 -0.32327408
0.044471446 0.3035073 -0.12161826 0.1622935 0.2510355 0.021950832 -0.16542079 0.29088676
-0.57678175 -0.37612388 0.59882456 -0.35309318 0.3819469 -0.47881937 0.590811 -0.08717214
0.13031311 0.22788592 -0.059147645 0.87103575 -0.4895207 0.63466805 -0.31478387 -0.43819347
0.4765307 0.05435658 -0.4543834 0.9644841 0.12992828 0.4223754 -0.09903729 -0.19000514
-0.5167856 0.19390924 -0.1158102 0.46610138 0.13786606 -0.12515324 -9.38102e-05 0.18540603
-0.076916955 1.0835783 0.78061366 0.6675155 -0.9770615 -0.24819869 0.46206492 -0.0882245
0.399187 0.55502063 -0.30057755 -0.53177035 -0.54976046 0.48178855 -0.20857573 0.5182484
-0.23594137 0.076480836 0.1374038 0.097715415 -0.13646522 -0.30972183 -0.20272768 0.56629187
0.4727006 -0.2725676 -0.17061165 -0.0014911559 -1.3263719 0.8072318 0.7788794 -0.06979014
0.3513179 -0.18212563 0.29418218 -0.40831247 0.23105791 0.27837503 0.3593747 0.038236603
-0.12563251 -0.13021433 0.5301327 0.22105445 -0.67500937 -0.28592503 0.030718539 0.21067151
00000000: c02e 053f b2c0 563e 2a9f 40bf 665c 783e
00000010: f8c2 c83e 1a5a b83e a706 b4bd 313c 033f
00000020: 3266 333e 3563 97bf b849 023f a1a2 a4bd
00000030: 5384 0dbf bfad 873f 3aff e03e e021 d73e
00000040: 83b2 b23d f3a0 773d 3b28 113f 1207 7cbe
00000050: 5e66 693c 2370 373f 1d80 b9be 56e7 f4be
00000060: 9ea8 9bbd da1c a7bd 21d8 dc3e eac2 39bf
00000070: b87a 8a3e 4f7b df3e 6f4c 1c3d c6c1 ab3e
00000080: 5842 0b3f cd30 0f3e 61df 0cbf 19fc 30bf
00000090: 37f0 51bd 6368 19bd 74b2 91be 0769 c23e
000000a0: 3b20 cebd 8fe7 003f 1413 c3be 3237 edbd
000000b0: 20c2 1cbe 8fa4 1abe df7d cdbd 7d83 1cbf
000000c0: 067a 16be b608 14bf 9dd5 cebd 15f8 58be
000000d0: f169 24bf 5700 4a3e 8318 97be 90a5 76be
000000e0: 5fce 95be 08a9 7cbf b6c3 fc3e 756c 91bc
000000f0: 8cd0 d83b 9b01 4f3f ca41 3b3f 9990 063f
00000100: f3dc 353d 2420 adbd 47b1 a2bd f6c6 f7be
00000110: ce13 3e3e d3e7 323e b056 1bbf e98a 2b3e
00000120: 29f5 0cbf 9c51 683e 74ef 253f 224c b4bd
00000130: 4723 583f b68a 70be 68b9 9e3d 3b6f d1be
00000140: cce3 bebe 4cb7 a3bd 0c35 ca3d 830a 0ebf
00000150: 6951 103f 5c88 513f dae7 4cbe 5227 d83e
00000160: 9c18 3e3e 7ae8 c3be 3133 9ebd 7825 10be
00000170: f384 853e 3682 6d3e 6fe5 34bf 96d5 72be
00000180: 480b 7b3e 76c6 2f3f 1ae0 97be c8ad 573f
00000190: 4b27 343f ed02 133e 6baa e23e 7e7f c33d
000001a0: 02f2 9f3e 0373 d9bd afc7 5b3f b510 1cbf
000001b0: 00f8 d83a 823b 4fbe bf19 283f 6a16 f5be
000001c0: c2a4 883e 6447 18bf 5c38 88be 7085 c8be
000001d0: 40fe 8bbd 222a 183f cb77 e4bd a372 1abd
000001e0: 6083 253f a399 493f 1b46 b33d d5aa 4f3f
000001f0: b6ba d9be f85c 15be 3199 d0bd b278 c13e
00000200: dc34 07bc 149a 01be 61f2 eb3e e72a b93e
00000210: 04b2 08bf f949 6a3e 9107 ffbd c6a4 95be
00000220: 8dc9 d03e 839f a2be 781b 1ebe a9a0 83be
00000230: 2776 f9be 9542 c23e 65b4 e93c ceb3 fbbd
00000240: b749 f73e 8b93 333f a495 1e3f ed4e c23e
00000250: a26c 9d3e 3373 9c3e 88f7 f1be ea50 dc3d
00000260: f06b b3bc b3d8 033e af2c 56be b485 863a
00000270: 634d 1b3e 8519 cf3e 11da 883e 3780 f63e
00000280: 6b78 1abc 7107 193f 5911 603e 575e 0bbf
00000290: 13e9 36bd c890 cf3e f7fe b2be 2e84 a5be
000002a0: b127 363d 4f65 9b3e ff12 f9bd 4430 263e
000002b0: ba87 803e 3bd2 b33c 1164 29be 1cef 943e
000002c0: f8a7 13bf 4f93 c0be 914c 193f a1c8 b4be
000002d0: 8b8e c33e d027 f5be 643f 173f 4f87 b2bd
000002e0: cd70 053e ed5a 693e cd44 72bd 33fc 5e3f
000002f0: 75a2 fabe 9b79 223f 5a2b a1be e55a e0be
00000300: d5fb f33e 01a5 5e3d f1a4 e8be 6ee8 763f
00000310: eb0b 053e 9741 d83e 10d4 cabd b590 42be
00000320: 104c 04bf 2590 463e e62d edbd d7a4 ee3e
00000330: c32c 0d3e 2c28 00be f8bb c4b8 14db 3d3e
00000340: a386 9dbd b2b2 8a3f 4cd6 473f 4ce2 2a3f
00000350: b420 7abf cc27 7ebe c693 ec3e 0caf b4bd
00000360: 3d62 cc3e d515 0e3f 4de5 99be 1a22 08bf
00000370: 1abd 0cbf fdac f63e e094 55be edab 043f
00000380: 9d9a 71be fca1 9c3d 95b3 0c3e 051f c83d
00000390: 8abd 0bbe dc93 9ebe d897 4fbe 81f8 103f
000003a0: d005 f23e fb8d 8bbe d2b4 2ebe e472 c3ba
000003b0: 8ec6 a9bf bea6 4e3f a464 473f 22ee 8ebd
000003c0: f1df b33e 247f 3abe 0c9f 963e 550e d1be
000003d0: 729a 6c3e 2c87 8e3e f6ff b73e fc9d 1c3d
000003e0: cfa5 00be e856 05be c7b6 073f 195c 623e
000003f0: 6acd 2cbf c464 92be 72a5 fb3c 46ba 573e

mid_part.0.bias f4 [12]
0.004837456 -0.021015363 -0.0066185743 -0.0016424644 0.103076175 0.009288534 0.04885743 0.03585568
-0.024705254 -0.0060807373 -0.008674359 0.043864347
00000000: 8683 9e3b 6928 acbc a0e0 d8bb f647 d7ba
00000010: 9a19 d33d ef2e 183c bb1e 483d 68dd 123d
00000020: ac62 cabc ec40 c7bb e61e 0ebc 1aab 333d

mid_part.1.weight f4 [12]
0.2773516 0.37056804 0.24997498 0.28854558 0.93080354 1.101843 0.28198057 0.44797876
0.30500668 0.41133735 1.0161691 0.3380702
00000000: 0701 8e3e 18bb bd3e 71f9 7f3e 3fbc 933e
00000010: 2449 6e3f 3109 8d3f c25f 903e 795d e53e
00000020: d629 9c3e cf9a d23e d411 823f 8a17 ad3e

mid_part.2.weight f4 [12, 12, 3, 3]
0.2708339 -0.0388061 0.028585576 -0.28288433 0.14438361 -0.12934893 -0.043208264 -0.13906893
0.11005424 0.2017438 -0.22656575 0.22654471 0.034448314 -0.11876289 -0.12496119 -0.06300795
-0.16746049 0.046647947 0.08679061 0.15177839 0.055097397 0.15574406 0.008565197 -0.031043334
0.25952208 0.0587816 -0.073677495 0.016745202 -0.06777524 0.12449869 0.14800768 -0.29732367
-0.26997918 -0.1474552 -0.035418533 0.18758556 -0.16733854 -0.12024309 -0.089011215 -0.02103061
0.26915693 -0.23225704 0.034656808 -0.013294324 0.05342658 0.20509218 0.038746964 0.20540029
-0.059349533 -0.11568291 0.07473678 -0.09927585 0.06335337 -0.114168406 -0.20075066 0.034563642
-0.016002428 0.24212228 -0.11037949 0.038368814 -0.123409905 0.1439486 0.14117125 0.13140188
-0.0573829 0.2492947 0.010341876 0.008940601 -0.006758327 0.011270727 -0.2327498 -0.20666562
-0.007908691 -0.016741654 0.045338225 -0.2020611 0.26790297 -0.08981293 -0.04867168 -0.07559032
0.025115615 -0.18727334 0.011207852 0.031239016 0.038400207 0.10844439 0.13022935 -0.120619185
-0.040692035 0.01543421 0.0720182 -0.015509896 0.2365492 -0.12862413 -0.040771913 -0.0766375
0.040820867 0.09410973 0.036389977 0.020795554 -0.044298742 -0.1073062 -0.02429284 0.073044434
0.028703663 0.060198966 0.0656858 0.009008571 0.01960919 -0.05586937 -0.02531429 0.037578106
0.06111745 -0.26714742 0.16827607 0.07319649 0.084770486 0.14524783 0.098016895 -0.020720556
0.22928374 0.107945755 -0.0010559254 0.03370254 -0.120445214 0.13798915 -0.03297703 -0.32279214
-0.15944548 0.023402162 0.065885626 -0.28728503 -0.105197 0.10685453 -0.08477207 -0.025907572
0.2724329 -0.026285917 -0.018945696 -0.0792936 0.04041689 -0.07097058 0.35773256 -0.17984924
0.22308344 -0.15854907 -0.024315234 -0.16339388 -0.117944114 0.051947754 -0.076501206 -0.080272794
-0.016932689 -0.10877082 0.04286004 -0.2611565 0.011441941 0.11665422 0.10488646 0.14785632
-0.052366883 -0.011995172 0.19287474 -0.20424761 -0.17550245 -0.023564253 0.20462194 -0.05850315
-0.27758017 -0.007173027 0.13480671 -0.15859918 0.17028217 -0.124225974 -0.051107768 0.2043346
0.14089279 -0.06250592 -0.12894586 -0.102986135 0.07805064 -0.10461322 0.053531036 -0.027978718
0.053285297 -0.3329012 0.016465263 -0.06753248 -0.063200556 -0.12006351 -0.09433783 -0.070460014
0.015896218 -0.062233634 -0.0031874336 -0.1694028 -0.028972084 0.030362215 -0.084750846 0.13494936
0.050087307 0.26298866 -0.041091245 -0.122978754 -0.13564302 0.055225924 0.12616757 0.2646475
0.1910558 0.055325434 0.09336757 0.07459444 0.14789373 0.010771397 0.13341063 0.17955619
0.07286127 -0.15727916 -0.02888912 -0.021189613 0.18697548 0.17682435 0.16468038 -0.01364191
0.30109617 -0.076075085 -0.107145615 0.067951374 0.1930854 -0.06745379 -0.018636778 -0.060891043
0.09840055 0.09520331 0.14035307 -0.27121517 -0.20228389 0.060610373 -0.13131261 -0.0070251324
0.11220618 0.026305458 0.038891945 -0.15174605 -0.000111384004 -0.06140747 0.25704396 0.16255185
0.18144044 0.03548246 0.16537398 0.044357866 0.3231695 -0.23115318 -0.08839431 0.045337576
00000000: beaa 8a3e 25f3 1ebd 4c2c ea3c 37d6 90be
00000010: 4cd9 133e 0c74 04be 26fb 30bd 1668 0ebe
00000020: 1e64 e13d ed95 4e3e da00 68be 56fb 673e
00000030: ad19 0d3d f539 f3bd a7eb ffbd 500a 81bd
00000040: c37a 2bbe eb11 3f3d 46bf b13d cb6b 1b3e
00000050: cfad 613d 5f7b 1f3e 0a55 0c3c 974e febc
00000060: 14e0 843e fac4 703d 3ae4 96bd 3c2d 893c
00000070: bfcd 8abd 2bf9 fe3d 538f 173e cf3a 98be
00000080: b63a 8abe 7ffe 16be 0613 11bd 6e16 403e
00000090: cb5a 2bbe 0242 f6bd 834b b6bd 6348 acbc
000000a0: f0ce 893e cad4 6dbe 4cf4 0d3d 70d0 59bc
000000b0: d4d5 5a3d af03 523e 23b5 1e3d 7454 523e
000000c0: 7f18 73bd 29eb ecbd 990f 993d 2351 cbbd
000000d0: 69bf 813d 20d1 e9bd 9591 4dbe 9b92 0d3d
000000e0: 8617 83bc e7ee 773e a40e e2bd 9e28 1d3d
000000f0: 55be fcbd 4367 133e 328f 103e 378e 063e
00000100: 550a 6bbd 1c47 7f3e f970 293c 997b 123c
00000110: f574 ddbb dba8 383c f755 6ebe 27a0 53be
00000120: 7493 01bc cb25 89bc 93b4 393d 1be9 4ebe
00000130: 942a 893e d7ef b7bd f55b 47bd 19cf 9abd
00000140: 43bf cd3c 95c4 3fbe 23a1 373c f7e8 ff3c
00000150: 8949 1d3d 1818 de3d d85a 053e 3107 f7bd
00000160: b1ac 26bd c5df 7c3c 477e 933d 381d 7ebc
00000170: f439 723e 0bb6 03be 7300 27bd 1ff4 9cbd
00000180: c833 273d 9abc c03d a80d 153d 705b aa3c
00000190: 9972 35bd 5ac3 dbbd c701 c7bc 5298 953d
000001a0: f223 eb3c 3193 763d 4786 863d af98 133c
000001b0: 74a3 a03c 48d7 64bd ea5f cfbc 80eb 193d
000001c0: 4b56 7a3d 8cc7 88be 9050 2c3e 0be8 953d
000001d0: 269c ad3d d9bb 143e 15bd c83d 28be a9bc
000001e0: 5bc9 6a3e aa12 dd3d fa66 8aba ad0b 0a3d
000001f0: fbab f6bd 074d 0d3e ec12 07bd 0345 a5be
00000200: ad45 23be e4b5 bf3c 0bef 863d 0617 93be
00000210: 8671 d7bd 8cd6 da3d fb9c adbd 1e3c d4bc
00000220: 537c 8b3e 9055 d7bc 0134 9bbc af64 a2bd
00000230: 2e8c 253d 0659 91bd b928 b73e 662a 38be
00000240: fc6f 643e b05a 22be be30 c7bc ba50 27be
00000250: af8c f1bd 2bc7 543d aaac 9cbd 1066 a4bd
00000260: 6cb6 8abc 3cc3 debd 028e 2f3d 4eb6 85be
00000270: fb76 3b3c 68e8 ee3d b6ce d63d a667 173e
00000280: a87e 56bd 6687 44bc f580 453e 4926 51be
00000290: eab6 33be d209 c1bc 6a88 513e 00a1 6fbd
000002a0: fd1e 8ebe b60b ebbb c50a 0a3e d367 22be
000002b0: 735e 2e3e 306a febd 6156 51bd 173d 513e
000002c0: 3346 103e 1b03 80bd 620a 04be 65ea d2bd
000002d0: 04d9 9f3d 753f d6bd 5c43 5b3d a033 e5bc
000002e0: af41 5a3d 0772 aabe 29e2 863c 784e 8abd
000002f0: 4b6f 81bd dce3 f5bd 3134 c1bd 574d 90bd
00000300: c938 823c b2e8 7ebd 43e4 50bb ed77 2dbe
00000310: dd56 edbc 2eba f83c da91 adbd 2a30 0a3e
00000320: 5928 4d3d 73a6 863e 4b4f 28bd 49dc fbbd
00000330: 01e6 0abe 9434 623d 1232 013e e17f 873e
00000340: 22a4 433e ec9c 623d 7f37 bf3d f8c4 983d
00000350: 7471 173e 837a 303c cc9c 083e 94dd 373e
00000360: 4a38 953d ca0d 21be e0a8 ecbc d795 adbc
00000370: 8076 3f3e 7111 353e f9a1 283e 5182 5fbc
00000380: 4729 9a3e 41cd 9bbd 296f dbbd 172a 8b3d
00000390: 2eb8 453e 3625 8abd 28ac 98bc e368 79bd
000003a0: 3a86 c93d f4f9 c23d b7b8 0f3e b7dc 8abe
000003b0: 8223 4fbe 9542 783d d076 06be 1533 e6bb
000003c0: 5bcc e53d 8b7e d73c 294d 1f3d 5163 1bbe
000003d0: d596 e9b8 6686 7bbd 449b 833e fe73 263e
000003e0: 86cb 393e 0e56 113d cc57 293e 98b0 353d
000003f0: 7976 a53e 6bb3 6cbe 1308 b5bd e5b3 393d

mid_part.2.bias f4 [12]
0.012538864 0.010499527 -0.0050746514 -0.00075713824 0.038226478 -0.013914604 -0.004706217 0.0027559947
0.026339067 -0.00047938703 0.031154547 0.024522668
00000000: cf6f 4d3c 3506 2c3c 4349 a6bb b07a 46ba
00000010: 5e93 1c3d 14fa 63bc 9c36 9abb eb9d 343b
00000020: 07c5 d73c 3d56 fbb9 d237 ff3c c3e3 c83c

mid_part.3.weight f4 [12]
0.55016124 0.23770216 0.2579794 1.5319916 0.7143441 0.24869104 0.93987405 0.09675146
0.18856071 0.929393 0.2897668 0.3342907
00000000: 5ed7 0c3f 3268 733e e015 843e 4d18 c43f
00000010: 41df 363f dda8 7e3e 969b 703f a125 c63d
00000020: 0f16 413e b3ec 6d3f 505c 943e 2728 ab3e

mid_part.4.weight f4 [12, 12, 3, 3]
0.0029698592 -0.049435396 0.20011385 0.29884186 -0.09302744 0.100616865 -0.19011249 0.08682744
-0.14839824 -0.19402134 -0.09568029 0.34834114 -0.048622105 0.16866723 -0.16155791 -0.13019517
0.021198284 0.21949098 -0.14167048 0.19718836 -0.021257583 0.11773923 0.020938007 -0.025910895
-0.016865818 0.19682404 0.09078943 -0.13178077 -0.27590021 -0.032661937 0.20499319 -0.19233146
-0.23841925 -0.15831047 0.1873223 0.093584575 -0.10286235 0.16369145 0.16484289 -0.1587598
0.397543 0.013742821 -0.23989439 0.09752072 0.13105074 -0.00579282 -0.050422326 0.10022712
-0.23799013 0.07829084 -0.34237424 0.048342966 0.24211168 -0.1338833 0.16003291 -0.24689953
-0.05481133 0.07452019 -0.00431015 -0.13896391 -0.04887639 -0.2837197 0.29228663 0.08156114
-0.090509735 0.15459566 -0.03777461 0.04816653 0.09121622 -0.21770512 -0.10463376 -0.11853972
0.006530166 0.0426357 -0.074895054 -0.15897432 0.033335686 0.052264918 -0.0013262192 -0.10278322
0.18395297 0.06918279 -0.029137334 0.17191651 0.08263216 0.13506119 -0.034997556 0.063087486
0.16699585 -0.3435535 0.037226915 0.16413525 0.064835824 0.22766827 -0.12196624 -0.0221423
-0.03369037 0.018012036 0.05781147 0.18345013 0.008925182 0.26100478 -0.29292902 0.24292786
-0.46766132 -0.015385653 0.18572901 0.2802285 0.12228042 -0.22565046 -0.05008009 0.27019134
0.090211384 0.095619336 0.29088932 -0.24030638 0.040658873 -0.021818696 0.06455846 -0.038434986
0.28940243 0.05608852 0.32420817 -0.24391313 -0.25312757 -0.07911939 -0.20154841 0.13292308
-0.04542415 -0.4582575 -0.16909781 -0.045070432 -0.54015636 -0.1805446 0.111270934 0.017500946
0.15989912 0.23182182 0.17337488 0.33733597 0.06060936 0.36341023 0.33601928 -0.102596335
-0.02387047 -0.025194729 -0.033263523 -0.18597256 -0.012311636 0.0074942303 -0.33736548 -0.044589274
-0.024602603 -0.028923059 -0.18619598 0.2857737 -0.24341694 -0.04703231 0.13811943 -0.12366594
0.03372557 -0.064868 0.2629808 -0.04333057 -0.055562172 0.3605705 -0.09503763 0.02171712
0.12474546 -0.041660402 -0.2553908 0.32969868 -0.2490404 -0.24162678 -0.044818513 -0.0041290866
0.07423857 0.16150983 0.13569012 0.4264761 -0.06751801 -0.2647902 -0.16014063 -0.01294409
-0.11214072 0.096514426 0.2036106 0.2990874 0.12039306 -0.41820365 0.1250914 -0.1500789
0.19477218 0.22871585 -0.03402204 0.035980873 -0.014417066 0.101613104 -0.10949857 -0.37241283
-0.0224559 0.40234166 0.3981491 0.12952217 -0.41616234 -0.25041133 0.13244617 -0.23409715
-0.25708458 -0.28569278 -0.19408524 0.06501357 0.0024945994 0.5962559 0.36231604 0.2635712
0.20898733 -0.1975935 0.15187761 0.0829873 0.044708535 -0.004191346 -0.110065304 0.30660376
0.05634016 0.22955859 0.007990293 0.17104594 -0.021899503 0.032275937 0.09489088 -0.009380173
0.07768426 0.01846507 -0.04671293 0.052039824 0.18272124 -0.04088091 0.15114352 0.11107839
0.023240887 -0.010359029 -0.16342334 -0.35472295 -0.12100664 -0.07690961 0.007520182 0.28520125
0.16701014 0.16233185 -0.25347382 0.07028788 -0.016577965 -0.45998344 -0.2662868 -0.19990283
00000000: f8a1 423b c57c 4abd a5ea 4c3e cd01 993e
00000010: 2c85 bebd 3710 ce3d d9ac 42be 96d2 b13d
00000020: b5f5 17be 88ad 46be 07f4 c3bd c559 b23e
00000030: f927 47bd 1ab7 2c3e 706f 25be e251 05be
00000040: 06a8 ad3c 3ec2 603e 1112 11be bfeb 493e
00000050: 6224 aebc 4421 f13d 2f86 ab3c 1643 d4bc
00000060: 2f2a 8abc 3e8c 493e cfef b93d 8af1 06be
00000070: cb42 8dbe 86c8 05bd bce9 513e 8af2 44be
00000080: 2d24 74be 241c 22be 6bd1 3f3e 45a9 bf3d
00000090: 7fa9 d2bd bb9e 273e 93cc 283e ee91 22be
000000a0: c28a cb3e 9229 613c e0a6 75be f1b8 c73d
000000b0: 2a32 063e b2d1 bdbb a487 4ebd e043 cd3d
000000c0: afb3 73be f356 a03d ad4b afbe 4603 463d
000000d0: 20ec 773e b418 09be abdf 233e 3bd3 7cbe
000000e0: d881 60bd 0b9e 983d 293c 8dbb 8e4c 0ebe
000000f0: 9c32 48bd b543 91be 98a6 953e 8709 a73d
00000100: 2b5d b9bd 534e 1e3e 8db9 1abd 444a 453d
00000110: 92cf ba3d 17ee 5ebe 3a4a d6bd f4c4 f2bd
00000120: 01fb d53b c6a2 2e3d 9462 99bd 2aca 22be
00000130: 008b 083d bd13 563d 88d4 adba 0280 d2bd
00000140: 2b5e 3c3e b5af 8d3d 6bb1 eebc e20a 303e
00000150: 0d3b a93d 7b4d 0a3e 9959 0fbd 0334 813d
00000160: f600 2b3e 3fe6 afbe 407b 183d 1213 283e
00000170: a5c8 843d df21 693e 70c9 f9bd c563 b5bc
00000180: eafe 09bd fa8d 933c b8cb 6c3d 5ada 3b3e
00000190: ed3a 123c 6ba2 853e cbfa 95be 15c2 783e
000001a0: 4e71 efbe 1b14 7cbc bf2f 3e3e 1c7a 8f3e
000001b0: 286e fa3d ea10 67be c820 4dbd 8556 8a3e
000001c0: bfc0 b83d 12d4 c33d 72ef 943e e012 76be
000001d0: eb89 263d 1fbd b2bc 3a37 843d 016e 1dbd
000001e0: 8e2c 943e 13bd 653d 9dfe a53e 5dc4 79be
000001f0: f099 81be 5909 a2bd b562 4ebe fd1c 083e
00000200: ac0e 3abd baa0 eabe fa27 2dbe c69b 38bd
00000210: b047 0abf afe0 38be 04e2 e33d 255e 8f3c
00000220: 98bc 233e b362 6d3e 2f89 313e 4db7 ac3e
00000230: 8541 783d e810 ba3e b80a ac3e 071e d2bd
00000240: 018c c3bc 2d65 cebc 553f 08bd 976f 3ebe
00000250: beb6 49bc 2992 f53b 2bbb acbe 3ea3 36bd
00000260: 668b c9bc 0df0 ecbc 29aa 3ebe ee50 923e
00000270: 4a42 79be f4a4 40bd 2e6f 0d3e 9144 fdbd
00000280: d323 0a3d 84d9 84bd 6ba5 863e 657b 31bd
00000290: 2995 63bd b29c b83e 17a3 c2bd 1ae8 b13c
000002a0: 8c7a ff3d 19a4 2abd 95c2 82be 44ce a83e
000002b0: 7204 7fbe 036d 77be 9e93 37bd 4a4d 87bb
000002c0: 640a 983d d562 253e 5af2 0a3e 135b da3e
000002d0: e246 8abd 9592 87be e8fb 23be 7313 54bc
000002e0: 09aa e5bd 5ba9 c53d 4c7f 503e fc21 993e
000002f0: a390 f63d ca1e d6be f617 003e 48ae 19be
00000300: 5c72 473e 7d34 6a3e b25a 0bbd ae60 133d
00000310: 8f35 6cbc 881a d03d c940 e0bd e5ac bebe
00000320: 70f5 b7bc baff cd3e 33da cb3e 76a1 043e
00000330: 3b13 d5be ea35 80be f89f 073e 2ab7 6fbe
00000340: 97a0 83be 5346 92be 48be 46be d625 853d
00000350: 6f7c 233b 3aa4 183f 7d81 b93e cef2 863e
00000360: c600 563e f355 4abe ce85 1b3e 3ff5 a93d
00000370: 4c20 373d 8f57 89bb eb69 e1bd 2bfb 9c3e
00000380: f1c4 663d 6811 6b3e b8e9 023c ab26 2f3e
00000390: 9666 b3bc c633 043d 2656 c23d 4caf 19bc
000003a0: ed18 9f3d 0f44 973c 0f56 3fbd b627 553d
000003b0: 471b 3b3e be72 27bd 5ec5 1a3e 117d e33d
000003c0: ac63 be3c ebb8 29bc 7358 27be 3f9e b5be
000003d0: 54d2 f7bd c982 9dbd dc6b f63b e605 923e
000003e0: b504 2b3e 523a 263e 52c7 81be 18f3 8f3d
000003f0: 83ce 87bc f382 ebbe be56 88be 54b3 4cbe

mid_part.4.bias f4 [12]
0.08117893 0.012978421 -0.038360942 0.018780585 0.007786154 -0.004697713 0.009245815 0.02316253
0.039954484 0.01743249 -0.04490023 -0.02700238
00000000: 2441 a63d 71a3 543c 5d20 1dbd bed9 993c
00000010: fe22 ff3b 46ef 99bb c27b 173c 59bf bd3c
00000020: 50a7 233d 95ce 8e3c 4ee9 37bd 1834 ddbc

mid_part.5.weight f4 [12]
1.2683307 0.7519998 0.39868942 0.2625897 2.0722983 1.499772 -0.39428917 0.03497002
0.6766432 1.0336707 0.4299749 0.24754044
00000000: a958 a23f 0f83 403f 0521 cc3e 2872 863e
00000010: 89a0 0440 87f8 bf3f 45e0 c9be b93c 0f3d
00000020: 7d38 2d3f 524f 843f ac25 dc3e 3e7b 7d3e

mid_part.6.weight f4 [12, 12, 3, 3]
0.058447994 -0.061174605 -0.025797589 0.047734823 0.13088572 0.18703638 -0.042579774 0.1256414
0.018020105 0.02269859 0.26250303 0.18170796 0.09455241 0.21734592 0.2723435 -0.0016802344
-0.27326885 0.062247097 0.06530259 -0.1629557 0.04521044 0.13096951 0.006777742 -0.06640264
-0.18674469 -0.13148353 0.18019903 0.1464717 -0.09467937 -0.20097819 0.0040509645 0.09653485
0.10001763 0.12268543 -0.37389544 -0.15901306 -0.015905248 0.14459558 -0.08644412 0.16785909
0.122688234 -0.13837068 -0.03852586 0.17034352 -0.04204948 -0.12870204 -0.40119854 0.07880302
0.2206979 0.0052053444 0.049619988 0.09047447 0.117618665 0.16040768 0.15050481 -0.22207731
0.033573404 0.08059193 0.04955868 0.0578849 0.20443867 0.17990656 0.12748227 -0.11689012
-0.080529325 0.1320724 -0.037504133 -0.16805887 0.027050648 0.064692505 0.049628053 -0.1927499
-0.07538172 0.09313359 0.12657283 -0.0342296 0.04513802 -0.017502623 -0.08601137 -0.17694429
0.021179507 -0.040441927 0.18229586 0.0010003389 -0.1731616 0.06836047 0.18139109 -0.19654812
-0.12570582 -0.23431589 -0.07717706 0.15856674 0.09265744 -0.05675667 -0.22337776 0.110826224
-0.08531804 0.17823292 -0.04112653 0.10446422 0.053221267 0.06318649 0.06614569 -0.13060871
-0.0011504734 0.15298599 -0.12618496 0.021108316 0.3145153 0.14905 -0.008157065 -0.17796436
-0.23695977 0.13099214 0.13197152 0.102333605 0.0132734375 -0.11910409 -0.029046545 0.13589554
-0.06285842 0.17425238 0.06712027 0.13235383 -0.15611403 0.024585018 0.12925376 0.016704181
0.014992037 0.15945645 0.07802083 0.19143887 -0.009429339 -0.13399513 0.018297274 0.09891211
0.06364579 -0.01301548 -0.056566905 0.17823331 -0.023764508 -0.08099791 -0.19910146 0.042969823
0.04444068 -0.098686405 0.15199493 0.104568735 -0.03651724 -0.14237444 0.1056602 0.20896228
0.029403182 0.07232221 0.021818923 0.077827334 -0.2305661 0.01091712 -0.051112507 -0.03409613
0.04564634 0.03945735 0.10464338 0.022756834 -0.031727042 0.05371301 0.0742293 -0.036780808
-0.10248292 -0.06524076 -0.10611776 0.14925562 -0.0541184 0.10805088 -0.0025466026 0.17917953
-0.24033539 -0.021064375 -0.031993624 -0.0908137 0.2546083 -0.32801545 0.1366349 -0.04009829
0.031619508 0.24098451 -0.017390579 0.1137848 -0.03629415 0.08143958 -0.011820028 0.052267328
0.15058295 0.21319261 -0.17823778 -0.0046625757 0.14670902 0.19918273 0.0908653 0.24535751
0.047706407 -0.21613339 -0.28237015 -0.0565929 0.104800336 -0.060178377 0.30098915 -0.06632242
-0.009699282 -0.013840324 0.048852246 0.06892797 0.007656165 -0.23939358 -0.24721254 0.074590884
-0.2839078 -0.019200854 -0.19619988 -0.022217851 -0.12881763 -0.07457963 0.24740048 0.16422886
-0.19551241 -0.16289712 -0.19869055 0.03868389 -0.14168537 0.04665641 -0.12599714 0.27269647
0.18788844 0.18361375 -0.12372412 0.13555159 0.007699827 0.08154631 0.01848487 -0.13215017
0.17200564 -0.13872467 -0.2684064 0.121578515 0.089680694 0.017107468 0.16721201 0.22866419
-0.09688973 -0.15787561 -0.07659569 0.02161112 -0.30678403 -0.18429425 0.16238151 -0.06886443
00000000: 2a67 6f3d 3992 7abd 7755 d3bc 9785 433d
00000010: e806 063e 7786 3f3e 2168 2ebd 24a8 003e
00000020: e69e 933c 65f2 b93c cc66 863e a711 3a3e
00000030: b2a4 c13d ee8f 5e3e 9b70 8b3e 503b dcba
00000040: e5e9 8bbe d0f6 7e3d 5dbd 853d dcdd 26be
00000050: 952e 393d df1c 063e d217 de3b 1bfe 87bd
00000060: 003a 3fbe 9ea3 06be 1886 383e adfc 153e
00000070: 42e7 c1bd 3acd 4dbe f4bd 843b 10b4 c53d
00000080: 0bd6 cc3d 8042 fb3d 396f bfbe 52d4 22be
00000090: b94b 82bc dd10 143e 9d09 b1bd 41e3 2b3e
000000a0: f843 fb3d 0bb1 0dbe 4bcd 1dbd 886e 2e3e
000000b0: 133c 2cbd 78ca 03be e569 cdbe 7a63 a13d
000000c0: a1fe 613e 9891 aa3b 543e 4b3d ae4a b93d
000000d0: 0ee2 f03d e941 243e ef1d 1a3e 3c68 63be
000000e0: 4484 093d 620d a53d 0bfe 4a3d b818 6d3d
000000f0: 5f58 513e 6d39 383e b68a 023e 1664 efbd
00000100: 8fec a4bd fd3d 073e ef9d 19bd a017 2cbe
00000110: 5299 dd3c 817d 843d c946 4b3d 3b60 45be
00000120: bb61 9abd d3bc be3d 4f9c 013e 5634 0cbd
00000130: a5e2 383d a961 8fbc bb26 b0bd e230 35be
00000140: a580 ad3c 6fa6 25bd c4ab 3a3e ce1d 833a
00000150: 4651 31be 9300 8c3d 96be 393e e943 49be
00000160: 07b9 00be 81f0 6fbe 020f 9ebd 525f 223e
00000170: 2fc3 bd3d af79 68bd 24bd 64be dcf8 e23d
00000180: 39bb aebd b182 363e 4b74 28bd 56f1 d53d
00000190: 8bfe 593d eb67 813d 6477 873d 4abe 05be
000001a0: 7bcb 96ba 5ca8 1c3e a136 01be 59eb ac3c
000001b0: 2608 a13e 90a0 183e 36a5 05bc 4a3c 36be
000001c0: 95a5 72be ce22 063e 8b23 073e 4894 d13d
000001d0: d578 593c d8ec f3bd 05f3 edbc 3328 0b3e
000001e0: eabb 80bd 376f 323e 5a76 893d c387 073e
000001f0: 5bdc 1fbe 8566 c93c 195b 043e 35d7 883c
00000200: 29a1 753c 8d48 233e 63c9 9f3d 8d08 443e
00000210: 847d 1abc 0536 09be 2ae4 953c 6f92 ca3d
00000220: b958 823d e13e 55bc b3b2 67bd cb82 363e
00000230: c9ad c2bc 3be2 a5bd 41e1 4bbe 2001 303d
00000240: 6e07 363d 191c cabd 8fa4 1b3e 2228 d63d
00000250: 1a93 15bd 9bca 11be 6064 d83d 35fa 553e
00000260: f1de f03c ab1d 943d 99bd b23c f063 9f3d
00000270: 8519 6cbe b8dd 323c 595b 51bd 62a8 0bbd
00000280: a8f7 3a3d 089e 213d 454f d63d 8a6c ba3c
00000290: 37f4 01bd 2c02 5c3d 8805 983d 79a7 16bd
000002a0: 91e2 d1bd f39c 85bd 4554 d9bd 77d6 183e
000002b0: 41ab 5dbd c849 dd3d e7e4 26bb d77a 373e
000002c0: 7b1a 76be 328f acbc bf0b 03bd 88fc b9bd
000002d0: 055c 823e a4f1 a7be 05ea 0b3e 1b3e 24bd
000002e0: 7583 013d a5c4 763e b076 8ebc 0108 e93d
000002f0: 2da9 14bd cbc9 a63d caa8 41bc 4416 563d
00000300: 6b32 1a3e 2a4f 5a3e f783 36be 85c8 98bb
00000310: e43a 163e 8ff6 4b3e 9617 ba3d 003f 7b3e
00000320: cb67 433d 1252 5dbe d292 90be f5cd 67bd
00000330: 8fa1 d63d 9a7d 76bd 401b 9a3e 0dd4 87bd
00000340: bde9 1ebc 87c2 62bc 4b19 483d 1c2a 8d3d
00000350: 91e0 fa3b 9723 75be 4925 7dbe 1bc3 983d
00000360: 5d5c 91be 1c4b 9dbc 9fe8 48be 3602 b6bc
00000370: c5e8 03be 34bd 98bd 8d56 7d3e 9c2b 283e
00000380: 6834 48be 81ce 26be 8975 4bbe 0073 1e3d
00000390: f815 11be cb1a 3f3d 6505 01be df9e 8b3e
000003a0: d465 403e 3e05 3c3e 1263 fdbd 09ce 0a3e
000003b0: d54e fc3b c001 a73d 956d 973c 6052 07be
000003c0: 3f22 303e d70d 0ebe 906c 89be 28fe f83d
000003d0: 83aa b73d f624 8c3c a039 2b3e f226 6a3e
000003e0: 1f6e c6bd 25aa 21be 33de 9cbd ce09 b13c
000003f0: cc12 9dbe a2b7 3cbe 5747 263e cb08 8dbd

mid_part.6.bias f4 [12]
0.026427235 -0.005306741 0.031164892 0.00348627 0.033584975 0.10048636 0.07487348 0.08781902
0.011739481 0.009554863 0.19378868 -0.044148877
00000000: ee7d d83c 2ce4 adbb 844d ff3c e879 643b
00000010: 6690 093d cbcb cd3d 4457 993d 75da b33d
00000020: f456 403c 008c 1c3c 8a70 463e 74d5 34bd

mid_part.7.weight f4 [12]
0.7002901 1.8016413 0.30385447 0.2697833 -0.22700654 1.258169 1.1322478 0.35281858
0.386643 0.20749629 -0.22411428 0.22168458
00000000: 3646 333f 2f9c e63f d092 9b3e 0921 8a3e
00000010: 6774 68be af0b a13f 7fed 903f a3a4 b43e
00000020: 12f6 c53e e879 543e 377e 65be 4801 633e

mid_part.8.weight f4 [12, 12, 3, 3]
0.09944493 -0.11086515 -0.18775004 -0.08306012 0.23564504 0.13012877 -0.30728105 0.13803945
-0.081183776 -0.042928793 0.03719233 0.07012875 0.089584224 0.3162016 0.035666957 0.20149389
0.05438671 -0.061198123 0.08688461 -0.039713062 -0.012294915 -0.22528085 -0.021688031 -0.02373976
0.066144064 -0.19296438 0.0039476906 -0.06078089 -0.088201776 0.02928924 -0.17197846 -0.067606
0.10820401 0.005250651 -0.109943874 -0.18665308 -0.014816875 -0.012148963 0.018813927 0.11631909
-0.014765049 0.22780207 -0.07983956 0.054620665 -0.028679227 0.048030764 0.1642023 0.04509988
-0.15059589 0.08107625 0.027356822 0.3289896 -0.14174427 0.10590179 0.12718412 -0.34247464
0.031597164 0.053988077 -0.021023674 -0.046123125 -0.0985742 -0.121599115 0.04183448 -0.021276465
0.3081714 0.010485374 0.04491783 0.19693421 -0.0917879 -0.18292171 -0.018967157 -0.21205951
-0.23455398 0.028734958 0.05728743 0.029363198 0.18365604 -0.15236807 -0.027453326 -0.136489
-0.12752743 0.08637361 -0.061958745 -0.13487607 -0.13754657 -0.05028896 -0.026497023 0.23161475
-0.038857263 -0.0037535233 0.018468935 0.15560071 0.015544517 -0.060892142 -0.032756455 0.042506684
0.08257213 0.08148901 -0.05657991 0.15443046 0.3806365 -0.19608161 0.43321794 -0.02825164
0.20317592 -0.1990171 0.105511524 0.24326892 0.11608521 -0.10136519 -0.15127629 0.24540809
0.15542158 0.013580524 0.07650796 -0.264809 -0.22065824 0.05346715 -0.15316223 0.0077322097
0.124596044 0.20909892 -0.24647586 -0.16889618 -0.005521844 -0.10310018 0.08944492 -0.024378471
0.092355065 0.079240166 -0.28484118 0.24400616 -0.11091138 0.06920248 0.017879605 -0.043456294
0.3587381 0.050996806 0.13309968 -0.0045253215 0.076384276 -0.18002787 0.06487838 0.10931773
0.15051913 0.0050182384 -0.10415207 0.041153755 0.19877496 -0.29447612 0.15366638 -0.32719555
0.06621693 0.18569426 0.15790027 -0.047400437 0.09335138 0.22371581 0.08806648 -0.17614618
-0.068819225 0.0048700334 -0.060901172 -0.008110044 0.14857024 0.09892222 0.030308772 0.03453698
-0.057969693 -0.03861261 0.04770588 0.1706273 0.2002514 0.13767953 0.1441108 -0.36839688
0.06392935 0.041185994 -0.044037662 0.06878608 0.07498168 -0.004421953 -0.00796862 0.06610729
-0.13513613 0.044798374 0.2848536 -0.069841765 0.08975057 0.27744836 0.014534994 0.008472593
0.2392207 0.04339917 0.22982763 0.18708956 -0.007561306 0.05878546 0.0025697977 -0.039328564
0.07151614 -0.008131036 -0.16185716 -0.12939695 -0.097166486 0.07657415 0.18899429 0.18078828
-0.19589001 0.08134451 0.17947878 0.07842146 0.069192834 -0.031353086 0.0025942577 0.18236881
-0.0632393 0.16637087 0.08440013 -0.009037322 0.08099762 -0.11959329 0.051843464 0.127183
0.14276844 0.060527667 0.052366927 0.1859651 0.019316005 0.1880561 -0.11715415 0.09732408
0.08631298 -0.122813605 0.0146332355 -0.009890397 -0.14814593 -0.049197387 -0.16987118 0.02722747
-0.032453798 -0.031763945 -0.031647816 -0.20204034 -0.0764042 -0.07257935 0.23450677 0.07696916
-0.20456499 0.046898436 -0.05918052 -0.0061358754 0.06863389 0.038344637 -0.2717394 0.18324153
00000000: c9a9 cb3d 450d e3bd 8c41 40be 6d1b aabd
00000010: ef4c 713e 7a40 053e f153 9dbe 375a 0d3e
00000020: ae43 a6bd 1ad6 2fbd fc56 183d a99f 8f3d
00000030: ef77 b73d 2de5 a13e 8417 123d 6a54 4e3e
00000040: 99c4 5e3d e2aa 7abd 8ff0 b13d 2aaa 22bd
00000050: 9c70 49bc 06b0 66be 19ab b1bc e379 c2bc
00000060: 8a76 873d 7498 45be a15b 813b 62f5 78bd
00000070: 22a3 b4bd fdef ef3c 1f1b 30be 0475 8abd
00000080: 109a dd3d a70d ac3b 412a e1bd fc21 3fbe
00000090: 7ac2 72bc 720c 47bc aa1f 9a3c b438 ee3d
000000a0: 1be9 71bc f244 693e ec82 a3bd ebb9 5f3d
000000b0: b3f0 eabc e8bb 443d a624 283e a7ba 383d
000000c0: cf35 1abe 4e0b a63d 6a1b e03c 5371 a83e
000000d0: 6925 11be 0ae3 d83d 8e3c 023e d658 afbe
000000e0: 076c 013d 9a22 5d3d d739 acbc 9aeb 3cbd
000000f0: 45e1 c9bd f508 f9bd a25a 2b3d fb4b aebc
00000100: a4c8 9d3e d9ca 2b3c c2fb 373d 1fa9 493e
00000110: 4bfb bbbd d44f 3bbe 0361 9bbc 2126 59be
00000120: eb2e 70be 9365 eb3c 39a6 6a3d 178b f03c
00000130: 5410 3c3e 6006 1cbe cce5 e0bc c6c3 0bbe
00000140: 8d96 02be a6e4 b03d 74c8 7dbd f41c 0abe
00000150: 02d9 0cbe ccfb 4dbd 4910 d9bc 6b2c 6d3e
00000160: cb28 1fbd acfd 75bb 2a4c 973c cb55 1f3e
00000170: 6eae 7e3c 0a6a 79bd a22b 06bd 7d1b 2e3d
00000180: 941b a93d b6e3 a63d 56c0 67bd 0523 1e3e
00000190: cae2 c23e 9ec9 48be bece dd3e fc6f e7bc
000001a0: 590d 503e 23cb 4bbe 6d16 d83d 7d1b 793e
000001b0: 15be ed3d 8e98 cfbd 2ce8 1abe 424c 7b3e
000001c0: d626 1f3e d980 5e3c 35b0 9c3d 0c95 87be
000001d0: 3cf4 61be 5f00 5b3d 8fd6 1cbe 7a5e fd3b
000001e0: 362c ff3d 071e 563e 2b64 7cbe 1ff3 2cbe
000001f0: 96f0 b4bb 3026 d3bd e62e b73d 5cb5 c7bc
00000200: a724 bd3d ab48 a23d b4d6 91be c0dc 793e
00000210: 8125 e3bd 08ba 8d3d 4078 923c 3aff 31bd
00000220: 85ac b73e 07e2 503d 484b 083e 2649 94bb
00000230: 5c6f 9c3d 3a59 38be f5de 843d f9e1 df3d
00000240: b021 1a3e 0970 a43b ae4d d5bd d790 283d
00000250: aa8b 4b3e 93c5 96be b85a 1d3e 2d86 a7be
00000260: be9c 873d a326 3e3e 9cb0 213e f626 42bd
00000270: 022f bf3d c215 653e 335c b43d aa5f 34be
00000280: 18f1 8cbd cd94 9f3b 8273 79bd fddf 04bc
00000290: cc22 183e bc97 ca3d 1a4a f83c a676 0d3d
000002a0: a171 6dbd 4228 1ebd 3e67 433d ecb8 2e3e
000002b0: b40e 4d3e ddfb 0c3e c891 133e 849e bcbe
000002c0: 64ed 823d a5b2 283d d660 34bd b7df 8c3d
000002d0: ff8f 993d 08e6 90bb d18e 02bc 4263 873d
000002e0: 2061 0abe 807e 373d 55d8 913e 3309 8fbd
000002f0: 26cf b73d b60d 8e3e 2f24 6e3c a1d0 0a3c
00000300: 45f6 743e 54c3 313d ef57 6b3e 6894 3f3e
00000310: d5c4 f7bb 06c9 703d 0d6a 283b fd16 21bd
00000320: 0e77 923d 0938 05bc e2bd 25be a280 04be
00000330: 39ff c6bd e8d2 9c3d b887 413e 9020 393e
00000340: 6497 48be f397 a63d 49c9 373e 6e9b a03d
00000350: f9b4 8d3d 186c 00bd 6c04 2a3b e4be 3a3e
00000360: 9b83 81bd 205d 2a3e fad9 ac3d 4711 14bc
00000370: 15e2 a53d 54ed f4bd d059 543d 433c 023e
00000380: e431 123e dceb 773d b47e 563d a36d 3e3e
00000390: 993c 9e3c c791 403e 84ee efbd d951 c73d
000003a0: dcc4 b03d b385 fbbd 3dc0 6f3c 550b 22bc
000003b0: 91b3 17be 3383 49bd b6f2 2dbe 250c df3c
000003c0: 46ee 04bd e91a 02bd 24a1 01bd aae3 4ebe
000003d0: ce79 9cbd 7ba4 94bd 8b22 703e 02a2 9d3d
000003e0: 7c79 51be 9318 403d 4667 72bd 740f c9bb
000003f0: ed8f 8c3d 440f 1d3d 6d21 8bbe aba3 3b3e

mid_part.8.bias f4 [12]
0.005772437 0.038047478 -0.009680136 -0.025446178 0.026627779 -0.00097581674 0.020106113 0.047242545
-0.037332274 0.0655559 0.040572 0.03685133
00000000: b626 bd3b acd7 1b3d 6f99 1ebc 8174 d0bc
00000010: 8022 da3c f4cd 7fba 93b5 a43c 6681 413d
00000020: bae9 18bd 2c42 863d d32e 263d 6cf1 163d

mid_part.9.weight f4 [12]
0.17498809 0.038933024 -0.14963613 0.26519573 0.68901455 1.220703 -0.14186326 1.0239687
0.26756707 0.3980128 0.08263356 1.7125578
00000000: 1430 333e 3c78 1f3d 373a 19be bcc7 873e
00000010: 4263 303f ff3f 9c3f 9a44 11be 6811 833f
00000020: 8dfe 883e 55c8 cb3e c93b a93d 1835 db3f

mid_part.10.weight f4 [56, 12, 1, 1]
-0.08205647 0.17388937 -0.05640465 -0.3832678 -0.09166207 0.2449227 0.09674145 0.28861123
-0.1599323 -0.09043135 0.37404317 -0.13333221 0.060526878 0.16253193 0.0705119 -0.04171498
-0.24141946 0.30403605 -0.06781438 0.3188915 0.021516822 0.09114869 0.21200219 0.09242888
-0.04209612 0.116615094 0.0046380986 -0.22683707 -0.33446968 -0.32031542 0.34546557 0.03676608
0.0576808 -0.15497106 -0.18497926 -0.007953549 0.057162054 -0.21348524 -0.04305617 -0.13499531
-0.17688327 -0.34446934 0.32383087 0.5630717 -0.29838952 -0.03986189 0.11942673 0.16613683
-0.17060675 0.16107212 0.33871612 0.12942572 -0.067640655 0.2199179 -0.065684415 0.26316303
0.2075446 -0.039685786 0.14734048 -0.24306571 -0.16099456 -0.093566984 0.14942703 0.29570612
-0.1651958 0.020301525 -0.21863039 -0.17160195 0.149958 -0.32184437 0.075450055 0.14856736
0.23069498 0.08933289 -0.33045766 -0.15391073 0.34290987 -0.20854747 -0.028272353 -0.068420365
0.30264708 -0.2103416 0.016459763 -0.18000509 0.17927827 0.011189124 0.15438303 0.37792295
0.043952566 -0.11391863 -0.30077964 -0.20136185 0.066326 0.3825242 0.7354715 0.1498643
-0.25021672 0.11448337 -0.09945919 -0.040539857 0.14247848 -0.13902989 -0.023725927 -0.057901848
-0.062116362 -0.47257063 -0.024947401 0.2858305 -0.4003058 0.12897547 0.1365526 -0.14617811
0.107430175 -0.2217432 0.01448658 0.08935407 -0.17819527 -0.14386386 -0.068502225 0.15700592
-0.009180236 -0.19782221 -0.07307723 -0.24561289 0.15060979 0.0026323893 -0.07628174 -0.34906095
-0.18218188 0.19473065 0.18208286 -0.16444364 0.051402498 0.14438307 0.07745553 -0.31657213
0.03846869 0.1492199 0.1337635 0.04622864 -0.33006674 -0.034190983 -0.14380601 -0.07289942
0.061957635 0.20369902 -0.007952717 -0.04699484 0.058019668 0.051821183 -0.06805362 -0.031433452
0.23712945 0.31942388 -0.3797382 -0.17808211 -0.29101658 -0.03893655 -0.2300071 -0.09190622
0.030687412 -0.1418793 0.0042577917 0.23797527 0.30334887 0.5778713 0.6193699 -0.42947417
-0.15174535 -0.017602954 -0.077422254 0.03583142 0.2807479 0.06280026 -0.025878832 6.942493e-05
0.16287516 -0.007811039 -0.14454566 0.15051349 -0.1387643 0.13573426 -0.35750666 -0.06773937
0.2728546 0.408226 0.008789722 -0.24669307 -0.0035035603 0.37041983 -0.25081596 0.13063206
0.22271903 0.20630461 -0.029124727 -0.15121819 0.12598945 -0.40752104 0.007974878 0.099364504
0.07470038 0.28103784 0.2342148 -0.099210694 0.03886678 0.12331274 0.06308747 -0.13817951
0.010090549 0.040064506 0.16557938 0.05243495 0.14121537 -0.17965053 0.12194545 -0.13709646
-0.15953147 -0.044974558 -0.08168592 -0.04204417 -0.0948079 0.2537017 0.07560733 0.119276606
-0.325515 -0.007105443 -0.1561463 -0.1294973 0.052721743 0.007990606 -0.030254874 -0.19835645
-0.05536883 -0.22221208 0.12042133 -0.3927953 0.17551814 -0.38796982 0.0956125 -0.21247321
-0.03147714 -0.11774933 -0.23006526 -0.2524938 -0.051623885 -0.11505554 0.05020222 0.19031271
0.034588687 0.006631739 -0.53502065 -0.30085105 0.020904033 -0.07897219 0.026540844 -0.16558115
00000000: 390d a8bd 0e10 323e 9008 67bd ad3b c4be
00000010: 53b9 bbbd 04cd 7a3e 6220 c63d dac4 933e
00000020: 4bc5 23be 1234 b9bd 9682 bf3e 3d88 08be
00000030: 08eb 773d c56e 263e 8b68 903d 54dd 2abd
00000040: aa36 77be 9daa 9b3e 44e2 8abd bf45 a33e
00000050: 0c44 b03c 2aac ba3d 1a17 593e 5a4b bd3d
00000060: fb6c 2cbd e5d3 ee3d 31fb 973b fa47 68be
00000070: 9c3f abbe 6200 a4be dde0 b03e 0798 163d
00000080: b442 6c3d bcb0 1ebe 346b 3dbe 9a4f 02bc
00000090: c222 6a3d e09b 5abe ab5b 30bd 363c 0abe
000000a0: e320 35be 495e b0be 29cd a53e 7825 103f
000000b0: 83c6 98be 3946 23bd 0096 f43d c61f 2a3e
000000c0: 89b3 2ebe 17f0 243e 336c ad3e 2d88 043e
000000d0: 2f87 8abd 2832 613e 8d85 86bd 4ebd 863e
000000e0: 9286 543e 908d 22bd 6ce0 163e 38e6 78be
000000f0: c2db 24be 0ca0 bfbd 6603 193e cb66 973e
00000100: 1629 29be 624f a63c a5e0 5fbe 6cb8 2fbe
00000110: 978e 193e c9c8 a4be 8f85 9a3d 0b22 183e
00000120: 4e3b 6c3e 2af4 b63d bf31 a9be c69a 1dbe
00000130: e291 af3e 788d 55be 6c9b e7bc fa1f 8cbd
00000140: 8ff4 9a3e ca63 57be a0d6 863c 4153 38be
00000150: b994 373e 9652 373c 9616 1e3e 1e7f c13e
00000160: 9b07 343d 2c4e e9bd caff 99be cd31 4ebe
00000170: edd5 873d 36da c33e dc47 3c3f 0776 193e
00000180: 681c 80be 4276 ea3d 43b1 cbbd 1f0d 26bd
00000190: e1e5 113e da5d 0ebe e05c c2bc 7d2a 6dbd
000001a0: ba6d 7ebd c7f4 f1be 7e5e ccbc 6058 923e
000001b0: e2f4 ccbe 2512 043e 72d4 0b3e b7af 15be
000001c0: 5a04 dc3d a610 63be 1f59 6d3c 44ff b63d
000001d0: d278 36be 0c51 13be e54a 8cbd 29c6 203e
000001e0: b368 16bc e891 4abe 84a9 95bd f281 7bbe
000001f0: 7439 1a3e 2a84 2c3b 9a39 9cbd 1eb8 b2be
00000200: e38d 3abe 7967 473e ee73 3a3e ea63 28be
00000210: 6d8b 523d 28d9 133e 01a1 9e3d be15 a2be
00000220: 5891 1d3d 1acd 183e 4df9 083e 3e5a 3d3d
00000230: 82fe a8be d80b 0cbd e241 13be 4b4c 95bd
00000240: 4ac7 7d3d 7a96 503e 1d4c 02bc a97d 40bd
00000250: 08a6 6d3d 7342 543d b25f 8bbd 5dc0 00bd
00000260: 10d2 723e 878b a33e 0c6d c2be 285b 36be
00000270: 2000 95be ef7b 1fbd fb86 6bbe 5439 bcbd
00000280: 2b64 fb3c cf48 11be f284 8b3b caaf 733e
00000290: 8b50 9b3e 60ef 133f 078f 1e3f 0ae4 dbbe
000002a0: 2263 1bbe 1234 90bc 8f8f 9ebd f8c3 123d
000002b0: 30be 8f3e 6c9d 803d d8ff d3bc 3a98 9138
000002c0: bfc8 263e bff3 ffbb c703 14be 3520 1a3e
000002d0: 3b18 0ebe ecfd 0a3e 1d0b b7be f0ba 8abd
000002e0: 99b3 8b3e 0003 d13e c402 103c 1c9d 7cbe
000002f0: fd9b 65bb aba7 bd3e f36a 80be 69c4 053e
00000300: 7510 643e 8441 533e fb96 eebc f1d8 1abe
00000310: 6103 013e 99a6 d0be 10a9 023c 9e7f cb3d
00000320: 83fc 983d 31e4 8f3e 01d6 6f3e fa2e cbbd
00000330: c632 1f3d 648b fc3d 0134 813d ee7e 0dbe
00000340: d452 253c ae1a 243d a48d 293e 08c6 563d
00000350: c39a 103e 4ff6 37be 89be f93d 0463 0cbe
00000360: 385c 23be 3e37 38bd f34a a7bd 8236 2cbd
00000370: a52a c2bd 30e5 813e 04d8 9a3d 4b47 f43d
00000380: e7a9 a6be c7d4 e8bb d1e4 1fbe f19a 04be
00000390: c1f2 573d 08eb 023c 12d9 f7bc f41d 4bbe
000003a0: 6dca 62bd 908b 63be 759f f63d 771c c9be
000003b0: 07bb 333e fba3 c6be 7dd0 c33d 9492 59be
000003c0: 2cee 00bd 9026 f1bd 3a96 6bbe de46 81be
000003d0: 9173 53bd 3da2 ebbd d8a0 4d3d 56e1 423e
000003e0: deac 0d3d 0f4f d93b 1df7 08bf 2609 9abe
000003f0: ef3e ab3c 2cbc a1bd 2f6c d93c 1b8e 29be
