models/fsrcnn/track1/track1_x4__epoch_1.pth (torch, 58227 bytes, 22 tensors)

first_part.0.weight f4 [56, 1, 5, 5]
0	0xbcc50f23	-0.02405507
1	0x3d52daf8	0.051478356
2	0x3d03619c	0.03207551
3	0x3c5a80d8	0.013336383
4	0xbb9d7370	-0.004805021
5	0xbcaeadca	-0.021323103
6	0x3c86044b	0.016359469
7	0xbd0ce380	-0.03439665
8	0xbd055357	-0.032550182
9	0x3baad7d5	0.0052137175
10	0x3d2e49f9	0.042551015
11	0xbcbce1e7	-0.023056937
12	0x3d0ff4b4	0.035145476
13	0x3c52dc02	0.012869837
14	0x3c838d01	0.016058447
15	0x3d429802	0.047508247
16	0xbd248f3f	-0.040175673
17	0xbcb0a373	-0.021562314
18	0x3d857949	0.06517274
19	0xbc1a3af6	-0.009413471
20	0xbc612ac2	-0.013743104
21	0x3c20b24a	0.009808132
22	0x3d68e1c0	0.056855917
23	0xbabc0ad0	-0.0014346484
24	0xbd40dcf7	-0.04708573
25	0xbd18c7fe	-0.037300102
26	0xbd21da07	-0.039514568
27	0xbd52d416	-0.051471792
28	0x3c04dc96	0.008109232
29	0x3d37974c	0.044822022
30	0xbd48cca9	-0.049023304
31	0x3d43e9fb	0.047830563
32	0xbd0f3cc0	-0.034970045
33	0xbcb5ade5	-0.022177646
34	0x3b241781	0.0025038423
35	0xbcb8c9ab	-0.0225571
36	0x3c3f7445	0.011685436
37	0x3bc58228	0.0060274787
38	0x3bee6145	0.007274779
39	0xbd818a14	-0.063251644
40	0xbc749e89	-0.014930376
41	0x3d17c51f	0.037053224
42	0x3aa8bb3e	0.0012873185
43	0x39ac0e0f	0.0003281687
44	0xbc3f21b6	-0.011665752
45	0x3d1829d9	0.037149284
46	0xbbda8bbd	-0.00666949
47	0xbdad2a2d	-0.0845531
48	0x3d521132	0.05128593
49	0x3bd1d5bc	0.006403653
50	0xbca51c9d	-0.020155245
51	0xbd593cd6	-0.053036533
52	0xbc82aeff	-0.015952585
53	0xbcbd3b15	-0.023099462
54	0x3c3b3e66	0.011428451
55	0x3ab50427	0.0013810442
56	0x3a805c77	0.0009793182
57	0xbc867c2d	-0.016416634
58	0xbccaab25	-0.024739811
59	0xbd941d72	-0.07232179
60	0xbd12e65f	-0.03586423
61	0xbd9b52d4	-0.075841576
62	0xbd4ef7d0	-0.0505293
63	0xbc6b0407	-0.014344222
64	0xbd667955	-0.056268055
65	0x3d416447	0.047214773
66	0xbd735bcb	-0.059413712
67	0xbd801c70	-0.06255424
68	0xbcd2e602	-0.025744442
69	0xbc8c8d77	-0.0171573
70	0xbd4d46f9	-0.050116513
71	0x3d4dbe3d	0.050230253
72	0x3d293a0d	0.041315127
73	0xbd21e02e	-0.039520435
74	0xbcc8a746	-0.024493825
75	0x3cd9fb1a	0.026608992
76	0xbbccf240	-0.0062544644
77	0x3d41a64c	0.047277734
78	0x3cabb1c0	0.020958781
79	0xbccd5f27	-0.025069786
80	0xbd3ae5e8	-0.045629412
81	0xbc3432e4	-0.010998461
82	0x3c96c13c	0.018402688
83	0xbd54a8f9	-0.051918957
84	0xbb0f3b90	-0.002185557
85	0x3c61cd7d	0.013781902
86	0x3dab40a1	0.08361936
87	0xbd27a9af	-0.040933307
88	0xbd825566	-0.06363945
89	0x3cf2ead3	0.029652989
90	0x3cb4f403	0.02208901
91	0xbd33ba03	-0.043878566
92	0xbd41c6a8	-0.047308594
93	0xbbcea7a8	-0.0063066073
94	0xba36b327	-0.0006969445
95	0x3cf499fd	0.029858584
96	0xbd9713b7	-0.07376807
97	0xbc8c2995	-0.017109672
98	0xbd253adc	-0.040339336
99	0xbdc71f16	-0.09722726
100	0x3bb263dc	0.005444033
101	0xbd25d4fd	-0.040486325
102	0xbd135ce2	-0.03597725
103	0xbdb875c4	-0.09006837
104	0xbcbcc967	-0.023045255
105	0xbc48bd46	-0.012252158
106	0x3d90f65c	0.07078239
107	0x3adbbe82	0.001676515
108	0x3d25a698	0.04044208
109	0xbc005db8	-0.007834844
110	0x3c2e0750	0.010621861
111	0xbda06643	-0.07832005
112	0xbccf2a29	-0.025288658
113	0xba71fbd3	-0.0009230945
114	0x3ca9ff71	0.020751687
115	0xbbba6bf5	-0.005689139
116	0xbdaabfbd	-0.083373524
117	0xbd499483	-0.049213897
118	0xbcda84e1	-0.02667469
119	0x3d3e5c78	0.046474904
120	0xbd4588ec	-0.048226282
121	0xbc8b2970	-0.016987532
122	0x3d642791	0.055701796
123	0xbd9425f5	-0.07233802
124	0x3c84f90c	0.016232036
125	0xbd92090a	-0.0713063
126	0xbd512161	-0.051057223
127	0x3d3cb712	0.046073027
128	0x3cabf551	0.020991
129	0x3c569169	0.013096192
130	0x3cdd0307	0.026978983
131	0xbd29fe76	-0.04150244
132	0xbc117a7a	-0.008879298
133	0xbd670ad3	-0.056406807
134	0xba7b521f	-0.0009587127
135	0xbd463d7b	-0.048398476
136	0xbc88bf78	-0.016692862
137	0x3cd4b853	0.025966799
138	0x3cf6e907	0.030140413
139	0xbd14b6d4	-0.03630717
140	0x3d5c84b5	0.053837497
141	0xbd6efbeb	-0.058345716
142	0x3cfc65cf	0.030810265
143	0xbc852f9e	-0.016258057
144	0xbc34cfbd	-0.011035857
145	0x3d5ae495	0.05344065
146	0xbbad3a95	-0.0052865245
147	0xbbb02d3c	-0.005376486
148	0xbc554156	-0.013016066
149	0xbcded528	-0.02720125
150	0xbdbc67ae	-0.09199463
151	0x3c82e22f	0.015976993
152	0x3be86937	0.0070926207
153	0x3d7219c8	0.05910662
154	0xbcdcf55b	-0.026972463
155	0xbc074a69	-0.008257487
156	0x3c9081be	0.01763999
157	0x3ce746b8	0.028231964
158	0xbd38c97e	-0.045114033
159	0xbd5f9c97	-0.054592695
160	0xbc274502	-0.010209324
161	0xbd5e7614	-0.054311827
162	0xbb947dd5	-0.004531602
163	0xbc7a91ab	-0.015293519
164	0x3d1795ee	0.03700822
165	0xbda63099	-0.08114738
166	0x3c59a5e6	0.013284182
167	0xbce37c9a	-0.027769376
168	0x3c6a761a	0.014310384
169	0xbca0e0c1	-0.019638421
170	0xbd746a5e	-0.059671752
171	0x3c70cb96	0.014696976
172	0xbb8e5483	-0.0043435707
173	0xbb8119ed	-0.003939858
174	0xbd9b8b74	-0.07594958
175	0x3d81aaa8	0.06331378
176	0x3bfdb96c	0.0077430513
177	0x3bac5fab	0.005260428
178	0xbdb20d93	-0.08693995
179	0x3c4e4b78	0.012591235
180	0xbc94786e	-0.018123832
181	0xbd74e87e	-0.059792034
182	0xbba2beee	-0.0049666082
183	0x3a9816cd	0.0011603475
184	0x3c97383b	0.01845943
185	0x3ccf7bc9	0.02532758
186	0xbbdc03f9	-0.0067143408
187	0x3de9d79d	0.11418078
188	0x3c26b03b	0.010173853
189	0x3ca4160b	0.020030042
190	0xbcece115	-0.028915921
191	0xbd44229b	-0.047884565
192	0x3dc0bff9	0.09411616
193	0xbd689153	-0.056779217
194	0x3d1749a6	0.03693547
195	0x3db0d2ed	0.08633981
196	0xbb3a3a56	-0.0028416119
197	0x3c7eb1cc	0.01554532
198	0xbc00d320	-0.007862836
199	0x3d951484	0.07279304
200	0x3d1b4400	0.037906647
201	0x3d81cf57	0.06338375
202	0xbc7d9014	-0.015476245
203	0x3baca4f6	0.0052686883
204	0x3d00db56	0.031459175
205	0x3cb02bab	0.021505198
206	0x3cff382c	0.031154715
207	0x3ae8609b	0.0017728986
208	0x3c737ef8	0.014861815
209	0xbbd570ef	-0.006513707
210	0x3bf8d50e	0.0075937575
211	0xbba8cbc0	-0.005151242
212	0x3d3c298c	0.04593806
213	0x3c847793	0.016170299
214	0xbca7d417	-0.020486875
215	0xbc63586f	-0.013876065
216	0x3cbe66d7	0.023242397
217	0x3d1f38c0	0.03887248
218	0xbc849776	-0.016185503
219	0xbd2af8f7	-0.041741338
220	0x3d20bb40	0.039241076
221	0x3cdb4ccc	0.026770018
222	0x3db5c47d	0.08875368
223	0xbd143f1e	-0.036193006
224	0x3c9c4a3f	0.019078372
225	0x3daef747	0.08543258
226	0xbd25abdd	-0.040447105
227	0xbd639b82	-0.055568226
228	0x3d491066	0.049087904
229	0xbd774a21	-0.06037343
230	0xbc61c0c1	-0.013778866
231	0xba604d9f	-0.00085564883
232	0x3cde3973	0.027127003
233	0xbd39585b	-0.045250278
234	0x3c63b5b2	0.0138983
235	0x3c02770e	0.007962955
236	0xbc595daa	-0.01326696
237	0x3d90f6b2	0.070783034
238	0x3d3912b3	0.04518385
239	0x3d2aae53	0.041670155
240	0x3d66cd57	0.05634817
241	0xbb9d3c04	-0.004798414
242	0x3c5222cd	0.01282568
243	0xbd2f058e	-0.042729907
244	0x3d439a96	0.047754847
245	0x3d36094a	0.044442452
246	0x3d3028f0	0.04300779
247	0x3cab87ad	0.020938719
248	0x3d73a5f6	0.059484445
249	0x3d411dd1	0.047147576
250	0xbccd8dc5	-0.025092015
251	0x3d1a573f	0.03768086
252	0xbd3adb00	-0.04561901
253	0x3b52aa4f	0.003214497
254	0xbd24cb86	-0.040233158
255	0x3bdfdc65	0.006831693

first_part.0.bias f4 [56]
0	0xbb968dec	-0.004594555
1	0xbb4ba406	-0.0031073107
2	0x3aa5f6e1	0.0012662077
3	0xbb424144	-0.0029640952
4	0x3b87f83f	0.0041494663
5	0xbb836287	-0.004009548
6	0xba5fd0a1	-0.0008537863
7	0xbc1580ac	-0.009124916
8	0xbb137c32	-0.0022504446
9	0xbac7ba07	-0.0015237936
10	0xbb9949c4	-0.004677983
11	0x3a7f3b94	0.0009736356
12	0x3c439534	0.011937428
13	0x3b9ee2e4	0.004848825
14	0x3c9050c7	0.017616643
15	0xbbb46b16	-0.0055059297
16	0x3b7c0931	0.0038457627
17	0xbc150dae	-0.0090975
18	0x3bf43f5a	0.007453841
19	0xbc954df1	-0.018225642
20	0x3ac51c7f	0.00150384
21	0xbaca7fef	-0.0015449504
22	0xbb51116b	-0.003190125
23	0xbb6a5205	-0.0035754454
24	0xbc0853f0	-0.0083207935
25	0xb78ae278	-1.655634e-05
26	0xbb28f109	-0.0025778434
27	0x3ac4dda8	0.0015019672
28	0xbc0bacc8	-0.008525081
29	0xb9a4c485	-0.00031426936
30	0x3b0c3560	0.0021394119
31	0xbb93faa9	-0.004515965
32	0xbb204e73	-0.0024460822
33	0xbb1e5d4e	-0.00241645
34	0x3b4b0495	0.0030978073
35	0x3c07347f	0.008252262
36	0xbad1769d	-0.0015980784
37	0x3b3ee630	0.0029128902
38	0xbbb459b8	-0.0055038594
39	0x3c3a0691	0.011354105
40	0x3d569f56	0.05239805
41	0xbc3f9d11	-0.011695162
42	0x3adc1836	0.0016791883
43	0xbcea3a56	-0.02859227
44	0x3a8e0c07	0.0010837325
45	0x3b40f7a1	0.0029444473
46	0xbb8757be	-0.0041303327
47	0xba7bb01b	-0.0009601132
48	0xbd99dc8f	-0.07512771
49	0x3c540921	0.01294163
50	0xbbf109c5	-0.007355901
51	0x3c18fc05	0.00933743
52	0xbbb62404	-0.0055584926
53	0x3afeb38b	0.001943217
54	0xbb1f2d1d	-0.0024288364
55	0x3c6b89ae	0.014376087

first_part.1.weight f4 [56]
0	0x3e789afe	0.24277875
1	0x3e82d258	0.25551105
2	0x3e83d954	0.25751746
3	0x3e834604	0.25639355
4	0x3e82ddf1	0.25559953
5	0x3e82969c	0.2550553
6	0x3e81229d	0.2522172
7	0x3e934ed8	0.2877109
8	0x3ea1f8b9	0.31635073
9	0x3e9341ee	0.28761238
10	0x3f2e12a8	0.6799722
11	0x3e800255	0.2500178
12	0x3f04a355	0.51811725
13	0x3e814c5b	0.25253567
14	0x3e7253e9	0.23664822
15	0x3e2c51ea	0.16828123
16	0x3ea409b4	0.32038653
17	0x3e8b01e1	0.2714987
18	0x3e810a33	0.25203094
19	0x3ea4059b	0.32035527
20	0x3e82761e	0.2548074
21	0x3f3303e3	0.69927806
22	0x3e7e8711	0.24856211
23	0x3e80171c	0.2501763
24	0x3d461832	0.04836292
25	0x3e7ec52c	0.24879903
26	0x3e8414b0	0.25797033
27	0x3e81df7b	0.25365815
28	0x3e8b63f6	0.27224702
29	0x3e86a23d	0.26295653
30	0x3e7eda33	0.24887924
31	0x3ea9fccd	0.33200684
32	0x3ec9b8bc	0.39398754
33	0x3e894710	0.2681203
34	0x3e7ed633	0.24886398
35	0x3e81946a	0.25308543
36	0x3e886084	0.26636136
37	0x3e34c196	0.17651972
38	0x3e890fb5	0.26769796
39	0x3e809d1f	0.25119874
40	0x3ebf55dc	0.37370193
41	0x3e884b00	0.2661972
42	0x3e8404df	0.25784966
43	0x3ea8c070	0.32959318
44	0x3edaaa38	0.42707992
45	0x3e7a561c	0.2444691
46	0x3f2877c7	0.65807766
47	0x3e7e5def	0.2484052
48	0x3ef7e490	0.48416567
49	0x3e78ed50	0.24309278
50	0x3f55c29c	0.83500075
51	0x3e7e4818	0.24832189
52	0x3e650e90	0.22368836
53	0x3e5f309e	0.2179589
54	0x3e879b40	0.26485634
55	0x3e83dae7	0.25752947

mid_part.0.weight f4 [12, 56, 1, 1]
0	0x3f0117eb	0.5042712
1	0x3e5aeb37	0.2137879
2	0xbf4223d0	-0.75835896
3	0x3e7c1818	0.24618566
4	0x3eca935a	0.39565545
5	0x3ea007f5	0.3125607
6	0xbda080c9	-0.07837064
7	0x3efd5341	0.4947758
8	0x3e284f8d	0.16436596
9	0xbf9763ec	-1.1827369
10	0x3f008415	0.5020154
11	0xbd938d92	-0.07204737
12	0xbf0cc41e	-0.5498675
13	0x3f87d4ea	1.0611851
14	0x3ed8866e	0.42290062
15	0x3ec433ed	0.38320866
16	0x3db31937	0.08745044
17	0x3d98d17d	0.07461832
18	0x3f0d380f	0.55163664
19	0xbe784c23	-0.24247794
20	0x3c3177d6	0.010831794
21	0x3f34c4d4	0.70612836
22	0xbebb8d4f	-0.36631247
23	0xbeec04ec	-0.46097505
24	0xbd903953	-0.07042184
25	0xbd9346ef	-0.07191264
26	0x3ed0b5ee	0.407638
27	0xbf37e95e	-0.71840465
28	0x3e86769d	0.2626237
29	0x3eb79ce8	0.35861897
30	0x3d5d14c8	0.053974897
31	0x3eb8a3c8	0.36062455
32	0x3f08ee7f	0.53488916
33	0x3e0913b0	0.13386416
34	0xbf134d07	-0.5753941
35	0xbf2fb0e6	-0.686293
36	0xbd492830	-0.04911059
37	0xbd574084	-0.05255176
38	0xbe5af1dd	-0.21381326
39	0x3ebc407a	0.36767942
40	0xbdaf3517	-0.08555048
41	0x3f00d6ea	0.5032793
42	0xbec70ea1	-0.38878348
43	0xbdffb9ab	-0.12486585
44	0xbe05504e	-0.13018915
45	0xbe16bdbe	-0.14720818
46	0xbe05475f	-0.13015507
47	0xbf1b8ef5	-0.6076501
48	0xbe24c090	-0.16089082
49	0xbf1692e5	-0.58817893
50	0xbdd99df1	-0.10625828
51	0xbe02ed0d	-0.1278574
52	0xbf2a8849	-0.66614205
53	0x3e09c865	0.1345535
54	0xbe96a35b	-0.29421505
55	0xbe24b398	-0.16084135
56	0xbeadcae1	-0.33943847
57	0xbf743e0e	-0.9540719
58	0x3f015b27	0.5052971
59	0x3d1dd3c3	0.03853203
60	0x3c04f62c	0.008115333
61	0x3f565684	0.8372576
62	0x3f3da910	0.74086094
63	0x3ef9ae8d	0.48765984
64	0x3c59aa90	0.013285294
65	0xbdd89c4d	-0.10576687
66	0xbd66dbfc	-0.056362137
67	0xbefd9879	-0.4953039
68	0x3e25f511	0.16206767
69	0x3e416449	0.18885912
70	0xbf24c48c	-0.64362407
71	0x3dde6d6e	0.10860716
72	0xbf0f3716	-0.5594343
73	0x3e7fd174	0.24982244
74	0x3f0bd9b6	0.54629076
75	0xbddf4b22	-0.10903002
76	0x3f5ca27a	0.8618542
77	0xbe80bf49	-0.2514594
78	0x3dd67376	0.10471241
79	0xbebd2361	-0.36941054
80	0xbec27441	-0.3797932
81	0xbdb7b11a	-0.08969326
82	0x3d88fc7c	0.066887826
83	0xbf09cb2b	-0.53825635
84	0x3f11e50d	0.5699013
85	0x3f495f59	0.78661114
86	0xbe22c47a	-0.15895262
87	0x3ecc68f4	0.39923823
88	0x3e13566d	0.14388438
89	0xbed60612	-0.41801506
90	0xbdaa46e8	-0.083143055
91	0xbe1ed417	-0.15510593
92	0x3e672af5	0.2257498
93	0x3e633c7c	0.22191042
94	0xbf194c84	-0.5988238
95	0xbe9c0bfa	-0.30477887
96	0x3e823be1	0.2543631
97	0x3f37b238	0.71756315
98	0xbe87af5b	-0.26500973
99	0x3f560e37	0.8361544
100	0x3f3bf61c	0.7342241
101	0x3df10f32	0.117704764
102	0x3ed7e57b	0.42167267
103	0x3db024dc	0.0860078
104	0x3e9e6fb8	0.3094461
105	0xbe135da5	-0.14391191
106	0x3f56086e	0.8360661
107	0xbeebfcc5	-0.46091285
108	0xba48a99f	-0.000765467
109	0xbe33e478	-0.17567623
110	0x3f2a5344	0.66533303
111	0xbee5be43	-0.4487172
112	0x3e8d8c67	0.2764618
113	0xbf1c9ad5	-0.61173755
114	0xbe89e6ae	-0.26933807
115	0xbecb0b8d	-0.3965725
116	0xbda77706	-0.08176999
117	0x3f1b6298	0.6069732
118	0xbdf92334	-0.121649176
119	0xbd6e2ba3	-0.058147084
120	0x3f26ee53	0.65207404
121	0x3f4a42b0	0.7900801
122	0x3dcdfb3a	0.10057683
123	0x3f51f692	0.8201686
124	0xbeda03ef	-0.42581126
125	0xbe1ab2d5	-0.15107282
126	0xbde0241c	-0.10944387
127	0x3ed17b95	0.40914598
128	0xbc58a04b	-0.013221811
129	0xbe1c71ea	-0.1527783
130	0x3ef4ff33	0.47850952
131	0x3ebb7f02	0.36620337
132	0xbf099983	-0.53749865
133	0x3e6e6a49	0.23282732
134	0xbe05ebb1	-0.1307819
135	0xbe9c8dd0	-0.30576944
136	0x3ed320b7	0.41235897
137	0xbeab6956	-0.33478802
138	0xbe221887	-0.15829669
139	0xbe82d65c	-0.25554168
140	0xbefae877	-0.49005482
141	0x3edf7874	0.43646586
142	0x3c976bf8	0.0184841
143	0xbe1fe4ed	-0.15614672
144	0x3efb08db	0.49030194
145	0x3f3381a1	0.70119673
146	0x3f23c676	0.639747
147	0x3ec32d8e	0.38120693
148	0x3ea5fc53	0.3241907
149	0x3e9fdef3	0.31224784
150	0xbeed2c8c	-0.4632305
151	0x3de31d1a	0.11089535
152	0xbc9e7b72	-0.019345973
153	0x3e04fe15	0.1298755
154	0xbe59818e	-0.21240827
155	0xbbc32fc6	-0.005956623
156	0x3e0ee768	0.13955462
157	0x3ed5eca1	0.41782096
158	0x3e736ab1	0.23771168
159	0x3ef7b3e6	0.4837944
160	0xbc7413f1	-0.0148973325
161	0x3f199a66	0.6000122
162	0x3e608282	0.21924785
163	0xbf125d65	-0.5717376
164	0x3c8dc69c	0.017306618
165	0x3ede55c3	0.43424806
166	0xbeb3ee7e	-0.35142893
167	0xbea3f564	-0.32023156
168	0x3d59fbc9	0.053218637
169	0x3e906ed5	0.28209558
170	0xbe07d969	-0.13266529
171	0x3e1c9749	0.15292086
172	0x3e85db7e	0.26144022
173	0xbd365221	-0.044511918
174	0xbe125d32	-0.14293364
175	0x3e941785	0.28924194
176	0xbf135d49	-0.57564217
177	0xbec62354	-0.38698828
178	0x3f0cf2e4	0.5505812
179	0xbeb41ec1	-0.35179713
180	0x3eb7f38d	0.35928002
181	0xbef77b41	-0.48336223
182	0x3f1c45e8	0.6104417
183	0xbd9d6583	-0.076853774
184	0x3e000db4	0.12505227
185	0x3e71b7dc	0.23605293
186	0xbb8e5060	-0.0043430775
187	0x3f5bf84b	0.8592574
188	0xbef2383a	-0.47308522
189	0x3f1e5950	0.6185503
190	0xbeabc757	-0.33550522
191	0xbeb37e9e	-0.3505754
192	0x3eeff930	0.46869802
193	0x3d8c6691	0.068555005
194	0xbee69049	-0.45031956
195	0x3f75793c	0.95888114
196	0x3e085097	0.13311993
197	0x3ed4d280	0.4156685
198	0xbd10fd1e	-0.03539764
199	0xbdadb471	-0.08481682
200	0xbf05ccac	-0.5226543
201	0x3e5765a7	0.21034871
202	0xbe1fea1b	-0.15616648
203	0x3eecf129	0.4627774
204	0x3e046155	0.12927754
205	0xbe028799	-0.12747039
206	0xbd514f01	-0.051100735
207	0x3e43c4bd	0.19118018
208	0xbd9c8297	-0.076420955
209	0x3f8824f2	1.0636275
210	0x3f459f2b	0.77195996
211	0x3f2fd196	0.6867918
212	0xbf776816	-0.966432
213	0xbe6892a2	-0.22712186
214	0x3ef364ce	0.47537845
215	0xbdc953a3	-0.098304056
216	0x3ec8be7e	0.39207834
217	0x3f0f6e3a	0.5602757
218	0xbe8d56c8	-0.2760527
219	0xbed019a2	-0.40644556
220	0xbe878ba7	-0.26473734
221	0x3ee7e93a	0.45295125
222	0xbe4d94ec	-0.2007634
223	0x3efecf9f	0.49767777
224	0xbe8f9e0b	-0.28050265
225	0x3db5684e	0.08857785
226	0x3dfa27f3	0.12214651
227	0x3dd1db38	0.10246891
228	0xbe3e18c9	-0.18564142
229	0xbed83144	-0.42225087
230	0xbe2fcdce	-0.17168352
231	0x3ef0ac4f	0.4700646
232	0x3ef2f6ab	0.47453818
233	0xbe97654b	-0.29569468
234	0xbe26e215	-0.16297181
235	0x3d53b801	0.05168915
236	0xbfb0188c	-1.3757491
237	0x3f4ccd6f	0.80000967
238	0x3f40a58d	0.7525261
239	0xbdb55a83	-0.08855154
240	0x3e99e73a	0.30059224
241	0xbe39a3cf	-0.18128894
242	0x3eb0c15b	0.3452252
243	0xbec1dfa2	-0.3786593
244	0x3e663d93	0.22484426
245	0x3e82db44	0.2555791
246	0x3ebba957	0.36652634
247	0x3d4c5e85	0.04989483
248	0xbde10460	-0.109871626
249	0xbe05682c	-0.1302802
250	0x3f00dbc2	0.50335324
251	0x3e82cfef	0.25549266
252	0xbf2e1d3e	-0.6801337
253	0xbe914a46	-0.2837698
254	0x3dae346b	0.08506092
255	0x3e5c149b	0.21492235

mid_part.0.bias f4 [12]
0	0x3af66768	0.0018799128
1	0xbd06bd2c	-0.032895252
2	0xbac3fa56	-0.0014951925
3	0xbbb8cda4	-0.0056397486
4	0x3d4b495f	0.04963052
5	0x3bcbe5a0	0.006222442
6	0x3cbc1915	0.022961179
7	0x3caa56fe	0.020793434
8	0xbb53077b	-0.0032200504
9	0xbad2258e	-0.0016032921
10	0xbb4d8cfa	-0.0031364546
11	0x3c36ae75	0.011149992

mid_part.1.weight f4 [12]
0	0x3e7f416b	0.24927299
1	0x3eb9b279	0.36268976
2	0x3e7feca4	0.24992615
3	0x3e7e77c6	0.24850377
4	0x3e9a1850	0.30096674
5	0x3e75dfde	0.2401118
6	0x3e715967	0.2356926
7	0x3ec7b5b2	0.3900581
8	0x3e937636	0.28801125
9	0x3ed27bc5	0.41110054
10	0x3e721952	0.23642471
11	0x3e898168	0.26856542

mid_part.2.weight f4 [12, 12, 3, 3]
0	0x3e7a9a2e	0.24472877
1	0xbc4cbde4	-0.012496445
2	0x3c439732	0.011937903
3	0xbe8221b2	-0.25416332
4	0x3dd61a73	0.104542635
5	0xbded649c	-0.11591455
6	0xbd9702cc	-0.0737358
7	0xbde22102	-0.11041452
8	0x3d8f85ef	0.07007968
9	0x3e36db4b	0.17857091
10	0xbe5bef43	-0.2147799
11	0x3e554dc3	0.20830445
12	0x3d3071ab	0.043077152
13	0xbdf3390a	-0.11876114
14	0xbdfeb2c2	-0.12436439
15	0xbd936ffa	-0.07199092
16	0xbe220ec7	-0.1582595
17	0x3d1ccb40	0.03827977
18	0x3db93965	0.0904415
19	0x3e21d169	0.1580254
20	0x3d70aa43	0.058756124
21	0x3e248b46	0.16068754
22	0x3bd28aeb	0.0064252517
23	0xbcdadbfe	-0.026716229
24	0x3e85eec6	0.26158732
25	0x3d7f2064	0.06228675
26	0xbd944227	-0.0723918
27	0xbb80dc75	-0.0039325305
28	0xbd926d98	-0.071498096
29	0x3de3b96a	0.11119349
30	0x3e1038bd	0.14084144
31	0xbeadb1e1	-0.33924773
32	0xbe811de5	-0.2521812
33	0xbe157a84	-0.14597517
34	0xbcc96a8d	-0.02458694
35	0x3e19143e	0.14949128
36	0xbe39e7dc	-0.18154854
37	0xbde46070	-0.111512065
38	0xbdbc5887	-0.09196573
39	0xbc95e2cc	-0.018296622
40	0x3e6edad4	0.23325664
41	0xbe65abb4	-0.22428781
42	0x3cc84432	0.02444658
43	0xbc3591f1	-0.011082158
44	0x3d32d245	0.04365756
45	0x3e5dfe11	0.2167895
46	0x3d353ab7	0.044245448
47	0x3e5d24ec	0.21596116
48	0xbd526022	-0.05136121
49	0xbdd8d4c6	-0.10587458
50	0x3d9eca6d	0.077534534
51	0xbdbb9d63	-0.091608785
52	0x3d8accda	0.067773536
53	0xbdcc643e	-0.09980057
54	0xbe29c669	-0.16579594
55	0x3bfa32b8	0.0076354407
56	0xbbaae709	-0.00521553
57	0x3e606f41	0.2191744
58	0xbda0b51e	-0.07847045
59	0x3ca7019c	0.02038651
60	0xbdb476b1	-0.08811701
61	0x3ddaa692	0.10676302
62	0x3e1f0943	0.15530877
63	0x3e09ed71	0.13469483
64	0xbd88fc6f	-0.06688773
65	0x3e795005	0.24346931
66	0x3c2658ee	0.010153038
67	0x3cead28e	0.028664853
68	0xbc29ef32	-0.01037197
69	0x3c09657a	0.00838601
70	0xbe6eb521	-0.23311283
71	0xbe516be3	-0.20451312
72	0xbc8bcbb0	-0.0170649
73	0xbc816992	-0.01579741
74	0x3d27d3cf	0.04097348
75	0xbe4132df	-0.18867062
76	0x3e957455	0.29190317
77	0xbd97c95f	-0.07411455
78	0xbd76c865	-0.060249705
79	0xbd7e39d1	-0.062066857
80	0x3ce4152d	0.027842129
81	0xbe338655	-0.17531712
82	0x3cbabaaf	0.022794096
83	0x3d50f0d8	0.051010936
84	0x3d3e1c90	0.046413958
85	0x3de4b4d0	0.111673
86	0x3e0cdbdc	0.13755745
87	0xbde90542	-0.11377956
88	0xbd104cfe	-0.035229675
89	0x3ce10f40	0.027473092
90	0x3d8e14eb	0.069375835
91	0xba1bb1b4	-0.00059392606
92	0x3e70e62d	0.23525305
93	0xbdedff64	-0.116209775
94	0xbd55c209	-0.052187
95	0xbd8cf4d8	-0.06882638
96	0x3d1f6b34	0.038920596
97	0x3dd79f55	0.10528437
98	0x3d0a14d6	0.033711277
99	0x3d444f18	0.047926992
100	0xbd9412a8	-0.07230121
101	0xbdcc02b4	-0.09961453
102	0xbd07b3f7	-0.033130612
103	0x3db8d837	0.09025615
104	0x3ca5aca2	0.02022392
105	0x3d9cd170	0.076571345
106	0x3d2ca583	0.04215003
107	0x3a0215f8	0.000496238
108	0x3b2a144c	0.002595204
109	0xbd246ba8	-0.04014173
110	0x3b86fc34	0.0041194204
111	0x3c1b617a	0.009483689
112	0x3d7b6f20	0.061385274
113	0xbe7bd4f5	-0.24592955
114	0x3e5a8c88	0.21342671
115	0x3d832297	0.06403082
116	0x3e0c2350	0.13685346
117	0x3e1a9e95	0.15099557
118	0x3dc2f8d6	0.09520118
119	0x3a0da209	0.0005402868
120	0x3e6ca5a4	0.23110062
121	0x3dfde83a	0.12397809
122	0x3cb99974	0.02265618
123	0x3d71d9cb	0.059045594
124	0xbdd2d1e9	-0.102939434
125	0x3e22890b	0.1587259
126	0xbce81522	-0.02833039
127	0xbea646b1	-0.32475808
128	0xbe2a9fb6	-0.16662487
129	0x3cb27f83	0.021789318
130	0x3d715de1	0.05892742
131	0xbe994720	-0.29937077
132	0xbde17048	-0.11007744
133	0x3dbbda3e	0.09172486
134	0xbdc926c6	-0.098218486
135	0x3cfed71d	0.031108433
136	0x3e85999e	0.26093763
137	0xbddc4c2a	-0.10756715
138	0xbcfdce8c	-0.030982278
139	0xbd997a3c	-0.074940175
140	0xbca8978c	-0.020580076
141	0xbdd21262	-0.102574125
142	0x3ea7f5ef	0.3280482
143	0xbdb85399	-0.0900032
144	0x3e6b3f91	0.22973467
145	0xbe272967	-0.16324387
146	0xbd8df7f6	-0.069320604
147	0xbe386b2d	-0.18009634
148	0xbe24d862	-0.16098168
149	0x3c71ee38	0.014766268
150	0xbd9aa401	-0.075508125
151	0xbdec3e5b	-0.11535331
152	0x3c0a641b	0.008446719
153	0xbdef32c5	-0.116796054
154	0x3d2a6c55	0.04160722
155	0xbe882f92	-0.26598793
156	0x3c3b548f	0.011433735
157	0x3dd006c5	0.10157541
158	0x3dbd1855	0.092331566
159	0x3e0dfa8f	0.13865112
160	0xbd893795	-0.067000546
161	0xbd2848b0	-0.041084945
162	0x3e4fd4f5	0.2029608
163	0xbe5da557	-0.21645103
164	0xbe1d3ff6	-0.1535643
165	0xbb9ba1b9	-0.0047495035
166	0x3e553257	0.20819984
167	0xbd911772	-0.0708455
168	0xbea9ded3	-0.33177814
169	0xbc9899a7	-0.018627955
170	0x3daf1c48	0.08550316
171	0xbe3626bb	-0.17788212
172	0x3e26bb99	0.162825
173	0xbdbef6b8	-0.093244016
174	0xbd4a83dd	-0.04944216
175	0x3e6a0dc5	0.22856815
176	0x3e2d1665	0.16903074
177	0xbd8af2ad	-0.06784568
178	0xbde6bc9f	-0.11266445
179	0xbe054215	-0.1301349
180	0x3dcbcfac	0.0995172
181	0xbde382ba	-0.111089185
182	0x3ddf2492	0.10895647
183	0xbcbb3a0b	-0.022854825
184	0x3db86eaf	0.09005486
185	0xbe907e7d	-0.28221503
186	0x3d2e07ba	0.042487837
187	0xbd9c0bd2	-0.07619442
188	0xbd9c5b00	-0.076345444
189	0xbdf84f3d	-0.121244885
190	0xbdb691db	-0.089145385
191	0xbd9a0b53	-0.07521691
192	0x3c0ff026	0.008785283
193	0xbd8ca8a4	-0.06868103
194	0xbc8addce	-0.016951468
195	0xbe324148	-0.17407715
196	0xbd51c2b8	-0.05121109
197	0x389a4c77	7.357535e-05
198	0xbd9ca074	-0.076477915
199	0x3e077721	0.13229038
200	0x3d14de73	0.036344957
201	0x3e7c35fa	0.24629965
202	0xbd503d4a	-0.0508397
203	0xbe0bd3c5	-0.13655002
204	0xbe0d7dc4	-0.13817507
205	0x3cf26ac8	0.029591933
206	0x3dfc7563	0.12327077
207	0x3e94881e	0.290101
208	0x3e407439	0.18794335
209	0x3da00190	0.07812798
210	0x3dd67b9c	0.10472795
211	0x3dd882d2	0.10571827
212	0x3e22ccf4	0.15898496
213	0xbc911c1f	-0.017713604
214	0x3e03ab0b	0.12858216
215	0x3e0b73f7	0.13618456
216	0x3da8dcec	0.082452625
217	0xbe288606	-0.16457376
218	0xbce59d2a	-0.028029043
219	0xbce4d50f	-0.027933626
220	0x3e3e6fd4	0.18597347
221	0x3e38924f	0.18024562
222	0x3e1840a3	0.14868407
223	0xbc8c67d6	-0.017139357
224	0x3e8f5bf7	0.2799985
225	0xbdab0702	-0.08350946
226	0xbde5c68f	-0.11219513
227	0x3d882ecd	0.066495515
228	0x3e468f31	0.1939056
229	0xbda520d2	-0.080629006
230	0xbc9014e5	-0.017588088
231	0xbd79dd86	-0.061002277
232	0x3dd30e65	0.1030548
233	0x3dc12b1e	0.09432052
234	0x3e153358	0.14570367
235	0xbe87944a	-0.26480323
236	0xbe4e9698	-0.20174634
237	0x3d801bdf	0.06255316
238	0xbe00d8f3	-0.1258276
239	0xbc074f63	-0.008258673
240	0x3de5d005	0.11221317
241	0x3cec9322	0.028878752
242	0x3d156831	0.036476318
243	0xbdd8e436	-0.10590403
244	0x3a9eda0f	0.001211943
245	0xbd5061d3	-0.050874542
246	0x3e65d575	0.22444709
247	0x3e60efd6	0.2196649
248	0x3e3c430b	0.1838495
249	0x3d5853a9	0.05281416
250	0x3dfa23c8	0.12213856
251	0x3d39b5ad	0.045339275
252	0x3eac7b3d	0.33687773
253	0xbe5be133	-0.21472625
254	0xbdb19260	-0.08670497
255	0x3d1b4adf	0.0379132

mid_part.2.bias f4 [12]
0	0x3b40a51d	0.002939529
1	0x3b1077a1	0.002204396
2	0x39c885af	0.00038246575
3	0x3ae06310	0.0017119367
4	0x3d07cb91	0.03315312
5	0xbb39eed3	-0.002837111
6	0xbb688949	-0.003548222
7	0x3a219dc9	0.00061651744
8	0x3bc8d0a8	0.0061283894
9	0x397a9f7d	0.00023901272
10	0x3c23436e	0.009964807
11	0x3cc39b33	0.023877716

mid_part.3.weight f4 [12]
0	0xbea63c75	-0.32468
1	0x3e80fdb8	0.25193572
2	0x3e861603	0.2618867
3	0x3f120cf3	0.5705101
4	0x3e8fca16	0.28083867
5	0x3e82d376	0.25551957
6	0x3d9e85c2	0.07740356
7	0x3e2c8f20	0.16851473
8	0x3e75da69	0.24009098
9	0x3e8278c4	0.25482762
10	0x3e82dd0e	0.25559276
11	0x3e7877b5	0.24264415

mid_part.4.weight f4 [12, 12, 3, 3]
0	0x3d14a8c8	0.036293775
1	0xbd905f17	-0.07049387
2	0x3e659ddb	0.22423498
3	0x3e915efb	0.28392777
4	0xbcd31a13	-0.02576927
5	0x3e0a26f7	0.13491426
6	0xbdffc843	-0.12489369
7	0x3d882f0f	0.06649601
8	0xbdab38b8	-0.083604276
9	0xbe5b8537	-0.21437536
10	0xbdf5a2c2	-0.11993934
11	0x3eabc2a5	0.3354694
12	0xbd651ba8	-0.05593458
13	0x3e0fbad9	0.1403612
14	0xbe1e1876	-0.15439019
15	0xbdfcba37	-0.12340205
16	0x3c36e96a	0.011164049
17	0x3e69a258	0.22815835
18	0xbe070d8b	-0.1318876
19	0x3de93ddb	0.11388751
20	0x3cb61096	0.022224706
21	0x3e0d988b	0.13827722
22	0xbd1df557	-0.038564052
23	0xbd9a35cb	-0.075297914
24	0xbd89c6bf	-0.06727361
25	0x3e15ae1b	0.14617197
26	0x3e4f488e	0.20242521
27	0xbd5402b9	-0.05176041
28	0xbea93e74	-0.3305546
29	0xbd9a76a0	-0.07542157
30	0xbcd0b303	-0.025475984
31	0x3b66a345	0.003519253
32	0xbe7b4034	-0.2453621
33	0xbd2e4552	-0.042546578
34	0x3e130ed1	0.14361121
35	0x3d940eef	0.07229411
36	0xb9a60351	-0.00031664458
37	0x3e4122d5	0.18860944
38	0x3e0fb9bd	0.14035697
39	0xbe224b1d	-0.15848966
40	0x3e3d8ffc	0.18511957
41	0x3e019931	0.12656094
42	0xbe7f7f4b	-0.24950902
43	0xbcd05110	-0.025429279
44	0x3e18013e	0.14844224
45	0xbcfa3bee	-0.030546155
46	0xbdb256b6	-0.08707945
47	0x3defc1e4	0.117069036
48	0xbe8326d3	-0.25615558
49	0x3da4aa68	0.08040315
50	0xbeb9d7ab	-0.36297354
51	0x3d4754cb	0.04866485
52	0x3e81c414	0.25344908
53	0xbe1a6d3b	-0.1508073
54	0x3dd2ff81	0.1030264
55	0xbe5eba32	-0.21750715
56	0xbdfa7cfc	-0.1223087
57	0x3dc16d51	0.094446786
58	0xbbefcf38	-0.0073184036
59	0xbe0d2eaf	-0.1378734
60	0xbcbae706	-0.022815239
61	0xbe83043e	-0.25589174
62	0x3e82ba8b	0.25532946
63	0x3c8cad27	0.01717241
64	0xbdecfaea	-0.115712956
65	0x3e1492c8	0.14509118
66	0xbbb77a31	-0.005599283
67	0x3d11dad7	0.035609093
68	0x3e1bce7b	0.15215485
69	0xbe7aaca4	-0.2447992
70	0xbd9285ca	-0.071544245
71	0xbd784e34	-0.060621455
72	0xbbe83f7d	-0.0070876465
73	0xbce11f6c	-0.027480803
74	0xbdb7b62b	-0.08970293
75	0xbe2dd5ca	-0.16976085
76	0xbaddecf4	-0.001693158
77	0xbc835ccc	-0.01603546
78	0x3d7ad282	0.061235912
79	0xbd32bdb1	-0.043637935
80	0x3e566ce0	0.2093997
81	0x3de425b6	0.11140005
82	0xbb47c33f	-0.0030481366
83	0x3e5dbbaf	0.21653627
84	0x3df54301	0.119756706
85	0x3e237476	0.15962395
86	0xbcd929c6	-0.026509177
87	0x3db82b36	0.08992617
88	0x3e2f9bdc	0.171493
89	0xbeaa4567	-0.33256075
90	0xbe07fcd1	-0.13280036
91	0x3e14dad0	0.14536595
92	0xbdc1cf6e	-0.09463392
93	0x3d69762f	0.056997474
94	0xbd2d02eb	-0.04223911
95	0x3c3511ef	0.011051639
96	0xbe83f361	-0.2577162
97	0xbddda08f	-0.1082164
98	0x3dd63151	0.10458625
99	0x3df50e9b	0.119656764
100	0x3dc213b2	0.09476413
101	0x3d74cb91	0.05976445
102	0xbea9ec10	-0.33187914
103	0x3e251ee5	0.16125067
104	0xbe7854b4	-0.24251062
105	0x3dcdce32	0.10049094
106	0x3e3fc0eb	0.18725936
107	0x3e43e7d2	0.19131401
108	0x3df7e314	0.121038586
109	0xbe5d65f1	-0.21620919
110	0xbd3e5a3f	-0.046472784
111	0x3e8fffe8	0.28124928
112	0x3dac0493	0.0839931
113	0x3dc53ae8	0.09630376
114	0x3e9394c3	0.28824434
115	0xbe74e39b	-0.2391495
116	0x3cc8b2b9	0.024499284
117	0xbcbe028e	-0.023194578
118	0x3d7f39ff	0.06231117
119	0xbcf5cf4f	-0.030006079
120	0x3e949be0	0.29025173
121	0x3d81dca4	0.06340912
122	0x3ea8938c	0.3292507
123	0xbe7a272a	-0.24429002
124	0xbe817715	-0.25286165
125	0xbd996365	-0.07489661
126	0xbe558fdd	-0.2085566
127	0x3de66da6	0.112513825
128	0xbd451937	-0.04811975
129	0xbef0678f	-0.4695401
130	0xbe2af313	-0.16694288
131	0xbd0c2986	-0.034219287
132	0xbf0940ae	-0.5361432
133	0xbe40b2d9	-0.18818225
134	0x3de33e66	0.11095886
135	0x3cc61f7d	0.024184937
136	0x3e41b3ec	0.18916291
137	0x3e5bf7ac	0.21481198
138	0x3e35ae65	0.17742307
139	0x3eaabd2d	0.33347455
140	0x3d635032	0.055496402
141	0x3ec22ca2	0.37924677
142	0x3eb4b5eb	0.35295042
143	0xbdd81764	-0.105513364
144	0xbd15d460	-0.03657949
145	0xbd162c23	-0.036663186
146	0xbd003ae1	-0.03130615
147	0xbe4cf9a6	-0.20017108
148	0xbcf86034	-0.03031931
149	0xbb4280dc	-0.0029678857
150	0xbeb640c9	-0.35596302
151	0xbd916a89	-0.07100398
152	0xbd061355	-0.03273328
153	0xbd03ecb3	-0.032208156
154	0xbe3fa1b7	-0.18714033
155	0x3e90b51f	0.28263184
156	0xbe7d209a	-0.24719468
157	0xbd1458ec	-0.036217615
158	0x3e0ee16c	0.13953179
159	0xbe04af3d	-0.12957473
160	0x3d1e36f4	0.038626626
161	0xbd844db5	-0.06460134
162	0x3e8992a9	0.26869705
163	0xbcfbdc37	-0.030744655
164	0xbd464b74	-0.0484118
165	0x3ebe0960	0.37116528
166	0xbda977a4	-0.08274773
167	0x3cd41141	0.025887134
168	0x3e012ac5	0.12613972
169	0xbd3ee1ef	-0.046602186
170	0xbe85cabc	-0.26131237
171	0x3eab62d1	0.33473828
172	0xbe7a12db	-0.24421255
173	0xbe7c82d7	-0.24659286
174	0xbd380695	-0.044928152
175	0x3bdc86fb	0.006729958
176	0x3d911016	0.07083146
177	0x3e388eca	0.1802322
178	0x3e084bf0	0.13310218
179	0x3ed70157	0.4199321
180	0xbda3b9ce	-0.07994424
181	0xbe8b6f3e	-0.2723331
182	0xbe331d1a	-0.1749157
183	0xbcebec2c	-0.028799139
184	0xbe03db58	-0.12876642
185	0x3d96162f	0.0732845
186	0x3e48fe0e	0.19628164
187	0x3e897e24	0.2685405
188	0x3df8a928	0.12141639
189	0xbed42e3f	-0.41441533
190	0x3e073433	0.13203506
191	0xbe2096b9	-0.15682496
192	0x3e42fc08	0.19041455
193	0x3e61f8e3	0.22067599
194	0xbd386fdd	-0.045028556
195	0x3d1482cf	0.03625756
196	0xbc99b522	-0.018763129
197	0x3dca9392	0.09891428
198	0xbdc49c38	-0.09600109
199	0xbeada680	-0.33916092
200	0xbcd2ef60	-0.025748909
201	0x3ed045f5	0.40678373
202	0x3ed0fddb	0.40818676
203	0x3e171215	0.14752991
204	0xbebfa5d3	-0.374312
205	0xbe44b8f2	-0.19211176
206	0x3db21e4d	0.08697186
207	0xbe7fdcb5	-0.24986537
208	0xbe845033	-0.25842437
209	0xbe9d995f	-0.30781075
210	0xbe4ed11a	-0.20196953
211	0x3d479d9e	0.0487343
212	0xbc4529a4	-0.012033854
213	0x3f1c78d2	0.6112186
214	0x3ebbbf4f	0.36669394
215	0x3e868e72	0.26280552
216	0x3e45ed5b	0.19328825
217	0xbe4bf6c6	-0.19918355
218	0x3e1a5202	0.15070346
219	0x3d859c4d	0.06523953
220	0x3d1231ba	0.035691954
221	0xbc606093	-0.0136949
222	0xbe27daf3	-0.16392116
223	0x3e9c7479	0.30557612
224	0x3d0245f4	0.031804994
225	0x3e5f3c6b	0.21800391
226	0x3ca1a3f5	0.019731501
227	0x3e317944	0.17331415
228	0xbc449a2f	-0.011999651
229	0x3cfb8c9d	0.030706698
230	0x3dda7e22	0.10668589
231	0x39b59c00	0.0003463924
232	0x3d9c75d2	0.0763966
233	0x3ca3d9da	0.02000134
234	0xbde40cac	-0.111352295
235	0x3d72b213	0.059251856
236	0x3e3a6e7b	0.18206207
237	0xbcf3ae1d	-0.02974611
238	0x3e31c835	0.17361529
239	0x3e2d5fac	0.16931027
240	0x3d32aa73	0.043619584
241	0xbc4c3873	-0.01246463
242	0xbe3db8fc	-0.18527597
243	0xbe43fad0	-0.19138646
244	0xbe2590e6	-0.16168556
245	0xbd204278	-0.03912589
246	0x3d51e068	0.0512394
247	0x3e114037	0.14184652
248	0x3dc19e4e	0.09454022
249	0x3e4814ef	0.19539236
250	0xbd2faef5	-0.04289146
251	0x3d5e6c66	0.054302596
252	0xbdf2f8a2	-0.11863829
253	0xbe6d0653	-0.23146944
254	0xbe1111f8	-0.14167011
255	0xbd350d93	-0.0442024

mid_part.4.bias f4 [12]
0	0x3c772037	0.015083364
1	0xb9a2b99c	-0.00031037338
2	0xbc924362	-0.017854396
3	0x3c4e77a0	0.012601763
4	0xbacbae87	-0.0015539684
5	0xba6e154d	-0.00090821536
6	0xba37abc4	-0.0007006491
7	0x3b31e43b	0.0027144093
8	0x3c810f81	0.015754463
9	0x3bc83b68	0.0061105974
10	0xbca1233e	-0.019670125
11	0xbc476fd2	-0.012172656

mid_part.5.weight f4 [12]
0	0x3e27b3e5	0.16377218
1	0x3ed5aff1	0.41735795
2	0x3e8d9532	0.2765289
3	0x3e84c15c	0.25928771
4	0x3f26aefc	0.65110755
5	0x3f068505	0.5254672
6	0x3e0593d4	0.13044673
7	0x3e472edb	0.19451468
8	0x3f1f3311	0.62187296
9	0x3e928359	0.28615835
10	0x3ec99b33	0.3937622
11	0x3e842c8b	0.25815234

mid_part.6.weight f4 [12, 12, 3, 3]
0	0x3d50d516	0.050984465
1	0xbdbef901	-0.093248375
2	0xbd053d8f	-0.03252941
3	0x3ca9fbb2	0.0207499
4	0x3df0ac73	0.11751642
5	0x3e1b6167	0.15173875
6	0xbc65344c	-0.013989519
7	0x3d925a0a	0.0714608
8	0x3d0bba4d	0.034113217
9	0x3d6ca372	0.05777306
10	0x3e852154	0.2600199
11	0x3e5fac76	0.21843132
12	0x3d8fdaed	0.07024179
13	0x3e4aefc7	0.1981803
14	0x3e7ab130	0.24481654
15	0xbb64b140	-0.0034895688
16	0xbea3b2f1	-0.3197246
17	0x3d9d3ade	0.07677244
18	0x3da9e6df	0.08295988
19	0xbe06f832	-0.13180616
20	0x3d409c5f	0.047024127
21	0x3dd57df8	0.10424417
22	0x3cd595f7	0.026072485
23	0xbdb45797	-0.08805769
24	0xbe3a4da3	-0.18193679
25	0xbe0023e5	-0.12513693
26	0x3e15fe0c	0.14647692
27	0x3df32a92	0.11873354
28	0xbe2c850d	-0.1684763
29	0xbe3599a0	-0.17734385
30	0xbdded08f	-0.10879623
31	0x3dc3e60b	0.095653616
32	0x3e007b4d	0.12547036
33	0x3d0d28a3	0.034462582
34	0xbea5319f	-0.3226442
35	0xbe2d0e7c	-0.16900057
36	0x3c065e7b	0.008201237
37	0x3e397917	0.18112598
38	0xbda673eb	-0.08127578
39	0x3e36122c	0.1778037
40	0x3e08f5e4	0.1337505
41	0xbe06236a	-0.13099447
42	0xbd2886bc	-0.041144118
43	0x3e4807a0	0.19534159
44	0xbd4069a0	-0.04697573
45	0xbe187120	-0.14886904
46	0xbed698de	-0.41913503
47	0x3e161d5b	0.14659636
48	0x3e526346	0.20545682
49	0xbb5cf6c3	-0.0033716417
50	0x3d4fd669	0.050741587
51	0x3dc93189	0.09823901
52	0x3dc26147	0.094912104
53	0x3e54249b	0.20717089
54	0x3e408076	0.18799004
55	0xbe5219cd	-0.20517655
56	0x3d2ba186	0.041902088
57	0x3dc366a2	0.0954106
58	0x3d2d7ba0	0.042354226
59	0x3d89db3e	0.0673127
60	0x3e52deab	0.20592754
61	0x3e5d5af5	0.21616729
62	0x3de8b178	0.113619745
63	0xbde831c6	-0.113376185
64	0xbdbacb6e	-0.091208324
65	0x3e1915c1	0.14949705
66	0xbd46afc7	-0.048507478
67	0xbe1eb57c	-0.15498918
68	0x3cdaca23	0.026707714
69	0x3d873996	0.066027805
70	0x3d265fe3	0.04061879
71	0xbe3a64f1	-0.18202569
72	0xbcae041e	-0.021242198
73	0x3dc89692	0.09794344
74	0x3e357087	0.17718707
75	0xbc843f47	-0.016143454
76	0x3d5e1ad6	0.05422481
77	0xbc2a45a3	-0.010392579
78	0xbd0034a1	-0.03130019
79	0xbe30d593	-0.17268972
80	0x3d07b7bf	0.03313422
81	0xbca8535e	-0.020547565
82	0x3e37ac35	0.17936786
83	0x3c26519f	0.010151296
84	0xbe2597b7	-0.16171156
85	0x3d59783e	0.053093188
86	0x3e3e9085	0.18609817
87	0xbe52598d	-0.20541973
88	0xbe00742b	-0.12544315
89	0xbe6c3bb2	-0.23069647
90	0xbe137844	-0.14401346
91	0x3deef72a	0.116682366
92	0x3de97ee1	0.11401153
93	0xbd93dea1	-0.072201975
94	0xbe4671ae	-0.19379303
95	0x3def3ea8	0.116818726
96	0xbdb12647	-0.08649879
97	0x3e1c5c64	0.15269619
98	0xbd16c20a	-0.036806144
99	0x3e0b0ad2	0.13578346
100	0x3d2d1ba4	0.04226269
101	0x3d30f847	0.043205526
102	0x3d82f1fe	0.063938126
103	0xbdf096fc	-0.11747548
104	0xbcbc7496	-0.023004811
105	0x3e2df853	0.1698926
106	0xbe01684e	-0.12637445
107	0x3ac72f0f	0.001519652
108	0x3eaa3e4c	0.33250654
109	0x3de72611	0.112865575
110	0x3dbfa3f2	0.09357442
111	0xbdad0c10	-0.08449566
112	0xbe445f7e	-0.19177052
113	0x3de4587d	0.1114969
114	0x3dae49b0	0.085101485
115	0x3d763484	0.060108677
116	0x3c3543c3	0.011063519
117	0xbdd1c93f	-0.10243463
118	0x3cbf010b	0.023315927
119	0x3e4736c4	0.19454485
120	0xbd220d8c	-0.0395637
121	0x3d947fc0	0.07250929
122	0x3dd79c6c	0.10527882
123	0x3e48479b	0.19558565
124	0xbddcab12	-0.107748166
125	0xbd39977c	-0.045310482
126	0x3ddf3bc7	0.109000735
127	0x3dbdf368	0.09274942
128	0x3d0188bb	0.031624537
129	0x3e4b51b1	0.19855382
130	0x3c46f332	0.012142943
131	0x3e3ae373	0.18250827
132	0x3cdbc78e	0.026828554
133	0x3c918d13	0.017767465
134	0x3c626d11	0.013819949
135	0x3df1f674	0.11814585
136	0x3c69b43a	0.014264161
137	0xbd0447af	-0.032294925
138	0xbdebbfc9	-0.115111895
139	0x3e0889b1	0.13333775
140	0x3cd6fb52	0.026242886
141	0xbe254b44	-0.16141993
142	0xbe4467f2	-0.19180277
143	0x3d58fcba	0.052975394
144	0x3d8341b0	0.06409013
145	0xbdb5cf3c	-0.088774174
146	0x3e0b56e3	0.13607363
147	0x3e08297b	0.13297074
148	0xbd768a1c	-0.060190305
149	0xbde4cded	-0.1117209
150	0x3dbeda58	0.093189895
151	0x3e7f99b0	0.24960971
152	0x3d425131	0.04744071
153	0x3d86bb70	0.065787196
154	0x3d48f3e1	0.049060706
155	0x3e0135b7	0.12618147
156	0xbe2f2165	-0.17102583
157	0x3c826829	0.015918808
158	0xbcfab0c7	-0.030601872
159	0x3b19c383	0.0023462481
160	0xbac2c7ef	-0.001486061
161	0x3d6d0fac	0.057876274
162	0x3e390b6a	0.1807076
163	0x3cd0dbeb	0.02549549
164	0x3d0e4b59	0.034739826
165	0x3d08544f	0.033283528
166	0x3dcabe15	0.098995365
167	0xbcf2776d	-0.029597962
168	0xbd49bf0c	-0.049254462
169	0xbdb7a849	-0.08967645
170	0xbda974bd	-0.08274219
171	0x3e147e4f	0.14501308
172	0xbca034ca	-0.019556422
173	0x3dbd8102	0.09253122
174	0x3d2d50b8	0.042313308
175	0x3e333058	0.1749891
176	0xbe59664f	-0.21230434
177	0xbd2b5338	-0.04182741
178	0xbce8c169	-0.028412538
179	0xbdf33196	-0.11874692
180	0x3e25e62d	0.16201086
181	0xbe76c942	-0.24100211
182	0x3de4a6c3	0.1116462
183	0x3c0f0861	0.008730025
184	0x3d505fa5	0.050872464
185	0x3e4207f0	0.1894834
186	0x3ccef71f	0.02526432
187	0x3e1a9276	0.15094933
188	0xbc9153e9	-0.017740207
189	0x3dd9ff45	0.10644392
190	0x3c3c8211	0.01150562
191	0x3d50acd8	0.050946087
192	0x3e1119b4	0.14169961
193	0x3e62ed57	0.2216085
194	0xbe214dd8	-0.15752351
195	0x3c95a022	0.018264834
196	0x3e2905b4	0.16506082
197	0x3e41ae69	0.18914188
198	0x3c7330da	0.01484319
199	0x3e34ccae	0.17656204
200	0x3d854728	0.065077126
201	0xbe328e95	-0.17437203
202	0xbe5705c6	-0.20998296
203	0x3d25e183	0.040498268
204	0x3dc5d7f9	0.09660334
205	0xbe353e9b	-0.17699663
206	0x3e6ee186	0.23328218
207	0xbdb85279	-0.090001054
208	0xbcacf2b0	-0.021111816
209	0xbcebf300	-0.028802395
210	0x3dba6728	0.09101707
211	0x3d3b5410	0.045734465
212	0xbaddba9c	-0.0016916576
213	0xbe81f26c	-0.25380266
214	0xbe5385fe	-0.20656583
215	0x3d5aefc7	0.053451326
216	0xbe8816f8	-0.26580024
217	0xbd24cc54	-0.040233925
218	0xbe436d89	-0.19084753
219	0xbb0a01c3	-0.002105818
220	0xbdbfa55b	-0.09357711
221	0xbde08eac	-0.109647125
222	0x3e84acee	0.25913185
223	0x3e617494	0.22017127
224	0xbe44a719	-0.19204368
225	0xbdfe9d48	-0.12432343
226	0xbe14cf2e	-0.14532158
227	0xbc844061	-0.01614398
228	0xbda9309a	-0.08261223
229	0x3c2caa4a	0.010538647
230	0xbe38cdc2	-0.1804724
231	0x3e9d0b25	0.30672565
232	0x3e59de3b	0.2127618
233	0x3e052ee1	0.13006164
234	0xbe1aeb2c	-0.15128773
235	0x3e02207c	0.12707704
236	0x3c93769a	0.01800089
237	0x3d0621c3	0.03274704
238	0x3b2bb026	0.0026197522
239	0xbe2c4dfc	-0.16826624
240	0x3dcb1ddc	0.099178046
241	0xbe25134e	-0.16120645
242	0xbe9d6f8e	-0.30749172
243	0x3e471786	0.19442567
244	0x3d9a8e5a	0.07546683
245	0x3d043743	0.032279264
246	0x3e37b6ec	0.17940873
247	0x3d73de28	0.059538037
248	0xbded2666	-0.115795895
249	0xbe44d2ee	-0.19221088
250	0xbe07ec8e	-0.13273832
251	0x3c712c05	0.014719968
252	0xbe953b28	-0.29146695
253	0xbe3d45cb	-0.18483655
254	0x3e32e9b9	0.1747197
255	0xbd431293	-0.047625136

mid_part.6.bias f4 [12]
0	0x3c3feec9	0.011714646
1	0x3c1b42be	0.009476362
2	0xbc116f39	-0.008876615
3	0x3ba2defb	0.004970429
4	0x3bed428c	0.007240599
5	0x3c36d367	0.011158801
6	0xbc1c68dd	-0.009546486
7	0x3bd354a0	0.006449297
8	0x3afb6cfa	0.0019182258
9	0x39d61806	0.0004083516
10	0x3c074b2d	0.008257669
11	0xbd44e009	-0.04806522

mid_part.7.weight f4 [12]
0	0x3e6822f0	0.22669578
1	0x3e7f2651	0.2491696
2	0x3e88e960	0.2674055
3	0x3e8f685f	0.28009316
4	0x3e153900	0.14572525
5	0x3ed36973	0.4129139
6	0x3db8afcb	0.09017905
7	0x3c131eb7	0.008979491
8	0x3e7ed69a	0.24886551
9	0x3e7b0e6a	0.24517217
10	0x3dd25cad	0.10271583
11	0x3e71a3e4	0.23597676

mid_part.8.weight f4 [12, 12, 3, 3]
0	0x3dd241fa	0.1026649
1	0xbdeadf1e	-0.114683375
2	0xbe425721	-0.1897855
3	0xbd7baffe	-0.061447136
4	0x3e5e2be9	0.21696438
5	0x3e12dd16	0.1434215
6	0xbe8dbeff	-0.2768478
7	0x3e12834d	0.143079
8	0xbd4db86c	-0.050224707
9	0xbd5cfab3	-0.053950023
10	0x3cfd51d6	0.030922811
11	0x3d8a3e05	0.067501105
12	0x3dccfd24	0.1000922
13	0x3e970533	0.29496154
14	0x3d232ec4	0.03983952
15	0x3e464623	0.19362693
16	0x3d847877	0.06468289
17	0xbd738ff7	-0.059463467
18	0x3dbc46fa	0.09193225
19	0xbcef08ca	-0.029178996
20	0x3a023265	0.0004966616
21	0xbe504080	-0.20337105
22	0xbd3c26d9	-0.045935486
23	0xbc04cead	-0.008105916
24	0x3d4dab94	0.050212458
25	0xbe2e5ca4	-0.17027527
26	0xbc9f037d	-0.019410843
27	0xbd4e7cc1	-0.050411943
28	0xbda596f9	-0.080854364
29	0x3cf52a6d	0.029927457
30	0xbe32ff4f	-0.17480205
31	0xbd4eed5d	-0.050519336
32	0x3dc9bc24	0.09850338
33	0xbbf8bb2e	-0.007590673
34	0xbdd9e3d4	-0.10639158
35	0xbe436bfd	-0.19084163
36	0xbcfc7419	-0.030817078
37	0xbc91ec0c	-0.017812751
38	0x3c979bd6	0.018506926
39	0x3dc457c5	0.09587053
40	0xbcb9a3e8	-0.022661164
41	0x3e680632	0.22658613
42	0xbdc4d642	-0.09611179
43	0x3d6c70d8	0.057724804
44	0xbca093c1	-0.019601705
45	0x3dcacc7e	0.09902285
46	0x3de42927	0.11140662
47	0x3d830e34	0.063991934
48	0xbe28920b	-0.16461961
49	0x3d4f4d77	0.050610986
50	0x3cb500b7	0.022095067
51	0x3ea79ea6	0.32738227
52	0xbe3326f7	-0.17495333
53	0x3db48aee	0.08815561
54	0x3d9c6296	0.07635991
55	0xbea8b90a	-0.32953674
56	0x3d0639d6	0.03277
57	0x3ca51cff	0.020155428
58	0xbccfbdf5	-0.025359133
59	0xbd69db24	-0.057093754
60	0xbde7e1b0	-0.11322343
61	0xbde6c749	-0.112684794
62	0x3d5514f1	0.052021924
63	0xbb7cc3a7	-0.0038568766
64	0x3e9be3e1	0.30447295
65	0x3b4ff5aa	0.003173212
66	0x3d72c634	0.059271052
67	0x3e3e055e	0.18556735
68	0xbdab3c72	-0.083611384
69	0xbe215733	-0.1575592
70	0xbd438419	-0.0477334
71	0xbe79c6d5	-0.24392255
72	0xbe9118ae	-0.28339142
73	0x3cffffc6	0.031249892
74	0x3d1c8cd3	0.038220238
75	0xbd6af43c	-0.057361826
76	0x3e3c49ed	0.18387575
77	0xbe0047b3	-0.12527351
78	0xbda4fdd9	-0.0805623
79	0xbe380a6e	-0.17972729
80	0xbdd789d8	-0.105243385
81	0x3d9aa78b	0.075514875
82	0xbd80c5bc	-0.06287715
83	0xbe10e0e2	-0.14148286
84	0xbe1348ce	-0.14383242
85	0xbd68779c	-0.056754693
86	0xbcc1b1fa	-0.023644436
87	0x3e69eb29	0.22843613
88	0xbd249d4e	-0.04018908
89	0x3ba98808	0.005173687
90	0x3c08b29a	0.008343363
91	0x3e269e56	0.16271338
92	0x3c48eded	0.012263757
93	0xbd7ffcf3	-0.06249709
94	0xbd454137	-0.048157897
95	0x3d369a8c	0.04458098
96	0x3dbb6cda	0.09151621
97	0x3db0f28f	0.086400144
98	0xbd210881	-0.03931475
99	0x3e6a12a1	0.22858669
100	0x3ee32233	0.4436203
101	0xbe2895ed	-0.16463442
102	0x3ee9c83f	0.45660588
103	0xba11876a	-0.00055514893
104	0x3e6de91d	0.23233457
105	0xbe31220d	-0.17298146
106	0x3e2337ce	0.15939257
107	0x3e7b8427	0.24562131
108	0x3deb3366	0.11484413
109	0xbd9ab0a9	-0.075532265
110	0xbe212bc9	-0.15739359
111	0x3e46478b	0.19363229
112	0x3e1468ab	0.14493053
113	0x3bccfc25	0.006255644
114	0x3d5a9385	0.05336334
115	0xbe8ce2ed	-0.2751688
116	0xbe815660	-0.2526121
117	0x3d6c09d3	0.057626557
118	0xbe160a99	-0.1465248
119	0x3c7e7157	0.015529952
120	0x3df56796	0.11982648
121	0x3e53b793	0.20675497
122	0xbe72f00d	-0.23724385
123	0xbe22abe3	-0.15885882
124	0x3ba017de	0.0048856577
125	0xbddca494	-0.10773578
126	0x3d30642c	0.04306428
127	0xbcb6a8d8	-0.022297308
128	0x3da6fde4	0.081538945
129	0x3d0c6344	0.034274355
130	0xbe856b16	-0.26058263
131	0x3e7c31e6	0.2462841
132	0xbdf543ad	-0.11975799
133	0x3d9f0a66	0.07765655
134	0x3ce2736b	0.027642926
135	0xbd838983	-0.06422713
136	0x3eb38eea	0.35069972
137	0x3d4428cf	0.04789048
138	0x3e092b3d	0.133954
139	0xbc365df6	-0.0111308005
140	0x3da6c186	0.081423804
141	0xbe3ea672	-0.18618181
142	0x3d8a76d9	0.0676095
143	0x3de41a6f	0.11137854
144	0x3e20a1e0	0.1568675
145	0x3c004263	0.007828328
146	0xbdd169e4	-0.10225275
147	0x3d2550ea	0.04036037
148	0x3e43adf8	0.19109333
149	0xbe99ce31	-0.30040124
150	0x3e24135c	0.1602301
151	0xbea950e9	-0.33069542
152	0x3d6b9310	0.057513297
153	0x3dfcb1a2	0.12338568
154	0x3e20e105	0.15710838
155	0xbca1ee5f	-0.019766985
156	0x3d813f1b	0.063108645
157	0x3e56bca0	0.20970392
158	0x3d68c497	0.056828108
159	0xbe64dcfa	-0.22349921
160	0xbd33dcec	-0.04391186
161	0xbd0aadc0	-0.033857107
162	0xbc2348e4	-0.009966109
163	0xbbb94085	-0.0056534433
164	0x3e335fcb	0.17517011
165	0x3e0ba139	0.1363572
166	0x3c64e5d6	0.013970813
167	0x3d81cbc9	0.06337697
168	0xba5033dd	-0.00079422985
169	0xbd4575c1	-0.048208002
170	0x3d9c4fcf	0.0763241
171	0x3e1963a8	0.14979422
172	0x3e4ac76c	0.19802636
173	0x3dda0b64	0.10646704
174	0x3d99ffa2	0.07519461
175	0xbeb3bcdd	-0.3510503
176	0x3c78896c	0.015169483
177	0x3c6c6a53	0.014429647
178	0xbd961ef7	-0.07330125
179	0x3d96b06a	0.07357867
180	0x3d885c37	0.066582136
181	0xbc5c5a99	-0.013449335
182	0xba84cdff	-0.0010132192
183	0x3c4476cc	0.011991214
184	0xbdf1ee54	-0.118130356
185	0xbd12db47	-0.03585365
186	0x3e5a1f7b	0.21301071
187	0xbdcfa29b	-0.101384364
188	0x3da144fb	0.07874485
189	0x3e9662bb	0.293722
190	0x3c9805b4	0.018557407
191	0x3c77dc1a	0.01512816
192	0x3e78ee10	0.24309564
193	0x3d278250	0.04089576
194	0x3e6f6fe2	0.23382524
195	0x3e471063	0.19439845
196	0xbbbb02eb	-0.005707135
197	0x3d5d92e0	0.05409515
198	0x3c73f433	0.014889765
199	0xbd1509d5	-0.03638633
200	0x3dadb345	0.084814586
201	0xbc571cd0	-0.013129428
202	0xbe3540dc	-0.17700523
203	0xbe0d3878	-0.13791072
204	0xbdc3b2fd	-0.09555624
205	0x3da1069d	0.078625895
206	0x3e311e83	0.17296796
207	0x3e3b9ec7	0.18322287
208	0xbe377108	-0.17914212
209	0x3e0d5b04	0.13804251
210	0x3dfc8268	0.123295605
211	0x3d74b1e4	0.059739962
212	0x3dad6041	0.084656246
213	0xbc419a4f	-0.011816575
214	0x3c3ad4f4	0.011403311
215	0x3e616775	0.22012122
216	0xbd22ef29	-0.039778862
217	0x3e2f8c4b	0.17143361
218	0x3df4c3f4	0.119514376
219	0x3b795764	0.0038046474
220	0x3d9becc6	0.0761352
221	0xbde35cd8	-0.11101693
222	0x3d7a685a	0.061134674
223	0x3dc088f2	0.0940112
224	0x3e0f08c7	0.13968192
225	0x3d90b1d4	0.07065168
226	0x3d7985e9	0.060918722
227	0x3e435b37	0.19077764
228	0x3cc51ab9	0.024060594
229	0x3e38be27	0.18041287
230	0xbe05f1e2	-0.13080552
231	0x3dcb106d	0.09915242
232	0x3d953eaf	0.072873466
233	0xbe07a850	-0.132478
234	0xbc9c058b	-0.019045612
235	0xbd3f37e9	-0.04668418
236	0xbe2e823c	-0.17041868
237	0xbd4c7f80	-0.04992628
238	0xbe37a5a0	-0.17934275
239	0x3cee9ab8	0.02912651
240	0xbd3a1a85	-0.045435447
241	0xbd3e35f9	-0.04643819
242	0xbca4784e	-0.020076897
243	0xbe5d1fe7	-0.21594201
244	0xbda97ff9	-0.08276362
245	0xbd8d1ca1	-0.06890226
246	0x3e70a728	0.23501265
247	0x3db7eea4	0.08981064
248	0xbe4dbd60	-0.20091772
249	0x3d1fa9db	0.038980346
250	0xbd4515c2	-0.048116453
251	0x3baa7a6f	0.0052025835
252	0x3d91d439	0.071205564
253	0x3d3cab93	0.046062063
254	0xbe870c76	-0.26376694
255	0x3e333940	0.17502308

mid_part.8.bias f4 [12]
0	0xbac8061f	-0.0015260613
1	0x3c128e26	0.008945024
2	0x3bdc60f0	0.006725423
3	0xbbfdd3e8	-0.0077462085
4	0x3c2c06f4	0.010499705
5	0x3a31d505	0.00067837565
6	0x3b3ecf48	0.0029115248
7	0x3b1d69d6	0.0024019382
8	0xbc1baf41	-0.009502233
9	0x3d548269	0.05188218
10	0x3bdf69cb	0.0068180314
11	0x3c22e542	0.009942355

mid_part.9.weight f4 [12]
0	0xbf060b39	-0.52360874
1	0x3ce1aa56	0.027547043
2	0x3f19cb3b	0.6007573
3	0x3e845c46	0.2585165
4	0x3eccff72	0.4003864
5	0x3f3da9c9	0.74087197
6	0x3f44e354	0.76909375
7	0xbe0c33e0	-0.13691664
8	0x3e886650	0.26640558
9	0x3e58ccd6	0.21171889
10	0x3dcedb8f	0.10100471
11	0x3e9ba39d	0.30398265
