models/fsrcnn/track1/track1_x4__epoch_0.pth (torch, 58227 bytes, 22 tensors)

first_part.0.weight f4 [56, 1, 5, 5]
00000000: 2629 c2bc 3e85 4c3d a1ef f03c fa31 913c
00000010: d50e 69bb efc0 f5bc bcf9 823c 00a5 19bd
00000020: c1e2 0cbd 7394 8c3a d40b 103d de63 74bc
00000030: 8229 163d 231a 353c ab21 933c 2bba 323d
00000040: 7871 2fbd c30d f0bc 8ca6 813d 82e8 34bb
00000050: 84dc 5dbc 079e 023c bbef 7a3d 21b0 b53b
00000060: 0e83 37bd b170 14bd 173c 1ebd 7788 4abd
00000070: 1e39 5c3b 8153 303d 3b56 34bd 6e3d 3b3d
00000080: 8195 05bd 77d3 bbbc 90d1 7c3b c46c 94bc
00000090: 6c48 a23b 6fad e03b f2cd 0a3c 359d 78bd
000000a0: 396e 11bc 8a25 233d e7e8 a83b c415 5cbb
000000b0: c878 4cbc 4485 1d3d 947b acbb 55de adbd
000000c0: 7874 3c3d 82b2 023c 6af7 90bc b932 67bd
000000d0: 8176 7ebc e86c 9bbc ff76 803c 4eaf b93b
000000e0: a98b dbba 946b 99bc f174 d6bc f2b7 89bd
000000f0: 17fc 09bd 2ad3 93bd e325 39bd d0f6 8cbc
00000100: 13e9 69bd 16dc 333d 9ea7 7bbd dbdf 6cbd
00000110: 1f29 d5bc c32d a2bc 98c2 44bd 22e8 373d
00000120: 80a0 263d 3659 15bd 6447 b7bc fcfd e83c
00000130: 00ac 86bb 4d28 4c3d f905 993c ffdb d4bc
00000140: f404 24bd 65cb 41bc d6bb 9b3c 52a8 5abd
00000150: ff37 85b9 eb45 893c d0fe 9f3d 3f80 28bd
00000160: 1909 81bd 2b1f 043d a5ea cd3c 14ce 2abd
00000170: 8745 2ebd b260 0abc a60c 4eba 1a8c 033d
00000180: a099 94bd bab2 8fbc 349e 34bd 1e59 bebd
00000190: 0320 fd3b 0c7c 33bd efcc 17bd 1981 b1bd
000001a0: 2cb5 9ebc 5a50 0fbc 1edf 883d 913f dbba
000001b0: 9b9e 223d affc 56bb 1ce6 613c 3b2e 9abd
000001c0: 63c3 98bc c998 bdba fd72 be3c 6bd7 e6bb
000001d0: 1320 aebd 62f6 3cbd ef74 f6bc cae9 3b3d
000001e0: 8a22 3cbd 0849 acbc c692 633d 0b4a 8fbd
000001f0: c4f4 a63c 3712 94bd 3326 4dbd feae 463d
00000200: 7a2a c93c 5ae8 3f3c fb84 d13c a707 24bd
00000210: 385d 1cbc 92cc 57bd 6512 28bb 6a43 4bbd
00000220: ae7c 5ebc a517 c23c 40e5 073d 43cb 16bd
00000230: 12e2 4f3d 1061 63bd d13b f93c 5964 59bc
00000240: 7286 2cbc be6c 4e3d c9d4 69bb 712c 96bb
00000250: e974 39bc 54b1 e8bc f31f b6bd 799c 523c
00000260: 3f1c ce3b 8e50 833d ec1b b6bc 5809 93bb
00000270: 571f 733c 594d c93c 5f5c 3fbd 3925 49bd
00000280: c26d 13bc f062 4cbd 6ee8 aa3a 21cc 94bc
00000290: da09 1d3d 0ea3 afbd e3cc 3b3c 5f70 c4bc
000002a0: 48b2 4e3c d62f aabc 3c6d 6abd 23e6 2f3c
000002b0: 4c5f b0bb 0134 adb8 8957 91bd e2f0 073d
000002c0: 4504 4bbb 4dc6 e53c 9d28 d1bd 160a a4bc
000002d0: b258 79bd 8065 72bd 2b70 383d ec53 963c
000002e0: da8f 6cbc 12c8 a73c 1953 49bc 559d 963d
000002f0: f710 803c 7615 e43c 10e0 223b 5006 62bc
00000300: 6c24 a23d c3d1 8fbc 2c41 2a3d 900b 203d
00000310: e337 04bc 30ff 003d e8d6 90bb 2d2d 25bc
00000320: 47d7 0d3d 0eda 7c3d 7776 0dbc a7a4 b63b
00000330: f184 e73c 989d b53c 89a8 fa3c a638 d93b
00000340: 3cba 903c 5a01 13bc 7a04 533c 9088 c8bb
00000350: a6d1 1f3d b483 843c 0b4d b3bc 7514 65bc
00000360: 5b70 e13c f1d9 263d 926b 33bc da1f 33bd
00000370: 9b78 043d 9998 f03c 3b07 ba3d fbb2 20bd
00000380: 2bac 2b3c a724 ae3d 28b4 2ebd ede6 5fbd
00000390: 3020 553d fe41 74bd 0ccd 58bc 7c55 01bb
000003a0: ded1 c83c 5f57 3abd a03d 623c f62e 1d3c
000003b0: b5e5 23bc 422a 903d 97b6 313d f46e 1d3d
000003c0: ca78 503d 6804 e0bb e3d6 5e3c 702b 29bd
000003d0: e405 3a3d 3345 303d 0f06 2f3d 9f4e af3c
000003e0: 187f 783d d631 403d 7ba1 edbc 6197 2a3d
000003f0: ea79 34bd 05f6 fb3a 44d6 44bd 9793 ec39
-0.023701262 0.049931757 0.029411139 0.017724026 -0.003556182 -0.029999224 0.015988223 -0.037510872
-0.034395937 0.0010725394 0.03516753 -0.014916388 0.03666068 0.011053595 0.01796039 0.043634575
-0.04283282 -0.029303437 0.063305944 -0.0027604406 -0.013541345 0.007972247 0.06126378 0.005544678
-0.044802718 -0.036240283 -0.038631525 -0.04944655 0.003360338 0.043048386 -0.04402755 0.04571288
-0.03261328 -0.022927983 0.0038577057 -0.01811827 0.004952481 0.0068566124 0.008471953 -0.0606968
-0.008876377 0.039830722 0.0051547172 -0.003358231 -0.012479968 0.03845717 -0.005263755 -0.08489672
0.04600951 0.00797713 -0.017696101 -0.056444857 -0.015531183 -0.018972829 0.015681742 0.00566665
-0.0016749996 -0.018728055 -0.026178809 -0.06724538 -0.033687677 -0.07218011 -0.045202147 -0.017207533
-0.057107043 0.043911062 -0.06143915 -0.057830673 -0.026020585 -0.019797212 -0.04803714 0.044899113
0.04068041 -0.03646203 -0.022372909 0.028441422 -0.0041098595 0.04984312 0.018679606 -0.025983809
-0.040043786 -0.011828278 0.019010466 -0.05338318 -0.00025409457 0.016756972 0.078122735 -0.04113793
-0.06300563 0.032256287 0.025136301 -0.041700438 -0.042546775 -0.0084459055 -0.0007860161 0.032116033
-0.07255864 -0.017541278 -0.044096187 -0.092943415 0.0077247634 -0.043819472 -0.037060674 -0.086672015
-0.019373499 -0.008747185 0.06683181 -0.0016727318 0.03970204 -0.003280442 0.0137877725 -0.07528349
-0.018647855 -0.0014465089 0.02324819 -0.007044723 -0.085022114 -0.046133406 -0.030085055 0.045877255
-0.045931377 -0.021030918 0.055559896 -0.069965445 0.020380385 -0.07230037 -0.050085258 0.04850673
0.024556387 0.011713112 0.025576105 -0.04004636 -0.009543709 -0.052685328 -0.002564573 -0.049624838
-0.013579531 0.023692915 0.033177614 -0.03681494 0.050752707 -0.055512488 0.03042403 -0.013268554
-0.010530101 0.050396673 -0.0035679808 -0.0045829345 -0.011319377 -0.02840487 -0.088928126 0.012854689
0.0062899883 0.06411849 -0.022230111 -0.004487198 0.014839015 0.024573015 -0.04671895 -0.049107764
-0.008998336 -0.04989904 0.001303924 -0.018163742 0.038339473 -0.08576022 0.011462423 -0.023979364
0.012615748 -0.020774763 -0.05723308 0.010736021 -0.005382454 -8.258969e-05 -0.07096774 0.033188708
-0.0030977887 0.028048659 -0.102128245 -0.02002434 -0.060875602 -0.05917883 0.045028847 0.018350564
-0.014438594 0.020481143 -0.012287878 0.073542275 0.01563309 0.027842265 0.002485279 -0.01379545
0.07917103 -0.017556077 0.04156606 0.039073527 -0.008069965 0.031493366 -0.00442015 -0.0100815715
0.034629133 0.06173139 -0.008634201 0.0055738273 0.028261634 0.022169873 0.030597942 0.0066290675
0.017666928 -0.00897249 0.012879485 -0.006119795 0.039018296 0.016176082 -0.021887323 -0.013981928
0.027519396 0.04073519 -0.01095094 -0.043731548 0.03234158 0.02936964 0.0908341 -0.03923319
0.01047806 0.08503085 -0.04265228 -0.054663587 0.05203265 -0.059633248 -0.013232481 -0.001973479
0.024514135 -0.04549348 0.013808638 0.009593716 -0.010003497 0.0703931 0.043387022 0.03843589
0.050896443 -0.0068364628 0.013601038 -0.04130119 0.045415774 0.043034744 0.042730387 0.021399794
0.06066808 0.046922527 -0.029007664 0.041648272 -0.04406158 0.00192231 -0.048055902 0.0004512339

first_part.0.bias f4 [56]
00000000: 68be a9bb 6a5e 1dbb 202c 9e3a 2451 05bb
00000010: 2ad0 423b cb25 2fbb 31d6 f5ba b456 823b
00000020: db4b 8db8 be70 16bb 9c5f 37bb daff 063a
00000030: 519e 5f3b c7bf 933b cb51 003d ba5b 78bb
00000040: a1d1 be3c 0247 18bc 9c41 e03b 2e20 1fbc
00000050: bd2e c33a a9a0 203b b1ac 42bb 5594 50bb
00000060: d578 06bc c885 08ba 0dac ab3a 1723 013b
00000070: 8078 0dbc 7ede 53ba 1cdf fbba 6156 d6b9
00000080: 6771 87bb 072e afba cb88 b13a 6ca4 333c
00000090: 82e6 31bb 5ab0 833b 668a 3db9 5c17 7a3c
000000a0: d677 ed3c 887d 56bc 039f ea39 d321 c8bc
000000b0: 6247 beba 518d 173b f5b0 d03b 3abf 39b7
000000c0: e971 debc 77e3 713c fa40 36bc 0d0f 2e3b
000000d0: efff a7bb 670e 153b bb35 0dbb a9b4 b53b
-0.005180169 -0.0024012574 0.0012067594 -0.0020342553 0.0029726126 -0.0026725407 -0.0018755851 0.003977621
-6.737533e-05 -0.0022955383 -0.0027980572 0.0005149819 0.0034121464 0.0045089456 0.031328004 -0.003789647
0.023293318 -0.009294273 0.0068437587 -0.009712262 0.0014891248 0.0024509823 -0.0029704983 -0.0031826694
-0.00820752 -0.0005207923 0.001309754 0.0019704753 -0.0086346865 -0.0008082165 -0.0019216272 -0.00040881618
-0.0041333917 -0.0013365158 0.0013544796 0.010964494 -0.002714545 0.0040188255 -0.00018076002 0.015264358
0.028987806 -0.013091452 0.0004475043 -0.024430191 -0.0014517123 0.0023125003 0.006368751 -1.1071383e-05
-0.027153926 0.0147637045 -0.01112389 0.0026559264 -0.005126945 0.002274418 -0.0021546918 0.005545218

first_part.1.weight f4 [56]
00000000: 1ac0 753e 4c82 7c3e d7a1 823e ffa4 813e
00000010: 745f 813e 66cc 773e ec84 7f3e 0135 863e
00000020: 798e 873e 06e5 873e 20b0 ea3e 8db1 7f3e
00000030: e678 f23e 541a 813e e050 723e acb3 513e
00000040: 14ff 8d3e ac5e 803e 1d21 7e3e 0f34 a23e
00000050: 475f 823e f57a a33e 31e5 7a3e 1286 803e
00000060: 0f1b 923d 6aa7 7d3e f498 7a3e 8db8 813e
00000070: a7a0 883e 8d42 7d3e 53a2 7f3e 7ac7 c33e
00000080: 9cf7 863e 0b2e 823e 1b5d 7b3e 6a94 813e
00000090: f224 6a3e 03c3 573e 1edb 8c3e f053 803e
000000a0: 7aae 963e ea10 853e 197b 843e becd 9b3e
000000b0: 385d a33e dd93 783e 53b7 f13e aa2b 7e3e
000000c0: 9970 d33e bc8a 783e b59a 293f 9d14 7b3e
000000d0: 80a0 673e c57b 5e3e bf94 863e 8e5f 843e
0.23999062 0.2465908 0.255141 0.25321195 0.25268137 0.24199066 0.2495305 0.26212314
0.26475886 0.2654192 0.45837498 0.24970074 0.47357863 0.252154 0.23663664 0.20478696
0.27733672 0.2507223 0.24817319 0.31680343 0.25463316 0.31929746 0.24501492 0.25102288
0.07134067 0.24770895 0.2447241 0.25336114 0.26685068 0.24732418 0.24964266 0.38238126
0.26360786 0.25425753 0.24547236 0.25308543 0.22865656 0.21070485 0.27510923 0.2506404
0.2942999 0.25989467 0.25875166 0.30430406 0.31907058 0.24275155 0.47210178 0.24821344
0.41296843 0.24271673 0.6625169 0.24519582 0.2261982 0.21726902 0.2628536 0.25854152

mid_part.0.weight f4 [12, 56, 1, 1]
00000000: 508b 013f 35b7 593e b83b 42bf 2261 793e
00000010: b31d cb3e f519 983e fff2 99bd 464f f43e
00000020: 223c 283e d494 97bf 717e 003f c686 8dbd
00000030: fbb9 0cbf a3c0 873f a0b3 d73e 8f58 c63e
00000040: 8326 b23d 7e67 a33d c5b8 0e3f a607 78be
00000050: e848 f13b bef1 343f d434 bcbe 8ed9 eabe
00000060: dfb2 88bd 3722 95bd f8c3 ce3e 0c50 38bf
00000070: 4ced 843e 4c38 b73e 656b 583d fb99 b63e
00000080: f36b 083f 104e 073e 8b96 14bf 7441 2fbf
00000090: 41bb 2ebd 20c1 58bd 34a3 52be 110f b83e
000000a0: 178f 98bd 0edb 003f 9191 c7be 3c12 07be
000000b0: d28f 02be 2daa 0ebe 0a68 07be 8e5a 1bbf
000000c0: e0a5 2fbe ceb1 20bf 0c95 ddbd 38f0 05be
000000d0: 42a6 28bf 8a87 0d3e d744 97be 8015 21be
000000e0: 4504 a7be a51f 6fbf 1f5c fc3e ae5f 0f3d
000000f0: f8cd adbc 3e60 513f 7560 3d3f 4a19 ef3e
00000100: a23c 693c 128d d4bd 5245 23bd 8c73 fabe
00000110: 11ee 383e ec61 333e 41eb 18bf 2689 a33d
00000120: ae11 06bf c972 743e ebf6 1d3f d413 f3bd
00000130: b54c 5a3f 36df 78be 19be cd3d 8d0f babe
00000140: 1a58 bfbe ef18 babd ee4c a33d f632 0bbf
00000150: e248 0c3f 8c40 433f 10cd 2bbe cfaa cd3e
00000160: bc65 083e 3c25 d5be acee 83bd 7d78 1bbe
00000170: 02cc 7f3e 93ae 6b3e 4bc7 0abf f987 74be
00000180: a4f0 653e 820a 373f 8347 89be 2ffe 533f
00000190: 70d3 3a3f 8427 073e 4747 da3e 16f8 ba3d
000001a0: f1bb a03e ebd5 04be 21c4 573f 8cbe edbe
000001b0: cdfa 763b c8bb 23be 8606 2a3f d6ec e4be
000001c0: e819 8f3e 3a84 1cbf 6686 89be c3eb c9be
000001d0: ee01 a8bd a637 1a3f bde7 f2bd 9278 89bd
000001e0: 13a4 263f 61ad 493f f9b4 d13d d905 523f
000001f0: 8eae d9be 024b 1abe a71d e4bd 2ec1 d13e
00000200: f91d 88bc e9d6 19be d52d f63e c3d3 ba3e
00000210: 42a8 09bf 64c6 6f3e 6ba3 06be 2d3f 9dbe
00000220: 0040 d33e 5305 abbe f856 23be 2564 82be
00000230: 6e08 fbbe 0bfa df3e 72dd 913c ef57 23be
00000240: 9fbc f93e 9000 333f eee7 243f 2e9f c23e
00000250: 0c4b a63e 1e52 9f3e 343e f0be 7edb dd3d
00000260: 1e5f c6bc d361 073e c59f 59be d110 a9bb
00000270: 4007 0e3e 0e7d d73e 3688 703e f286 f73e
00000280: d11b 65bc 4799 173f 3a7a 603e 7bfd 11bf
00000290: 3955 723c 9494 de3e 7f48 b3be 3f68 a3be
000002a0: c53e 753d db06 913e 34dd 09be 54f4 193e
000002b0: 5e0f 853e 0fd5 72bd 026e 10be 5a4f 8f3e
000002c0: d038 13bf 48d1 c5be 0e59 0f3f d3bd b2be
000002d0: e1b8 ba3e 1395 f7be 8371 1d3f 6393 98bd
000002e0: c9cf 033e 82aa 733e ca7c 1b3c 9a50 5d3f
000002f0: 2950 f4be b6d8 1e3f 1ccd abbe 7ba0 b1be
00000300: 4f01 f13e 61bc 8b3d 272e e7be 1042 753f
00000310: e4c9 ff3d 84e4 d03e 5cb3 16bd cb77 babd
00000320: 5308 06bf 2da4 573e 8e1f 0bbe 151e ee3e
00000330: 87bc 0c3e f839 02be b3d4 5ebd 2511 1c3e
00000340: 7115 b4bd bae4 873f 7434 453f 0e80 2e3f
00000350: 4f41 76bf 0ec3 61be 8e50 f73e b9ae c4bd
00000360: 793c c43e b33d 073f e18e 8cbe 4ddd d1be
00000370: f263 88be d378 e93e 1389 50be faef ff3e
00000380: 8fe7 66be b220 733d 6ac0 0d3e 6c6a 253e
00000390: 64b1 2cbe 5494 c9be 0d09 10be d592 e03e
000003a0: b91e e83e 0e4e a3be a752 fbbd 36e6 483d
000003b0: 5d47 aebf 1534 543f b1e3 313f 641d 9fbd
000003c0: 7c18 843e dedb 0cbe b4aa 763e 3b51 aabe
000003d0: 1dea 743e 8374 8c3e 2796 b23e 59b9 253c
000003e0: 38ef fabd 92cc 0fbe 7568 f33e 95af 8f3e
000003f0: 19d0 2bbf 1cde 85be 06db af3d 3f25 413e
0.506032 0.21261294 -0.75872374 0.2435346 0.39671096 0.29707304 -0.07517051 0.4771673
0.16429189 -1.1842294 0.50192934 -0.069104716 -0.54971284 1.0605663 0.4212923 0.3873944
0.08698752 0.07978724 0.55750686 -0.24221668 0.0073634274 0.7068137 -0.36759055 -0.45869106
-0.06674742 -0.072819166 0.40383887 -0.7199714 0.25962293 0.3578514 0.052836794 0.35664353
0.5328972 0.13213372 -0.5804221 -0.6845925 -0.042659048 -0.052918553 -0.2057007 0.35948995
-0.07449167 0.5033425 -0.38978246 -0.1319055 -0.12750176 -0.13932104 -0.13223282 -0.6068505
-0.1715312 -0.6277131 -0.10819444 -0.13079917 -0.6587869 0.13821235 -0.29544708 -0.15730858
-0.32620445 -0.9340766 0.49289033 0.035003357 -0.021216378 0.8178748 0.73975307 0.46698982
0.014235647 -0.103784695 -0.03986103 -0.4891628 0.18059565 0.17517823 -0.5973397 0.07985143
-0.5237073 0.23871912 0.6170489 -0.11869016 0.85273296 -0.24303898 0.10046024 -0.3633999
-0.37371904 -0.09086787 0.079736575 -0.54374635 0.5479871 0.76270366 -0.16777444 0.4016938
0.13320059 -0.4162997 -0.064420074 -0.15182681 0.24980167 0.23015814 -0.54210347 -0.23879994
0.22455078 0.7150041 -0.26812372 0.8280973 0.7297888 0.13198668 0.42632505 0.0912935
0.31393388 -0.12972228 0.84283644 -0.46434438 0.003768611 -0.15989602 0.66416204 -0.4471194
0.27949452 -0.6113926 -0.2686035 -0.39437684 -0.08203493 0.6024116 -0.11860607 -0.0671245
0.6509411 0.7878018 0.10239596 0.8204017 -0.42515987 -0.15067676 -0.11138468 0.40967697
-0.016615855 -0.15023388 0.48081842 0.36489686 -0.53772366 0.23415524 -0.13148277 -0.30712262
0.41259766 -0.334025 -0.15951145 -0.2546703 -0.4902987 0.43745455 0.017805789 -0.15951513
0.4877672 0.69922733 0.64416397 0.3801207 0.3247913 0.31117338 -0.46922457 0.108328804
-0.024215277 0.1322091 -0.21252353 -0.0051594754 0.13869953 0.42087597 0.2348946 0.48345143
-0.013983683 0.5921826 0.21921626 -0.57027406 0.0147908265 0.4347273 -0.35016248 -0.3191547
0.059874315 0.28325543 -0.13463289 0.1503461 0.25988287 -0.05928522 -0.14104465 0.27990228
-0.57508564 -0.3863623 0.5599526 -0.3491045 0.36469176 -0.48355922 0.6150133 -0.07449987
0.12872232 0.23795512 0.009490201 0.86451113 -0.47717407 0.62049425 -0.33554924 -0.3469275
0.4707131 0.0682304 -0.451524 0.9580393 0.124896795 0.40799344 -0.036792144 -0.0910488
-0.5235645 0.21058722 -0.13586256 0.46507326 0.13743792 -0.12717426 -0.054402065 0.15240915
-0.08793152 1.0616677 0.7703316 0.68164146 -0.96193403 -0.22047064 0.48303646 -0.09603638
0.38327387 0.5282852 -0.27452758 -0.40989152 -0.26638752 0.45599994 -0.2036479 0.49987775
-0.2254927 0.059357353 0.13842931 0.16153878 -0.16864544 -0.39370978 -0.14065953 0.43862024
0.4533594 -0.31895489 -0.12271624 0.04904767 -1.3615528 0.8289197 0.69488055 -0.07769278
0.2579993 -0.13755748 0.24088556 -0.332651 0.23917432 0.2743264 0.34880182 0.010114991
-0.122526586 -0.14042881 0.47540632 0.28063646 -0.67114407 -0.26146019 0.08586697 0.18861865

mid_part.0.bias f4 [12]
00000000: 0170 593b 6c39 fbbc 197e 9dba f1d8 ecba
00000010: 239d 823d e932 c03b c351 873c 5ff6 8c3b
00000020: d0db 063c ba81 e0ba bfb7 c7ba cb46 933b
0.0033178332 -0.03066703 -0.001201573 -0.0018070025 0.06377628 0.005865444 0.01651848 0.0043018307
0.008231118 -0.0017128505 -0.0015237256 0.004494523

mid_part.1.weight f4 [12]
00000000: e80c 7f3e ca63 a43e a4ec 7f3e 703a 7e3e
00000010: daad 8a3e d70a 753e 2b8d 6f3e b7a7 9f3e
00000020: 3065 8f3e eb42 d03e 97ee 5c3e 0aad 863e
0.24907267 0.32107383 0.24992615 0.2482698 0.27085763 0.23929916 0.23393695 0.31182644
0.28006887 0.40676054 0.2157539 0.26303893

mid_part.2.weight f4 [12, 12, 3, 3]
00000000: fb3c 7e3e 64e7 3dbc 9175 103c ee71 82be
00000010: 64a6 d73d c0ca e8bd 7b39 8dbd 225a c9bd
00000020: 77cb 9c3d 987e 373e 56b9 5fbe bcad 533e
00000030: 44b1 433d acf3 edbd 5052 f6bd 583a 89bd
00000040: b273 23be bb10 1f3d 686e b83d 3191 213e
00000050: 3366 703d af86 233e 7a95 a93b afac ddbc
00000060: 4301 853e 215d 763d 6b74 95bd b7fd 13bc
00000070: 9938 81bd e8b5 f73d c0cc 0c3e 6f1e aebe
00000080: a588 80be ba96 11be 986e c8bc b359 103e
00000090: 2a82 37be 51a7 d3bd 96da bbbd 52ce bcbc
000000a0: db63 653e e5e3 66be f70e 993c e450 04bc
000000b0: 290c 523d 7f46 5c3e 3df8 303d 51c6 5c3e
000000c0: 5c4b 57bd bce6 d8bd 10a7 9b3d 15b7 c0bd
000000d0: b9c9 893d 9967 cebd ea3a 22be 9bc2 fa3b
000000e0: 6de8 67bc 98ac 5e3e b40e 99bd 0c0a ea3c
000000f0: 6082 b1bd 4444 d73d 4b6a 273e 1133 083e
00000100: 31ff 94bd 6cf3 733e 57b6 533c c099 233d
00000110: 117e 28bc 03f7 213c 461d 68be 35ae 50be
00000120: 7921 7cbc 5235 c6bc 168f 263d 00c9 3abe
00000130: ad53 973e 6d3f 93bd 6a5f 6dbd b568 75bd
00000140: 8fbc de3c b049 35be b881 c43c 3997 613d
00000150: 8520 353d 8b5b de3d 8c45 053e 1e39 ebbd
00000160: f47f d9bc 22fb f63c f116 8e3d f770 a5b9
00000170: 7b9e 713e aa5e eebd bb52 62bd e135 8fbd
00000180: 265d 1b3d 2731 d53d 5716 063d c15d 463d
00000190: 3200 99bd eb87 c9bd ab02 09bd af23 bc3d
000001a0: c298 b33c f1fc 9f3d a6f6 2f3d 39b6 95b9
000001b0: 4231 8c3b b510 ebbc 8a8e 6b3c 7a4b 313c
000001c0: a2bf 913d 567a 6dbe b4b1 713e fed5 a63d
000001d0: 517a 203e ae53 1d3e 3358 a53d e223 ca39
000001e0: 09fa 723e 009d ed3d 7907 a13c 9ace 7e3d
000001f0: 025b ddbd 6a89 173e 86c9 eebc 91d9 a6be
00000200: 41b7 2bbe 603c a53c c230 6a3d 9ab6 9abe
00000210: 3f91 edbd c44e b13d 4bed d4bd 5f3a 463d
00000220: c0f2 8d3e 695e eabd 1f20 03bd 5eaa 62bd
00000230: b15f cebb 4ff3 dcbd 304f af3e 52aa 7dbd
00000240: 8734 6a3e 7fd2 13be 00ca 91bd f693 41be
00000250: b41a 0ebe b40b a73c 7397 9ebd b073 cebd
00000260: b8e7 c43c ddb5 f6bd 29d7 273d 6c31 88be
00000270: b62f f03b c3cc c83d 9ec0 b73d a7e9 073e
00000280: ff1e 98bd 6e8b 4cbd 1efa 493e e833 6cbe
00000290: 341a 0dbe 3005 753c c427 4e3e 2fb3 99bd
000002a0: 6619 9bbe e8c8 b6bb cb52 aa3d b523 40be
000002b0: 2805 1c3e 3953 b1bd e66b 41bd 7af3 5a3e
000002c0: 1ff4 273e 2cd4 7cbd a66e f6bd 48aa 15be
000002d0: f397 bd3d d109 f3bd ab39 ea3d c79d bdbc
000002e0: 1246 9f3d 31f2 92be 76d8 2c3d 7d66 c2bd
000002f0: 2ac8 c8bd 3572 04be 67c0 98bd bde6 87bd
00000300: 000c cfbb a9d2 93bd ed12 5cbc 13ad 34be
00000310: 547a 66bd 1f0f 0dbb 8f3b 9bbd b346 0a3e
00000320: d83b 133d d08f 783e f275 4abd 5fa4 0bbe
00000330: ea22 14be ed82 ca3c 4cca f63d 5c8c 943e
00000340: 8bf5 3c3e 29fb a73d 5c85 de3d ba14 cc3d
00000350: 8698 213e dd55 4fbc 55f1 023e afc7 083e
00000360: 10c6 a93d 4405 24be 6ff3 adbc f26e e3bc
00000370: 26ee 363e 5e0d 343e 8a17 213e b5dd b1bc
00000380: 4fe8 903e 02d7 b3bd 1de6 ecbd 9f2c 663d
00000390: 56a3 463e 998b a4bd abe2 bdbc cb7d 92bd
000003a0: 5328 d03d d088 b73d 7f9b 153e b96f 87be
000003b0: 6250 4ebe 1865 803d 232c 00be 7bf8 12bc
000003c0: 5baf e23d 1a42 de3c b31b 0a3d f833 cdbd
000003d0: 78ca 96ba eabc 39bd 2648 583e 9ff9 583e
000003e0: 69e5 453e dd64 553d 6913 eb3d cd3f 573d
000003f0: 0e94 ad3e 7923 56be 164d 94bd f9fb 093d
0.2482795 -0.011590812 0.0088170925 -0.25477546 0.10529783 -0.113667965 -0.06895729 -0.098316446
0.07655995 0.17919385 -0.21848044 0.20671743 0.047776476 -0.11618742 -0.120274186 -0.06700581
-0.15962103 0.038834315 0.09005433 0.15778042 0.058691215 0.15969346 0.0051752897 -0.027059881
0.25977525 0.06014741 -0.072975956 -0.009032658 -0.06309623 0.12095243 0.13749981 -0.34007594
-0.25104252 -0.14217654 -0.024466798 0.14096718 -0.17920747 -0.103346474 -0.09172551 -0.0230476
0.22401373 -0.22547872 0.018683894 -0.008075926 0.051281128 0.21511267 0.04320549 0.21560027
-0.052562103 -0.10590884 0.07600224 -0.0940992 0.06727929 -0.100783534 -0.15842786 0.0076525933
-0.014154536 0.21745527 -0.074735075 0.028569244 -0.08667445 0.105110675 0.16349141 0.1330073
-0.072752364 0.23823327 0.012921891 0.03994155 -0.010283963 0.009885552 -0.22667417 -0.20378955
-0.01538884 -0.024195347 0.0406638 -0.18240738 0.29556027 -0.07189832 -0.057952322 -0.05991431
0.027189521 -0.17703891 0.023987636 0.055075858 0.044220466 0.10857304 0.13014811 -0.114855036
-0.02655027 0.030149046 0.069379695 -0.00031555418 0.23595612 -0.116391495 -0.05525468 -0.069926985
0.03793063 0.10409766 0.03273615 0.048429254 -0.074707404 -0.098403774 -0.03344981 0.091864936
0.021923427 0.078119166 0.04295983 -0.0002855526 0.004278333 -0.02869449 0.014377246 0.010821218
0.07116629 -0.23191199 0.23602945 0.081462845 0.1567166 0.15363953 0.08073463 0.00038555177
0.23728193 0.11602211 0.019656884 0.06220875 -0.10808374 0.14798513 -0.029148828 -0.32587865
-0.16769125 0.02017039 0.057175405 -0.3021744 -0.11599969 0.086576015 -0.103968225 0.04839551
0.27724266 -0.114437886 -0.032013055 -0.055338256 -0.0062980284 -0.10788595 0.34240103 -0.06193001
0.228716 -0.14435767 -0.071186066 -0.18904099 -0.13877374 0.020391323 -0.077437304 -0.100806594
0.024036273 -0.120464064 0.040976677 -0.26600206 0.0073299063 0.0980468 0.08972286 0.13272725
-0.07427787 -0.049937658 0.19724318 -0.23066676 -0.13779527 0.01495485 0.20132357 -0.0750488
-0.30292815 -0.005578149 0.08316573 -0.18763621 0.15236342 -0.086584516 -0.04722204 0.21381941
0.16401719 -0.06172578 -0.12032823 -0.14615738 0.09257498 -0.11867107 0.114367805 -0.023146523
0.07777037 -0.28700402 0.04219862 -0.09492204 -0.09803803 -0.12934192 -0.07458573 -0.06635807
-0.006318569 -0.072179146 -0.013432247 -0.17644148 -0.056269005 -0.0021523905 -0.07579719 0.13503532
0.035945743 0.2427361 -0.049428888 -0.13636921 -0.14466444 0.024720633 0.12050304 0.29013336
0.18453042 0.08202202 0.1086528 0.09964891 0.1578084 -0.012654749 0.12787373 0.13357423
0.082897305 -0.16017634 -0.021234242 -0.027762864 0.17864284 0.17583224 0.15731636 -0.021712163
0.28302237 -0.08781244 -0.11567328 0.056194898 0.19398245 -0.08034439 -0.023179373 -0.07152899
0.10163941 0.08961642 0.14610098 -0.26452425 -0.20147851 0.06269282 -0.12516837 -0.008970375
0.11068603 0.027131129 0.033717822 -0.10019678 -0.0011504432 -0.045346178 0.21121272 0.21188973
0.19325794 0.052098144 0.114783116 0.05255108 0.3390202 -0.20911969 -0.072412655 0.033687565

mid_part.2.bias f4 [12]
00000000: 2edc 0d3b 6f2f 043b 12b9 6f39 e498 b0b8
00000010: b3ea ee3c a2e3 18bb 0e2f 79bb 8712 61ba
00000020: e658 1f3c 104f 973a 9214 623b fc42 e03c
0.002164613 0.0020169874 0.0002286176 -8.420812e-05 0.029164648 -0.002332904 -0.0038022432 -0.00085858296
0.009725785 0.0011543948 0.0034497124 0.02737569

mid_part.3.weight f4 [12]
00000000: f48f a33b 1b9d 813e a946 853e f207 023f
00000010: 8b85 8a3e 88a5 823e e451 913d b5ab 1d3e
00000020: 317c 6f3e da52 7b3e a3ac 803e 1b35 773e
0.004991526 0.25315174 0.26030472 0.50793374 0.2705501 0.25516915 0.070956975 0.15397532
0.23387219 0.24543324 0.2513171 0.24141352

mid_part.4.weight f4 [12, 12, 3, 3]
00000000: 6cae 103d cfa8 8ebd 153b 683e 70b1 8e3e
00000010: 47dc f4bc 594a 073e 686d 02be a854 803d
00000020: f93f babd 81b4 59be c1b4 f2bd d83e ab3e
00000030: 85b7 5dbd 944b 103e 89f6 1cbe 6a91 f6bd
00000040: 9de7 6b3c 0e43 6f3e 99f6 00be 7266 ef3d
00000050: dca7 913c 9889 123e 41ed 2abd f552 9cbd
00000060: bd71 7cbd 92f6 103e 4b43 533e d627 9bbd
00000070: b3b8 a4be 1fc4 89bd 22a7 78bd 6ee9 c13c
00000080: 4c76 46be c017 acbd 800f 0f3e 86d7 913d
00000090: 6f6d 963c 9e63 123e 3570 fc3d 0147 f1bd
000000a0: 3031 073e 92f1 d83d 7d1e 7abe adbb aebd
000000b0: c300 1b3e 3e6f f7bc 188c b3bd 1d27 ee3d
000000c0: d497 81be fc88 b33d 0d9f b7be 2c11 4d3d
000000d0: 6199 863e e566 0fbe 91da cf3d 2a79 58be
000000e0: 6fd9 f8bd 2c65 b33d 5b4e f2bb 0eda 13be
000000f0: adf9 cbbc f595 84be 83a6 7c3e a68f 4d3c
00000100: a381 e3bd e778 173e e0bd b7bb 6e5c f83c
00000110: efbe 213e a1cc 6fbe 8224 8ebd d16a 4fbd
00000120: 3e7a 2f3b aaa3 f6bc c7a7 b9bd 8594 23be
00000130: d771 053b 9e81 fdba b481 883d 90c4 28bd
00000140: e8c2 683e 96c9 e03d 3bca 37bb 75c5 5c3e
00000150: 299d ec3d 80a8 203e a292 ecbc dcee a93d
00000160: 400d 283e cc0e afbe ed3d 53be 1c87 1e3e
00000170: 4099 cbbd 8279 9e3c 385f 9bbb 0ad2 e23b
00000180: a5cb 90be 462f bfbd aa3f 543d 9f2e b03d
00000190: 7312 f43d dd2c a33d 74c3 b9be 76d6 3d3e
000001a0: be78 20be ca0a 873d 974d 323e 64f8 653e
000001b0: 08e7 ee3d ad09 5fbe d675 45bd c639 8a3e
000001c0: 9815 8e3d dc15 b53d 062c 903e 58dd 7cbe
000001d0: ac21 673c a431 c0bc e549 8e3d cc0b acbc
000001e0: 5cda 973e 4a48 9a3d 50d9 ab3e 790a 74be
000001f0: e828 7ebe fc2c 8ebd 72f4 5fbe b23a fe3d
00000200: 0894 fbbc 1dea f2be eb14 19be b986 7abc
00000210: de49 05bf 17ec 45be dd0d e53d 7f37 0b3d
00000220: 6e14 873e d09a 693e b02f 0c3e 23b3 a03e
00000230: db91 6b3d 69ca bb3e 818f a33e 187c cfbd
00000240: e706 a6bd 3514 8ebd 3dd7 0ebd 08e7 41be
00000250: 6355 e7bc afcf aabb 759d c0be 44b2 f0bd
00000260: 42a3 81bd 93d3 a0bc bb8d 3dbe 8ab1 8d3e
00000270: 8cba 72be 3127 a4bc 02f2 123e 2e64 0abe
00000280: 5539 5a3d 8fd7 48bd 4ffb 883e 4b17 10bd
00000290: d605 80bd d805 bb3e 4f01 b1bd 761c b83c
000002a0: 562b 003e 7893 69bd ae47 89be 689d 993e
000002b0: 07b2 71be 312a 71be 4d5f 4cbd 2e4d 683b
000002c0: 13b2 9d3d 22d8 4a3e d57c d43d 1be5 c93e
000002d0: 0a63 43bd 78f5 7cbe 23f2 2cbe 0d19 59bc
000002e0: 7434 e7bd 5519 ba3d 075c 413e 5e20 873e
000002f0: dae0 293e d930 d8be c4ec 063e 13f7 22be
00000300: 9a3d 373e df4d 593e 6019 4fbd 56d7 003d
00000310: cc35 e9bc b18d b63d 8202 a3bd a773 40be
00000320: d5fb d73c 077b 993e c8a7 cb3e e567 1a3e
00000330: 68e9 90be a243 e6bc 0e95 4cbd 5737 86be
00000340: 7bb6 6dbe b607 a0be 3894 58be ac82 313d
00000350: 2e0b a7bb a18f 1c3f a0d3 b13e dcd1 843e
00000360: 48b6 463e 6581 4cbe 5924 1a3e 3fad 853d
00000370: b9db 0f3d 4a71 6bbc ae91 29be 5827 9c3e
00000380: e56e ff3c c012 5e3e c6c0 9d3c 30fa 303e
00000390: 7843 36bc 0054 ff3c 7c26 da3d 92b2 093b
000003a0: 9b55 9d3d 0e1b a73c 48c2 ebbd a460 6d3d
000003b0: 7bb1 3b3e abdb ebbc 9a8a 323e 5013 2d3e
000003c0: 6cb0 463d cd67 35bc e8fa 3ebe c3d1 41be
000003d0: 0730 2abe 679e edbc 8860 833d 7ae1 013e
000003e0: 444d 9c3d ceab 503e 18df 03bd c7f7 5e3d
000003f0: 9252 0dbe bcb6 60be 05f5 07be f7de f1bc
0.03532259 -0.069657914 0.22678788 0.2786975 -0.029890193 0.13211955 -0.12737048 0.06266147
-0.09094233 -0.21260263 -0.11850882 0.33446383 -0.054130096 0.14091331 -0.1532842 -0.12039454
0.014398483 0.23365423 -0.1259407 0.11689462 0.017780237 0.143103 -0.04173017 -0.0763301
-0.061631907 0.14156559 0.20631139 -0.075759575 -0.32172164 -0.0672686 -0.060706265 0.023670878
-0.19381064 -0.084029675 0.13970757 0.07121186 0.018362729 0.14295813 0.12326089 -0.11781121
0.13202357 0.10592951 -0.24425693 -0.0853189 0.1513701 -0.030204412 -0.08766955 0.11628554
-0.25311148 0.08766362 -0.35863534 0.050065205 0.26288894 -0.14004095 0.1014911 -0.2113997
-0.12150847 0.087595314 -0.0073945946 -0.1443865 -0.024899328 -0.25895658 0.24672894 0.0125464555
-0.111087106 0.14792214 -0.0056073517 0.030317511 0.15795492 -0.23417903 -0.06940557 -0.050638977
0.0026775743 -0.030107338 -0.09065204 -0.15974624 0.0020362043 -0.0019340997 0.06665364 -0.04120308
0.22730601 0.109759495 -0.0028044123 0.21559699 0.115534134 0.15689278 -0.028878514 0.08297512
0.16411304 -0.34190977 -0.20629092 0.15481228 -0.099413395 0.019345049 -0.0047415756 0.0069220113
-0.28280368 -0.093351886 0.051818527 0.08602642 0.119175814 0.07967541 -0.3628193 0.18538842
-0.1567106 0.06593855 0.1741241 0.22458035 0.116651595 -0.21781035 -0.04820808 0.26997203
0.069377124 0.0884206 0.28158587 -0.24693811 0.014107149 -0.02346117 0.06947688 -0.021001719
0.29658782 0.07533319 0.33564234 -0.2383212 -0.24820292 -0.06942174 -0.21870592 0.12413539
-0.030710235 -0.4744424 -0.14949386 -0.015290909 -0.5206584 -0.19328342 0.11184285 0.033988472
0.26382774 0.22812963 0.13690066 0.3138667 0.057512145 0.36677864 0.31945422 -0.10131091
-0.08106785 -0.06937448 -0.034873236 -0.18935788 -0.028238958 -0.005212746 -0.3762013 -0.117527515
-0.06329967 -0.019632136 -0.18511097 0.27674514 -0.23703974 -0.02003822 0.14350131 -0.13514778
0.053277332 -0.049033698 0.26754233 -0.035178464 -0.06251113 0.36527896 -0.08642828 0.022474509
0.12516531 -0.057025403 -0.268125 0.30002904 -0.23603068 -0.23551251 -0.049895573 0.0035446393
0.076999806 0.1980901 0.10375372 0.39432606 -0.047701873 -0.24703014 -0.16889243 -0.0132506015
-0.112893015 0.09086863 0.18882762 0.26391882 0.1658968 -0.42224768 0.13176256 -0.15914564
0.17894593 0.21221112 -0.05056131 0.03145536 -0.028468035 0.08913744 -0.07959463 -0.18794118
0.0263652 0.29976675 0.39776444 0.15078695 -0.28303075 -0.028108422 -0.049946837 -0.26214096
-0.23214142 -0.31255883 -0.21150291 0.04333751 -0.0050977683 0.6115666 0.3473177 0.2594136
0.19405472 -0.19971235 0.15052928 0.06527185 0.035121653 -0.014370272 -0.16559479 0.30498767
0.031180808 0.2168684 0.01925696 0.17282939 -0.011124484 0.031167984 0.106518716 0.0021010977
0.076823436 0.020398643 -0.115116656 0.05795349 0.18329422 -0.02879127 0.17435685 0.16901898
0.048508093 -0.011072111 -0.186504 -0.18927674 -0.16619883 -0.029006196 0.06414896 0.12683669
0.07631925 0.20378038 -0.03219518 0.054435518 -0.1380103 -0.21944708 -0.13277061 -0.029525263

mid_part.4.bias f4 [12]
00000000: 799e 5e3c ca22 43bb e15d 88bc a135 2d3c
00000010: 02d8 51bb a912 b7ba d565 8f38 27ae 3e3b
00000020: 757f 653c 3539 c33b 908b 87bc 71af 3ebc
0.0135875875 -0.0029775375 -0.016646327 0.010571868 -0.003201962 -0.0013967353 6.837739e-05 0.0029095502
0.014007439 0.0059577473 -0.01654604 -0.011638508

mid_part.5.weight f4 [12]
00000000: bf19 0c3e a1e7 b13e 9704 8d3e d29f 813e
00000010: 3472 1f3e dc78 aa3e 5ca3 353e 3e91 403e
00000020: fc54 cc3e 89f8 7f3e c21c a43e e800 843e
0.13681696 0.3474703 0.27542564 0.25317246 0.15570909 0.33295333 0.17738098 0.18805405
0.39908588 0.24997152 0.3205319 0.2578194

mid_part.6.weight f4 [12, 12, 3, 3]
00000000: 6c45 3d3d 1276 edbd f0b8 28bd 4314 e33c
00000010: d4d4 f43d 5625 1e3e 4ddb 08bd 9e24 903d
00000020: 0566 fc3c 248e 833d 0ca8 753e dfeb 363e
00000030: 1194 5b3d 5aee 573e 7d3e 673e 671e 84bd
00000040: b8aa 92be 9533 9f3d e3ec ac3d 3a37 dbbd
00000050: 9d4f 093d 4f1d c83d fe4a ec3c 9bce dbbd
00000060: 7d13 30be 92df f7bd 8185 003e d434 de3d
00000070: 3cc4 2fbe ede1 29be 8bbc d6bd b047 d03d
00000080: 1b7a 0a3e 6849 5a3d 800f 9ebe 1372 2cbe
00000090: c72d c93b 10a8 3d3e cf2f 95bd 3c80 2a3e
000000a0: 98d6 043e 38a2 f5bd b858 36bd df2a 413e
000000b0: 18ea 59bd cd20 1dbe 2546 d1be 00d7 0a3e
000000c0: da4d 4f3e 0d18 983b 1448 113d d84c ad3d
000000d0: e099 c63d a8a1 513e 6788 333e 92aa 58be
000000e0: 3678 0c3d bc0d bd3d 450a 393d d6a5 7a3d
000000f0: 98ee 533e a645 643e c922 e13d 7649 ddbd
00000100: 8ba5 c3bd a7fe 193e 61aa 3cbd fbfa 1ebe
00000110: 1f13 c83c ab3d 603d 6a05 1e3d 09cf 40be
00000120: 8e55 35bb 0638 b93d b45e 1e3e 96ef f83b
00000130: cdd1 443d 96f5 2fbc 7123 fcbc 0e55 38be
00000140: e4a4 6c3d b1d2 90bc f4a1 333e ed9f 953c
00000150: f638 26be ce88 323d 7c2f 3c3e 843e 4cbe
00000160: 88c3 febd 3a11 6ebe ec4d 10be ee4b 163e
00000170: d6b5 773d bda5 53bd 7e94 18be d4b8 bd3d
00000180: 6522 e2bd b35d 213e 1e60 86bd 6084 0a3e
00000190: bc33 103d c7cb 013d 6ac4 8c3d 70aa ddbd
000001a0: a24a c1bc 22ae 283e 904a 02be 35fe 2b3b
000001b0: 5a44 a83e 0b83 d73d d4a8 b33d bb73 9ebd
000001c0: 0317 40be 4e9d ec3d 2875 a83d 9a1b 843d
000001d0: 5a26 823c ca1c 87bd 5649 a93c 5c9a 003e
000001e0: 4b73 37bd ad5e 8e3d 3416 a13d cb49 d93d
000001f0: 0574 01bd 6079 523d 46c9 d33d 0414 e13d
00000200: b7f8 963c 9e16 413e 0047 323c 86f6 253e
00000210: f632 0f3d 9866 8a3c 50cf f5bb 82b1 ed3d
00000220: df10 293c bab2 01bd 4704 f0bd 2ace 043e
00000230: c96a e93c eb79 1ebe 54ef 3ebe 4f95 5a3d
00000240: 0be0 8c3d 00d7 aebd e791 0d3e 11a9 063e
00000250: 59d6 77bd d382 d6bd ce66 bd3d cc26 7e3e
00000260: a310 523d 04bd 7b3d 5891 553d 7734 fd3d
00000270: 7540 30be 9cad c63c 020a 06bd 12c7 5ebb
00000280: 4520 7cbb 02b9 4a3d 2448 343e 0644 c03c
00000290: 1187 073d c47f 053d 6d81 ce3d 9dfe f6bc
000002a0: 2bc3 4ebd 5e64 b3bd deca acbd b033 153e
000002b0: 34e2 a9bc adaf bf3d 38e2 423d 747b 373e
000002c0: 2fb2 55be 4776 3fbd cd83 fdbc ae3b f8bd
000002d0: 9251 203e 7d10 78be 35f5 d23d 2aed 8b3c
000002e0: 6ed5 523d 287f 3a3e c793 d23c 3371 173e
000002f0: a833 e6bb 6189 df3d bf23 523c 5dec 683d
00000300: 20c3 0f3e 29ef 5d3e a78a 21be 4151 a43c
00000310: 9732 2a3e 3d24 423e b009 5bbd 1ee2 473e
00000320: c8d0 aebc b907 0abe 75c4 fbbd 916a 0e3d
00000330: ff52 663d 0273 5dbe a63f 133e c394 c2bd
00000340: bf4e f7bc 2256 16bd a0d4 bd3d 8b68 433d
00000350: 7978 2cbb 3265 82be 732d 52be e69f 653d
00000360: 7929 84be abf7 e0bc 5146 4dbe 6a1b c8b9
00000370: 14f1 b9bd b1f0 ddbd c283 883e 433a 553e
00000380: f25e 45be 866a a2bd f818 81bd c1d0 80bd
00000390: 7317 11be f613 13bd 6e04 2ebe 76c0 973e
000003a0: eb29 df3d fdb3 cc3d 032f 3fbe 4940 d53d
000003b0: bca9 9c3c 1764 903b fcf1 713a fcdf 3cbe
000003c0: 5178 993d 84e9 1bbe b42c 9ebe 27c6 4a3e
000003d0: 7f66 8e3d 1eba ef3c 6566 373e b677 763d
000003e0: 8250 e6bd 9f09 4fbe 42db 08be d3cf 8b3c
000003f0: fdcf 91be 6fe5 45be 5be3 303e 0c1f 26bd
0.046208784 -0.11594786 -0.041191995 0.027719622 0.11954656 0.1544393 -0.033412267 0.07038234
0.030810365 0.064235955 0.23989886 0.17863415 0.053608004 0.21087018 0.22582431 -0.06451111
-0.28645873 0.0777351 0.0844362 -0.10703893 0.03352319 0.09771215 0.028844353 -0.10732766
-0.17194934 -0.121031895 0.12550928 0.1084992 -0.17164701 -0.1659009 -0.104851805 0.10169923
0.13523142 0.053292662 -0.308712 -0.16840391 0.0061394903 0.18521142 -0.072845094 0.1665048
0.12972486 -0.119938314 -0.044518203 0.1886401 -0.053201765 -0.15344544 -0.4087383 0.13558578
0.20244542 0.004641539 0.03546913 0.084619224 0.09697318 0.20471823 0.17532502 -0.21158817
0.03429433 0.09231135 0.04517581 0.06119331 0.20696485 0.22292194 0.10992963 -0.10805027
-0.09553059 0.15038548 -0.046060923 -0.15525429 0.02442318 0.05474631 0.038579382 -0.18828978
-0.0027669403 0.09043889 0.15465814 0.0075969202 0.048051644 -0.010739705 -0.030778619 -0.18001196
0.05777444 -0.01767859 0.17542249 0.018264735 -0.16232666 0.0435875 0.18377489 -0.19945723
-0.124396384 -0.23248759 -0.14092225 0.14677402 0.060476147 -0.051671732 -0.14900395 0.09263769
-0.110417165 0.157584 -0.06561302 0.1352706 0.035205588 0.031688478 0.068734005 -0.10823524
-0.023595158 0.16472676 -0.12723756 0.0026244048 0.32864648 0.10523041 0.08772436 -0.077369176
-0.18758778 0.11553441 0.08225471 0.06450577 0.015887428 -0.06597288 0.020664852 0.12558883
-0.044787686 0.06951652 0.07865563 0.10609778 -0.031604785 0.051385283 0.10341124 0.10990146
0.018429143 0.18856284 0.0108811855 0.16207322 0.03496071 0.016894624 -0.00750152 0.116061226
0.010318964 -0.031664588 -0.11719566 0.1296927 0.028493302 -0.15476196 -0.18645984 0.053365048
0.0687867 -0.08537102 0.13825189 0.13150431 -0.060507152 -0.104741715 0.09248124 0.24819487
0.051285397 0.061459556 0.052140564 0.123635225 -0.17212088 0.024252705 -0.032724388 -0.0033993167
-0.0038471383 0.049492843 0.17605644 0.023469936 0.033087794 0.03259255 0.1008328 -0.030150706
-0.050479095 -0.08759378 -0.08437131 0.14570498 -0.020737745 0.09359679 0.04757902 0.17918187
-0.20868753 -0.046743657 -0.030946637 -0.12120758 0.15656117 -0.2422504 0.10300676 0.017080862
0.051473074 0.18212569 0.025705231 0.14789276 -0.007025201 0.10914875 0.012825905 0.05686604
0.14039278 0.21673264 -0.15775548 0.020058276 0.16620861 0.18959136 -0.053476036 0.1951985
-0.021339789 -0.13479508 -0.122933306 0.0347696 0.056231495 -0.21625903 0.14379749 -0.0950103
-0.030188916 -0.036703236 0.092690706 0.04770712 -0.0026316924 -0.2546783 -0.2052515 0.056060694
-0.2581289 -0.027461847 -0.20046355 -0.00038167398 -0.09079185 -0.10836924 0.26663023 0.20823006
-0.192745 -0.07930474 -0.063035905 -0.06289817 -0.14169101 -0.035907708 -0.16993877 0.29639024
0.10896667 0.099952675 -0.18670277 0.10412652 0.019123904 0.004406463 0.0009229479 -0.18444818
0.07493652 -0.15225798 -0.3089348 0.19802152 0.06953143 0.029263552 0.17910154 0.06017276
-0.112458244 -0.20218514 -0.1336489 0.017066872 -0.28478995 -0.19325803 0.17274229 -0.040556952

mid_part.6.bias f4 [12]
00000000: a3b0 8a3c c999 473c 4b40 30bc 18cf 433b
00000010: 4896 eb3b c5cf 5a3c 03e1 fbbb 73d2 3c3b
00000020: 82aa 2ebb 225f 323a 521f 2b3c 8ccb 22bd
0.01692993 0.012182661 -0.010757516 0.0029878076 0.007189546 0.0133552 -0.0076867356 0.002881196
-0.0026651924 0.0006804337 0.010444479 -0.0397449

mid_part.7.weight f4 [12]
00000000: cbe9 5e3e f96b 7f3e 7152 863e ebf9 833e
00000010: 3c48 7b3e cfae 8c3e a692 ca3e 10ca 243d
00000020: 33a8 7d3e 3522 7c3e f4cc 5f3e 3a73 743e
0.21768872 0.24943532 0.26234773 0.2577661 0.24539274 0.27477118 0.3956501 0.040231764
0.24771194 0.24622424 0.21855527 0.2387208

mid_part.8.weight f4 [12, 12, 3, 3]
00000000: b204 f33d e98f eabd 3c16 2ebe 9587 07bd
00000010: a867 4b3e c391 1d3e 22cb 7bbe fbda 123e
00000020: 9ad7 0cbd 888d 52bd bade f53c 5df2 8e3d
00000030: 81d6 d23d 3ff9 953e 5037 263d 5a6f 493e
00000040: ffad 8a3d da2e 6cbd 0d23 c03d afe7 efbc
00000050: e131 f03a c245 54be d3bd 49bd 0fe9 7fbb
00000060: a51f 423d 5384 32be ade3 a5bc 6e90 63bd
00000070: 4081 aebd ccff e53c dc82 39be 45d3 31bd
00000080: 8f0d b93d 987b 85bc 2e56 c9bd 5e83 4abe
00000090: 2b31 f6bc a8c5 84bc 8f82 9a3c 68b9 c73d
000000a0: 7ed4 b0bc d24f 693e b59c c2bd 24ec 763d
000000b0: 808a 8abc 4f91 d63d 8b4f d33d 7e88 843d
000000c0: 84ea 20be 0ac0 4b3d a2e2 e03c fc2b a93e
000000d0: 8e94 2dbe fe31 bb3d 8afc a13d d425 a3be
000000e0: 4781 e53c 3db9 b23c d48e 81bc ac42 79bd
000000f0: 23ee eebd cb13 d7bd 5e6f 7a3d 1836 8a3b
00000100: 3893 973e 4aee 8d3c 348b 6d3d 49d0 2e3e
00000110: 6186 81bd eca0 17be e748 5bbd eadd 75be
00000120: 2261 96be 4757 703c 8d0a 9e3c 3bc0 7abd
00000130: af96 453e b851 d0bd 4315 c4bd 24ea 42be
00000140: a64e afbd a882 9f3d 6c04 7cbd 14bf 0fbe
00000150: c034 10be b4a1 65bd 4a7a bdbc ff98 6c3e
00000160: c5dc 13bd 2f78 323c 7d69 193c add2 263e
00000170: de64 463c 3f65 7abd 2f40 41bd c472 3f3d
00000180: b5b1 ba3d 77c4 b83d 4781 08bd a604 6a3e
00000190: 4ecc e13e 6685 21be 145b ea3e a4f8 f7bb
000001a0: 7984 703e 6241 2cbe 3d7b 2a3e 01a4 803e
000001b0: 587d fa3d 53cd 84bd 635a 14be 4adb 443e
000001c0: 0794 0a3e b9bd f13b 5518 7f3d 24ab 8ebe
000001d0: 8ae9 84be d90c 773d a6d5 14be 6b3a 903c
000001e0: 543b f83d 474b 533e a774 72be 065f 1fbe
000001f0: 748e de3b 9ceb dcbd bc7e 283d a03e c7bc
00000200: 5f09 a23d c1f9 fb3c 8b02 85be 11bd 7d3e
00000210: d57e fbbd 2190 9e3d 2ba6 ec3c 8140 95bd
00000220: 6e27 b13e 58b3 413d d491 083e ab2c 13bc
00000230: d76b a03d 0839 42be c7c6 8a3d 695d dc3d
00000240: 9035 223e 7e97 123c e5c7 d0bd cadb 273d
00000250: f38c 433e ab1b 9abe 148c 253e 0bb9 a8be
00000260: 644f 6a3d 1219 fa3d 200b 1f3e ad1c 90bc
00000270: 15c6 823d 6726 573e f177 633d 6ce3 61be
00000280: 8f39 25bd e13f 1cbd 985a b7ba 0c16 31bb
00000290: 464c 353e a501 113e b7bf 703c 9527 813d
000002a0: 4ea0 aa3a 8bf7 2fbd b03e a43d 1f2a 113e
000002b0: abab 453e 0f39 d13d c82f 863d 40f2 b4be
000002c0: 0506 473c 0d00 9b3c 61ea 93bd a39c 863d
000002d0: 45e5 643d e86d 94bc f789 72bc 3641 803b
000002e0: 3274 e1bd 8de4 32bd 2cd3 4d3e 6fe3 c7bd
000002f0: fcfa 9b3d 42dd 973e 3426 a63c 44cf 8a3c
00000300: 851b 7a3e e5dd 243d 177b 6e3e a6e3 493e
00000310: f6af 3abb df30 613d b38e 853c 5d07 13bd
00000320: 5045 b03d 90af 69bc bb54 37be 88da 0fbe
00000330: 8bfa c0bd 04b2 a53d f00d 313e 9e16 2c3e
00000340: 0e4e 3cbe 9260 0e3e 2285 d93d 4eff 533d
00000350: e411 a73d 174f 71bc 5666 803c 7e4a 603e
00000360: 5651 f6bc fef9 343e c8c8 043e 61f6 783c
00000370: 42ca 983d 8fc8 d8bd c735 933d 40f2 bb3d
00000380: 4847 103e 8dac 923d 9be1 7b3d 9253 443e
00000390: d53c c73c 5fce 373e b9b1 05be b948 cc3d
000003a0: 9de0 943d 7c59 07be 07dc abbc f231 4abd
000003b0: 2c25 31be a558 50bd 6d67 37be d794 fd3c
000003c0: 07cf 43bd 2855 44bd adac 9fbc f151 60be
000003d0: 3fbf acbd 645e 8ebd d417 723e 0400 bf3d
000003e0: 5233 4fbe 83af 253d 4d79 35bd 6ab9 0e3b
000003f0: 1621 933d b842 423d cbfd 85be 8688 333e
0.1186613 -0.1145323 -0.17000669 -0.033088285 0.1986376 0.15387635 -0.24589208 0.14341347
-0.0343853 -0.051404506 0.03001343 0.06979821 0.102948196 0.29291722 0.040580094 0.19671384
0.06771468 -0.05766187 0.093816854 -0.02928528 0.0018325412 -0.20729735 -0.049253296 -0.0039048826
0.04739346 -0.1743329 -0.020250166 -0.05555766 -0.08520746 0.028076075 -0.18116325 -0.043414373
0.09035789 -0.016294286 -0.098308906 -0.19776675 -0.030052742 -0.016207531 0.018861083 0.0975216
-0.0215857 0.22784355 -0.09502546 0.060283795 -0.016911745 0.10476934 0.10317906 0.06471346
-0.1571446 0.04974369 0.027451817 0.3304137 -0.169512 0.09140395 0.07909496 -0.31864798
0.028015746 0.021816844 -0.015815176 -0.0608546 -0.11666515 -0.10501822 0.061141364 0.0042178743
0.29604506 0.01732554 0.057994083 0.17071642 -0.06324459 -0.1480748 -0.053536322 -0.24010435
-0.2937098 0.014669246 0.01929214 -0.06121848 0.19295762 -0.101718366 -0.09574368 -0.1903463
-0.08559923 0.077885926 -0.061527655 -0.14037734 -0.14082623 -0.056062415 -0.023129601 0.23105238
-0.036099214 0.010892912 0.009363529 0.16291304 0.01210901 -0.061131712 -0.04718035 0.04674031
0.09115926 0.09021848 -0.033326413 0.22853336 0.44101185 -0.15773544 0.45772612 -0.007567482
0.23488034 -0.16821817 0.16648574 0.25125125 0.12230939 -0.06484475 -0.14487605 0.19224277
0.1353303 0.007377353 0.062279064 -0.27864945 -0.25959426 0.060314987 -0.14534625 0.01760598
0.12120691 0.20634185 -0.23677312 -0.15563592 0.006791884 -0.107871264 0.04113649 -0.024321854
0.07911944 0.03075874 -0.25978503 0.24779154 -0.12280051 0.07742334 0.028887829 -0.07287694
0.34600395 0.047290176 0.13336879 -0.008982818 0.07833069 -0.18967068 0.06776195 0.10760004
0.15840745 0.008947251 -0.10194377 0.04098109 0.19096737 -0.30099234 0.16166717 -0.32953677
0.05720462 0.12211813 0.15531588 -0.017591799 0.063854374 0.21010743 0.055534307 -0.22059411
-0.040338095 -0.038146857 -0.0013988791 -0.0027021198 0.17704877 0.14160784 0.014694146 0.06306378
0.0013017745 -0.042960685 0.08019769 0.14176224 0.19303767 0.10215961 0.06552082 -0.35341072
0.012147431 0.018920923 -0.072224386 0.06572845 0.05588271 -0.018118814 -0.014803401 0.0039140237
-0.110084906 -0.043674994 0.20100087 -0.097601764 0.07616231 0.29660994 0.020281889 0.016944535
0.2442456 0.040250678 0.23289143 0.19715747 -0.0028486229 0.054978248 0.016303396 -0.035895694
0.0860697 -0.014263049 -0.17903416 -0.14048207 -0.09422787 0.080905944 0.17290473 0.16805503
-0.1838915 0.13904026 0.10621096 0.05175715 0.08157709 -0.014728329 0.015673798 0.21903417
-0.03006808 0.1767349 0.12967217 0.01519546 0.074604526 -0.105851285 0.071879916 0.09177065
0.14089692 0.07161818 0.06149445 0.19172505 0.024321 0.17949818 -0.13056077 0.09974808
0.07269404 -0.1321773 -0.02097894 -0.049364038 -0.17299336 -0.050865788 -0.17910548 0.030954761
-0.04780486 -0.047932774 -0.019491518 -0.21906258 -0.08434915 -0.06951597 0.23641902 0.09326175
-0.20234421 0.040450584 -0.044305135 0.0021777996 0.07184045 0.04742691 -0.2617019 0.17532548

mid_part.8.bias f4 [12]
00000000: 5858 a13b fde1 093c e707 223c db88 623a
00000010: 1657 ba3b 0dc4 4f3b 2486 c73b ff3d d93b
00000020: c853 9cbc faf4 6c3d 684f f43c 6dca 323c
0.0049238615 0.008415696 0.009889579 0.0008641609 0.005686651 0.0031702549 0.006088989 0.006629705
-0.019082919 0.057850815 0.02982302 0.01091252

mid_part.9.weight f4 [12]
00000000: a64f bcbc c3ca b9bc f647 873e c830 833e
00000010: 3ea6 723e c642 e53e 3e8d fb3e 230e 803e
00000020: 48e9 863e 84f6 523e 06f4 de3d 8c5c a13d
-0.022987198 -0.022679692 0.2642209 0.25623155 0.23696229 0.44777507 0.49131197 0.25010785
0.26349854 0.20601851 0.108863875 0.0787898

mid_part.10.weight f4 [56, 12, 1, 1]
00000000: 380a 9abd bd23 3d3e 68ff 44bd d651 c5be
00000010: 9946 acbd aeb3 803e 765e d83d 4586 9a3e
00000020: bfa7 2dbe 0405 c2bd e527 b33e 56e4 febd
00000030: ebc4 913d ffd8 333e 016b a23d 009e 47bd
00000040: 8966 6abe be46 a03e ec2e 65bd d0d9 aa3e
00000050: ea0d e13b b4fd ba3d 7571 453e 31b9 de3d
00000060: 3544 3dbd 071c 053e 1935 243c 184c 61be
00000070: d259 aebe 22c0 9fbe 63e8 ae3e d3f0 063d
00000080: 14dd 5d3d a362 16be 135a 4dbe f8d4 a8ba
00000090: 4ecf 853d c07d 50be a949 16bd e7f6 07be
000000a0: 9d65 31be ebf5 aebe 0e20 aa3e e564 133f
000000b0: 9253 9abe 1287 f3bc 0f84 c93d e2b3 2f3e
000000c0: 50f7 3cbe 7924 293e 31b9 b13e 2df2 de3d
000000d0: 015a 4dbd b300 3a3e d21a 6fbd 53ff 6d3e
000000e0: 7593 5f3e b1a2 adbd c12d 093e d640 66be
000000f0: 9852 2fbe e87c f4bd 3985 093e b33f 9c3e
00000100: 4706 37be 43f1 803b 5f95 6ebe 1538 45be
00000110: 377f 293e c834 a4be 566a 9e3d 7d3c 023e
00000120: 8c88 5d3e 5435 aa3d 1fb0 aebe f5df 16be
00000130: 4dca aa3e 51ac 5ebe 2796 3cbd 26e5 c0bd
00000140: dcc1 9b3e 8330 62be a548 d03d ac1c 40be
00000150: ff3b d43d 6e4a 473d 720f 2d3e bcf7 a73e
00000160: e250 c33d 9c8c 0fbe 19e2 8abe 033f 84be
00000170: 5f6a d93d 9c3d 983e 0750 d33e 24b0 383e
00000180: 2e57 bbbd 2f44 a93d 202c bcbd e0cf 42bc
00000190: 79c5 393e 67fd 7fbe e404 59bd 4a5f 763d
000001a0: 3648 023d 1fd2 2ebe 257e 803c f27e 973c
000001b0: f2d0 d7be 14dc cb3d 9a31 ce3d d397 ecbd
000001c0: 6236 913d d669 64be 853e 98bc 7220 193d
000001d0: d577 1ebe 64a7 cfbd bcd2 f3bb 8a5e ec3d
000001e0: 5e5d 5abd 6e0b 2bbe f2c8 89bd 1ba7 6abe
000001f0: 1de6 d73d 93ae 873c e3a4 9dbd df6e a8be
00000200: 898e 1abe 5d0c 4a3e 1f53 173e 17f1 1ebe
00000210: e81d 803d 27b2 1f3e 4899 b73d ea19 a4be
00000220: c7dc 3d3d d34a 273e a0d3 143e 28a5 843d
00000230: 362c aebe 9e6a efbc 25a1 35be b7f0 80bd
00000240: 6254 943d c024 2f3e 6490 5bbb 7df4 27bd
00000250: 119f 203d dc27 3e3d ade6 89bd 2d80 703c
00000260: 0308 4b3e f55f 643e 818e 8cbe 7518 48be
00000270: 9cbb bebe 066d 473d cc23 25be b035 e8bd
00000280: 7e25 163e 0289 42be a13e 943d 67af 933e
00000290: b10a 663c 5c0c a93e 8c7c dc3e f2f4 c1bd
000002a0: 255d 1fbe e39a a7bc 15ac 86bd 95eb 153d
000002b0: 012b 913e c3f0 8a3d 4cf6 80bc 7f9c c1bc
000002c0: 96d4 233e c020 653c 768a 3bbe 2d1f 073e
000002d0: 01e5 ddbd 4742 5f3d 8800 b6be a2f1 e4bd
000002e0: 1008 7f3e dcf4 c53e 4c0b 75bc f4f3 6fbe
000002f0: 63e9 71bc 241d 9d3e 90e5 7cbe 02a3 293e
00000300: 84df 683e 1532 643e 2964 8dbc 6f9b 1dbe
00000310: 8357 083e ea7a c9be 2ebc 963c 8cf8 f23d
00000320: be1f 813d 1c35 913e c18f 433e f390 b9bd
00000330: 248c 453d 72a1 0a3e acbb 973d e8dc 11be
00000340: c8a0 983c d54b 573d bbca 343e 5f37 8e3d
00000350: aafe 0a3e f3e6 30be a450 bd3d 4f94 00be
00000360: f41d f0bd 9d21 7cbd 7cf3 d9bd 41b6 28bd
00000370: 778d aebd bdc1 3f3e 35c2 a93d ddf5 cd3d
00000380: d79e 7ebe ce67 aebd 8bdf 99bd 109c cebd
00000390: 0dd2 223d d385 94bb 5391 21bd 1d0d 46be
000003a0: 1bde 77bd df04 6dbe 63cb d93d ad5f d4be
000003b0: 72b4 3b3e 8690 c9be 3054 033e b419 68be
000003c0: 3c20 1fbd 9dd0 05be 6039 76be da53 7abe
000003d0: 234c 79bd 4510 f9bd 8b29 0a3d ca16 2d3e
000003e0: 8cf7 2a3d aa44 24bd b92a ecbe 6ff3 9cbe
000003f0: d59d 163d 8511 64bd 2c20 123d 66dc 25be
-0.0752148 0.18470664 -0.048095137 -0.38538998 -0.08411903 0.25137085 0.10564892 0.30180565
-0.16958521 -0.09473613 0.34991375 -0.124458954 0.07117637 0.17563246 0.079305656 -0.048734665
-0.22890677 0.31303972 -0.05595295 0.33369303 0.0068681138 0.09130421 0.19281562 0.10875166
-0.046207625 0.12998973 0.010022425 -0.22001684 -0.34052902 -0.31201273 0.34161672 0.03294451
0.054165915 -0.14686064 -0.20053892 -0.0012880852 0.06533681 -0.2036047 -0.03669134 -0.1327778
-0.17323919 -0.34171996 0.3322758 0.5757583 -0.30141884 -0.029727492 0.09839641 0.17158464
-0.18453717 0.1651782 0.34711602 0.10886035 -0.050134663 0.18164329 -0.058375187 0.2324193
0.21833594 -0.084782965 0.1339636 -0.2248567 -0.17121351 -0.119378865 0.13429727 0.3051735
-0.17873488 0.0039350106 -0.23299168 -0.19259675 0.16552435 -0.3207152 0.07735126 0.12718387
0.2163412 0.08310953 -0.34118745 -0.1473387 0.33357468 -0.21745421 -0.046041634 -0.094187066
0.3042134 -0.22088818 0.10170106 -0.18760937 0.10363006 0.048654966 0.16900423 0.32806194
0.095369115 -0.14018482 -0.27125624 -0.25829324 0.10615992 0.29734504 0.41271994 0.18035942
-0.091474876 0.08264958 -0.09188104 -0.011890382 0.18141736 -0.24999009 -0.05298318 0.06014947
0.031807147 -0.17072342 0.01568515 0.01849315 -0.421516 0.09954086 0.100680545 -0.11552396
0.07090451 -0.22305998 -0.0185845 0.037384458 -0.154754 -0.10139349 -0.007440893 0.115414694
-0.0533117 -0.16703579 -0.067277804 -0.22915308 0.105419375 0.016562736 -0.07697465 -0.32897088
-0.15093435 0.19731279 0.14777802 -0.15521656 0.06255704 0.15595303 0.08964783 -0.3205102
0.046353128 0.16337137 0.14533854 0.064768136 -0.34018105 -0.029225644 -0.17737253 -0.06295913
0.07242657 0.17103863 -0.0033502812 -0.041004647 0.039214198 0.04642473 -0.06733451 0.014678997
0.19827275 0.2230223 -0.27452472 -0.1954058 -0.3725251 0.048687957 -0.16126937 -0.11338365
0.1466274 -0.18997577 0.07238508 0.2884476 0.014040635 0.33017242 0.43063772 -0.09470548
-0.15562876 -0.020459598 -0.06575791 0.03660162 0.28353122 0.06784203 -0.015742444 -0.023634193
0.15999064 0.013984859 -0.18314537 0.13195486 -0.10834695 0.054506566 -0.3554728 -0.111789
0.2490542 0.38663375 -0.014956307 -0.23432904 -0.014765116 0.30686295 -0.24696946 0.16566089
0.22741514 0.2228473 -0.017259674 -0.15391324 0.13314633 -0.39351588 0.018400278 0.11863813
0.063048825 0.28360832 0.19097807 -0.0906085 0.04822935 0.13538149 0.074088424 -0.14244425
0.018631354 0.052562553 0.1765546 0.06944155 0.13573709 -0.172756 0.092438966 -0.12556575
-0.11724463 -0.061555494 -0.10642144 -0.041189436 -0.08523076 0.18726249 0.08288995 0.1005666
-0.2486528 -0.08515893 -0.075133406 -0.1008836 0.0397511 -0.0045325547 -0.039445233 -0.1934094
-0.06051455 -0.2314639 0.10634496 -0.41479245 0.18330553 -0.39368075 0.12825084 -0.22666055
-0.0388491 -0.13067861 -0.24045324 -0.2444605 -0.060863625 -0.12161306 0.033731025 0.16903225
0.041739985 -0.040104546 -0.46126345 -0.30654475 0.036771614 -0.05568077 0.035675213 -0.16197357
