models/fsrcnn/track1/track1_x4__epoch_4.pth (torch, 58227 bytes, 22 tensors)

first_part.0.weight f4 [56, 1, 5, 5]
00000000: 9686 9ebc a384 4e3d c0c7 b83c 26da 0f3c
00000010: 1291 0ebc 05e5 e5bc f395 e23c 8f75 b7bc
00000020: 0c29 0fbd f1d9 043c d367 6f3d f9f0 a6bc
00000030: cd0f f73c 9914 b33c 1976 863c 271c 143d
00000040: f960 e4bc 1000 35bc 7c7c 943d d397 bdbb
00000050: 95dc 29bc f05e 0e3c 1c7f 603d c842 593b
00000060: 421f 27bd c0fc 01bd 5b6c 1fbd 9763 33bd
00000070: 7a76 043c 4204 393d 6e5c 42bd 7a1d 2d3d
00000080: 1cb8 1fbd 68b4 83bc 4012 a23b b25c 01bd
00000090: e313 863c 44c6 a33b 4006 3639 0918 85bd
000000a0: 771a f1bb f94d fc3c eeb6 c9bb f07e 143b
000000b0: 7444 6ebc b5ca 293d 6bd9 f9ba ee79 b6bd
000000c0: 18e7 443d ae77 0b3b 16b6 cdbc d773 4dbd
000000d0: b235 6bbc 8c86 8bbc 1a30 913c 7126 97bb
000000e0: af5f 853b 9cbb a0bc 9487 d8bc ce10 9abd
000000f0: 9df1 20bd 85ef a1bd b198 66bd dd57 4ebc
00000100: 2042 68bd 64d6 393d a1f4 67bd 2a51 83bd
00000110: 7db1 edbc fff5 79bc ab82 6cbd c40c 3e3d
00000120: 1339 283d daf3 26bd 62f8 9ebc de4d 093d
00000130: e134 04bb 9dec 653d 9598 a63c af31 c6bc
00000140: 6f1b 2abd d834 81bc dc62 3c3c 7a51 42bd
00000150: 5326 adba 7e75 163c 3c13 ba3d 5ca6 0fbd
00000160: bdb0 95bd e7ab df3c 912a 1d3d f534 3fbd
00000170: 7023 6cbd b5c9 97bb 7485 0d3a 2bb6 043d
00000180: 10b1 8cbd 9735 97bc ebdd 2dbd 8816 d1bd
00000190: 9065 ce3b 9df1 1ebd 9a05 08bd 4d32 afbd
000001a0: bb5f 84bc b834 8fbc 4fcb 973d ca2a 563b
000001b0: 2d89 213d cfe7 cebb ac8b 003c a3aa 9dbd
000001c0: 4af8 0fbd 9b9d e23a c2e5 913c 9131 3dbc
000001d0: 175e 9fbd 91fa 4dbd 7f96 dabc 31eb 2b3d
000001e0: 2051 37bd e872 81bc 8255 513d 9961 92bd
000001f0: bee7 af3c c73d 9bbd 7f6e 50bd b926 353d
00000200: 28e2 b83c a616 183c ba42 053d d48c 24bd
00000210: 934a 5ebc 2496 74bd 9827 533a ef84 49bd
00000220: 54a0 c8bc eb99 0a3d 73a4 e73c 896d 11bd
00000230: a704 633d 662f 76bd f195 c03c 4749 85bc
00000240: af93 10bc 9947 3e3d b8f8 b6bb 7310 ccbb
00000250: da4c 68bc e5dd f2bc d767 c2bd febe 9f3c
00000260: d33a 1f3c 8fa1 853d 9f0b a0bc b70d 52bc
00000270: 4b1a a93c 107b db3c 6cf8 44bd 8d70 66bd
00000280: adb2 44bc 80c8 64bd 7844 53bc fcac 50bc
00000290: ca29 0c3d 817b a8bd 9a6c 993c 8430 f4bc
000002a0: 9805 323c dd43 9fbc 1375 7cbd 7f6b 3b3c
000002b0: 0efc 89bb c601 82bb 18d7 8cbd 5c4d 5c3d
000002c0: 5661 a5bb 6351 813d 1a01 b5bd 8837 12bd
000002d0: d9d0 943c 6833 c13b e8df a8bd 1737 4a3d
000002e0: c1a1 913d a7d4 923c 6901 5ebd a7f6 4d3e
000002f0: 28c6 1bbc 50d1 693c 5675 c53c 2be8 c2bd
00000300: 2c7e c33d 8188 cabd 895a e13d c301 9e3d
00000310: 7124 4e3c 439f 0a3c 8873 093d 3166 633d
00000320: b155 f93c 5920 743d 63fa 16bc 3ed9 213c
00000330: e518 c73c 8d06 003d dc42 153d fb6c 67bc
00000340: f5f2 833c edf4 8abb 8d44 0b3a 7a93 9bbc
00000350: bfcb 853d f718 183c 028f aabc 9b07 93b9
00000360: 3439 683c 61e6 dc3c 9886 99bc 6c48 0dbd
00000370: 5358 bf3c 0557 e03c c0d0 b53d fba8 0ebd
00000380: 8ca7 523c db2c a63d edcc 29bd e803 75bd
00000390: 4ed0 563d d99a 71bd fc93 6ebc 646a 253b
000003a0: dd4c e13c 7d59 4ebd e3fd 423c f1fa 083c
000003b0: c73e 9cbc e7ad 963d 2acb 493d 608d 303d
000003c0: bc1f 5d3d f98a 47bb 5ac5 433c 25f0 2dbd
000003d0: 4544 463d 724d 093d 391d 223d f54a bb3c
000003e0: 1e04 743d e2cf 423d fbee aabc 2a5e 1b3d
000003f0: bacf 3dbd 78f8 8639 8b4e 49bd 1756 743c
-0.019351285 0.05041946 0.022556186 0.008780038 -0.00870158 -0.028063307 0.027659392 -0.022394923
-0.034951255 0.008108602 0.058448624 -0.020378577 0.030158902 0.021860408 0.016413735 0.03615966
-0.027878271 -0.011047378 0.07250306 -0.005785921 -0.010367532 0.008689627 0.05480872 0.0033151377
-0.040801294 -0.03173518 -0.038921695 -0.04379615 0.008084888 0.045170076 -0.04745143 0.04226444
-0.03899394 -0.016077235 0.004946023 -0.03158254 0.016366905 0.0049980003 0.00017359201 -0.06498725
-0.007357891 0.030798899 -0.00615584 0.0022658668 -0.014542688 0.041453082 -0.0019061988 -0.08909975
0.04807195 0.0021281051 -0.02511124 -0.0501593 -0.014356064 -0.01703193 0.017723132 -0.004612737
0.0040702443 -0.01962071 -0.026431836 -0.075227365 -0.03929292 -0.07907013 -0.05629796 -0.01259419
-0.056703687 0.045370474 -0.05662978 -0.06411965 -0.029015297 -0.015256404 -0.057741802 0.046398893
0.041070055 -0.0407599 -0.019405548 0.033521526 -0.002017312 0.056133855 0.020336429 -0.024193613
-0.04153007 -0.015772268 0.011498179 -0.047440983 -0.0013210274 0.009183286 0.090857 -0.035070762
-0.07309101 0.02730365 0.038370673 -0.046681363 -0.057650983 -0.0046321996 0.0005398609 0.03240029
-0.068697095 -0.01845817 -0.042447966 -0.102093756 0.0062987283 -0.03880464 -0.033208467 -0.08554516
-0.01615893 -0.017481193 0.07411825 0.0032679313 0.03943746 -0.006314255 0.0078458 -0.07698562
-0.035148896 0.0017289402 0.017809752 -0.011547462 -0.07781618 -0.050287787 -0.02668309 0.041972343
-0.0447551 -0.015801862 0.051106937 -0.071475215 0.021472808 -0.075801425 -0.050886627 0.044226382
0.022568777 0.009282744 0.03253434 -0.040173367 -0.013567585 -0.059713498 0.0008054911 -0.04919904
-0.024490513 0.033838194 0.028276658 -0.03550485 0.05542436 -0.060103796 0.023508998 -0.016270293
-0.008824273 0.046455 -0.005583849 -0.006227547 -0.014178479 -0.029646823 -0.09492462 0.019500252
0.009718615 0.065249555 -0.019536791 -0.012820653 0.02064242 0.02679208 -0.048088476 -0.05625968
-0.01200549 -0.055855274 -0.012894742 -0.012736555 0.03421954 -0.082266815 0.018728543 -0.02980829
0.0108655915 -0.01944154 -0.06163509 0.011439203 -0.0042109555 -0.0039674966 -0.068769634 0.053784713
-0.0050470037 0.063143514 -0.08838101 -0.03569749 0.018165993 0.0058960207 -0.08245832 0.049368944
0.0711093 0.017923666 -0.054200564 0.20113622 -0.009507693 0.014271095 0.024103802 -0.09516939
0.0954555 -0.09889317 0.11003596 0.0771518 0.0125819305 0.0084608225 0.033557445 0.05551738
0.030436369 0.05960116 -0.00921497 0.009878455 0.024303863 0.031256247 0.036440715 -0.014125104
0.016107062 -0.004240623 0.0005312644 -0.01899122 0.06533002 0.009283296 -0.020820145 -0.0002804369
0.014173795 0.026965322 -0.018740937 -0.034492895 0.023357546 0.027385244 0.088777065 -0.03482912
0.012857329 0.08114024 -0.041455198 -0.05981818 0.05244475 -0.058985565 -0.014561649 0.0025240416
0.027502472 -0.05037831 0.011901352 0.00836061 -0.019072903 0.07357388 0.049266018 0.043103576
0.053985342 -0.0030447824 0.011948908 -0.042465348 0.04840495 0.033521123 0.03957865 0.02286289
0.05957424 0.047561534 -0.020865908 0.0379316 -0.04634068 0.00025743595 -0.04914717 0.014913104

first_part.0.bias f4 [56]
00000000: 3262 60bb 69ff 06bb 8b97 e839 98b9 c1ba
00000010: 2384 ae3b 6cc8 02bc dd03 6aba b331 663c
00000020: e0c6 e3bb 158a cabb e1a6 84bb 75ef 90b9
00000030: 8122 613c f23e 023c a3f4 103d 99e6 f7bb
00000040: 3dbc bb3b a5f5 f2bb e597 f63b eb0e aebc
00000050: fc6d 013b 5ed7 83b9 31e2 b4bb c8bc e0bb
00000060: 0cc9 37bc 2aba 3e3b 80e5 94bb 1df1 a03b
00000070: 895f 72bc d978 813b 2fc9 24bb acd7 70bb
00000080: 524b 32bb 6460 80bb c391 f23a 91ff 3e3c
00000090: 7fbe a8b8 59ec 2b3b 9de6 bc3b 9a97 943c
000000a0: ae47 843d 03fd 16bb 1ef6 d03b 988b 07bd
000000b0: 0817 a2bb 904e 1f3b 35fa 19bc d22e 3ebb
000000c0: 450b c0bd fd42 653c 88e8 7dbc 64d8 c73c
000000d0: 1b43 28bb 64c3 963b f479 b5bb d6fa 1e3d
-0.0034238216 -0.0020599014 0.00044363397 -0.0014780043 0.0053258105 -0.007982355 -0.0008926967 0.014049935
-0.006951198 -0.0061810114 -0.004048214 -0.0002764423 0.0137411365 0.007949578 0.035389554 -0.007565331
0.005729227 -0.007414537 0.0075254315 -0.021247348 0.0019749394 -0.00025146728 -0.005520128 -0.006858442
-0.011217367 0.0029102662 -0.00454396 0.0049115554 -0.014793285 0.0039511737 -0.0025144329 -0.0036749644
-0.002720554 -0.0039177407 0.0018506575 0.0116576115 -8.046347e-05 0.0026233403 0.005764796 0.018138696
0.06458984 -0.002303899 0.0063769957 -0.03309211 -0.004946593 0.0024308302 -0.009398033 -0.0029019606
-0.093771495 0.013993022 -0.015497334 0.024395175 -0.0025674764 0.004600929 -0.0055382196 0.038813435

first_part.1.weight f4 [56]
00000000: dc77 793e 75f7 803e 1d1e 843e 240b 873e
00000010: dbdd 7f3e d6e6 873e c93e 813e 24a8 933e
00000020: a8a7 2e3f ac25 553e 20dc 913f d0b0 803e
00000030: 6984 313f b707 823e 93c6 733e 8170 7e3d
00000040: c232 ae3e a8d3 8e3e 186c 823e 6195 4a3e
00000050: ccad 833e cdb8 933f c153 7e3e be6e 7a3e
00000060: d3ad 753d 130b 7f3e 4fd3 533f 263d 813e
00000070: d54a 993e 5074 8a3e e169 7c3e 3fbc 8e3e
00000080: 3100 563f 0fdf a23e c8cf 7d3e 759a 813e
00000090: dc7e 863e ee36 e03d e87c 8b3e 6db0 803e
000000a0: 8d37 fd3e 24a6 873e 862c 823e 91e9 a73e
000000b0: a1f7 283f 94bb 693e daae 953f 2ce6 7f3e
000000c0: 13cb 0c3f 5c43 793e b6de 983f 5ea6 7f3e
000000d0: 8070 663e 2ec2 463e a0f7 893e 3a7c 843e
0.24362129 0.25188795 0.25804225 0.26375687 0.24986975 0.265433 0.25243214 0.2883922
0.68224573 0.20815152 1.1395302 0.25134897 0.69342667 0.2539651 0.23806219 0.06211901
0.340231 0.27895856 0.25473094 0.19783546 0.25718534 1.1540772 0.24836637 0.24456307
0.059980225 0.24906568 0.82744306 0.25241965 0.29939905 0.27041864 0.24649765 0.27877995
0.8359404 0.31810805 0.24786294 0.25313154 0.2626866 0.10947977 0.27243733 0.25134602
0.49456444 0.26493943 0.25424594 0.32795385 0.6600285 0.22825462 1.1693985 0.24990147
0.54997367 0.24342102 1.1942966 0.24965808 0.22503853 0.19410011 0.26946735 0.25876027

mid_part.0.weight f4 [12, 56, 1, 1]
00000000: bff8 023f e22c 5a3e 1d37 42bf 7faf 783e
00000010: 688b c83e bbae a73e 2b88 acbd cc55 023f
00000020: 9fbe 2a3e b40f 97bf 8656 023f ddee 96bd
00000030: 2ccf 0abf b5f0 873f cdda da3e cfd3 cc3e
00000040: 15c5 c03d dec3 8b3d a8dd 0d3f b2ad 7abe
00000050: 7b3f 343c d6be 343f 32f1 babe 2c47 ebbe
00000060: 7c5e 98bd e3c9 9bbd b697 d63e 8e51 39bf
00000070: 8297 893e 3caa c53e 3c21 313d cea2 b83e
00000080: ce40 0a3f 156a 0b3e 45ba 10bf f0b6 2fbf
00000090: e561 51bd 82e3 41bd 9810 85be a588 be3e
000000a0: cbf8 b1bd 1453 003f 8b33 c6be 8a51 febd
000000b0: 986b 04be c25a 1cbe da95 e4bd 355f 1bbf
000000c0: 0c6b 22be a490 15bf 3bf8 cabd 75b6 1bbe
000000d0: 2315 2dbf 5ca0 153e cf2d 99be 21ba 42be
000000e0: 06b2 a8be c4fb 78bf d067 003f 2f31 e53b
000000f0: bcc7 933c 1aa8 4c3f 1d48 3f3f 9148 043f
00000100: 0a08 a93c 2afd bdbd 0541 80bd 758d fabe
00000110: 474b 383e 7e6b 433e adcc 1fbf 5507 023e
00000120: 3c1a 0dbf b8b1 7f3e f67d 1b3f 44da e7bd
00000130: 5126 5b3f 7948 87be 7ac8 b63d 2538 bdbe
00000140: e2d8 c3be dabf b4bd eadb a03d f83b 0bbf
00000150: 62e4 143f 0e49 4d3f 6358 3cbe b12d d93e
00000160: 9672 293e d7e7 ccbe b9b4 dcbd dd49 19be
00000170: 2ee6 6f3e 09e7 583e 9331 31bf 5064 84be
00000180: dcf7 6e3e d355 333f 016c 91be ab22 5a3f
00000190: a088 3a3f ac99 e03d 7cf3 e23e b46a b33d
000001a0: 99de a43e 9007 02be 3c41 573f 61cd 08bf
000001b0: edbc fc3a a4a6 62be 8025 2a3f 4be9 e1be
000001c0: 74b9 8e3e 8939 1cbf 7150 89be 11f8 ccbe
000001d0: d9dd 9ebd 682f 1c3f 48c2 f4bd 3239 4abd
000001e0: e9ec 263f 2fce 4a3f 0891 cf3d c555 513f
000001f0: a382 ddbe bc5c 1abe 7959 d0bd defb cf3e
00000200: 2e4f 18bc 3743 13be 6b78 f43e 5d17 bf3e
00000210: dd98 09bf c5ba 6e3e 9e3b 05be a6f2 9cbe
00000220: b26d d33e f93d aabe 23cd 20be bd68 83be
00000230: c0cd fbbe 62c4 db3e 8b6f 983c 5466 1cbe
00000240: 109d fb3e 4bd5 333f 09bb 223f 59b3 c33e
00000250: 433c a53e 9adb 9f3e 2bab f1be efe5 e43d
00000260: 5004 c1bc 624a 023e 99ce 59be 7fd0 bbbb
00000270: 0a0b 0e3e ffeb d33e d254 7c3e e9d4 f73e
00000280: 00ab 3ebc 374f 193f 2bdb 5d3e a748 12bf
00000290: 40e0 af3c e04f de3e 9cb1 b3be 1f54 a5be
000002a0: 3030 533d b113 933e 6e93 0cbe 2e27 203e
000002b0: 32b7 813e 8183 a6bc b206 26be 60fd a33e
000002c0: 865c 12bf 87b4 c4be 1d0b 0d3f 793c b7be
000002d0: 610d b63e 0f38 f9be b5c8 203f c420 99bd
000002e0: 164f 103e 43c6 623e f820 ddbc 8f5c 5c3f
000002f0: eb38 f6be 2c06 213f 942a aabe bd50 bfbe
00000300: ed2f f43e b4e7 883d 01b4 e3be 4ea4 733f
00000310: e6f1 fd3d 421c d73e ea55 1fbd 69eb d7bd
00000320: 1ca4 04bf cb1f 573e 62ef 03be 178b f03e
00000330: caea 023e 6e9e f2bd 2914 e0bb 7d13 583e
00000340: bd73 8abd cecf 873f 339f 463f 1c50 2c3f
00000350: 25e9 76bf 6aff 6cbe 1e52 ef3e fa30 babd
00000360: 0381 c33e f0e4 133f 077f 8ebe a906 d3be
00000370: 2f94 a1be b10b ec3e fb38 58be 10b2 023f
00000380: 5bf2 85be e7c5 e03d c3e2 fa3d ddc7 983d
00000390: 2d0c 2cbe c782 b1be 01ee 4dbe 089c 0d3f
000003a0: 0508 f23e ed1e 8ebe 0fd2 20be 157c 753c
000003b0: 10b4 afbf ab6d 4a3f c40a 523f 6e44 b6bd
000003c0: acf2 b53e 98bb 3cbe 7173 a33e 950d c6be
000003d0: bfb9 5e3e 5ee2 903e 5e42 bc3e 0207 c13c
000003e0: 8128 d4bd 9e90 d8bd c8b6 093f 200d 703e
000003f0: 1967 30bf 0bd9 d8be 493b ab3d 3483 5c3e
0.51160806 0.21306184 -0.75865346 0.24285696 0.3916886 0.32750496 -0.084244095 0.50912166
0.16674279 -1.1801667 0.50913274 -0.07369778 -0.5422237 1.0620333 0.42745057 0.40005347
0.094125904 0.06824468 0.55416346 -0.24480322 0.011001463 0.7060369 -0.36512142 -0.45952737
-0.074398965 -0.07606866 0.4191262 -0.7239007 0.26873404 0.3860644 0.043244585 0.3606171
0.54005134 0.13614686 -0.56534225 -0.68638515 -0.05111875 -0.04733611 -0.25989223 0.37213627
-0.086900316 0.5012677 -0.387112 -0.12417896 -0.12931669 -0.15268996 -0.111613944 -0.6069215
-0.15861148 -0.5842383 -0.099106275 -0.1520632 -0.6761038 0.14611953 -0.29917762 -0.19016315
-0.3294832 -0.97259164 0.50158405 0.0069943885 0.018039577 0.79944 0.7471941 0.5167323
0.020633716 -0.09276803 -0.062624015 -0.48936048 0.17997466 0.19083974 -0.62421685 0.1269811
-0.55118155 0.24970138 0.60739076 -0.11320928 0.8560534 -0.2642248 0.089249566 -0.36956897
-0.38251406 -0.08825655 0.07854445 -0.5438838 0.58160985 0.801896 -0.18393092 0.42417672
0.16547617 -0.4002063 -0.107766576 -0.14969583 0.2342765 0.21181883 -0.6921627 -0.25857782
0.23336738 0.7005283 -0.28402713 0.8520915 0.72864723 0.109668106 0.4432639 0.087605864
0.3220108 -0.12698197 0.84083915 -0.53438383 0.0019282378 -0.22133881 0.6646347 -0.441233
0.27875865 -0.6102529 -0.26819184 -0.4003301 -0.07757158 0.61009836 -0.11951119 -0.049370952
0.65205246 0.7922086 0.101350844 0.817715 -0.4326373 -0.15074438 -0.101733156 0.40621847
-0.009296222 -0.14381109 0.47748122 0.37322512 -0.53748876 0.23313434 -0.13011023 -0.30653876
0.41294628 -0.33250406 -0.15703253 -0.25665846 -0.49180412 0.42923266 0.018607875 -0.1527341
0.49143267 0.70247334 0.63566643 0.3822277 0.3227254 0.3122223 -0.47200903 0.11176669
-0.023561627 0.12723687 -0.21270217 -0.005731642 0.13871399 0.41390988 0.24641731 0.48404625
-0.011637449 0.598865 0.21665637 -0.5714211 0.021469235 0.43420315 -0.35096443 -0.32290742
0.051559627 0.2872596 -0.13728115 0.15639946 0.2533508 -0.020326378 -0.16213492 0.32029247
-0.5717243 -0.3841898 0.5509508 -0.35788324 0.35557082 -0.48675582 0.62806255 -0.07476953
0.14092669 0.22145943 -0.02699326 0.86078733 -0.480903 0.6290004 -0.3323561 -0.37366286
0.47692814 0.06684819 -0.4447327 0.95172584 0.12399654 0.42013747 -0.038900293 -0.10542948
-0.5181291 0.21008222 -0.12884286 0.46981117 0.12784877 -0.11846624 -0.006838341 0.21101184
-0.067603566 1.0610292 0.7758667 0.6730974 -0.964495 -0.23144308 0.46742338 -0.09091373
0.38184366 0.57771206 -0.2783129 -0.4121602 -0.31558368 0.4610267 -0.21115486 0.5105295
-0.26161465 0.10975247 0.122502826 0.07459996 -0.1680152 -0.34670088 -0.20110323 0.5531621
0.47271743 -0.2775797 -0.15705131 0.014983197 -1.3726826 0.7907359 0.8204768 -0.08899771
0.35536706 -0.18430936 0.31924012 -0.38682237 0.21750544 0.28297704 0.36769384 0.023562912
-0.10359288 -0.105744585 0.5379453 0.23442507 -0.68907315 -0.4235309 0.08360917 0.21534425

mid_part.0.bias f4 [12]
00000000: 3dd4 b33b 4213 03bd dfc4 4dbb da2d 513a
00000010: ee28 883d 094a ae3b dc40 cf3c f4af e03c
00000020: a95b a1bc 427c 15ba 73d1 6fbb a18d 073d
0.0054879473 -0.032000788 -0.0031397862 0.00079795497 0.06648432 0.0053188843 0.025299482 0.027427651
-0.019697027 -0.0005702415 -0.0036593347 0.033094052

mid_part.1.weight f4 [12]
00000000: f8a2 853e e9e3 be3e a4ec 7f3e 1e88 833e
00000010: 511d b73e c9f5 7c3e bf98 753e d800 f13e
00000020: 136e 963e 1e1d d33e 0378 843e f369 8e3e
0.26100898 0.37283257 0.24992615 0.25689787 0.35764554 0.24703135 0.2398405 0.47070956
0.29380855 0.41233152 0.25872812 0.27815208

mid_part.2.weight f4 [12, 12, 3, 3]
00000000: 21c9 803e a340 b0bc d7f1 823c 76e5 84be
00000010: 7bc2 e33d bb8f e8bd dd93 89bd 8884 e3bd
00000020: 8f96 973d 0770 3e3e 0996 61be 4f4f 593e
00000030: f1c4 1e3d eff6 ffbd 46cf f1bd 28f0 9ebd
00000040: 303a 22be e389 0e3d 2fcf b93d 4ffb 213e
00000050: fa71 6f3d 479d 243e 1696 f63b b32c debc
00000060: afb0 853e 5a22 813d 27fd 92bd 76fb c63b
00000070: 11c0 90bd 0740 013e 7503 113e 82b2 9bbe
00000080: fe43 87be 4252 f8bd 009b 12bd 2955 2d3e
00000090: 5c60 35be 619f e7bd 2034 bcbd 5102 86bc
000000a0: 8e41 803e f7d3 74be 0a7d f93c f580 4bbc
000000b0: 80c1 3d3d 1ee1 5d3e 3e9a 353d 6917 5a3e
000000c0: e822 53bd e369 dabd f9fe a03d 46f0 bdbd
000000d0: 9288 8e3d 60ce cdbd e910 34be 1850 1f3c
000000e0: 0711 2b3b 87bb 673e e733 b5bd 79a3 e33c
000000f0: af52 ccbd f2fa f53d 0358 203e 20a0 053e
00000100: aee8 84bd 758e 773e 5903 003c 7324 4d3c
00000110: 6d4c 4bba 32fe 8e3b 88d3 6dbe 1396 52be
00000120: 9791 84bc 3189 9ebc 4a94 2e3d 9ebb 44be
00000130: e1db 8e3e d3f7 88bd 9ccc 84bd c60e 72bd
00000140: 5c56 c53c 7e7e 36be 2c58 933c 28f4 2d3d
00000150: 99f0 3d3d d2c0 e73d 8649 093e 85bf ebbd
00000160: 97b1 1bbd efeb c13c 8417 923d 99b6 5cbb
00000170: 6b10 723e 6fd6 f0bd 9952 46bd 54dd 8fbd
00000180: 28b7 233d 8062 d73d 76ef 093d f695 0e3d
00000190: ffa6 75bd 1a94 ccbd ebcc ddbc 4ee9 ae3d
000001a0: c33c f13c 097d 943d 30e4 443d 93f7 213c
000001b0: ba40 213c 4542 31bd aff9 70ba 5379 713c
000001c0: 1583 913d 08d5 80be 4252 593e 2645 8a3d
000001d0: 120c 083e 2d7d 163e 3034 bf3d 623f 08bc
000001e0: a35d 6d3e cdf4 f13d 313b fe3b 5cb4 5a3d
000001f0: 8ed1 e6bd ad68 173e 07ef f2bc 3087 a6be
00000200: 02b8 27be b32b a43c 1eb6 6f3d e3d5 97be
00000210: e289 e2bd 1e6e be3d e9a6 c7bd 2073 e53c
00000220: 183c 823e f273 cebd d3a5 a7bc 2ada 9cbd
00000230: 544f ddbc 6ea9 fcbd 3793 aa3e 9892 04be
00000240: ab6f 6f3e e70d 25be 1332 52bd 8de8 3dbe
00000250: 6215 17be 86e4 0a3d a5af a1bd 90bf c1bd
00000260: df33 d6ba e10f eebd 80fa 2e3d c87a 86be
00000270: ff01 233c cf94 d03d 16ad c13d 4255 0e3e
00000280: 09f8 81bd dba5 0abd 75d6 443e 9c99 4ebe
00000290: cbd3 21be 16da 66bc 89b1 573e a276 53bd
000002a0: 168b 9abe a47f eebc a29a e83d b462 33be
000002b0: 02c0 283e c4c5 ddbd 5aa1 26bd 3480 673e
000002c0: a282 213e 0ff2 64bd 62cc f4bd f5bd e2bd
000002d0: 9947 c03d 747f dbbd 5672 c53d 2293 a5bc
000002e0: 41f9 ab3d 3dce 97be 5689 3a3d 5879 9cbd
000002f0: 6a73 88bd 8df4 f0bd c38b b0bd 4d71 88bd
00000300: 1947 0d3c 428a 82bd 92a4 c1bb efd8 30be
00000310: 4e31 2bbd c297 a53c 2010 9bbd dfd7 063e
00000320: 88fe 203d 5f50 7d3e e6c0 4abd bd4d 0abe
00000330: 8f61 0ebe 0f45 103d f029 f93d f47d 8d3e
00000340: aa6c 483e bd7b 993d ff73 d93d 106a c93d
00000350: 2e02 233e befb 35bb 3c2e e33d 4057 193e
00000360: 7ec1 923d 0bdd 22be c011 05bd 91b9 d5bc
00000370: 6021 403e a8b3 353e 8ad7 173e b219 a7bc
00000380: 292b 923e 41c6 a3bd a6c7 dabd fa55 8d3d
00000390: 90af 493e c067 96bd a7fe 86bc 7c15 72bd
000003a0: 1489 d23d c1a0 c63d 7afc 133e a0b4 88be
000003b0: 8c4e 4fbe 0e0b 7f3d 4284 03be 1da0 14bc
000003c0: f1d5 e53d f9e0 dc3c 605e 103d 0e69 07be
000003d0: 90c7 c2ba 4684 86bd 6fc8 633e 040a 453e
000003e0: a8f2 333e 5a18 fe3c 11b9 0f3e 22a8 fb3c
000003f0: 87e7 a73e 2790 61be a550 b2bd 5125 123d
0.2515345 -0.021515196 0.015984459 -0.25956315 0.111210786 -0.113555394 -0.06717656 -0.11109263
0.07401764 0.18597423 -0.2202989 0.2122166 0.038762037 -0.12498271 -0.118071124 -0.0776065
-0.1584251 0.034799468 0.0907272 0.15818523 0.058458306 0.16075622 0.007525216 -0.027120924
0.2611136 0.0630538 -0.07177191 0.006072457 -0.07067884 0.1262208 0.14161475 -0.30409628
-0.2641906 -0.121250644 -0.03579235 0.16927017 -0.1771254 -0.11309696 -0.091896296 -0.016358526
0.25050014 -0.23908983 0.030455131 -0.0124208825 0.046327114 0.21667907 0.04433655 0.21297993
-0.05154696 -0.106647275 0.07861132 -0.09274344 0.069596425 -0.100491285 -0.17584576 0.009723686
0.0026102678 0.2263013 -0.0884779 0.02778791 -0.09976708 0.12010755 0.15658574 0.13049364
-0.06489693 0.24175437 0.007813298 0.012520897 -0.0007755224 0.0043637985 -0.23225224 -0.20565061
-0.016182704 -0.019352527 0.04262189 -0.19212195 0.2790213 -0.06687894 -0.06484339 -0.05909612
0.02408903 -0.1782169 0.01798638 0.042469174 0.04637203 0.113160744 0.13406953 -0.11511139
-0.03801116 0.023672072 0.071333915 -0.0033678173 0.23639075 -0.1175965 -0.048418615 -0.07024637
0.039969593 0.10516834 0.033675633 0.034810983 -0.059973713 -0.09989186 -0.027075252 0.08540593
0.029447919 0.07250411 0.04806918 0.009885686 0.009842092 -0.04327609 -0.0009192479 0.014738399
0.0710508 -0.2516253 0.21222785 0.0675147 0.13285854 0.14696188 0.09336126 -0.008315893
0.23180251 0.1181427 0.007758521 0.05339466 -0.11270438 0.14786024 -0.029654993 -0.32525015
-0.16378787 0.020040369 0.05852329 -0.2965537 -0.11061455 0.09298347 -0.097486325 0.028008997
0.25436473 -0.100807086 -0.020464813 -0.07658799 -0.027015366 -0.12337004 0.3331544 -0.12946546
0.23382442 -0.16118585 -0.051317286 -0.18545742 -0.1475425 0.033909343 -0.0789483 -0.09460366
-0.0016342363 -0.116241224 0.042719364 -0.2626555 0.009949206 0.10184633 0.09456842 0.13899711
-0.06346137 -0.03384958 0.19222434 -0.20175785 -0.15803449 -0.014090082 0.21063818 -0.05162681
-0.3018424 -0.029113598 0.11357619 -0.17518121 0.16479495 -0.108287364 -0.04068122 0.226075
0.15772489 -0.055894908 -0.119530454 -0.11071388 0.09388656 -0.10717669 0.096409485 -0.02021176
0.08397151 -0.29649535 0.04554113 -0.07640332 -0.066626385 -0.11765394 -0.086204074 -0.066622354
0.008622908 -0.06374027 -0.005909511 -0.17270254 -0.041795067 0.020213965 -0.07571435 0.13168286
0.03930524 0.2473769 -0.04950037 -0.13506217 -0.13904403 0.03522211 0.12166202 0.27635157
0.19572702 0.07494304 0.106178276 0.09834683 0.159188 -0.0027768458 0.11092803 0.1497469
0.07165812 -0.15904634 -0.03248763 -0.026089462 0.18762732 0.17744315 0.14828315 -0.020397995
0.28548554 -0.07996798 -0.10682611 0.06901164 0.19695878 -0.073440075 -0.01647885 -0.05910252
0.10280052 0.0969863 0.14451781 -0.26700306 -0.20244807 0.062266402 -0.12843421 -0.009071377
0.11222447 0.026962744 0.035246253 -0.13223669 -0.00148605 -0.06568198 0.22244428 0.19242102
0.17573035 0.031017471 0.14035441 0.03071982 0.3279383 -0.22027646 -0.08706788 0.03568012

mid_part.2.bias f4 [12]
00000000: cf07 693b fdd2 cc3b 404e 53bb a78b 8b3b
00000010: 30e9 fd3c 4fdb 0dbb 4f71 a6bb a0dd 053a
00000020: 9a74 923c 2913 f039 b899 923c 466f df3c
0.0035557633 0.0062507377 -0.0032242686 0.004258591 0.030994982 -0.002164561 -0.0050794254 0.0005106572
0.017877866 0.00045790643 0.017895564 0.027274739

mid_part.3.weight f4 [12]
00000000: b3fd afbe f717 7e3e da61 863e 1662 2f3f
00000010: 696d a03e 9ada 813e b28c 813e b025 193e
00000020: dfce 6e3e 661c d03e 0ec0 843e f433 7b3e
-0.34373245 0.2481383 0.2624653 0.6850904 0.31333473 0.25362092 0.25302655 0.14955783
0.23321103 0.40646666 0.25927776 0.24531537

mid_part.4.weight f4 [12, 12, 3, 3]
00000000: 72f4 193d 2ee5 97bd 3e17 623e d0e2 943e
00000010: d633 fdbc 350e 083e 05ae 05be 1f84 823d
00000020: 0647 a1bd 751a 5ebe 04cc f9bd d16c a93e
00000030: 64b9 75bd 311f 183e 42c1 22be c920 f0bd
00000040: 4f58 8e3b 9286 613e 6b97 0fbe 6d61 ff3d
00000050: 8e4e 4a3c 74d9 003e f8bf c9bc f31c afbd
00000060: 15f3 7fbd 259e 1c3e 2d19 333e c8b3 debc
00000070: 28e5 a4be b12b 783d 1380 093e bad8 06be
00000080: d244 91be 6c5a 9cbd 4aa0 643e 245f ed3d
00000090: a434 b2bd 351c 4c3e f953 c63d 371f 70be
000000a0: c06d a03e a81a c93c 0379 92be 716a 083b
000000b0: 4c4b 1d3e 670c eabc 9bdf b1bd 5157 f43d
000000c0: 73c8 7dbe 8f4a 853d b546 b5be 232c 6c3d
000000d0: 20f7 7d3e a0f5 1cbe b89e e83d baba 6fbe
000000e0: 1cd1 d3bd 9e49 e93d 4c5a c6bb da1a 07be
000000f0: d875 f9bc 034b 85be 04b4 8d3e e29f 303d
00000100: 16e9 f7bd 5d95 2d3e f2c3 ddbc 1bff 423d
00000110: abac 033e 519b 75be fc64 9dbd ca92 8fbd
00000120: b1b3 f7bc 4274 823b 6f5a c1bd b92e 30be
00000130: 7be5 8bbb 7f4c 77bc 4d66 7a3d 57b4 53bd
00000140: 5678 483e 9a3f e23d 0d5a 2ebc b08b 613e
00000150: 345e f93d 4dab 243e 0c5d f8bc 4e8b b13d
00000160: ee3c 343e c0b6 a9be 6259 c03c 0027 3a3e
00000170: 04fc 5bbd be17 223e 9ac9 57be 20eb 973d
00000180: 8fa7 36be 96c4 67bb 1433 0f3e 6498 4c3e
00000190: 74a1 943c 1493 643e 996b 96be 4067 553e
000001a0: ae9e ddbe 22b2 cdbc b15c 6a3e e562 993e
000001b0: 49f9 f03d 9e24 62be 4426 3cbd ef0b 8d3e
000001c0: f64a b13d f9f7 ca3d f9c7 933e f843 75be
000001d0: 59f6 0c3d dbf9 b3bc 81cf 7b3d 095c 1bbd
000001e0: d5a9 943e df11 703d 5591 a63e 8aaa 79be
000001f0: ec9c 81be 27e7 a6bd 63a8 55be 7674 ea3d
00000200: e710 5ebd 6652 edbe 33fb 2ebe 7209 45bd
00000210: 4ac1 0abf acda 3cbe 498e c83d ac23 a63c
00000220: 0f11 323e a7f5 713e 56d3 323e 40f8 a63e
00000230: e2db 7b3d 6916 bc3e 874c b23e 8143 bfbd
00000240: babd debc 8b8d f2bc 8ad1 03bd a5cd 44be
00000250: c840 91bc 6fe5 b1ba e99f afbe acf3 5dbd
00000260: 7cea 0cbd 308c f6bc 41e7 40be fe3f 913e
00000270: 52f1 78be f210 39bd 8acf 0d3e 1795 01be
00000280: c620 0c3d 4016 8abd c9ce 893e 29ee 1abd
00000290: 6f2d 3bbd 5c38 bd3e 53a2 a9bd 7821 d63c
000002a0: d7ae ff3d 5802 24bd 2b29 80be 8efc ad3e
000002b0: 1571 7cbe aa34 76be ab9d 3ebd bd13 aeba
000002c0: 1ead 9b3d 2dbf 2b3e 371b 0a3e 42ee da3e
000002d0: 1f34 93bd 53ba 87be 902e 30be 2d88 bcbc
000002e0: 55ec febd 7b0e 953d 1b67 4e3e 8532 8e3e
000002f0: fd76 e23d 5470 d4be de69 023e a349 1bbe
00000300: ddbf 443e 27b1 633e 8e7e 18bd d088 103d
00000310: 0c24 6fbc a6a2 d43d e68f d9bd f79c b9be
00000320: 2a64 37bc f2ee d13e 149a c73e f7bb 093e
00000330: 6905 c7be ca82 71be 306b 133e ca1b 70be
00000340: 81cf 83be c120 94be eead 49be 1e4a 613d
00000350: 9db5 5bbb e2a7 193f 7063 bb3e 4a0b 8b3e
00000360: 5960 463e 5c54 4abe cfc9 1a3e 29d6 8a3d
00000370: 40d1 093d 2a03 6abc f88a 27be bb34 9b3e
00000380: 0d65 0a3d 3be2 603e 91b1 8b3c 0649 303e
00000390: 6979 8fbc 84ef ff3c 857c d93d 5f1f a53a
000003a0: 0282 a03d 322a 863c f807 e2bd 9fb5 613d
000003b0: 028c 363e 3028 12bd f5ac 303e 48e6 283e
000003c0: 9d82 353d a66c 14bc 5f50 42be 2759 88be
000003d0: dfd6 0bbe 20af 70bd f05a a03d 7cda 113e
000003e0: a2f8 033e 5ea6 413e ea55 febd 9bc1 6d3d
000003f0: ac56 d6bd 103f 9dbe 052c 03be b67c efbd
0.037586637 -0.074167594 0.22079179 0.29079294 -0.030908506 0.1328667 -0.13054664 0.06372856
-0.07874875 -0.2168978 -0.12197116 0.33090833 -0.059991255 0.14855649 -0.15894035 -0.11725003
0.0043440233 0.22023991 -0.14022605 0.12469754 0.01234783 0.12582952 -0.02462767 -0.085504435
-0.06248768 0.15294702 0.17490073 -0.027185336 -0.32206082 0.060588542 0.13427763 -0.13168612
-0.28372818 -0.07634434 0.2232677 0.11590412 -0.08701447 0.19932635 0.09683985 -0.23449408
0.31333733 0.024548844 -0.2860795 0.0020815397 0.15360755 -0.028570367 -0.086852275 0.11930717
-0.24783497 0.065083615 -0.35405508 0.05765928 0.24801302 -0.15328074 0.11358398 -0.23411074
-0.10342619 0.113909945 -0.0060532447 -0.13193837 -0.0304517 -0.26033792 0.27676404 0.043121226
-0.121050045 0.16951509 -0.027070973 0.04760657 0.12858836 -0.2398503 -0.07685277 -0.0701042
-0.03023705 0.003981144 -0.09441077 -0.17205323 -0.0042692996 -0.015093922 0.061132718 -0.051685657
0.19577155 0.11047287 -0.010641587 0.22025943 0.12176171 0.16080971 -0.030317806 0.086691484
0.17601368 -0.3314724 0.023480121 0.1817894 -0.053707138 0.1582937 -0.21072999 0.074178934
-0.17837356 -0.0035364977 0.13984329 0.19980007 0.018143393 0.22321731 -0.29378965 0.20840168
-0.43285125 -0.025109354 0.22886921 0.29958263 0.11766297 -0.22084281 -0.04593493 0.27548167
0.08656876 0.09910578 0.28863505 -0.2395171 0.034414623 -0.021969726 0.061477188 -0.03792957
0.29035822 0.058610793 0.32532755 -0.24381462 -0.25315034 -0.081495576 -0.20865016 0.114479944
-0.054215338 -0.46351928 -0.17088012 -0.04810471 -0.54201186 -0.18442792 0.09792764 0.020280682
0.1738932 0.23628865 0.17463431 0.32611275 0.061488993 0.36735848 0.3482401 -0.09339047
-0.027190078 -0.029608509 -0.032182254 -0.19219072 -0.017731085 -0.0013572405 -0.3430169 -0.05418746
-0.03440331 -0.030096143 -0.18838216 0.28369135 -0.24310806 -0.045182176 0.13848701 -0.1265453
0.034210943 -0.06742525 0.26915577 -0.037824783 -0.045697626 0.3695706 -0.08282914 0.026139006
0.1248452 -0.040041298 -0.2503141 0.33981746 -0.24652512 -0.24043527 -0.046537083 -0.0013281029
0.07601379 0.16772147 0.13486944 0.427599 -0.07187676 -0.26509342 -0.17205262 -0.023014152
-0.124474205 0.072781526 0.20156519 0.27772918 0.110578515 -0.4149195 0.12735698 -0.15164809
0.19213815 0.22235547 -0.037230067 0.035286725 -0.014595997 0.10382585 -0.106231496 -0.36252567
-0.011193315 0.41002613 0.3898474 0.13450609 -0.38871315 -0.23585048 0.14396358 -0.234481
-0.2574425 -0.2893124 -0.19695255 0.055002324 -0.0033524998 0.60021794 0.36599302 0.2715705
0.19372691 -0.19758743 0.15116046 0.06779129 0.033646822 -0.014282981 -0.16361606 0.30313668
0.033787776 0.219613 0.017052444 0.17215356 -0.017513948 0.03124214 0.10619453 0.001259785
0.07837297 0.016377542 -0.11036676 0.055104848 0.17826846 -0.035682857 0.17253478 0.16494095
0.044314016 -0.009059107 -0.18975972 -0.26630518 -0.13656186 -0.058760762 0.07829845 0.14243501
0.12887815 0.1891112 -0.124187306 0.058045965 -0.1046575 -0.30712175 -0.12809761 -0.116937086

mid_part.4.bias f4 [12]
00000000: 02f0 b13c 836c d03b 285b a7bc f435 a53c
00000010: e2d4 f9ba 6cb3 32bb 801f 27bb b6d9 a43b
00000020: 0b16 8c3c 7549 063c 94ff c4bc d3e9 0bbc
0.02172089 0.006360592 -0.020429209 0.020167328 -0.0019060636 -0.0027267588 -0.0025500953 0.005030836
0.017100355 0.008196224 -0.02404765 -0.008539635

mid_part.5.weight f4 [12]
00000000: 6139 c63e f00d 113f 69ad a13e 1e1f 853e
00000010: 3cb7 cc3f 6251 1d3f 0fa7 a1bd 24cc 063e
00000020: 3cf7 473f 7c1a e93e 8ca0 d33e 2414 833e
0.38715652 0.5666189 0.31577614 0.26000303 1.5993419 0.61452305 -0.07893192 0.13163811
0.78111625 0.45528018 0.41333425 0.25601304

mid_part.6.weight f4 [12, 12, 3, 3]
00000000: e4c3 743d 5d71 9dbd a6a7 a7bc edb9 1b3d
00000010: d92d f83d a411 2c3e 21f6 3abc 4c9b b33d
00000020: 3f4e c73c 5fad 413d 7865 853e ccf6 463e
00000030: cdbe b53d 990f 553e e1a0 853e 0694 38bc
00000040: 1aa7 96be 505a 8a3d 11bd b33d 4011 20be
00000050: dc66 473d 72df f33d acb1 9d3c 3fd2 a0bd
00000060: 5ce8 3fbe ffa2 0fbe 0764 2d3e 4462 f73d
00000070: b282 13be fc7e 3fbe 4a67 bebd fd08 b63d
00000080: de00 013e 0c21 913d 8386 b0be 236e 2ebe
00000090: f029 56ba 5a75 283e a8b7 96bd 1677 323e
000000a0: cd19 043e d298 0abe 1f82 48bd 876e 3c3e
000000b0: 7ff4 16bd 8184 04be 43ed d4be d2d3 fc3d
000000c0: 11ca 5d3e 4015 f9ba 1140 493d 3adf be3d
000000d0: 1772 d13d d939 443e e8b6 393e 83c4 4ebe
000000e0: 4d2a 553d 82ac bd3d de0d 523d 94c8 803d
000000f0: 769c 4f3e 8c9f 513e 4f84 fc3d 6b4b ecbd
00000100: 5707 b5bd de4f 163e 6705 2bbd 9e02 24be
00000110: d735 c93c a28f 983d e4aa 1b3d 72ab 42be
00000120: de0b 26bd cbf7 b63d 6f1e 243e 64c3 19bd
00000130: 3bff 8d3d 3091 11bd b489 9dbd 100f 3bbe
00000140: 3419 123d c45b 00bd fa02 3b3e d0c8 27bb
00000150: afa0 2cbe f5d7 723d 2822 413e c0ba 4fbe
00000160: 8570 ffbd bbca 6dbe 9876 c4bd 92a1 0d3e
00000170: ba44 f13d eac5 63bd 5222 56be 3f42 d63d
00000180: 7350 9dbd 9dca 233e 2040 c5bc eefc f43d
00000190: 3d3f 583d fab7 5c3d 767f 803d f729 f4bd
000001a0: dc84 74bc dbb5 263e bf50 09be 94e9 cf3b
000001b0: 6d4e b03e f232 0d3e 0d26 363d d624 d3bd
000001c0: 0584 52be cce9 163e e3e4 0a3e 98f2 8d3d
000001d0: e015 0c3c d685 dabd 0fb7 a93b bdc0 183e
000001e0: 7b9a ecbb 5c47 e33d 4f40 b33d aa39 423e
000001f0: 549c fbbd 7309 0ebd 2375 f63d 7cda fd3c
00000200: f3e6 b93c 5ee6 513e 72be 2e3d 1d7c 393e
00000210: b3a9 24bd e637 41bd f9d3 e53c 18e3 ef3d
00000220: 0829 933c 4b72 2ebd b2c3 04be 9d10 173e
00000230: c991 ab3c 8041 16be 6a66 5dbe 03f6 8a3d
00000240: ed1a 5a3d 2242 d9bd 4829 273e 6837 0c3e
00000250: 210a 69bd 7820 fabd bb37 953d 1823 7c3e
00000260: 98fd 623d d987 9e3d 57cd 393d c290 f63d
00000270: 9bc7 32be 3167 713c 4c07 03bd 6068 c73b
00000280: 5549 063c 6cf0 433d 1b3e 393e a331 433c
00000290: 1a08 1f3d 1983 0f3d d342 c83d bad0 11bd
000002a0: 8d10 7dbd ada7 a4bd bbdf 98bd 9c1a 173e
000002b0: a949 90bc caf7 ad3d 0f9e 143d 802e 2d3e
000002c0: 9d98 57be 0f3b dbbc b8e0 d0bc 4b2c efbd
000002d0: 625b 4e3e 66fc 8abe d700 023e 2cca 073c
000002e0: 48a7 463d d75a 4a3e 04fd 8a3b e8a6 383e
000002f0: fb83 41bd 8240 ce3d 82f6 0c3c 88ae 483d
00000300: 9eb4 133e f8b3 693e 6d33 2dbe c060 473c
00000310: fb75 223e d806 4c3e 3bf4 e63d 1371 3f3e
00000320: c275 ca3d 76a3 3bbe 0150 7bbe a24f 19bc
00000330: 214e 063e f4b2 e4bd aec8 8d3e 5efd b2bd
00000340: 42ae 9ebc a34f 17bd cb7d 943d 32f8 5b3d
00000350: 5b44 143c a614 81be cb88 5bbe 023f 633d
00000360: c5ef 89be 910a 1ebd e91b 54be fe54 10bc
00000370: 7ad8 dfbd 6c98 c6bd c42d 813e f56b 3d3e
00000380: f72c 40be 1071 12be 5c95 33be a4e0 dd3c
00000390: 55ac f3bd c222 c33c c75d 18be 41fe 8c3e
000003a0: e617 3d3e 95e3 243e 7f6c 07be d703 123e
000003b0: 201f aa3c 056d 983d 9f6e 8b3a 31ee 12be
000003c0: 9a3b 1b3e 3793 0fbe 76fa 92be 020a 463e
000003d0: 6b67 9e3d 4a52 073d 3037 3a3e d6e9 bc3d
000003e0: 8330 02be ec2d 4cbe d589 fcbd 301e 903c
000003f0: 4f5c 97be 9f9e 3ebe 2103 323e d75a 4dbd
0.05975713 -0.07687638 -0.020465683 0.03801911 0.1211812 0.16803604 -0.011411221 0.08769855
0.024329303 0.04728448 0.26053977 0.19430083 0.08874283 0.20806731 0.26099303 -0.01126576
-0.29424363 0.06755507 0.08776296 -0.1563158 0.04868208 0.11907853 0.01924976 -0.07852601
-0.18740982 -0.14027022 0.16932689 0.120792896 -0.14405325 -0.18700784 -0.092970446 0.08888433
0.12597987 0.07086381 -0.34477624 -0.17034201 -0.00081697013 0.16451016 -0.073592484 0.1742824
0.12900467 -0.13534859 -0.04895222 0.18401538 -0.036854263 -0.12941171 -0.41587266 0.12345089
0.21659113 -0.0019003525 0.049133364 0.09319921 0.10226839 0.19162692 0.1813618 -0.20192151
0.052042294 0.09261419 0.051282756 0.06288257 0.20274529 0.20471019 0.12329923 -0.11537822
-0.088392906 0.14678904 -0.0417532 -0.16016623 0.024561806 0.07449271 0.03800477 -0.19010714
-0.04053866 0.089339815 0.16027234 -0.037539855 0.06933447 -0.035538852 -0.076922804 -0.18267465
0.035668567 -0.031337515 0.18262854 -0.0025601871 -0.16858171 0.059287984 0.18860686 -0.20286083
-0.12472633 -0.23221867 -0.095929325 0.13831165 0.11780687 -0.055608667 -0.2091153 0.10461854
-0.0768136 0.1599526 -0.024078429 0.11962305 0.052794684 0.05388639 0.06274311 -0.11922067
-0.014924254 0.1628031 -0.13409708 0.0063449834 0.34434834 0.13788965 0.04446988 -0.1030976
-0.20558174 0.14737624 0.13563876 0.06931037 0.008550137 -0.106700584 0.005179293 0.14917274
-0.007220564 0.11097595 0.087525 0.1896731 -0.122856766 -0.03467698 0.12034061 0.03098797
0.022693133 0.20498034 0.04266209 0.18113752 -0.0402009 -0.04717245 0.028055178 0.117132366
0.017963901 -0.042589467 -0.12965277 0.14752431 0.02094354 -0.14673424 -0.21621099 0.06785204
0.053248335 -0.10608317 0.16324341 0.13693011 -0.056894425 -0.12213224 0.0728602 0.24622762
0.055417627 0.07740755 0.045361843 0.12039329 -0.17458956 0.014734075 -0.03198938 0.0060854405
0.008196195 0.047836706 0.18090098 0.01191369 0.038826086 0.035037134 0.09778371 -0.035599448
-0.061783362 -0.08039794 -0.07464548 0.14756244 -0.017613249 0.08494528 0.03628355 0.1691227
-0.21054311 -0.02676156 -0.02549778 -0.1167837 0.20152047 -0.2714569 0.12695633 0.008287948
0.048499376 0.19761215 0.0042415876 0.1803242 -0.047245007 0.10070898 0.008603694 0.04899457
0.14424369 0.22822559 -0.16914149 0.012169063 0.15865318 0.19924486 0.11277052 0.18695478
0.09885742 -0.18324074 -0.24542238 -0.009357365 0.13115741 -0.11166945 0.2769217 -0.08739732
-0.019370202 -0.036941182 0.072505556 0.053703494 0.0090495 -0.25211066 -0.21438901 0.05548001
-0.26940742 -0.038584296 -0.20713772 -0.008809326 -0.109299615 -0.09697041 0.2523023 0.18498214
-0.18767153 -0.14300942 -0.17537445 0.027084656 -0.11898104 0.023820285 -0.14879523 0.2753773
0.18466148 0.1610244 -0.13224982 0.14259277 0.020766795 0.07442669 0.0010637826 -0.14348675
0.15159455 -0.14021002 -0.28706712 0.19339755 0.07734569 0.03303746 0.18185115 0.09224288
-0.12713818 -0.19939393 -0.12330977 0.01759252 -0.29562613 -0.18615197 0.17384006 -0.05013546

mid_part.6.bias f4 [12]
00000000: 3adc 7a3c a9b8 bf3b 2ee4 093c 7dcf ae3b
00000010: 0afd 383c 3c37 963c ecc0 d03c c520 863c
00000020: 5877 a8b9 e606 5f3a 4ddd 793c b334 3ebd
0.015311295 0.0058508706 0.008416219 0.005334793 0.011290798 0.018336885 0.025482617 0.016373048
-0.00032132375 0.0008507803 0.015250516 -0.046436977

mid_part.7.weight f4 [12]
00000000: 0bc1 843e 31ae c13e 39dc 903e a97b 8e3e
00000010: ef99 33bd 17e0 1a3f 25f0 7f3e 8a52 173d
00000020: 53a1 823e 03e2 633e 633a 6dbe 7599 693e
0.2592853 0.3782821 0.28293017 0.2782872 -0.043847974 0.60498184 0.24993952 0.03694395
0.25513706 0.22254185 -0.23166804 0.22812445

mid_part.8.weight f4 [12, 12, 3, 3]
00000000: 2ef8 d53d 2fe3 ecbd c791 44be fa80 a1bd
00000010: 61b9 6b3e 8053 093e d434 98be 7b28 103e
00000020: a60b 85bd 5c55 51bd ca00 0d3d f04c 863d
00000030: 6db9 b93d cd13 9c3e f316 1d3d a0cf 473e
00000040: dc4b 6a3d 3767 6abd 7ac4 a63d abb9 09bd
00000050: 3b99 02bc 1978 61be 678c 1abd b217 8bbc
00000060: ebff 473d 4515 35be 8202 1bbc 25a0 6cbd
00000070: 15f0 a1bd 32e4 f83c 8301 2dbe 95cd 73bd
00000080: 1830 db3d 59ab 013c ccdf d5bd 1605 46be
00000090: ac55 c9bc e5e6 89bc 5156 943c 4f1b ce3d
000000a0: 897d 8cbc 553a 683e 255a c0bd 3555 683d
000000b0: eab4 a7bc e20e 9c3d ca16 093e 5fbf 473d
000000c0: 0d8d 2fbe ba0e 613d 2453 b33c ac81 ac3e
000000d0: 2d39 38be 5292 bf3d d599 d93d 688b b0be
000000e0: def0 183d c4d6 1c3d 286a 12bd 4b83 4ebd
000000f0: a11d e9bd 1720 ecbd 3a9f 1d3d 7b01 49bc
00000100: 418a 9c3e 5b7d 203c c3b4 473d cd94 4f3e
00000110: 6def c0bd 69db 32be fa1b 8ebc bad2 5fbe
00000120: 9150 85be b26e 1b3d 65a2 813d fee2 8ebb
00000130: b427 3b3e 5940 0cbe e48b 8abd 3a3c 02be
00000140: 2c29 ffbd a154 9c3d c3bb 80bd 9175 10be
00000150: 2af0 11be 54af 67bd 2bb1 d2bc 0eaa 683e
00000160: 3ec3 21bd e062 52ba 5824 2e3c fb6d 213e
00000170: 4af1 913c e50e 8abd 2316 23bd b675 2f3d
00000180: b74d aa3d 15b0 ad3d cca1 42bd 1c99 563e
00000190: 32f7 da3e 3e59 3fbe f95c e53e 9b81 c0ba
000001a0: d143 623e e477 3fbe 649b 143e 810d 723e
000001b0: 7be5 de3d 332c b3bd 776b 1bbe 2eb9 573e
000001c0: dd85 173e 7de8 403c bb43 783d 78e4 88be
000001d0: 423a 74be c692 633d ddc9 17be eac6 6e3c
000001e0: 6127 f93d 9b6b 553e 42ab 75be f44a 25be
000001f0: 5c37 c13b 90b1 d7bd 1b6d 463d 0d3c b4bc
00000200: 8e2d b53d 3fee 253d 43b4 87be 50e2 7e3e
00000210: 861a f5bd aaf9 973d 0774 cd3c 0cba 5bbd
00000220: 83da b53e d1c9 3b3d 39fc 083e aa19 bdbb
00000230: d679 a03d 242d 39be 41c9 8a3d 21c9 de3d
00000240: fe72 1f3e 076e b33b 2cc7 cfbd db5e 2f3d
00000250: ad82 443e 4efc 98be 4916 233e c6c4 a8be
00000260: 2952 7c3d 9ed4 083e 6799 1b3e 4020 b4bc
00000270: f942 8e3d 473e 5b3e a5b2 7f3d 1fb4 61be
00000280: 668c 31bd b7d0 ddbc 6d39 c4bc a112 f3bb
00000290: f552 2f3e 789d 013e 95c5 933c fefb 7e3d
000002a0: bef3 2abc 820b 4abd 23fc a13d 9bea 223e
000002b0: 36e6 533e feb7 003e 5b7d c93d 9712 b5be
000002c0: cb5c 313d 741d fb3c 5f0b 76bd 02dc 933d
000002d0: c6cd af3d e0c6 67bc 4fc1 c93b 487f 3d3d
000002e0: 5114 04be fbb2 df3c b839 8e3e 6f08 ccbd
000002f0: ef48 d53d c36b 943e a380 863c 0b92 583c
00000300: bdda 773e 198f 283d 5203 703e 2928 473e
00000310: b41d a4bb 7959 673d 779c 243c 5fc2 19bd
00000320: 8ff8 a43d 5139 27bc 97b0 32be 1ea3 0abe
00000330: 5e0b c5bd 25b7 9e3d d608 373e 1a30 373e
00000340: 3c87 48be b3d7 053e d29b 103e 86ee 773d
00000350: 84f0 b53d 8742 10bc 07ca d03b c2ac 5c3e
00000360: 95a1 3cbd 6eb6 313e ceeb e53d af46 fcbb
00000370: 2177 9a3d 577b e3bd d475 653d b3c9 d73d
00000380: 0b6a 0f3e f358 903d a8df 783d 649d 453e
00000390: 36f3 c03c d889 3b3e dc7f 03be bbf2 c93d
000003a0: 7d96 a03d 7898 05be f8fe 7fbc 2b49 30bd
000003b0: 0549 2cbe d5bf 54bd 5a20 38be 16ed c63c
000003c0: 3529 47bd 53de 2dbd 80ca c3bc fea1 5bbe
000003d0: c6c6 a5bd 0159 89bd bfed 6c3e 2276 a93d
000003e0: 81dc 4dbe 49f4 2a3d 0776 59bd 1aa8 213c
000003f0: a318 933d d8d5 393d 66e3 87be 9564 353e
0.10447727 -0.11566769 -0.19196235 -0.078859285 0.23019935 0.13410759 -0.29727805 0.14077942
-0.064963624 -0.051106796 0.03442458 0.065576434 0.0906857 0.30483857 0.038351964 0.19512796
0.05720125 -0.05722734 0.08142944 -0.033624332 -0.007971103 -0.2201847 -0.037731554 -0.016979072
0.048828047 -0.17683895 -0.009461047 -0.057769913 -0.0790712 0.03038225 -0.16895108 -0.05952223
0.107025325 0.007914388 -0.104430765 -0.19337878 -0.024576984 -0.016833732 0.018107565 0.100638025
-0.017149704 0.22678502 -0.09392194 0.056721885 -0.020472009 0.07620026 0.133876 0.04876649
-0.1714365 0.054945685 0.02189023 0.33692682 -0.17990561 0.0935408 0.10625044 -0.3448136
0.037339084 0.038290754 -0.03574577 -0.05041818 -0.113826044 -0.11529558 0.03848193 -0.012268419
0.3057423 0.009795512 0.048756372 0.20271607 -0.09420667 -0.17466511 -0.017347325 -0.2185773
-0.2603803 0.037947364 0.063298024 -0.0043605557 0.18276864 -0.13696422 -0.06764963 -0.12718287
-0.12459025 0.07633329 -0.06285813 -0.14107348 -0.14251772 -0.05656369 -0.025719246 0.2272112
-0.039492838 -0.0008025598 0.010628782 0.1576461 0.01781525 -0.06741122 -0.039816033 0.042836867
0.08315604 0.084808506 -0.047517583 0.20956844 0.4276672 -0.18686387 0.44797495 -0.0014687063
0.22096182 -0.18698078 0.14512402 0.23637964 0.10883614 -0.08748665 -0.15177713 0.21066734
0.14797159 0.0117741795 0.060611468 -0.26736808 -0.23850349 0.055559896 -0.14823098 0.014573792
0.12165714 0.2084183 -0.23991111 -0.16141874 0.005896492 -0.10531914 0.048443895 -0.02200129
0.088465795 0.040510412 -0.26504716 0.24891019 -0.119679496 0.074206665 0.02507974 -0.053644225
0.35518274 0.045846764 0.13377465 -0.0057708817 0.07835738 -0.18083626 0.067766674 0.10878206
0.1557121 0.0054757628 -0.10145411 0.04281507 0.19190474 -0.29879993 0.1592647 -0.32962626
0.06160179 0.13362357 0.15195237 -0.021988034 0.06946368 0.21410476 0.062426228 -0.22041367
-0.043346785 -0.027077062 -0.023953164 -0.007417992 0.1712149 0.12657726 0.01803855 0.062252037
-0.010434089 -0.04932738 0.079094194 0.15909807 0.20693287 0.12570187 0.09838363 -0.35365745
0.043301385 0.030653693 -0.060069438 0.072196975 0.0858417 -0.014146537 0.0061570774 0.046263963
-0.12898375 0.027307024 0.2777841 -0.09962546 0.104143016 0.28988466 0.01641876 0.013218413
0.24204536 0.041152094 0.23438767 0.19448914 -0.0050084237 0.056481812 0.01004707 -0.037538882
0.08055221 -0.010206536 -0.17450176 -0.13538787 -0.09621309 0.07749776 0.17874464 0.17889443
-0.19582838 0.13070564 0.1412194 0.060530208 0.08883765 -0.008804924 0.00637174 0.21550277
-0.046052534 0.17354748 0.11226617 -0.007698856 0.07542253 -0.111075096 0.056020573 0.10536518
0.14005296 0.07048216 0.06076017 0.19298321 0.023553472 0.18314302 -0.12841743 0.0986075
0.07841203 -0.13046443 -0.015624754 -0.04303853 -0.1682473 -0.051940758 -0.17981091 0.024282973
-0.048623282 -0.042448353 -0.02390027 -0.21448514 -0.08094554 -0.06706429 0.23137568 0.08274485
-0.20103647 0.041736875 -0.053091075 0.009866739 0.071824335 0.045369953 -0.2654068 0.1771415

mid_part.8.bias f4 [12]
00000000: 11a9 9bbb 15c1 0a3c 9d26 953a 1892 82bc
00000010: 9268 323c d290 233b 9f4c 033b 9c01 0d3c
00000020: 48e8 30bc b1b5 5c3d 7983 5f3c 57b6 1a3c
-0.004750379 0.008468886 0.0011379306 -0.015938804 0.010889189 0.0024958146 0.0020034683 0.008606341
-0.010797568 0.053884212 0.013642185 0.009442887

mid_part.9.weight f4 [12]
00000000: 511a 3abf bab7 23bd 1f87 f73e 3c28 863e
00000010: f381 1c3f e3b7 8a3f 5a06 bb3e 394a 233e
00000020: 39b5 883e ef51 6d3e 89cd b93d c4ed 443f
-0.72696406 -0.039970137 0.48345277 0.2620257 0.61135787 1.0837368 0.36528283 0.15946282
0.26700762 0.23175786 0.09072406 0.769253

mid_part.10.weight f4 [56, 12, 1, 1]
00000000: 7a7b 99bd 7d80 3a3e 8740 4fbd 1703 c4be
00000010: 3f72 b1bd 5ee1 803e 759c d33d 8691 993e
00000020: 8b87 2dbe ef54 a6bd 00df ba3e 8e1c 02be
00000030: 8997 913d b319 313e be59 9f3d d14e 3ebd
00000040: 0512 6ebe b735 a03e 1e16 6fbd 0c8d aa3e
00000050: 2d62 e73b 262c cf3d 9e4b 503e 09e9 d73d
00000060: 1ebc 45bd 01e5 063e e9b4 4a3c ca4a 66be
00000070: 35ad acbe fbc4 a1be c0a6 b03e f87d 083d
00000080: 5ce4 4f3d c1c8 22be cc6d 45be 0d2a b43a
00000090: fa00 863d e28b 55be 5757 21bd 6d06 08be
000000a0: ea17 33be f98e afbe cfd3 a83e 56b7 123f
000000b0: 7900 9bbe 3747 02bd 3524 ee3d 80a7 2d3e
000000c0: 3ced 3ebe 5d79 263e 119a b03e d1cf e73d
000000d0: 7df2 5dbd 4381 393e e86e 7bbd bf1a 6f3e
000000e0: c60a 603e 63e6 aabd 013b 0f3e ecd1 69be
000000f0: 2df3 2dbe 77d8 ebbd db58 0e3e 2136 9a3e
00000100: 205a 34be c06f b03b a83b 6bbe e312 40be
00000110: be54 293e 2ec5 aabe c27c 7e3d c824 063e
00000120: f6be 603e 902d a93d c39f acbe 727e 19be
00000130: 4ac2 ac3e 0e76 5dbe ae1c 27bd 550e b5bd
00000140: a88f 9c3e 276b 68be 3543 5d3d 76ed 3dbe
00000150: 40fb 273e 332a a73c a1f2 1d3e f900 b63e
00000160: f325 873d d015 09be a833 99be 79c1 7bbe
00000170: 89fc 673d 3048 c03e 1dc2 193f 0dbb 2e3e
00000180: 04c8 a6bd 3b3e fc3d d920 90bd 4338 1ebd
00000190: 3c30 5a3e 652d 6cbe ab27 28bd 0b4f 923d
000001a0: 0233 a43a 83c2 54be 2840 e33d e3b3 893d
000001b0: 0380 dbbe a1a5 063e 7d96 063e 7fc5 0ebe
000001c0: d611 c63d 2dcf 5ebe 3567 ed3b c353 8b3d
000001d0: faa5 2fbe 39d2 19be 9bf1 87bd d7ae 123e
000001e0: f0b8 5cbd 3319 25be 70c4 83bd 8451 6dbe
000001f0: 9015 e03d c123 8f3c 8df2 9ebd a6f2 a8be
00000200: e6ad 1abe 5ef0 2e3e ece9 183e 84fd 19be
00000210: 8890 7c3d de79 1d3e e730 b03d f731 a3be
00000220: c24b 343d 11c0 243e 10de 113e 1ee9 7a3d
00000230: 79d7 adbe 3707 b9bc d306 28be 091d 86bd
00000240: b2ce 853d de6c 553e 7cd1 adbb 963f 4ebd
00000250: 742c 773d 8431 823d 49db 80bd 3b3d a9bc
00000260: b02a 653e 5ff4 ad3e 6e88 bbbe 1a62 46be
00000270: 53d8 babe a4db ca3b 8087 44be cab2 d2bd
00000280: e54e 863d abe8 44be 8026 db3c 31d2 8d3e
00000290: 0891 193e 546c f53e 4b29 273f 0fe4 62be
000002a0: 39f5 22be 4aef 8dbc d4f2 8ebd 6e33 243d
000002b0: 34b6 913e 3b70 883d c672 6ebc 3bcc cebc
000002c0: 2162 253e 45a6 d2bb 4d0d 2bbe e0c3 083e
000002d0: 8391 21be 84f1 0f3e cc9a bdbe b15e b1bd
000002e0: 3f76 873e d15a d23e ee92 2a3c 5d4f 98be
000002f0: 13f2 1d3c 54f6 aa3e dc42 d3be df36 423e
00000300: 41f0 6a3e df8f 5f3e 7f05 a9bc 709e 1cbe
00000310: f68a 073e 6354 cabe 265a 823c 07d6 e93d
00000320: 71e5 803d 794a 973e fea0 5b3e c92b bfbd
00000330: bc64 433d 04d2 083e d597 913d 72e1 0fbe
00000340: 9821 843c ca51 4f3d 121a 323e a5bb 873d
00000350: 7ade 093e 9e5e 2abe 8a46 db3d 30b1 03be
00000360: e64d f9bd a050 3cbd 3bc3 b2bd 8d3c 73bd
00000370: ff5e 9bbd f693 663e 3039 d03d 2aa6 0a3e
00000380: 1603 8dbe d8b1 57bc 3fd7 1bbe 4348 babd
00000390: a99d 283d c18b d6ba 21bd 12bd fdb0 48be
000003a0: 3251 6cbd 92af 6bbe 8bae e03d 188f d2be
000003b0: f640 3b3e 3585 cdbe b38b ed3d b080 64be
000003c0: 158c 15bd 0a57 00be 645f 6fbe 0a10 82be
000003d0: a943 58bd d287 f4bd 3031 3e3d 8299 373e
000003e0: 048f 4e3d cdd6 813b cca4 05bf 2cb9 9bbe
000003f0: f1cd 133d 5734 82bd 67ed fb3c 6f1f 26be
-0.074942544 0.18213077 -0.050598647 -0.38283607 -0.08664369 0.25171942 0.10332576 0.29993838
-0.16946237 -0.081216685 0.3649826 -0.12706205 0.07108981 0.1729496 0.07780789 -0.046461884
-0.23249061 0.3129098 -0.058370702 0.33310735 0.007061264 0.101158425 0.20341346 0.10542495
-0.048275106 0.13173296 0.012372234 -0.22489467 -0.33725896 -0.31595597 0.3450222 0.03332326
0.05075489 -0.15896894 -0.19280165 0.0013745442 0.06543155 -0.20854142 -0.039389934 -0.13283701
-0.17489591 -0.34288767 0.32974097 0.57311 -0.30273798 -0.031806197 0.11628 0.16958427
-0.18645185 0.16257234 0.34492543 0.11318935 -0.054186333 0.18115716 -0.061385065 0.23350047
0.2187911 -0.08344724 0.13987352 -0.22833985 -0.16987295 -0.11515897 0.13901083 0.30119422
-0.17612505 0.0053844154 -0.22971976 -0.18757205 0.16536233 -0.3335356 0.062130697 0.13099968
0.21947846 0.082606435 -0.3371564 -0.14989641 0.3374198 -0.21627066 -0.040798835 -0.08840624
0.3057835 -0.22697125 0.05401917 -0.18547615 0.16404438 0.020405864 0.15424587 0.35547617
0.06599035 -0.13387227 -0.29922223 -0.24585523 0.05663732 0.37555075 0.6006182 0.17063542
-0.08143619 0.12316557 -0.07037515 -0.038627874 0.21307462 -0.23064192 -0.041053455 0.071439825
0.0012527409 -0.20777325 0.11096221 0.06723764 -0.42871103 0.1314912 0.13143344 -0.13942526
0.09671371 -0.21758719 0.0072449693 0.06803086 -0.17153159 -0.150216 -0.066378795 0.14324509
-0.053887308 -0.16122894 -0.06433952 -0.23175627 0.10941613 0.017473103 -0.07761107 -0.32997626
-0.151054 0.1708388 0.14932984 -0.15038115 0.061661273 0.1537852 0.086030774 -0.31874058
0.04401756 0.16088893 0.14244866 0.061257474 -0.33953455 -0.022586448 -0.16408853 -0.06548507
0.065335646 0.20842311 -0.0053045135 -0.05035361 0.06034513 0.063571006 -0.06291825 -0.02065908
0.22379565 0.33975503 -0.36627525 -0.1937336 -0.36493167 0.006190734 -0.19192314 -0.102880076
0.06558017 -0.19229381 0.026751757 0.27699426 0.14996731 0.4793421 0.65297383 -0.2215731
-0.15913858 -0.017326016 -0.069799095 0.04008811 0.28459322 0.06662031 -0.014553731 -0.025243869
0.16150714 -0.0064285123 -0.16704293 0.1335597 -0.15778165 0.14056975 -0.37032163 -0.08660639
0.26457402 0.41084912 0.010411007 -0.2974805 0.0096402345 0.33391058 -0.41261947 0.18966244
0.22943212 0.21832226 -0.020632504 -0.15294814 0.13236603 -0.39517507 0.015912127 0.114177756
0.062937625 0.29549006 0.21448132 -0.09334523 0.04770349 0.13361365 0.07109038 -0.14050844
0.0161293 0.05061511 0.17392758 0.06627587 0.13463774 -0.16637656 0.10706814 -0.1286056
-0.12173061 -0.045975327 -0.087286435 -0.059383918 -0.075864784 0.2251738 0.10167158 0.13539949
-0.27541417 -0.01316496 -0.15218829 -0.09095814 0.04116598 -0.0016368554 -0.0358249 -0.19598766
-0.05769462 -0.23016194 0.109707914 -0.41124797 0.182865 -0.4014069 0.11598911 -0.22314715
-0.036510546 -0.12533203 -0.23376232 -0.25402862 -0.0527989 -0.11939968 0.046433628 0.17929652
0.05042936 0.003962374 -0.52204585 -0.30414712 0.036085073 -0.06357639 0.03075285 -0.16222928
