models/fsrcnn/track1/track1_x4__epoch_2.pth (torch, 58227 bytes, 22 tensors)

first_part.0.weight f4 [56, 1, 5, 5]
0	0xbce567c2	-0.028003577
1	0x3d5a6826	0.05332198
2	0x3cfa9a18	0.030591056
3	0x3be80b48	0.007081423
4	0xbbbe4a1e	-0.0058071753
5	0xbca863ca	-0.020555396
6	0x3cb6b82f	0.022304622
7	0xbceea7fa	-0.029132832
8	0xbd04a168	-0.03238049
9	0x3c119901	0.008886577
10	0x3d52ca68	0.05146256
11	0xbcbc62ea	-0.022996385
12	0x3d0771da	0.03306756
13	0x3c85bbb6	0.01632486
14	0x3c9aaf5b	0.018882444
15	0x3d381da0	0.044950128
16	0xbd0c2d1f	-0.03422272
17	0xbc7e7ce1	-0.015532703
18	0x3d8d0864	0.06886366
19	0xbbe88941	-0.00709644
20	0xbc9602a0	-0.018311799
21	0x3c21df20	0.009879857
22	0x3d5ede73	0.054411363
23	0x3b18ff26	0.002334544
24	0xbd19eb85	-0.037578125
25	0xbd0d8c54	-0.034557655
26	0xbd262d5b	-0.040570598
27	0xbd4c2f6d	-0.049849916
28	0x3c47e898	0.012201451
29	0x3d39388d	0.045219947
30	0xbd500744	-0.05078818
31	0x3d3fdbd0	0.04684049
32	0xbd16e5e4	-0.036840335
33	0xbc9c538c	-0.019082807
34	0x3b74b50a	0.0037339353
35	0xbcdc5c1f	-0.026899396
36	0x3c88bee8	0.016692594
37	0x3b9d0313	0.0047916262
38	0x3b8c73c8	0.004286263
39	0xbd880b7e	-0.06642817
40	0xbc5521cd	-0.013008547
41	0x3d0feb64	0.035136595
42	0xbb452ce0	-0.0030086562
43	0x3b1eae1b	0.0024212662
44	0xbc6e41c5	-0.014542048
45	0x3d341c25	0.043972153
46	0xbb956853	-0.0045595556
47	0xbdb1e573	-0.08686342
48	0x3d492d90	0.049115717
49	0x39c15bf7	0.00036880348
50	0xbcacdc26	-0.021101069
51	0xbd4e94a2	-0.050434716
52	0xbc89cc89	-0.016821163
53	0xbcae96d7	-0.02131216
54	0x3c86fbd6	0.016477507
55	0xbafb18ed	-0.0019157209
56	0x3b3c3b93	0.0028722032
57	0xbc955a63	-0.018231576
58	0xbcd77c9f	-0.026304541
59	0xbd9b3429	-0.07578308
60	0xbd1af5b8	-0.037831992
61	0xbda0dccc	-0.07854614
62	0xbd5a0cac	-0.05323474
63	0xbc438dc1	-0.011935652
64	0xbd69cfe0	-0.05708301
65	0x3d3dad8a	0.046308078
66	0xbd6ddb35	-0.05807038
67	0xbd80dfb6	-0.062926695
68	0xbce240ad	-0.02761873
69	0xbc8a2920	-0.016865313
70	0xbd64ffa7	-0.05590787
71	0x3d49c100	0.049256325
72	0x3d2f19a9	0.04274908
73	0xbd28b61d	-0.0411893
74	0xbcb68fe7	-0.022285415
75	0x3d06c747	0.03290489
76	0xbbb1de3f	-0.005428105
77	0x3d452222	0.048128255
78	0x3cbf0ca1	0.023321452
79	0xbcc16902	-0.023609642
80	0xbd3c6d35	-0.046002585
81	0xbc4f2d1a	-0.01264503
82	0x3c893b11	0.016751798
83	0xbd4f074a	-0.05054406
84	0xbb779573	-0.0037778288
85	0x3c3bdac8	0.011465736
86	0x3db4a9b5	0.088214315
87	0xbd20b464	-0.039234534
88	0xbd893336	-0.06699221
89	0x3cd1e921	0.02562386
90	0x3cda0cfe	0.026617523
91	0xbd3834d3	-0.044972252
92	0xbd589260	-0.05287397
93	0xbbd0bea8	-0.0063703842
94	0xbb10416c	-0.002201165
95	0x3d120937	0.03565332
96	0xbd929a03	-0.07158282
97	0xbc9c9b68	-0.019117072
98	0xbd3159a3	-0.043298375
99	0xbdd3a4b2	-0.103341475
100	0x3b95aa8c	0.00456745
101	0xbd1fd466	-0.03902092
102	0xbd13a49d	-0.03604566
103	0xbdb63600	-0.088970184
104	0xbc8b2c12	-0.016988788
105	0xbc7b8830	-0.015352294
106	0x3d977697	0.07395666
107	0x3b1a2fcf	0.0023527031
108	0x3d22f757	0.039786663
109	0xbc011992	-0.007879632
110	0x3c150652	0.009095745
111	0xbd9f3f94	-0.077757984
112	0xbcf7fc01	-0.030271532
113	0x3aa55f4c	0.0012616902
114	0x3c9fb441	0.019495131
115	0xbc115319	-0.00886991
116	0xbda4c8c3	-0.08046105
117	0xbd4d7a23	-0.050165307
118	0xbccb3e7a	-0.024810065
119	0x3d30a5e3	0.043126952
120	0xbd4f8b56	-0.05066999
121	0xbc8aec27	-0.01695831
122	0x3d5ec6bc	0.054388747
123	0xbd956eb7	-0.07296508
124	0x3c931685	0.017955074
125	0xbd8faa8d	-0.07014952
126	0xbd5240a8	-0.051331192
127	0x3d331e57	0.043730106
128	0x3cb0ebb9	0.021596776
129	0x3c507319	0.012722754
130	0x3cede758	0.029040977
131	0xbd311ef7	-0.04324242
132	0xbc2185cb	-0.009858559
133	0xbd7436ce	-0.05962258
134	0xb8d97365	-0.0001036886
135	0xbd48b259	-0.04899821
136	0xbca74db8	-0.020422801
137	0x3cee2c7b	0.029073944
138	0x3ce34ec1	0.027747514
139	0xbd115829	-0.035484467
140	0x3d61fc1f	0.055172082
141	0xbd79f06a	-0.061020292
142	0x3ceb9345	0.028756747
143	0xbc928f1c	-0.017890505
144	0xbc1c5c99	-0.009543561
145	0x3d519fac	0.051177666
146	0xbbd71666	-0.0065639494
147	0xbbe6122e	-0.00702121
148	0xbc5da2dc	-0.013527598
149	0xbce0b1d4	-0.027428545
150	0xbdbd0ac3	-0.09230568
151	0x3c9956be	0.01871812
152	0x3bcc0574	0.006226236
153	0x3d71e8c1	0.059059862
154	0xbcaa88ab	-0.020817121
155	0xbc395635	-0.011312057
156	0x3ca16296	0.01970033
157	0x3cdee58e	0.02720907
158	0xbd4134c3	-0.047169458
159	0xbd6c4bf2	-0.057689615
160	0xbc3d83fe	-0.011567114
161	0xbd678f04	-0.056532875
162	0xbc0a9da5	-0.008460437
163	0xbc4d3fd1	-0.012527422
164	0x3d0e3175	0.034715135
165	0xbda76c3b	-0.0817494
166	0x3c80f2ef	0.01574084
167	0xbceadac8	-0.028668776
168	0x3c4cb233	0.012493658
169	0xbcac71f5	-0.021050433
170	0xbd821fe0	-0.06353736
171	0x3c6358a0	0.01387611
172	0xbb4b4923	-0.0031018935
173	0xbbc37464	-0.0059648026
174	0xbd963de0	-0.073360205
175	0x3d252d30	0.040326297
176	0x3c2d42de	0.010575024
177	0x3cc39dc2	0.023878936
178	0xbd6d7987	-0.057977226
179	0xbcd2efca	-0.025749106
180	0x3c1a607c	0.009422418
181	0xbd40b7ed	-0.047050405
182	0xbd168770	-0.036750257
183	0x3ca9c029	0.020721512
184	0x3d6e2a6c	0.058145925
185	0x3cc059fb	0.023480406
186	0xbcaf28d6	-0.021381777
187	0x3e1de584	0.15419585
188	0xbc1785f4	-0.0092482455
189	0x3c94188d	0.018078113
190	0xbc217e70	-0.009856805
191	0xbd991ae8	-0.07475835
192	0x3dd07db9	0.1018023
193	0xbdb0768a	-0.086163595
194	0x3d9b2d79	0.075770326
195	0x3dc5b96c	0.09654507
196	0xbb9bc22b	-0.0047533712
197	0xbb308bb7	-0.0026938745
198	0x3b7040a5	0.0036659625
199	0x3dc29e53	0.09502854
200	0x3d21a4f7	0.039463963
201	0x3d80e054	0.06292787
202	0xbc847369	-0.016168313
203	0x3c223da9	0.009902396
204	0x3ceb7095	0.028740207
205	0x3ccbdce1	0.024885597
206	0x3cf99640	0.030467153
207	0xbb8203c8	-0.003967736
208	0x3c5a2dba	0.013316566
209	0xbbb3ba8c	-0.0054848846
210	0x3b30e914	0.0026994394
211	0xbc1dd1a4	-0.009632502
212	0x3d5a712e	0.053330593
213	0x3c524c9f	0.012835651
214	0xbcb0eab0	-0.021596283
215	0xbbe82cd2	-0.007085421
216	0x3c8e6eae	0.01738676
217	0x3d104378	0.035220593
218	0xbca44310	-0.02005151
219	0xbd1ba722	-0.038001187
220	0x3d21605c	0.039398536
221	0x3ccd8636	0.02508841
222	0x3db41f62	0.08795048
223	0xbd0e052b	-0.034672897
224	0x3c8253aa	0.015909035
225	0x3dafe3a8	0.08588344
226	0xbd22cde2	-0.039747126
227	0xbd6cc5cf	-0.057805832
228	0x3d466ecb	0.048445504
229	0xbd71e8f2	-0.059060045
230	0xbc65ba30	-0.014021441
231	0xb992b46e	-0.0002798172
232	0x3ce16de5	0.027518222
233	0xbd456d44	-0.048199907
234	0x3c432044	0.011909548
235	0x3be9f30b	0.0071395687
236	0xbc88eddf	-0.016714988
237	0x3d936101	0.071962364
238	0x3d414244	0.047182336
239	0x3d3250be	0.043534033
240	0x3d693e6d	0.0569443
241	0xbba6ac5f	-0.005086466
242	0x3c524248	0.0128331855
243	0xbd307c3d	-0.043087233
244	0x3d47b7e0	0.04875934
245	0x3d1fa479	0.038975213
246	0x3d25ef35	0.04051133
247	0x3cbfb03c	0.023399465
248	0x3d79e3e1	0.061008338
249	0x3d406614	0.04697235
250	0xbcbefae3	-0.023312991
251	0x3d1375a7	0.036000874
252	0xbd39f57a	-0.04540012
253	0x3bbaa48f	0.0056958864
254	0xbd366577	-0.04453036
255	0x3c3d4f8c	0.01155461

first_part.0.bias f4 [56]
0	0xbb032e04	-0.002001644
1	0xbb50f261	-0.003188275
2	0xb980132f	-0.00024428355
3	0xbb673317	-0.0035278255
4	0x3b88354b	0.0041567436
5	0xbbc0f8c7	-0.0058890316
6	0xbaf80d1b	-0.0018924804
7	0xba3010cb	-0.00067163695
8	0xbb949150	-0.004533924
9	0xbb3c7883	-0.0028758354
10	0xbb716856	-0.003683587
11	0x3aa106ca	0.0012285348
12	0x3c3c9176	0.01150929
13	0x3b99ab98	0.004689645
14	0x3cba8aae	0.022771206
15	0xbbc24bca	-0.005929445
16	0x3bfce3a9	0.007717569
17	0xbc08b036	-0.008342793
18	0x3bf644d5	0.0075155296
19	0xbc853d47	-0.01626457
20	0x3a00dbe3	0.0004915578
21	0xbb1f8bc9	-0.0024344793
22	0xbb7008d2	-0.003662635
23	0xbbd770c4	-0.006574722
24	0xbc101c95	-0.008795877
25	0xb9c2df9c	-0.00037169165
26	0xbb87d5ee	-0.0041453755
27	0x3b4fd235	0.0031710987
28	0xbc576f40	-0.013149083
29	0x3b91d727	0.004450697
30	0x3ad64989	0.001634882
31	0xbc1554d0	-0.009114459
32	0xba52158c	-0.0008014075
33	0xbb23d5b0	-0.0024999194
34	0x3b81b350	0.0039581433
35	0x3c24eb66	0.010065889
36	0x38db2c26	0.00010450957
37	0x3b5525bd	0.0032523714
38	0xbb7767d4	-0.0037751095
39	0x3c8c452a	0.017122824
40	0x3d7ad716	0.06124028
41	0xbc1e24c0	-0.009652317
42	0x3b57045e	0.0032809
43	0xbd094a8c	-0.03351836
44	0xba7c67d9	-0.00096285116
45	0x3b624564	0.0034526223
46	0xbc34f24c	-0.011044096
47	0xbaaa28fd	-0.0012982186
48	0xbdc869a2	-0.09785773
49	0x3c71a95c	0.014749851
50	0xbc2f26fd	-0.010690448
51	0x3c8a4ab2	0.01688132
52	0xbba04353	-0.004890838
53	0x3b70ab6b	0.0036723267
54	0xbbbbdba2	-0.0057329694
55	0x3cf42069	0.02980061

first_part.1.weight f4 [56]
0	0x3e78f472	0.24311998
1	0x3e854bfa	0.26034528
2	0x3e849adc	0.25899398
3	0x3e86bb4f	0.2631478
4	0x3e825acb	0.25459895
5	0x3e8637b1	0.26214364
6	0x3e81a8de	0.25324148
7	0x3e93e0b5	0.28882375
8	0x3ebbc6fc	0.3667525
9	0x3e8e3105	0.27771774
10	0x3f5cff5b	0.8632714
11	0x3e803c04	0.25045788
12	0x3f118023	0.56836146
13	0x3e82136b	0.2540544
14	0x3e72a8e0	0.23697233
15	0x3e06c621	0.13161518
16	0x3ea84947	0.32868406
17	0x3e8f1825	0.27948108
18	0x3e816289	0.2527049
19	0x3e8c2b70	0.2737689
20	0x3e832096	0.256108
21	0x3f797531	0.97444445
22	0x3e81691a	0.252755
23	0x3e7b5de2	0.24547532
24	0x3d25ad3b	0.04044841
25	0x3e7fd563	0.24983744
26	0x3ec4334c	0.38320386
27	0x3e81cc55	0.25351205
28	0x3e9270ce	0.28601688
29	0x3e8b73b1	0.27236703
30	0x3e7ea3be	0.2486715
31	0x3e5e8d77	0.21733652
32	0x3f0e1685	0.5550311
33	0x3e913b3e	0.2836551
34	0x3e7f0ad8	0.2490648
35	0x3e81946a	0.25308543
36	0x3e8a1147	0.26966307
37	0x3e2a854c	0.16652411
38	0x3e88bb21	0.26705268
39	0x3e80a75f	0.25127694
40	0x3ee8da49	0.45479038
41	0x3e892f35	0.2679383
42	0x3e82e496	0.25565022
43	0x3eaae2fa	0.33376294
44	0x3f0c0dd2	0.5470859
45	0x3e778c7b	0.24174683
46	0x3f5b4176	0.8564676
47	0x3e7e9d6d	0.2486474
48	0x3f02db2e	0.5111569
49	0x3e78f556	0.24312338
50	0x3f685b81	0.90764624
51	0x3e7edd3b	0.2488908
52	0x3e61e2a6	0.22059116
53	0x3e5ef89b	0.21774523
54	0x3e8931db	0.2679585
55	0x3e84626a	0.25856334

mid_part.0.weight f4 [12, 56, 1, 1]
0	0x3f016ccb	0.5055663
1	0x3e5c10d5	0.21490796
2	0xbf42730a	-0.75956786
3	0x3e7c283a	0.2462472
4	0x3ec92a94	0.39290297
5	0x3ea2dfce	0.31811374
6	0xbdaa459e	-0.0831406
7	0x3f014e88	0.50510454
8	0x3e29e68b	0.16591851
9	0xbf9718c0	-1.1804428
10	0x3f00f104	0.5036776
11	0xbd93dd99	-0.07220001
12	0xbf0b4498	-0.5440154
13	0x3f87e195	1.0615717
14	0x3ed84376	0.4223897
15	0x3ec49456	0.3839442
16	0x3dbbeb13	0.09175696
17	0x3d92c61b	0.07166692
18	0x3f0d2c17	0.551454
19	0xbe7454e6	-0.23860511
20	0x3c25aac0	0.010111511
21	0x3f345a3b	0.7045018
22	0xbebbc123	-0.3667079
23	0xbeec4d03	-0.46152505
24	0xbd94a515	-0.072580494
25	0xbd9aee61	-0.075649984
26	0x3ed2c788	0.41167855
27	0xbf38ba38	-0.7215915
28	0x3e8807ac	0.26568353
29	0x3ebc3939	0.36762407
30	0x3d442541	0.04788709
31	0x3eb8f985	0.36127868
32	0x3f09e10e	0.5385903
33	0x3e0b3850	0.135957
34	0xbf13e95a	-0.5777794
35	0xbf2f9013	-0.68579215
36	0xbd514f87	-0.051101234
37	0xbd49a984	-0.04923393
38	0xbe5e906d	-0.21734782
39	0x3ebd0621	0.36918738
40	0xbda7c4eb	-0.08191856
41	0x3f0066d0	0.5015688
42	0xbec74080	-0.38916397
43	0xbe0085ed	-0.12551089
44	0xbe03bba4	-0.12864548
45	0xbe1ac22a	-0.1511313
46	0xbdf70237	-0.12060969
47	0xbf1b76e2	-0.60728276
48	0xbe252167	-0.16126023
49	0xbf161eb1	-0.5864058
50	0xbdd3a8f0	-0.10334957
51	0xbe0fa1cc	-0.14026564
52	0xbf2c6d33	-0.67354125
53	0x3e0a0383	0.13477902
54	0xbe981acf	-0.29707953
55	0xbe2c7604	-0.16841894
56	0xbeb9687f	-0.36212537
57	0xbf76b783	-0.96373767
58	0x3f0262d0	0.50932026
59	0x3ca7ea30	0.020497411
60	0x3cc27a95	0.023740092
61	0x3f520b24	0.8204825
62	0x3f3e8cf4	0.7443383
63	0x3f03750e	0.51350486
64	0x3c4001b9	0.011719161
65	0xbdc5fc20	-0.0966723
66	0xbd8b8aa3	-0.06813552
67	0xbefb9020	-0.49133396
68	0x3e1e90cf	0.15484928
69	0x3e42bc67	0.19017182
70	0xbf228aee	-0.6349324
71	0x3dee8d98	0.116481006
72	0xbf0f64b5	-0.5601304
73	0x3e8246e2	0.25444704
74	0x3f0f9fcb	0.561032
75	0xbdd25ba1	-0.10271383
76	0x3f5d8b41	0.8654061
77	0xbe87c5c6	-0.26518077
78	0x3dd35dbb	0.10320612
79	0xbebcc5bf	-0.36869618
80	0xbec272c9	-0.379782
81	0xbdb617c0	-0.08891249
82	0x3d862984	0.06550887
83	0xbf09241f	-0.5357074
84	0x3f15c151	0.584981
85	0x3f4dd49b	0.80402535
86	0xbe26307d	-0.16229434
87	0x3ed1320a	0.4085849
88	0x3e212036	0.15734944
89	0xbecfc87b	-0.40582642
90	0xbdf3754e	-0.118876085
91	0xbe1d717e	-0.15375325
92	0x3e638c47	0.2222148
93	0x3e582c17	0.21110569
94	0xbf2507f9	-0.6446529
95	0xbe8cf719	-0.2753227
96	0x3e631069	0.22174229
97	0x3f364569	0.7119966
98	0xbe8b68fe	-0.2722854
99	0x3f5a8e71	0.853736
100	0x3f3ac466	0.7295593
101	0x3ddf6de6	0.10909633
102	0x3ee4f418	0.4471748
103	0x3da9981e	0.08280967
104	0x3ea9e764	0.3318435
105	0xbe0d17a3	-0.13778548
106	0x3f559328	0.8342767
107	0xbefeb417	-0.49746773
108	0x3c6853ce	0.014180137
109	0xbe4ed034	-0.2019661
110	0x3f2b5cd8	0.66938543
111	0xbee73cf4	-0.4516369
112	0x3e8e8514	0.27835906
113	0xbf1d2846	-0.6138958
114	0xbe89f1d0	-0.269423
115	0xbecc2de1	-0.39878753
116	0xbda40e0d	-0.080104925
117	0x3f1bed4a	0.6090895
118	0xbdf958c4	-0.12175134
119	0xbd564c3b	-0.052318793
120	0x3f26e8dc	0.65199065
121	0x3f4ab0e4	0.79176164
122	0x3dd05cb1	0.101739295
123	0x3f51cfcd	0.81957704
124	0xbedb11a6	-0.42786902
125	0xbe1a990d	-0.15097447
126	0xbdd817b8	-0.10551399
127	0x3ed1ba59	0.40962484
128	0xbc251749	-0.010076352
129	0xbe1b7149	-0.15179934
130	0x3ef4edb1	0.47837594
131	0x3ebd717a	0.37000638
132	0xbf09946f	-0.53742117
133	0x3e6e048e	0.23243925
134	0xbe061879	-0.13095273
135	0xbe9c5878	-0.30536246
136	0x3ed31ef3	0.4123455
137	0xbeab97dc	-0.33514297
138	0xbe2182b7	-0.1577252
139	0xbe831a4b	-0.25605997
140	0xbefb13ec	-0.49038637
141	0x3edf2a99	0.43587187
142	0x3c97a1fc	0.018509857
143	0xbe1d5675	-0.15365012
144	0x3efc009f	0.49219224
145	0x3f33bd61	0.70210844
146	0x3f2387df	0.638792
147	0x3ec38389	0.3818629
148	0x3ea59029	0.32336548
149	0x3e9f9b9f	0.31173417
150	0xbeef66ef	-0.4675822
151	0x3de4e9bf	0.11177396
152	0xbc9e7ee1	-0.01934761
153	0x3e029550	0.1275227
154	0xbe5a00ec	-0.21289414
155	0xbbb09eb1	-0.0053900112
156	0x3e0e8f72	0.13921908
157	0x3ed49e81	0.4152718
158	0x3e7669be	0.24063775
159	0x3ef812a0	0.4845171
160	0xbc568821	-0.013093979
161	0x3f1a6149	0.60304695
162	0x3e5fc6f8	0.21853244
163	0xbf120ea8	-0.57053614
164	0x3ca45ac9	0.020062821
165	0x3edeace2	0.43491274
166	0xbeb3f3ba	-0.35146886
167	0xbea3af85	-0.31969848
168	0x3d61fef3	0.05517478
169	0x3e8e95fd	0.27848807
170	0xbe09b602	-0.13448337
171	0x3e206f4a	0.15667453
172	0x3e84a02b	0.25903448
173	0xbd1cc239	-0.038271163
174	0xbe14dc1d	-0.14537092
175	0x3e971704	0.29509747
176	0xbf1344d4	-0.575269
177	0xbec729c0	-0.3889904
178	0x3f0c98c1	0.54920584
179	0xbeb5257d	-0.35380164
180	0x3eb58b82	0.35458
181	0xbef7d920	-0.4840784
182	0x3f1d46e8	0.6143632
183	0xbd9967d0	-0.07490504
184	0x3e07896a	0.13236013
185	0x3e6d499d	0.23172612
186	0xbbd066ff	-0.0063599343
187	0x3f5b1de8	0.8559251
188	0xbef1bd30	-0.4721465
189	0x3f1eee3b	0.6208226
190	0xbeabebe5	-0.3357841
191	0xbeb4eeac	-0.35338342
192	0x3eeffa18	0.46870494
193	0x3d8a61a6	0.06756906
194	0xbee66516	-0.44998997
195	0x3f753245	0.9577983
196	0x3e0ba1b3	0.13635902
197	0x3ed859dd	0.4225606
198	0xbd1aa404	-0.037754074
199	0xbdb1c188	-0.08679491
200	0xbf05efe2	-0.5231916
201	0x3e547d94	0.20751029
202	0xbe1fc4a9	-0.15602364
203	0x3eed8931	0.4639373
204	0x3e020a64	0.12699276
205	0xbe00df4a	-0.12585178
206	0xbd083f61	-0.033263568
207	0x3e50b33b	0.20380871
208	0xbd9b2a21	-0.07576395
209	0x3f8836c4	1.0641713
210	0x3f459d16	0.7719282
211	0x3f2ed4f8	0.68293715
212	0xbf777448	-0.96661806
213	0xbe6b7564	-0.22994
214	0x3eefa5d1	0.46806195
215	0xbdc5cf56	-0.09658687
216	0x3ec64f1c	0.3873223
217	0x3f10bd3c	0.5653875
218	0xbe8d48d8	-0.27594638
219	0xbecad742	-0.39617354
220	0xbe8b43cf	-0.2720017
221	0x3eeaffbf	0.45898244
222	0xbe4f2bc2	-0.20231536
223	0x3f012350	0.5044451
224	0xbe89f20c	-0.2694248
225	0x3dbe818c	0.09302053
226	0x3df3d94b	0.1190668
227	0x3d9c5aa3	0.07634475
228	0xbe39c81d	-0.18142743
229	0xbec2d65f	-0.38054177
230	0xbe39f7dc	-0.18160957
231	0x3f01dc81	0.5072709
232	0x3ef3e8d2	0.47638565
233	0xbe941562	-0.28922564
234	0xbe24837d	-0.16065784
235	0x3d0ac08e	0.03387504
236	0xbfb117df	-1.383541
237	0x3f4a5b8b	0.79045933
238	0x3f4b22ed	0.7935017
239	0xbd6f1551	-0.05836994
240	0x3eab28c9	0.33429554
241	0xbe3ad28e	-0.18244383
242	0x3eb38f36	0.350702
243	0xbec32509	-0.38114193
244	0x3e65901b	0.22418253
245	0x3e85e002	0.26147467
246	0x3ebe898f	0.37214324
247	0x3d545e5c	0.0518478
248	0xbddd6c44	-0.10811666
249	0xbddd87e0	-0.10816932
250	0x3f046547	0.51717037
251	0x3e7ba05d	0.24572892
252	0xbf2ea6e7	-0.6822342
253	0xbec74561	-0.3892012
254	0x3dafde28	0.08587295
255	0x3e5e5f4f	0.21716045

mid_part.0.bias f4 [12]
0	0x3afef6cd	0.0019452214
1	0xbd156938	-0.036477298
2	0xbad54fd8	-0.0016274406
3	0xbba1ea4a	-0.0049412595
4	0x3d6b09d7	0.05738243
5	0x3ba9f9c1	0.0051872437
6	0x3ccd3c0f	0.025053052
7	0x3cc23036	0.02370463
8	0xbc6a9e94	-0.0143200345
9	0x390f2494	0.00013651169
10	0xbb29f568	-0.0025933627
11	0x3cd50029	0.026001053

mid_part.1.weight f4 [12]
0	0x3e80dd1a	0.25168687
1	0x3ebfd7e0	0.37469387
2	0x3e7feca4	0.24992615
3	0x3e80e36e	0.25173515
4	0x3ea12e28	0.31480527
5	0x3e752ac5	0.23942097
6	0x3e72e20f	0.23719047
7	0x3eee5483	0.46548852
8	0x3e960879	0.2930334
9	0x3ed30634	0.4121567
10	0x3e75bcd5	0.23997815
11	0x3e8c737f	0.27431867

mid_part.2.weight f4 [12, 12, 3, 3]
0	0x3e7b6fd9	0.24554385
1	0xbc821101	-0.015877249
2	0x3c62ff74	0.01385485
3	0xbe827881	-0.25482562
4	0x3dd63557	0.104593925
5	0xbdef4871	-0.11683739
6	0xbd957ca7	-0.07299166
7	0xbde26a6b	-0.11055454
8	0x3d91b6c6	0.071149394
9	0x3e38a642	0.18032172
10	0xbe5f21e3	-0.2179027
11	0x3e560230	0.20899272
12	0x3d26b289	0.04069761
13	0xbdfbfe9c	-0.12304422
14	0xbdf9bf18	-0.12194651
15	0xbd9eda8b	-0.077565275
16	0xbe235503	-0.15950398
17	0x3d156415	0.0364724
18	0x3dba67a6	0.091018006
19	0x3e22451d	0.15846677
20	0x3d71f334	0.059069827
21	0x3e24e244	0.16101938
22	0x3be6ffcf	0.0070495377
23	0xbcd986da	-0.02655356
24	0x3e85e825	0.26153675
25	0x3d812073	0.06305017
26	0xbd93739d	-0.07199786
27	0xbb5c9117	-0.0033655816
28	0xbd95771b	-0.07298108
29	0x3de57e9b	0.11205789
30	0x3e132a1a	0.14371529
31	0xbeaa44ab	-0.33255515
32	0xbe826224	-0.254655
33	0xbe0db1ac	-0.13837308
34	0xbcd6b4c1	-0.026209237
35	0x3e188c45	0.14897259
36	0xbe382e17	-0.17986332
37	0xbde414c2	-0.11136772
38	0xbdba89f8	-0.09108347
39	0xbc83b959	-0.016079592
40	0x3e779e80	0.24181557
41	0xbe6db330	-0.23212886
42	0x3ce60359	0.028077768
43	0xbc2f019e	-0.010681538
44	0x3d2ab73d	0.041678656
45	0x3e5e8d49	0.21733584
46	0x3d37964c	0.04482107
47	0x3e5baa7e	0.21451756
48	0xbd516c28	-0.051128536
49	0xbdd8b975	-0.10582248
50	0x3da08eee	0.07839762
51	0xbdbc6434	-0.091988
52	0x3d8ca2fa	0.06867023
53	0xbdca8be8	-0.09889966
54	0xbe30f9e3	-0.17282824
55	0x3b705329	0.003667066
56	0x3b012518	0.0019705947
57	0x3e5f7d69	0.21825184
58	0xbda86e0e	-0.08224116
59	0x3cb673f7	0.022272093
60	0xbdc06d4f	-0.09395849
61	0x3de6941b	0.112587176
62	0x3e20d6ab	0.1570689
63	0x3e093c7b	0.13401978
64	0xbd8877b0	-0.066634536
65	0x3e770f7f	0.24127005
66	0x3c0aef9d	0.00847998
67	0x3c97a8dd	0.018513137
68	0xbba431a1	-0.005010799
69	0x3baa3b8a	0.005195086
70	0xbe6f3bd1	-0.23362662
71	0xbe4f120c	-0.20221728
72	0xbc907b34	-0.017636873
73	0xbc8c0725	-0.01709325
74	0x3d2012b6	0.039080344
75	0xbe4427f0	-0.1915586
76	0x3e92a8a5	0.2864429
77	0xbd923d41	-0.071405895
78	0xbd826cc5	-0.063684024
79	0xbd7b0388	-0.061282665
80	0x3cf2bb6b	0.029630383
81	0xbe32fb46	-0.17478666
82	0x3cb1fb6f	0.021726338
83	0x3d434625	0.047674317
84	0x3d458425	0.048221726
85	0x3dec383e	0.11534165
86	0x3e0cfc42	0.13768104
87	0xbde3bf74	-0.11120501
88	0xbd0ff652	-0.03514702
89	0x3cdc5bf5	0.026899317
90	0x3d90862c	0.07056841
91	0xbaa18d31	-0.0012325404
92	0x3e716e50	0.23577237
93	0xbdee3c98	-0.11632651
94	0xbd4e8952	-0.050423928
95	0xbd8d7004	-0.06906131
96	0x3d2181af	0.039430317
97	0x3dd90f62	0.10598637
98	0x3d0a834e	0.03381663
99	0x3d250e6a	0.04029695
100	0xbd922b9e	-0.071372256
101	0xbdcf15fd	-0.10111616
102	0xbd05dd81	-0.032681946
103	0x3db515cb	0.08842047
104	0x3cbd9b74	0.023145415
105	0x3d9c3127	0.076265626
106	0x3d2e7aa7	0.04259744
107	0x3ba046a8	0.0048912354
108	0x3b996be7	0.0046820524
109	0xbd207b76	-0.03918024
110	0x3bc10398	0.005890321
111	0x3c30ee2f	0.010798975
112	0x3d84904b	0.06472834
113	0xbe7bc8db	-0.24588339
114	0x3e5aab03	0.21354298
115	0x3d8fb557	0.0701701
116	0x3e0d9856	0.13827643
117	0x3e17c626	0.14821681
118	0x3dc9cc44	0.09853414
119	0xba19eb9b	-0.0005871595
120	0x3e6d57e3	0.23178057
121	0x3df98278	0.12183088
122	0x3c9cf958	0.019161865
123	0x3d6f0fa7	0.058364537
124	0xbddeb355	-0.108740486
125	0x3e1e6ee3	0.15471987
126	0xbceda1f5	-0.029007891
127	0xbea652b6	-0.32484978
128	0xbe2a181c	-0.1661076
129	0x3cab1a12	0.020886455
130	0x3d706b91	0.058696333
131	0xbe98b1ad	-0.29823056
132	0xbde1bad3	-0.11021962
133	0x3dbb693c	0.09150931
134	0xbdca66ae	-0.09882866
135	0x3d0b9d90	0.03408581
136	0x3e842e9b	0.25816807
137	0xbdd62005	-0.10455326
138	0xbcb374a9	-0.021906214
139	0xbd9ec21c	-0.07751867
140	0xbcc1d492	-0.023660932
141	0xbdd29eff	-0.10284232
142	0x3ea858bc	0.328802
143	0xbdce2393	-0.10065379
144	0x3e6db93b	0.23215191
145	0xbe277f8a	-0.16357246
146	0xbd79c593	-0.060979437
147	0xbe3b78dd	-0.18307824
148	0xbe2213a6	-0.15827808
149	0x3cc6955c	0.024241142
150	0xbda352d6	-0.07974784
151	0xbdd2f89e	-0.10301326
152	0x3bb31777	0.0054654437
153	0xbdef8716	-0.116956875
154	0x3d27b9e9	0.040948782
155	0xbe87c99d	-0.26521006
156	0x3c37600b	0.011192332
157	0x3dd0197e	0.10161112
158	0x3dbd36c5	0.09238962
159	0x3e0dc947	0.13846312
160	0xbd8619c5	-0.06547884
161	0xbd213bbe	-0.039363615
162	0x3e4bf8b5	0.19919093
163	0xbe5a90c9	-0.21344294
164	0xbe2a353f	-0.16621874
165	0xbc817ced	-0.01580664
166	0x3e5a5da5	0.21324785
167	0xbd88903a	-0.06668134
168	0xbea6121c	-0.3243569
169	0xbcc92b9d	-0.02455693
170	0x3dd0b6cc	0.10191116
171	0xbe35aa70	-0.17740798
172	0x3e279782	0.1636639
173	0xbdce5be5	-0.10076121
174	0xbd3f6bc2	-0.046733625
175	0x3e6cbad0	0.23118138
176	0x3e27f4c1	0.1640196
177	0xbd7e6d24	-0.062115803
178	0xbdedf8c4	-0.11619714
179	0xbdf87879	-0.12132353
180	0x3dc54ab7	0.09633391
181	0xbde14a68	-0.1100052
182	0x3dd7a65d	0.10529778
183	0xbcb127fd	-0.021625513
184	0x3db7a7a8	0.08967525
185	0xbe9314f1	-0.28726915
186	0x3d3dc451	0.0463298
187	0xbd9d159f	-0.076701395
188	0xbd9841be	-0.07434414
189	0xbdf401c7	-0.119144015
190	0xbdbcb306	-0.092138335
191	0xbd99b090	-0.0750438
192	0x3bff4e0a	0.0077912854
193	0xbd883799	-0.066512294
194	0xbc80e5f7	-0.015734656
195	0xbe34a139	-0.17639627
196	0xbd3905a9	-0.045171414
197	0x3c188cbd	0.009310898
198	0xbd9d05b7	-0.07667106
199	0x3e0731cf	0.13202594
200	0x3d1c0c71	0.038097803
201	0x3e7cca12	0.24686459
202	0xbd5190f9	-0.051163647
203	0xbe0b3dd8	-0.1359781
204	0xbe0d826c	-0.13819283
205	0x3d00faa9	0.03148905
206	0x3df83f12	0.12121405
207	0x3e920cfe	0.28525537
208	0x3e40f0fe	0.18841931
209	0x3d91d788	0.071211874
210	0x3dd01f0f	0.10162174
211	0x3dd8a5a0	0.105784655
212	0x3e1fabc4	0.15592867
213	0xbc419f8d	-0.011817825
214	0x3df6d394	0.12052074
215	0x3e111a08	0.14170086
216	0x3da23896	0.07920949
217	0xbe274201	-0.16333772
218	0xbd00d478	-0.031452626
219	0xbce1a2b8	-0.02754341
220	0x3e4048a9	0.18777718
221	0x3e37bf11	0.1794398
222	0x3e15cef4	0.14629728
223	0xbc9b2b93	-0.018941676
224	0x3e901c0d	0.281464
225	0xbda86c43	-0.08223774
226	0xbde0bec8	-0.10973889
227	0x3d8b2d60	0.06795764
228	0x3e48aba3	0.19596724
229	0xbd9f70ea	-0.077852085
230	0xbc8bd1ae	-0.017067757
231	0xbd750d1a	-0.059826948
232	0x3dd36117	0.10321253
233	0x3dc41b09	0.09575469
234	0x3e156e41	0.1459284
235	0xbe87d0b0	-0.26526403
236	0xbe4eb66b	-0.20186774
237	0x3d823876	0.06358425
238	0xbe01a4bc	-0.12660497
239	0xbc0fa061	-0.008766265
240	0x3de96fd6	0.11398284
241	0x3cebdb77	0.028791172
242	0x3d122cd4	0.035687283
243	0xbde33396	-0.110938236
244	0xbb7acfe0	-0.0038270876
245	0xbd532070	-0.051544607
246	0x3e5c7c19	0.21531714
247	0x3e591be0	0.2120204
248	0x3e3aa5d5	0.18227322
249	0x3d10fce7	0.035397436
250	0x3e015b8e	0.12632582
251	0x3d363775	0.04448648
252	0x3eab892c	0.3350309
253	0xbe5f981b	-0.21835367
254	0xbdb044c5	-0.08606867
255	0x3d12e5dd	0.035863746

mid_part.2.bias f4 [12]
0	0x3b4bcb1a	0.00310964
1	0x3b385acc	0.002813029
2	0xba924e84	-0.0011162315
3	0x3b8ca3da	0.0042919936
4	0x3d00ab45	0.031413335
5	0xbb0ef9ad	-0.0021816299
6	0xbb72a2dc	-0.0037023341
7	0x3acec881	0.0015776308
8	0x3c248f3d	0.010043916
9	0x39f58fa4	0.00046837062
10	0x3c4c2584	0.012460116
11	0x3ce11349	0.027475016

mid_part.3.weight f4 [12]
0	0xbeabbd36	-0.33542794
1	0x3e8091f4	0.25111353
2	0x3e86c1cc	0.2631973
3	0x3f19d8df	0.60096544
4	0x3e9330d4	0.2874819
5	0x3e828fa6	0.2550022
6	0x3dc6730d	0.09689913
7	0x3e1ffed6	0.15624556
8	0x3e762379	0.24036969
9	0x3e953a24	0.2914592
10	0x3e8331ce	0.25623935
11	0x3e78e9f1	0.24307992

mid_part.4.weight f4 [12, 12, 3, 3]
0	0x3d18254e	0.03714495
1	0xbd95695c	-0.07295486
2	0x3e6058c1	0.21908857
3	0x3e929c1a	0.2863472
4	0xbcd520f4	-0.02601669
5	0x3e09b4f6	0.13447937
6	0xbe01b46c	-0.12666482
7	0x3d823ba2	0.0635903
8	0xbda5a28b	-0.08087643
9	0xbe5e9a3d	-0.21738525
10	0xbdf77d12	-0.12084402
11	0x3eac0c16	0.3360297
12	0xbd6af567	-0.05736294
13	0x3e1301e2	0.14356187
14	0xbe1eb253	-0.15497713
15	0xbdfbb2de	-0.122899756
16	0x3c1c7b8a	0.009550938
17	0x3e64f8a8	0.2236048
18	0xbe0f825c	-0.14014572
19	0x3deaf9f5	0.11473457
20	0x3cc1a9e6	0.023640584
21	0x3e08b34d	0.13349648
22	0xbcf144a6	-0.02945168
23	0xbda2f258	-0.0795638
24	0xbd8b87cc	-0.068130106
25	0x3e1b7c30	0.15184093
26	0x3e42bae9	0.19016613
27	0xbcbcc967	-0.023045255
28	0xbea85172	-0.32874638
29	0xbcc1d821	-0.023662629
30	0x3cf4e949	0.029896395
31	0xbd60243e	-0.054722063
32	0xbe946306	-0.289818
33	0xbc74b2bb	-0.014935191
34	0x3e245a3d	0.16050048
35	0x3dcd7962	0.100329176
36	0xbd54c613	-0.05194671
37	0x3e5169cf	0.20450519
38	0x3dca5914	0.098802716
39	0xbe4e1a86	-0.20127305
40	0x3e810ef0	0.2520671
41	0x3da88ec8	0.08230358
42	0xbe815b30	-0.25264883
43	0x3c215723	0.009847435
44	0x3dc5a2ce	0.09650193
45	0xbce1c4d2	-0.027559672
46	0xbdb18ab0	-0.08669031
47	0x3df65abb	0.12029024
48	0xbe82441e	-0.25442594
49	0x3d958968	0.07301599
50	0xbeb879ac	-0.36030328
51	0x3d59f690	0.053213656
52	0x3e7f0db2	0.24907568
53	0xbe1babf0	-0.15202308
54	0x3dde5224	0.10855511
55	0xbe67a357	-0.22620903
56	0xbdf08687	-0.11744409
57	0x3dd80ca1	0.10549284
58	0xbc20c5e3	-0.009812805
59	0xbe06025d	-0.13086839
60	0xbcbb25af	-0.022845117
61	0xbe836768	-0.2566483
62	0x3e86d9d7	0.26338074
63	0x3cccc90c	0.02499821
64	0xbdf8325f	-0.121189825
65	0x3e19c0e7	0.15014993
66	0xbc2573df	-0.010098427
67	0x3d297bfd	0.04137801
68	0x3e0f4c16	0.13993868
69	0xbe7c8756	-0.24661002
70	0xbd89da47	-0.06731086
71	0xbd90c0fc	-0.07068059
72	0xbc71ca1c	-0.014757659
73	0xbc6432ab	-0.013928096
74	0xbdb22cca	-0.08699949
75	0xbe330157	-0.1748098
76	0xbb1f6fb7	-0.0024328062
77	0xbcd052ab	-0.025430044
78	0x3d81a381	0.06330014
79	0xbd33fba1	-0.043941144
80	0x3e503a42	0.20334724
81	0x3de3afec	0.11117539
82	0xbbcb0b1c	-0.0061963927
83	0x3e5ead00	0.21745682
84	0x3df90557	0.121592216
85	0x3e24253f	0.16029833
86	0xbce7194f	-0.02821031
87	0x3db688ca	0.08912809
88	0x3e3327b5	0.17495616
89	0xbea934ba	-0.3304804
90	0xbd0346cb	-0.032049935
91	0x3e1733c7	0.14765845
92	0xbd96dd5c	-0.0736644
93	0x3dd64966	0.104632184
94	0xbe05a159	-0.1304983
95	0x3ca93703	0.020656114
96	0xbe6ea246	-0.2330409
97	0xbdb90fac	-0.09036192
98	0x3e41d10f	0.18927406
99	0x3e1d6d7c	0.15373796
100	0x3dafa591	0.08576501
101	0x3db1df9a	0.08685227
102	0xbea03e11	-0.31297353
103	0x3e24b6f5	0.16085418
104	0xbea3b7fb	-0.31976303
105	0x3d98917d	0.07449625
106	0x3e61fe81	0.22069742
107	0x3e596768	0.21230853
108	0x3df08402	0.117439285
109	0xbe6041fc	-0.21900171
110	0xbd3ac4f2	-0.045597978
111	0x3e8e31aa	0.27772266
112	0x3db03fe4	0.08605936
113	0x3dcb214a	0.09918459
114	0x3e93190f	0.28730056
115	0xbe750dad	-0.23930998
116	0x3cfe67fb	0.031055441
117	0xbcb1f8b9	-0.021725046
118	0x3d7a5de5	0.0611247
119	0xbd129139	-0.035783026
120	0x3e949610	0.2902074
121	0x3d782456	0.060581528
122	0x3ea71351	0.32631925
123	0xbe79e8f3	-0.2440527
124	0xbe81d3cd	-0.25356904
125	0xbda56498	-0.08075827
126	0xbe54a19b	-0.20764773
127	0x3de847a8	0.11341792
128	0xbd5b8865	-0.053596873
129	0xbeeeb660	-0.46623516
130	0xbe2edeef	-0.1707723
131	0xbd38de11	-0.045133654
132	0xbf0a61c5	-0.54055434
133	0xbe3e1ee9	-0.18566479
134	0x3dcbdf30	0.09954679
135	0x3cb7523f	0.022378085
136	0x3e336b9f	0.17521523
137	0x3e6e296f	0.23257993
138	0x3e39ee97	0.18157421
139	0x3ea717c7	0.32635328
140	0x3d5d232d	0.053988624
141	0x3ebe73d7	0.37197754
142	0x3eb4def1	0.3532634
143	0xbdc86c74	-0.09786311
144	0xbd06a76e	-0.032874517
145	0xbd08c601	-0.033391956
146	0xbd0c22e8	-0.034212977
147	0xbe4b08ad	-0.19827528
148	0xbcbbfa9f	-0.022946654
149	0xbb3ca828	-0.0028786752
150	0xbeb295f5	-0.34880033
151	0xbd74c442	-0.05975748
152	0xbd0d7272	-0.03453297
153	0xbcf81027	-0.03028114
154	0xbe407ce7	-0.18797646
155	0x3e90b4a0	0.28262806
156	0xbe79ef81	-0.2440777
157	0xbd2d98b7	-0.04238197
158	0x3e0ded78	0.13860118
159	0xbe017cd5	-0.12645276
160	0x3d0f253d	0.034947623
161	0xbd89ec86	-0.067345664
162	0x3e89a8f1	0.26886705
163	0xbd197987	-0.037469413
164	0xbd3041e3	-0.043031584
165	0x3ebfea40	0.37483406
166	0xbda62c77	-0.0811395
167	0x3cf33433	0.029687976
168	0x3e04b87a	0.12960997
169	0xbd2070cb	-0.039170068
170	0xbe812d93	-0.25230083
171	0x3eaf0ad9	0.34187964
172	0xbe7cead3	-0.24698953
173	0xbe7b1498	-0.24519575
174	0xbd3c70da	-0.04600606
175	0x3b13c58c	0.0022548167
176	0x3d9283af	0.07154023
177	0x3e2e57ec	0.17025727
178	0x3e0abd8e	0.13548872
179	0x3ed97823	0.4247447
180	0xbd9c9a17	-0.07646578
181	0xbe88ccea	-0.26718837
182	0xbe353cdc	-0.17698997
183	0xbcddce76	-0.027075987
184	0xbe03f9a2	-0.12888196
185	0x3d8c6fc2	0.068572536
186	0x3e4a200f	0.19738792
187	0x3e89666a	0.26835948
188	0x3ddeefec	0.10885605
189	0xbed441a6	-0.41456336
190	0x3e049446	0.12947187
191	0xbe1d25c4	-0.15346438
192	0x3e440cfb	0.19145577
193	0x3e634b06	0.22196588
194	0xbd28cdab	-0.041211765
195	0x3d0bbb03	0.034113895
196	0xbc852771	-0.016254159
197	0x3dd33556	0.103129074
198	0xbdd955a8	-0.10612041
199	0xbeb702ac	-0.35744226
200	0xbc3946c6	-0.011308378
201	0x3ed5895f	0.41706368
202	0x3ec76d12	0.38950402
203	0x3e0864cc	0.13319701
204	0xbec104c3	-0.37698945
205	0xbe62d23d	-0.22150512
206	0x3e023d6f	0.12718748
207	0xbe7617c4	-0.24032503
208	0xbe857791	-0.26067784
209	0xbe98f451	-0.298739
210	0xbe4abf61	-0.19799568
211	0x3d5b9951	0.05361301
212	0xbc340c0f	-0.010989203
213	0x3f1a113f	0.60182565
214	0x3ebbbb4a	0.36666328
215	0x3e89a62e	0.26884598
216	0x3e45e8b8	0.19327056
217	0xbe4b8a64	-0.1987701
218	0x3e1a6bc1	0.15080167
219	0x3d86f09e	0.06588863
220	0x3d0e76e6	0.03478136
221	0xbc6d380a	-0.014478693
222	0xbe2742e7	-0.16334115
223	0x3e9bf9e8	0.304641
224	0x3d01c84e	0.031685166
225	0x3e5f897b	0.21829788
226	0x3c9ab9b3	0.018887376
227	0x3e31163d	0.1729364
228	0xbc642257	-0.013924203
229	0x3cfc1369	0.030770974
230	0x3ddb42e8	0.10706121
231	0x39fe5e3c	0.00048516865
232	0x3d9f1153	0.07766976
233	0x3c9ca76c	0.019122802
234	0xbde2e615	-0.11079041
235	0x3d701c7d	0.05862092
236	0x3e38a55b	0.18031828
237	0xbd0ac537	-0.033879485
238	0x3e319c3d	0.17344756
239	0x3e2d4e08	0.16924298
240	0x3d311c4a	0.04323987
241	0xbc26e241	-0.010185779
242	0xbe3eeeb3	-0.18645744
243	0xbe4ecc45	-0.2019511
244	0xbe1f02f0	-0.15528464
245	0xbd476249	-0.048677716
246	0x3d82f848	0.06395012
247	0x3e1930c2	0.14960006
248	0x3dddc480	0.10828495
249	0x3e50d2b4	0.20392877
250	0xbda48d7f	-0.08034801
251	0x3d465763	0.048423182
252	0xbe06af8d	-0.13152905
253	0xbe7a5b1d	-0.2444882
254	0xbe16297a	-0.1466426
255	0xbdba9406	-0.091102645

mid_part.4.bias f4 [12]
0	0x3c52a229	0.012856045
1	0x3b909b2e	0.00441303
2	0xbc932201	-0.01796055
3	0x3c43a78b	0.011941801
4	0xba3a0eee	-0.00070975616
5	0xba9fd256	-0.0012193422
6	0xbad2be33	-0.0016078412
7	0x3b42987f	0.0029692946
8	0x3c747310	0.014920011
9	0x3bff482e	0.007790587
10	0xbcb758b7	-0.02238117
11	0xbc256f1f	-0.010097294

mid_part.5.weight f4 [12]
0	0x3e4b1bcc	0.19834822
1	0x3ef2e939	0.4744356
2	0x3e962a0a	0.29328948
3	0x3e85e547	0.26151487
4	0x3f7f1d81	0.99654394
5	0x3ee57248	0.44813752
6	0x3d807db8	0.06273979
7	0x3e323539	0.17403115
8	0x3f3675dc	0.7127359
9	0x3eb8347d	0.35977545
10	0x3ed14f7b	0.4088095
11	0x3e841b2e	0.25801986

mid_part.6.weight f4 [12, 12, 3, 3]
0	0x3d56f376	0.052478276
1	0xbdb26689	-0.08710963
2	0xbce17455	-0.027521292
3	0x3cc230d0	0.023704916
4	0x3defa14f	0.11700689
5	0x3e24cb0d	0.16093083
6	0xbbb647da	-0.0055627646
7	0x3da272b0	0.07932031
8	0x3ce6d963	0.02817983
9	0x3d4667ff	0.048439022
10	0x3e853086	0.26013583
11	0x3e555a8c	0.20835322
12	0x3d9e2e9b	0.07723733
13	0x3e4e9656	0.20174536
14	0x3e807342	0.25087935
15	0xbb8d8a53	-0.004319468
16	0xbe9a4057	-0.30127212
17	0x3d99ce86	0.07510094
18	0x3dbf6d04	0.09346965
19	0xbe18917d	-0.1489925
20	0x3d5b7fa1	0.053588513
21	0x3ded48a1	0.115861185
22	0x3ccfd8ca	0.025371928
23	0xbd9ee020	-0.07757592
24	0xbe3ef210	-0.18647027
25	0xbe07aabd	-0.13248725
26	0x3e2145d6	0.15749297
27	0x3df81079	0.12112517
28	0xbe22efb9	-0.1591176
29	0xbe3b9b65	-0.18320997
30	0xbde28463	-0.11060407
31	0x3dc3e48f	0.095650785
32	0x3e04830b	0.12940614
33	0x3d395f8a	0.04525713
34	0xbeab12cc	-0.33412778
35	0xbe2b9b14	-0.16758376
36	0x3bb5bf61	0.005546496
37	0x3e2fad63	0.17155986
38	0xbda5fbdc	-0.08104679
39	0x3e3ad2c1	0.18244459
40	0x3e0859a3	0.13315444
41	0xbe0c473d	-0.1369905
42	0xbd3c6f72	-0.04600472
43	0x3e44fc63	0.19236903
44	0xbd2d6798	-0.042335123
45	0xbe0b723a	-0.13617793
46	0xbed73b16	-0.42037266
47	0x3e1808c0	0.14847088
48	0x3e5a7b34	0.21336061
49	0xbb669ca2	-0.0035188575
50	0x3d61128c	0.05494933
51	0x3dcab198	0.098971546
52	0x3dc83f60	0.09777713
53	0x3e4d634d	0.20057411
54	0x3e41d416	0.1892856
55	0xbe510a03	-0.20413975
56	0x3d4ea808	0.050453216
57	0x3dc83df7	0.09777444
58	0x3d381df8	0.044950455
59	0x3d8b931e	0.0681517
60	0x3e53e132	0.20691374
61	0x3e5c42b9	0.21509828
62	0x3def0992	0.11671747
63	0xbdeda1d6	-0.116031334
64	0xbdb8bb41	-0.09020091
65	0x3e189645	0.14901073
66	0xbd40ce14	-0.04707153
67	0xbe22ef07	-0.15911494
68	0x3cdaede0	0.026724756
69	0x3d9784dd	0.073983885
70	0x3d195b01	0.037440304
71	0xbe3cd159	-0.18439235
72	0xbd240128	-0.040040165
73	0x3dbcbb98	0.09215468
74	0x3e3193ac	0.17341489
75	0xbd033671	-0.03203434
76	0x3d871e20	0.06597543
77	0xbcf36d60	-0.02971524
78	0xbd661c18	-0.056179136
79	0xbe287341	-0.16450216
80	0x3cc3bda1	0.023894133
81	0xbcdbe600	-0.026843071
82	0x3e3a8e75	0.18218406
83	0xb9fb3d4d	-0.00047920123
84	0xbe2bab93	-0.16764669
85	0x3d66bb14	0.056330755
86	0x3e3e1f85	0.18566711
87	0xbe54fb62	-0.2079902
88	0xbe018e32	-0.126519
89	0xbe68fc84	-0.22752577
90	0xbdea409d	-0.11438105
91	0x3df9cb43	0.12196972
92	0x3e04aac4	0.12955767
93	0xbd71b57d	-0.05901097
94	0xbe4bf7ef	-0.19918798
95	0x3de33073	0.11093225
96	0xbd9f2313	-0.07770362
97	0x3e22c1e8	0.15894282
98	0xbd06d328	-0.032916218
99	0x3e049ce6	0.12950477
100	0x3d3d97dc	0.046287403
101	0x3d510e45	0.051039
102	0x3d8118ef	0.06303584
103	0xbdf41c9a	-0.11919518
104	0xbc880c7a	-0.016607512
105	0x3e2c0d5e	0.16801974
106	0xbe05b360	-0.13056707
107	0x3a96c033	0.0011501372
108	0x3eace5c6	0.33769053
109	0x3df25d1a	0.11834164
110	0x3db03951	0.08604682
111	0xbdb69356	-0.08914821
112	0xbe4a0e85	-0.19732101
113	0x3df6404d	0.12023983
114	0x3dcf8790	0.10133278
115	0x3d8042c5	0.06262735
116	0x3c554531	0.013016985
117	0xbde13d05	-0.10997967
118	0x3cba56f3	0.022746539
119	0x3e348745	0.17629726
120	0xbcf43169	-0.029808717
121	0x3d9ee236	0.0775799
122	0x3ddf3813	0.10899367
123	0x3e6e2353	0.23255663
124	0xbdcf3444	-0.10117391
125	0xbd751c03	-0.059841167
126	0x3deccfc9	0.115630694
127	0x3d69dc4f	0.05709487
128	0x3ccc058f	0.024904994
129	0x3e586809	0.21133436
130	0x3c8fcd10	0.017553836
131	0x3e413577	0.18868051
132	0xbc3c7607	-0.011502749
133	0xbbcde5a5	-0.0062834793
134	0x3cc83e11	0.024443658
135	0x3df0f6e1	0.117658384
136	0x3c8ebd6d	0.01742431
137	0xbd198111	-0.037476603
138	0xbdf67169	-0.1203335
139	0x3e0dc292	0.13843754
140	0x3cd53e46	0.02603067
141	0xbe26545f	-0.16243123
142	0xbe4bbf51	-0.198972
143	0x3d6ebe9b	0.058287244
144	0x3d6bdba9	0.05758253
145	0xbdc720b6	-0.09723036
146	0x3e138f05	0.14410026
147	0x3e0c9dda	0.1373209
148	0xbd70eb66	-0.058818243
149	0xbdefcf39	-0.117094465
150	0x3db8879b	0.0901024
151	0x3e817a4e	0.25288624
152	0x3d406313	0.046969485
153	0x3d930925	0.071794786
154	0x3d458add	0.048228133
155	0x3e01269d	0.12612386
156	0xbe2a7a54	-0.16648227
157	0x3c6b8b59	0.014376485
158	0xbce2da75	-0.027692059
159	0x3b9c0554	0.0047613773
160	0x39b2f15f	0.0003413064
161	0x3d6e1b6a	0.058131613
162	0x3e3a2c19	0.18180884
163	0x3cbac1dc	0.022797517
164	0x3d123f8b	0.03570513
165	0x3d0b0735	0.03394242
166	0x3dc85c28	0.097832024
167	0xbcfa06b2	-0.03052077
168	0xbd47aeb3	-0.04875059
169	0xbdb08859	-0.08619756
170	0xbda1e55f	-0.07905077
171	0x3e164905	0.14676292
172	0xbc8c8fd3	-0.017158424
173	0x3db9b62c	0.0906795
174	0x3d233983	0.03984977
175	0x3e2f59ec	0.17124146
176	0xbe58de68	-0.21178591
177	0xbd0fd9a5	-0.03511967
178	0xbcdc5db9	-0.02690016
179	0xbdefa4d9	-0.11701364
180	0x3e2f6d6c	0.17131585
181	0xbe7fccf2	-0.24980524
182	0x3dee4326	0.11633901
183	0x3be281b9	0.006912437
184	0x3d42cc76	0.04755827
185	0x3e42e549	0.19032778
186	0x3cd2a553	0.025713598
187	0x3e2b5716	0.1673244
188	0xbcfa7d19	-0.03057723
189	0x3dd6ebbe	0.10494183
190	0x3c49661e	0.012292413
191	0x3d4091aa	0.047013916
192	0x3e10e5cf	0.14150165
193	0x3e671f85	0.22570617
194	0xbe24ed56	-0.16106161
195	0x3c827066	0.015922736
196	0x3e26fe25	0.16307886
197	0x3e443d85	0.19164093
198	0x3db0dc12	0.08635725
199	0x3e31daab	0.17368571
200	0x3dc113dc	0.09427616
201	0xbe338eb5	-0.17534907
202	0xbe7b9e31	-0.24572064
203	0x3caed002	0.02133942
204	0x3e004015	0.12524445
205	0xbe0e6c05	-0.13908394
206	0x3e877b17	0.26461098
207	0xbdbda696	-0.09260289
208	0xbc8f56a8	-0.017497376
209	0xbce9dc51	-0.028547438
210	0x3dae9d06	0.085260436
211	0x3d3737ac	0.044730827
212	0x3b868179	0.00410479
213	0xbe81296b	-0.25226912
214	0xbe53fdb1	-0.20702244
215	0x3d55fb25	0.052241463
216	0xbe8815a7	-0.2657902
217	0xbd51a937	-0.051186766
218	0xbe46d214	-0.19416076
219	0xbaeb39d8	-0.0017946316
220	0xbdcd7749	-0.100325175
221	0xbdda29a3	-0.10652473
222	0x3e74e291	0.23914553
223	0x3e55c705	0.20876701
224	0xbe40c873	-0.18826465
225	0xbe0875e3	-0.1332622
226	0xbe2b6c1b	-0.16740458
227	0x3c6cffe3	0.014465305
228	0xbdd0192a	-0.1016105
229	0x3ca0f6e3	0.019648975
230	0xbe204ffa	-0.15655509
231	0x3e810753	0.252009
232	0x3e387d89	0.18016638
233	0x3e14fdd4	0.14549953
234	0xbe02dd1f	-0.12779664
235	0x3e160fb5	0.1465443
236	0x3cd15743	0.025554305
237	0x3d7e7d1d	0.062131036
238	0xbb188cf9	-0.0023277386
239	0xbe167a3f	-0.1469507
240	0x3e105d92	0.14098194
241	0xbe1aca08	-0.15116131
242	0xbe954d4d	-0.29160538
243	0x3e4692df	0.19391964
244	0x3d9c614c	0.076357454
245	0x3d139fb3	0.036040973
246	0x3e3d7c4a	0.18504444
247	0x3d873f26	0.066038415
248	0xbdfa9634	-0.1223568
249	0xbe414999	-0.18875732
250	0xbdf96043	-0.121765636
251	0x3c5cd880	0.013479352
252	0xbe98c152	-0.29834992
253	0xbe3db9dc	-0.18527931
254	0x3e305cf7	0.17222963
255	0xbd60afd5	-0.054855186

mid_part.6.bias f4 [12]
0	0x3c33317f	0.010937094
1	0x3bf8c35d	0.0075916485
2	0xbbb733ec	-0.0055909064
3	0x3bd1c10e	0.0064011877
4	0x3c06a24a	0.008217404
5	0x3c0d27ab	0.008615415
6	0x3b7af1cc	0.0038291095
7	0x3c16eea6	0.009212172
8	0x3b327a2d	0.0027233467
9	0x3a65ce16	0.0008766366
10	0x3c1541eb	0.009109954
11	0xbd329507	-0.043599155

mid_part.7.weight f4 [12]
0	0x3e6ba2fb	0.23011391
1	0x3e80c884	0.2515298
2	0x3e8a91f5	0.2706448
3	0x3e8eda9d	0.27901164
4	0x3cfec4be	0.031099673
5	0x3eeb4cd3	0.4595705
6	0x3e1f95b7	0.15584455
7	0xbc9a1bb0	-0.01881203
8	0x3e8006c9	0.25005177
9	0x3e7433fc	0.23847955
10	0xbd33f13f	-0.043931242
11	0x3e6ddedf	0.2322955

mid_part.8.weight f4 [12, 12, 3, 3]
0	0x3dcf1d50	0.10113013
1	0xbdeaa37c	-0.114569634
2	0xbe467770	-0.193815
3	0xbd9a7907	-0.075426154
4	0x3e65cc22	0.22441152
5	0x3e0aa720	0.13540316
6	0xbe93effb	-0.28894028
7	0x3e1130fb	0.14178841
8	0xbd7d0c53	-0.06177933
9	0xbd599c9f	-0.05312788
10	0x3d0ab325	0.03386225
11	0x3d86c161	0.06579853
12	0x3dc6566c	0.096844524
13	0x3e98d83c	0.29852474
14	0x3d1ec59d	0.038762677
15	0x3e45d099	0.19317855
16	0x3d798cff	0.06092548
17	0xbd730684	-0.059332386
18	0x3dac8053	0.084229134
19	0xbcfaa76d	-0.030597413
20	0xbba4555a	-0.0050150575
21	0xbe5631e3	-0.20917468
22	0xbd2c9981	-0.04213858
23	0xbc4956b6	-0.01228874
24	0x3d38522c	0.04500024
25	0xbe30cd62	-0.17265847
26	0xbc772695	-0.015084882
27	0xbd610d8e	-0.054944567
28	0xbda15dc0	-0.078792095
29	0x3cfe082c	0.031009756
30	0xbe2edb62	-0.17075875
31	0xbd605213	-0.054765772
32	0x3dd41d27	0.10357123
33	0x3bb0a9f6	0.0053913547
34	0xbdd6118c	-0.104525656
35	0xbe435787	-0.19076358
36	0xbce52b9f	-0.027974902
37	0xbc92644a	-0.017870087
38	0x3c9aa282	0.018876318
39	0x3dc86c94	0.09786335
40	0xbca9f25b	-0.020745447
41	0x3e67c7bb	0.22634785
42	0xbdc271db	-0.094943725
43	0x3d6dcd19	0.058056924
44	0xbca6328b	-0.020287773
45	0x3db69d51	0.089167245
46	0x3df527c5	0.11970476
47	0x3d7393ed	0.059467245
48	0xbe2d9231	-0.16950299
49	0x3d550374	0.052005246
50	0x3c8692aa	0.016427357
51	0x3ea9a4a8	0.33133435
52	0xbe340523	-0.17580085
53	0x3db168ab	0.08662542
54	0x3db88a2b	0.090107284
55	0xbead91a7	-0.33900186
56	0x3d147d88	0.03625253
57	0x3cec49a2	0.028843705
58	0xbd0a5c3b	-0.033779364
59	0xbd556dd8	-0.05210671
60	0xbde920ef	-0.11383235
61	0xbdef3080	-0.116791725
62	0x3d349d30	0.04409522
63	0xbc69546c	-0.014241319
64	0x3e9d2b39	0.3069704
65	0x3b0b4d53	0.0021255806
66	0x3d3fe420	0.046848416
67	0x3e48f1ae	0.19623443
68	0xbdbfd735	-0.09367219
69	0xbe2e2170	-0.17004943
70	0xbd0722ac	-0.03299205
71	0xbe6e9ca2	-0.23301938
72	0xbe8cd25a	-0.27504236
73	0x3d0911ad	0.033464123
74	0x3d5e45d4	0.054265812
75	0xbcfff774	-0.031245925
76	0x3e3a782f	0.18209909
77	0xbe0c29e0	-0.13687849
78	0xbd8438f1	-0.06456173
79	0xbe1b9735	-0.151944
80	0xbdf5e5aa	-0.120066956
81	0x3d9c3270	0.07626808
82	0xbd7f7a2c	-0.06237237
83	0xbe10ebfc	-0.14152521
84	0xbe1359cb	-0.14389722
85	0xbd6bda26	-0.05758109
86	0xbccc2d9d	-0.024924094
87	0x3e6a01f7	0.22852312
88	0xbd24bd06	-0.04021933
89	0x3ab3d295	0.0013719375
90	0x3bdb0392	0.006683775
91	0x3e2527ac	0.16128415
92	0x3c6bda8a	0.0143953655
93	0xbd866155	-0.06561533
94	0xbd3ac9f6	-0.04560276
95	0x3d2e89e2	0.042611964
96	0x3db36c6a	0.08760913
97	0x3daedfdc	0.085387915
98	0xbd351120	-0.044205785
99	0x3e5fa99b	0.21842043
100	0x3edeae81	0.4349251
101	0xbe32ca3b	-0.17459957
102	0x3ee63cd6	0.4496829
103	0x3a9bbbf8	0.001188158
104	0x3e6a80cc	0.22900695
105	0xbe37507a	-0.17901793
106	0x3e1ec4f3	0.15504818
107	0x3e75b1bd	0.23993583
108	0x3de65d95	0.11248318
109	0xbdabd6ae	-0.08390556
110	0xbe207e88	-0.15673268
111	0x3e4d1fcd	0.20031662
112	0x3e151e3f	0.14562319
113	0x3c06c458	0.008225523
114	0x3d63fe79	0.055662606
115	0xbe8ca1f7	-0.2746732
116	0xbe7cb435	-0.24678119
117	0x3d695ba0	0.056972146
118	0xbe16e6f1	-0.14736535
119	0x3c64b403	0.013958934
120	0x3df5d89e	0.12004207
121	0x3e54187f	0.2071247
122	0xbe73e29c	-0.23816913
123	0xbe24164d	-0.16024132
124	0x3b936eef	0.0044993083
125	0xbdda5af6	-0.10661881
126	0x3d35dc9e	0.04439985
127	0xbcb2064e	-0.021731522
128	0x3dab7214	0.08371368
129	0x3d13c30d	0.036074687
130	0xbe860869	-0.2617829
131	0x3e7d403f	0.24731539
132	0xbdf78a03	-0.120868705
133	0x3d9ca37c	0.0764837
134	0x3ce5ab13	0.028035676
135	0xbd73114e	-0.059342675
136	0x3eb5551b	0.35416493
137	0x3d42144c	0.047382638
138	0x3e096fe4	0.13421589
139	0xbc1abfba	-0.009445125
140	0x3da7ced1	0.08193744
141	0xbe3a3877	-0.18185602
142	0x3d8b7fb0	0.06811464
143	0x3de092c4	0.10965493
144	0x3e1fdb04	0.15610892
145	0x3bd6d1d4	0.006555775
146	0xbdd22ac5	-0.10262064
147	0x3d28c1ad	0.04120033
148	0x3e43ad30	0.19109035
149	0xbe99b885	-0.3002359
150	0x3e244573	0.16042118
151	0xbea941ae	-0.33057922
152	0x3d6f5b77	0.058436837
153	0x3e01e66a	0.12685552
154	0x3e1fa71e	0.15591094
155	0xbcb6a702	-0.022296432
156	0x3d85594f	0.06511175
157	0x3e561d74	0.20909673
158	0x3d71fe71	0.059080545
159	0xbe6261a4	-0.2210756
160	0xbd373a32	-0.044733234
161	0xbd01eb32	-0.03171844
162	0xbc746451	-0.014916495
163	0xbbb9cfe8	-0.0056705363
164	0x3e30ab0c	0.17252749
165	0x3e084228	0.13306487
166	0x3c88dbe7	0.01670642
167	0x3d807f99	0.06274337
168	0xbb85b383	-0.0040802374
169	0xbd44cf48	-0.04804924
170	0x3d9be059	0.0761115
171	0x3e1ecd77	0.15508066
172	0x3e4bcb62	0.19901803
173	0x3de8355b	0.11338302
174	0x3da99d42	0.08281948
175	0xbeb48a47	-0.35261747
176	0x3cb6936b	0.022287091
177	0x3c94aa9f	0.018147765
178	0xbd906b0f	-0.0705167
179	0x3d9af373	0.075659655
180	0x3d910725	0.07081441
181	0xbc91a84f	-0.017780451
182	0x3bfb3526	0.007666248
183	0x3cb491b2	0.02204213
184	0xbe066add	-0.13126703
185	0xbc669eb0	-0.01407592
186	0x3e732fe2	0.23748735
187	0xbdd5f269	-0.10446627
188	0x3db6808b	0.089112364
189	0x3e95cc50	0.2925744
190	0x3c8fc90b	0.01755192
191	0x3c61b27a	0.013775462
192	0x3e78a015	0.24279816
193	0x3d2716bb	0.04079316
194	0x3e6fb1b4	0.23407632
195	0x3e479071	0.19488694
196	0xbbc30dc3	-0.0059525683
197	0x3d606917	0.05478772
198	0x3c4fc0bf	0.012680232
199	0xbd16e573	-0.036839914
200	0x3da9ed77	0.08297246
201	0xbc4fab80	-0.012675166
202	0xbe340e3a	-0.17583552
203	0xbe0c3a12	-0.13694027
204	0xbdc57e65	-0.096432485
205	0x3da014d3	0.07816472
206	0x3e32b468	0.17451632
207	0x3e3f643b	0.18690579
208	0xbe3a462b	-0.1819083
209	0x3e0fbdcf	0.1403725
210	0x3e08b707	0.1335107
211	0x3d813fa6	0.06310968
212	0x3db66087	0.0890513
213	0xbc00f2b9	-0.00787037
214	0x3c246aab	0.010035197
215	0x3e622829	0.22085632
216	0xbd30a0ff	-0.043122288
217	0x3e30eed4	0.17278606
218	0x3df42326	0.119207665
219	0xbb932a9c	-0.0044911634
220	0x3d992a30	0.0747875
221	0xbde1f01b	-0.110321246
222	0x3d6501cb	0.055909913
223	0x3dc6e326	0.09711294
224	0x3e0f1b6e	0.13975307
225	0x3d9121e4	0.07086542
226	0x3d79aeda	0.060957767
227	0x3e44c96b	0.1921746
228	0x3cc06b96	0.023488801
229	0x3e397cf3	0.1811407
230	0xbe058004	-0.13037115
231	0x3dca968f	0.09891998
232	0x3d987f07	0.074461035
233	0xbe06f250	-0.13178372
234	0xbc9c08b4	-0.019047119
235	0xbd3ea36e	-0.046542577
236	0xbe2e77b3	-0.17037849
237	0xbd5211e6	-0.0512866
238	0xbe37d1e8	-0.17951167
239	0x3cdad03a	0.026710618
240	0xbd384879	-0.04499099
241	0xbd3474b3	-0.044056606
242	0xbca77403	-0.02044106
243	0xbe5d2ce7	-0.2159916
244	0xbda91a7f	-0.08257007
245	0xbd8bdbf9	-0.06829066
246	0x3e7012a2	0.23444608
247	0x3db36bb2	0.087607756
248	0xbe4e12e9	-0.20124401
249	0x3d290655	0.041265804
250	0xbd4b3eaf	-0.049620327
251	0x3c053b01	0.008131743
252	0x3d93a7d3	0.07209744
253	0x3d3d26d6	0.046179615
254	0xbe86ff5f	-0.26366708
255	0x3e3354d3	0.17512827

mid_part.8.bias f4 [12]
0	0xbb957c41	-0.0045619314
1	0x3c15d1a9	0.009144225
2	0x3b7c7f11	0.0038527886
3	0xbc4c5acc	-0.01247282
4	0x3c4aa3cf	0.012368157
5	0x39a175b4	0.0003079601
6	0x3b1a8314	0.0023576664
7	0x3b6d3373	0.0036193996
8	0xbc147847	-0.0090618795
9	0x3d56325e	0.052294128
10	0x3b528683	0.0032123632
11	0x3c2b2957	0.010446868

mid_part.9.weight f4 [12]
0	0xbf250888	-0.6446614
1	0x3afcfea0	0.0019301958
2	0x3f1e43d2	0.61822236
3	0x3e858df7	0.26084873
4	0x3eeac6b0	0.45854712
5	0x3f600178	0.8750224
6	0x3f32bf86	0.6982349
7	0xbe4b0867	-0.19827424
8	0x3e883052	0.26599365
9	0x3e5f1b2a	0.21787706
10	0x3dc22f21	0.094816454
11	0x3ee99bed	0.45626774
