models/fsrcnn/track1/track1_x4__epoch_4.pth (torch, 57971 bytes, 22 tensors)

first_part.0.weight f4 [56, 1, 5, 5]
000000 37 9e 9c bc 63 f2 4e 3d 5c 57 b8 3c ab 94 12 3c
       -0.019118411 0.050524127 0.022502594 0.008946578
000010 71 4b 0c bc ef a5 e7 bc 99 61 e3 3c ef ba b7 bc
       -0.0085629085 -0.028277365 0.0277565 -0.022428004
000020 c7 d3 0e bd d5 50 04 3c 21 4f 6f 3d 20 68 a6 bc
       -0.034869935 0.0080759125 0.058425073 -0.020313323
000030 fc 99 f7 3c 0a ca b3 3c 0a dd 87 3c 7f b2 13 3d
       0.030224793 0.021946926 0.016584892 0.0360589
000040 b6 71 e3 bc 91 3a 35 bc 3b dc 94 3d 69 af b7 bb
       -0.027764183 -0.011061327 0.07268568 -0.0056056273
000050 d0 5c 26 bc 74 48 10 3c ac f3 60 3d 53 b8 61 3b
       -0.010153964 0.008806337 0.054919884 0.0034442141
000060 5b f9 26 bd b2 72 02 bd 71 ee 1f bd 53 5c 33 bd
       -0.040765148 -0.031847663 -0.039045755 -0.04378922
000070 9a d6 00 3c 59 8f 38 3d 90 19 42 bd 20 8e 2c 3d
       0.007863665 0.045058582 -0.04738766 0.04212773
000080 ac d4 1f bd ef eb 83 bc d0 49 a3 3b e9 0a 01 bd
       -0.03902118 -0.016103713 0.0049831644 -0.031504545
000090 fa 24 85 3c 68 3d a7 3b e1 48 87 39 eb 0e 85 bd
       0.016252983 0.0051037557 0.00025803506 -0.06496986
0000a0 0e cf f0 bb c8 a1 fc 3c 27 fd c2 bb d0 71 0d 3b
       -0.0073489016 0.030838862 -0.0059505883 0.002158273
0000b0 d5 ec 6c bc 76 60 29 3d 7d e7 f6 ba 31 28 b6 bd
       -0.014460762 0.041351758 -0.00188373 -0.08894385
0000c0 dd af 45 3d 6e ab 14 3b f4 61 ce bc ee dd 4d bd
       0.04826342 0.0022685188 -0.025193192 -0.050260477
0000d0 c4 a5 6b bc 35 5c 8b bc b1 e4 90 3c ee 59 97 bb
       -0.014382783 -0.017011741 0.017687174 -0.0046188748
0000e0 21 68 84 3b b0 49 a0 bc 2a e4 d8 bc 59 1c 9a bd
       0.0040407334 -0.019566387 -0.026475985 -0.07524938
0000f0 e0 d9 20 bd 8c cc a1 bd 2f 61 66 bd 80 a7 4f bc
       -0.03927028 -0.07900342 -0.056245025 -0.012674212
000100 f6 88 68 bd f2 e6 39 3d 1b 16 68 bd 6c 6e 83 bd
       -0.05677124 0.045386262 -0.056661706 -0.06417546
000110 8b fe ed bc 85 2f 7c bc b4 83 6c bd 42 bb 3d 3d
       -0.02905204 -0.015392189 -0.05774279 0.04632116
000120 7b c2 27 3d 1e 88 27 bd af b6 a0 bc 69 62 08 3d
       0.040956955 -0.040901296 -0.01961836 0.033296976
000130 3d 6b 12 bb da ca 65 3d c5 19 a6 3c 03 36 c7 bc
       -0.002234175 0.056101657 0.02027596 -0.024317747
000140 7e 25 2a bd 77 e4 82 bc 0b 31 3a 3c 16 72 42 bd
       -0.04153966 -0.015978081 0.011364232 -0.047472082
000150 36 79 a5 ba da f1 14 3c de bc b9 3d b0 ce 0f bd
       -0.0012624625 0.009090865 0.09069227 -0.035109222
000160 b7 73 95 bd 9c 49 df 3c ce 83 1c 3d e0 c8 3f bd
       -0.072974615 0.02725678 0.038211636 -0.04682243
000170 66 ec 6b bd 1e f6 9b bb d4 12 ea 39 ee 3d 04 3d
       -0.057598494 -0.004759564 0.00044645986 0.032285623
000180 fa d0 8c bd 86 58 96 bc 9e cd 2d bd 79 26 d1 bd
       -0.068757966 -0.018352758 -0.04243242 -0.10212416
000190 da 06 cd 3b 38 51 1f bd 33 ce 07 bd 7e 5b af bd
       0.0062569203 -0.038895816 -0.03315563 -0.085623726
0001a0 4a 2d 85 bc d1 aa 8f bc ad c0 97 3d ca 35 58 3b
       -0.016256947 -0.017537506 0.07409797 0.0032991045
0001b0 7a a0 21 3d b8 57 cf bb 9b 73 01 3c 80 8c 9d bd
       0.039459683 -0.0063275956 0.007901098 -0.07692814
0001c0 1f 16 0f bd 1f e3 e2 3a ba 83 91 3c a7 fe 3c bc
       -0.034933206 0.0017310119 0.017763007 -0.011535323
0001d0 db 7c 9f bd 24 de 4d bd a3 00 db bc 20 53 2c 3d
       -0.07787486 -0.050260678 -0.026733702 0.04207146
0001e0 d5 a0 36 bd 12 df 80 bc 9a 4e 51 3d 6f 2f 92 bd
       -0.044586975 -0.015731368 0.05110035 -0.071379535
0001f0 7e 66 af 3c c3 52 9b bd ac b7 50 bd f0 91 35 3d
       0.021411177 -0.07584145 -0.050956413 0.04432863
000200 e2 6d b9 3c d9 90 18 3c ec 21 05 3d 54 36 24 bd
       0.022635404 0.009311878 0.032503054 -0.040090874
000210 94 18 5e bc f6 ad 74 bd de 3a 48 3a 26 d3 49 bd
       -0.013555665 -0.059736215 0.00076381664 -0.049273632
000220 85 19 c8 bc 59 2d 0a 3d 4d a0 e7 3c 67 cc 11 bd
       -0.024426231 0.033734653 0.02827468 -0.035595324
000230 7f a4 62 3d 42 58 76 bd f3 aa c0 3c 73 a7 85 bc
       0.055332657 -0.060142763 0.023519015 -0.016315198
000240 b2 2c 14 bc 83 6e 3e 3d 5a b6 b8 bb 6d f6 ca bb
       -0.009043859 0.04649211 -0.0056369724 -0.006193927
000250 bf c2 6a bc c0 19 f3 bc d2 99 c2 bd 48 e3 9e 3c
       -0.014328658 -0.029675364 -0.09501995 0.019395486
000260 3f 7c 1e 3c ec a0 85 3d cf 02 a1 bc 72 76 52 bc
       0.009673177 0.06524834 -0.01965466 -0.012845622
000270 e8 4f a8 3c bb d7 db 3c db 69 45 bd f3 ae 66 bd
       0.020545915 0.026836267 -0.048196655 -0.05631919
000280 9b 08 45 bc 62 8e 64 bd 54 47 52 bc 51 c6 52 bc
       -0.0120259775 -0.05579985 -0.012834389 -0.012864665
000290 14 ca 0b 3d ea 81 a8 bd c9 da 98 3c f1 ef f4 bc
       0.034128264 -0.08227904 0.018659012 -0.02989957
0002a0 6d 6d 31 3c 46 4d a0 bc 32 61 7c bd c0 e9 3a 3c
       0.010829312 -0.019568097 -0.06161613 0.011408269
0002b0 36 2f 8c bb 6f c6 85 bb d1 41 8d bd 22 6d 5c 3d
       -0.004278089 -0.004082493 -0.06897319 0.053815015
0002c0 b0 f9 bd bb 33 af 81 3d fe fe b3 bd 52 0c 10 bd
       -0.0057975873 0.06332245 -0.0878887 -0.035168
0002d0 ca d2 8e 3c 4b 88 ca 3b a6 a5 a8 bd 72 bc 49 3d
       0.017434496 0.006180798 -0.0823472 0.04925198
0002e0 29 52 90 3d 6b 48 92 3c 5f 93 5c bd d3 76 4c 3e
       0.07046921 0.017856797 -0.05385148 0.19967203
0002f0 30 6c 11 bc bf 0c 6c 3c 83 70 bd 3c a8 91 c2 bd
       -0.008875892 0.014407336 0.023124939 -0.09500438
000300 41 56 c4 3d 21 40 ca bd 60 1d df 3d 68 44 9e 3d
       0.09586764 -0.09875513 0.10894275 0.07727891
000310 cc b7 47 3c 33 a1 09 3c 04 36 0a 3d 3d bd 61 3d
       0.012189817 0.008400249 0.03374292 0.055112112
000320 11 4c f9 3c 82 a5 73 3d d5 b6 16 bc 00 d6 21 3c
       0.03043178 0.059484012 -0.009198864 0.009877682
000330 b3 fb c6 3c 8e 7a 00 3d 80 18 15 3d ed 9d 66 bc
       0.024289941 0.031366877 0.03640032 -0.014075738
000340 b6 a7 82 3c 1b a4 8c bb 7d d6 08 3a 9f 73 9b bc
       0.015949111 -0.004292024 0.00052199495 -0.01897603
000350 95 0b 85 3d 26 51 16 3c 5e 0a ab bc a8 b0 10 ba
       0.0649635 0.009174621 -0.020878967 -0.0005519488
000360 55 b5 67 3c 4a eb dc 3c 9f ce 99 bc 81 5f 0f bd
       0.014142354 0.026967663 -0.018775282 -0.03500319
000370 c5 f8 bd 3c 16 1a df 3c 1d b8 b5 3d 35 55 10 bd
       0.023189912 0.027234118 0.088730074 -0.03523751
000380 ff 49 52 3c 36 49 a6 3d 5f 97 29 bd 4f fe 74 bd
       0.012835025 0.08119433 -0.041404124 -0.05981284
000390 31 1d 57 3d c8 9a 71 bd cf 92 6d bc 54 cf 25 3b
       0.052518073 -0.0589855 -0.014500334 0.002530058
0003a0 fb c4 e1 3c 21 82 4e bd 88 0d 43 3c 3d 24 09 3c
       0.027559748 -0.05041707 0.011905082 0.008370456
0003b0 7f 7f 9b bc 6c 77 96 3d 1d 4f 49 3d 25 50 30 3d
       -0.018981693 0.07346997 0.049147714 0.04304518
0003c0 81 da 5c 3d 76 c8 46 bb ee 8c 42 3c a1 e2 2d bd
       0.05391932 -0.0030331886 0.011874421 -0.04245246
0003d0 0d bc 45 3d fb 6b 09 3d 8f f2 21 3d c6 15 ba 3c
       0.048275042 0.033550244 0.039537963 0.02271546
0003e0 ee 1d 73 3d 03 ca 42 3d 63 8e aa bc 64 4a 1b 3d
       0.059354715 0.047555935 -0.020819848 0.03791274
0003f0 19 09 3d bd b5 91 5e 39 7a cd 48 bd f1 af 72 3c
       -0.046151254 0.0002122585 -0.049024083 0.0148124555

first_part.0.bias f4 [56]
000000 56 86 4e bb 9b 0e 0e bb b5 c0 83 39 54 6e ea ba
       -0.0031513176 -0.0021676186 0.00025129845 -0.0017885664
000010 96 ba ac 3b c2 24 02 bc 36 10 91 ba 24 23 60 3c
       0.005271266 -0.007943334 -0.0011067453 0.013680253
000020 84 ad e6 bb 2b c0 c7 bb e8 4b 7b bb 4d f0 c0 b8
       -0.0070397276 -0.0060959063 -0.0038344804 -9.200033e-05
000030 49 23 61 3c 3f 07 ff 3b fb 06 13 3d 3c 7d f1 bb
       0.013741323 0.007782846 0.03589533 -0.0073696654
000040 4e 66 ca 3b b0 c1 f5 bb db cf fa 3b 95 7c a9 bc
       0.0061767465 -0.007499896 0.007654173 -0.020689288
000050 d0 82 e5 3a fb 1c 16 b9 f4 a0 bf bb 71 3a e2 bb
       0.0017510299 -0.00014315911 -0.0058480445 -0.0069039394
000060 d6 27 34 bc 88 a0 47 3b 3c b4 9e bb 92 2e 9f 3b
       -0.010995826 0.0030460674 -0.004843263 0.0048578465
000070 78 c6 77 bc f6 00 83 3b 7c ed 2d bb bd 36 5d bb
       -0.015123002 0.0039979173 -0.0026539257 -0.003375455
000080 ff 1a 29 bb ca 91 79 bb f8 f0 07 3b 3e ab 49 3c
       -0.0025803444 -0.0038081282 0.0020742994 0.012308894
000090 ff 07 a5 38 32 5b 38 3b ce fa ab 3b 4c 98 97 3c
       7.8693025e-05 0.0028130529 0.005248404 0.018505238
0000a0 d7 ae 83 3d dc a4 16 bb 36 3a d4 3b d6 16 09 bd
       0.064298324 -0.0022986447 0.006476666 -0.033469044
0000b0 85 56 a9 bb 32 6e 2b 3b ce 9f 1b bc 2a 68 36 bb
       -0.0051677846 0.002615821 -0.00949855 -0.0027833083
0000c0 d9 9b c4 bd 57 57 68 3c ab d1 81 bc 30 81 c9 3c
       -0.09600038 0.01418098 -0.015847048 0.024597734
0000d0 a6 04 21 bb 2f 0a 97 3b 17 6f bf bb 1b e7 1e 3d
       -0.002456942 0.0046093683 -0.0058421004 0.038794618

first_part.1.weight f4 [56]
000000 26 86 79 3e 2a e2 80 3e 1b 23 84 3e 52 04 87 3e
       0.2436758 0.2517255 0.25808033 0.26370484
000010 bd d7 7f 3e 94 0d 88 3e fd 4c 81 3e b4 c7 93 3e
       0.24984641 0.2657286 0.2525405 0.288633
000020 ec 78 32 3f 6e ee 54 3e 9a 37 90 3f 79 b1 80 3e
       0.6971576 0.20794079 1.1266968 0.251354
000030 2e e7 30 3f a3 11 82 3e 75 bd 73 3e 9e 39 87 3d
       0.6910275 0.2540408 0.23802741 0.066027865
000040 39 f4 ad 3e 60 d6 8e 3e d3 71 82 3e 66 c5 4d 3e
       0.3397539 0.2789793 0.25477466 0.20094833
000050 7c ba 83 3e 10 96 93 3f 0c 52 7e 3e c4 9b 7a 3e
       0.25728214 1.153017 0.24835986 0.24473482
000060 d8 51 72 3d ba 10 7f 3e 50 c6 55 3f c4 32 81 3e
       0.059160084 0.24908724 0.83505726 0.25234044
000070 84 10 99 3e 57 32 8b 3e b4 6d 7c 3e 62 8a 8c 3e
       0.29895413 0.27186844 0.24651223 0.27449328
000080 be 94 55 3f d1 e9 a2 3e 92 ed 7d 3e 6a 94 81 3e
       0.8343009 0.31819013 0.24797657 0.25308543
000090 d3 b6 86 3e d4 1a e7 3d 68 02 8c 3e 54 af 80 3e
       0.2631136 0.11284414 0.27345586 0.25133765
0000a0 07 cc fb 3e 53 8d 87 3e 0d 2b 82 3e 26 78 a8 3e
       0.49179098 0.2647501 0.2542347 0.32904166
0000b0 d5 55 2d 3f f2 7d 69 3e 93 8d 93 3f 99 06 80 3e
       0.67709094 0.2280195 1.152758 0.25005034
0000c0 5d 35 0d 3f fb 3f 79 3e 9c f1 99 3f bb b0 7f 3e
       0.5515955 0.24340813 1.2026858 0.24969761
0000d0 36 c1 66 3e 84 51 46 3e 39 0a 8a 3e 62 6a 84 3e
       0.22534642 0.19367033 0.26960924 0.25862414

mid_part.0.weight f4 [12, 56, 1, 1]
000000 75 f2 02 3f 49 4c 5a 3e 55 31 42 bf 4d ac 78 3e
       0.5115121 0.21318163 -0.75856525 0.24284478
000010 b4 95 c8 3e eb d1 a7 3e 05 57 ac bd a7 51 02 3f
       0.39176714 0.32777342 -0.08415035 0.5090584
000020 78 ba 2a 3e 42 10 97 bf a4 52 02 3f 4c 18 97 bd
       0.16672695 -1.1801836 0.5090735 -0.07377681
000030 e6 d6 0a bf 5f f2 87 3f f9 d2 da 3e 30 e1 cc 3e
       -0.5423416 1.0620841 0.42739084 0.40015554
000040 53 d7 c0 3d b9 f8 8b 3d 18 d8 0d 3f 42 6c 7a be
       0.0941607 0.068345495 0.5540786 -0.2445536
000050 53 bd 34 3c f2 bc 34 3f e9 e4 ba be eb 2f eb be
       0.011031467 0.7060081 -0.3650277 -0.45934996
000060 c0 62 98 bd 73 8b 9b bd dd 9d d6 3e e3 52 39 bf
       -0.0744071 -0.07594957 0.41917315 -0.723921
000070 62 9e 89 3e bb 5d c5 3e c8 d1 31 3d 59 db b8 3e
       0.2687865 0.38548073 0.043412954 0.3610485
000080 5e 3c 0a 3f 09 5a 0b 3e 79 b6 10 bf e9 ba 2f bf
       0.53998363 0.13608564 -0.5652843 -0.6864458
000090 e6 c3 51 bd af f0 41 bd 9c 1b 86 be b5 65 be 3e
       -0.051212214 -0.047348674 -0.2619294 0.3718697
0000a0 94 71 b1 bd 57 51 00 3f 32 23 c6 be 1f 78 fe bd
       -0.086642414 0.50124115 -0.38698727 -0.12425255
0000b0 26 69 04 be b4 70 1c be b2 5b e3 bd 77 63 1b bf
       -0.12930736 -0.15277368 -0.11101474 -0.60698646
0000c0 a3 5f 22 be 95 a3 15 bf 6e ef ca bd ea c9 1a be
       -0.15856795 -0.5845273 -0.09908949 -0.15116087
0000d0 cb 23 2d bf ca d7 15 3e 19 29 99 be fc 0a 42 be
       -0.6763274 0.14633098 -0.29914168 -0.18949503
0000e0 c7 af a8 be 0b d4 78 bf a6 7d 00 3f 08 7b 02 3c
       -0.32946607 -0.9719855 0.50191724 0.007963903
0000f0 58 67 94 3c 64 cc 4c 3f 26 74 3f 3f d2 11 04 3f
       0.018115684 0.79999375 0.74786603 0.5158969
000100 8a ff a7 3c 7f 57 bf bd 68 53 80 bd cb c6 fa be
       0.020507593 -0.093428604 -0.062659085 -0.48979792
000110 c0 fc 37 3e 65 98 43 3e 6a 05 20 bf 1a e6 01 3e
       0.1796751 0.19101103 -0.6250826 0.12685433
000120 43 5c 0d bf d5 21 80 3e 5b a5 1b 3f 38 5e e7 bd
       -0.55218905 0.25025812 0.6079919 -0.11297268
000130 87 40 5b 3f 36 3a 87 be 26 da b7 3d fb 46 bd be
       0.85645336 -0.264116 0.089771554 -0.36968216
000140 c1 03 c4 be 7b 01 b3 bd 9b 7b a0 3d 42 25 0b bf
       -0.38284114 -0.08740517 0.07836076 -0.54353726
000150 c7 18 15 3f 20 0c 4d 3f b9 05 3c be 91 3c d9 3e
       0.5824093 0.80096626 -0.18361558 0.4242902
000160 99 89 28 3e 3c 36 cd be b3 ba de bd a5 f0 19 be
       0.1645874 -0.4008044 -0.10875454 -0.15033205
000170 02 7f 6f 3e 71 97 58 3e 92 65 30 bf fa 5d 84 be
       0.23388293 0.2115152 -0.68904984 -0.25852948
000180 d7 0b 6d 3e db 98 33 3f f3 3c 91 be 06 a9 5a 3f
       0.23149048 0.70155114 -0.28366813 0.8541416
000190 34 69 3a 3f 9e c8 df 3d 8b 3f e3 3e 70 c7 b2 3d
       0.7281678 0.109269366 0.44384417 0.08729446
0001a0 1c a9 a6 3e f7 40 03 be fa 40 57 3f 49 fc 08 bf
       0.32550895 -0.12817751 0.8408352 -0.53509957
0001b0 64 17 3e 3b 7e 77 62 be ed 41 2a 3f 4b fd e0 be
       0.002900564 -0.22115895 0.66506845 -0.43943247
0001c0 c9 b1 8e 3e 36 36 1c bf dd 50 89 be c3 f1 cc be
       0.27870014 -0.6102022 -0.26819506 -0.400282
0001d0 11 e8 9e bd 74 2a 1c 3f 62 c2 f4 bd f2 cc 4a bd
       -0.07759107 0.6100228 -0.11951138 -0.049511857
0001e0 81 ec 26 3f 8c cb 4a 3f 49 5c cf 3d 8b 56 51 3f
       0.65204626 0.7921684 0.10125024 0.8177268
0001f0 e8 67 dd be 73 64 1a be 69 39 d0 bd bc f5 cf 3e
       -0.43243337 -0.15077381 -0.101672 0.40617168
000200 c6 fd 15 bc ab 37 13 be 10 82 f4 3e 2d ff be 3e
       -0.009154743 -0.14376704 0.4775548 0.3730406
000210 78 99 09 bf 6d bb 6e 3e 39 37 05 be 2d fb 9c be
       -0.537498 0.23313685 -0.13009347 -0.30660382
000220 92 6f d3 3e 65 3d aa be 65 d4 20 be 4d 6a 83 be
       0.4129606 -0.33249965 -0.15706022 -0.2566704
000230 af d2 fb be 81 ac db 3e 30 ca 97 3c 30 7e 1c be
       -0.49184176 0.42905048 0.018529028 -0.15282512
000240 9c 96 fb 3e a8 d4 33 3f dc b8 22 3f 37 b4 c3 3e
       0.49138343 0.7024636 0.63563323 0.3822343
000250 cb 45 a5 3e 75 d9 9f 3e 44 26 f1 be fd 87 e5 3d
       0.3227981 0.31220594 -0.47099507 0.11207578
000260 eb 0f c4 bc 29 50 02 3e fd d3 59 be d9 06 bb bb
       -0.023933372 0.12725891 -0.21272273 -0.0057076034
000270 bb f7 0d 3e 27 f4 d3 3e d6 46 7c 3e b1 d1 f7 3e
       0.13864033 0.4139721 0.24636397 0.4840217
000280 9f c6 3e bc aa 5a 19 3f 89 d7 5d 3e 01 73 12 bf
       -0.011644035 0.5990397 0.21664251 -0.5720673
000290 2b 8f af 3c 33 45 de 3e 6c b2 b3 be 52 40 a5 be
       0.021430572 0.4341217 -0.35097063 -0.32275635
0002a0 6c 8f 53 3d bd 78 93 3e 9d b8 0c be 7e 9c 1f 3e
       0.05165045 0.28803053 -0.137423 0.15587041
0002b0 84 a1 81 3e 8b 6c 9f bc 1b 6b 26 be 48 a7 a4 3e
       0.2531854 -0.019460937 -0.16251795 0.32158875
0002c0 c2 66 12 bf c1 77 c4 be 23 18 0d 3f 53 68 b7 be
       -0.57188046 -0.38372615 0.55114955 -0.3582178
0002d0 db bc b5 3e b2 5c f9 be 7e 49 21 3f 8f 73 99 bd
       0.35495648 -0.48703533 0.63002765 -0.07492744
0002e0 5b 7d 11 3e 53 f8 62 3e c3 72 dc bc e3 82 5c 3f
       0.14207976 0.2216504 -0.026910191 0.8613722
0002f0 ef 5b f6 be d5 22 21 3f ee 3e aa be d6 a5 bf be
       -0.48117015 0.62943774 -0.33251137 -0.3743121
000300 b5 70 f4 3e 14 4a 89 3d bf 96 e3 be 54 8d 73 3f
       0.4774224 0.067035824 -0.44450948 0.95137525
000310 2b 01 fd 3d 1e a9 d6 3e c8 31 1f bd 74 4c d9 bd
       0.123537384 0.419259 -0.038865834 -0.106102854
000320 e0 97 04 bf 56 7c 57 3e 4f c3 02 be 7a be f0 3e
       -0.5179424 0.21043524 -0.12769817 0.47020322
000330 6c 03 03 3e 29 21 f2 bd 33 e5 6d bc d8 8a 59 3e
       0.12794274 -0.11822731 -0.014519977 0.21244371
000340 49 60 8c bd 4b b8 87 3f a6 b2 46 3f 28 33 2c 3f
       -0.068543024 1.0603117 0.77616346 0.6726556
000350 b4 f9 76 bf fc 01 6d be 19 df ef 3e 2b aa b9 bd
       -0.96474767 -0.23145288 0.46849898 -0.0906566
000360 10 6b c3 3e 3b 1a 14 3f 01 c2 8e be da f9 d3 be
       0.3816762 0.57852525 -0.27882388 -0.4140156
000370 37 82 a2 be f7 ba eb 3e 84 6a 58 be f5 f5 01 3f
       -0.3173997 0.4604108 -0.21134382 0.50765926
000380 35 e6 85 be d8 5c e1 3d 74 e7 fa 3d 48 eb 98 3d
       -0.26152197 0.11004037 0.122511774 0.07466751
000390 51 dc 2b be 34 4f b1 be 99 fc 4d be b9 b8 0d 3f
       -0.16783263 -0.3463074 -0.2011589 0.5535999
0003a0 d1 d2 f1 3e aa 0e 8e be a1 fc 20 be 01 c5 72 3c
       0.47231153 -0.27745563 -0.1572137 0.014817477
0003b0 aa a7 af bf ae 6c 4a 3f 8f 15 52 3f a2 90 b8 bd
       -1.3723042 0.7907208 0.82064146 -0.090119615
0003c0 c1 a0 b6 3e 1d 77 3c be f9 31 a3 3e ab ff c5 be
       0.3566952 -0.18404813 0.31874064 -0.38671622
0003d0 be c4 5e 3e 08 e3 90 3e a6 1b bc 3e dc d3 c2 3c
       0.21754739 0.2829821 0.36739844 0.023782663
0003e0 d6 00 d4 bd 52 7f d8 bd dd b0 09 3f 53 ff 6f 3e
       -0.10351722 -0.105711594 0.53785497 0.23437242
0003f0 02 67 30 bf b2 94 d6 be e7 f1 aa 3d 7e 02 5d 3e
       -0.6890718 -0.4191032 0.083469205 0.21582982

mid_part.0.bias f4 [12]
000000 5d 75 b2 3b 7c ea 05 bd 0e af 44 bb c6 5d 80 3a
       0.0054461197 -0.032694325 -0.0030011567 0.0009793572
000010 0e 5c 88 3d df 96 b8 3b 0a 0c d5 3c c4 fa d8 3c
       0.06658183 0.0056332196 0.026006717 0.026486762
000020 a9 b8 a2 bc 53 46 d3 b9 81 af 69 bb 4a 87 09 3d
       -0.019863443 -0.00040297452 -0.0035657587 0.033576287

mid_part.1.weight f4 [12]
000000 1a ad 85 3e 8b 89 bf 3e a4 ec 7f 3e 4e 21 83 3e
       0.2610863 0.37409624 0.24992615 0.25611347
000010 09 cf b6 3e 0f 75 80 3e bb 41 75 3e 15 55 f0 3e
       0.3570483 0.2508931 0.23950855 0.46939912
000020 da 57 96 3e f7 06 d3 3e 76 ef 84 3e c1 10 8e 3e
       0.293639 0.4121625 0.25963944 0.27747157

mid_part.2.weight f4 [12, 12, 3, 3]
000000 75 ba 80 3e 55 e3 af bc 2b e5 81 3c bf e5 84 be
       0.25142255 -0.021470705 0.015856346 -0.25956532
000010 94 da e3 3d 58 96 e8 bd 78 52 89 bd 2e 96 e3 bd
       0.11125675 -0.11356801 -0.06705183 -0.11112629
000020 77 72 97 3d 99 5e 3e 3e b7 eb 61 be be 12 59 3e
       0.07394879 0.18590774 -0.22062574 0.21198556
000030 8b bc 1d 3d b1 78 00 be 3a 28 f2 bd 04 75 9f bd
       0.038509887 -0.1254604 -0.11824079 -0.07785991
000040 18 8c 22 be 66 e3 0c 3d 1d de b9 3d e9 05 22 3e
       -0.15873754 0.03439655 0.09075568 0.15822567
000050 bb 9b 6f 3d b2 a0 24 3e 5f 93 f6 3b 0c f0 dd bc
       0.058498126 0.16076925 0.007524892 -0.027092002
000060 a9 b2 85 3e 2d 1f 81 3d 86 ee 92 bd 44 f3 cc 3b
       0.2611287 0.063047744 -0.07174401 0.0062545855
000070 46 28 91 bd 65 63 01 3e 80 ad 10 3e 12 64 9b be
       -0.0708776 0.12635572 0.14128685 -0.30349785
000080 f5 71 87 be 45 33 f7 bd a0 7f 15 bd ef c5 2d 3e
       -0.2645413 -0.12070326 -0.036498666 0.16970037
000090 b0 2c 35 be 4b 43 e7 bd 58 d8 bb bd 37 76 84 bc
       -0.17692828 -0.11292132 -0.09172124 -0.01616965
0000a0 b1 70 80 3e ce be 74 be 87 e1 fa 3c e0 d6 49 bc
       0.25085977 -0.23900911 0.030625118 -0.012319297
0000b0 65 86 3f 3d 07 dc 5d 3e c6 af 35 3d 20 21 5a 3e
       0.046759028 0.21665965 0.044357084 0.21301699
0000c0 43 33 53 bd 21 69 da bd 03 f5 a0 3d a7 fd bd bd
       -0.05156256 -0.10664583 0.07859232 -0.09276896
0000d0 9f 78 8e 3d a8 ce cd bd 09 ee 33 be ad 9b 20 3c
       0.069566004 -0.10049182 -0.17571272 0.009802741
0000e0 e5 eb 22 3b 12 b9 67 3e 9b f0 b4 bd e1 ff e3 3c
       0.0024859842 0.22629192 -0.08834954 0.027831974
0000f0 6c e4 cb bd f3 8d f6 3d 33 6f 20 3e d3 6d 05 3e
       -0.099556774 0.120387934 0.15667419 0.13030176
000100 b4 f8 84 bd 60 6a 77 3e d1 01 fc 3b d5 cc 48 3c
       -0.06492749 0.24161673 0.007690646 0.012255867
000110 6d e7 4a ba c9 d2 8a 3b cd c4 6d be 3b bb 52 be
       -0.00077401736 0.0042365533 -0.23219605 -0.20579235
000120 74 d3 87 bc 6b 86 a0 bc d0 3c 2d 3d 2f ee 44 be
       -0.01658032 -0.019595345 0.042294323 -0.19231485
000130 ae c0 8e 3e ea f8 89 bd c5 3c 85 bd ff 57 73 bd
       0.27881378 -0.0673693 -0.065057315 -0.05941009
000140 80 b2 c1 3c 15 3c 36 be 24 a0 94 3c 7b c6 2e 3d
       0.023644686 -0.17796357 0.018142767 0.042669754
000150 9c 95 3e 3d 5c 84 e8 3d 51 74 09 3e f7 8b eb bd
       0.046529397 0.113533705 0.13423277 -0.115013056
000160 87 b4 1a bd 02 23 c3 3c 58 2b 92 3d cd 5d 57 bb
       -0.03776982 0.023820404 0.071371734 -0.0032862306
000170 d8 19 72 3e 28 c3 f0 bd 15 55 46 bd c3 c7 8f bd
       0.23642671 -0.11755973 -0.048420984 -0.070205234
000180 9c e5 23 3d 4f 73 d7 3d 95 43 0a 3d d9 06 10 3d
       0.040013894 0.1052004 0.033755857 0.03516278
000190 c2 d7 75 bd 6a 36 cc bd e8 b9 dd bc eb 10 af 3d
       -0.060020216 -0.09971316 -0.027066186 0.08548149
0001a0 45 10 f1 3c 33 96 94 3d 77 bc 45 3d c7 8b 20 3c
       0.029426703 0.07255211 0.048275437 0.0097989505
0001b0 b5 e6 20 3c 22 c6 30 bd 98 74 46 ba 40 47 73 3c
       0.00982063 -0.043157704 -0.00075704744 0.01484853
0001c0 88 d1 91 3d fc 94 80 be 7c 97 59 3e b9 d0 8a 3d
       0.07120043 -0.25113666 0.21249193 0.06778092
0001d0 43 ac 08 3e 92 89 16 3e 9f d1 bf 3d 60 9a 04 bc
       0.13346963 0.14700916 0.09366154 -0.0080934465
0001e0 43 7b 6d 3e 58 2c f2 3d b9 b8 00 3c 40 f5 5a 3d
       0.23191552 0.11824864 0.007856541 0.053456545
0001f0 9b a9 e6 bd 7a e4 17 3e 6a 5a f2 bc f5 83 a6 be
       -0.112628184 0.1483325 -0.029584128 -0.3252255
000200 57 c1 27 be 36 5c a4 3c 87 a9 6f 3d 48 e0 97 be
       -0.16382347 0.0200635 0.058511283 -0.296633
000210 64 8b e2 bd 13 4f be 3d c7 d8 c7 bd 5d e0 e6 3c
       -0.11061743 0.09292426 -0.09758144 0.028183157
000220 ee 0a 82 3e e5 93 ce bd bb ed ad bc 9c 14 9d bd
       0.25398964 -0.100868024 -0.021231523 -0.076699466
000230 b7 c1 e0 bc 6a b6 fe bd 14 0b ab 3e 9f a5 04 be
       -0.02743612 -0.124371365 0.3340689 -0.12953804
000240 9f 75 6f 3e 18 39 25 be 79 f2 52 bd eb 3e 3e be
       0.23384713 -0.16135061 -0.05150077 -0.18578689
000250 cb 1d 17 be da 61 0b 3d e1 b4 a1 bd 0e 83 c1 bd
       -0.14757459 0.034028865 -0.07895828 -0.09448825
000260 5f a7 04 bb 35 ff ed bd d7 1d 2f 3d 2b 7f 86 be
       -0.0020241363 -0.116209425 0.042753067 -0.26268896
000270 ae b3 23 3c d4 7e d0 3d d9 77 c1 3d 49 5e 0e 3e
       0.009991569 0.101804405 0.09446687 0.13903154
000280 de 25 82 bd 5d 51 0b bd 3f 33 45 3e d0 b5 4e be
       -0.06354879 -0.03401314 0.1925783 -0.20186543
000290 63 db 21 be ce bb 5e bc f6 95 57 3e 8d 3a 55 bd
       -0.15806346 -0.013594581 0.210533 -0.05205779
0002a0 8d 96 9a be 5c 18 ed bc 4a 36 e7 3d 70 7c 33 be
       -0.30192986 -0.02894228 0.11289652 -0.17527938
0002b0 77 eb 28 3e e8 86 dd bd c3 69 25 bd 53 c2 67 3e
       0.16496073 -0.10816747 -0.040384065 0.22632723
0002c0 64 85 21 3e 9a 65 64 bd ba 88 f4 bd ca 08 e2 bd
       0.1577354 -0.055760957 -0.11940141 -0.11036833
0002d0 0a a2 c0 3d ec 54 db bd 99 f0 c5 3d 00 0e a3 bc
       0.094059065 -0.10709557 0.09665031 -0.019904137
0002e0 6b 4b ac 3d f9 ba 97 be 41 e0 3a 3d 90 e0 9b bd
       0.08412822 -0.29634836 0.04562402 -0.07611191
0002f0 27 d4 87 bd cf 1b f1 bd 8d ba b0 bd d8 9d 88 bd
       -0.06632262 -0.11772882 -0.08629332 -0.06670731
000300 02 ae 0e 3c e7 f1 82 bd c2 c5 c7 bb 3d c7 30 be
       0.008708479 -0.063937955 -0.0060965726 -0.17263503
000310 02 aa 2b bd ba fe a2 3c 8a 04 9b bd 8c e0 06 3e
       -0.04191018 0.019896854 -0.07569225 0.13171595
000320 16 cb 20 3d 88 40 7d 3e 89 1a 4b bd 35 55 0a be
       0.039256178 0.24731648 -0.049585853 -0.13509066
000330 70 5f 0e be 97 c5 0f 3d 83 07 f9 3d 4e b0 8d 3e
       -0.13903594 0.035100546 0.12159636 0.27673572
000340 1f a2 48 3e 93 f4 99 3d 06 42 da 3d 5c 4c ca 3d
       0.19593094 0.07517352 0.10657124 0.09877846
000350 aa d9 22 3e 0e 67 3d bb aa 80 e3 3d 0f 25 19 3e
       0.15903345 -0.0028900537 0.11108525 0.14955543
000360 33 7b 92 3d 1e c7 22 be 14 89 04 bd 35 59 d5 bc
       0.07152405 -0.1589627 -0.03235729 -0.026043514
000370 2b 03 40 3e 73 b8 35 3e 4a ef 17 3e 58 7b a6 bc
       0.18751208 0.17746143 0.14837375 -0.020322487
000380 a6 4c 92 3e c8 b9 a3 bd 71 8b da bd 57 6a 8d 3d
       0.28574103 -0.07994419 -0.106711276 0.06905048
000390 54 a0 49 3e bd 14 96 bd d1 8e 87 bc 88 c8 72 bd
       0.19690067 -0.07328174 -0.016547592 -0.059273273
0003a0 67 5b d2 3d 29 9d c6 3d 75 ec 13 3e 75 ba 88 be
       0.1027134 0.09697945 0.1444567 -0.26704755
0003b0 5c 55 4f be 1b dd 7e 3d 1f 8c 03 be 3b bf 14 bc
       -0.20247406 0.06222258 -0.1284642 -0.009078796
0003c0 f9 be e5 3d e0 86 dc 3c 2f 2d 10 3d ed 14 08 be
       0.11218066 0.026919782 0.03519934 -0.13289233
0003d0 fa c9 80 ba 3c 65 86 bd f9 5f 63 3e c9 5f 44 3e
       -0.0009825819 -0.06562278 0.2220458 0.19177164
0003e0 a6 ec 34 3e 9a 90 fc 3c 29 7d 10 3e b3 b8 fc 3c
       0.17668399 0.03083067 0.14110245 0.03084979
0003f0 3f cd a7 3e 3d a2 61 be dc 0d b2 bd d3 21 12 3d
       0.32773778 -0.22034545 -0.0869405 0.03567679

mid_part.2.bias f4 [12]
000000 b0 25 71 3b 13 a6 c8 3b 1e 00 56 bb b7 0a 8c 3b
       0.0036796145 0.006123313 -0.0032653878 0.0042737382
000010 9f 21 fe 3c 06 42 14 bb 59 a9 a4 bb 2e 3e 2d 3a
       0.031021891 -0.002262236 -0.0050250706 0.0006608692
000020 4d 9a 8d 3c 9f ba 14 3a 22 a2 92 3c 95 63 e3 3c
       0.01728549 0.00056735607 0.017899577 0.027757445

mid_part.3.weight f4 [12]
000000 32 f8 ae be 2b 2e 7e 3e 70 66 86 3e c0 d6 2e 3f
       -0.34173733 0.24822299 0.2625003 0.6829643
000010 ab 9f 9f 3e 7b df 81 3e 5a f2 82 3e 97 75 19 3e
       0.31176504 0.25365815 0.25575525 0.14986263
000020 dc 12 6f 3e b7 33 cf 3e 90 b6 84 3e 8a 46 7b 3e
       0.23347038 0.40469143 0.25920534 0.24538627

mid_part.4.weight f4 [12, 12, 3, 3]
000000 ca e1 19 3d 5d 8c 97 bd c1 7c 62 3e 05 db 94 3e
       0.037568845 -0.07399819 0.22117902 0.2907335
000010 ca 45 fb bc f2 fd 07 3e 76 9d 05 be 4b c2 82 3d
       -0.030672926 0.13280466 -0.13048348 0.06384715
000020 4b 79 a1 bd 6d 0d 5e be 6f 38 fa bd bf 37 a9 3e
       -0.07884463 -0.21684809 -0.12217795 0.33050343
000030 4a 89 76 bd ef cd 17 3e 17 e1 22 be e0 13 f0 bd
       -0.060189523 0.14824651 -0.15906177 -0.11722541
000040 44 ba 8c 3b fe a9 61 3e 73 ac 0f be 00 c9 fe 3d
       0.0042946655 0.22037503 -0.14030628 0.124406815
000050 1d fd 43 3c d2 b5 00 3e 1d 3f cf bc 0c fe ae bd
       0.011962202 0.12569359 -0.02529865 -0.08544549
000060 e8 0c 80 bd ab 4c 1c 3e 1b a2 33 3e bc 1b eb bc
       -0.06252462 0.15263622 0.17542307 -0.028699748
000070 90 d8 a4 be 0e 45 78 3d a3 e9 06 3e 84 2d 06 be
       -0.32196474 0.06061273 0.13175063 -0.131033
000080 1d 4c 90 be 6c 20 9d bd a6 2c 65 3e 5e 51 e7 3d
       -0.2818307 -0.076721996 0.22380313 0.112948164
000090 32 8c a7 bd d6 f4 4d 3e f4 6e ca 3d b9 e2 6b be
       -0.08181037 0.20112929 0.09884444 -0.23035707
0000a0 04 0d 9f 3e 11 d4 f1 3c 7b a1 90 be d3 b4 7d 3b
       0.31064618 0.029520066 -0.282482 0.0038712516
0000b0 19 98 1e 3e 55 41 eb bc 79 c7 b1 bd 80 c6 f3 3d
       0.15487708 -0.028717676 -0.086806245 0.11903095
0000c0 16 ed 7d be e7 ed 85 3d 62 42 b5 be bb 83 6b 3d
       -0.24797472 0.06539517 -0.3540221 0.057498675
0000d0 7d 3b 7e 3e 62 f8 1c be 0b 04 e8 3d 89 51 6f be
       0.2482738 -0.15329126 0.11328896 -0.23370947
0000e0 93 c5 d3 bd 24 3a e8 3d 43 7a c1 bb 11 7e 07 be
       -0.10340419 0.113392144 -0.0059044673 -0.13231684
0000f0 88 89 fa bc df 64 85 be db 98 8d 3e 6f 37 30 3d
       -0.030583158 -0.2605352 0.27655682 0.043021616
000100 c4 c6 f6 bd 05 c3 2d 3e 10 d7 d7 bc ea 53 44 3d
       -0.1204963 0.16968925 -0.026347667 0.04793159
000110 7c 6a 04 3e ca c1 74 be cb 42 9d bd b2 c7 8d bd
       0.12931246 -0.2390205 -0.076787554 -0.069228545
000120 58 4c f7 bc 4f 27 60 3b 57 83 c1 bd 01 e9 2f be
       -0.03018777 0.0034203117 -0.09448879 -0.17178728
000130 de d6 8f bb 59 05 69 bc 7b 32 7a 3d de 9e 53 bd
       -0.004389628 -0.014222466 0.0610833 -0.05166518
000140 7d e8 48 3e 0a 13 e2 3d f0 45 2c bc f3 8d 61 3e
       0.19619937 0.11038788 -0.010514721 0.22026806
000150 4e 40 f9 3d ff 6c 24 3e 08 1a f9 bc f9 5a b1 3d
       0.12170468 0.16057204 -0.03040792 0.0865993
000160 58 f0 33 3e 9b d6 a9 be ac cb a1 3c f3 f9 3b 3e
       0.17572153 -0.33171543 0.019750439 0.18357067
000170 43 dc 57 bd a2 d6 22 3e e5 4d 53 be 55 d9 95 3d
       -0.052700292 0.15902188 -0.20635183 0.073168434
000180 f1 ad 37 be 55 51 2f bb 60 6c 0d 3e a5 58 4a 3e
       -0.17937447 -0.0026751359 0.13810873 0.19760378
000190 6d 88 b5 3c e4 90 5f 3e 66 33 96 be 84 c1 54 3e
       0.02215978 0.21832615 -0.2933609 0.20776945
0001a0 f3 9d da be 2a 97 9f bc f8 8e 6a 3e c4 5f 98 3e
       -0.4269863 -0.01948126 0.22906101 0.29760563
0001b0 2c 0a f1 3d d1 22 62 be fd 9b 3b bd ff f3 8c 3e
       0.11769518 -0.22083594 -0.04580306 0.27529904
0001c0 c4 6d b1 3d 3b 38 cb 3d a3 bf 93 3e 5d 49 75 be
       0.08663514 0.099228345 0.28857145 -0.23953767
0001d0 46 c3 0d 3d e3 49 b4 bc de 7d 7b 3d 52 97 1c bd
       0.034610055 -0.022007888 0.061399333 -0.038230248
0001e0 40 ab 94 3e 0e 4c 6f 3d 08 80 a6 3e 33 9c 79 be
       0.29036903 0.05842214 0.32519555 -0.24375992
0001f0 d8 9d 81 be 8d 5e a7 bd e5 cb 55 be b9 46 ea 3d
       -0.25315738 -0.08172331 -0.20878561 0.114392705
000200 64 07 5f bd 6a 40 ed be f4 41 2f be ec c9 46 bd
       -0.054450408 -0.46338207 -0.17115003 -0.04853241
000210 6e c9 0a bf f3 d9 3c be f5 94 c7 3d 75 b6 a4 3c
       -0.5421361 -0.18442516 0.09745208 0.020106534
000220 c3 b3 31 3e b6 74 73 3e 85 2a 33 3e 47 e3 a6 3e
       0.1735373 0.2377499 0.17496689 0.32595274
000230 e2 e5 7b 3d 17 e8 bb 3e 84 5d b2 3e 5e 84 be bd
       0.06149853 0.36700508 0.34836972 -0.09302591
000240 59 5f e0 bc e0 60 f4 bc 0f 6e 04 bd 94 24 45 be
       -0.027389215 -0.02983135 -0.032331523 -0.19252235
000250 f2 35 91 bc 26 5d b5 ba 9f ba af be 28 c9 5d bd
       -0.017725918 -0.0013836964 -0.34322068 -0.054146916
000260 4f 4c 0d bd c4 ee f7 bc 00 13 41 be b3 27 91 3e
       -0.0344966 -0.03026522 -0.18854904 0.283506
000270 51 e3 78 be 9d 07 3a bd 73 99 0d 3e f0 96 01 be
       -0.24305464 -0.045417417 0.13828067 -0.12655234
000280 73 92 0b 3d 55 86 8a bd 0c 08 8a 3e bd b5 19 bd
       0.03407521 -0.06763903 0.26959264 -0.037526835
000290 c6 35 3a bd 77 4b bd 3e 09 dc a8 bd 49 eb d7 3c
       -0.04546144 0.36971638 -0.082450934 0.02635731
0002a0 63 11 00 3e 60 37 22 bd 12 e0 7f be 62 2e ae 3e
       0.12506633 -0.03960359 -0.2498782 0.34019762
0002b0 a3 5d 7c be cc de 75 be 2a e2 3d bd a4 6f bc ba
       -0.24645095 -0.24010772 -0.046358265 -0.0014376533
0002c0 64 27 9c 3d 9e 86 2b 3e 2c 34 0a 3e 79 0b db 3e
       0.07624701 0.16750571 0.13496464 0.4278219
0002d0 02 02 93 bd e5 c0 87 be fe 89 30 be a2 b7 bb bc
       -0.07178117 -0.26514354 -0.1724014 -0.022914711
0002e0 e3 46 ff bd 74 86 94 3d 35 54 4e 3e d2 17 8e 3e
       -0.124646924 0.072522074 0.2014931 0.27752548
0002f0 c1 7e e0 3d 56 60 d4 be c0 60 02 3e fa 1b 1b be
       0.109616764 -0.41479748 0.1273222 -0.15147391
000300 5a d2 44 3e c3 b5 63 3e 5c 05 18 bd 2f 89 10 3d
       0.19220868 0.22237305 -0.037114486 0.03528708
000310 40 c5 6c bc cd d4 d4 3d f0 52 d9 bd 70 a1 b9 be
       -0.014451325 0.10392151 -0.10611522 -0.3625598
000320 8d 41 24 bc 6f fc d1 3e 4e 2c c7 3e 91 0e 09 3e
       -0.010025394 0.41012904 0.3890099 0.13384463
000330 ea 7d c7 be 0a d1 73 be 0b 7e 16 3e 56 c4 6f be
       -0.38963252 -0.23810211 0.14696519 -0.2341474
000340 71 e3 83 be 09 f4 93 be ff 83 49 be 67 58 62 3d
       -0.25759462 -0.28897122 -0.19679259 0.05526009
000350 89 2b 52 bb fc 8c 19 3f 9f 4d bb 3e 29 1a 8b 3e
       -0.0032069406 0.5998075 0.36582658 0.27168396
000360 2e 60 46 3e 81 5c 4a be 95 be 1a 3e 83 c3 8a 3d
       0.19372627 -0.1976185 0.15111764 0.06775572
000370 84 fe 09 3d 0c e7 68 bc b9 84 27 be 5d 3c 9b 3e
       0.03368999 -0.014215242 -0.16359223 0.3031949
000380 22 6d 0a 3d f2 f5 60 3e 0f 26 8c 3c 96 56 30 3e
       0.033795483 0.2196882 0.017107992 0.1722053
000390 c4 cd 8e bc 10 03 00 3d ec 75 d9 3d 0d 94 a5 3a
       -0.017432101 0.03125292 0.10618195 0.0012632624
0003a0 68 77 a0 3d f3 69 86 3c 5e df e1 bd de d5 61 3d
       0.07835275 0.016407942 -0.11028932 0.0551356
0003b0 34 af 36 3e 4f 50 11 bd 5d ab 30 3e 86 c6 28 3e
       0.17840272 -0.03547698 0.1725287 0.1648198
0003c0 99 bf 35 3d 24 50 17 bc 12 41 42 be 60 c8 88 be
       0.044372175 -0.009235416 -0.18970135 -0.26715374
0003d0 72 7a 0b be b5 8f 73 bd d9 17 a0 3d 07 66 11 3e
       -0.13620928 -0.05946322 0.078170486 0.14199077
0003e0 00 e2 03 3e 1b d2 40 3e 5d 53 fc bd 59 92 72 3d
       0.12879181 0.18830149 -0.12320588 0.0592216
0003f0 26 db d7 bd 12 0e 9e be a7 ff 03 be b9 6a f0 bd
       -0.10539846 -0.3087011 -0.12890492 -0.11739106

mid_part.4.bias f4 [12]
000000 a1 d8 b5 3c 96 a8 d4 3b 37 9e a7 bc 07 e8 a1 3c
       0.022198023 0.0064898236 -0.020461185 0.01976396
000010 1a de ec ba be 77 29 bb 47 73 26 bb 83 82 a6 3b
       -0.0018071563 -0.0025858725 -0.00253983 0.005081476
000020 e0 c4 8a 3c 45 df 05 3c 67 34 cb bc a0 d1 0d bc
       0.01693958 0.008170907 -0.02480526 -0.0086559355

mid_part.5.weight f4 [12]
000000 b5 b9 c1 3e cf 99 10 3f 94 f0 a1 3e b7 16 85 3e
       0.37836996 0.56484693 0.3162886 0.25993893
000010 d0 7f cd 3f 70 3d 1d 3f 1d 19 a0 bd b3 99 03 3e
       1.605463 0.6142187 -0.0781729 0.128516
000020 a3 f3 45 3f dd 82 e7 3e c9 29 d4 3e 12 1d 83 3e
       0.77324885 0.45217028 0.4143813 0.25608116

mid_part.6.weight f4 [12, 12, 3, 3]
000000 6b 2b 72 3d 6d c1 9c bd 04 c1 aa bc 52 84 1a 3d
       0.059123438 -0.076540805 -0.02084399 0.037723847
000010 b0 d0 f8 3d 7a fb 2b 3e 74 64 3e bc cf 64 b3 3d
       0.12149179 0.1679515 -0.01162063 0.08759462
000020 12 43 c4 3c 92 8e 41 3d 9e 68 85 3e f2 48 46 3e
       0.023957763 0.047255106 0.2605638 0.19363764
000030 6f 96 b7 3d 7c 7f 55 3e 1e f4 85 3e 5d c5 3c bc
       0.0896424 0.20849413 0.2616281 -0.011521664
000040 8b 1f 96 be c6 28 8a 3d ec 8d b4 3d 26 49 20 be
       -0.2932094 0.06746058 0.08816132 -0.15652904
000050 a2 d0 47 3d b0 84 f4 3d 13 d5 9f 3c 52 68 a0 bd
       0.048782952 0.11939371 0.019510781 -0.078323975
000060 90 c3 3f be a0 d6 0f be b6 b5 2d 3e 88 03 f7 3d
       -0.18726945 -0.14046717 0.16963848 0.120612204
000070 a5 96 13 be f2 31 3f be 44 17 be bd d2 4a b5 3d
       -0.14412935 -0.18671396 -0.09281781 0.088521615
000080 86 ff 00 3e d9 76 91 3d f3 7a b0 be 4c 4f 2e be
       0.12597474 0.071027465 -0.34468803 -0.17022437
000090 4b f6 68 ba 95 3b 28 3e b9 3e 96 bd c5 25 32 3e
       -0.0008886798 0.16428979 -0.07336182 0.1739722
0000a0 59 0b 04 3e 3d 96 0a be dc 52 49 bd 36 40 3c 3e
       0.12894954 -0.13533874 -0.049151286 0.1838387
0000b0 22 42 16 bd ad 70 04 be 01 a7 d4 be 34 b7 fb 3d
       -0.036684163 -0.12933607 -0.41533664 0.122908026
0000c0 02 bd 5d 3e 5b 8b d4 ba 7b 4c 48 3d 07 81 be 3d
       0.21654132 -0.0016215848 0.048901062 0.09301954
0000d0 c6 9f d1 3d 29 3d 44 3e cf e5 39 3e 1c 8e 4e be
       0.102355525 0.19163956 0.18154071 -0.20171398
0000e0 15 51 55 3d 0a 81 bd 3d b3 ec 52 3d 58 a3 80 3d
       0.05207928 0.09253128 0.051495265 0.06281155
0000f0 4e 60 4f 3e 51 70 51 3e fd 5d fd 3d ed 2b ec bd
       0.20251581 0.20453002 0.123714425 -0.11531816
000100 a2 ed b4 bd 2d 59 16 3e 47 c6 2a bd 58 f9 23 be
       -0.08834387 0.14682455 -0.041693 -0.16013086
000110 e3 6b c9 3c 80 5c 98 3d f1 98 1b 3d 90 d8 42 be
       0.024587577 0.07439518 0.037987653 -0.19027925
000120 37 10 27 bd 21 65 b6 3d 3e de 23 3e 7d 73 1a bd
       -0.040786948 0.089060076 0.16002747 -0.037707794
000130 59 32 8e 3d 24 90 12 bd 4a ac 9e bd b8 2d 3b be
       0.06943197 -0.035781994 -0.07747705 -0.18279159
000140 b6 2f 12 3d af 23 ff bc 05 fa 3a 3e 23 8c 1c bb
       0.035690032 -0.031144945 0.18259437 -0.002388724
000150 80 50 2c be 42 2e 72 3d a9 44 41 3e 9a af 4f be
       -0.16827583 0.059126146 0.18873848 -0.2028183
000160 2f 4a ff bd 07 c1 6d be 00 ef bf bd 6c d6 0e 3e
       -0.12465321 -0.23218165 -0.093717575 0.13948983
000170 5e bd f1 3d 99 bd 5e bd 77 12 56 be 16 62 d5 3d
       0.11803697 -0.054380033 -0.20905481 0.10419099
000180 e4 20 9c bd 26 32 24 3e 21 a7 c4 bc 49 6f f4 3d
       -0.07623461 0.16034755 -0.024005475 0.119352885
000190 67 a1 58 3d 4d 90 5c 3d 4d 1e 80 3d 48 f7 f3 bd
       0.0528883 0.053848553 0.062557794 -0.119123995
0001a0 9c 20 74 bc 58 86 26 3e 5d 89 09 be 3e 68 c9 3b
       -0.014900353 0.16262186 -0.13431306 0.00614646
0001b0 d7 3e b0 3e 83 06 0d 3e 8f 43 36 3d 07 fb d2 bd
       0.34422943 0.13772015 0.044498023 -0.10301786
0001c0 bb bc 51 be dc b8 16 3e e5 fb 09 3e 73 7f 8d 3d
       -0.20482151 0.14718956 0.13474996 0.06909075
0001d0 4f e5 0d 3c 30 18 db bd 39 19 ce 3b 9c 8c 17 3e
       0.008660628 -0.10697973 0.006289628 0.14799732
0001e0 aa 8e be bb 3e f7 e3 3d d5 bb b3 3d 7a 99 43 3e
       -0.0058153467 0.11131142 0.087760605 0.19101515
0001f0 24 69 fb bd 8b b4 0e bd 58 5a f6 3d 25 f3 fd 3c
       -0.12275913 -0.034840148 0.120289505 0.03099973
000200 36 86 b7 3c fa b4 51 3e 2d ed 2c 3d 39 64 39 3e
       0.022402864 0.20479193 0.042218376 0.18104638
000210 43 b2 26 bd a0 71 41 bd 20 bd e3 3c 5d b3 ef 3d
       -0.040697347 -0.047227502 0.027800143 0.11704133
000220 de 39 91 3c 5a b7 2d bd 45 a2 04 be d1 d9 16 3e
       0.017727789 -0.042411186 -0.12952526 0.14731528
000230 35 66 ab 3c 1c 0f 16 be 96 59 5d be d6 05 8b 3d
       0.02092276 -0.14654201 -0.21616206 0.067882225
000240 a1 d8 5a 3d 36 8d d8 bd d1 30 27 3e 3c 5e 0c 3e
       0.05342925 -0.10573809 0.16327216 0.13707823
000250 4b 01 6a bd 0a d9 f9 bd b4 8f 95 3d b4 52 7c 3e
       -0.05713014 -0.121996 0.073028 0.24640924
000260 db 67 63 3d 04 93 9e 3d 77 0f 3a 3d 7b 03 f7 3d
       0.055518966 0.07742885 0.045424905 0.12061211
000270 a7 f2 32 be e0 fa 76 3c cc bd 03 bd c0 bd c2 3b
       -0.17475377 0.015074462 -0.032163426 0.00594303
000280 0a df 06 3c 21 d8 43 3d 42 6a 39 3e e9 ce 44 3c
       0.008231888 0.04781354 0.1810694 0.012012222
000290 29 af 1f 3d c5 e1 0f 3d db 61 c8 3d f6 df 11 bd
       0.038985405 0.03512742 0.097842894 -0.035613976
0002a0 01 65 7d bd 8f 91 a4 bd a0 25 99 bd 38 2a 17 3e
       -0.061863903 -0.080355756 -0.074778795 0.14762199
0002b0 0a 6d 8f bc c9 f6 ad 3d d9 f4 14 3d cb 5a 2d 3e
       -0.017508049 0.08494336 0.036366317 0.16929166
0002c0 8f 79 57 be ea ad dc bc 3c 72 d1 bc 96 4b ef bd
       -0.21042465 -0.026938397 -0.025567167 -0.11684339
0002d0 a2 30 4e 3e 81 cc 8a be 1f c3 01 3e de cc 06 3c
       0.2013574 -0.2710915 0.12672089 0.008227555
0002e0 82 f5 46 3d d6 7e 4a 3e 06 85 95 3b 25 5f 38 3e
       0.04857398 0.19774947 0.004562977 0.18005045
0002f0 65 d7 3f bd 99 5b ce 3d 48 a0 0c 3c bf b8 49 3d
       -0.046836276 0.100760646 0.008583136 0.049248453
000300 6a dc 13 3e 6c a7 69 3e 75 37 2d be 86 38 49 3c
       0.1443955 0.22817773 -0.16915686 0.012281543
000310 25 85 22 3e 43 10 4c 3e 57 ed ed 3d 48 c8 3f 3e
       0.15871103 0.19928078 0.116175346 0.18728745
000320 50 60 cc 3d a1 53 3b be d3 a9 7c be cd 2d 28 bc
       0.09979308 -0.1829362 -0.24674158 -0.010264826
000330 44 cc 07 3e c7 25 df bd 0e 0e 8e 3e 3c 19 b3 bd
       0.13261515 -0.10895877 0.27745098 -0.087450475
000340 c1 51 a0 bc 0b 5e 18 bd 66 5d 94 3d d9 4b 5c 3d
       -0.019570233 -0.03719906 0.07244377 0.05378327
000350 da b7 12 3c 34 23 81 be 89 ae 5b be ab bd 63 3d
       0.008954966 -0.2522217 -0.21453299 0.055600803
000360 3f 22 8a be 81 b8 1f bd 2e ec 53 be 8c 70 16 bc
       -0.26979253 -0.038994316 -0.20695564 -0.009182107
000370 5b 74 df bd e3 54 c7 bd 9a 0c 81 3e ef 0c 3e 3e
       -0.10910865 -0.09732988 0.25204927 0.18559621
000380 03 b3 40 be 47 9d 13 be 28 73 34 be b6 81 dc 3c
       -0.18818288 -0.14415465 -0.17622054 0.02691732
000390 d3 d1 f5 bd 2c 1a c4 3c 92 e3 17 be 92 45 8c 3e
       -0.120029114 0.023938261 -0.14832905 0.27396828
0003a0 d1 55 3b 3e ac fd 25 3e bf 2e 06 be 76 fb 12 3e
       0.18294455 0.1621005 -0.1310377 0.14353737
0003b0 ab 85 af 3c 6a fb 99 3d e1 64 8d 3a 79 87 12 be
       0.021426043 0.075186566 0.001078751 -0.14309491
0003c0 8e 18 1c 3e 82 30 0f be 57 e4 92 be 55 2a 46 3e
       0.15243742 -0.13983348 -0.28689834 0.19352086
0003d0 cf b1 9e 3d eb bb 06 3d 58 4c 3a 3e 8b df bc 3d
       0.07748758 0.032894056 0.18193185 0.09222325
0003e0 e6 f6 01 be 17 57 4c be 5e 97 fd bd b2 ee 90 3c
       -0.1269184 -0.19955097 -0.123823866 0.017691944
0003f0 be 68 97 be a5 7e 3e be 7e f8 31 3e 88 25 4d bd
       -0.295721 -0.18602999 0.17379948 -0.05008462

mid_part.6.bias f4 [12]
000000 99 61 7a 3c 8c 89 cb 3b 88 f4 02 3c a9 67 b9 3b
       0.015282058 0.006211465 0.007992871 0.005658109
000010 91 c9 3a 3c 5b 3d 8a 3c 8d 95 cf 3c b1 78 8b 3c
       0.011400596 0.01687496 0.025339866 0.017025324
000020 90 38 5d b9 ad 85 77 3a 01 24 7b 3c ca 5c 3d bd
       -0.00021097274 0.00094422215 0.015328408 -0.04623107

mid_part.7.weight f4 [12]
000000 27 5e 84 3e a9 ea c1 3e 63 e7 90 3e 94 8d 8e 3e
       0.25853083 0.37874344 0.28301534 0.2784239
000010 61 65 1d bd 44 54 1a 3f 4c d9 7f 3e 09 64 22 3d
       -0.03842676 0.6028483 0.24985236 0.039646182
000020 bc 95 82 3e de 1c 63 3e 41 9a 76 be 49 ee 69 3e
       0.25504863 0.2217898 -0.2408228 0.22844805

mid_part.8.weight f4 [12, 12, 3, 3]
000000 81 0e d6 3d 6e c7 ec bd 4e 81 44 be 5c fe a2 bd
       0.10451985 -0.11561476 -0.19189951 -0.079586715
000010 13 20 6c 3e 0c 18 09 3e 13 8a 98 be 3e d1 0f 3e
       0.2305911 0.1338808 -0.29792842 0.14044663
000020 87 fa 85 bd b4 3b 51 bd 52 e0 0c 3d 20 5f 86 3d
       -0.06541925 -0.051082328 0.034393616 0.065611124
000030 e9 e1 b9 3d 72 0d 9c 3e 43 7d 1d 3d 10 e4 47 3e
       0.09076292 0.30479008 0.038449537 0.19520593
000040 70 7d 6a 3d ac d6 69 bd b4 93 a6 3d 1c 62 09 bd
       0.057248533 -0.057089493 0.08133641 -0.03354083
000050 aa 3c 01 bc 53 8c 61 be 28 05 1b bd 60 1c 8a bc
       -0.007887999 -0.22026186 -0.037846714 -0.016859233
000060 03 dd 47 3d 1e 10 35 be 2b 49 1c bc 50 18 6e bd
       0.048794758 -0.1768193 -0.009538929 -0.058128655
000070 36 da a1 bd 9f 03 f9 3c 8f d6 2c be d3 13 75 bd
       -0.079029486 0.030397234 -0.16878723 -0.05983336
000080 94 9d db 3d 0e 65 0a 3c a8 b6 d5 bd c0 3f 46 be
       0.10723415 0.008446945 -0.104352295 -0.19360256
000090 80 58 c9 bc 3a e3 89 bc 34 86 94 3c a2 23 ce 3d
       -0.024578333 -0.016831983 0.0181304 0.1006539
0000a0 a9 16 8c bc ad 3b 68 3e 6a 66 c0 bd a7 83 68 3d
       -0.017100649 0.22679015 -0.09394534 0.05676618
0000b0 0f 63 a7 bc 55 45 9c 3d 90 f4 08 3e d3 d2 48 3d
       -0.020432977 0.076304115 0.13374543 0.049029183
0000c0 1c 59 2f be 93 fc 61 3d 65 33 b4 3c d6 77 ac 3e
       -0.17123836 0.055172514 0.021997163 0.33685178
0000d0 ba 08 38 be 9e c1 bf 3d b8 fc d9 3d 1d 75 b0 be
       -0.17972079 0.093631014 0.106439054 -0.3446435
0000e0 85 ed 18 3d a8 70 1d 3d e3 f1 11 bd 76 3b 4e bd
       0.03733589 0.038437515 -0.03563107 -0.050349675
0000f0 64 d6 e8 bd 09 c5 eb bd 5e 97 1d 3d 3c f1 58 bc
       -0.11369017 -0.11512191 0.038474433 -0.0132411085
000100 92 5d 9c 3e 0b f8 1c 3c 6e e1 42 3d 5a f6 4f 3e
       0.30540138 0.009580622 0.047578268 0.2030882
000110 30 a5 c1 bd b4 99 33 be 44 80 89 bc aa 28 5f be
       -0.09455335 -0.17539102 -0.016784795 -0.21792856
000120 65 ab 85 be 51 3a 19 3d c4 b3 7f 3d d3 74 9e bb
       -0.26107326 0.03740913 0.062427297 -0.004835704
000130 38 ab 3a 3e 4d 9d 0c be 4b 7b 8a bd 8c 06 03 be
       0.18229377 -0.1373188 -0.067617975 -0.12795466
000140 b3 d7 ff bd 75 89 9c 3d 28 8e 80 bd 49 54 10 be
       -0.12492313 0.07643405 -0.06277114 -0.14094652
000150 ed c8 11 be 8b 64 67 bd 3f e2 d1 bc 16 cc 68 3e
       -0.14236803 -0.05649237 -0.025620578 0.22734103
000160 95 3a 21 bd 92 6a 3a ba 43 5b 2f 3c 2f 59 21 3e
       -0.03936251 -0.0007111217 0.010702911 0.15756677
000170 e0 09 93 3c 2b 2a 8a bd fc d0 22 bd 73 88 2f 3d
       0.017949045 -0.06746324 -0.039750084 0.042854737
000180 f9 28 aa 3d b3 c0 ad 3d 60 9d 42 bd b3 0e 57 3e
       0.08308596 0.0848402 -0.047513366 0.21001701
000190 85 28 db 3e 7f 08 3f be df a6 e5 3e 98 a5 67 ba
       0.4280435 -0.18655585 0.44853875 -0.0008836626
0001a0 32 c1 62 3e 7a fb 3e be 93 28 15 3e 60 72 72 3e
       0.2214401 -0.18650618 0.14566259 0.23676443
0001b0 a0 e4 de 3d 9a 65 b3 bd c3 1c 1b be a1 f9 57 3e
       0.108834505 -0.08759613 -0.1514769 0.2109132
0001c0 15 b1 17 3e e2 44 43 3c 5f 54 79 3d 1b ab 88 be
       0.14813645 0.011918278 0.06087148 -0.26693043
0001d0 ee c5 73 be 44 ba 63 3d 54 c2 17 be f0 20 71 3c
       -0.23805973 0.05559756 -0.14820224 0.014717326
0001e0 be 2f f9 3d 65 7d 55 3e 78 9d 75 be dd 32 25 be
       0.12167309 0.20848615 -0.23985851 -0.16132684
0001f0 14 29 c4 3b 5f 95 d7 bd cf 1f 46 3d 51 25 b4 bc
       0.005986342 -0.10526537 0.04837018 -0.02199045
000200 63 e4 b4 3d 4c 76 25 3d c3 af 87 be b2 be 7e 3e
       0.08832624 0.04039602 -0.26501283 0.24877432
000210 77 05 f5 bd f5 ba 97 3d 0a a0 cb 3c 29 a5 5b bd
       -0.11963933 0.07408706 0.024856586 -0.053624306
000220 8f c9 b5 3e 09 f6 3a 3d 30 dd 08 3e 3b 69 c1 bb
       0.3550534 0.045644794 0.13365626 -0.005902437
000230 1c 32 a0 3d f6 42 39 be 4a 6e 8a 3d 3a 50 de 3d
       0.078220576 -0.1809195 0.06759317 0.10855146
000240 92 8b 1f 3e 56 e7 b6 3b d9 93 cf bd cb 92 2f 3d
       0.15580586 0.0055817766 -0.101356216 0.042864602
000250 65 98 44 3e f5 ee 98 be 06 2b 23 3e 68 b6 a8 be
       0.19198759 -0.2986981 0.15934381 -0.32951665
000260 17 db 7c 3d ff af 08 3e 29 99 1b 3e 9d 52 b4 bc
       0.061732378 0.13348387 0.15195145 -0.02201205
000270 c0 a9 8e 3d 89 43 5b 3e 74 5a 7f 3d e6 be 61 be
       0.06965971 0.21412481 0.062342122 -0.22045478
000280 46 e8 30 bd fa 7e dd bc 01 f5 c0 bc 5a df f3 bb
       -0.043190263 -0.027038086 -0.023554327 -0.007442397
000290 68 76 2f 3e ad d0 01 3e 68 0d 94 3c d7 a1 7f 3d
       0.17135012 0.1267726 0.018072799 0.062410202
0002a0 e5 6e 25 bc 74 df 49 bd 87 7a a2 3d 93 c5 22 3e
       -0.01009724 -0.049285367 0.079335265 0.15895681
0002b0 37 0a 54 3e 6f 12 01 3e de 60 ca 3d 1d 08 b5 be
       0.20707022 0.12604688 0.09881757 -0.35357752
0002c0 c8 42 32 3d 5d 30 fb 3c 44 77 75 bd 3c 1f 94 3d
       0.04352072 0.03066271 -0.059928194 0.0723252
0002d0 0b 70 af 3d b1 d7 67 bc de f8 bb 3b 94 3f 3c 3d
       0.085662924 -0.014150546 0.0057364544 0.04595907
0002e0 f9 54 03 be dc 77 de 3c 1b 04 8e 3e af 51 cb bd
       -0.12825383 0.027156763 0.27737507 -0.09927689
0002f0 91 43 d5 3d 60 79 94 3e 0a 76 87 3c dc 24 5a 3c
       0.10413278 0.28998852 0.016535778 0.013314452
000300 ae ed 77 3e fc 02 29 3d d0 17 70 3e bb 3d 47 3e
       0.24211761 0.04126261 0.23446584 0.19457142
000310 ef 27 9e bb 0e 03 68 3d a1 bc 26 3c da 86 19 bd
       -0.004826538 0.05664354 0.010176809 -0.03748212
000320 e8 36 a5 3d 29 7a 26 bc 20 90 32 be b0 94 0a be
       0.08067113 -0.010160961 -0.17437792 -0.13533282
000330 5b c1 c4 bd b4 06 9f 3d 6e 33 37 3e 90 04 37 3e
       -0.09607192 0.077649504 0.17890713 0.17872834
000340 e6 ce 48 be f0 a6 05 3e a9 c5 10 3e 58 e9 77 3d
       -0.19610175 0.13051963 0.14137901 0.06052527
000350 42 12 b6 3d 4e 2b 0e bc b9 2d d4 3b e7 89 5c 3e
       0.08890201 -0.008677317 0.006475177 0.2153698
000360 e5 4b 3d bd 9c c7 31 3e 49 90 e5 3d 06 0b 06 bc
       -0.046214957 0.17361301 0.11209161 -0.008181339
000370 3a ab 99 3d 9c ee e3 bd 9e 7d 64 3d 5a 03 d8 3d
       0.07503362 -0.111294955 0.05578386 0.10547514
000380 64 3b 0f 3e 85 35 90 3d e4 ae 78 3d b7 85 45 3e
       0.139875 0.07041458 0.060713664 0.1928929
000390 08 bc c0 3c 15 5f 3b 3e ed 99 03 be f5 ca c9 3d
       0.02352716 0.1829799 -0.12851687 0.09853164
0003a0 49 67 a0 3d f7 ac 05 be cf 18 7f bc 44 05 30 bd
       0.078322 -0.13054262 -0.01556988 -0.04297377
0003b0 76 42 2c be ed 4e 54 bd 9a 0e 38 be e3 a5 c8 3c
       -0.16822228 -0.051833082 -0.1797432 0.024493163
0003c0 f3 31 47 bd 3c be 2d bd 4f bc c2 bc d5 a2 5b be
       -0.04863162 -0.04241775 -0.023771433 -0.21448834
0003d0 9e a9 a5 bd 6f 2f 89 bd cf f1 6c 3e 8f a0 a9 3d
       -0.080889925 -0.066985 0.23139118 0.08282577
0003e0 25 c4 4d be 10 f5 2a 3d f6 b0 59 bd 9b 2d 24 3c
       -0.20094354 0.041737616 -0.05314728 0.010020639
0003f0 b3 ee 92 3d 66 97 39 3d 5d e6 87 be be 4d 35 3e
       0.071744345 0.0453104 -0.2654294 0.17705438

mid_part.8.bias f4 [12]
000000 4f 40 97 bb 6a 84 0a 3c 54 76 93 3a 41 90 82 bc
       -0.0046158205 0.008454422 0.0011250474 -0.015937926
000010 2b dc 34 3c 9b 22 2e 3b af 49 08 3b 8b f3 0c 3c
       0.01103882 0.002657092 0.0020795872 0.008602987
000020 dd b4 32 bc 81 d2 5b 3d 32 c3 45 3c 79 78 1d 3c
       -0.010907379 0.05366755 0.012070464 0.009611242

mid_part.9.weight f4 [12]
000000 22 e7 3a bf 97 b8 26 bd e2 91 fa 3e 8b 2d 86 3e
       -0.7300893 -0.040703382 0.48939425 0.26206622
000010 e7 05 18 3f d0 88 8a 3f 8f cf c2 3e ee e9 28 3e
       0.59384006 1.0823002 0.3804898 0.16495487
000020 cc a5 88 3e 6c c0 6c 3e 80 f6 b9 3d 61 19 45 3f
       0.26688993 0.23120278 0.09080219 0.7699185
