models/fsrcnn/track1/track1_x4__epoch_6.pth (torch, 57971 bytes, 22 tensors)

first_part.0.weight f4 [56, 1, 5, 5]
000000 90 1a 58 bc c6 e4 3d 3d ad 5d ba 3c ab 8f 14 3c
       -0.013189927 0.046360753 0.022749746 0.009067456
000010 eb 8e 5b bc 98 11 ff bc 8a 09 01 3d f8 b2 a0 bc
       -0.0134007735 -0.031136319 0.031503238 -0.019616589
000020 d3 05 13 bd 9a 1b fd 3b b2 d8 75 3d b2 a1 af bc
       -0.035894226 0.0077242376 0.06002111 -0.021439407
000030 f7 9a 08 3d 67 f0 b9 3c b6 f4 72 3c 95 45 fd 3c
       0.03335091 0.02269764 0.014828851 0.030916968
000040 1a 1a b3 bc ec 06 2b bc 33 a0 94 3d 9a 92 09 bb
       -0.021863032 -0.010438662 0.07257118 -0.0020991922
000050 47 44 63 bb 81 f8 02 3c 2f 06 62 3d de cc 36 3b
       -0.0034678148 0.007993818 0.05518168 0.0027893106
000060 15 98 34 bd b1 c7 f6 bc fc 72 20 bd 76 e6 2f bd
       -0.04409035 -0.030124517 -0.039172158 -0.042944394
000070 c3 ce b1 3b a3 84 40 3d 40 22 37 bd 34 8d 22 3d
       0.0054262592 0.047001492 -0.044710398 0.039685443
000080 2a e7 25 bd 0a 96 7b bc 85 50 9c 3b e5 51 05 bd
       -0.04050366 -0.015355596 0.004770341 -0.032548804
000090 31 b5 73 3c 8f c4 77 3b 02 70 7e b8 f8 8f 84 bd
       0.014874742 0.0037806367 -6.0662634e-05 -0.06472772
0000a0 39 45 89 bb 83 58 ec 3c a0 6c d2 bb 58 4b 00 3b
       -0.00418916 0.0288508 -0.0064216405 0.0019576158
0000b0 4f 1a 7d bc a1 28 1c 3d 5e e0 42 ba 58 94 b6 bd
       -0.015448167 0.038124684 -0.0007433946 -0.08915013
0000c0 5b 4a 4a 3d 6a 75 1a 3b f5 54 dd bc 26 52 47 bd
       0.049387317 0.002356852 -0.02701805 -0.048662327
0000d0 8a 34 59 bc 7a 9d 7e bc 68 a9 a0 3c 8b e9 c6 bb
       -0.013257155 -0.015540475 0.01961203 -0.006070321
0000e0 ff 69 25 3b 19 b5 a5 bc a6 5a d3 bc f7 55 98 bd
       0.002524018 -0.020227956 -0.02580006 -0.074382715
0000f0 c8 36 26 bd 2a f3 a2 bd 89 3c 73 bd a3 23 67 bc
       -0.040579587 -0.07956536 -0.059383903 -0.014107618
000100 ed 04 66 bd a3 85 37 3d ee 97 67 bd 70 a8 88 bd
       -0.05615704 0.04480518 -0.056541376 -0.06672752
000110 46 64 eb bc 99 aa 66 bc 3e 60 77 bd 2b 67 3c 3d
       -0.028734338 -0.01407876 -0.060394518 0.045996826
000120 dc 82 25 3d 04 42 2b bd 12 10 9b bc db 80 09 3d
       0.040408 -0.041811004 -0.018928561 0.03357015
000130 2a 25 0c bb 4b fa 6b 3d fd 45 93 3c 04 13 b4 bc
       -0.0021384456 0.057611745 0.017977709 -0.021981724
000140 bb 9e 28 bd 1f 1f 95 bc ed 8e f3 3b 53 c1 3b bd
       -0.041167002 -0.018203316 0.0074328096 -0.045838665
000150 33 94 8d ba 0c e9 05 3c 2f 7d bb 3d 26 d3 0f bd
       -0.0010801613 0.0081732385 0.09154736 -0.035113476
000160 b5 f3 98 bd 4f 0f ea 3c 06 80 3b 3d 1a c7 3f bd
       -0.074683584 0.028571753 0.04577639 -0.046820737
000170 8b 47 70 bd ac f5 12 bb 46 15 3e ba 50 a2 fb 3c
       -0.05866198 -0.0022424264 -0.0007251095 0.030717045
000180 52 85 87 bd f7 36 8d bc 96 ae 2e bd 67 1f d1 bd
       -0.06617226 -0.017238123 -0.042646967 -0.10211068
000190 8d c7 01 3c dc 46 21 bd 1f b8 fc bc 5d 15 ae bd
       0.007921112 -0.039374217 -0.030849515 -0.085001685
0001a0 75 29 7b bc 75 7b 9a bc a4 ed 95 3d d8 12 46 3b
       -0.015329708 -0.018857697 0.07320717 0.0030223634
0001b0 cd 96 1e 3d bc 10 c8 bb 82 ba d4 3b eb 19 a0 bd
       0.038718034 -0.0061055105 0.00649196 -0.078174435
0001c0 0a 2b 1e bd 29 ab 1f 3a 98 2d 79 3c c4 27 4c bc
       -0.038615264 0.00060908735 0.015208624 -0.012460653
0001d0 6e 43 9e bd 75 a8 55 bd be 04 f1 bc c6 6b 33 3d
       -0.07727705 -0.052162606 -0.029421207 0.043803953
0001e0 d0 82 3e bd 7b af 6a bc ac 53 4c 3d 00 82 8e bd
       -0.04651147 -0.014324064 0.049884483 -0.06958389
0001f0 f9 de a6 3c 17 1f a4 bd 0f 4c 4f bd ef 79 3b 3d
       0.020369994 -0.080137424 -0.050609645 0.04577058
000200 13 1a a9 3c 54 73 41 3c 69 18 01 3d fd f9 13 bd
       0.020642316 0.0118072815 0.03151742 -0.03612708
000210 e2 22 69 bc cf 92 6c bd 31 71 9b 3a 3f 85 43 bd
       -0.014229508 -0.057757195 0.0011859295 -0.047734495
000220 e0 f3 ce bc dc 86 1a 3d da 69 e8 3c ce 86 0c bd
       -0.025262773 0.03772627 0.028370786 -0.034308247
000230 35 53 5c 3d 16 f5 70 bd d7 2d b4 3c c1 6e 83 bc
       0.05379029 -0.058827482 0.021994514 -0.016044023
000240 7c 88 2a bc fc 9d 42 3d aa 0e c1 bb a7 38 8f bb
       -0.010408517 0.047513947 -0.0058916407 -0.004370767
000250 6f 0e 8b bc 52 01 f3 bc 59 e0 c3 bd 91 49 b2 3c
       -0.016974656 -0.029663716 -0.09564275 0.021763595
000260 7e 61 45 3c 64 dc 8a 3d 0c 89 95 bc 5c 40 61 bc
       0.01204717 0.067803174 -0.018253826 -0.013748255
000270 58 35 9b 3c d2 08 d8 3c 44 2a 45 bd a7 58 62 bd
       0.018946335 0.026371393 -0.04813601 -0.055260327
000280 bb 3d 56 bc 4c 9e 64 bd a2 ae 89 bc 8a 63 67 bc
       -0.013076241 -0.055815026 -0.016806904 -0.014122853
000290 b9 fe 0c 3d e8 dc a7 bd ef 8b 9c 3c f9 f7 00 bd
       0.03442261 -0.081964314 0.019109694 -0.031486485
0002a0 8f 78 35 3c 52 7c 92 bc 15 b2 81 bd b1 b0 4e 3c
       0.011076107 -0.017881546 -0.063327946 0.012615369
0002b0 5e 44 7b bb 55 f8 76 bb f5 d6 8b bd 06 fe 85 3d
       -0.003834031 -0.0037684639 -0.06828109 0.06542592
0002c0 c7 37 10 bd ca 64 8c 3d 52 40 e1 bd aa 27 6c bc
       -0.035209443 0.068551615 -0.10998596 -0.0144137535
0002d0 87 9a 77 3b 84 c1 0d 3d 31 93 bb bd b6 c3 81 3d
       0.0037781314 0.03460838 -0.09158934 0.06336157
0002e0 ef 7d 7b 3d cf 63 de 3c 1c a0 a5 bd 1a 35 6e 3e
       0.061399397 0.027147202 -0.08087179 0.23262444
0002f0 e4 df 9e bc 49 47 86 3c 14 18 b9 3c a0 bb bd bd
       -0.019393869 0.016391413 0.02259449 -0.09264302
000300 8e a7 a4 3d 0e 4a d6 bd 50 58 e3 3d 0c f4 a5 3d
       0.08039771 -0.104633436 0.11100829 0.08103189
000310 91 8d 7f 3c 50 92 76 3c 01 57 03 3d 0a d6 16 3d
       0.015597717 0.015049532 0.032065395 0.036825217
000320 04 fd c8 3c 75 93 6c 3d b5 ef 9d bb af ca ad 3b
       0.02453471 0.057757813 -0.004819835 0.005303703
000330 12 fa dc 3c 36 0a 04 3d 8a 34 26 3d 3d 19 8d bc
       0.026974712 0.0322363 0.04057745 -0.017223949
000340 79 ea ae 3c 36 b9 d6 bb e2 3b 91 3b e7 18 af bc
       0.02135204 -0.0065528406 0.0044321874 -0.021374179
000350 8d 60 92 3d 68 83 dc 3b cd 32 94 bc b1 c1 78 ba
       0.07147322 0.006729532 -0.01809063 -0.00094893115
000360 4b 06 69 3c 6d c2 c1 3c b0 9f 85 bc 02 3e 1e bd
       0.014222692 0.02365228 -0.016311496 -0.038633354
000370 b6 cb a6 3c 70 97 d4 3c a8 5f bf 3d 3c 1b 27 bd
       0.020360809 0.025951117 0.09344417 -0.040797457
000380 54 cb 61 3c 3f 54 a1 3d 71 7c 24 bd 72 20 71 bd
       0.013781387 0.07877397 -0.04015774 -0.058868833
000390 dc 37 5b 3d 8e af 72 bd e2 cd 6e bc 48 7e 90 3b
       0.05352007 -0.059249453 -0.0145754535 0.004409585
0003a0 f1 b0 e7 3c aa 6e 4a bd 29 5b 4b 3c 50 fb 31 3c
       0.028282614 -0.049421944 0.012411871 0.01086314
0003b0 31 09 8e bc 4d b5 97 3d 2b 68 4d 3d d6 ce 30 3d
       -0.017338367 0.07407627 0.05014817 0.043166004
0003c0 d6 f0 55 3d fe 44 a9 ba 80 b8 51 3c ab 1a 2b bd
       0.052231632 -0.0012914238 0.012800336 -0.04177348
0003d0 82 70 49 3d b3 e5 05 3d 01 86 1d 3d 75 35 c3 3c
       0.04917956 0.03268976 0.038457874 0.023829201
0003e0 69 69 6c 3d 90 b6 47 3d a1 e1 ae bc 63 1c 09 3d
       0.057717714 0.04875809 -0.021347823 0.033474337
0003f0 e0 2b 3f bd 3b c6 a4 bb 9a cc 42 bd 11 1c 52 3c
       -0.0466727 -0.0050285137 -0.047558405 0.012824074

first_part.0.bias f4 [56]
000000 ff 2b 9f bb 07 3a cb ba 5c 7b 9a 3a e4 d6 ee ba
       -0.0048575397 -0.0015504964 0.0011786032 -0.0018222001
000010 7d 4c bc 3b ad a0 0f bc 77 61 95 b9 c4 af ae 3c
       0.005746423 -0.008766335 -0.00028492112 0.021324046
000020 b6 bf 04 bc 33 2f eb bb bb f4 a9 bb 7c a2 07 ba
       -0.008102348 -0.0071772574 -0.005186645 -0.00051740534
000030 ff e1 0e 3c 37 ca 23 3c d2 0b 3d 3d 2a dd 1b bc
       0.008720874 0.009996942 0.04615385 -0.009513179
000040 03 5d 83 3b a1 a1 d9 bb 39 2d f6 3b 18 7e a1 bc
       0.0040088906 -0.006641582 0.007512715 -0.019713446
000050 a4 64 2e 3b 0e e1 2a b9 12 79 f5 bb 25 44 ce bb
       0.002661028 -0.00016296303 -0.0074912393 -0.0062947446
000060 64 c7 3e bc 31 8e 15 3c 42 40 d0 bb 69 82 b8 3b
       -0.011644218 0.009128139 -0.0063553164 0.0056307805
000070 e0 45 8d bc af 68 45 3b 92 e5 75 bb 4d 2e 67 3a
       -0.017245233 0.003012221 -0.0037520868 0.000881885
000080 dd 62 7c bb 17 4d 9b bb 09 23 9b 3a a8 72 73 3c
       -0.0038511076 -0.0047394144 0.0011836003 0.014858879
000090 0b b0 f4 b9 1a dd 43 3b 73 8a cb 3b 88 29 9a 3c
       -0.0004667047 0.0029886425 0.006211573 0.018818632
0000a0 87 af 85 3d 94 3f 15 3b f3 89 0d 3c 75 1b 16 bd
       0.0652762 0.0022773491 0.008638847 -0.03664728
0000b0 f1 38 a7 bb c6 fc 2b 3b 02 04 83 bc 70 c3 5a bb
       -0.0051032235 0.0026243194 -0.015993122 -0.003338065
0000c0 13 65 bf bd 3c 1b 61 3c f3 b9 9d bc 0b 9e e9 3c
       -0.0934545 0.013739403 -0.019253707 0.028517744
0000d0 40 c4 7e ba 58 df d4 3b d8 b8 ab bb be 3a 2d 3d
       -0.00097185746 0.006496351 -0.005240541 0.04229235

first_part.1.weight f4 [56]
000000 2a 3c 7a 3e 89 37 7d 3e e5 f7 83 3e d1 1d 86 3e
       0.24437013 0.24728216 0.25775066 0.26194623
000010 33 73 7e 3e ac 2f 87 3e cc e9 80 3e 29 ab 94 3e
       0.24848633 0.26403558 0.25178373 0.29036835
000020 60 c9 8c 3f d9 5f 0a 3e a4 c5 a1 3f ce 0b 81 3e
       1.0998955 0.13513125 1.263844 0.2520432
000030 d8 89 4c 3f 82 1d 82 3e c0 aa 74 3e a4 98 42 3d
       0.7989783 0.25413138 0.23893261 0.04750885
000040 af a0 ae 3e 89 bd 8f 3e e3 87 83 3e 09 81 4d 3e
       0.34106967 0.2807429 0.2568961 0.20068754
000050 ec a7 83 3e c6 10 bf 3f 75 d2 7d 3e 07 1d 7b 3e
       0.25714052 1.4926994 0.24787314 0.24522792
000060 bf e6 e0 3d f0 a9 7c 3e 77 eb a1 3f 9d aa 81 3e
       0.10981511 0.24674201 1.2649983 0.2532548
000070 c1 e1 98 3e 4b 61 8b 3e b1 31 7a 3e 79 08 92 3e
       0.29859737 0.27222666 0.24433018 0.2852209
000080 3c bb 92 3f a5 5f b3 3e 02 1e 7c 3e 6a 94 81 3e
       1.1463389 0.35033908 0.24620822 0.25308543
000090 a0 e3 7e 3e 32 3f 7a ba ef a0 8b 3e b7 b4 80 3e
       0.2489152 -0.000954616 0.2727122 0.25137874
0000a0 8a 8a 06 3f ed 7d 88 3e 2e aa 81 3e 86 1b aa 3e
       0.52555144 0.26658574 0.2532515 0.33224124
0000b0 2b 94 46 3f b3 29 52 3e 6e 47 cf 3f b1 11 81 3e
       0.77569836 0.2052372 1.6193674 0.2520881
0000c0 81 b2 0d 3f 02 a0 79 3e e6 d3 ab 3f 70 45 80 3e
       0.553505 0.24377444 1.3424041 0.25052977
0000d0 f7 1e 66 3e d3 6e 36 3e 4c 7e 8a 3e a1 8f 84 3e
       0.2247275 0.17815714 0.27049482 0.2589083

mid_part.0.weight f4 [12, 56, 1, 1]
000000 3c 50 03 3f 65 c4 5a 3e 11 c0 41 bf c5 2e 77 3e
       0.512943 0.21363981 -0.75683695 0.24138935
000010 15 43 c9 3e 4d 78 ab 3e 6a 13 ad bd 9f c6 02 3f
       0.39308992 0.3349022 -0.084509686 0.5108432
000020 53 b0 2a 3e bd 34 97 bf 4a 45 02 3f 2e 41 9c bd
       0.16668825 -1.181297 0.50886977 -0.076296195
000030 4c 66 0b bf 6b ee 87 3f 55 4f dc 3e 6d 64 d0 3e
       -0.5445297 1.0619634 0.43029276 0.4070162
000040 bf 60 be 3d 27 63 8b 3d d7 06 0e 3f da 27 7c be
       0.092957966 0.06806021 0.55479187 -0.24624577
000050 2c d4 43 3c 3a 2a 35 3f d2 50 ba be d4 f1 eb be
       0.011952441 0.7076756 -0.36389786 -0.46082938
000060 24 22 99 bd d1 6d 9a bd 23 65 d8 3e 1c 9e 39 bf
       -0.07477215 -0.07540477 0.4226466 -0.7250688
000070 79 d1 89 3e d0 8b ca 3e 30 d2 37 3d a9 95 b5 3e
       0.26917627 0.39559793 0.044878185 0.35465744
000080 83 62 0a 3f 77 e8 0c 3e 13 20 0f bf 58 18 30 bf
       0.54056567 0.13760553 -0.55908316 -0.68787146
000090 0b 28 5d bd cb 73 41 bd 8f 1b 8c be 7c 38 bf 3e
       -0.053993266 -0.04722957 -0.27364776 0.37347782
0000a0 49 31 bb bd 84 51 00 3f da d4 c4 be f3 01 f6 bd
       -0.0914026 0.5012438 -0.38443643 -0.120120905
0000b0 09 8c 07 be 88 25 1c be 2f e7 d9 bd 1e b3 1b bf
       -0.13237013 -0.15248692 -0.10639798 -0.60820186
0000c0 8e 42 1e be cf ea 14 bf 9f ac ca bd ee 0b 26 be
       -0.15455076 -0.5817079 -0.09896206 -0.16215488
0000d0 af fa 2c bf 99 4e 20 3e 40 bb 98 be 28 86 54 be
       -0.6757001 0.15654983 -0.2983036 -0.20754302
0000e0 33 6a a1 be 11 4e 79 bf c9 e6 ff 3e 9e 09 71 3b
       -0.31526336 -0.97384745 0.49980763 0.0036779414
0000f0 d5 a0 7f 3c 6d e3 4c 3f 3f 45 3f 3f cd 4c 04 3f
       0.01560231 0.80034524 0.74715036 0.5167969
000100 f2 16 d1 3c a6 3a c2 bd ef fa 8b bd c9 a3 fa be
       0.025523636 -0.094838426 -0.06834971 -0.48953083
000110 bf b2 3d 3e 2a 0a 41 3e e4 40 1f bf c0 fa 07 3e
       0.18525217 0.18851534 -0.6220839 0.13279247
000120 16 b1 0c bf aa 7f 7c 3e 78 00 1f 3f d1 b6 e3 bd
       -0.5495771 0.24658075 0.6211009 -0.11118854
000130 91 86 5a 3f 1c 73 83 be 01 b6 ab 3d 29 af c0 be
       0.8536158 -0.2567376 0.08384324 -0.37633637
000140 07 c4 c3 be c8 86 a5 bd 0e df a8 3d 07 d0 0b bf
       -0.38235494 -0.08082348 0.08245669 -0.546143
000150 ba 4b 14 3f cd ba 4a 3f 1f 99 41 be 2e 34 db 3e
       0.5792805 0.79191285 -0.18906067 0.42813247
000160 4c bf 29 3e a4 96 cb be 91 45 c8 bd b1 5d 17 be
       0.1657688 -0.39763367 -0.09778894 -0.14781834
000170 e5 1a 76 3e 7a f9 5d 3e 0e ee 31 bf 66 9f 81 be
       0.24033697 0.21677199 -0.6950387 -0.25316924
000180 d7 31 6e 3e cd 34 33 3f 9d 59 92 be 07 54 5a 3f
       0.232612 0.7000244 -0.28583995 0.85284466
000190 f4 ad 3a 3f 68 54 f6 3d 8d aa e3 3e 95 c2 b7 3d
       0.7292168 0.12027818 0.44466057 0.089726605
0001a0 33 9c a4 3e 9a f6 f9 bd 35 9b 58 3f cd b3 0c bf
       0.3215042 -0.12205239 0.8461183 -0.54961854
0001b0 40 ae 0a bc 33 48 6b be 72 aa 29 3f 40 81 e8 be
       -0.008464396 -0.2297676 0.66275704 -0.4541111
0001c0 ac a1 8d 3e dc 85 1b bf 77 1a 89 be 5e 5b cc be
       0.27662408 -0.6075113 -0.26778004 -0.39913458
0001d0 bf 7b 9a bd af 93 1b 3f c6 17 f2 bd a5 45 3c bd
       -0.07543134 0.6077222 -0.11820941 -0.045964856
0001e0 c2 f4 26 3f 70 b8 4a 3f bb 93 c9 3d 86 e6 50 3f
       0.6521722 0.7918768 0.098426305 0.8160175
0001f0 43 ff dd be 85 03 1a be 07 f4 cb bd fe b2 cd 3e
       -0.43358812 -0.15040405 -0.09958654 0.40175623
000200 47 fe 05 bc 32 e7 0e be 8d 2c f3 3e a2 2b be 3e
       -0.0081783 -0.13955382 0.47494927 0.37142664
000210 e3 7d 09 bf af 20 6f 3e 52 56 04 be 01 f2 9c be
       -0.5370771 0.23352312 -0.12923554 -0.30653384
000220 4f 84 d3 3e 48 ae a8 be 56 a8 21 be 88 cb 83 be
       0.4131188 -0.32945466 -0.15786871 -0.2574122
000230 71 cf fb be 28 b5 d5 3e a0 46 9b 3c 0d 35 16 be
       -0.49181703 0.41739774 0.018954575 -0.14668675
000240 fc ea fa 3e da ee 33 3f d5 3d 22 3f 58 d0 c3 3e
       0.49007404 0.70286334 0.633756 0.3824489
000250 1a 1a a4 3e 7b d0 9f 3e 59 5e f2 be 17 a4 e6 3d
       0.32051164 0.31213745 -0.47337607 0.112617664
000260 cc a0 c9 bc a2 99 02 3e 56 a1 59 be 84 12 ba bb
       -0.024612807 0.12753919 -0.21252951 -0.0056784768
000270 7f ab 0d 3e 34 18 d3 3e 91 58 80 3e 75 8f f7 3e
       0.13834952 0.41229403 0.2506757 0.48351637
000280 79 86 39 bc c8 64 19 3f 66 82 5d 3e 95 e2 11 bf
       -0.011323565 0.59919405 0.21631774 -0.5698636
000290 98 3d 9d 3c 14 64 dd 3e 2c 9c b3 be 98 0b a5 be
       0.01919441 0.43240416 -0.35080087 -0.32235408
0002a0 c9 81 3f 3d 64 53 9c 3e 12 41 0a be 90 d8 1c 3e
       0.046754632 0.30532372 -0.13501385 0.15316987
0002b0 0f ea 81 3e d0 9e 74 bc b6 7b 2d be dd 73 a9 3e
       0.25373885 -0.014930442 -0.16941723 0.3309621
0002c0 40 50 13 bf e3 03 c0 be c4 01 10 3f 09 5d b8 be
       -0.57544327 -0.37502965 0.56252694 -0.3600848
0002d0 f0 41 bb 3e 1f 5d f9 be 1b c5 22 3f f8 6b b7 bd
       0.36573744 -0.48703858 0.6358201 -0.0895614
0002e0 a7 43 0f 3e 0f 41 69 3e ed 6a 30 bd 63 da 5f 3f
       0.13990651 0.22778724 -0.043070722 0.87442607
0002f0 86 37 fa be 9b 39 22 3f 28 65 a8 be da 6f c7 be
       -0.48870486 0.6336915 -0.32889676 -0.38952523
000300 3d 19 f8 3e 2e 6b 85 3d 08 bc e0 be 62 f3 73 3f
       0.48456755 0.065145835 -0.43893456 0.9529325
000310 ee 8e ec 3d 25 f1 cc 3e 7f d4 44 bd 8b 4c 06 be
       0.11550699 0.4002773 -0.048054215 -0.13115136
000320 cd 8e 02 bf ec 6b 5c 3e 3f 6e e9 bd 5f 6b f2 3e
       -0.50999147 0.21525544 -0.11397981 0.47347543
000330 78 3d 09 3e 25 4a f2 bd 51 4b 9b bc ad 02 57 3e
       0.13402355 -0.11830548 -0.018956812 0.20997114
000340 75 be 8e bd 91 23 88 3f d7 5f 46 3f f7 43 2b 3f
       -0.069699205 1.0635854 0.7748999 0.6690058
000350 53 de 78 bf 63 92 72 be 5e 45 f3 3e c6 8a b9 bd
       -0.9721424 -0.23688655 0.4751386 -0.09059672
000360 87 50 c5 3e 8a e8 12 3f 0a 82 94 be 94 75 f3 be
       0.38538 0.57386076 -0.29005462 -0.47550642
000370 69 85 b3 be f5 9f e8 3e c1 d2 59 be 32 46 00 3f
       -0.3506272 0.45434538 -0.21271802 0.5010711
000380 b2 0c 83 be d8 eb d4 3d 4d ec fd 3d 63 e1 9e 3d
       -0.25595623 0.10396546 0.123985864 0.07757833
000390 1a 89 26 be d7 d2 b1 be 5c bb 52 be 29 d5 0f 3f
       -0.16263238 -0.3473117 -0.20579284 0.5618463
0003a0 7e c8 f1 3e 63 e1 88 be 9f a4 1d be 3a 2d 81 3c
       0.47223276 -0.26734456 -0.15394829 0.015768636
0003b0 c5 eb ad bf fa 15 4b 3f b8 2a 52 3f 2a 8a b3 bd
       -1.3587576 0.7933041 0.82096434 -0.08766587
0003c0 40 57 b6 3e 9c f0 3e be 67 65 9c 3e 51 3a c7 be
       0.3561344 -0.18646473 0.30546114 -0.3891168
0003d0 3c b5 5e 3e 63 10 93 3e ad 6c bb 3e 78 ff e9 3c
       0.21748823 0.2872344 0.3660635 0.0285642
0003e0 78 8e cf bd 36 11 f1 bd ea 52 0b 3f 87 e1 6b 3e
       -0.10134596 -0.11770861 0.5442339 0.2303525
0003f0 27 a0 30 bf 11 fb ba be 6f 0f 82 3d 40 74 58 3e
       -0.68994373 -0.36519673 0.063506 0.21138096

mid_part.0.bias f4 [12]
000000 28 06 b8 3b 6f 2a fb bc 4d 3e 6c bb de ef 41 3b
       0.0056159683 -0.030659882 -0.0036047876 0.0029592435
000010 75 c7 98 3d e9 61 d2 3b 95 37 ed 3c b2 f7 00 3d
       0.074599184 0.006420363 0.028957168 0.03148622
000020 08 d5 c7 bc a8 d5 a6 ba df 27 8e bb 91 0d 1e 3d
       -0.024393573 -0.001272847 -0.004338249 0.038587157

mid_part.1.weight f4 [12]
000000 50 96 88 3e c2 3a bf 3e a4 ec 7f 3e 1e 35 84 3e
       0.2667718 0.37349516 0.24992615 0.25821775
000010 e2 84 d3 3e e1 22 00 3f c2 4a 78 3e 05 12 ee 3e
       0.4131232 0.5005322 0.24247268 0.46498123
000020 eb 2e 96 3e 2c 08 d3 3e 8d 20 ae 3e c8 cc 8f 3e
       0.2933267 0.41217172 0.3400921 0.28085923

mid_part.2.weight f4 [12, 12, 3, 3]
000000 97 9d 83 3e 6c ec cc bc 6f b6 94 3c 3a e7 88 be
       0.2570617 -0.025015078 0.018153397 -0.26738912
000010 05 54 f6 3d 9d b7 e8 bd 45 da 6d bd 63 b1 f0 bd
       0.12027744 -0.113631465 -0.058069486 -0.11752584
000020 6b bc a4 3d 0a 51 42 3e 2f 64 63 be 52 5b 5b 3e
       0.080437504 0.18976226 -0.22206186 0.21421555
000030 11 83 19 3d 02 c4 fd bd 6e 27 f1 bd 84 0b 9a bd
       0.03747851 -0.12390901 -0.11775099 -0.07521728
000040 13 da 23 be 4a ba 0e 3d d6 97 b8 3d f1 f8 20 3e
       -0.16001157 0.034845628 0.090133354 0.15719964
000050 d3 47 6b 3d 47 ff 23 3e a1 d7 ff 3b 15 8a e4 bc
       0.057441544 0.1601535 0.0078076874 -0.027897874
000060 e2 bd 85 3e d8 e2 7f 3d 05 6d 93 bd 52 18 14 3c
       0.26121432 0.062472194 -0.07198528 0.009039002
000070 fc a9 97 bd 99 82 06 3e aa 04 09 3e 79 69 96 be
       -0.07405469 0.13135757 0.13380685 -0.29377344
000080 83 80 8d be 28 68 fd bd 02 08 4a bd 36 c1 44 3e
       -0.2763711 -0.12373382 -0.049324043 0.19214329
000090 ff 08 33 be a3 0d e9 bd 86 b8 be bd 9e e7 94 bc
       -0.174839 -0.11379554 -0.09312539 -0.01817685
0000a0 2b 30 82 3e b3 ee 74 be 95 f0 07 3d d6 56 69 bc
       0.25427374 -0.23919182 0.03318842 -0.014241895
0000b0 a3 d9 48 3d e7 e4 5c 3e 4f 53 33 3d fb f3 58 3e
       0.04903568 0.21571694 0.04378062 0.21186821
0000c0 44 2b 56 bd d4 54 dc bd 33 ac a0 3d a3 ba bd bd
       -0.052287355 -0.10758367 0.078453444 -0.09264114
0000d0 5c 88 8e 3d 45 06 d3 bd 3f a3 3a be 65 03 86 3c
       0.06959602 -0.1030393 -0.18226336 0.01635904
0000e0 60 7a 20 39 27 45 6f 3e ca 19 c3 bd 51 66 e4 3c
       0.00015304377 0.23366223 -0.09526403 0.02788082
0000f0 0c 82 da bd fa 9f 02 3e 2f 57 1e 3e 9c 9d 04 3e
       -0.10669336 0.12756339 0.15462945 0.12950748
000100 8f a8 83 bd c9 c2 79 3e 89 53 09 3c cc 3a 3e 3c
       -0.064286344 0.24390711 0.008381733 0.011610698
000110 10 c8 e2 ba c4 35 91 3b 0f 67 6d be b6 ce 54 be
       -0.0017302055 0.004431458 -0.23183845 -0.20781979
000120 20 d0 69 bc 6c 7c ae bc e2 64 37 3d 35 dc 44 be
       -0.014270812 -0.021299563 0.044773944 -0.19224627
000130 38 5a 8d 3e 2d 31 8d bd 75 86 82 bd 3e c6 79 bd
       0.27607894 -0.06894145 -0.06373302 -0.060980074
000140 2c 1f ae 3c 01 e7 39 be d4 c7 7e 3c 6b 5f 24 3d
       0.021255098 -0.18154527 0.015550572 0.04013006
000150 4b cb 33 3d 58 76 e3 3d 92 4b 07 3e 27 6f ef bd
       0.043895047 0.11106557 0.13212422 -0.116911225
000160 f1 a2 1d bd a7 e6 af 3c 0d f6 91 3d ef d4 a9 bb
       -0.03848547 0.021472288 0.071270086 -0.0051828544
000170 08 92 71 3e 5a 5d f5 bd ee 8a 40 bd 14 a4 92 bd
       0.23590863 -0.11980696 -0.047007494 -0.07160202
000180 ed 46 27 3d 57 37 d2 3d 2b 5e 0c 3d 14 c5 00 3d
       0.040839124 0.102644615 0.034269493 0.03143795
000190 09 d9 65 bd 59 e6 cb bd 01 f9 b3 bc 4e 2a a7 3d
       -0.056115184 -0.09956045 -0.02196932 0.08162366
0001a0 b7 3b ef 3c 7b 10 89 3d 39 78 65 3d d7 6e 4e 3c
       0.029203279 0.066925965 0.056022856 0.012599668
0001b0 fe 82 40 3c 1e f4 53 bd d6 6b e9 bb 7f 0d 97 3c
       0.011749981 -0.05174648 -0.0071234507 0.018439053
0001c0 4e 4f 94 3d 29 df 84 be b4 15 4f 3e 42 28 80 3d
       0.07241689 -0.25951508 0.20223123 0.062576786
0001d0 db 9b 03 3e 5e 35 17 3e b2 bd be 3d 61 c0 10 bc
       0.12852423 0.14766452 0.09313525 -0.008834929
0001e0 08 96 6c 3e 79 91 f2 3d c8 33 2c 3b a7 06 4f 3d
       0.23104107 0.11844153 0.0026275981 0.050543454
0001f0 25 0d ec bd ae 2b 17 3e 23 7c f6 bc 35 c5 a6 be
       -0.115259446 0.14762756 -0.03008849 -0.32572332
000200 d0 9d 26 be 60 13 a3 3c f3 e2 71 3d b4 34 97 be
       -0.16271138 0.0199067 0.059054326 -0.29532397
000210 12 25 e2 bd f8 bf c1 3d 65 68 c3 bd 53 d1 2b 3c
       -0.11042227 0.09460443 -0.09541396 0.0104869185
000220 ad 09 85 3e 24 e5 b1 bd a2 24 3c bc 99 10 a5 bd
       0.25983945 -0.08686283 -0.011483343 -0.080598064
000230 b2 2b a9 bb 83 92 f3 bd bf 16 b1 3e 58 a4 13 be
       -0.0051626796 -0.11893179 0.34587666 -0.14418161
000240 44 51 6d 3e 9a 26 28 be 02 67 44 bd b5 47 3b be
       0.23175532 -0.16420975 -0.0479498 -0.18289073
000250 d2 22 10 be 8a 1e 1e 3d de f8 a3 bd f5 5b c0 bd
       -0.14075783 0.038603343 -0.08006452 -0.093925394
000260 4e 95 cd bb 18 b1 eb bd 20 c6 2e 3d f3 85 86 be
       -0.006273902 -0.11508387 0.042669415 -0.2627407
000270 e9 7b 1b 3c 8f cb d2 3d aa af c2 3d c8 d4 0f 3e
       0.009489992 0.10292732 0.095061615 0.14046013
000280 af bd 7d bd 64 b7 f1 bc 1c 02 43 3e 66 16 4a be
       -0.061948474 -0.029506393 0.19043773 -0.19735107
000290 d2 8c 23 be 80 0a 41 bc c9 e2 50 3e 12 66 39 bd
       -0.15971687 -0.011782289 0.20399012 -0.045263357
0002a0 1d 98 98 be 36 1e ae bc 7f ca e8 3d 4c 96 2f be
       -0.29803553 -0.02125464 0.11366748 -0.17147177
0002b0 6c 5a 2b 3e 19 42 e4 bd cc 0c 29 bd cd 15 62 3e
       0.16733712 -0.111454196 -0.04127197 0.22078629
0002c0 14 35 1c 3e e2 e7 64 bd aa a0 f3 bd e2 c9 d6 bd
       0.15254623 -0.055885203 -0.118958786 -0.10487725
0002d0 a5 95 bd 3d cb c6 d9 bd c1 3d b9 3d 06 d0 a8 bc
       0.09257058 -0.1063362 0.09044982 -0.020607006
0002e0 4c 6a a1 3d b7 87 9b be 82 bf 30 3d ed c0 95 bd
       0.07881603 -0.3037698 0.043151386 -0.07312188
0002f0 8d 3a 73 bd 3b e3 f1 bd 35 e7 af bd a5 32 88 bd
       -0.05938201 -0.11810919 -0.08589021 -0.06650285
000300 31 dd 37 3c 3c 2f 83 bd d8 c6 61 bb 5d 17 30 be
       0.01122217 -0.064054936 -0.0034450796 -0.17196412
000310 fa 96 20 bd 0b d3 af 3c 31 03 9d bd 0e 96 05 3e
       -0.039206482 0.021462938 -0.07666624 0.13045523
000320 73 9d 23 3d 3a fe 7e 3e 9d 6b 45 bd 3d b6 08 be
       0.039945077 0.24901667 -0.04819833 -0.13350768
000330 fb 5a 0e be c9 51 1a 3d 08 43 fd 3d 85 8a 8b 3e
       -0.13901894 0.037675653 0.12366301 0.2725412
000340 22 3c 4d 3e 9e 8f 99 3d a2 f6 dc 3d 23 c7 b8 3d
       0.2004247 0.07498096 0.10789229 0.09022357
000350 45 d7 24 3e c7 90 7f ba 86 dd f2 3d fd b6 1b 3e
       0.16097744 -0.00097490515 0.118586585 0.15206523
000360 a6 db 89 3d 1b 16 21 be 5d 65 08 bd 5d 0e ea bc
       0.06731348 -0.15731089 -0.033299793 -0.028571302
000370 3d fc 3f 3e 83 e3 34 3e 00 07 19 3e 36 bb af bc
       0.18748565 0.17664914 0.14944077 -0.021451574
000380 20 32 93 3e 01 89 9f bd ba 1f d8 bd ba 7b 8f 3d
       0.2874918 -0.07789803 -0.10552926 0.07006021
000390 8a 7d 49 3e 4b 8b 90 bd 7e c6 89 bc c4 e6 6a bd
       0.19676796 -0.07057818 -0.016818281 -0.05734898
0003a0 50 06 d2 3d 85 de c5 3d f5 af 12 3e 69 72 89 be
       0.1025511 0.09661583 0.14324935 -0.268451
0003b0 92 82 4f be 18 1a 7d 3d c9 90 04 be 89 07 0d bc
       -0.20264652 0.061792463 -0.12945856 -0.008607754
0003c0 73 81 e5 3d 03 15 d8 3c d4 2f 13 3d 38 9e 0f be
       0.11206331 0.026377207 0.035934284 -0.140252
0003d0 c2 63 b6 3b 4b 17 8c bd 9e bf 74 3e ca d9 3d 3e
       0.0055660913 -0.0684038 0.23901221 0.18540111
0003e0 47 e2 37 3e 91 cf db 3c 50 c9 16 3e 93 f3 1b 3d
       0.17957412 0.026832374 0.14725232 0.038074087
0003f0 e5 b2 a5 3e 68 64 64 be e0 66 b5 bd bf 92 12 3d
       0.32363048 -0.22303927 -0.088575125 0.03578448

mid_part.2.bias f4 [12]
000000 22 78 97 3b 70 97 fa 3b 10 eb 96 bb 94 c4 81 3b
       0.0046224752 0.0076474473 -0.0046056584 0.0039602015
000010 40 1b 01 3d 7b 76 82 bb 03 43 a0 bb 31 2d f5 39
       0.03152013 -0.003981409 -0.004890801 0.00046763712
000020 5f f9 9a 3c ac 2e df 3a 5d 8a b4 3c 1c 76 f9 3c
       0.018917738 0.0017027459 0.022038633 0.030451827

mid_part.3.weight f4 [12]
000000 86 8e ab be e7 b9 7c 3e 62 60 86 3e 0d bf 44 3f
       -0.33507174 0.24680291 0.2624541 0.7685402
000010 fb 72 b9 3e ab 80 81 3e c5 59 d6 3e 3c f1 10 3e
       0.36220536 0.25293478 0.41865364 0.14154524
000020 1e fd 6a 3e 07 f1 12 3f b9 50 86 3e 20 e5 80 3e
       0.22948119 0.5739903 0.26233461 0.25174809

mid_part.4.weight f4 [12, 12, 3, 3]
000000 aa 1a 03 3d 7d 47 92 bd 40 c3 66 3e 59 7b 99 3e
       0.03200785 -0.071425416 0.2253542 0.2997692
000010 60 ab 28 bd 14 46 01 3e 7d de 10 be 2e 14 90 3d
       -0.04117906 0.12624389 -0.14147373 0.07035099
000020 cb 7e a9 bd 03 15 5c be 37 d7 f7 bd c2 3a a9 3e
       -0.08276137 -0.2149239 -0.12101596 0.3305264
000030 df 0c 77 bd d0 c6 1b 3e 46 7e 25 be 05 a3 e9 bd
       -0.06031501 0.1521256 -0.1616145 -0.11408047
000040 98 04 a1 3b 23 fb 66 3e a4 9b 13 be 6f f0 0a 3e
       0.0049138777 0.22556739 -0.14414841 0.1356828
000050 30 2c 97 3b c8 2a fd 3d d4 33 c7 bc ad 44 ad bd
       0.004613422 0.123616755 -0.024316706 -0.084603645
000060 bd 21 7a bd 08 35 28 3e 84 15 31 3e ce 00 2b bd
       -0.06106733 0.1642648 0.17293364 -0.041748814
000070 ae 8b a0 be 46 08 89 3d a0 3b 31 3e 73 80 0c be
       -0.31356567 0.06691031 0.17307901 -0.13720874
000080 72 ad 84 be 88 f8 eb bd d3 35 53 3e d8 05 cf 3d
       -0.25913578 -0.11522013 0.20626001 0.101085365
000090 f1 90 c5 bd 25 8f 38 3e c9 0b c4 3d e3 9f 6f be
       -0.09646786 0.18023355 0.0957256 -0.23400836
0000a0 ed 1f af 3e a3 43 6e 3c 41 f6 99 be 12 bd 46 3c
       0.34204045 0.014542493 -0.3007069 0.012130039
0000b0 6a 5e 2e 3e 77 67 e6 bc c5 8e aa bd f6 85 f1 3d
       0.17028204 -0.028125508 -0.083280124 0.11793129
0000c0 04 d9 76 be f5 ff 84 3d 4d f5 b2 be 13 95 6b 3d
       -0.24106222 0.064941324 -0.34952775 0.057515215
0000d0 2e 06 7b 3e e4 3b 17 be 07 f6 fc 3d 85 62 72 be
       0.24514076 -0.1476894 0.123516135 -0.23670395
0000e0 0e a0 c1 bd 31 15 db 3d 10 31 b1 bb d1 4a 0b be
       -0.09454356 0.10697401 -0.00540746 -0.13602759
0000f0 a7 9c ea bc 79 09 89 be 34 32 93 3e ba 03 60 3d
       -0.02863915 -0.2676504 0.2874924 0.054691054
000100 b4 bc e7 bd 57 2e 3b 3e 59 3f f9 bc 81 b4 5e 3d
       -0.11315289 0.18279396 -0.030425714 0.05437136
000110 05 9f fb 3d 96 d9 64 be e9 44 c1 bd e4 12 84 bd
       0.1228619 -0.22348627 -0.09436972 -0.064489156
000120 7c 6e 1f bd f8 0d 81 3c 44 26 c6 bd 13 e0 2e be
       -0.038923725 0.015753731 -0.09675267 -0.17077665
000130 f5 d8 db 3a 45 a5 a4 3b 2e c5 58 3d 4f a6 51 bd
       0.0016773032 0.0050245845 0.05292242 -0.051183995
000140 d2 d3 3e 3e 1e 25 db 3d d0 6b 43 bc bf 3c 5f 3e
       0.1863549 0.10700439 -0.01192756 0.21800517
000150 a3 2b f2 3d 7f e4 1f 3e fc f9 04 bd 5f 18 ad 3d
       0.11824729 0.15614508 -0.032464966 0.08451914
000160 5b 12 31 3e 47 5d aa be cb 69 3f 3d 51 57 58 3e
       0.17292158 -0.3327429 0.04673175 0.21127059
000170 0c eb 51 bd f0 c7 3e 3e 11 6d 55 be 41 eb cb 3d
       -0.05124955 0.18630958 -0.20842387 0.099569805
000180 73 fb e9 bd 8a 7c cf 3c 62 48 1e 3d 18 6e 6b 3e
       -0.11424913 0.02532794 0.03864325 0.22991216
000190 5f a9 ce bc e0 d8 96 3e b4 10 a0 be 1f 05 83 3e
       -0.025227247 0.29462337 -0.31262743 0.25589845
0001a0 85 43 ec be 0e 70 8c bc 30 ac 3d 3e ca 90 9f 3e
       -0.46145263 -0.017143276 0.18522716 0.31165153
0001b0 2c 14 f4 3d bd 06 63 be 86 0e 41 bd f1 3c 8c 3e
       0.1191791 -0.22170539 -0.04713299 0.27390245
0001c0 3b af b1 3d f5 69 c9 3d ed 20 94 3e 6b 82 75 be
       0.08676001 0.09834663 0.2893137 -0.23975532
0001d0 e6 e8 13 3d b2 0b b7 bc 34 97 7f 3d 2a 9d 1b bd
       0.03611078 -0.022344444 0.062400058 -0.03799168
0001e0 ba af 94 3e de cc 6b 3d 9a 5c a6 3e a8 0d 7a be
       0.2904032 0.057568423 0.32492524 -0.24419272
0001f0 86 72 81 be bd 6e a6 bd e6 61 55 be 78 fd ef 3d
       -0.25282687 -0.081265904 -0.20838127 0.11718267
000200 39 a2 57 bd 58 4f ec be 76 1c 2e be b9 1a 4b bd
       -0.052644942 -0.46154284 -0.17003044 -0.04958603
000210 47 fe 0a bf c5 b8 3c be b0 eb c9 3d 24 2a a7 3c
       -0.54294246 -0.18429859 0.09859407 0.020405836
000220 c4 3d 30 3e 5c 53 70 3e 51 06 31 3e 31 f4 a8 3e
       0.17211062 0.23469299 0.17287566 0.32998803
000230 11 c5 81 3d 6c 6a bc 3e bb 95 b0 3e bb ba c1 bd
       0.063364156 0.36799943 0.34489235 -0.09459444
000240 eb 91 cf bc 66 60 e5 bc bd 97 02 bd 93 34 43 be
       -0.025338134 -0.028000068 -0.03188299 -0.19063024
000250 06 5d 8c bc 6f 6b 41 3a 81 d0 ae be 72 bd 52 bd
       -0.0171342 0.00073783746 -0.3414345 -0.0514502
000260 fe 3d 02 bd 38 82 fa bc 92 82 40 be eb f9 91 3e
       -0.0317974 -0.030579671 -0.18799809 0.28510985
000270 2f 6a 79 be 6b 27 3c bd 7c c1 0d 3e 1e da 00 be
       -0.24356912 -0.04593603 0.1384334 -0.12583205
000280 dd b7 08 3d 30 43 8a bd e6 74 89 3e 0f 94 1f bd
       0.03337847 -0.06751096 0.26847 -0.03895956
000290 f4 38 4a bd c5 99 bb 3e c8 9c b2 bd 57 44 c8 3c
       -0.04937072 0.36640754 -0.0872131 0.02444665
0002a0 97 b1 ff 3d 5e 3b 28 bd da b4 80 be 44 38 ad 3e
       0.124850444 -0.041072242 -0.2513798 0.3383199
0002b0 e9 66 7b be 46 a3 75 be 27 18 39 bd fe be 08 bb
       -0.24550976 -0.23988065 -0.04518905 -0.0020865793
0002c0 0e cd 9c 3d a1 c2 29 3e a6 3c 0a 3e dc bf da 3e
       0.076562986 0.16578151 0.13499698 0.42724502
0002d0 e1 8e 8d bd 47 b4 87 be 2d 79 2c be 2d 86 a3 bc
       -0.069120176 -0.26504728 -0.168431 -0.019961441
0002e0 d8 4b f5 bd ba 84 9e 3d 86 de 4b 3e 9b 19 91 3e
       -0.11977357 0.07740159 0.19909105 0.28339848
0002f0 c0 8c e6 3d 06 9b d4 be e2 96 01 3e 2c 71 1b be
       0.11257315 -0.41524523 0.12655213 -0.1517989
000300 44 d3 45 3e 8e 8e 65 3e 21 f4 11 bd af cd 14 3d
       0.19318873 0.22417662 -0.03563321 0.036328968
000310 3d c0 61 bc a6 66 d4 3d d8 3f d5 bd b3 22 ba be
       -0.013778743 0.10371141 -0.10412568 -0.36354598
000320 06 b6 2e bc ae 07 d0 3e 88 2c ca 3e a0 b3 09 3e
       -0.010663515 0.4063086 0.394871 0.13447428
000330 39 3d ca be be 88 78 be 97 35 16 3e 77 da 6e be
       -0.39499834 -0.24270913 0.1466888 -0.23325525
000340 9c 96 82 be 5b ce 93 be 4e 07 48 be 72 85 68 3d
       -0.2550553 -0.28868374 -0.19534037 0.05676789
000350 bd 35 cf 39 1a a7 19 3f a2 63 bb 3e 0c 20 8a 3e
       0.00039522155 0.600206 0.3659945 0.26977575
000360 cd c8 47 3e f5 7d 48 be 18 06 1b 3e cf b8 91 3d
       0.19510193 -0.19579299 0.15139043 0.071153276
000370 05 68 0f 3d db 7f 56 bc 3c a0 22 be 35 39 9b 3e
       0.03501131 -0.013092007 -0.15881437 0.30317083
000380 db 8f 1b 3d bc 4d 61 3e 1e 13 7f 3c 51 38 30 3e
       0.03797899 0.2200231 0.015568523 0.17208983
000390 77 b5 a3 bc d7 7b fd 3c 61 b3 d5 3d 32 28 14 ba
       -0.01998399 0.03094284 0.104346044 -0.00056517415
0003a0 a6 28 9c 3d 52 20 69 3c 4a f7 de bd b9 a9 59 3d
       0.076249406 0.014228897 -0.108870104 0.053140376
0003b0 13 b7 35 3e d8 1a 18 bd 02 4e 30 3e 8f a6 23 3e
       0.17745619 -0.037134975 0.17217258 0.15981506
0003c0 34 00 24 3d e5 4d 5c bc fa fc 43 be 1a 7a 99 be
       0.040039256 -0.013446306 -0.19139472 -0.2997597
0003d0 b0 6b fc bd 00 7a 9a bd 22 56 8e 3d 79 36 20 3e
       -0.12325227 -0.07542801 0.06950022 0.1564578
0003e0 37 1c 1e 3e 13 ec 2b 3e af 56 0b be 2c 7a 9f 3d
       0.1544045 0.16789274 -0.13607286 0.07786974
0003f0 2b f7 9a bd 9f ff a8 be 7b b5 05 be 7e 03 ed bd
       -0.07566675 -0.33007523 -0.1305751 -0.11572932

mid_part.4.bias f4 [12]
000000 c0 64 11 3d f1 a6 01 3c 2b 5e b8 bc 76 4f 9c 3c
       0.035496473 0.007913337 -0.02250584 0.019080859
000010 d9 18 2a bb f8 f4 45 bb f9 8e db ba 4f 7e ff 3b
       -0.0025954752 -0.0030205827 -0.0016750983 0.0077970396
000020 39 26 a0 3c 77 5f 0e 3c a3 27 c5 bc 9b 2e 21 bc
       0.019549476 0.008689753 -0.024066752 -0.009837772

mid_part.5.weight f4 [12]
000000 a8 22 1a 3f 09 3d 1f 3f 02 ad a9 3e 5e 15 85 3e
       0.6020913 0.6220251 0.33139807 0.25992864
000010 6c 58 f7 3f a5 50 48 3f bf b4 27 be df 28 a4 3d
       1.9323859 0.78248054 -0.16377543 0.08015608
000020 00 e0 48 3f d7 85 4e 3f 45 6d d8 3e 4b 61 82 3e
       0.78466797 0.80672973 0.42270866 0.25464854

mid_part.6.weight f4 [12, 12, 3, 3]
000000 d1 e1 78 3d 41 de 90 bd d9 b6 a7 bc 11 ed 23 3d
       0.06076223 -0.070736416 -0.02047293 0.040021006
000010 d1 b8 ff 3d e0 f9 28 3e 50 98 b9 bc 51 d8 bb 3d
       0.12486423 0.1650157 -0.022655636 0.091721185
000020 45 80 ed 3c ef 0f 27 3d 93 17 86 3e 70 31 42 3e
       0.028991828 0.04078668 0.2618986 0.18964171
000030 06 d0 c0 3d c5 15 58 3e cd 4f 88 3e c3 e2 10 bc
       0.09414677 0.21102054 0.26623383 -0.008843127
000040 8d cc 93 be a6 d5 70 3d 18 70 a6 3d d3 e6 21 be
       -0.28866997 0.0587975 0.08126849 -0.15810709
000050 12 b2 37 3d 06 ad fc 3d b6 53 81 3c 19 c4 9d bd
       0.044847555 0.12337689 0.015786987 -0.07703418
000060 a0 a7 40 be 83 ea 0e be e6 4e 32 3e 0a d2 06 3e
       -0.18813944 -0.13956647 0.1741291 0.13166061
000070 04 48 07 be 25 12 3e be 76 d5 91 bd 64 54 b6 3d
       -0.13211066 -0.18561609 -0.071207926 0.08902815
000080 99 4e f4 3d 39 67 99 3d a3 eb b1 be 8b 41 2c be
       0.11929054 0.07490391 -0.3475009 -0.16821878
000090 d8 0e b8 bb d2 ba 24 3e ca 2c 9a bd fb 5c 2f 3e
       -0.005617004 0.16086891 -0.07528074 0.17125313
0000a0 0a 20 01 3e e3 85 09 be 87 9b 38 bd 01 b7 37 3e
       0.12609878 -0.1342998 -0.045070197 0.17940904
0000b0 b1 30 13 bd 2c 45 03 be db 64 d1 be bf 47 dc 3d
       -0.035935108 -0.12819356 -0.4089726 0.10755872
0000c0 9a 30 62 3e b1 93 5d 3b 80 28 50 3d 20 b9 c1 3d
       0.22088853 0.0033809955 0.050819874 0.09459138
0000d0 1b a1 e4 3d 98 61 3d 3e 87 ee 35 3e 65 d2 4e be
       0.11163541 0.1849426 0.17766772 -0.20197447
0000e0 4c 4a 4b 3d 2c 0a be 3d f7 0d 5c 3d 83 4c 80 3d
       0.049631402 0.09279284 0.053724255 0.062645935
0000f0 3d f5 53 3e 7f 46 4b 3e 49 4d 07 3e 32 20 ec bd
       0.2069902 0.19851111 0.13213076 -0.11529578
000100 de 73 b0 bd 1f 9b 12 3e c7 b8 24 bd 62 f1 25 be
       -0.0861585 0.14316987 -0.04021528 -0.16205361
000110 10 f9 c2 3c 58 15 92 3d a5 11 27 3d f1 33 41 be
       0.023800403 0.07132977 0.04078831 -0.1886747
000120 93 28 42 bd 40 d3 ba 3d 1a c4 1a 3e 4d c2 0d bd
       -0.047401976 0.09122324 0.1511387 -0.034609128
000130 c3 9f 79 3d ab a7 ec bc 33 0e a0 bd 7f 5b 40 be
       0.060943376 -0.028888544 -0.07815208 -0.18784903
000140 f1 6e 1b 3d 6a ee 07 bd 0f 8a 3a 3e ae e5 21 b8
       0.0379476 -0.033186354 0.18216728 -3.8599297e-05
000150 cd ae 2b be ad 1e 7b 3d 04 e3 40 3e 4a b1 4e be
       -0.167659 0.06130855 0.188366 -0.20184818
000160 6f 63 fe bd 36 56 73 be c7 ce b4 bd 9f 71 18 3e
       -0.12421309 -0.23763356 -0.08828502 0.14887093
000170 57 60 e1 3d ff 2a 68 bd e6 2d 5d be c1 0c dc 3d
       0.110047035 -0.05668163 -0.2159954 0.1074462
000180 e2 b0 9e bd 7d cb 2c 3e 52 2f de bc c3 b8 e8 3d
       -0.077485815 0.168745 -0.027122173 0.113633655
000190 37 d1 5f 3d c7 b2 62 3d 78 b2 7f 3d b0 73 fc bd
       0.054642882 0.055346277 0.06242606 -0.12326753
0001a0 ad ec 46 bc cc c9 20 3e c0 44 08 be 8f 72 3b 3c
       -0.012141389 0.1570198 -0.13307476 0.011440887
0001b0 c8 f4 b2 3e 02 9b 14 3e 5e 6d a7 3c 5b db f0 bd
       0.34952378 0.14512256 0.020437893 -0.11760589
0001c0 24 b7 56 be 2d 18 1c 3e 12 71 15 3e 04 2b ac 3d
       -0.209683 0.15243597 0.14593914 0.08406642
0001d0 5c ec 95 3b a0 b3 d5 bd a9 f2 20 bc 07 da 1b 3e
       0.0045752954 -0.104346514 -0.00982348 0.1521989
0001e0 06 e1 4b bc d4 a8 05 3e d7 b3 93 3d 35 3c 35 3e
       -0.0124437865 0.13052684 0.07212036 0.17698748
0001f0 aa 93 0e be 5e 66 44 bc 21 54 fc 3d 16 62 cd 3c
       -0.13923517 -0.011987297 0.12320734 0.025071185
000200 a0 66 8d 3c b0 f8 42 3e ab b8 56 3d 26 66 3c 3e
       0.01726085 0.19040179 0.052422207 0.18398342
000210 3e 49 04 bd b5 30 94 bd 5f 58 af 3c 69 a7 f0 3d
       -0.03229641 -0.07235853 0.021404443 0.11750681
000220 58 1f a5 3c e1 34 1d bd b7 fd 03 be 7c 3d 18 3e
       0.020156547 -0.038380507 -0.12889753 0.14867204
000230 8a 09 90 3c a3 3a 07 be 83 4b 60 be e8 8d 80 3d
       0.017582674 -0.13205962 -0.21903805 0.062770665
000240 77 ee 67 3d d8 ab d8 bd 1f fe 28 3e 38 08 03 3e
       0.056623902 -0.105796516 0.1650319 0.12796104
000250 75 8b 4d bd c1 1c f7 bd 06 4f 9a 3d 89 93 6d 3e
       -0.050181825 -0.12066031 0.07534604 0.23200811
000260 48 94 71 3d f7 37 9d 3d 80 28 29 3d f3 1e f5 3d
       0.058979303 0.0767669 0.04129839 0.11968794
000270 ee f8 38 be 4c ed 95 3c 77 02 20 bd 17 69 32 3b
       -0.18063709 0.018301629 -0.03906485 0.0027223283
000280 fd a6 96 3c 2a 63 49 3d 07 54 37 3e 2f 2b 99 3b
       0.018390173 0.049166836 0.17903148 0.0046743373
000290 cb 57 1a 3d f8 b0 0e 3d 9b 91 cb 3d 67 1e 0e bd
       0.037681382 0.03483674 0.099398814 -0.034696963
0002a0 e0 88 8d bd 50 f6 a2 bd ef bc 9b bd a2 b1 18 3e
       -0.069108725 -0.07957137 -0.076043956 0.14911512
0002b0 69 3c bc bc 16 de b2 3d 1c 14 05 3d 46 39 2f 3e
       -0.022978025 0.08733766 0.03248988 0.17111692
0002c0 89 60 5c be 25 d4 c3 bc 21 1f c4 bc dd 9a e8 bd
       -0.215212 -0.02390487 -0.023940625 -0.11357663
0002d0 5f 0a 60 3e 53 b6 91 be ae a1 08 3e 1c 65 8d 3a
       0.21878956 -0.28459415 0.13342926 0.0010787579
0002e0 f6 6d 5d 3d 50 43 52 3e 24 88 4b 3b c3 58 2a 3e
       0.054059945 0.2053349 0.0031056488 0.16635422
0002f0 8c 82 39 bd 68 e8 c5 3d 7d b8 d4 3b 74 1c 59 3d
       -0.045290515 0.096634686 0.0064917193 0.05300565
000300 e6 a0 17 3e 9a 90 67 3e ec 61 2f be df 2a 42 3c
       0.14807472 0.22613755 -0.17127198 0.011851042
000310 4d 81 1f 3e d1 c1 4d 3e 66 52 eb 3d a2 1d 45 3e
       0.15576668 0.20093466 0.11490326 0.19249585
000320 79 3d ca 3d 65 59 47 be 4e 57 7b be c7 08 eb bc
       0.09875006 -0.19467695 -0.24545023 -0.028690709
000330 d8 14 07 3e 22 c1 da bd aa 00 94 3e 74 f5 a4 bd
       0.13191545 -0.106813684 0.28906757 -0.08054629
000340 6a 02 c4 bc 5d c3 16 bd 40 51 7c 3d 20 59 75 3d
       -0.023926932 -0.036807407 0.061600924 0.05989945
000350 a2 22 e7 3b f5 a0 7d be 60 52 64 be 38 99 7b 3d
       0.007053689 -0.24768431 -0.22297049 0.061425418
000360 61 6f 8d be 42 d6 02 bd 22 49 55 be 9e 2e 3e bc
       -0.27624038 -0.031942613 -0.20828679 -0.011607794
000370 c3 0b e2 bd 4d 9e b7 bd 13 f9 88 3e c6 d0 35 3e
       -0.110373996 -0.0896574 0.2675253 0.17755422
000380 4a 69 4b be 84 c8 15 be 05 a9 3a be 6f 60 08 3d
       -0.19864383 -0.14627272 -0.18228538 0.03329509
000390 0e bc 01 be a1 67 05 3d ef 4d 11 be a4 f7 8d 3e
       -0.12669393 0.03256953 -0.14189886 0.27727997
0003a0 b1 af 3e 3e 24 75 2f 3e 77 7a 06 be 87 02 0f 3e
       0.18621708 0.1713453 -0.13132654 0.13965808
0003b0 5c 60 87 3c 51 bc 92 3d 24 5e 9e 3b cc 5f 14 be
       0.01652544 0.07164825 0.004833 -0.14489669
0003c0 ee 5e 1d 3e d3 96 0e be 80 6a 91 be d7 65 36 3e
       0.15368244 -0.13924722 -0.28401566 0.17812286
0003d0 bc 20 ab 3d 1c e8 d5 3c 40 57 34 3e da 33 e6 3d
       0.08355853 0.026111655 0.17611408 0.11240359
0003e0 dd 77 fc bd 6b e7 3a be ab b5 05 be c8 dd aa 3c
       -0.123275496 -0.18252341 -0.13057582 0.020857707
0003f0 3b 9d 96 be 28 12 3d be ac d9 32 3e 38 6e 51 bd
       -0.29416832 -0.18463957 0.17465848 -0.051130503

mid_part.6.bias f4 [12]
000000 5d 50 98 3c ac 06 fa 3b 01 62 8b 3c f4 38 96 3b
       0.018593008 0.00763019 0.017014505 0.004584426
000010 ef 9b 73 3c 7c d1 cd 3c 7b 45 11 3d 30 24 e6 3c
       0.01486872 0.025124304 0.035466652 0.028093427
000020 8b 56 a7 bb c7 bd 0b 3b 3d 08 cc 3c 0f e4 40 bd
       -0.0051067523 0.0021322833 0.024906272 -0.047092494

mid_part.7.weight f4 [12]
000000 a1 ff 96 3e 54 a3 19 3f ca 0a 95 3e 7e 88 8e 3e
       0.29491904 0.60014844 0.29109794 0.2783851
000010 bf 55 54 bd 41 43 61 3f 61 d3 bf 3e 3c 61 08 3e
       -0.051839586 0.87993246 0.37465957 0.13318342
000020 80 37 86 3e 5d ce 57 3e 3f 0f 9a be cf 52 67 3e
       0.26214218 0.21074815 -0.30089757 0.22590183

mid_part.8.weight f4 [12, 12, 3, 3]
000000 1f 54 d6 3d c5 ef e8 bd a5 06 45 be 71 17 a5 bd
       0.104652636 -0.113738574 -0.19240816 -0.08061112
000010 26 74 6f 3e ce ea 08 3e fa a9 99 be 09 ee 0f 3e
       0.23384151 0.13370821 -0.30012494 0.14055647
000020 b8 ed 88 bd 81 2e 46 bd 6e ca 0b 3d fc c0 88 3d
       -0.06685966 -0.048384193 0.0341286 0.06677434
000030 50 14 b6 3d e3 15 9e 3e 9c e6 1a 3d b9 9c 48 3e
       0.08890593 0.30876073 0.037817582 0.19591035
000040 33 55 64 3d 36 90 66 bd 77 d1 aa 3d ce f4 16 bd
       0.055745315 -0.056289874 0.083407335 -0.036854558
000050 05 46 04 bc 6c 31 65 be 1c ba 0f bd d8 30 a5 bc
       -0.008073335 -0.22382134 -0.035089597 -0.020164892
000060 4d 4c 5a 3d d0 9b 37 be e1 48 ce bb 90 ca 71 bd
       0.053295422 -0.17930532 -0.006295309 -0.05903107
000070 5d 4d a5 bd e7 29 f4 3c 93 6c 2c be 14 c4 7d bd
       -0.080713965 0.029805137 -0.16838293 -0.061954573
000080 21 8e dc 3d 93 51 0a 3c af aa d9 bd 2c 89 46 be
       0.107692964 0.0084423 -0.106282584 -0.19388264
000090 03 c6 bb bc 73 99 7c bc 58 52 96 3c 35 88 d3 3d
       -0.022921568 -0.0154174445 0.018349811 0.10328714
0000a0 02 4b 84 bc 2d e9 68 3e 04 9a ba bd 64 2d 68 3d
       -0.016149048 0.227452 -0.091114074 0.056683913
0000b0 92 5a af bc f3 a7 8d 3d a6 29 13 3e ee ce 35 3d
       -0.021405492 0.069167994 0.14371356 0.044386797
0000c0 ac 1b 2f be ab 23 79 3d 40 1c ed 3c b8 ac ad 3e
       -0.171004 0.06082503 0.028944135 0.33920836
0000d0 4f 5f 33 be 3e 7f c1 3d ae ab e7 3d e3 2b b1 be
       -0.17516826 0.09448098 0.11312042 -0.34603795
0000e0 e8 a6 18 3d d9 32 2e 3d d3 42 0a bd 40 30 50 bd
       0.03726855 0.04252896 -0.033755135 -0.050827265
0000f0 6d 5b e7 bd ce b3 eb bd 9e 1c 24 3d 83 ca 70 bc
       -0.11296735 -0.115089044 0.040066354 -0.01469672
000100 43 d4 9c 3e 88 76 35 3c f3 5e 48 3d 4e a9 50 3e
       0.30630693 0.011075623 0.048918676 0.20377085
000110 ce c2 be bd f0 e6 34 be dd 8a 36 bc e3 fd 5c be
       -0.093145 -0.1766622 -0.011141506 -0.21581225
000120 2a 1b 82 be 0b 93 19 3d f0 d7 75 3d 29 0c df 3b
       -0.2541135 0.037493747 0.060020387 0.0068068695
000130 7c eb 3a 3e d3 88 13 be 18 51 82 bd c7 fb 03 be
       0.18253893 -0.14407663 -0.06363124 -0.12889014
000140 5a 97 04 be 44 e5 9e 3d da 89 81 bd 76 29 0f be
       -0.12948361 0.07758573 -0.06325121 -0.1398066
000150 52 50 11 be 30 1b 5f bd c5 5f d6 bc 39 b9 68 3e
       -0.14190796 -0.054469287 -0.026168713 0.22726907
000160 de 67 22 bd 40 a1 e4 ba 61 3b 61 3c e9 e3 1f 3e
       -0.039649837 -0.0017443076 0.013747067 0.15614285
000170 48 06 9a 3c cb 6b 89 bd a6 94 1a bd d3 08 32 3d
       0.018801823 -0.06710013 -0.03773942 0.043465447
000180 40 64 a7 3d ad 6b ac 3d 06 16 46 bd 0a 12 4b 3e
       0.08173418 0.08418975 -0.048360847 0.198311
000190 27 e3 d7 3e e5 48 45 be 99 8d e4 3e cc 92 84 bb
       0.4216549 -0.19266088 0.4463928 -0.00404582
0001a0 37 72 5d 3e 85 45 43 be a4 11 0e 3e d7 f8 71 3e
       0.21625601 -0.19069488 0.13873917 0.23630081
0001b0 6a 00 e1 3d e7 84 b6 bd a9 1c 1b be 18 55 5f 3e
       0.10986407 -0.08912068 -0.15147652 0.21809804
0001c0 ef 62 1b 3e 6f 78 51 3c 72 7d 83 3d 19 9f 86 be
       0.15174459 0.012785061 0.06420411 -0.26293257
0001d0 27 21 6f be c5 79 5c 3d 17 11 18 be de 31 70 3c
       -0.2335249 0.053827066 -0.1485027 0.014660327
0001e0 bb 9a fa 3d cf aa 55 3e 2a 19 77 be 43 9e 26 be
       0.12236544 0.2086594 -0.24130693 -0.1627131
0001f0 0b e7 c1 3b 7a 87 d6 bd 0f e2 5a 3d 9e 9c b3 bc
       0.005917435 -0.10475059 0.053438243 -0.021925267
000200 d1 cc b8 3d 11 38 41 3d bb 6a 89 be 90 c2 7e 3e
       0.09023441 0.04717261 -0.2683924 0.24878907
000210 0b f6 ed bd 37 3e 96 3d 17 dc ac 3c 0a cc 48 bd
       -0.116191946 0.07336085 0.02110104 -0.04902271
000220 92 d7 b5 3e 8e 34 3f 3d 92 ea 09 3e b3 15 a2 bb
       0.3551603 0.04668098 0.13468388 -0.0049464344
000230 68 29 9b 3d 54 66 39 be 36 02 8a 3d 35 03 e0 3d
       0.07576257 -0.18105441 0.06738703 0.10938112
000240 ae 7b 1f 3e 81 d9 b7 3b 8b 5c cf bd e3 f3 2e 3d
       0.15574524 0.0056106453 -0.10125073 0.042713057
000250 8c c2 45 3e 29 14 98 be 8c 68 22 3e 5b 89 a8 be
       0.19312495 -0.2970288 0.15860194 -0.32917294
000260 38 ca 82 3d 51 f5 10 3e 62 21 1a 3e 50 46 ad bc
       0.063862264 0.14156081 0.15051797 -0.021151692
000270 b0 cc 98 3d b0 8f 60 3e 47 60 82 3d d0 48 5f be
       0.07460916 0.21929812 0.0636602 -0.2180512
000280 65 e9 35 bd 73 76 af bc 61 10 f7 bc 23 8c 0a bc
       -0.044412035 -0.021418786 -0.030159177 -0.008456263
000290 c6 fc 2b 3e 86 a2 fa 3d 90 6f 93 3c 20 3a 73 3d
       0.16795644 0.1223803 0.017997533 0.059381604
0002a0 e7 58 6b bc 34 93 4a bd b3 06 9e 3d f0 ba 26 3e
       -0.014364458 -0.04945679 0.077161215 0.16282248
0002b0 04 0b 59 3e e8 e3 03 3e ea 76 e2 3d 57 5f b5 be
       0.21195608 0.12879908 0.11057837 -0.354243
0002c0 b3 6c 5b 3d f4 85 10 3d 99 2b 65 bd 24 08 8d 3d
       0.05357046 0.035283998 -0.05594978 0.06886318
0002d0 d4 be b7 3d 14 a9 12 bc b8 a9 25 3b b9 0d 6a 3d
       0.089719445 -0.008951444 0.0025278162 0.057141993
0002e0 47 47 03 be 81 61 21 3d ac 7b 91 3e fd 35 bb bd
       -0.12820159 0.039399628 0.28414667 -0.09141157
0002f0 5d 98 d7 3d e4 1c 93 3e ea e7 82 3c 45 b4 4d 3c
       0.10527108 0.2873298 0.015979726 0.012555187
000300 23 57 77 3e fb 82 29 3d d7 26 6f 3e f1 e4 44 3e
       0.24154334 0.04138468 0.2335466 0.19227959
000310 41 17 a3 bb f3 ea 6c 3d ac bc 05 3c 11 ab 17 bd
       -0.0049771373 0.057841253 0.008162659 -0.037028376
000320 b1 e0 a1 3d b7 f7 14 bc 94 f4 30 be 16 94 08 be
       0.079041846 -0.009092263 -0.17280799 -0.1333774
000330 02 58 c4 bd d7 09 9e 3d 30 de 39 3e a4 ca 34 3e
       -0.09587099 0.077167206 0.18151164 0.17655426
000340 0d 62 4f be 7f 6c f2 3d d2 e7 19 3e 31 ee 77 3d
       -0.20252247 0.118371 0.15029839 0.06052989
000350 3a a9 b2 3d 72 d7 2c bc 33 a8 5f 3b 8b 14 54 3e
       0.08723684 -0.010549413 0.0034127354 0.20710962
000360 9b cb 46 bd 8b 91 30 3e 6c 2e db 3d 0a 4b 05 bc
       -0.048534017 0.1724302 0.10702214 -0.0081355665
000370 13 f9 9a 3d 6b 9b e7 bd 13 8a 61 3d 2c c7 e4 3d
       0.075670384 -0.113089405 0.05506332 0.111708015
000380 be d0 10 3e d7 7a 8d 3d 83 10 75 3d 23 8a 44 3e
       0.14142129 0.069081955 0.0598302 0.1919332
000390 ad 4e b8 3c 0a 0b 3c 3e b9 de 01 be 27 a1 c7 3d
       0.022498453 0.18363586 -0.12682618 0.09747534
0003a0 86 11 a5 3d 39 07 04 be 72 44 3e bc 1f 09 1b bd
       0.08059983 -0.1289338 -0.011612998 -0.037850495
0003b0 58 0e 2a be 97 e5 57 bd 70 87 38 be 99 25 be 3c
       -0.16607034 -0.05270919 -0.18020415 0.023211287
0003c0 dc 60 4b bd 34 86 26 bd c1 fe d6 bc 69 dd 59 be
       -0.04965292 -0.04065533 -0.026244523 -0.21275868
0003d0 1e b2 a2 bd ac 3e 8b bd d0 2a 6c 3e 14 2d a6 3d
       -0.079441294 -0.06799063 0.23063207 0.08114067
0003e0 e4 35 4d be a6 6a 36 3d 39 bb 5b bd 1f 73 04 3c
       -0.20040089 0.0445353 -0.053645346 0.008084088
0003f0 27 5f 91 3d 9a 2b 36 3d 81 32 88 be 21 aa 36 3e
       0.07098227 0.044475175 -0.2660103 0.17838337

mid_part.8.bias f4 [12]
000000 50 f6 3a bb 4c df 36 3c ee e3 46 b8 76 c8 8d bc
       -0.0028528161 0.011161637 -4.7419155e-05 -0.017307501
000010 0d e2 f7 3b cb 99 88 3b 5f 9b 1f 3b 68 ec 5b 3c
       0.007564789 0.004168724 0.0024354083 0.013423063
000020 a6 2e 5c bc c4 25 64 3d 62 ae 87 3c 0c 1b 44 3c
       -0.013438856 0.05570008 0.016562644 0.011969339

mid_part.9.weight f4 [12]
000000 51 67 60 bf 4a 2f f0 bc f7 ba b8 3e 02 82 86 3e
       -0.8765765 -0.029319424 0.36080143 0.26271063
000010 2d 96 29 3f 84 f1 9b 3f cc a4 05 3e 73 16 00 3f
       0.66244775 1.218308 0.13051146 0.50034255
000020 5d ac 88 3e d1 74 79 3e 2a 17 b7 3d 45 85 91 3f
       0.26694003 0.24360968 0.08939965 1.1368796
