models/fsrcnn/track1/track1_x4__epoch_2.pth (torch, 57971 bytes, 22 tensors)

first_part.0.weight f4 [56, 1, 5, 5]
00000000: eda4 e5bc 3f2b 5a3d d484 f93c 2921 eb3b
00000010: 477e bbbb 703b abbc be56 b63c 8945 efbc
00000020: de4f 04bd 6fa4 113c be89 523d 56a2 bcbc
00000030: 0065 063d d94a 873c 6fa9 9b3c 511d 373d
00000040: 7178 0cbd 293e 80bc bb56 8d3d fc8f e8bb
00000050: 4673 96bc 4706 1f3c 6756 5e3d 670e 1f3b
00000060: 2337 1abd 1676 0dbd 6e0c 26bd 85d5 4bbd
00000070: 92c2 453c 97f4 383d 048c 4fbd 4db7 3f3d
00000080: 8394 16bd 96c5 9cbc 0bca 753b e510 dcbc
00000090: c093 883c 56aa a13b dbf5 893b 51fb 87bd
000000a0: bd9a 53bc 5c0e 103d 93db 3dbb 6aa6 193b
000000b0: bf32 6dbc 75f2 333d 50a9 93bb 86a0 b1bd
000000c0: 2625 493d 4d26 083a 6a3d adbc e9c9 4ebd
000000d0: d6eb 89bc 4037 aebc 6444 873c 31e0 f8ba
000000e0: 7423 3e3b d880 95bc 9ccd d7bc 2c39 9bbd
000000f0: b2c9 1abd 33cc a0bd e8e1 59bd 3cb8 43bc
00000100: a4f3 69bd 1fdd 3d3d dfb2 6dbd 12cd 80bd
00000110: e0a9 e2bc d158 8abc c6b8 64bd fbc6 493d
00000120: c41b 2f3d c7cb 28bd deb3 b6bc e3e7 063d
00000130: 0306 b0bb a99c 453d 7939 be3c 902a c2bc
00000140: c0b5 3bbd c51b 4fbc d4b4 893c a65d 4fbd
00000150: c994 78bb a526 3c3c d2b8 b43d c1f8 1fbd
00000160: 2f79 89bd 0d72 d13c cba7 da3c 5009 38bd
00000170: 0e3f 58bd 3fc2 d3bb 6e23 0ebb d4c9 113d
00000180: b86e 92bd 1c47 9bbc 4340 31bd 9568 d3bd
00000190: ef0a 953b e225 20bd 20cc 13bd 303e b6bd
000001a0: 4912 8bbc ca7b 7cbc a651 973d da5a 1a3b
000001b0: 6fd1 223d c9d3 00bc 70a8 153c c634 9fbd
000001c0: 22bb f7bc 73fc a63a e5d0 9f3c 7b42 11bc
000001d0: 15c4 a4bd c66e 4dbd f26d cbbc 6a89 303d
000001e0: 3b10 4fbd c031 8bbc 828d 5e3d d37f 95bd
000001f0: 0322 933c 1ca4 8fbd 6d3d 52bd fb42 333d
00000200: 156e b13c cd21 503c 6a7f ee3c 7f11 31bd
00000210: 214f 22bc 4951 74bd 67dd 14b9 dae6 48bd
00000220: 1659 a7bc b737 ee3c f726 e33c 3091 11bd
00000230: e6cd 613d aae0 79bd bb10 eb3c 4fae 92bc
00000240: 410f 1dbc 8789 513d d662 d5bb a5f7 e5bb
00000250: 04dd 5dbc 2f2c e1bc 671e bdbd a899 983c
00000260: 97d6 ca3b 26eb 713d af89 aabc 7c72 39bc
00000270: 2ef9 a03c ed74 de3c b2ac 41bd e870 6cbd
00000280: b176 3dbc 4a89 67bd 0d70 0abc dc8f 4ebc
00000290: 61da 0d3d 6b67 a7bd eeff 803c 650f ebbc
000002a0: ec12 4b3c 97c8 acbc c0ec 81bd 5e44 633c
000002b0: 8f94 4dbb 709b c4bb 1241 96bd 2e8c 243d
000002c0: 2871 2f3c 8c2f c73c 06ef 6cbd 6690 d5bc
000002d0: e8ab 193c 6d0e 3ebd ed24 17bd 08e8 ac3c
000002e0: c326 6d3d 4cf0 be3c 7797 afbc 33ae 1d3e
000002f0: b5f6 10bc 1b4b 963c 1dcb 1ebc 8c8c 98bd
00000300: 0945 d03d 2f1b b0bd 00b6 9a3d 6b4e c43d
00000310: d5da a0bb 32fb 2fbb 37e5 7c3b f110 c03d
00000320: feb2 213d d1e4 803d b567 83bc 6592 223c
00000330: 504c eb3c 2f7f cd3c d249 fa3c 2464 81bb
00000340: b4c8 593c d487 b2bb b6da 303b 1ad0 1dbc
00000350: a2c4 5a3d f742 513c cc00 b1bc 5cf5 e7bb
00000360: fdd5 8e3c a65c 103d ce75 a4bc 55ac 1bbd
00000370: 241f 213d ad92 ce3c ee42 b43d 703b 0ebd
00000380: cc55 823c eff4 af3d cecd 22bd beac 6cbd
00000390: 4ebe 463d d9ba 71bd 84b6 64bc 9c32 73b9
000003a0: 4e7c e13c b35a 45bd 37da 433c 06c7 ea3b
000003b0: 3ac7 88bc ae5d 933d fe46 413d 1b39 323d
000003c0: c211 693d 0fd9 a6bb 5aee 513c 0b71 30bd
000003d0: 8d9f 473d 14dd 1f3d 9b13 263d 8a40 bf3c
000003e0: 43c5 793d 3276 403d e59d bebc cacc 133d
000003f0: bc02 3abd 94fd ba3b e497 36bd d926 3d3c
-0.028032744 0.0532639 0.030458845 0.007175584 -0.0057218405 -0.020902365 0.022258159 -0.029207962
-0.03230273 0.008889302 0.051400892 -0.023026627 0.032811165 0.016515182 0.01900169 0.044705693
-0.03429455 -0.01565464 0.06901308 -0.0070972424 -0.018365514 0.0097060865 0.05428162 0.002427006
-0.03765024 -0.034536444 -0.040539198 -0.049764175 0.012070315 0.045155134 -0.05067064 0.04680567
-0.036762726 -0.019137185 0.003750446 -0.026863525 0.016672015 0.0049336357 0.0042102165 -0.06639732
-0.01291531 0.035169944 -0.0028969988 0.0023445138 -0.014477431 0.043932397 -0.0045062676 -0.086731955
0.049107693 0.00051936955 -0.021147449 -0.050485525 -0.016836088 -0.02126658 0.016512103 -0.0018987713
0.002901283 -0.018249914 -0.02634316 -0.07579264 -0.037790008 -0.07851448 -0.053193957 -0.01194578
-0.05711712 0.046353456 -0.058031913 -0.06289114 -0.027668893 -0.016888054 -0.055840276 0.04926203
0.04275109 -0.041209962 -0.022302564 0.03293599 -0.0053718104 0.048245106 0.023220764 -0.023701936
-0.045827627 -0.012640898 0.016809858 -0.05062642 -0.003793048 0.011483823 0.08824314 -0.03905559
-0.06712567 0.025567079 0.026691338 -0.044930756 -0.05279451 -0.006462365 -0.0021688598 0.03559287
-0.07150024 -0.018954806 -0.043274175 -0.10322682 0.0045484225 -0.039098628 -0.03608334 -0.0889858
-0.016976492 -0.015410373 0.0738862 0.0023552687 0.039750513 -0.0078629935 0.009134397 -0.077737376
-0.030240599 0.0012740031 0.019508788 -0.008865948 -0.08045212 -0.05015447 -0.0248327 0.0430998
-0.050552588 -0.016991496 0.05433417 -0.07299771 0.017960554 -0.07013723 -0.05132811 0.04376505
0.021658937 0.012703371 0.02911349 -0.043229576 -0.009906561 -0.059647832 -0.00014196859 -0.049048282
-0.020428222 0.029079301 0.02772854 -0.035538852 0.055128 -0.061005272 0.028694501 -0.017905382
-0.009586156 0.051156547 -0.0065120263 -0.007018047 -0.013541464 -0.027486889 -0.092343144 0.018627957
0.006190132 0.059062146 -0.020817606 -0.011318799 0.019650068 0.027155364 -0.047283836 -0.057724863
-0.011563943 -0.056527413 -0.008449567 -0.012607541 0.03463209 -0.08174022 0.015747037 -0.028693864
0.012394648 -0.021091742 -0.063439846 0.0138712805 -0.0031369065 -0.005999975 -0.0733663 0.04017275
0.010708131 0.024314664 -0.057845138 -0.026069831 0.009379365 -0.046400476 -0.03690045 0.021106735
0.057898294 0.023307942 -0.021434529 0.15398483 -0.008847882 0.01834636 -0.009691981 -0.07448682
0.101694174 -0.08598935 0.07554245 0.095852695 -0.0049088993 -0.0026852605 0.003858877 0.09378231
0.03947734 0.06293643 -0.016040662 0.0099225985 0.028722912 0.02508506 0.030552778 -0.0039487053
0.01329248 -0.005448321 0.002698583 -0.009632135 0.05341018 0.012772313 -0.021606825 -0.0070788097
0.017436022 0.035244606 -0.020075705 -0.038006146 0.03933634 0.025216425 0.08801828 -0.034724653
0.015910052 0.08591639 -0.039747052 -0.057781927 0.048521332 -0.059016082 -0.013959531 -0.0002319314
0.027525093 -0.0481822 0.011953882 0.0071648387 -0.016696561 0.07195602 0.047186844 0.04351149
0.0569017 -0.0050917934 0.012813175 -0.043076556 0.048736144 0.039029196 0.04054604 0.023346204
0.06097914 0.04698772 -0.02326865 0.036083974 -0.045412764 0.0057064984 -0.044578448 0.0115449065

first_part.0.bias f4 [56]
00000000: 76aa 08bb a2c1 4dbb 3ddd 80b9 e521 61bb
00000010: 5166 883b 1bfe c0bb 61c8 f9ba 9912 4dba
00000020: 312e 93bb e500 3cbb 2a8e 74bb 9220 a03a
00000030: d34b 3f3c 1f9b 9b3b e185 ba3c 6b49 c0bb
00000040: 8afa 003c 682e 0abc 3b3e f53b 6a58 85bc
00000050: 5cba 093a 0eff 15bb c56c 67bb 823c d7bb
00000060: 383c 12bc 7998 b0b9 abee 86bb 34fa 4f3b
00000070: e94e 57bc 9021 8a3b 2184 cd3a 67df 13bc
00000080: e515 57ba ca35 25bb fc83 813b 65a0 243c
00000090: f19c b838 bc1a 553b 0087 91bb 2ee7 8b3c
000000a0: 30fa 7b3d 0d10 1fbc a696 583b 9395 09bd
000000b0: 78da 5fba db1d 643b 90b7 33bc bb6c aeba
000000c0: a614 c8bd 8845 723c 28e8 2fbc 1c65 893c
000000d0: da47 a0bb 6dd8 6f3b 41aa bdbb 3814 f23c
-0.0020853556 -0.0031395932 -0.00024578898 -0.0034352478 0.0041625877 -0.0058896667 -0.001905691 -0.00078229007
-0.0044915904 -0.0028687057 -0.0037316182 0.0012216738 0.011675793 0.0047487165 0.022768917 -0.005868127
0.007872233 -0.008433916 0.007484225 -0.01627751 0.0005253905 -0.002288762 -0.0035312634 -0.0065684924
-0.00892549 -0.00033682937 -0.004117807 0.0031734826 -0.013141372 0.0042154267 0.0015679636 -0.009025431
-0.00082048617 -0.0025209063 0.0039525013 0.010048007 8.803036e-05 0.0032517156 -0.004441142 0.017078009
0.061517894 -0.009708417 0.0033048778 -0.03358991 -0.0008539329 0.0034807834 -0.010969058 -0.0013307551
-0.097695634 0.014787085 -0.010736503 0.016771846 -0.004891378 0.0036597506 -0.005788118 0.029550657

first_part.1.weight f4 [56]
00000000: 82f7 783e d027 853e 399f 843e 87b5 863e
00000010: fd5c 823e 7f53 863e d7ae 813e 7cf5 933e
00000020: 45f4 bc3e d32d 8e3e f5a4 5b3f ea39 803e
00000030: d36d 113f 9b14 823e 769e 723e 5eb2 083e
00000040: ffff a73e ef3c 8f3e 1462 813e a1bc 8c3e
00000050: 1b23 833e 6618 773f b05d 813e 775f 7b3e
00000060: 468f 253d cce8 7f3e 3b7d c73e 5dcf 813e
00000070: eaa0 923e ef28 8c3e e0bc 7e3e 9b5c 573e
00000080: c9c5 0d3f 7b1b 913e ddfb 7e3e 6a94 813e
00000090: c51b 8a3e 50ed 2b3e 5cce 883e eda6 803e
000000a0: 2863 e83e 2c45 893e 62de 823e 1421 ab3e
000000b0: fac4 113f f400 783e 7518 5d3f acb1 7e3e
000000c0: d6e3 023f eef3 783e 5a7a 6b3f 4dd8 7e3e
000000d0: 7bff 613e f2e3 5e3e f53d 893e b562 843e
0.24313167 0.26006937 0.25902727 0.2631037 0.2546157 0.26235577 0.25328705 0.28898227
0.36905113 0.27769336 0.8579858 0.25044185 0.56808203 0.25406346 0.2369326 0.13349292
0.32812497 0.27976176 0.2527014 0.27487662 0.2561272 0.96521604 0.2526679 0.24548136
0.04041984 0.24991149 0.3896273 0.25353518 0.28638393 0.2737498 0.24876738 0.2103142
0.5537992 0.28341278 0.24900766 0.25308543 0.2697431 0.16789746 0.2671994 0.25127354
0.4538815 0.26810586 0.2556029 0.33423674 0.5694119 0.24219114 0.86365443 0.24872464
0.511289 0.24311802 0.9198357 0.248872 0.22070114 0.21766642 0.26805082 0.25856557

mid_part.0.weight f4 [12, 56, 1, 1]
00000000: 2769 013f 3b2f 5c3e fe70 42bf 0922 7c3e
00000010: 542b c93e 7bf0 a23e 2914 aabd 2a61 013f
00000020: d8de 293e c819 97bf d0f5 003f 38e5 93bd
00000030: ff4d 0bbf f1e2 873f 3068 d83e 6792 c43e
00000040: 1748 bc3d 78d5 923d 162c 0d3f 515c 74be
00000050: 5fd6 253c 455c 343f 86c2 bbbe b139 ecbe
00000060: 2398 94bd 8fcc 9abd b0cb d23e 0eb8 38bf
00000070: 0814 883e 7326 bc3e 49c6 443d 15f6 b83e
00000080: 22dc 093f 7e2c 0b3e 5bea 13bf 5a8f 2fbf
00000090: 179a 51bd 1689 49bd 90a2 5ebe 3deb bc3e
000000a0: 5843 a7bd 4465 003f d739 c7be 12a1 00be
000000b0: 78b2 03be abce 1abe 5dbb f5bd b077 1bbf
000000c0: 9825 25be f031 16bf c0d3 d3bd 4017 0fbe
000000d0: 986e 2cbf 0b30 0a3e 251b 98be 04b2 2cbe
000000e0: e779 b9be 398d 76bf 6c77 023f b518 ac3c
000000f0: 90bb c43c 6cf8 513f 2ab9 3e3f 3b44 033f
00000100: 3263 3b3c 33f0 c6bd bf60 8bbd edbd fbbe
00000110: 5eaf 1e3e 9412 433e 5d8c 22bf 06cd ed3d
00000120: e7b5 0fbf a27e 823e 49b9 0f3f f7c9 d3bd
00000130: b797 5d3f dbec 87be d5e2 d33d abb6 bcbe
00000140: e996 c2be 7cde b4bd da0e 863d d411 09bf
00000150: d901 163f 67d8 4d3f d948 26be 8130 d13e
00000160: 2d9b 203e e6f8 cfbe 9bb5 f6bd 2508 1ebe
00000170: 680d 633e 86b2 573e 91a8 24bf 74f9 8cbe
00000180: 0cde 603e 8582 363f 2048 8bbe 6c1f 5b3f
00000190: cfa9 3a3f 26f3 dd3d b3c0 e43e 5ebe a83d
000001a0: 0ac9 ab3e 4314 0fbe 168b 553f b27f ffbe
000001b0: c023 723c 458d 4ebe b27a 2b3f ce3a e6be
000001c0: 838e 8e3e f326 1dbf caf3 89be 3030 ccbe
000001d0: de23 a4bd adee 1b3f 6556 f9bd f320 57bd
000001e0: a0e8 263f bfaf 4a3f 2362 d03d 35d0 513f
000001f0: aa07 dbbe 80a0 1abe 7943 d8bd 57bc d13e
00000200: dfba 22bc 5267 1bbe eaff f43e 1063 bd3e
00000210: 6e95 09bf a906 6e3e f815 06be c55b 9cbe
00000220: 9b1f d33e 599d abbe 9a7e 21be 441b 83be
00000230: b818 fbbe 5316 df3e c928 973c 8b5c 1dbe
00000240: 32ff fb3e 56bd 333f 5489 233f 2682 c33e
00000250: 2799 a53e 8d9b 9f3e f644 efbe 87ad e53d
00000260: 5fc5 a2bc 0c90 023e 9907 5abe a77e b0bb
00000270: b389 0e3e 38a6 d43e 092c 763e 5612 f83e
00000280: 2ae2 56bc 6a70 1a3f fac2 5f3e 0429 12bf
00000290: e316 a53c 06b0 de3e 8cf5 b3be a9a6 a3be
000002a0: 5ee4 613d 91a3 8e3e 58a2 09be 349d 203e
000002b0: 6f9c 843e 6b82 1bbd d2d0 14be af1c 973e
000002c0: a744 13bf a92e c7be 5197 0c3f 242f b5be
000002d0: b664 b53e 94c9 f7be e555 1d3f 38b5 99bd
000002e0: b2d7 073e 664a 6d3e 1faf d5bb 5e26 5b3f
000002f0: 55b7 f1be 83ec 1e3f 2ede abbe 47f5 b4be
00000300: 0ef7 ef3e 1ac1 8a3d b86c e6be 1b37 753f
00000310: a7b3 0b3e dd44 d83e 5659 1abd feee b1bd
00000320: 4cf3 05bf 3970 543e 94b0 1fbe 8087 ed3e
00000330: 5205 023e 4de8 00be 24aa 0bbd 65d5 503e
00000340: 09f1 9abd ac39 883f afa2 453f a4c5 2e3f
00000350: 4872 77bf 658d 6bbe 57ad ef3e b5ea c5bd
00000360: d736 c63e 2cc3 103f 2b42 8dbe bbe0 cabe
00000370: 9d58 8bbe 0302 eb3e 5b28 4fbe eafd 003f
00000380: 02ab 89be c2e4 be3d b590 f33d b07b 9b3d
00000390: 8697 39be 5935 c2be 444c 3abe b45c 023f
000003a0: 0de7 f33e 29fc 93be 5e43 24be 9b2f 093d
000003b0: 4416 b1bf 6951 4a3f ad5e 4b3f 67ca 70bd
000003c0: 770c ac3e c6b9 3abe 5f5f b33e 62ff c2be
000003d0: cf6d 653e 9b27 863e 296e be3e 5f8b 523d
000003e0: 0029 ddbd e199 dcbd 356a 043f 7567 7b3e
000003f0: 7ec1 2ebf 55b6 c6be 597a b03d 69fe 5d3e
0.50551075 0.21502392 -0.7595366 0.24622358 0.3929087 0.31824097 -0.083046265 0.50538886
0.16588914 -1.1804743 0.5037508 -0.072214544 -0.5441589 1.0616132 0.4226699 0.38392946
0.091934375 0.07169622 0.55145395 -0.23863341 0.010121911 0.7045329 -0.36671847 -0.46137765
-0.0725558 -0.07558548 0.41171026 -0.72155845 0.26577783 0.36748084 0.048040662 0.36125246
0.5385152 0.13591191 -0.57779473 -0.6857811 -0.051172342 -0.049203 -0.217417 0.36898223
-0.08167142 0.5015452 -0.38911316 -0.12561443 -0.12861049 -0.151179 -0.11998627 -0.60729504
-0.16127622 -0.5866995 -0.103431225 -0.13973713 -0.6735625 0.1349489 -0.2970821 -0.16864783
-0.36225817 -0.9630924 0.50963473 0.021007875 0.024015218 0.82019687 0.7450129 0.51275986
0.011437224 -0.09713783 -0.06805562 -0.4916834 0.15496585 0.19050056 -0.6349543 0.11611371
-0.56136936 0.25487238 0.561421 -0.10341256 0.86559623 -0.26547894 0.10345999 -0.36858115
-0.3800576 -0.08831498 0.065458015 -0.5354283 0.5859657 0.8040833 -0.16238727 0.40857318
0.15684195 -0.40619582 -0.12046357 -0.15432794 0.22173083 0.21064195 -0.6431971 -0.27534068
0.21959704 0.71292907 -0.27203465 0.8559482 0.7291536 0.108373925 0.44678268 0.08239435
0.33551818 -0.13972573 0.83415353 -0.4990211 0.014779031 -0.20171078 0.66984093 -0.4496674
0.27843103 -0.61387557 -0.2694381 -0.39880514 -0.080146536 0.60911065 -0.121746816 -0.052521657
0.6519871 0.7917442 0.10174968 0.81958324 -0.42779285 -0.15100288 -0.105597444 0.40964004
-0.009932249 -0.15176132 0.47851497 0.3698964 -0.53743637 0.23244728 -0.13094318 -0.30538765
0.4123505 -0.33518484 -0.15770951 -0.2560674 -0.49042296 0.4357172 0.018452065 -0.15367334
0.49218136 0.7021078 0.6388142 0.38185233 0.32343408 0.31173363 -0.467323 0.11214738
-0.019869504 0.12750262 -0.21291961 -0.005386192 0.13919716 0.41533065 0.24040236 0.4845149
-0.013115445 0.6032778 0.21851721 -0.57093835 0.020152515 0.4349367 -0.35148275 -0.3196309
0.05514943 0.27859166 -0.13440835 0.15684968 0.259006 -0.037966173 -0.14532784 0.2951407
-0.5752663 -0.38902786 0.5491839 -0.35387528 0.354284 -0.4839598 0.6145919 -0.07505268
0.13265875 0.23172912 -0.00652112 0.8560542 -0.47210184 0.6207964 -0.33567947 -0.35343382
0.46868175 0.067751125 -0.4500482 0.9578721 0.1364275 0.4224004 -0.037682854 -0.08688162
-0.52324367 0.20745935 -0.15594703 0.4639244 0.12697342 -0.12588616 -0.034097806 0.20393904
-0.07565505 1.06426 0.7720136 0.68270326 -0.96658754 -0.23003156 0.46811935 -0.096639074
0.38713714 0.5654781 -0.27589545 -0.3962458 -0.27216044 0.45899972 -0.20230238 0.5038744
-0.2688828 0.09320976 0.11892835 0.07591951 -0.18124208 -0.37931326 -0.18193156 0.50922704
0.47637215 -0.2890332 -0.16041324 0.033492666 -1.383492 0.7903047 0.7944134 -0.058786776
0.3360326 -0.1823493 0.350337 -0.38085467 0.2240517 0.26202092 0.3719342 0.051402446
-0.10798836 -0.107715376 0.5172456 0.24551184 -0.68263996 -0.38810983 0.08617086 0.21679081

mid_part.0.bias f4 [12]
00000000: 3694 023b ec33 16bd d620 d8ba 6347 a4bb
00000010: a505 6c3d 584e ab3b 434d ca3c d167 c23c
00000020: 0465 66bc 39f4 fe38 d0dc 2cbb 2d4a d73c
0.0019924766 -0.03667061 -0.0016489278 -0.005013393 0.05762257 0.005227845 0.024695044 0.023731144
-0.01406217 0.00012157154 -0.0026376732 0.026280487

mid_part.1.weight f4 [12]
00000000: 8cfb 803e 0c8e c03e a4ec 7f3e e9ed 803e
00000010: d3ef a03e be42 753e 7cb6 723e 7ff8 ed3e
00000020: 13d9 953e 74f0 d23e a8d8 753e 6228 8c3e
0.25191915 0.37608373 0.24992615 0.2518151 0.3143297 0.23951241 0.23702425 0.4647865
0.29267177 0.41199076 0.24008429 0.2737456

mid_part.2.weight f4 [12, 12, 3, 3]
00000000: 2d73 7b3e 9672 82bc ab4c 623c 9479 82be
00000010: 7042 d63d c54b efbd 287f 95bd e75e e2bd
00000020: 65a8 913d beb4 383e b16b 5fbe f4ed 553e
00000030: 90fc 253d 8cc2 fcbd 35b0 f9bd 284c 9fbd
00000040: 1580 23be c233 143d e265 ba3d 1844 223e
00000050: f8f3 713d 12df 243e 2150 e63b a794 d9bc
00000060: 49e6 853e e313 813d 1d73 93bd b37a 5fbb
00000070: a587 95bd 299b e53d f50a 133e fd4e aabe
00000080: 7d73 82be 46db 0dbe bbf0 d6bc f07b 183e
00000090: 2a26 38be 2f11 e4bd 6e72 babd f1ad 83bc
000000a0: 79d0 773e 35f3 6dbe 174e e53c 6714 30bc
000000b0: e342 2b3d 8588 5e3e 4b92 373d e4aa 5b3e
000000c0: 867f 51bd 8dbb d8bd 238a a03d 916d bcbd
000000d0: e09e 8c3d a68d cabd ea0a 31be 5638 6e3b
000000e0: 53f0 ee3a 1f67 5f3e ca8c a8bd 0c54 b63c
000000f0: 7e72 c0bd 7899 e63d accd 203e be2a 093e
00000100: a95a 88bd 64f6 763e da3e 0a3c 60c0 953c
00000110: f24c 9bbb bb44 aa3b 5014 6fbe ff07 4fbe
00000120: f079 90bc b54b 8cbc 68f6 1f3d 5d1d 44be
00000130: b0ab 923e 874e 92bd 6a2f 82bd cdd1 7abd
00000140: fcd4 f13c 7caa 32be df00 b43c 971a 443d
00000150: 68bf 463d 751a ed3d ef3b 0d3e 324a e3bd
00000160: 48c8 0ebd 858c de3c 7689 903d 8b30 a2ba
00000170: 0273 713e 683e eebd d99f 4ebd 7a74 8dbd
00000180: 3976 213d d70a d93d 1e8c 0a3d 7b3c 253d
00000190: 74a5 91bd c7d0 cebd 6806 05bd bc3f b53d
000001a0: 5575 bf3c 849b 9c3d 62ff 2e3d 0508 a53b
000001b0: eccf 9b3b fad1 1fbd 9d3a c73b c183 333c
000001c0: 5b15 853d 9b6f 7bbe dbfe 5a3e fa3b 903d
000001d0: 92e5 0d3e 47eb 173e da80 ca3d 9275 b0b9
000001e0: de84 6d3e c0ba f93d cbfc 9d3c 147c 6f3d
000001f0: 1870 debd aceb 1e3e 9db4 edbc c555 a6be
00000200: 9d27 2abe 2bc9 aa3c a43c 703d bdbd 98be
00000210: 80e1 e1bd d143 bb3d 71a4 cabd d6ad 0b3d
00000220: 9a3e 843e 5432 d6bd 5f03 b5bc acc0 9ebd
00000230: afb9 c0bc 1d84 d2bd da62 a83e 5eb2 cdbd
00000240: baa9 6d3e 5382 27be fdd4 79bd 72b9 3bbe
00000250: 82f0 21be 33a5 c73c b13c a3bd 603b d2bd
00000260: dedc a63b ad98 efbd 62af 273d c5ce 87be
00000270: 7257 363c b1f7 cf3d b904 bd3d a9af 0d3e
00000280: 094f 86bd 58d2 21bd e8f4 4b3e 6ab6 5abe
00000290: 2755 2abe 916a 7ebc b03d 5a3e e028 89bd
000002a0: d8f6 a5be e8d0 cbbc 54b1 cf3d 7195 35be
000002b0: 08be 273e 5a2b cebd ad2f 3ebd d0ed 6c3e
000002c0: 3e04 283e ac71 7dbd 0feb edbd 6e52 f7bd
000002d0: f568 c53d f02a e1bd 6de4 d73d d7dd b0bc
000002e0: 7292 b73d dd15 93be 8047 3d3d 7c46 9dbd
000002f0: 6424 98bd 6fae f4bd 1252 bdbd 3442 9abd
00000300: 6ece f63b 1ec3 88bd 9950 83bc 19ef 34be
00000310: 0d22 3abd 9b1f 123c e006 9dbd 0432 073e
00000320: 83c0 1b3d a2ba 7c3e 5fb5 51bd e450 0bbe
00000330: e08d 0dbe 2ebd 003d 2309 f83d 1dfd 913e
00000340: 85dd 403e 398f 913d b611 d03d a777 d83d
00000350: b973 1f3e ccdc 43bc 66a1 f53d 830b 113e
00000360: 61f5 a13d 9f33 27be b9f1 00bd b906 e1bc
00000370: 874b 403e 93bd 373e 7af3 153e 2634 9bbc
00000380: 9134 903e af5d a8bd 8686 e0bd d454 8b3d
00000390: eca6 483e 6425 9fbd f796 8bbc 40b8 75bd
000003a0: b634 d33d 9046 c43d 7a6e 153e c3cb 87be
000003b0: 35b1 4ebe ba3c 823d c39b 01be 3a7d 0fbc
000003c0: d56b e93d a3f9 eb3c b111 123d 28f3 e2bd
000003d0: e3b4 6abb a280 52bd fdb1 5c3e ab1d 593e
000003e0: b3ce 3a3e 2764 123d 1fbe 013e 93e0 353d
000003f0: c98e ab3e a983 5fbe e6c2 afbd 4c6a 133d
0.24555655 -0.01592378 0.013812224 -0.25483382 0.10461891 -0.11684374 -0.07299644 -0.110532574
0.07112197 0.18037698 -0.21818425 0.20891553 0.040524065 -0.12341794 -0.12191812 -0.077781975
-0.15966828 0.036182173 0.09101464 0.15846288 0.059070557 0.1610072 0.007028595 -0.02656014
0.26152256 0.06302621 -0.071996905 -0.0034100234 -0.07301263 0.11211235 0.14359649 -0.33263388
-0.25478736 -0.13853177 -0.026237836 0.14891028 -0.17983308 -0.1113609 -0.09103857 -0.016074153
0.2420062 -0.23237307 0.027991338 -0.010747052 0.041811835 0.21731766 0.04481725 0.21451908
-0.051147006 -0.105826475 0.078388475 -0.09200586 0.068662405 -0.098902985 -0.1728932 0.0036349497
0.0018229581 0.21816681 -0.082299784 0.022256874 -0.09396838 0.112597406 0.15703458 0.13395211
-0.06657917 0.24117428 0.008437837 0.018280208 -0.004739397 0.0051961816 -0.23347592 -0.20217894
-0.01763627 -0.017125944 0.03905335 -0.19151826 0.28646612 -0.07143884 -0.063567 -0.061235238
0.029520504 -0.17447847 0.021973072 0.04787692 0.048522383 0.11577312 0.13792394 -0.11098136
-0.03485897 0.027166614 0.070574686 -0.0012374086 0.23579028 -0.11632997 -0.05044541 -0.06906982
0.039419387 0.10597771 0.033825032 0.04034088 -0.07111636 -0.10098415 -0.032476813 0.08850047
0.023371378 0.0764685 0.04272402 0.0050363564 0.004755011 -0.03901861 0.0060799853 0.010956706
0.06498214 -0.24554293 0.21386282 0.070426896 0.13857105 0.14835845 0.09887858 -0.00033656933
0.23195216 0.12193823 0.01928558 0.05846794 -0.10861224 0.15519589 -0.029016787 -0.32487312
-0.16616674 0.020847877 0.05865158 -0.2983226 -0.11029339 0.09143794 -0.09894646 0.03410133
0.2582901 -0.10458818 -0.022096334 -0.07751593 -0.02352604 -0.10279105 0.32887918 -0.100437865
0.23209277 -0.16358308 -0.060994137 -0.1833246 -0.15814403 0.024370765 -0.0797056 -0.10265231
0.0050922474 -0.116990425 0.040938742 -0.2652494 0.011129247 0.10154665 0.092294164 0.1383654
-0.065580435 -0.03950724 0.19917643 -0.21358648 -0.16634046 -0.015528337 0.21312594 -0.066972494
-0.3241489 -0.024879888 0.101412445 -0.17732789 0.16381085 -0.100668624 -0.046432186 0.23137593
0.16407868 -0.061875984 -0.116170995 -0.12076269 0.096391596 -0.10994518 0.10541616 -0.021590156
0.08963479 -0.28727618 0.046210766 -0.076794595 -0.07428816 -0.11947333 -0.09244169 -0.075321585
0.0075319326 -0.06677841 -0.016029643 -0.17669334 -0.04544263 0.008918668 -0.07667327 0.13202673
0.03802539 0.2468057 -0.05119836 -0.13605076 -0.13823652 0.031430416 0.12111118 0.28513423
0.18834503 0.07107396 0.10159628 0.10569697 0.15571488 -0.011954498 0.11993675 0.14164548
0.079081304 -0.16328286 -0.031480525 -0.027469026 0.18778811 0.1794341 0.1464366 -0.018945765
0.28165105 -0.08220994 -0.10963158 0.06803289 0.19594926 -0.077708036 -0.01703976 -0.059990168
0.10312788 0.09583771 0.14592925 -0.26522645 -0.20184787 0.06359239 -0.12657075 -0.008757884
0.113975205 0.02880556 0.035661403 -0.110815346 -0.0035813383 -0.051392205 0.21552272 0.21202724
0.18242912 0.035740044 0.12670182 0.044403624 0.33507374 -0.21827568 -0.08582096 0.035990044

mid_part.2.bias f4 [12]
00000000: e177 483b df11 353b 412d 84ba f90c 893b
00000010: b478 013d 6fb5 0cbb f27c 75bb 810b c43a
00000020: bf6b 203c 6c4b f139 d52c 493c 73ad df3c
0.0030589032 0.002762906 -0.0010084287 0.0041824547 0.031609252 -0.0021470448 -0.0037458506 0.0014957042
0.009791314 0.00046023296 0.012278755 0.027304387

mid_part.3.weight f4 [12]
00000000: aa4a abbe c398 803e bdbe 863e d193 193f
00000010: 7fdc 923e 108f 823e 0958 c83d c511 203e
00000020: 2129 763e 08bf 953e 692c 833e 0ac6 783e
-0.33455402 0.25116548 0.26317397 0.59991175 0.2868385 0.25499773 0.097824164 0.15631779
0.24039127 0.29247308 0.2561982 0.24294296

mid_part.4.weight f4 [12, 12, 3, 3]
00000000: 290a 183d 6762 95bd e061 603e 0e94 923e
00000010: 2540 d5bc 15b3 093e 6dbc 01be 6b36 823d
00000020: 7bcc a5bd 55a5 5ebe 2586 f7bd 9901 ac3e
00000030: 6331 6bbd 95e9 123e 78cd 1ebe 7daf fbbd
00000040: d424 1c3c fb06 653e bc74 0fbe a000 eb3d
00000050: 2972 c03c 95ae 083e 0b4d f2bc f904 a3bd
00000060: 6860 8bbd ba5a 1b3e f0c5 423e 091b c0bc
00000070: a964 a8be 0af1 bcbc e692 f53c 8e54 62bd
00000080: 6039 94be a54b 81bc a094 243e 202f cd3d
00000090: 3c68 4fbd 17dc 513e 860d cb3d 3791 4dbe
000000a0: 87ec 803e efa6 a73d c71c 81be 3a6e 223c
000000b0: 75f4 c63d 00a8 e2bc 9e8a b1bd 702d f63d
000000c0: 6841 82be 04b9 953d 707a b8be 90c4 593d
000000d0: ca2a 7f3e 5994 1bbe 6a43 de3d ce9b 67be
000000e0: 846b f0bd 09ba d73d 8329 21bc e11b 06be
000000f0: 78b2 bbbc d86d 83be 86ca 863e 74c0 cc3c
00000100: 09ec f7bd 49d3 193e d1cc 25bc 44d9 283d
00000110: d942 0f3e 9c6a 7cbe 1a0a 8abd 8394 90bd
00000120: 1195 70bc 20d9 66bc 7552 b2bd 66cf 32be
00000130: d804 20bb 48cd cdbc a1f1 813d 0993 33bd
00000140: 2cb1 503e 7eb3 e33d bc5a cabb 84b7 5e3e
00000150: b105 f93d b72e 243e dc69 e7bc 1268 b63d
00000160: cd18 333e 4642 a9be dec0 08bd 1ad5 163e
00000170: f5c1 97bd 6309 d53d 0c9b 05be b502 a83c
00000180: 080a 70be 6170 b8bd e880 403e 172b 1d3e
00000190: dfe9 ae3d 2c9f b13d 5410 a0be 9917 253e
000001a0: b125 a4be 6df9 963d 73ee 613e 3fee 593e
000001b0: 5a58 f03d b659 60be 404f 3abd 7a14 8e3e
000001c0: 2b4d b03d fb61 cb3d 1f09 933e 7f26 75be
000001d0: 8340 003d be8a b1bc 0d2d 7a3d eecd 13bd
000001e0: 01a0 943e 99e1 773d 6704 a73e ecba 79be
000001f0: 35cd 81be 70e9 a5bd 6cb6 54be 3120 e83d
00000200: 6cd0 5cbd b0a2 eebe ff18 2fbe d8b4 3abd
00000210: cd62 0abf b815 3ebe 41bf ca3d 4d52 b63c
00000220: 8421 333e 38d9 6f3e 4b2b 3a3e 25e4 a63e
00000230: 8af7 5d3d 953c be3e 68df b43e a920 c7bd
00000240: 5a8c 07bd 9c40 0abd 9a01 0ebd ae36 4bbe
00000250: b1cb bbbc 9f46 4ebb ba9b b2be 3592 74bd
00000260: e7bd 0ebd 0945 f7bc 758e 40be 02a5 903e
00000270: bbbb 79be a02c 2ebd 90d0 0d3e 0e5c 01be
00000280: 231b 0f3d 2036 8abd 02c2 893e e958 18bd
00000290: 208a 2ebd 9df5 bf3e 7d58 a5bd 891b f63c
000002a0: 46c0 043e be78 1ebd 84db 80be 0f4d af3e
000002b0: 0cda 7cbe 6a95 7abe a4bb 3bbd 218c 083b
000002c0: da1b 933d e120 2e3e 21d9 0a3e 319a d93e
000002d0: 3e40 9cbd 45bc 88be 3191 35be 90c8 dcbc
000002e0: 0420 04be aab4 8b3d 4217 4a3e 4535 893e
000002f0: 0424 dd3d d74a d4be ad62 043e 8d0f 1dbe
00000300: 54e9 433e 852f 633e ac7d 28bd 6ddd 0a3d
00000310: 9e12 85bc d757 d33d 057d d9bd 230c b7be
00000320: 13e7 1fbc 52c1 d53e 20eb c63e e1f8 073e
00000330: cf67 c1be 9f8d 64be 072f 063e 5da9 75be
00000340: 7b89 85be 5fa9 98be 909b 4abe 5b4b 5c3d
00000350: 4f37 31bc 9eee 193f 9aa3 bb3e 1ac2 893e
00000360: 64e7 453e d991 4bbe 755f 1a3e 37d9 863d
00000370: 7444 0e3d 6d07 6ebc 405a 27be 9def 9b3e
00000380: 2b77 013d 098d 5f3e 3f13 9b3c de26 313e
00000390: 7f0a 63bc 67d3 fc3c ad6d db3d 61f6 1c3a
000003a0: 5440 9f3d 6978 9d3c 4acd e2bd 874d 703d
000003b0: 2ac0 383e 463a 0abd 1eb3 313e 7860 2d3e
000003c0: d8cb 313d 53ef 24bc c4d4 3ebe bc42 4fbe
000003d0: de2a 1fbe bca7 48bd 0f1a 833d 4fc6 183e
000003e0: a4f7 dc3d 7180 503e fa13 a5bd db4b 463d
000003f0: 2ce8 06be 66b0 7bbe cfe9 16be 78d1 bbbd
0.037119064 -0.072941594 0.21912336 0.28628582 -0.026031563 0.1344722 -0.12669535 0.06358036
-0.08095642 -0.21742757 -0.12086133 0.3359497 -0.057420146 0.14346917 -0.15508068 -0.12289331
0.009530265 0.22365944 -0.14009374 0.114747286 0.023491936 0.13347848 -0.029577753 -0.07959933
-0.068054974 0.15171328 0.1902082 -0.023450391 -0.32889298 -0.023064155 0.029977273 -0.05525642
-0.28950024 -0.01578314 0.16072321 0.10018754 -0.050636515 0.20494114 0.09914689 -0.20074926
0.25180456 0.08186137 -0.25217268 0.009913975 0.09714595 -0.027668 -0.08669017 0.12020385
-0.25440526 0.073106796 -0.36030912 0.053165972 0.24918666 -0.15193309 0.10852702 -0.22618029
-0.11739257 0.1053353 -0.009836557 -0.13096572 -0.022912249 -0.25669742 0.26326388 0.024994113
-0.12105567 0.15022005 -0.010119633 0.041222826 0.13990344 -0.24650043 -0.06740208 -0.07059576
-0.014683978 -0.014089853 -0.08707134 -0.17461929 -0.002441695 -0.0251223 0.06344915 -0.043841396
0.20380086 0.1111822 -0.006175367 0.21749693 0.12159289 0.16033445 -0.02824872 0.089065686
0.1748993 -0.33058375 -0.033387057 0.1472973 -0.07410041 0.10402181 -0.13047427 0.020509103
-0.23441327 -0.090058096 0.18799174 0.15348469 0.08540701 0.08672938 -0.31262457 0.16122283
-0.32060006 0.07371793 0.22063617 0.2128229 0.11735602 -0.21909222 -0.045485735 0.27749997
0.086084686 0.09930798 0.28717896 -0.23940466 0.031311523 -0.021672603 0.06107812 -0.03608506
0.29028323 0.06051788 0.32620546 -0.24387711 -0.25351873 -0.08101165 -0.20772713 0.11334265
-0.053909704 -0.46608496 -0.17099379 -0.045582622 -0.5405701 -0.18562973 0.0989976 0.022256041
0.17493254 0.23422706 0.18180577 0.32595935 0.05419115 0.37155595 0.35326695 -0.09723026
-0.033092834 -0.033753023 -0.034669496 -0.19845077 -0.022924276 -0.00314752 -0.34884435 -0.059709746
-0.034849074 -0.030184286 -0.18804343 0.2825089 -0.2438802 -0.042523026 0.13849092 -0.12632772
0.03493799 -0.06748605 0.2690583 -0.037194166 -0.042612195 0.37492076 -0.080735184 0.030042427
0.12963971 -0.038689367 -0.25167477 0.3423848 -0.24692553 -0.2447106 -0.045833245 0.0020835476
0.07183047 0.1700473 0.1355939 0.4250045 -0.07629441 -0.26706138 -0.17731167 -0.026951104
-0.12902838 0.06821568 0.19735435 0.26798454 0.10797885 -0.41463348 0.12928267 -0.15337963
0.19131976 0.22186096 -0.041135475 0.033902574 -0.016244229 0.103194885 -0.10619549 -0.35751447
-0.009759682 0.41749054 0.3885126 0.13278534 -0.37774512 -0.22319649 0.13103877 -0.23990388
-0.26081452 -0.2981672 -0.19785905 0.053782802 -0.010816409 0.60129726 0.36648256 0.269059
0.1932655 -0.19879855 0.15075476 0.06584399 0.03473325 -0.014528138 -0.16343021 0.30456248
0.031607788 0.21831144 0.018930076 0.17299983 -0.013857483 0.030862523 0.10714278 0.0005987641
0.077759415 0.019222455 -0.11074312 0.058667686 0.18042055 -0.03374698 0.17353484 0.16931331
0.04340729 -0.010066825 -0.18635851 -0.20240301 -0.15543696 -0.04898809 0.06401455 0.14919399
0.10789421 0.20361497 -0.08060451 0.048412185 -0.13174504 -0.2457901 -0.14737628 -0.09170812

mid_part.4.bias f4 [12]
00000000: 8580 553c 7957 8c3b 5adb 93bc 743a 463c
00000010: 683d 5eba ee9a a2ba 8f7c d7ba c5a3 413b
00000020: f899 723c d750 fb3b e102 bbbc 9e69 25bc
0.01303113 0.0042828885 -0.01804893 0.012098897 -0.0008477778 -0.0012405792 -0.001644032 0.0029547077
0.014807217 0.007669549 -0.022828521 -0.010095982

mid_part.5.weight f4 [12]
00000000: 6c85 473e 909e f23e a161 963e c0da 853e
00000010: c3ce 7e3f 2e1e e53e 1da6 843d b680 303e
00000020: 7f39 343f 0fa6 b73e e8bd d13e c522 843e
0.1948449 0.473866 0.2937136 0.26143456 0.99534243 0.44749588 0.06476996 0.172366
0.7040023 0.3586888 0.409652 0.25807777

mid_part.6.weight f4 [12, 12, 3, 3]
00000000: 5acd 553d e72e b2bd 4728 e4bc 47f0 c13c
00000010: 33b0 ef3d e0c0 243e 265f bbbb e0a8 a23d
00000020: 147f e43c d330 463d 6c38 853e 4fba 543e
00000030: 8d90 9f3d f006 4f3e 04be 803e 0547 8fbb
00000040: 618d 99be 9411 9a3d 2841 c03d b504 19be
00000050: 7b08 5c3d cc0b ee3d aa41 d13c a942 9ebd
00000060: 033f 3fbe 3ff2 07be 808a 213e d835 f73d
00000070: d8fa 22be b7a1 3bbe 9100 e3bd 758e c33d
00000080: eb69 043e 871f 393d 281a abbe f9c8 2bbe
00000090: 0573 b43b 8a93 2f3e 7148 a5bd 2bc5 3a3e
000000a0: 9861 083e b616 0cbe 4fc3 3cbd 89f6 443e
000000b0: c7cf 2bbd 6579 0bbe 2a21 d7be 2acc 173e
000000c0: ac55 5a3e d586 5bbb ccf6 603d 9e37 ca3d
000000d0: 3794 c83d 994b 4d3e 25cb 413e d90f 51be
000000e0: b3f1 4e3d 054b c83d c442 383d f7c3 8b3d
000000f0: 4ebd 533e 5e14 5c3e 1d8d ef3d 657e edbd
00000100: 42a3 b8bd 06b4 183e 68f9 3fbd 8fdf 22be
00000110: 2b1d dc3c d5d6 973d 756e 193d 66cf 3cbe
00000120: dd6a 25bd bd5e bc3d 6748 313e 63ab 04bd
00000130: 08c7 873d ab84 f7bc e5fa 68bd 825f 28be
00000140: 36a3 c43c 5131 dbbc 7f88 3a3e 6cd9 b6b9
00000150: 6d82 2bbe e6b6 663d 293e 3e3e 06bb 54be
00000160: f172 01be b8dc 68be 328b e6bd 2e4d fb3d
00000170: e314 053e facd 6dbd add3 4bbe ed2b e23d
00000180: 8603 9fbd 8744 233e 5a33 07bd e964 043e
00000190: 7dc8 3d3d bdae 503d 6012 813d 5417 f4bd
000001a0: fc8d 88bc dbe6 2b3e c2f9 05be 4e58 603a
000001b0: 4dd0 ac3e 1a76 f23d b8bc af3d 8ab0 b6bd
000001c0: 2af2 49be 1d5f f63d 9a38 cf3d 5d20 803d
000001d0: c15c 543c 5e13 e1bd 19da c13c 2e64 333e
000001e0: 86b0 ebbc 03f2 9e3d 334f df3d 5011 6f3e
000001f0: 7b69 cfbd 0e6c 77bd a3ff ec3d 9d03 663d
00000200: ef84 c83c 3aa6 583e f5d6 933c 851a 413e
00000210: 7ab3 4fbc 1c01 e9bb 17d8 c83c 47d8 f03d
00000220: 2825 8e3c 7a7d 19bd e77c f6bd 83bf 0d3e
00000230: 2243 d53c 3036 26be c6b2 4bbe 7dc5 6e3d
00000240: 4f4f 6c3d 44f8 c6bd f8ab 133e b997 0c3e
00000250: 8beb 70bd b5a9 efbd e281 b83d dd87 813e
00000260: d569 413d 4ecd 923d e6c3 453d 0723 013e
00000270: baaa 2abe 4532 6d3c 2ac5 e2bc d87f 993b
00000280: 7b36 a339 85da 6d3d d619 3a3e de46 ba3c
00000290: dd5e 123d 311b 0b3d ce89 c83d dab2 f9bc
000002a0: f82b 48bd 6798 b0bd ffbb a1bd 343f 163e
000002b0: 4dc4 8cbc c4a8 b93d 1873 233d 1a71 2f3e
000002c0: e2be 58be 1438 10bd e8d4 dcbc a6a8 efbd
000002d0: f964 2f3e c9c4 7fbe c05f ee3d 3208 e13b
000002e0: fb6a 423d b0d1 423e 9434 d13c c444 2b3e
000002f0: 1525 fabc e8eb d63d 54cc 483c e500 413d
00000300: e5ec 103e 850f 673e d7eb 24be 598b 823c
00000310: d800 273e f845 443e d9f2 b83d 41f2 313e
00000320: 7aef c23d efc5 32be bce2 7cbe ce12 a43c
00000330: d5de 013e 70ac 0bbe 8a09 883e 96ad bdbd
00000340: 6958 90bc 5862 ebbc 4390 ae3d d743 373d
00000350: 5951 843b 3d2a 81be f811 54be 786a 553d
00000360: 1529 88be 52ac 51bd 93e8 46be 242c 05bb
00000370: f8c0 cdbd 1960 dabd 4028 753e f2ad 553e
00000380: 65f2 40be e7df 09be a6dc 2cbe 8bf6 743c
00000390: 528b d2bd 7d19 a33c 89b9 1fbe 626c 803e
000003a0: daa1 363e 761a 163e d56e 01be bf1a 173e
000003b0: 4ce0 d63c 1caa 823d f585 13bb 956e 15be
000003c0: 7d35 123e bb0b 1abe 18d6 94be 9fd6 463e
000003d0: b24f 9c3d 55b6 133d fd6c 3d3e d953 873d
000003e0: 285a fabd d1b3 41be 89d3 f9bd 5f5a 5d3c
000003f0: fdd7 98be 4ef9 3dbe 7f28 303e 63dd 60bd
0.05219779 -0.08700352 -0.027851237 0.023674143 0.11703529 0.16089201 -0.0057181297 0.079423666
0.027892627 0.048386406 0.2601961 0.20774196 0.07791243 0.2021749 0.2514497 -0.00437248
-0.29990676 0.07522884 0.093874276 -0.14943202 0.053719025 0.11623344 0.025544006 -0.07727558
-0.18676381 -0.13276003 0.1577549 0.12070817 -0.15916002 -0.18323408 -0.110840924 0.09548656
0.1293103 0.045196082 -0.33418393 -0.16775884 0.0055068755 0.17146125 -0.08070458 0.18239276
0.13318479 -0.13680539 -0.0460847 0.1923467 -0.0419462 -0.13620527 -0.4201749 0.14823976
0.21321744 -0.0033497114 0.054922864 0.098738894 0.09793895 0.2004837 0.1892515 -0.20416202
0.05052347 0.09779934 0.044985548 0.06824487 0.20677683 0.21492144 0.11696837 -0.115963735
-0.09015514 0.14912423 -0.04686871 -0.15905593 0.026869377 0.07414023 0.037458856 -0.18438491
-0.040385116 0.091977574 0.17312776 -0.03239001 0.06629759 -0.030214628 -0.056879897 -0.16442683
0.024003606 -0.026756914 0.18216132 -0.00034875737 -0.16748972 0.05632677 0.185784 -0.20774469
-0.12641503 -0.22740448 -0.11257018 0.1227058 0.12996249 -0.058057763 -0.19904967 0.110435344
-0.07764344 0.1594411 -0.033007957 0.12929119 0.04633378 0.050947893 0.06302333 -0.11918512
-0.016669266 0.16787283 -0.13083556 0.00085580803 0.3375267 0.11838932 0.08580917 -0.08920391
-0.19721285 0.1202986 0.10118218 0.06256173 0.012961567 -0.10990022 0.023663567 0.17518684
-0.028770696 0.07761004 0.10903778 0.23346448 -0.10127541 -0.060405783 0.11572196 0.05615579
0.02447745 0.2115716 0.018046835 0.18857773 -0.012677068 -0.007110728 0.024517102 0.11760002
0.017351702 -0.03747318 -0.12035542 0.13842587 0.026032988 -0.16231608 -0.19892415 0.05829381
0.057692822 -0.09715322 0.1442107 0.13729753 -0.05881838 -0.11702291 0.09009148 0.25298968
0.04722007 0.07168065 0.048282526 0.12611018 -0.1666669 0.014477317 -0.027681906 0.0046844296
0.00031130374 0.058069725 0.18173918 0.02273887 0.035735 0.03396148 0.09791909 -0.03048079
-0.048870057 -0.086228184 -0.078971855 0.14672548 -0.017183447 0.090653926 0.039904684 0.17132989
-0.21166566 -0.03520973 -0.02695699 -0.11702089 0.17128362 -0.24977411 0.116393566 0.006867432
0.047465306 0.19025302 0.025537767 0.16725451 -0.03053526 0.10494214 0.012255747 0.047119994
0.14152868 0.22564514 -0.16105591 0.015935587 0.16308916 0.19167316 0.090306945 0.17377569
0.09518333 -0.17458318 -0.24695867 0.020028498 0.1268266 -0.13639998 0.26569778 -0.092616245
-0.017620282 -0.028733417 0.085236095 0.04474243 0.0040380177 -0.25227538 -0.2070998 0.05210349
-0.26593843 -0.051189728 -0.19424658 -0.00203205 -0.100465715 -0.106628604 0.23941135 0.20867136
-0.18842466 -0.13464318 -0.16881046 0.014951359 -0.102804795 0.019909615 -0.1559812 0.2508269
0.17835179 0.14658532 -0.12639935 0.14756297 0.02623 0.06380102 -0.0022510265 -0.14592965
0.14278217 -0.15043537 -0.2906959 0.19417809 0.07632388 0.036062557 0.18498607 0.066077895
-0.12224227 -0.18916251 -0.1219855 0.013510316 -0.29852286 -0.18552133 0.17202948 -0.05489863

mid_part.6.bias f4 [12]
00000000: 4ce7 2f3c c781 f93b e9ee afbb f643 e13b
00000010: da9a 053c 99bd 053c 6075 753b 8d0e 193c
00000020: dadc 273b b61f 4f3a 59e1 143c 28d6 33bd
0.010736298 0.0076143476 -0.0053690565 0.0068745567 0.008154595 0.008162879 0.0037453994 0.009341848
0.0025613816 0.00079011486 0.00908693 -0.043905407

mid_part.7.weight f4 [12]
00000000: bc63 6b3e 057e 803e 09b2 8a3e c9f6 8e3e
00000010: 7b41 113d 5620 ea3e be5d 1b3e 7e29 85bc
00000020: a5e9 7f3e 408f 743e e9c0 49bd f213 6e3e
0.22987264 0.25096145 0.27088955 0.27922657 0.035462838 0.45727795 0.15172479 -0.016255137
0.24991472 0.2388277 -0.04925624 0.23249796

mid_part.8.weight f4 [12, 12, 3, 3]
00000000: 0c15 cf3d 4192 eabd db73 46be 2e47 9cbd
00000010: 0f2f 663e 4350 0a3e e559 94be c5de 103e
00000020: 1763 7fbd ff7a 59bd 79b2 0a3d f5c6 863d
00000030: 3439 c63d edd8 983e 03e1 1e3d 14dc 453e
00000040: 3b4a 793d 9695 72bd 763b ac3d edad fabc
00000050: c0f6 a5bb ec59 56be 497e 2cbd be1e 49bc
00000060: 585e 383d b0d5 30be 3c4d 76bc 32d4 62bd
00000070: 3d62 a1bd 3d01 fe3c 47bf 2ebe 7e78 61bd
00000080: 93a0 d43d 37ca c33b 2bd3 d5bd 189a 43be
00000090: 7066 e4bc f011 92bc 6ae1 9a3c 2e87 c83d
000000a0: 5b6b a9bc a6ce 673e 4a7c c2bd 4adf 6d3d
000000b0: 9eab a5bc 17b5 b63d de86 f53d 99c6 733d
000000c0: 5b7c 2dbe 3482 553d 075c 883c 33aa a93e
000000d0: 1cf0 33be fbba b13d b647 b93d 459c adbe
000000e0: 086e 143d b901 ee3c e0bd 0abd f681 55bd
000000f0: 3f2d e9bd 562e efbd b1d6 333d f5d1 7bbc
00000100: 58ef 9c3e cbd6 f73a 26b1 3a3d b43c 493e
00000110: e8e9 c0bd 815f 2fbe e516 04bd 08bc 6dbe
00000120: 64ec 8cbe b04c 073d 73e4 5d3d 6b13 fcbc
00000130: aaff 393e c97a 0cbe f448 84bd aa60 1bbe
00000140: f5d7 f6bd 406b 9c3d 1420 7fbd a5d2 10be
00000150: da3e 13be 30b5 6bbd e4bd cbbc b517 6a3e
00000160: 5e58 24bd efeb ba3a 4c9d dc3b 201c 253e
00000170: c0d4 6d3c 267d 86bd ac55 3abd ff8f 2e3d
00000180: 7c2f b33d f3e4 ae3d 0406 35bd 757c 5f3e
00000190: f099 de3e c7f3 32be 8d56 e63e 288d d23a
000001a0: 4ccf 6a3e 5012 37be 5732 1f3e 8f03 763e
000001b0: cd4f e63d 4151 acbd 736b 20be f453 4d3e
000001c0: c41a 153e ae42 083c 97a9 643d f893 8cbe
000001d0: 7464 7cbe de86 693d a0e1 16be ab26 653c
000001e0: e0ec f53d 0e1f 543e d3df 73be 52ff 23be
000001f0: 001b 953b c448 dabd 6ab0 353d eaf7 b1bc
00000200: f678 ab3d f581 133d 0508 86be 2643 7d3e
00000210: d69a f7bd 588a 9c3d c85f e53c e877 73bd
00000220: fb4f b53e 46d1 413d f542 093e 65a0 1bbc
00000230: 0aab a73d 136a 3abe 9125 8b3d 4d26 e03d
00000240: 1de5 1f3e 025e d73b d624 d2bd add6 283d
00000250: 20b1 433e aeb7 99be 5350 243e a83a a9be
00000260: fb91 6f3d 1ee8 013e 9aa5 1f3e ac16 b6bc
00000270: 6078 853d 0929 563e 951c 723d b659 62be
00000280: 5405 37bd 62a0 01bd b9a8 71bc e0d6 b9bb
00000290: cfbe 303e 8d59 083e fbce 883c 979c 803d
000002a0: 6ccd 81bb dc8a 44bd d408 9c3d 6179 1e3e
000002b0: 4e78 4b3e ab15 e83d e4b9 a93d 0aa6 b4be
000002c0: c963 b73c 6b1f 943c 7f7d 90bd 83f8 9a3d
000002d0: 4945 903d eade 94bc d9a3 eb3b c8d1 b23c
000002e0: b88e 06be f94b 67bc 640b 733e ff32 d6bd
000002f0: 6b32 b63d 02d7 953e e728 903c f173 623c
00000300: c6b1 783e 673d 273d 74ba 6f3e b9aa 473e
00000310: fd13 c0bb d1b9 603d a2b8 503c aee0 16bd
00000320: c7ed a93d 41f7 4ebc d707 34be 683c 0cbe
00000330: b949 c5bd 903a a03d 00c7 323e ec52 3f3e
00000340: 6b4d 3abe 1bf4 0f3e 58c1 083e 637a 813d
00000350: cced b63d 4af3 ffbb dc2c 263c b94b 623e
00000360: caf9 30bd 6b09 313e d326 f43d 6e52 a3bb
00000370: ae92 983d 1c24 e2bd 0e19 643d 4927 c73d
00000380: 9f26 0f3e 461c 913d ea81 793d a5c0 443e
00000390: 1588 c03c 3771 393e 6b89 05be be9e ca3d
000003a0: 877e 983d 3ef7 06be 464f 9cbc afaa 3ebd
000003b0: 6f72 2ebe 96fd 51bd 73be 37be 9505 dc3c
000003c0: 2699 38bd 6387 34bd ab57 a7bc c84f 5dbe
000003d0: f136 a9bd 05d1 8bbd b7f8 6f3e e156 b33d
000003e0: d210 4ebe da6f 283d 98c9 4bbd e993 053c
000003f0: c8a4 933d a106 3d3d 1804 87be 9f51 333e
0.10111436 -0.11453677 -0.19380133 -0.07630764 0.22478889 0.1350718 -0.28974834 0.1414748
-0.06235036 -0.053095814 0.03386161 0.06580917 0.096788794 0.29853 0.038788807 0.19322234
0.060861807 -0.059224688 0.08409779 -0.030600512 -0.0050648153 -0.2093274 -0.042112622 -0.012275396
0.04501185 -0.17269015 -0.015033063 -0.055378146 -0.078800656 0.03100645 -0.17065154 -0.05504655
0.103821896 0.0059750336 -0.10440668 -0.19101751 -0.027880877 -0.017830819 0.018906314 0.097914085
-0.020681074 0.22637424 -0.094963625 0.058074273 -0.020223435 0.08921259 0.119886145 0.05951557
-0.16941969 0.052126125 0.016645445 0.33137664 -0.17572063 0.08678242 0.09046881 -0.33908287
0.036237746 0.029053556 -0.033872485 -0.052125894 -0.11385583 -0.1167876 0.043905918 -0.015369882
0.30651355 0.0018908618 0.0455791 0.19652063 -0.09419614 -0.17126276 -0.032248396 -0.2321626
-0.27524102 0.03303212 0.054172944 -0.030770978 0.18163934 -0.13718714 -0.06459227 -0.15173593
-0.12052909 0.07637644 -0.06228645 -0.14142855 -0.14379445 -0.05754584 -0.02487082 0.22860606
-0.040123336 0.0014260988 0.0067326184 0.1612401 0.014516056 -0.06566839 -0.04549186 0.042617794
0.08749291 0.08539762 -0.04419519 0.2182482 0.4347682 -0.17475806 0.44987908 0.0016063796
0.2293064 -0.1787808 0.15546547 0.24024795 0.112456895 -0.084139355 -0.15665989 0.20051557
0.14560992 0.008316679 0.055825796 -0.2745664 -0.24647695 0.057013385 -0.14734507 0.01398627
0.12008071 0.20714971 -0.23815851 -0.16015366 0.004550338 -0.1065841 0.044357695 -0.02172466
0.08372681 0.03601261 -0.26177993 0.24732646 -0.120900795 0.076435745 0.027999774 -0.059440523
0.35412583 0.04731872 0.13404448 -0.00949869 0.0818692 -0.18204527 0.067942746 0.10944805
0.15614744 0.006572486 -0.10260932 0.041220356 0.19110537 -0.3002295 0.16046266 -0.33052564
0.058488827 0.12686202 0.15590516 -0.022227608 0.065171 0.20914091 0.05910929 -0.22104535
-0.044682816 -0.031647094 -0.014749699 -0.005671367 0.17260288 0.13315411 0.016700258 0.06279867
-0.003961256 -0.04798399 0.07618871 0.1547599 0.19870111 0.11332258 0.08287409 -0.35282928
0.022386448 0.018081388 -0.070551865 0.07566931 0.07044465 -0.0181727 0.007191163 0.021828547
-0.1314038 -0.014117234 0.23734814 -0.104589455 0.08896335 0.292656 0.017597629 0.013821588
0.24286565 0.040830042 0.2341097 0.1949872 -0.005861758 0.05486471 0.012739332 -0.036835365
0.082973056 -0.012632192 -0.17581116 -0.13694918 -0.09633202 0.0782367 0.17458725 0.18683976
-0.18193595 0.14057963 0.13355005 0.063221715 0.08932075 -0.0078109847 0.010142531 0.22099198
-0.043206967 0.17288749 0.11921468 -0.0049841916 0.07449852 -0.110420436 0.055687957 0.0972429
0.13979577 0.07085471 0.06091491 0.19214113 0.023502389 0.18109594 -0.13040702 0.09893559
0.07446008 -0.13180253 -0.01908077 -0.046549495 -0.1703584 -0.05126723 -0.17943744 0.02685813
-0.04506793 -0.044074427 -0.020427546 -0.21612465 -0.08262432 -0.06826977 0.23434721 0.08756805
-0.20123604 0.041122295 -0.0497528 0.00815294 0.07209164 0.0461489 -0.2637031 0.17511605

mid_part.8.bias f4 [12]
00000000: 4ab7 9abb c226 143c a31c 783b e0ec 4fbc
00000010: 50e2 4b3c c76b 8139 cd34 143b f34a 653b
00000020: b88b 13bc a2a4 543d c441 0f3b 326d 2a3c
-0.004721557 0.009042444 0.0037858866 -0.012690753 0.012444094 0.00024685098 0.002261448 0.00349873
-0.0090054795 0.05191482 0.0021859268 0.010402011

mid_part.9.weight f4 [12]
00000000: c9c6 25bf b0d0 3b39 9f22 1f3f 2280 853e
00000010: 48f6 e53e 4e02 5e3f ff1f 343f 4de9 46be
00000020: 3331 883e d512 5f3e 4b1e c23d e6d2 ea3e
-0.6475645 0.00017911452 0.621622 0.2607432 0.4491446 0.86722267 0.7036132 -0.19424935
0.26600036 0.21784528 0.09478434 0.45864028

mid_part.10.weight f4 [56, 12, 1, 1]
00000000: 707b 97bd d768 3b3e cb22 4bbd 02f8 c3be
00000010: 4877 b1bd 94e6 803e 8ec6 d53d 694f 9a3e
00000020: 684e 2ebe edcc a3bd 472c b93e ef71 00be
00000030: 175f 933d 5534 323e 6039 a03d 4ebf 3fbd
00000040: 05e3 6dbe e569 a03e f6d5 6abd bcbd aa3e
00000050: c638 d43b a44b d23d f30a 4d3e c92b dc3d
00000060: f382 3dbd 61ff 063e 87b6 433c 8aa9 64be
00000070: db13 adbe 7007 a0be d047 b03e 75f6 073d
00000080: 48ac 4f3d 6bb6 17be 3113 4bbe 7d7d 103b
00000090: 5b60 873d f786 53be 1e4d 1cbd 1dc6 07be
000000a0: 03bc 32be 5f84 afbe 2458 a93e fa24 133f
000000b0: fc10 9bbe b884 efbc 26a3 eb3d 2e97 2e3e
000000c0: 5c0b 3dbe 11a8 273e b302 b13e 642b e43d
000000d0: b5e8 57bd b99d 393e d24a 73bd cc87 6e3e
000000e0: d0c3 5e3e 2111 a5bd 8106 0e3e fe37 67be
000000f0: f940 2fbe 6d9a eebd 9221 0c3e bdd0 9a3e
00000100: 44a8 34be 6a2b 963b 91e9 6cbe e304 43be
00000110: f8a9 2a3e dd60 abbe 4756 8c3d ce0f 043e
00000120: d59c 5e3e a442 aa3d 2b34 adbe 59ac 18be
00000130: 409c ac3e e956 5ebe eb2a 31bd 24bb b9bd
00000140: dd6d 9c3e 3d02 6cbe 94e5 8d3d b050 3fbe
00000150: e852 133e 03c9 183d a9cb 263e 50e3 af3e
00000160: e370 9c3d f64a 0abe bf46 97be a0b3 76be
00000170: dc52 6d3d 7d1d ba3e 1aa9 0f3f a24d 3b3e
00000180: ae93 afbd 485c d73d f505 a0bd 2cd8 ebbc
00000190: 4c66 513e 3695 75be e53c 38bd 9d28 8d3d
000001a0: dd24 753c cdac 48be 0190 ed3d 6e0b 363d
000001b0: 544e dbbe 445e 023e 598f 013e 082e 0dbe
000001c0: 9abe c63d 59ae 5dbe 9154 6b3b 4eca 5b3d
000001d0: 1a2a 2cbe 616b 18be da94 75bd 0d92 0e3e
000001e0: 7145 5dbd 7f04 28be f8bb 86bd 5517 6cbe
000001f0: 86e1 dc3d f477 8c3c 933a 9fbd 4899 a8be
00000200: bdcc 19be 96d9 313e 97dd 103e 5be7 1cbe
00000210: 8cc8 803d 5b28 1e3e 61d7 b33d ed6e a3be
00000220: 670d 343d 093a 263e c35a 133e 8565 823d
00000230: 3a79 aebe 6df7 a0bc 6087 2cbe 1c7b 82bd
00000240: cbfa 8a3d 81be 4c3e cd34 7abb cbcd 4bbd
00000250: fde1 6d3d b1f1 803d 72c1 7dbd ebe6 33bc
00000260: bb95 553e e923 a93e 031f b5be f601 46be
00000270: 314c c1be 88f1 1f3c cf56 38be 6159 f6bd
00000280: 7b34 c03d 1565 4abe 8704 313d 7451 8b3e
00000290: 0c9e 933d 3a17 db3e 038a 163f 6dfa 30be
000002a0: 8246 21be 7d6d 94bc d8a2 87bd bab8 153d
000002b0: 56f3 923e 96cb 893d 4dd7 4dbc 4580 cabc
000002c0: de26 243e dd85 36bb b122 39be c77d 083e
000002d0: 5526 1abe daf8 003e 252e bcbe 2b61 b7bd
000002e0: ff04 873e 9385 d23e 0689 3d3c e2cd 90be
000002f0: 7692 803b 7f9f a83e 56db debe a8cc 433e
00000300: 0406 6b3e 24e7 603e bc3f 9abc dbc4 1cbe
00000310: 6407 073e d4cc c9be c3fc 8b3c e8e0 ee3d
00000320: 6683 7b3d aa1f 993e eeb6 553e a738 bcbd
00000330: da8c 463d f9a7 093e 5be1 933d f133 10be
00000340: add8 843c 3d34 553d cf1d 333e 7e91 8a3d
00000350: bac9 093e 33bb 26be c2d8 d43d 0bb8 01be
00000360: 609a e8bd bcc9 3abd 051a b3bd a66d 74bd
00000370: 4906 8dbd 79db 543e 00ad d53d f7cf fa3d
00000380: 90c9 85be 72ea b4bc 3724 1ebe a491 b2bd
00000390: 474a 233d eb53 30bb 25c1 18bd c1dc 47be
000003a0: ad7b 6ebd 836a 6cbe eece dc3d 2e85 d3be
000003b0: e4e7 3b3e 69ae cebe adbd f63d 6c98 66be
000003c0: 5cd5 17bd 4e7b 01be d1f0 70be 6a4e 81be
000003d0: cfe2 56bd 2d65 f4bd ba97 333d d80f 343e
000003e0: 868a 453d c12f 7439 16c9 02bf ee1d 9cbe
000003f0: b0bd 1a3d 1056 78bd 443f 073d 17ad 25be
-0.07396591 0.18301712 -0.049593728 -0.38275152 -0.08665329 0.25175917 0.10438262 0.3013871
-0.17022097 -0.07998071 0.36166593 -0.12543462 0.07195871 0.17402776 0.078234434 -0.0468133
-0.23231132 0.3133079 -0.057332955 0.3334788 0.0064764945 0.102683336 0.20023708 0.10750539
-0.04626746 0.13183357 0.011945373 -0.22330299 -0.3380421 -0.31255674 0.3442979 0.033194024
0.05070141 -0.1481568 -0.1983154 0.0022047453 0.06610175 -0.20656954 -0.038159482 -0.13259168
-0.17454533 -0.3428068 0.33075058 0.57478297 -0.30286396 -0.02923809 0.115057275 0.17049858
-0.18461365 0.16372706 0.34572372 0.111410886 -0.05271216 0.18126573 -0.059397526 0.2329399
0.21754384 -0.08059908 0.13869669 -0.22579953 -0.17114629 -0.11650548 0.13684681 0.3023738
-0.17642313 0.004582812 -0.23135974 -0.19044833 0.166664 -0.33472338 0.068523936 0.12896654
0.21739514 0.08313492 -0.33828864 -0.14909495 0.3371296 -0.21712841 -0.04325382 -0.09068897
0.3055257 -0.23047729 0.06928554 -0.18683124 0.14387095 0.037301075 0.16288628 0.34353113
0.07638719 -0.13505158 -0.29546162 -0.24091959 0.05794035 0.36350623 0.56117404 0.18291333
-0.085730895 0.10515648 -0.07813636 -0.028789602 0.2044918 -0.239827 -0.04497995 0.06892512
0.014962402 -0.19597168 0.11599732 0.044444494 -0.42833197 0.12731272 0.12652339 -0.13787091
0.09704323 -0.2164854 0.003590856 0.05365973 -0.16812935 -0.14884712 -0.05995641 0.13922901
-0.054021303 -0.16407965 -0.06578821 -0.23055775 0.10785203 0.017147042 -0.07774844 -0.32929444
-0.15019508 0.17368159 0.1414703 -0.1532263 0.06288251 0.15445082 0.08781315 -0.31920567
0.043958094 0.16233076 0.14390092 0.063670196 -0.34076864 -0.019649232 -0.16848516 -0.063711375
0.06786116 0.19994546 -0.0038178444 -0.049756806 0.058076847 0.06296099 -0.061952062 -0.010980348
0.20857899 0.3303521 -0.35375223 -0.19336686 -0.37753442 0.009762175 -0.18001865 -0.120287664
0.0938501 -0.19765122 0.04321721 0.2721058 0.072078794 0.42791158 0.5880434 -0.1728303
-0.15749553 -0.018118614 -0.06622857 0.036553122 0.28701276 0.06728284 -0.012563539 -0.024719367
0.16030452 -0.0027850785 -0.1807964 0.1332923 -0.15053685 0.1259493 -0.36753955 -0.0895408
0.26371 0.41117534 0.011568313 -0.28282076 0.0039237095 0.32934186 -0.43526715 0.19121039
0.22951514 0.21963173 -0.018829219 -0.1530947 0.13186413 -0.39414084 0.0170883 0.11663991
0.06140461 0.2990697 0.20870563 -0.09190493 0.04847417 0.13442983 0.072207175 -0.14082314
0.0162166 0.05205177 0.1749184 0.06766032 0.13455859 -0.16282348 0.10392906 -0.12667863
-0.1135757 -0.045602545 -0.08745197 -0.05967488 -0.068859644 0.20786847 0.10433388 0.122466974
-0.26130342 -0.022084448 -0.15443502 -0.08719185 0.03986576 -0.0026905488 -0.037293572 -0.19517805
-0.058223415 -0.23087506 0.10781656 -0.41312546 0.18350178 -0.4036744 0.120478965 -0.22519082
-0.03706871 -0.12644693 -0.23529364 -0.25255138 -0.052462395 -0.1193336 0.04384587 0.17584169
0.04822781 0.00023287443 -0.5108808 -0.30491585 0.037778556 -0.06062895 0.03301932 -0.1617931
