models/fsrcnn/track1/track1_x4__epoch_16.pth (torch, 57996 bytes, 22 tensors)

first_part.0.weight f4 [56, 1, 5, 5]
-0.0045372117 0.03926462 0.031636935 0.008047753 -0.011636742 -0.029894864 0.038829483 -0.008769071
-0.028012294 0.0030163042 0.064909 -0.023315156 0.048845697 0.020969339 0.023802917 0.023179261
-0.012462046 -0.0068914685 0.08464945 -0.0018756944 0.0128794415 0.006697705 0.066027686 0.0004143505
-0.040080138 -0.027169218 -0.035919756 -0.042991377 0.00702188 0.045584653 -0.043313254 0.03862188
-0.047166213 -0.018753646 0.0014950626 -0.036690373 0.014707891 -0.0046329433 -0.0038947542 -0.0702073
-0.0022239152 0.024687871 -0.012100148 -0.005959856 -0.014670163 0.031938482 0.00046974502 -0.09724684
0.04540001 -0.0015759829 -0.026145177 -0.04589916 -0.013891892 -0.014270761 0.020352626 -0.010180103
-0.0032626828 -0.023169145 -0.026701381 -0.074235864 -0.044744663 -0.08567749 -0.07128509 -0.017696306
-0.057621226 0.04045812 -0.060330454 -0.07363904 -0.032857463 -0.014839235 -0.06870661 0.04255792
0.038942125 -0.04352692 -0.019126799 0.039331015 -0.0012659968 0.05152865 0.014106181 -0.024593264
-0.04621918 -0.021566272 -0.00163471 -0.04823234 -0.0068075275 0.0068830736 0.08892398 -0.041596454
-0.081506535 0.022648275 0.048748363 -0.046474334 -0.06539318 -0.0014327739 -0.00078390585 0.02655065
-0.063923426 -0.02200458 -0.048006777 -0.102687664 0.012620812 -0.036338102 -0.031370685 -0.0795648
-0.0086302105 -0.017490875 0.067409046 0.0009202128 0.034663856 -0.0025615946 0.0027692048 -0.081426315
-0.050878547 -0.005560904 0.010555173 -0.01477627 -0.0833625 -0.05811258 -0.0399258 0.040684704
-0.055305917 -0.015297563 0.0480887 -0.07212726 0.015920416 -0.08134274 -0.053130716 0.043905463
0.016236247 0.015202782 0.027651295 -0.033615794 -0.013720768 -0.05520611 0.006711043 -0.043447
-0.03147014 0.054606993 0.02808535 -0.025220659 0.048296664 -0.055327807 0.011684729 -0.0193956
-0.018103395 0.053153478 -0.0044294973 -0.007435503 -0.02486068 -0.03380259 -0.092242986 0.027104745
0.011178162 0.07110064 -0.013132243 -0.015334514 0.0128798885 0.023927942 -0.050280556 -0.051851064
-0.014813935 -0.059331577 -0.029905466 -0.017692665 0.0325675 -0.08120265 0.016708901 -0.03562774
0.0070123603 -0.0179807 -0.06901406 0.013639891 -0.0027592974 -0.003831196 -0.06733847 0.07607917
-0.0764957 0.07653923 -0.12919265 -0.0006795783 -0.032347042 0.043412503 -0.12753716 0.07175578
0.021518944 0.030907689 -0.14942388 0.29502335 -0.085770965 0.032271605 -0.0027718793 -0.10197111
0.03500478 -0.11046974 0.07871899 0.14252569 -0.008991844 0.03048475 -0.017792337 0.016619693
0.0212294 0.04895473 -0.009295478 -0.008262843 0.023102218 0.01796728 0.04556599 -0.028224288
0.026658008 -0.015262975 0.008968004 -0.03268634 0.088394925 -0.0016099279 -0.020411357 -0.0094630085
0.019033534 0.011475335 -0.016382035 -0.0472024 0.021867348 0.015214949 0.09783898 -0.050985254
0.011552535 0.07540815 -0.039605685 -0.062213574 0.052540507 -0.05870775 -0.0128359 0.008049718
0.035297 -0.044431504 0.017214391 0.015777737 -0.011163544 0.07887533 0.061146103 0.047281254
0.05115535 0.003308912 0.020020764 -0.036248937 0.053541362 0.027405638 0.03588431 0.029121336
0.062466595 0.05030756 -0.023022724 0.02320693 -0.043403827 -0.00831358 -0.050073337 0.012023769
00000000: e4ac 94bb f0d3 203d bb95 013d b9da 033c
00000010: 09a8 3ebc 13e6 f4bc aa0b 1f3d 26ac 0fbc
00000020: 0a7a e5bc 30ad 453b 03ef 843d 6dff bebc
00000030: 6d12 483d e4c7 ab3c 56fe c23c 6fe2 bd3c
00000040: 9c2d 4cbc d4d1 e1bb b15c ad3d dcd9 f5ba
00000050: 4b04 533c 6c78 db3b 8639 873d 2f3d d939
00000060: 122b 24bd fb91 debc 9820 13bd ba17 30bd
00000070: cc17 e63b f9b6 3a3d 3d69 31bd fa31 1e3d
00000080: 5c31 41bd 3fa1 99bc faf5 c33a a548 16bd
00000090: 5ef9 703c f2cf 97bb 223f 7fbb d8c8 8fbd
000000a0: 1bbf 11bb 383e ca3c b33f 46bc e54a c3bb
000000b0: 205b 70bc edd1 023d 1c48 f639 5a29 c7bd
000000c0: 5cf5 393d 3691 ceba 692e d6bc c200 3cbd
000000d0: d19a 63bc e9cf 69bc 8dba a63c 72ca 26bc
000000e0: bcd2 55bb 38cd bdbc dbbc dabc f908 98bd
000000f0: 2e46 37bd ae77 afbd ebfd 91bd d8f7 90bc
00000100: 3c04 6cbd 6ab7 253d 111d 77bd 11d0 96bd
00000110: 8c95 06bd 4320 73bc 0db6 8cbd 3751 2e3d
00000120: c781 1f3d 4949 32bd ceaf 9cbc 8f19 213d
00000130: ceef a5ba b50f 533d 9d1d 673c d077 c9bc
00000140: 5350 3dbd c0ab b0bc c443 d6ba 468f 45bd
00000150: ae11 dfbb 688b e13b c71d b63d 0b61 2abd
00000160: e6ec a6bd e088 b93c 5dac 473d df5b 3ebd
00000170: dcec 85bd eacb bbba 087f 4dba c080 d93c
00000180: 49ea 82bd f342 b4bc c1a2 44bd e94d d2bd
00000190: 86c7 4e3c 43d7 14bd 8c7e 00bd dff2 a2bd
000001a0: ba65 0dbc 0649 8fbc c10d 8a3d 703a 713a
000001b0: b0fb 0d3d 6de0 27bb 8c7b 353b d7c2 a6bd
000001c0: 0666 50bd 3e38 b6bb 9bef 2c3c 2b18 72bc
000001d0: f5b9 aabd 7507 6ebd 3c89 23bd 01a5 263d
000001e0: 7588 62bd a1a2 7abc a8f8 443d 75b7 93bd
000001f0: 886b 823c 0697 a6bd 989f 59bd 37d6 333d
00000200: e101 853c 1715 793c f884 e23c b7b0 09bd
00000210: 12cd 60bc cd1f 62bd 4fe8 db3b 7bf5 31bd
00000220: d5e6 00bd 95ab 5f3d 3f13 e63c 8e9b cebc
00000230: b9d2 453d 699f 62bd 4e71 3f3c 85e3 9ebc
00000240: 924d 94bc 76b7 593d 5125 91bb 85a5 f3bb
00000250: a0a8 cbbc 9674 0abd e4e9 bcbd c50a de3c
00000260: 9c24 373c 369d 913d 9f28 57bc 9d3d 7bbc
00000270: 2b06 533c 8804 c43c fcf2 4dbd c861 54bd
00000280: 26b6 72bc ab05 73bd 4ffc f4bc 35f0 90bc
00000290: 8065 053d 934d a6bd 1be1 883c 65ee 11bd
000002a0: f1c7 e53b 434c 93bc 3e57 8dbd d979 5f3c
000002b0: 54d5 34bb ce14 7bbb c0e8 89bd 65cf 9b3d
000002c0: c7a9 9cbd 9ac0 9c3d 144b 04be ba25 32ba
000002d0: 557e 04bd 4fd1 313d 1a99 02be b2f4 923d
000002e0: 7f48 b03c 1f32 fd3c 9302 19be 4d0d 973e
000002f0: b0a8 afbd 3b2f 043d 6ba8 35bb 3bd6 d0bd
00000300: 2c61 0f3d f63d e2bd 6c37 a13d 41f2 113e
00000310: 8752 13bc 28bb f93c 3cc1 91bc 0626 883c
00000320: 47e9 ad3c c184 483d 104c 18bc e060 07bc
00000330: dd40 bd3c 1e30 933c 67a3 3a3d 9f36 e7bc
00000340: e561 da3c 8f11 7abc 89ee 123c 1de2 05bd
00000350: 6608 b53d 3704 d3ba b835 a7bc bc0a 1bbc
00000360: 37ec 9b3c 0b03 3c3c 9e33 86bc 4e57 41bd
00000370: 2723 b33c 1f48 793c ce5f c83d ead5 50bd
00000380: d846 3d3c 976f 9a3d 9239 22bd a9d3 7ebd
00000390: b734 573d 8a77 70bd ab4d 52bc f7e2 033c
000003a0: 9693 103d cffd 35bd 3205 8d3c 5040 813c
000003b0: 4ce7 36bc 6489 a13d 5674 7a3d fda9 413d
000003c0: 4688 513d 55da 583b 9602 a43c c479 14bd
000003d0: 304e 5b3d ca81 e03c 6dfb 123d de8f ee3c
000003e0: f9dc 7f3d 4d0f 4e3d 279a bcbc 761c be3c
000003f0: 36c8 31bd af35 08bc b319 4dbd 58ff 443c

first_part.0.bias f4 [56]
-0.0124997655 -0.0016496641 0.006838363 -0.004225234 0.0070393784 -0.009098135 0.0035082274 0.034515172
-0.012597697 -0.009056022 -0.010981449 -0.0027906524 -0.039209995 0.018864267 0.08139798 -0.022442445
-0.008526146 -0.0034406367 0.005058566 -0.032642912 0.008258282 0.00632249 -0.026269117 -0.0011315198
-0.020339116 0.008288422 0.0023459655 0.010163858 -0.019042743 0.0072012325 -0.010072223 -0.00046698411
-0.008867647 -0.008926857 -0.0043310416 0.019522341 -0.0043567196 0.007052624 0.009167736 0.016545396
0.06620079 -0.0029600607 0.01367224 -0.047329757 0.00937437 0.0029402943 -0.0019058558 -0.0051360354
-0.07873167 0.011013597 -0.038001068 0.01706479 0.018836416 0.0067998692 -0.00065299356 0.047439154
00000000: d1cb 4cbc 8b39 d8ba 5914 e03b d573 8abb
00000010: 96aa e63b 5810 15bc 4aea 653b c85f 0d3d
00000020: 9266 4ebc b65f 14bc 89eb 33bc 61e3 36bb
00000030: a99a 20bd 3c89 9a3c fcb3 a63d 38d9 b7bc
00000040: 40b1 0bbc 4e7c 61bb 54c2 a53b 93b4 05bd
00000050: bf4d 073c e42c cf3b 5532 d7bc 814f 94ba
00000060: 389e a6bc 29cc 073c c5be 193b 4f86 263c
00000070: 87ff 9bbc 51f8 eb3b f705 25bc 8cd5 f4b9
00000080: 9b49 11bc f441 12bc 69eb 8dbb 51ed 9f3c
00000090: d0c2 8ebb b319 e73b 4634 163c 368a 873c
000000a0: 4894 873d 94fd 41bb 8801 603c d9dc 41bd
000000b0: f596 193c f4b1 403b e9cd f9ba 304c a8bb
000000c0: 123e a1bd 6072 343c 02a7 1bbd 75cb 8b3c
000000d0: d44e 9a3c 70d1 de3b a82d 2bba 8f4f 423d

first_part.1.weight f4 [56]
0.24568108 0.23562276 0.25721896 0.25441128 0.24354981 0.2482831 0.24472979 0.7066461
1.803417 -0.11760961 1.4914796 0.25454438 0.88734376 0.25221664 0.38199422 0.0029290621
0.18868189 0.27672714 0.29477593 0.18688296 0.25254032 1.4735442 0.22632754 0.22893134
0.346451 0.23061903 2.4185529 0.2537113 0.2922016 0.27258855 0.23502876 0.24822676
2.8515716 0.4515335 0.24203694 0.25308543 0.099998295 0.26063964 0.2613498 0.25118518
0.73233455 0.26691777 0.24950145 0.30096397 0.7716424 0.25942212 2.6207864 0.25951687
0.54261184 0.24582994 2.0160031 0.2485737 0.18677936 0.16684166 0.273493 0.25358757
00000000: d293 7b3e 1847 713e 34b2 833e 3242 823e
00000010: 1f65 793e ed3d 7e3e 729a 7a3e c2e6 343f
00000020: 5ed6 e63f 4fdd f0bd cee8 be3f a453 823e
00000030: f628 633f 8a22 813e bf94 c33e 82f5 3f3b
00000040: d335 413e 2eaf 8d3e dfec 963e 3f5e 3f3e
00000050: f74c 813e 199d bc3f 68c2 673e fa6c 6a3e
00000060: 0762 b13e 6527 6c3e 92c9 1a40 73e6 813e
00000070: 739b 953e ba90 8b3e 61ab 703e 282f 7e3e
00000080: 2680 3640 662f e73e 88d8 773e 6a94 813e
00000090: e8cb cc3d 8f72 853e a4cf 853e 589b 803e
000000a0: 477a 3b3f 72a9 883e 4f7d 7f3e f317 9a3e
000000b0: 5b8a 453f fad2 843e f7ba 2740 65df 843e
000000c0: 9ce8 0a3f d8ba 7b3e 3206 0140 1b8a 7e3e
000000d0: 1743 3f3e 8ad8 2a3e 4607 8c3e 3bd6 813e

mid_part.0.weight f4 [12, 56, 1, 1]
0.5196529 0.21027677 -0.75278133 0.2425272 0.39227322 0.3576869 -0.087508164 0.51229787
0.17402177 -1.1827512 0.50822055 -0.08021697 -0.5525368 1.0600654 0.43907958 0.41864675
0.087821595 0.0615603 0.56586474 -0.2463735 0.014222317 0.71635914 -0.36296347 -0.47635162
-0.07596164 -0.08133943 0.4320954 -0.7255937 0.27041793 0.43423507 0.03922814 0.3368484
0.54354113 0.13985847 -0.55117387 -0.69108343 -0.05189184 -0.0383649 -0.2844873 0.37942713
-0.10023798 0.50319034 -0.38121057 -0.1160341 -0.15198815 -0.15105787 -0.100573614 -0.6111979
-0.14751863 -0.57832056 -0.101183765 -0.20760182 -0.6461854 0.1924438 -0.2953005 -0.23982514
-0.29424682 -0.9857904 0.4941243 -0.016218588 0.007647773 0.80673456 0.73208594 0.5256759
0.043066517 -0.085375085 -0.08053749 -0.4845512 0.18667266 0.17580119 -0.6094313 0.16499819
-0.5508204 0.22860283 0.64525795 -0.089497484 0.844747 -0.23741129 0.07757356 -0.40673792
-0.37352467 -0.07792579 0.09879933 -0.5546488 0.5646819 0.8172035 -0.19960193 0.42269596
0.18430373 -0.3830964 -0.0788763 -0.14119852 0.25878808 0.23137553 -0.70617247 -0.23799285
0.2449549 0.68788975 -0.29594976 0.8435314 0.70657456 0.14195442 0.44170892 0.09458516
0.31262836 -0.10704695 0.8583764 -0.6047242 -0.0025600467 -0.20987563 0.65688115 -0.47722673
0.2677735 -0.5959769 -0.26618823 -0.39221025 -0.06893259 0.59588575 -0.11208969 -0.038413323
0.6475327 0.7878747 0.08850877 0.81161803 -0.42556757 -0.14633974 -0.1020935 0.37974072
-0.008215942 -0.127596 0.46218 0.36249968 -0.5342681 0.22921082 -0.12473275 -0.29405373
0.40848967 -0.31885487 -0.15537164 -0.2571175 -0.4877022 0.38186097 0.027086988 -0.12452996
0.4836058 0.7016883 0.6206221 0.37974298 0.3085485 0.3062984 -0.47223645 0.10814533
-0.02202541 0.12892129 -0.20958263 0.00039030408 0.15002705 0.4052214 0.2663304 0.48163223
-0.009546638 0.5980304 0.21889724 -0.5467348 -0.035144396 0.4074755 -0.34966666 -0.3237135
0.044800006 0.30462128 -0.123400435 0.16128887 0.24960032 0.019384068 -0.16671477 0.2933331
-0.5783402 -0.37392408 0.6015749 -0.35238355 0.38095185 -0.48007312 0.5998465 -0.088295065
0.13204342 0.22631875 -0.058480304 0.8725627 -0.4903727 0.63790596 -0.31595117 -0.43552122
0.4782021 0.051651083 -0.4522114 0.96376616 0.12792556 0.41965255 -0.095672086 -0.18989418
-0.51563466 0.19598548 -0.11346772 0.46777418 0.13947631 -0.12398256 -0.0008909286 0.18701391
-0.07780805 1.0810292 0.7799929 0.66633993 -0.97988343 -0.24727167 0.46581224 -0.087313116
0.39856285 0.55661905 -0.3012426 -0.5231775 -0.5313596 0.48135054 -0.20945096 0.5190553
-0.23460177 0.07881815 0.1346476 0.09517727 -0.14182743 -0.3138302 -0.20386265 0.5641996
0.47391835 -0.26998946 -0.16359913 0.0027829292 -1.32787 0.80654323 0.78613657 -0.07004502
0.35299325 -0.1855295 0.29868683 -0.40582985 0.22857042 0.28264597 0.36165518 0.03733728
-0.12313314 -0.13455865 0.53630567 0.22174299 -0.6779106 -0.29006016 0.028920313 0.21328299
00000000: f907 053f cb52 573e 47b6 40bf 0d59 783e
00000010: 09d8 c83e bd22 b73e 7b37 b3bd f425 033f
00000020: c332 323e 6464 97bf be1a 023f cb48 a4bd
00000030: 0d73 0dbf 39b0 873f 0acf e03e de58 d63e
00000040: cfdb b33d a726 7c3d 83dc 103f 5649 7cbe
00000050: b904 693c 5063 373f 59d6 b9be 5ce4 f3be
00000060: c791 9bbd 4995 a6bd 9c3b dd3e 82c0 39bf
00000070: 3874 8a3e 0f54 de3e b0ad 203d 6577 ac3e
00000080: 8325 0b3f 0f37 0f3e bb19 0dbf d8ea 30bf
00000090: 8a8c 54bd 8324 1dbd 52a8 91be 4644 c23e
000000a0: 9249 cdbd 15d1 003f 082e c3be 49a3 edbd
000000b0: c8a2 1bbe eaae 1abe 8af9 cdbd 7777 1cbf
000000c0: 200f 17be d10c 14bf 6f39 cfbd 9295 54be
000000d0: 686c 25bf fd0f 453e a131 97be b994 75be
000000e0: 85a7 96be c25c 7cbf dcfd fc3e d8dc 84bc
000000f0: 2b9a fa3b 2886 4e3f fc69 3b3f b292 063f
00000100: 8466 303d 22d9 aebd d7f0 a4bd 1817 f8be
00000110: 1e27 3f3e 3a05 343e b103 1cbf 49f5 283e
00000120: 9102 0dbf dc16 6a3e a02f 253f 754a b7bd
00000130: 5741 583f f21b 73be e3de 9e3d f43f d0be
00000140: a03e bfbe 8e97 9fbd 4e57 ca3d 77fd 0dbf
00000150: fe8e 103f 4034 513f 7364 4cbe 9b6b d83e
00000160: 1eba 3c3e 3625 c4be e689 a1bd 5896 10be
00000170: df7f 843e b5ed 6c3e b8c7 34bf 66b4 73be
00000180: 75d5 7a3e 8b19 303f ba86 97be adf1 573f
00000190: 12e2 343f 805c 113e ac27 e23e ddb5 c13d
000001a0: d310 a03e 6e3b dbbd 8ebe 5b3f 35cf 1abf
000001b0: 75c6 27bb a3e9 56be 5d29 283f 1057 f4be
000001c0: 9c19 893e f191 18bf d349 88be c8cf c8be
000001d0: 882c 8dbd f88b 183f 488f e5bd 4a57 1dbd
000001e0: b4c4 253f 28b2 493f 1644 b53d 33c6 4f3f
000001f0: fee3 d9be 16da 15be 6616 d1bd 606d c23e
00000200: 299c 06bc 87a8 02be dba2 ec3e 8f99 b93e
00000210: cbc5 08bf 3eb6 6a3e e273 ffbd 368e 96be
00000220: 8f25 d13e f240 a3be be19 1fbe e8a4 83be
00000230: 1ab4 f9be 4883 c33e 88e5 dd3c 9009 ffbd
00000240: 2e9b f73e d8a1 333f 17e1 1e3f ac6d c23e
00000250: 12fa 9d3e 25d3 9c3e fac8 f1be 4c7b dd3d
00000260: a26e b4bc f103 043e d49c 56be baa1 cc39
00000270: b1a0 193e 2e79 cf3e 755c 883e 8098 f63e
00000280: 8069 1cbc 8518 193f 9926 603e d0f6 0bbf
00000290: 92f3 0fbd a1a0 d03e 8207 b3be c7bd a5be
000002a0: 3680 373d 52f7 9b3e 5eb9 fcbd e928 253e
000002b0: 3a97 7f3e 56cb 9e3c 47b7 2abe c22f 963e
000002c0: 1a0e 14bf fa72 bfbe d000 1a3f 9e6b b4be
000002d0: 1f0c c33e 25cc f5be 8a8f 193f 0bd4 b4bd
000002e0: 6436 073e 1ac0 673e 0b89 6fbd 4560 5f3f
000002f0: 2112 fbbe ce4d 233f 5ac4 a1be a3fc debe
00000300: e8d6 f43e 1690 533d 4188 e7be 61b9 763f
00000310: ebfe 023e b3dc d63e baef c3bd 9f73 42be
00000320: a200 04bf 6bb0 483e c461 e8bd 1980 ef3e
00000330: e1d2 0e3e 92ea fdbd 358d 69ba 9380 3f3e
00000340: d459 9fbd 2a5f 8a3f 9dad 473f 4195 2a3f
00000350: a4d9 7abf c934 7dbe f17e ee3e 38d1 b2bd
00000360: 6e10 cc3e 967e 0e3f 783c 9abe f6ee 05bf
00000370: 2f07 08bf 9473 f63e 507a 56be cfe0 043f
00000380: 723b 70be 696b a13d 0fe1 093e 4dec c23d
00000390: 363b 11be 5aae a0be 5fc1 50be 636f 103f
000003a0: 6da5 f23e 0f3c 8abe 8886 27be ce61 363b
000003b0: a5f7 a9bf 9e79 4e3f 3f40 493f c373 8fbd
000003c0: 88bb b43e 72fb 3dbe 7bed 983e eec8 cfbe
000003d0: 5d0e 6a3e f9b6 903e de2a b93e faee 183d
000003e0: 3a2d fcbd bec9 09be 544b 093f 9810 633e
000003f0: 8d8b 2dbf c482 94be 4bea ec3c db66 5a3e

mid_part.0.bias f4 [12]
0.004432411 -0.021919984 -0.0060594385 -0.0017556805 0.100809306 0.008822098 0.0461369 0.0342987
-0.025097817 -0.0053525455 -0.008100576 0.045507085
00000000: c23d 913b 8a91 b3bc 418e c6bb dd1e e6ba
00000010: 1c75 ce3d 908a 103c 0cfa 3c3d cb7c 0c3d
00000020: f099 cdbc 6864 afbb 47b8 04bc a365 3a3d

mid_part.1.weight f4 [12]
0.27724835 0.3709336 0.2499272 0.2817161 0.8943967 1.1106766 0.27318433 0.45024806
0.30573967 0.41153356 0.94326687 0.32809368
00000000: 7ff3 8d3e 02eb bd3e eaec 7f3e 183d 903e
00000010: 2ff7 643f a72a 8e3f d1de 8b3e ea86 e63e
00000020: e989 9c3e 87b4 d23e f079 713f e5fb a73e

mid_part.2.weight f4 [12, 12, 3, 3]
0.27043363 -0.038636852 0.028092386 -0.28256586 0.14345199 -0.12906569 -0.043477353 -0.13872011
0.10890088 0.20111528 -0.22639608 0.22587581 0.034628373 -0.11847361 -0.1242058 -0.06337766
-0.16702797 0.046236712 0.087074384 0.15205711 0.0551777 0.15599763 0.008496301 -0.030913439
0.25980684 0.059028115 -0.07343391 0.014287376 -0.06903281 0.124811426 0.14691558 -0.29814187
-0.27108988 -0.14556675 -0.036927726 0.1894302 -0.16854939 -0.120285265 -0.09006382 -0.021091027
0.26720312 -0.23363593 0.0346835 -0.013710161 0.052903976 0.20576794 0.0392228 0.20567048
-0.05871296 -0.11447431 0.07516244 -0.098510794 0.06440562 -0.11291735 -0.1990207 0.034099966
-0.01496065 0.24159376 -0.10985937 0.03764866 -0.123475045 0.14291185 0.14138724 0.13153239
-0.057724908 0.24929327 0.009971027 0.009670776 -0.0062357867 0.010472685 -0.23291852 -0.20692627
-0.007129002 -0.017658832 0.046255097 -0.20151876 0.26981553 -0.087832265 -0.049331482 -0.074847154
0.025543828 -0.18674679 0.011401463 0.031730287 0.038647443 0.10846051 0.13011189 -0.12048247
-0.04048585 0.015741667 0.0719977 -0.0150248045 0.23642735 -0.1280376 -0.041223306 -0.0766697
0.041247256 0.094470635 0.036472797 0.02277726 -0.044712413 -0.105904065 -0.023675893 0.07450619
0.029611088 0.060885806 0.066393286 0.010374346 0.019398771 -0.054988008 -0.023170749 0.03785036
0.06337727 -0.26342058 0.17186996 0.07532934 0.0903683 0.14528924 0.097756855 -0.01962292
0.23010486 0.109430574 -0.00045680162 0.035325952 -0.119688064 0.13911237 -0.033322725 -0.3236599
-0.16057964 0.022198468 0.064524874 -0.28881088 -0.10664063 0.10496636 -0.08663313 -0.023901133
0.27307037 -0.03148254 -0.018957399 -0.080677524 0.03905174 -0.074624315 0.35788977 -0.17812113
0.2240177 -0.15951726 -0.027424512 -0.1664364 -0.12101126 0.050786942 -0.07618966 -0.08105825
-0.015584526 -0.109310806 0.042403065 -0.2617331 0.011707852 0.11462254 0.10290966 0.14735614
-0.053626403 -0.014189337 0.19353062 -0.20363837 -0.1721847 -0.022148604 0.20469427 -0.057524014
-0.28041732 -0.007617338 0.13302183 -0.1591725 0.17085372 -0.121935725 -0.048233435 0.20734553
0.14305457 -0.061488725 -0.12724017 -0.10205159 0.07930449 -0.10333742 0.05835447 -0.025940672
0.05698741 -0.32937717 0.018186389 -0.06777897 -0.062489416 -0.12038531 -0.09406066 -0.0705179
0.014833075 -0.06331749 -0.0040013557 -0.17050257 -0.030349746 0.02879749 -0.0846898 0.13416027
0.04810565 0.26084042 -0.042537663 -0.12410631 -0.13650471 0.05335431 0.12532756 0.26452583
0.19155358 0.057938855 0.09572813 0.075652815 0.14756551 0.008065847 0.13226853 0.17574021
0.07244965 -0.1576339 -0.029516006 -0.02206604 0.18721744 0.1765347 0.16420546 -0.0143960165
0.30045643 -0.07627651 -0.107420936 0.06810274 0.19269477 -0.06807937 -0.019025592 -0.06079018
0.098106846 0.0948435 0.14061138 -0.270944 -0.2022084 0.06083997 -0.13100703 -0.007043067
0.112377465 0.026396563 0.038768537 -0.15000619 0.0013498395 -0.06181255 0.25808933 0.16486916
0.18242705 0.035635546 0.16484337 0.04527229 0.3236421 -0.23043554 -0.08846146 0.045158066
00000000: 4776 8a3e ad41 1ebd 0122 e63c 79ac 90be
00000010: 14e5 123e cc29 04be 4f15 32bd a50c 0ebe
00000020: 6d07 df3d 2af1 4d3e 60d4 67be fd4b 673e
00000030: 7bd6 0d3d 4ba2 f2bd 9c5f febd 26cc 81bd
00000040: 6109 2bbe b562 3d3d 0e54 b23d dcb4 1b3e
00000050: 0302 623d d8bd 1f3e 1234 0b3c 2e3e fdbc
00000060: 6705 853e 77c7 713d 8564 96bd 9915 6a3c
00000070: 1361 8dbd 229d ff3d 0a71 163e 0da6 98be
00000080: 4bcc 8abe 730f 15be 8741 17bd fef9 413e
00000090: 3698 2cbe 1f58 f6bd 6173 b8bd 17c7 acbc
000000a0: d9ce 883e 423e 6fbe 4910 0e3d 95a0 60bc
000000b0: d7b1 583d d5b4 523e 16a8 203d 489b 523e
000000c0: 007d 70bd 8271 eabd c4ee 993d 07c0 c9bd
000000d0: 18e7 833d 3641 e7bd 15cc 4bbe 68ac 0b3d
000000e0: 841d 75bc 5b64 773e f3fd e0bd 7b35 1a3d
000000f0: 7ce0 fcbd 7c57 123e d1c7 103e 6db0 063e
00000100: f470 6cbd bc46 7f3e 855d 233c 2d72 1e3c
00000110: 9255 ccbb a095 2b3c 3182 6ebe 7be4 53be
00000120: 679a e9bb 41a9 90bc fc75 3d3d ef5a 4ebe
00000130: 4325 8a3e 67e1 b3bd cf0f 4abd 7749 99bd
00000140: 4a41 d13c 8d3a 3fbe 34cd 3a3c 9ef7 013d
00000150: c84c 1e3d 8b20 de3d 0d3c 053e 83bf f6bd
00000160: 7ed4 25bd abf4 803c 8873 933d 992a 76bc
00000170: 031a 723e 4a1c 03be c5d9 28bd 0105 9dbd
00000180: e2f2 283d d279 c13d 8064 153d 6097 ba3c
00000190: 5d24 37bd 3be4 d8bd f2f3 c1bc b496 983d
000001a0: f492 f23c 6563 793d 34f9 873d 29f9 293c
000001b0: 2cea 9e3c 1b3b 61bd 95d0 bdbc fb08 1b3d
000001c0: f1cb 813d 10df 86be aefe 2f3e 4546 9a3d
000001d0: 0413 b93d b4c6 143e bf34 c83d 3fc0 a0bc
000001e0: 9ca0 6b3e 231d e03d e07e efb9 f2b1 103d
000001f0: 041f f5bd 7973 0e3e 697d 08bd c0b6 a5be
00000200: fd6e 24be 90d9 b53c 9e25 843d 05df 93be
00000210: 6766 dabd 9af8 d63d b66c b1bd 4fcc c3bc
00000220: e1cf 8b3e d6f3 00bd 8c4c 9bbc 423a a5bd
00000230: b8f4 1f3d a2d4 98bd 543d b73e 6365 36be
00000240: e564 653e 7e58 23be 5fa9 e0bc 4e6e 2abe
00000250: c0d4 f7bd f805 503d 5309 9cbd de01 a6bd
00000260: 3d56 7fbc 58de dfbd d6ae 2d3d e201 86be
00000270: 4ad2 3f3c 39bf ea3d 4dc2 d23d 87e4 163e
00000280: 5ca7 5bbd 657a 68bc e42c 463e 9486 50be
00000290: 3051 30be fd70 b5bc 609b 513e 4d9e 6bbd
000002a0: dc92 8fbe dd9a f9bb e036 083e 1efe 22be
000002b0: 47f4 2e3e 70b9 f9bd 6c90 45bd 6352 543e
000002c0: e67c 123e 9adb 7bbd 3f4b 02be 6d00 d1bd
000002d0: 646a a23d 92a2 d3bd 1905 6f3d 8881 d4bc
000002e0: a16b 693d 20a4 a8be 9ffb 943c b3cf 8abd
000002f0: e7f4 7fbd 938c f6bd e0a2 c0bd b06b 90bd
00000300: 6d06 733c 9aac 81bd ce1d 83bb 3a98 2ebe
00000310: 08a0 f8bc b7e8 eb3c d971 adbd 4f61 093e
00000320: 6e0a 453d e08c 853e f93b 2ebd 732b febd
00000330: e4c7 0bbe 0d8a 5a3d de55 003e ee6f 873e
00000340: 9f26 443e 4b51 6d3d 1c0d c43d ddef 9a3d
00000350: 6a1b 173e 9d26 043c 6771 073e 3ef5 333e
00000360: 7b60 943d c86a 21be 8dcb f1bc d7c3 b4bc
00000370: eeb5 3f3e 83c5 343e 7a25 283e 45dd 6bbc
00000380: 6dd5 993e dc36 9cbd 82ff dbbd 7379 8b3d
00000390: c751 453e 326d 8bbd 8fdb 9bbc 20ff 78bd
000003a0: 3eec c83d 4f3d c23d 6efc 0f3e 2cb9 8abe
000003b0: b80f 4fbe 5533 793d b526 06be 87c9 e6bb
000003c0: 2826 e63d 9b3d d83c c2cb 1e3d 399b 19be
000003d0: 19ed b03a 282f 7dbd 4924 843e 76d3 283e
000003e0: 28ce 3a3e 94f6 113d b3cc 283e 706f 393d
000003f0: 6bb4 a53e 4bf7 6bbe 482b b5bd aaf7 383d

mid_part.2.bias f4 [12]
0.012483359 0.010411095 -0.004815436 -3.6049594e-05 0.03747159 -0.013541694 -0.0043973955 0.0028535777
0.02328924 -0.00045783244 0.030696997 0.025113354
00000000: 0187 4c3c 4c93 2a3c ceca 9dbb f533 17b8
00000010: cf7b 193d fbdd 5dbc 0718 90bb 1703 3b3b
00000020: 14c9 be3c 3b09 f0b9 4578 fb3c 85ba cd3c

mid_part.3.weight f4 [12]
0.45569754 0.23928252 0.2583283 1.4804901 0.7067805 0.24915509 0.91002923 0.103900746
0.19145644 0.9368528 0.28470957 0.32126796
00000000: 3051 e93e 7a06 753e 9b43 843e b380 bd3f
00000010: 91ef 343f 8322 7f3e adf7 683f eac9 d43d
00000020: 280d 443e 96d5 6f3f 74c5 913e 3c7d a43e

mid_part.4.weight f4 [12, 12, 3, 3]
0.005299486 -0.04834931 0.20417085 0.29922664 -0.09014759 0.103988424 -0.18960801 0.08520649
-0.14366207 -0.19811183 -0.100778334 0.3445629 -0.04794188 0.1679313 -0.16083123 -0.12662114
0.0213856 0.22155412 -0.14622824 0.19143432 -0.020824943 0.12110748 0.010459634 -0.032505184
-0.01966971 0.19654721 0.096408114 -0.12836887 -0.277273 -0.02600333 0.20113115 -0.18881686
-0.24394232 -0.16023794 0.18330342 0.09414142 -0.10887463 0.15645215 0.15674922 -0.16187517
0.3930388 0.016750362 -0.2412645 0.09179938 0.13476874 -0.008541625 -0.054521445 0.10119887
-0.23644078 0.079057105 -0.34078622 0.049977545 0.24482521 -0.1304262 0.16196571 -0.24354419
-0.056708988 0.077523805 -0.0025263715 -0.13740617 -0.044900935 -0.28473818 0.29263762 0.0822985
-0.09075162 0.16280437 -0.035268426 0.048431017 0.09474557 -0.21591695 -0.10503987 -0.11340636
0.0031712463 0.03995571 -0.075453274 -0.15993652 0.028399741 0.048086263 0.006640329 -0.093833126
0.18713482 0.07389365 -0.025055269 0.17912774 0.08435128 0.1344753 -0.036683172 0.06328228
0.16482635 -0.34532833 0.04004215 0.16487171 0.057722043 0.21932842 -0.12859312 -0.021097314
-0.038456805 0.018059261 0.054842997 0.18702032 0.0057651564 0.26502964 -0.29485604 0.2453164
-0.46797264 -0.014727401 0.18006518 0.28060797 0.12212483 -0.22558165 -0.05005095 0.27026796
0.089858636 0.09570908 0.29085428 -0.2403044 0.040587176 -0.021658607 0.06471555 -0.038062207
0.2896639 0.056433897 0.32452196 -0.24378859 -0.25293508 -0.07911951 -0.20199263 0.1317553
-0.04532652 -0.45867884 -0.16935915 -0.045351062 -0.5402344 -0.18090488 0.11049431 0.017537063
0.16072704 0.23167428 0.17321306 0.3368741 0.06070606 0.36394998 0.33663025 -0.10218718
-0.02518048 -0.026634516 -0.03291764 -0.1877366 -0.0141258715 0.006243991 -0.33974895 -0.047065392
-0.026661418 -0.028936004 -0.18619777 0.28576604 -0.24336931 -0.04689157 0.13807276 -0.12375041
0.033645183 -0.06517998 0.26323736 -0.04316728 -0.05565293 0.36089474 -0.09470373 0.02178469
0.12472346 -0.04160807 -0.25513446 0.33028305 -0.24865128 -0.24138732 -0.044760022 -0.004025779
0.074428394 0.16160014 0.13550013 0.426308 -0.06704742 -0.2646167 -0.16006948 -0.012957736
-0.11194224 0.095917724 0.2036864 0.29858744 0.12073493 -0.4182019 0.12500502 -0.15024368
0.19461809 0.22839537 -0.034089312 0.0362207 -0.014253372 0.101930976 -0.109619 -0.37210473
-0.021995287 0.40241444 0.39787564 0.13005747 -0.4148154 -0.2499557 0.1334895 -0.23410082
-0.25691763 -0.2858744 -0.19412032 0.06419107 0.0022452008 0.59655607 0.36250564 0.26386136
0.20788631 -0.19801067 0.15179275 0.081625015 0.044317305 -0.005995225 -0.11381542 0.30565402
0.05525048 0.22888663 0.008686574 0.17127322 -0.021945573 0.03187266 0.09596913 -0.008970387
0.077212624 0.017999664 -0.05324759 0.048874427 0.17974377 -0.04209011 0.1519755 0.114670634
0.024445806 -0.011435007 -0.16424121 -0.35456213 -0.123268686 -0.07631197 0.009661716 0.27919206
0.16614763 0.16378146 -0.24595419 0.07071238 -0.01789841 -0.4519734 -0.252735 -0.19686525
00000000: 50a7 ad3b ed09 46bd 2a12 513e 3c34 993e
00000010: 4d9f b8bd e2f7 d43d 9a28 42be bd80 ae3d
00000020: 261c 13be d4dd 4abe df64 cebd 8c6a b03e
00000030: b45e 44bd 2ff6 2b3e f1b0 24be f9a8 01be
00000040: db30 af3c 15df 623e dbbc 15be 5c07 443e
00000050: 1299 aabc 3307 f83d e25e 2b3c 2824 05bd
00000060: 5f22 a1bc ac43 493e 9e71 c53d 2173 03be
00000070: baf6 8dbe ef04 d5bc 53f5 4d3e 3559 41be
00000080: 04cc 79be 6a15 24be e4b3 3b3e 38cd c03d
00000090: a9f9 debd fe34 203e de82 203e 9bc2 25be
000000a0: 623c c93e 0e38 893c 0b0e 77be 5001 bc3d
000000b0: d100 0a3e 2cf2 0bbc e151 5fbd 5a41 cf3d
000000c0: 881d 72be b1e8 a13d 887b aebe 41b5 4c3d
000000d0: 76b3 7a3e 728e 05be 57da 253e a663 79be
000000e0: af47 68bd cdc4 9e3d 7b91 25bb 34b4 0cbe
000000f0: 0bea 37bd 34c9 91be 99d4 953e 1e8c a83d
00000100: fcdb b9bd 30b6 263e a075 10bd 9a5f 463d
00000110: f709 c23d 5519 5dbe 251f d7bd 9841 e8bd
00000120: afd4 4f3b 99a8 233d 3f87 9abd 66c6 23be
00000130: 93a6 e83c 1af6 443d 1e97 d93b 952b c0bd
00000140: 45a0 3f3e 8e55 973d b540 cdbc 436d 373e
00000150: 5dc0 ac3d e5b3 093e 1841 16bd 249a 813d
00000160: 3dc8 283e e0ce b0be 3d03 243d 21d4 283e
00000170: f36d 6c3d a197 603e eaad 03be 46d4 acbc
00000180: e284 1dbd 04f1 933c 0da3 603d 4182 3f3e
00000190: a3e9 bc3b f7b1 873e 5ff7 96be 3934 7b3e
000001a0: 1c9a efbe 324b 71bc 0263 383e d9ab 8f3e
000001b0: 951c fa3d e0fe 66be 3a02 4dbd 9060 8a3e
000001c0: ce07 b83d 1f03 c43d daea 943e 5b12 76be
000001d0: bd3e 263d 646d b1bc 9689 843d 1ee7 1bbd
000001e0: d44e 943e 3b27 673d be27 a63e b7a3 79be
000001f0: b580 81be 6909 a2bd 28d7 4ebe ddea 063e
00000200: 4da8 39bd f4d7 eabe 7c6c 2dbe 09c2 39bd
00000210: cd4c 0abf 213f 39be d74a e23d e3a9 8f3c
00000220: a195 243e 063c 6d3e c45e 313e c37a ac3e
00000230: eba6 783d a757 ba3e cd5a ac3e 8347 d1bd
00000240: 4b47 cebc a130 dabc a6d4 06bd 063e 40be
00000250: 3370 67bc 659a cc3b 93f3 adbe a4c7 40bd
00000260: 0c69 dabc 330b edbc a1aa 3ebe ed4f 923e
00000270: ce35 79be 6011 40bd f262 0d3e db70 fdbd
00000280: 88cf 093d 157d 85bd 0cc7 863e 2cd0 30bd
00000290: 54f4 63bd 32c7 b83e 07f4 c1bd ce75 b23c
000002a0: 036f ff3d 396d 2abd fca0 82be dc1a a93e
000002b0: 719e 7ebe 3d2e 77be 4956 37bd afea 83bb
000002c0: ea6d 983d 827a 253e 8cc0 0a3e 0b45 da3e
000002d0: 2850 89bd d77b 87be 41e9 23be af4c 54bc
000002e0: f941 e5bd 8370 c43d 2b93 503e 74e0 983e
000002f0: e043 f73d 8f1e d6be 5101 003e 7bd9 19be
00000300: f749 473e 7ae0 693e 3ca1 0bbd 285c 143d
00000310: fa86 69bc 30c1 d03d ed7f e0bd 8384 bebe
00000320: 762f b4bc 4409 ce3e 5bb6 cb3e c92d 053e
00000330: af62 d4be 63f4 7fbe 79b1 083e 20b8 6fbe
00000340: b58a 83be 215e 92be 7ac7 46be 9c76 833d
00000350: 3824 133b e6b7 183f 579a b93e d618 873e
00000360: 26e0 543e 4fc3 4abe 8f6f 1b3e 042b a73d
00000370: 1086 353d 9873 c4bb 0f18 e9bd af7e 9c3e
00000380: 544e 623d 4261 6a3e 2252 0e3c 3f62 2f3e
00000390: 34c7 b3bc e88c 023d 778b c43d 88f8 12bc
000003a0: a721 9e3d 0874 933c 251a 5abd 8d30 483d
000003b0: c00e 383e ae66 2cbd 779f 1b3e 70d8 ea3d
000003c0: 9242 c83c e559 3bbc d92e 28be 2b89 b5be
000003d0: 4b74 fcbd 7349 9cbd 2d4c 1e3c 43f2 8e3e
000003e0: 9b22 2a3e 54b6 273e 6adb 7bbe a7d1 903d
000003f0: b09f 92bc 0f69 e7be 7b66 81be 0b97 49be

mid_part.4.bias f4 [12]
0.07765226 0.012408696 -0.038199313 0.017849306 0.00782247 -0.004479113 0.007898371 0.02272342
0.03856706 0.01731814 -0.04423994 -0.025798988
00000000: 2608 9f3d d84d 4b3c e276 1cbd b538 923c
00000010: d129 003c 86c5 92bb 2b68 013c 7726 ba3c
00000020: 7ef8 1d3d c6de 8d3c f034 35bd 6658 d3bc

mid_part.5.weight f4 [12]
1.2998194 0.73522055 0.3972908 0.26247093 2.0607488 1.4627069 -0.39000985 0.03114926
0.66571873 1.0918653 0.4320541 0.24883738
00000000: 7b60 a63f 6a37 3c3f b369 cb3e 9762 863e
00000010: 4fe3 0340 fb39 bb3f 5faf c7be bc2c ff3c
00000020: 8b6c 2a3f 3ec2 8b3f 3236 dd3e 3acf 7e3e

mid_part.6.weight f4 [12, 12, 3, 3]
0.057815634 -0.060998954 -0.02559575 0.04438588 0.13070302 0.18413316 -0.04428288 0.120975114
0.01859087 0.024127807 0.26312014 0.18243513 0.0952061 0.21781866 0.27297273 -0.0024627799
-0.27389678 0.06189474 0.06641835 -0.16131331 0.044740126 0.13123402 0.0077261426 -0.06723343
-0.1865865 -0.1318703 0.1802147 0.1482431 -0.09714941 -0.19962366 0.0012199396 0.09578457
0.101180404 0.12015394 -0.37395692 -0.15928058 -0.015874958 0.14569741 -0.08562414 0.16795649
0.12241927 -0.13801649 -0.038419046 0.17079861 -0.041653696 -0.12859133 -0.4003766 0.08066659
0.221137 0.006072533 0.050367277 0.09046765 0.1181916 0.16171566 0.1521815 -0.22047146
0.035231154 0.08202497 0.050482776 0.059531264 0.20502026 0.18099354 0.12882833 -0.11652928
-0.08045231 0.1329365 -0.037405286 -0.16741498 0.02716276 0.06493956 0.04947787 -0.19235258
-0.07297296 0.09373566 0.12794423 -0.033131417 0.044971097 -0.017554289 -0.08601745 -0.17926762
0.02141932 -0.039360784 0.18219607 0.0017393826 -0.17234428 0.06820705 0.18245062 -0.1969419
-0.1252011 -0.23417348 -0.078156136 0.1593588 0.093629986 -0.056947615 -0.22316895 0.110628806
-0.08483194 0.17821445 -0.04019319 0.10466146 0.053130955 0.062278125 0.06521997 -0.13039431
-0.0022502828 0.15226136 -0.12705296 0.019482316 0.32042286 0.15189713 -0.0035299696 -0.17216079
-0.22969995 0.13057038 0.12904003 0.10510108 0.012487283 -0.119243674 -0.02953363 0.1364677
-0.05940316 0.17190936 0.066658504 0.13657667 -0.1546124 0.024129177 0.1266783 0.016996713
0.0132675925 0.15933435 0.07526568 0.19048189 -0.0075972723 -0.13116336 0.017723083 0.10048714
0.057698257 -0.01986934 -0.059860397 0.17298475 -0.016036699 -0.0841 -0.20053212 0.04281114
0.04599122 -0.09863121 0.15513901 0.10461943 -0.037909992 -0.13713302 0.10369991 0.20654742
0.032460347 0.07142716 0.025454987 0.08307199 -0.2277207 0.014642827 -0.050695363 -0.031818792
0.04427293 0.039958406 0.11308191 0.021748113 -0.022409957 0.05111911 0.078149654 -0.034424968
-0.09971474 -0.06634644 -0.10095439 0.15087856 -0.051332273 0.10779705 0.00022943258 0.17930599
-0.23884329 -0.021089436 -0.03058628 -0.09238554 0.25213218 -0.32523954 0.1387954 -0.03689817
0.0360432 0.23832424 -0.010781185 0.11633792 -0.03460285 0.082197055 -0.009807296 0.052588016
0.15154967 0.21312118 -0.17627397 -0.0033443177 0.14807697 0.19992135 0.09075649 0.2429556
0.051737256 -0.21556965 -0.27681637 -0.057956476 0.10569306 -0.06626792 0.2982775 -0.06782263
-0.01296307 -0.017770072 0.04846781 0.068648726 0.007802604 -0.24041224 -0.24530615 0.07433537
-0.2822086 -0.022968197 -0.19637486 -0.020326396 -0.12732801 -0.0773972 0.2519152 0.16527435
-0.19657901 -0.16078044 -0.19721974 0.038974363 -0.14054178 0.04603182 -0.12701099 0.27282435
0.18721633 0.18244895 -0.12466505 0.13555148 0.008062917 0.07922044 0.017502643 -0.13352753
0.17028359 -0.13899986 -0.26947755 0.12244705 0.09013062 0.016338956 0.16465952 0.22035582
-0.09948332 -0.15994199 -0.07948708 0.021969246 -0.30514273 -0.18428737 0.16287988 -0.06767933
00000000: 16d0 6c3d 0ada 79bd 2eae d1bc f8cd 353d
00000010: 03d7 053e 678d 3c3e f761 35bd cdc1 f73d
00000020: e14b 983c aea7 c53c afb7 863e 46d0 3a3e
00000030: 6afb c23d db0b 5f3e 15c3 8b3e 9766 21bb
00000040: 333c 8cbe 5785 7d3d 5806 883d 512f 25be
00000050: 6c41 373d 3662 063e 952b fd3b aeb1 89bd
00000060: 8810 3fbe 0209 07be 348a 383e 0acd 173e
00000070: 45f6 c6bd 256a 4cbe 61e6 9f3a b32a c43d
00000080: ac37 cf3d 4513 f63d 4877 bfbe 731a 23be
00000090: 330c 82bc b431 153e b65b afbd c9fc 2b3e
000000a0: f4b6 fa3d 3254 0dbe 4a5d 1dbd d5e5 2e3e
000000b0: 119d 2abd 72ad 03be 29fe ccbe 8634 a53d
000000c0: bd71 623e 19fc c63b eb4d 4e3d 1a47 b93d
000000d0: 700e f23d ca98 253e 78d5 1b3e 45c3 61be
000000e0: 8b4e 103d b5fc a73d 07c7 4e3d 0ed7 733d
000000f0: d5f0 513e 5f56 393e 93eb 033e e7a6 eebd
00000100: 2ec4 a4bd 8120 083e 4936 19bd d56e 2bbe
00000110: 7084 de3c 08ff 843d 4fa9 4a3d 13f8 44be
00000120: d972 95bd 7bf8 bf3d d003 033e cfb4 07bd
00000130: 9d33 383d 03ce 8fbc eb29 b0bd ee91 37be
00000140: 9277 af3c c638 21bd 9b91 3a3e fffb e33a
00000150: 057b 30be 23b0 8b3d 56d4 3a3e 23ab 49be
00000160: b834 00be 2ccb 6fbe 5310 a0bd f42e 233e
00000170: 14c1 bf3d e741 69bd 6786 64be 5b91 e23d
00000180: 5ebc adbd d97d 363e 9da1 24bd bf58 d63d
00000190: d89f 593d 5917 7f3d 0c92 853d 1686 05be
000001a0: 7b79 13bb 67ea 1b3e 2c1a 02be 6199 9f3c
000001b0: 770e a43e ec8a 1b3e 1057 67bb eb4a 30be
000001c0: 7736 6bbe 3eb4 053e 1223 043e 3c3f d73d
000001d0: 7697 4c3c 0736 f4bd 83f0 f1bc 30be 0b3e
000001e0: ba50 73bd 0209 303e 4184 883d c1da 0b3e
000001f0: b752 1ebe 8daa c53c f5b7 013e b13c 8b3c
00000200: 5160 593c 8b28 233e e524 9a3d af0d 433e
00000210: 8af2 f8bb b04f 06be 0030 913c 34cc cd3d
00000220: 0255 6c3d 07c5 a2bc 2d30 75bd ea22 313e
00000230: 655f 83bc 9f3c acbd 4b58 4dbe bc5a 2f3d
00000240: 4a61 3c3d 29ff c9bd c3dc 1e3e b642 d63d
00000250: 8247 1bbd 996c 0cbe 9e60 d43d 2b81 533e
00000260: 24f5 043d 6748 923d fa86 d03c a621 aa3d
00000270: 9d2f 69be 78e8 6f3c f1a5 4fbd 6c54 02bd
00000280: 8857 353d 6dab 233d 7d97 e73d 1929 b23c
00000290: 1695 b7bc 4662 513d ed0c a03d 3201 0dbd
000002a0: 3e37 ccbd a4e0 87bd 2dc1 cebd e97f 1a3e
000002b0: ca41 52bd b3c4 dc3d d793 7039 fd9b 373e
000002c0: 5693 74be c1c3 acbc 1490 fabc a134 bdbd
000002d0: 7817 813e cc85 a6be 6220 0e3e 8922 17bd
000002e0: 09a2 133d 450b 743e 91a3 30bc 9342 ee3d
000002f0: b8bb 0dbd ee56 a83d c8ae 20bc 8866 573d
00000300: d62f 1b3e 703c 5a3e 2a81 34be 572c 5bbb
00000310: 7da1 173e 2fb8 4c3e 8ade b93d 5ac9 783e
00000320: 72ea 533d 4abe 5cbe e0ba 8dbe c563 6dbd
00000330: 9a75 d83d 7ab7 87bd d4b7 983e 97e6 8abd
00000340: 0e63 54bc 8b92 91bc 2f86 463d b497 8c3d
00000350: fdac ff3b a02e 76be 8931 7bbe 243d 983d
00000360: a57d 90be cd27 bcbc 7e16 49be 8b83 a6bc
00000370: 4662 02be 6c82 9ebd 07fb 803e ae3d 293e
00000380: 024c 49be a1a3 24be f9f3 49be 95a3 1f3d
00000390: 2fea 0fbe dd8b 3c3d 2b0f 02be a2af 8b3e
000003a0: a3b5 3f3e e6d3 3a3e 6450 ffbd 02ce 0a3e
000003b0: 531a 043c 533e a23d b461 8f3c 71bb 08be
000003c0: d25e 2e3e fb55 0ebe f6f8 89be 85c5 fa3d
000003d0: 6796 b83d 46d9 853c 819c 283e f5a4 613e
000003e0: e9bd cbbd d5c7 23be 1fca a2bd d9f8 b33c
000003f0: ab3b 9cbe d4b5 3cbe fcc9 263e 769b 8abd

mid_part.6.bias f4 [12]
0.024848264 -0.000469606 0.030751145 0.0044611595 0.032176677 0.092944875 0.07505083 0.082977094
0.011854941 0.008858322 0.17760171 -0.04605983
00000000: 968e cb3c 7335 f6b9 d3e9 fb3c eb2e 923b
00000010: b1cb 033d e259 be3d 40b4 993d e5ef a93d
00000020: 3a3b 423c 7f22 113c 39dd 353e 3ba9 3cbd

mid_part.7.weight f4 [12]
0.66193193 1.7236552 0.30274144 0.27110198 -0.20297308 1.2403848 1.1112725 0.3376529
0.36547107 0.19850062 -0.24834877 0.2221172
00000000: 5f74 293f bca0 dc3f ed00 9b3e e1cd 8a3e
00000010: 2dd8 4fbe eec4 9e3f 2d3e 8e3f d7e0 ac3e
00000020: 061f bb3e bf43 4b3e 244f 7ebe b172 633e

mid_part.8.weight f4 [12, 12, 3, 3]
0.09886268 -0.111311756 -0.1889747 -0.08254361 0.23556256 0.13044699 -0.3061934 0.13838479
-0.07963081 -0.0427189 0.03664942 0.0699888 0.09049553 0.31567565 0.036019236 0.20125583
0.054928258 -0.06066008 0.08752343 -0.039211165 -0.011211979 -0.22514564 -0.023771726 -0.023782065
0.06518694 -0.19234574 0.002566771 -0.06030487 -0.08800836 0.029362896 -0.17184708 -0.067121394
0.10805416 0.0050124 -0.10986622 -0.18727271 -0.015694518 -0.012565966 0.018563379 0.11545162
-0.014837926 0.227836 -0.080677874 0.055119738 -0.0280903 0.052489456 0.16165304 0.047121655
-0.1515569 0.079126865 0.028513746 0.329021 -0.1434409 0.10351111 0.12578885 -0.34162563
0.032089125 0.053715225 -0.020246074 -0.046410352 -0.09919586 -0.11973224 0.042988893 -0.021523122
0.30840337 0.0101477215 0.045133986 0.19716738 -0.09170312 -0.18144813 -0.017665202 -0.21219434
-0.23696317 0.029792165 0.057050496 0.026723474 0.1839906 -0.15195629 -0.030391406 -0.13609865
-0.12770516 0.08568009 -0.06236216 -0.13553967 -0.13761795 -0.050252337 -0.026537376 0.23159176
-0.038553018 -0.0033316484 0.018266471 0.15579748 0.015690712 -0.061126027 -0.032868985 0.042904444
0.0825128 0.082114376 -0.055519655 0.15825903 0.3852051 -0.19540247 0.43453866 -0.025332876
0.20411439 -0.1977382 0.11004815 0.2426101 0.116692536 -0.09994306 -0.15048848 0.2434886
0.1557148 0.013552429 0.075864896 -0.26339898 -0.2212058 0.053269345 -0.15234938 0.008456151
0.123693004 0.2095653 -0.2462828 -0.16785805 -0.0040617953 -0.102617614 0.08590686 -0.02471225
0.09159741 0.07649239 -0.28328836 0.24357852 -0.111236654 0.06937167 0.017704023 -0.044396877
0.358561 0.05032905 0.13307069 -0.0048909313 0.07586619 -0.1802067 0.06464138 0.108942434
0.15113135 0.0056498665 -0.103433736 0.041132875 0.1987537 -0.29419047 0.15424721 -0.32694787
0.066856936 0.17952673 0.15895405 -0.047103785 0.09259337 0.2252524 0.08599667 -0.17815882
-0.068517536 0.004233917 -0.057922956 -0.008585443 0.15057397 0.100402325 0.02817519 0.0374819
-0.05387657 -0.039069887 0.051522195 0.17138319 0.20273316 0.13814045 0.14266448 -0.36482716
0.06372449 0.040837947 -0.04379261 0.068510085 0.07680149 -0.004143328 -0.006881881 0.06779462
-0.13445589 0.045364354 0.28559747 -0.07032788 0.0911914 0.27805188 0.015002969 0.009004477
0.239207 0.043398026 0.23023649 0.1874247 -0.007168269 0.05917447 0.0032052107 -0.038628347
0.07327319 -0.008405499 -0.16233303 -0.12891814 -0.09688477 0.07701031 0.18930133 0.1807526
-0.19642508 0.08365974 0.1772639 0.07655559 0.070050485 -0.029155534 0.0025914363 0.18401061
-0.06242265 0.16721788 0.08630222 -0.009457182 0.08058773 -0.119044214 0.0521198 0.12669463
0.14323148 0.060623664 0.05273337 0.18662998 0.019181032 0.18725051 -0.11812042 0.09663542
0.0859844 -0.12318113 0.011761097 -0.011442891 -0.14946656 -0.049999077 -0.17036273 0.026625039
-0.034643456 -0.031933293 -0.031574804 -0.20254643 -0.076494075 -0.07196898 0.23452035 0.07755969
-0.20423329 0.04762506 -0.05818305 -0.0048909346 0.068574175 0.038651116 -0.27128172 0.18266194
00000000: 8478 ca3d 6bf7 e3bd 9582 41be a00c a9bd
00000010: 5037 713e e593 053e 62c5 9cbe beb4 0d3e
00000020: 7a15 a3bd 03fa 2ebd b41d 163d 4a56 8f3d
00000030: b855 b93d 3da0 a13e e888 133d 0216 4e3e
00000040: 74fc 603d b476 78bd 7c3f b33d e39b 20bd
00000050: 73b2 37bc 948c 66be ecbc c2bc 9bd2 c2bc
00000060: bb80 853d 48f6 44be 4637 283b 3d02 77bd
00000070: ba3d b4bd 758a f03c aef8 2fbe f176 89bd
00000080: 804b dd3d 0f3f a43b 8a01 e1bd 6bc4 3fbe
00000090: ca91 80bc 7be1 4dbc 3a12 983c e671 ec3d
000000a0: c61a 73bc d74d 693e 713a a5bd 3cc5 613d
000000b0: a11d e6bc 2fff 563d 6088 253e a302 413d
000000c0: bb31 1bbe 440d a23d a995 e93c 7175 a83e
000000d0: 2ce2 12be a2fd d33d cbce 003e 8ee9 aebe
000000e0: e36f 033d 7f04 5c3d 18db a5bc c818 3ebd
000000f0: 3327 cbbd 2d36 f5bd 1f15 303d 4251 b0bc
00000100: 0ce7 9d3e a142 263c 6ade 383d 3fe6 493e
00000110: d8ce bbbd 8acd 39be 9db6 90bc 7949 59be
00000120: 79a6 72be b30e f43c c8ad 693d 30eb da3c
00000130: 0868 3c3e 6e9a 1bbe 66f7 f8bc 725d 0bbe
00000140: 24c5 02be 0b79 af3d 776f 7fbd e9ca 0abe
00000150: b8eb 0cbe 65d5 4dbd e964 d9bc 6426 6d3e
00000160: c5e9 1dbd c957 5abb 91a3 953c 6089 1f3e
00000170: cf89 803c 495f 7abd a1a1 06bd 92bc 2f3d
00000180: 79fc a83d 952b a83d 9468 63bd a80e 223e
00000190: 9a39 c53e 9617 48be da7b de3e e486 cfbc
000001a0: 5d03 513e e27b 4abe ed60 e13d c86e 783e
000001b0: 7ffc ee3d f2ae ccbd a719 1abe 1355 793e
000001c0: b373 1f3e 020b 5e3c 0e5f 9b3d 3bdc 86be
000001d0: c683 62be f530 5a3d 7a01 1cbe ab8b 0a3c
000001e0: c252 fd3d 4998 563e 8f31 7cbe fbe2 2bbe
000001f0: cf18 85bb 2f29 d2bd f0ef af3d 5871 cabc
00000200: 6c97 bb3d 0ba8 9c3d 2c0b 91be a66c 793e
00000210: 0bd0 e3bd bc12 8e3d 0708 913c 80d9 35bd
00000220: 4f95 b73e d525 4e3d af43 083e 1b44 a0bb
00000230: bc5f 9b3d 1b88 38be b362 843d 361d df3d
00000240: 2dc2 1a3e 8422 b93b 11d5 d3bd f27a 283d
00000250: 1786 4b3e 22a0 96be fbf2 1d3e b665 a7be
00000260: 4aec 883d dbd5 373e dac4 223e e6ef 40bd
00000270: 98a1 bd3d 91a8 663e 061f b03d 446f 36be
00000280: ec52 8cbd acbc 8a3b 9f40 6dbd f5a9 0cbc
00000290: 1030 1a3e bc9f cd3d a8cf e63c 9f86 193d
000002a0: aead 5cbd bf07 20bd f008 533d 137f 2f3e
000002b0: 4899 4f3e b174 0d3e a316 123e a0ca babe
000002c0: fc81 823d b145 273d e15f 33bd 044f 8c3d
000002d0: 194a 9d3d c1c4 87bb 6781 e1bb e8d7 8a3d
000002e0: ceae 09be f9cf 393d d539 923e 1008 90bd
000002f0: 8fc2 ba3d d15c 8e3e 03cf 753c 8487 133c
00000300: aef2 743e 21c2 313d 1dc3 6b3e 43ec 3f3e
00000310: cce3 eabb ee60 723d 830e 523b c238 1ebd
00000320: 4110 963d 38b7 09bc a13a 26be 1e03 04be
00000330: 866b c6bd 95b7 9d3d 35d8 413e 3617 393e
00000340: a823 49be cc55 ab3d ab84 353e 2dc9 9c3d
00000350: a176 8f3d 96d7 eebc 16d5 293b 476d 3c3e
00000360: e5ae 7fbd 2a3b 2b3e 38bf b03d 4cf2 1abc
00000370: 2e0b a53d 74cd f3bd 927b 553d 3dbc 013e
00000380: 46ab 123e 8550 783d f2fe 573d ee1b 3f3e
00000390: 8a21 9d3c 99be 3f3e 1ee9 f1bd cbe8 c53d
000003a0: 9718 b03d 6346 fcbd 9eb1 403c f77a 3bbc
000003b0: c30d 19be d5cb 4cbd 9173 2ebe c11c da3c
000003c0: 4ce6 0dbd 7ccc 02bd 9554 01bd 5568 4fbe
000003d0: eda8 9cbd 7964 93bd 1a26 703e 9dd7 9e3d
000003e0: 8822 51be 7f12 433d 5a51 6ebd 2244 a0bb
000003f0: 9e70 8c3d a250 1e3d 70e5 8abe bb0b 3b3e

mid_part.8.bias f4 [12]
0.004786494 0.037221957 -0.008235771 -0.029808467 0.019303957 -0.0008483263 0.017926712 0.044409703
-0.035169337 0.064109996 0.03692162 0.038030744
00000000: 06d8 9c3b 0d76 183d 54ef 06bc e330 f4bc
00000010: 5523 9e3c 3762 5eba 0adb 923c f3e6 353d
00000020: b90d 10bd 1a4c 833d 203b 173d 20c6 1b3d

mid_part.9.weight f4 [12]
0.035909265 0.0469846 -0.14096785 0.26683217 0.6114995 1.2029407 -0.14679788 1.0358139
0.26768595 0.37608126 0.083602905 1.712095
00000000: 9815 133d ed72 403d e059 10be 3a9e 883e
00000010: 3b8b 1c3f f6f9 993f 2f52 16be 8d95 843f
00000020: 220e 893e b98d c03e 0038 ab3d ee25 db3f

mid_part.10.weight f4 [56, 12, 1, 1]
-0.08145977 0.1747243 -0.056003716 -0.38318262 -0.09139982 0.24568528 0.0971253 0.29027116
-0.1606802 -0.08960208 0.373599 -0.13310783 0.061649594 0.16353527 0.07128022 -0.042292926
-0.24093767 0.30486834 -0.066958785 0.32102665 0.020095633 0.09195386 0.21144082 0.09364055
-0.043437384 0.11658063 0.004329491 -0.22666208 -0.33544973 -0.32102168 0.3453967 0.037328783
0.057776634 -0.15682101 -0.18277413 -0.007434634 0.05793595 -0.21291122 -0.04254079 -0.13491918
-0.17726254 -0.34394878 0.32416064 0.5648247 -0.29919577 -0.03903483 0.11886583 0.16622147
-0.17429194 0.15921979 0.34014234 0.12703834 -0.06675438 0.21222952 -0.06477472 0.2588945
0.21084851 -0.04598348 0.14508682 -0.24202135 -0.16136286 -0.09477665 0.14876547 0.29614362
-0.16616614 0.0191218 -0.21936782 -0.17310679 0.15072544 -0.3229075 0.07761802 0.1477472
0.23023337 0.08870942 -0.33078304 -0.15392414 0.34312937 -0.20913984 -0.028674008 -0.07079522
0.30331218 -0.21089418 0.018618414 -0.18071681 0.1821093 0.009247166 0.15398845 0.3782906
0.042443655 -0.11572669 -0.30147046 -0.20505337 0.06586223 0.3838746 0.7302756 0.14991559
-0.21853076 0.11908244 -0.09328591 -0.045888703 0.15725136 -0.15903336 -0.027256263 -0.043413177
-0.061823152 -0.44059193 -0.022144206 0.25866035 -0.40467852 0.12942651 0.13637197 -0.14673153
0.10771248 -0.22027579 0.015678586 0.08811897 -0.17713338 -0.14319992 -0.07010483 0.15603985
-0.027396457 -0.18596028 -0.07032251 -0.24531013 0.14088742 0.0058824453 -0.07213731 -0.3450433
-0.17563096 0.18524241 0.17577815 -0.15445612 0.052162938 0.1452429 0.07797954 -0.31665215
0.038866 0.15012394 0.13429528 0.048154656 -0.33082575 -0.03322497 -0.14480561 -0.072631165
0.063344225 0.20323679 -0.0066903518 -0.048262637 0.05997135 0.05181305 -0.066722356 -0.030841768
0.23666218 0.3221232 -0.38260892 -0.17909864 -0.29360214 -0.03616211 -0.22771686 -0.0868972
0.028143961 -0.14003484 0.0024041568 0.24117868 0.297562 0.5793228 0.6208775 -0.4225695
-0.1535483 -0.016416943 -0.07684043 0.03668928 0.2847976 0.06314521 -0.023248322 -0.0071062148
0.16259415 -0.0063839112 -0.14362259 0.14917798 -0.14225683 0.13751931 -0.35919648 -0.07031867
0.27354947 0.40942475 0.00957805 -0.25575453 -0.0014887938 0.3675269 -0.26049134 0.14080565
0.22372375 0.2076695 -0.028181516 -0.15157998 0.12686555 -0.40615883 0.008793742 0.102017544
0.0734315 0.2825231 0.23249502 -0.0986511 0.039737593 0.12433946 0.063688226 -0.13840222
0.01054207 0.041117888 0.16623211 0.054238893 0.1404437 -0.17845201 0.12099523 -0.13666113
-0.1593475 -0.040862013 -0.082446605 -0.04473144 -0.09131645 0.2536112 0.0803745 0.12099183
-0.32063627 -0.004810713 -0.154709 -0.128029 0.051178105 0.0066346056 -0.031240514 -0.19714333
-0.055654652 -0.2229262 0.1189397 -0.39437774 0.17670472 -0.38911048 0.09795553 -0.21442194
-0.032727327 -0.11861606 -0.23082757 -0.25213927 -0.052298557 -0.11586593 0.04951341 0.18813476
0.036101617 0.005183528 -0.53411734 -0.30047742 0.02190122 -0.07806724 0.026907032 -0.16511697
00000000: 61d4 a6bd edea 323e 2764 65bd 8330 c4be
00000010: d42f bbbd ec94 7b3e a1e9 c63d 6c9e 943e
00000020: 5a89 24be 4c81 b7bd 5e48 bf3e 6b4d 08be
00000030: 4984 7c3d ca75 273e 5dfb 913d 593b 2dbd
00000040: 5db8 76be b417 9c3e b021 89bd 9b5d a43e
00000050: 999f a43c 4e52 bc3d f183 583e 9ec6 bf3d
00000060: 66eb 31bd d3c1 ee3d 67de 8d3b 1b1a 68be
00000070: 11c0 abbe f45c a4be d6d7 b03e 11e6 183d
00000080: 31a7 6c3d b095 20be 2429 3bbe 3b9e f3bb
00000090: 3f4e 6d3d 6605 5abe 403f 2ebd 4128 0abe
000000a0: 5084 35be 0e1a b0be 62f8 a53e 5a98 103f
000000b0: 3030 99be fce2 1fbd ee6f f33d f635 2a3e
000000c0: 9679 32be 830a 233e 2327 ae3e 5716 023e
000000d0: 85b6 88bd b252 593e 9ca8 84bd d28d 843e
000000e0: ace8 573e 2c59 3cbd a491 143e 72d4 77be
000000f0: 4e3c 25be 431a c2bd fa55 183e 23a0 973e
00000100: 7527 2abe 52a5 9c3c f5a1 60be e842 31be
00000110: c557 1a3e 2254 a5be 32f6 9e3d 0b4b 173e
00000120: 4cc2 6b3e 49ad b53d 655c a9be 4a9e 1dbe
00000130: a7ae af3e c128 56be c1e5 eabc 16fd 90bd
00000140: bc4b 9b3e a5f4 57be a585 983c d40d 39be
00000150: dc7a 3a3e 6d81 173c 26af 1d3e 4eaf c13e
00000160: 66d9 2d3d 1d02 edbd 565a 9abe 83f9 51be
00000170: c7e2 863d 368b c43e 57f3 3a3f 7983 193e
00000180: 87c6 5fbe 7fe1 f33d af0c bfbd cbf5 3bbd
00000190: 8006 213e a4d9 22be 8748 dfbc 04d2 31bd
000001a0: 463a 7dbd 4495 e1be c467 b5bc 216f 843e
000001b0: 0632 cfbe 6288 043e 18a5 0b3e ca40 16be
000001c0: 5c98 dc3d fa8f 61be 6170 803c b877 b43d
000001d0: 7462 35be 00a3 12be 1f93 8fbd e9c8 1f3e
000001e0: 896e e0bc 5f6c 3ebe 4005 90bd 9432 7bbe
000001f0: cb44 103e 87c1 c03b babc 93bd 84a9 b0be
00000200: 9ad8 33be 30b0 3d3e 30ff 333e bf29 1ebe
00000210: cea8 553d 8eba 143e bdb3 9f3d 3b20 a2be
00000220: f431 1f3d 17ba 193e b484 093e d13d 453d
00000230: fe61 a9be e816 08bd ec47 14be a6bf 94bd
00000240: 9eba 813d 4e1d 503e bd3a dbbb 0baf 45bd
00000250: 85a4 753d ec39 543d bba5 88bd e0a7 fcbc
00000260: 9257 723e 55ed a43e 51e5 c3be a265 37be
00000270: 0553 96be b81e 14bd 9c2e 69be 29f7 b1bd
00000280: 2a8e e63c 4b65 0fbe 0f8f 1d3b 8bf7 763e
00000290: 0c5a 983e 804e 143f d4f1 1e3f 085b d8be
000002a0: c43b 1dbe d37c 86bc 845e 9dbd 8047 163d
000002b0: fed0 913e 4752 813d 4473 bebc 40db e8bb
000002c0: 157f 263e 2130 d1bb cd11 13be 1dc2 183e
000002d0: c6ab 11be ddd1 0c3e 9ae8 b7be 3c03 90bd
000002e0: ad0e 8c3e 1fa0 d13e 41ed 1c3c 42f2 82be
000002f0: a123 c3ba 7c2c bc3e 1f5f 85be 5b2f 103e
00000300: d717 653e 50a7 543e ecdc e6bc c837 1bbe
00000310: 0be9 013e 0df4 cfbe a113 103c 93ee d03d
00000320: 4163 963d dea6 903e 2d13 6e3e 9709 cabd
00000330: e3c3 223d b0a5 fe3d f96e 823d 50b9 0dbe
00000340: a5b8 2c3c 3b6b 283d c038 2a3e 9a29 5e3d
00000350: 79d0 0f3e 20bc 36be 59cc f73d e5f0 0bbe
00000360: fe2b 23be ed5e 27bd c4d9 a8bd 5038 37bd
00000370: 1e04 bbbd 54d9 813e 639b a43d 91ca f73d
00000380: 702a a4be 30a3 9dbb 096c 1ebe 091a 03be
00000390: 22a0 513d 1b67 d93b 1bec ffbc f1df 49be
000003a0: 22f6 63bd c446 64be a896 f33d e1eb c9be
000003b0: 15f2 343e 7d39 c7be e99c c83d 6d91 5bbe
000003c0: 170d 06bd faec f2bd 105e 6cbe 6618 81be
000003d0: 0337 56bd 1e4b edbd 93ce 4a3d 66a6 403e
000003e0: 4adf 133d 96da a93b eabb 08bf 2dd8 99be
000003f0: 306a b33c b8e1 9fbd 236c dc3c 6c14 29be
