models/fsrcnn/track1/track1_x4__epoch_18.pth (torch, 57996 bytes, 22 tensors)

first_part.0.weight f4 [56, 1, 5, 5]
-0.0031890227 0.040708188 0.032742884 0.008869271 -0.012323407 -0.028576126 0.040196683 -0.0072664055
-0.027002469 0.0032030598 0.065757796 -0.021915594 0.051327832 0.022384342 0.02524016 0.024380438
-0.011417001 -0.0042661973 0.087066226 -0.0017324807 0.014990236 0.007861784 0.067843415 0.0007261358
-0.03897881 -0.02567392 -0.035423007 -0.04204831 0.007320081 0.046416074 -0.043286223 0.03952696
-0.047235962 -0.01932201 0.00047643177 -0.03722155 0.014992203 -0.0060920804 -0.005362209 -0.07105291
-0.002849069 0.024008665 -0.014525868 -0.007886676 -0.014735055 0.031085705 -8.248983e-05 -0.09881833
0.04374747 -0.002539686 -0.026520737 -0.046170853 -0.014434312 -0.014569985 0.020040559 -0.0115835685
-0.0045038466 -0.024118325 -0.02712418 -0.07465409 -0.04595332 -0.08763273 -0.07376685 -0.018883696
-0.058549505 0.038868494 -0.062137328 -0.075867675 -0.034515847 -0.015870253 -0.07036942 0.041204456
0.03756702 -0.044159517 -0.019740751 0.040766865 -7.687498e-05 0.051863547 0.014652446 -0.023654638
-0.045957286 -0.020752653 -0.0017181063 -0.048130922 -0.0072080367 0.0069280267 0.0885422 -0.042713195
-0.082685314 0.02216599 0.047872063 -0.04757129 -0.067774765 -0.0025580686 -0.0010385513 0.024945885
-0.06525405 -0.0236463 -0.0494248 -0.103163555 0.012876035 -0.035155766 -0.031480536 -0.0791691
-0.0077446387 -0.017905824 0.066861995 -0.00028542377 0.034081753 -0.0021400312 0.0018901471 -0.08233511
-0.053389102 -0.0069501395 0.01029653 -0.015968513 -0.08464981 -0.06002957 -0.041061144 0.03990357
-0.056499716 -0.015932806 0.04735639 -0.072708435 0.01569314 -0.081843175 -0.052466568 0.04302219
0.015903419 0.01549925 0.028332904 -0.034082416 -0.0127365505 -0.05350176 0.009104957 -0.04216933
-0.032967504 0.058042154 0.030260315 -0.022387853 0.048886426 -0.0548846 0.010537746 -0.018444998
-0.018591257 0.05474663 -0.0031723224 -0.0063785 -0.023677832 -0.034021456 -0.092246294 0.027775178
0.011047158 0.071417935 -0.012504989 -0.016076425 0.012275599 0.023353789 -0.050217677 -0.05141953
-0.015199112 -0.06028781 -0.03210216 -0.018550381 0.03205186 -0.08175515 0.015773688 -0.037224017
0.00610856 -0.018663201 -0.06994022 0.013043444 -0.0032831084 -0.0039745113 -0.06751943 0.076905295
-0.0755001 0.07834996 -0.13136087 -0.0030161138 -0.03789216 0.037753902 -0.13537674 0.06785028
0.015416103 0.024098173 -0.1669882 0.2917134 -0.09562005 0.031557154 -0.0097536845 -0.111855686
0.0280866 -0.11733053 0.07539466 0.14368315 -0.015109903 0.02657433 -0.02955482 0.01172995
0.017986255 0.04589332 -0.011863871 -0.010416818 0.021861112 0.014671493 0.043205336 -0.028632605
0.0289137 -0.015006078 0.007719727 -0.036087684 0.092500485 6.58014e-05 -0.020075941 -0.010028643
0.019288078 0.010267566 -0.016090667 -0.04612346 0.021522619 0.013801117 0.09971676 -0.05003777
0.012529518 0.07431035 -0.039995484 -0.06303854 0.05273294 -0.058515456 -0.01217137 0.008676487
0.03692438 -0.042310495 0.019221691 0.017041104 -0.009179203 0.08113191 0.064508185 0.049270563
0.052103348 0.005306839 0.022473063 -0.03399824 0.055031974 0.027464176 0.036647618 0.03093279
0.064669535 0.0514795 -0.023365002 0.022986894 -0.043230936 -0.0084413495 -0.050922293 0.012500704
00000000: ecfe 50bb a1bd 263d 671d 063d 6b50 113c
00000010: 1ee8 49bc 7b18 eabc 47a5 243d 071b eebb
00000020: 4834 ddbc 6dea 513b 06ac 863d 5588 b3bc
00000030: 223d 523d 5e5f b73c 74c4 ce3c 7cb9 c73c
00000040: 5f0e 3bbc 75cb 8bbb c74f b23d 6814 e3ba
00000050: 9b99 753c b6ce 003c 7df1 8a3d 265a 3e3a
00000060: 3fa8 1fbd 1d52 d2bc b717 11bd d93a 2cbd
00000070: 4add ef3b c81e 3e3d e54c 31bd 06e7 213d
00000080: 7f7a 41bd 3149 9ebc 97c9 f939 a075 18bd
00000090: dba1 753c 13a0 c7bb 78b5 afbb 3084 91bd
000000a0: 72b7 3abb d2ad c43c e8fd 6dbc 1e37 01bc
000000b0: 4d6b 71bc 73a7 fe3c 64fe acb8 4461 cabd
000000c0: 8c30 333d dc70 26bb 0442 d9bc a61d 3dbd
000000d0: e47d 6cbc f2b6 6ebc 192c a43c 02c9 3dbc
000000e0: 0195 93bb cb93 c5bc 8733 debc 3ee4 98bd
000000f0: 8c39 3cbd ca78 b3bd 1313 97bd fbb1 9abc
00000100: 9bd1 6fbd 9234 1f3d b683 7ebd 8360 9bbd
00000110: 7d60 0dbd 5502 82bc d81d 90bd 01c6 283d
00000120: e0df 193d 9ce0 34bd 5bb7 a1bc 28fb 263d
00000130: f137 a1b8 df6e 543d d010 703c 5fc7 c1bc
00000140: b53d 3cbd 7801 aabc 1532 e1ba ee24 45bd
00000150: 6531 ecbb 8004 e33b 9d55 b53d 08f4 2ebd
00000160: eb56 a9bd 7395 b53c 7f15 443d 1dda 42bd
00000170: 7fcd 8abd 45a5 27bb 0020 88ba 505b cc3c
00000180: eaa3 85bd e3b5 c1bc a971 4abd 6a47 d3bd
00000190: 01f6 523c 7eff 0fbd bcf1 00bd 6923 a2bd
000001a0: bdc6 fdbb 3caf 92bc f1ee 883d eea4 95b9
000001b0: 4f99 0b3d c43f 0cbb d0be f73a 4f9f a8bd
000001c0: 88ae 5abd ffbd e3bb c7b2 283c 66d0 82bc
000001d0: e15c adbd 91e1 75bd bb2f 28bd ed71 233d
000001e0: 3f6c 67bd 8485 82bc c6f8 413d 29e8 94bd
000001f0: e68e 803c 659d a7bd 2fe7 56bd 0938 303d
00000200: e347 823c 91f0 7d3c 681a e83c 019a 0bbd
00000210: f7ac 50bc a924 5bbd f52c 153c bfb9 2cbd
00000220: ef08 07bd 9cbd 6d3d 7be4 f73c bb66 b7bc
00000230: 223d 483d adce 60bd 83a6 2c3c f719 97bc
00000240: b14c 98bc 013e 603d bde6 4fbb bc02 d1bb
00000250: 03f8 c1bc 155a 0bbd a0eb bcbd c588 e33c
00000260: 24ff 343c 9143 923d bae1 4cbc b5b2 83bc
00000270: 981f 493c 7250 bf3c 0db1 4dbd 499d 52bd
00000280: b205 79bc 5af0 76bd 8e7d 03bd f8f6 97bc
00000290: d048 033d 3e6f a7bd d237 813c 3678 18bd
000002a0: 512a c83b 92e3 98bc d13c 8fbd 2bb4 553c
000002b0: 6b29 57bb 9e3c 82bb a047 8abd 8680 9d3d
000002c0: cc9f 9abd f275 a03d 7783 06be fea9 45bb
000002d0: cf34 1bbd d6a3 1a3d 33a0 0abe 16f5 8a3d
000002e0: d393 7c3c 8869 c53c f4fe 2abe 755b 953e
000002f0: 72d4 c3bd 1342 013d ebcd 1fbc 9814 e5bd
00000300: df15 e63c fd4a f0bd 8468 9a3d ad21 133e
00000310: 878f 77bc 69b2 d93c f31c f2bc fa2e 403c
00000320: e957 933c a2fa 3b3d ae60 42bc 4dab 2abc
00000330: 1316 b33c b460 703c 14f8 303d ed8e eabc
00000340: 6cdc ec3c 0edc 75bc c3f5 fc3b aed0 13bd
00000350: e570 bd3d dcfe 8938 4d76 a4bc 2d4f 24bc
00000360: 0802 9e3c 4b39 283c 93d0 83bc f4eb 3cbd
00000370: 3450 b03c 151e 623c 4d38 cc3d 68f4 4cbd
00000380: 9c48 4d3c 0630 983d 4ed2 23bd 5a1a 81bd
00000390: 7ffe 573d e7ad 6fbd 6d6a 47bc d327 0e3c
000003a0: 053e 173d c54d 2dbd cf76 9d3c c999 8b3c
000003b0: 5e64 16bc 7d28 a63d de1c 843d eecf 493d
000003c0: 526a 553d fee4 ad3b 6e19 b83c bd41 0bbd
000003d0: 3569 613d 8dfc e03c d01b 163d c366 fd3c
000003e0: 7671 843d 2bdc 523d f667 bfbc 034f bc3c
000003f0: ec12 31bd 964d 0abc e593 50bd c1cf 4c3c

first_part.0.bias f4 [56]
-0.014487921 -0.0002926987 0.008402603 -0.0022512793 0.008432792 -0.009391633 0.0049353647 0.036523383
-0.014078903 -0.0103761135 -0.012541938 -0.0039876443 -0.04608734 0.022715421 0.092499234 -0.024693878
-0.011967963 -0.002452332 0.004013728 -0.033814434 0.01019123 0.0031132614 -0.030553557 0.0012211235
-0.022326382 0.0076130345 0.0018578738 0.010873648 -0.016987722 0.0071777427 -0.00979039 -0.0011450786
-0.010878952 -0.010076312 -0.0060188086 0.01749263 -0.0057788435 0.0062421863 0.0062640705 0.01505242
0.06691727 -0.0064475136 0.014776217 -0.04870795 0.012587394 0.0017668143 0.0030490204 -0.0061498447
-0.07479858 0.009757668 -0.038788024 0.016039096 0.0226877 0.013113423 0.0009579689 0.049685933
00000000: bf5e 6dbc 5b75 99b9 12ab 093c 338a 13bb
00000010: b129 0a3c 5ddf 19bc d7b8 a13b 8b99 153d
00000020: 33ab 66bc 9300 2abc b37c 4dbc c9aa 82bb
00000030: 14c6 3cbd b115 ba3c 3d70 bd3d d14a cabc
00000040: 4615 44bc 4eb7 20bb 9785 833b 0181 0abd
00000050: 1ef9 263c dc07 4c3b 744b fabc 1b0e a03a
00000060: d1e5 b6bc c376 f93b e683 f33a 6327 323c
00000070: d629 8bbc 4533 eb3b df67 20bc 7616 96ba
00000080: a23d 32bc 1e17 25bc 6d39 c5bb b44c 8f3c
00000090: 745c bdbb 418b cc3b d542 cd3b 6d9e 763c
000000a0: ec0b 893d aa45 d3bb f217 723c fd81 47bd
000000b0: 5b3b 4e3c 7394 e73a 13d2 473b a384 c9bb
000000c0: ff2f 99bd a0de 1f3c 31e0 1ebd 6c64 833c
000000d0: 8edb b93c afd9 563c 3420 7b3a 7a83 4b3d

first_part.1.weight f4 [56]
0.2474768 0.23128414 0.25694907 0.25215772 0.24188979 0.2414423 0.24253935 0.8089159
1.7990012 -0.17105263 1.5006481 0.2551938 0.87802565 0.25092542 0.4852781 -0.012758458
0.13743727 0.2733406 0.31507057 0.2313761 0.25130582 1.4891753 0.21107876 0.21925181
0.3714304 0.22462158 2.4960976 0.25340003 0.2894958 0.27705622 0.23241054 0.22903658
3.2069528 0.46307555 0.2514479 0.25308543 0.03570662 0.34601587 0.24324915 0.25098675
0.7668559 0.2648022 0.24835776 0.2921485 0.74636626 0.325198 2.7426317 0.2599542
0.54051286 0.24629243 2.124888 0.2307541 0.17299505 0.16952065 0.27391043 0.26126227
00000000: 8f6a 7d3e c0d5 6c3e d48e 833e d11a 813e
00000010: f5b1 773e a63c 773e 3c5c 783e 1d15 4f3f
00000020: ac45 e63f 6c28 2fbe 3d15 c03f c3a8 823e
00000030: 4ac6 603f 4c79 803e 5f76 f83e da08 51bc
00000040: 5bbc 0c3e 4df3 8b3e ee50 a13e dbed 6c3e
00000050: 28ab 803e 4c9d be3f 0825 583e 8c83 603e
00000060: 202c be3e 3303 663e 10c0 1f40 a6bd 813e
00000070: cb38 943e 50da 8d3e 07fd 6d3e 9188 6a3e
00000080: b73e 4d40 3d18 ed3e c7bd 803e 6a94 813e
00000090: 1b41 123d fe28 b13e 4e16 793e 5681 803e
000000a0: ab50 443f 2794 873e 7f51 7e3e 7d94 953e
000000b0: dc11 3f3f 5a80 a63e 4787 2f40 b818 853e
000000c0: 0d5f 0a3f 1534 7c3e 2afe 0740 ce4a 6c3e
000000d0: 9d25 313e d296 2d3e fd3d 8c3e 2bc4 853e

mid_part.0.weight f4 [12, 56, 1, 1]
0.5218379 0.20793095 -0.75215966 0.24158956 0.39143458 0.36525273 -0.08892515 0.511198
0.17793474 -1.1823162 0.5116166 -0.08029513 -0.5552236 1.0592299 0.44010615 0.42399418
0.086544625 0.0585559 0.5698875 -0.24491991 0.013995514 0.71665645 -0.36252332 -0.48253527
-0.07534416 -0.08437947 0.42935178 -0.7259776 0.26991805 0.44218144 0.035933282 0.3305114
0.54490954 0.13994089 -0.54830533 -0.69141936 -0.049492806 -0.034653362 -0.28247312 0.380666
-0.10193211 0.50365484 -0.38107023 -0.11710693 -0.1568975 -0.15011759 -0.10140146 -0.61136335
-0.14629336 -0.57790464 -0.10154193 -0.2186126 -0.6302599 0.20541434 -0.29482257 -0.24154569
-0.29054585 -0.9894675 0.49323234 -0.020084497 0.0057124933 0.8127045 0.73046625 0.5224593
0.04784059 -0.0840775 -0.07714806 -0.48328853 0.18280378 0.1725719 -0.60577905 0.17234014
-0.5506967 0.22522058 0.65168 -0.08592333 0.8437058 -0.23188284 0.07576814 -0.4156564
-0.3713473 -0.085141465 0.09862614 -0.55549115 0.5626349 0.8245498 -0.20140664 0.41862166
0.18655354 -0.38227174 -0.07555091 -0.14028043 0.2624629 0.2345877 -0.703403 -0.23542754
0.24442758 0.6858919 -0.29762912 0.8400969 0.6969242 0.14551707 0.44159114 0.09610836
0.31223607 -0.10554939 0.8573674 -0.61709493 0.010941285 -0.19764133 0.6566565 -0.47927767
0.26490167 -0.59233934 -0.2655629 -0.39019164 -0.06726098 0.5903564 -0.11017764 -0.035279907
0.6436861 0.7867236 0.084387794 0.81043684 -0.42248863 -0.14452595 -0.10256558 0.37398323
-0.008726331 -0.12441756 0.45760748 0.36000916 -0.53326213 0.22735667 -0.12286216 -0.2874293
0.40635455 -0.31289113 -0.15303549 -0.25636375 -0.48617715 0.3728583 0.031778857 -0.11788248
0.48189765 0.7007856 0.6172523 0.37884256 0.30541244 0.3029503 -0.47576356 0.10586868
-0.020319473 0.12902494 -0.20814493 0.0032336786 0.15661572 0.40290996 0.2688722 0.48100102
-0.009335579 0.59695923 0.21952333 -0.53883636 -0.060924742 0.40044138 -0.34941345 -0.32295087
0.0444078 0.3034193 -0.11882498 0.16457824 0.25292638 0.029510045 -0.16371238 0.28811923
-0.5761288 -0.378624 0.5999297 -0.35572553 0.38088915 -0.4756801 0.5833836 -0.08564892
0.12796047 0.2289232 -0.058534123 0.8686855 -0.4873708 0.630492 -0.31194714 -0.44167954
0.4731435 0.05651853 -0.46065137 0.96585816 0.13267054 0.42463493 -0.103491105 -0.19508688
-0.51782453 0.1911654 -0.11585251 0.4634246 0.1369927 -0.12770477 -0.0020785718 0.18278787
-0.079671524 1.0861099 0.78208786 0.66857094 -0.97395957 -0.25053808 0.45606926 -0.09039877
0.4014787 0.553223 -0.30149132 -0.53794456 -0.560153 0.49454018 -0.20656894 0.5150897
-0.23664488 0.07680559 0.14157614 0.10127735 -0.13365808 -0.29825467 -0.19979726 0.5663161
0.4699843 -0.2746701 -0.17402859 -0.0057245344 -1.3266225 0.80990267 0.7763813 -0.071788
0.34895888 -0.17963427 0.293383 -0.41052637 0.2352831 0.2741855 0.36221343 0.038812127
-0.1284739 -0.122230925 0.51953447 0.2244403 -0.6718148 -0.28315765 0.03244293 0.20254049
00000000: 2b97 053f daeb 543e 898d 40bf 4163 773e
00000010: 1d6a c83e 6802 bb3e 641e b6bd dfdd 023f
00000020: 8634 363e 2356 97bf 4ef9 023f c671 a4bd
00000030: 2223 0ebf d894 873f 9855 e13e c415 d93e
00000040: 4f3e b13d 50d8 6f3d 26e4 113f 49cc 7abe
00000050: 714d 653c cc76 373f a89c b9be dd0e f7be
00000060: 0a4e 9abd 25cf acbd ffd3 db3e abd9 39bf
00000070: b332 8a3e 9b65 e23e c72e 133d ca38 a93e
00000080: 317f 0b3f aa4c 0f3e bd5d 0cbf dc00 31bf
00000090: f8b8 4abd aff0 0dbd 51a0 90be a7e6 c23e
000000a0: c8c1 d0bd 86ef 003f a31b c3be c2d5 efbd
000000b0: bda9 20be 6db8 19be 92ab cfbd 4f82 1cbf
000000c0: edcd 15be 8ff1 13bf 37f5 cfbd fbdb 5fbe
000000d0: b658 21bf 2358 523e fcf2 96be c157 77be
000000e0: 6dc2 94be be4d 7dbf f388 fc3e 3e88 a4bc
000000f0: de2f bb3b 670d 503f d6ff 3a3f e5bf 053f
00000100: 7ff4 433d d330 acbd cdff 9dbd 9871 f7be
00000110: ea30 3b3e b0b6 303e 5614 1bbf ef79 303e
00000120: 75fa 0cbf 39a0 663e 80d4 263f 92f8 afbd
00000130: 1afd 573f b272 6dbe 542c 9b3d ead0 d4be
00000140: 3c21 bebe a65e aebd 80fc c93d ab34 0ebf
00000150: d708 103f b215 533f 8b3d 4ebe 9455 d63e
00000160: e407 3f3e 1fb9 c3be 6fba 9abd aca5 0fbe
00000170: 8a61 863e c237 703e 3812 34bf eb13 71be
00000180: 394b 7a3e 9d96 2f3f d862 98be 9710 573f
00000190: a069 323f 6d02 153e 3c18 e23e 76d4 c43d
000001a0: 68dd 9f3e 472a d8bd 6e7c 5b3f eff9 1dbf
000001b0: 1343 333c 7d62 4abe a41a 283f e263 f5be
000001c0: 31a1 873e 8da3 17bf dcf7 87be 33c7 c7be
000001d0: 20c0 89bd 9921 173f d1a4 e1bd aa81 10bd
000001e0: 9dc8 243f b866 493f 82d3 ac3d ca78 4f3f
000001f0: 6e50 d8be 9cfe 13be e70d d2bd bb7a bf3e
00000200: e3f8 0ebc a2ce febd 874b ea3e 1f53 b83e
00000210: de83 08bf 30d0 683e 289f fbbd ef29 93be
00000220: b40d d03e 4433 a0be 56b5 1cbe 1c42 83be
00000230: 36ec f8be 48e7 be3e 8c2a 023d 5f6c f1bd
00000240: 4abb f63e af66 333f 3f04 1e3f a7f7 c13e
00000250: 055f 9c3e 4d1c 9b3e 4897 f3be aed1 d83d
00000260: 0675 a6bc 1d1f 043e f223 55be 20ec 533b
00000270: df5f 203e 374a ce3e 9ea9 893e c445 f63e
00000280: 42f4 18bc 52d2 183f b9ca 603e 2ef1 09bf
00000290: 398c 79bd a706 cd3e 52e6 b2be d159 a5be
000002a0: f4e4 353d c659 9b3e 835a f3bd 3387 283e
000002b0: 917f 813e 0dbf f13c 38a4 27be 5d84 933e
000002c0: 2d7d 13bf 01db c1be fe94 193f a821 b6be
000002d0: e703 c33e 588c f3be a158 153f b368 afbd
000002e0: 1208 033e d86a 6a3e 7ac1 6fbd 2c62 5e3f
000002f0: aa88 f9be ec67 213f 89b7 9fbe d223 e2be
00000300: dd3f f23e f97f 673d 7fda ebbe 7b42 773f
00000310: c9da 073e c069 d93e 25f3 d3bd dbc4 47be
00000320: 2690 04bf ddc0 433e 1544 edbd fd45 ed3e
00000330: d047 0c3e 0ac5 02be a638 08bb be2c 3b3e
00000340: d32a a3bd a605 8b3f e936 483f 7727 2b3f
00000350: 6a55 79bf 8746 80be e981 e93e fe22 b9bd
00000360: 9e8e cd3e 06a0 0d3f 125d 9abe bcb6 09bf
00000370: 3066 0fbf 5f34 fd3e cf86 53be ebdc 033f
00000380: 0953 72be 404c 9d3d 56f9 103e 806a cf3d
00000390: aadd 08be d6b4 98be a797 4cbe 18fa 103f
000003a0: c8a1 f03e 8fa1 8cbe 8d34 32be e094 bbbb
000003b0: c4ce a9bf c855 4f3f edc0 463f 9605 93bd
000003c0: bdaa b23e 0cf2 37be 4c36 963e 8330 d2be
000003d0: 0eee 703e 0b62 8c3e 0a74 b93e 77f9 1e3d
000003e0: a98e 03be 3554 fabd 3600 053f aed3 653e
000003f0: 0efc 2bbf 0afa 90be e1e2 043d c666 4f3e

mid_part.0.bias f4 [12]
0.0052891485 -0.020433467 -0.007167167 -0.0032873086 0.10319702 0.008296074 0.048569832 0.036613815
-0.023998296 -0.0064716395 -0.009160913 0.04036263
00000000: 9850 ad3b 1664 a7bc 8eda eabb e36f 57bb
00000010: f658 d33d 42ec 073c 29f1 463d 5ef8 153d
00000020: 1398 c4bc 0c10 d4bb a717 16bc 4953 253d

mid_part.1.weight f4 [12]
0.27712667 0.3688333 0.25078928 0.30041772 0.9333194 1.1043457 0.29929966 0.44567195
0.3050708 0.4112572 1.0895497 0.35611004
00000000: 8ce3 8d3e b8d7 bc3e 7467 803e 5ad0 993e
00000010: 05ee 6e3f 335b 8d3f ce3d 993e 1d2f e43e
00000020: 3d32 9c3e 4e90 d23e 5d76 8b3f 0e54 b63e

mid_part.2.weight f4 [12, 12, 3, 3]
0.27065328 -0.039219435 0.02878343 -0.2838703 0.14437295 -0.13010253 -0.043544214 -0.14004353
0.110385306 0.20375565 -0.22536737 0.2284282 0.035604145 -0.117841005 -0.12437871 -0.061785467
-0.16697262 0.04789606 0.08603753 0.15111135 0.054554917 0.15533675 0.00849343 -0.03131124
0.25923157 0.0585199 -0.07396457 0.017013252 -0.067880474 0.122891195 0.1473846 -0.2978321
-0.26989725 -0.14982106 -0.035177466 0.18506913 -0.1676899 -0.12129567 -0.08941093 -0.02207438
0.2698171 -0.23192845 0.03442925 -0.013685415 0.053188473 0.20285751 0.036644664 0.20355125
-0.061030213 -0.118239895 0.073107965 -0.100750506 0.06143386 -0.116674654 -0.20242856 0.03421938
-0.017485963 0.24162364 -0.11154126 0.037540633 -0.12502122 0.14387323 0.14027667 0.13284077
-0.05576389 0.25074497 0.011962378 0.009383338 -0.0061750673 0.01259049 -0.23174492 -0.20574549
-0.007872411 -0.015541613 0.045152914 -0.20217805 0.2665948 -0.09109708 -0.048770014 -0.076215625
0.024729664 -0.18855743 0.010353913 0.030253332 0.037655495 0.10805312 0.13001795 -0.12100243
-0.040978774 0.015071848 0.071044765 -0.016663747 0.23581623 -0.12981771 -0.040963683 -0.077131696
0.040153444 0.09328567 0.035809148 0.019329473 -0.043761138 -0.10832278 -0.024470126 0.07200175
0.027720248 0.05944259 0.06544341 0.008150406 0.020180745 -0.056491252 -0.027263941 0.035976257
0.0583093 -0.27129462 0.16383494 0.06968494 0.07872387 0.14360607 0.096578665 -0.023109848
0.22781023 0.10599358 -0.0022687186 0.031208511 -0.122285396 0.13604651 -0.031944815 -0.3214939
-0.1579497 0.025495276 0.06811099 -0.28496945 -0.10238462 0.109992296 -0.08164472 -0.026666695
0.27227294 -0.022063503 -0.0180431 -0.07738614 0.041493926 -0.06594107 0.36004844 -0.17929527
0.22399813 -0.1564675 -0.020962132 -0.16131721 -0.11527112 0.052428804 -0.076057486 -0.078635104
-0.01745203 -0.10776549 0.043888535 -0.26027453 0.011965831 0.120230444 0.10888552 0.15009373
-0.049227495 -0.006643495 0.19338825 -0.20236294 -0.17517093 -0.022668727 0.20524934 -0.05788365
-0.2741383 -0.005657686 0.1365424 -0.15961827 0.16849902 -0.12713704 -0.0542819 0.20097436
0.13871598 -0.06508685 -0.13244611 -0.10518543 0.075372666 -0.107058026 0.04898432 -0.028633075
0.050765116 -0.33490604 0.015137652 -0.06727395 -0.06281776 -0.11906245 -0.093916185 -0.06980914
0.017683247 -0.060550325 -0.0016749257 -0.16709396 -0.026447043 0.033120885 -0.08349732 0.13648394
0.05248031 0.26576042 -0.038757194 -0.12132053 -0.13352326 0.05843517 0.12850104 0.26397547
0.19089952 0.05369915 0.09295531 0.07451301 0.14953907 0.01416743 0.1358042 0.18453762
0.073883265 -0.15628673 -0.027594104 -0.019790716 0.18728673 0.17771432 0.16567287 -0.012471411
0.30202764 -0.07648087 -0.10756055 0.066855945 0.19303006 -0.067465216 -0.018969813 -0.06148731
0.098107934 0.094800256 0.13992462 -0.27158153 -0.2023664 0.06026301 -0.13169225 -0.0070242574
0.11198176 0.026195329 0.03902929 -0.15250097 -0.00038748095 -0.059661184 0.2568999 0.16177337
0.18167798 0.036139667 0.16723801 0.04501351 0.3230773 -0.23106736 -0.08722853 0.045727223
00000000: 1193 8a3e 8fa4 20bd 3acb eb3c 7357 91be
00000010: 81d6 133e 9939 05be 6b5b 32bd 9267 0fbe
00000020: b111 e23d 52a5 503e b4c6 66be 15e9 693e
00000030: a7d5 113d a056 f1bd 44ba febd c212 7dbd
00000040: dffa 2abe a92e 443d 7234 b03d efbc 1a3e
00000050: fa74 5f3d 9910 1f3e 0728 0b3c 3740 00bd
00000060: 00ba 843e 90b2 6f3d bd7a 97bd 605f 8b3c
00000070: eb04 8bbd 61ae fb3d fdeb 163e 737d 98be
00000080: f92f 8abe b16a 19be 3f16 10bd c382 3d3e
00000090: e7b6 2bbe dd69 f8bd 141d b7bd 55d5 b4bc
000000a0: 7825 8a3e a77e 6dbe af05 0d3d ca38 60bc
000000b0: 28dc 593d e1b9 4f3e b718 163d bd6f 503e
000000c0: d1fa 79bd c227 f2bd a1b9 953d 4856 cebd
000000d0: 12a2 7b3d 1ff3 eebd 6f49 4fbe 9f29 0c3d
000000e0: b93e 8fbc 306c 773e be6f e4bd 35c4 193d
000000f0: 9005 00be 8153 133e b0a4 0f3e 6907 083e
00000100: ad68 64bd a561 803e dafd 433c 92bc 193c
00000110: 3858 cabb 5848 4e3c 8a4e 6dbe f2ae 52be
00000120: 49fb 00bc 40a2 7ebc 43f2 383d c307 4fbe
00000130: 1d7f 883e 1b91 babd 11c3 47bd f016 9cbd
00000140: dd95 ca3c 3315 41be 75a3 293c d6d5 f73c
00000150: a63c 1a3d f44a dd3d 6d23 053e 1fd0 f7bd
00000160: 5cd9 27bd eaef 763c eb7f 913d 6982 88bc
00000170: cf79 713e efee 04be 89c9 27bd 39f7 9dbd
00000180: f077 243d 8f0c bf3d 9dac 123d d858 9e3c
00000190: e13e 33bd 55d8 ddbd 9375 c8bc a775 933d
000001a0: 9315 e33c 137a 733d 3207 863d 4889 053c
000001b0: 1752 a53c 5f63 67bd a158 dfbc d75b 133d
000001c0: bcd5 6e3d 21e7 8abe 59c4 273e fab6 8e3d
000001d0: fb39 a13d 780d 133e 09cb c53d dd50 bdbc
000001e0: 1647 693e 2913 d93d c8ae 14bb fea8 ff3c
000001f0: c470 fabd c74f 0b3e 91d8 02bd d99a a4be
00000200: 91bd 21be 78db d03c c67d 8b3d 84e7 91be
00000210: 07af d1bd a443 e13d 5935 a7bd 1d74 dabc
00000220: 5c67 8b3e 85be b4bc 20cf 93bc a07c 9ebd
00000230: 89f5 293d 1d0c 87bd 4558 b83e 2e99 37be
00000240: c45f 653e 0439 20be c7b8 abbc 5730 25be
00000250: 4413 ecbd 96bf 563d 07c4 9bbd 710b a1bd
00000260: 8ff7 8ebc 27b4 dcbd 77c4 333d b442 85be
00000270: 550c 443c 613b f63d 5fff de3d 2cb2 193e
00000280: c5a2 49bd adb1 d9bb 9207 463e 3b38 4fbe
00000290: 0260 33be c4b3 b9bc e22c 523e 6817 6dbd
000002a0: db5b 8cbe 1c64 b9bb c5d1 0b3e f972 23be
000002b0: 028b 2c3e 3630 02be b356 5ebd 39cc 4d3e
000002c0: 900b 0e3e 414c 85bd f49f 07be 756b d7bd
000002d0: fc5c 9a3d 3d41 dbbd c8a3 483d e98f eabc
000002e0: 15ef 4f3d ce78 abbe ea03 783c edc6 89bd
000002f0: 99a6 80bd 04d7 f3bd 2157 c0bd 18f8 8ebd
00000300: 75dc 903c 9e03 78bd 2e89 dbba ae1a 2bbe
00000310: 78a7 d8bc c4a9 073d a500 abbd 72c2 0b3e
00000320: 98f5 563d c011 883e ddbf 1ebd e676 f8bd
00000330: 52ba 08be b859 6f3d c795 033e cb27 873e
00000340: 2a7b 433e a4f3 5b3d 5b5f be3d 479a 983d
00000350: c520 193e 821e 683c 4210 0b3e 6ef7 3c3e
00000360: 1c50 973d a109 20be 080d e2bc 2420 a2bc
00000370: 18c8 3f3e befa 353e 26a6 293e e454 4cbc
00000380: 5ea3 9a3e 01a2 9cbd b548 dcbd c5eb 883d
00000390: aca9 453e 342b 8abd 9566 9bbc 1eda 7bbd
000003a0: d0ec c83d a326 c23d 6648 0f3e bc0c 8bbe
000003b0: 2339 4fbe 59d6 763d 55da 06be be2b e6bb
000003c0: b156 e53d 9697 d63c 2ddd 1f3d 3729 1cbe
000003d0: d026 cbb9 495f 74bd 6288 833e eba7 253e
000003e0: cb09 3a3e 3007 143d 7140 2b3e 1660 383d
000003f0: 636a a53e ec9c 6cbe dfa4 b2bd 784c 3b3d

mid_part.2.bias f4 [12]
0.013341233 0.01088252 -0.0061751627 -0.0004722598 0.038254682 -0.014871133 -0.004875591 0.0035261349
0.030493008 0.00013856812 0.03320235 0.0248123
00000000: 3095 5a3c 994c 323c 0559 cabb a399 f7b9
00000010: f1b0 1c3d 0da6 73bc 6cc3 9fbb ba16 673b
00000020: 79cc f93c 994c 1139 30ff 073d 2a43 cb3c

mid_part.3.weight f4 [12]
0.629904 0.23529877 0.25678313 1.5873119 0.7234097 0.24741863 0.9474682 0.093016714
0.17464605 0.90176654 0.30026785 0.35019433
00000000: 6341 213f 29f2 703e 1479 833e 092d cb3f
00000010: 6131 393f 4f5b 7d3e 478d 723f 8c7f be3d
00000020: 6ad6 323e 2cda 663f b5bc 993e ac4c b33e

mid_part.4.weight f4 [12, 12, 3, 3]
-0.00014823134 -0.05228711 0.19631888 0.2950173 -0.09568722 0.097655356 -0.19042814 0.08826619
-0.14941546 -0.18559821 -0.088202976 0.3539746 -0.044436093 0.17148498 -0.16026476 -0.13115448
0.0219128 0.21803153 -0.13451701 0.20305008 -0.01683753 0.11420684 0.02814835 -0.02101062
-0.013073688 0.19651712 0.087694295 -0.1368432 -0.27901542 -0.036158573 0.20511231 -0.19714548
-0.24150118 -0.16154923 0.18593329 0.094167076 -0.09714512 0.17086558 0.16352214 -0.16001748
0.40069678 0.0072425897 -0.23360845 0.101112835 0.12619044 0.0010315792 -0.046939757 0.09748246
-0.23545578 0.07933715 -0.34566692 0.047985442 0.24124041 -0.13754404 0.15686013 -0.2506487
-0.055604868 0.07048578 -0.0011852029 -0.13558942 -0.051685467 -0.2795507 0.29467466 0.07327797
-0.09340143 0.14422277 -0.044670243 0.045007903 0.08745898 -0.2209684 -0.10721872 -0.1230138
0.012172815 0.04663196 -0.07234018 -0.15499333 0.036709774 0.05596002 -0.01481351 -0.11211456
0.17987256 0.06292465 -0.032973196 0.16586952 0.077040665 0.1345286 -0.033962965 0.06144107
0.16685484 -0.341405 0.03107222 0.16293082 0.07838509 0.23202798 -0.122731656 -0.026557183
-0.031015625 0.01581725 0.06212094 0.17561871 0.008096278 0.2550062 -0.2969898 0.24046534
-0.46728188 -0.016969003 0.18478887 0.28051743 0.12204752 -0.2260703 -0.05059255 0.27019444
0.09056097 0.095440336 0.2910235 -0.24027662 0.04067703 -0.021630142 0.0648191 -0.038191415
0.289385 0.056090474 0.32432514 -0.24406303 -0.25327325 -0.07906088 -0.200337 0.13494392
-0.044324804 -0.4571286 -0.1678549 -0.043707144 -0.53972554 -0.17961629 0.112565905 0.016153157
0.15784684 0.23024209 0.17246018 0.33679226 0.059489112 0.3626828 0.33501315 -0.10345201
-0.022965573 -0.024058042 -0.033553194 -0.183872 -0.010391338 0.008630457 -0.33546185 -0.042843085
-0.023756329 -0.028497925 -0.18571655 0.2863409 -0.24323829 -0.0468282 0.13852508 -0.12340266
0.034079686 -0.06425797 0.26266757 -0.04365024 -0.05576236 0.36034235 -0.095374875 0.021517208
0.12482781 -0.041725323 -0.25558582 0.32858846 -0.25000325 -0.24252297 -0.045604542 -0.0049544564
0.0732992 0.16107401 0.13553403 0.42620075 -0.067989126 -0.26490098 -0.16019681 -0.013918329
-0.1130734 0.09595324 0.20320836 0.29918024 0.11954716 -0.4184718 0.124785945 -0.15050197
0.1947265 0.22868724 -0.034412872 0.035631433 -0.014755391 0.10093114 -0.11173509 -0.37460047
-0.024925748 0.40115654 0.39759645 0.1284514 -0.4183031 -0.2517181 0.13062732 -0.23478185
-0.25787324 -0.28639662 -0.19494349 0.064810716 0.0017344916 0.59560025 0.36175883 0.2628399
0.20688353 -0.2000379 0.147704 0.0818915 0.041419283 -0.007106818 -0.11018393 0.30368108
0.05241271 0.23148024 0.009250389 0.17341207 -0.019423688 0.03581614 0.097645424 -0.006518308
0.08198385 0.023086494 -0.039485347 0.054802462 0.187215 -0.036571868 0.15323144 0.11242313
0.026070261 -0.0045702187 -0.15878813 -0.35556492 -0.11999227 -0.08008008 0.0034395962 0.28891417
0.16584975 0.16065538 -0.26108366 0.0661809 -0.016345762 -0.46731725 -0.275145 -0.20329283
00000000: 8c6e 1bb9 022b 56bd d107 493e 820c 973e
00000010: a9f7 c3bd 88ff c73d 98ff 42be e7c4 b43d
00000020: 5e00 19be 750d 3ebe c3a3 b4bd 293c b53e
00000030: 9f02 36bd c299 2f3e 721c 24be 5c4d 06be
00000040: 7982 b33c a843 5f3e d4be 09be 5cec 4f3e
00000050: dcee 89bc 47e5 e93d 5e97 e63c 771e acbc
00000060: 0633 56bc c93b 493e 1199 b33d a020 0cbe
00000070: 1cdb 8ebe 031b 14bd f608 523e 81e0 49be
00000080: 164c 77be 296d 25be 4c65 3e3e abda c03d
00000090: 05f4 c6bd 63f7 2e3e 5972 273e 9fdb 23be
000000a0: 2128 cd3e 3f53 ed3b 0e37 6fbe 3f14 cf3d
000000b0: 1138 013e 0e36 873a e743 40bd e2a4 c73d
000000c0: 521b 71be 847b a23d 41fb b0be 628c 443d
000000d0: ba07 773e 58d8 0cbe f19f 203e 0755 80be
000000e0: eec1 63bd d95a 903d cf58 9bba f4d7 0abe
000000f0: 24b4 53bd 4521 8fbe 99df 963e c312 963d
00000100: 4049 bfbd 22af 133e 25f8 36bd 355a 383d
00000110: b21d b33d 8a45 62be 7d95 dbbd a9ee fbbd
00000120: 7d70 473c 2701 3f3d 1727 94bd 92b6 1ebe
00000130: fd5c 163d 5536 653d 5db4 72bc 529c e5bd
00000140: 8330 383e a4de 803d e70e 07bd b3d9 293e
00000150: 7fc7 9d3d dec1 093e c01c 0bbd a2a9 7b3d
00000160: ffdb 2a3e a3cc aebe 2b8b fe3c 56d7 263e
00000170: 5d88 a03d be98 6d3e bc5a fbbd 738e d9bc
00000180: 7b14 febc 2d93 813c 8772 7e3d 64d5 333e
00000190: 40a6 043c 2c90 823e 0c0f 98be 8c3c 763e
000001a0: 923f efbe 9402 8bbc 4b39 3d3e fb9f 8f3e
000001b0: 0df4 f93d f97e 67be 223a 4fbd ed56 8a3e
000001c0: 0878 b93d 3976 c33d 0801 953e 130b 76be
000001d0: f59c 263d b231 b1bc e0bf 843d 9a6e 1cbd
000001e0: 452a 943e 20bf 653d f20d a63e a9eb 79be
000001f0: 08ad 81be acea a1bd 2425 4dbe bd2e 0a3e
00000200: ed8d 35bd c30c eabe 28e2 2bbe 4306 33bd
00000210: 742b 0abf 55ed 37be f488 e63d a053 843c
00000220: 9aa2 213e 95c4 6b3e 6799 303e 0970 ac3e
00000230: dbaa 733d 8fb1 b93e d886 ab3e a6de d3bd
00000240: 4c22 bcbc 5f15 c5bc 136f 09bd f148 3cbe
00000250: 6e40 2abc c366 0d3c a8c1 abbe 3b7c 2fbd
00000260: a29c c2bc 7b74 e9bc 7b2c 3ebe 469b 923e
00000270: 7513 79be edce 3fbd 85d9 0d3e 89ba fcbd
00000280: 2497 0b3d af99 83bd 5d7c 863e 98ca 32bd
00000290: 1367 64bd cb7e b83e e753 c3bd db44 b03c
000002a0: b9a5 ff3d 2ce8 2abd 25dc 82be bf3c a83e
000002b0: 6d00 80be f157 78be d4cb 3abd fe58 a2bb
000002c0: e41d 963d 96f0 243e 6fc9 0a3e fc36 da3e
000002d0: e23d 8bbd 1aa1 87be a20a 24be b409 64bc
000002e0: 0793 e7bd 2283 c43d da15 503e 272e 993e
000002f0: 24d5 f43d f041 d6be c68f ff3d 301d 1abe
00000300: 6266 473e fd2c 6a3e 83f4 0cbd 44f2 113d
00000310: 98c0 71bc fcb4 ce3d 5ed5 e4bd a2cb bfbe
00000320: 1531 ccbc 6464 cd3e c391 cb3e c488 033e
00000330: d32b d6be 32e1 80be 2bc3 053e a76a 70be
00000340: f607 84be 94a2 92be 449f 47be 7bbb 843d
00000350: e157 e33a 4279 183f 7438 b93e f492 863e
00000360: 47d9 533e bcd6 4cbe b83f 173e bbb6 a73d
00000370: 44a7 293d 4fe0 e8bb 1da8 e1bd 167c 9b3e
00000380: b6ae 563d 2809 6d3e f28e 173c ef92 313e
00000390: 6d1e 9fbc f2b3 123d 53fa c73d 8897 d5bb
000003a0: 26e7 a73d e31f bd3c 63bb 21bd 8c78 603d
000003b0: 4ab5 3f3e 62cc 15bd b4e8 1c3e 193e e63d
000003c0: 4d91 d53c c6c1 95bb 5b99 22be 9b0c b6be
000003d0: 82be f5bd 0601 a4bd d96a 613b 8fec 933e
000003e0: 84d4 293e d882 243e c2ac 85be da89 873d
000003f0: 8ce7 85bc 3544 efbe cedf 8cbe ff2b 50be

mid_part.4.bias f4 [12]
0.083094314 0.014921202 -0.04328522 0.01883635 0.008581962 -0.0034165597 0.011800424 0.025156602
0.04281205 0.01855677 -0.049928136 -0.028814273
00000000: 5a2d aa3d 0f78 743c d84b 31bd b04e 9a3c
00000010: 5c9b 0c3c 5ce8 5fbb 9156 413c 3815 ce3c
00000020: b05b 2f3d 5e04 983c 7281 4cbd e90b ecbc

mid_part.5.weight f4 [12]
1.215026 0.7605098 0.39851266 0.26097086 2.0822878 1.5142988 -0.40522432 0.039764
0.6866005 0.97666 0.42965624 0.2451943
00000000: f985 9b3f c5b0 423f da09 cc3e f99d 853e
00000010: 3444 0540 8bd4 c13f 9079 cfbe 93df 223d
00000020: 0dc5 2f3f 6406 7a3f e7fb db3e 3714 7b3e

mid_part.6.weight f4 [12, 12, 3, 3]
0.06067032 -0.061207686 -0.024608234 0.05197751 0.13093802 0.1897688 -0.04091484 0.12936278
0.017607586 0.02195147 0.26237333 0.18149757 0.095208146 0.21795693 0.27278095 -0.0010790948
-0.27259585 0.062399138 0.06493357 -0.16381271 0.0464118 0.13184501 0.0069461926 -0.06422661
-0.18592618 -0.13046719 0.18130147 0.14525194 -0.09212331 -0.2017669 0.007978882 0.098392636
0.09980318 0.12532231 -0.372836 -0.15922296 -0.016098302 0.14377227 -0.08764575 0.1678589
0.123288095 -0.13901186 -0.038703196 0.16956095 -0.043498 -0.1291 -0.40230492 0.07675818
0.2196117 0.0032972137 0.048365284 0.08933089 0.11598195 0.15853995 0.14724383 -0.22464603
0.030670423 0.07846835 0.04775553 0.055043127 0.20249239 0.17694925 0.12404 -0.11709824
-0.08049793 0.1313023 -0.03738864 -0.16845763 0.026961658 0.06449183 0.04987213 -0.19326434
-0.07788107 0.09290808 0.12566167 -0.035311032 0.045090724 -0.016978098 -0.08716417 -0.17610699
0.020310111 -0.04123538 0.18251988 0.0005328192 -0.17354278 0.06880992 0.18075901 -0.19630252
-0.12605458 -0.23464805 -0.076307684 0.15762931 0.091162466 -0.05734703 -0.22517082 0.109268375
-0.086248584 0.17734711 -0.042620253 0.10456689 0.053847503 0.0648986 0.067132115 -0.13053566
0.0004002838 0.15376283 -0.12521686 0.023058545 0.30618596 0.14765319 -0.009301575 -0.17928782
-0.24645153 0.13045539 0.12908995 0.10293272 0.00799201 -0.12679794 -0.035503775 0.12756039
-0.0659626 0.17705993 0.06858994 0.1292074 -0.158438 0.02341221 0.13359553 0.018709496
0.015296768 0.1613185 0.086377375 0.19797827 -0.0077089807 -0.13444802 0.021167975 0.09779453
0.07167079 -0.0045446903 -0.045512 0.1892685 -0.020916507 -0.07271672 -0.19772118 0.04395167
0.038809437 -0.10366103 0.14328341 0.09837985 -0.038280163 -0.15098448 0.10528203 0.2070257
0.023281584 0.068939395 0.015720649 0.067997575 -0.23663859 0.004739084 -0.05630315 -0.039014295
0.044975176 0.035448335 0.090627566 0.018261801 -0.046029575 0.05291628 0.068735726 -0.04148006
-0.10390265 -0.06441573 -0.11086588 0.14212301 -0.061897613 0.103714816 -0.008965595 0.17382637
-0.24640426 -0.023209265 -0.035799887 -0.0923062 0.2532386 -0.33461344 0.12891115 -0.04509003
0.027462015 0.24317254 -0.023979198 0.10775859 -0.039037585 0.07503176 -0.019540176 0.045319073
0.14676194 0.20994699 -0.18245494 -0.007482911 0.14175554 0.19629394 0.09477367 0.25542393
0.05063095 -0.2151915 -0.28470734 -0.056648448 0.10336293 -0.05227069 0.3036683 -0.060445912
-0.00095242576 -0.0035751604 0.05371649 0.07356502 0.013502263 -0.23646477 -0.24608245 0.077650666
-0.2855085 -0.012864856 -0.19537453 -0.022770805 -0.13137244 -0.0710263 0.24185859 0.16494942
-0.19581723 -0.163925 -0.19872324 0.039998103 -0.14309476 0.047136016 -0.12497293 0.27307293
0.18888533 0.18561448 -0.1239486 0.13421585 0.006081602 0.08228454 0.018770972 -0.131711
0.1733188 -0.13927126 -0.26853347 0.11955622 0.08976103 0.016553925 0.16731347 0.23523839
-0.09576124 -0.15580212 -0.07522592 0.019949062 -0.30766758 -0.18368934 0.16315107 -0.06928029
00000000: 7181 783d e9b4 7abd 3597 c9bc 5fe6 543d
00000010: 9e14 063e c152 423e 5296 27bd ad77 043e
00000020: c93d 903c 92d3 b33c cc55 863e 80da 393e
00000030: 7dfc c23d 1a30 5f3e f2a9 8b3e 6a70 8dba
00000040: af91 8bbe 3d96 7f3d e4fb 843d 85be 27be
00000050: 4d1a 3e3d 6102 073e e39c e33b 3e89 83bd
00000060: 6f63 3ebe 3199 05be 18a7 393e edbc 143e
00000070: 25ab bcbd fb9b 4ebe dbb9 023c 1482 c93d
00000080: 9c65 cc3d 7e54 003e 5ce4 bebe 580b 23be
00000090: 96e0 83bc 0a39 133e 9d7f b3bd 34e3 2b3e
000000a0: 787e fc3d 2059 0ebe 3e87 1ebd 63a1 2d3e
000000b0: f52a 32bd ca32 04be e9fa cdbe 6533 9d3d
000000c0: e4e1 603e 1116 583b ad1a 463d 1df3 b63d
000000d0: f287 ed3d 4c58 223e 16c7 163e 9c09 66be
000000e0: 8a40 fb3c 04b4 a03d 4d9b 433d e774 613d
000000f0: 2a5a 4f3e 2f32 353e af08 fe3d 34d1 efbd
00000100: 19dc a4bd 1c74 063e d524 19bd 2880 2cbe
00000110: b2de dc3c 4b14 843d b846 4c3d 16e7 45be
00000120: 1c80 9fbd 9746 be3d 74ad 003e 4da2 10bd
00000130: 0db1 383d a715 8bbc 2183 b2bd 6455 34be
00000140: 6461 a63c 6ee6 28bd 7ee6 3a3e e4ac 0b3a
00000150: 33b5 31be 37ec 8c3d e418 393e 8703 49be
00000160: 7414 01be 9447 70be 3447 9cbd 9469 213e
00000170: 63b3 ba3d b8e4 6abd 2e93 66be 19c8 df3d
00000180: 19a3 b0bd 7b9a 353e 9392 2ebd 2a27 d63d
00000190: 338f 5c3d 8fe9 843d 907c 893d 24ab 05be
000001a0: 2fdd d139 0174 1d3e d938 00be 46e5 bc3c
000001b0: 68c4 9c3e 6632 173e a265 18bc 3a97 37be
000001c0: ca5d 7cbe 1996 053e 2830 043e 64ce d23d
000001d0: ebf0 023c 52d7 01be 686c 11bd 319f 023e
000001e0: 6617 87bd 334f 353e e278 8c3d f24e 043e
000001f0: 923d 22be f7ca bf3c 44cd 083e a844 993c
00000200: 4c9f 7a3c ad30 253e 9fe6 b03d d1ba 4a3e
00000210: 9e9b fcbb beac 09be 7668 ad3c 8048 c83d
00000220: 23c8 923d a0eb 94bb ca6a 3abd 9acf 413e
00000230: 1859 abbc 81ec 94bd 6c77 4abe ab06 343d
00000240: a5f6 1e3d 3c4c d4bd e3b8 123e 607b c93d
00000250: a9cb 1cbd ad9b 1abe 1b9e d73d 8cfe 533e
00000260: 05b9 be3c 1930 8d3d 97c8 803c 5042 8b3d
00000270: 6351 72be 514a 9b3b 229e 66bd 74cd 1fbd
00000280: e437 383d 4632 113d f29a b93d c699 953c
00000290: 8289 3cbd bebe 583d 51c5 8c3d ffe6 29bd
000002a0: eaca d4bd 65ec 83bd a70d e3bd b288 113e
000002b0: 5a88 7dbd 6f68 d43d 6ee4 12bc 8aff 313e
000002c0: 6651 7cbe 5b21 bebc e7a2 12bd 080b bdbd
000002d0: 7da8 813e 7452 abbe 4901 043e 53b0 38bd
000002e0: 05f8 e03c 3902 793e 0670 c4bc 89b0 dc3d
000002f0: e0e5 1fbd 40aa 993d b812 a0bc 7ea0 393d
00000300: c348 163e 58fc 563e 78d5 3abe 3533 f5bb
00000310: 5d28 113e 4701 493e b318 c23d edc6 823e
00000320: 6662 4f3d 295b 5cbe 29c5 91be 3408 68bd
00000330: f2af d33d cb19 56bd 697a 9b3e 2296 77bd
00000340: 36ac 79ba 3d4d 6abb d205 5c3d 42a9 963d
00000350: 9938 5d3c d223 72be 0afd 7bbe 5007 9f3d
00000360: 2c2e 92be 1ec7 52bc 4310 48be d789 babc
00000370: 7f86 06be 3d76 91bd c7a9 773e 80e8 283e
00000380: 5084 48be f5db 27be 1b7e 4bbe 0dd5 233d
00000390: 6f87 12be b211 413d cff1 ffbd 37d0 8b3e
000003a0: 286b 413e b911 3e3e c3d8 fdbd e16f 093e
000003b0: 2d48 c73b cc84 a83d 95c5 993c 40df 06be
000003c0: 7c7a 313e 209d 0ebe 387d 89be e4d9 f43d
000003d0: a2d4 b73d 199c 873c 3954 2b3e 55e2 703e
000003e0: 781e c4bd 978a 1fbe 0c10 9abd 376c a33c
000003f0: 9b86 9dbe 0f19 3cbe 1311 273e d3e2 8dbd

mid_part.6.bias f4 [12]
0.030269803 -0.014168575 0.030574555 0.0007547218 0.03699068 0.111681506 0.075759076 0.0933821
0.014062189 0.012374771 0.20361106 -0.041046046
00000000: 61f8 f73c 5023 68bc 7d77 fa3c 86d8 453a
00000010: 8a83 173d 46b9 e43d 9327 9b3d 1d3f bf3d
00000020: 1865 663c 8dbf 4a3c 6b7f 503e e61f 28bd

mid_part.7.weight f4 [12]
0.728114 1.8189831 0.3041604 0.26743644 -0.2518107 1.2630477 1.1262302 0.38273233
0.41758657 0.2225252 -0.19574879 0.2207859
00000000: ae65 3a3f 70d4 e83f e9ba 9b3e 6eed 883e
00000010: 55ed 80be 8cab a13f 5028 903f 7ef5 c33e
00000020: e8cd d53e a5dd 633e 5f72 48be b315 623e

mid_part.8.weight f4 [12, 12, 3, 3]
0.09958128 -0.11086999 -0.18679067 -0.08359194 0.23615462 0.12996033 -0.30769378 0.13877472
-0.08220291 -0.04318195 0.038532242 0.07067588 0.08863139 0.31751466 0.036113143 0.20255324
0.05476038 -0.0609025 0.08667044 -0.039813668 -0.013608841 -0.2259044 -0.019734858 -0.024315773
0.06627207 -0.19464168 0.0038855341 -0.06146188 -0.088766135 0.028669842 -0.17252092 -0.06897502
0.10744412 0.0051793833 -0.11063342 -0.18672499 -0.013558817 -0.011328203 0.0194637 0.11776932
-0.014088931 0.22846304 -0.07817956 0.05494882 -0.028446512 0.043616813 0.16841169 0.04396995
-0.14660643 0.085387394 0.028051922 0.3295161 -0.13851133 0.10814084 0.12905456 -0.34333315
0.031806167 0.054780625 -0.021034554 -0.04356927 -0.09549456 -0.12233503 0.04344474 -0.02120185
0.307808 0.011518028 0.04507529 0.1973287 -0.09133922 -0.18471792 -0.020399863 -0.21150544
-0.23196355 0.02785464 0.058170892 0.032737143 0.183961 -0.15214305 -0.024070553 -0.13637787
-0.12663673 0.087339416 -0.061049037 -0.133597 -0.13684691 -0.04942067 -0.025486382 0.23242272
-0.03808981 -0.0030717559 0.018600108 0.15545511 0.015518826 -0.06034053 -0.03205865 0.042849477
0.08338013 0.08163963 -0.056800447 0.14931603 0.37538582 -0.19731747 0.4327028 -0.030077303
0.20267963 -0.20018312 0.101122305 0.24428977 0.11329814 -0.10466252 -0.15413027 0.24577044
0.15393728 0.012517376 0.07590075 -0.26753667 -0.22097883 0.052905086 -0.15479915 0.006271222
0.12527746 0.20822185 -0.24687698 -0.1704684 -0.007888208 -0.10391081 0.09445911 -0.02277352
0.09437515 0.08343232 -0.28532118 0.24544439 -0.109634556 0.06929691 0.018851507 -0.04167304
0.35964075 0.052472714 0.13377349 -0.0036394794 0.07750506 -0.17914851 0.06573804 0.110172465
0.14886093 0.0032483358 -0.10602329 0.04042628 0.19798657 -0.29550856 0.15235795 -0.3283131
0.06482242 0.19191648 0.15821078 -0.046840373 0.094025664 0.2219804 0.09146597 -0.17417324
-0.069520235 0.005275654 -0.06520747 -0.009661628 0.14541067 0.09737653 0.032573134 0.031059448
-0.06295342 -0.038050707 0.043117683 0.16844365 0.19733481 0.13567322 0.14387259 -0.37279433
0.062801845 0.040123187 -0.04496882 0.068553954 0.07265823 -0.005713193 -0.01026631 0.06359087
-0.13685246 0.043241695 0.28323153 -0.069954105 0.08755004 0.2758523 0.0130401915 0.006915806
0.23856673 0.042683586 0.22878434 0.18623087 -0.008522148 0.057844393 0.0010381893 -0.04106695
0.06856909 -0.008322664 -0.16195375 -0.13062885 -0.097921744 0.07539869 0.1879232 0.18005335
-0.19632213 0.07853198 0.1816312 0.07984508 0.06879527 -0.03368939 0.0025171365 0.18136166
-0.06580216 0.16344854 0.08057713 -0.010148966 0.07988351 -0.121653475 0.05099679 0.12720196
0.14173098 0.059999127 0.051430143 0.1847124 0.019385133 0.18926002 -0.11632827 0.09827158
0.086802885 -0.12201101 0.018234886 -0.007606548 -0.14562996 -0.047085445 -0.16792339 0.028814211
-0.030729877 -0.03194131 -0.031718835 -0.20104027 -0.075702734 -0.07255876 0.23460177 0.076447286
-0.2046576 0.045873404 -0.060644623 -0.0075099273 0.06785796 0.037148032 -0.27315506 0.18327668
00000000: 45f1 cb3d ce0f e3bd 0e46 3fbe 4032 abbd
00000010: 84d2 713e 5214 053e 0a8a 9dbe f61a 0e3e
00000020: 005a a8bd 8edf 30bd fcd3 1d3d 84be 903d
00000030: 6084 b53d 4891 a23e 60eb 133d 1e6a 4f3e
00000040: 6c4c 603d e674 79bd 4680 b13d a813 23bd
00000050: 9ef7 5ebc 7c53 67be ffaa a1bc df31 c7bc
00000060: a7b9 873d 2650 47be 72a4 7e3b 74bf 7bbd
00000070: 05cb b5bd 04dd ea3c 53a9 30be c642 8dbd
00000080: aa0b dc3d d1b7 a93b c693 e2bd d634 3fbe
00000090: cd25 5ebc ed99 39bc 5672 9f3c 0b31 f13d
000000a0: 42d5 66bc 37f2 693e 9b1c a0bd 0412 613d
000000b0: a908 e9bc 8ba7 323d 1d74 2c3e d619 343d
000000c0: ff1f 16be 96df ae3d 25cd e53c 56b6 a83e
000000d0: ead5 0dbe f278 dd3d e126 043e 5dc9 afbe
000000e0: 2f47 023d a661 603d a850 acbc b175 32bd
000000f0: a792 c3bd ca8a fabd 1df3 313d 81af adbc
00000100: 0399 9d3e 1cb6 3c3c dea0 383d 8910 4a3e
00000110: 0f10 bbbd b226 3dbe 9d1d a7bc e294 58be
00000120: da87 6dbe 6a2f e43c 9a44 6e3d 6217 063d
00000130: 4660 3c3e 63cb 1bbe 9c2f c5bc a4a6 0bbe
00000140: 0fad 01be 02df b23d 8e0e 7abd a7cd 08be
00000150: 9921 0cbe 546d 4abd d1c8 d0bc 3900 6e3e
00000160: 1004 1cbd 834f 49bb 415f 983c a02f 1f3e
00000170: ad42 7e3c a227 77bd ee4f 03bd ef82 2f3d
00000180: 34c3 aa3d ae32 a73d 96a7 68bd 4de6 183e
00000190: 9232 c03e 970d 4abe 398b dd3e ad64 f6bc
000001a0: 408b 4f3e cefc 4cbe 3619 cf3d 1927 7a3e
000001b0: db08 e83d 4e59 d6bd 53d4 1dbe 3fab 7b3e
000001c0: bca1 1d3e ae15 4d3c da71 9b3d 91fa 88be
000001d0: 4648 62be 01b3 583d ab83 1ebe d37e cd3b
000001e0: bc48 003e 1c38 553e 52cd 7cbe 458f 2ebe
000001f0: 8b3d 01bc 31cf d4bd c773 c13d 888f babc
00000200: c247 c13d 90de aa3d 9e15 92be c655 7b3e
00000210: 1588 e0bd 8aeb 8d3d 7a6e 9a3c 59b1 2abd
00000220: d522 b83e a1ed 563d ebfb 083e 5584 6ebb
00000230: f9ba 9e3d b572 37be aaa1 863d 1aa2 e13d
00000240: 006f 183e 08e2 543b bd22 d9bd 0796 253d
00000250: febc 4a3e e64c 97be b903 1c3e a818 a8be
00000260: 9ec1 843d c185 443e 0202 223e b1db 3fbd
00000270: 8790 c03d d44e 633e 8352 bb3d 785a 32be
00000280: a060 8ebd 65df ac3b 7e8b 85bd ce4b 1ebc
00000290: 89e6 143e 596d c73d 686b 053d 6270 fe3c
000002a0: b9ed 80bd 0fdb 1bbd 2b9c 303d 7e7c 2c3e
000002b0: 2312 4a3e eced 0a3e 5653 133e e6de bebe
000002c0: 419e 803d 3658 243d 3a31 38bd 0466 8c3d
000002d0: d7cd 943d bd35 bbbb 0634 28bc ee3b 823d
000002e0: 0d23 0cbe 341e 313d b903 913e 1944 8fbd
000002f0: 6f4d b33d 833c 8d3e 87a6 553c fc9d e23b
00000300: d64a 743e fcd4 2e3d 7146 6a3e 4eb3 3e3e
00000310: 7ba0 0bbc 3eee 6c3d da13 883a d135 28bd
00000320: f36d 8c3d c85b 08bc 34d7 25be 92c3 05be
00000330: 328b c8bd a16a 9a3d f06e 403e e85f 383e
00000340: ab08 49be 60d5 a03d 87fd 393e d185 a33d
00000350: 89e4 8c3d e3fd 09bd 8bf6 243b dfb6 393e
00000360: 48c3 86bd 0e5f 273e 9f05 a53d d947 26bc
00000370: f799 a33d 7525 f9bd 03e2 503d 3b41 023e
00000380: ed21 113e a5c1 753d 6aa8 523d 3f25 3d3e
00000390: 92cd 9e3c 61cd 413e 843d eebd 9c42 c93d
000003a0: b6c5 b13d e9e0 f9bd 5461 953c 5940 f9bb
000003b0: 0520 15be abdc 40bd 1cf4 2bbe c80b ec3c
000003c0: 39bd fbbc e4d4 02bd 9ceb 01bd 80dd 4dbe
000003d0: 090a 9bbd b099 94bd 723b 703e 6590 9c3d
000003e0: c391 51be c0e5 3b3d 7f66 78bd d615 f6bb
000003f0: 1df9 8a3d 8928 183d fbda 8bbe e2ac 3b3e

mid_part.8.bias f4 [12]
0.009324748 0.04107613 -0.008425732 -0.017967561 0.031971328 0.0017834239 0.025152842 0.05036612
-0.042916216 0.06992477 0.04918244 0.03431557
00000000: d4c6 183c 723f 283d 150c 0abc b530 93bc
00000010: 5ef4 023d c7c1 e93a 550d ce3c b44c 4e3d
00000020: eac8 2fbd b834 8f3d 8773 493d 7c8e 0c3d

mid_part.9.weight f4 [12]
0.3287172 0.02870009 -0.15108974 0.26056418 0.7679117 1.2507358 -0.15964179 0.9964053
0.26794988 0.41744354 0.08045985 1.7086481
00000000: 9f4d a83e 731c eb3c 45b7 1abe ab68 853e
00000010: dc95 443f 1c18 a03f 2379 23be 6b14 7f3f
00000020: ba30 893e 29bb d53e 22c8 a43d fbb4 da3f

mid_part.10.weight f4 [56, 12, 1, 1]
-0.08298758 0.17280833 -0.056991387 -0.3830499 -0.09238191 0.24384457 0.0959837 0.28748283
-0.15909962 -0.0916037 0.37432036 -0.13409747 0.05866362 0.16074787 0.069117375 -0.040471375
-0.24266234 0.3023439 -0.0694619 0.31712717 0.023493985 0.08949797 0.21266279 0.09031614
-0.04206912 0.11555807 0.0036599897 -0.22576052 -0.33463058 -0.32078636 0.34402984 0.03421048
0.058713343 -0.15453257 -0.18679191 -0.009989707 0.05629994 -0.21391472 -0.043531135 -0.13503547
-0.17665996 -0.34497383 0.3233828 0.56132287 -0.2977145 -0.040814824 0.11982788 0.16582502
-0.16876563 0.16167079 0.33472252 0.13389899 -0.06926133 0.22589584 -0.06898393 0.2643306
0.20616905 -0.035991624 0.15097407 -0.2455061 -0.1600782 -0.09226211 0.15040557 0.29479542
-0.1635846 0.021671604 -0.21733335 -0.17079535 0.14906552 -0.32018572 0.07096865 0.14996177
0.23195328 0.090611875 -0.32951567 -0.15457909 0.34344965 -0.20727168 -0.027094945 -0.06665009
0.3013824 -0.20901763 0.013740614 -0.17836015 0.17257369 0.009760614 0.15173785 0.3795254
0.044095695 -0.11532119 -0.30288732 -0.19932647 0.069813736 0.3779145 0.74100685 0.14686856
-0.26818943 0.10977062 -0.101046845 -0.03511594 0.12378749 -0.1215309 -0.01841429 -0.065184295
-0.06579605 -0.4943785 -0.026897874 0.31271097 -0.39675453 0.12760283 0.13416103 -0.14423361
0.107221484 -0.22542305 0.011567832 0.08417691 -0.17739111 -0.1472482 -0.06331267 0.15763566
0.013758653 -0.20876539 -0.07407232 -0.24447353 0.16227235 0.0037807813 -0.08190458 -0.3435223
-0.18753938 0.20570873 0.1885509 -0.17625938 0.050249826 0.143253 0.076694235 -0.3161556
0.037606847 0.14806756 0.13282776 0.04466875 -0.32914674 -0.03552512 -0.14292367 -0.07377019
0.059502356 0.20185295 -0.010789564 -0.044159174 0.05484045 0.050577484 -0.070884876 -0.031985335
0.23931699 0.31557944 -0.37465233 -0.17912824 -0.2946379 -0.04279234 -0.23634434 -0.09547797
0.033942662 -0.14780381 0.0026707645 0.23038955 0.31508046 0.5695875 0.62273496 -0.43425548
-0.14884858 -0.014871871 -0.07570848 0.03139898 0.2812748 0.065594696 -0.025794921 0.0023025877
0.16063185 -0.007678815 -0.14102189 0.15551469 -0.13824134 0.131804 -0.35784158 -0.06337103
0.2714864 0.40685114 0.006197721 -0.23737566 -0.0032562977 0.37051675 -0.23666011 0.116918914
0.22159876 0.20465 -0.030204916 -0.15060624 0.12481394 -0.40889785 0.0068191085 0.09649477
0.07610463 0.27947667 0.23595974 -0.10063013 0.037578754 0.121911705 0.062136218 -0.13753608
0.009110807 0.03861872 0.16441028 0.050667655 0.14225587 -0.18131585 0.122826695 -0.13822462
-0.16303878 -0.05090221 -0.08477675 -0.03649593 -0.099474706 0.2461523 0.067486614 0.11542097
-0.32660228 -0.013465475 -0.15449059 -0.13414717 0.055587348 0.010771118 -0.027861416 -0.20142384
-0.053554505 -0.2201997 0.12376915 -0.39309168 0.17288923 -0.38552955 0.09219005 -0.20829906
-0.029817624 -0.11647083 -0.22897884 -0.25332427 -0.05025064 -0.113864586 0.051510997 0.19225542
0.033003718 0.00865939 -0.53614545 -0.30068082 0.019655988 -0.08010618 0.026036028 -0.1658165
00000000: 64f5 a9bd abf4 303e cd6f 69bd 1e1f c4be
00000010: ba32 bdbd 64b2 793e 1a93 c43d f330 933e
00000020: 03eb 22be b89a bbbd eba6 bf3e d950 09be
00000030: 4449 703d 179b 243e 698d 8d3d 50c5 25bd
00000040: 7a7c 78be d2cc 9a3e 0a42 8ebd 7e5e a23e
00000050: 7576 c03c b64a b73d 46c4 593e abf7 b83d
00000060: ab50 2cbd b6a9 ec3d 70dc 6f3b c42d 67be
00000070: b354 abbe 1c3e a4be ae24 b03e 4a20 0c3d
00000080: 677d 703d c93d 1ebe 6146 3fbe deab 23bc
00000090: c49a 663d 760c 5bbe b44d 32bd bd46 0abe
000000a0: 59e6 34be 69a0 b0be 6e92 a53e dbb2 0f3f
000000b0: 096e 98be 722d 27bd 5268 f53d 09ce 293e
000000c0: e6d0 2cbe 078d 253e c060 ab3e d11c 093e
000000d0: e2d8 8dbd 3d51 673e 7247 8dbd 5756 873e
000000e0: fb1d 533e f46b 13bd f298 1a3e f365 7bbe
000000f0: 8aeb 23be ebf3 bcbd eb03 1a3e 6def 963e
00000100: b982 27be a688 b13c a28c 5ebe fae4 2ebe
00000110: a2a4 183e 62ef a3be 0358 913d 948f 193e
00000120: 2985 6d3e b892 b93d 47b6 a8be fb49 1ebe
00000130: a2d8 af3e 073f 54be 38f6 ddbc d87f 88bd
00000140: cb4e 9a3e b808 56be 5020 613c 0ba4 36be
00000150: 28b7 303e fbea 1f3c 2b61 1b3e 2751 c23e
00000160: b09d 343d 842d ecbd 0c14 9bbe 3d1c 4cbe
00000170: 81fa 8e3d 027e c13e a0b2 3d3f b664 163e
00000180: 2050 89be 6bcf e03d a6f1 cebd bbd5 0fbd
00000190: 4c84 fd3d 31e5 f8bd 91d9 96bc 587f 85bd
000001a0: 14c0 86bd 2e1f fdbe ee58 dcbc a71b a03e
000001b0: 6923 cbbe 51aa 023e 8261 093e fab1 13be
000001c0: f096 db3d 4dd5 66be 0187 3d3c f264 ac3d
000001d0: 04a6 35be 3bc8 16be 13aa 81bd 3e6b 213e
000001e0: f96b 613c 98c6 55be 3ab3 97bd 4557 7abe
000001f0: b92a 263e fcc6 773b 97bd a7bd 28e2 afbe
00000200: 530a 40be 4fa5 523e 7d13 413e 577d 34be
00000210: c3d2 4d3d eab0 123e de11 9d3d 26df a1be
00000220: a309 1a3d 069f 173e 0004 083e 94f6 363d
00000230: ec85 a8be ca82 11bd 955a 12be d314 97bd
00000240: beb8 733d 8ab2 4e3e b6c6 30bc 40e0 34bd
00000250: 61a0 603d 562a 4f3d 172c 91bd 0e03 03bd
00000260: 830f 753e a193 a13e 6ed2 bfbe 656d 37be
00000270: c7da 96be 0547 2fbd 4004 72be f489 c3bd
00000280: 7607 0b3d e259 17be fe07 2f3b 3deb 6b3e
00000290: 3a52 a13e 7dd0 113f 8f6b 1f3f bc56 debe
000002a0: c36b 18be 26a9 73bc 0c0d 9bbd 389c 003d
000002b0: 4003 903e 8356 863d df4f d3bc 03e7 163b
000002c0: ad7c 243e 929e fbbb 0b68 10be 3e3f 1f3e
000002d0: 238f 0dbe a1f7 063e 0337 b7be acc8 81bd
000002e0: 4400 8b3e cb4e d03e 4116 cb3b 9b12 73be
000002f0: 9c67 55bb 5fb4 bd3e 0757 72be 2f73 ef3d
00000300: c9ea 623e c58f 513e 4d70 f7bc 8638 1abe
00000310: 739e ff3d 0f5b d1be d472 df3b 0d9f c53d
00000320: bfdc 9b3d 9117 8f3e 6e9f 713e 2b17 cebd
00000330: 2eec 193d d8ac f93d 8c82 7e3d 42d6 0cbe
00000340: 7f45 153c aa2e 1e3d 2b5b 283e e388 4f3d
00000350: 86ab 113e ddaa 39be 908c fb3d c18a 0dbe
00000360: a3f3 26be d67e 50bd 6f9f adbd c27c 15bd
00000370: 65b9 cbbd 590f 7c3e 6c36 8a3d d461 ec3d
00000380: 6a38 a7be 4c9e 5cbc c832 1ebe e05d 09be
00000390: 8faf 633d 5879 303c a03d e4bc 0d42 4ebe
000003a0: f85b 5bbd 087c 61be ae7a fd3d 5043 c9be
000003b0: e009 313e 2164 c5be 23ce bc3d 594c 55be
000003c0: 1744 f4bc 4288 eebd 6e79 6abe b8b3 81be
000003d0: 9dd3 4dbd d631 e9bd 32fd 523d 9bde 443e
000003e0: e82e 073d 1de0 0d3c d440 09bf d6f2 99be
000003f0: 9805 a13c b50e a4bd 8249 d53c cdcb 29be
