models/fsrcnn/track1/track1_x4__epoch_0.pth (torch, 57971 bytes, 22 tensors)

first_part.0.weight f4 [56, 1, 5, 5]
00000000: 5929 c2bc 3a85 4c3d 42ef f03c 5f31 913c
00000010: b913 69bb a8c1 f5bc 4ff9 823c 53a5 19bd
00000020: 41e3 0cbd 9183 8c3a 9f0b 103d dc63 74bc
00000030: 9029 163d 5419 353c 2f21 933c 13ba 323d
00000040: 5371 2fbd 630d f0bc 9ea6 813d 50e7 34bb
00000050: c6dc 5dbc ed9d 023c 06f0 7a3d 35b1 b53b
00000060: df82 37bd a670 14bd 153c 1ebd 7688 4abd
00000070: ba38 5c3b 8853 303d 1e56 34bd 7c3d 3b3d
00000080: 7f95 05bd 56d3 bbbc 08d3 7c3b 976c 94bc
00000090: bb48 a23b 97ad e03b f0cd 0a3c 019d 78bd
000000a0: dc6d 11bc 9425 233d 64e8 a83b 3917 5cbb
000000b0: bc78 4cbc 5385 1d3d 6f7b acbb 56de adbd
000000c0: 4a74 3c3d 2fb2 023c 21f7 90bc a132 67bd
000000d0: ce75 7ebc 816c 9bbc 5077 803c c6af b93b
000000e0: 038d dbba 5e6b 99bc c274 d6bc e3b7 89bd
000000f0: 24fc 09bd 35d3 93bd c925 39bd cbf6 8cbc
00000100: 13e9 69bd 11dc 333d b5a7 7bbd e1df 6cbd
00000110: 3829 d5bc d92d a2bc 7fc2 44bd 12e8 373d
00000120: 5aa0 263d 5a59 15bd 7547 b7bc e3fe e83c
00000130: 6ea8 86bb ab28 4c3d 4706 993c acdb d4bc
00000140: ce04 24bd c3ca 41bc 2ebc 9b3c 47a8 5abd
00000150: e02b 85b9 1846 893c e5fe 9f3d ef7f 28bd
00000160: 0e09 81bd 381f 043d adea cd3c 01ce 2abd
00000170: 9045 2ebd 9461 0abc 3110 4eba 278c 033d
00000180: a399 94bd 38b3 8fbc 949e 34bd 2e59 bebd
00000190: e51e fd3b 197c 33bd d5cc 17bd e780 b1bd
000001a0: 3fb4 9ebc 494f 0fbc 33df 883d 773a dbba
000001b0: 109f 223d 7df2 56bb bee6 613c 3a2e 9abd
000001c0: 9ac3 98bc e692 bdba f673 be3c 16d7 e6bb
000001d0: 1920 aebd 84f6 3cbd c974 f6bc f5e9 3b3d
000001e0: 8a22 3cbd ff48 acbc db92 633d f349 8fbd
000001f0: eff4 a63c 4f12 94bd 3f26 4dbd edae 463d
00000200: 7d2a c93c 0fe8 3f3c c584 d13c af07 24bd
00000210: 475d 1cbc 88cc 57bd 9313 28bb 6f43 4bbd
00000220: 527c 5ebc d317 c23c 5be5 073d 40cb 16bd
00000230: 09e2 4f3d e960 63bd 103c f93c b463 59bc
00000240: 5286 2cbc c46c 4e3d dad3 69bb 4c2b 96bb
00000250: 3b74 39bc 3ab1 e8bc eb1f b6bd ac9c 523c
00000260: d21c ce3b 9e50 833d 5f1b b6bc b108 93bb
00000270: 7e1f 733c 754d c93c 495c 3fbd f424 49bd
00000280: c06d 13bc fc62 4cbd 17e5 aa3a 3acc 94bc
00000290: 0f0a 1d3d 18a3 afbd 59cc 3b3c 9370 c4bc
000002a0: 15b2 4e3c c32f aabc 4f6d 6abd c6e5 2f3c
000002b0: f05f b0bb 4f45 adb8 7d57 91bd 83ef 073d
000002c0: 2318 4bbb 28c5 e53c a828 d1bd b00c a4bc
000002d0: 1b59 79bd 0b66 72bd 0c70 383d 0754 963c
000002e0: 0d95 6cbc 40c8 a73c 1f53 49bc 3f9d 963d
000002f0: 9712 803c 5e15 e43c c8e6 223b dd05 62bc
00000300: 6f24 a23d 7bcf 8fbc 8341 2a3d 340b 203d
00000310: b139 04bc cffe 003d f1d4 90bb 9e30 25bc
00000320: 27d7 0d3d f1d9 7c3d 6376 0dbc 2aa4 b63b
00000330: 7e84 e73c 449d b53c 33a8 fa3c f238 d93b
00000340: 27ba 903c 4302 13bc 3a04 533c ad88 c8bb
00000350: b8d1 1f3d d983 843c 324d b3bc d314 65bc
00000360: 6c70 e13c 0cda 263d 5f6b 33bc e11f 33bd
00000370: 8778 043d 8c98 f03c 3a07 ba3d 18b3 20bd
00000380: 77ab 2b3c a524 ae3d 24b4 2ebd dce6 5fbd
00000390: 3d20 553d ed41 74bd 11cd 58bc 9455 01bb
000003a0: ddd1 c83c 5457 3abd ad3d 623c ec2e 1d3c
000003b0: d9e5 23bc 382a 903d 97b6 313d fd6e 1d3d
000003c0: b078 503d 5704 e0bb 60d7 5e3c 552b 29bd
000003d0: ea05 3a3d 2345 303d 2206 2f3d ed4e af3c
000003e0: 367f 783d ed31 403d caa1 edbc 3c97 2a3d
000003f0: 037a 34bd 77f3 fb3a 85d6 44bd 277c ec39
-0.023701357 0.049931742 0.029410962 0.017723737 -0.0035564734 -0.029999569 0.01598802 -0.03751118
-0.034396414 0.0010720362 0.035167333 -0.014916386 0.03666073 0.011053402 0.01796016 0.043634485
-0.042832684 -0.029303258 0.06330608 -0.0027603693 -0.013541406 0.007972223 0.06126406 0.0055448064
-0.044802543 -0.036240242 -0.038631517 -0.049446546 0.0033603148 0.04304841 -0.04402744 0.045712933
-0.032613274 -0.022927921 0.0038577933 -0.018118186 0.004952518 0.006856631 0.008471951 -0.060696606
-0.00887629 0.03983076 0.0051546562 -0.0033583178 -0.012479957 0.038457226 -0.005263738 -0.08489673
0.04600934 0.007977053 -0.017695965 -0.056444768 -0.0155310165 -0.018972637 0.015681893 0.005666706
-0.0016750399 -0.018727954 -0.026178721 -0.06724527 -0.033687726 -0.07218019 -0.04520205 -0.017207524
-0.057107043 0.043911044 -0.061439235 -0.057830695 -0.026020631 -0.019797252 -0.04803705 0.044899054
0.040680267 -0.036462165 -0.02237294 0.028441852 -0.004109434 0.04984347 0.018679751 -0.025983654
-0.040043645 -0.011828127 0.01901063 -0.053383138 -0.00025400426 0.016757056 0.07812289 -0.041137632
-0.06300555 0.032256335 0.025136316 -0.041700367 -0.04254681 -0.008446116 -0.0007860689 0.03211608
-0.072558664 -0.017541513 -0.044096544 -0.092943534 0.00772463 -0.04381952 -0.037060577 -0.08667164
-0.019373057 -0.00874693 0.06683197 -0.0016725798 0.039702475 -0.0032798343 0.013787923 -0.07528348
-0.018647958 -0.0014463335 0.023248654 -0.007044683 -0.08502216 -0.046133533 -0.030084984 0.045877416
-0.045931377 -0.021030901 0.055559974 -0.069965266 0.020380465 -0.072300546 -0.050085302 0.048506666
0.024556393 0.011713042 0.025576005 -0.04004639 -0.009543723 -0.05268529 -0.0025646433 -0.049624857
-0.013579445 0.023693 0.033177715 -0.036814928 0.050752673 -0.055512343 0.030424148 -0.0132684
-0.010530071 0.050396696 -0.0035679252 -0.004582798 -0.011319215 -0.02840482 -0.088928066 0.012854736
0.0062900567 0.06411861 -0.022229848 -0.00448712 0.014839051 0.024573067 -0.04671887 -0.049107507
-0.008998334 -0.049899086 0.0013038245 -0.018163789 0.03833967 -0.085760295 0.0114622945 -0.02397946
0.0126157 -0.020774728 -0.05723315 0.010735935 -0.0053825304 -8.2621926e-05 -0.07096765 0.0331874
-0.0030989728 0.028048113 -0.10212833 -0.020025581 -0.060875993 -0.059179347 0.04502873 0.018350614
-0.014439833 0.020481229 -0.012287884 0.07354211 0.015633864 0.02784222 0.0024856795 -0.013795343
0.079171054 -0.01755499 0.041566383 0.039073184 -0.008070395 0.031493004 -0.004419916 -0.010082392
0.034629013 0.061731283 -0.008634183 0.005573769 0.02826142 0.022169717 0.030597782 0.006629103
0.01766689 -0.008972707 0.012879426 -0.0061198086 0.039018363 0.016176151 -0.021887396 -0.013982016
0.027519427 0.04073529 -0.010950892 -0.043731574 0.032341506 0.029369615 0.090834096 -0.039233297
0.010477892 0.08503083 -0.042652264 -0.054663524 0.052032698 -0.059633184 -0.013232485 -0.0019734846
0.024514133 -0.04549344 0.01380865 0.009593707 -0.01000353 0.070393026 0.043387022 0.038435925
0.050896347 -0.006836455 0.013601154 -0.04130109 0.045415796 0.043034684 0.042730458 0.02139994
0.060668193 0.046922613 -0.029007811 0.041648135 -0.044061672 0.0019222338 -0.048056144 0.00045105928

first_part.0.bias f4 [56]
00000000: 7abf a9bb f65e 1dbb e129 9e3a ef50 05bb
00000010: abd2 423b 1724 2fbb ffd8 f5ba ae58 823b
00000020: cf3a 8db8 7b6e 16bb 255d 37bb de06 073a
00000030: 8f9f 5f3b a3bd 933b f951 003d 615c 78bb
00000040: 8ad0 be3c 4446 18bc 2242 e03b 531d 1fbc
00000050: 8f29 c33a f9a5 203b 78ad 42bb 2d96 50bb
00000060: 9f77 06bc 0f88 08ba c9a8 ab3a ac22 013b
00000070: a779 0dbc 2fe2 53ba f4d8 fbba 985d d6b9
00000080: 3470 87bb 392c afba 548b b13a 97a4 333c
00000090: e5e5 31bb eab0 833b 5080 3cb9 1318 7a3c
000000a0: d672 ed3c e57b 56bc e4b8 ea39 8f21 c8bc
000000b0: 1f3c beba cb8d 173b a0b2 d03b 76ff 38b7
000000c0: 2f73 debc 25e4 713c d140 36bc ef0a 2e3b
000000d0: a2ff a7bb 9d10 153b 2a34 0dbb 98b3 b53b
-0.0051802965 -0.00240129 0.0012066924 -0.002034243 0.0029727619 -0.0026724392 -0.0018756686 0.0039778566
-6.734358e-05 -0.0022954035 -0.0027979102 0.00051508646 0.0034122204 0.0045086904 0.031328175 -0.003789686
0.023292799 -0.009294096 0.006843821 -0.009711581 0.0014889705 0.002451299 -0.0029705446 -0.0031827793
-0.008207231 -0.00052082626 0.0013096567 0.0019704504 -0.008634961 -0.0008082715 -0.0019214437 -0.00040886994
-0.0041332487 -0.001336462 0.0013545551 0.010964534 -0.0027145084 0.0040188925 -0.00017976877 0.015264529
0.028985422 -0.013091062 0.00044769712 -0.024430064 -0.0014513767 0.0023125287 0.00636895 -1.1026734e-05
-0.027154533 0.014763867 -0.011123852 0.002655681 -0.0051269094 0.0022745498 -0.0021545985 0.005545091

first_part.1.weight f4 [56]
00000000: 0cc0 753e 4c82 7c3e d3a1 823e 16a5 813e
00000010: 6e5f 813e 6acc 773e f684 7f3e 2135 863e
00000020: 798e 873e a6e4 873e 9daf ea3e 8ab1 7f3e
00000030: 0179 f23e 591a 813e e250 723e 91b3 513e
00000040: e5ff 8d3e a35e 803e 1e21 7e3e b333 a23e
00000050: 425f 823e 877d a33e 22e5 7a3e 1c86 803e
00000060: 2518 923d 5fa7 7d3e e498 7a3e 86b8 813e
00000070: b3a0 883e 9842 7d3e 5aa2 7f3e 7bc7 c33e
00000080: cdf7 863e 032e 823e 025d 7b3e 6a94 813e
00000090: d324 6a3e b1c1 573e 25db 8c3e f153 803e
000000a0: fbad 963e cc10 853e 0d7b 843e 7bcd 9b3e
000000b0: e85e a33e 0393 783e 19b8 f13e aa2b 7e3e
000000c0: 9870 d33e be8a 783e 459a 293f 9e14 7b3e
000000d0: 72a0 673e c57b 5e3e bd94 863e 8c5f 843e
0.23999041 0.2465908 0.25514087 0.25321263 0.2526812 0.24199072 0.24953064 0.2621241
0.26475886 0.26541632 0.45837107 0.2497007 0.47357944 0.25215414 0.23663667 0.20478655
0.27734295 0.25072202 0.2481732 0.31680068 0.254633 0.31931707 0.2450147 0.25102317
0.071335115 0.24770878 0.24472386 0.25336093 0.26685104 0.24732435 0.24964276 0.3823813
0.26360932 0.2542573 0.24547198 0.25308543 0.2286561 0.21069981 0.27510944 0.25064042
0.29429612 0.25989377 0.2587513 0.30430207 0.31908345 0.2427483 0.47210768 0.24821344
0.4129684 0.24271676 0.6625102 0.24519584 0.22619799 0.21726902 0.26285353 0.25854146

mid_part.0.weight f4 [12, 56, 1, 1]
00000000: 478b 013f 43b7 593e b23b 42bf 2561 793e
00000010: c11d cb3e f919 983e f2f2 99bd 3d4f f43e
00000020: 1c3c 283e d894 97bf 6a7e 003f d486 8dbd
00000030: f5b9 0cbf a1c0 873f 8bb3 d73e 8e58 c63e
00000040: 6c26 b23d 9367 a33d c5b8 0e3f d107 78be
00000050: 9549 f13b c4f1 343f d634 bcbe 8cd9 eabe
00000060: ebb2 88bd 2622 95bd f7c3 ce3e 0950 38bf
00000070: 54ed 843e 5038 b73e 696b 583d f499 b63e
00000080: f06b 083f 084e 073e 8e96 14bf 7441 2fbf
00000090: 6bbb 2ebd 2ec1 58bd 4ca3 52be 020f b83e
000000a0: 9f8e 98bd 18db 003f 8191 c7be 3a12 07be
000000b0: d98f 02be 3eaa 0ebe 1568 07be 8c5a 1bbf
000000c0: d7a5 2fbe f5b1 20bf 1f95 ddbd 40f0 05be
000000d0: 4ca6 28bf 9087 0d3e d744 97be 7f15 21be
000000e0: 4904 a7be aa1f 6fbf 145c fc3e 355f 0f3d
000000f0: 4fcf adbc 3060 513f 7160 3d3f 3719 ef3e
00000100: f83d 693c 038d d4bd 1d45 23bd 8473 fabe
00000110: 44ee 383e c761 333e 38eb 18bf 0689 a33d
00000120: 9e11 06bf c472 743e fdf6 1d3f 2714 f3bd
00000130: ae4c 5a3f 43df 78be 06be cd3d 8c0f babe
00000140: 1558 bfbe e718 babd 264d a33d f732 0bbf
00000150: d048 0c3f 7b40 433f 40cd 2bbe d8aa cd3e
00000160: bf65 083e 3425 d5be 42ee 83bd 6778 1bbe
00000170: 13cc 7f3e b2ae 6b3e 3cc7 0abf a587 74be
00000180: 10f0 653e 7f0a 373f 8e47 89be 21fe 533f
00000190: 6cd3 3a3f b327 073e 3647 da3e 33f8 ba3d
000001a0: d3bb a03e 87d5 04be 1fc4 573f 89be edbe
000001b0: 0df9 763b edbb 23be 8006 2a3f d3ec e4be
000001c0: f019 8f3e 3f84 1cbf 6286 89be c7eb c9be
000001d0: e201 a8bd a637 1a3f bbe7 f2bd 8878 89bd
000001e0: 15a4 263f 62ad 493f feb4 d13d d905 523f
000001f0: 82ae d9be 074b 1abe 9a1d e4bd 2dc1 d13e
00000200: 681e 88bc e6d6 19be e22d f63e cad3 ba3e
00000210: 42a8 09bf 66c6 6f3e 62a3 06be 323f 9dbe
00000220: fb3f d33e 4d05 abbe fd56 23be 2564 82be
00000230: 7408 fbbe 08fa df3e 71dd 913c ee57 23be
00000240: 9dbc f93e 9500 333f f1e7 243f 309f c23e
00000250: 094b a63e 2052 9f3e 4a3e f0be c8db dd3d
00000260: 855c c6bc e161 073e c69f 59be 8b10 a9bb
00000270: 4007 0e3e 0c7d d73e 3f88 703e ea86 f73e
00000280: 501b 65bc 4e99 173f 367a 603e 7bfd 11bf
00000290: 1255 723c 8c94 de3e 8348 b3be 4268 a3be
000002a0: e53e 753d de06 913e 30dd 09be 50f4 193e
000002b0: 580f 853e 0ad5 72bd fa6d 10be 5a4f 8f3e
000002c0: d138 13bf 55d1 c5be 1159 0f3f ddbd b2be
000002d0: dab8 ba3e 1295 f7be 8571 1d3f 8893 98bd
000002e0: e3cf 033e 7faa 733e 0f80 1b3c 9c50 5d3f
000002f0: 2850 f4be b7d8 1e3f 1ccd abbe 85a0 b1be
00000300: 5301 f13e 6bbc 8b3d 282e e7be 0e42 753f
00000310: efc9 ff3d 89e4 d03e 6fb3 16bd e977 babd
00000320: 5608 06bf 2fa4 573e 871f 0bbe 1a1e ee3e
00000330: 95bc 0c3e fc39 02be 05d5 5ebd 9611 1c3e
00000340: e616 b4bd bae4 873f 7234 453f 0880 2e3f
00000350: 5241 76bf f9c2 61be 8d50 f73e beae c4bd
00000360: 793c c43e d93d 073f dd8e 8cbe 55dd d1be
00000370: f163 88be d378 e93e 1389 50be f5ef ff3e
00000380: 87e7 66be a420 733d 8fc0 0d3e ac6a 253e
00000390: 20b1 2cbe 0494 c9be ac08 10be 3193 e03e
000003a0: 9b1e e83e 224e a3be 0152 fbbd 63e5 483d
000003b0: 8c47 aebf 1e34 543f cae3 313f a61d 9fbd
000003c0: 6718 843e 6fdb 0cbe abaa 763e ff50 aabe
000003d0: 51ea 743e 9074 8c3e 4096 b23e bab9 253c
000003e0: 38ef fabd 6fcc 0fbe 4368 f33e aeaf 8f3e
000003f0: 07d0 2bbf 00de 85be 6adb af3d 9724 413e
0.50603145 0.21261315 -0.7587234 0.24353464 0.39671138 0.29707316 -0.07517041 0.47716704
0.1642918 -1.1842299 0.5019289 -0.06910482 -0.5497125 1.0605661 0.42129168 0.38739437
0.08698735 0.079787396 0.55750686 -0.24221732 0.007363508 0.70681405 -0.3675906 -0.458691
-0.06674751 -0.07281904 0.40383884 -0.71997124 0.25962317 0.3578515 0.05283681 0.35664332
0.532897 0.1321336 -0.5804223 -0.6845925 -0.042659204 -0.052918606 -0.20570105 0.3594895
-0.07449078 0.5033431 -0.38978198 -0.13190547 -0.12750186 -0.1393213 -0.13223298 -0.6068504
-0.17153107 -0.6277154 -0.10819458 -0.1307993 -0.6587875 0.13821244 -0.29544708 -0.15730856
-0.32620457 -0.9340769 0.49289 0.035002906 -0.021217017 0.81787395 0.7397528 0.46698925
0.014235966 -0.10378458 -0.039860833 -0.48916256 0.18059641 0.17517768 -0.59733915 0.079851195
-0.5237063 0.23871905 0.61705 -0.11869078 0.85273254 -0.24303918 0.1004601 -0.36339986
-0.3737189 -0.09086781 0.07973699 -0.5437464 0.54798603 0.76270264 -0.16777515 0.40169406
0.13320063 -0.41629946 -0.064419284 -0.15182649 0.24980192 0.2301586 -0.5421026 -0.2387987
0.22454858 0.7150039 -0.26812404 0.82809645 0.72978854 0.13198738 0.42632455 0.091293715
0.31393299 -0.12972079 0.8428363 -0.4643443 0.0037685067 -0.15989657 0.6641617 -0.44711933
0.27949476 -0.6113929 -0.26860338 -0.39437696 -0.08203484 0.6024116 -0.11860605 -0.06712443
0.6509412 0.78780186 0.102396 0.8204017 -0.4251595 -0.15067683 -0.111384585 0.40967694
-0.016616061 -0.15023383 0.4808188 0.36489707 -0.53772366 0.23415527 -0.13148263 -0.30712277
0.4125975 -0.33402482 -0.15951152 -0.2546703 -0.49029887 0.43745446 0.017805787 -0.15951511
0.48776713 0.69922763 0.64416414 0.38012075 0.32479122 0.31117344 -0.46922523 0.108329356
-0.024214039 0.13220932 -0.21252355 -0.005159443 0.13869953 0.4208759 0.23489474 0.4834512
-0.013983563 0.592183 0.2192162 -0.57027406 0.01479079 0.43472707 -0.3501626 -0.3191548
0.059874434 0.28325552 -0.13463283 0.15034604 0.2598827 -0.0592852 -0.14104453 0.27990228
-0.5750857 -0.3863627 0.5599528 -0.3491048 0.36469156 -0.4835592 0.6150134 -0.07450014
0.12872271 0.23795508 0.009490981 0.86451125 -0.47717404 0.6204943 -0.33554924 -0.3469278
0.47071323 0.06823047 -0.45152402 0.95803916 0.12489688 0.40799358 -0.036792215 -0.09104902
-0.5235647 0.21058725 -0.13586245 0.4650734 0.13743813 -0.12717432 -0.05440237 0.15241084
-0.0879343 1.0616677 0.7703315 0.6816411 -0.9619342 -0.22047032 0.48303643 -0.09603642
0.38327387 0.5282875 -0.27452746 -0.40989175 -0.2663875 0.45599994 -0.2036479 0.4998776
-0.22549258 0.0593573 0.13842987 0.16153973 -0.16864443 -0.3937074 -0.14065808 0.43862298
0.4533585 -0.31895548 -0.122715004 0.049046885 -1.3615584 0.82892025 0.69488204 -0.07769327
0.25799868 -0.13755582 0.24088542 -0.3326492 0.2391751 0.2743268 0.34880257 0.010115081
-0.122526586 -0.14042829 0.47540483 0.2806372 -0.671143 -0.26145935 0.08586772 0.18861614

mid_part.0.bias f4 [12]
00000000: 906e 593b 3339 fbbc 4c7b 9dba b7d8 ecba
00000010: c29c 823d 3634 c03b b550 873c 35fd 8c3b
00000020: b0d4 063c e183 e0ba e2b3 c7ba 8550 933b
0.0033177473 -0.030666923 -0.0012014895 -0.0018069957 0.063775554 0.005865599 0.016517976 0.0043026456
0.00822942 -0.0017129147 -0.0015236104 0.0044956827

mid_part.1.weight f4 [12]
00000000: fc0c 7f3e a563 a43e a4ec 7f3e 8a3a 7e3e
00000010: dead 8a3e e20a 753e 218d 6f3e c9a7 9f3e
00000020: 9365 8f3e 0043 d03e c5ed 5c3e 0bad 863e
0.24907297 0.32107273 0.24992615 0.24827018 0.27085775 0.23929933 0.2339368 0.31182697
0.28007182 0.40676117 0.21575077 0.26303896

mid_part.2.weight f4 [12, 12, 3, 3]
00000000: fa3c 7e3e a8e8 3dbc 2374 103c f571 82be
00000010: 33a6 d73d e1ca e8bd 9d39 8dbd 355a c9bd
00000020: 5ecb 9c3d 907e 373e 5cb9 5fbe b2ad 533e
00000030: 18b1 433d b9f3 edbd 5652 f6bd 833a 89bd
00000040: be73 23be 6610 1f3d 6d6e b83d 3091 213e
00000050: 4266 703d b186 233e 4396 a93b 85ac ddbc
00000060: 4901 853e 3d5d 763d 5874 95bd 81ff 13bc
00000070: a838 81bd cbb5 f73d bdcc 0c3e 611e aebe
00000080: a288 80be be96 11be f96d c8bc c059 103e
00000090: 3882 37be 72a7 d3bd b4da bbbd 6ace bcbc
000000a0: da63 653e f0e3 66be 5a0f 993c 404f 04bc
000000b0: 9d0c 523d 8346 5c3e 64f8 303d 57c6 5c3e
000000c0: 534b 57bd b0e6 d8bd 20a7 9b3d 12b7 c0bd
000000d0: b5c9 893d 8867 cebd e23a 22be 72c4 fa3b
000000e0: b8e7 67bc 97ac 5e3e a70e 99bd 380a ea3c
000000f0: 6082 b1bd 4844 d73d 476a 273e 0a33 083e
00000100: 28ff 94bd 77f3 733e e2b5 533c c099 233d
00000110: fd7d 28bc 27f6 213c 4c1d 68be 3cae 50be
00000120: 7c23 7cbc dd36 c6bc bb8e 263d 07c9 3abe
00000130: b253 973e 213f 93bd 8d5f 6dbd c767 75bd
00000140: d6be de3c ab49 35be d881 c43c 5997 613d
00000150: a420 353d 865b de3d 8945 053e 0339 ebbd
00000160: c17f d9bc a0fb f63c f516 8e3d 9569 a5b9
00000170: 859e 713e 9c5e eebd a252 62bd db35 8fbd
00000180: 265d 1b3d 4231 d53d 8916 063d d45d 463d
00000190: 3100 99bd f387 c9bd ad02 09bd b923 bc3d
000001a0: a098 b33c f8fc 9f3d 9af6 2f3d 33c7 95b9
000001b0: 6530 8c3b bf10 ebbc d58e 6b3c f94b 313c
000001c0: b8bf 913d 407a 6dbe cfb1 713e 34d6 a63d
000001d0: 6c7a 203e 8653 1d3e da57 a53d 1ee9 c939
000001e0: eff9 723e ce9c ed3d f206 a13c 19ce 7e3d
000001f0: 575b ddbd 3c89 173e 83c9 eebc 8fd9 a6be
00000200: 3ab7 2bbe 743c a53c b830 6a3d 92b6 9abe
00000210: 3491 edbd c54e b13d 5aed d4bd 073a 463d
00000220: bcf2 8d3e 755e eabd d31f 03bd 53aa 62bd
00000230: 965d cebb 0ef3 dcbd 3a4f af3e afa9 7dbd
00000240: 6b34 6a3e 76d2 13be c2c9 91bd 0a94 41be
00000250: 9a1a 0ebe 580c a73c 1c97 9ebd 6d73 cebd
00000260: a4e8 c43c d9b5 f6bd 39d7 273d 6531 88be
00000270: 1d30 f03b c2cc c83d 95c0 b73d abe9 073e
00000280: 061f 98bd 8b8b 4cbd 35fa 493e d933 6cbe
00000290: 251a 0dbe af05 753c c727 4e3e 1bb3 99bd
000002a0: 5c19 9bbe 86c6 b6bb f152 aa3d af23 40be
000002b0: 2405 1c3e 5653 b1bd dc6b 41bd 6ff3 5a3e
000002c0: 1af4 273e 70d4 7cbd da6e f6bd 5baa 15be
000002d0: 1397 bd3d a70a f3bd b139 ea3d 3a9d bdbc
000002e0: a445 9f3d 4cf2 92be f0da 2c3d 5a66 c2bd
000002f0: 94c8 c8bd 4a72 04be 6cc0 98bd cae6 87bd
00000300: c10c cfbb b0d2 93bd 4913 5cbc 05ad 34be
00000310: 2e7a 66bd b90d 0dbb 8b3b 9bbd af46 0a3e
00000320: df3b 133d c98f 783e f475 4abd 5ca4 0bbe
00000330: e322 14be f082 ca3c 39ca f63d 608c 943e
00000340: 8ff5 3c3e 11fb a73d 4d85 de3d bc14 cc3d
00000350: 8798 213e 6b56 4fbc 4ef1 023e b8c7 083e
00000360: 3dc6 a93d 3205 24be 30f3 adbc 106e e3bc
00000370: 38ee 363e 6f0d 343e b017 213e f7dc b1bc
00000380: 6ae8 903e 6cd7 b3bd 4be6 ecbd 2b2c 663d
00000390: 3ca3 463e be8b a4bd bae3 bdbc 0b7e 92bd
000003a0: 1328 d03d 8788 b73d 7f9b 153e b16f 87be
000003b0: 6050 4ebe 1e65 803d 292c 00be d0f8 12bc
000003c0: 59af e23d cf41 de3c 851b 0a3d be33 cdbd
000003d0: 79da 96ba 9dbc 39bd 4c48 583e 87f9 583e
000003e0: 77e5 453e e265 553d 5113 eb3d 0540 573d
000003f0: 0794 ad3e 7523 56be c54c 94bd 82fb 093d
0.24827948 -0.011591114 0.008816752 -0.25477567 0.10529747 -0.11366821 -0.068957545 -0.09831659
0.07655977 0.17919374 -0.21848053 0.20671728 0.04777631 -0.11618752 -0.12027423 -0.06700613
-0.15962121 0.038834 0.09005437 0.15778041 0.05869127 0.1596935 0.0051753833 -0.027059803
0.25977543 0.060147513 -0.072975814 -0.009033085 -0.063096344 0.12095221 0.13749976 -0.34007552
-0.25104243 -0.1421766 -0.024466502 0.14096737 -0.17920768 -0.10334672 -0.09172574 -0.023047645
0.22401372 -0.22547889 0.018684078 -0.008075535 0.05128156 0.21511273 0.043205634 0.21560036
-0.05256207 -0.10590875 0.07600236 -0.09409918 0.06727926 -0.10078341 -0.15842775 0.0076528126
-0.014154367 0.21745525 -0.07473498 0.028569326 -0.08667445 0.105110705 0.16349135 0.1330072
-0.0727523 0.23823343 0.012921782 0.03994155 -0.010283944 0.009885347 -0.22667426 -0.20378965
-0.0153893195 -0.024196083 0.040663462 -0.18240748 0.29556042 -0.07189775 -0.057952452 -0.059913423
0.027190607 -0.17703883 0.023987696 0.055075977 0.04422058 0.108573005 0.13014807 -0.114854835
-0.026550176 0.030149281 0.069379725 -0.00031549917 0.23595627 -0.11639139 -0.055254586 -0.06992694
0.03793063 0.10409786 0.032736335 0.048429325 -0.0747074 -0.098403834 -0.033449817 0.09186501
0.021923363 0.07811922 0.042959787 -0.0002856791 0.00427823 -0.028694509 0.0143773155 0.010821336
0.071166456 -0.23191166 0.23602985 0.08146325 0.156717 0.15363893 0.08073397 0.00038511393
0.23728155 0.11602174 0.019656632 0.06220827 -0.10808437 0.14798445 -0.029148823 -0.3258786
-0.16769114 0.020170428 0.057175368 -0.30217415 -0.11599961 0.08657602 -0.10396834 0.048395183
0.27724254 -0.114437975 -0.03201277 -0.055338215 -0.0062977774 -0.107885465 0.34240133 -0.0619294
0.22871558 -0.14435753 -0.071185604 -0.18904129 -0.13877335 0.020391628 -0.077436656 -0.100806095
0.024036713 -0.120464034 0.040976737 -0.26600185 0.0073299543 0.098046795 0.08972279 0.13272731
-0.07427792 -0.049937766 0.19724353 -0.23066653 -0.13779505 0.014954968 0.20132361 -0.07504865
-0.30292785 -0.005577865 0.08316601 -0.18763612 0.15236336 -0.08658473 -0.047222003 0.21381925
0.16401711 -0.061726034 -0.12032862 -0.14615767 0.09257331 -0.11867266 0.11436785 -0.02314626
0.07776955 -0.28700483 0.042200983 -0.09492178 -0.09803882 -0.12934223 -0.074585766 -0.066358164
-0.006318659 -0.0721792 -0.013432332 -0.17644127 -0.056268863 -0.0021523072 -0.07579716 0.13503526
0.03594577 0.242736 -0.049428895 -0.13636917 -0.14466433 0.024720639 0.1205029 0.29013348
0.18453048 0.08202184 0.10865269 0.09964892 0.15780841 -0.012654881 0.12787363 0.13357437
0.08289764 -0.16017607 -0.021234125 -0.027762443 0.1786431 0.1758325 0.15731692 -0.02171181
0.28302318 -0.08781323 -0.115673624 0.056194466 0.19398206 -0.08034466 -0.023179878 -0.07152947
0.101638936 0.089615874 0.14610098 -0.264524 -0.20147848 0.062692866 -0.12516846 -0.008970454
0.11068601 0.02713099 0.03371765 -0.10019635 -0.0011509202 -0.04534589 0.21121329 0.21188937
0.19325815 0.052099116 0.11478294 0.05255129 0.33901998 -0.20911963 -0.07241205 0.033687122

mid_part.2.bias f4 [12]
00000000: 04df 0d3b 0d30 043b da8d 6f39 1335 b1b8
00000010: 1cea ee3c 2be6 18bb 192f 79bb 3918 61ba
00000020: dd58 1f3c e651 973a d215 623b 3742 e03c
0.002164782 0.0020170242 0.0002284566 -8.4499035e-05 0.029164366 -0.002333055 -0.0038022457 -0.00085866783
0.0097257765 0.0011544793 0.003449787 0.027375324

mid_part.3.weight f4 [12]
00000000: ee8a a33b 1c9d 813e b646 853e 4c08 023f
00000010: 8485 8a3e 80a5 823e 9350 913d eaaa 1d3e
00000020: 297c 6f3e d152 7b3e a9ac 803e df34 773e
0.004990927 0.25315177 0.2603051 0.5079391 0.2705499 0.2551689 0.070954464 0.1539723
0.23387207 0.2454331 0.2513173 0.24141262

mid_part.4.weight f4 [12, 12, 3, 3]
00000000: 89ae 103d b0a8 8ebd 1d3b 683e 72b1 8e3e
00000010: d8db f4bc 684a 073e 5f6d 02be c554 803d
00000020: d73f babd 93b4 59be deb4 f2bd db3e ab3e
00000030: dbb7 5dbd 7f4b 103e 96f6 1cbe 9291 f6bd
00000040: 1de6 6b3c f642 6f3e abf6 00be 5266 ef3d
00000050: 2ba7 913c 8d89 123e 77ed 2abd 1153 9cbd
00000060: e971 7cbd 86f6 103e 3343 533e c727 9bbd
00000070: afb8 a4be 84c3 89bd 60a7 78bd 07e9 c13c
00000080: 2576 46be 7117 acbd b90f 0f3e 3dd8 913d
00000090: 4371 963c c363 123e 8a70 fc3d bd45 f1bd
000000a0: 6631 073e f2f1 d83d 081e 7abe 8dbb aebd
000000b0: ff00 1b3e 896f f7bc 368c b3bd fc26 ee3d
000000c0: d497 81be e188 b33d 0c9f b7be ef10 4d3d
000000d0: 6199 863e ed66 0fbe b8da cf3d 2279 58be
000000e0: 70d9 f8bd 6165 b33d 444c f2bb 03da 13be
000000f0: 42f9 cbbc ee95 84be 8ea6 7c3e de8f 4d3c
00000100: 8b81 e3bd f578 173e d3bb b7bb 105d f83c
00000110: 15bf 213e 88cc 6fbe 3a24 8ebd f269 4fbd
00000120: 9477 2f3b eea3 f6bc d3a7 b9bd ab94 23be
00000130: d76a 053b b88c fdba c481 883d 68c4 28bd
00000140: f4c2 683e aec9 e03d ecc6 37bb 7bc5 5c3e
00000150: 359d ec3d 8fa8 203e 5192 ecbc e9ee a93d
00000160: 400d 283e c90e afbe 0d3e 53be 1487 1e3e
00000170: 0899 cbbd b878 9e3c 5c60 9bbb 91d5 e23b
00000180: accb 90be 6f2f bfbd a63f 543d 912e b03d
00000190: da13 f43d d630 a33d bcc3 b9be 55d6 3d3e
000001a0: b377 20be e30b 873d 274e 323e d9f9 653e
000001b0: 8ae6 ee3d df09 5fbe 8e76 45bd a539 8a3e
000001c0: 0115 8e3d 6415 b53d 012c 903e 8cdd 7cbe
000001d0: 651e 673c e930 c0bc 464a 8e3d 3e0a acbc
000001e0: 74da 973e c448 9a3d 71d9 ab3e 710a 74be
000001f0: a928 7ebe 562c 8ebd 5ef4 5fbe 9b3b fe3d
00000200: 7591 fbbc f2e9 f2be 6314 19be bd82 7abc
00000210: c149 05bf d0eb 45be e40d e53d 6439 0b3d
00000220: 6c14 873e 869b 693e 3c2f 0c3e 90b2 a03e
00000230: 8090 6b3d acca bb3e 6b8f a33e 817a cfbd
00000240: 4907 a6bd 4214 8ebd a6d9 0ebd 63e6 41be
00000250: 4f51 e7bc c5e1 aabb 4e9d c0be 7bb2 f0bd
00000260: 7ea4 81bd 48d1 a0bc 888d 3dbe 94b1 8d3e
00000270: 5bba 72be d024 a4bc 3ff2 123e 3a64 0abe
00000280: 1f3a 5a3d e4d5 48bd 31fb 883e 1b18 10bd
00000290: 4c06 80bd c805 bb3e aa01 b1bd 581b b83c
000002a0: 302b 003e df94 69bd ea47 89be 349d 993e
000002b0: ddb1 71be 9929 71be 5e5f 4cbd 2936 683b
000002c0: 85b2 9d3d 71d8 4a3e e17b d43d 35e5 c93e
000002d0: af62 43bd 6ff5 7cbe 44f2 2cbe af18 59bc
000002e0: 2c34 e7bd 7219 ba3d 375c 413e 7d20 873e
000002f0: 37e1 293e e030 d8be b2ec 063e 19f7 22be
00000300: 903d 373e b54d 593e f319 4fbd 1ad7 003d
00000310: 1038 e9bc 208d b63d 2601 a3bd 0472 40be
00000320: a50b d83c bb7a 993e e8a7 cb3e 9368 1a3e
00000330: 66e8 90be f53c e6bc 2891 4cbd 4d37 86be
00000340: 10b6 6dbe 2807 a0be a593 58be a282 313d
00000350: 8fe4 a6bb 8d8f 1c3f 0bd3 b13e e3d1 843e
00000360: 44b6 463e 6981 4cbe 5d24 1a3e 44ad 853d
00000370: b4db 0f3d 5371 6bbc a991 29be 5427 9c3e
00000380: de6e ff3c be12 5e3e c7c0 9d3c 35fa 303e
00000390: 7743 36bc fc53 ff3c 8326 da3d 23b3 093b
000003a0: a555 9d3d 301b a73c 54c2 ebbd 9760 6d3d
000003b0: 86b1 3b3e 9adb ebbc a08a 323e 5b13 2d3e
000003c0: 6db0 463d a567 35bc e5fa 3ebe ced1 41be
000003d0: fb2f 2abe f39d edbc bb60 833d a4e1 013e
000003e0: 384d 9c3d dfab 503e d3de 03bd 09f8 5e3d
000003f0: d852 0dbe dbb6 60be 07f5 07be 57e0 f1bc
0.0353227 -0.06965768 0.226788 0.27869755 -0.029889986 0.13211977 -0.12737034 0.062661685
-0.09094208 -0.2126029 -0.11850904 0.33446392 -0.054130416 0.140913 -0.1532844 -0.12039484
0.014398125 0.23365387 -0.12594096 0.11689438 0.017779907 0.14310284 -0.04173037 -0.07633031
-0.06163207 0.14156541 0.20631103 -0.07575946 -0.32172152 -0.06726745 -0.060706496 0.023670686
-0.19381006 -0.084029086 0.13970841 0.07121322 0.018364554 0.14295869 0.123261526 -0.1178088
0.13202438 0.105930224 -0.24425519 -0.08531866 0.15137099 -0.030204551 -0.087669775 0.116285294
-0.25311148 0.08766342 -0.3586353 0.050064977 0.26288894 -0.14004107 0.10149139 -0.21139959
-0.12150848 0.08759571 -0.0073943455 -0.14438634 -0.024899129 -0.25895637 0.2467291 0.012546508
-0.11108693 0.14792235 -0.005607107 0.030317813 0.15795548 -0.23417866 -0.069405034 -0.050638147
0.0026774155 -0.030107465 -0.09065213 -0.15974681 0.002035787 -0.0019344306 0.06665376 -0.041202933
0.22730619 0.10975967 -0.002804215 0.21559708 0.11553422 0.156893 -0.028878363 0.082975216
0.16411304 -0.34190968 -0.20629139 0.15481216 -0.09941298 0.019344673 -0.0047417115 0.0069224318
-0.2828039 -0.09335219 0.051818512 0.08602632 0.11917849 0.07968299 -0.36282146 0.18538792
-0.15670662 0.06594064 0.17412625 0.2245859 0.116650656 -0.2178111 -0.048208766 0.26997104
0.069376 0.088419706 0.28158572 -0.24693888 0.014106368 -0.023460822 0.0694776 -0.021000978
0.29658854 0.0753341 0.33564332 -0.23832108 -0.24820198 -0.0694205 -0.21870562 0.124137126
-0.030709008 -0.4744411 -0.14949183 -0.0152899595 -0.52065665 -0.19328237 0.1118429 0.03399028
0.26382768 0.22813234 0.13689893 0.31386232 0.057510853 0.36678064 0.31945357 -0.10130788
-0.08106858 -0.069374576 -0.034875534 -0.18935542 -0.028237013 -0.005214902 -0.37620014 -0.117527924
-0.063302025 -0.019631043 -0.18511021 0.27674544 -0.23703901 -0.020037085 0.14350222 -0.13514796
0.053278085 -0.049032107 0.26754144 -0.03517924 -0.06251201 0.36527848 -0.086428955 0.022473976
0.12516475 -0.05702674 -0.2681268 0.3000275 -0.23603006 -0.23551024 -0.049895637 0.0035432673
0.077000655 0.19809128 0.103751905 0.39432684 -0.047701534 -0.24703 -0.16889292 -0.013250514
-0.11289248 0.090868846 0.18882833 0.26391974 0.16589819 -0.4222479 0.1317623 -0.15914573
0.17894578 0.21221049 -0.050561856 0.031455137 -0.028469115 0.08913636 -0.079592034 -0.18793494
0.02637274 0.29976448 0.3977654 0.15078954 -0.28302306 -0.028105238 -0.04994312 -0.26214066
-0.23213983 -0.3125546 -0.21150072 0.04333747 -0.0050931643 0.6115654 0.34731326 0.2594138
0.19405466 -0.19971241 0.15052934 0.065271884 0.035121635 -0.01437028 -0.16559471 0.30498755
0.031180795 0.21686837 0.019256962 0.17282946 -0.011124483 0.031167977 0.10651877 0.0021011315
0.07682351 0.020398706 -0.115116745 0.057953443 0.18329439 -0.028791238 0.17435694 0.16901915
0.048508096 -0.011072074 -0.18650396 -0.1892769 -0.16619866 -0.02900598 0.06414934 0.12683731
0.07631916 0.20378064 -0.032194924 0.054435764 -0.13801134 -0.21944754 -0.13277064 -0.029525919

mid_part.4.bias f4 [12]
00000000: 27a0 5e3c 2c34 43bb fa5d 88bc 5035 2d3c
00000010: 15d8 51bb c610 b7ba b776 8f38 7fb0 3e3b
00000020: a080 653c 273a c33b dc8a 87bc f8af 3ebc
0.013587988 -0.0029785736 -0.016646374 0.010571793 -0.0032019664 -0.0013966791 6.840884e-05 0.00290969
0.014007717 0.00595786 -0.016545705 -0.011638634

mid_part.5.weight f4 [12]
00000000: d01a 0c3e 81e7 b13e ae04 8d3e cd9f 813e
00000010: a188 1f3e 9978 aa3e 5ea2 353e 3a91 403e
00000020: 7d56 cc3e 89f8 7f3e 9e1c a43e df00 843e
0.13682103 0.34746936 0.27542633 0.2531723 0.15579464 0.33295134 0.1773772 0.188054
0.39909735 0.24997152 0.32053083 0.25781915

mid_part.6.weight f4 [12, 12, 3, 3]
00000000: 0545 3d3d 4976 edbd 4bb9 28bd e513 e33c
00000010: dbd4 f43d 5125 1e3e efdb 08bd 8e24 903d
00000020: 7765 fc3c 498f 833d aca7 753e d4ea 363e
00000030: a196 5b3d 96ee 573e 3f3e 673e cf1d 84bd
00000040: 2eaa 92be 8334 9f3d 8ced ac3d 0537 dbbd
00000050: 594f 093d e71d c83d 5d4c ec3c 47ce dbbd
00000060: 3a13 30be 4edf f7bd af85 003e d134 de3d
00000070: 3ac4 2fbe dce1 29be 8bbc d6bd b847 d03d
00000080: 287a 0a3e ef49 5a3d 870f 9ebe f171 2cbe
00000090: 352c c93b f6a7 3d3e db2f 95bd 2c80 2a3e
000000a0: 85d6 043e 3ea2 f5bd e658 36bd cc2a 413e
000000b0: 10ea 59bd b920 1dbe 1946 d1be e5d6 0a3e
000000c0: f94d 4f3e 851a 983b 8547 113d ea4c ad3d
000000d0: f999 c63d 95a1 513e 7388 333e 9caa 58be
000000e0: 1b78 0c3d ba0d bd3d 820a 393d b8a5 7a3d
000000f0: 94ee 533e b545 643e a222 e13d 8c49 ddbd
00000100: a8a5 c3bd 9dfe 193e 8eaa 3cbd 09fb 1ebe
00000110: 1013 c83c 5b3d 603d 4805 1e3d 0bcf 40be
00000120: c54f 35bb f837 b93d 995e 1e3e b5f1 f83b
00000130: dfd1 443d f1f5 2fbc b224 fcbc 1755 38be
00000140: eba4 6c3d 10d3 90bc f3a1 333e 9f9f 953c
00000150: fa38 26be b188 323d 662f 3c3e 983e 4cbe
00000160: 9fc3 febd 4111 6ebe ef4c 10be 934c 163e
00000170: b3b3 773d bda1 53bd da93 18be 06b8 bd3d
00000180: da20 e2bd 135e 213e 0261 86bd 6084 0a3e
00000190: 1834 103d 10cc 013d 63c4 8c3d 3caa ddbd
000001a0: 1e4a c1bc fdad 283e 844a 02be 2102 2c3b
000001b0: 5844 a83e 2c83 d73d fca8 b33d 9973 9ebd
000001c0: ed16 40be 669d ec3d 2875 a83d a91b 843d
000001d0: 7226 823c 0a1d 87bd 3f4c a93c 119a 003e
000001e0: d56e 37bd ab60 8e3d 2216 a13d a44a d93d
000001f0: f670 01bd 3179 523d 30c9 d33d cf13 e13d
00000200: 4cf7 963c 9f16 413e f845 323c 5cf6 253e
00000210: b732 0f3d aa65 8a3c b6d4 f5bb 79b1 ed3d
00000220: 5410 293c d1b2 01bd 6704 f0bd 16ce 043e
00000230: b56a e93c f379 1ebe 62ef 3ebe 4895 5a3d
00000240: 2ce0 8c3d f2d6 aebd f991 0d3e 23a9 063e
00000250: 54d6 77bd c282 d6bd f466 bd3d c326 7e3e
00000260: d910 523d 16bd 7b3d a091 553d 8334 fd3d
00000270: 6840 30be 06ae c63c 1a0a 06bd d4c5 5ebb
00000280: 781b 7cbb feb8 4a3d 3248 343e 5244 c03c
00000290: 3887 073d 0e80 053d 8681 ce3d 40fe f6bc
000002a0: f9c2 4ebd 4164 b3bd c2ca acbd b633 153e
000002b0: f2e1 a9bc c8af bf3d 6ee2 423d 857b 373e
000002c0: 22b2 55be 1976 3fbd 7d83 fdbc 923b f8bd
000002d0: 9b51 203e 7710 78be 48f5 d23d 11ee 8b3c
000002e0: c6d5 523d 2f7f 3a3e 1194 d23c 4071 173e
000002f0: 3432 e6bb 6689 df3d 2e24 523c 9fec 683d
00000300: 28c3 0f3e 2fef 5d3e a18a 21be a351 a43c
00000310: a532 2a3e 4a24 423e 4c0b 5bbd fae1 473e
00000320: 75d5 aebc 3008 0abe 8dc4 fbbd 2869 0e3d
00000330: 3151 663d 1b73 5dbe 3a3f 133e ca94 c2bd
00000340: 044f f7bc 6f56 16bd 8fd4 bd3d 5d68 433d
00000350: 897c 2cbb 4465 82be 8e2d 52be 939f 653d
00000360: 7429 84be baf7 e0bc 5946 4dbe cdff c7b9
00000370: 18f1 b9bd bdf0 ddbd c183 883e 363a 553e
00000380: ea5e 45be b968 a2bd 1f18 81bd e5d1 80bd
00000390: 2018 11be c115 13bd 7804 2ebe ebbf 973e
000003a0: 6527 df3d adb3 cc3d 1b2f 3fbe 6740 d53d
000003b0: daaa 9c3c cf5e 903b 2fe9 713a 05e0 3cbe
000003c0: 2f78 993d 85e9 1bbe b52c 9ebe 27c6 4a3e
000003d0: 6a66 8e3d 38ba ef3c 5766 373e bd77 763d
000003e0: 7b50 e6bd 8a09 4fbe 3ddb 08be 1ed0 8b3c
000003f0: f6cf 91be 75e5 45be 51e3 303e e01e 26bd
0.0462084 -0.11594827 -0.041192334 0.027719447 0.119546615 0.15443923 -0.03341287 0.07038222
0.030810101 0.06423814 0.23989743 0.17863017 0.053610448 0.21087107 0.22582339 -0.06450998
-0.28645462 0.07773688 0.08443746 -0.107038535 0.033522937 0.097713284 0.028845007 -0.10732704
-0.17194834 -0.12103139 0.12550996 0.10849918 -0.17164698 -0.16590065 -0.104851805 0.10169929
0.13523161 0.053293165 -0.3087122 -0.1684034 0.006139303 0.18521103 -0.07284518 0.16650456
0.12972458 -0.11993836 -0.044518374 0.18863982 -0.053201735 -0.15344514 -0.40873793 0.13558538
0.20244588 0.0046418332 0.035468597 0.08461936 0.09697337 0.20471795 0.1753252 -0.21158832
0.03429423 0.09231134 0.045176037 0.061193198 0.20696479 0.22292216 0.10992934 -0.108050436
-0.09553081 0.15038534 -0.04606109 -0.1552545 0.024423152 0.054746013 0.038579255 -0.1882898
-0.0027665955 0.09043878 0.15465774 0.007597173 0.04805171 -0.010739789 -0.030779216 -0.18001209
0.057774466 -0.017678767 0.17542247 0.01826459 -0.16232672 0.04358739 0.18377456 -0.19945753
-0.124396555 -0.2324877 -0.14091848 0.14677648 0.06047411 -0.051667918 -0.14900151 0.09263615
-0.11041422 0.15758543 -0.065614715 0.1352706 0.03520593 0.03168875 0.06873395 -0.10823485
-0.023594912 0.16472621 -0.12723738 0.0026246386 0.32864642 0.10523066 0.087724656 -0.07736892
-0.18758745 0.11553459 0.08225471 0.06450588 0.015887473 -0.06597336 0.02066624 0.12558772
-0.044783432 0.06952032 0.078655496 0.1060994 -0.03160187 0.05138511 0.10341108 0.10990106
0.018428467 0.18856286 0.01088094 0.1620726 0.034960475 0.01689418 -0.0075021638 0.11606116
0.010318834 -0.031664673 -0.1171959 0.1296924 0.028493265 -0.15476207 -0.18646005 0.053365022
0.06878695 -0.08537091 0.13825215 0.13150458 -0.060507134 -0.10474159 0.092481524 0.24819474
0.0512856 0.061459623 0.052140832 0.123635314 -0.17212069 0.024252903 -0.032724477 -0.0033992426
-0.003846852 0.04949283 0.17605665 0.023470078 0.03308794 0.032592826 0.100832984 -0.030150533
-0.05047891 -0.08759356 -0.084371105 0.14570507 -0.020737622 0.093596995 0.04757922 0.17918213
-0.20868734 -0.046743486 -0.030946488 -0.12120737 0.1565613 -0.24225031 0.1030069 0.017081292
0.0514734 0.18212579 0.02570537 0.14789295 -0.0070250276 0.109148785 0.012826009 0.056866284
0.1403929 0.21673273 -0.15775539 0.020058459 0.16620882 0.18959156 -0.05347757 0.19519797
-0.021342019 -0.13479686 -0.122933485 0.034768254 0.056229774 -0.2162594 0.14379588 -0.095010355
-0.030189045 -0.036703523 0.09269058 0.04770695 -0.0026319346 -0.25467885 -0.2052519 0.056060385
-0.25812876 -0.027461875 -0.20046367 -0.00038146824 -0.09079188 -0.10836933 0.2666302 0.20822987
-0.19274488 -0.079301305 -0.06303429 -0.06290034 -0.14169359 -0.035909418 -0.16993892 0.2963861
0.10896186 0.09995208 -0.18670313 0.104126744 0.019124437 0.0044058333 0.00092281675 -0.18444832
0.07493626 -0.152258 -0.30893484 0.19802152 0.06953128 0.0292636 0.17910133 0.060172785
-0.11245819 -0.20218483 -0.13364883 0.017067011 -0.28478974 -0.19325812 0.17274214 -0.04055679

mid_part.6.bias f4 [12]
00000000: e1af 8a3c 039b 473c 4940 30bc e0d7 433b
00000010: 7497 eb3b 6cd0 5a3c ade1 fbbb 63d3 3c3b
00000020: 83aa 2ebb d262 323a 4620 2b3c eaca 22bd
0.016929569 0.012182954 -0.010757514 0.002988331 0.0071896855 0.013355356 -0.0076868148 0.002881252
-0.0026651926 0.00068048865 0.010444706 -0.039744295

mid_part.7.weight f4 [12]
00000000: dae9 5e3e f96b 7f3e 6b52 863e d0f9 833e
00000010: 4548 7b3e ecae 8c3e ac92 ca3e a2c9 243d
00000020: 2da8 7d3e 3822 7c3e 77cd 5f3e 4373 743e
0.21768895 0.24943532 0.26234755 0.2577653 0.24539287 0.27477205 0.39565027 0.040231355
0.24771185 0.24622428 0.21855722 0.23872094

mid_part.8.weight f4 [12, 12, 3, 3]
00000000: 5105 f33d 8a8f eabd f815 2ebe 9a86 07bd
00000010: bc67 4b3e d991 1d3e feca 7bbe f9da 123e
00000020: 83d7 0cbd 828d 52bd e1de f53c 86f2 8e3d
00000030: 80d6 d23d 37f9 953e 6937 263d 566f 493e
00000040: edad 8a3d d52e 6cbd 1323 c03d 00e8 efbc
00000050: f12b f03a ce45 54be f7bd 49bd d9e9 7fbb
00000060: ac1f 423d 5284 32be 95e3 a5bc b990 63bd
00000070: 7481 aebd 13ff e53c dd82 39be 77d3 31bd
00000080: 6f0d b93d 827b 85bc 2156 c9bd 5e83 4abe
00000090: 0b31 f6bc 5bc5 84bc cf82 9a3c 76b9 c73d
000000a0: 45d4 b0bc d84f 693e bb9c c2bd 3cec 763d
000000b0: 6f8a 8abc 6091 d63d 844f d33d 8d88 843d
000000c0: 7fea 20be 06c0 4b3d dfe2 e03c f82b a93e
000000d0: 8a94 2dbe 0e32 bb3d 9afc a13d c825 a3be
000000e0: 0082 e53c 2cb9 b23c 7a8e 81bc 7342 79bd
000000f0: 4dee eebd dd13 d7bd 7f6f 7a3d 3e39 8a3b
00000100: 3b93 973e baee 8d3c e08a 6d3d 28d0 2e3e
00000110: 6486 81bd 02a1 17be 5249 5bbd f9dd 75be
00000120: 1d61 96be b556 703c 6f0a 9e3c e4bf 7abd
00000130: ac96 453e ac51 d0bd 2315 c4bd 1eea 42be
00000140: 954e afbd c582 9f3d 2104 7cbd fbbe 0fbe
00000150: ba34 10be 94a1 65bd fd79 bdbc 0099 6c3e
00000160: c7dc 13bd 9378 323c 236a 193c bcd2 263e
00000170: 1d66 463c 0f65 7abd f73f 41bd ef72 3f3d
00000180: afb1 ba3d 96c4 b83d 2481 08bd e404 6a3e
00000190: 5dcc e13e 5a85 21be 165b ea3e 17fb f7bb
000001a0: 6d84 703e 6f41 2cbe 2b7b 2a3e f0a3 803e
000001b0: 897d fa3d 4acd 84bd 665a 14be 77db 443e
000001c0: fe93 0a3e 99bc f13b b518 7f3d 35ab 8ebe
000001d0: 84e9 84be c90c 773d 9bd5 14be 8a3a 903c
000001e0: 3d3b f83d 444b 533e 9e74 72be 0a5f 1fbe
000001f0: bb8d de3b a2eb dcbd cf7e 283d 963e c7bc
00000200: 5909 a23d cbf9 fb3c 9202 85be 04bd 7d3e
00000210: cc7e fbbd 2990 9e3d 45a6 ec3c 9340 95bd
00000220: 5e27 b13e 32b3 413d d891 083e 4a2d 13bc
00000230: da6b a03d 0039 42be e0c6 8a3d 685d dc3d
00000240: 9835 223e 9a97 123c eac7 d0bd c9db 273d
00000250: e28c 433e ad1b 9abe 1a8c 253e 0fb9 a8be
00000260: 654f 6a3d 1d19 fa3d 250b 1f3e ca1c 90bc
00000270: 2ac6 823d 6726 573e eb77 633d 67e3 61be
00000280: 9439 25bd e93f 1cbd 6f63 b7ba 5e17 31bb
00000290: 414c 353e 9b01 113e 6bbf 703c 8327 813d
000002a0: 1096 aa3a c7f7 2fbd a03e a43d 2c2a 113e
000002b0: b2ab 453e ef38 d13d b32f 863d 49f2 b4be
000002c0: 1004 473c 71ff 9a3c a9ea 93bd 529c 863d
000002d0: 5de5 643d e86d 94bc bd89 72bc 3b43 803b
000002e0: 3d74 e1bd 7de4 32bd 3ad3 4d3e 69e3 c7bd
000002f0: 07fb 9b3d 43dd 973e 3026 a63c 46cf 8a3c
00000300: 7e1b 7a3e eddd 243d 137b 6e3e abe3 493e
00000310: 2fb0 3abb f030 613d a38e 853c 4707 13bd
00000320: 5f45 b03d 98af 69bc ba54 37be 7fda 0fbe
00000330: 9bfa c0bd fcb1 a53d f80d 313e b516 2c3e
00000340: 174e 3cbe 7d60 0e3e 2685 d93d 0fff 533d
00000350: ba11 a73d f04e 71bc 3666 803c 754a 603e
00000360: 9751 f6bc 0bfa 343e a9c8 043e 80f6 783c
00000370: 89ca 983d 96c8 d8bd cc35 933d 6ff2 bb3d
00000380: 3c47 103e 92ac 923d cae1 7b3d 9453 443e
00000390: 433d c73c 68ce 373e a7b1 05be d248 cc3d
000003a0: bfe0 943d 6f59 07be 46dc abbc 0e32 4abd
000003b0: 3025 31be d058 50bd 8067 37be 4c94 fd3c
000003c0: 32cf 43bd 5755 44bd 38ad 9fbc 0052 60be
000003d0: 57bf acbd 815e 8ebd cb17 723e c0ff be3d
000003e0: 5633 4fbe 51af 253d b179 35bd 41b6 0e3b
000003f0: 3421 933d e542 423d c0fd 85be 8f88 333e
0.118662484 -0.11453159 -0.17000568 -0.03308735 0.1986379 0.15387668 -0.24589154 0.14341344
-0.034385215 -0.051404484 0.030013504 0.069798514 0.10294819 0.29291698 0.040580187 0.19671378
0.06771455 -0.05766185 0.0938169 -0.02928543 0.0018323642 -0.20729753 -0.04925343 -0.0039049296
0.047393486 -0.17433289 -0.020250121 -0.05555794 -0.08520785 0.02807573 -0.18116327 -0.04341456
0.090357654 -0.016294245 -0.09830881 -0.19776675 -0.030052682 -0.016207388 0.018861203 0.09752171
-0.021585593 0.22784364 -0.0950255 0.060283884 -0.016911713 0.10476947 0.10317901 0.064713575
-0.15714453 0.049743675 0.02745193 0.33041358 -0.16951194 0.091404065 0.07909508 -0.31864762
0.02801609 0.021816812 -0.015815008 -0.060854387 -0.11666546 -0.105018355 0.061141487 0.0042182496
0.29604515 0.017325748 0.05799377 0.17071593 -0.06324461 -0.14807513 -0.05353672 -0.24010457
-0.29370967 0.01466911 0.019292085 -0.061218157 0.19295758 -0.10171828 -0.09574344 -0.19034621
-0.0855991 0.07788614 -0.061527375 -0.14037697 -0.14082614 -0.056062296 -0.023129458 0.2310524
-0.03609922 0.010893005 0.009363684 0.16291326 0.012109307 -0.061131533 -0.047180142 0.04674047
0.09115922 0.09021871 -0.033326283 0.22853428 0.4410123 -0.15773526 0.45772618 -0.007567774
0.23488016 -0.16821836 0.16648547 0.25125074 0.12230975 -0.06484468 -0.1448761 0.19224344
0.13533017 0.007377219 0.06227942 -0.27864996 -0.25959408 0.060314927 -0.14534609 0.017606039
0.12120674 0.2063418 -0.23677298 -0.15563598 0.006791798 -0.10787131 0.04113656 -0.024321835
0.07911939 0.030758759 -0.25978523 0.24779135 -0.12280044 0.0774234 0.028887877 -0.07287707
0.34600347 0.047290035 0.13336885 -0.008982966 0.07833071 -0.18967056 0.06776214 0.10760003
0.15840757 0.008947277 -0.101943806 0.040981088 0.19096711 -0.3009924 0.16166726 -0.32953689
0.057204623 0.12211821 0.15531595 -0.017591853 0.06385453 0.21010743 0.055534285 -0.22059403
-0.040338114 -0.038146887 -0.0013991426 -0.0027021985 0.1770487 0.14160769 0.014694075 0.063063644
0.0013014693 -0.04296091 0.08019757 0.14176244 0.19303778 0.10215937 0.06552067 -0.353411
0.012146965 0.018920632 -0.07222492 0.065727845 0.0558828 -0.018118814 -0.014803347 0.0039142645
-0.11008499 -0.043674935 0.20100108 -0.09760172 0.07616239 0.29660997 0.020281881 0.016944539
0.2442455 0.040250707 0.23289137 0.19715755 -0.0028486361 0.05497831 0.016303366 -0.035895612
0.086069815 -0.014263056 -0.17903414 -0.14048193 -0.09422799 0.080905885 0.17290485 0.16805537
-0.18389164 0.13903995 0.10621099 0.051756915 0.08157678 -0.014728293 0.015673738 0.21903403
-0.030068202 0.17673509 0.12967171 0.015195489 0.074605055 -0.10585134 0.07187995 0.091771
0.14089674 0.071618214 0.061494626 0.19172508 0.024321204 0.17949831 -0.1305605 0.09974827
0.072694294 -0.1321771 -0.020979058 -0.049364142 -0.17299342 -0.05086595 -0.17910576 0.030954503
-0.04780502 -0.04793295 -0.019491777 -0.2190628 -0.08434933 -0.06951619 0.23641889 0.09326124
-0.20234427 0.040450398 -0.044305507 0.0021776112 0.07184067 0.047427077 -0.26170158 0.17532562

mid_part.8.bias f4 [12]
00000000: 4858 a13b e9e1 093c f308 223c 4d76 623a
00000010: 3756 ba3b 87c7 4f3b ee85 c73b 703d d93b
00000020: c054 9cbc a2f3 6c3d c650 f43c 49ca 323c
0.004923854 0.008415678 0.009889829 0.0008638844 0.005686547 0.003170462 0.0060889637 0.0066296384
-0.01908338 0.057849534 0.029823672 0.010912486

mid_part.9.weight f4 [12]
00000000: 9b39 bcbc 16d0 b9bc b346 873e cf30 833e
00000010: 24a6 723e 2742 e53e 078e fb3e 390e 803e
00000020: 57e9 863e a8f6 523e c7f3 de3d 7b5c a13d
-0.022976687 -0.02268223 0.26421127 0.25623176 0.2369619 0.44777033 0.49131796 0.2501085
0.263499 0.20601904 0.108863406 0.078789674

mid_part.10.weight f4 [56, 12, 1, 1]
00000000: 3b0a 9abd bb23 3d3e 55ff 44bd d451 c5be
00000010: a046 acbd adb3 803e 815e d83d 4a86 9a3e
00000020: caa7 2dbe 2e05 c2bd d527 b33e 4fe4 febd
00000030: f9c4 913d 06d9 333e 086b a23d 0a9e 47bd
00000040: 9066 6abe bc46 a03e cd2e 65bd ccd9 aa3e
00000050: 310d e13b 8dfd ba3d 4471 453e 42b9 de3d
00000060: 2f44 3dbd 131c 053e 4f35 243c 204c 61be
00000070: d959 aebe 1dc0 9fbe 6be8 ae3e d5f0 063d
00000080: 0add 5d3d c962 16be d459 4dbe 4ed5 a8ba
00000090: 54cf 853d c07d 50be 9849 16bd ecf6 07be
000000a0: 9965 31be f3f5 aebe 0c20 aa3e e264 133f
000000b0: 8b53 9abe 8a87 f3bc c783 c93d e8b3 2f3e
000000c0: 47f7 3cbe 8424 293e 3db9 b13e 23f2 de3d
000000d0: 075a 4dbd ba00 3a3e be1a 6fbd 57ff 6d3e
000000e0: 6793 5f3e cea2 adbd 962d 093e d640 66be
000000f0: a152 2fbe f37c f4bd 3a85 093e b03f 9c3e
00000100: 4706 37be 6ff0 803b 6b95 6ebe 1738 45be
00000110: 347f 293e b334 a4be a86a 9e3d 793c 023e
00000120: 8b88 5d3e 3c35 aa3d 1db0 aebe f9df 16be
00000130: 43ca aa3e 51ac 5ebe 3a96 3cbd 26e5 c0bd
00000140: e0c1 9b3e 6330 62be 2849 d03d a81c 40be
00000150: fc3b d43d 454a 473d 9e0f 2d3e 92f7 a73e
00000160: 1c51 c33d 9c8c 0fbe 0ae2 8abe fa3e 84be
00000170: 7a6a d93d 9a3d 983e 0150 d33e 24b0 383e
00000180: 2857 bbbd 2e44 a93d 222c bcbd d8cf 42bc
00000190: 84c5 393e 6dfd 7fbe 0305 59bd 395f 763d
000001a0: 3d48 023d 08d2 2ebe b681 803c e17e 973c
000001b0: f7d0 d7be d1db cb3d 6a31 ce3d 9797 ecbd
000001c0: 3936 913d f569 64be 7f3f 98bc 2620 193d
000001d0: c477 1ebe 21a8 cfbd 15df f3bb 515e ec3d
000001e0: 5e5d 5abd 6d0b 2bbe fcc8 89bd 1ca7 6abe
000001f0: 2ee6 d73d 72ae 873c efa4 9dbd df6e a8be
00000200: 8f8e 1abe 860c 4a3e 7853 173e 14f1 1ebe
00000210: e81d 803d 24b2 1f3e 5399 b73d ed19 a4be
00000220: bcdc 3d3d e84a 273e b3d3 143e 2fa5 843d
00000230: 402c aebe ac6b efbc 4ca1 35be b2f0 80bd
00000240: 3b54 943d b824 2f3e 8193 5bbb c7f4 27bd
00000250: 459f 203d 9627 3e3d aee6 89bd f77e 703c
00000260: 2308 4b3e ba5f 643e 638e 8cbe a318 48be
00000270: 87bb bebe 1e6d 473d b323 25be a135 e8bd
00000280: a725 163e f788 42be 293f 943d 9caf 933e
00000290: d20a 663c 680d a93e a47c dc3e 9df4 c1bd
000002a0: 285d 1fbe e99a a7bc 1bac 86bd 7feb 153d
000002b0: 022b 913e cef0 8a3d 33f6 80bc 939c c1bc
000002c0: 99d4 233e 6a22 653c c18a 3bbe 2d1f 073e
000002d0: ede4 ddbd c842 5f3d 7900 b6be 46f2 e4bd
000002e0: 4a08 7f3e f4f4 c53e 6409 75bc e0f3 6fbe
000002f0: a1eb 71bc 301d 9d3e fde5 7cbe 1ca3 293e
00000300: 7ddf 683e 1632 643e ff63 8dbc 779b 1dbe
00000310: 8557 083e e87a c9be 62bc 963c 92f8 f23d
00000320: b71f 813d 1a35 913e 858f 433e f690 b9bd
00000330: 2f8c 453d 7ca1 0a3e b5bb 973d e7dc 11be
00000340: c2a0 983c ed4b 573d caca 343e 6537 8e3d
00000350: a0fe 0a3e fae6 30be 4450 bd3d 4394 00be
00000360: 151e f0bd d221 7cbd caf3 d9bd c3b5 28bd
00000370: 978d aebd 97c1 3f3e eec1 a93d b4f5 cd3d
00000380: c19e 7ebe 9a69 aebd 86de 99bd 309c cebd
00000390: 03d2 223d 5486 94bb 6191 21bd 190d 46be
000003a0: 0fde 77bd e104 6dbe 52cb d93d b45f d4be
000003b0: 78b4 3b3e 7890 c9be 4d54 033e bf19 68be
000003c0: 5620 1fbd 98d0 05be 6f39 76be dc53 7abe
000003d0: 324c 79bd 5c10 f9bd 5a29 0a3d c516 2d3e
000003e0: a8f7 2a3d ba44 24bd 982a ecbe 74f3 9cbe
000003f0: e79d 163d 6d11 64bd 4e20 123d 69dc 25be
-0.075214826 0.18470661 -0.048095066 -0.38538992 -0.08411908 0.25137082 0.105649 0.3018058
-0.16958538 -0.09473644 0.34991327 -0.1244589 0.07117648 0.17563257 0.07930571 -0.048734702
-0.22890687 0.31303966 -0.055952836 0.3336929 0.0068680276 0.09130392 0.19281489 0.10875179
-0.046207603 0.1299899 0.010022475 -0.22001696 -0.34052923 -0.31201258 0.34161696 0.03294452
0.054165877 -0.14686121 -0.20053798 -0.0012880953 0.06533685 -0.2036047 -0.03669128 -0.13277787
-0.17323913 -0.3417202 0.33227575 0.5757581 -0.30141863 -0.029727716 0.09839588 0.17158473
-0.18453704 0.16517836 0.34711638 0.10886028 -0.050134685 0.1816434 -0.058375113 0.23241936
0.21833573 -0.08478318 0.13396296 -0.2248567 -0.17121364 -0.11937895 0.13429728 0.3051734
-0.17873488 0.003934912 -0.23299186 -0.19259678 0.1655243 -0.32071456 0.07735187 0.12718381
0.21634118 0.08310935 -0.3411874 -0.14733876 0.33357438 -0.21745421 -0.046041705 -0.094187066
0.30421352 -0.2208877 0.101702034 -0.18760931 0.103630036 0.048654813 0.16900489 0.3280607
0.09536955 -0.14018482 -0.2712558 -0.25829297 0.10616012 0.29734498 0.41271976 0.18035942
-0.09147483 0.08264957 -0.09188105 -0.011890374 0.18141752 -0.24999018 -0.052983295 0.060149405
0.031807173 -0.17072308 0.015686851 0.018493118 -0.42151615 0.09954036 0.10068019 -0.11552351
0.0709042 -0.22306044 -0.018584965 0.037384175 -0.15475374 -0.1013949 -0.007442365 0.11541427
-0.0533117 -0.16703577 -0.06727788 -0.2291531 0.1054195 0.016562674 -0.07697474 -0.32897088
-0.15093444 0.1973134 0.14777935 -0.15521652 0.06255704 0.15595299 0.08964791 -0.3205103
0.046353087 0.16337168 0.14533882 0.06476819 -0.34018135 -0.029226147 -0.17737311 -0.06295909
0.07242628 0.17103851 -0.0033504667 -0.041004922 0.03921439 0.04642447 -0.06733452 0.014678708
0.19827323 0.22302142 -0.27452382 -0.19540648 -0.37252447 0.048688047 -0.161269 -0.11338354
0.146628 -0.1899756 0.07238609 0.28844917 0.014040666 0.3301804 0.43063843 -0.094704844
-0.1556288 -0.02045961 -0.06575795 0.03660154 0.28353125 0.06784211 -0.015742397 -0.02363423
0.15999068 0.013985256 -0.18314649 0.13195486 -0.1083468 0.054507047 -0.35547236 -0.111790225
0.24905506 0.38663447 -0.014955852 -0.23432875 -0.014765651 0.3068633 -0.24697109 0.16566128
0.22741504 0.22284731 -0.017259596 -0.15391336 0.13314636 -0.39351583 0.018400375 0.11863817
0.06304877 0.28360826 0.19097717 -0.09060852 0.048229393 0.13538164 0.07408849 -0.14244424
0.018631343 0.052562643 0.17655483 0.069441594 0.13573694 -0.1727561 0.09243825 -0.12556557
-0.11724488 -0.06155569 -0.10642202 -0.041188966 -0.085231 0.18726192 0.08288942 0.1005663
-0.24865247 -0.08516236 -0.07513146 -0.10088384 0.039751064 -0.0045326147 -0.039445285 -0.19340934
-0.060514506 -0.23146392 0.106344834 -0.41479266 0.18330562 -0.39368033 0.12825127 -0.22666071
-0.038849197 -0.13067853 -0.24045347 -0.24446052 -0.06086368 -0.121613234 0.033730842 0.16903217
0.04174009 -0.040104605 -0.46126246 -0.3065449 0.03677168 -0.05568068 0.03567534 -0.16197361
