models/fsrcnn/track1/track1_x4__epoch_8.pth (torch, 57971 bytes, 22 tensors)

first_part.0.weight f4 [56, 1, 5, 5]
0	0xbc33db18	-0.010977529
1	0x3d2eefe5	0.04270925
2	0x3cd73f91	0.026275428
3	0x3bd715a1	0.0065638577
4	0xbc5a214c	-0.013313603
5	0xbd0388e8	-0.032112986
6	0x3d0e6a18	0.034769148
7	0xbc8d2cf7	-0.017233355
8	0xbd0dae9b	-0.034590345
9	0x3bf5e0d5	0.0075036087
10	0x3d7cf3c2	0.061755903
11	0xbcc5596c	-0.024090491
12	0x3d167bb0	0.03673905
13	0x3ca862cd	0.020554924
14	0x3c80017b	0.015625706
15	0x3cdf1ce6	0.02723546
16	0xbc8ca2b5	-0.017167429
17	0xbc36e2ca	-0.011162469
18	0x3d97687a	0.07392974
19	0xba9ba19e	-0.0011873727
20	0x3b18c69f	0.0023311747
21	0x3bddb823	0.0067663356
22	0x3d69f131	0.057114784
23	0x3b0cd450	0.0021488853
24	0xbd35fa3e	-0.044428103
25	0xbcebc66a	-0.028781135
26	0xbd1fa34e	-0.0389741
27	0xbd305f94	-0.0430599
28	0x3bea3062	0.007146881
29	0x3d436728	0.0477058
30	0xbd3262e8	-0.043551356
31	0x3d1aa7b9	0.03775761
32	0xbd2babdf	-0.041911956
33	0xbc770d6b	-0.015078883
34	0x3b9fe456	0.0048795147
35	0xbd067890	-0.03282982
36	0x3c7a5b7b	0.0152806
37	0x3b128a8a	0.0022360408
38	0x395be3ad	0.00020970283
39	0xbd85927b	-0.065220796
40	0xbb159d26	-0.0022829263
41	0x3ce308ae	0.0277141
42	0xbbc660cc	-0.0060540196
43	0x3abb8a45	0.0014308175
44	0xbc6dc1e5	-0.01451156
45	0x3d15b684	0.036551014
46	0xb99b6e8a	-0.00029646262
47	0xbdb91636	-0.090374395
48	0x3d4a93e5	0.04945745
49	0x3aedeed9	0.0018152847
50	0xbcdcca84	-0.026952036
51	0xbd40f590	-0.047109187
52	0xbc599f4f	-0.013282611
53	0xbc72cc29	-0.014819183
54	0x3ca68c0d	0.020330453
55	0xbbd297d4	-0.0064267907
56	0x3ad32b92	0.0016111007
57	0xbca7641f	-0.020433484
58	0xbcd43017	-0.025901837
59	0xbd988c80	-0.07448673
60	0xbd2962a1	-0.041353825
61	0xbda3cd87	-0.079981856
62	0xbd7c71d5	-0.061631996
63	0xbc6fbe01	-0.014632703
64	0xbd6441a3	-0.05572666
65	0x3d352164	0.044221297
66	0xbd689f2b	-0.05679242
67	0xbd8bea24	-0.06831768
68	0xbced9577	-0.029001934
69	0xbc650572	-0.013978349
70	0xbd816a1f	-0.06319069
71	0x3d3b7905	0.04576971
72	0x3d2643d8	0.040592045
73	0xbd2fc72b	-0.04291455
74	0xbc9ae25e	-0.018906768
75	0x3d15a690	0.0365358
76	0xbb0fad6b	-0.0021923434
77	0x3d65bddf	0.05608928
78	0x3c8f5dcd	0.017500782
79	0xbcb5f9dc	-0.022213869
80	0xbd2bf5a6	-0.041982315
81	0xbca69cb3	-0.020338392
82	0x3ba461d4	0.005016545
83	0xbd3ad3a2	-0.045611985
84	0xbb20e46e	-0.0024550217
85	0x3c0a723c	0.008450087
86	0x3dbd6685	0.0924807
87	0xbd12cb2f	-0.035838302
88	0xbd9b37a9	-0.07578976
89	0x3ce03750	0.027370125
90	0x3d4dca83	0.05024196
91	0xbd3b2845	-0.0456927
92	0xbd6fdb29	-0.058558617
93	0xba51c856	-0.00080025697
94	0xba7f3f28	-0.0009736889
95	0x3cfb0ca9	0.030645685
96	0xbd8282c4	-0.06372598
97	0xbc8fd098	-0.01755552
98	0xbd32b61e	-0.04363071
99	0xbdd13925	-0.102159776
100	0x3c20d066	0.009815311
101	0xbd226b12	-0.03965289
102	0xbcf360d5	-0.029709259
103	0xbdaca77d	-0.08430383
104	0xbc601e09	-0.013679036
105	0xbc9981f1	-0.018738719
106	0x3d942cda	0.07235117
107	0x3b631de4	0.0034655267
108	0x3d19ff3a	0.03759692
109	0xbbbdaf4c	-0.0057887193
110	0x3bc205f5	0.0059211203
111	0xbda10229	-0.0786174
112	0xbd28d040	-0.041214228
113	0xba055140	-0.00050856546
114	0x3c603299	0.013683938
115	0xbc557305	-0.013027911
116	0xbd9f65ca	-0.077830866
117	0xbd5a4e7a	-0.053297497
118	0xbd02cbd2	-0.03193266
119	0x3d340c13	0.043956827
120	0xbd4ab99b	-0.049493413
121	0xbc6678cf	-0.014066889
122	0x3d4b6061	0.04965246
123	0xbd8ef688	-0.06980616
124	0x3c981fc5	0.018569836
125	0xbda59e09	-0.080867834
126	0xbd504a8a	-0.050852336
127	0x3d3d95e6	0.046285532
128	0x3c9a97d7	0.018871231
129	0x3c5d2e97	0.013499877
130	0x3cf35625	0.029704163
131	0xbd0bf32b	-0.03416745
132	0xbc6cba41	-0.014448703
133	0xbd698be1	-0.057018165
134	0x3a99c225	0.0011730833
135	0xbd3e8580	-0.046514034
136	0xbcce57d0	-0.025188357
137	0x3d2a1e7c	0.04153298
138	0x3ce55234	0.027993299
139	0xbd07253f	-0.032994505
140	0x3d56125d	0.052263606
141	0xbd6cce1f	-0.05781376
142	0x3cac15d9	0.021006512
143	0xbc865b8d	-0.016401077
144	0xbc467c99	-0.012114667
145	0x3d4a5296	0.049395166
146	0xbbb03611	-0.005377539
147	0xbb8d6710	-0.0043152645
148	0xbc9bb909	-0.01900913
149	0xbcf794ab	-0.030222258
150	0xbdc188bf	-0.0944991
151	0x3cc1a2ea	0.023637254
152	0x3c4acc95	0.012377878
153	0x3d8c9b1b	0.068655215
154	0xbc8ba7bc	-0.017047755
155	0xbc60c390	-0.013718501
156	0x3c91847a	0.017763365
157	0x3cd8310a	0.026390571
158	0xbd485f0f	-0.04891878
159	0xbd61aca9	-0.055096302
160	0xbc5e7629	-0.013577976
161	0xbd64d028	-0.055862576
162	0xbca09c1c	-0.019605689
163	0xbc702cda	-0.014659131
164	0x3d0cbdaf	0.034360584
165	0xbda711c2	-0.08157684
166	0x3c9a219c	0.018814854
167	0xbd042bd2	-0.032268353
168	0x3c2c01e5	0.010498499
169	0xbc916071	-0.017746182
170	0xbd86be2a	-0.0657924
171	0x3c608bff	0.013705253
172	0xbb4d978f	-0.0031370854
173	0xbb8ac6b4	-0.004235113
174	0xbd8b5de2	-0.06805016
175	0x3d931d4e	0.07183324
176	0xbd408c1e	-0.047008626
177	0x3d991489	0.0747462
178	0xbde7ca5d	-0.113178946
179	0xbb99938e	-0.0046867793
180	0xbc0b296d	-0.008493763
181	0x3d3105eb	0.043218534
182	0xbdca7539	-0.0988564
183	0x3d8cb5b5	0.06870595
184	0x3d664b83	0.056224357
185	0x3d1e370b	0.03862671
186	0xbdc0de2d	-0.09417377
187	0x3e829480	0.25503922
188	0xbd17d901	-0.037072185
189	0x3cb56fdc	0.022148065
190	0x3ca22fea	0.019798238
191	0xbdb41822	-0.087936655
192	0x3d90b5fa	0.07065959
193	0xbdd04325	-0.10169057
194	0x3ddebe75	0.108761705
195	0x3dc816f1	0.09770001
196	0x3c4b0567	0.012391425
197	0x3ca82cef	0.020529239
198	0x3ca5610e	0.02018788
199	0x3cebb6ee	0.028773751
200	0x3cc05e9a	0.02348261
201	0x3d69019f	0.05688631
202	0xbb885b38	-0.0041612647
203	0x3b380a68	0.0028082374
204	0x3cebc7e7	0.028781844
205	0x3cf9b95b	0.030483892
206	0x3d2ce716	0.04221257
207	0xbca5eedc	-0.020255499
208	0x3cc2f257	0.023797197
209	0xbc16b297	-0.009197853
210	0x3be0696a	0.006848504
211	0xbcaf6a8c	-0.02141311
212	0x3d9b4053	0.07580628
213	0x3ba11c5c	0.004916711
214	0xbc85fb43	-0.016355162
215	0xbb361d6e	-0.0027788538
216	0x3c6d7729	0.014493742
217	0x3cb4fa2f	0.022091953
218	0xbc72d66a	-0.014821628
219	0xbd27d851	-0.04097778
220	0x3ca5bf21	0.020232739
221	0x3cc344b7	0.023836477
222	0x3dc4521f	0.09585976
223	0xbd389ee2	-0.045073397
224	0x3c6e4669	0.014543154
225	0x3d9f35a7	0.07773905
226	0xbd229fe2	-0.039703257
227	0xbd7444ca	-0.059635915
228	0x3d56342d	0.052295852
229	0xbd735869	-0.059410486
230	0xbc6dee8c	-0.014522206
231	0x3bb6862d	0.005570194
232	0x3ced971c	0.029002719
233	0xbd4904a0	-0.049076676
234	0x3c448d3a	0.011996562
235	0x3c3e5b15	0.011618395
236	0xbc848ab8	-0.016179428
237	0x3d988f84	0.074492484
238	0x3d534166	0.05157604
239	0x3d326afe	0.043559067
240	0x3d4ffe87	0.050779846
241	0xba53f3f3	-0.00080853625
242	0x3c5ffc01	0.013670922
243	0xbd29ee9d	-0.041487325
244	0x3d4bcf2e	0.04975813
245	0x3cfdee38	0.03099738
246	0x3d191ace	0.03737908
247	0x3ccff17f	0.025383709
248	0x3d6c8499	0.057743642
249	0x3d49dc72	0.0492825
250	0xbcaf5a84	-0.021405466
251	0x3cf1bd89	0.029509323
252	0xbd38e21d	-0.045137513
253	0xbbe4b598	-0.0069796555
254	0xbd3ee6b6	-0.04660674
255	0x3c311e08	0.010810383

first_part.0.bias f4 [56]
0	0xbbd06511	-0.0063597043
1	0xbaf62630	-0.0018779691
2	0x3b22bfbc	0.002483352
3	0xbb45a5e1	-0.0030158686
4	0x3bc373b5	0.005964721
5	0xbc0c9425	-0.008580242
6	0x3a1672a6	0.000573913
7	0x3cf1b520	0.029505312
8	0xbc0babca	-0.008524844
9	0xbbf847d5	-0.0075769224
10	0xbbcd11da	-0.0062582316
11	0xba5435ae	-0.0008095157
12	0xb8b882fa	-8.7982e-05
13	0x3c423207	0.011852748
14	0x3d59198a	0.05300287
15	0xbc3cf6e3	-0.011533472
16	0x3ae27504	0.0017277305
17	0xbbad9319	-0.0052970764
18	0x3bf29285	0.0074027204
19	0xbcad0fde	-0.02112573
20	0x3b68e548	0.0035537053
21	0xba37a13b	-0.0007004921
22	0xbc021014	-0.007938404
23	0xbbc773b0	-0.006086789
24	0xbc49e9c1	-0.012323798
25	0x3c2d6b7a	0.010584706
26	0xbc044108	-0.008072145
27	0x3bcb3de5	0.0062024468
28	0xbc9fa8de	-0.019489702
29	0x3b8173dd	0.0039505796
30	0xbba178f8	-0.0049277507
31	0x3aa72f81	0.0012755246
32	0xbb98afaf	-0.004659615
33	0xbbbaa019	-0.0056953547
34	0x392b7882	0.00016352723
35	0x3c916d92	0.017752443
36	0xba9b68cd	-0.0011856795
37	0x3b9f0080	0.0048523545
38	0x3bae32bd	0.005316107
39	0x3c9c288b	0.019062301
40	0x3d86e8f5	0.06587402
41	0x3b316fd2	0.0027074707
42	0x3c26a028	0.01017002
43	0xbd249c4b	-0.040188115
44	0xbac8f3c8	-0.0015331442
45	0x3b31fb7c	0.0027157953
46	0xbc6ccee0	-0.01445362
47	0xbb6b38d7	-0.0035892033
48	0xbdb94ad5	-0.09047476
49	0x3c57bc75	0.01316749
50	0xbc9cea07	-0.019154562
51	0x3cfac81a	0.030612994
52	0x39c5ee53	0.00037752333
53	0x3bc319e1	0.0059540127
54	0xbb85d71a	-0.00408448
55	0x3d2e7b51	0.042598072

first_part.1.weight f4 [56]
0	0x3e7b3e75	0.24535544
1	0x3e7b1562	0.24519876
2	0x3e83ffaa	0.25780994
3	0x3e85a505	0.26102462
4	0x3e7dfb78	0.24802959
5	0x3e8607c4	0.261778
6	0x3e8088a6	0.25104254
7	0x3e96519e	0.29359144
8	0x3fb895d7	1.4420727
9	0x3d9849ac	0.07435927
10	0x3faaed14	1.33536
11	0x3e8129e5	0.25227275
12	0x3f6388e0	0.8888073
13	0x3e822c7a	0.25424558
14	0x3e7510f9	0.23932256
15	0x3d1a535a	0.037677146
16	0x3eac4337	0.3364503
17	0x3e9178f9	0.28412607
18	0x3e84eb82	0.25960928
19	0x3e4b7a30	0.1987083
20	0x3e83793a	0.25678426
21	0x3fd44983	1.6584934
22	0x3e7e4886	0.24832353
23	0x3e7a6f02	0.24456409
24	0x3e33be2d	0.17553015
25	0x3e7a73ab	0.24458186
26	0x3fdbb8f8	1.7165823
27	0x3e820509	0.25394467
28	0x3e989c04	0.2980653
29	0x3e8c8cc5	0.2745115
30	0x3e78df51	0.24303938
31	0x3e925fe1	0.28588775
32	0x3fbab171	1.4585401
33	0x3ec0d8af	0.37665316
34	0x3e799a68	0.24375308
35	0x3e81946a	0.25308543
36	0x3e6e22d1	0.23255469
37	0xbcb5101f	-0.022102414
38	0x3e8bc167	0.27295992
39	0x3e80b649	0.25139073
40	0x3f0f8d95	0.5607541
41	0x3e89f476	0.2694432
42	0x3e812bb8	0.25228667
43	0x3ea875c5	0.3290235
44	0x3f529cf6	0.82270753
45	0x3e3a0f61	0.18169929
46	0x3fecd24b	1.8501676
47	0x3e822392	0.25417763
48	0x3f0c98ad	0.54920465
49	0x3e7a0565	0.2441612
50	0x3fb7f283	1.4370884
51	0x3e809081	0.25110248
52	0x3e626fed	0.22113009
53	0x3e33b66b	0.17550056
54	0x3e8adf2b	0.2712339
55	0x3e846a03	0.2586213

mid_part.0.weight f4 [12, 56, 1, 1]
0	0x3f03699c	0.5133302
1	0x3e5b32bf	0.21406077
2	0xbf418e20	-0.7560749
3	0x3e779a06	0.24179849
4	0x3ec95d6c	0.39329088
5	0x3ead70f4	0.3387524
6	0xbdae3b54	-0.0850741
7	0x3f0329f7	0.5123591
8	0x3e2b2769	0.16714253
9	0xbf9759e6	-1.182431
10	0x3f01d34d	0.50713044
11	0xbd9f1dd7	-0.077693634
12	0xbf0ba678	-0.54550886
13	0x3f87d748	1.0612574
14	0x3edd5531	0.43229058
15	0x3ed0a2a0	0.40749073
16	0x3dbcbbf7	0.09215539
17	0x3d8a8f42	0.067656055
18	0x3f0e1be6	0.5551132
19	0xbe7d06c1	-0.24709608
20	0x3c51758d	0.012784374
21	0x3f35b689	0.7098165
22	0xbeba7c51	-0.3642297
23	0xbeecec77	-0.46274158
24	0xbd994ee7	-0.074857526
25	0xbd9b7456	-0.07590549
26	0x3eda2e27	0.42613336
27	0xbf399d27	-0.7250542
28	0x3e8a0a72	0.26961094
29	0x3eced121	0.40393928
30	0x3d3d4cbf	0.04621577
31	0x3eb43816	0.3519904
32	0x3f0a72e1	0.5408154
33	0x3e0e0cb7	0.13872038
34	0xbf0ebf4b	-0.5576064
35	0xbf304772	-0.68859017
36	0xbd648cb6	-0.055798255
37	0xbd3cd0d9	-0.04609761
38	0xbe8cf666	-0.27531737
39	0x3ec00955	0.3750712
40	0xbdbf8218	-0.09350985
41	0x3f007d36	0.50191057
42	0xbec46aa6	-0.38362616
43	0xbdf1de91	-0.11810029
44	0xbe0a569b	-0.135096
45	0xbe1bc141	-0.1521044
46	0xbdd30c2a	-0.103050545
47	0xbf1be30c	-0.6089332
48	0xbe1c7a5b	-0.1528105
49	0xbf1485e7	-0.5801682
50	0xbdcce5a9	-0.10004742
51	0xbe2e465c	-0.17019027
52	0xbf2ca4db	-0.6743905
53	0x3e265a5a	0.16245404
54	0xbe985f10	-0.29760027
55	0xbe60b185	-0.21942718
56	0xbe9f3a74	-0.31099284
57	0xbf797b0a	-0.9745337
58	0x3effc0fa	0.49951917
59	0xba917e67	-0.0011100293
60	0x3c81e1de	0.015854772
61	0x3f4c6860	0.79846764
62	0x3f3e67dd	0.7437723
63	0x3f0516fe	0.5198821
64	0x3ced3623	0.028956478
65	0xbdbfff75	-0.093748964
66	0xbd9be4ae	-0.076119766
67	0xbefa96f4	-0.48943293
68	0x3e4012a6	0.18757114
69	0x3e3ef9ed	0.18650027
70	0xbf1eafaf	-0.6198682
71	0x3e0d636e	0.1380746
72	0xbf0cfac4	-0.5507014
73	0x3e79cf86	0.2439557
74	0x3f1fc335	0.6240724
75	0xbdda02bb	-0.10645052
76	0x3f59f247	0.8513531
77	0xbe825ad6	-0.25459927
78	0x3dab72f3	0.08371534
79	0xbec48026	-0.3837902
80	0xbec31bd2	-0.38107163
81	0xbd97a349	-0.07404191
82	0x3db0ef57	0.086394005
83	0xbf0c6b78	-0.54851484
84	0x3f135f68	0.57567453
85	0x3f4a1633	0.78940123
86	0xbe4447aa	-0.19167963
87	0x3edaa648	0.42704988
88	0x3e2d624a	0.16932026
89	0xbec90c5a	-0.39267236
90	0xbdbcfa1f	-0.09227394
91	0xbe15dbfe	-0.14634702
92	0x3e78ac9c	0.24284595
93	0x3e607b69	0.21922077
94	0xbf32ae6d	-0.697974
95	0xbe80017e	-0.25001138
96	0x3e7175a8	0.23580039
97	0x3f32ef11	0.69896036
98	0xbe935c8b	-0.28781542
99	0x3f5a27c0	0.85216904
100	0x3f3a34f1	0.7273703
101	0x3e013c23	0.12620597
102	0x3ee3a507	0.44461843
103	0x3db6ce36	0.0892605
104	0x3ea39aa4	0.3195392
105	0xbdf22261	-0.118229635
106	0x3f5a14f7	0.8518824
107	0xbf0fbdf8	-0.56149244
108	0xbc9cb459	-0.019128965
109	0xbe727a81	-0.23679544
110	0x3f294156	0.6611532
111	0xbeebbea5	-0.46043888
112	0x3e8cfb3a	0.2753542
113	0xbf1b13ff	-0.60577387
114	0xbe88f68b	-0.26750597
115	0xbecbf0e8	-0.39832234
116	0xbd974958	-0.07387036
117	0x3f1b327a	0.60623896
118	0xbdf04ffd	-0.117340066
119	0xbd34e3e5	-0.04416265
120	0x3f26f0e1	0.652113
121	0x3f4a953f	0.7913398
122	0x3dc5f64b	0.09666117
123	0x3f5097f6	0.81481874
124	0xbedde341	-0.43337443
125	0xbe19b4e0	-0.15010405
126	0xbdcb1ddf	-0.09917807
127	0x3ecbdb3f	0.3981571
128	0xbc04e554	-0.008111317
129	0xbe0c7a13	-0.13718443
130	0x3ef255d4	0.47331107
131	0x3ebd4d9c	0.36973274
132	0xbf096ae2	-0.53678715
133	0x3e6f3e40	0.2336359
134	0xbe03c495	-0.12867959
135	0xbe9cccb4	-0.30624926
136	0x3ed366b6	0.412893
137	0xbea7eee6	-0.32799453
138	0xbe224257	-0.15845619
139	0xbe840723	-0.25786695
140	0xbefba8c2	-0.4915219
141	0x3ed1d1d9	0.40980414
142	0x3c9da6a8	0.019244507
143	0xbe1232ad	-0.14277144
144	0x3efa721b	0.4891518
145	0x3f33fea3	0.7031042
146	0x3f21cd54	0.6320393
147	0x3ec3a42f	0.382112
148	0x3ea2ed82	0.3182183
149	0x3e9faa41	0.3118458
150	0xbef2eea6	-0.474477
151	0x3de6d429	0.11270935
152	0xbccc0e28	-0.024909094
153	0x3e02d7cb	0.12777631
154	0xbe593971	-0.21213318
155	0xbb9e352b	-0.0048281155
156	0x3e0dd753	0.13851671
157	0x3ed26dbe	0.41099352
158	0x3e81980e	0.2531132
159	0x3ef75ffc	0.48315418
160	0xbc30742d	-0.010769886
161	0x3f198b71	0.59978396
162	0x3e5d7550	0.21626782
163	0xbf10f93f	-0.5663032
164	0x3c88d395	0.016702453
165	0x3edc4ba8	0.4302647
166	0xbeb375a1	-0.3505068
167	0xbea51b5f	-0.32247445
168	0x3d3d861e	0.046270482
169	0x3e9f88d6	0.31159085
170	0xbe088c8d	-0.13334866
171	0x3e1fb624	0.15596825
172	0x3e80f114	0.25183928
173	0xbc45c57e	-0.012071012
174	0xbe2f9af8	-0.1714896
175	0x3ea845b1	0.3286567
176	0xbf1437fc	-0.57897925
177	0xbebd7c85	-0.37009063
178	0x3f13705a	0.5759331
179	0xbeb7f1d0	-0.35926676
180	0x3ec09c9e	0.3761949
181	0xbef8b457	-0.48575088
182	0x3f229c76	0.6351999
183	0xbdcb7955	-0.099352516
184	0x3e0cb9c8	0.13742745
185	0x3e6a10f2	0.22858027
186	0xbd5ae17f	-0.053437706
187	0x3f610be1	0.8790875
188	0xbefbcd6c	-0.49180162
189	0x3f2364f0	0.63825893
190	0xbea6833d	-0.32522002
191	0xbecc32cd	-0.39882508
192	0x3ef9c86c	0.48785722
193	0x3d7d1c92	0.061794825
194	0xbee0a353	-0.43874606
195	0x3f750c38	0.9572177
196	0x3de9cdde	0.11416219
197	0x3ecaaedc	0.39586532
198	0xbd75a7a1	-0.059974317
199	0xbe1cb0ae	-0.15301773
200	0xbf01d6b7	-0.50718254
201	0x3e5ac5fc	0.21364588
202	0xbdde88c2	-0.10865928
203	0x3ef319da	0.4748066
204	0x3e0e64aa	0.13905588
205	0xbdf59551	-0.119913705
206	0xbc93f5a1	-0.01806146
207	0x3e53897a	0.20657912
208	0xbd902cec	-0.07039818
209	0x3f88edd3	1.0697578
210	0x3f461bcc	0.77386165
211	0x3f2a848e	0.6660851
212	0xbf7ac7c9	-0.979611
213	0xbe7913e6	-0.24323997
214	0x3ef29a01	0.4738312
215	0xbdb79356	-0.08963649
216	0x3ec64256	0.38722485
217	0x3f11d1e5	0.569609
218	0xbe97b5d4	-0.2963091
219	0xbf00cd9c	-0.50313735
220	0xbec43603	-0.38322458
221	0x3ee81da0	0.45335102
222	0xbe59e2a3	-0.21277861
223	0x3f023853	0.50867194
224	0xbe7c3b8d	-0.24632092
225	0x3dbe7f53	0.09301629
226	0x3dfd4663	0.12366941
227	0x3da4b1ea	0.08041747
228	0xbe24ec62	-0.16105798
229	0xbeb13847	-0.3461325
230	0xbe529c64	-0.20567471
231	0x3f0f9dfb	0.56100434
232	0x3ef2d3a4	0.47427094
233	0xbe8729d9	-0.26399115
234	0xbe1a2e24	-0.15056664
235	0x3c974bdb	0.018468788
236	0xbfacbf9b	-1.3495973
237	0x3f4beda4	0.79659486
238	0x3f50ac18	0.81512594
239	0xbd9fd863	-0.07804944
240	0x3eb6e6af	0.35722873
241	0xbe44590f	-0.19174598
242	0x3e9d2e4f	0.30699393
243	0xbeca48a0	-0.39508533
244	0x3e606bbd	0.21916099
245	0x3e9352dd	0.28774157
246	0x3ebaf3b0	0.36514044
247	0x3d1862bd	0.03720354
248	0xbdd898d1	-0.105760224
249	0xbe01acc6	-0.12663564
250	0x3f0b0ee3	0.5431959
251	0x3e6ab493	0.22920446
252	0xbf30251e	-0.68806636
253	0xbead7423	-0.33877668
254	0x3d45a1f4	0.048250154
255	0x3e5d42dc	0.21607536

mid_part.0.bias f4 [12]
0	0x3bb90d85	0.0056473636
1	0xbce7cc63	-0.028295701
2	0xbb83ce53	-0.0040223985
3	0x3b5f0de6	0.0034035384
4	0x3da8fa08	0.08250815
5	0x3bf52a60	0.007481858
6	0x3d0a1c6c	0.03371851
7	0x3d0610fa	0.032731034
8	0xbcd5fc91	-0.02612141
9	0xbb284b87	-0.0025679783
10	0xbba2d7b8	-0.0049695633
11	0x3d316f3e	0.04331898

mid_part.1.weight f4 [12]
0	0x3e8aa46c	0.2707857
1	0x3ebf5c92	0.37375313
2	0x3e7feca4	0.24992615
3	0x3e852179	0.260021
4	0x3eede5c2	0.46464354
5	0x3f652887	0.89514965
6	0x3e7af2f4	0.24506742
7	0x3eecdfd9	0.46264532
8	0x3e97759a	0.2958191
9	0x3ed3082d	0.41217175
10	0x3ee7a8cc	0.4524597
11	0x3e916429	0.2839673

mid_part.2.weight f4 [12, 12, 3, 3]
0	0x3e861e6e	0.2619509
1	0xbcf3d806	-0.029766094
2	0x3cab3e0c	0.02090361
3	0xbe8bd945	-0.273142
4	0x3e0309b7	0.12796675
5	0xbdf1c1c5	-0.11804537
6	0xbd51c0b0	-0.05120915
7	0xbdff0fbb	-0.12454172
8	0x3db75405	0.08951572
9	0x3e44f9de	0.19235942
10	0xbe64bf62	-0.22338632
11	0x3e5d9598	0.21639097
12	0x3d14d26a	0.03633348
13	0xbdfa8a29	-0.12233383
14	0xbdf3f7ed	-0.119125225
15	0xbd9421d5	-0.072330154
16	0xbe260b98	-0.1621536
17	0x3d16b061	0.0367893
18	0x3db7b1e8	0.0896948
19	0x3e1fd5cb	0.156089
20	0x3d6959a9	0.056970272
21	0x3e2328cb	0.1593353
22	0x3c04455a	0.008073175
23	0xbce9876f	-0.028506963
24	0x3e85cb46	0.26131648
25	0x3d7d6a43	0.061868917
26	0xbd938482	-0.07203008
27	0x3c1cd5d5	0.009572466
28	0xbd9d2100	-0.0767231
29	0x3e083682	0.13302043
30	0x3e0a0000	0.13476562
31	0xbe96971e	-0.29412168
32	0xbe8f7fcc	-0.2802719
33	0xbe036273	-0.12830524
34	0xbd51c6fd	-0.05121516
35	0x3e4efa63	0.20212702
36	0xbe31c93f	-0.17361926
37	0xbdecd65d	-0.11564324
38	0xbdbf6bf8	-0.09346765
39	0xbc9d012b	-0.019165596
40	0x3e832860	0.2561674
41	0xbe745dd0	-0.23863912
42	0x3d0da91a	0.034585096
43	0xbc6f82eb	-0.014618616
44	0x3d4c9b2a	0.049952663
45	0x3e5bd3e5	0.2146755
46	0x3d336eed	0.04380696
47	0x3e5800ed	0.21094103
48	0xbd58809d	-0.05285703
49	0xbddcc6a8	-0.10780078
50	0x3da1217a	0.07867713
51	0xbdbdbc46	-0.09264426
52	0x3d8e95ba	0.06962152
53	0xbdd6220c	-0.10455713
54	0xbe3fb937	-0.18722998
55	0x3cb48c21	0.022039475
56	0xbb3a2965	-0.002840602
57	0x3e72accf	0.23698734
58	0xbdcc0865	-0.09962539
59	0x3cf991e8	0.030465081
60	0xbde85c9d	-0.113457896
61	0x3e07f49d	0.13276906
62	0x3e1ab9d8	0.15109956
63	0x3e0569d7	0.13028656
64	0xbd80abdb	-0.06282779
65	0x3e7b9727	0.24569379
66	0x3c0ac26e	0.008469207
67	0x3c45222a	0.012032071
68	0xbb3c14a3	-0.0028698824
69	0x3bacfe7c	0.0052793603
70	0xbe6e01ad	-0.23242827
71	0xbe553f78	-0.20824993
72	0xbc3a3830	-0.011365935
73	0xbcb2394e	-0.02175584
74	0x3d3fb80d	0.046806384
75	0xbe4684a4	-0.19386536
76	0x3e8d8905	0.276436
77	0xbd935d6f	-0.071955554
78	0xbd79a234	-0.060945705
79	0xbd830bfa	-0.06398769
80	0x3cb85893	0.022503173
81	0xbe3b29cd	-0.18277664
82	0x3c67799f	0.014128118
83	0x3d1c9a16	0.038232885
84	0x3d2d94ee	0.04237836
85	0x3de2288e	0.110428914
86	0x3e0670fe	0.1312904
87	0xbdf16604	-0.11787036
88	0xbd1e0704	-0.03858091
89	0x3ca485a4	0.020083256
90	0x3d92b23e	0.07162903
91	0xbbf15ee3	-0.0073660477
92	0x3e71af65	0.23602064
93	0xbdf90db6	-0.12160818
94	0xbd3ab0f8	-0.045578927
95	0xbd959c0a	-0.07305153
96	0x3d2b3b1b	0.041804414
97	0x3dcdf1d8	0.10055894
98	0x3d10d7f5	0.035362203
99	0x3cf24cce	0.029577639
100	0xbd5bb76e	-0.05364173
101	0xbdcc5d4a	-0.09978731
102	0xbcaec41f	-0.021333752
103	0x3da4da26	0.08049421
104	0x3cf68355	0.03009192
105	0x3d829e73	0.06377878
106	0x3d7a823a	0.06115935
107	0x3c5e231c	0.013558175
108	0x3c3f01a4	0.011658106
109	0xbd62ef01	-0.055403713
110	0xbc21a355	-0.009865602
111	0x3cc48bf2	0.023992512
112	0x3d92a1fa	0.07159801
113	0xbe8482ce	-0.25881046
114	0x3e463562	0.19356301
115	0x3d876b05	0.06612209
116	0x3e014c58	0.12626779
117	0x3e178185	0.14795502
118	0x3dc17f9d	0.094481684
119	0xbc20cfbd	-0.009815154
120	0x3e6cdd3c	0.23131269
121	0x3df23570	0.11826599
122	0x3a7abcfd	0.00095649046
123	0x3d44d1f1	0.04805178
124	0xbdee7049	-0.116425104
125	0x3e1744f6	0.147724
126	0xbcfcdcc4	-0.030866988
127	0xbea6cdab	-0.32578787
128	0xbe26757a	-0.16255751
129	0x3c9f70aa	0.019462902
130	0x3d73c313	0.05951221
131	0xbe96e2b1	-0.29469827
132	0xbde2c65a	-0.11072989
133	0x3dc3daef	0.09563243
134	0xbdc1bbf4	-0.09459677
135	0xbb5b0aaf	-0.0033423116
136	0x3e8a4763	0.2700759
137	0xbd9a44d7	-0.075326614
138	0xbc2d34a2	-0.010571631
139	0xbdb1eab1	-0.08687342
140	0x3c801a39	0.015637504
141	0xbde0dd37	-0.109796934
142	0x3eb59ee9	0.354728
143	0xbe24bfd1	-0.16088797
144	0x3e6a4c1a	0.22880593
145	0xbe294810	-0.16531396
146	0xbd3380d5	-0.043824036
147	0xbe3945e6	-0.1809307
148	0xbe0c768b	-0.13717096
149	0x3d2c180f	0.04201513
150	0xbda436f6	-0.080182955
151	0xbdbde8f7	-0.0927295
152	0xbc199693	-0.009374279
153	0xbde9dc9d	-0.11419032
154	0x3d2ad935	0.04171105
155	0xbe8666af	-0.26250216
156	0x3c17f162	0.009273859
157	0x3dd52551	0.10407508
158	0x3dc2ccea	0.095117405
159	0x3e10f543	0.1415606
160	0xbd7a3234	-0.061083034
161	0xbcdb42a1	-0.02676517
162	0x3e444bc5	0.19169529
163	0xbe4aac0b	-0.19792192
164	0xbe272f28	-0.16326582
165	0xbc4e73d1	-0.012600855
166	0x3e4ec5de	0.20192668
167	0xbd3dfb12	-0.046382017
168	0xbe97e306	-0.29665393
169	0xbc74b534	-0.01493578
170	0x3dedcba9	0.11611111
171	0xbe2b834f	-0.16749309
172	0x3e2d2895	0.16910012
173	0xbde7946c	-0.11307606
174	0xbd285992	-0.041101046
175	0x3e5fe4e4	0.21864659
176	0x3e1a0b97	0.15043484
177	0xbd67632f	-0.056491073
178	0xbdf29095	-0.11843983
179	0xbdcd7d20	-0.10033631
180	0x3dba03c9	0.09082753
181	0xbdd599bd	-0.10429714
182	0x3dafb71b	0.085798465
183	0xbca82af5	-0.020528296
184	0x3d9a5ad7	0.075368576
185	0xbe9df415	-0.30850282
186	0x3d23cb71	0.03998894
187	0xbd8fd197	-0.07022398
188	0xbd636f8c	-0.0555263
189	0xbdf2e5bb	-0.11860224
190	0xbdb3a46e	-0.08771597
191	0xbd89d639	-0.06730313
192	0x3c4b7494	0.012417931
193	0xbd85ebb9	-0.06539101
194	0xbb734be1	-0.0037124085
195	0xbe309de6	-0.17247733
196	0xbd199f31	-0.037505332
197	0x3cb3a496	0.021929067
198	0xbda19de9	-0.07891447
199	0x3e05b94c	0.13058966
200	0x3d27c444	0.040958658
201	0x3e803fdf	0.2504873
202	0xbd43a9a5	-0.047769208
203	0xbe06d0c2	-0.13165572
204	0xbe0e99af	-0.13925813
205	0x3d23c7ae	0.03998535
206	0x3dfd582b	0.12370332
207	0x3e8ac00d	0.27099648
208	0x3e4d8160	0.20068884
209	0x3d930329	0.07178337
210	0x3ddbdcb2	0.10735454
211	0x3dad03bf	0.0844798
212	0x3e21414e	0.15747568
213	0xba3c8e60	-0.00071928464
214	0x3dfea14c	0.12433109
215	0x3e1e3dbd	0.15453239
216	0x3d894236	0.06702082
217	0xbe21ff99	-0.15820159
218	0xbd0ac21a	-0.033876516
219	0xbcf10fa9	-0.029426413
220	0x3e3ffa5c	0.18747848
221	0x3e338702	0.1753197
222	0x3e1c9653	0.15291719
223	0xbcb8ce78	-0.02255939
224	0x3e946485	0.2898294
225	0xbd9c6c71	-0.07637871
226	0xbdd89813	-0.10575881
227	0x3d904ea4	0.070462495
228	0x3e4845ec	0.19557923
229	0xbd8ea37d	-0.06964777
230	0xbc91f357	-0.017816229
231	0xbd6a007e	-0.057129376
232	0x3dcf77c5	0.10130266
233	0x3dc3fca0	0.09569669
234	0x3e11b4ec	0.14229172
235	0xbe89d943	-0.2692357
236	0xbe4f59f5	-0.2024916
237	0x3d7e31c2	0.06205917
238	0xbe048290	-0.1294043
239	0xbbfd25cd	-0.0077254535
240	0x3de68f4d	0.11257801
241	0x3cd9df4c	0.026595734
242	0x3d17f3c4	0.037097707
243	0xbe14ef23	-0.14544348
244	0x3bfd22e2	0.0077251056
245	0xbd8bf584	-0.06833938
246	0x3e801894	0.25018752
247	0x3e3a552f	0.18196557
248	0x3e3a7f7e	0.18212697
249	0x3ce1725d	0.027520353
250	0x3e1ab569	0.15108265
251	0x3d36c91b	0.044625383
252	0x3ea54b2e	0.3228392
253	0xbe667579	-0.2250575
254	0xbdb6f61f	-0.089336626
255	0x3d1d1561	0.038350467

mid_part.2.bias f4 [12]
0	0x3bc14c17	0.005898963
1	0x3c0815bf	0.008305966
2	0xbb83a12c	-0.004017016
3	0x3b41527f	0.0029498634
4	0x3d0a3aef	0.03374761
5	0xbbbed3ca	-0.005823587
6	0xbb9814fa	-0.0046411725
7	0x39d2b2f1	0.00040187643
8	0x3c8648d6	0.016392153
9	0x3aa877e9	0.0012853119
10	0x3cc26184	0.02372814
11	0x3cf73211	0.03017524

mid_part.3.weight f4 [12]
0	0xbe8b8ba3	-0.27254972
1	0x3e7c3a01	0.24631502
2	0x3e86366e	0.26213402
3	0x3f618e10	0.88107395
4	0x3ed84277	0.4223821
5	0x3e815e18	0.252671
6	0x3f091a4a	0.5355574
7	0x3e0a24ad	0.13490553
8	0x3e6947c5	0.22781284
9	0x3f30ce3e	0.690647
10	0x3e878e6d	0.2647585
11	0x3e849282	0.25893027

mid_part.4.weight f4 [12, 12, 3, 3]
0	0x3cbe9b4b	0.023267409
1	0xbd8af162	-0.06784321
2	0x3e64dda9	0.22350182
3	0x3e9c2199	0.30494383
4	0xbd5918aa	-0.053002037
5	0x3dfb4e45	0.12270788
6	0xbe1fca1d	-0.15604444
7	0x3d9b488a	0.07582195
8	0xbdbb0f82	-0.09133817
9	0xbe58f29b	-0.21186297
10	0xbdf41bb4	-0.119193465
11	0x3eaa86bb	0.33305916
12	0xbd698bc4	-0.057018057
13	0x3e20b653	0.15694551
14	0xbe26e825	-0.16299494
15	0xbde861f4	-0.11346808
16	0x3bf5b75b	0.0074986643
17	0x3e6a5a20	0.22885942
18	0xbe1710e3	-0.14752536
19	0x3e13b3e6	0.14424095
20	0x3ab4644e	0.0013762803
21	0x3e02d6db	0.12777273
22	0xbcc5aca4	-0.024130173
23	0xbda4a51c	-0.080393046
24	0xbd65b9e8	-0.056085497
25	0x3e3306da	0.17483082
26	0x3e259e07	0.16173564
27	0xbd8610fd	-0.06546209
28	0xbe963d56	-0.2934367
29	0x3d45adc3	0.048261415
30	0x3e36f1b7	0.17865644
31	0xbe16619f	-0.14685677
32	0xbe83a3fa	-0.25711042
33	0xbe03aaaf	-0.1285808
34	0x3e3e3b27	0.18577252
35	0x3dc50678	0.096203744
36	0xbdef54b2	-0.11686076
37	0x3e1ee133	0.15515594
38	0x3dcf25a2	0.101146
39	0xbe660cd5	-0.22465833
40	0x3eb9855d	0.3623456
41	0x3cb203c0	0.021730304
42	0xbe956b32	-0.29183346
43	0x3d0ce9cc	0.034402654
44	0x3e238ee2	0.15972474
45	0xbcbdbe41	-0.02316201
46	0xbd9ccd90	-0.076563954
47	0x3dea832e	0.11450802
48	0xbe723069	-0.2365128
49	0x3d8c3bfd	0.06847379
50	0xbeb1e8d9	-0.3474796
51	0x3d687bf3	0.056758832
52	0x3e791e77	0.24328028
53	0xbe100499	-0.14064254
54	0x3e08cb76	0.13358864
55	0xbe74cf24	-0.23907143
56	0xbdb0b418	-0.086281
57	0x3dccd84d	0.100021936
58	0xbb88c932	-0.004174375
59	0xbe0e1334	-0.13874513
60	0xbcd7ee40	-0.026358724
61	0xbe8b7fbf	-0.272459
62	0x3e9682ea	0.29396755
63	0x3d85114a	0.06497438
64	0xbde3205d	-0.11090157
65	0x3e4160b8	0.18884552
66	0xbd088e2d	-0.033338714
67	0x3d59ae73	0.053144883
68	0x3def0b0a	0.116720274
69	0xbe5b0a22	-0.21390584
70	0xbdced887	-0.10099893
71	0xbd897b1c	-0.067129344
72	0xbd1bf617	-0.038076486
73	0x3cb43234	0.021996595
74	0xbdc251d0	-0.09488261
75	0xbe2ff5e4	-0.17183644
76	0x3b8d08dd	0.004304035
77	0x3c884de6	0.016638707
78	0x3d39fcff	0.04540729
79	0xbd657420	-0.05601895
80	0x3e384d2f	0.17998193
81	0x3dce9204	0.10086444
82	0xbc5d890d	-0.013521445
83	0x3e5ab637	0.21358572
84	0x3de5ce62	0.11221005
85	0x3e19d63f	0.15023135
86	0xbd09814a	-0.033570565
87	0x3da2cb94	0.07948986
88	0x3e2e9b70	0.17051482
89	0xbeab551c	-0.3346337
90	0x3d73c884	0.0595174
91	0x3e583236	0.21112904
92	0xbd482495	-0.048863012
93	0x3e45dcfe	0.19322583
94	0xbe49abca	-0.19694439
95	0x3d9ea073	0.07745447
96	0xbda2c915	-0.079485096
97	0x3d0643c0	0.032779455
98	0x3c10662a	0.00881342
99	0x3e6d0071	0.231447
100	0xbd0838e7	-0.03325739
101	0x3e9f2928	0.31086087
102	0xbea4f86a	-0.32220775
103	0x3e849537	0.25895092
104	0xbef148ee	-0.47125953
105	0xbb8f9aa3	-0.004382448
106	0x3e2d59ac	0.16928738
107	0x3e9a6872	0.3015781
108	0x3df703f6	0.12061302
109	0xbe63e5bf	-0.2225561
110	0xbd43e5f8	-0.047826737
111	0x3e8baf25	0.27282062
112	0x3db3350b	0.087503515
113	0x3dc8412f	0.09778058
114	0x3e94738d	0.28994408
115	0xbe7555f2	-0.23958567
116	0x3d1b2383	0.037875663
117	0xbcb5de57	-0.022200746
118	0x3d81d5ad	0.063395835
119	0xbd1bc5f3	-0.038030576
120	0x3e94af1c	0.29039848
121	0x3d6a4532	0.057194896
122	0x3ea650dd	0.3248357
123	0xbe7a1e75	-0.24425681
124	0xbe815e6a	-0.25267345
125	0xbda561dc	-0.08075306
126	0xbe545f5d	-0.20739503
127	0x3df5fb2b	0.12010797
128	0xbd52395f	-0.051324245
129	0xbeebe38b	-0.4607204
130	0xbe2ebbf1	-0.17063881
131	0xbd4c7ce8	-0.049923807
132	0xbf0ae8b5	-0.5426133
133	0xbe3cab5f	-0.18424748
134	0x3dcf5ddd	0.10125325
135	0x3ca3550e	0.019938018
136	0x3e2db3b4	0.16963083
137	0x3e6f9500	0.23396683
138	0x3e30c012	0.17260769
139	0x3eaa329d	0.3324174
140	0x3d81bea7	0.06335192
141	0x3ebcb0e6	0.36853713
142	0x3eafb662	0.34318835
143	0xbdc68112	-0.09692587
144	0xbccaa12b	-0.024735054
145	0xbce2a573	-0.027666783
146	0xbd03258f	-0.03201824
147	0xbe42698a	-0.18985572
148	0xbc8e9e0b	-0.017409345
149	0x3b220614	0.002472286
150	0xbeaecaf5	-0.3413922
151	0xbd4e0fc8	-0.05030802
152	0xbcf480f0	-0.029846638
153	0xbcf9553d	-0.030436153
154	0xbe402a24	-0.18766075
155	0x3e91e7e7	0.2849724
156	0xbe79b47a	-0.24385253
157	0xbd3d63d8	-0.046237797
158	0x3e0d3e69	0.13793339
159	0xbe0079f1	-0.12546517
160	0x3d075d3d	0.033047903
161	0xbd8a807c	-0.06762788
162	0x3e88bb0c	0.26705205
163	0xbd2507ae	-0.040290527
164	0xbd5424cd	-0.05179291
165	0x3ebac3f1	0.36477616
166	0xbdb81eeb	-0.08990272
167	0x3cc3a128	0.023880556
168	0x3e0012bb	0.12507145
169	0xbd27e3ee	-0.040988855
170	0xbe8157ac	-0.252622
171	0x3eac56bf	0.33659932
172	0xbe7b65ba	-0.24550524
173	0xbe76109b	-0.24029772
174	0xbd34c2a0	-0.04413092
175	0xbb3157b5	-0.0027060334
176	0x3d9bae2c	0.0760158
177	0x3e281415	0.1641391
178	0x3e0a5f67	0.13512956
179	0x3eda7f33	0.4267517
180	0xbd8a74de	-0.06760572
181	0xbe881a49	-0.26582554
182	0xbe2a6c19	-0.16642798
183	0xbc912cb9	-0.01772152
184	0xbdee31b6	-0.11630575
185	0x3dab5dd9	0.083675094
186	0x3e4c0f6a	0.19927755
187	0x3e93b0be	0.2884578
188	0x3def0a21	0.11671854
189	0xbed4ec79	-0.41586664
190	0x3e014a49	0.12625994
191	0xbe1acaa9	-0.15116371
192	0x3e464961	0.1936393
193	0x3e671fad	0.22570677
194	0xbd0f0978	-0.03492114
195	0x3d177072	0.03697247
196	0xbc5b14b3	-0.013371634
197	0x3dd440ca	0.1036392
198	0xbdd6642d	-0.10468326
199	0xbebae3e3	-0.3650199
200	0xbc38588d	-0.011251581
201	0x3ecf62a1	0.40504935
202	0x3ecb922b	0.39759955
203	0x3e087cea	0.13328901
204	0xbecc4f9e	-0.39904493
205	0xbe79e928	-0.24405348
206	0x3e1418bf	0.14462565
207	0xbe6eedc7	-0.23332892
208	0xbe8273a9	-0.25478867
209	0xbe936220	-0.287858
210	0xbe46e708	-0.19424069
211	0x3d707da9	0.05871359
212	0x3ac73dfe	0.001520097
213	0x3f197e1d	0.5995806
214	0x3ebb1f84	0.36547482
215	0x3e89095d	0.26764956
216	0x3e4aafb0	0.19793582
217	0xbe472c73	-0.1945055
218	0x3e1b6e66	0.15178832
219	0x3d96a2c6	0.07355265
220	0x3d16f457	0.036854114
221	0xbc4a870c	-0.012361299
222	0xbe1b63c1	-0.15174772
223	0x3e9b493e	0.30329317
224	0x3d2c5cb5	0.0420806
225	0x3e61e75a	0.2206091
226	0x3c738ea5	0.014865552
227	0x3e303426	0.17207393
228	0xbcb08c49	-0.021551268
229	0x3cfa1fb6	0.0305327
230	0x3dd36d57	0.10323589
231	0xbb18bb88	-0.0023305137
232	0x3d9b3913	0.075792454
233	0x3c6cf7ef	0.014463409
234	0xbdd6710f	-0.10470783
235	0x3d51d10b	0.05122475
236	0x3e337daa	0.17528406
237	0xbd21313d	-0.039353598
238	0x3e2dc45b	0.16969435
239	0x3e1dcc46	0.15409955
240	0x3d147229	0.036241684
241	0xbc7e6727	-0.015527523
242	0xbe3fc375	-0.18726905
243	0xbea511f9	-0.32240275
244	0xbe06f5c8	-0.13179696
245	0xbdadbe47	-0.08483558
246	0x3d64968f	0.055807646
247	0x3e3d1448	0.18464768
248	0x3e27039e	0.16309974
249	0x3e2579c4	0.16159731
250	0xbe218322	-0.1577268
251	0x3da6590f	0.08122455
252	0xbd3dd8c1	-0.04634929
253	0xbeb036dd	-0.34416857
254	0xbe285b6f	-0.16441129
255	0xbe0659ab	-0.13120143

mid_part.4.bias f4 [12]
0	0x3d407167	0.04698315
1	0x3c04bdce	0.008101894
2	0xbcc76d55	-0.024344126
3	0x3c9a45d7	0.01883213
4	0xba1939d8	-0.0005845106
5	0xbb8a977f	-0.0042294855
6	0xba4696e8	-0.00075755874
7	0x3c2992c1	0.01034993
8	0x3cbb39df	0.022854744
9	0x3c173e6c	0.009231191
10	0xbcd9bde6	-0.026579808
11	0xbc41cc25	-0.011828457

mid_part.5.weight f4 [12]
0	0x3f4d7ea6	0.80271375
1	0x3f257a92	0.6464015
2	0x3eb492cf	0.35268256
3	0x3e861bf5	0.26193205
4	0x3fffede0	1.9994469
5	0x3f614e54	0.88010144
6	0xbe5ca79d	-0.21548314
7	0x3d2febfd	0.042949665
8	0x3f31022a	0.6914393
9	0x3f9aab9e	1.2083623
10	0x3edc16c2	0.42986113
11	0x3e823a71	0.25435212

mid_part.6.weight f4 [12, 12, 3, 3]
0	0x3d782ee3	0.06059159
1	0xbd87c3e6	-0.066291615
2	0xbcac8be4	-0.021062799
3	0x3d210350	0.0393098
4	0x3e029c5c	0.12754959
5	0x3e2c96ff	0.16854475
6	0xbd023119	-0.031785104
7	0x3dc74f4f	0.09731924
8	0x3ceda62d	0.029009903
9	0x3d126f4f	0.035750683
10	0x3e870f17	0.263787
11	0x3e406843	0.18789773
12	0x3dc36162	0.09540059
13	0x3e5b75f0	0.21431708
14	0x3e8a027e	0.26955026
15	0xbbce0a6a	-0.0062878625
16	0xbe90d736	-0.28289193
17	0x3d69384f	0.056938466
18	0x3d9b8e8b	0.07595547
19	0xbe22ec71	-0.15910508
20	0x3d2fdf56	0.0429376
21	0x3e007659	0.12545146
22	0x3c57b2b7	0.0131651675
23	0xbd9c09d9	-0.07619066
24	0xbe41f77f	-0.18942069
25	0xbe0cb2aa	-0.1374003
26	0x3e338180	0.17529869
27	0x3e115370	0.14191985
28	0xbdfbf1fd	-0.12302015
29	0xbe415cef	-0.18883108
30	0xbd501312	-0.050799437
31	0x3dbafa55	0.09129778
32	0x3de5a1fa	0.11212535
33	0x3da667e2	0.08125283
34	0xbeb520ed	-0.35376683
35	0xbe2ae2e0	-0.16688108
36	0xbc14d848	-0.009084769
37	0x3e217bce	0.15769884
38	0xbd9d64f1	-0.07685269
39	0x3e2f2e94	0.17107612
40	0x3dfe74ba	0.124246076
41	0xbe0a8ca4	-0.13530213
42	0xbd2cc97e	-0.042184345
43	0x3e351302	0.17683032
44	0xbd18ca61	-0.03730238
45	0xbe03d2f8	-0.12873447
46	0xbececb4d	-0.4038948
47	0x3dcd6d14	0.100305706
48	0x3e63ac14	0.22233611
49	0x3bf94330	0.0076068863
50	0x3d5d0cdb	0.053967338
51	0x3dc21838	0.094772756
52	0x3df04562	0.11731984
53	0x3e3626c6	0.17788228
54	0x3e317058	0.17328012
55	0xbe51f7ae	-0.20504639
56	0x3d444e1d	0.047926057
57	0x3dbfc3cc	0.09363517
58	0x3d622673	0.05521245
59	0x3d869f48	0.06573349
60	0x3e5649bf	0.2092657
61	0x3e47c03e	0.19506928
62	0x3e0ac740	0.1355257
63	0xbdeb5114	-0.11490074
64	0xbdab8418	-0.08374804
65	0x3e103ebd	0.14086433
66	0xbd205f3f	-0.039153334
67	0xbe27003a	-0.1630868
68	0x3cd3a826	0.025837015
69	0x3d8dc178	0.06921667
70	0x3d33164f	0.043722447
71	0xbe40af69	-0.18816914
72	0xbd57e54e	-0.052708916
73	0x3dbe6a8f	0.09297668
74	0x3e14ed8a	0.14543739
75	0xbd033908	-0.03203681
76	0x3d5e9bc8	0.054347783
77	0xbcbceefe	-0.02306318
78	0xbda0cec0	-0.078519344
79	0xbe3f7023	-0.1869512
80	0x3d0afb98	0.033931345
81	0xbd0c9edc	-0.034331188
82	0x3e3ad011	0.18243434
83	0x3aca0ace	0.0015414597
84	0xbe2be099	-0.16784896
85	0x3d8197bb	0.063277684
86	0x3e3f96b8	0.18709838
87	0xbe4e1e6c	-0.20128793
88	0xbdfe1311	-0.124059804
89	0xbe728f5f	-0.23687504
90	0xbdb1829d	-0.08667491
91	0x3e1dd57f	0.15413474
92	0x3dd7f269	0.10544283
93	0xbd723fb1	-0.059142772
94	0xbe5fb9e3	-0.21848254
95	0x3de14854	0.110001236
96	0xbda67e6e	-0.08129583
97	0x3e33b536	0.17549595
98	0xbd0d4dbf	-0.034497973
99	0x3de1e621	0.11030222
100	0x3d5b12ed	0.053484846
101	0x3d64daca	0.055872716
102	0x3d7f84ec	0.062382624
103	0xbe020009	-0.12695326
104	0xbc1b757e	-0.009488462
105	0x3e1d4f3b	0.15362255
106	0xbe0798b0	-0.1324184
107	0x3c467471	0.012112723
108	0x3eb3980c	0.3507694
109	0x3e1635b5	0.14668925
110	0x3c59e02e	0.0132980775
111	0xbe070063	-0.13183741
112	0xbe560524	-0.20900398
113	0x3e1776a7	0.14791356
114	0x3e13aa16	0.14420351
115	0x3dc07810	0.093979
116	0x3c2368c0	0.009973705
117	0xbdd43aa4	-0.10362747
118	0xbc91204e	-0.0177156
119	0x3e1d96de	0.15389583
120	0xbccec5d3	-0.025240814
121	0x3e11f9db	0.14255469
122	0x3d8934ea	0.06699546
123	0x3e2c4968	0.16824877
124	0xbe15ae35	-0.14617236
125	0x3b694126	0.003559181
126	0x3dffb5f9	0.124858804
127	0x3cc40f96	0.023933213
128	0x3c70797a	0.0146774
129	0x3e39caaa	0.18143716
130	0x3d693935	0.056939323
131	0x3e3ecf1e	0.18633696
132	0xbcb393d9	-0.021921085
133	0xbdb7cfe2	-0.089751974
134	0x3c8661ac	0.016403995
135	0x3dedfa0f	0.116199605
136	0x3cc77e70	0.024352282
137	0xbd1482f9	-0.036257718
138	0xbdf5fd0e	-0.12011157
139	0x3e183758	0.14864862
140	0x3c5f8875	0.013643374
141	0xbdf92265	-0.12164763
142	0xbe5c52df	-0.21515988
143	0x3d61f8cb	0.055168908
144	0x3d6cdfb6	0.057830535
145	0xbdd37641	-0.103252895
146	0x3e2b3f07	0.16723262
147	0x3df6bb24	0.12047413
148	0xbd3c9884	-0.046043888
149	0xbdf2153e	-0.11820458
150	0x3dacbb95	0.08434216
151	0x3e62668f	0.22109435
152	0x3d69886b	0.057014864
153	0x3d97ff58	0.0742175
154	0x3d1d4edf	0.038405295
155	0x3df0119a	0.11722107
156	0xbe41aacc	-0.1891281
157	0x3caa4fed	0.020790065
158	0xbd2aa52a	-0.04166142
159	0xbb930877	-0.004487093
160	0x3cce5015	0.02518467
161	0x3d552b5b	0.0520433
162	0x3e2ee935	0.17081149
163	0x3b93659b	0.0044981963
164	0x3d0090eb	0.031388205
165	0x3d153798	0.03642997
166	0x3dc9a6ad	0.09846244
167	0xbcf48857	-0.029850168
168	0xbd96f615	-0.07371155
169	0xbda01af2	-0.078176394
170	0xbd9f6837	-0.07783549
171	0x3e1b7c14	0.15184051
172	0xbceb3a81	-0.02871442
173	0x3dbe183f	0.09281968
174	0x3cdb4729	0.02676733
175	0x3e331500	0.1748848
176	0xbe617ce1	-0.22020294
177	0xbcb9edc8	-0.02269639
178	0xbcc0c2f7	-0.023530466
179	0xbddcc007	-0.10778814
180	0x3e6bdd19	0.23033561
181	0xbe969c46	-0.29416102
182	0x3e0de8a8	0.13858283
183	0xbbd1a310	-0.0063976124
184	0x3d626d23	0.055279862
185	0x3e5a4bea	0.21318021
186	0x3bf2d505	0.007410648
187	0x3e1a4621	0.15065815
188	0xbd2707b7	-0.04077884
189	0x3dbf44ef	0.0933932
190	0x3ba3bba2	0.004996733
191	0x3d62cc73	0.05537076
192	0x3e1a5cf3	0.1507452
193	0x3e64cbfb	0.22343437
194	0xbe2fc8b0	-0.171664
195	0x3c23ffc5	0.010009711
196	0x3e1f1b0a	0.15537658
197	0x3e4d426a	0.20044866
198	0x3ddf5199	0.109042354
199	0x3e4dadc7	0.20085822
200	0x3db8cc59	0.09023351
201	0xbe4f3370	-0.20234466
202	0xbe7e4498	-0.24830854
203	0xbd21a6e1	-0.03946579
204	0x3e03f5da	0.12886754
205	0xbdd40978	-0.103533685
206	0x3e976f71	0.2957721
207	0xbd9c9d76	-0.07647221
208	0xbcd84900	-0.026401997
209	0xbd112fed	-0.035446096
210	0x3d625e1c	0.05526553
211	0x3d7d96e9	0.061911497
212	0x3bc2eb13	0.005948433
213	0xbe7910d6	-0.24322829
214	0xbe6ba088	-0.23010457
215	0x3d86163c	0.065472096
216	0xbe8e3ee5	-0.2778236
217	0xbd00aa3c	-0.03141235
218	0xbe4f687c	-0.20254701
219	0xbc534799	-0.012895488
220	0xbde54d38	-0.11196369
221	0xbdb183b1	-0.08667696
222	0x3e8b4833	0.2720352
223	0x3e31b329	0.173535
224	0xbe4f07bb	-0.20217793
225	0xbe180a29	-0.14847626
226	0xbe3fc77b	-0.1872844
227	0x3d1aae70	0.037764013
228	0xbe05d4bf	-0.13069437
229	0x3d1e50c0	0.038651228
230	0xbe09fd11	-0.13475443
231	0x3e8e1b7f	0.27755353
232	0x3e40b93a	0.18820658
233	0x3e3502bb	0.17676823
234	0xbe05945e	-0.13044879
235	0x3e0b80ab	0.13623302
236	0x3c320578	0.010865562
237	0x3d8eebf1	0.06978596
238	0x3bd4e90b	0.0064975074
239	0xbe1497f0	-0.14511085
240	0x3e20ce93	0.15703802
241	0xbe0f82ab	-0.1401469
242	0xbe8f998a	-0.28046829
243	0x3e2347b4	0.15945321
244	0x3db807c0	0.08985853
245	0x3ca9b6e1	0.020717086
246	0x3e2fc32b	0.17164294
247	0x3e0a6b1e	0.13517424
248	0xbdf18aaa	-0.11794026
249	0xbe2ba3cd	-0.16761704
250	0xbe01c7b6	-0.1267384
251	0x3caad1a5	0.02085192
252	0xbe96c837	-0.29449627
253	0xbe3c25c7	-0.18373786
254	0x3e31293d	0.17300887
255	0xbd5fff4c	-0.05468683

mid_part.6.bias f4 [12]
0	0x3c9ffb41	0.019528987
1	0x3c072bd9	0.0082502
2	0x3cd56675	0.026049832
3	0x3bba374a	0.0056828605
4	0x3c8c121e	0.017098483
5	0x3d239237	0.039934363
6	0x3d3fbc68	0.046810538
7	0x3d223835	0.039604384
8	0xbb8a9160	-0.004228756
9	0x3b01b92b	0.0019794207
10	0x3d2e8212	0.042604513
11	0xbd4c2ec5	-0.04984929

mid_part.7.weight f4 [12]
0	0x3ea9936b	0.33120283
1	0x3f4990dc	0.7873666
2	0x3e977439	0.29580858
3	0x3e8e5886	0.27801913
4	0xbd69a5a3	-0.05704273
5	0x3f900b30	1.1253414
6	0x3f0400aa	0.51563513
7	0x3e553e60	0.20824575
8	0x3e8b3e57	0.27196
9	0x3e512a05	0.20426185
10	0xbea005f9	-0.31254557
11	0x3e6630e5	0.2247959

mid_part.8.weight f4 [12, 12, 3, 3]
0	0x3dd40431	0.10352362
1	0xbde5020b	-0.1118203
2	0xbe450dbe	-0.19243523
3	0xbda60c9b	-0.08107873
4	0x3e716694	0.23574287
5	0x3e090632	0.1338127
6	0xbe9ab07a	-0.30212766
7	0x3e1096ca	0.14120021
8	0xbd8bd093	-0.06826892
9	0xbd3d846d	-0.04626887
10	0x3d0c4aac	0.0342509
11	0x3d8b770c	0.06809816
12	0x3db5db8c	0.08879766
13	0x3e9f4485	0.31106964
14	0x3d1c0282	0.03808833
15	0x3e48ff8a	0.1962873
16	0x3d64410a	0.05572609
17	0xbd65afe3	-0.05607594
18	0x3dae29bf	0.08504056
19	0xbd1fec3e	-0.039043657
20	0xbc0b8c7b	-0.00851738
21	0xbe6686c0	-0.2251234
22	0xbd0812c5	-0.033221025
23	0xbcb8b820	-0.022548735
24	0x3d673400	0.056446075
25	0xbe397720	-0.18111849
26	0xbba95b33	-0.0051683425
27	0xbd729350	-0.05922252
28	0xbda91d0a	-0.08257492
29	0x3cf06453	0.029344713
30	0xbe2c9685	-0.16854294
31	0xbd80d27c	-0.06290147
32	0x3ddb811b	0.10717984
33	0x3c09436f	0.008377894
34	0xbddcee91	-0.107876904
35	0xbe45dc04	-0.1932221
36	0xbcaf8192	-0.021424089
37	0xbc6a53d8	-0.0143022165
38	0x3c9ae927	0.018910004
39	0x3dd962ab	0.106145225
40	0xbc7e9f40	-0.015540898
41	0x3e69d673	0.22835712
42	0xbdb5fa6f	-0.08885657
43	0x3d69e655	0.057104427
44	0xbcb73825	-0.022365639
45	0x3d88f75b	0.06687804
46	0x3e1894c1	0.14900495
47	0x3d3dba5b	0.0463203
48	0xbe2daf60	-0.16961432
49	0x3d8973a7	0.06711512
50	0x3d034915	0.03205212
51	0x3ead5e46	0.33860987
52	0xbe2b895e	-0.1675162
53	0x3dbca26f	0.09210669
54	0x3dee04a5	0.116219796
55	0xbeb121c4	-0.34596074
56	0x3d13e17a	0.036103703
57	0x3d39ed82	0.04539252
58	0xbd04d853	-0.032432865
59	0xbd4b0163	-0.04956187
60	0xbde5d3ae	-0.11222015
61	0xbdef96f1	-0.11698712
62	0x3d2fc735	0.042914588
63	0xbc87518d	-0.016518379
64	0x3e9daf12	0.3079763
65	0x3c3ed3cf	0.011647179
66	0x3d45bfd4	0.048278645
67	0x3e5115d5	0.20418485
68	0xbdba8b9a	-0.09108658
69	0xbe34df54	-0.17663318
70	0xbc05e53f	-0.008172332
71	0xbe5c216d	-0.21497126
72	0xbe80375a	-0.2504223
73	0x3d16e8d1	0.036843125
74	0x3d71befc	0.059020028
75	0x3c54e293	0.012993473
76	0x3e3bc0d9	0.18335284
77	0xbe17b7e7	-0.14816247
78	0xbd649297	-0.05580386
79	0xbe05a36a	-0.13050619
80	0xbe05f88b	-0.13083093
81	0x3da22f2e	0.07919155
82	0xbd819788	-0.063277304
83	0xbe0db729	-0.13839401
84	0xbe10ad74	-0.14128667
85	0xbd5831ef	-0.052781995
86	0xbcd4baed	-0.02596804
87	0x3e693476	0.22773919
88	0xbd2188dc	-0.03943716
89	0xbadbbfd6	-0.0016765546
90	0x3c7a8e6a	0.015292743
91	0x3e1fc9c6	0.15604314
92	0x3c97db78	0.018537268
93	0xbd8785af	-0.06617295
94	0xbd15d329	-0.03657833
95	0x3d36fc48	0.044674188
96	0x3da59640	0.080852985
97	0x3dac7f13	0.08422675
98	0xbd47deb2	-0.048796363
99	0x3e408604	0.18801123
100	0x3ed42555	0.41434732
101	0xbe480d86	-0.19536409
102	0x3ee2a3f1	0.44265702
103	0xbbf97fe3	-0.0076141222
104	0x3e58b875	0.21164115
105	0xbe462bec	-0.19352692
106	0x3e090a3c	0.1338281
107	0x3e720caa	0.23637643
108	0x3de641f4	0.11243048
109	0xbdbc587c	-0.091965646
110	0xbe1a00fa	-0.15039435
111	0x3e663c4b	0.22483937
112	0x3e1cf39a	0.15327302
113	0x3c603246	0.013683861
114	0x3d8af2fb	0.06784626
115	0xbe85d77a	-0.26140958
116	0xbe6ac7de	-0.22927806
117	0x3d59ed32	0.053204723
118	0xbe18a6ef	-0.1490743
119	0x3c5f0899	0.01361289
120	0x3dfb6b10	0.1227628
121	0x3e55e9f7	0.20890032
122	0xbe789af6	-0.24277863
123	0xbe2734ff	-0.1632881
124	0x3b9bc13d	0.0047532604
125	0xbdd47509	-0.10373885
126	0x3d7091a1	0.058732633
127	0xbcb6e4f8	-0.022325978
128	0x3dbb1858	0.091355026
129	0x3d5a5a3d	0.053308714
130	0xbe8b30aa	-0.27185565
131	0x3e7dd8c2	0.24789718
132	0xbdeac875	-0.114640154
133	0x3d93ebbb	0.072226964
134	0x3c984d0d	0.018591428
135	0xbd42cabe	-0.04755663
136	0x3eb642bc	0.3559779
137	0x3d4278fd	0.047478665
138	0x3e09b656	0.13448462
139	0xbba326c3	-0.004978986
140	0x3d995f74	0.07488909
141	0xbe39c41c	-0.18141216
142	0x3d880237	0.066410474
143	0x3ddfebc2	0.10933639
144	0x3e1ea76f	0.15493558
145	0x3bbd8e73	0.0057848035
146	0xbdd0703e	-0.101776585
147	0x3d2bf28f	0.04197937
148	0x3e471448	0.1944133
149	0xbe978d22	-0.29599863
150	0x3e21b0e7	0.15790139
151	0xbea844b1	-0.32864907
152	0x3d861846	0.065475985
153	0x3e17e77b	0.14834397
154	0x3e1b7b1d	0.15183683
155	0xbccef1f3	-0.025261855
156	0x3da1d039	0.079010434
157	0x3e643253	0.22284822
158	0x3d87e312	0.06635107
159	0xbe58ceea	-0.21172681
160	0xbd5029ac	-0.05082099
161	0xbc64fcfc	-0.013976332
162	0xbd138fbc	-0.036025748
163	0xbc1462e6	-0.009056782
164	0x3e27646b	0.163469
165	0x3deff975	0.11717502
166	0x3c9c12f9	0.019052016
167	0x3d60b4af	0.054859813
168	0xbcb00405	-0.021486292
169	0xbd3d8c22	-0.04627622
170	0x3d93866e	0.07203375
171	0x3e298400	0.1655426
172	0x3e599b84	0.21250731
173	0x3e065441	0.13118078
174	0x3df59551	0.119913705
175	0xbeb5602a	-0.3542493
176	0x3d6f776b	0.058463495
177	0x3d182872	0.037147947
178	0xbd596720	-0.053076863
179	0x3d8cf104	0.068819076
180	0x3db34c0d	0.0875474
181	0xbbcf6ce2	-0.0063301185
182	0xbab5b6d6	-0.0013863693
183	0x3d814249	0.06311471
184	0xbe058033	-0.13037185
185	0x3d3aa91d	0.045571435
186	0x3e91eb03	0.28499612
187	0xbdabf5b5	-0.08396474
188	0x3dd45261	0.10367275
189	0x3e91e17a	0.28492337
190	0x3c801aad	0.01563772
191	0x3c38f112	0.011287944
192	0x3e76aff4	0.24090558
193	0x3d2a032a	0.041506924
194	0x3e6e18df	0.23251675
195	0x3e435a28	0.1907736
196	0xbbb1340c	-0.005407816
197	0x3d71f5bc	0.05907224
198	0x3be1ae23	0.006887214
199	0xbd1808a1	-0.037117604
200	0x3d9fc257	0.07800739
201	0xbc11d3eb	-0.008900623
202	0xbe2eace4	-0.1705814
203	0xbe074240	-0.13208866
204	0xbdc3d74d	-0.0956255
205	0x3d9e2d50	0.077234864
206	0x3e3c1b41	0.18369772
207	0x3e34e05b	0.1766371
208	0xbe507ca9	-0.20360054
209	0x3ddfb142	0.10922481
210	0x3e217af7	0.15769564
211	0x3d8100d6	0.062989876
212	0x3dacd849	0.084396906
213	0xbc57be59	-0.013167941
214	0x3b394bff	0.0028274057
215	0x3e4e6759	0.20156612
216	0xbd5501e1	-0.052003745
217	0x3e2fa5d8	0.17153108
218	0x3dd273b2	0.102759734
219	0xbc13c7b2	-0.009019779
220	0x3d9c98db	0.07646342
221	0xbdead8c7	-0.11467128
222	0x3d5c108f	0.05372673
223	0x3deea67e	0.116528496
224	0x3e12aa69	0.14322819
225	0x3d8888f2	0.06666745
226	0x3d6dfa0f	0.058099803
227	0x3e4320e2	0.19055513
228	0x3cacc6b3	0.02109084
229	0x3e3bfe7a	0.18358794
230	0xbe0067ab	-0.12539546
231	0x3dc497bd	0.09599254
232	0x3da7f4dd	0.08201001
233	0xbe025c59	-0.1273054
234	0xbc079aaa	-0.008276621
235	0xbd02b181	-0.031907562
236	0xbe27035d	-0.16309877
237	0xbd5b9f38	-0.05361864
238	0xbe373828	-0.17892516
239	0x3cbe1be2	0.023206655
240	0xbd4786d6	-0.048712574
241	0xbd1c2334	-0.03811951
242	0xbce5bffa	-0.028045643
243	0xbe574da4	-0.21025711
244	0xbda0371f	-0.078230135
245	0xbd8c8ad9	-0.068624206
246	0x3e6d0fcc	0.23150557
247	0x3da5a214	0.080875546
248	0xbe4d80bf	-0.20068644
249	0x3d414e08	0.047193557
250	0xbd5ac613	-0.053411555
251	0x3bb4a80f	0.005513198
252	0x3d8f6d14	0.07003227
253	0x3d300f89	0.042983565
254	0xbe88b5bd	-0.26701155
255	0x3e37422b	0.17896335

mid_part.8.bias f4 [12]
0	0xbb409cd4	-0.0029390352
1	0x3c7b15da	0.015325034
2	0xbb11f2f6	-0.002227006
3	0xbca9365f	-0.020655809
4	0x3b9c53cd	0.004770732
5	0x3b060b90	0.002045367
6	0x3b33ae0d	0.0027416975
7	0x3c979462	0.018503372
8	0xbc800087	-0.015625251
9	0x3d626ecd	0.05528145
10	0x3c9e1fd3	0.019302284
11	0x3c79c2af	0.01524417

mid_part.9.weight f4 [12]
0	0xbf6cd257	-0.92508453
1	0xbc5d952b	-0.013524334
2	0x3e77439f	0.24146889
3	0x3e871782	0.26385123
4	0x3eead565	0.45865932
5	0x3f9eeb68	1.241559
6	0xbd743bdb	-0.059627395
7	0x3f326303	0.6968233
8	0x3e88ccae	0.26718658
9	0x3e83b01c	0.25720298
10	0x3db4e7a7	0.08833247
11	0x3fb5558b	1.4166731
