models/fsrcnn/track1/track1_x4__epoch_11.pth (torch, 57996 bytes, 22 tensors)

first_part.0.weight f4 [56, 1, 5, 5]
-0.008199986 0.039169017 0.029159624 0.0053457688 -0.011233694 -0.03113794 0.037155792 -0.013779145
-0.031255327 0.0055595497 0.06409214 -0.024489641 0.04245262 0.018738886 0.01906201 0.023801599
-0.013790582 -0.01049108 0.078605436 -0.0012889786 0.008536968 0.00552698 0.061011974 0.0016979238
-0.0419688 -0.028613344 -0.03789364 -0.043254297 0.008407114 0.04630274 -0.04400959 0.036847584
-0.043878052 -0.016034072 0.0041479496 -0.034621798 0.014387109 -0.00047219088 -1.9906358e-05 -0.06695223
-0.0010486898 0.026058273 -0.007911363 -0.001369546 -0.013956067 0.034410994 0.0005768359 -0.093361214
0.047511507 -0.00045396888 -0.026336968 -0.045795567 -0.013282855 -0.014176096 0.020792382 -0.0072691734
-0.00019417105 -0.021495169 -0.026455952 -0.074167565 -0.042294435 -0.08152609 -0.06568532 -0.015944071
-0.0560422 0.04313617 -0.057488173 -0.07009413 -0.03045134 -0.0142608285 -0.06590384 0.044748824
0.04034636 -0.04342915 -0.01889512 0.037898686 -0.00279408 0.0531193 0.015582808 -0.024667392
-0.04480001 -0.022275222 0.0013981038 -0.0471322 -0.0050263028 0.0078906305 0.090562314 -0.038587917
-0.07812387 0.02463401 0.051380415 -0.04508796 -0.06088163 -0.00065623503 -0.0009316189 0.029670818
-0.0625361 -0.019090451 -0.045767087 -0.10277548 0.011072124 -0.038949624 -0.030152027 -0.082388096
-0.011343797 -0.017932594 0.07024397 0.0031808042 0.03591488 -0.0043430915 0.0047819507 -0.07918771
-0.045101013 -0.002732808 0.012099939 -0.013665688 -0.0800433 -0.054746475 -0.03590621 0.04260433
-0.052652046 -0.014184012 0.04911401 -0.070763946 0.016822001 -0.080018334 -0.05166342 0.046150684
0.017226286 0.0142945 0.027974019 -0.03291123 -0.014386879 -0.056948666 0.0017445488 -0.044914357
-0.027446294 0.046185225 0.027368763 -0.030363386 0.05015507 -0.05607094 0.017578298 -0.01777823
-0.014498707 0.05166114 -0.004916219 -0.0053064954 -0.021548206 -0.031302873 -0.09326125 0.025405303
0.012092342 0.06980332 -0.0152713265 -0.013796683 0.0155277755 0.025488602 -0.050139543 -0.053795617
-0.013829154 -0.056650657 -0.024017166 -0.016032625 0.033681005 -0.08109017 0.01824494 -0.03293796
0.008919981 -0.017833145 -0.06775944 0.014195288 -0.0025981767 -0.003987423 -0.0675534 0.079953186
-0.060556993 0.075777955 -0.120646715 0.0020351708 -0.01995766 0.04882353 -0.10845557 0.07310769
0.04228774 0.043155365 -0.11874381 0.27875116 -0.05896784 0.034065418 0.012475754 -0.08679534
0.05286768 -0.10164684 0.09785781 0.12578203 0.0026700923 0.028483313 0.00208772 0.024660738
0.023803676 0.054802977 -0.0044815238 -0.0007396618 0.02772915 0.024444891 0.04420447 -0.023932999
0.02511652 -0.012847694 0.009039235 -0.026356125 0.07979495 0.0023824465 -0.01621434 -0.0062526567
0.01741228 0.017847534 -0.014947574 -0.04380111 0.02064657 0.020048628 0.097761795 -0.049018003
0.013142116 0.07708973 -0.039157137 -0.06036733 0.052081358 -0.05893876 -0.014112191 0.0066588186
0.031273898 -0.047782402 0.013386506 0.013067174 -0.014311298 0.07549133 0.054821115 0.044814754
0.049936894 0.00056423846 0.016205054 -0.039882436 0.05116756 0.028603368 0.036412284 0.027181847
0.05946412 0.049794972 -0.021041099 0.02589522 -0.044172104 -0.008292185 -0.047428515 0.010498049
00000000: 3c59 06bc b16f 203d 2ae0 ee3c 8f2b af3b
00000010: 870d 38bc fe14 ffbc ac30 183d ecc1 61bc
00000020: 9605 00bd e22c b63b bd42 833d 809e c8bc
00000030: cce2 2d3d 4b82 993c ef27 9c3c 92fb c23c
00000040: e5f1 61bc c7e2 2bbc e3fb a03d f2f2 a8ba
00000050: a4de 0b3c ab1b b53b b1e7 793d de8c de3a
00000060: 7ae7 2bbd 8866 eabc 5d36 1bbd 6b2b 31bd
00000070: febd 093c f1a7 3d3d 6643 34bd 7eed 163d
00000080: 79b9 33bd e359 83bc 86eb 873b 96cf 0dbd
00000090: e9b7 6b3c 6390 f7b9 94fc a6b7 401e 89bd
000000a0: 3174 89ba 2978 d53c a99e 01bc 5782 b3ba
000000b0: fda7 64bc 8bf2 0c3d cd36 173a 2a34 bfbd
000000c0: 6d9b 423d ac02 eeb9 a0c0 d7bc 2294 3bbd
000000d0: 55a0 59bc db42 68bc c954 aa3c 3f32 eebb
000000e0: 659a 4bb9 a316 b0bc 27ba d8bc 2ae5 97bd
000000f0: ee3c 2dbd 27f7 a6bd 0686 86bd 249d 82bc
00000100: 828c 65bd 8daf 303d b878 6bbd 838d 8fbd
00000110: 1775 f9bc 40a6 69bc 98f8 86bd 8b4a 373d
00000120: 3a42 253d c4e2 31bd f0c9 9abc a73b 1b3d
00000130: e21c 37bb a093 593d 094f 7f3c 4513 cabc
00000140: 3780 37bd 877a b6bc 9440 b73a b20d 41bd
00000150: afb3 a4bb b447 013c bc78 b93d 5d0e 1ebd
00000160: 68ff 9fbd 43cd c93c 4574 523d 27ae 38bd
00000170: 045f 79bd 3007 2cba e337 74ba 3710 f33c
00000180: ed12 80bd 9463 9cbc 4576 3bbd f37b d2bd
00000190: db67 353c a489 1fbd 6201 f7bc 17bb a8bd
000001a0: 55db 39bc 60e7 92bc 12dc 8f3d 0a75 503b
000001b0: 7b1b 133d 7e50 8ebb e9b1 9c3b 2b2d a2bd
000001c0: d7bb 38bd e918 33bb d33e 463c 0de6 5fbc
000001d0: beed a3bd d73d 60bd 6412 13bd e181 2e3d
000001e0: aca9 57bd 0f64 68bc c62b 493d b0ec 90bd
000001f0: 4bce 893c a7e0 a3bd 069d 53bd 8008 3d3d
00000200: 241e 8d3c 7b33 6a3c c529 e53c edcd 06bd
00000210: f2b6 6bbc 0143 69bd 58a9 e43a 1ef8 37bd
00000220: 0dd7 e0bc b82c 3d3d 7534 e03c a3bc f8bc
00000230: 676f 4d3d a4aa 65bd 5d00 903c a7a3 91bc
00000240: fc8b 6dbc a29a 533d 3c18 a1bb 1ce2 adbb
00000250: dd85 b0bc 7137 00bd c1ff bebd c81e d03c
00000260: f51e 463c 0bf5 8e3d 9634 7abc 7c0b 62bc
00000270: 3668 7e3c 79cd d03c 1f5f 4dbd cb58 5cbd
00000280: ad93 62bc 850a 68bd a6bf c4bc da56 83bc
00000290: 18f5 093d 9a12 a6bd 6a76 953c f4e9 06bd
000002a0: 1d25 123c d116 92bc 76c5 8abd 5a93 683c
000002b0: 2c46 2abb eea8 82bb 7059 8abd 7fbe a33d
000002c0: 9c0a 78bd 7931 9b3d a015 f7bd 8060 053b
000002d0: 3f7e a3bc 2ffb 473d f41d debd 7cb9 953d
000002e0: e935 2d3d aec3 303d f42f f3bd 79b8 8e3e
000002f0: 4388 71bd 2e88 0b3d 1b67 4c3c c1c1 b1bd
00000300: c88b 583d 382c d0bd ad69 c83d 01cd 003e
00000310: b7fc 2e3b d655 e93c 21d2 083b 5105 ca3c
00000320: edff c23c 1679 603d bfd9 92bb dde5 41ba
00000330: 3e28 e33c a740 c83c bf0f 353d 230f c4bc
00000340: 29c1 cd3c 227f 52bc 4d19 143c cde8 d7bc
00000350: 896b a33d d222 1c3b f0d3 84bc 16e3 ccbb
00000360: 33a4 8e3c fe34 923c abe6 74bc cb68 33bd
00000370: ff22 a93c 053d a43c 5637 c83d 1ac7 48bd
00000380: 0852 573c 38e1 9d3d 3c63 20bd bc43 77bd
00000390: 4353 553d c569 71bd d236 67bc 3832 da3b
000003a0: 0f19 003d 7bb7 43bd 1353 5b3c b317 563c
000003b0: ef79 6abc 339b 9a3d 1b8c 603d ad8f 373d
000003c0: a18a 4c3d 67e9 133a 76c0 843c c45b 23bd
000003d0: 1395 513d 9c51 ea3c 0c25 153d 77ac de3c
000003e0: a690 733d d0f5 4b3d 625e acbc 3622 d43c
000003f0: cfed 34bd f2db 07bc 6744 42bd 0200 2c3c

first_part.0.bias f4 [56]
-0.008647589 -0.0023442989 0.0043912544 -0.004894077 0.00617749 -0.008674645 0.0018044214 0.035686523
-0.010229947 -0.008073867 -0.00806855 -0.0015977322 -0.015450023 0.01398765 0.06267723 -0.015711602
-0.001732394 -0.0032918425 0.006643323 -0.02588617 0.005177433 0.0042137722 -0.016333146 -0.005731173
-0.015157263 0.009553017 -0.0009933237 0.0075009656 -0.020294301 0.005237837 -0.007070903 -0.00036505415
-0.006105741 -0.0071320455 -0.0017034742 0.019998267 -0.0023881777 0.006681885 0.005657331 0.018578716
0.06626862 0.00011187149 0.011901735 -0.042420868 0.0050750044 0.0027840214 -0.008801171 -0.0040939995
-0.08560397 0.012429302 -0.024367033 0.030288037 0.0033178576 0.0043110927 -0.0026283385 0.046700012
00000000: 9eae 0dbc cfa2 19bb 83e4 8f3b 7e5e a0bb
00000010: 8b6c ca3b 1920 0ebc 5682 ec3a 082c 123d
00000020: 829b 27bc 4148 04bc f431 04bc ff6a d1ba
00000030: 1822 7dbc 752c 653c eb5c 803d 9eb5 80bc
00000040: 7f11 e3ba f4bb 57bb 3cb0 d93b 3c0f d4bc
00000050: 75a7 a93b af13 8a3b 17cd 85bc 90cc bbbb
00000060: 2b56 78bc 4284 1c3c 6a32 82ba a9ca f53b
00000070: 3c40 a6bc 29a2 ab3b 09b3 e7bb bd64 bfb9
00000080: ab12 c8bb efb3 e9bb 1c47 dfba 68d3 a33c
00000090: f982 1cbb b7f3 da3b 2261 b93b 6432 983c
000000a0: d8b7 873d 8d9c ea38 7fff 423c 81c1 2dbd
000000b0: 394c a63b 2174 363b c932 10bc f526 86bb
000000c0: 2251 afbd 45a4 4b3c 5f9d c7bc 9e1e f83c
000000d0: 6a70 593b 1144 8d3b 3440 2cbb 8348 3f3d

first_part.1.weight f4 [56]
0.24620132 0.24175899 0.25755176 0.25880313 0.24639203 0.2567869 0.24876572 0.3151119
1.7963635 0.00021674763 1.4158738 0.25288615 0.9270532 0.25384754 0.25168142 0.017268945
0.30712408 0.28220257 0.26619223 0.17429426 0.25531462 1.5413615 0.24360001 0.24036397
0.26867607 0.2400606 2.0576756 0.25371397 0.29596293 0.27484572 0.24032809 0.28083497
1.9975462 0.40863386 0.23930535 0.25308543 0.19564624 0.047208723 0.27298805 0.25137368
0.62502223 0.26969072 0.2510776 0.3150458 0.8083448 0.16724737 2.154854 0.25671843
0.5439462 0.24488728 1.6983228 0.2543236 0.21150985 0.1723036 0.2721284 0.25653544
00000000: 331c 7c3e ab8f 773e d3dd 833e d881 843e
00000010: 314e 7c3e 9379 833e 71bc 7e3e 5956 a13e
00000020: 3def e53f c046 6339 5a3b b53f 4b7a 813e
00000030: 5c53 6d3f 4ef8 813e 63dc 803e 9a77 8d3c
00000040: 5e3f 9d3e db7c 903e 594a 883e 327a 323e
00000050: 99b8 823e 554b c53f 4872 793e f921 763e
00000060: e98f 893e 72d2 753e f5b0 0340 cce6 813e
00000070: 7488 973e 94b8 8c3e 9118 763e 9ac9 8f3e
00000080: 98af ff3f 7538 d13e 760c 753e 6a94 813e
00000090: 7d57 483e ef5d 413d 17c5 8b3e 0db4 803e
000000a0: 7501 203f e714 8a3e 3e8d 803e af4d a13e
000000b0: afef 4e3f e542 2b3e 21e9 0940 9970 833e
000000c0: 0f40 0b3f bbc3 7a3e a462 d93f b436 823e
000000d0: 0a96 583e 5b70 303e 6a54 8b3e 9d58 833e

mid_part.0.weight f4 [12, 56, 1, 1]
0.5154141 0.21360148 -0.75439245 0.24260849 0.39345157 0.34565058 -0.08540921 0.5125815
0.16874844 -1.1832963 0.5055067 -0.07945464 -0.5474959 1.0608221 0.43436146 0.41023165
0.090215884 0.06670834 0.55851793 -0.24743453 0.013966157 0.71229476 -0.3635248 -0.46700057
-0.07569765 -0.07691843 0.43092245 -0.7248217 0.27021918 0.41758537 0.045088273 0.34644145
0.5411969 0.13925204 -0.5556785 -0.68991804 -0.055542808 -0.04397044 -0.28062943 0.3770118
-0.09667862 0.5027701 -0.38221893 -0.11594671 -0.14031337 -0.15192774 -0.10183586 -0.6103468
-0.15037775 -0.5791052 -0.1006965 -0.18511355 -0.6681266 0.16902204 -0.29626307 -0.2320447
-0.30356362 -0.97873867 0.49684015 -0.008055163 0.01253433 0.797897 0.73696226 0.5247389
0.03499532 -0.08944047 -0.08159755 -0.48750636 0.19249444 0.18235347 -0.6171584 0.14806226
-0.5508228 0.23670635 0.6324112 -0.09825057 0.84742445 -0.2505231 0.08226782 -0.39600945
-0.37809414 -0.0714509 0.093441874 -0.5525406 0.5698344 0.8009005 -0.19711407 0.42798567
0.17743844 -0.38645414 -0.08579461 -0.14362237 0.24981658 0.22387403 -0.7034549 -0.24390765
0.24191195 0.6941401 -0.29187626 0.8494748 0.72284687 0.13283725 0.44144008 0.09071752
0.31548497 -0.111728504 0.8586372 -0.5801659 -0.020800497 -0.23774259 0.6582343 -0.46719593
0.27248287 -0.6023095 -0.26700297 -0.39621112 -0.07173897 0.60289943 -0.11536453 -0.04207666
0.65129334 0.7900716 0.09374245 0.81352437 -0.43176502 -0.14909971 -0.099955365 0.39115748
-0.008281679 -0.13347757 0.469482 0.36693075 -0.53596276 0.23270257 -0.12764412 -0.30317447
0.41180018 -0.32523045 -0.15860067 -0.25785542 -0.49031395 0.3980155 0.021029538 -0.13606586
0.48698896 0.702875 0.62751454 0.38121167 0.31425023 0.31057653 -0.47323477 0.11137161
-0.024023421 0.12834795 -0.21133116 -0.0033053355 0.14071994 0.40897834 0.258463 0.4825921
-0.010097844 0.59935945 0.21684161 -0.55734396 0.005509062 0.42401752 -0.3500052 -0.3232339
0.04541488 0.31013858 -0.13071723 0.15958358 0.24879855 -0.0005318453 -0.17189722 0.3157684
-0.5807003 -0.36726376 0.5932169 -0.3538123 0.3821355 -0.4837925 0.6276225 -0.09730957
0.1366166 0.2259817 -0.06115119 0.8779928 -0.49330172 0.64058155 -0.32108408 -0.41150975
0.48694727 0.052613948 -0.44145927 0.9600477 0.11877112 0.40630713 -0.077444665 -0.17504588
-0.50943995 0.20779337 -0.109790266 0.47427174 0.14196356 -0.12144491 -0.0055516236 0.19797222
-0.072529815 1.0751344 0.7748231 0.66379225 -0.9847179 -0.24631001 0.47669545 -0.08696437
0.3913697 0.562356 -0.3001705 -0.50625765 -0.42746243 0.46166238 -0.21295716 0.5202013
-0.23764497 0.08380441 0.12549631 0.0848926 -0.15556948 -0.33806938 -0.20531406 0.55978966
0.4762361 -0.26427782 -0.15272065 0.016736804 -1.3384216 0.8018423 0.8030083 -0.06939318
0.3560068 -0.19317162 0.30694377 -0.40002415 0.22158961 0.28434882 0.36433175 0.044541743
-0.1132753 -0.13568191 0.5452323 0.22665164 -0.6848357 -0.31240296 0.03447111 0.21969259
00000000: 2ef2 033f 59ba 5a3e dd1f 41bf 5c6e 783e
00000010: 7c72 c93e 1df9 b03e 06eb aebd 8b38 033f
00000020: 64cc 2c3e 4176 97bf e368 013f 1db9 a2bd
00000030: b128 0cbf 05c9 873f a064 de3e e209 d23e
00000040: 1bc3 b83d 629e 883d 08fb 0e3f 7a5f 7dbe
00000050: 4fd2 643c f358 363f ec1f babe b31a efbe
00000060: 5f07 9bbd 6987 9dbd dea1 dc3e ea8d 39bf
00000070: 2b5a 8a3e c0cd d53e 7bae 383d c660 b13e
00000080: e18b 0a3f 1698 0e3e f240 0ebf 789e 30bf
00000090: db80 63bd 591a 34bd a9ae 8fbe b107 c13e
000000a0: 71ff c5bd 8bb5 003f 33b2 c3be 7875 edbd
000000b0: 4fae 0fbe f292 1bbe 528f d0bd b03f 1cbf
000000c0: a0fc 19be 3d40 14bf f739 cebd 688e 3dbe
000000d0: 580a 2bbf 1d14 2d3e cbaf 97be 209d 6dbe
000000e0: b16c 9bbe 9e8e 7abf d561 fe3e cdf9 03bc
000000f0: ca5c 4d3c fa42 4c3f 8fa9 3c3f 4a55 063f
00000100: 4157 0f3d 912c b7bd 9e1c a7bd 6f9a f9be
00000110: 431d 453e deba 3a3e 18fe 1dbf a29d 173e
00000120: b902 0dbf 2663 723e b3e5 213f 9837 c9bd
00000130: cff0 583f 9044 80be 087c a83d c0c1 cabe
00000140: 8e95 c1be d954 92bd 745e bf3d 4d73 0dbf
00000150: abe0 113f d107 4d3f 45d8 49be f020 db3e
00000160: 6cb2 353e 51dd c5be 16b5 afbd be11 13be
00000170: ebcf 7f3e 3c3f 653e 9f15 34bf edc2 79be
00000180: c4b7 773e 2ab3 313f ce70 95be 2e77 593f
00000190: 7e0c 393f 7d06 083e 6f04 e23e 1bca b93d
000001a0: 3f87 a13e ead1 e4bd a6cf 5b3f c185 14bf
000001b0: ce65 aabc cb72 73be 0b82 283f 4e34 efbe
000001c0: e082 8b3e f530 1abf 9db4 88be 2fdc cabe
000001d0: e2eb 92bd 9e57 1a3f 3d44 ecbd 9358 2cbd
000001e0: 29bb 263f 2242 4a3f 0bfc bf3d 2243 503f
000001f0: 4e10 ddbe 98ad 18be 66b5 ccbd cb45 c83e
00000200: e1af 07bc 58ae 08be f25f f03e 59de bb3e
00000210: db34 09bf 9549 6e3e 24b5 02be af39 9bbe
00000220: 79d7 d23e 9b84 a6be 3768 22be a005 84be
00000230: 6e0a fbbe b0c8 cb3e 2346 ac3c d954 0bbe
00000240: 9e56 f93e 9eef 333f cba4 203f 2d2e c33e
00000250: 68e5 a03e e303 9f3e d44b f2be cc16 e43d
00000260: c4cc c4bc a56d 033e 3267 58be 549e 58bb
00000270: e318 103e 9c65 d13e 4355 843e 5016 f73e
00000280: 6d71 25bc 9f6f 193f ba0b 5e3e 18ae 0ebf
00000290: 5d85 b43b d318 d93e e233 b3be ea7e a5be
000002a0: f404 3a3d 7cca 9e3e bdda 05be e169 233e
000002b0: 0cc5 7e3e 896b 0bba d305 30be 65ac a13e
000002c0: c6a8 14bf ff09 bcbe 10dd 173f e326 b5be
000002d0: 44a7 c33e a7b3 f7be deab 203f 3d4a c7bd
000002e0: 39e5 0b3e bf67 673e ac79 7abd 23c4 603f
000002f0: 0b92 fcbe 27fd 233f 2265 a4be 68b1 d2be
00000300: 2751 f93e b981 573d f306 e2be b0c5 753f
00000310: 463e f33d 7d07 d03e 4f9b 9ebd 3a3f 33be
00000320: a86a 02bf c9c7 543e b8d9 e0bd bfd3 f23e
00000330: e55e 113e 1cb8 f8bd 65ea b5bb 3bb9 4a3e
00000340: 838a 94bd 019e 893f cf5a 463f 4aee 293f
00000350: 7916 7cbf b138 7cbe 6d11 f43e 601a b2bd
00000360: 9c61 c83e 90f6 0f3f f3af 99be 1a9a 01bf
00000370: 5bdc dabe 035f ec3e 7111 5abe ea2b 053f
00000380: 3459 73be a6a1 ab3d 1b82 003e 2cdc ad3d
00000390: 9b4d 1fbe 6e17 adbe d93d 52be 604e 0f3f
000003a0: 38d5 f33e 6c4f 87be cd62 1cbe 9f1b 893c
000003b0: 6651 abbf 8945 4d3f f491 4d3f 031e 8ebd
000003c0: 8646 b63e c8ce 45be bc27 9d3e f7cf ccbe
000003d0: 63e8 623e 2b96 913e b189 ba3e 6771 363d
000003e0: e1fc e7bd 33f0 0abe 5894 0b3f 5e17 683e
000003f0: 6451 2fbf 48f3 9fbe 9431 0d3d 18f7 603e

mid_part.0.bias f4 [12]
0.004938742 -0.024580752 -0.0047976314 0.0033716795 0.09182213 0.0080260895 0.04247833 0.032143015
-0.026300054 -0.0038799245 -0.006174967 0.048553046
00000000: 2cd5 a13b 935d c9bc 7335 9dbb 65f7 5c3b
00000010: 3e0d bc3d dc7f 033c c2fd 2d3d 65a8 033d
00000020: 3673 d7bc 5546 7ebb 6157 cabb 8fdf 463d

mid_part.1.weight f4 [12]
0.27500594 0.37352052 0.24992615 0.26616922 0.6039152 1.1224148 0.25292876 0.4579024
0.30161998 0.41222823 0.6067394 0.2927779
00000000: 94cd 8c3e 153e bf3e a4ec 7f3e 5547 883e
00000010: 309a 1a3f 4aab 8f3f e17f 813e 2f72 ea3e
00000020: ef6d 9a3e 940f d33e 4653 1b3f fce6 953e

mid_part.2.weight f4 [12, 12, 3, 3]
0.2675167 -0.034795526 0.025495322 -0.27844343 0.13703345 -0.12391652 -0.04536695 -0.13282174
0.10105602 0.1957927 -0.22567494 0.22014469 0.034503095 -0.12023463 -0.121910125 -0.068341136
-0.1652748 0.040779606 0.088828325 0.15433724 0.05621922 0.15773335 0.008299559 -0.029644055
0.26091447 0.0606252 -0.07234324 0.009830883 -0.07343586 0.13066556 0.14085515 -0.29743657
-0.27613285 -0.13493864 -0.045890152 0.20044374 -0.17152497 -0.1176926 -0.092478745 -0.019633854
0.2599588 -0.23700064 0.035463776 -0.014394646 0.051201053 0.21177033 0.042964965 0.20932218
-0.054351844 -0.109103054 0.07818594 -0.093950644 0.068965875 -0.106821515 -0.19188127 0.028943157
-0.008262008 0.24001166 -0.104270324 0.034324113 -0.11989189 0.13856581 0.14609039 0.13105144
-0.060929406 0.24760015 0.008384087 0.011771116 -0.0045865467 0.007048093 -0.23310974 -0.20777689
-0.008139146 -0.022195917 0.048335314 -0.19823852 0.27614492 -0.07881509 -0.055634305 -0.06917115
0.025392646 -0.18419921 0.012809032 0.035392664 0.04050204 0.10941978 0.13038912 -0.11940234
-0.039282452 0.018003576 0.07216954 -0.01083142 0.23643099 -0.12444895 -0.043534536 -0.075128436
0.042493243 0.09751524 0.03653597 0.028008936 -0.049727872 -0.10168455 -0.022098795 0.07889295
0.03054794 0.062225383 0.06530344 0.013034003 0.014467312 -0.055357963 -0.014364063 0.032155897
0.06939798 -0.25408527 0.18375593 0.07379031 0.11592244 0.14713907 0.096952654 -0.012878393
0.23178841 0.115656644 0.00071041856 0.043436214 -0.11732008 0.14462952 -0.03213727 -0.32541037
-0.16250975 0.019583723 0.06068533 -0.2933469 -0.110246934 0.09843458 -0.0925329 -0.012424409
0.27535665 -0.05928424 -0.013600602 -0.08451144 0.032379568 -0.09549842 0.35968402 -0.17044313
0.22689134 -0.16446666 -0.038432255 -0.17667234 -0.13165799 0.046424065 -0.07898776 -0.0884372
-0.011075792 -0.112300485 0.041206118 -0.26192173 0.009855066 0.106358975 0.096704036 0.14371555
-0.059350733 -0.022719137 0.19227634 -0.20144455 -0.16494669 -0.016763488 0.20218803 -0.052247353
-0.29137793 -0.009913744 0.12308217 -0.1638394 0.17124641 -0.11445992 -0.041959334 0.21522605
0.14849032 -0.057377927 -0.12033962 -0.09905153 0.08540482 -0.101030745 0.07771311 -0.021868786
0.06875669 -0.31538287 0.031846683 -0.067798704 -0.056953583 -0.11873277 -0.090170234 -0.068542406
0.013400942 -0.065537974 -0.0041871867 -0.17225295 -0.034973342 0.024277741 -0.08180109 0.13171989
0.042435843 0.25361174 -0.04648038 -0.12831353 -0.1392331 0.045027312 0.12393913 0.26778406
0.19770584 0.06817928 0.10370599 0.07980877 0.15122502 0.001053344 0.12840064 0.1610511
0.06930492 -0.1592364 -0.033084497 -0.027558506 0.18745433 0.1746349 0.15869702 -0.020600947
0.29407075 -0.07538615 -0.10626835 0.070436835 0.19411276 -0.06872681 -0.018448947 -0.057894215
0.099849276 0.09534375 0.14156187 -0.26991898 -0.20224768 0.061884202 -0.12971957 -0.0072356784
0.11278489 0.026609572 0.03800038 -0.14708823 0.006430948 -0.06609503 0.25720012 0.17550316
0.18347695 0.030897796 0.15681519 0.047057495 0.3235188 -0.22771205 -0.08986934 0.0417601
00000000: f3f7 883e c185 0ebd 91db d03c 2390 8ebe
00000010: 7f52 0c3e f2c7 fdbd b2d2 39bd 6c02 08be
00000020: 75f6 ce3d e27d 483e 5517 67be 9c6d 613e
00000030: 1e53 0d3d 933d f6bd 04ac f9bd 70f6 8bbd
00000040: cc3d 29be 8408 273d a0eb b53d 950a 1e3e
00000050: 2046 663d da84 213e e0fa 073c 17d8 f2bc
00000060: 9596 853e 2152 783d b128 94bd b611 213c
00000070: 8a65 96bd 31cd 053e 553c 103e 9b49 98be
00000080: 4961 8dbe 5b2d 0abe 50f7 3bbd 2041 4d3e
00000090: 3ea4 2fbe d108 f1bd 7f65 bdbd 2dd7 a0bc
000000a0: 5219 853e 4cb0 72be 7742 113d 85d7 6bbc
000000b0: 32b8 513d 52da 583e 08fc 2f3d 8e58 563e
000000c0: 0aa0 5ebd 6c71 dfbd f31f a03d 3269 c0bd
000000d0: fb3d 8d3d 3dc5 dabd 867c 44be 331a ed3c
000000e0: 605d 07bc 9ec5 753e ae8b d5bd 7197 0c3d
000000f0: e189 f5bd 32e4 0d3e b898 153e 5932 063e
00000100: 1d91 79bd e58a 7d3e 695d 093c a4db 403c
00000110: be4a 96bb b0f3 e63b 52b4 6ebe 77c3 54be
00000120: 0d5a 05bc 36d4 b5bc 40fb 453d 0aff 4abe
00000130: de62 8d3e ce69 a1bd cce0 63bd 9ba9 8dbd
00000140: 3d04 d03c b89e 3cbe f9dc 513c e6f7 103d
00000150: 78e5 253d 7a17 e03d ba84 053e 3789 f4bd
00000160: a3e6 20bd 3c7c 933c a0cd 933d 4576 31bc
00000170: f71a 723e 17df febd 4551 32bd f0dc 99bd
00000180: 650d 2e3d 12b6 c73d bea6 153d ff72 e53c
00000190: 74af 4bbd fd3f d0bd 8808 b5bc a192 a13d
000001a0: ac3f fa3c 0be0 7e3d cfbd 853d 928c 553c
000001b0: 4e08 6d3c 08bf 62bd 3f57 6bbc e7b5 033d
000001c0: 8720 8e3d 7717 82be 842a 3c3e 601f 973d
000001d0: bf68 ed3d a0ab 163e 1d8f c63d e5ff 52bc
000001e0: f159 6d3e 64dd ec3d 623b 3a3a 2cea 313d
000001f0: 8345 f0bd c319 143e 5fa2 03bd 309c a6be
00000200: f568 26be 0b6e a03c 2e91 783d 9131 96be
00000210: 25c9 e1bd 1298 c93d e481 bdbd c08f 4bbc
00000220: 8cfb 8c3e 08d4 72bd 0fd5 5ebc 5514 adbd
00000230: 70a0 043d ad94 c3bd 8128 b83e a588 2ebe
00000240: 3456 683e f369 28be 246b 1dbd 98e9 34be
00000250: 5ad1 06be 2927 3e3d 56c4 a1bd 901e b5bd
00000260: 3d77 35bc ccfd e5bd bfc7 283d 9b1a 86be
00000270: 2577 213c bcd2 d93d c40c c63d 2b2a 133e
00000280: c119 73bd 7c1d babc 17e4 443e 7b47 4ebe
00000290: c9e7 28be 9553 89bc 610a 4f3e 5201 56bd
000002a0: 7d2f 95be 426d 22bc 8112 fc3d 84c5 27be
000002b0: 385b 2f3e f669 eabd 8ddd 2bbd 3864 5c3e
000002c0: d90d 183e 1e05 6bbd 9e74 f6bd 87db cabd
000002d0: b9e8 ae3d 35e9 cebd 0d28 9f3d 2b26 b3bc
000002e0: 4fd0 8c3d dd79 a1be ab71 023d 0cda 8abd
000002f0: 2948 69bd 2b2a f3bd 2cab b8bd f65f 8cbd
00000300: a08f 5b3c c638 86bd ab34 89bb 1463 30be
00000310: 3540 0fbd 1de2 c63c 5487 a7bd 94e1 063e
00000320: 35d1 2d3d 66d9 813e 3662 3ebd 9f64 03be
00000330: 1f93 0ebe 8f6e 383d ccd3 fd3d fe1a 893e
00000340: 6673 4a3e 94a1 8b3d ce63 d43d c872 a33d
00000350: bbda 1a3e 5c10 8a3a 757b 033e 94ea 243e
00000360: bdef 8d3d de0e 23be 9c83 07bd 60c2 e1bc
00000370: 07f4 3f3e 7ed3 323e 7981 223e 51c3 a8bc
00000380: 7190 963e 0e64 9abd 38a3 d9bd 3041 903d
00000390: 7fc5 463e a4c0 8cbd 3f22 97bc 7c22 6dbd
000003a0: c77d cc3d 9643 c33d 98f5 103e d232 8abe
000003b0: 041a 4fbe 4a7a 7d3d 35d5 04be 4519 edbb
000003c0: c4fb e63d 51fc d93c 49a6 1b3d 4c9e 16be
000003d0: b4ba d23b d55c 87bd bcaf 833e 1ab7 333e
000003e0: 62e1 3b3e 601d fd3c 2994 203e 5cbf 403d
000003f0: 42a4 a53e 592d 69be 6b0d b8bd a30c 2b3d

mid_part.2.bias f4 [12]
0.008761471 0.009989438 -0.0036296935 0.0018775866 0.035691004 -0.009092113 -0.0044083 0.0010353462
0.01400759 -0.00029277045 0.026465038 0.02751102
00000000: 468c 0f3c bdaa 233c 27e0 6dbb 5a19 f63a
00000010: bb30 123d 16f7 14bc 8073 90bb 74b4 873a
00000020: 1780 653c fc7e 99b9 35cd d83c ca5e e13c

mid_part.3.weight f4 [12]
-0.01854908 0.2444548 0.2609212 1.1495724 0.547913 0.25167117 0.6972634 0.12853135
0.21904203 0.82119954 0.26970005 0.27689692
00000000: 3df4 97bc 5c52 7a3e 7797 853e 3025 933f
00000010: 0744 0c3f 0bdb 803e db7f 323f b99d 033e
00000020: 8e4c 603e 223a 523f 2016 8a3e 6fc5 8d3e

mid_part.4.weight f4 [12, 12, 3, 3]
0.0103346985 -0.059441634 0.21570571 0.3028517 -0.071872175 0.11947882 -0.17667396 0.079761826
-0.11266214 -0.2066229 -0.11459577 0.33736703 -0.049889058 0.16193105 -0.16213857 -0.11529721
0.013867009 0.22822985 -0.14722162 0.1603393 -0.0050758305 0.1361782 -0.02137941 -0.06404371
-0.042651754 0.18499652 0.13839479 -0.096568696 -0.27953687 0.00778229 0.18585308 -0.15678185
-0.258362 -0.15256514 0.17704953 0.10061139 -0.1355668 0.14141618 0.12645692 -0.20203106
0.376472 0.0418473 -0.26545516 0.059856776 0.14928369 -0.015022076 -0.06694518 0.10969032
-0.23184684 0.07444096 -0.34444496 0.054954614 0.24618612 -0.1316649 0.14866729 -0.23982364
-0.07578068 0.08773612 -0.0027686432 -0.14013362 -0.028347919 -0.28085038 0.29127708 0.0765367
-0.102882385 0.18856083 -0.036602546 0.049031388 0.11033856 -0.21182653 -0.10461493 -0.08033684
-0.023283621 0.026172055 -0.08664574 -0.16558656 0.005747431 0.02749797 0.03314898 -0.061780553
0.1852101 0.090448745 -0.017253079 0.20258746 0.09978406 0.14294498 -0.035428975 0.07030252
0.16683325 -0.33873367 0.06015604 0.19095612 -0.0013168929 0.19611688 -0.16015789 0.026089387
-0.056759536 0.026661403 0.032901842 0.21272175 -0.01778767 0.29064596 -0.31599185 0.25680348
-0.46494845 -0.0042311237 0.16369055 0.29148787 0.12173968 -0.223826 -0.04866726 0.27133426
0.088471085 0.09681916 0.29051152 -0.23988964 0.03955493 -0.022015035 0.06413847 -0.037797917
0.2900523 0.056863494 0.32485017 -0.24396195 -0.25266623 -0.07990841 -0.20520668 0.12447951
-0.04835668 -0.46054605 -0.17098717 -0.04832112 -0.5417827 -0.18350297 0.10563551 0.019229366
0.166264 0.23294212 0.17276834 0.3351335 0.06259413 0.36692175 0.34063026 -0.09923713
-0.024175428 -0.026848411 -0.03110122 -0.18877082 -0.016508847 0.0048193936 -0.34107348 -0.049051348
-0.028182149 -0.030068997 -0.18732989 0.28494596 -0.24378301 -0.046636973 0.13750342 -0.12471513
0.033150494 -0.06691561 0.26522583 -0.041773103 -0.05449592 0.36295155 -0.09267612 0.022523416
0.124906026 -0.04146784 -0.25418863 0.33395693 -0.24635947 -0.2406517 -0.04395125 -0.0030648247
0.07567139 0.16243005 0.13513292 0.42639032 -0.066902004 -0.26585236 -0.16311401 -0.014788287
-0.11260343 0.09072169 0.20185684 0.29465038 0.12108732 -0.416976 0.12561998 -0.1506256
0.19408587 0.22716232 -0.03426341 0.03696266 -0.013578816 0.10320945 -0.10615979 -0.36666492
-0.014305193 0.40368307 0.39811757 0.13269944 -0.40583262 -0.24624665 0.14012039 -0.23327266
-0.2550984 -0.2865482 -0.19352323 0.06149144 0.0024134829 0.59821033 0.3642377 0.26591858
0.20311414 -0.19523463 0.15297611 0.07644244 0.03970295 -0.01135892 -0.13769113 0.30356997
0.048480447 0.22273922 0.012605266 0.17124866 -0.022196136 0.030456891 0.10038025 -0.0043429933
0.07695133 0.016076261 -0.09146415 0.047334995 0.17374416 -0.043349616 0.16204126 0.13973002
0.03252378 -0.016705615 -0.17840536 -0.34390125 -0.13377078 -0.07878977 0.026431993 0.22468853
0.16848849 0.16210434 -0.20441975 0.07093509 -0.026314024 -0.38736877 -0.20361684 -0.16311553
00000000: de52 293c 1279 73bd f5e1 5c3e 610f 9b3e
00000010: b831 93bd 50b1 f43d 05ea 34be 2b5a a33d
00000020: 68bb e6bd f494 53be 30b1 eabd 5fbb ac3e
00000030: 7858 4cbd 41d1 253e a707 26be f220 ecbd
00000040: 7432 633c 16b5 693e 44c1 16be fc2f 243e
00000050: 2753 a6bb 4c72 0b3e df23 afbc 5929 83bd
00000060: 9bb3 2ebd ba6f 3d3e 5db7 0d3e cfc5 c5bd
00000070: 751f 8fbe 9502 ff3b 4550 3e3e 6c8b 20be
00000080: 0648 84be 093a 1cbe 794c 353e 580d ce3d
00000090: 06d2 0abe 67cf 103e ec7d 013e 3be1 4ebe
000000a0: f0c0 c03e 1368 2b3d bde9 87be 612c 753d
000000b0: d3dd 183e 271f 76bc 8e1a 89bd 52a5 e03d
000000c0: 4269 6dbe 8174 983d 175b b0be 1718 613d
000000d0: 3718 7c3e 2ad3 06be 3d3c 183e 5494 75be
000000e0: e732 9bbd ffae b33d 2072 35bb 307f 0fbe
000000f0: e539 e8bc 9fcb 8fbe 4522 953e 46bf 9c3d
00000100: 00b4 d2bd 1716 413e 8dec 15bd 23d5 483d
00000110: 2ff9 e13d 0ee9 58be 5a40 d6bd a487 a4bd
00000120: 4bbd bebc c766 d63c 5273 b1bd 868f 29be
00000130: f254 bc3b 6c43 e13c 3ac7 073d 9b0d 7dbd
00000140: b7a7 3d3e 313d b93d 5456 8dbc 1673 4f3e
00000150: 965b cc3d 2b60 123e f91d 11bd c5fa 8f3d
00000160: 56d6 2a3e 806e adbe 2e66 763d 008a 433e
00000170: 989b acba ddd2 483e 6e00 24be 69b9 d53c
00000180: b07c 68bd 0469 da3c 15c4 063d bbd3 593e
00000190: 73b7 91bc 8ccf 943e afc9 a1be bf7b 833e
000001a0: b90d eebe 3da5 8abb 7f9e 273e e63d 953e
000001b0: a752 f93d a532 65be 5257 47bd 53ec 8a3e
000001c0: 5430 b53d 2049 c63d edbd 943e a1a5 75be
000001d0: 5a04 223d e058 b4bc 085b 833d fdd1 1abd
000001e0: bc81 943e b2e9 683d c352 a63e 29d1 79be
000001f0: 785d 81be 05a7 a3bd b321 52be 1def fe3d
00000200: a711 46bd b1cc ebbe 4317 2fbe 5eec 45bd
00000210: 45b2 0abf 34e8 3bbe 6e57 d83d e786 9d3c
00000220: 1c41 2a3e 6188 6e3e 2fea 303e 9e96 ab3e
00000230: 5a31 803d 2bdd bb3e 1767 ae3e d63c cbbd
00000240: 8c0b c6bc 33f1 dbbc fcc7 febc 234d 41be
00000250: 903d 87bc 01ec 9d3b 2fa1 aebe 11ea 48bd
00000260: 40de e6bc 4253 f6bc 68d3 3fbe 70e4 913e
00000270: 41a2 79be 6906 3fbd b2cd 0c3e a56a ffbd
00000280: d0c8 073d 0d0b 89bd aecb 873e 461a 2bbd
00000290: 1d37 5fbd c9d4 b93e facc bdbd 0783 b83c
000002a0: bbce ff3d 2fda 29bd 0325 82be 67fc aa3e
000002b0: a845 7cbe 666d 76be 3a06 34bd 3adb 48bb
000002c0: 9af9 9a3d 1054 263e 4960 0a3e d54f da3e
000002d0: eb03 89bd cd1d 88be 5c07 27be 924a 72bc
000002e0: a19c e6bd 4bcc b93d 8fb3 4e3e 6adc 963e
000002f0: a1fc f73d e17d d5be 86a2 003e 993d 1abe
00000300: 72be 463e 3d9d 683e ca57 0cbd 2866 173d
00000310: af79 5ebc 7a5f d33d 4e6a d9bd 81bb bbbe
00000320: 5460 6abc 8caf ce3e 11d6 cb3e 5de2 073e
00000330: 4bc9 cfbe 1528 7cbe b87b 0f3e 07df 6ebe
00000340: 429c 82be 72b6 92be f42a 46be 73de 7b3d
00000350: 862b 1e3b 5024 193f 5d7d ba3e 7b26 883e
00000360: 27fd 4f3e 96eb 47be c5a5 1c3e db8d 9c3d
00000370: 8f9f 223d c31a 3abc e7fe 0cbe 866d 9b3e
00000380: 6f93 463d c015 643e 5186 4e3c cf5b 2f3e
00000390: acd4 b5bc bb80 f93c 2994 cd3d ab4f 8ebb
000003a0: a998 9d3d 5db2 833c 8e51 bbbd 57e2 413d
000003b0: fde9 313e 5e8f 31bd 25ee 253e 6315 0f3e
000003c0: a837 053d 37da 88bc e5af 36be d313 b0be
000003d0: 35fb 08be 885c a1bd e887 d83c c014 663e
000003e0: 3f88 2c3e aefe 253e 6953 51be 6b46 913d
000003f0: 8290 d7bc 3355 c6be ef80 50be c207 27be

mid_part.4.bias f4 [12]
0.06083964 0.009066331 -0.0285418 0.02012534 0.003725092 -0.005218644 0.0017803833 0.015703518
0.030109735 0.012015653 -0.033140656 -0.016140362
00000000: fd32 793d f38a 143c 7ed0 e9bc e6dd a43c
00000010: ac20 743b 2901 abbb c05b e93a aaa4 803c
00000020: b1a8 f63c 4ddd 443c 7fbe 07bd cb38 84bc

mid_part.5.weight f4 [12]
1.2190565 0.6681449 0.38097617 0.26314148 2.0202491 1.0996634 -0.30167642 0.024942847
0.643412 1.3623781 0.4339827 0.2531027
00000000: 0b0a 9c3f 8b0b 2b3f 4f0f c33e 7bba 863e
00000010: c34b 0140 c5c1 8c3f 5575 9abe f154 cc3c
00000020: a6b6 243f 6862 ae3f fb32 de3e ad96 813e

mid_part.6.weight f4 [12, 12, 3, 3]
0.05891602 -0.06279577 -0.022432387 0.03938845 0.1297683 0.17480445 -0.039605673 0.10601508
0.026144458 0.030351046 0.26434457 0.18602362 0.09537493 0.21623668 0.27158606 -0.004862115
-0.27778295 0.05882649 0.06996512 -0.15960896 0.04171575 0.12746617 0.009921892 -0.073959276
-0.18946105 -0.13523547 0.17703286 0.14932975 -0.110452555 -0.19284432 -0.025386788 0.092248045
0.105805896 0.098423965 -0.36490732 -0.16380945 -0.012711512 0.15299074 -0.0799194 0.17039579
0.123185076 -0.13590606 -0.039502617 0.17414391 -0.038697556 -0.12848671 -0.3999719 0.091730185
0.22250535 0.009218491 0.054479353 0.092576765 0.11962049 0.16972369 0.16554269 -0.209808
0.044380534 0.09077449 0.0549747 0.06645257 0.20895767 0.18947248 0.13425116 -0.115084894
-0.08124371 0.1378541 -0.037991222 -0.16462293 0.027398175 0.06699643 0.047248755 -0.18969916
-0.059319824 0.0941818 0.13813438 -0.029704228 0.04817129 -0.018752657 -0.08081535 -0.1841315
0.027808407 -0.035628375 0.18233436 0.0029286058 -0.16933657 0.06537362 0.18524398 -0.19976428
-0.12427482 -0.23503679 -0.084337234 0.15782334 0.099085085 -0.059286874 -0.22087874 0.110979915
-0.084178105 0.17825462 -0.039199367 0.1066028 0.05228299 0.057509277 0.06264404 -0.12942357
-0.00703424 0.15173228 -0.13039733 0.013483265 0.34036022 0.14902887 0.012911826 -0.14460899
-0.21127816 0.13563591 0.13591549 0.106735334 0.016312093 -0.108128294 -0.02414461 0.14945164
-0.040740095 0.15410143 0.06255005 0.15681319 -0.14988334 0.015055907 0.124141335 0.020949537
0.011765481 0.16692194 0.061715033 0.18729533 -0.011686752 -0.11168524 0.014349849 0.10783007
0.035912495 -0.032489777 -0.09909532 0.14904234 0.007833581 -0.10503629 -0.20893954 0.044760767
0.05777717 -0.10039975 0.1663301 0.11302164 -0.041859474 -0.11707911 0.09578352 0.20842838
0.050779548 0.07342099 0.036837224 0.10756522 -0.2053429 0.023905478 -0.04489117 -0.014710066
0.03498487 0.050814927 0.15200278 0.011508307 0.015670888 0.04060715 0.09262335 -0.024912924
-0.08278009 -0.075127006 -0.082522005 0.15540521 -0.036839325 0.10192775 0.017244758 0.17924808
-0.22896354 -0.020292485 -0.024673233 -0.10024778 0.2433753 -0.30830607 0.14379501 -0.017049782
0.0525845 0.21999206 0.010236426 0.1353302 -0.03306242 0.0893902 0.0023308627 0.05614315
0.15336815 0.21847901 -0.17157264 0.0054872185 0.15484345 0.19898385 0.09567929 0.21798003
0.07300613 -0.20902057 -0.25545317 -0.04865837 0.11861483 -0.09246969 0.29827562 -0.07548684
-0.026668362 -0.031757113 0.04923278 0.06290837 0.0055667916 -0.24126594 -0.23669334 0.07054572
-0.27889156 -0.030781789 -0.19732313 -0.015388598 -0.1180807 -0.08423917 0.26752427 0.16923787
-0.20159136 -0.15239616 -0.19117111 0.040504113 -0.13461784 0.04412451 -0.12805568 0.27535817
0.18754083 0.18041499 -0.1273956 0.13467565 0.00809208 0.07145675 0.011183563 -0.14171001
0.16343856 -0.14028186 -0.27572876 0.13654129 0.09386542 0.013945892 0.16588777 0.17345041
-0.110866055 -0.16051249 -0.1081585 0.01975225 -0.29767662 -0.1839355 0.16873056 -0.06075728
00000000: ed51 713d 129b 80bd 20c4 b7bc c955 213d
00000010: fbe1 043e f0ff 323e 8f39 22bd 6f1e d93d
00000020: e72c d63c c2a2 f83c 2c58 873e fa7c 3e3e
00000030: ee53 c33d 266d 5d3e 540d 8b3e 6052 9fbb
00000040: 9139 8ebe 0cf4 703d df49 8f3d 8870 23be
00000050: 22de 2a3d 7e86 023e 6e8f 223c f677 97bd
00000060: 1402 42be 2b7b 0abe 1a48 353e e6e9 183e
00000070: f334 e2bd fb78 45be f4f7 cfbc 8bec bc3d
00000080: c3b0 d83d 8192 c93d 22d5 babe aabd 27be
00000090: f243 50bc 9ba9 1c3e c8ac a3bd 3c7c 2e3e
000000a0: 7548 fc3d f52a 0bbe 7fcd 21bd c852 323e
000000b0: 5481 1ebd 0592 03be 1ec9 ccbe 09dd bb3d
000000c0: 71d8 633e 2709 173c be25 5f3d e398 bd3d
000000d0: 96fb f43d 0ccc 2d3e 0684 293e e9d7 56be
000000e0: 5dc8 353d fae7 b93d 272d 613d 4918 883d
000000f0: 00f9 553e 1305 423e 2379 093e a1b1 ebbd
00000100: 1a63 a6bd a029 0d3e af9c 1bbd ea92 28be
00000110: 2372 e03c 6d35 893d e987 413d 7f40 42be
00000120: 58f9 72bd 63e2 c03d 1973 0d3e 4856 f3bc
00000130: 424f 453d 2c9f 99bc 8582 a5bd f88c 3cbe
00000140: 75ce e33c 0fef 11bd dcb5 3a3e daed 3f3b
00000150: 9166 2dbe 9be2 853d 99b0 3d3e 028f 4cbe
00000160: cc83 febd 7cad 70be 00b9 acbd 719c 213e
00000170: 1fed ca3d cbd6 72bd 092e 62be 7049 e33d
00000180: 9265 acbd 6188 363e 848f 20bd 9252 da3d
00000190: b026 563d d98e 6b3d 854b 803d 9d87 04be
000001a0: 7b7f e6bb b55f 1b3e e186 05be eae8 5c3c
000001b0: b243 ae3e 069b 183e 208c 533c 6114 14be
000001c0: 4d59 58be 24e4 0a3e 6e2d 0b3e 0e98 da3d
000001d0: f0a0 853c 5e72 ddbd ebca c5bc da09 193e
000001e0: 16df 26bd c4cc 1d3e 3e1a 803d a393 203e
000001f0: 057b 19be 0dad 763c d03d fe3d 5d9e ab3c
00000200: 01c4 403c 96ed 2a3e e7c8 7c3d 59ca 3f3e
00000210: ca79 3fbc 3bbb e4bd a11b 6b3c 03d6 dc3d
00000220: fb18 133d 0014 05bd 7df2 cabd 8e9e 183e
00000230: 6c58 003c 441d d7bd 3ff4 55be 1157 373d
00000240: c1a7 6c3d 629e cdbd 7052 2a3e e477 e73d
00000250: d774 2bbd 2cc7 efbd 262a c43d 406e 553e
00000260: 37fe 4f3d be5d 963d a1e2 163d 274b dc3d
00000270: 6945 52be 6cd5 c33c cedf 37bd 7d02 71bc
00000280: 4c4c 0f3d 5023 503d 9ea6 1b3e 578d 3c3c
00000290: 3c60 803c af53 263d 50b1 bd3d 3016 ccbc
000002a0: 9c88 a9bd 30dc 99bd 4c01 a9bd 8b22 1f3e
000002b0: d5e4 16bd 7fbf d03d e144 8d3c cf8c 373e
000002c0: 6b75 6abe 6d3c a6bc 851f cabc b54e cdbd
000002d0: 6037 793e 4bda 9dbe 003f 133e fcab 8bbc
000002e0: d862 573d 9945 613e afb6 273c 0094 0a3e
000002f0: 766c 07bd 3612 b73d 63c1 183b 5cf6 653d
00000300: 8a0c 1d3e f6b8 5f3e bdb0 2fbe 20ce b33b
00000310: 488f 1e3e 6cc2 4b3e 81f3 c33d 2836 5f3e
00000320: 3d84 953d 7d09 56be c2ca 82be 004e 47bd
00000330: 55ec f23d c060 bdbd 95b7 983e d898 9abd
00000340: 9c77 dabc bf13 02bd 50a8 493d 1ad6 803d
00000350: a269 b63b 6b0e 77be bd5f 72be 467a 903d
00000360: e0ca 8ebe 172a fcbc 130f 4abe 7520 7cbc
00000370: 4bd4 f1bd 9685 acbd f1f8 883e b14c 2d3e
00000380: f76d 4ebe bd0d 1cbe 5cc2 43be a4e7 253d
00000390: 42d9 09be e7bb 343d 0721 03be bffb 8c3e
000003a0: b40a 403e b5be 383e fe73 02be 6ae8 093e
000003b0: a594 043c eb57 923d 433b 373c 6e1c 11be
000003c0: 705c 273e 0ca6 0fbe 522c 8dbe 7bd1 0b3e
000003d0: 833c c03d 507d 643c 7cde 293e fc9c 313e
000003e0: be0d e3bd 635d 24be 3482 ddbd 78cf a13c
000003f0: 1269 98be 9659 3cbe b4c7 2c3e a0dc 78bd

mid_part.6.bias f4 [12]
0.020905877 0.008185845 0.031618033 0.006249237 0.022381999 0.06493051 0.06909722 0.054475524
0.0043255687 0.0031585393 0.08937324 -0.052262772
00000000: cd42 ab3c ec1d 063c e981 013d 66c6 cc3b
00000010: 745a b73c 4afa 843d d882 8d3d ba21 5f3d
00000020: 80bd 8d3b 7fff 4e3b 5109 b73d 7d11 56bd

mid_part.7.weight f4 [12]
0.42382678 1.154365 0.29913986 0.2761184 -0.09214132 1.277421 0.81945515 0.26542428
0.2937066 0.19786918 -0.308534 0.22309788
00000000: d3ff d83e 3bc2 933f dc28 993e 645f 8d3e
00000010: 97b4 bcbd 8882 a33f d0c7 513f b1e5 873e
00000020: b660 963e 389e 4a3e 2bf8 9dbe c573 643e

mid_part.8.weight f4 [12, 12, 3, 3]
0.10139138 -0.11071974 -0.19136739 -0.081541575 0.23591089 0.13257663 -0.30400097 0.14006808
-0.07275625 -0.04380529 0.035444316 0.069360755 0.09000756 0.3131117 0.037858367 0.19818415
0.05590195 -0.05762956 0.086130396 -0.040190488 -0.009978468 -0.22641315 -0.030682301 -0.023931539
0.0602784 -0.18552984 -0.0026225029 -0.05967079 -0.08563536 0.029181913 -0.16964449 -0.06445928
0.10722359 0.0070718355 -0.10885886 -0.19090867 -0.018725127 -0.013048915 0.019139988 0.11044878
-0.015010831 0.22862586 -0.08562893 0.05684715 -0.02473623 0.06406375 0.15370128 0.04997457
-0.16196318 0.07129753 0.031734966 0.33501384 -0.15566573 0.09149413 0.11988848 -0.3437219
0.034556713 0.04844217 -0.02816331 -0.048254523 -0.108276576 -0.11886537 0.04429677 -0.018767832
0.30926165 0.011224872 0.04645691 0.2022686 -0.09060237 -0.1772172 -0.009858623 -0.21422616
-0.2455481 0.034751315 0.05813391 0.017922614 0.18452878 -0.15094358 -0.045775767 -0.13324383
-0.13018769 0.08209813 -0.062893376 -0.13696875 -0.13971531 -0.051273674 -0.026347138 0.22911212
-0.039138548 -0.002300203 0.01693208 0.15643713 0.017686771 -0.064199015 -0.03508284 0.044629633
0.08102933 0.08366819 -0.050891083 0.17333323 0.40233636 -0.1971159 0.43531877 -0.01606877
0.20551325 -0.19807337 0.12456667 0.23621534 0.11557777 -0.09439305 -0.14872569 0.23230442
0.15502167 0.014589799 0.07105629 -0.2607439 -0.224975 0.05319284 -0.14973998 0.011897732
0.12236334 0.2096859 -0.24428113 -0.164676 0.0019804698 -0.10253554 0.06916977 -0.0237173
0.09114443 0.06300376 -0.27593234 0.2449048 -0.1129727 0.07153699 0.01711621 -0.046876628
0.35736156 0.048207022 0.13384277 -0.0052629244 0.07454351 -0.18080655 0.065049395 0.108543605
0.15350926 0.006382928 -0.10198259 0.041065443 0.19656044 -0.2947689 0.15643747 -0.3277716
0.06700849 0.15759833 0.1585897 -0.034431055 0.08349635 0.22760391 0.073542014 -0.19668981
-0.05945126 -0.004613338 -0.044197425 -0.009321189 0.15891151 0.10949002 0.020645268 0.04937705
-0.0337697 -0.042532682 0.06596528 0.16909677 0.2105159 0.13522509 0.13041402 -0.35491002
0.062061884 0.03807726 -0.048481688 0.06773437 0.08350389 -0.0047808783 -0.0044590887 0.06822262
-0.13270177 0.04691274 0.28627238 -0.076788925 0.09911576 0.2816084 0.015856713 0.010635772
0.23956318 0.04226557 0.23192103 0.18891647 -0.006051287 0.059929684 0.0055543617 -0.03724402
0.077308275 -0.009306273 -0.16739765 -0.13018644 -0.09602113 0.077398 0.1866918 0.1782639
-0.20105258 0.098642334 0.16428173 0.066981435 0.07774939 -0.01970075 0.0019661582 0.1937771
-0.05578041 0.17114894 0.09666206 -0.009982551 0.078547016 -0.116258755 0.05247717 0.121732906
0.14457536 0.06383314 0.056085657 0.18915465 0.01966942 0.18430927 -0.122797295 0.095029436
0.0836269 -0.12519984 -0.0032224604 -0.02360681 -0.15816393 -0.054162454 -0.17581029 0.023435665
-0.0449432 -0.03460167 -0.02980299 -0.20706496 -0.07756625 -0.06968894 0.23291852 0.07973867
-0.20196791 0.049017314 -0.05437908 0.0016993092 0.069759086 0.041407596 -0.26842943 0.18044572
00000000: 49a6 cf3d 08c1 e2bd d0f5 43be 45ff a6bd
00000010: a092 713e 2bc2 073e 04a6 9bbe 026e 0f3e
00000020: 3b01 95bd 2d6d 33bd 0f2e 113d 030d 8e3d
00000030: e255 b83d 2d50 a03e 6011 1b3d c9f0 4a3e
00000040: 71f9 643d f90c 6cbd 2265 b03d c89e 24bd
00000050: ba7c 23bc d9d8 67be 7359 fbbc 130c c4bc
00000060: 7ce6 763d 89fb 3dbe 4cde 2bbb 5c69 74bd
00000070: 9761 afbd e80e ef3c 49b7 2dbe 3a03 84bd
00000080: 0b98 db3d dbba e73b 65f1 debd 907d 43be
00000090: 7065 99bc 1ecb 55bc 77cb 9c3c f832 e23d
000000a0: fdef 75bc e61c 6a3e 385e afbd 8fd8 683d
000000b0: a2a3 cabc db33 833d de63 1d3e 22b2 4c3d
000000c0: add9 25be 7004 923d 86fc 013d ef86 ab3e
000000d0: d666 1fbe 4661 bb3d 1788 f53d 51fc afbe
000000e0: 578b 0d3d 4c6b 463d beb6 e6bc 89a6 45bd
000000f0: 1cc0 ddbd b06f f3bd 8870 353d ffbe 99bc
00000100: 8b57 9e3e 87e8 373c 9a49 3e3d 801f 4f3e
00000110: bc8d b9bd 6d78 35be 1086 21bc 1a5e 5bbe
00000120: f670 7bbe 6557 0e3d d31d 6e3d 72d2 923c
00000130: 1df5 3c3e f490 1abe 5f7f 3bbd 1271 08be
00000140: ec4f 05be 1023 a83d 3ece 80bd 8941 0cbe
00000150: 8811 0fbe 5804 52bd f4d5 d7bc 5e9c 6a3e
00000160: be4f 20bd 01bf 16bb 25b5 8a3c 0e31 203e
00000170: d9e3 903c c67a 83bd 06b3 0fbd 90cd 363d
00000180: b5f2 a53d 3a5a ab3d 2b73 50bd 447e 313e
00000190: 08ff cd3e c0d8 49be 1ae2 de3e a7a2 83bc
000001a0: 1172 523e bfd3 4abe cf1c ff3d 6fe2 713e
000001b0: 0ab4 ec3d 2551 c1bd 8c4b 18be 36e1 6d3e
000001c0: 00be 1e3e 0d0a 6f3c f685 913d 3980 85be
000001d0: d95f 66be bce0 593d 7055 19be b4ee 423c
000001e0: a199 fa3d e7b7 563e d524 7abe d3a0 28be
000001f0: c5ca 013b 27fe d1bd e1a8 8d3d c84a c2bc
00000200: eea9 ba3d 1e08 813d 0147 8dbe 53c8 7a3e
00000210: 3b5e e7bd fc81 923d 4b37 8c3c b501 40bd
00000220: 18f8 b63e ba74 453d 140e 093e 9c74 acbb
00000230: 45aa 983d 5a25 39be 9e38 853d 1c4c de3d
00000240: 8831 1d3e e227 d13b 40dc d0bd 3d34 283d
00000250: 2447 493e f3eb 96be 2531 203e aed1 a7be
00000260: bf3b 893d 7561 213e 5765 223e 9407 0dbd
00000270: 2200 ab3d 0011 693e 329d 963d 0e69 49be
00000280: 2a83 73bd 7c2b 97bb 5c08 35bd e6b7 18bc
00000290: b3b9 223e 4e3c e03d 4420 a93c 973f 4a3d
000002a0: 1952 0abd c036 2ebd ce18 873d b427 2d3e
000002b0: 7b91 573e 7278 0a3e 418b 053e c4b6 b5be
000002c0: 9a34 7e3d e7f6 1b3d bc94 46bd 51b8 8a3d
000002d0: 1604 ab3d eaa8 9cbb 8c1d 92bb 4db8 8b3d
000002e0: f9e2 07be 9327 403d 4b92 923e 8343 9dbd
000002f0: 34fd ca3d fa2e 903e f0e5 813c a941 2e3c
00000300: 0d50 753e aa1e 2d3d b57c 6d3e 5273 413e
00000310: e049 c6bb d478 753d 5d01 b63b 2f8d 18bd
00000320: cd53 9e3d 5779 18bc 4a6a 2bbe 984f 05be
00000330: baa6 c4bd d882 9e3d 232c 3f3e d08a 363e
00000340: bae0 4dbe fe04 ca3d 7839 283e 902d 893d
00000350: 123b 9f3d 7863 a1bc a9da 003b 816d 463e
00000360: 007a 64bd ab41 2f3e c2f6 c53d db8d 23bc
00000370: 42dd a03d 1219 eebd 4df2 563d 1a4f f93d
00000380: 900b 143e f3ba 823d 13ba 653d c2b1 413e
00000390: c321 a13c 92bb 3c3e 267d fbbd cb9e c23d
000003a0: 9544 ab3d 6334 00be ea2f 53bb 1263 c1bc
000003b0: baf5 21be 73d9 5dbd 9d07 34be 27fc bf3c
000003c0: 5c16 38bd 7bba 0dbd 6625 f4bc d608 54be
000003d0: 0edb 9ebd 13b9 8ebd 3182 6e3e 074e a33d
000003e0: add0 4ebe 61c6 483d 99bc 5ebd 5bbb de3a
000003f0: dadd 8e3d 039b 293d 956f 89be c3c6 383e

mid_part.8.bias f4 [12]
-0.0012280596 0.023689417 -0.0038821762 -0.027885642 0.002309766 -0.0006339789 0.0071140314 0.029125072
-0.022010388 0.05658626 0.024977012 0.022633243
00000000: d8f6 a0ba 4f10 c23c 1c6c 7ebb 6e70 e4bc
00000010: 715f 173b 9b31 26ba d21c e93b b497 ee3c
00000020: 214f b4bc ffc6 673d 979c cc3c 5a69 b93c

mid_part.9.weight f4 [12]
-0.6607419 0.0155821415 0.04727432 0.26555923 0.36768928 1.2493864 -0.16362001 0.92496854
0.26762697 0.28782883 0.08654949 1.6298045
00000000: 6226 29bf 3d4c 7f3c b8a2 413d 61f7 873e
00000010: c541 bc3e e5eb 9f3f 018c 27be bdca 6c3f
00000020: 6706 893e 4d5e 933e dc40 b13d 6f9d d03f

mid_part.10.weight f4 [56, 12, 1, 1]
-0.07841393 0.17820178 -0.05333449 -0.38324556 -0.089010306 0.2489565 0.09989523 0.29591304
-0.16478318 -0.08549313 0.37009904 -0.13050629 0.06692411 0.16800998 0.07539642 -0.045369927
-0.23608142 0.30902874 -0.062206153 0.32861376 0.013021782 0.096416876 0.20763496 0.09989096
-0.05023928 0.11951427 0.0038345593 -0.22561385 -0.33910432 -0.3229352 0.34552795 0.03511256
0.058326118 -0.16624442 -0.1774414 -0.0036913597 0.061731573 -0.21145152 -0.04064711 -0.13415252
-0.17693311 -0.34303316 0.32649553 0.5697363 -0.3015993 -0.03585158 0.11692444 0.16730157
-0.19055445 0.15719357 0.34002724 0.123358905 -0.062876776 0.18553276 -0.06913557 0.23879808
0.22381717 -0.078341566 0.1454259 -0.23854314 -0.1639409 -0.100301996 0.14495361 0.29807112
-0.17053679 0.014525163 -0.2235621 -0.17960775 0.15541486 -0.3279929 0.08031726 0.14300089
0.22642192 0.08570137 -0.33354276 -0.15253001 0.34083438 -0.21216309 -0.032767087 -0.079726286
0.30596986 -0.21561864 0.029894037 -0.18404411 0.19332182 0.003133603 0.15341231 0.3739737
0.044512678 -0.124842286 -0.30123362 -0.23232171 0.058040984 0.387264 0.6918455 0.15797713
-0.10032231 0.14693242 -0.068923794 -0.05195976 0.20957968 -0.2025601 -0.0334598 0.038124923
-0.04032357 -0.28403082 0.08024968 0.1408229 -0.4197378 0.13342996 0.13584733 -0.14651899
0.1036636 -0.21471025 0.017126827 0.08331596 -0.1734935 -0.14328487 -0.07646244 0.15099947
-0.046709318 -0.15244362 -0.054833774 -0.24287765 0.12161178 0.025351241 -0.06662374 -0.33112603
-0.16659017 0.17939478 0.1388464 -0.13722135 0.0563854 0.1490897 0.081317924 -0.31751987
0.04143298 0.15460914 0.13777266 0.054995958 -0.33486566 -0.028607335 -0.15164475 -0.06966202
0.06642212 0.20311281 -0.004253385 -0.049256567 0.06268628 0.053619333 -0.06536767 -0.02575058
0.23555824 0.3326212 -0.38599396 -0.18756284 -0.30894756 -0.012334672 -0.21553974 -0.0714738
0.017853243 -0.1449934 0.00077134895 0.28023663 0.2691242 0.5751948 0.6240336 -0.3489281
-0.15691692 -0.011493699 -0.07208333 0.040611785 0.28509393 0.06709576 -0.0149821425 -0.014603502
0.16375367 -0.0034126856 -0.14436138 0.14240572 -0.15806477 0.1423575 -0.3686571 -0.075703174
0.2669269 0.40883395 0.004656624 -0.29204345 0.009705046 0.34719026 -0.31241837 0.1739796
0.22768816 0.21178386 -0.024653468 -0.15222284 0.13005601 -0.40165162 0.011835035 0.10936036
0.068172194 0.28810325 0.2261569 -0.09651236 0.044005755 0.12876599 0.0671899 -0.13971062
0.013487252 0.045717075 0.17010725 0.06126513 0.13677196 -0.17305772 0.11529382 -0.13309339
-0.15589516 -0.028708154 -0.08779759 -0.053215005 -0.07883179 0.25453994 0.09243478 0.13168278
-0.29378557 -0.00013842928 -0.1455605 -0.11686417 0.045815114 0.0032381816 -0.033633564 -0.19632186
-0.055915225 -0.22588575 0.11491683 -0.4048751 0.17951246 -0.39486223 0.10931747 -0.21871361
-0.036989123 -0.121886946 -0.23418085 -0.25112948 -0.054633092 -0.11897458 0.04681757 0.18245669
0.045682225 0.0006788677 -0.5305511 -0.30229548 0.027779661 -0.07265706 0.028894065 -0.16356464
00000000: 7c97 a0bd 877a 363e 4475 5abd c338 c4be
00000010: 094b b6bd 74ee 7e3e df95 cc3d ea81 973e
00000020: ecbc 28be 0617 afbd 9f7d bd3e 71a3 05be
00000030: 820f 893d cf0a 2c3e 7069 9a3d d1d5 39bd
00000040: 54bf 71be 0439 9e3e e1cb 7ebd 1040 a83e
00000050: 5059 553c 3676 c53d 429e 543e a293 cc3d
00000060: b4c7 4dbd e6c3 f43d 3b4d 7b3b 5107 67be
00000070: 159f adbe c357 a5be 0ae9 b03e 30d2 0f3d
00000080: 5ee7 6e3d fa3b 2abe 33b3 35be bdea 71bb
00000090: 3fda 7c3d bf86 58be 967d 26bd 475f 09be
000000a0: f42d 35be 0ba2 afbe 6c2a a73e 3dda 113f
000000b0: 396b 9abe 1bd9 12bd 1576 ef3d 1a51 2b3e
000000c0: b520 43be 5af7 203e 0d18 ae3e 98a3 fc3d
000000d0: 8ac5 80bd 4dfc 3d3e f396 8dbd 7c87 743e
000000e0: 5430 653e 8b71 a0bd 87ea 143e a744 74be
000000f0: 20e0 27be 226b cdbd b86e 143e c79c 983e
00000100: 32a1 2ebe f3fa 6d3c 77ed 64be 18eb 37be
00000110: 1325 1f3e afee a7be 607d a43d d36e 123e
00000120: 26db 673e 3384 af3d 1ec6 aabe d430 1cbe
00000130: d881 ae3e 4841 59be c836 06bd 8947 a3bd
00000140: 15a8 9c3e 22cb 5cbe 57e4 f43c 0f76 3cbe
00000150: 28f6 453e 225d 4d3b 1e18 1d3e 7b79 bf3e
00000160: ed52 363d 50ad ffbd 4b3b 9abe bee5 6dbe
00000170: 62bc 6d3d 7847 c63e c91c 313f c2c4 213e
00000180: c975 cdbd 7475 163e eb27 8dbd c2d3 54bd
00000190: 0e9c 563e ea6b 4fbe 250d 09bd e128 1c3d
000001a0: 542a 25bd 7d6c 91be f259 a43d e133 103e
000001b0: dfe7 d6be dda1 083e 901b 0b3e 1309 16be
000001c0: 954d d43d 01dd 5bbe 8f4d 8c3c 8fa1 aa3d
000001d0: 48a8 31be 45b9 12be 5798 9cbd 9b9f 1a3e
000001e0: 4552 3fbd 2e1a 1cbe 6199 60bd ebb4 78be
000001f0: 990f f93d 68ad cf3c 0772 88bd 5a89 a9be
00000200: 9d96 2abe 44b3 373e c02d 0e3e c183 0cbe
00000210: 61f4 663d f8aa 183e 038a a63d f791 a2be
00000220: a1b5 293d dc51 1e3e 4714 0d3e 7143 613d
00000230: 8373 abbe ee59 eabc c348 1bbe f6aa 8ebd
00000240: 5208 883d cefc 4f3e fb5f 8bbb 41c1 49bd
00000250: aa61 803d f29f 5b3d 7cdf 85bd e1f2 d2bc
00000260: 2e36 713e 534d aa3e 00a1 c5be 7910 40be
00000270: 602e 9ebe 5d17 4abc 73b6 5cbe db60 92bd
00000280: f740 923c 2679 14be 5a34 4a3a 2d7b 8f3e
00000290: a6ca 893e f73f 133f aac0 1f3f b4a6 b2be
000002a0: d4ae 20be 1150 3cbc 6da0 93bd 8b58 263d
000002b0: d5f7 913e 8069 893d a977 75bc 8743 6fbc
000002c0: 0baf 273e 5da7 5fbb 78d3 13be ced2 113e
000002d0: bbdb 21be 2ac6 113e a0c0 bcbe 440a 9bbd
000002e0: a5aa 883e af52 d13e 9896 983b b886 95be
000002f0: ea01 1f3c ecc2 b13e 4df5 9fbe b527 323e
00000300: 1627 693e dedd 583e 12f6 c9bc 4ee0 1bbe
00000310: 672d 053e 48a5 cdbe bce7 413c 53f8 df3d
00000320: dd9d 8b3d 4582 933e ad95 673e 46a8 c5bd
00000330: 613f 343d 3bdb 033e dc9a 893d 4d10 0fbe
00000340: a3f9 5c3c d441 3b3d 9830 2e3e 25f1 7a3d
00000350: f30d 0c3e 0b36 31be 2b1f ec3d a249 08be
00000360: fba2 1fbe 5d2d ebbc 39cf b3bd faf7 59bd
00000370: 9072 a1bd 0f53 823e 724e bd3d dad7 063e
00000380: 106b 96be 5427 11b9 d00d 15be 7b56 efbd
00000390: a1a8 3b3d ac37 543b 59c3 09bd 9908 49be
000003a0: 5d07 65bd 984e 67be 8459 eb3d ca4b cfbe
000003b0: 1dd2 373e 622b cabe d6e1 df3d 76f6 5fbe
000003c0: e881 17bd dd9f f9bd 1bcd 6fbe 0b94 80be
000003d0: f3c6 5fbd f2a8 f3bd c8c3 3f3d edd5 3a3e
000003e0: 491d 3b3d 0af6 313a 32d2 07bf 79c6 9abe
000003f0: 2c92 e33c 3acd 94bd 3fb3 ec3c 7d7d 27be
