models/fsrcnn/track1/track1_x4__epoch_19.pth (torch, 57996 bytes, 22 tensors)

first_part.0.weight f4 [56, 1, 5, 5]
000000 98 6f 45 bb 53 34 28 3d 0c 00 06 3d 76 44 0f 3c
       -0.003012633 0.041065525 0.03271489 0.00874435
000010 3b 02 56 bc 12 0b e9 bc d8 d3 23 3d 6e 41 ed bb
       -0.013062055 -0.028447662 0.03999695 -0.007240466
000020 01 85 db bc 5b c3 4d 3b ad 1e 86 3d e4 4c b4 bc
       -0.02679682 0.0031396959 0.0654882 -0.02200932
000030 65 a5 53 3d 44 90 b9 3c c0 6d d0 3c dc 62 c7 3c
       0.051671404 0.022651799 0.025442958 0.024339132
000040 79 d2 3d bc 0b 94 81 bb 29 b8 b2 3d 25 da 02 bb
       -0.011585825 -0.0039544157 0.08726532 -0.001996645
000050 2e 59 76 3c 76 d8 ef 3b be 22 8b 3d d3 ab ad 39
       0.0150359105 0.0073195053 0.06793736 0.0003312515
000060 c4 39 20 bd b5 af d5 bc 1a 88 14 bd 10 af 2c bd
       -0.03911759 -0.02608476 -0.03626261 -0.04215914
000070 76 13 f6 3b 2d e8 3f 3d 20 63 33 bd f5 44 23 3d
       0.007509644 0.04685228 -0.043795705 0.039860684
000080 2e b9 41 bd 0a aa a0 bc e4 c3 6d b6 ba ed 19 bd
       -0.04729574 -0.019612331 -3.5429775e-06 -0.03758023
000090 cd 31 78 3c 89 f9 d0 bb 01 22 c1 bb c2 e3 91 bd
       0.015148592 -0.006377403 -0.005893946 -0.071235195
0000a0 06 8e 4a bb de 66 c3 3c 17 9a 72 bc 52 72 00 bc
       -0.0030907406 0.023852762 -0.014807246 -0.007839756
0000b0 fc 2b 6c bc 16 af 00 3d 85 5b f3 39 c4 7a ca bd
       -0.014414784 0.031416975 0.0004641676 -0.09886697
0000c0 c0 ce 33 3d 8f d2 fe ba fb 97 d8 bc 26 96 3b bd
       0.043898344 -0.0019441413 -0.026439657 -0.04579749
0000d0 73 9a 66 bc 8b c0 69 bc 62 98 a4 3c 26 12 41 bc
       -0.0140749095 -0.014267097 0.020092193 -0.011784112
0000e0 7c d0 93 bb cd 65 c4 bc d7 02 dc bc e0 c4 98 bd
       -0.0045109373 -0.023974324 -0.026856823 -0.07459426
0000f0 ec 93 3c bd b3 43 b4 bd 81 23 98 bd 17 70 9b bc
       -0.046039507 -0.08801975 -0.07428647 -0.018974347
000100 2b f1 6f bd 07 b7 1e 3d 38 4b 7f bd 06 44 9c bd
       -0.058579605 0.038748767 -0.062327594 -0.07630162
000110 47 a9 0e bd af 87 81 bc 68 53 90 bd 2e d4 28 3d
       -0.034829404 -0.01581177 -0.070471585 0.041217975
000120 31 56 19 3d 0e ac 34 bd db 38 a1 bc 96 a5 27 3d
       0.037435714 -0.044109397 -0.019680431 0.0409294
000130 30 eb 54 39 68 4a 55 3d 24 bc 75 3c 01 e0 be bc
       0.0002030551 0.052072912 0.0149984695 -0.023300173
000140 1c 00 3d bd 51 d1 a5 bc fc 50 d7 ba 1a 87 45 bd
       -0.046142682 -0.020241411 -0.0016427333 -0.048224546
000150 4b f1 f3 bb ea 50 e3 3b e6 95 b5 3d d7 9c 2f bd
       -0.007444536 0.006937136 0.088664815 -0.042874184
000160 02 06 aa bd 60 c6 b6 3c 5a e4 42 3d 57 cc 43 bd
       -0.08301927 0.02231139 0.047581054 -0.047802296
000170 ea bd 8b bd 40 63 21 bb eb ba 4f ba eb 1d ca 3c
       -0.068233326 -0.0024625808 -0.0007924276 0.02467247
000180 47 e6 85 bd cc 62 c4 bc 46 17 4b bd d4 a5 d2 bd
       -0.065380625 -0.023972891 -0.049582742 -0.102855355
000190 0d 33 56 3c 7a ff 0c bd 62 bf fe bc 97 2c a1 bd
       0.013073695 -0.03442333 -0.031097118 -0.07869833
0001a0 3c 9b ed bb 44 08 91 bc ee ff 88 3d db a6 ad b9
       -0.0072511714 -0.017704137 0.0668944 -0.00033121448
0001b0 59 6f 0c 3d 84 62 e7 ba 1a 29 08 3b e5 b3 a8 bd
       0.034285877 -0.0017653261 0.0020776452 -0.08237437
0001c0 30 e5 5c bd 67 4c ee bb d3 71 2b 3c 25 9b 80 bc
       -0.053929508 -0.0072722915 0.0104641495 -0.015698979
0001d0 1b 23 ad bd 74 f5 76 bd 6c 1a 29 bd 62 4f 24 3d
       -0.084539615 -0.060292676 -0.041284963 0.040114768
0001e0 1f ef 65 bd 1c cc 7e bc a1 31 43 3d 4a 0d 95 bd
       -0.056136247 -0.015551593 0.04765475 -0.07277925
0001f0 57 80 83 3c 95 68 a7 bd b9 c5 55 bd 47 33 2d 3d
       0.016052408 -0.08174244 -0.052190516 0.04228523
000200 31 97 6d 3c f2 9a 73 3c ab dd e4 3c 8c 07 0e bd
       0.014501379 0.014868485 0.02793773 -0.034675166
000210 cc 81 53 bc 92 7d 5d bd 3a ce 11 3c a7 e6 2d bd
       -0.012909364 -0.05407483 0.008899266 -0.042456295
000220 88 7a 0b bd de 46 6e 3d 35 c3 f5 3c d7 85 b9 bc
       -0.0340524 0.058173053 0.030000309 -0.022646828
000230 c5 5f 42 3d b5 17 67 bd 6c c5 fd 3b fb be 9f bc
       0.047454614 -0.056419093 0.007744482 -0.019500246
000240 7a b5 a7 bc 2f b5 5a 3d ec 77 8a bb 20 97 00 bc
       -0.020472277 0.053395446 -0.0042257216 -0.007848531
000250 d1 a6 cd bc 1f 00 13 bd 38 27 bd bd 88 e3 e6 3c
       -0.025103958 -0.035888787 -0.09235996 0.028184667
000260 40 44 38 3c 09 a5 92 3d ed e3 4c bc 9c 5c 86 bc
       0.011246741 0.07160384 -0.012505514 -0.016401581
000270 5d b2 46 3c 03 29 be 3c ac 87 4d bd 08 af 52 bd
       0.012127486 0.023212915 -0.050178215 -0.051436454
000280 f1 d4 79 bc 82 5a 78 bd f4 04 07 bd 6c 0c 9b bc
       -0.015248523 -0.06063319 -0.032963708 -0.018926822
000290 ac bf 02 3d 7d 49 a7 bd 8f 96 80 3c 82 75 1a bd
       0.031921074 -0.08168314 0.015696792 -0.03770972
0002a0 e7 91 bb 3b 69 20 98 bc 9b 23 8f bd 0c ca 57 3c
       0.00572418 -0.018570142 -0.06989213 0.01317073
0002b0 cf d0 55 bb 8b 33 85 bb b0 f1 89 bd 93 0a 9b 3d
       -0.003262568 -0.0040649823 -0.06735551 0.07570376
0002c0 5f be 9b bd 3f cd 9b 3d ee ad 09 be be b8 33 bb
       -0.0760467 0.07607507 -0.13445255 -0.0027423347
0002d0 73 fa 2d bd af 24 0a 3d 94 12 0d be 16 ac 87 3d
       -0.042475175 0.03372639 -0.13776618 0.0662462
0002e0 62 23 68 3c 6a c7 96 3c 60 4b 31 be 5e 85 96 3e
       0.014168592 0.018405635 -0.1731391 0.29398626
0002f0 3d 6a c7 bd f1 2d 07 3d 34 fe 76 bc 85 6c ee bd
       -0.0973706 0.033002798 -0.015075255 -0.11641792
000300 88 b7 ce 3c 9c 14 f0 bd 5d 72 99 3d 97 c9 0e 3e
       0.025233999 -0.11722681 0.07492516 0.13944088
000310 86 ae 9b bc f6 bb cf 3c d9 e4 04 bd d2 98 0c 3c
       -0.019004118 0.025358181 -0.03244481 0.008581357
000320 01 43 99 3c 6f 2d 37 3d 5e ec 55 bc 89 51 44 bc
       0.018708708 0.044721063 -0.013056843 -0.01198233
000330 b5 64 b0 3c 4c 93 60 3c be 8e 2e 3d 5b 71 e7 bc
       0.021532396 0.013706993 0.0426166 -0.028252294
000340 a0 9f ec 3c 5f 50 7f bc 46 52 06 3c d3 64 15 bd
       0.028884709 -0.015583127 0.008198326 -0.036473107
000350 9f 3c c1 3d e0 cc 63 39 c3 72 ac bc dd 97 28 bc
       0.09435391 0.00021724729 -0.021050816 -0.010290113
000360 02 f5 97 3c 8f 10 0c 3c 33 19 82 bc 82 90 41 bd
       0.018549446 0.00854887 -0.015881157 -0.047256954
000370 25 5a a5 3c 1d c1 4d 3c 22 74 cb 3d 93 cb 4f bd
       0.020184586 0.012558249 0.0993426 -0.050731253
000380 41 83 3c 3c fe 09 98 3d 6d b9 24 bd 74 4c 82 bd
       0.011505903 0.07423781 -0.0402159 -0.063622385
000390 44 3b 56 3d e0 70 71 bd 00 d5 42 bc 18 b6 0c 3c
       0.052302614 -0.058945537 -0.0118916035 0.008588336
0003a0 a7 96 17 3d 0c 8e 2c bd ee 56 9e 3c 83 51 8e 3c
       0.037008908 -0.042127654 0.01932856 0.017372852
0003b0 57 c5 12 bc 8c 59 a6 3d 65 1b 85 3d f1 2c 49 3d
       -0.008958182 0.081225485 0.06499366 0.049115125
0003c0 98 c3 55 3d 11 73 b0 3b 69 29 b8 3c b4 e9 0b bd
       0.052188486 0.0053848107 0.022480683 -0.034158424
0003d0 55 ca 5f 3d 56 69 dc 3c 7a 41 14 3d fd ae fc 3c
       0.05463632 0.026905697 0.036195256 0.03084516
0003e0 e9 33 84 3d 0d 19 51 3d ae 48 c1 bc 21 85 ba 3c
       0.064552136 0.05104928 -0.023594227 0.022768559
0003f0 36 23 31 bd cb a3 0c bc 33 19 50 bd e1 e7 4d 3c
       -0.04324647 -0.008583973 -0.05080528 0.012567491

first_part.0.bias f4 [56]
000000 7f c2 6b bc ab 95 15 ba 03 52 08 3c 62 dd 08 bb
       -0.014389633 -0.0005706201 0.008320334 -0.0020883908
000010 d5 3e 0b 3c 86 fc 25 bc fa cd 98 3b a6 a9 14 3d
       0.008498867 -0.010131007 0.004663226 0.0362946
000020 f6 ca 73 bc 05 1c 2f bc 57 9d 49 bc 3b 3d 78 bb
       -0.014879933 -0.010687833 -0.012305579 -0.0037878293
000030 dd b4 52 bd de 5e c3 3c ff 39 b9 3d 19 92 d5 bc
       -0.051442016 0.023848947 0.09044265 -0.026070641
000040 ae b3 4f bc 93 36 09 bb c0 53 85 3b 2b 2c 05 bd
       -0.012677116 -0.002093707 0.0040688217 -0.032512825
000050 20 2c 26 3c 6b 50 11 bb ec 19 df bc c3 86 16 3b
       0.010142356 -0.0022173177 -0.02723404 0.0022968508
000060 3d 92 ba bc 76 42 0c 3c 0b 59 82 39 8c f4 42 3c
       -0.02277481 0.008560767 0.00024861874 0.011899125
000070 13 e9 92 bc dd f4 f6 3b 54 9e 12 bc c2 75 b0 3a
       -0.017933404 0.007536514 -0.008948881 0.0013462829
000080 eb cb 2f bc 05 80 25 bc f0 fc c6 bb 94 2a 94 3c
       -0.01072977 -0.010101323 -0.006072633 0.01808671
000090 fa c4 c1 bb bb c0 11 3c bd 8b 20 3c 9e 98 7d 3c
       -0.005913374 0.008896048 0.009798941 0.015478281
0000a0 af 9a 88 3d c3 b7 bb bb 6f 65 7e 3c 66 8e 54 bd
       0.066701286 -0.005728693 0.015527113 -0.051893614
0000b0 4f 23 6e 3c 04 b4 0e 3b f7 c1 54 3b 1a 7c c7 bb
       0.014534785 0.0021774778 0.0032464245 -0.006087792
0000c0 1a 8d 9a bd 00 dd 20 3c 7b c2 1e bd ab 97 83 3c
       -0.07546444 0.0098183155 -0.03875969 0.016063532
0000d0 e3 5b e7 3c 56 58 24 3c 7c bd 76 3a c6 a9 54 3d
       0.028242057 0.010030827 0.00094123906 0.05191972

first_part.1.weight f4 [56]
000000 b2 84 7e 3e 6e fd 6c 3e 32 96 83 3e b0 20 81 3e
       0.24855307 0.23143551 0.25700527 0.2522025
000010 78 7c 77 3e a0 7a 76 3e 72 66 78 3e 9e 8a 51 3f
       0.24168575 0.24070215 0.2425783 0.8185214
000020 57 b5 e4 3f b2 f1 4b be 47 75 c3 3f 75 b8 82 3e
       1.786784 -0.19916418 1.5270165 0.25531355
000030 ee 7d 61 3f 25 79 80 3e 92 8b f2 3e 45 bf b9 bc
       0.8808278 0.25092426 0.4737211 -0.022674212
000040 b8 de fd 3d e2 87 8b 3e 7d 4b a5 3e 9f 5c 84 3e
       0.12395996 0.27252108 0.32284155 0.25851914
000050 ce a5 80 3e 4b ac c2 3f a5 ab 57 3e d7 75 5f 3e
       0.251265 1.520883 0.21061571 0.21822296
000060 49 94 c0 3e df 15 66 3e 8f 59 21 40 f7 94 81 3e
       0.37613133 0.2246928 2.5210912 0.25308964
000070 05 6f 94 3e 5a d0 8b 3e c2 ac 6d 3e 25 0f 66 3e
       0.2899095 0.27307397 0.23210433 0.22466715
000080 53 b7 58 40 83 2e ef 3e b1 94 83 3e 6a 94 81 3e
       3.3861892 0.46715173 0.2569938 0.25308543
000090 c2 ef 47 bc 3f 07 c7 3e d2 e7 78 3e a7 73 80 3e
       -0.012203159 0.38872716 0.24307182 0.25088236
0000a0 58 29 4d 3f 74 24 87 3e 2f 6a 7d 3e 64 77 96 3e
       0.8014121 0.26395 0.24747537 0.29387963
0000b0 b1 cc 3b 3f 70 5a bd 3e 34 fd 31 40 13 14 85 3e
       0.7335921 0.3698306 2.7810793 0.25991878
0000c0 be 9e 0a 3f b5 6a 7c 3e 56 9e 09 40 6e b8 64 3e
       0.5414847 0.2465008 2.150289 0.2233598
0000d0 3e 73 30 3e 9f 71 2b 3e 3c 4e 8c 3e 0e 69 85 3e
       0.17231461 0.16742562 0.27403438 0.26056713

mid_part.0.weight f4 [12, 56, 1, 1]
000000 59 b2 05 3f 41 b1 54 3e 06 95 40 bf 82 b2 77 3e
       0.5222526 0.20770742 -0.7522739 0.24189189
000010 5b 3c c8 3e 69 15 bb 3e 69 bc b6 bd 33 27 03 3f
       0.39108548 0.36539772 -0.08922655 0.5123169
000020 57 e8 36 3e 88 52 97 bf 93 f8 02 3f e0 03 a4 bd
       0.17862068 -1.1822062 0.51160544 -0.080085516
000030 54 0d 0e bf 7f 90 87 3f 5e 85 e1 3e fb 40 d9 3e
       -0.5548909 1.0590972 0.44047064 0.4243239
000040 11 49 b1 3d a0 c4 6d 3d 82 f2 11 3f 7c a9 7a be
       0.086565144 0.058048844 0.5701066 -0.24478716
000050 92 ef 61 3c 1f 90 37 3f 84 8d b9 be 16 3f f7 be
       0.013790028 0.71704286 -0.3624078 -0.48290318
000060 0e 1f 9a bd a8 19 aa bd 1c 2a dc 3e d4 e6 39 bf
       -0.075254545 -0.08305675 0.43000877 -0.7261784
000070 df 2d 8a 3e ee 63 e2 3e 7b 84 11 3d d9 5f a9 3e
       0.26988122 0.44216865 0.035526734 0.33080938
000080 1a 94 0b 3f df 89 0f 3e a0 41 0c bf b7 fc 30 bf
       0.5452286 0.14017437 -0.54787636 -0.6913561
000090 44 9c 49 bd f9 3b 0c bd e8 7a 90 be a1 f8 c2 3e
       -0.049221292 -0.034236882 -0.2821877 0.38080314
0000a0 15 61 cf bd 2e ee 00 3f a4 31 c3 be 6f d6 ef bd
       -0.10125939 0.50363433 -0.3812381 -0.11710822
0000b0 ee 24 21 be d7 7a 19 be 73 76 ce bd 1f 73 1c bf
       -0.15736744 -0.14988266 -0.10081186 -0.6111316
0000c0 d1 09 16 be ac e0 13 bf 48 90 ce bd 14 29 63 be
       -0.14652182 -0.577647 -0.10086113 -0.22183639
0000d0 b3 6a 22 bf 46 14 53 3e e7 18 97 be 89 75 77 be
       -0.6344406 0.20613202 -0.29511186 -0.2416593
0000e0 72 d0 94 be 40 3d 7d bf 25 bf fc 3e 1f e8 9f bc
       -0.2906528 -0.98921585 0.49364582 -0.019519864
0000f0 16 dc c6 3b 35 23 50 3f 6d 2f 3b 3f e3 b5 05 3f
       0.0060687168 0.8130372 0.7311924 0.5223066
000100 03 46 43 3d 1c 81 ad bd 11 ac a0 bd 2d a5 f7 be
       0.04767419 -0.08471891 -0.07845319 -0.48368207
000110 37 fb 3a 3e 6f 3b 31 3e 84 c1 1a bf 32 6e 30 3e
       0.18259893 0.17307828 -0.6045153 0.17229536
000120 67 1f 0d bf 3a bc 66 3e f7 dd 26 3f 49 eb b0 bd
       -0.5512604 0.2253274 0.6518244 -0.08638627
000130 30 1c 58 3f 6d e9 6b be df bc 9c 3d 6a 8c d4 be
       0.8441801 -0.23038264 0.07653212 -0.41513377
000140 51 60 be be 91 2e ab bd 8b 78 c9 3d 4c fc 0d bf
       -0.3718286 -0.08358491 0.09837445 -0.554631
000150 46 29 10 3f 40 86 52 3f bb b9 4c be 2a a9 d6 3e
       0.5631298 0.822361 -0.19992726 0.41925937
000160 0b d6 3e 3e 59 15 c4 be 58 8f 9b bd 60 45 10 be
       0.18636338 -0.38297537 -0.075957 -0.14088964
000170 c4 48 86 3e 29 44 6e 3e 8a 2c 34 bf 4e ca 71 be
       0.2622739 0.23268189 -0.7038046 -0.2361233
000180 52 bb 7a 3e 2b ac 2f 3f 7b 43 98 be 33 12 57 3f
       0.2448552 0.6862208 -0.29738984 0.84012145
000190 f2 4c 32 3f 33 fc 14 3e dd 02 e2 3e bb 88 c4 3d
       0.6964866 0.14549331 0.4414281 0.09596392
0001a0 6f 0b a0 3e d8 30 d9 bd f5 56 5b 3f cd 5a 1e bf
       0.31258723 -0.10605019 0.8567956 -0.618573
0001b0 d3 34 6d 3c 86 08 45 be 0f 43 28 3f 37 b4 f5 be
       0.014477926 -0.19241533 0.65727323 -0.47989056
0001c0 60 a3 87 3e 1f a6 17 bf 26 02 88 be a0 ba c7 be
       0.26491833 -0.59237856 -0.2656414 -0.3900957
0001d0 95 b6 89 bd 50 1c 17 3f 12 db e1 bd 16 0b 11 bd
       -0.06724278 0.59027576 -0.110281125 -0.035410963
0001e0 8b c9 24 3f 39 68 49 3f 06 c1 ad 3d 19 78 4f 3f
       0.6437003 0.78674656 0.08484082 0.8104263
0001f0 5e 44 d8 be a4 e0 13 be 40 d4 d1 bd 2a 55 bf 3e
       -0.4223966 -0.14441162 -0.102455616 0.37369663
000200 e3 b1 0c bc 39 2d ff bd 1d 49 ea 3e 80 3c b8 3e
       -0.008587333 -0.124597974 0.45758906 0.35983658
000210 97 85 08 bf ab 09 69 3e 22 ac fb bd 48 9a 93 be
       -0.5332884 0.22757594 -0.12288691 -0.28828645
000220 8c fa cf 3e aa 69 a0 be 45 c7 1c be 86 52 83 be
       0.4062084 -0.31330615 -0.1531039 -0.25648898
000230 ba e9 f8 be 12 16 bf 3e 1f a1 02 3d 49 13 f1 bd
       -0.4861582 0.37321526 0.03189194 -0.117712565
000240 df cb f6 3e 92 6d 33 3f 6e fe 1d 3f 1e fc c1 3e
       0.48202416 0.70089066 0.61716354 0.37887663
000250 7a 53 9c 3e 94 0f 9b 3e 98 46 f3 be 59 fb d8 3d
       0.30532438 0.30285323 -0.47514796 0.10594816
000260 e2 a6 a8 bc cd 04 04 3e c4 37 55 be 3f cd 4f 3b
       -0.020587388 0.12892456 -0.20822054 0.003170803
000270 63 3e 20 3e dd 2e ce 3e 8c 9b 89 3e 7d 41 f6 3e
       0.15648799 0.4027013 0.26876485 0.4809684
000280 c8 3e 19 bc 70 e2 18 3f 39 c3 60 3e 1d bc 09 bf
       -0.009353347 0.59720516 0.21949472 -0.53802663
000290 e3 e4 76 bd 64 9c cc 3e 96 f6 b2 be ee ff a4 be
       -0.060276877 0.39963067 -0.34953755 -0.3222651
0002a0 1a 00 38 3d f5 ec 9a 3e 02 6a f4 bd 3d 00 26 3e
       0.04492197 0.3025891 -0.11934282 0.16211028
0002b0 cd 38 81 3e 91 eb f2 3c e4 8f 27 be c6 71 93 3e
       0.25238648 0.029653342 -0.16363484 0.2879774
0002c0 7c 18 13 bf 01 cd c1 be 24 8a 19 3f 86 8a b5 be
       -0.57459235 -0.37851718 0.5997641 -0.35457247
0002d0 52 53 c3 3e 9f bb f4 be 15 0d 14 3f c5 47 ab bd
       0.38149506 -0.47799394 0.5783246 -0.08363298
0002e0 0a 90 02 3e a6 97 6b 3e d3 52 68 bd c6 7e 5e 3f
       0.12750259 0.23007068 -0.056719612 0.8691219
0002f0 bb cb f9 be b1 ae 20 3f 7c e2 a0 be 2f f0 e1 be
       -0.48788247 0.6276656 -0.31422794 -0.44128558
000300 16 4e f2 3e 9c 89 66 3d 66 bf ea be f7 fe 76 3f
       0.473252 0.05628358 -0.4584915 0.96482795
000310 31 ee 07 3e dc 8c da 3e af 00 da bd 79 b3 44 be
       0.13274457 0.42685592 -0.10644662 -0.19209088
000320 20 9a 04 bf 54 f1 43 3e 11 d1 ee bd f8 52 ed 3e
       -0.51797676 0.19135028 -0.1166097 0.46352363
000330 4d 25 0c 3e 17 ea 00 be 9a de 87 ba 6f b9 3b 3e
       0.13686104 -0.12589298 -0.0010366023 0.18332456
000340 b7 61 a0 bd fb e6 8a 3f 84 28 48 3f a2 7e 2b 3f
       -0.078311376 1.085174 0.7818682 0.669901
000350 f7 ec 77 bf 7e d2 7e be 73 4a ea 3e 39 96 b6 bd
       -0.96845955 -0.24884984 0.45759925 -0.089153714
000360 20 59 cd 3e d3 a3 0d 3f 3a a3 99 be 03 6d 0b bf
       0.4010706 0.553281 -0.30007344 -0.54463214
000370 84 38 13 bf 8e 33 fe 3e b8 f8 53 be b6 fe 02 3f
       -0.5750811 0.49648708 -0.20700347 0.5116991
000380 2c 8b 71 be 73 a8 99 3d 6e 84 10 3e 7b 95 cd 3d
       -0.23588246 0.07502832 0.14113018 0.10038277
000390 8e 15 08 be c7 c1 98 be b0 21 4d be fd 90 11 3f
       -0.13289472 -0.2983534 -0.20032382 0.5686186
0003a0 19 a4 f0 3e f7 20 8c be 08 0a 31 be 57 7c b7 bb
       0.47000197 -0.273689 -0.17288983 -0.0055995393
0003b0 44 65 a9 bf c0 9f 4e 3f 7f 0f 46 3f 14 0a 95 bd
       -1.3234029 0.8071251 0.77367395 -0.07277313
0003c0 f9 d9 b2 3e 1e 41 37 be f6 ba 95 3e 97 01 d2 be
       0.34931925 -0.17895934 0.29244202 -0.41016838
0003d0 4d a9 70 3e 39 4e 8b 3e ee 75 b7 3e bb cb 22 3d
       0.23502083 0.27208117 0.3583216 0.039745074
0003e0 e6 dd 02 be 60 d6 fa bd 18 8e 04 3f a2 14 64 3e
       -0.1277996 -0.1224792 0.5177932 0.22273496
0003f0 54 fd 2b bf 7d 65 8e be 3c 90 ff 3c c6 e9 4f 3e
       -0.67183423 -0.27811804 0.031196706 0.20304021

mid_part.0.bias f4 [12]
000000 64 92 bc 3b f5 e1 a7 bc ae 8a e8 bb 10 d4 4c bb
       0.005754756 -0.020493487 -0.00709661 -0.0031254329
000010 70 d1 d6 3d f9 04 35 3c a5 93 51 3d 43 6f 15 3d
       0.10489166 0.011048549 0.051166195 0.03648306
000020 a4 d5 c5 bc 7f 78 d6 bb 51 3e 13 bc 04 8b 32 3d
       -0.024149723 -0.006545126 -0.008987025 0.043589607

mid_part.1.weight f4 [12]
000000 ee d0 8d 3e 31 17 bd 3e f6 b1 82 3e dd 54 9b 3e
       0.27698463 0.36931756 0.25526398 0.30338183
000010 1e 86 6d 3f f4 d4 8c 3f a1 fa 9a 3e d7 19 e4 3e
       0.9278277 1.1002488 0.3026934 0.44550964
000020 4e ee 9b 3e f9 c4 d2 3e 62 13 97 3f 1f a1 bc 3e
       0.3045525 0.41165903 1.180279 0.36841676

mid_part.2.weight f4 [12, 12, 3, 3]
000000 1b 97 8a 3e 17 70 21 bd 2a 40 ed 3c e0 6b 91 be
       0.2706841 -0.039413538 0.02896126 -0.28402615
000010 0e 3d 14 3e 88 74 05 be de 88 31 bd c2 d1 0f be
       0.14476416 -0.13032734 -0.043343417 -0.1404486
000020 19 64 e3 3d 37 42 50 3e 97 ae 67 be aa 8d 69 3e
       0.111030765 0.20337759 -0.22625194 0.22807947
000030 85 b2 0e 3d 8b 09 f3 bd b3 65 00 be 86 36 7e bd
       0.03483822 -0.118670546 -0.12538795 -0.062063716
000040 1c b7 2b be 68 37 44 3d 81 e5 b0 3d 50 f4 1a 3e
       -0.1676907 0.047904402 0.086375244 0.1513226
000050 8a 9e 60 3d 2d 52 1f 3e 88 b8 10 3c 76 52 ff bc
       0.054838695 0.15558691 0.008833058 -0.03116725
000060 c5 d0 84 3e 49 0c 70 3d e1 56 97 bd e2 90 9a 3c
       0.2594053 0.058605466 -0.07389618 0.018867914
000070 32 80 87 bd 5f 5a fb 3d 78 ff 17 3e b6 e8 97 be
       -0.06616248 0.12273096 0.14843547 -0.29669732
000080 49 98 89 be 4e dd 1a be 3e 46 0a bd 36 4d 3c 3e
       -0.26873997 -0.15123484 -0.033758394 0.18388829
000090 bf b6 2a be 35 3c f7 bd c6 68 b4 bd 62 6d b4 bc
       -0.16671275 -0.120720305 -0.088090464 -0.022024814
0000a0 0c f6 8a 3e 81 f9 6b be 4b ad 0d 3d dc 1d 5c bc
       0.27140844 -0.23044397 0.034589093 -0.013434853
0000b0 4b 32 5d 3d 43 8b 4f 3e 00 56 15 3d e7 8e 50 3e
       0.05400304 0.20267968 0.03645897 0.20367013
0000c0 3d 25 7a bd 72 c3 f3 bd 01 08 96 3d 34 0c ce bd
       -0.06107067 -0.119025126 0.073257454 -0.10060921
0000d0 df 90 7a 3d 70 f0 ef bd e6 80 4f be 32 27 11 3d
       0.061173316 -0.11715782 -0.20264015 0.03543777
0000e0 cd ef 8b bc 77 59 78 3e 18 a2 e3 bd 22 75 1d 3d
       -0.01708212 0.24252878 -0.11114901 0.038441785
0000f0 1a 17 00 be 08 c7 14 3e e5 f1 0f 3e ee 61 07 3e
       -0.12508813 0.1452905 0.14057119 0.13220951
000100 29 61 66 bd 74 1a 80 3e ec b1 41 3c de 22 0a 3c
       -0.056245003 0.25020182 0.011822205 0.008431165
000110 cb 31 e4 bb bc 80 50 3c d5 67 6d be 25 ff 52 be
       -0.0069639436 0.012726005 -0.2318414 -0.20605142
000120 13 53 06 bc bc 58 7a bc dc c7 33 3d 66 2d 4f be
       -0.008198517 -0.015279945 0.043891773 -0.20232162
000130 ea e4 87 3e 62 52 bd bd 6f 48 45 bd 2d e7 9b bd
       0.26541835 -0.09244229 -0.04816478 -0.07612453
000140 ba 88 ca 3c 49 8b 40 be 8d d7 31 3c 87 e1 f9 3c
       0.0247234 -0.18803133 0.010854614 0.030503048
000150 76 d4 1c 3d 13 55 de 3d fe a5 05 3e bf 86 f6 bd
       0.038288556 0.1085607 0.13051602 -0.120374195
000160 6a c0 26 bd 8d 3f 78 3c 0a 7b 92 3d ab 89 86 bc
       -0.040710844 0.01515187 0.07152374 -0.016423067
000170 4e 06 72 3e 0e ee 04 be 1c 18 25 bd 7f 25 9d bd
       0.23635218 -0.12981436 -0.040306196 -0.076731674
000180 21 2e 25 3d cc 02 bf 3d 2d d3 13 3d 9e 7d 97 3c
       0.040327195 0.09326705 0.036090065 0.018492516
000190 19 28 2f bd 17 60 de bd 20 dc c7 bc 24 79 92 3d
       -0.04276285 -0.108581714 -0.024396956 0.07152012
0001a0 21 bd e2 3c 78 d0 71 3d 5b b6 86 3d 4d 98 f2 3b
       0.027678074 0.059036702 0.0657775 0.0074034096
0001b0 90 32 af 3c e8 74 67 bd 26 de e2 bc 7d fe 16 3d
       0.021386415 -0.056507975 -0.02769382 0.036863793
0001c0 47 49 6e 3d 50 ca 8b be 9a 17 27 3e 57 ae 8e 3d
       0.05817535 -0.2730279 0.16317597 0.069668464
0001d0 a3 90 9c 3d e4 5f 13 3e 67 54 c5 3d 94 f8 c4 bc
       0.07644775 0.14392048 0.09635239 -0.024044313
0001e0 5b 28 69 3e 05 32 d7 3d ae 9d 2a bb b2 11 fc 3c
       0.227693 0.10507587 -0.0026033926 0.030770157
0001f0 2a d5 fa bd e2 2d 0b 3e 47 7c 04 bd 42 98 a4 be
       -0.12247689 0.13591722 -0.032345083 -0.32147413
000200 a0 6f 21 be 67 c4 cf 3c b9 8d 8b 3d 87 e0 91 be
       -0.15765238 0.025362207 0.06814141 -0.28491613
000210 0e 9c d2 bd d7 05 e1 3d fa 8d a7 bd cc 4b ef bc
       -0.10283671 0.10987442 -0.08181377 -0.029210947
000220 f1 40 8a 3e 60 da 9b bc ed aa 99 bc dd e3 9e bd
       0.2700267 -0.019025028 -0.018758262 -0.07758305
000230 20 13 20 3d 7b 36 83 bd f4 e5 b7 3e 46 44 3c be
       0.03908074 -0.06406876 0.35917628 -0.18385419
000240 f8 d6 64 3e 31 e8 1e be 73 b6 94 bc c0 de 22 be
       0.22347629 -0.15518261 -0.018153405 -0.15905285
000250 60 3b e5 bd 20 7f 56 3d 3a de 9c bd 4f 1a 9f bd
       -0.111929655 0.05236733 -0.07659574 -0.0776869
000260 45 3a a0 bc 15 fc df bd e5 32 30 3d fb 04 86 be
       -0.019559035 -0.10936753 0.043017287 -0.26175675
000270 16 b5 04 3c e2 d2 f6 3d 35 86 de 3d 30 73 16 3e
       0.008099815 0.120519415 0.10865442 0.14692378
000280 58 95 4f bd 12 cf d7 bb 74 e1 45 3e 18 a2 4d be
       -0.050679535 -0.006585964 0.19324285 -0.20081365
000290 5a c6 34 be bc e2 bc bc fe d5 51 3e ee 7c 69 bd
       -0.1765379 -0.023057334 0.20491788 -0.057003908
0002a0 5d 07 8b be 0a 48 b6 bb ab b1 0c 3e 85 21 22 be
       -0.27154055 -0.005562787 0.1373965 -0.15833099
0002b0 09 e2 2c 3e ec 18 03 be 85 5d 64 bd c0 f7 4b 3e
       0.168831 -0.12802476 -0.05575325 0.19918728
0002c0 02 ce 0d 3e 0b 2e 84 bd 6c 26 08 be 9b 45 d5 bd
       0.13848117 -0.064540945 -0.13295907 -0.10413667
0002d0 b2 12 97 3d 63 3a e0 bd 99 cf 38 3d 4d 6b fa bc
       0.07376613 -0.109486364 0.045119856 -0.030568743
0002e0 91 f6 3d 3d 96 4f ad be 38 2f 5f 3c 8b 50 8c bd
       0.046377722 -0.33849782 0.013622098 -0.068513
0002f0 d6 63 83 bd 34 e1 f4 bd 9a bb c1 bd 8c ba 8f bd
       -0.064155266 -0.119570166 -0.0945961 -0.07018003
000300 1a 9a 8e 3c 36 3d 78 bd 95 4d e5 ba 3e e7 2b be
       0.017407466 -0.06060525 -0.0017494435 -0.1678743
000310 29 1b db bc 2b b6 07 3d ad b9 ab bd 02 ac 0b 3e
       -0.02674635 0.033132713 -0.08385024 0.13639835
000320 3d 21 5b 3d d9 81 88 3e e3 a6 1c bd 02 c2 f9 bd
       0.053498495 0.26661566 -0.038245093 -0.12195207
000330 98 92 09 be 11 88 70 3d 7a ae 02 3e 75 c6 86 3e
       -0.13434827 0.058723513 0.1276187 0.26323286
000340 1d a7 43 3e 51 88 51 3d 72 05 b8 3d 32 16 93 3d
       0.19106717 0.051155392 0.089854136 0.07181968
000350 8d a7 19 3e 14 86 7f 3c e6 93 0a 3e 7f 84 3f 3e
       0.15005322 0.015595932 0.13532981 0.18702887
000360 1c 0b 97 3d eb 23 20 be 84 34 e0 bc d3 84 a0 bc
       0.07375166 -0.15638702 -0.027368791 -0.019594586
000370 9d 59 3f 3e 05 19 36 3e 3c b3 29 3e 38 33 46 bc
       0.18686529 0.17782982 0.16572279 -0.012097172
000380 dd d1 9a 3e 29 92 9b bd 98 4c db bd e4 a4 88 3d
       0.30238238 -0.07596237 -0.107079685 0.066720754
000390 f4 47 46 3e f3 eb 88 bd ed 70 99 bc d6 dc 7b bd
       0.19363385 -0.06685629 -0.018730605 -0.061489902
0003a0 88 9c c9 3d e1 3c c2 3d f4 12 0f 3e 69 23 8b be
       0.09844309 0.09484268 0.13972074 -0.27175453
0003b0 a1 2e 4f be 22 3a 76 3d 22 0b 07 be 8c d2 e2 bb
       -0.20232631 0.060114034 -0.1318784 -0.006922072
0003c0 0a 21 e5 3d 57 06 d6 3c 90 27 20 3d b8 da 1d be
       0.11187942 0.02612607 0.03910023 -0.15415466
0003d0 cf 05 09 bb 50 e5 71 bd ca ad 82 3e b6 8d 23 3e
       -0.0020908003 -0.05905658 0.25523216 0.15972027
0003e0 78 1f 39 3e e9 89 10 3d f6 94 2b 3e 52 dc 35 3d
       0.1807841 0.03528777 0.16756043 0.044399567
0003f0 33 39 a5 3e c5 3e 6d be 00 27 b2 bd 06 3b 3b 3d
       0.32270202 -0.23168476 -0.08698845 0.045710586

mid_part.2.bias f4 [12]
000000 40 17 63 3c 35 d6 33 3c 8e 97 d1 bb 6e 21 83 ba
       0.013860524 0.010976364 -0.0063962406 -0.001000447
000010 ff db 1f 3d bb 82 7f bc 23 12 9f bb 9a 1b 65 3b
       0.039028164 -0.015595133 -0.004854457 0.0034959079
000020 e5 fe 24 3d 33 e9 2a b8 db 6b 08 3d ed 59 c2 3c
       0.04028215 -4.0748342e-05 0.033305984 0.02372452

mid_part.3.weight f4 [12]
000000 7f d3 38 3f d9 8f 70 3e 0f 80 83 3e 7e 7c d1 3f
       0.7219772 0.23492374 0.25683638 1.6366117
000010 cc 0d 3a 3f c4 77 7d 3e 8d 03 7c 3f a8 c5 9d 3d
       0.726773 0.24752718 0.9844292 0.077037156
000020 d4 fe 30 3e 39 e3 58 3f 8e 43 9c 3e ad c9 bc 3e
       0.17284709 0.84721714 0.3052029 0.36872616

mid_part.4.weight f4 [12, 12, 3, 3]
000000 16 89 22 3b e6 7a 51 bd 3e a4 48 3e 6f 6d 97 3e
       0.0024800948 -0.051142596 0.19593903 0.2957568
000010 86 7b c4 bd 4c c3 bf 3d e8 cc 42 be 8a 5f b6 3d
       -0.09593873 0.09363422 -0.19023478 0.089049414
000020 bc 1d 1d be c6 52 40 be dc ff b4 bd b6 7c b4 3e
       -0.15343374 -0.18781576 -0.08837864 0.35251397
000030 5b e0 45 bd 4d 3d 2e 3e 9e 77 25 be 7e 38 0a be
       -0.048309665 0.17015572 -0.16158912 -0.13498113
000040 42 23 b6 3c de 5c 60 3e b7 4c 0e be 89 40 52 3e
       0.02223361 0.21910426 -0.13896452 0.2053243
000050 b0 34 9b bc 45 01 dc 3d 49 d0 08 3d 4d 9c b1 bc
       -0.018946022 0.1074243 0.03340176 -0.021680975
000060 04 ba 42 bc cd 25 49 3e b7 4a b1 3d 97 0a 08 be
       -0.01188517 0.19643326 0.08656829 -0.1328529
000070 89 e9 8c be 0d 9c 0d bd b5 32 56 3e 65 ee 4c be
       -0.27521923 -0.03457265 0.2091778 -0.20012815
000080 5b 43 76 be 9e a5 24 be 32 08 42 3e 8e 16 be 3d
       -0.24049132 -0.16078803 0.18948439 0.09281646
000090 50 61 b4 bd 59 f8 35 3e 00 ef 26 3e e6 f0 19 be
       -0.088076234 0.17770518 0.16302109 -0.15033302
0000a0 b4 c6 cd 3e 10 5f 0c bb 2d 2a 67 be 17 73 ce 3d
       0.4019066 -0.0021418966 -0.22574683 0.100805454
0000b0 10 74 06 3e d4 90 99 3a 90 bf 43 bd 89 c5 c3 3d
       0.13130212 0.0011716136 -0.04779011 0.09559161
0000c0 31 fc 73 be 0a 6b a0 3d be bf b0 be 1d 0c 38 3d
       -0.23826672 0.07832916 -0.34521288 0.044933427
0000d0 88 5f 75 3e e1 db 0d be 45 2c 25 3e e5 11 82 be
       0.23962224 -0.13853408 0.16130169 -0.25404277
0000e0 16 7d 59 bd 86 20 91 3d a3 08 d0 ba 4e b9 0c be
       -0.053097807 0.070862815 -0.0015871715 -0.13742563
0000f0 9f 2b 61 bd f0 ec 8f be bb 60 94 3e 12 46 a1 3d
       -0.05497324 -0.28110456 0.2898005 0.07874693
000100 55 9a a8 bd d0 96 11 3e ff 37 27 bd f9 06 50 3d
       -0.082325615 0.14217687 -0.040824886 0.0507879
000110 c4 2d b1 3d ea ab 60 be 12 b6 d7 bd 8f 74 01 be
       0.08651307 -0.2194058 -0.10532774 -0.1264212
000120 95 48 81 3c 35 40 65 3d 94 98 8e bd 45 0f 1b be
       0.01578168 0.055969436 -0.06962696 -0.15142544
000130 9b f2 34 3d 03 10 80 3d 5d ea a1 bc 21 5d e5 bd
       0.04417668 0.06253054 -0.019765073 -0.111994036
000140 d2 a6 3a 3e 89 6a 76 3d f9 dd 06 bd d1 25 24 3e
       0.182277 0.060160194 -0.032926533 0.16030051
000150 0e b9 99 3d cc 1f 0a 3e d0 ff 11 bd bb 53 7b 3d
       0.075059995 0.13488692 -0.035644352 0.06135915
000160 02 30 2b 3e b6 54 af be 82 4a ea 3c 74 86 2a 3e
       0.16717532 -0.34244317 0.028599981 0.16652852
000170 16 92 b5 3d e5 7f 74 3e 3a 35 ee bd 85 48 e0 bc
       0.08865754 0.23876913 -0.11631246 -0.02737833
000180 8f 67 c1 bc 9b 8b bc 3c 3d 0e 85 3d e4 e1 38 3e
       -0.02360895 0.023015788 0.06496856 0.1805492
000190 e1 4e 9e 3c 03 01 83 3e b7 0d 96 be b9 05 7a 3e
       0.019324722 0.2558671 -0.2930734 0.24416246
0001a0 2d c9 ee be c2 62 60 bc fe 8e 42 3e 3b d3 8f 3e
       -0.4663786 -0.013695421 0.1899986 0.28090844
0001b0 f9 1b fa 3d 9d 88 67 be c2 22 4f bd bc 4e 8a 3e
       0.122123666 -0.22610708 -0.050570257 0.27013195
0001c0 8b f0 b9 3d 95 71 c3 3d 62 fa 94 3e 03 0f 76 be
       0.09079083 0.095431484 0.29097277 -0.24029164
0001d0 7e 6c 27 3d 7d b3 b1 bc 84 81 84 3d fb af 1d bd
       0.04087495 -0.021692032 0.06470016 -0.038497906
0001e0 9f 1e 94 3e 41 29 65 3d 35 f5 a5 3e 53 e3 79 be
       0.28929612 0.055947546 0.3241364 -0.24403124
0001f0 80 b7 81 be bf fa a1 bd 11 c3 4c be 71 94 0a 3e
       -0.25335312 -0.07909154 -0.19996287 0.13533188
000200 71 d8 37 bd c1 f4 e9 be 26 07 2c be c3 34 33 bd
       -0.04488415 -0.45694545 -0.16799602 -0.04375149
000210 25 2a 0a bf f3 e1 37 be 87 11 e7 3d e9 db 84 3c
       -0.5397056 -0.17957287 0.1128264 0.016218143
000220 00 47 21 3e 55 f9 6b 3e 90 f2 30 3e b0 bd ac 3e
       0.1574974 0.23044331 0.1728003 0.3373847
000230 bf c0 73 3d ee 9e b9 3e c2 79 ab 3e ff cc d3 bd
       0.05950999 0.36254066 0.3349133 -0.10341834
000240 e7 d0 b9 bc c5 94 c2 bc f0 18 0c bd 3d b0 3b be
       -0.02268262 -0.02375258 -0.03420347 -0.18328948
000250 7b 37 25 bc 13 43 18 3c c1 12 ab be 9d 72 2e bd
       -0.010084028 0.0092933355 -0.33412746 -0.042589772
000260 b6 ed b9 bc 06 50 e9 bc 33 1d 3e be c5 8f 92 3e
       -0.022696357 -0.028480541 -0.18565826 0.28625312
000270 97 20 79 be 9e 2b 40 bd 9d d1 0d 3e cf be fc bd
       -0.24328838 -0.046916597 0.13849492 -0.12341081
000280 f1 87 0b 3d 9a 71 83 bd 38 63 86 3e 3e a8 32 bd
       0.03406519 -0.06418152 0.26247573 -0.04361748
000290 b7 58 63 bd 7e 6b b8 3e 80 70 c3 bd b0 46 b1 3c
       -0.055504527 0.3601951 -0.09542942 0.021640152
0002a0 3b b5 ff 3d 4b 98 2a bd 7f d7 82 be 7a 3a a8 3e
       0.12485739 -0.041649144 -0.25555035 0.32857114
0002b0 35 05 80 be 60 39 78 be d7 80 3a bd 93 0b a0 bb
       -0.25003973 -0.24240637 -0.045533027 -0.0048841923
0002c0 ff 23 96 3d 5a e6 24 3e e3 06 0b 3e 69 50 da 3e
       0.073310845 0.16103497 0.13576846 0.42639473
0002d0 67 ed 8a bd 7c 81 87 be fc c7 23 be 13 6b 58 bc
       -0.06783562 -0.26465976 -0.15994257 -0.013209122
0002e0 7a 2c e6 bd 9d 52 c6 3d 09 79 50 3e 2a 83 99 3e
       -0.11238952 0.09683726 0.20358671 0.29982883
0002f0 48 c2 f3 3d 96 3e d6 be 7e b4 ff 3d f1 f6 19 be
       0.119022906 -0.41844624 0.12485598 -0.15035607
000300 a0 86 47 3e a9 74 6a 3e 13 97 0c bd e7 f6 11 3d
       0.19484949 0.22896065 -0.034323763 0.035635855
000310 cd 79 6f bc 26 a4 ce 3d 9a d9 e3 bd 67 98 bf be
       -0.014616442 0.100899026 -0.111254886 -0.3742096
000320 4d 45 cc bc d6 a4 cd 3e 40 ff cb 3e e0 92 03 3e
       -0.024935389 0.40164822 0.39843178 0.12848997
000330 47 8e d6 be 91 b2 80 be be 89 05 3e cb 4b 70 be
       -0.41905424 -0.25136235 0.13040826 -0.23466413
000340 b2 fe 83 be b9 6b 92 be 1b 77 47 be 33 1f 86 3d
       -0.25780255 -0.2859781 -0.19479029 0.065489195
000350 d2 9d 01 3b d8 6a 18 3f 6e 25 b9 3e 85 7a 86 3e
       0.0019777906 0.5953803 0.3616137 0.2626535
000360 85 7e 54 3e 81 2f 4b be 03 4d 19 3e a8 ff a8 3d
       0.20751388 -0.1984234 0.14970784 0.082518876
000370 5b ac 2c 3d 56 fa 8b bb 07 b2 df bd 17 d7 9b 3e
       0.04215656 -0.0042717857 -0.10922628 0.30437538
000380 b3 3a 5b 3d ad 02 6d 3e a5 1c f1 3b 3a 08 2f 3e
       0.053522777 0.23145552 0.007358151 0.17092982
000390 37 fe a1 bc 7b 29 0c 3d 04 34 c1 3d c3 b1 db bb
       -0.01977454 0.034219246 0.09433749 -0.0067045405
0003a0 d7 5c a5 3d 6c 10 ad 3c 25 e7 0e bd 3e 29 59 3d
       0.080743484 0.021125995 -0.034888405 0.053017847
0003b0 38 45 3e 3e e2 8e 12 bd 1e 49 19 3e 2d 55 de 3d
       0.18581092 -0.035780795 0.14969298 0.1085609
0003c0 e8 a4 cb 3c f5 12 f9 bb cf d4 25 be 7b ec b5 be
       0.024858907 -0.007601137 -0.16194461 -0.35531983
0003d0 79 84 f2 bd 13 fb a3 bd 81 ee 52 3b cc 53 98 3e
       -0.118416734 -0.08006873 0.0032185616 0.29751432
0003e0 98 93 2f 3e c1 1e 23 3e e1 dc 86 be 36 0e 8b 3d
       0.17146146 0.159297 -0.26340392 0.0678982
0003f0 47 c6 85 bc 55 b2 f0 be e6 94 8f be bf e8 52 be
       -0.016329898 -0.47011057 -0.28043288 -0.20596598

mid_part.4.bias f4 [12]
000000 ae 7c bb 3d d7 98 7a 3c cc 55 34 bd d4 1b 9e 3c
       0.0915464 0.015295229 -0.044027135 0.019300379
000010 0d 98 1b 3c 18 88 61 bb e4 15 43 3c ec 55 d4 3c
       0.009496701 -0.0034413394 0.011907075 0.025919877
000020 8d 12 30 3d e7 9f 98 3c d7 3d 4c bd 39 69 f1 bc
       0.04298644 0.018630935 -0.049863663 -0.02946912

mid_part.5.weight f4 [12]
000000 64 f5 9a 3f c0 5c 44 3f 0a c1 cb 3e 41 dc 85 3e
       1.2106137 0.76704025 0.39795715 0.26144603
000010 86 ef 04 40 2e e3 c3 3f 88 2a cf be 38 f9 3f 3d
       2.0771194 1.5303705 -0.40462136 0.046868533
000020 11 04 32 3f ce 9c 67 3f 10 31 db 3e a0 c1 7a 3e
       0.69537455 0.9047364 0.4281087 0.24487925

mid_part.6.weight f4 [12, 12, 3, 3]
000000 71 76 7e 3d 73 59 7f bd c5 28 d2 bc 86 48 64 3d
       0.062124673 -0.062341165 -0.025654206 0.055733226
000010 ea f0 04 3e ec fd 42 3e 8f f3 22 bd 36 ed 08 3e
       0.12982526 0.19042176 -0.039783057 0.13371739
000020 8b d2 80 3c 7b b9 a8 3c a8 dc 85 3e e6 a0 38 3e
       0.015725395 0.020596256 0.2614491 0.18030128
000030 79 a8 c1 3d 75 d6 5e 3e b8 6e 8b 3e 38 91 8a ba
       0.09455962 0.21761496 0.2723291 -0.0010571843
000040 11 62 8b be 4d 19 7f 3d 1e a0 83 3d 05 86 28 be
       -0.27223256 0.062279988 0.06427024 -0.16457374
000050 e7 a7 40 3d 82 1c 07 3e 97 55 ea 3b 5f 4a 80 bd
       0.047035124 0.13194469 0.0071513164 -0.06264185
000060 80 5d 3e be 79 c2 04 be bc 22 3a 3e 15 18 14 3e
       -0.18590355 -0.1296481 0.18177313 0.14462312
000070 b8 52 b9 bd fb d0 4f be f6 71 43 3c d8 7c cc 3d
       -0.090489805 -0.20294563 0.011929026 0.099847496
000080 14 da cc 3d 08 f1 03 3e b3 61 be be f4 9e 22 be
       0.100025326 0.12884915 -0.37183914 -0.15880948
000090 f8 1b 8a bc 79 e8 11 3e 97 b2 b5 bd db 2c 2b 3e
       -0.01685904 0.14248838 -0.08871954 0.1671633
0000a0 38 bc fc 3d 1b 03 0f be cf 26 21 bd 68 be 2c 3e
       0.123405874 -0.13966028 -0.03934365 0.16869509
0000b0 42 30 36 bd a5 79 03 be 30 32 ce be 60 c6 99 3d
       -0.044479616 -0.12839372 -0.40272665 0.0750854
0000c0 f1 11 61 3e fe 52 33 3b 7f f1 42 3d bc b8 b7 3d
       0.219795 0.00273627 0.04759359 0.08970782
0000d0 cc 6f ee 3d ca cc 21 3e 2f 8c 15 3e 9e a8 66 be
       0.11642417 0.15800777 0.14604257 -0.2252526
0000e0 85 10 f2 3c db db 9e 3d e1 7c 42 3d db ce 5b 3d
       0.029548893 0.07756778 0.047482375 0.05366407
0000f0 ac 07 50 3e 08 ab 35 3e 86 f2 fd 3d 08 16 f1 bd
       0.20315427 0.17741024 0.12399773 -0.1177178
000100 d1 de a5 bd 6c 87 05 3e 2e 55 1b bd b7 7f 2d be
       -0.080991395 0.1303994 -0.03792303 -0.1694325
000110 3b 03 d9 3c 29 16 83 3d 88 18 4c 3d 64 50 46 be
       0.026490798 0.06400711 0.049828082 -0.19366604
000120 33 81 a4 bd 19 b3 bd 3d 1e 24 fe 3d e0 93 15 bd
       -0.08032455 0.09262676 0.124092326 -0.036517978
000130 04 84 37 3d 90 d9 8a bc 0d c7 b2 bd df ea 32 be
       0.044803634 -0.016949445 -0.08729372 -0.17472409
000140 ef e3 a5 3c 9a bc 2e bd a8 59 3a 3e 4c ab ee b9
       0.020250289 -0.042660333 0.18198264 -0.00045522524
000150 ce cd 32 be 8d 54 8c 3d ce 28 38 3e 6c 0e 49 be
       -0.17461321 0.06852064 0.17984316 -0.19634408
000160 91 be 01 be 6c 94 70 be a0 5e 97 bd bd 43 22 3e
       -0.12670352 -0.23494118 -0.07391095 0.15846153
000170 59 f7 ba 3d 4d 0f 65 bd 43 19 66 be 85 6a e0 3d
       0.09129209 -0.055922795 -0.22470574 0.10957817
000180 b7 f9 ae bd 7a b7 36 3e e7 e6 2c bd 39 c9 d6 3d
       -0.08543723 0.17843428 -0.042212393 0.10487599
000190 11 55 5f 3d 09 1e 87 3d 4d 9f 8b 3d 1d 53 05 be
       0.054524485 0.065975256 0.068174936 -0.13019986
0001a0 d8 23 be 3a 6e 4d 1e 3e fc 4f fe bd fb 2c c6 3c
       0.0014506532 0.15459225 -0.124175996 0.02419137
0001b0 61 d9 99 3e 61 45 15 3e 46 42 4a bc b3 31 38 be
       0.3004866 0.14577247 -0.012344902 -0.17987709
0001c0 1c f9 81 be 55 28 06 3e 36 dd 07 3e 2f 39 d0 3d
       -0.25385368 0.13101323 0.13267979 0.10167157
0001d0 a8 ce 24 3b 4f 26 f8 bd de 75 f8 bc 89 32 05 3e
       0.002514759 -0.12116682 -0.030329641 0.13007559
0001e0 98 16 88 bd 33 a3 38 3e f6 98 91 3d 14 50 05 3e
       -0.066449344 0.18031006 0.07109253 0.13018829
0001f0 19 ee 20 be 3b f2 d6 3c 5b 81 07 3e 63 8a 7f 3c
       -0.15715827 0.026238551 0.13232939 0.015596959
000200 7a 60 36 3c dc 98 1d 3e 5d 53 b1 3d ec bf 45 3e
       0.0111314 0.15390342 0.086584784 0.19311494
000210 05 01 6c bc bd 73 0e be ea bb 9a 3c 67 15 bb 3d
       -0.01440454 -0.13911338 0.018888433 0.091349415
000220 04 c5 91 3d 73 41 65 bb b7 af 40 bd 1e b7 41 3e
       0.07117656 -0.0034981638 -0.047042575 0.1891751
000230 94 38 ef bc 8b b7 93 bd 80 b3 4e be e4 3b 37 3d
       -0.029201783 -0.072127424 -0.20185661 0.04473485
000240 00 e8 2e 3d 42 8e cb bd ea 9e 15 3e 68 ba cf 3d
       0.04270172 -0.09939243 0.14611402 0.10142976
000250 ec 78 07 bd 7b 37 19 be 70 97 dd 3d b6 8e 59 3e
       -0.033074304 -0.1496257 0.108199 0.21245846
000260 48 ba d5 3c 19 ea 97 3d f9 f6 83 3c f0 ce 85 3d
       0.026089802 0.074176975 0.016108977 0.06533611
000270 b2 0b 6f be 82 f5 80 3b 57 58 6a bd 34 fa 19 bd
       -0.23344305 0.003935517 -0.057213154 -0.037592128
000280 33 7e 4b 3d 0a a7 0e 3d 01 47 ac 3d fd 3b a3 3c
       0.0496809 0.03482727 0.084119804 0.019926066
000290 ee 74 50 bd fb 54 69 3d e0 62 8c 3d b5 12 2a bd
       -0.050892763 0.05696581 0.068547964 -0.041521747
0002a0 14 4a d5 bd 0b a0 79 bd 1f 85 e5 bd 57 86 15 3e
       -0.1041452 -0.060943644 -0.112070315 0.14602028
0002b0 88 3f 76 bd f5 0d e0 3d 00 eb de bb 62 0a 35 3e
       -0.060119182 0.10940162 -0.0068029165 0.17679742
0002c0 88 00 79 be ba 7a 9d bc 19 b4 10 bd 7f 2c b4 bd
       -0.24316609 -0.01922356 -0.035328005 -0.087975495
0002d0 3b f3 82 3e a1 09 aa be cf d6 03 3e 16 27 40 bd
       0.25576195 -0.3321047 0.12874912 -0.046912275
0002e0 c7 4a cd 3c f2 fc 7a 3e ad 85 d4 bc 43 f0 d5 3d
       0.02506007 0.24510553 -0.025942648 0.10446217
0002f0 43 89 21 bd 26 7f a3 3d 6c 59 8c bc d8 fd 47 3d
       -0.039437544 0.07983236 -0.017132483 0.04882607
000300 a0 4d 18 3e 5d c5 59 3e 79 a6 38 be 65 1c 94 bb
       0.14873362 0.21266694 -0.18032254 -0.0045199865
000310 5e 64 12 3e 6e 26 4d 3e 6d 53 b5 3d 6a ea 81 3e
       0.142961 0.20034191 0.08853803 0.25374156
000320 56 c6 2b 3d c8 af 5e be 43 5b 94 be 07 b2 7a bd
       0.041937195 -0.21746743 -0.28975877 -0.061204936
000330 7c 6a ce 3d ab bc 43 bd a0 d0 99 3e 64 52 84 bd
       0.10078904 -0.04778735 0.3004198 -0.06461027
000340 12 a2 0f bb 25 62 8e bb 75 27 49 3d 2d 40 8e 3d
       -0.002191667 -0.004345196 0.049109895 0.06945834
000350 33 4d 0b 3c 5a 5a 75 be bd 0a 80 be 28 e4 95 3d
       0.008502292 -0.23960248 -0.25008193 0.07318908
000360 98 c5 93 be d4 f9 f7 bb 71 fb 48 be ae 3d d8 bc
       -0.2886169 -0.0075676236 -0.19627167 -0.026396599
000370 9c 93 0a be 7a 74 8b bd b8 65 6f 3e 35 be 29 3e
       -0.13532871 -0.068093255 0.23378646 0.16576464
000380 28 31 4b be b3 a0 2a be 91 2c 4d be 7b 52 21 3d
       -0.1984297 -0.16662864 -0.20036532 0.0393853
000390 bc 5f 14 be 20 f6 40 3d 84 61 ff bd 6e 0e 8b 3e
       -0.14489645 0.047109723 -0.124697715 0.27159446
0003a0 47 71 40 3e 3b de 3d 3e de 11 f8 bd 1b e7 0a 3e
       0.18793212 0.18541805 -0.12112783 0.13564722
0003b0 05 15 06 3c 0b 5c af 3d 83 06 b2 3c 55 76 03 be
       0.008183722 0.08562478 0.02173162 -0.12838109
0003c0 5d a7 34 3e 61 d6 0d be 52 ac 88 be bf f5 f5 3d
       0.17641969 -0.1385131 -0.2669397 0.12009763
0003d0 16 63 bd 3d e5 3a 97 3c 22 e8 2e 3e c5 9a 79 3e
       0.09247415 0.0184607 0.17080739 0.24375446
0003e0 66 de bb bd 9e 9c 1c be 88 d0 96 bd a9 8a a3 3c
       -0.091732785 -0.1529412 -0.07363993 0.01996358
0003f0 36 19 9f be 69 6b 3e be 3f 63 25 3e 2c cb 91 bd
       -0.31073922 -0.18595661 0.1615114 -0.0711883

mid_part.6.bias f4 [12]
000000 3d 76 fa 3c b4 e0 a4 bc 05 8c fc 3c 9b 4b ec 39
       0.030573959 -0.020126678 0.030828485 0.00045069758
000010 6b 85 19 3d 30 85 f0 3d e7 a6 a7 3d ee b9 c7 3d
       0.037480753 0.117441535 0.08186131 0.0975226
000020 48 94 74 3c 53 87 50 3c 46 87 60 3e 79 6a 26 bd
       0.014927931 0.012727576 0.21926603 -0.040628884

mid_part.7.weight f4 [12]
000000 cb cb 3c 3f 93 88 e3 3f 06 d3 9c 3e a7 f5 87 3e
       0.73748463 1.7776054 0.30629748 0.26554605
000010 08 dc 8e be 1d 0a a3 3f 41 50 8f 3f e3 a4 c6 3e
       -0.27902246 1.2737461 1.1196367 0.38797674
000020 49 62 e4 3e 92 5b 7a 3e 67 57 e0 bd de 07 63 3e
       0.44606236 0.24448994 -0.10954171 0.2217097

mid_part.8.weight f4 [12, 12, 3, 3]
000000 be 53 cc 3d 02 87 e2 bd cb 50 3e be 64 e8 ad bd
       0.0997691 -0.11060907 -0.18585508 -0.084915906
000010 a7 00 72 3e 70 bd 04 3e b1 25 9e be dd 32 0e 3e
       0.23633061 0.1296289 -0.3088813 0.1388659
000020 24 03 aa bd 00 6e 35 bd a0 63 1f 3d f4 d4 8f 3d
       -0.0830138 -0.044294357 0.03891337 0.070230395
000030 fd 91 b1 3d 61 b2 a2 3e ad c9 12 3d bd a1 4f 3e
       0.08670423 0.31776717 0.035836864 0.20276542
000040 ff f5 5c 3d 7a e5 79 bd 8d fb b1 3d 8c 40 22 bd
       0.053945538 -0.06100986 0.08690558 -0.039612338
000050 ab c5 6c bc 86 d6 66 be a2 02 87 bc f5 b4 c0 bc
       -0.014451425 -0.22542772 -0.016480748 -0.023523787
000060 69 44 8a 3d 58 76 47 be cb 39 b3 3b 96 28 7c bd
       0.067513295 -0.19478738 0.005469536 -0.061562143
000070 e3 b0 b4 bd c9 ed ef 3c 80 7e 30 be 36 66 8d bd
       -0.08822801 0.02928819 -0.17235756 -0.06904261
000080 af 3c dd 3d 6d c5 bf 3b 75 b2 e1 bd cc 73 3e be
       0.1080259 0.0058523924 -0.11020366 -0.1859886
000090 ef fa 5b bc 35 7e 3e bc a5 dc 9c 3c 97 72 f1 3d
       -0.013426526 -0.01162677 0.01914818 0.117894344
0000a0 e8 cc 6e bc c5 8d 69 3e 33 68 9f bd e4 24 5e 3d
       -0.014575221 0.22807987 -0.07783546 0.0542344
0000b0 d3 01 ee bc 7d 1e 16 3d 6d 02 2f 3e 1c 8f 26 3d
       -0.029053604 0.03665017 0.17090769 0.040663823
0000c0 09 bd 15 be 58 fb b2 3d 8e 30 e7 3c 34 95 a7 3e
       -0.14622892 0.08739346 0.028221395 0.3273102
0000d0 d3 aa 0a be c8 02 e2 3d 24 75 05 3e 61 ce b0 be
       -0.13541727 0.11035687 0.13032967 -0.34532455
0000e0 33 a3 02 3d 5d 69 5c 3d 7c 91 b6 bc 52 f3 2d bd
       0.03189392 0.05381142 -0.02228617 -0.042468376
0000f0 aa 1d c1 bd a2 3f 00 be 1f 4b 32 3d d6 a8 ad bc
       -0.09429486 -0.12524274 0.043528672 -0.021198671
000100 e7 81 9d 3e 75 8f 43 3c 24 42 36 3d f3 1c 4a 3e
       0.3076317 0.011936058 0.04449667 0.19737606
000110 d0 33 bb bd 22 00 40 be ce c5 ad bc d4 dd 56 be
       -0.09140742 -0.1875005 -0.021212485 -0.20983058
000120 bf db 6a be 4c 9f d7 3c b9 07 6f 3d bf bb 11 3d
       -0.22935389 0.026321076 0.058356974 0.03557944
000130 f9 d6 3b 3e da bd 1c be 16 12 ae bc 2c af 0b be
       0.18343724 -0.15306798 -0.021248858 -0.13641042
000140 1d bb 01 be e0 f2 b2 3d c5 65 7a bd e0 69 08 be
       -0.12669034 0.08737731 -0.06113221 -0.13321638
000150 80 bc 0c be 53 46 4c bd 4c 5d d1 bc f2 93 6d 3e
       -0.13743782 -0.049871754 -0.025557183 0.23200968
000160 33 96 1d bd 27 4a 52 bb e6 f3 93 3c 61 ed 1d 3e
       -0.03847332 -0.0032087655 0.018060636 0.15422584
000170 b1 85 6d 3c 35 78 78 bd 1a 61 06 bd ab 1e 2c 3d
       0.014497207 -0.060661513 -0.032807447 0.042021435
000180 1b c9 aa 3d 56 f6 a3 3d 4b f7 6d bd 3c 7b 18 3e
       0.08339139 0.08005969 -0.058097165 0.1489076
000190 a1 e8 bf 3e 37 4c 47 be fb 07 de 3e 68 b7 ef bc
       0.3748217 -0.19462667 0.43365464 -0.02926226
0001a0 e8 31 52 3e 67 09 4c be 3c e5 cd 3d ef 8c 7e 3e
       0.2052685 -0.19925462 0.100534886 0.2485845
0001b0 1b e1 e8 3d d7 24 d6 bd 30 20 1d be 3a f5 7e 3e
       0.113710605 -0.104562454 -0.1534431 0.24898234
0001c0 45 43 1f 3e 2c bf 6c 3c d9 81 9f 3d 22 c3 88 be
       0.15553005 0.014449876 0.07788438 -0.26711375
0001d0 d6 de 5f be de 7b 5d 3d 14 77 1e be 74 e1 e1 3b
       -0.21862349 0.054073207 -0.15475112 0.006893331
0001e0 69 a9 02 3e 4b dc 55 3e 12 8d 7b be df b9 2e be
       0.12759937 0.20884816 -0.24565533 -0.17063092
0001f0 2f 6c 0a bc 7f 29 d3 bd 88 d2 c4 3d 37 f9 c0 bc
       -0.008448645 -0.10310649 0.09610468 -0.023556335
000200 75 a7 bf 3d 16 c0 ad 3d f3 5a 93 be 61 2e 7a 3e
       0.09358112 0.08483903 -0.28780326 0.24431755
000210 e0 7c e2 bd 25 b9 8a 3d f8 72 90 3c 6f a2 2c bd
       -0.11058974 0.06773595 0.017632946 -0.042147096
000220 58 85 b7 3e f6 8f 53 3d fc c9 07 3e a5 ee 96 bb
       0.3584392 0.051650964 0.13260645 -0.0046060854
000230 d7 df 9c 3d a4 8c 38 be 7e 06 84 3d 52 1b df 3d
       0.076598816 -0.180224 0.06446551 0.10893883
000240 b9 71 19 3e 64 40 88 3b 48 1c d7 bd aa 87 2c 3d
       0.14984788 0.0041580666 -0.10503441 0.042121567
000250 b0 55 4c 3e 1d 8f 96 be 7c 30 1d 3e a6 70 a7 be
       0.19954562 -0.29406062 0.15350527 -0.3270313
000260 76 0f 87 3d d6 e4 4a 3e eb 3b 23 3e b6 ef 36 bd
       0.06594746 0.19813856 0.15940826 -0.0446622
000270 97 75 c1 3d e8 44 63 3e 2c d0 c1 3d 8e 6e 2e be
       0.094462566 0.22194254 0.09463534 -0.17034361
000280 1c 90 8b bd 1e 47 f6 3b 1e e3 85 bd b6 c3 14 bc
       -0.06814596 0.007515802 -0.0653746 -0.009079864
000290 b5 ac 13 3e 3f 58 cb 3d 98 81 11 3d 74 da f1 3c
       0.14421351 0.09928941 0.03552398 0.029523112
0002a0 0d f6 85 bd ab 7d 14 bd 27 ea 24 3d c9 99 2c 3e
       -0.06541071 -0.03625266 0.040262368 0.1685554
0002b0 83 ac 49 3e 36 bf 0c 3e 2d 76 15 3e 9a 9e bf be
       0.19694714 0.13744816 0.14595862 -0.3742569
0002c0 4b 07 86 3d 89 b1 2e 3d 11 3e 2e bd 84 e2 92 3d
       0.0654436 0.04264978 -0.04253966 0.07172111
0002d0 c2 bb 94 3d 9c e0 81 bb 9b fd 1b bc b5 64 81 3d
       0.072623745 -0.003963543 -0.0095209135 0.063180365
0002e0 a3 42 0b be 72 11 36 3d 2b 6a 91 3e b2 05 8b bd
       -0.13599639 0.04445023 0.28401312 -0.06788196
0002f0 06 3a b4 3d 0f a7 8d 3e 03 4c 62 3c 4a f5 fc 3b
       0.088001296 0.27666518 0.013812068 0.0077196704
000300 3c ca 75 3e 07 35 34 3d ce 62 6b 3e 69 0a 40 3e
       0.24002928 0.043995883 0.2298691 0.18753971
000310 3e 3d f2 bb f4 be 71 3d d3 b0 23 3b 06 d1 24 bd
       -0.0073925545 0.059019998 0.0024977222 -0.040238403
000320 a7 83 8b 3d 83 f0 c8 bb 37 ba 23 be 9f d8 04 be
       0.0681222 -0.006132187 -0.15989004 -0.1297326
000330 8e dd c5 bd 64 d9 9c 3d ca 83 41 3e ca 47 36 3e
       -0.09661399 0.076586515 0.1889793 0.17800823
000340 0c 13 4c be 73 10 96 3d 6f 5a 3c 3e 6e f0 a4 3d
       -0.19929141 0.07327356 0.18393873 0.08053671
000350 a7 c3 89 3d 84 25 12 bd 19 d6 d3 3a f5 aa 37 3e
       0.06726771 -0.03568031 0.0016161829 0.17936309
000360 aa 46 87 bd 67 94 26 3e d1 b5 a2 3d 32 8a 1a bc
       -0.06605275 0.16267549 0.07944835 -0.009432362
000370 f9 ce a4 3d d9 74 f9 bd 86 45 4f 3d 98 8f 02 3e
       0.080472894 -0.1218049 0.050603412 0.12750089
000380 9c ce 10 3e 0f 11 76 3d c7 c3 51 3d 8c a4 3c 3e
       0.14141315 0.060074862 0.0512121 0.18422145
000390 ea 7c 9f 3c 7c ac 42 3e 10 de ec bd 62 23 ca 3d
       0.019468743 0.1901111 -0.115657926 0.0987003
0003a0 ad a1 b1 3d f5 0c f9 bd 17 a2 a9 3c 08 34 bd bb
       0.08673415 -0.121606745 0.020707173 -0.005774025
0003b0 fb 1e 13 be ba 13 42 bd 1e 05 2c be b5 97 ea 3c
       -0.14367287 -0.047382094 -0.16798827 0.028636793
0003c0 08 cb ed bc 49 fa 01 bd 43 4d 00 bd 19 ed 4d be
       -0.029027477 -0.03173283 -0.031323683 -0.20109977
0003d0 c5 3b 9b bd b3 0b 96 bd 56 f9 6f 3e 70 ad 9b 3d
       -0.075797595 -0.0732645 0.23434958 0.0760144
0003e0 0b b3 51 be 53 a3 38 3d 97 df 7b bd 64 ac 09 bc
       -0.20478456 0.045077633 -0.06149253 -0.0084029175
0003f0 c4 6f 8b 3d 53 95 17 3d ea f1 8b be 66 1e 3c 3e
       0.06808427 0.03700764 -0.27333003 0.18370971

mid_part.8.bias f4 [12]
000000 50 0e f8 3b 45 d8 30 3d 1e a1 30 bc 4b 66 88 bc
       0.0075700656 0.043175 -0.010780601 -0.01665034
000010 0c ba 2d 3d fa e5 95 3a 98 95 ce 3c 7a 24 54 3d
       0.042413756 0.0011436336 0.025217816 0.0517926
000020 c5 9f 2f bd 4e 22 90 3d bf 9c 4e 3d 4c c0 f5 3c
       -0.042876977 0.07037793 0.050442453 0.02999892

mid_part.9.weight f4 [12]
000000 63 bf e1 3e 3b 5e 85 3c 52 3d 1f be da b4 87 3e
       0.4409133 0.016280284 -0.15550736 0.26505166
000010 67 41 4e 3f c1 ac a1 3f 09 55 1a be 65 55 71 3f
       0.80568546 1.2630845 -0.15071501 0.94270927
000020 ec 1e 89 3e f5 d3 e3 3e 4b 3b a5 3d 1f 6f da 3f
       0.26781404 0.44497648 0.0806795 1.7065161
