models/fsrcnn/track1/track1_x4__epoch_9.pth (torch, 57971 bytes, 22 tensors)

first_part.0.weight f4 [56, 1, 5, 5]
-0.010087327 0.041194092 0.027843615 0.0058146063 -0.0125536565 -0.031661455 0.035527874 -0.016138665
-0.03322353 0.0068581374 0.06277012 -0.024298372 0.039100535 0.019889075 0.016605228 0.025605215
-0.015465135 -0.0109033985 0.07535984 -0.0010190142 0.005001875 0.006179973 0.058649804 0.002415873
-0.04367356 -0.028639391 -0.038533058 -0.043361712 0.008027103 0.0475471 -0.043627463 0.03769301
-0.042478368 -0.015356552 0.0048120557 -0.033393063 0.014931485 0.0011247494 0.00018237629 -0.06587918
-0.0016273673 0.026856365 -0.006883688 0.0005758801 -0.014394812 0.035674475 3.6320365e-05 -0.09179389
0.048500914 0.0008820789 -0.02671314 -0.046571773 -0.013311515 -0.014502583 0.020514248 -0.0067202556
0.0008342639 -0.02091721 -0.026122969 -0.0744516 -0.041826736 -0.08069665 -0.06324562 -0.015174885
-0.055747125 0.043720145 -0.057149533 -0.06911151 -0.029554363 -0.014058691 -0.064595155 0.045147844
0.04029282 -0.043356128 -0.018970784 0.03725333 -0.002488365 0.054741174 0.017218612 -0.022777366
-0.043048624 -0.021074945 0.0037025674 -0.04608391 -0.003206898 0.00818095 0.091760576 -0.037177525
-0.076660134 0.026423804 0.051252834 -0.04549031 -0.059418064 -0.00052305 -0.00087551406 0.030215703
-0.06317556 -0.018339192 -0.04454897 -0.10230547 0.010441694 -0.03956377 -0.029623745 -0.08354323
-0.012824109 -0.018543469 0.071507625 0.0031577635 0.03706289 -0.00549965 0.005410783 -0.07906666
-0.042738758 -0.0012794688 0.013024292 -0.013527281 -0.07871708 -0.054058015 -0.033386584 0.043545537
-0.051075228 -0.0144616775 0.04908362 -0.070277244 0.017595872 -0.080439955 -0.0509517 0.046434928
0.017833577 0.013858667 0.029275328 -0.03333423 -0.013824523 -0.0569453 0.0013031837 -0.045581948
-0.025574237 0.04327661 0.027854323 -0.032095432 0.052189626 -0.05668961 0.020468477 -0.016337533
-0.01234461 0.05078553 -0.0045868987 -0.003736455 -0.019410575 -0.02991472 -0.093780555 0.024384566
0.01242864 0.06929454 -0.016306242 -0.013621898 0.016920995 0.025994007 -0.04925399 -0.05467107
-0.013678017 -0.056166414 -0.021274718 -0.015059443 0.034316413 -0.08138594 0.018646417 -0.03246255
0.010041219 -0.01762428 -0.06684568 0.013770861 -0.003047589 -0.0042432733 -0.06788363 0.07324868
-0.05260075 0.07239276 -0.11983762 -0.0025944675 -0.013295422 0.04498192 -0.10046264 0.06984836
0.051481318 0.03968893 -0.104637116 0.26536494 -0.04772647 0.02433172 0.01616434 -0.08797092
0.06230855 -0.10243492 0.106110096 0.10837591 0.009565306 0.024031939 0.014555336 0.02787161
0.023475248 0.056530215 -0.004465926 0.0012435248 0.028797554 0.02864836 0.043288372 -0.020309228
0.024457617 -0.010147624 0.0078978175 -0.022795437 0.077221744 0.004153425 -0.015862498 -0.0030320825
0.015856095 0.021061115 -0.014031702 -0.041213863 0.020825852 0.0235286 0.09770403 -0.046294026
0.0151496 0.07771273 -0.039264336 -0.059662074 0.052124504 -0.05931579 -0.014268832 0.0061204946
0.029943986 -0.04849769 0.012353266 0.012382861 -0.015312358 0.074925825 0.052839715 0.044160828
0.050730716 7.407261e-05 0.014929994 -0.040700506 0.050470453 0.030348822 0.03729146 0.026498362
0.058461297 0.049708545 -0.021571144 0.02788258 -0.04470294 -0.008070523 -0.04693159 0.010408803
00000000: 5145 25bc 23bb 283d 4b18 e43c 7488 be3b
00000010: daad 4dbc 71af 01bd ad85 113d 3c35 84bc
00000020: 6515 08bd 3aba e03b 9f8d 803d 610d c7bc
00000030: e227 203d 6aee a23c b007 883c 07c2 d13c
00000040: 7a61 7dbc 2ba4 32bc 4356 9a3d 7190 85ba
00000050: c5e6 a33b 5f81 ca3b c73a 703d a053 1e3b
00000060: 0ce3 32bd 289d eabc d7d4 1dbd 0d9c 31bd
00000070: 1c84 033c bfc0 423d b6b2 32bd fc63 1a3d
00000080: ccfd 2dbd 0c9a 7bbc 73ae 9d3b 2ac7 08bd
00000090: 30a3 743c 546c 933a 433c 3f39 aaeb 86bd
000000a0: 634d d5ba e101 dc3c 8f90 e1bb a9f6 163a
000000b0: 38d8 6bbc 661f 123d b256 1838 6ffe bbbd
000000c0: e5a8 463d 503b 673a 84d5 dabc 0bc2 3ebd
000000d0: 8a18 5abc 3e9c 6dbc 7f0d a83c 9735 dcbb
000000e0: 81b2 5a3a 925a abbc d6ff d5bc 157a 98bd
000000f0: 8352 2bbd 4944 a5bd eb86 81bd 15a0 78bc
00000100: 1957 64bd e513 333d a115 6abd 568a 8dbd
00000110: fe1b f2bc 6d56 66bc 774a 84bd f2ec 383d
00000120: 160a 253d 3296 31bd 9e68 9bbc f396 183d
00000130: d613 23bb 4838 603d 0c0e 8d3c 9997 babc
00000140: c153 30bd 5da5 acbc c6a6 723b 7bc2 3cbd
00000150: d22a 52bb 6409 063c f8ec bb3d 7647 18bd
00000160: fdff 9cbd bc76 d83c 7eee 513d 0c54 3abd
00000170: 5b60 73bd 4b1d 09ba c182 65ba ec86 f73c
00000180: 3062 81bd 133c 96bc fb78 36bd 8885 d1bd
00000190: a413 2b3c 9f0d 22bd 7fad f2bc b718 abbd
000001a0: 361c 52bc 79e8 97bc 9772 923d 7bf2 4e3b
000001b0: 42cf 173d 6836 b4bb f04c b13b b3ed a1bd
000001c0: d60e 2fbd d9b3 a7ba d763 553c 87a1 5dbc
000001d0: 6c36 a1bd f06b 5dbd 5fc0 08bd ce5c 323d
000001e0: 4234 51bd acf0 6cbc e80b 493d 84ed 8fbd
000001f0: 3825 903c b4bd a4bd bbb2 50bd 8d32 3e3d
00000200: b917 923c 760f 633c d0d2 ef3c 7989 08bd
00000210: 4180 62bc 7a3f 69bd 97cf aa3a 23b4 3abd
00000220: 1081 d1bc d142 313d c02e e43c 8076 03bd
00000230: cac4 553d 5d33 68bd 82ad a73c 4ad6 85bc
00000240: 0c41 4abc 7d04 503d b24d 96bb 50df 74bb
00000250: ed02 9fbc b70f f5bc 0510 c0bd 24c2 c73c
00000260: 7fa1 4b3c 4cea 8d3d ab94 85bc 622e 5fbc
00000270: e69d 8a3c 62f1 d43c 8dbe 49bd c6ee 5fbd
00000280: c319 60bc c10e 66bd 5148 aebc e2bb 76bc
00000290: 5e8f 0c3d acad a6bd 5fc0 983c 73f7 04bd
000002a0: ed83 243c cb60 90bc 63e6 88bd 2d9f 613c
000002b0: 0fba 47bb 280b 8bbb 9306 8bbd 6703 963d
000002c0: e273 57bd a842 943d 6d6d f5bd f107 2abb
000002d0: 0bd5 59bc f63e 383d 5bbf cdbd a80c 8f3d
000002e0: 13de 523d dc90 223d fc4b d6bd eadd 873e
000002f0: d57c 43bd 5153 c73c 146b 843c 192a b4bd
00000300: 4037 7f3d 66c9 d1bd 4050 d93d 30f4 dd3d
00000310: cdb7 1c3c a1de c43c 8179 6e3c 0153 e43c
00000320: 2a4f c03c 3a8c 673d e756 92bb c5fd a23a
00000330: d9e8 eb3c f7af ea3c 264f 313d 8a5f a6bc
00000340: 575b c83c 3842 26bc d965 013c 7fbd babc
00000350: 6f26 9e3d 7419 883b 12f2 81bc e7b5 46bb
00000360: a4e4 813c 5c88 ac3c 39e5 65bc decf 28bd
00000370: fa9a aa3c 0dbf c03c 0d19 c83d ce9e 3dbd
00000380: 0736 783c da27 9f3d a4d3 20bd 3860 74bd
00000390: 8180 553d 1df5 72bd d2c7 69bc 6e8e c83b
000003a0: 174d f53c 84a5 46bd 5a65 4a3c 7ce1 4a3c
000003b0: afe0 7abc b672 993d 756e 583d fce1 343d
000003c0: 03cb 4f3d 6e57 9b38 ef9c 743c 93b5 26bd
000003d0: 1bba 4e3d 189e f83c eebe 183d 1813 d93c
000003e0: 1d75 6f3d 309b 4b3d f8b5 b0bc 026a e43c
000003f0: 6e1a 37bd 3a3a 04bc 573b 40bd af89 2a3c

first_part.0.bias f4 [56]
-0.007828873 -0.0015493656 0.003579829 -0.0033005383 0.0064467727 -0.008658313 0.0015282548 0.031908188
-0.008975884 -0.008086478 -0.007427833 -0.0015594596 -0.0043860204 0.012964731 0.056129437 -0.01330949
9.596902e-05 -0.004722417 0.006854958 -0.024194775 0.0047043203 0.00048120404 -0.010011142 -0.0054541333
-0.01365757 0.0106799295 -0.003968719 0.0066028964 -0.018653734 0.0036924616 -0.005227813 0.0013171029
-0.005715036 -0.006502804 -0.00092393544 0.01747149 -0.002007809 0.004336387 0.003917513 0.018246278
0.066483155 0.0021681201 0.010832985 -0.038762283 0.0010828743 0.0021910532 -0.012363301 -0.004124863
-0.0863886 0.012499092 -0.019353626 0.030807266 -0.0004956528 0.0062882355 -0.0030480977 0.041642517
00000000: ac44 00bc 1514 cbba 909b 6a3b d84d 58bb
00000010: 733f d33b 99db 0dbc b94f c83a 29b2 023d
00000020: 960f 13bc 267d 04bc 2e65 f3bb c866 ccba
00000030: 9bb8 8fbb 066a 543c fbe7 653d 0c10 5abc
00000040: fa42 c938 81be 9abb 8e9f e03b 1f34 c6bc
00000050: b326 9a3b 1d4a fc39 c605 24bc 96b8 b2bb
00000060: 00c4 5fbc dffa 2e3c 070c 82bb 1c5d d83b
00000070: b7cf 98bc 3afd 713b 134e abbb a4a2 ac3a
00000080: 3245 bbbb 7915 d5bb 4234 72ba 5f20 8f3c
00000090: 7295 03bb 4018 8e3b 7b5e 803b 3879 953c
000000a0: 5228 883d 0517 0e3b d57c 313c 33c5 1ebd
000000b0: 3bef 8d3a c697 0f3b 718f 4abc dc29 87bb
000000c0: 82ec b0bd fec8 4c3c 7f8b 9ebc 855f fc3c
000000d0: b2ee 01ba 8b0d ce3b 98c2 47bb 5891 2a3d

first_part.1.weight f4 [56]
0.2459109 0.24371205 0.25762263 0.2597557 0.24728069 0.25924778 0.24992332 0.2968167
1.572157 0.05047 1.3676494 0.25242537 0.91450644 0.25389662 0.24381804 0.018989105
0.32798368 0.2838895 0.2612892 0.19521293 0.25604263 1.6125681 0.24618927 0.24272816
0.20894279 0.24247245 1.8472463 0.2540345 0.29609996 0.27417767 0.24173032 0.28505272
1.6416143 0.3879246 0.24146831 0.25308543 0.21941899 -0.01998407 0.27302316 0.25138962
0.5796367 0.26998454 0.2519688 0.32035434 0.8278382 0.17330168 1.9568661 0.25508848
0.54550874 0.24440874 1.5267224 0.2520388 0.21662033 0.17423284 0.27153358 0.25857514
00000000: 11d0 7b3e a78f 793e 1de7 833e b3fe 843e
00000010: 2637 7d3e 20bc 843e e6eb 7f3e 5cf8 973e
00000020: 713c c93f a1b9 4e3d 230f af3f e63d 813e
00000030: 181d 6a3f bdfe 813e 70ab 793e 0a8f 9b3c
00000040: 7aed a73e f759 913e b3c7 853e e6e5 473e
00000050: 0518 833e a268 ce3f 0a19 7c3e bb8d 783e
00000060: 19f5 553e b34a 783e 9172 ec3f cf10 823e
00000070: 6a9a 973e 0461 8c3e 2788 773e 6ef2 913e
00000080: 6b20 d23f 0e9e c63e 7843 773e 6a94 813e
00000090: 5faf 603e a2b5 a3bc b1c9 8b3e 24b6 803e
000000a0: 1263 143f 6a3b 8a3e 0e02 813e 7c05 a43e
000000b0: 34ed 533f ff75 313e 977a fa3f f59a 823e
000000c0: 76a6 0b3f 4946 7a3e a46b c33f 3b0b 813e
000000d0: b8d1 5d3e 186a 323e 7306 8b3e f663 843e

mid_part.0.weight f4 [12, 56, 1, 1]
0.51418895 0.21379362 -0.75524193 0.24164532 0.39348286 0.34210935 -0.08518215 0.51182705
0.16734797 -1.182875 0.5066461 -0.07846665 -0.54663426 1.0609386 0.43287778 0.4092425
0.09106593 0.0673911 0.55650765 -0.24699497 0.013385587 0.7109074 -0.36426935 -0.46453118
-0.07516819 -0.07677033 0.42770413 -0.72472465 0.26973107 0.41127086 0.04582956 0.3485144
0.54091 0.13875113 -0.55673635 -0.6892095 -0.05568271 -0.04532101 -0.27770105 0.3758701
-0.095090814 0.5022975 -0.38285765 -0.117132805 -0.13764137 -0.15177463 -0.10370045 -0.60961413
-0.15169357 -0.57979923 -0.101157196 -0.17627883 -0.6710919 0.1659632 -0.2967674 -0.22485892
-0.30704865 -0.97755253 0.49774766 -0.005105665 0.013897134 0.7975872 0.7402121 0.5219517
0.031683493 -0.09125297 -0.077291325 -0.48784694 0.19024861 0.18397321 -0.6185431 0.14270994
-0.5502093 0.24009019 0.6282606 -0.1024405 0.84906715 -0.25230315 0.082053 -0.38978332
-0.37906674 -0.07447284 0.08894541 -0.5506475 0.57233423 0.79620105 -0.19479467 0.42722985
0.17359503 -0.38937855 -0.08840694 -0.14447886 0.24645512 0.22164038 -0.6997098 -0.24662577
0.23844524 0.6964031 -0.2901763 0.8504888 0.7262218 0.12982528 0.44257262 0.09053238
0.31733128 -0.114558175 0.8550797 -0.56714106 -0.019679623 -0.2388637 0.65939426 -0.46236816
0.27379093 -0.6041061 -0.26718718 -0.39721456 -0.07281004 0.6045261 -0.11645011 -0.043032482
0.6517658 0.7907677 0.09518854 0.8141762 -0.4325901 -0.14948362 -0.099676065 0.3951573
-0.008367567 -0.13548452 0.47116667 0.36840582 -0.5364171 0.23310244 -0.12794805 -0.30474836
0.41243103 -0.3263959 -0.15891033 -0.25780627 -0.4908559 0.403456 0.02041951 -0.13941225
0.4881624 0.7029465 0.63007855 0.3816387 0.31626853 0.31120092 -0.4742405 0.11183183
-0.024255056 0.12817624 -0.21168801 -0.0041249865 0.13950063 0.4099013 0.25559184 0.48284516
-0.010438734 0.5994577 0.2167156 -0.5621106 0.011541427 0.4280555 -0.35027626 -0.3225253
0.045798447 0.3125246 -0.13207822 0.15816776 0.25101477 -0.00728492 -0.17162079 0.3248889
-0.5799021 -0.36907607 0.58267546 -0.3583762 0.37932387 -0.4847394 0.6338566 -0.10003419
0.13699743 0.22859897 -0.056933485 0.8786158 -0.4920553 0.6393961 -0.32294378 -0.4038412
0.48771223 0.058775786 -0.4378427 0.9584608 0.116226986 0.40163276 -0.06721967 -0.16221303
-0.507688 0.21185789 -0.10917006 0.47423208 0.13949092 -0.120743334 -0.015880957 0.20383437
-0.0722179 1.0729753 0.77405924 0.6661754 -0.98326635 -0.24614187 0.47530136 -0.08937876
0.3897507 0.5665696 -0.2983367 -0.51274776 -0.3969943 0.4559932 -0.21238688 0.50924915
-0.24395 0.08998903 0.124805376 0.081908375 -0.15852353 -0.34303153 -0.20505995 0.5604857
0.47480386 -0.26373056 -0.1503768 0.01811991 -1.3466524 0.79925317 0.81171083 -0.07115674
0.3556873 -0.19239436 0.3073089 -0.39841285 0.22060418 0.28534976 0.36500522 0.04243736
-0.10945028 -0.13100222 0.54423195 0.22853003 -0.68581235 -0.32551247 0.042519502 0.21583614
00000000: e3a1 033f b7ec 5a3e 8957 41bf df71 773e
00000010: 9676 c93e f528 af3e fb73 aebd 1907 033f
00000020: 445d 2b3e 7368 97bf 8fb3 013f 1fb3 a0bd
00000030: 39f0 0bbf d6cc 873f 28a2 dd3e 3c88 d13e
00000040: c680 ba3d 5804 8a3d 4977 0e3f 40ec 7cbe
00000050: 394f 5b3c 07fe 353f 8381 babe 08d7 edbe
00000060: c8f1 99bd c339 9dbd 09fc da3e 8e87 39bf
00000070: 311a 8a3e 1892 d23e c7b7 3b3d 7b70 b23e
00000080: 1479 0a3f c714 0e3e 4686 0ebf 0970 30bf
00000090: 8e13 64bd 86a2 39bd d52e 8ebe 0c72 c03e
000000a0: f9be c2bd 9296 003f eb05 c4be 53e3 efbd
000000b0: dcf1 0cbe cf6a 1bbe e760 d4bd ac0f 1cbf
000000c0: 8f55 1bbe b96d 14bf 812b cfbd 7082 34be
000000d0: aecc 2bbf 42f2 293e e6f1 97be 6b41 66be
000000e0: 7b35 9dbe e240 7abf c8d8 fe3e 6c4d a7bb
000000f0: ceb0 633c ad2e 4c3f 8a7e 3d3f a09e 053f
00000100: 8dc6 013d d6e2 babd ea4a 9ebd 13c7 f9be
00000110: 88d0 423e 7963 3c3e d758 1ebf 8e22 123e
00000120: 84da 0cbf 34da 753e b0d5 203f 53cc d1bd
00000130: 775c 593f e12d 81be 670b a83d ae91 c7be
00000140: 0915 c2be 3785 98bd 0329 b63d 3cf7 0cbf
00000150: 7f84 123f d5d3 4b3f 4178 47be dfbd da3e
00000160: e5c2 313e a05c c7be b30e b5bd 44f2 13be
00000170: bb5e 7c3e b2f5 623e 2e20 33bf 778b 7cbe
00000180: fd2a 743e 7947 323f fd91 94be a2b9 593f
00000190: ace9 393f ebf0 043e e198 e23e 0a69 b93d
000001a0: 3f79 a23e 7a9d eabd 81e6 5a3f 2830 11bf
000001b0: 2937 a1bc b098 74be 10ce 283f 85bb ecbe
000001c0: 532e 8c3e b3a6 1abf c2cc 88be b55f cbbe
000001d0: 6e1d 95bd 39c2 1a3f 657d eebd d442 30bd
000001e0: 20da 263f c16f 4a3f 36f2 c23d da6d 503f
000001f0: 737c ddbe 3c12 19be f722 ccbd 0f52 ca3e
00000200: 1f18 09bc 74bc 0abe c23c f13e b09f bc3e
00000210: a252 09bf 68b2 6e3e d004 03be fa07 9cbe
00000220: 292a d33e 5d1d a7be 64b9 22be 2fff 83be
00000230: 7751 fbbe c991 ce3e d146 a73c 16c2 0ebe
00000240: 6cf0 f93e 4df4 333f d44c 213f 2666 c33e
00000250: f3ed a13e ba55 9f3e a7cf f2be 1608 e53d
00000260: 8ab2 c6bc a240 033e bec4 58be e52a 87bb
00000270: 41d9 0e3e 95de d13e efdc 823e 7b37 f73e
00000280: 3907 2bbc 0f76 193f b2ea 5d3e 7be6 0fbf
00000290: 4118 3d3c 172a db3e 6957 b3be 0922 a5be
000002a0: 2797 3b3d 3903 a03e 833f 07be bbf6 213e
000002b0: 0285 803e 57b6 eebb 5cbd 2fbe d757 a63e
000002c0: 7774 14bf 8af7 bcbe 382a 153f 167d b7be
000002d0: bd36 c23e c32f f8be 6d44 223f bade ccbd
000002e0: 0e49 0c3e d915 6a3e 1633 69bd f7ec 603f
000002f0: acee fbbe 76af 233f e358 a5be 46c4 cebe
00000300: 6bb5 f93e e1be 703d eb2c e0be b05d 753f
00000310: 6a08 ee3d cfa2 cd3e 77aa 89bd 2c1b 26be
00000320: d7f7 01bf 46f1 583e 8d94 dfbd 8cce f23e
00000330: b5d6 0e3e 4848 f7bd c818 82bc f5b9 503e
00000340: fae6 93bd 4157 893f bf28 463f 798a 2a3f
00000350: 58b7 7bbf 9d0c 7cbe b35a f33e 360c b7bd
00000360: 678d c73e b50a 113f 97bf 98be 7043 03bf
00000370: d642 cbbe f177 e93e f27b 59be 275e 023f
00000380: 07ce 79be 2b4c b83d f699 ff3d 94bf a73d
00000390: fe53 22be d4a1 afbe 3cfb 51be fe7b 0f3f
000003a0: 7e19 f33e b107 87be 60fc 19be 3570 943c
000003b0: 1b5f acbf db9b 4c3f 48cc 4f3f a0ba 91bd
000003c0: a51c b63e 0703 45be 9857 9d3e c5fc cbbe
000003d0: 10e6 613e 5d19 923e f7e1 ba3e ccd2 2d3d
000003e0: 7827 e0bd 7225 06be c952 0b3f c703 6a3e
000003f0: 6691 2fbf 92a9 a6be ee28 2e3d 2604 5d3e

mid_part.0.bias f4 [12]
0.005631561 -0.025894893 -0.0046705953 0.0034328569 0.08564118 0.006940651 0.03425514 0.033386163
-0.026121115 -0.0033792988 -0.0057057953 0.042651992
00000000: f588 b83b 8721 d4bc cb0b 99bb c8f9 603b
00000010: a564 af3d 676e e33b 1e4f 0c3d eebf 083d
00000020: f3fb d5bc 3a77 5dbb aef7 babb dbb3 2e3d

mid_part.1.weight f4 [12]
0.2724507 0.3726648 0.24992615 0.26206735 0.5099998 1.0754101 0.24828638 0.46094748
0.29814583 0.41218784 0.5075986 0.2870348
00000000: a87e 8b3e eccd be3e a4ec 7f3e b12d 863e
00000010: 598f 023f 0aa7 893f c93e 7e3e 4f01 ec3e
00000020: 92a6 983e 490a d33e fbf1 013f 3af6 923e

mid_part.2.weight f4 [12, 12, 3, 3]
0.26375005 -0.03154927 0.022583082 -0.27519593 0.13128752 -0.12014053 -0.0489508 -0.12779847
0.093902014 0.19404028 -0.2236241 0.21819106 0.036108334 -0.12111714 -0.11952809 -0.07058819
-0.16291249 0.038473938 0.08902911 0.15516755 0.056295436 0.15854122 0.0079073915 -0.029198729
0.26100639 0.061254404 -0.072368 0.008432044 -0.076561235 0.13171855 0.13603614 -0.29579175
-0.2800353 -0.13100283 -0.0510457 0.20235871 -0.17381498 -0.11680491 -0.0939697 -0.019583698
0.25690612 -0.23860273 0.034625668 -0.015091637 0.049990855 0.21344458 0.043220058 0.21010448
-0.053658377 -0.10841067 0.07830511 -0.0932242 0.06923426 -0.10569485 -0.1890774 0.024037443
-0.0052553774 0.23766835 -0.101731956 0.031121626 -0.11656196 0.13460886 0.14886591 0.13127954
-0.06179025 0.24707402 0.008648637 0.012382869 -0.003068376 0.0061342004 -0.23226118 -0.2078525
-0.009449902 -0.02166074 0.048219994 -0.19505794 0.27699497 -0.07358978 -0.059008643 -0.06536053
0.023712793 -0.18383206 0.0130483275 0.036742162 0.041174244 0.109595045 0.13042998 -0.11884018
-0.039166346 0.018902468 0.07117123 -0.008911966 0.23562405 -0.1228799 -0.045208268 -0.07420102
0.041821964 0.09909635 0.03545698 0.029424338 -0.052412074 -0.100259766 -0.021704992 0.07985611
0.03022929 0.06301671 0.063066155 0.013507405 0.012563791 -0.05596511 -0.011908576 0.026761344
0.07073773 -0.25740394 0.18955934 0.06826048 0.1232217 0.14757194 0.09499707 -0.011076282
0.23133028 0.11738728 0.0004307987 0.046269096 -0.11716719 0.14655656 -0.031061938 -0.3254981
-0.16220173 0.019680401 0.060132306 -0.29393575 -0.11031333 0.09685344 -0.09349878 -0.006169083
0.27291197 -0.07063333 -0.010156727 -0.08612864 0.022997143 -0.10411481 0.3588031 -0.16453128
0.22840741 -0.16514392 -0.041743036 -0.17938548 -0.13504317 0.043903496 -0.07975241 -0.09128801
-0.009825519 -0.11323179 0.041900344 -0.26184183 0.009767765 0.10526499 0.09603917 0.14267889
-0.06014467 -0.024750287 0.19198912 -0.19860883 -0.16308191 -0.013705121 0.2016768 -0.047531825
-0.2947009 -0.012206618 0.11859698 -0.16638365 0.16986659 -0.1137769 -0.041519366 0.21733728
0.14955594 -0.056897983 -0.119106285 -0.099533595 0.08923347 -0.10285596 0.08330366 -0.02063966
0.07361483 -0.31041005 0.037686855 -0.06906581 -0.055045374 -0.1181993 -0.0880716 -0.06730272
0.013165488 -0.06525162 -0.003465906 -0.17205636 -0.03616343 0.023242012 -0.079515845 0.13115864
0.04168092 0.2518098 -0.047013525 -0.13015926 -0.13897082 0.042059384 0.12434054 0.27017805
0.20058629 0.07135764 0.10657019 0.08277076 0.15574199 0.0002765215 0.12684263 0.15706801
0.06828587 -0.1582296 -0.03331585 -0.02847503 0.18808195 0.17553227 0.15553688 -0.02179283
0.29146358 -0.075953245 -0.10597018 0.070436805 0.19516435 -0.069220684 -0.018044237 -0.05712562
0.10090528 0.09557421 0.14185722 -0.26964462 -0.20246457 0.061834317 -0.12967733 -0.007632349
0.112444244 0.026386905 0.03732119 -0.14586237 0.008088764 -0.067160346 0.2533655 0.18022487
0.18311103 0.028564518 0.15323302 0.04641893 0.32308406 -0.2260646 -0.08949485 0.039398484
00000000: 3f0a 873e cf39 01bd 2800 b93c 7be6 8cbe
00000010: 3c70 063e 3d0c f6bd a280 48bd 9add 02be
00000020: b34f c03d 7fb2 463e b7fd 64be 7a6d 5f3e
00000030: 55e6 133d 430c f8bd 25cb f4bd 8a90 90bd
00000040: 88d2 26be d996 1d3d e554 b63d 3ee4 1e3e
00000050: 0b96 663d a158 223e 018e 013c 2c32 efbc
00000060: a1a2 853e e6e5 7a3d ad35 94bd 8e26 0a3c
00000070: 23cc 9cbd 3ae1 063e 0f4d 0b3e 0472 97be
00000080: c960 8fbe 9b25 06be 4c15 51bd 1f37 4f3e
00000090: 8efc 31be 6a37 efbd 3073 c0bd fe6d a0bc
000000a0: 3389 833e 4654 74be a5d3 0d3d ea42 77bc
000000b0: 36c3 4c3d 3791 5a3e 8407 313d a125 573e
000000c0: e3c8 5bbd 6a06 debd 6e5e a03d 54ec bebd
000000d0: b1ca 8d3d 8b76 d8bd 829d 41be 2cea c43c
000000e0: 4d35 acbb 555f 733e d858 d0bd c8f2 fe3c
000000f0: 09b8 eebd e8d6 093e 4e70 183e 256e 063e
00000100: c617 7dbd f900 7d3e 03b3 0d3c 84e1 4a3c
00000110: cf16 49bb 6701 c93b e0d5 6dbe 49d7 54be
00000120: c3d3 1abc dd71 b1bc 5482 453d 45bd 47be
00000130: 49d2 8d3e 3db6 96bd 0cb3 71bd bedb 85bd
00000140: 5541 c23c 793e 3cbe a7c8 553c f37e 163d
00000150: 53a6 283d 5e73 e03d 708f 053e 7b62 f3bd
00000160: e46c 20bd 59d9 9a3c 39c2 913d 7f03 12bc
00000170: 6e47 713e 75a8 fbbd 4e2c 39bd b4f6 97bd
00000180: 824d 2b3d 07f3 ca3d 573b 113d 4f0b f13c
00000190: 0bae 56bd fe54 cdbd abce b1bc 9a8b a33d
000001a0: 6aa3 f73c e80e 813d d428 813d 2a4e 5d3c
000001b0: 5cd8 4d3c ac3b 65bd 301c 43bc 9b3a db3c
000001c0: f1de 903d 73ca 83be d81b 423e 27cc 8b3d
000001d0: a95b fc3d 191d 173e d38d c23d 4b79 35bc
000001e0: d8e1 6c3e be68 f03d d3dc e139 aa84 3d3d
000001f0: 5af5 efbd ec12 163e 9b75 febc b0a7 a6be
00000200: 3618 26be cb38 a13c 4b4d 763d bf7e 96be
00000210: f5eb e1bd 195b c63d 4a7c bfbd 0526 cabb
00000220: 1ebb 8b3e 35a8 90bd 6768 26bc 3664 b0bd
00000230: 8164 bc3c 253a d5bd 0ab5 b73e e37a 28be
00000240: a2e3 693e 7d1b 29be bffa 2abd d4b0 37be
00000250: c248 0abe 27d4 333d 3b55 a3bd 35f5 babd
00000260: 37fb 20bc 12e6 e7bd b29f 2b3d 2210 86be
00000270: fa08 203c 2c95 d73d 2fb0 c43d 6a1a 123e
00000280: 425a 76bd 1dc1 cabc cc98 443e 1d60 4bbe
00000290: f2fe 26be 728b 60bc 5d84 4e3e bbb0 42bd
000002a0: 09e3 96be 44fe 47bc f9e2 f23d 7a60 2abe
000002b0: 82f1 2d3e dd03 e9bd 3610 2abd aa8d 5e3e
000002c0: 3125 193e dc0d 69bd ffed f3bd 45d8 cbbd
000002d0: 0ac0 b63d 25a6 d2bd 1c9b aa3d 8114 a9bc
000002e0: 5fc3 963d 11ee 9ebe 885d 1a3d 6072 8dbd
000002f0: 4277 61bd 7912 f2bd e25e b4bd 02d6 89bd
00000300: 0fb4 573c a4a2 85bd 4124 63bb 8b2f 30be
00000310: 1b20 14bd 0866 be3c 34d9 a2bd 734e 063e
00000320: 9db9 2a3d 37ed 803e 4191 40bd 7848 05be
00000330: 5e4e 0ebe 7646 2c3d 41a6 fe3d c754 8a3e
00000340: 7e66 4d3e f423 923d 7941 da3d b783 a93d
00000350: d47a 1f3e 16fa 9039 09e3 013e 70d6 203e
00000360: 76d9 8b3d f106 22be 3376 08bd 7744 e9bc
00000370: 8e98 403e bbbe 333e 0f45 1f3e e186 b2bc
00000380: b73a 953e 608d 9bbd e506 d9bd 2c41 903d
00000390: 2ad9 473e 93c3 8dbd 82d1 93bc 8efc 69bd
000003a0: 6da7 ce3d 69bc c33d 0543 113e dc0e 8abe
000003b0: df52 4fbe fb45 7d3d 22ca 04be c918 fabb
000003c0: 2b49 e63d 5a29 d83c 1bde 183d f25c 15be
000003d0: bc86 043c 5d8b 89bd 1fb9 813e de8c 383e
000003e0: 7581 3b3e 2300 ea3c 1ee9 1c3e c721 3e3d
000003f0: 466b a53e 7a7d 67be 1349 b7bd 4e60 213d

mid_part.2.bias f4 [12]
0.0065553063 0.009318721 -0.0039549116 0.0025306758 0.034231875 -0.0068244976 -0.0049508438 0.0004236218
0.013783864 0.00073895656 0.024742907 0.029493453
00000000: e5cd d63b 8cad 183c 3498 81bb b2d9 253b
00000010: b936 0c3d 09a0 dfbb b03a a2bb 8e19 de39
00000020: b7d5 613c 89b6 413a a3b1 ca3c 419c f13c

mid_part.3.weight f4 [12]
-0.20418903 0.24543847 0.26153842 0.96803755 0.4593875 0.25198543 0.59050554 0.13291743
0.22473454 0.7351896 0.2665277 0.26478496
00000000: ee16 51be 3954 7b3e 5de8 853e 4fd1 773f
00000010: d734 eb3e 3c04 813e 5f2b 173f 821b 083e
00000020: d020 663e 6335 3c3f 5276 883e e591 873e

mid_part.4.weight f4 [12, 12, 3, 3]
0.017814316 -0.06633235 0.21973033 0.30347407 -0.06041576 0.120860085 -0.16464663 0.07648161
-0.09880035 -0.20852701 -0.116027884 0.33654743 -0.053028557 0.16001986 -0.1614645 -0.112205446
0.010515937 0.23091592 -0.14642972 0.15125464 0.002545694 0.13201731 -0.02256765 -0.074940324
-0.051251758 0.17993708 0.15691984 -0.07803696 -0.29517514 0.028652817 0.18056826 -0.14882785
-0.26211444 -0.14098287 0.17819417 0.09865247 -0.12783785 0.14970331 0.10681477 -0.22106136
0.36544928 0.026033914 -0.28510052 0.041430924 0.1534557 -0.01853792 -0.072411045 0.114415735
-0.23278509 0.071487114 -0.3457091 0.05739114 0.24495755 -0.13613048 0.13816407 -0.24145502
-0.085891865 0.094595626 -0.0040767672 -0.14075015 -0.0275677 -0.27694646 0.2920896 0.06563575
-0.11108521 0.1869698 -0.036549166 0.050077494 0.112818874 -0.21412122 -0.106037945 -0.071270555
-0.034352396 0.024578052 -0.09119088 -0.1676257 0.005208156 0.021654963 0.03972279 -0.05701714
0.18007317 0.096366495 -0.0155626675 0.20937918 0.107463494 0.14719047 -0.0348311 0.07570251
0.16849248 -0.33608818 0.06131312 0.20213588 -0.034011558 0.19314535 -0.18443565 0.062132757
-0.06974007 0.030050881 0.01113604 0.22146848 -0.036145102 0.2974592 -0.32561702 0.25846714
-0.47039136 -0.0056741512 0.16032562 0.2968741 0.12118005 -0.22285175 -0.048188325 0.27238587
0.08788413 0.097366095 0.2902976 -0.23959875 0.03850788 -0.022030653 0.06385659 -0.03765468
0.29027846 0.057176523 0.32507703 -0.24420662 -0.2525909 -0.080328085 -0.20635536 0.12198936
-0.049915362 -0.46047947 -0.17040691 -0.049041346 -0.54221314 -0.18366705 0.10315164 0.01924266
0.16790596 0.23279868 0.17258245 0.333237 0.06262573 0.3677753 0.34190384 -0.09817222
-0.024493465 -0.027263591 -0.031590953 -0.1893826 -0.016944375 0.0034895183 -0.34091395 -0.049503516
-0.029026972 -0.030285317 -0.18755762 0.2851204 -0.24385594 -0.04639235 0.13785174 -0.12522206
0.03305995 -0.06731531 0.26648772 -0.04103821 -0.05318366 0.36409226 -0.091198795 0.023076607
0.12504883 -0.041402265 -0.25349402 0.33548096 -0.24597406 -0.24087608 -0.04417497 -0.002951834
0.07567993 0.16340877 0.13512002 0.4264835 -0.067784615 -0.2664228 -0.16553369 -0.017026965
-0.1149912 0.086138465 0.20009743 0.29093057 0.11875299 -0.41631666 0.12591967 -0.15125084
0.19378674 0.22623298 -0.034857478 0.036995772 -0.0134678045 0.10326345 -0.10541162 -0.3656801
-0.0125176525 0.40432218 0.39761654 0.13278206 -0.40199128 -0.24531725 0.14292558 -0.23361838
-0.25504714 -0.28782392 -0.19390552 0.0596948 0.0017577419 0.5990744 0.36500722 0.2668789
0.19978818 -0.19414443 0.15218616 0.07528679 0.038065482 -0.011891077 -0.14666004 0.30410862
0.04487139 0.22077985 0.014218547 0.17215864 -0.02226199 0.030396828 0.10241059 -0.0036082263
0.07547161 0.014453509 -0.10138102 0.050214365 0.17469397 -0.04086953 0.16818443 0.15068306
0.03446571 -0.016417183 -0.18521732 -0.32713145 -0.13274497 -0.08393118 0.045117702 0.1963022
0.16563822 0.16185774 -0.17308123 0.07863541 -0.040106572 -0.3569766 -0.18131863 -0.13968424
00000000: 54ef 913c 41d9 87bd fd00 613e f460 9b3e
00000010: 8476 77bd 7e85 f73d 2099 28be 64a2 9c3d
00000020: d757 cabd 1b88 55be 07a0 edbd f24f ac3e
00000030: 7934 59bd 3fdc 233e f356 25be f8cb e5bd
00000040: 094b 2c3c 3975 6c3e acf1 15be 7fe2 1a3e
00000050: a8d5 263b 8c2f 073e cbdf b8bc 507a 99bd
00000060: 5ded 51bd 6d41 383e 98af 203e d7d1 9fbd
00000070: 3221 97be 50b9 ea3c e3e6 383e 5466 18be
00000080: dd33 86be d05d 10be 8878 363e 4e0a ca3d
00000090: ede7 02be d34b 193e b4c1 da3d e95d 62be
000000a0: 2b1c bb3e 1345 d53c b2f8 91be 79b3 293d
000000b0: 7e23 1d3e d6dc 97bc 3e4c 94bd cc52 ea3d
000000c0: 375f 6ebe d667 923d c800 b1be f912 6b3d
000000d0: 27d6 7a3e ca65 0bbe e27a 0d3e fc3f 77be
000000e0: 13e8 afbd 5abb c13d 6796 85bb cf20 10be
000000f0: a8d5 e1bc edcb 8dbe c58c 953e 096c 863d
00000100: a580 e3bd 0375 3f3e 94b4 15bd 0f1e 4d3d
00000110: 950d e73d 9842 5bbe 6c2a d9bd 4cf6 91bd
00000120: 19b5 0cbd e957 c93c 49c2 babd 12a6 2bbe
00000130: 2ea9 aa3b c065 b13c 5db4 223d ce8a 69bd
00000140: 1a65 383e cc5b c53d 8ffa 7ebc 7f67 563e
00000150: d215 dc3d 19b9 163e 0eab 0ebd eb09 9b3d
00000160: 4b89 2c3e c013 acbe 7723 7b3d b5fc 4e3e
00000170: b44f 0bbd e5c7 453e b3dc 3cbe eb7e 7e3d
00000180: e2d3 8ebd 442d f63c f073 363c a2c8 623e
00000190: e30c 14bd 924c 983e 46b7 a6be ce55 843e
000001a0: 23d7 f0be 3bee b9bb 662c 243e e2ff 973e
000001b0: 3f2d f83d 4033 64be 1f61 45bd 2976 8b3e
000001c0: 98fc b33d e067 c73d e3a1 943e 6059 75be
000001d0: 70ba 1d3d a179 b4bc 3ec7 823d cb3b 1abd
000001e0: 619f 943e ee31 6a3d 7f70 a63e 4d11 7abe
000001f0: 9853 81be 0d83 a4bd d24e 53be 8fd5 f93d
00000200: 0d74 4cbd f7c3 ebbe 267f 2ebe 94df 48bd
00000210: 7bce 0abf 3713 3cbe 2b41 d33d c8a2 9d3c
00000220: 8aef 2b3e c762 6e3e 74b9 303e 0a9e aa3e
00000230: eb41 803d 0b4d bc3e 050e af3e 840e c9bd
00000240: 85a6 c8bc e557 dfbc 8465 01bd 83ed 41be
00000250: eece 8abc 67b0 643b 468c aebe 33c4 4abd
00000260: f9c9 edbc ea18 f8bc 1b0f 40be 4dfb 913e
00000270: 5fb5 79be e805 3ebd 0229 0d3e 363a 00be
00000280: df69 073d 9cdc 89bd 1471 883e af17 28bd
00000290: 1cd7 59bd 4d6a ba3e 6fc6 babd 270b bd3c
000002a0: cd0c 003e 6c95 29bd f8c9 81be 29c4 ab3e
000002b0: a0e0 7bbe 38a8 76be d0f0 34bd 8e73 41bb
000002c0: 14fe 9a3d a154 273e e75c 0a3e 0c5c da3e
000002d0: a9d2 8abd 9268 88be aa81 29be 227c 8bbc
000002e0: 8280 ebbd 5d69 b03d 57e6 4c3e daf4 943e
000002f0: c534 f33d 7527 d5be 16f1 003e 80e1 1abe
00000300: 0870 463e 9ea9 673e b7c6 0ebd e188 173d
00000310: 11a8 5cbc ca7b d33d 0ce2 d7bd 6c3a bbbe
00000320: d716 4dbc 5103 cf3e 6594 cb3e 05f8 073e
00000330: cdd1 cdbe 7234 7bbe 155b 123e a839 6fbe
00000340: 8a95 82be a85d 93be 2b8f 46be 8982 743d
00000350: 0864 e63a f15c 193f 3ae2 ba3e 5aa4 883e
00000360: 4695 4c3e cccd 46be b0d6 1b3e f62f 9a3d
00000370: 8dea 1b3d cbd2 42bc 0d2e 16be 20b4 9b3e
00000380: 10cb 373d 1d14 623e e9f4 683c 5b4a 303e
00000390: c75e b6bc c502 f93c a5bc d13d fe77 6cbb
000003a0: dc90 9a3d 69ce 6c3c daa0 cfbd 94ad 4d3d
000003b0: fae2 323e cf66 27bd 8a38 2c3e a94c 1a3e
000003c0: eb2b 0d3d 547d 86bc 9ca9 3dbe c67d a7be
000003d0: 4cee 07be 1ce4 abbd 57cd 383d 7203 493e
000003e0: 119d 293e 09be 253e 353c 31be 9a0b a13d
000003f0: ca46 24bd a3c5 b6be 97ab 39be 6309 0fbe

mid_part.4.bias f4 [12]
0.052530877 0.008503239 -0.025647575 0.019687066 0.00029265872 -0.0045551686 -3.927091e-05 0.012024766
0.025521064 0.009770501 -0.028001692 -0.013107525
00000000: 9e2a 573d 2b51 0b3c dd1a d2bc c546 a13c
00000010: fd6f 9939 8643 95bb d2b6 24b8 8603 453c
00000020: 8d11 d13c 7414 203c ce63 e5bc f2c0 56bc

mid_part.5.weight f4 [12]
0.963335 0.65567786 0.36154607 0.26233345 2.009897 0.9511347 -0.25767872 0.032344237
0.6808672 1.3011105 0.43178406 0.25357556
00000000: 1f9d 763f 81da 273f 911c b93e 9250 863e
00000010: 27a2 0040 907d 733f 77ee 83be 647b 043d
00000020: 504d 2e3f ca8a a63f cd12 dd3e a8d4 813e

mid_part.6.weight f4 [12, 12, 3, 3]
0.059961013 -0.0648179 -0.020890402 0.039706733 0.12863936 0.17081687 -0.03488638 0.10065801
0.028721992 0.034067776 0.26424885 0.18758097 0.09551863 0.21503443 0.27057323 -0.0056549134
-0.28064582 0.05723317 0.073748484 -0.15928185 0.04214592 0.12564111 0.011445061 -0.07591994
-0.18982895 -0.137018 0.1758209 0.14549756 -0.11878067 -0.1900237 -0.041629996 0.09165084
0.10999524 0.087007426 -0.35713914 -0.16615966 -0.010185895 0.15626155 -0.07811774 0.17095606
0.12396992 -0.13559875 -0.04088194 0.175845 -0.037927702 -0.12901036 -0.40248752 0.097246855
0.2224884 0.008193568 0.054714486 0.09394364 0.11852931 0.17492232 0.17004822 -0.20716122
0.046113554 0.0929313 0.054805186 0.06586612 0.20943533 0.19261159 0.13525213 -0.11486306
-0.082640745 0.13991249 -0.038471494 -0.16345038 0.02656879 0.068485856 0.04513019 -0.18865262
-0.054975174 0.09426063 0.14313792 -0.03069197 0.05173408 -0.02112644 -0.07909883 -0.18604471
0.032195695 -0.034455623 0.1826741 0.0024216282 -0.16810909 0.06425006 0.18661137 -0.20069394
-0.12403888 -0.23647015 -0.087103345 0.15466276 0.10254306 -0.059577495 -0.22000344 0.110514455
-0.08346935 0.17617172 -0.037032947 0.10888973 0.05276939 0.056424513 0.062384203 -0.12819593
-0.008405952 0.1527577 -0.13176215 0.012721262 0.34676236 0.14618126 0.013844904 -0.1364338
-0.21070664 0.1431613 0.14191057 0.10022277 0.011723659 -0.10580716 -0.020709608 0.15274176
-0.03070396 0.14619592 0.06456282 0.16391729 -0.14854392 0.0075789094 0.12612492 0.024824474
0.014915572 0.17688677 0.059722606 0.1881129 -0.018103965 -0.09795497 0.015249403 0.11439671
0.029190455 -0.034715205 -0.11369601 0.14791687 0.01351081 -0.11526642 -0.21331786 0.051013622
0.05780734 -0.103123754 0.16557465 0.11700303 -0.044824306 -0.118388526 0.08791586 0.21526453
0.05472039 0.07265508 0.037154816 0.11408318 -0.19496667 0.021581367 -0.04352064 -0.008266905
0.028165516 0.05236791 0.16509685 0.005469328 0.02603467 0.03644467 0.096264645 -0.028761195
-0.07636375 -0.07815075 -0.07966401 0.15223074 -0.032288827 0.09510038 0.023106365 0.17576721
-0.22377667 -0.021819577 -0.023769556 -0.10575502 0.23439234 -0.29908875 0.1408471 -0.010649314
0.055580515 0.21484621 0.009009369 0.14370942 -0.038154565 0.091543265 0.004046845 0.05497852
0.15145922 0.22127856 -0.17172356 0.008369863 0.1547013 0.19945745 0.1040374 0.20608202
0.08539945 -0.20547247 -0.24988726 -0.042269953 0.1269224 -0.09999851 0.2985672 -0.07484238
-0.026006453 -0.03294471 0.053525567 0.0627375 0.0067491513 -0.24162745 -0.23194 0.0682355
-0.2781162 -0.03124313 -0.19981655 -0.013865718 -0.113822594 -0.08539928 0.2710856 0.17184927
-0.20281737 -0.14933497 -0.18830416 0.039703533 -0.13184334 0.041166835 -0.13151544 0.27700347
0.18809031 0.17895253 -0.12962663 0.13498887 0.008973668 0.06972734 0.007867281 -0.14464726
0.15951674 -0.14021069 -0.279075 0.14972164 0.09145903 0.016543653 0.16888833 0.14728352
-0.11622123 -0.16373686 -0.122121416 0.019881902 -0.2950864 -0.18329564 0.17258972 -0.05653588
00000000: ae99 753d 3fbf 84bd 5922 abbc 87a3 223d
00000010: 09ba 033e 9eea 2e3e 05e5 0ebd c925 ce3d
00000020: 624a eb3c a78a 0b3d a04b 873e 3a15 403e
00000030: 469f c33d fc31 5c3e 9388 8a3e da4c b9bb
00000040: cfb0 8fbe 546d 6a3d 7209 973d c81a 23be
00000050: 33a1 2c3d 10a8 003e 1184 3b3c ea7b 9bbd
00000060: 8562 42be 724e 0cbe 650a 343e 50fd 143e
00000070: 4843 f3bd 9395 42be 3784 2abd 70b3 bb3d
00000080: 2f45 e13d f330 b23d f1da b6be c225 2abe
00000090: bde2 26bc 0703 203e 32fc 9fbd 1b0f 2f3e
000000a0: f1e3 fd3d 66da 0abe d273 27bd b610 343e
000000b0: 145a 1bbd 4b1b 04be d812 cebe 5c29 c73d
000000c0: 00d4 633e 513e 063c 4c1c 603d 8665 c03d
000000d0: 7fbf f23d d61e 333e 1f21 2e3e 1222 54be
000000e0: 91e1 3c3d c452 be3d 677b 603d d1e4 863d
000000f0: 3776 563e f93b 453e 897f 0a3e 533d ebbd
00000100: 8d3f a9bd 3845 0f3e 4994 1dbd 895f 27be
00000110: cba6 d93c 5042 8c3d 6fda 383d 272e 41be
00000120: a62d 61bd b80b c13d bf92 123e ba6d fbbc
00000130: 1de7 533d 5b11 adbc 91fe a1bd 8182 3ebe
00000140: a2df 033d 5721 0dbd eb0e 3b3e 2eb4 1e3b
00000150: ca24 2cbe 8995 833d 0d17 3f3e b682 4dbe
00000160: 1908 febd 3b25 72be 3d63 b2bd ea5f 1e3e
00000170: 1902 d23d 8807 74bd 9548 61be 6755 e23d
00000180: fbf1 aabd 5c66 343e dcaf 17bd 9401 df3d
00000190: b724 583d 641d 673d 9486 7f3d cb45 03be
000001a0: 1eb9 09bc 846c 1c3e a8ec 06be d76c 503c
000001b0: d68a b13e 8ab0 153e bcd5 623c 4db5 0bbe
000001c0: 7bc3 57be e098 123e 0151 113e 9841 cd3d
000001d0: 9714 403c 6db1 d8bd 32a7 a9bc 5668 1c3e
000001e0: df86 fbbc 62b4 153e 8339 843d efd9 273e
000001f0: e61b 18be 8058 f83b e426 013e b25c cb3c
00000200: 7160 743c ce21 353e b19f 743d aba0 403e
00000210: c44e 94bc 9e9c c8bd a2d8 793c d348 ea3d
00000220: d220 ef3c 8831 0ebd 74d9 e8bd 8577 173e
00000230: 725c 5d3c cd10 ecbd ff6f 5abe a9f3 503d
00000240: 64c7 6c3d 8c32 d3bd 678c 293e 499f ef3d
00000250: b199 37bd af75 f2bd 3b0d b43d 4e6e 5c3e
00000260: 7d22 603d 30cc 943d a62f 183d 71a4 e93d
00000270: 58a5 47be 68cb b03c b342 32bd ea71 07bc
00000280: 5ebb e63c bc7f 563d 260f 293e 0c38 b33b
00000290: a946 d53c 0247 153d 6626 c53d 999c ebbc
000002a0: 9964 9cbd 800d a0bd e226 a3bd 60e2 1b3e
000002b0: 4a41 04bd fdc3 c23d 8f49 bd3c 52fc 333e
000002c0: b625 65be f8be b2bc 5fb8 c2bc 1796 d8bd
000002d0: 8c04 703e 2922 99be 393a 103e 767a 2ebc
000002e0: 65a8 633d a500 5c3e 089c 133c 9028 133e
000002f0: f647 1cbd 097b bb3d 659b 843b 2831 613d
00000300: 2018 1b3e d996 623e 4dd8 2fbe c021 093c
00000310: 056a 1e3e 933e 4c3e 8f11 d53d 2a07 533e
00000320: e8e5 ae3d 6067 52be 72e2 7fbe 4223 2dbd
00000330: f2f7 013e 05cc ccbd cddd 983e f646 99bd
00000340: 7c0b d5bc 08f1 06bd a03d 5b3d 857c 803d
00000350: fc27 dd3b 306d 77be ae81 6dbe 0ebf 8b3d
00000360: 3f65 8ebe 98f1 ffbc b69c 4cbe 092d 63bc
00000370: d21b e9bd d1e5 aebd bbcb 8a3e 41f9 2f3e
00000380: 5baf 4fbe 44eb 18be ced2 40be 2ca0 223d
00000390: f101 07be 8e9e 283d fcab 06be 66d3 8d3e
000003a0: bf9a 403e 553f 373e d8bc 04be 863a 0a3e
000003b0: 4b06 133c 35cd 8e3d c5e5 003c 691e 14be
000003c0: 5b58 233e 6493 0fbe ebe2 8ebe a150 193e
000003d0: df4e bb3d 8e86 873c 10f1 2c3e 7ed1 163e
000003e0: 6505 eebd a3aa 27be cb1a fabd 5fdf a23c
000003f0: 9115 97be dab1 3bbe 5cbb 303e 2b92 67bd

mid_part.6.bias f4 [12]
0.0205101 0.007990539 0.028513728 0.00574179 0.019081516 0.047642633 0.052073643 0.045001563
-0.0018361647 0.0024992032 0.055819828 -0.050483063
00000000: cc04 a83c c0ea 023c 9f95 e93c a025 bc3b
00000010: d750 9c3c ec24 433d 2c4b 553d 8f53 383d
00000020: 77ab f0ba acc9 233b 55a3 643d 54c7 4ebd

mid_part.7.weight f4 [12]
0.35763425 0.91313326 0.29675674 0.27743062 -0.07224252 1.2164961 0.6143332 0.23782246
0.2788166 0.20175707 -0.31410363 0.22356063
00000000: d61b b73e 1ac3 693f 80f0 973e 630b 8e3e
00000010: e3f3 93bd 25b6 9b3f f144 1d3f bb87 733e
00000020: 0dc1 8e3e 6899 4e3e 31d2 a0be 14ed 643e

mid_part.8.weight f4 [12, 12, 3, 3]
0.1028472 -0.11120363 -0.19234619 -0.08131948 0.23616302 0.13353117 -0.30269757 0.1410784
-0.0695587 -0.045162413 0.035047915 0.06892419 0.08936338 0.31208527 0.038467646 0.19715668
0.05601523 -0.056162633 0.08555902 -0.03978014 -0.009262529 -0.22556762 -0.032637242 -0.023393605
0.0577969 -0.18272296 -0.004639208 -0.059494406 -0.08388426 0.029044647 -0.16901729 -0.06376551
0.106754676 0.0078072017 -0.10857166 -0.19298796 -0.020274192 -0.013581783 0.019221887 0.10787481
-0.015058998 0.22877425 -0.08745837 0.057412755 -0.022900645 0.066355854 0.15149695 0.048230425
-0.16685686 0.06868025 0.03257575 0.33821568 -0.16282605 0.091216244 0.11764413 -0.34506202
0.03604877 0.046523336 -0.030802695 -0.04863298 -0.11083248 -0.11726688 0.044213638 -0.01702663
0.30880335 0.011310003 0.0479073 0.20400552 -0.09069084 -0.17659774 -0.008153082 -0.21470688
-0.24832366 0.036151953 0.05876895 0.015203026 0.18413529 -0.1494362 -0.05227622 -0.13096718
-0.13056932 0.08030356 -0.062993824 -0.13768159 -0.14062862 -0.051960114 -0.025842935 0.22834311
-0.039059576 -0.0016434237 0.016033739 0.15648201 0.018532353 -0.06532651 -0.03582624 0.045070913
0.0811316 0.08438255 -0.049052823 0.18219198 0.40959573 -0.19702177 0.43916193 -0.011286495
0.20855236 -0.19597496 0.12999642 0.23532648 0.11303641 -0.09368842 -0.15068144 0.22686832
0.15327314 0.0132879 0.0682198 -0.26173553 -0.22841977 0.052954264 -0.14953415 0.012535875
0.122293204 0.2088724 -0.2437623 -0.16409981 0.0035315286 -0.103674605 0.062318504 -0.022573994
0.09189818 0.056802426 -0.27297682 0.24731262 -0.11369654 0.072303794 0.018302474 -0.04695557
0.35693374 0.04830982 0.13459814 -0.0046842196 0.07526382 -0.18081395 0.06632919 0.1095957
0.15416746 0.0055968235 -0.102345206 0.04130028 0.19475892 -0.29593074 0.15704535 -0.32882383
0.06569615 0.15123095 0.153927 -0.028469533 0.079914056 0.2243812 0.06851658 -0.2074353
-0.054074213 -0.010759674 -0.03921833 -0.009670688 0.16140057 0.114219606 0.01898233 0.052621763
-0.025806604 -0.04541189 0.06962464 0.16640347 0.2112463 0.13181153 0.12304705 -0.35485557
0.05920712 0.03665254 -0.052074898 0.0678095 0.08583598 -0.006493355 -0.002924048 0.06503748
-0.132105 0.046146333 0.28515026 -0.0818271 0.101876356 0.28329676 0.015158852 0.010374171
0.23994078 0.041172728 0.23173004 0.18956564 -0.006201427 0.058937103 0.0061150435 -0.037576433
0.07729631 -0.009383244 -0.16996709 -0.13185202 -0.09614044 0.0767751 0.18424293 0.17640953
-0.20365739 0.1051057 0.15923272 0.06355273 0.081899144 -0.015709013 0.0021504685 0.19883442
-0.053641126 0.17082123 0.09990857 -0.009442395 0.07714931 -0.11557661 0.05283641 0.11811159
0.14325161 0.06553551 0.05722659 0.18983026 0.02076896 0.1841178 -0.12455056 0.09534287
0.082364686 -0.12664258 -0.0066423053 -0.029013645 -0.16111979 -0.0536699 -0.17792135 0.023022026
-0.047659285 -0.03695883 -0.028611144 -0.20910159 -0.07791859 -0.06894501 0.23196623 0.080563754
-0.20083392 0.0479976 -0.05374753 0.004308929 0.069791116 0.042248912 -0.2677958 0.17953713
00000000: 8ea1 d23d bbbe e3bd 66f6 44be d48a a6bd
00000010: b8d4 713e 65bc 083e 2dfb 9abe db76 103e
00000020: cb74 8ebd 39fc 38bd 678e 0f3d 2028 8d3d
00000030: 2604 b73d a4c9 9f3e 4090 1d3d 71e3 493e
00000040: 3a70 653d ca0a 66bd 9139 af3d 80f0 22bd
00000050: ddc1 17bc 33fb 66be a1ae 05bd f2a3 bfbc
00000060: 71bc 6c3d ba1b 3bbe 7f04 98bb 68b0 73bd
00000070: 83cb abbd 0aef ed3c de12 2dbe 7e97 82bd
00000080: 32a2 da3d 8ed3 ff3b d25a debd a39e 45be
00000090: 1016 a6bc 2086 5ebc 3877 9d3c 78ed dc3d
000000a0: 04ba 76bc cc43 6a3e 601d b3bd a329 6b3d
000000b0: 229a bbbc 94e5 873d 0422 1b3e 448d 453d
000000c0: 86dc 2abe 3ba8 8c3d 266e 053d 9b2a ad3e
000000d0: dfbb 26be 95cf ba3d 68ef f03d f8ab b0be
000000e0: e0a7 133d 418f 3e3d ef55 fcbc 6033 47bd
000000f0: 24fc e2bd 9e29 f0bd 5c19 353d 6e7b 8bbc
00000100: 791b 9e3e 974d 393c 723a 443d d3e6 503e
00000110: 1ebc b9bd 0ad6 34be 8194 05bc 1fdc 5bbe
00000120: 8f48 7ebe 1214 143d b6b7 703d 1d16 793c
00000130: f68d 3c3e ce05 19be 971f 56bd 431c 06be
00000140: f7b3 05be 3176 a43d e802 81bd 67fc 0cbe
00000150: f300 10be 21d4 54bd 90b4 d3bc c7d2 693e
00000160: effc 1fbd 2668 d7ba 3059 833c d23c 203e
00000170: 29d1 973c e8c9 85bd 89be 12bd 479c 383d
00000180: 5328 a63d c2d0 ac3d 9deb 48bd 8990 3a3e
00000190: 88b6 d13e 13c0 49be d5d9 e03e feea 38bc
000001a0: c08e 553e a9ad 48be c81d 053e 6df9 703e
000001b0: a27f e73d b7df bfbd 3c4c 1abe 2b50 683e
000001c0: a2f3 1c3e 7eb5 593c d3b6 8b3d 3302 86be
000001d0: dfe6 69be 92e6 583d 7b1f 19be 4563 4d3c
000001e0: dc74 fa3d a5e2 553e d39c 79be c809 28be
000001f0: 3871 673b 5a53 d4bd b041 7f3d 19ed b8bc
00000200: 1d35 bc3d a9a9 683d 9ec3 8bbe 853f 7d3e
00000210: bbd9 e8bd 0314 943d 12ef 953c 7c54 40bd
00000220: 05c0 b63e 85e0 453d 18d4 093e 157e 99bb
00000230: eb23 9a3d 4b27 39be 99d7 873d b673 e03d
00000240: 13de 1d3e 8f65 b73b 5d9a d1bd 7b2a 293d
00000250: e26e 473e 3c84 97be 7fd0 203e 995b a8be
00000260: b48b 863d 49dc 1a3e 0a9f 1d3e f038 e9bc
00000270: fba9 a33d 2fc4 653e 6c52 8c3d eb69 54be
00000280: ec7c 5dbd 5849 30bc 66a3 20bd ce71 1ebc
00000290: 3146 253e f8eb e93d d580 9b3c eb89 573d
000002a0: 5f68 d3bc d101 3abd 5d97 8e3d ac65 2a3e
000002b0: f350 583e 9af9 063e 1700 fc3d a1af b5be
000002c0: 2a83 723d f920 163d 7d4c 55bd b5df 8a3d
000002d0: c6ca af3d 36c6 d4bb 63a1 3fbb 5f32 853d
000002e0: 8846 07be f003 3d3d 37ff 913e f794 a7bd
000002f0: 8da4 d03d 460c 913e d55c 783c 6df8 293c
00000300: 09b3 753e bca4 283d a44a 6d3e 7f1d 423e
00000310: 5735 cbbb 0868 713d b460 c83b bfe9 19bd
00000320: 874d 9e3d 2ebc 19bc da0b 2ebe 3704 07be
00000330: 47e5 c4bd 433c 9d3d 2eaa 3c3e b3a4 343e
00000340: 908b 50be a841 d73d e70d 233e ef27 823d
00000350: bdba a73d 30b0 80bc e0ee 0c3b 409b 4b3e
00000360: ccb6 5bbd c3eb 2e3e dd9c cc3d 46b4 1abc
00000370: 7500 9e3d 6eb3 ecbd fe6a 583d 7de4 f13d
00000380: 8db0 123e 7b37 863d 6e66 6a3d dd62 423e
00000390: aa23 aa3c 6089 3c3e 5d14 ffbd 1f43 c33d
000003a0: d1ae a83d 98ae 01be b2a7 d9bb 06ae edbc
000003b0: 96fc 24be f8d4 5bbd 0431 36be b098 bc3c
000003c0: 6236 43bd 2462 17bd eb61 eabc ba1e 56be
000003d0: c893 9fbd 0b33 8dbd 8e88 6d3e 9cfe a43d
000003e0: 68a7 4dbe 2299 443d 5f26 5cbd eb31 8d3b
000003f0: a5ee 8e3d 320d 2d3d 881c 89be 95d8 373e

mid_part.8.bias f4 [12]
-0.0019816083 0.018333813 -0.0021576774 -0.023051854 0.0025701579 0.0016178066 0.0045903856 0.022289207
-0.01849568 0.0561022 0.02193391 0.01691851
00000000: dfdd 01bb cb30 963c d267 0dbb 3ed7 bcbc
00000010: 1870 283b 950c d43a f26a 963b db97 b63c
00000020: 4184 97bc 6ccb 653d beae b33c b098 8a3c

mid_part.9.weight f4 [12]
-0.84872884 -0.0028246746 0.16345727 0.26375973 0.38830632 1.2545143 -0.12388098 0.7893709
0.2674409 0.2648216 0.087239325 1.5219566
00000000: 4b46 59bf 2d1e 39bb 5861 273e 840b 873e
00000010: 16d0 c63e ed93 a03f 50b5 fdbd 3614 4a3f
00000020: 03ee 883e b296 873e 88aa b23d 79cf c23f

mid_part.10.weight f4 [56, 12, 1, 1]
-0.07747354 0.17960052 -0.052418962 -0.383267 -0.08817692 0.24979325 0.10083016 0.29701525
-0.16645278 -0.0841554 0.3679895 -0.12954731 0.068321094 0.16967922 0.07634692 -0.045984853
-0.2347078 0.31018132 -0.060993437 0.33033708 0.010746464 0.09783304 0.20578071 0.101608835
-0.052561425 0.122036576 0.004990601 -0.22519277 -0.33996287 -0.32304233 0.34485072 0.033373956
0.057520617 -0.16942085 -0.17806615 -0.0025706997 0.06264262 -0.2111353 -0.040562548 -0.13364677
-0.17667563 -0.34349555 0.32719454 0.5704115 -0.3018286 -0.035301287 0.11636107 0.16762292
-0.19295187 0.15829213 0.33950007 0.12229049 -0.061383583 0.18117137 -0.0694974 0.2343667
0.22510278 -0.08500986 0.14507508 -0.23731808 -0.16541179 -0.10710144 0.14287716 0.29937905
-0.17283875 0.010971633 -0.22504894 -0.18170516 0.16019103 -0.3292265 0.06672629 0.13795988
0.22477329 0.08453994 -0.33464256 -0.15164644 0.3396742 -0.2130948 -0.034890383 -0.082529806
0.306004 -0.21842378 0.03601825 -0.18435815 0.19110839 0.0051579443 0.15225686 0.37128007
0.04824869 -0.12725775 -0.30129066 -0.2393321 0.05488293 0.3875709 0.66871464 0.1614144
-0.08710552 0.1483585 -0.066268116 -0.048793666 0.21490614 -0.20820907 -0.03555826 0.05610907
-0.03166736 -0.25345474 0.10541558 0.117274806 -0.42482898 0.13265842 0.13458209 -0.14452657
0.10084047 -0.21554631 0.015092778 0.08044432 -0.1718311 -0.146159 -0.07503345 0.14794081
-0.051792953 -0.1574678 -0.060699772 -0.23491843 0.114016235 0.019702066 -0.07444464 -0.33141163
-0.15902169 0.17093556 0.14574736 -0.14260559 0.057784043 0.15055765 0.082520284 -0.3178964
0.042264283 0.1561565 0.13893908 0.05653081 -0.33631963 -0.027190868 -0.15553325 -0.06850689
0.06615443 0.2035024 -0.004786072 -0.04835312 0.0617644 0.05544601 -0.06588354 -0.02383561
0.23524968 0.33599108 -0.38325584 -0.19057217 -0.31685305 0.014283375 -0.20670334 -0.07476078
0.024978636 -0.14564939 0.0037212868 0.29749084 0.24144553 0.5627135 0.66564167 -0.3014832
-0.1588587 -0.012709849 -0.071724415 0.0414356 0.2848736 0.067443974 -0.014917498 -0.018919896
0.16450039 -0.004814824 -0.14660142 0.1382866 -0.16276059 0.14067402 -0.37123933 -0.07686073
0.26389968 0.4058365 0.0026304421 -0.29877174 0.015395619 0.33745345 -0.34178892 0.18113767
0.22844137 0.21350336 -0.023653064 -0.15235367 0.13092773 -0.4000645 0.012741946 0.11064789
0.06644163 0.28987494 0.22334774 -0.09576625 0.045147542 0.13031068 0.06829157 -0.14006765
0.01444299 0.04695444 0.17125925 0.06287964 0.13592564 -0.17153165 0.11235097 -0.13186723
-0.15184152 -0.032800034 -0.08875313 -0.054229446 -0.077333875 0.2465576 0.09448411 0.132583
-0.2850056 -0.0037436672 -0.14380261 -0.11392718 0.04458066 0.0023177278 -0.033986926 -0.19660322
-0.0559158 -0.22668348 0.11385481 -0.407093 0.1801124 -0.396668 0.113707215 -0.2195178
-0.037652817 -0.123295076 -0.23475032 -0.25122035 -0.054723628 -0.11952083 0.04626952 0.1815637
0.049435392 0.00037336154 -0.5285024 -0.3031873 0.029964866 -0.07007292 0.029363655 -0.16312033
00000000: 73aa 9ebd 33e9 373e 44b5 56bd 923b c4be
00000010: 1a96 b4bd cdc9 7f3e 0b80 ce3d 6212 983e
00000020: 9972 2abe ab59 acbd 1f69 bc3e 0da8 04be
00000030: eeeb 8b3d 64c0 2d3e c65b 9c3d 9d5a 3cbd
00000040: 3e57 70be 16d0 9e3e 41d4 79bd f121 a93e
00000050: f011 303c b05c c83d 2eb8 523e 4b18 d03d
00000060: a64a 57bd 50ee f93d 3288 a33b ef98 66be
00000070: 9d0f aebe ce65 a5be 4690 b03e 21b3 083d
00000080: bd9a 6b3d a97c 2dbe f956 36be 2f79 28bb
00000090: c64a 803d da33 58be ea24 26bd b3da 08be
000000a0: 75ea 34be a6de afbe 0b86 a73e 7d06 123f
000000b0: 4789 9abe 1598 10bd b64e ee3d 58a5 2b3e
000000c0: 2d95 45be 5517 223e f4d2 ad3e 7073 fa3d
000000d0: 5a6d 7bbd fd84 393e a754 8ebd d3fd 6f3e
000000e0: 5881 663e a619 aebd 908e 143e 8303 73be
000000f0: b561 29be 0058 dbbd 644e 123e 3648 993e
00000100: a4fc 30be 5dc2 333c 3b73 66be eb10 3abe
00000110: 1e09 243e 6090 a8be cba7 883d 5b45 0d3e
00000120: f82a 663e 4723 ad3d 4556 abbe 3449 1bbe
00000130: c7e9 ad3e 8635 5abe 38e9 0ebd 6305 a9bd
00000140: 8eac 9c3e 7caa 5fbe df87 133d 62c8 3cbe
00000150: ebb1 433e f903 a93b 39e9 1b3e 6c18 be3e
00000160: 6ba0 453d db4f 02be c542 9abe 7913 75be
00000170: eccc 603d b16f c63e e230 2b3f d149 253e
00000180: 6164 b2bd 4aeb 173e 94b7 87bd dedb 47bd
00000190: 5b10 5c3e c234 55be 8aa5 11bd a0d2 653d
000001a0: a2b5 01bd d2c4 81be 20e4 d73d c62d f03d
000001b0: 2f83 d9be 9cd7 073e e3cf 093e c6fe 13be
000001c0: 7385 ce3d 2cb8 5cbe b347 773c febf a43d
000001d0: 7ef4 2fbe b4aa 15be 23ab 99bd cc7d 173e
000001e0: d924 54bd 3d3f 21be 53a0 78bd 758e 70be
000001f0: 5881 e93d 3a66 a13c 6e76 98bd c9ae a9be
00000200: 95d6 22be bb09 2f3e cc3e 153e 3307 12be
00000210: f6ae 6c3d c92b 1a3e 6500 a93d 51c3 a2be
00000220: 501d 2d3d 7de7 1f3e 0c46 0e3e da8c 673d
00000230: 1632 acbe 62bf debc 1c44 1fbe 574d 8cbd
00000240: f97b 873d ef62 503e 7bd4 9cbb ec0d 46bd
00000250: abfc 7c3d 5b1b 633d f3ed 86bd e642 c3bc
00000260: 4be5 703e 0607 ac3e 1c3a c4be 5a25 43be
00000270: 903a a2be d104 6a3c 0aaa 53be 2e1c 99bd
00000280: ff9f cc3c 1d25 15be d5e0 733b b850 983e
00000290: 7f3d 773e fe0d 103f 7e67 2a3f 025c 9abe
000002a0: dbab 22be f83c 50bc 40e4 92bd 60b8 293d
000002b0: f4da 913e 1120 8a3d 8668 74bc e6fd 9abc
000002c0: ca72 283e acc5 9dbb af1e 16be 019b 0d3e
000002d0: b6aa 26be da0c 103e 1513 bebe 2969 9dbd
000002e0: dc1d 873e cdc9 cf3e 7f63 2c3b 9cf8 98be
000002f0: e83d 7c3c b3c6 ac3e f5fe aebe 277c 393e
00000300: 89ec 693e a0a0 5a3e 12c4 c1bc 9a02 1cbe
00000310: eb11 063e 41d5 ccbe 98c3 503c 5c9b e23d
00000320: 8d12 883d 7d6a 943e 45b5 643e 1821 c4bd
00000330: a1ec 383d 2a70 053e 73dc 8b3d e56d 0fbe
00000340: 4aa2 6c3c 4d53 403d 965e 2f3e 0ac7 803d
00000350: 1730 0b3e fea5 2fbe 4418 e63d 3408 07be
00000360: 587c 1bbe 5459 06bd 33c4 b5bd b21f 5ebd
00000370: 3961 9ebd 9879 7c3e e380 c13d d7c3 073e
00000380: 41ec 91be 5058 75bb fe40 13be a752 e9bd
00000390: 369a 363d 05e5 173b e035 0bbd 5b52 49be
000003a0: f707 65bd b71f 68be b62c e93d 7e6e d0be
000003b0: 636f 383e 1118 cbbe 54df e83d 46c9 60be
000003c0: d739 1abd 2182 fcbd 6362 70be f49f 80be
000003d0: e225 60bd 56c7 f4bd 1c85 3d3d d6eb 393e
000003e0: c47c 4a3d bdbf c339 ef4b 07bf 5e3b 9bbe
000003f0: e178 f53c 6482 8fbd 0c8c f03c 0409 27be
