models/fsrcnn/track1/track1_x4__epoch_15.pth (torch, 57996 bytes, 22 tensors)

first_part.0.weight f4 [56, 1, 5, 5]
0	0xbb95cb15	-0.0045713284
1	0x3d20da97	0.039270964
2	0x3d01699e	0.031594865
3	0x3c023058	0.007946096
4	0xbc36e0e1	-0.011162014
5	0xbcf0528e	-0.02933624
6	0x3d205cea	0.03915111
7	0xbc173a41	-0.009230197
8	0xbce62ba9	-0.02809699
9	0x3b738a3a	0.0037161247
10	0x3d85b342	0.06528331
11	0xbcbd7be8	-0.023130372
12	0x3d4567a8	0.048194557
13	0x3ca936b7	0.020655973
14	0x3cc06e21	0.023490014
15	0x3cc12dd2	0.02358142
16	0xbc43283a	-0.011911446
17	0xbbe940f4	-0.0071183387
18	0x3dac4bfb	0.084129296
19	0xbab67dd6	-0.0013923
20	0x3c4e6468	0.012597181
21	0x3be67dd1	0.0070340415
22	0x3d87259b	0.065989695
23	0x3aa3f66f	0.0012509356
24	0xbd21b747	-0.039481428
25	0xbce09ea0	-0.027419388
26	0xbd13153b	-0.03590892
27	0xbd3005b9	-0.042974208
28	0x3bef07ec	0.0072946455
29	0x3d3c66a7	0.045996334
30	0xbd32c903	-0.04364873
31	0x3d1c454b	0.03815202
32	0xbd3e6b2d	-0.04648893
33	0xbc966f73	-0.01836369
34	0x3af10d0c	0.0018390729
35	0xbd1437c2	-0.036185987
36	0x3c6cc74f	0.014451816
37	0xbb810429	-0.0039372635
38	0xbb516af6	-0.0031954623
39	0xbd8f1cf8	-0.06987947
40	0xbadb77c5	-0.0016744068
41	0x3ccaafd9	0.024742054
42	0xbc3c2089	-0.011482366
43	0xbbb109bb	-0.0054027713
44	0xbc7131f8	-0.014721386
45	0x3d04e11f	0.032441255
46	0x399897bf	0.0002910476
47	0xbdc732b9	-0.097264715
48	0x3d387b1f	0.045039292
49	0xbb154dbf	-0.0022781936
50	0xbcd6f0b7	-0.026237829
51	0xbd3c8c15	-0.04603203
52	0xbc65b0d4	-0.01401921
53	0xbc6c58cc	-0.014425468
54	0x3ca3d196	0.0199974
55	0xbc1f8e8a	-0.009738574
56	0xbb412b3e	-0.0029475237
57	0xbcbdd9be	-0.023175117
58	0xbcdc7ffd	-0.026916498
59	0xbd988e55	-0.07449023
60	0xbd364594	-0.04449995
61	0xbdae4de0	-0.08510947
62	0xbd90a413	-0.07062545
63	0xbc90200e	-0.01759341
64	0xbd6b6813	-0.0574723
65	0x3d25d99e	0.04049074
66	0xbd76b216	-0.06022843
67	0xbd964fbe	-0.07339428
68	0xbd068cd2	-0.03284914
69	0xbc777152	-0.015102701
70	0xbd8ca31c	-0.06867048
71	0x3d2dbe35	0.042417724
72	0x3d1f1f86	0.038848422
73	0xbd33b5b7	-0.04387447
74	0xbc9fb86a	-0.019497115
75	0x3d1f1632	0.038839526
76	0xbae67b17	-0.0017584291
77	0x3d52e510	0.051487982
78	0x3c694ccd	0.014239502
79	0xbcc921c9	-0.024552243
80	0xbd3dbdc6	-0.04632356
81	0xbcb47f1f	-0.022033272
82	0xbaace20c	-0.0013189926
83	0xbd44cd25	-0.048047204
84	0xbbd830b9	-0.006597605
85	0x3be1379a	0.0068730833
86	0x3db5d069	0.08877642
87	0xbd297570	-0.041371763
88	0xbda60d6d	-0.081080295
89	0x3cba5170	0.02274391
90	0x3d494f1a	0.049147703
91	0xbd3dd820	-0.04634869
92	0xbd84fdc7	-0.06493717
93	0xbaca8952	-0.0015452302
94	0xba8b7e5e	-0.0010642519
95	0x3cdee011	0.027206453
96	0xbd828148	-0.06372315
97	0xbcb3380c	-0.021877311
98	0xbd44f3cd	-0.04808407
99	0xbdd33ac9	-0.10313947
100	0x3c487a60	0.012236208
101	0xbd17afc3	-0.037032854
102	0xbd01b317	-0.031664934
103	0xbda442f5	-0.080205835
104	0xbc1deb6a	-0.009638647
105	0xbc904194	-0.017609395
106	0x3d8aa5ed	0.06769929
107	0x3a84e799	0.0010139822
108	0x3d0d8c5d	0.03455769
109	0xbb4f6046	-0.0031643077
110	0x3b32b069	0.0027265793
111	0xbda65c3d	-0.08123062
112	0xbd4d7cc7	-0.050167825
113	0xbba97cf6	-0.005172367
114	0x3c2ef81c	0.010679271
115	0xbc76e2d2	-0.015068727
116	0xbdaab49d	-0.083352305
117	0xbd6cd523	-0.05782045
118	0xbd227d5e	-0.03967034
119	0x3d2665da	0.040624477
120	0xbd635902	-0.055504806
121	0xbc80e23c	-0.015732877
122	0x3d43cd93	0.047803473
123	0xbd93e966	-0.072222516
124	0x3c7e59f0	0.015524372
125	0xbda49aa7	-0.0803731
126	0xbd57838a	-0.05261568
127	0x3d37b9b7	0.044854846
128	0x3c8ac15a	0.0169379
129	0x3c7b296d	0.015329701
130	0x3ce54894	0.02798871
131	0xbd0777b3	-0.03307314
132	0xbc5cd7db	-0.013479198
133	0xbd6138f3	-0.05498595
134	0x3bbf2d73	0.0058342754
135	0xbd2fdca2	-0.04293502
136	0xbcf80585	-0.03027607
137	0x3d5a2d13	0.053265642
138	0x3ce5f524	0.028070994
139	0xbcd50019	-0.026001023
140	0x3d4806c0	0.048834562
141	0xbd5ff06c	-0.054672644
142	0x3c55eee1	0.013057441
143	0xbc96efd7	-0.018424911
144	0xbc87157d	-0.016489739
145	0x3d5a5735	0.053305823
146	0xbb5eea60	-0.003401421
147	0xbbcfb78b	-0.0063390187
148	0xbcbffb06	-0.023435127
149	0xbd03d41f	-0.032184716
150	0xbdbd36e3	-0.092389844
151	0x3cdb4301	0.026765348
152	0x3c366075	0.011131396
153	0x3d915497	0.07096212
154	0xbc60e6e4	-0.013726924
155	0xbc7597c5	-0.014989798
156	0x3c598d3b	0.013278301
157	0x3cc5457b	0.024080982
158	0xbd4dfd28	-0.050290257
159	0xbd55d362	-0.052203543
160	0xbc727376	-0.014798036
161	0xbd71149e	-0.058857553
162	0xbced67b8	-0.028980121
163	0xbc8dbc8f	-0.017301826
164	0x3d06a6be	0.03287386
165	0xbda71d6a	-0.08159907
166	0x3c885880	0.016643763
167	0xbd109f1f	-0.035308
168	0x3be91301	0.007112861
169	0xbc95006d	-0.01818868
170	0xbd8dc26e	-0.0692185
171	0x3c5a06b8	0.013307266
172	0xbb4215d5	-0.0029615064
173	0xbb848360	-0.0040439814
174	0xbd8ab309	-0.067724295
175	0x3d997afd	0.07494161
176	0xbd9d8148	-0.07690674
177	0x3d9b0534	0.07569352
178	0xbe08e5cb	-0.13368909
179	0xbb523e4f	-0.0032080596
180	0xbd0a14bb	-0.033711176
181	0x3d2d3617	0.042287912
182	0xbe003c55	-0.12523015
183	0x3d8fef32	0.07028045
184	0x3caee125	0.021347592
185	0x3d081576	0.03322359
186	0xbe160196	-0.14649042
187	0x3e944d50	0.28965235
188	0xbdb0c969	-0.08632166
189	0x3cd4fa1e	0.025998171
190	0xba91d783	-0.001112685
191	0xbdcc4e00	-0.09975815
192	0x3d15f4ec	0.03661053
193	0xbde14596	-0.109996006
194	0x3da5aeed	0.08090005
195	0x3e0dba01	0.13840486
196	0xbbf06323	-0.007336037
197	0x3cf2e85d	0.029651815
198	0xbc834ff1	-0.01602933
199	0x3c96937c	0.018380873
200	0x3cb105e5	0.021609256
201	0x3d4e164b	0.05031423
202	0xbbffc25d	-0.0078051523
203	0xbbeea8e6	-0.007283318
204	0x3cc8b46d	0.024500096
205	0x3c964f8e	0.018348482
206	0x3d39b4c2	0.0453384
207	0xbcdf40a2	-0.027252499
208	0x3cd87161	0.02642125
209	0xbc757c06	-0.014983183
210	0x3c253b4c	0.010084938
211	0xbd014565	-0.03156032
212	0x3db1db92	0.08684458
213	0xbab4809f	-0.0013771242
214	0xbca1f2df	-0.01976913
215	0xbc103386	-0.008801347
216	0x3c9dcdcc	0.01926317
217	0x3c5216db	0.012822832
218	0xbc7ee1e0	-0.0155567825
219	0xbd3a7f2d	-0.04553144
220	0x3cb5770e	0.022151496
221	0x3c8cdce3	0.01719517
222	0x3dc942ba	0.0982718
223	0xbd4e0925	-0.05030169
224	0x3c49f71e	0.012326984
225	0x3d9b1150	0.075716615
226	0xbd2106f6	-0.03931328
227	0xbd7c8266	-0.061647795
228	0x3d583246	0.05278232
229	0xbd6f9ed4	-0.05850108
230	0xbc53bf9e	-0.012924103
231	0x3c043fa7	0.0080718165
232	0x3d0f1be8	0.034938723
233	0xbd36f9f0	-0.044671953
234	0x3c8adf95	0.016952315
235	0x3c7e354d	0.015515638
236	0xbc3a4180	-0.0113681555
237	0x3da13879	0.078720994
238	0x3d782828	0.06058517
239	0x3d4232c6	0.047411703
240	0x3d50e6bf	0.051001307
241	0x3b4efa79	0.0031582399
242	0x3ca276a8	0.01983197
243	0xbd14ad64	-0.03629817
244	0x3d5c2897	0.053749647
245	0x3ce2ecea	0.02770086
246	0x3d14fe9d	0.03637563
247	0x3cf06a00	0.02934742
248	0x3d805b63	0.06267431
249	0x3d50327b	0.050829392
250	0xbcb4d440	-0.022073865
251	0x3cc21edd	0.023696357
252	0xbd3125b3	-0.043248843
253	0xbc07a28e	-0.008278502
254	0xbd4aa415	-0.049472887
255	0x3c458b00	0.012057066

first_part.0.bias f4 [56]
0	0xbc4421c1	-0.011970938
1	0xbad2cef6	-0.0016083408
2	0x3bd748f4	0.006569976
3	0xbb98641b	-0.0046506054
4	0x3be3cf50	0.006952204
5	0xbc122c2f	-0.008921667
6	0x3b6428f6	0.0034814454
7	0x3cffc52b	0.031221947
8	0xbc409b9f	-0.011755853
9	0xbc0e4f3f	-0.008685886
10	0xbc2cec36	-0.010554364
11	0xbb34e3a6	-0.002760151
12	0xbd15bc4a	-0.03655652
13	0x3c90794e	0.017635968
14	0x3dae5d0d	0.08513842
15	0xbcafc23f	-0.021454928
16	0xbbefcc7d	-0.007318078
17	0xbb37121a	-0.0027934373
18	0x3baa1a12	0.005191096
19	0xbd0877b6	-0.03331729
20	0x3c00e749	0.007867643
21	0x3bf4c67f	0.0074699516
22	0xbcc84211	-0.024445565
23	0xbb0b5869	-0.0021262413
24	0xbc9be156	-0.019028347
25	0x3c040fb8	0.008060388
26	0x3ac7ad8d	0.0015234217
27	0x3c14f4b8	0.009091549
28	0xbc974588	-0.018465772
29	0x3bcf2ba0	0.006322339
30	0xbc1e61fb	-0.009666915
31	0xbadcee00	-0.0016855597
32	0xbc0c2d32	-0.008555697
33	0xbc0cd759	-0.008596265
34	0xbb849aea	-0.0040467875
35	0x3c9d5526	0.019205641
36	0xbb84c59b	-0.0040518767
37	0x3baafcdb	0.005218131
38	0x3bf0c3b9	0.0073475507
39	0x3c888cfe	0.016668793
40	0x3d8768a7	0.06611758
41	0xbb6d015f	-0.0036164147
42	0x3c5503fb	0.013001437
43	0xbd3508ea	-0.044197954
44	0x3c1ed2e5	0.009693836
45	0x3b246407	0.0025084035
46	0xba8d1ffc	-0.0010766978
47	0xbba24106	-0.004951599
48	0xbda0db3a	-0.07854314
49	0x3c3877af	0.011259004
50	0xbd1376a1	-0.036001805
51	0x3c945a57	0.018109484
52	0x3c61aa27	0.013773478
53	0x3c0f5285	0.0087477015
54	0xba6e3bcc	-0.000908789
55	0x3d3c8b9a	0.046031572

first_part.1.weight f4 [56]
0	0x3e7b2d3c	0.24528974
1	0x3e716edd	0.23577447
2	0x3e83a66e	0.25712913
3	0x3e824e66	0.25450438
4	0x3e79a48d	0.24379177
5	0x3e7da74a	0.24770847
6	0x3e7ada22	0.24497274
7	0x3f21a8d7	0.63148254
8	0x3fe9066a	1.8205082
9	0xbdc6d6d6	-0.097089455
10	0x3fbb3820	1.4626503
11	0x3e823915	0.25434175
12	0x3f631a89	0.88712364
13	0x3e810812	0.2520147
14	0x3ec5796a	0.38569194
15	0x3af3ae7f	0.0018591433
16	0x3e4c7b9f	0.19969033
17	0x3e8dba4d	0.276812
18	0x3e931b3b	0.28731713
19	0x3e255a46	0.16147718
20	0x3e816f19	0.25280073
21	0x3fbac328	1.4590807
22	0x3e67b5c7	0.22627936
23	0x3e6b0cea	0.22954145
24	0x3eaeac9a	0.3411606
25	0x3e6c58cf	0.23080753
26	0x4017fe78	2.3749065
27	0x3e81db4e	0.2536263
28	0x3e955d74	0.29172862
29	0x3e8ac30f	0.27101943
30	0x3e70f626	0.23531398
31	0x3e818324	0.25295365
32	0x402cb47e	2.6985164
33	0x3ee29d6e	0.44260734
34	0x3e72b0b6	0.23700222
35	0x3e81946a	0.25308543
36	0x3df77d34	0.120844275
37	0x3e5f4e7a	0.2180728
38	0x3e869abe	0.26289934
39	0x3e80a146	0.25123042
40	0x3f32b30a	0.6980444
41	0x3e88ddc5	0.26731697
42	0x3e8018ef	0.25019023
43	0x3e9910d8	0.29895663
44	0x3f4a0331	0.7891112
45	0x3e6a255f	0.22865818
46	0x4022a2c9	2.5411856
47	0x3e84b461	0.25918868
48	0x3f0aa7bd	0.541622
49	0x3e7b8e88	0.2456609
50	0x3ffe11e0	1.9849205
51	0x3e80dd83	0.25169
52	0x3e40b6d7	0.18819748
53	0x3e2befef	0.16790746
54	0x3e8bf057	0.27331802
55	0x3e81cd00	0.25351715

mid_part.0.weight f4 [12, 56, 1, 1]
0	0x3f04fd16	0.5194868
1	0x3e575966	0.21030197
2	0xbf40bc6e	-0.7528752
3	0x3e77d9d5	0.2420419
4	0x3ec8e1df	0.39234826
5	0x3eb6eea2	0.35728937
6	0xbdb2f09f	-0.08737301
7	0x3f02d740	0.51109695
8	0x3e31c33a	0.1735963
9	0xbf976434	-1.1827455
10	0x3f02329f	0.5085849
11	0xbda42186	-0.080142066
12	0xbf0d6ace	-0.55241096
13	0x3f87a8aa	1.0598347
14	0x3edfe008	0.4372561
15	0x3ed66ae8	0.41878438
16	0x3db40625	0.087902345
17	0x3d7e7074	0.062118962
18	0x3f10ccfd	0.5656279
19	0xbe7c0658	-0.24611795
20	0x3c6856e0	0.014180869
21	0x3f374d66	0.71602476
22	0xbeb9fd0c	-0.36325872
23	0xbef3bcbc	-0.4760493
24	0xbd9b0c40	-0.07570696
25	0xbda817ce	-0.082076654
26	0x3edcd50b	0.4313129
27	0xbf39bc5d	-0.72553045
28	0x3e8a5b52	0.27022797
29	0x3ede581a	0.4342659
30	0x3d21e1e8	0.03952208
31	0x3eac2dcd	0.33628693
32	0x3f0b16c4	0.5433161
33	0x3e0f1b75	0.13975318
34	0xbf0d1d42	-0.5512277
35	0xbf30e342	-0.6909677
36	0xbd54f4e4	-0.05199136
37	0xbd1e2400	-0.03860855
38	0xbe918d18	-0.28427958
39	0x3ec23bf5	0.3793637
40	0xbdcdec80	-0.100548744
41	0x3f00d42d	0.50323755
42	0xbec33aa2	-0.3813067
43	0xbdee05a1	-0.116221674
44	0xbe1c150e	-0.15242407
45	0xbe1a8f36	-0.15093693
46	0xbdd1120c	-0.1020852
47	0xbf1c7870	-0.61121273
48	0xbe173b4b	-0.14768712
49	0xbf1411e6	-0.5783981
50	0xbdd017fd	-0.101608254
51	0xbe519c2e	-0.20469734
52	0xbf2506bf	-0.6446342
53	0x3e432ba2	0.19059613
54	0xbe972d31	-0.29526666
55	0xbe74a986	-0.23892793
56	0xbe96f542	-0.29483992
57	0xbf7c5f77	-0.9858317
58	0x3efd05f4	0.49418604
59	0xbc834d4c	-0.016028069
60	0x3c01b10c	0.007915746
61	0x3f4e691d	0.8062914
62	0x3f3b676d	0.7320469
63	0x3f066aaf	0.52506536
64	0x3d2e69f5	0.042581517
65	0xbdaeb72d	-0.08531032
66	0xbda3df99	-0.08001632
67	0xbef81efc	-0.4846114
68	0x3e3f7ed9	0.18700732
69	0x3e343a44	0.17600352
70	0xbf1c7d25	-0.61128455
71	0x3e2877b0	0.16451907
72	0xbf0cfa19	-0.5506912
73	0x3e6a7b21	0.22898532
74	0x3f24f443	0.64435214
75	0xbdb8ad73	-0.09017458
76	0x3f5842e6	0.8447708
77	0xbe753723	-0.23946814
78	0x3d9e9552	0.07743324
79	0xbed00f80	-0.40636826
80	0xbebf4656	-0.3735835
81	0xbda0fbfe	-0.07860564
82	0x3dc89430	0.097938895
83	0xbf0e154c	-0.55501246
84	0x3f10937a	0.5647503
85	0x3f51571c	0.81773543
86	0xbe4d3e03	-0.20043187
87	0x3ed800d4	0.42188132
88	0x3e3c6086	0.18396196
89	0xbec41c94	-0.38303053
90	0xbda19a88	-0.078908026
91	0xbe108645	-0.1411372
92	0x3e8448a0	0.25836658
93	0x3e6cf1fe	0.23139188
94	0xbf34c050	-0.70605946
95	0xbe73ba9e	-0.23801658
96	0x3e7a1164	0.24420696
97	0x3f3032cc	0.6882751
98	0xbe976b81	-0.29574206
99	0x3f58003b	0.8437535
100	0x3f354b94	0.7081845
101	0x3e109caf	0.1412227
102	0x3ee1aa93	0.4407545
103	0x3dc0d702	0.094160095
104	0x3ea02aff	0.31282803
105	0xbddbaa4a	-0.107258394
106	0x3f5bc4f9	0.8584743
107	0xbf19dc19	-0.6010147
108	0xbaa553ef	-0.0012613515
109	0xbe5aa6d5	-0.21352704
110	0x3f2826fe	0.656845
111	0xbef3683d	-0.47540465
112	0x3e891283	0.26771936
113	0xbf1897e9	-0.59606797
114	0xbe883fa8	-0.26611066
115	0xbec8eceb	-0.39243254
116	0xbd8d243a	-0.06891675
117	0x3f187601	0.5955506
118	0xbde5b20c	-0.112156
119	0xbd1cc533	-0.038274
120	0x3f25c529	0.6475397
121	0x3f49b580	0.7879257
122	0x3db43c12	0.0880052
123	0x3f4fcb46	0.81169546
124	0xbed9d449	-0.42544773
125	0xbe15e6f7	-0.14638887
126	0xbdd0bf99	-0.10192794
127	0x3ec2a945	0.38019767
128	0xbc0b44d1	-0.008500294
129	0xbe02d586	-0.12776765
130	0x3eeca389	0.46218517
131	0x3eb9b656	0.36271924
132	0xbf08cccd	-0.534375
133	0x3e6a62dd	0.22889276
134	0xbdff3be5	-0.12462596
135	0xbe965948	-0.2936499
136	0x3ed1398d	0.4086422
137	0xbea2ecb0	-0.31821203
138	0xbe1f2f58	-0.15545404
139	0xbe8391f4	-0.2569729
140	0xbef9bcbb	-0.48776802
141	0x3ec382ce	0.38185734
142	0x3cdccf5a	0.026954342
143	0xbdfeddd2	-0.124446526
144	0x3ef7a2ce	0.48366398
145	0x3f339f6d	0.7016514
146	0x3f1eee0e	0.6208199
147	0x3ec26e08	0.37974572
148	0x3e9e0b11	0.30867818
149	0x3e9cd7f0	0.30633497
150	0xbef23095	-0.4730269
151	0x3ddd5f01	0.10809136
152	0xbcb02574	-0.021502234
153	0x3e042315	0.12904008
154	0xbe569721	-0.20956089
155	0x39cbbf60	0.00038861763
156	0x3e19df64	0.15026623
157	0x3ecf8fff	0.40539548
158	0x3e884cd3	0.26621112
159	0x3ef6995f	0.48163888
160	0xbc1d0db3	-0.009585786
161	0x3f190a48	0.5978131
162	0x3e604a16	0.21903262
163	0xbf0c266f	-0.54746145
164	0xbd0ca596	-0.034337603
165	0x3ed0875d	0.40728274
166	0xbeb2fede	-0.34960073
167	0xbea5d632	-0.3238998
168	0x3d3819c1	0.044946436
169	0x3e9c0bb8	0.3047769
170	0xbdfe5284	-0.12418082
171	0x3e25f841	0.16207983
172	0x3e7f8f9a	0.24957123
173	0x3c8d95d9	0.017283367
174	0xbe2c51b4	-0.16828042
175	0x3e97544e	0.29556507
176	0xbf142caf	-0.5788068
177	0xbebed280	-0.37269974
178	0x3f19dbaf	0.60100836
179	0xbeb47f46	-0.35253352
180	0x3ec3b855	0.38226572
181	0xbef56ee8	-0.47936177
182	0x3f1a45e1	0.60262877
183	0xbdb54479	-0.08850951
184	0x3e078153	0.13232927
185	0x3e664109	0.22485746
186	0xbd747a30	-0.05968684
187	0x3f5f9523	0.8733694
188	0xbefb652b	-0.49100623
189	0x3f230fe6	0.63696134
190	0xbea17ff4	-0.31542933
191	0xbedd9fab	-0.4328588
192	0x3ef55c81	0.47922137
193	0x3d4debf8	0.050273865
194	0xbee760a0	-0.45190907
195	0x3f7691d3	0.9631626
196	0x3e020103	0.12695698
197	0x3ed74485	0.42044464
198	0xbdbf85a7	-0.09351664
199	0xbe41ebd9	-0.18937625
200	0xbf039a49	-0.51407295
201	0x3e4a42e0	0.19752073
202	0xbde67a33	-0.112537764
203	0x3eefe83c	0.46856868
204	0x3e0fb879	0.14035214
205	0xbdfe9831	-0.12431372
206	0xba29715c	-0.000646373
207	0x3e4081f4	0.18799573
208	0xbd9d2e1c	-0.0767481
209	0x3f8a57e8	1.0808077
210	0x3f4771f8	0.7790828
211	0x3f2a4351	0.66508967
212	0xbf7bb64a	-0.98325026
213	0xbe7e024c	-0.24805564
214	0x3eee2c46	0.46518153
215	0xbdb3f666	-0.08787231
216	0x3ecb75b0	0.39738226
217	0x3f0e9544	0.5569651
218	0xbe9a5d37	-0.30149242
219	0xbf046e26	-0.51730573
220	0xbf01710c	-0.5056312
221	0x3ef585e2	0.47953707
222	0xbe571cc9	-0.21007074
223	0x3f05aa5f	0.5221309
224	0xbe7101fb	-0.23535912
225	0x3da44758	0.0802142
226	0x3e09fc3c	0.13475126
227	0x3dc50b98	0.09621352
228	0xbe11e102	-0.1424599
229	0xbea17f5f	-0.3154249
230	0xbe507543	-0.20357232
231	0x3f102a3f	0.5631446
232	0x3ef24d38	0.47324538
233	0xbe8acad2	-0.27107865
234	0xbe26df92	-0.16296223
235	0x3b417d23	0.002952405
236	0xbfaa5d45	-1.3309714
237	0x3f4f2a6d	0.8092411
238	0x3f49b03e	0.7878455
239	0xbd8f2d52	-0.06991066
240	0x3eb432b5	0.35194936
241	0xbe3f33ec	-0.1867215
242	0x3e99a522	0.300088
243	0xbecfb09f	-0.4056444
244	0x3e6a2284	0.22864729
245	0x3e917053	0.2840601
246	0x3eba97d9	0.36443976
247	0x3d1c138b	0.038104575
248	0xbdfd7118	-0.123750865
249	0xbe08c466	-0.1335617
250	0x3f09b174	0.53786397
251	0x3e65dfed	0.22448702
252	0xbf2d6049	-0.67725044
253	0xbe95dbb3	-0.2926918
254	0x3cf3e503	0.029772287
255	0x3e59a55c	0.21254486

mid_part.0.bias f4 [12]
0	0x3b824bb4	0.0039763097
1	0xbcb55a27	-0.022137715
2	0xbbbfa168	-0.0058480985
3	0xba68af13	-0.0008876186
4	0x3dc8e547	0.09809356
5	0x3be9f17f	0.0071393843
6	0x3d341f3b	0.043975096
7	0x3d0a4ee7	0.033766653
8	0xbccff1a4	-0.025383778
9	0xbba3fee6	-0.0050047515
10	0xbbffbef0	-0.007804744
11	0x3d316d04	0.043316856

mid_part.1.weight f4 [12]
0	0x3e8dd0a3	0.2769824
1	0x3ebdc618	0.37065196
2	0x3e7fec83	0.24992566
3	0x3e8fc6ea	0.28081447
4	0x3f5f2c89	0.8717733
5	0x3f8e2f93	1.1108268
6	0x3e8afa0e	0.27143902
7	0x3ee637ba	0.4496439
8	0x3e9cdb2c	0.30635965
9	0x3ed2c51f	0.41166016
10	0x3f5b8f1f	0.8576526
11	0x3ea3565b	0.31901821

mid_part.2.weight f4 [12, 12, 3, 3]
0	0x3e8a25d1	0.26981977
1	0xbd1dcc3f	-0.038524862
2	0x3ce30588	0.027712598
3	0xbe90ab81	-0.28255847
4	0x3e11de88	0.14245045
5	0xbe03e0d9	-0.12878741
6	0xbd33f5f8	-0.043935746
7	0xbe0daa83	-0.13834576
8	0x3ddce223	0.1078532
9	0x3e4dfe5b	0.2011656
10	0xbe66e11d	-0.22546811
11	0x3e675cea	0.22594038
12	0x3d10601d	0.03524791
13	0xbdf13f1b	-0.117796145
14	0xbdfc04fd	-0.12305639
15	0xbd824e49	-0.06362588
16	0xbe2a6832	-0.1664131
17	0x3d3c134c	0.04591684
18	0x3db240ef	0.08703791
19	0x3e1bc16a	0.152105
20	0x3d619273	0.055071305
21	0x3e1fc32b	0.15601794
22	0x3c07f1e1	0.0082974145
23	0xbcfd1723	-0.030894822
24	0x3e850f1c	0.2598809
25	0x3d727863	0.05919684
26	0xbd96153c	-0.07328269
27	0x3c4b1ea3	0.012397441
28	0xbd90c913	-0.07069602
29	0x3dffc582	0.124888435
30	0x3e1568b9	0.1459073
31	0xbe9916d9	-0.29900244
32	0xbe8b61db	-0.27223095
33	0xbe133585	-0.14375885
34	0xbd1e1071	-0.0385899
35	0x3e439fc0	0.19103909
36	0xbe2dd3ed	-0.16975375
37	0xbdf6fbba	-0.12059732
38	0xbdba9283	-0.09109976
39	0xbcadf23d	-0.021233672
40	0x3e87d97b	0.26533112
41	0xbe7095ba	-0.23494616
42	0x3d0eb8a5	0.03484406
43	0xbc638f0a	-0.013889084
44	0x3d56afb3	0.052413654
45	0x3e53177b	0.20614426
46	0x3d21008a	0.039307155
47	0x3e52b5b6	0.2057713
48	0xbd6f66b7	-0.058447566
49	0xbde9251a	-0.1138403
50	0x3d9a0e9d	0.075223185
51	0xbdc98416	-0.098396465
52	0x3d84a1e8	0.06476194
53	0xbde61a45	-0.11235479
54	0xbe4af0d6	-0.19818434
55	0x3d0686ae	0.032843284
56	0xbc6fceb2	-0.014636682
57	0x3e76a05a	0.24084607
58	0xbde03358	-0.10947293
59	0x3d1616e1	0.036642913
60	0xbdfc8341	-0.12329722
61	0x3e115501	0.14192583
62	0x3e10faa8	0.14158118
63	0x3e0757c5	0.13217075
64	0xbd6b7fc2	-0.057494886
65	0x3e7fb634	0.24971849
66	0x3c251eef	0.010078176
67	0x3c2f414b	0.010696719
68	0xbbb066d4	-0.005383352
69	0x3c2469b3	0.010034966
70	0xbe6e605e	-0.23278949
71	0xbe53bec4	-0.2067824
72	0xbbe17ed1	-0.006881573
73	0xbc96b994	-0.018399037
74	0x3d421820	0.04738629
75	0xbe4e1726	-0.20126018
76	0x3e8af6bf	0.27141377
77	0xbdb045c0	-0.08607054
78	0xbd50010c	-0.05078225
79	0xbd98e612	-0.074657574
80	0x3ccfc1e2	0.025361005
81	0xbe3f62cf	-0.18690036
82	0x3c35dc4a	0.011099884
83	0x3d02382c	0.03179185
84	0x3d1d6c2b	0.038433235
85	0x3ddd9579	0.10819525
86	0x3e04dfe5	0.12976034
87	0xbdf73721	-0.12071062
88	0xbd25cb82	-0.040477283
89	0x3c826f15	0.015922109
90	0x3d928fff	0.07156371
91	0xbc7496f5	-0.014928569
92	0x3e71b4cb	0.23604123
93	0xbe02f0b7	-0.12787138
94	0xbd2ba56a	-0.041905798
95	0xbd9d6c89	-0.07686717
96	0x3d2966db	0.041357856
97	0x3dc1f596	0.0947067
98	0x3d14f936	0.03637048
99	0x3cc44eb5	0.023963312
100	0xbd3b1ab3	-0.04567976
101	0xbdd7d088	-0.10537821
102	0xbcbe4209	-0.023224847
103	0x3d9aac95	0.07552449
104	0x3cf5ee57	0.030020876
105	0x3d7b50dc	0.06135641
106	0x3d880d28	0.06643134
107	0x3c34aae3	0.011027071
108	0x3c96523b	0.018349757
109	0xbd63786a	-0.055534758
110	0xbcb85d39	-0.02250539
111	0x3d172854	0.036903694
112	0x3d81fb32	0.0634674
113	0xbe862f26	-0.26207846
114	0x3e30cea6	0.1726633
115	0x3d98beee	0.07458292
116	0x3dbf24d0	0.09333193
117	0x3e14aa73	0.14518146
118	0x3dc730eb	0.09726127
119	0xbc9f2de5	-0.019431064
120	0x3e6c1119	0.23053397
121	0x3de2244c	0.11042079
122	0xb9dabc8c	-0.0004172068
123	0x3d1564d2	0.036473103
124	0xbdf4b4fb	-0.11948582
125	0x3e0eaa65	0.13932188
126	0xbd069e51	-0.032865826
127	0xbea5a86c	-0.32355058
128	0xbe243ac7	-0.16038047
129	0x3cb55ae5	0.022138068
130	0x3d83b805	0.06431583
131	0xbe93f6b8	-0.2889917
132	0xbdd9d63a	-0.106365636
133	0x3dd6b974	0.10484591
134	0xbdb1612d	-0.08661113
135	0xbcb4214b	-0.021988532
136	0x3e8c4ad1	0.2740083
137	0xbd10c9c2	-0.03534866
138	0xbc91a448	-0.01777853
139	0xbda4f56b	-0.08054622
140	0x3d205f29	0.03915325
141	0xbd9dd176	-0.07705967
142	0x3eb81a27	0.35957453
143	0xbe3336f0	-0.17501426
144	0x3e65b619	0.22432746
145	0xbe242404	-0.16029364
146	0xbced3d94	-0.028960027
147	0xbe2ced37	-0.16887365
148	0xbdfcf522	-0.12351443
149	0x3d4c1f9c	0.049834833
150	0xbd9db93d	-0.07701347
151	0xbda881c8	-0.08227879
152	0xbc6a9468	-0.014317609
153	0xbdde95ce	-0.10868417
154	0x3d30d1e0	0.043168902
155	0xbe856ff2	-0.2606197
156	0x3c566477	0.013085476
157	0x3de9f4c2	0.11423637
158	0x3dd353b9	0.10318703
159	0x3e182210	0.14856744
160	0xbd59821b	-0.053102594
161	0xbc66f6b5	-0.0140969055
162	0x3e46a55f	0.19399022
163	0xbe4fd440	-0.2029581
164	0xbe2d9806	-0.16952524
165	0xbcb10f74	-0.021613814
166	0x3e5180a4	0.20459229
167	0xbd677eab	-0.056517284
168	0xbe90829b	-0.28224644
169	0xbbfa3ce5	-0.0076366537
170	0x3e072d3b	0.13200848
171	0xbe241cae	-0.16026565
172	0x3e2e92ec	0.17048234
173	0xbdf88584	-0.12134841
174	0xbd4025fa	-0.046911217
175	0x3e55c77d	0.2087688
176	0x3e137c85	0.14402969
177	0xbd7a28f6	-0.06107422
178	0xbe018bc6	-0.12650976
179	0xbdd14f7c	-0.102202386
180	0x3da6b032	0.08139075
181	0xbdd067a4	-0.10176018
182	0x3d7c70d8	0.061631054
183	0xbcc267d9	-0.023731159
184	0x3d78cdbc	0.06074308
185	0xbea682dd	-0.32521716
186	0x3cb4fd7c	0.022093527
187	0xbd880451	-0.06641448
188	0xbd786a79	-0.060648415
189	0xbdf520a1	-0.11969114
190	0xbdbec090	-0.09314072
191	0xbd8eb8a0	-0.06968808
192	0x3c73c237	0.014877847
193	0xbd822028	-0.063537896
194	0xbb766324	-0.0037595714
195	0xbe2e1ab9	-0.17002381
196	0xbcfa057d	-0.030520195
197	0x3cec29c4	0.02882851
198	0xbdac16ba	-0.08402772
199	0x3e0966a6	0.13418064
200	0x3d42b526	0.047536038
201	0x3e85146c	0.25992143
202	0xbd2fa591	-0.042882506
203	0xbdfe3278	-0.1241197
204	0xbe0b841c	-0.13624614
205	0x3d58b4b7	0.052906718
206	0x3e011167	0.12604295
207	0x3e880353	0.26565036
208	0x3e45afaf	0.19305299
209	0x3d77abe2	0.060466655
210	0x3dc837b3	0.09776249
211	0x3d9e7418	0.07736987
212	0x3e183592	0.14864185
213	0x3c025d69	0.007956841
214	0x3e081785	0.13290222
215	0x3e325509	0.17415251
216	0x3d94d6b4	0.07267514
217	0xbe213f24	-0.15746742
218	0xbcf3422c	-0.02969464
219	0xbcb737e0	-0.02236551
220	0x3e404422	0.1877599
221	0x3e34c718	0.17654073
222	0x3e27f350	0.1640141
223	0xbc7533f7	-0.014966003
224	0x3e99890c	0.2998737
225	0xbd9c9cb8	-0.07647079
226	0xbddc8bc0	-0.10768843
227	0x3d8bece9	0.068322964
228	0x3e4516a8	0.19246924
229	0xbd8c8a63	-0.06862333
230	0xbc9dc23f	-0.019257663
231	0xbd77d2ad	-0.06050365
232	0x3dc8b8bd	0.09800861
233	0x3dc1fb62	0.094717756
234	0x3e101372	0.14069918
235	0xbe8aad42	-0.2708531
236	0xbe4f2e96	-0.20232615
237	0x3d79bd12	0.060971327
238	0xbe05f680	-0.13082314
239	0xbbeada53	-0.0071671396
240	0x3de64415	0.11243454
241	0x3cd8535f	0.026406942
242	0x3d1e1fea	0.038604654
243	0xbe1855dc	-0.14876503
244	0x3b3f6eaa	0.0029210248
245	0xbd7fe774	-0.06247659
246	0x3e8484cb	0.25882563
247	0x3e2b6235	0.16736682
248	0x3e3b83b4	0.1831196
249	0x3d110326	0.035403393
250	0x3e280724	0.16408974
251	0x3d3c8dc5	0.04603364
252	0x3ea5c99a	0.32380372
253	0xbe6b6c46	-0.22990522
254	0xbdb5e66c	-0.0888184
255	0x3d3706e1	0.044684295

mid_part.2.bias f4 [12]
0	0x3c486b9f	0.01223269
1	0x3c2962cd	0.010338497
2	0xbba5bebf	-0.005058139
3	0x3a6446f1	0.0008708081
4	0x3d15daea	0.036585726
5	0xbc56adbf	-0.013102948
6	0xbb8b15ca	-0.004244541
7	0x3b494fa9	0.0030717647
8	0x3c97d828	0.018535689
9	0xb9731c73	-0.00023184884
10	0x3cfa19cd	0.03052988
11	0x3cd5fe36	0.026122194

mid_part.3.weight f4 [12]
0	0x3eb45b89	0.35226086
1	0x3e755668	0.23958743
2	0x3e844bc6	0.2583906
3	0x3fb68d16	1.4261806
4	0x3f34d6f8	0.70640516
5	0x3e7f1193	0.24909048
6	0x3f56aa7f	0.83853906
7	0x3ddcccbb	0.10781237
8	0x3e46e5be	0.19423577
9	0x3f6a2e44	0.91476846
10	0x3e908ede	0.28234
11	0x3e9f8807	0.31158468

mid_part.4.weight f4 [12, 12, 3, 3]
0	0x3b6caeb7	0.003611488
1	0xbd4fa525	-0.050694603
2	0x3e526d20	0.2054944
3	0x3e999924	0.2999965
4	0xbdb2bea8	-0.08727771
5	0x3ddf70e7	0.10910206
6	0xbe3f4bb7	-0.18681227
7	0x3db0afef	0.08627307
8	0xbe0af6e3	-0.13570742
9	0xbe4a5cbf	-0.19761942
10	0xbdcfcd49	-0.10146577
11	0x3eb08a43	0.34480485
12	0xbd3cafe4	-0.04606618
13	0x3e2b5e28	0.16735137
14	0xbe24f8b3	-0.16110496
15	0xbdfec15a	-0.12439223
16	0x3c9d56c4	0.019206412
17	0x3e61c19b	0.22046511
18	0xbe1475cb	-0.1449806
19	0x3e40a14c	0.1881153
20	0xbc899401	-0.016794207
21	0x3e0147d1	0.12625052
22	0x3bad7234	0.005293155
23	0xbd15c52b	-0.036564987
24	0xbcd13837	-0.0255395
25	0x3e462c1f	0.19352768
26	0x3dcc889d	0.099869944
27	0xbdfaf53b	-0.12253805
28	0xbe8eddda	-0.27903634
29	0xbcc97401	-0.024591448
30	0x3e4a748c	0.19771022
31	0xbe3c5e0a	-0.18395248
32	0xbe7aed71	-0.24504639
33	0xbe225c4b	-0.1585552
34	0x3e3910b9	0.18072785
35	0x3dc5b243	0.09653141
36	0xbdf49723	-0.119428895
37	0x3e1e8beb	0.15483062
38	0x3e1b73f8	0.15180957
39	0xbe2e6d58	-0.17033899
40	0x3ec97b7c	0.39352024
41	0x3cc35baa	0.02384742
42	0xbe7d909c	-0.24762195
43	0x3db9eb60	0.09078097
44	0x3e0825a4	0.13295609
45	0xbbff328f	-0.0077880095
46	0xbd66fdce	-0.05639439
47	0x3dd2bb0f	0.10289585
48	0xbe6fb34f	-0.23408245
49	0x3d9e466e	0.07728277
50	0xbeaf7a04	-0.34272778
51	0x3d510141	0.051026586
52	0x3e79cac8	0.24393761
53	0xbe07047b	-0.13185303
54	0x3e21ab41	0.15787984
55	0xbe78679d	-0.24258275
56	0xbd7511a3	-0.059831273
57	0x3da07e9c	0.07836649
58	0xbb173aa0	-0.0023075715
59	0xbe0b120d	-0.13581105
60	0xbd218cf2	-0.039441057
61	0xbe8f95ad	-0.2804388
62	0x3e98d006	0.2984621
63	0x3d9f8237	0.077885084
64	0xbdc7367b	-0.09727188
65	0x3e28fd37	0.16502844
66	0xbd1a3143	-0.037644636
67	0x3d3dd83c	0.046348795
68	0x3dc6fbd5	0.09716002
69	0xbe5c31c0	-0.21503353
70	0xbdd94820	-0.1060946
71	0xbddc658a	-0.107615545
72	0xbac55508	-0.0015055249
73	0x3d0cec2a	0.03440491
74	0xbda3a731	-0.079908736
75	0xbe2725bf	-0.16322993
76	0x3c9e111e	0.019295271
77	0x3d1e7813	0.03868873
78	0x3c2a4ac7	0.010393805
79	0xbdb5dcc9	-0.08880002
80	0x3e3d90dc	0.1851229
81	0x3d9d98ad	0.07695136
82	0xbcc13f5f	-0.023589788
83	0x3e3d2312	0.1847041
84	0x3db2dfec	0.08734116
85	0x3e0c3c1c	0.13694805
86	0xbd0c99bb	-0.034326296
87	0x3d84d507	0.06485944
88	0x3e29d80a	0.16586319
89	0xbeaf10a3	-0.3419238
90	0x3d402b46	0.04691627
91	0x3e29386b	0.16525428
92	0x3d53ae92	0.051680155
93	0x3e59e759	0.21279658
94	0xbe0a3557	-0.1349691
95	0xbc724fb1	-0.014789508
96	0xbd1ee8ef	-0.03879636
97	0x3c7e1f03	0.015510323
98	0x3d603281	0.054735664
99	0x3e40f79b	0.18844454
100	0xbab33e48	-0.0013675177
101	0x3e8802f7	0.26564762
102	0xbe9a14f8	-0.30094123
103	0x3e7a25e0	0.2442851
104	0xbeef5a5c	-0.46748626
105	0xbc5d4380	-0.013504863
106	0x3e342bd5	0.17594846
107	0x3e90a599	0.2825134
108	0x3dfa1ba3	0.122123025
109	0xbe66bacb	-0.22532193
110	0xbd4c5c0f	-0.04989248
111	0x3e8a7924	0.27045548
112	0x3db7af37	0.089689665
113	0x3dc466da	0.0958993
114	0x3e94eff4	0.2908932
115	0xbe75fd21	-0.24022342
116	0x3d25f179	0.04051349
117	0xbcb10bf5	-0.021612147
118	0x3d84a04c	0.06475887
119	0xbd1b2508	-0.037877113
120	0x3e94529a	0.2896927
121	0x3d678c96	0.056530558
122	0x3ea637af	0.32464358
123	0xbe79be3b	-0.24388973
124	0xbe817ea7	-0.2529194
125	0xbda23cf0	-0.07921779
126	0xbe4eeae9	-0.20206799
127	0x3e0625cc	0.13100356
128	0xbd393e4b	-0.045225423
129	0xbeeaf3fe	-0.45889276
130	0xbe2d7cff	-0.16942213
131	0xbd3aa185	-0.045564193
132	0xbf0a4e03	-0.54025286
133	0xbe395993	-0.18100576
134	0x3de18add	0.11012814
135	0x3c8cad31	0.017172428
136	0x3e25026e	0.16114208
137	0x3e6cbb91	0.23118426
138	0x3e30c1e7	0.17261468
139	0x3eac151b	0.33609852
140	0x3d769499	0.060200308
141	0x3eba5310	0.36391497
142	0x3eac7bd8	0.33688235
143	0xbdd1216d	-0.102114536
144	0xbcc8afb3	-0.024497842
145	0xbcd7bfa6	-0.026336502
146	0xbd026c3c	-0.0318415
147	0xbe4001c2	-0.1875067
148	0xbc67a2b3	-0.014137912
149	0x3bd81800	0.006594658
150	0xbeadda87	-0.33955786
151	0xbd40c81c	-0.04706584
152	0xbcdb3d28	-0.02676256
153	0xbcee6f3c	-0.029105775
154	0xbe3ecd13	-0.18632917
155	0x3e9247d6	0.2857043
156	0xbe794b04	-0.24345022
157	0xbd3fdc14	-0.046840742
158	0x3e0d4cca	0.13798824
159	0xbdfdc7e2	-0.1239164
160	0x3d0988a8	0.03357759
161	0xbd85ee2b	-0.065395676
162	0x3e86e913	0.26349697
163	0xbd305ead	-0.04305904
164	0xbd641e80	-0.05569315
165	0x3eb8f6af	0.36125705
166	0xbdc13447	-0.09433799
167	0x3cb383de	0.021913465
168	0x3dff80a5	0.12475709
169	0xbd2a6f0e	-0.041609816
170	0xbe829c70	-0.25509977
171	0x3ea934c9	0.33048084
172	0xbe7e8537	-0.24855505
173	0xbe777641	-0.24166204
174	0xbd37a1d9	-0.044832084
175	0xbb851ca4	-0.004062252
176	0x3d987f83	0.07446196
177	0x3e258477	0.16163813
178	0x3e0a8f44	0.13531214
179	0x3eda3ca7	0.426244
180	0xbd8a66af	-0.067578666
181	0xbe87de34	-0.26536715
182	0xbe24bf32	-0.1608856
183	0xbc619447	-0.013768262
184	0xbde681fe	-0.11255263
185	0x3dc1ddb3	0.09466114
186	0x3e5040c3	0.20337205
187	0x3e988239	0.29786852
188	0x3df7b163	0.12094381
189	0xbed614f0	-0.4181285
190	0x3e000058	0.12500131
191	0xbe19fe90	-0.15038514
192	0x3e471a57	0.19443642
193	0x3e699094	0.22809058
194	0xbd0c3e28	-0.034238964
195	0x3d1488e0	0.036263347
196	0xbc69e0d7	-0.014274797
197	0x3dd0e807	0.10200506
198	0xbde0b04d	-0.10971127
199	0xbebe4f93	-0.37170085
200	0xbcb05754	-0.021526016
201	0x3ecdd3e5	0.40200725
202	0x3ecb5374	0.39712107
203	0x3e04e68a	0.12978569
204	0xbed3e4e0	-0.41385555
205	0xbe7fd816	-0.24984774
206	0x3e0980eb	0.13428085
207	0xbe6feec8	-0.23430932
208	0xbe838d5a	-0.2569378
209	0xbe9291cb	-0.28626856
210	0xbe46d130	-0.19415736
211	0x3d821c19	0.063530155
212	0x3b06b3aa	0.0020553865
213	0x3f18c60d	0.596772
214	0x3eb9ada4	0.3626529
215	0x3e8740dd	0.26416674
216	0x3e541b44	0.20713526
217	0xbe4b06cf	-0.19826816
218	0x3e1ad001	0.1511841
219	0x3da5e202	0.08099748
220	0x3d32b30d	0.043627787
221	0xbc056d3e	-0.008143721
222	0xbdef6448	-0.11689049
223	0x3e9c8f34	0.30578005
224	0x3d5ea41f	0.054355737
225	0x3e690e5c	0.22759384
226	0x3c19cae7	0.009386755
227	0x3e2ff45a	0.17183056
228	0xbcb439dd	-0.022000248
229	0x3d03b498	0.03215465
230	0x3dc85c50	0.09783232
231	0xbc10c454	-0.008835871
232	0x3d9e35be	0.07725094
233	0x3c973e9a	0.018462468
234	0xbd7745fc	-0.060369477
235	0x3d4680e7	0.048462775
236	0x3e37346c	0.17891091
237	0xbd2f0963	-0.04273356
238	0x3e1d98cd	0.1539032
239	0x3df60a9c	0.12013742
240	0x3cda4c9c	0.026647858
241	0xbc3b8ec3	-0.011447611
242	0xbe28b76a	-0.16476217
243	0xbeb486d8	-0.35259128
244	0xbdfdaa2c	-0.12385973
245	0xbd9a969d	-0.075482585
246	0x3c23256b	0.009957652
247	0x3e8949b6	0.2681405
248	0x3e266a7c	0.16251558
249	0x3e2877d3	0.1645196
250	0xbe75c039	-0.23999108
251	0x3d8ce300	0.06879234
252	0xbca6ed15	-0.020376721
253	0xbee348c0	-0.4439144
254	0xbe792918	-0.24332082
255	0xbe42ddbe	-0.190299

mid_part.4.bias f4 [12]
0	0x3d977cb3	0.07396831
1	0x3c4cffd2	0.012512164
2	0xbd15ab2c	-0.036540195
3	0x3c8abc01	0.01693535
4	0x3bf99268	0.00761633
5	0xbb84c537	-0.00405183
6	0x3bf83ed8	0.007575851
7	0x3cb5a90e	0.022175338
8	0x3d1cf67e	0.03832101
9	0x3c8d6270	0.017258853
10	0xbd294cfb	-0.04133318
11	0xbcca771f	-0.024715004

mid_part.5.weight f4 [12]
0	0x3fa635cc	1.2985168
1	0x3f389c09	0.7211309
2	0x3eca0279	0.3945501
3	0x3e861f47	0.26195738
4	0x40035362	2.0519643
5	0x3fb48ac4	1.4104848
6	0xbec6c5d4	-0.38822806
7	0x3cf40c96	0.029791158
8	0x3f29a905	0.6627353
9	0x3f930793	1.1486686
10	0x3edcec4f	0.4314904
11	0x3e7efdeb	0.2490155

mid_part.6.weight f4 [12, 12, 3, 3]
0	0x3d6c738b	0.057727378
1	0xbd76f239	-0.060289595
2	0xbccac8c8	-0.024753943
3	0x3d2f2dee	0.04276841
4	0x3e06a599	0.13149108
5	0x3e3ab950	0.18234754
6	0xbd34dc39	-0.044155333
7	0x3df24a4e	0.11830579
8	0x3ca119ef	0.019665686
9	0x3cd19638	0.025584325
10	0x3e8716bb	0.2638453
11	0x3e3bafc7	0.18328772
12	0x3dc3b675	0.09556285
13	0x3e5f3914	0.21799117
14	0x3e8bd4a0	0.27310658
15	0xbb4fb3ed	-0.0031692937
16	0xbe8c7aa8	-0.2743733
17	0x3d7c590d	0.061608363
18	0x3d888d0a	0.06667526
19	0xbe2488dc	-0.16067833
20	0x3d33a982	0.043862827
21	0x3e054d8e	0.13017866
22	0x3c010977	0.007875792
23	0xbd8c8600	-0.06861496
24	0xbe3fdd47	-0.18736754
25	0xbe07c1b4	-0.13257486
26	0x3e3861b0	0.18006015
27	0x3e187ed2	0.14892128
28	0xbdcb0de2	-0.09914757
29	0xbe4b390d	-0.19845982
30	0xbb482b11	-0.0030543248
31	0x3dc13dcf	0.09435617
32	0x3dd08ca6	0.101830766
33	0x3df0ceeb	0.117582165
34	0xbebf2c97	-0.37338707
35	0xbe23584c	-0.15951651
36	0xbc794607	-0.01521445
37	0x3e16abad	0.14713927
38	0xbdae0d24	-0.084986
39	0x3e2c8e6e	0.16851208
40	0x3dfb095c	0.122576445
41	0xbe0cfea6	-0.13769016
42	0xbd1bc19d	-0.03802644
43	0x3e2fac5f	0.17155598
44	0xbd27b545	-0.040944356
45	0xbe03e779	-0.12881269
46	0xbeccde84	-0.40013516
47	0x3da85337	0.08218997
48	0x3e624181	0.220953
49	0x3bdcfb7f	0.006743848
50	0x3d5011d5	0.050798256
51	0x3db7d716	0.08976571
52	0x3df22157	0.11822765
53	0x3e261542	0.16219047
54	0x3e1dff23	0.15429358
55	0xbe606209	-0.21912397
56	0x3d13b6e1	0.03606308
57	0x3daa3644	0.083111316
58	0x3d5054c8	0.050862104
59	0x3d76ff28	0.06030193
60	0x3e51a683	0.20473675
61	0x3e39beb9	0.18139161
62	0x3e03e267	0.12879334
63	0xbded85e7	-0.115978055
64	0xbda464de	-0.080270514
65	0x3e0922f5	0.13392241
66	0xbd17c102	-0.0370493
67	0xbe2aa304	-0.16663748
68	0x3ce097e9	0.027416186
69	0x3d85e61d	0.06538031
70	0x3d49c388	0.04925874
71	0xbe44b2c9	-0.19208826
72	0xbd8f7a61	-0.07005764
73	0x3dc151ed	0.09439454
74	0x3e055713	0.13021497
75	0xbd0332ee	-0.032030992
76	0x3d39d283	0.045366775
77	0xbc8ec8f4	-0.017429806
78	0xbdb00c74	-0.08596125
79	0xbe39498e	-0.18094465
80	0x3cb3bdb0	0.021941036
81	0xbd1c43af	-0.038150486
82	0x3e3ad487	0.18245135
83	0x3b21748f	0.0024636125
84	0xbe2f956b	-0.17146842
85	0x3d8b37fd	0.06797788
86	0x3e3bafa4	0.1832872
87	0xbe4a00cf	-0.19726871
88	0xbe000345	-0.12501247
89	0xbe6fc8e5	-0.23416479
90	0xbda4cdbd	-0.08047054
91	0x3e224312	0.15845898
92	0x3dbfe9a4	0.09370735
93	0xbd6f5b1e	-0.058436505
94	0xbe64f206	-0.2235795
95	0x3de0ca5f	0.10976099
96	0xbdafe49e	-0.08588527
97	0x3e357270	0.17719436
98	0xbd283256	-0.04106363
99	0x3dd6587e	0.10466097
100	0x3d588ac1	0.0528667
101	0x3d7bbb73	0.061458062
102	0x3d83aedb	0.064298354
103	0xbe0575cf	-0.13033222
104	0xbb4c686b	-0.0031190168
105	0x3e1b64af	0.15175126
106	0xbe02b3bb	-0.12763874
107	0x3c96e2ab	0.01841863
108	0x3ea60360	0.3242445
109	0x3e1b307f	0.15155219
110	0xba11326c	-0.00055388245
111	0xbe2b0b39	-0.167035
112	0xbe63d60f	-0.22249626
113	0x3e05de27	0.13073026
114	0x3e040d2a	0.12895647
115	0x3ddbc02f	0.107300155
116	0x3c68cd79	0.014209145
117	0xbdf69c1f	-0.120414965
118	0xbcfc63d4	-0.03080932
119	0x3e0c8789	0.13723578
120	0xbd68e8c5	-0.05686261
121	0x3e2c39d1	0.1681893
122	0x3d831601	0.06400681
123	0x3e0c5f5e	0.13708255
124	0xbe1f41ce	-0.15552446
125	0x3cabe920	0.020985186
126	0x3e00a072	0.12561205
127	0x3c99647f	0.018724678
128	0x3c68feff	0.014220952
129	0x3e24e6e6	0.16103706
130	0x3d9526dd	0.07282803
131	0x3e427c49	0.18992724
132	0xbbfff235	-0.0078108557
133	0xbe0325ef	-0.1280744
134	0x3c916454	0.017748035
135	0x3dd2584c	0.102707475
136	0x3d62acd3	0.0553406
137	0xbcadf725	-0.021236012
138	0xbd86f142	-0.06588985
139	0x3e2a4cdb	0.1663088
140	0xbc336758	-0.010949932
141	0xbdafc063	-0.08581617
142	0xbe4e3a27	-0.20139371
143	0x3d32c49b	0.04364453
144	0x3d439239	0.04774687
145	0xbdcb4b11	-0.09926427
146	0x3e20fe44	0.15721995
147	0x3dd6027f	0.10449695
148	0xbd2656fa	-0.04061029
149	0xbe08ffcf	-0.13378833
150	0x3dd0449e	0.10169338
151	0x3e512764	0.20425183
152	0x3d0f0b4d	0.034922887
153	0x3d8f215e	0.06988786
154	0x3cdea1cf	0.027176766
155	0x3db0e080	0.0863657
156	0xbe6863dc	-0.22694343
157	0x3c87044b	0.01648154
158	0xbd520fc9	-0.051284585
159	0xbd01c8ac	-0.031685516
160	0x3d2a3c3f	0.04156136
161	0x3d23f5ae	0.04002922
162	0x3df84210	0.121219754
163	0x3ca271fc	0.019829743
164	0xbc7e526c	-0.015522581
165	0x3d438318	0.047732443
166	0x3da2e420	0.07953668
167	0xbd079d39	-0.033108924
168	0xbdcbb033	-0.09945717
169	0xbd90acce	-0.0706421
170	0xbdcc8649	-0.0998655
171	0x3e1a5f81	0.15075494
172	0xbd4e1ea2	-0.050322182
173	0x3dd8670d	0.105665304
174	0x3af6aad7	0.0018819225
175	0x3e36c521	0.17848636
176	0xbe744679	-0.23855008
177	0xbcb21dbc	-0.021742694
178	0xbcf8c21b	-0.030365994
179	0xbdc2a6d5	-0.09504477
180	0x3e7f6e59	0.24944438
181	0xbea649fa	-0.32478315
182	0x3e0efb8f	0.1396315
183	0xbd06ae49	-0.032881055
184	0x3d247d6c	0.040158674
185	0x3e703c1f	0.23460434
186	0xbc0ac153	-0.008468944
187	0x3df12489	0.11774547
188	0xbd11ca28	-0.03559318
189	0x3da81ca3	0.08208587
190	0xbc097d82	-0.00839174
191	0x3d566dad	0.05235069
192	0x3e1ac66e	0.15114757
193	0x3e597d32	0.21239164
194	0xbe345407	-0.17610179
195	0xbb66c80d	-0.0035214454
196	0x3e179012	0.14801052
197	0x3e4ad71c	0.1980862
198	0x3dbc5450	0.09195769
199	0x3e758b28	0.23978865
200	0x3d621308	0.05519393
201	0xbe5cf313	-0.215771
202	0xbe8a97c8	-0.27068925
203	0xbd60faf1	-0.054926816
204	0x3ddc77e7	0.10765057
205	0xbd902969	-0.07039148
206	0x3e985851	0.2975488
207	0xbd8bede4	-0.068324834
208	0xbc778bee	-0.015109045
209	0xbca0b939	-0.019619571
210	0x3d4bbd53	0.0497411
211	0x3d8d506d	0.069001056
212	0x3c176f3f	0.009242832
213	0xbe75d48f	-0.24006866
214	0xbe787416	-0.24263033
215	0x3d9b6499	0.07587547
216	0xbe8f86f9	-0.28032663
217	0xbccb92ca	-0.024850268
218	0xbe4867fc	-0.19570917
219	0xbc9716b9	-0.018443452
220	0xbe005342	-0.1253176
221	0xbda29ff3	-0.07940664
222	0x3e8317b7	0.2560403
223	0x3e2a0aba	0.16605654
224	0xbe49cd9f	-0.19707344
225	0xbe21f548	-0.15816224
226	0xbe481e40	-0.1954279
227	0x3d239727	0.039939072
228	0xbe0dea15	-0.13858826
229	0x3d3f00bb	0.046631556
230	0xbe013a41	-0.12619878
231	0x3e8c6b9e	0.27425855
232	0x3e40b3c1	0.1881857
233	0x3e3b7ccc	0.18309325
234	0xbe016309	-0.12635435
235	0x3e098384	0.13429075
236	0x3be09413	0.0068535893
237	0x3d9c7b07	0.07640653
238	0x3c7e0b00	0.015505552
239	0xbe0b4ab6	-0.13602719
240	0x3e2c4fda	0.16827336
241	0xbe0f35a5	-0.13985308
242	0xbe8ad8f5	-0.2711865
243	0x3df9ad31	0.12191237
244	0x3db6ff38	0.08935398
245	0x3c6a6c62	0.014308067
246	0x3e26cba6	0.16288623
247	0x3e59eccb	0.21281736
248	0xbdd18b21	-0.10231615
249	0xbe259fb2	-0.161742
250	0xbdab90ed	-0.08377252
251	0x3ca7bd39	0.02047597
252	0xbe9b15cd	-0.3029007
253	0xbe3b9dfb	-0.18321984
254	0x3e28696a	0.16446462
255	0xbd873219	-0.06601352

mid_part.6.bias f4 [12]
0	0x3ccdca08	0.02512075
1	0x3b79af19	0.003809875
2	0x3cf84530	0.030306429
3	0x3b9206e8	0.0044563897
4	0x3d02381c	0.03179179
5	0x3db16d48	0.08663422
6	0x3d910fa5	0.07083062
7	0x3da1cb34	0.07900086
8	0x3c3bdca7	0.011466182
9	0x3c11b223	0.008892569
10	0x3e222646	0.15834913
11	0xbd3db337	-0.04631349

mid_part.7.weight f4 [12]
0	0x3f20967a	0.6272961
1	0x3fd0f795	1.6325556
2	0x3e9a1da9	0.30100754
3	0x3e8b14a7	0.27164194
4	0xbe383414	-0.17988616
5	0x3fa01a6e	1.2508066
6	0x3f8cd4ff	1.1002501
7	0x3eac1343	0.33608446
8	0x3eb18fcd	0.34680024
9	0x3e4741ce	0.19458696
10	0xbe85ef95	-0.2615935
11	0x3e6299e7	0.22129022

mid_part.8.weight f4 [12, 12, 3, 3]
0	0x3dca1ffb	0.09869381
1	0xbde3f2ba	-0.11130281
2	0xbe425342	-0.18977073
3	0xbda8b47f	-0.08237552
4	0x3e7123b8	0.23548782
5	0x3e05e430	0.13075328
6	0xbe9c7834	-0.30560458
7	0x3e0dddb2	0.13854101
8	0xbda0e86c	-0.07856831
9	0xbd2d4370	-0.04230064
10	0x3d1610f3	0.036637258
11	0x3d902d63	0.07039907
12	0x3dbaa192	0.09112848
13	0x3ea17d2e	0.31540817
14	0x3d161b8c	0.036647364
15	0x3e4ddd2f	0.20103906
16	0x3d630a8b	0.055429976
17	0xbd769aaa	-0.060206093
18	0x3db2c5e5	0.08729152
19	0xbd2204e2	-0.039555438
20	0xbc31e373	-0.010857451
21	0xbe677451	-0.22602965
22	0xbcd44770	-0.02591297
23	0xbcc61c7e	-0.024183508
24	0x3d82f38f	0.06394111
25	0xbe44a4f0	-0.19203544
26	0x3a8c98b7	0.0010726665
27	0xbd76ea6d	-0.06028216
28	0xbdb48c74	-0.08815852
29	0x3ced3abc	0.02895867
30	0xbe2fb916	-0.17160448
31	0xbd8908cb	-0.0669113
32	0x3ddc10ae	0.10745369
33	0x3ba7aca7	0.0051170173
34	0xbde0e6ce	-0.109815225
35	0xbe40a08d	-0.18811245
36	0xbc822be5	-0.015890071
37	0xbc495758	-0.012288891
38	0x3c9b3824	0.018947668
39	0x3deb9d31	0.11504591
40	0xbc6c5f4e	-0.014427019
41	0x3e69cc14	0.22831756
42	0xbda6877a	-0.08131309
43	0x3d64ccd5	0.055859406
44	0xbcdfa910	-0.027302295
45	0x3d66c00b	0.05633549
46	0x3e24043e	0.16017243
47	0x3d49b9f1	0.049249593
48	0xbe1b8f82	-0.15191463
49	0x3d9e4c71	0.07729424
50	0x3cee068b	0.029055854
51	0x3ea95f64	0.3308059
52	0xbe147bb4	-0.14500314
53	0x3dcd7c9d	0.10033534
54	0x3dfe2c07	0.12410741
55	0xbeaeefed	-0.34167424
56	0x3d055f95	0.032561857
57	0x3d555788	0.05208543
58	0xbcac623e	-0.02104294
59	0xbd407d19	-0.046994302
60	0xbdcfe270	-0.101506114
61	0xbdf367d8	-0.11885041
62	0x3d327764	0.04357089
63	0xbcb0a506	-0.021563064
64	0x3e9e3f2d	0.30907574
65	0x3c2c984c	0.010534357
66	0x3d385d84	0.04501106
67	0x3e4a9b14	0.1978572
68	0xbdbacc0d	-0.09120951
69	0xbe386905	-0.18008812
70	0xbc880b07	-0.01660682
71	0xbe5a03b9	-0.21290483
72	0xbe747f29	-0.23876633
73	0x3d001c8d	0.03127723
74	0x3d69a6fe	0.05704402
75	0x3cc9f682	0.024653677
76	0x3e3d4aeb	0.1848561
77	0xbe1b2fb9	-0.15154923
78	0xbd08820f	-0.03332716
79	0xbe0a9e2e	-0.13536903
80	0xbe02c234	-0.12769395
81	0x3daecdcb	0.08535346
82	0xbd7edff9	-0.062225316
83	0xbe0ae001	-0.13562013
84	0xbe0ceb7f	-0.1376171
85	0xbd4ce683	-0.05002452
86	0xbcd7ea6e	-0.026356902
87	0x3e6ceed0	0.23137975
88	0xbd1d02a7	-0.038332608
89	0xbb462d23	-0.0030239306
90	0x3c9516da	0.018199373
91	0x3e1fed5e	0.15617892
92	0x3c85ea34	0.016347028
93	0xbd7b7ce8	-0.061398417
94	0xbd06bbc2	-0.032893904
95	0x3d32547f	0.043537613
96	0x3da8c255	0.08240191
97	0x3da9a46b	0.08283313
98	0xbd5e45fb	-0.054265957
99	0x3e22a35a	0.15882626
100	0x3ec61bdb	0.38693127
101	0xbe49e857	-0.19717537
102	0x3edd53b5	0.43227926
103	0xbcd33536	-0.025782209
104	0x3e4e8be2	0.20170549
105	0xbe4caf95	-0.19988854
106	0x3de36655	0.11103503
107	0x3e747c30	0.23875499
108	0x3decf1ff	0.115695946
109	0xbdcc9f2f	-0.09991299
110	0xbe1ae9f8	-0.15128314
111	0x3e762bca	0.24040142
112	0x3e1e987a	0.15487853
113	0x3c4c437d	0.012467262
114	0x3d96e3e5	0.07367686
115	0xbe86e66a	-0.26347667
116	0xbe64497f	-0.22293662
117	0x3d569271	0.05238575
118	0xbe1bf0aa	-0.15228525
119	0x3c08e91f	0.008356362
120	0x3dfa61fc	0.1222572
121	0x3e56338e	0.20918104
122	0xbe7cb51f	-0.24678467
123	0xbe2c318d	-0.16815777
124	0xbb661da0	-0.0035112873
125	0xbdd302d8	-0.10303277
126	0x3dacb51f	0.084329836
127	0xbcc10dce	-0.023566153
128	0x3dbd3af6	0.092397615
129	0x3d9a62f3	0.07538404
130	0xbe8fd486	-0.2809183
131	0x3e79e8d6	0.24405226
132	0xbde1ede0	-0.11031699
133	0x3d9164dc	0.070993155
134	0x3c968d4c	0.018377922
135	0xbd34a39c	-0.044101343
136	0x3eb7f986	0.3593256
137	0x3d4f884e	0.0506671
138	0x3e0949ac	0.1340701
139	0xbb8c376b	-0.0042790673
140	0x3d9c5732	0.07633819
141	0xbe378de3	-0.17925219
142	0x3d85c7a4	0.06532219
143	0x3de06400	0.109565735
144	0x3e1a4286	0.15064439
145	0x3ba5fdc7	0.005065653
146	0xbdd4cc08	-0.103904784
147	0x3d2465f1	0.04013628
148	0x3e4a6131	0.19763638
149	0xbe970bbc	-0.2950114
150	0x3e1d6265	0.15369566
151	0xbea7e46c	-0.3279146
152	0x3d87ba65	0.06627349
153	0x3e32dfbf	0.17468165
154	0x3e23f624	0.16011864
155	0xbd406849	-0.046974454
156	0x3db8f331	0.0903076
157	0x3e6846fa	0.22683325
158	0x3daa65df	0.083202116
159	0xbe39ac54	-0.18132144
160	0xbd8b0f9d	-0.06790087
161	0x3b324ca3	0.0027206324
162	0xbd69d87e	-0.05709123
163	0xbc241682	-0.010015132
164	0x3e1b5b0c	0.1517145
165	0x3dcdd5e3	0.10050561
166	0x3ccaabad	0.024740065
167	0x3d22079b	0.039558034
168	0xbd5220c2	-0.05130077
169	0xbd27b86b	-0.04094736
170	0x3d5ed30a	0.05440048
171	0x3e2ee8b6	0.1708096
172	0x3e507b58	0.20359552
173	0x3e0b4e60	0.13604116
174	0x3e0f2086	0.1397725
175	0xbeb9c325	-0.36281696
176	0x3d7d06f1	0.061774198
177	0x3d1f703e	0.038925402
178	0xbd37a7bc	-0.0448377
179	0x3d880f21	0.066435106
180	0x3d9e46dc	0.07728359
181	0xbbb62b75	-0.0055593797
182	0xbbf397f3	-0.0074338852
183	0x3d8bb40b	0.0682145
184	0xbe0aba1e	-0.1354756
185	0x3d36db43	0.044642698
186	0x3e9234e5	0.2855598
187	0xbd9469f0	-0.072467685
188	0x3dbb0073	0.09130945
189	0x3e8e16d6	0.27751797
190	0x3c6bdd02	0.014395954
191	0x3c0b09a3	0.008486184
192	0x3e73ddbc	0.23815054
193	0x3d2dc9f2	0.04242892
194	0x3e6b4be8	0.22978175
195	0x3e3f138c	0.186598
196	0xbc011039	-0.007877403
197	0x3d6fcdfc	0.05854605
198	0x3b2c6f16	0.002631133
199	0xbd202a75	-0.03910299
200	0x3d9705bf	0.07374143
201	0xbc1ec5d1	-0.009690718
202	0xbe28014f	-0.16406749
203	0xbe04a6de	-0.1295428
204	0xbdc85fe1	-0.097839125
205	0x3d9c14cb	0.076211534
206	0x3e40e154	0.18835956
207	0x3e389301	0.18024828
208	0xbe49fbac	-0.19724911
209	0x3db00e8e	0.08596526
210	0x3e320d18	0.17387807
211	0x3d974d1e	0.07387756
212	0x3d8fe81b	0.070266925
213	0xbce2de6a	-0.027693946
214	0x3b04525b	0.002019069
215	0x3e3dda8b	0.18540399
216	0xbd7c561b	-0.061605554
217	0x3e2b9b47	0.16758452
218	0x3db378d0	0.087632775
219	0xbc232bd8	-0.009959184
220	0x3da3fd43	0.0800729
221	0xbdf302be	-0.118657574
222	0x3d56c301	0.052432064
223	0x3e011aab	0.1260783
224	0x3e134334	0.14381105
225	0x3d7a1ea6	0.061064385
226	0x3d5a7b3a	0.053340174
227	0x3e3fbdd2	0.18724754
228	0x3c9dd4ae	0.019266453
229	0x3e3f56dc	0.18685478
230	0xbdf322b7	-0.11871856
231	0x3dc58e6a	0.09646304
232	0x3dafa91d	0.08577178
233	0xbdfc6adf	-0.123250715
234	0x3c0e1ad9	0.008673393
235	0xbc5c80f2	-0.013458477
236	0xbe1a6f1e	-0.1508145
237	0xbd4f5f23	-0.05062784
238	0xbe2efa73	-0.17087726
239	0x3cd72cae	0.026266422
240	0xbd175bd1	-0.036952797
241	0xbd054142	-0.032532938
242	0xbd010f63	-0.031508815
243	0xbe500f9e	-0.20318457
244	0xbd9cf6f3	-0.07664289
245	0xbd925fb7	-0.071471624
246	0x3e6fbc94	0.2341178
247	0x3d9f2267	0.077702336
248	0xbe50fa73	-0.20408039
249	0x3d442792	0.0478893
250	0xbd6c5744	-0.05770041
251	0xbb853ce7	-0.004066098
252	0x3d8cd98c	0.06877431
253	0x3d20296b	0.039102
254	0xbe8a9c33	-0.27072296
255	0x3e3ad47a	0.18245116

mid_part.8.bias f4 [12]
0	0x3bb65384	0.005564155
1	0x3d133662	0.035940535
2	0xbba66c6a	-0.005078842
3	0xbd02479f	-0.031806584
4	0x3c6855bc	0.014180597
5	0x3a2e61f8	0.0006652172
6	0x3c922d87	0.017843975
7	0x3d2e439a	0.04254494
8	0xbd0f5290	-0.034990847
9	0x3d82f992	0.06395258
10	0x3d1564e1	0.03647316
11	0x3d18a019	0.037262056

mid_part.9.weight f4 [12]
0	0xbdf226cc	-0.11823806
1	0x3d3d6bd1	0.0462454
2	0xbde50d82	-0.11184217
3	0x3e8782a5	0.2646686
4	0x3f14f742	0.58189785
5	0x3f99fb55	1.2029825
6	0xbe261807	-0.16220103
7	0x3f866d4a	1.0502102
8	0x3e8934f0	0.267982
9	0x3eb4034d	0.35158768
10	0x3daa8e41	0.08327914
11	0x3fda47d8	1.7053175
