models/fsrcnn/track1/track1_x4__epoch_10.pth (torch, 57996 bytes, 22 tensors)

first_part.0.weight f4 [56, 1, 5, 5]
0	0xbc14f008	-0.009090431
1	0x3d23f76b	0.040030878
2	0x3ce878b6	0.028377872
3	0x3bb20c21	0.005433575
4	0xbc4365e2	-0.011926146
5	0xbd01b45b	-0.03166614
6	0x3d14dde7	0.036344435
7	0xbc79f513	-0.015256184
8	0xbd04a9fd	-0.032388676
9	0x3bc4466c	0.0059898403
10	0x3d82300e	0.06356822
11	0xbccaff9e	-0.02478009
12	0x3d26c5b6	0.040715896
13	0x3c9cd3f5	0.019144038
14	0x3c931ab3	0.017957067
15	0x3cc52fda	0.024070669
16	0xbc6d71a3	-0.014492425
17	0xbc37ecf9	-0.011225932
18	0x3d9d9c8d	0.07695875
19	0xba715d38	-0.0009207311
20	0x3bdc4f4c	0.00672332
21	0x3bc1c895	0.005913804
22	0x3d748f4f	0.059706982
23	0x3ad1bcb7	0.0016001676
24	0xbd30148b	-0.04298834
25	0xbceb450e	-0.028719451
26	0xbd1cbc2a	-0.038265385
27	0xbd3027a6	-0.04300656
28	0x3c070f19	0.008243346
29	0x3d406b6c	0.046977445
30	0xbd329e52	-0.043608017
31	0x3d18d325	0.037310738
32	0xbd2ff123	-0.042954575
33	0xbc7e788b	-0.015531669
34	0x3b9b154d	0.004732764
35	0xbd0b8a98	-0.03406772
36	0x3c7473e7	0.014920211
37	0x3a09fce7	0.00052638206
38	0x38aef9b1	8.343475e-05
39	0xbd886a91	-0.06660951
40	0xba88df3a	-0.0010442503
41	0x3cd79606	0.026316654
42	0xbbe43287	-0.006964031
43	0xba0ab750	-0.0005291598
44	0xbc6f4468	-0.014603712
45	0x3d105265	0.035234828
46	0x38e3e278	0.000108663866
47	0xbdbd4b2d	-0.09242854
48	0x3d45be97	0.048277464
49	0xb703f630	-7.8655285e-06
50	0xbcd7c8b3	-0.026340818
51	0xbd3c3b29	-0.045954857
52	0xbc5a0b85	-0.0133084105
53	0xbc682ac5	-0.014170353
54	0x3cabbdf2	0.020964596
55	0xbbe3655b	-0.0069395727
56	0x39e99c77	0.00044557799
57	0xbcad2a88	-0.021138445
58	0xbcd6c119	-0.026215123
59	0xbd97ee20	-0.074184656
60	0xbd2c5a49	-0.04207829
61	0xbda5f71d	-0.08103774
62	0xbd841ca8	-0.06450778
63	0xbc7f388a	-0.015577445
64	0xbd64d458	-0.05586657
65	0x3d327385	0.0435672
66	0xbd6a3da8	-0.057187706
67	0xbd8e90a1	-0.069611795
68	0xbcf56e84	-0.029959925
69	0xbc64760a	-0.013944158
70	0xbd85ca0c	-0.06532678
71	0x3d38981e	0.045066945
72	0x3d253cd1	0.040341202
73	0xbd31d5ec	-0.043416902
74	0xbc982472	-0.018572066
75	0x3d1aebb9	0.03782246
76	0xbb277e1b	-0.0025557342
77	0x3d5de8e8	0.054177195
78	0x3c85e4dd	0.016344482
79	0xbcc31763	-0.023814863
80	0xbd32c92d	-0.043648887
81	0xbcb02416	-0.021501582
82	0x3b347571	0.002753582
83	0xbd3ea4f5	-0.046544034
84	0xbb8616d0	-0.004092075
85	0x3c0707f2	0.00824164
86	0x3dbb6908	0.091508925
87	0xbd1a4fb6	-0.037673675
88	0xbd9ebe51	-0.07751144
89	0x3ccf3d0f	0.02529767
90	0x3d547aed	0.051875044
91	0xbd38e811	-0.04514319
92	0xbd74c188	-0.05975488
93	0xba1126b6	-0.00055370794
94	0xba8bbbb8	-0.0010660803
95	0x3cf6a85f	0.030109582
96	0xbd80976e	-0.06278883
97	0xbc977797	-0.018489642
98	0xbd37e6ad	-0.044897724
99	0xbdd1cb35	-0.10243837
100	0x3c33c409	0.010972031
101	0xbd202efc	-0.039107308
102	0xbcf40fd9	-0.029792713
103	0xbda99a58	-0.08281392
104	0xbc3e1524	-0.01160172
105	0xbc96343e	-0.018335458
106	0x3d91617c	0.07098672
107	0x3b5438b9	0.0032382442
108	0x3d15b615	0.0365506
109	0xbb9ae033	-0.0047264337
110	0x3ba5bb35	0.005057717
111	0xbda1d7e0	-0.07902503
112	0xbd3401af	-0.043946918
113	0xbb05fc09	-0.0020444414
114	0x3c4d6532	0.012536334
115	0xbc5fcd27	-0.013659752
116	0xbda25b72	-0.07927598
117	0xbd5edd46	-0.05441024
118	0xbd0e7806	-0.034782432
119	0x3d31287a	0.043251492
120	0xbd551c2a	-0.052028812
121	0xbc6a00b1	-0.014282391
122	0x3d48f282	0.0490594
123	0xbd90abdb	-0.07064029
124	0x3c8dbbf4	0.017301537
125	0xbda3ee9e	-0.08004497
126	0xbd5387d0	-0.051643193
127	0x3d3d8add	0.04627501
128	0x3c907a5a	0.017636467
129	0x3c6300c8	0.013855167
130	0x3ceca62e	0.028887834
131	0xbd0716c2	-0.032980688
132	0xbc676236	-0.014122536
133	0xbd6835b2	-0.056691833
134	0x3ac93129	0.0015349734
135	0xbd395d53	-0.045255017
136	0xbcd91924	-0.026501246
137	0x3d37d8fe	0.044884674
138	0x3ce39414	0.02778057
139	0xbcfe342a	-0.031030733
140	0x3d52fc4b	0.051510137
141	0xbd6645a0	-0.056218743
142	0x3c9dd2f4	0.01926563
143	0xbc881048	-0.016609326
144	0xbc5b3e27	-0.0133815175
145	0x3d52c9dc	0.05146204
146	0xbb939f34	-0.0045050625
147	0xbb951bb9	-0.004550424
148	0xbca4f9a8	-0.020138577
149	0xbcf7dd67	-0.03025694
150	0xbdbef39f	-0.09323811
151	0x3ccec46e	0.02524015
152	0x3c4a4aa0	0.012346894
153	0x3d8ee1c9	0.06976659
154	0xbc7b93a4	-0.0153550245
155	0xbc6005c1	-0.013673247
156	0x3c865bb5	0.016401151
157	0x3cd42e02	0.025900844
158	0xbd4b51ab	-0.04963843
159	0xbd5d7e4e	-0.05407553
160	0xbc61399d	-0.013746646
161	0xbd6692c1	-0.0562923
162	0xbcb9caf9	-0.022679793
163	0xbc7f6b3d	-0.015589532
164	0x3d0b1ac0	0.033961058
165	0xbda60ada	-0.081075385
166	0x3c985dc0	0.018599391
167	0xbd05e413	-0.03268821
168	0x3c1b0b82	0.009463193
169	0xbc8f39bf	-0.01748359
170	0xbd8a1a0e	-0.06743251
171	0x3c677302	0.014126541
172	0xbb368471	-0.0027849937
173	0xbb889db1	-0.004169189
174	0xbd89e62f	-0.06733357
175	0x3d9de44b	0.07709559
176	0xbd75432b	-0.05987851
177	0x3d96239c	0.07331011
178	0xbdf67604	-0.120342284
179	0xbb5eb706	-0.0033983602
180	0xbc71e49b	-0.014763976
181	0x3d3f71a1	0.046739224
182	0xbdd83691	-0.10557283
183	0x3d936fe7	0.07199078
184	0x3d3ae245	0.045625944
185	0x3d25320a	0.040330924
186	0xbde72adc	-0.11287472
187	0x3e8bc1e0	0.27296352
188	0xbd591ef3	-0.05300803
189	0x3d0437a5	0.03227963
190	0x3c6675c1	0.014066161
191	0xbdb38ae8	-0.08766729
192	0x3d6b41b5	0.05743571
193	0xbdcefa1a	-0.10106297
194	0x3dcfad38	0.10140461
195	0x3df62630	0.120190024
196	0x3be75980	0.00706023
197	0x3cd21b1d	0.025647694
198	0x3c2a8129	0.010406771
199	0x3cd31b21	0.025769772
200	0x3cc4de94	0.024031915
201	0x3d629ba1	0.0553242
202	0xbb8b7b3e	-0.004256635
203	0x39a78392	0.0003195075
204	0x3ce3bfbe	0.02780139
205	0x3ce03269	0.027367787
206	0x3d348d85	0.044080276
207	0xbcb4d695	-0.022074977
208	0x3cce47cb	0.025180718
209	0xbc3bb9bd	-0.011457858
210	0x3c061ced	0.008185607
211	0xbcc92ad1	-0.02455655
212	0x3da19249	0.0788923
213	0x3b621353	0.0034496381
214	0xbc7e1191	-0.015507118
215	0xbb7e9f21	-0.0038852172
216	0x3c86d206	0.016457569
217	0x3ca42aee	0.020040002
218	0xbc5eddea	-0.013602713
219	0xbd2f1d9c	-0.042752847
220	0x3caf779e	0.021419343
221	0x3cb4430d	0.022004629
222	0x3dc839b5	0.09776632
223	0xbd3fceb3	-0.046827983
224	0x3c70da7e	0.01470053
225	0x3d9ee832	0.077591315
226	0xbd2004d9	-0.039067123
227	0xbd75e207	-0.06003001
228	0x3d556809	0.05210117
229	0xbd71f045	-0.05906703
230	0xbc690432	-0.014222192
231	0x3bd5200c	0.0065040644
232	0x3cfb1bb8	0.030652866
233	0xbd450841	-0.048103575
234	0x3c532439	0.012887054
235	0x3c4f3bc2	0.012648525
236	0xbc73b351	-0.014874295
237	0x3d9a0e45	0.07522253
238	0x3d5ccc60	0.053905845
239	0x3d369419	0.04457483
240	0x3d4e257a	0.05032871
241	0x39aaeaac	0.0003259977
242	0x3c7fc12d	0.015610022
243	0xbd244b86	-0.040111087
244	0x3d50bd23	0.050961625
245	0x3cf0f6d0	0.029414564
246	0x3d172e66	0.036909483
247	0x3cdbfa4e	0.026852753
248	0x3d7172ea	0.05894748
249	0x3d4c64a0	0.04990065
250	0xbcb0a9b7	-0.021565301
251	0x3cd5eaf4	0.026113011
252	0xbd371431	-0.04469699
253	0xbc0aaa73	-0.00846349
254	0xbd435e73	-0.047697496
255	0x3c29ae1b	0.010356451

first_part.0.bias f4 [56]
0	0xbc09abe2	-0.008402796
1	0xbaf76f2d	-0.0018877737
2	0x3b897b33	0.0041955947
3	0xbb7cd23a	-0.0038577453
4	0x3bd60dc2	0.006532402
5	0xbc0d72f8	-0.008633368
6	0x3b0172c7	0.001975225
7	0x3cffc972	0.031223986
8	0xbc1e0a55	-0.009646018
9	0xbc03f2f2	-0.008053528
10	0xbc0604e7	-0.00817988
11	0xbae7878a	-0.0017664295
12	0xbbfb339f	-0.007666066
13	0x3c5fef61	0.013667912
14	0x3d5d60fb	0.054047566
15	0xbc6bdc6f	-0.014395817
16	0xbab32d91	-0.0013670196
17	0xbb87046c	-0.0041204
18	0x3bd38dce	0.0064561134
19	0xbcca7ae1	-0.024716796
20	0x3ba6b48d	0.0050874413
21	0x3ad2a0e6	0.001606968
22	0xbc3a9d26	-0.011390006
23	0xbbbb2173	-0.0057107746
24	0xbc6b97ae	-0.014379425
25	0x3c2be32c	0.010491174
26	0xbb1814ad	-0.0023205683
27	0x3beaeab6	0.007169093
28	0xbc9dbece	-0.019256022
29	0x3b8b5640	0.004252225
30	0xbbbc56db	-0.0057476587
31	0x3a863142	0.0010238069
32	0xbbbd3684	-0.005774321
33	0xbbe5f980	-0.007018268
34	0xbab7a76b	-0.0014011686
35	0x3c953b9b	0.018216899
36	0xbb226b07	-0.0024783032
37	0x3ba56dae	0.005048475
38	0x3b8dcd41	0.0043274467
39	0x3c927dd1	0.01788226
40	0x3d896a5f	0.06709742
41	0x3b030654	0.0019992786
42	0x3c3cdb76	0.011526933
43	0xbd22921d	-0.039690126
44	0x3b8bb9c1	0.004264087
45	0x3b179256	0.0023127995
46	0xbc3d6b62	-0.011561247
47	0xbb8f6d4f	-0.0043770443
48	0xbdafe788	-0.08589083
49	0x3c4875b5	0.012235095
50	0xbc9d9f8e	-0.01924112
51	0x3cf54c39	0.029943572
52	0x39ffb402	0.00048771506
53	0x3b8e363a	0.0043399604
54	0xbb2a11be	-0.0025950517
55	0x3d284c87	0.041088607

first_part.1.weight f4 [56]
0	0x3e7c0aa1	0.2461343
1	0x3e78987a	0.24276915
2	0x3e83df04	0.25756085
3	0x3e84c35f	0.25930306
4	0x3e7cc934	0.24686128
5	0x3e8419c5	0.2580091
6	0x3e7f36d9	0.24923266
7	0x3e9ae1ac	0.302503
8	0x3fd95df3	1.6981796
9	0x3cb044e4	0.021517225
10	0x3fb34e48	1.4008265
11	0x3e815d74	0.25266612
12	0x3f6cc885	0.9249347
13	0x3e81fab0	0.25386572
14	0x3e7b0a56	0.24515662
15	0x3cb56d2f	0.02214679
16	0x3ea3dcb1	0.32004312
17	0x3e91191f	0.28339478
18	0x3e86d37f	0.26333234
19	0x3e3cadf3	0.18425731
20	0x3e82e4f5	0.25565305
21	0x3fc9caf4	1.5765061
22	0x3e7a5808	0.24447644
23	0x3e77652d	0.24159689
24	0x3e78dcfb	0.24303047
25	0x3e772c96	0.24138102
26	0x3ff9dcc6	1.95205
27	0x3e8206a2	0.25395685
28	0x3e97902a	0.29602176
29	0x3e8cff5f	0.27538583
30	0x3e76cefc	0.24102396
31	0x3e912e2b	0.28355536
32	0x3fe8fbed	1.8201882
33	0x3ecc80c1	0.3994198
34	0x3e75fea5	0.2402292
35	0x3e81946a	0.25308543
36	0x3e549103	0.20758443
37	0x3c54224c	0.01294763
38	0x3e8bb7d5	0.2728869
39	0x3e80b577	0.25138447
40	0x3f1a577d	0.60289747
41	0x3e8a3907	0.26996633
42	0x3e80d683	0.2516366
43	0x3ea22a50	0.31672907
44	0x3f5285b4	0.82235265
45	0x3e2bb546	0.16768369
46	0x40035c62	2.0525136
47	0x3e8309ec	0.25593507
48	0x3f0b683b	0.5445592
49	0x3e7a83a2	0.24464276
50	0x3fce5d63	1.6122249
51	0x3e817443	0.25284013
52	0x3e5b5c4b	0.21421926
53	0x3e336300	0.17518234
54	0x3e8b24e2	0.27176577
55	0x3e83fb40	0.25777626

mid_part.0.weight f4 [12, 56, 1, 1]
0	0x3f03be19	0.5146194
1	0x3e5b139a	0.21394196
2	0xbf413703	-0.75474566
3	0x3e780cd3	0.24223642
4	0x3ec97e8c	0.3935436
5	0x3eb01830	0.34393454
6	0xbdae972d	-0.08524928
7	0x3f03221b	0.51223916
8	0x3e2bdf83	0.16784482
9	0xbf977219	-1.1831695
10	0x3f0184f2	0.50593483
11	0xbda20213	-0.07910552
12	0xbf0c0f8a	-0.5471121
13	0x3f87ceef	1.0610026
14	0x3ede106e	0.4337191
15	0x3ed19987	0.40937445
16	0x3db98ad5	0.09059683
17	0x3d894691	0.067029126
18	0x3f0eb286	0.55741155
19	0xbe7d5ec4	-0.24743181
20	0x3c62119d	0.013798145
21	0x3f362bb7	0.71160454
22	0xbeba448d	-0.36380425
23	0xbeee6355	-0.4656016
24	0xbd9ada14	-0.07561126
25	0xbd9dbe9f	-0.07702374
26	0x3edbe426	0.429475
27	0xbf39872f	-0.724719
28	0x3e8a45ac	0.2700628
29	0x3ed42e13	0.41441402
30	0x3d3b4974	0.045724347
31	0x3eb1f965	0.34760585
32	0x3f0a80e3	0.54102916
33	0x3e0e5241	0.13898565
34	0xbf0e694b	-0.55629414
35	0xbf308da5	-0.6896613
36	0xbd644bf1	-0.055736486
37	0xbd37773d	-0.04479145
38	0xbe8f0779	-0.2793539
39	0x3ec0b474	0.37637675
40	0xbdc49dfd	-0.096004464
41	0x3f00a1c4	0.50246835
42	0xbec3cd3d	-0.38242522
43	0xbdee7503	-0.11643412
44	0xbe0e402a	-0.13891664
45	0xbe1ba0d1	-0.15198065
46	0xbdd1ca2f	-0.102436416
47	0xbf1c3122	-0.6101247
48	0xbe1a8ba2	-0.15092328
49	0xbf145802	-0.5794679
50	0xbdcef1c5	-0.10104708
51	0xbe390496	-0.18068156
52	0xbf2b6b71	-0.6696082
53	0x3e2b9fb7	0.16760145
54	0xbe97c52c	-0.29642618
55	0xbe6aab43	-0.22916894
56	0xbe9c554d	-0.3053383
57	0xbf7a68af	-0.97815984
58	0x3efe949f	0.49722764
59	0xbbe6ca7e	-0.007043182
60	0x3c5ab2c4	0.013348285
61	0x3f4bf2ca	0.7966734
62	0x3f3d0055	0.7382863
63	0x3f060a7e	0.5235976
64	0x3d084230	0.033266246
65	0xbdb844ae	-0.089974746
66	0xbda45018	-0.08023089
67	0xbef9880f	-0.48736617
68	0x3e44b689	0.19210257
69	0x3e3b5aa4	0.18296295
70	0xbf1e2181	-0.6176987
71	0x3e14ec32	0.14543226
72	0xbf0ce8ec	-0.5504291
73	0x3e73c239	0.23804559
74	0x3f216449	0.6304365
75	0xbdcc6bc7	-0.099814944
76	0x3f59157c	0.8479841
77	0xbe80ecee	-0.25180763
78	0x3da87035	0.08224527
79	0xbec92d54	-0.39292395
80	0xbec1ce5a	-0.37852746
81	0xbd95e94c	-0.073198885
82	0x3dbb28ee	0.09138666
83	0xbf0d4510	-0.55183506
84	0x3f1226d9	0.57090527
85	0x3f4c584d	0.79822236
86	0xbe4930e9	-0.19647564
87	0x3edb5b23	0.4284297
88	0x3e342842	0.17593482
89	0xbec66c12	-0.38754326
90	0xbdb29610	-0.087200284
91	0xbe1347d1	-0.14382865
92	0x3e7e7e41	0.2485285
93	0x3e63fada	0.22263661
94	0xbf33a78f	-0.7017755
95	0xbe7b018f	-0.24512313
96	0x3e769992	0.2408202
97	0x3f31e96e	0.6949681
98	0xbe95266f	-0.29130885
99	0x3f598609	0.84970146
100	0x3f3983ca	0.7246672
101	0x3e06d86b	0.13168494
102	0x3ee2e7a0	0.4431734
103	0x3db99514	0.090616375
104	0x3ea1f13e	0.31629366
105	0xbde7ea8d	-0.11324034
106	0x3f5b7792	0.85729325
107	0xbf1303e0	-0.5742779
108	0xbca4a712	-0.020099197
109	0xbe756b97	-0.23966824
110	0x3f289fd8	0.658689
111	0xbeedde30	-0.46458578
112	0x3e8be495	0.27322832
113	0xbf1a6ec6	-0.60325277
114	0xbe88c099	-0.2670944
115	0xbecb2896	-0.39679402
116	0xbd93fc2a	-0.07225831
117	0x3f1a953d	0.6038397
118	0xbded5864	-0.11589125
119	0xbd2e5714	-0.042563513
120	0x3f26ca9c	0.6515291
121	0x3f4a5da2	0.7904912
122	0x3dc1c6c7	0.09461742
123	0x3f5054f4	0.8137963
124	0xbedd54bb	-0.43228707
125	0xbe18ea65	-0.14933164
126	0xbdcc2c5e	-0.099694
127	0x3ec958b5	0.3932549
128	0xbc097dd2	-0.008391814
129	0xbe09a602	-0.13442233
130	0x3ef0cc28	0.4703076
131	0x3ebc3d25	0.367654
132	0xbf0943c8	-0.5361905
133	0x3e6e900c	0.23297137
134	0xbe02cd21	-0.12773563
135	0xbe9b990d	-0.30390206
136	0x3ed30ff7	0.41223118
137	0xbea6ee4e	-0.32603687
138	0xbe22a5a5	-0.15883501
139	0xbe840b91	-0.25790074
140	0xbefb364c	-0.49064863
141	0x3ecd5b2f	0.4010863
142	0x3ca8c50c	0.020601772
143	0xbe0d2911	-0.13785197
144	0x3ef9af3e	0.48766512
145	0x3f33f59d	0.7029665
146	0x3f20f815	0.62878543
147	0x3ec346c1	0.38139918
148	0x3ea165e4	0.3152305
149	0x3e9f3057	0.31091568
150	0xbef2a536	-0.4739167
151	0x3de4b4b4	0.11167279
152	0xbcc6989e	-0.024242695
153	0x3e034aad	0.12821455
154	0xbe5894e8	-0.21150553
155	0xbb715165	-0.0036822197
156	0x3e0f5b18	0.13999593
157	0x3ed19aa7	0.40938303
158	0x3e839a30	0.25703573
159	0x3ef72728	0.4827206
160	0xbc271c24	-0.01019958
161	0x3f197196	0.59938943
162	0x3e5df543	0.21675591
163	0xbf0f4249	-0.5596052
164	0x3c13c13b	0.009018238
165	0x3eda649a	0.42654878
166	0xbeb341f2	-0.3501125
167	0xbea576e8	-0.3231728
168	0x3d377bc2	0.04479576
169	0x3e9ff24e	0.3123955
170	0xbe065c79	-0.13121213
171	0x3e233890	0.15939546
172	0x3e7fb982	0.2497311
173	0xbb44cbc0	-0.003002867
174	0xbe2f9a4c	-0.17148703
175	0x3ea40497	0.32034752
176	0xbf14a96c	-0.5807102
177	0xbebc9ac2	-0.3683682
178	0x3f16ae90	0.5886011
179	0xbeb6a318	-0.35671306
180	0x3ec296b1	0.38005593
181	0xbef7c668	-0.4839356
182	0x3f21a5bd	0.6314352
183	0xbdccb9e4	-0.09996393
184	0x3e0b83df	0.13624524
185	0x3e68d277	0.22736536
186	0xbd74369d	-0.059622396
187	0x3f608a08	0.8771062
188	0xbefc15ab	-0.4923528
189	0x3f2409e4	0.6407759
190	0xbea4e138	-0.32203078
191	0xbed09bad	-0.4074377
192	0x3ef99a12	0.4875036
193	0x3d6557c9	0.05599192
194	0xbee0eaf9	-0.4392927
195	0x3f75c44a	0.9600264
196	0x3df0e571	0.117625125
197	0x3ecee805	0.40411392
198	0xbd92ef3c	-0.071745366
199	0xbe2e492d	-0.17020102
200	0xbf024c25	-0.5089744
201	0x3e5692bb	0.2095441
202	0xbddf968a	-0.10917385
203	0x3ef2bec4	0.47411168
204	0x3e0ffa4f	0.14060329
205	0xbdf7f87a	-0.1210794
206	0xbc353f07	-0.01106239
207	0x3e4dd920	0.20102358
208	0xbd969005	-0.07351688
209	0x3f898fd9	1.0747024
210	0x3f466bd8	0.77508307
211	0x3f2a55ce	0.6653718
212	0xbf7c0c76	-0.98456514
213	0xbe7d144c	-0.24714774
214	0x3ef33c61	0.47507003
215	0xbdb563de	-0.08856939
216	0x3ec808c8	0.390692
217	0x3f107d3d	0.564411
218	0xbe99cfd0	-0.3004136
219	0xbf02a2ce	-0.5102967
220	0xbed2accb	-0.41147456
221	0x3eeb111b	0.45911488
222	0xbe5972cb	-0.21235196
223	0x3f03862a	0.51376593
224	0xbe765fdf	-0.2406001
225	0x3db17121	0.08664156
226	0x3e002646	0.125146
227	0x3da9f3eb	0.08298477
228	0xbe2141da	-0.15747777
229	0xbeadb19a	-0.33924562
230	0xbe51ddcf	-0.2049477
231	0x3f0f6d73	0.5602638
232	0x3ef37cca	0.47556144
233	0xbe86e5c0	-0.2634716
234	0xbe1a0e1d	-0.15044446
235	0x3c8dcbb1	0.017309042
236	0xbfabc388	-1.3419046
237	0x3f4cf46e	0.8006047
238	0x3f4ebe24	0.8075888
239	0xbd8c2597	-0.06843107
240	0x3eb5f1f4	0.35536158
241	0xbe44fac2	-0.19236282
242	0x3e9ccfa8	0.3062718
243	0xbeccd370	-0.40005064
244	0x3e62a2bf	0.22132395
245	0x3e91af16	0.28453892
246	0x3ebb2981	0.36555102
247	0x3d374ecd	0.044752885
248	0xbde35368	-0.11099893
249	0xbe092f2b	-0.133969
250	0x3f0b52ac	0.5442302
251	0x3e684ca3	0.22685485
252	0xbf2f77d6	-0.6854223
253	0xbea21b14	-0.31661284
254	0x3d1c5bed	0.038173605
255	0x3e5ef385	0.21772583

mid_part.0.bias f4 [12]
0	0x3bad427e	0.0052874675
1	0xbccafefc	-0.02477979
2	0xbb9ff94e	-0.0048820144
3	0x3b3e5e53	0.002904792
4	0x3db35e00	0.087581635
5	0x3bdfba92	0.006827661
6	0x3d11e93c	0.03562282
7	0x3d0943d0	0.033511937
8	0xbcd5fcf1	-0.026121588
9	0xbb7c876e	-0.003853287
10	0xbbcb5fea	-0.006206502
11	0x3d3bc36f	0.045840677

mid_part.1.weight f4 [12]
0	0x3e8c57d8	0.2741077
1	0x3ebf0aed	0.37313023
2	0x3e7feca4	0.24992615
3	0x3e86efff	0.26354977
4	0x3f0c4f84	0.5480883
5	0x3f911435	1.1334292
6	0x3e7ffe25	0.24999292
7	0x3eeb1d70	0.45920897
8	0x3e9946ec	0.29936922
9	0x3ed30d0b	0.41220888
10	0x3f0ecbb9	0.55779606
11	0x3e94424f	0.2895684

mid_part.2.weight f4 [12, 12, 3, 3]
0	0x3e884d08	0.2662127
1	0xbd07e0ab	-0.033173244
2	0x3cc809c0	0.024418712
3	0xbe8dc082	-0.27685934
4	0x3e0a17c3	0.13485627
5	0xbdf9cabc	-0.12196872
6	0xbd3f304c	-0.04667692
7	0xbe05a4db	-0.13051169
8	0x3dc96db7	0.098353796
9	0x3e47c8db	0.19510214
10	0xbe65f191	-0.22455432
11	0x3e60b7ac	0.21945065
12	0x3d10a3a9	0.03531233
13	0xbdf6b967	-0.120470814
14	0xbdf7311c	-0.12069914
15	0xbd8dea6a	-0.069294766
16	0xbe2805a7	-0.16408406
17	0x3d22c0ba	0.03973458
18	0x3db5cf70	0.08877456
19	0x3e1e441c	0.15455669
20	0x3d65d71b	0.056113344
21	0x3e21c9eb	0.15799682
22	0x3c02f8d5	0.0079938965
23	0xbcf235e2	-0.029566709
24	0x3e858dda	0.26084787
25	0x3d7915ad	0.060811687
26	0xbd946cbd	-0.07247303
27	0x3c13decd	0.009025288
28	0xbd99d3d7	-0.07511108
29	0x3e06581a	0.13119546
30	0x3e0dde9c	0.1385445
31	0xbe97e1b5	-0.29664388
32	0xbe8e9028	-0.27844357
33	0xbe083fb3	-0.1330555
34	0xbd474b3d	-0.048655737
35	0x3e4f2e0d	0.2023241
36	0xbe30d0ee	-0.172672
37	0xbdf0a0d7	-0.11749428
38	0xbdbf650a	-0.093454435
39	0xbca09949	-0.019604342
40	0x3e844cb5	0.25839773
41	0xbe73935e	-0.23786685
42	0x3d0f62b1	0.03500623
43	0xbc74dc27	-0.0149450665
44	0x3d4f8537	0.050664153
45	0x3e59b626	0.2126089
46	0x3d30336b	0.043017786
47	0x3e56a657	0.20961891
48	0xbd5da704	-0.054114357
49	0xbddecedb	-0.10879298
50	0x3da03321	0.07822252
51	0xbdbf9c1b	-0.09355947
52	0x3d8d736c	0.069067806
53	0xbdd9d454	-0.106362015
54	0xbe439f56	-0.1910375
55	0x3cd99e4d	0.026564742
56	0xbbeaf458	-0.0071702413
57	0x3e74a070	0.23889327
58	0xbdd3e605	-0.10346607
59	0x3d0640ce	0.032776646
60	0xbdf2cd48	-0.118555605
61	0x3e0c15b8	0.1368016
62	0x3e16805d	0.14697404
63	0x3e066ccd	0.13127442
64	0xbd7a82c5	-0.061159868
65	0x3e7d9314	0.24763137
66	0x3c0b49c4	0.008501474
67	0x3c48013d	0.0122073265
68	0xbb771588	-0.0037702043
69	0x3bde109e	0.0067768833
70	0xbe6e20d9	-0.23254718
71	0xbe54c6e1	-0.20778991
72	0xbc0fb852	-0.008771973
73	0xbcb4c079	-0.022064434
74	0x3d47446c	0.048649237
75	0xbe499998	-0.19687498
76	0x3e8da3ce	0.27664036
77	0xbd9c2f72	-0.07626237
78	0xbd6af74a	-0.05736474
79	0xbd89a934	-0.06721726
80	0x3cc90f7f	0.024543522
81	0xbe3c9692	-0.18416813
82	0x3c501892	0.0127011705
83	0x3d128c6b	0.035778444
84	0x3d266010	0.040618956
85	0x3ddfecb4	0.109338194
86	0x3e056893	0.13028173
87	0xbdf46a02	-0.11934282
88	0xbd212657	-0.039343204
89	0x3c95d4c9	0.01828994
90	0x3d929df3	0.07159033
91	0xbc258eb9	-0.0101048285
92	0x3e719373	0.23591404
93	0xbdfd7a93	-0.12376895
94	0xbd35c14a	-0.044373788
95	0xbd9938a5	-0.07481507
96	0x3d2c7bc1	0.04211021
97	0x3dc8ef22	0.09811236
98	0x3d1399d4	0.036035374
99	0x3ce86379	0.028367745
100	0xbd51a5cb	-0.051183503
101	0xbdcf6cd0	-0.10128176
102	0xbcb5aa21	-0.02217585
103	0x3da17e4c	0.07885417
104	0x3cf7265d	0.03016966
105	0x3d7f55df	0.062337752
106	0x3d83a0cb	0.06427153
107	0x3c539cb3	0.012915778
108	0x3c5c2697	0.013436935
109	0xbd6427c5	-0.05570199
110	0xbc4f3a6b	-0.012648205
111	0x3cf49e57	0.029860659
112	0x3d8f4add	0.06996701
113	0xbe82cc70	-0.25546598
114	0x3e3f0309	0.18653502
115	0x3d92e994	0.07173458
116	0x3df518c8	0.11967617
117	0x3e17292b	0.14761798
118	0x3dc550ab	0.09634527
119	0xbc3f37b0	-0.011670992
120	0x3e6d4737	0.23171698
121	0x3deec682	0.11658956
122	0x3a01bfc0	0.00049495324
123	0x3d375484	0.044758335
124	0xbdf02e63	-0.117275976
125	0x3e150d92	0.14555958
126	0xbd01d2c1	-0.03169513
127	0xbea6ab9c	-0.32552803
128	0xbe265052	-0.16241577
129	0x3ca0ca7b	0.0196278
130	0x3d77a190	0.060456812
131	0xbe9644b6	-0.29349297
132	0xbde1ffec	-0.11035141
133	0x3dc7dee1	0.09759308
134	0xbdbe8fde	-0.09304784
135	0xbc1b35ff	-0.009473323
136	0x3e8cd540	0.27506447
137	0xbd838a72	-0.06422891
138	0xbc4d40d0	-0.01252766
139	0xbdb040d7	-0.08606117
140	0x3cf0c417	0.029390378
141	0xbdcca24d	-0.09991894
142	0x3eb808b0	0.35944128
143	0xbe2ce343	-0.16883568
144	0x3e68f136	0.22748265
145	0xbe28fdf0	-0.1650312
146	0xbd23f5cd	-0.040029336
147	0xbe363d18	-0.17796743
148	0xbe085283	-0.13312726
149	0x3d3bc506	0.045842193
150	0xbda22e1e	-0.079189524
151	0xbdb75913	-0.089525364
152	0xbc290cd3	-0.010317999
153	0xbde73dc7	-0.1129108
154	0x3d297e27	0.041380074
155	0xbe86154d	-0.26188126
156	0x3c20a48a	0.009804854
157	0x3dd8a0d8	0.105775535
158	0x3dc51b63	0.09624364
159	0x3e129781	0.14315607
160	0xbd749acf	-0.05971795
161	0xbcc1d82d	-0.023662651
162	0x3e44698f	0.19180892
163	0xbe4d69a5	-0.20059831
164	0xbe28be29	-0.1647879
165	0xbc7d0124	-0.0154421665
166	0x3e4eab02	0.20182422
167	0xbd4dd78a	-0.050254382
168	0xbe960206	-0.2929842
169	0xbc35725b	-0.011074628
170	0x3df83447	0.12119346
171	0xbe28cf0e	-0.16485235
172	0x3e2ee7d9	0.1708063
173	0xbde95452	-0.11393036
174	0xbd2a9bdc	-0.041652545
175	0x3e5d6005	0.2161866
176	0x3e181f5b	0.14855711
177	0xbd6a9b50	-0.057277024
178	0xbdf556c7	-0.11979442
179	0xbdcb24ca	-0.09919126
180	0x3db2cd02	0.087305084
181	0xbdd02ea2	-0.101651445
182	0x3da56b65	0.080771245
183	0xbcade05a	-0.021225143
184	0x3d913582	0.07090284
185	0xbea07087	-0.31335852
186	0x3d0e2fb0	0.034713447
187	0xbd8c65dc	-0.06855366
188	0xbd6584e6	-0.056034945
189	0xbdf331a5	-0.11874703
190	0xbdb73972	-0.08946504
191	0xbd8b9035	-0.06814615
192	0x3c5a7cb4	0.013335396
193	0xbd862425	-0.06549863
194	0xbb7dd6a3	-0.003873267
195	0xbe303616	-0.17208132
196	0xbd114420	-0.03546536
197	0x3cc2d8ff	0.023785112
198	0xbda5a01c	-0.08087179
199	0x3e06825c	0.13135666
200	0x3d2c5517	0.042073335
201	0x3e8166b6	0.25273675
202	0xbd3f995d	-0.046777118
203	0xbe04119a	-0.1289734
204	0xbe0e7315	-0.13911088
205	0x3d32cf5d	0.04365479
206	0x3dfdfee2	0.12402131
207	0x3e898d41	0.2686558
208	0x3e4baa30	0.1988914
209	0x3d8e308c	0.06942853
210	0x3dd6c9ac	0.104876846
211	0x3da5d45d	0.08097146
212	0x3e1ca792	0.15298298
213	0x3a045f94	0.00050496426
214	0x3e028a4b	0.12748067
215	0x3e22e7e7	0.15908776
216	0x3d8d443f	0.068977825
217	0xbe2279ed	-0.15866823
218	0xbd087d31	-0.033322517
219	0xbce686d7	-0.028140469
220	0x3e404acc	0.18778533
221	0x3e330939	0.17483987
222	0x3e20ff18	0.1572231
223	0xbcaf0943	-0.021366721
224	0x3e95d5b6	0.2926461
225	0xbd9acced	-0.07558618
226	0xbdd95425	-0.106117524
227	0x3d905c38	0.07048839
228	0x3e47341b	0.1945347
229	0xbd8d4f7b	-0.06899925
230	0xbc95ebe2	-0.018300954
231	0xbd6b7dad	-0.0574929
232	0x3dcd769b	0.10032388
233	0x3dc37b2e	0.09544979
234	0x3e111744	0.14169031
235	0xbe8a2537	-0.26981518
236	0xbe4f4010	-0.20239282
237	0x3d7de70c	0.06198792
238	0xbe04b4fb	-0.12959664
239	0xbbf0ebee	-0.0073523438
240	0x3de6d5a6	0.11271219
241	0x3cd9ab6b	0.026570996
242	0x3d1aa7a1	0.03775752
243	0xbe163bc6	-0.1467124
244	0x3bebfcc9	0.007201765
245	0xbd88e0fc	-0.06683537
246	0x3e831191	0.2559934
247	0x3e362a0e	0.1778948
248	0x3e3bc17d	0.18335529
249	0x3cf42663	0.02980346
250	0x3e1ecc88	0.1550771
251	0x3d3f6718	0.046729177
252	0x3ea58b06	0.3233263
253	0xbe6855e4	-0.22689015
254	0xbdb7d45f	-0.089760534
255	0x3d2745ae	0.040837936

mid_part.2.bias f4 [12]
0	0x3bf2f67c	0.007414637
1	0x3c1d4708	0.009599455
2	0xbb68788c	-0.0035472242
3	0x3b0863b7	0.0020811388
4	0x3d0faa31	0.035074417
5	0xbbfc761d	-0.00770451
6	0xbb99f867	-0.0046988013
7	0x3a1dc762	0.0006018785
8	0x3c8a93cf	0.016916184
9	0x39168b9c	0.00014357123
10	0x3ccee059	0.025253462
11	0x3ce926d5	0.0284609

mid_part.3.weight f4 [12]
0	0xbddb1fc6	-0.1069942
1	0x3e7ad3b0	0.24494815
2	0x3e85c5c0	0.26127434
3	0x3f8700a9	1.0547076
4	0x3f00b0e6	0.50269926
5	0x3e80e751	0.2517648
6	0x3f264068	0.64942026
7	0x3e075434	0.13215715
8	0x3e63202d	0.22180243
9	0x3f474393	0.77837485
10	0x3e89260c	0.2678684
11	0x3e8a643e	0.27029604

mid_part.4.weight f4 [12, 12, 3, 3]
0	0x3c5e0e04	0.013553146
1	0xbd82c8d4	-0.06385961
2	0x3e5e50ac	0.21710461
3	0x3e9adeb0	0.30248022
4	0xbd8b6b89	-0.0680762
5	0x3df4165a	0.11918326
6	0xbe311d76	-0.17296395
7	0x3d9e8591	0.077403195
8	0xbddbbd11	-0.10729421
9	0xbe53d603	-0.20687108
10	0xbde9f347	-0.114233546
11	0x3eace19e	0.33765882
12	0xbd4f690d	-0.050637294
13	0x3e261013	0.1621707
14	0xbe24e60c	-0.16103381
15	0xbde5c547	-0.11219268
16	0x3c58ab16	0.013224384
17	0x3e6ce56c	0.23134392
18	0xbe161afa	-0.14658728
19	0x3e20e13a	0.15710917
20	0xba0963f5	-0.000524103
21	0x3e0b3db0	0.1359775
22	0xbcb33439	-0.021875488
23	0xbd8f6ba8	-0.07002956
24	0xbd364da0	-0.044507623
25	0x3e3d01e9	0.1845776
26	0x3e184114	0.14868575
27	0xbdbe0048	-0.092773974
28	0xbe93d636	-0.28874367
29	0x3c9d3afe	0.019193169
30	0x3e3c339c	0.18379062
31	0xbe1f16e6	-0.15536079
32	0xbe84fd5c	-0.25974548
33	0xbe1a78a8	-0.15085089
34	0x3e33d44d	0.17561455
35	0x3dc7c039	0.097534604
36	0xbe08a45c	-0.13343948
37	0x3e10190e	0.14072058
38	0x3de6dab9	0.11272187
39	0xbe589faf	-0.21154664
40	0x3ebcdc7c	0.36886966
41	0x3cdf52bc	0.02726113
42	0xbe8cec98	-0.27524257
43	0x3d493f87	0.04913285
44	0x3e17810b	0.1479532
45	0xbc831109	-0.015999334
46	0xbd8b3305	-0.067968406
47	0x3de6dc7d	0.112725236
48	0xbe6c80a3	-0.23095946
49	0x3d978249	0.07397897
50	0xbeafc8dc	-0.3433293
51	0x3d6b1805	0.057395954
52	0x3e7ca271	0.24671341
53	0xbe079459	-0.13240184
54	0x3e128fc3	0.14312653
55	0xbe77161b	-0.24129526
56	0xbda5d766	-0.080977246
57	0x3db7da09	0.08977134
58	0xbb78b405	-0.0037949097
59	0xbe10bae9	-0.141338
60	0xbcfa07fd	-0.030521387
61	0xbe8f7633	-0.28019866
62	0x3e94887f	0.29010388
63	0x3d905419	0.0704729
64	0xbddf901d	-0.10916159
65	0x3e3fa7b0	0.18716311
66	0xbd19c40d	-0.037540484
67	0x3d43fb8c	0.047847316
68	0x3dde7f7c	0.108641595
69	0xbe5bd518	-0.21468008
70	0xbddde2a7	-0.10834246
71	0xbd9e156e	-0.07718931
72	0xbceedd15	-0.029158155
73	0x3cd5b48b	0.026087066
74	0xbdb97e7a	-0.090573266
75	0xbe282fad	-0.16424437
76	0x3bf1a6ac	0.007374605
77	0x3ce063a4	0.027391262
78	0x3d1adcbb	0.03780816
79	0xbd7809b8	-0.060556144
80	0x3e3b122a	0.18268648
81	0x3dbd464a	0.09241922
82	0xbc8eb098	-0.01741819
83	0x3e52cd39	0.20586099
84	0x3dd34701	0.10316277
85	0x3e1387d4	0.14407283
86	0xbd124948	-0.035714418
87	0x3d93e00a	0.072204664
88	0x3e2b068e	0.16701719
89	0xbead13e3	-0.33804235
90	0x3d79ac41	0.06095529
91	0x3e452db2	0.19255713
92	0xbc993ee5	-0.018706748
93	0x3e44de8f	0.19225524
94	0xbe315a60	-0.17319632
95	0x3d2d1b34	0.04226227
96	0xbd88b710	-0.066755414
97	0x3cd2d30b	0.025735399
98	0x3ca099cf	0.019604592
99	0x3e5c3347	0.21503936
100	0xbd09fe07	-0.033689525
101	0x3e96fa93	0.29488048
102	0xbea3c800	-0.31988525
103	0x3e837de2	0.25681978
104	0xbef0d4e9	-0.47037438
105	0xbc0fe5ed	-0.008782846
106	0x3e23c663	0.15993647
107	0x3e95487a	0.29156858
108	0x3df8b57b	0.1214399
109	0xbe64be59	-0.22338237
110	0xbd4688a6	-0.04847016
111	0x3e8b2ac0	0.27181053
112	0x3db4a787	0.08821016
113	0x3dc6afb9	0.09701485
114	0x3e94ba81	0.2904854
115	0xbe75711b	-0.23968928
116	0x3d20338c	0.03911166
117	0xbcb47dae	-0.022032585
118	0x3d830b13	0.063985966
119	0xbd1a89dd	-0.037729133
120	0x3e9494c6	0.29019755
121	0x3d6998eb	0.0570306
122	0x3ea6623c	0.32496822
123	0xbe79f174	-0.24408513
124	0xbe815895	-0.25262895
125	0xbda41170	-0.080111384
126	0xbe52c287	-0.20582019
127	0x3dfc3b93	0.123160504
128	0xbd490951	-0.04908115
129	0xbeebb872	-0.46039158
130	0xbe2ed803	-0.1707459
131	0xbd47aa97	-0.04874667
132	0xbf0ac092	-0.5420009
133	0xbe3c1a9b	-0.18369524
134	0x3dd5905f	0.10427927
135	0x3c9c52d1	0.019082459
136	0x3e2b2873	0.16714649
137	0x3e6e8ff1	0.23297097
138	0x3e30af43	0.17254357
139	0x3eab31b0	0.33436346
140	0x3d80adaa	0.06283124
141	0x3ebc1b9f	0.36739823
142	0x3eaeca02	0.34138495
143	0xbdca1ddc	-0.098689765
144	0xbcc7164b	-0.024302622
145	0xbcdf4f2a	-0.027259428
146	0xbd00df4c	-0.031462952
147	0xbe417b07	-0.18894587
148	0xbc8a6cf0	-0.016897649
149	0x3b839a7b	0.0040162182
150	0xbeae9257	-0.34096023
151	0xbd4a4c61	-0.049389247
152	0xbcea8cec	-0.02863165
153	0xbcf72483	-0.030168777
154	0xbe3ff3c0	-0.18745327
155	0x3e91ee15	0.28501955
156	0xbe79b689	-0.24386038
157	0xbd3e8a55	-0.046518642
158	0x3e0d0021	0.1376958
159	0xbdfff8e0	-0.12498641
160	0x3d075e03	0.03304864
161	0xbd896d89	-0.06710345
162	0x3e882a45	0.2659475
163	0xbd2956b4	-0.041342452
164	0xbd5d15ff	-0.053976055
165	0x3eba13fe	0.36343378
166	0xbdbca260	-0.09210658
167	0x3cb84819	0.022495316
168	0x3e00052c	0.12501973
169	0xbd298314	-0.04138477
170	0xbe820913	-0.25397548
171	0x3eab594d	0.3346657
172	0xbe7c0dc8	-0.24614632
173	0xbe768cf9	-0.24077214
174	0xbd34802c	-0.044067547
175	0xbb480696	-0.0030521504
176	0x3d9add55	0.07561747
177	0x3e26c1b2	0.16284826
178	0x3e0a7502	0.13521197
179	0x3eda5dd1	0.426497
180	0xbd899498	-0.06717795
181	0xbe884795	-0.26617113
182	0xbe283893	-0.16427831
183	0xbc820c35	-0.015874961
184	0xbde8bb40	-0.1136384
185	0x3db5e68a	0.088818625
186	0x3e4d8bd8	0.20072877
187	0x3e95e78b	0.29278216
188	0x3df65249	0.120274134
189	0xbed55b86	-0.4167139
190	0x3e00d089	0.1257955
191	0xbe1a7cb5	-0.15086634
192	0x3e469f5d	0.1939673
193	0x3e683b72	0.22678927
194	0xbd0d2fd0	-0.034469426
195	0x3d177d11	0.036984507
196	0xbc5d64a8	-0.013512768
197	0x3dd36612	0.10322203
198	0xbdd91695	-0.1060001
199	0xbebb7420	-0.36612034
200	0xbc5b4adc	-0.013384547
201	0x3eced655	0.40397897
202	0x3ecbd954	0.39814246
203	0x3e081ee8	0.1329304
204	0xbecee461	-0.40408614
205	0xbe7b7bfa	-0.24559012
206	0x3e110668	0.141626
207	0xbe6f0055	-0.2333997
208	0xbe828d11	-0.2549825
209	0xbe930273	-0.28712806
210	0xbe465c3d	-0.19371124
211	0x3d78591b	0.060631853
212	0x3b0bd363	0.0021335713
213	0x3f193d73	0.5985939
214	0x3ebab5cf	0.36466834
215	0x3e886b5e	0.26644415
216	0x3e4e9a74	0.20176107
217	0xbe46bade	-0.19407222
218	0x3e1c71a9	0.15277733
219	0x3d9c8c23	0.076439165
220	0x3d217e8d	0.03942733
221	0xbc343a91	-0.011000291
222	0xbe112697	-0.14174877
223	0x3e9bf98c	0.30463827
224	0x3d42d64b	0.047567647
225	0x3e629fd1	0.22131278
226	0x3c5a98f3	0.01334213
227	0x3e2fd25f	0.17170094
228	0xbcb9d1b9	-0.022683011
229	0x3cf6ff5e	0.030151065
230	0x3dcef33e	0.101049885
231	0xbb8cb638	-0.004294183
232	0x3d9acbb1	0.07558382
233	0x3c6ffb06	0.014647251
234	0xbdc69b64	-0.09697607
235	0x3d47845a	0.048710205
236	0x3e321a67	0.17392884
237	0xbd2cf77d	-0.04222821
238	0x3e2970f9	0.16547002
239	0x3e146a54	0.14493686
240	0x3d060bb9	0.032726023
241	0xbc90b3b4	-0.017663814
242	0xbe3b4df7	-0.1829146
243	0xbeab149e	-0.33414167
244	0xbe0870b6	-0.13324246
245	0xbda788f6	-0.0818042
246	0x3d15a7bf	0.03653693
247	0x3e58b5e8	0.21163142
248	0x3e2ca8cd	0.16861267
249	0x3e25fc37	0.16209494
250	0xbe3f53d9	-0.18684329
251	0x3d9e7fc4	0.07739213
252	0xbd01435c	-0.03155838
253	0xbebd62f5	-0.3698956
254	0xbe465fc5	-0.1937247
255	0xbe19dff3	-0.15026836

mid_part.4.bias f4 [12]
0	0x3d62d8a8	0.0553824
1	0x3c0d4dd6	0.008624515
2	0xbcdbc202	-0.026825909
3	0x3ca21bb3	0.019788599
4	0x3ae82c16	0.0017713334
5	0xbba2c5fa	-0.0049674483
6	0x3a1f7ef5	0.0006084287
7	0x3c5eed6c	0.0136064105
8	0x3ce00b48	0.02734913
9	0x3c2e22de	0.01062843
10	0xbcf53b23	-0.029935425
11	0xbc6cbeb6	-0.014449766

mid_part.5.weight f4 [12]
0	0x3f8b04b0	1.0860806
1	0x3f29609a	0.6616303
2	0x3ebd3e3c	0.36961544
3	0x3e86c06e	0.26318687
4	0x4001059c	2.0159674
5	0x3f823b47	1.017434
6	0xbe8e13bd	-0.27749434
7	0x3ce860a9	0.028366404
8	0x3f27b770	0.6551428
9	0x3faf6772	1.3703444
10	0x3edd9b03	0.43282327
11	0x3e81a4c3	0.25321016

mid_part.6.weight f4 [12, 12, 3, 3]
0	0x3d74afd5	0.059738
1	0xbd8251eb	-0.06363281
2	0xbcb5815f	-0.022156416
3	0x3d2414b3	0.040058803
4	0x3e048491	0.12941195
5	0x3e31372d	0.17306204
6	0xbd178e11	-0.03700072
7	0x3dd440de	0.10363935
8	0x3ce12b0c	0.027486347
9	0x3d02998f	0.031884726
10	0x3e875d0a	0.2643817
11	0x3e3f4f2d	0.18682547
12	0x3dc3bb17	0.09557169
13	0x3e5d1573	0.21590213
14	0x3e8af1da	0.27137643
15	0xbb9cc86e	-0.0047846353
16	0xbe8ecf86	-0.27892703
17	0x3d6d6d57	0.057965603
18	0x3d923e56	0.07140796
19	0xbe234877	-0.15945612
20	0x3d2b4bad	0.041820217
21	0x3e0143fb	0.12623589
22	0x3c2cac12	0.010539072
23	0xbd9a368e	-0.07529937
24	0xbe429daa	-0.19005457
25	0xbe0b7faa	-0.13622919
26	0x3e34575c	0.1761145
27	0x3e172098	0.14758527
28	0xbdea9b56	-0.11455409
29	0xbe447299	-0.1918434
30	0xbd098fe8	-0.033584505
31	0x3dbc5b19	0.09197063
32	0x3ddbcbcb	0.1073223
33	0x3dbc5b4d	0.09197102
34	0xbeb92a1c	-0.3616494
35	0xbe28e0cb	-0.16492002
36	0xbc3d53d4	-0.011555631
37	0x3e1e7c8f	0.15477203
38	0xbda18ba3	-0.07887962
39	0x3e2edd71	0.1707666
40	0x3dfd5302	0.12369348
41	0xbe0b233d	-0.13587661
42	0xbd2413d7	-0.040057983
43	0x3e3369a4	0.17520767
44	0xbd1cafa0	-0.038253427
45	0xbe03c032	-0.12866285
46	0xbecd6698	-0.40117335
47	0x3dc10e8e	0.09426604
48	0x3e643697	0.2228645
49	0x3c11675b	0.0088747395
50	0x3d5fbd7a	0.05462406
51	0x3dbfcb31	0.093649276
52	0x3df4c105	0.11950878
53	0x3e302f10	0.17205453
54	0x3e2bb015	0.16766389
55	0xbe55d604	-0.20882422
56	0x3d37e97d	0.044900406
57	0x3dbcecf1	0.092248805
58	0x3d618922	0.05506242
59	0x3d870c82	0.065941826
60	0x3e564b45	0.2092715
61	0x3e436ae4	0.19083744
62	0x3e09d757	0.13461052
63	0xbdeb528f	-0.11490356
64	0xbda79d98	-0.081843555
65	0x3e0e2dfa	0.13884726
66	0xbd1c1323	-0.038104188
67	0xbe27f049	-0.16400255
68	0x3cdf4c34	0.027258016
69	0x3d8b2cd1	0.067956574
70	0x3d3dfc9d	0.04638349
71	0xbe418437	-0.18898092
72	0xbd6af1cb	-0.057359498
73	0x3dc0dee0	0.0941751
74	0x3e0fb637	0.14034353
75	0xbcf538fc	-0.029934399
76	0x3d4c0666	0.04981079
77	0xbca04408	-0.01956369
78	0xbda2536d	-0.079260685
79	0xbe3d3f8a	-0.1848127
80	0x3cf879e8	0.030331567
81	0xbd0f3790	-0.034965098
82	0x3e3ad919	0.18246879
83	0x3b34e682	0.0027603214
84	0xbe2ca14b	-0.16858403
85	0x3d84f60a	0.06492241
86	0x3e3e64df	0.18593167
87	0xbe4ccda3	-0.20000319
88	0xbdfe3a3e	-0.124134526
89	0xbe713d5a	-0.2355856
90	0xbdafda00	-0.08586502
91	0x3e2004de	0.15626857
92	0x3dcd6d74	0.10030642
93	0xbd7386fb	-0.0594549
94	0xbe61a06a	-0.2203385
95	0x3de2e014	0.11077896
96	0xbdac9e38	-0.08428615
97	0x3e35c385	0.17750366
98	0xbd1e4f04	-0.038649574
99	0x3ddc2f65	0.10751227
100	0x3d56ea81	0.052469734
101	0x3d689730	0.05678481
102	0x3d7fa978	0.062417477
103	0xbe03eff0	-0.12884498
104	0xbbfac647	-0.007653031
105	0x3e1b8479	0.15187253
106	0xbe0641c7	-0.1311103
107	0x3c5460c9	0.0129625285
108	0x3eb0929a	0.34486848
109	0x3e173c53	0.14769106
110	0x3c4440b5	0.011978318
111	0xbe10b169	-0.14130177
112	0xbe56b4dc	-0.2096743
113	0x3e0f099a	0.13968506
114	0x3e0fce8e	0.14043638
115	0x3dd2ef1a	0.10299511
116	0x3c812443	0.015764361
117	0xbddad012	-0.106842175
118	0xbcb92d26	-0.022604536
119	0x3e1ae23f	0.15125369
120	0xbd1438b1	-0.036186878
121	0x3e1a88ac	0.15091199
122	0x3d833fdb	0.06408664
123	0x3e250e45	0.16118725
124	0xbe187351	-0.1488774
125	0x3c519bb1	0.012793467
126	0x3e0023be	0.12513635
127	0x3cb8a291	0.022538455
128	0x3c65ec9b	0.014033462
129	0x3e2f5760	0.17123175
130	0x3d782677	0.060583558
131	0x3e3fc6f3	0.18728237
132	0xbc75ccd8	-0.015002452
133	0xbdd79bce	-0.10527764
134	0x3c61bbc0	0.013777673
135	0x3de4a15a	0.11163588
136	0x3d01408d	0.0315557
137	0xbd0ca9aa	-0.03434149
138	0xbddaaea3	-0.106778406
139	0x3e18bfaf	0.14916871
140	0x3c28a83a	0.010294015
141	0xbde2d0c6	-0.110749766
142	0xbe58680f	-0.21133445
143	0x3d4517c9	0.048118386
144	0x3d6b95fa	0.057516076
145	0xbdd06218	-0.1017496
146	0x3e2a3add	0.16624017
147	0x3dec7778	0.11546224
148	0xbd305baa	-0.043056168
149	0xbdf05a31	-0.11735953
150	0x3dbd11fd	0.092319466
151	0x3e595ba3	0.21226363
152	0x3d58a09e	0.05288755
153	0x3d9556ad	0.07291923
154	0x3d168723	0.03674997
155	0x3de48251	0.111576684
156	0xbe4c869b	-0.19973223
157	0x3cbccec7	0.023047818
158	0xbd35679c	-0.044288263
159	0xbc2ed381	-0.010670544
160	0x3d036cec	0.032086298
161	0x3d54e9b6	0.051980697
162	0x3e224950	0.15848279
163	0x3bf6951c	0.0075250994
164	0x3caeb8cc	0.021328352
165	0x3d1f408c	0.038879916
166	0x3dc23ed6	0.09484641
167	0xbcd9a40c	-0.026567481
168	0xbda16969	-0.078814335
169	0xbd9aaaa0	-0.075520754
170	0xbda4ecb0	-0.08052957
171	0x3e1df00e	0.15423605
172	0xbd0d8b5f	-0.034556743
173	0x3dc9d62b	0.098553024
174	0x3ca49f0f	0.020095376
175	0x3e363f49	0.17797579
176	0xbe67bfd5	-0.22631772
177	0xbca929d0	-0.02064982
178	0xbcc43db6	-0.023955207
179	0xbdd11485	-0.10208992
180	0x3e753653	0.23946504
181	0xbe9b7b9a	-0.30367738
182	0x3e12e900	0.14346695
183	0xbc6b37d3	-0.014356571
184	0x3d5fc6cf	0.054632958
185	0x3e5ee514	0.21767074
186	0x3c32862d	0.010896248
187	0x3e0f41fa	0.13990012
188	0xbd0e300b	-0.034713786
189	0x3db981be	0.090579495
190	0x3b524173	0.0032082468
191	0x3d63b764	0.055594817
192	0x3e1c8103	0.15283589
193	0x3e616bfa	0.22013846
194	0xbe2fa4b9	-0.1715268
195	0x3be7da96	0.007075618
196	0x3e1f08cd	0.15530701
197	0x3e4c7bd2	0.19969109
198	0x3dcbf791	0.09959329
199	0x3e588eee	0.21148273
200	0x3da28d3d	0.07937095
201	0xbe542b0b	-0.20719545
202	0xbe8139f8	-0.2523954
203	0xbd3f43de	-0.046695583
204	0x3dfaf335	0.12253419
205	0xbdc64996	-0.09682004
206	0x3e98e859	0.29864767
207	0xbd99d832	-0.07511939
208	0xbcdaa6ae	-0.026690807
209	0xbd051036	-0.032486163
210	0x3d50812d	0.05090444
211	0x3d811c46	0.06304221
212	0x3bc599dd	0.006030305
213	0xbe772269	-0.2413422
214	0xbe705fb3	-0.23474006
215	0x3d8e2222	0.06940104
216	0xbe8eacb1	-0.27866128
217	0xbcfe191f	-0.031017838
218	0xbe4a94f4	-0.19783384
219	0xbc74e7b9	-0.014947825
220	0xbdecf8fb	-0.11570927
221	0xbdad810e	-0.08471881
222	0x3e8a08ea	0.26959926
223	0x3e2e31e2	0.17011216
224	0xbe4f0b3d	-0.20219131
225	0xbe1ac629	-0.15114655
226	0xbe4296e8	-0.19002879
227	0x3d25aa93	0.040445875
228	0xbe089a23	-0.13340048
229	0x3d2f2646	0.04276111
230	0xbe04dcbd	-0.1297483
231	0x3e8d78ca	0.27631217
232	0x3e4065d7	0.18788849
233	0x3e382390	0.17982316
234	0xbe0364a7	-0.12831365
235	0x3e0996fd	0.13436504
236	0x3c03d7e5	0.008047079
237	0x3d908b99	0.07057876
238	0x3c1c8d61	0.009555192
239	0xbe12bc92	-0.14329746
240	0x3e25a372	0.1617563
241	0xbe0f74f4	-0.14009458
242	0xbe8df528	-0.27726102
243	0x3e1233e4	0.14277607
244	0x3dbed9c7	0.093188815
245	0x3c715657	0.014730058
246	0x3e2b45a0	0.16725779
247	0x3e246e7b	0.1605777
248	0xbde86d89	-0.11349017
249	0xbe2525e4	-0.16127735
250	0xbdec227e	-0.11530016
251	0x3ca221d7	0.019791527
252	0xbe97a134	-0.29615176
253	0xbe3bbfed	-0.18334933
254	0x3e2ed5e8	0.17073786
255	0xbd701913	-0.058617663

mid_part.6.bias f4 [12]
0	0x3ca7d4bd	0.020487184
1	0x3c07bee3	0.008285257
2	0x3cfa681e	0.030567225
3	0x3bc2c5d8	0.005943995
4	0x3ca7b950	0.020474106
5	0x3d651492	0.05592782
6	0x3d728879	0.05921218
7	0x3d477dfe	0.04870414
8	0x3a7ce55c	0.00096472143
9	0x3b31be12	0.0027121347
10	0x3d919625	0.07108716
11	0xbd526943	-0.051369917

mid_part.7.weight f4 [12]
0	0x3ec53cbf	0.38522908
1	0x3f84038c	1.0313582
2	0x3e98b7f9	0.2982786
3	0x3e8dc8a5	0.27692142
4	0xbda607b0	-0.08106935
5	0x3fa146d2	1.2599738
6	0x3f35d0d2	0.7102176
7	0x3e80876b	0.25103316
8	0x3e925ed2	0.28587967
9	0x3e4c3557	0.19942223
10	0xbea08349	-0.31350163
11	0x3e6495b6	0.22322735

mid_part.8.weight f4 [12, 12, 3, 3]
0	0x3dd1bc80	0.10241032
1	0xbde2f76e	-0.1108235
2	0xbe449138	-0.19196022
3	0xbda65e03	-0.081234
4	0x3e71e779	0.23623456
5	0x3e084742	0.13308433
6	0xbe9b3c6e	-0.30319542
7	0x3e103169	0.14081348
8	0xbd912df6	-0.070888445
9	0xbd357456	-0.0443004
10	0x3d106f32	0.035262294
11	0x3d8d907a	0.06912322
12	0x3db7ccdc	0.08974621
13	0x3ea027c1	0.3128033
14	0x3d1c50a4	0.038162842
15	0x3e4aadd2	0.1979287
16	0x3d661668	0.056173712
17	0xbd67c171	-0.056580964
18	0x3dafb346	0.085791156
19	0xbd24faef	-0.04027837
20	0xbc1ca604	-0.009561066
21	0xbe676bf8	-0.2259978
22	0xbd02545f	-0.031818744
23	0xbcc2dcd8	-0.023786947
24	0x3d71db58	0.059047073
25	0xbe3cca0b	-0.18436448
26	0xbb716c34	-0.0036838176
27	0xbd73d428	-0.0595285
28	0xbdad9fed	-0.08477769
29	0x3ceed841	0.029155852
30	0xbe2d784f	-0.16940425
31	0xbd83a12a	-0.06427224
32	0x3ddb0526	0.10694341
33	0x3bec0147	0.0072023007
34	0xbddf5759	-0.10905332
35	0xbe44c00b	-0.19213884
36	0xbc9e7192	-0.019341264
37	0xbc5919ae	-0.013250751
38	0x3c9cb68c	0.019130014
39	0x3ddfefcb	0.10934409
40	0xbc74ddbf	-0.0149454465
41	0x3e6a3faa	0.22875848
42	0xbdb0b0f7	-0.08627503
43	0x3d6af088	0.057358295
44	0xbcc1e248	-0.02366747
45	0x3d85dc3a	0.065361455
46	0x3e1c9229	0.1529013
47	0x3d4848c0	0.048897505
48	0xbe282cd5	-0.16423352
49	0x3d901e69	0.0703705
50	0x3d06a256	0.03286966
51	0x3eacb211	0.33729604
52	0xbe231754	-0.15926868
53	0x3dbc13d1	0.09183467
54	0x3df3833d	0.11890266
55	0xbeb05d98	-0.34446406
56	0x3d10aa6c	0.035318777
57	0x3d422065	0.047394175
58	0xbcf1fc2a	-0.029539187
59	0xbd4695e1	-0.04848278
60	0xbde0797c	-0.10960671
61	0xbdf1221d	-0.11774085
62	0x3d358076	0.044311963
63	0xbc91d559	-0.017801927
64	0x3e9e3a3f	0.30903813
65	0x3c388042	0.011261048
66	0x3d435f47	0.047698285
67	0x3e503d42	0.20335868
68	0xbdb8f51d	-0.09031127
69	0xbe34d3a9	-0.17658867
70	0xbc0c8312	-0.0085761715
71	0xbe5b78a5	-0.21432741
72	0xbe7cdc64	-0.24693447
73	0x3d116674	0.035498098
74	0x3d6f3eef	0.058409628
75	0x3c8ab311	0.016931089
76	0x3e3cc007	0.18432628
77	0xbe19d128	-0.15021193
78	0xbd47bfe4	-0.048766986
79	0xbe06e82b	-0.13174503
80	0xbe056f03	-0.13030629
81	0x3da694c1	0.08133841
82	0xbd80d719	-0.062910266
83	0xbe0ca2bf	-0.13733958
84	0xbe0f6550	-0.14003491
85	0xbd52c23d	-0.05145477
86	0xbcd57ddc	-0.026060991
87	0x3e6a777f	0.22897147
88	0xbd1f5e3c	-0.03890823
89	0xbaeb0850	-0.0017931554
90	0x3c8872c0	0.01665628
91	0x3e203d8d	0.1564848
92	0x3c9396c5	0.018016228
93	0xbd8478c0	-0.06468344
94	0xbd109665	-0.035299677
95	0x3d37ea16	0.044900976
96	0x3da68459	0.08130712
97	0x3dac9ed2	0.0842873
98	0xbd4bbffd	-0.04974364
99	0x3e360015	0.17773469
100	0x3ecfe2f2	0.40602833
101	0xbe49be5b	-0.19701521
102	0x3edff401	0.43740848
103	0xbc5b77a0	-0.01339522
104	0x3e546361	0.20741035
105	0xbe49e364	-0.19715649
106	0x3e024c9d	0.12724538
107	0x3e7191ac	0.23590726
108	0x3dea7c64	0.11449507
109	0xbdc0e84b	-0.09419306
110	0xbe1925ac	-0.14955777
111	0x3e6b5978	0.22983348
112	0x3e1db13b	0.1539964
113	0x3c65ed67	0.014033652
114	0x3d8f1615	0.06986634
115	0xbe85ba7b	-0.26118836
116	0xbe681426	-0.22663936
117	0x3d59882d	0.053108383
118	0xbe194873	-0.14969043
119	0x3c48a127	0.012245453
120	0x3dfacf85	0.122466125
121	0x3e563c9b	0.20921557
122	0xbe79f34b	-0.24409215
123	0xbe2846ac	-0.16433209
124	0x3b3fb1ba	0.002925022
125	0xbdd367f6	-0.10322563
126	0x3d861bed	0.06548295
127	0xbcbe7972	-0.023251269
128	0x3dbbfe5c	0.091793746
129	0x3d752317	0.059847917
130	0xbe8c99b1	-0.27461007
131	0x3e7c4233	0.24634628
132	0xbde8ad72	-0.11361207
133	0x3d9324f7	0.07184785
134	0x3c8e6cf1	0.017385932
135	0xbd4066e3	-0.04697312
136	0x3eb6db0d	0.35713997
137	0x3d45ccf1	0.04829115
138	0x3e094894	0.13406593
139	0xbba2c646	-0.0049674837
140	0x3d994451	0.074837334
141	0xbe3957db	-0.1809992
142	0x3d8652eb	0.06558784
143	0x3ddf83ee	0.109138355
144	0x3e1d8eec	0.15386552
145	0x3bc2e7ca	0.0059480416
146	0xbdd16ecf	-0.10226213
147	0x3d28ab82	0.041179188
148	0x3e485873	0.1956499
149	0xbe97430e	-0.29543346
150	0x3e209079	0.15680112
151	0xbea81468	-0.3282807
152	0x3d87d7b2	0.066329375
153	0x3e1e6829	0.15469421
154	0x3e1f610c	0.15564364
155	0xbcffc605	-0.031222353
156	0x3da76e09	0.081752844
157	0x3e67b9ac	0.22629422
158	0x3d8fb1a7	0.07016306
159	0xbe4f1b37	-0.20225225
160	0xbd6864b4	-0.056736663
161	0xbbf7947a	-0.0075555416
162	0xbd2c1812	-0.042015143
163	0xbc1922ae	-0.009346647
164	0x3e239b67	0.1597725
165	0x3de4a689	0.111645766
166	0x3ca12a21	0.019673409
167	0x3d506e63	0.050886523
168	0xbcf4794e	-0.029842999
169	0xbd342122	-0.04397691
170	0x3d8a3bb6	0.0674967
171	0x3e2bd54f	0.1678059
172	0x3e5803f5	0.2109526
173	0x3e08dafc	0.13364786
174	0x3e01fd84	0.12694365
175	0xbeb5a9f9	-0.3548124
176	0x3d794a3d	0.060861815
177	0x3d199aea	0.037501253
178	0xbd4e4860	-0.05036199
179	0x3d8a8c60	0.06765056
180	0x3dad318b	0.08456715
181	0xbbb4aeaf	-0.005513988
182	0xbb89d9d7	-0.0042068767
183	0x3d88864f	0.06666242
184	0xbe07afa2	-0.13250592
185	0x3d3f3fab	0.046691578
186	0x3e927a55	0.28608957
187	0xbda2280f	-0.07917797
188	0x3dcdeb7a	0.10054679
189	0x3e909feb	0.28247008
190	0x3c7df288	0.0154997185
191	0x3c2ab96d	0.0104201855
192	0x3e758212	0.23975399
193	0x3d2aa3aa	0.04165999
194	0x3e6d4a56	0.23172888
195	0x3e41ca04	0.18924719
196	0xbbc862ff	-0.006115317
197	0x3d7372fe	0.059435837
198	0x3bbf1620	0.005831495
199	0xbd197641	-0.03746629
200	0x3d9e1cb4	0.077203184
201	0xbc1751d7	-0.009235821
202	0xbe2cbe5d	-0.16869493
203	0xbe06291d	-0.13101621
204	0xbdc48966	-0.09596519
205	0x3d9e228a	0.077214316
206	0x3e3defe2	0.1854854
207	0x3e355065	0.1770645
208	0xbe4f9854	-0.20272952
209	0x3dd07584	0.10178664
210	0x3e257183	0.16156583
211	0x3d856910	0.0651418
212	0x3da399c6	0.07988314
213	0xbc93602c	-0.017990194
214	0x3af76ea0	0.0018877573
215	0x3e48dca5	0.19615419
216	0xbd5ffb53	-0.05468304
217	0x3e2f5831	0.17123486
218	0x3dc976b0	0.09837091
219	0xbc20f987	-0.009825117
220	0x3d9f8e3e	0.077908024
221	0xbded7c75	-0.11596004
222	0x3d56f436	0.05247899
223	0x3df5e9a1	0.12007452
224	0x3e135745	0.1438876
225	0x3d843338	0.06455082
226	0x3d680c8e	0.056652598
227	0x3e4206be	0.18947884
228	0x3ca4bea5	0.020110438
229	0x3e3c84ec	0.1841008
230	0xbdfd4ed1	-0.12368549
231	0x3dc27dca	0.094966486
232	0x3da9d128	0.082918465
233	0xbe0105f3	-0.12599926
234	0xbbafbfd3	-0.0053634434
235	0xbcd8d2b2	-0.026467655
236	0xbe23e568	-0.1600548
237	0xbd5c8534	-0.05383797
238	0xbe34f470	-0.1767137
239	0x3cbee22c	0.023301207
240	0xbd3d7456	-0.046253525
241	0xbd11cc9a	-0.035595514
242	0xbcefda47	-0.029278887
243	0xbe54f741	-0.20797445
244	0xbd9f3028	-0.07772857
245	0xbd8df3b1	-0.06931246
246	0x3e6e3976	0.23264107
247	0x3da45b11	0.08025182
248	0xbe4e339f	-0.2013688
249	0x3d47b37a	0.048755147
250	0xbd5cdce8	-0.05392161
251	0x3b47937f	0.0030452905
252	0x3d8ef2bc	0.06979892
253	0x3d2b6e8e	0.04185348
254	0xbe894488	-0.26810098
255	0x3e384341	0.17994405

mid_part.8.bias f4 [12]
0	0xbacf9552	-0.0015837348
1	0x3cab7b47	0.020932807
2	0xbb40c0d1	-0.0029411803
3	0xbccccc9f	-0.024999915
4	0x3ad34590	0.0016118754
5	0x399123e4	0.00027683296
6	0x3bb5a28f	0.00554306
7	0x3cd1a311	0.025590451
8	0xbca55dc4	-0.020186312
9	0x3d65d4df	0.056111213
10	0x3cbdddf3	0.023177123
11	0x3c9f69af	0.019459574

mid_part.9.weight f4 [12]
0	0xbf43ce76	-0.7648691
1	0x3b9fce46	0.0048768846
2	0x3dd13959	0.10216016
3	0x3e8765fc	0.26444995
4	0x3eb784ea	0.35843593
5	0x3fa061e4	1.2529874
6	0xbe1ee6ba	-0.15517703
7	0x3f5d4fc1	0.8644982
8	0x3e890f52	0.267695
9	0x3e8c657d	0.2742118
10	0x3db1e64a	0.08686502
11	0x3fcb7a22	1.5896647
