models/fsrcnn/track1/track1_x4__epoch_13.pth (torch, 57996 bytes, 22 tensors)

first_part.0.weight f4 [56, 1, 5, 5]
-0.006949347 0.038390853 0.030214833 0.006258394 -0.0112557085 -0.030756287 0.037633408 -0.011820147
-0.029921668 0.004024349 0.06449055 -0.024369694 0.045160323 0.019271594 0.021496955 0.02258733
-0.013334198 -0.009597238 0.081276506 -0.0015990732 0.010382581 0.0055394396 0.06327043 0.0007769342
-0.040904805 -0.028186189 -0.03706718 -0.04343443 0.008017388 0.04600081 -0.043667264 0.037519842
-0.04519137 -0.016771233 0.0032113222 -0.0356419 0.01431864 -0.0020886401 -0.0013992894 -0.06862687
-0.0010674373 0.025544353 -0.009408536 -0.0033527417 -0.01456223 0.033466388 0.00088692375 -0.095158026
0.04664415 -0.0015269907 -0.025656985 -0.045228243 -0.013031473 -0.013853595 0.020626584 -0.008174365
-0.0011719328 -0.02185808 -0.02643401 -0.0741524 -0.043037377 -0.08287823 -0.06791053 -0.0165226
-0.0565838 0.042396355 -0.05823142 -0.07112163 -0.03117079 -0.014136989 -0.06693008 0.043972794
0.040032066 -0.04325257 -0.018669784 0.038197048 -0.002547211 0.051989865 0.014689329 -0.024919283
-0.045894 -0.022292515 -7.765273e-05 -0.047540665 -0.005993295 0.00734839 0.08966032 -0.039780885
-0.07965002 0.023456527 0.05071936 -0.04504539 -0.0624878 -0.0006920109 -0.0008300923 0.028789382
-0.062695794 -0.02020505 -0.046726525 -0.10277184 0.01195098 -0.037621126 -0.030628685 -0.08086565
-0.010361668 -0.017451115 0.06908077 0.0024636933 0.035300057 -0.0036411157 0.0039025045 -0.07984817
-0.047430083 -0.0038473203 0.011273696 -0.013962434 -0.08148457 -0.055834573 -0.037853245 0.04168605
-0.05410237 -0.0147522865 0.04854819 -0.07146805 0.016189475 -0.08025739 -0.052912757 0.044971686
0.016557138 0.014760864 0.027712675 -0.033084065 -0.014116618 -0.05639286 0.0037347476 -0.044032034
-0.029346263 0.049627665 0.027037488 -0.028432526 0.048989635 -0.055401053 0.014953697 -0.018548558
-0.01583388 0.05276949 -0.004459585 -0.005954869 -0.023014478 -0.031705547 -0.0923628 0.026619414
0.012100404 0.07079543 -0.014255464 -0.014258051 0.014494569 0.025120633 -0.050204992 -0.052909497
-0.014144893 -0.05751309 -0.026445657 -0.016609851 0.033277854 -0.08077704 0.017868951 -0.033571534
0.008267572 -0.017490152 -0.06824526 0.014024886 -0.0025375597 -0.0037990168 -0.067187436 0.079018705
-0.06973275 0.07509207 -0.12953988 -0.00047454232 -0.02159353 0.0508621 -0.115181 0.07395509
0.03395476 0.044654634 -0.13037747 0.29038897 -0.07163936 0.03394463 0.005342709 -0.09085304
0.04481678 -0.10407623 0.087498516 0.13848805 0.0015583729 0.034958173 -0.0038956322 0.024850806
0.023559118 0.052191366 -0.0070312857 -0.0050464366 0.025574863 0.021748899 0.045702055 -0.02578785
0.025546378 -0.014007198 0.009954108 -0.029510243 0.083148174 -0.00061097473 -0.01865613 -0.008301298
0.018811017 0.014966933 -0.015345193 -0.04564524 0.022046985 0.018661764 0.09838017 -0.04974424
0.012773581 0.07653119 -0.039167847 -0.061174702 0.052166093 -0.058841374 -0.013796627 0.0071563157
0.03295946 -0.046732176 0.014895227 0.013999028 -0.013214307 0.07663061 0.05726484 0.04564524
0.05005255 0.001507909 0.017760184 -0.0383722 0.052297704 0.02762157 0.03589855 0.027873453
0.06073068 0.050078567 -0.021957174 0.023848025 -0.04439253 -0.008871299 -0.048738442 0.011370058
00000000: 59b7 e3bb ba3f 1d3d 1985 f73c 3713 cd3b
00000010: dd69 38bc 9cf4 fbbc 7d25 1a3d 4aa9 41bc
00000020: 491e f5bc b0de 833b 9f13 843d f4a2 c7bc
00000030: 08fa 383d 76df 9d3c 621a b03c 1009 b93c
00000040: ae77 5abc bc3d 1dbc 4c74 a63d fe97 d1ba
00000050: b31b 2a3c 3084 b53b ed93 813d 2cab 4b3a
00000060: cc8b 27bd b9e6 e6bc c1d3 17bd 4de8 31bd
00000070: 5d5b 033c 586b 3c3d 72dc 32bd 68ae 193d
00000080: 961a 39bd d363 89bc 0c75 523b 3efd 11bd
00000090: bb98 6a3c 91e1 08bb 5c68 b7ba 3f8c 8cbd
000000a0: 41e9 8bba 6442 d13c 4326 1abc acb9 5bbb
000000b0: 6b96 6ebc 0d14 093d 7280 683a 36e2 c2bd
000000c0: f00d 3f3d 4e25 c8ba 992e d2bc 4041 39bd
000000d0: f681 55bc 30fa 62bc 15f9 a83c c6ed 05bc
000000e0: 8a9b 99ba b70f b3bc 238c d8bc 37dd 97bd
000000f0: f647 30bd 10bc a9bd ad14 8bbd 675a 87bc
00000100: 6ac4 67bd cda7 2d3d 1284 6ebd 38a8 91bd
00000110: e259 ffbc d49e 67bc a312 89bd d11c 343d
00000120: aaf8 233d 9b29 31bd 60f1 98bc 8274 1c3d
00000130: 1cef 26bb 53f3 543d 83ab 703c 8623 ccbc
00000140: 59fb 3bbd cb9e b6bc 7ed9 a2b8 00ba 42bd
00000150: 6763 c4bb c3ca f03b d49f b73d 48f1 22bd
00000160: 8d1f a3bd e727 c03c 1bbf 4f3d 8481 38bd
00000170: 35f3 7fbd 1168 35ba 8d9a 59ba b6d7 eb3c
00000180: a766 80bd 1085 a5bc 5064 3fbd 0b7a d2bd
00000190: 0bce 433c 9c18 1abd 02e9 fabc e49c a5bd
000001a0: fcc3 29bc a4f5 8ebc 387a 8d3d ea75 213b
000001b0: cb96 103d c99f 6ebb 29c1 7f3b 7087 a3bd
000001c0: 0c46 42bd 5323 7cbb 4fb5 383c b1c2 64bc
000001d0: 62e1 a6bd cbb2 64bd 010c 1bbd febe 2a3d
000001e0: 729a 5dbd 93b3 71bc 78da 463d d75d 92bd
000001f0: ca9f 843c fd5d a4bd 0cbb 58bd 3b34 383d
00000200: d6a2 873c 8dd7 713c b105 e33c 2883 07bd
00000210: 6349 67bc 33fc 66bd abc2 743b ef5a 34bd
00000220: 9367 f0bc 6146 4b3d b97d dd3c 54eb e8bc
00000230: 5ba9 483d 37ec 62bd 5a00 753c 25f3 97bc
00000240: 0eb6 81bc d224 583d b621 92bb 1021 c3bb
00000250: dc88 bcbc addd 01bd b528 bdbd f510 da3c
00000260: c640 463c 32fd 903d c08f 69bc 9a9a 69bc
00000270: a17a 6d3c c9c9 cd3c c0a3 4dbd a1b7 58bd
00000280: fbbf 67bc d992 6bbd 90a4 d8bc 6211 88bc
00000290: 5c4e 083d 6f6e a5bd e861 923c 4e82 09bd
000002a0: b674 073c 8247 8fbc 2cc4 8bbd a3c8 653c
000002b0: 304d 26bb edf8 78bb 9199 89bd 8fd4 a13d
000002c0: 0bd0 8ebd dfc9 993d 1aa6 04be fecb f8b9
000002d0: eae4 b0bc c754 503d 04e4 ebbd c475 973d
000002e0: 2514 0b3d c7e7 363d ac81 05be ddad 943e
000002f0: a8b7 92bd 8609 0b3d e411 af3b 2911 babd
00000300: cd91 373d eb25 d5bd 6c32 b33d d0cf 0d3e
00000310: 5142 cc3a 4d30 0f3d dd4d 7fbb eb93 cb3c
00000320: 0dff c03c 9dc6 553d b366 e6bb 945c a5bb
00000330: 6082 d13c bf2a b23c 1432 3b3d 0b41 d3bc
00000340: a346 d13c 727e 65bc 8e16 233c 77bf f1bc
00000350: 9749 aa3d d229 20ba bed4 98bc 2b02 08bc
00000360: 9019 9a3c de37 753c 686a 7bbc 81f6 3abd
00000370: e19b b43c 8ee0 983c 8b7b c93d 9ec0 4bbd
00000380: 4848 513c 62bc 9c3d 776e 20bd 5392 7abd
00000390: 1dac 553d a703 71bd 3f0b 62bc 877f ea3b
000003a0: 8000 073d 3d6a 3fbd 1c0b 743c 2e5c 653c
000003b0: d280 58bc 82f0 9c3d 898e 6a3d 81f6 3a3d
000003c0: e703 4d3d 08a5 c53a ce7d 913c 2b2c 1dbd
000003d0: 1e36 563d a146 e23c 5c0a 133d de56 e43c
000003e0: bcc0 783d 2f1f 4d3d 88df b3bc ef5c c33c
000003f0: f1d4 35bd ed58 11bc f6a1 47bd 7b49 3a3c

first_part.0.bias f4 [56]
-0.010899202 -0.0020489804 0.005976536 -0.0049463715 0.006621024 -0.008965412 0.0029363737 0.037605066
-0.011267119 -0.0084811775 -0.0096863955 -0.002503988 -0.027155401 0.015750825 0.073549666 -0.019180143
-0.004423477 -0.0023429408 0.0056133084 -0.029529229 0.0067813303 0.0058131563 -0.020677501 -0.0040041404
-0.017173618 0.008503108 0.0012395371 0.009165822 -0.019625712 0.005808608 -0.008437504 -0.0010264633
-0.007851874 -0.008264297 -0.0031360819 0.020568721 -0.0032882574 0.00639593 0.006619936 0.017574232
0.06630856 -0.0012918129 0.013130278 -0.04281445 0.008237698 0.0025652207 -0.00343842 -0.0046763583
-0.08056903 0.011626416 -0.03183547 0.023815542 0.008009669 0.00654355 -0.0014281569 0.048036374
00000000: 9192 32bc 3048 06bb d1d6 c33b 2c15 a2bb
00000010: 2df5 d83b aae3 12bc 2d70 403b c507 1a3d
00000020: b999 38bc a3f4 0abc b0b3 1ebc f319 24bb
00000030: 0175 debc e007 813c 35a1 963d ad1f 9dbc
00000040: d1f2 90bb 068c 19bb d8ef b73b 48e7 f1bc
00000050: ec35 de3b 4a7c be3b dd63 a9bc 2a35 83bb
00000060: b0af 8cbc 9f50 0b3c f777 a23a 3e2c 163c
00000070: 1ac6 a0bc 2356 be3b 753d 0abc 658a 86ba
00000080: 26a5 00bc f966 07bc b986 4dbb bc7f a83c
00000090: ce7f 57bb f394 d13b 0cec d83b d6f7 8f3c
000000a0: c8cc 873d 0c52 a9ba 6120 573c 345e 2fbd
000000b0: 69f7 063c 431d 283b 1d57 61bb 233c 99bb
000000c0: 6001 a5bd b97c 3e3c e965 02bd d018 c33c
000000d0: fd3a 033c 476b d63b fe30 bbba cac1 443d

first_part.1.weight f4 [56]
0.24562953 0.23990716 0.2572663 0.25708967 0.24526477 0.2538154 0.24714544 0.37313637
1.8583113 -0.049656913 1.4500908 0.25350693 0.90890235 0.25322133 0.2813447 0.016372519
0.258299 0.27981663 0.27451846 0.16328244 0.2541532 1.5124948 0.23808558 0.23672818
0.31317258 0.2369592 2.232061 0.25366408 0.2945488 0.27186564 0.23809741 0.27132505
2.343285 0.4272911 0.23733135 0.25308543 0.16829734 0.13535036 0.2706995 0.25133157
0.6681671 0.26930717 0.25043344 0.30804822 0.7902637 0.1771897 2.359996 0.25822362
0.5422415 0.24530123 1.8597552 0.2586801 0.20325613 0.17061657 0.27260217 0.25369647
00000000: 4f86 7b3e 39aa 753e 69b8 833e 42a1 833e
00000010: b026 7b3e 18f4 813e b213 7d3e bb0b bf3e
00000020: 25dd ed3f 0c65 4bbd 939c b93f a9cb 813e
00000030: d3ad 683f 3aa6 813e 6a0c 903e a91f 863c
00000040: c43f 843e 2044 8f3e af8d 8c3e 8333 273e
00000050: 5e20 823e 6e99 c13f b5cc 733e df68 723e
00000060: 2858 a03e 6fa5 723e 16da 0e40 42e0 813e
00000070: 1acf 963e f931 8b3e cfcf 733e 1eeb 8a3e
00000080: 62f8 1540 e6c5 da3e fd06 733e 6a94 813e
00000090: 2356 2c3e 4999 0a3e 2099 8a3e 88ae 803e
000000a0: 000d 2b3f a1e2 893e d038 803e 7fb8 9d3e
000000b0: b94e 4a3f 3771 353e 2d0a 1740 e335 843e
000000c0: 57d0 0a3f 3f30 7b3e 750c ee3f b871 843e
000000d0: 6022 503e 1cb6 2e3e 8392 8b3e 81e4 813e

mid_part.0.weight f4 [12, 56, 1, 1]
0.51682276 0.21284309 -0.7534878 0.24293956 0.39327416 0.35015258 -0.0858952 0.5125606
0.1703914 -1.1833848 0.5054671 -0.080120355 -0.5487344 1.0606618 0.43538603 0.4127024
0.089019015 0.06520957 0.5610804 -0.24750856 0.014410634 0.7133653 -0.36289698 -0.46968016
-0.076221004 -0.07834223 0.43255684 -0.72489184 0.2706571 0.42421997 0.0433538 0.34316748
0.5417229 0.13937646 -0.5543614 -0.69064504 -0.05452462 -0.042117838 -0.2834315 0.3778513
-0.098292604 0.5031578 -0.38144612 -0.11522131 -0.14339012 -0.15186457 -0.10063388 -0.61099094
-0.14898634 -0.5789962 -0.10060654 -0.19673368 -0.6626155 0.17684373 -0.29565614 -0.23694137
-0.29930598 -0.98184955 0.49536645 -0.011257542 0.010254958 0.80013645 0.7343217 0.5264037
0.038261287 -0.087246604 -0.083010614 -0.48607746 0.19256625 0.1798807 -0.6150218 0.15494734
-0.5505189 0.232792 0.6376795 -0.09447599 0.8461133 -0.24683367 0.080815144 -0.40018785
-0.3763635 -0.07231877 0.096381955 -0.55377495 0.5674221 0.80716527 -0.1987068 0.42736447
0.18114726 -0.38446465 -0.08276721 -0.14232112 0.2541413 0.22656196 -0.70631677 -0.24119025
0.24465755 0.6911409 -0.29403076 0.84716713 0.71961266 0.13682945 0.4416134 0.092391305
0.31356606 -0.10917346 0.86042213 -0.59323883 -0.01599324 -0.22827868 0.6572445 -0.47180796
0.27074015 -0.5999026 -0.26665315 -0.39485925 -0.07049438 0.6007461 -0.11409524 -0.04082174
0.6502931 0.7892215 0.09194865 0.8127109 -0.43024078 -0.14820227 -0.10081269 0.3870982
-0.008393384 -0.13113609 0.46704963 0.36525393 -0.53536916 0.23168862 -0.1268236 -0.30019644
0.4106401 -0.32321665 -0.1578001 -0.2577901 -0.48935652 0.3920777 0.02279605 -0.13198687
0.48562536 0.7024864 0.624652 0.38054782 0.31195042 0.30936038 -0.4726146 0.110301144
-0.023579108 0.12848313 -0.21064979 -0.0020243588 0.14321582 0.40758193 0.26175672 0.48220336
-0.009672118 0.5988872 0.21732283 -0.55076325 -0.0072691343 0.41832906 -0.3497428 -0.3236946
0.045182325 0.30708608 -0.12816562 0.16018341 0.24805616 0.007967781 -0.17042649 0.3067901
-0.5795482 -0.36930507 0.59875304 -0.35200015 0.38161513 -0.48187244 0.6201596 -0.09292957
0.13544565 0.22455584 -0.060233038 0.87472135 -0.4930017 0.64017946 -0.31922048 -0.42282748
0.48351645 0.050326847 -0.4439643 0.96104753 0.12252505 0.41450283 -0.08583808 -0.18135503
-0.5118583 0.20299158 -0.11114592 0.47226375 0.1415138 -0.12230088 -0.0007348412 0.19341101
-0.07406507 1.0770782 0.7768905 0.66427714 -0.984021 -0.24680036 0.4730523 -0.08636242
0.39367795 0.56027 -0.3009646 -0.50462776 -0.46527144 0.47051722 -0.21258897 0.5237087
-0.23361428 0.07981718 0.12774377 0.08705481 -0.15006128 -0.3312375 -0.20655969 0.56509614
0.47788832 -0.2655414 -0.155776 0.011230858 -1.3321421 0.80389524 0.7985937 -0.065789625
0.35522974 -0.19092342 0.30498746 -0.40171662 0.22200476 0.2837966 0.36361328 0.039828215
-0.11732797 -0.13630657 0.5477739 0.22121547 -0.68377924 -0.29840234 0.027637355 0.22192182
00000000: 7f4e 043f 8af3 593e 94e4 40bf 26c5 783e
00000010: 3b5b c93e 3347 b33e d3e9 afbd 2c37 033f
00000020: 157b 2e3e 2779 97bf 4b66 013f 2416 a4bd
00000030: dc79 0cbf c4c3 873f ebea de3e bb4d d33e
00000040: 9a4f b63d 988c 853d f7a2 0f3f e272 7dbe
00000050: 941a 6c3c 1c9f 363f a2cd b9be eb79 f0be
00000060: c219 9cbd e471 a0bd 1778 dd3e 8392 39bf
00000070: 9193 8a3e 5c33 d93e c193 313d a6b3 af3e
00000080: 5aae 0a3f b4b8 0e3e a1ea 0dbf 1dce 30bf
00000090: 3555 5fbd c183 2cbd ef1d 91be ba75 c13e
000000a0: a24d c9bd f3ce 003f e84c c3be 26f9 ebbd
000000b0: dcd4 12be 6382 1bbe 2319 cebd e769 1cbf
000000c0: e08f 18be 1839 14bf cd0a cebd 8e74 49be
000000d0: 2ba1 29bf 8616 353e 3e60 97be c2a0 72be
000000e0: a23e 99be 7e5a 7bbf aca0 fd3e 8e71 38bc
000000f0: 6904 283c bed5 4c3f 82fc 3b3f 65c2 063f
00000100: deb7 1c3d 59ae b2bd 7801 aabd 25df f8be
00000110: 1630 453e a532 383e 1272 1dbf 84aa 1e3e
00000120: ceee 0cbf 0761 6e3e f73e 233f a17c c1bd
00000130: e29a 583f f7c1 7cbe 6982 a53d 6ce5 ccbe
00000140: b7b2 c0be dd1b 94bd e763 c53d 32c4 0dbf
00000150: 9342 113f 62a2 4e3f cc79 4bbe 84cf da3e
00000160: ab7e 393e 8dd8 c4be db81 a9bd a1bc 11be
00000170: cf1e 823e dcff 673e 2dd1 34bf 94fa 76be
00000180: 8287 7a3e 9cee 303f 338b 96be f2df 583f
00000190: 8938 383f 051d 0c3e 271b e23e a737 bd3d
000001a0: bb8b a03e 5696 dfbd a044 5c3f 80de 17bf
000001b0: 4104 83bc e3c1 69be 2d41 283f d090 f1be
000001c0: 749e 8a3e 3793 19bf c386 88be fe2a cabe
000001d0: 5c5f 90bd 7fca 193f c4aa e9bd b234 27bd
000001e0: 9c79 263f 6c0a 4a3f 934f bc3d d20d 503f
000001f0: 8548 dcbe 56c2 17be e276 cebd bc31 c63e
00000200: 6784 09bc 8a48 06be 2121 ef3e 9002 bb3e
00000210: f40d 09bf c83f 6d3e 0cde 01be 59b3 99be
00000220: 6b3f d23e a77c a5be 5996 21be 10fd 83be
00000230: f08c fabe 69be c83e c8be ba3c 9127 07be
00000240: e3a3 f83e 26d6 333f 32e9 1f3f 2ad7 c23e
00000250: f7b7 9f3e 7c64 9e3e 8afa f1be 91e5 e13d
00000260: f928 c1bc 1591 033e 94b4 57be 1bab 04bb
00000270: 2ba7 123e 94ae d03e fa04 863e 5ce3 f63e
00000280: ce77 1ebc ac50 193f e089 5e3e d2fe 0cbf
00000290: eb31 eebb 3a2f d63e 7d11 b3be 4cbb a5be
000002a0: 1a11 393d 633a 9d3e d93d 03be 1f07 243e
000002b0: 6f02 7e3e 4c8b 023c 4884 2ebe 9813 9d3e
000002c0: 455d 14bf 8e15 bdbe e147 193f 5d39 b4be
000002d0: 0f63 c33e fcb7 f6be c8c2 1e3f dc51 bebd
000002e0: 44b2 0a3e f7f1 653e ebb6 76bd bded 5f3f
000002f0: b86a fcbe cde2 233f de70 a3be d87c d8be
00000300: 788f f73e 8623 4e3d 4a4f e3be 3607 763f
00000310: 6aee fa3d b739 d43e e0cb afbd 22b5 39be
00000320: 2509 03bf 06dd 4f3e 79a0 e3bd 8ecc f13e
00000330: fee8 103e e278 fabd 5ca2 40ba 890d 463e
00000340: 6daf 97bd b3dd 893f 4ce2 463f 110e 2a3f
00000350: cde8 7bbf 3cb9 7cbe e933 f23e c8de b0bd
00000360: 2890 c93e db6d 0f3f 0818 9abe 492f 01bf
00000370: 0f38 eebe a2e7 f03e ecb0 59be c611 063f
00000380: 9538 6fbe 3177 a33d 43cf 023e cb49 b23d
00000390: aaa9 19be f697 a9be 6284 53be 24aa 103f
000003a0: c7ad f43e 0bf5 87be be83 1fbe a201 383c
000003b0: a283 aabf 14cc 4d3f a370 4c3f b6bc 86bd
000003c0: ace0 b53e 6e81 43be 5127 9c3e cdad cdbe
000003d0: 3755 633e ca4d 913e 852b ba3e e922 233d
000003e0: a649 f0bd f393 0bbe e93a 0c3f 4f86 623e
000003f0: 280c 2fbf 31c8 98be bc67 e23c 793f 633e

mid_part.0.bias f4 [12]
0.0042508077 -0.022603307 -0.005637523 0.0032531426 0.098136134 0.007526278 0.04476498 0.03256408
-0.025539733 -0.0049297092 -0.007381326 0.046898134
00000000: 5c4a 8b3b 922a b9bc f8ba b8bb ad32 553b
00000010: 99fb c83d ff9e f63b 7c5b 373d ea61 053d
00000020: b438 d1bc 6689 a1bb 0ddf f1bb 4218 403d

mid_part.1.weight f4 [12]
0.27642497 0.37332055 0.24992615 0.2718139 0.7320148 1.0765435 0.25968382 0.45400706
0.30458122 0.41223133 0.70979834 0.30077818
00000000: 9387 8d3e df23 bf3e a4ec 7f3e 312b 8b3e
00000010: 5265 3b3f 2dcc 893f 47f5 843e 9d73 e83e
00000020: 12f2 9b3e fc0f d33e 58b5 353f 99ff 993e

mid_part.2.weight f4 [12, 12, 3, 3]
0.26955307 -0.036958233 0.02716285 -0.28044537 0.14110897 -0.12650068 -0.043647144 -0.13600376
0.10589661 0.19802977 -0.22639623 0.22262174 0.033999536 -0.11920681 -0.1233312 -0.066192575
-0.16668357 0.043173138 0.08806817 0.15322109 0.055807687 0.15679628 0.008347165 -0.030279735
0.26046383 0.059886187 -0.07266718 0.010960251 -0.0716904 0.12753886 0.14475659 -0.29879296
-0.273359 -0.13922842 -0.040729538 0.19569746 -0.17032444 -0.119290374 -0.091597535 -0.020250672
0.26279455 -0.2358337 0.035317294 -0.01411712 0.051967263 0.20976064 0.042048637 0.20831077
-0.055589113 -0.11048568 0.07757942 -0.09530223 0.0678463 -0.10853734 -0.19501214 0.031710517
-0.011258178 0.24088465 -0.106860496 0.03630343 -0.12174377 0.14091302 0.14361559 0.13117136
-0.059482403 0.24830239 0.008658093 0.010975543 -0.005480155 0.008239321 -0.23339966 -0.2075579
-0.0066952845 -0.02030046 0.048392866 -0.19980349 0.27477488 -0.08257037 -0.05191927 -0.071834706
0.02654302 -0.18523398 0.012077117 0.033560276 0.039553847 0.10882575 0.13008074 -0.12000348
-0.039791524 0.016934808 0.07225038 -0.012998599 0.23656006 -0.12612334 -0.042376418 -0.07598127
0.04233299 0.09607751 0.036879327 0.026153596 -0.047411766 -0.10343191 -0.022831554 0.07716184
0.030418826 0.06180227 0.066331685 0.012183353 0.016566603 -0.055168785 -0.01812332 0.036159243
0.067668304 -0.25543734 0.17909406 0.07694954 0.10579336 0.14724734 0.09851194 -0.01532953
0.23218672 0.113880776 0.0009460144 0.040712915 -0.11724149 0.14263357 -0.03323191 -0.32513356
-0.1622291 0.019908128 0.06161796 -0.2921292 -0.10957725 0.100443065 -0.09096727 -0.018953476
0.27458584 -0.046381213 -0.018242983 -0.083172224 0.037009515 -0.08678009 0.3574847 -0.17500034
0.22438402 -0.16359335 -0.034335833 -0.17331873 -0.1277816 0.048783276 -0.078531325 -0.086112
-0.013126512 -0.11101805 0.04107971 -0.26207954 0.010655614 0.108684875 0.09849789 0.14511384
-0.05772129 -0.020112025 0.1923414 -0.20332205 -0.16778065 -0.020024074 0.2028059 -0.055753343
-0.2875871 -0.008680047 0.12778537 -0.16067326 0.17221712 -0.11678271 -0.043161932 0.2128908
0.14684796 -0.057869017 -0.12174264 -0.09910279 0.0837581 -0.099977866 0.069881484 -0.022847202
0.06469125 -0.32100308 0.026609069 -0.065946035 -0.058931485 -0.11988718 -0.092479035 -0.06978991
0.013435408 -0.06547501 -0.0049799276 -0.1721432 -0.033726316 0.025355283 -0.084129 0.13211277
0.044136636 0.25583354 -0.045496047 -0.12661733 -0.13893725 0.04795762 0.12356622 0.2663325
0.19502342 0.06426947 0.10016869 0.07729181 0.14793289 0.0037011981 0.13042633 0.16685994
0.070626564 -0.15916355 -0.032220535 -0.025644777 0.18672027 0.17459404 0.16113284 -0.018312829
0.29658866 -0.075482376 -0.10671163 0.0699104 0.1932881 -0.06852934 -0.018649938 -0.059019767
0.09897105 0.09523918 0.14132954 -0.27018812 -0.20211256 0.06178397 -0.12992866 -0.0069223396
0.112903655 0.026753118 0.03852844 -0.14764528 0.004515047 -0.0644145 0.2589748 0.17110704
0.1835015 0.033404496 0.16063423 0.04645042 0.323969 -0.2289132 -0.0897721 0.043864958
00000000: dc02 8a3e 8461 17bd a084 de3c 8996 8fbe
00000010: df7e 103e 6589 01be 59c7 32bd 9244 0bbe
00000020: 52e0 d83d 51c8 4a3e 6ad4 67be f4f6 633e
00000030: 1943 0b3d b322 f4bd 1195 fcbd f98f 87bd
00000040: 19af 2abe 51d6 303d 165d b43d fde5 1c3e
00000050: 9a96 643d 348f 203e 8cc2 083c 350d f8bc
00000060: 845b 853e 384b 753d 88d2 94bd a092 333c
00000070: 6bd2 92bd 8c99 023e 123b 143e 64fb 98be
00000080: b6f5 8bbe e591 0ebe 04d4 26bd ea64 483e
00000090: 8869 2ebe 834e f4bd 7d97 bbbd bde4 a5bc
000000a0: 028d 863e 647e 71be dea8 103d 7e4b 67bc
000000b0: a0db 543d 7ecb 563e 313b 2c3d 6b4f 553e
000000c0: 69b1 63bd 5146 e2bd f5e1 9e3d d12d c3bd
000000d0: 00f3 8a3d d348 debd 43b1 47be e3e2 013d
000000e0: 3974 38bc 77aa 763e add9 dabd e8b2 143d
000000f0: cc54 f9bd 814b 103e f70f 133e c951 063e
00000100: d2a3 73bd fb42 7e3e adda 0d3c c4d2 333c
00000110: df92 b3bb 38fe 063c 5200 6fbe 0f8a 54be
00000120: 1e64 dbbb 264d a6bc 9937 463d 4999 4cbe
00000130: 4baf 8c3e a71a a9bd 4da9 54bd 131e 93bd
00000140: bf70 d93c faad 3dbe 1adf 453c 8076 093d
00000150: 3703 223d 09e0 de3d e333 053e 62c4 f5bd
00000160: 70fc 22bd deba 8a3c 02f8 933d 13f8 54bc
00000170: cd3c 723e 7a26 01be e592 2dbd 119c 9bbd
00000180: 5b65 2d3d 49c4 c43d c70e 173d 1140 d63c
00000190: d732 42bd 1cd4 d3bd 3d09 bbbc 0707 9e3d
000001a0: e730 f93c 6124 7d3d e8d8 873d b09c 473c
000001b0: afb6 873c aaf8 61bd 5b77 94bc b71b 143d
000001c0: ae95 8a3d afc8 82be 6f64 373e b897 9d3d
000001d0: 30aa d83d 02c8 163e a1c0 c93d b628 7bbc
000001e0: 5bc2 6d3e 533a e93d f4fd 773a 96c2 263d
000001f0: 4e1c f0bd 890e 123e 2f1e 08bd e877 a6be
00000200: 631f 26be 5f16 a33c 1d63 7c3d f591 95be
00000210: 0a6a e0bd 18b5 cd3d 0c4d babd 5244 9bbc
00000220: 8496 8c3e 3afa 3dbd 4f72 95bc 3356 aabd
00000230: 4a97 173d c3b9 b1bd 3c08 b73e 4a33 33be
00000240: edc4 653e 0485 27be bba3 0cbd 777a 31be
00000250: 2ed9 02be f9d0 473d 08d5 a0bd 7d5b b0bd
00000260: 9510 57bc 6e5d e3bd 3343 283d 4a2f 86be
00000270: e294 2e3c 2d96 de3d 43b9 c93d b998 143e
00000280: 296d 6cbd f9c1 a4bc 25f5 443e a833 50be
00000290: b1ce 2bbe 8709 a4bc 5aac 4f3e 9e5d 64bd
000002a0: 9e3e 93be c136 0ebc 2bda 023e 8887 24be
000002b0: af59 303e c62b efbd 91ca 30bd 0c00 5a3e
000002c0: 505f 163e 1008 6dbd 3554 f9bd 67f6 cabd
000002d0: 5e89 ab3d 32c1 ccbd 061e 8f3d 0e2a bbbc
000002e0: d97c 843d 845a a4be 43fb d93c b70e 87bd
000002f0: 2462 71bd 6987 f5bd a665 bdbd 03ee 8ebd
00000300: 2f20 5c3c c317 86bd a92e a3bb 4f46 30be
00000310: 9b24 0abd e2b5 cf3c d34b acbd 9248 073e
00000320: 9ec8 343d 9dfc 823e 105a 3abd f9a7 01be
00000330: 9145 0ebe 366f 443d 4910 fd3d bc5c 883e
00000340: 38b4 473e b69f 833d 3e25 cd3d 2b4b 9e3d
00000350: b87b 173e cd8f 723b 7b8e 053e 55dd 2a3e
00000360: a9a4 903d c5fb 22be aef9 03bd ff14 d2bc
00000370: 9933 3f3e c8c8 323e 0200 253e c904 96bc
00000380: 78da 973e 8196 9abd a18b dabd 2f2d 8f3d
00000390: 51ed 453e 1c59 8cbd c1c7 98bc b6be 71bd
000003a0: 55b1 ca3d c20c c33d b1b8 103e 1956 8abe
000003b0: 98f6 4ebe 3011 7d3d 050c 05be cbd4 e2bb
000003c0: 083a e73d 5b29 db3c ffcf 1d3d 5330 17be
000003d0: f6f2 933b c0eb 83bd 5898 843e af36 2f3e
000003e0: d1e7 3b3e 27d3 083d 4d7d 243e cc42 3e3d
000003f0: 44df a53e 3968 6abe 6fda b7bd beab 333d

mid_part.2.bias f4 [12]
0.009809299 0.0104237115 -0.003247088 0.00055321684 0.036755856 -0.010491867 -0.0046602185 0.0012849445
0.019721527 -0.0008380681 0.027728831 0.026163248
00000000: 2fb7 203c 37c8 2a3c 19cd 54bb c105 113a
00000010: 4f8d 163d 14e6 2bbc bfb4 98bb 956b a83a
00000020: 0a8f a13c ccb1 5bba 9327 e33c 4f54 d63c

mid_part.3.weight f4 [12]
0.17440507 0.24287218 0.25995922 1.3009565 0.631236 0.25089672 0.7756471 0.1208402
0.21117042 0.88713217 0.2738594 0.2913085
00000000: 3e97 323e 7cb3 783e 6019 853e be85 a63f
00000010: af98 213f 8975 803e cf90 463f 117b f73d
00000020: 0f3d 583e 181b 633f 4d37 8c3e 6326 953e

mid_part.4.weight f4 [12, 12, 3, 3]
0.006644237 -0.054317083 0.21044482 0.30015 -0.08105922 0.11430846 -0.18572973 0.081167094
-0.12753895 -0.20295863 -0.10839744 0.34077632 -0.046885088 0.16519704 -0.1600679 -0.11816544
0.018952895 0.22593565 -0.14578085 0.17582643 -0.009831098 0.13669975 -0.01039209 -0.049252436
-0.031326942 0.19227013 0.12032297 -0.11361376 -0.28307334 -0.012396264 0.19158593 -0.17071725
-0.25607225 -0.15895559 0.1789434 0.09863799 -0.13083757 0.14338513 0.14064436 -0.18562795
0.3822968 0.035431173 -0.25442103 0.07282931 0.14191279 -0.011759236 -0.0612439 0.107718304
-0.23213787 0.07719703 -0.34123078 0.053428464 0.24756195 -0.1288906 0.15587868 -0.24110135
-0.06844813 0.082167074 -0.002992156 -0.13911451 -0.03495722 -0.28535062 0.28926918 0.0789825
-0.099356875 0.17818607 -0.035589162 0.047276057 0.10253492 -0.21371834 -0.105618276 -0.09570496
-0.011483161 0.029828228 -0.08211027 -0.16270766 0.011596924 0.034383673 0.024443597 -0.07250556
0.18578218 0.08351499 -0.02048921 0.19363685 0.09232122 0.13882147 -0.03708317 0.065820545
0.16476545 -0.34213448 0.054058593 0.17210834 0.022059383 0.20260829 -0.14336462 -0.0013222154
-0.048806682 0.021612145 0.049799807 0.19924317 -0.011615248 0.27400365 -0.30708772 0.25211027
-0.46789226 -0.009410898 0.16747485 0.28581634 0.122046195 -0.22468968 -0.049285926 0.27062652
0.08898299 0.096177064 0.29069668 -0.24013337 0.04014585 -0.021731446 0.06451433 -0.03789183
0.2899156 0.056744028 0.32471764 -0.24377403 -0.25269374 -0.07941262 -0.20378709 0.12751961
-0.047026236 -0.46016976 -0.1709198 -0.04763856 -0.54109526 -0.18251286 0.107833445 0.018352194
0.16389047 0.23250918 0.17305627 0.3361675 0.061822988 0.36539757 0.33875257 -0.10072065
-0.024145052 -0.02651069 -0.031070761 -0.18821843 -0.015541989 0.0057843975 -0.3405172 -0.048083268
-0.027278773 -0.02957839 -0.18677066 0.28530717 -0.24360749 -0.046737287 0.1377077 -0.12430563
0.03327229 -0.06615307 0.2641036 -0.04261398 -0.055257093 0.36171925 -0.09389592 0.022011667
0.124666095 -0.04173819 -0.25485522 0.3321763 -0.24741462 -0.24106358 -0.044174172 -0.0035074516
0.07511133 0.1619639 0.13522662 0.42628732 -0.06695572 -0.26550874 -0.1617075 -0.013656773
-0.111886114 0.09370393 0.20280921 0.29678753 0.12166624 -0.41778103 0.12516306 -0.15043214
0.19425151 0.22767948 -0.034106523 0.036620665 -0.013935948 0.102665894 -0.10714554 -0.36854497
-0.017523026 0.40374106 0.39828587 0.13175377 -0.409505 -0.2474542 0.13729046 -0.23367463
-0.2559924 -0.28612 -0.19350642 0.062818296 0.0025151242 0.5974856 0.36343816 0.2650159
0.20624475 -0.19613796 0.15323967 0.0786518 0.042123385 -0.009795344 -0.12740617 0.3045717
0.05207079 0.22487819 0.010560805 0.17132805 -0.022587141 0.03061354 0.09864905 -0.0065281535
0.07695516 0.017620625 -0.07686464 0.04609644 0.17445393 -0.045436513 0.15613768 0.12820524
0.029253336 -0.015636327 -0.17088808 -0.34852257 -0.12843539 -0.07464305 0.016386993 0.24905595
0.16711263 0.16358064 -0.22464372 0.06832397 -0.021433916 -0.41797403 -0.22663979 -0.17783315
00000000: e6b7 d93b 977b 5ebd d97e 573e 43ad 993e
00000010: 6002 a6bd 8e1a ea3d ef2f 3ebe ef3a a63d
00000020: 9299 02be 63d4 4fbe 7aff ddbd 3c7a ae3e
00000030: 940a 40bd 6a29 293e d7e8 23be b900 f2bd
00000040: 1a43 9b3c ad5b 673e 9347 15be d80b 343e
00000050: 9d12 21bc 05fb 0b3e 9643 2abc ecbc 49bd
00000060: ae50 00bd 76e2 443e e46b f63d 55ae e8bd
00000070: fdee 90be b319 4bbc 1a2f 443e 81d0 2ebe
00000080: e71b 83be 41c5 22be f03c 373e b702 ca3d
00000090: 49fa 05be 8dd3 123e 1305 103e 4115 3ebe
000000a0: 68bc c33e 4720 113d 7943 82be 8927 953d
000000b0: 9651 113e d0a9 40bc e2da 7abd 6a9b dc3d
000000c0: 8db5 6dbe 7a19 9e3d cdb5 aebe ced7 5a3d
000000d0: e180 7d3e e6fb 03be a99e 1f3e 46e3 76be
000000e0: 882e 8cbd 3647 a83d 0c18 44bb 0974 0ebe
000000f0: 4d2f 0fbd 7a19 92be 171b 943e 94c1 a13d
00000100: 9e7b cbbd 6976 363e f1c5 11bd 8aa4 413d
00000110: d4fd d13d fbd8 5abe 654e d8bd f600 c4bd
00000120: de23 3cbc 545a f43c 6e29 a8bd d69c 26be
00000130: 0601 3e3c e5d5 0c3d f03d c83c cc7d 94bd
00000140: af3d 3e3e e809 ab3d fdd8 a7bc bd48 463e
00000150: e812 bd3d 3727 0e3e 86e4 17bd eccc 863d
00000160: 46b8 283e 402c afbe 8b6c 5d3d 2b3d 303e
00000170: e1b5 b43c 8c78 4f3e 2dce 12be 304e adba
00000180: 84e9 47bd f40b b13c e2fa 4b3d 6706 4c3e
00000190: e24d 3ebc 354a 8c3e 9a3a 9dbe 9914 813e
000001a0: 938f efbe 2b30 1abc 877e 2b3e 8556 923e
000001b0: 5bf3 f93d 0d15 66be 0ae0 49bd 8f8f 8a3e
000001c0: b73c b63d 7bf8 c43d 32d6 943e 86e5 75be
000001d0: fa6f 243d 2506 b2bc 1720 843d 7734 1bbd
000001e0: d16f 943e 6d6c 683d 6441 a63e e69f 79be
000001f0: 1361 81be 15a3 a2bd 90ad 50be 8094 023e
00000200: 959e 40bd 5f9b ebbe 9a05 2fbe a720 43bd
00000210: 3885 0abf a7e4 3abe c8d7 dc3d 5757 963c
00000220: e7d2 273e e316 6e3e aa35 313e 261e ac3e
00000230: 1a3a 7d3d 6415 bb3e fa70 ad3e a146 cebd
00000240: d8cb c5bc f22c d9bc 1c88 febc 55bc 40be
00000250: d4a3 7ebc 0b8b bd3b 4558 aebe f6f2 44bd
00000260: bc77 dfbc 614e f2bc cf40 3fbe c813 923e
00000270: 3e74 79be 996f 3fbd 3f03 0d3e f393 febd
00000280: 8648 083d 437b 87bd 9638 873e ff8b 2ebd
00000290: 4355 62bd 4433 b93e 814c c0bd d051 b43c
000002a0: f050 ff3d aaf5 2abd 627c 82be 0313 aa3e
000002b0: 425a 7dbe 5fd9 76be faef 34bd 46dd 65bb
000002c0: f8d3 993d ddd9 253e d978 0a3e 5542 da3e
000002d0: 1520 89bd c3f0 87be a796 25be a8c0 5fbc
000002e0: 8c24 e5bd d9e7 bf3d 38ad 4f3e 89f4 973e
000002f0: 262c f93d 65e7 d5be bf2a 003e e20a 1abe
00000300: dee9 463e cf24 693e 48b3 0bbd 8dff 153d
00000310: 9a53 64bc 7f42 d23d 1f6f dbbd edb1 bcbe
00000320: 738c 8fbc 26b7 ce3e 20ec cb3e 76ea 063e
00000330: a4aa d1be a264 7dbe df95 0c3e 6748 6fbe
00000340: 7011 83be 527e 92be 8c26 46be e1a6 803d
00000350: c8d4 243b d1f4 183f 9114 ba3e 2ab0 873e
00000360: d331 533e 64d8 48be dcea 1c3e 3214 a13d
00000370: 9289 2c3d a77c 20bc c376 02be d2f0 9b3e
00000380: 2e48 553d 7846 663e 3a07 2d3c 9f70 2f3e
00000390: ab08 b9bc 3fc9 fa3c 8308 ca3d 1fea d5bb
000003a0: ab9a 9d3d 2159 903c 356b 9dbd 9fcf 3c3d
000003b0: 0da4 323e a31b 3abd 8ee2 1f3e 3c48 033e
000003c0: b1a4 ef3c c117 80bc 49fd 2ebe 8d71 b2be
000003d0: 9184 03be 75de 98bd 043e 863c 8608 7f3e
000003e0: 931f 2b3e af81 273e 0109 66be 70ed 8b3d
000003f0: 2e96 afbc b100 d6be 4314 68be e519 36be

mid_part.4.bias f4 [12]
0.06391564 0.009635411 -0.03003811 0.01997906 0.0046993005 -0.0057974868 0.0038267663 0.01809812
0.0328714 0.013727729 -0.037706047 -0.019676078
00000000: 34e6 823d d8dd 1d3c 7c12 f6bc 20ab a33c
00000010: 97fc 993b d8f8 bdbb 7cca 7a3b 8242 943c
00000020: 29a4 063d 45ea 603c a871 1abd ba2f a1bc

mid_part.5.weight f4 [12]
1.3435404 0.69325316 0.38925913 0.26318067 2.0349717 1.2592825 -0.34362522 0.025634628
0.63597584 1.2842102 0.43400493 0.2517459
00000000: 22f9 ab3f 0a79 313f f94c c73e 9ebf 863e
00000010: fa3c 0240 2b30 a13f a5ef afbe b6ff d13c
00000020: 50cf 223f 0061 a43f e535 de3e d7e4 803e

mid_part.6.weight f4 [12, 12, 3, 3]
0.05777464 -0.06162414 -0.02391334 0.040517095 0.13091716 0.1787967 -0.042445824 0.112129346
0.0233685 0.027679801 0.26433334 0.18480915 0.09527454 0.21732579 0.27289176 -0.0038394155
-0.27543885 0.06126425 0.06755554 -0.15992016 0.042379003 0.12822898 0.0080546485 -0.07188556
-0.18903594 -0.1345072 0.1778632 0.15021753 -0.10314788 -0.19616035 -0.012456159 0.093324386
0.10304721 0.10963484 -0.37081546 -0.16135222 -0.014197851 0.15000153 -0.082510516 0.16955964
0.12300384 -0.13673076 -0.038070466 0.17329971 -0.039433047 -0.12816478 -0.3992595 0.086984515
0.22250089 0.008828555 0.05358307 0.09144801 0.11977835 0.16652033 0.16082299 -0.2133991
0.041154467 0.088322595 0.054640166 0.06497234 0.20853084 0.1869518 0.13332218 -0.11552591
-0.080471925 0.1358535 -0.037353106 -0.16539493 0.027920878 0.06607864 0.048980616 -0.19060375
-0.06444449 0.09487029 0.13414711 -0.029945811 0.046602707 -0.017150115 -0.08282891 -0.18170606
0.025322998 -0.036856163 0.18222229 0.0028516902 -0.17053032 0.0668227 0.18427594 -0.19838001
-0.12440062 -0.23410237 -0.08228612 0.15833876 0.09601299 -0.05809974 -0.22191499 0.11091588
-0.08486361 0.1774044 -0.040039524 0.10511083 0.05228723 0.05910224 0.06311699 -0.13020405
-0.005481539 0.15119822 -0.12929983 0.01512083 0.3313899 0.15125063 0.007554741 -0.1552893
-0.21610962 0.13165918 0.13102435 0.110015854 0.017186461 -0.112396255 -0.02546855 0.14572611
-0.050635926 0.16099693 0.06300012 0.1468395 -0.15240398 0.020139476 0.124448396 0.019597895
0.01257151 0.16115847 0.065686315 0.18655002 -0.008506011 -0.122271046 0.014368237 0.10341453
0.044610787 -0.02986277 -0.08315777 0.15588629 -0.0016202866 -0.095444046 -0.2046557 0.042741537
0.054514512 -0.098492496 0.16446371 0.109763905 -0.039468314 -0.12172819 0.100025214 0.20576085
0.044769056 0.07195956 0.03358401 0.0986803 -0.21653956 0.02217874 -0.04702437 -0.022344287
0.03989211 0.046991657 0.13846888 0.01763345 0.0030957537 0.04497285 0.08793727 -0.026011093
-0.09066412 -0.071225815 -0.08744245 0.15551539 -0.042322014 0.10607316 0.010042002 0.18063541
-0.23286624 -0.020158378 -0.02673415 -0.0957447 0.24838762 -0.31597733 0.14523701 -0.025437014
0.046954826 0.22683777 0.0043573347 0.12714723 -0.030883385 0.08732463 -0.00091980683 0.055925164
0.15354086 0.21589038 -0.17225711 0.0015175954 0.15284307 0.19954784 0.09034802 0.22753544
0.060497954 -0.21242443 -0.26249644 -0.052790444 0.11223213 -0.08158737 0.2971686 -0.073832616
-0.023307052 -0.028128173 0.047309376 0.06389823 0.005369669 -0.24098085 -0.24056914 0.07236319
-0.279274 -0.028610855 -0.19616176 -0.01648315 -0.1223901 -0.08183655 0.26239672 0.16740341
-0.19971564 -0.15594324 -0.1939194 0.039982077 -0.13644427 0.04612243 -0.12646721 0.27481082
0.18760669 0.18140256 -0.12641248 0.13408749 0.007278877 0.0737436 0.0138627 -0.13888909
0.16642986 -0.14000762 -0.2729593 0.12712479 0.09156866 0.013705842 0.16382569 0.1970167
-0.10571647 -0.1612173 -0.09409505 0.020139087 -0.30019674 -0.18385038 0.1662341 -0.063940145
00000000: 1aa5 6c3d 9869 7cbd e9e5 c3bc 41f5 253d
00000010: 260f 063e 7b16 373e acdb 2dbd 12a4 e53d
00000020: 4c6f bf3c c0c0 e23c b356 873e 9c3e 3d3e
00000030: 4c1f c33d a78a 5e3e 78b8 8b3e b49e 7bbb
00000040: 5206 8dbe 39f0 7a3d 8f5a 8a3d 1cc2 23be
00000050: 9b95 2d3d 754e 033e a5f7 033c bd38 93bd
00000060: a392 41be 41bc 09be c521 363e a0d2 193e
00000070: 323f d3bd 42de 48be eb14 4cbc db20 bf3d
00000080: 6a0a d33d 3b88 e03d 86db bdbe 8439 25be
00000090: 1a9e 68bc 009a 193e 46fb a8bd 0ba1 2d3e
000000a0: 70e9 fb3d 2603 0cbe c7ef 1bbd 7b75 313e
000000b0: 8c84 21bd a13d 03be be6b ccbe f024 b23d
000000c0: 46d7 633e a5a5 103c ec79 5b3d 1849 bb3d
000000d0: 5a4e f53d 4e84 2a3e c8ae 243e 4b85 5abe
000000e0: 9691 283d 7ae2 b43d 5ece 5f3d 3810 853d
000000f0: 1c89 553e 4b70 3f3e 9c85 083e d998 ecbd
00000100: 77ce a4bd 2e1d 0b3e 92ff 18bd 4a5d 29be
00000110: 53ba e43c 3d54 873d e69f 483d a12d 43be
00000120: 79fb 83bd 5b4b c23d dc5d 093e eb50 f5bc
00000130: 7be2 3e3d 667e 8cbc 34a2 a9bd 2711 3abe
00000140: 2d72 cf3c 7df6 16bd 7b98 3a3e 6ce3 3a3b
00000150: 809f 2ebe 57da 883d d5b2 3c3e 2124 4bbe
00000160: c1c5 febd 88b8 6fbe a085 a8bd 8e23 223e
00000170: 75a2 c43d fef9 6dbd af3d 63be dd27 e33d
00000180: f9cc adbd 80a9 353e 7c00 24bd 5944 d73d
00000190: 222b 563d 3115 723d 7b43 813d 3654 05be
000001a0: 7b9e b3bb b5d3 1a3e 2d67 04be 5cbd 773c
000001b0: f0ab a93e 72e1 1a3e c38d f73b 2904 1fbe
000001c0: d74b 5dbe aad1 063e 3f2b 063e fe4f e13d
000001d0: 9fca 8c3c 0230 e6bd 6ca3 d0bc 3a39 153e
000001e0: 9e67 4fbd 61dc 243e 3506 813d 185d 163e
000001f0: ca0f 1cbe 8bfb a43c cdde fe3d c48b a03c
00000200: bcf8 4d3c ba06 253e 8c86 863d f806 3f3e
00000210: cc5c 0bbc 3e69 fabd c168 6b3c ffca d33d
00000220: cdb9 363d c5a2 f4bc 9f4e aabd a8a0 1f3e
00000230: cc5f d4ba 2b78 c3bd 4491 51be c011 2f3d
00000240: 9c4a 5f3d 6fb6 c9bd 2d69 283e e6cb e03d
00000250: 87a9 21bd a14c f9bd 05da cc3d f9b2 523e
00000260: c25f 373d 895f 933d 638f 093d e618 ca3d
00000270: 8cbc 5dbe 30b0 b53c a09c 40bd 5e0b b7bc
00000280: e965 233d 537a 403d c9ca 0d3e 0674 903c
00000290: 21e2 4a3b 7335 383d 7518 b43d 3715 d5bc
000002a0: 1cae b9bd d7de 91bd 0715 b3bd 6d3f 1f3e
000002b0: d959 2dbd e33c d93d 3687 243c 7df8 383e
000002c0: 7d74 6ebe 2f23 a5bc 9301 dbbc cc15 c4bd
000002d0: 5359 7e3e c8c7 a1be 03b9 143e 4961 d0bc
000002e0: b453 403d 2948 683e f9c7 8e3b e232 023e
000002f0: 27ff fcbc 41d7 b23d 311f 71ba c911 653d
00000300: d139 1d3e 5e12 5d3e 2b64 30be 0dea c63a
00000310: e582 1c3e 4556 4c3e 6208 b93d 0dff 683e
00000320: b4cc 773d ca85 59be ef65 86be cb3a 58bd
00000330: f5d9 e53d 4717 a7bd 7c26 983e 8e35 97bd
00000340: 6eee bebc 0e6d e6bc 7ac7 413d 13dd 823d
00000350: 0cf4 af3b afc3 76be c257 76be 2733 943d
00000360: 00fd 8ebe 5061 eabc a1de 48be ac07 87bc
00000370: a9a7 fabd ec99 a7bd dd58 863e cd6b 2b3e
00000380: 4282 4cbe 96af 1fbe cf92 46be 3fc4 233d
00000390: 0cb8 0bbe e0ea 3c3d 9f80 01be 01b4 8c3e
000003a0: f81b 403e 98c1 393e 4672 01be 3b4e 093e
000003b0: a583 ee3b e206 973d 6120 633c f138 0ebe
000003c0: 976c 2a3e 285e 0fbe 52c1 8bbe 002d 023e
000003d0: 5a88 bb3d 788e 603c ecc1 273e bfbe 493e
000003e0: e081 d8bd 2616 25be e8b4 c0bd bafa a43c
000003f0: 63b3 99be 4643 3cbe 4639 2a3e 0df3 82bd

mid_part.6.bias f4 [12]
0.02152867 0.0074448287 0.032687247 0.006147116 0.025661385 0.07500916 0.074672885 0.06462761
0.0058463532 0.004421077 0.12451064 -0.050971713
00000000: e55c b03c c0f3 f33b 10e3 053d bf6d c93b
00000010: d337 d23c 679e 993d 19ee 983d 7b5b 843d
00000020: c492 bf3b afde 903b 6fff fe3d b7c7 50bd

mid_part.7.weight f4 [12]
0.52315766 1.4056164 0.30077082 0.27462468 -0.13005756 1.2757215 1.0331571 0.29629144
0.31483757 0.19472277 -0.29814 0.22254111
00000000: a9ed 053f 3deb b33f a2fe 993e 9b9b 8c3e
00000010: cf2d 05be d84a a33f 7e3e 843f 83b3 973e
00000020: 6432 a13e 6865 473e cea5 98be d1e1 633e

mid_part.8.weight f4 [12, 12, 3, 3]
0.0997543 -0.11069017 -0.19065283 -0.082047485 0.23592848 0.13156773 -0.30503923 0.1394966
-0.07559658 -0.042979136 0.035805766 0.0697149 0.09053196 0.31413597 0.037159584 0.19951634
0.055621937 -0.059016734 0.08670601 -0.039486803 -0.0102904355 -0.22654359 -0.028065301 -0.024089793
0.062683284 -0.18870704 -0.0007611523 -0.059597153 -0.086914994 0.029265912 -0.1703599 -0.06542246
0.10758638 0.0061012697 -0.10920457 -0.18930592 -0.017370628 -0.012791008 0.018912926 0.11278969
-0.0148223955 0.22844182 -0.083596356 0.05634165 -0.026087703 0.060282506 0.15672342 0.05012327
-0.1570348 0.07357092 0.030521378 0.33176926 -0.14891015 0.09566904 0.121946454 -0.34318602
0.033503618 0.049594305 -0.025251819 -0.048065446 -0.10520323 -0.12026568 0.043849807 -0.020516787
0.3096354 0.010623297 0.045636825 0.20058046 -0.09105804 -0.17831293 -0.012374405 -0.21318968
-0.24264471 0.032939807 0.057449576 0.020730436 0.1848015 -0.15162316 -0.039386515 -0.13426267
-0.1287062 0.08354614 -0.06290426 -0.13650295 -0.13894019 -0.050834604 -0.026637876 0.22996226
-0.038924523 -0.0026656918 0.017666638 0.15625742 0.016968785 -0.06292061 -0.03405319 0.044063263
0.08161642 0.083068065 -0.05249308 0.16582015 0.3952665 -0.19678825 0.4327712 -0.020988915
0.2032507 -0.19976504 0.118254535 0.23722817 0.11672852 -0.09639329 -0.14908034 0.23723467
0.15578398 0.0140184155 0.07325584 -0.26105335 -0.22326925 0.053083178 -0.15056568 0.010571903
0.12237855 0.20994233 -0.24534073 -0.16588327 -0.0003048269 -0.10222056 0.076416865 -0.024276685
0.09091654 0.06913825 -0.2787177 0.2435152 -0.112182565 0.07084931 0.017104268 -0.046019744
0.35815933 0.04903481 0.13352537 -0.005200523 0.074975565 -0.18043199 0.06453673 0.108484834
0.15235189 0.0063008023 -0.10245413 0.04076803 0.19762707 -0.29451805 0.1554264 -0.3272905
0.067181624 0.16535762 0.16058633 -0.042083915 0.08702376 0.22835428 0.07811986 -0.18675062
-0.06423253 -0.0002640484 -0.049940884 -0.009220281 0.15605201 0.10512396 0.022676898 0.045247514
-0.042501006 -0.040849 0.06112964 0.17055891 0.20738685 0.13632867 0.13615341 -0.3578946
0.062495504 0.0390938 -0.04587913 0.06669509 0.08067054 -0.0043905205 -0.0057628932 0.069430105
-0.13366868 0.046066318 0.28679186 -0.073449954 0.09511942 0.27971005 0.01566669 0.009994207
0.23904432 0.042814303 0.23115695 0.18812397 -0.006496819 0.05966206 0.0045635505 -0.037551094
0.076354876 -0.009218838 -0.16511026 -0.12920739 -0.09647508 0.077465646 0.18832135 0.17991944
-0.1984644 0.09207724 0.1700675 0.07137701 0.074172296 -0.02313185 0.00248346 0.18952318
-0.058380906 0.170015 0.09263878 -0.009822156 0.079662055 -0.11714411 0.05235462 0.12405691
0.14420825 0.06217606 0.054541092 0.18836357 0.019205881 0.1852775 -0.12083484 0.09515341
0.084424004 -0.12438918 0.0017835478 -0.018504111 -0.15470088 -0.0532641 -0.17331773 0.024678523
-0.041042253 -0.03293833 -0.03046888 -0.20497444 -0.0771382 -0.07056441 0.23393145 0.07904255
-0.20287366 0.049201127 -0.055431757 -0.0009114479 0.06933011 0.04021935 -0.26937872 0.18149619
00000000: fc4b cc3d 87b1 e2bd 7f3a 43be 8308 a8bd
00000010: 3c97 713e b1b9 063e 1a2e 9cbe 32d8 0e3e
00000020: 61d2 9abd e40a 30bd 11a9 123d afc6 8e3d
00000030: d268 b93d 6ed6 a03e a634 183d 034e 4c3e
00000040: d4d3 633d 88bb 71bd ec92 b13d eabc 21bd
00000050: 3799 28bc 0bfb 67be 34e9 e5bc f557 c5bc
00000060: 1860 803d 6b3c 41be 1188 47ba 251c 74bd
00000070: 7d00 b2bd 11bf ef3c d372 2ebe 36fc 85bd
00000080: 3f56 dc3d 29ed c73b a5a6 dfbd 69d9 41be
00000090: d94c 8ebc 6091 51bc 48ef 9a3c 48fe e63d
000000a0: a2d9 72bc a7ec 693e 9134 abbd 81c6 663d
000000b0: e1b5 d5bc caea 763d 1b7c 203e 0f4e 4d3d
000000c0: bbcd 20be 5aac 963d f807 fa3c a9dd a93e
000000d0: e77b 18be 21ee c33d 10bf f93d 14b6 afbe
000000e0: 173b 093d 6623 4b3d e7dc cebc 46e0 44bd
000000f0: cb74 d7bd da4d f6bd db9b 333d d212 a8bc
00000100: 8888 9e3e 560d 2e3c aeed 3a3d f764 4d3e
00000110: a37c babd aa97 36be 04be 4abc 654e 5abe
00000120: db77 78be e4eb 063d 3f50 6b3d e0d2 a93c
00000130: 9b3c 3d3e 1a43 1bbe c153 21bd 277c 09be
00000140: 8fcb 03be 3d1a ab3d f3d3 80bd 6ec7 0bbe
00000150: 5646 0ebe f237 50bd ad37 dabc 3a7b 6b3e
00000160: 526f 1fbd e3b2 2ebb a0b9 903c f201 203e
00000170: 1f02 8b3c 85dc 80bd 5c7b 0bbd ae7b 343d
00000180: 8226 a73d 971f aa3d fc02 57bd c2cc 293e
00000190: 5f60 ca3e dc82 49be 3094 dd3e f2f0 abbc
000001a0: f420 503e 358f 4cbe 6f2f f23d f1eb 723e
000001b0: 5d0f ef3d d869 c5bd 84a8 18be a5ed 723e
000001c0: d685 1f3e 7fad 653c 2807 963d c9a8 85be
000001d0: b2a0 64be bf6d 593d e42d 1abe c635 2d3c
000001e0: 9ba1 fa3d 1ffb 563e 9a3a 7bbe 4edd 29be
000001f0: 2dd1 9fb9 0359 d1bd 7280 9c3d e6df c6bc
00000200: 7332 ba3d 5b98 8d3d 16b4 8ebe 0c5c 793e
00000210: f9bf e5bd 7119 913d 401e 8c3c 337f 3cbd
00000220: a960 b73e bad8 483d e0ba 083e 2669 aabb
00000230: ca8c 993d 2ac3 38be d52b 843d 4c2d de3d
00000240: 2202 1c3e f676 ce3b 79d3 d1bd 61fc 263d
00000250: c05e 4a3e 12cb 96be 1928 1f3e 9f92 a7be
00000260: 8596 893d 8253 293e be70 243e 2f60 2cbd
00000270: 8339 b23d b4d5 693e 4efd 9f3d 8e3b 3fbe
00000280: 588c 83bd fa6f 8ab9 d08e 4cbd a910 17bc
00000290: 19cc 1f3e 3b4b d73d e7c4 b93c 7555 393d
000002a0: 8915 2ebd 4851 27bd 1363 7a3d ffa6 2e3e
000002b0: 385d 543e be99 0b3e cd6b 0b3e f63d b7be
000002c0: 49fb 7f3d d220 203d c1eb 3bbd 6f97 883d
000002d0: 9936 a53d 5bde 8fbb a7d6 bcbb 5f31 8e3d
000002e0: 71e0 08be 09b0 3c3d 62d6 923e ee6c 96bd
000002f0: f8cd c23d 2836 8f3e 6e57 803c bebe 233c
00000300: 09c8 743e 0d5e 2f3d 68b4 6c3e 92a3 403e
00000310: 45e3 d4bb 3460 743d d689 953b 2dcf 19bd
00000320: f25f 9c3d 9c0a 17bc aa12 29be f14e 04be
00000330: ba94 c5bd 4fa6 9e3d 50d7 403e cd3c 383e
00000340: 403a 4bbe fe92 bc3d 2d26 2e3e 1c2e 923d
00000350: a5e7 973d 017f bdbc 8bc1 223b 5d12 423e
00000360: d120 6fbd 6a18 2e3e 67b9 bd3d 1ced 20bc
00000370: dc25 a33d 40e9 efbd cc71 563d 8d11 fe3d
00000380: 54ab 133e 53ac 7e3d 7b66 5f3d 61e2 403e
00000390: a755 9d3c 63b9 3d3e 4278 f7bd cbdf c23d
000003a0: 7ee6 ac3d c1bf febd efc5 e93a ef95 97bc
000003b0: e869 1ebe 752b 5abd 347a 31be 9d2a ca3c
000003c0: ec1b 28bd 58ea 06bd df99 f9bc d2e4 51be
000003d0: a2fa 9dbd 1384 90bd ba8b 6f3e 0fe1 a13d
000003e0: 1dbe 4fbe 1f87 493d 690c 63bd 3cee 6eba
000003f0: f2fc 8d3d 0cbd 243d 02ec 89be 23da 393e

mid_part.8.bias f4 [12]
0.00028147476 0.02865599 -0.006550193 -0.031301625 0.0053457837 -0.0022583967 0.010541574 0.035676617
-0.026031055 0.058445185 0.027890721 0.028504722
00000000: e792 9339 f7bf ea3c 00a3 d6bb 2236 00bd
00000010: af2b af3b 9c01 14bb 91b6 2c3c a521 123d
00000020: 143f d5bc 3864 6f3d 157b e43c bc82 e93c

mid_part.9.weight f4 [12]
-0.4565323 0.026455818 -0.042033467 0.26652354 0.4383747 1.2159212 -0.1721717 1.0203773
0.26795575 0.31827295 0.085690945 1.6866598
00000000: 9abe e9be dfb9 d83c 492b 2cbd c675 883e
00000010: a672 e03e 4ea3 9b3f c74d 30be b99b 823f
00000020: 7f31 893e acf4 a23e bc7e af3d 78e4 d73f

mid_part.10.weight f4 [56, 12, 1, 1]
-0.079523824 0.17672776 -0.05434634 -0.38338497 -0.089977846 0.24766682 0.098858975 0.2937483
-0.16327342 -0.08704971 0.3716033 -0.13150342 0.06512502 0.16631559 0.07407253 -0.04457785
-0.2378884 0.3075188 -0.06374309 0.32564777 0.015415148 0.0948965 0.20896143 0.09776534
-0.047668703 0.116734244 0.0030757512 -0.22550786 -0.33832768 -0.32311818 0.34514052 0.035693012
0.058920544 -0.16278984 -0.17839658 -0.0055869995 0.0605512 -0.21184258 -0.041046824 -0.13473414
-0.17717996 -0.34297884 0.32563427 0.5680706 -0.301197 -0.03674695 0.11764477 0.16702193
-0.18545845 0.15748979 0.34073624 0.12447834 -0.06469112 0.1941042 -0.06707458 0.24547714
0.21941121 -0.06624439 0.14457573 -0.2393596 -0.16295552 -0.097431496 0.14645644 0.29742083
-0.16879526 0.016559117 -0.22193062 -0.17698991 0.15337217 -0.32605004 0.08239629 0.14518544
0.2280569 0.08696205 -0.3323648 -0.15317586 0.34206578 -0.21091136 -0.030889928 -0.0759803
0.30551445 -0.21332714 0.025093043 -0.18321182 0.19129694 0.003685006 0.15392846 0.37620953
0.04215567 -0.1212213 -0.30152628 -0.22331388 0.06154209 0.3867856 0.70946723 0.15393257
-0.1272823 0.14250611 -0.072521254 -0.054991394 0.1956522 -0.18985464 -0.031210015 0.009478786
-0.05438465 -0.33291802 0.033429097 0.18107316 -0.4150036 0.13238434 0.13597836 -0.14696345
0.105889075 -0.21606226 0.017426128 0.08600596 -0.17430541 -0.14246349 -0.07470493 0.15319319
-0.045710456 -0.15747748 -0.05873497 -0.24341643 0.12524839 0.021588422 -0.06719228 -0.3359511
-0.16838108 0.17870645 0.15188399 -0.13915676 0.054770928 0.14741752 0.08000588 -0.31726596
0.040405974 0.1526939 0.13640216 0.05238487 -0.33342513 -0.030362694 -0.1486007 -0.07086955
0.066107616 0.20263074 -0.0044950517 -0.049460623 0.062670745 0.05190078 -0.06519089 -0.027323823
0.23613337 0.3284916 -0.3879913 -0.18413302 -0.3000277 -0.021934023 -0.22014481 -0.07535045
0.020300632 -0.13776106 0.0012629838 0.26216397 0.27865562 0.5833721 0.621232 -0.3828648
-0.15806116 -0.01528382 -0.07638329 0.042651694 0.2840527 0.062149532 -0.01960297 -0.012140707
0.16672571 -0.008164056 -0.13944888 0.14385742 -0.15279292 0.14052801 -0.36514992 -0.074205786
0.2703967 0.40872544 0.0070920554 -0.28056997 0.0050811796 0.35494414 -0.29103377 0.16370606
0.22653195 0.21016663 -0.025770428 -0.15220965 0.1289604 -0.40333632 0.01075457 0.10684474
0.06996283 0.28608558 0.2283102 -0.09717871 0.042497452 0.12691328 0.06587361 -0.139347
0.012327249 0.043902155 0.16864024 0.058513083 0.13793117 -0.17504813 0.11760655 -0.13446468
-0.1609334 -0.030412719 -0.08643661 -0.050740484 -0.08335207 0.2543317 0.08952308 0.1330205
-0.30499637 -0.0023730285 -0.1514952 -0.120271794 0.04749415 0.004114158 -0.033038657 -0.19608675
-0.055895302 -0.2248827 0.11619791 -0.40108725 0.17905968 -0.3926838 0.103991926 -0.21777672
-0.03575589 -0.12055911 -0.2330781 -0.25129664 -0.05392124 -0.11794195 0.047789693 0.18470407
0.041725803 0.0019638373 -0.53218806 -0.30151984 0.025496475 -0.07526516 0.028259357 -0.1642597
00000000: 63dd a2bd 1ff8 343e 459a 5ebd 094b c4be
00000010: 4e46 b8bd 5f9c 7d3e 9376 ca3d 2d66 963e
00000020: 2631 27be 1e47 b2bd ca42 be3e d5a8 06be
00000030: 4460 853d a24e 2a3e 57b3 973d 4397 36bd
00000040: 0499 73be 1b73 9d3e bd8b 82bd 4ebb a63e
00000050: d18f 7c3c 1959 c23d fcf9 553e 3239 c83d
00000060: 4240 43bd 5d12 ef3d 8b92 493b 88eb 66be
00000070: 4939 adbe bf6f a5be 42b6 b03e d632 123d
00000080: ab56 713d 61b2 26be 98ad 36be 2613 b7bb
00000090: 8904 783d 43ed 58be b720 28bd bff7 09be
000000a0: aa6e 35be ec9a afbe 89b9 a63e 136d 113f
000000b0: 7e36 9abe f883 16bd beef f03d cc07 2b3e
000000c0: d2e8 3dbe 0145 213e fb74 ae3e 80ee fe3d
000000d0: c77c 84bd 40c3 463e 665e 89bd 5c5e 7b3e
000000e0: 55ad 603e 24ab 87bd a90b 143e af1a 75be
000000f0: d0dd 26be 2a8a c7bd adf8 153e 8b47 983e
00000100: aad8 2cbe fca6 873c c841 63be d83c 35be
00000110: 980d 1d3e 08f0 a6be 63bf a83d 7eab 143e
00000120: bf87 693e 2919 b23d b82b aabe 22da 1cbe
00000130: 3f23 af3e 26f9 57be e00c fdbc 8f9b 9bbd
00000140: 646c 9c3e 6e72 5abe ed8f cd3c e19b 3bbe
00000150: 58e3 433e 2480 713b 6c9f 1d3e 899e c03e
00000160: 6cab 2c3d df42 f8bd a761 9abe 65ac 64be
00000170: 8f13 7c3d c308 c63e a59f 353f 80a0 1d3e
00000180: 4b56 02be 1fed 113e 0686 94bd a83e 61bd
00000190: 0d59 483e 4169 42be 25ac ffbc e94c 1b3c
000001a0: 70c2 5ebd 3b74 aabe f3ec 083d 3e6b 393e
000001b0: 5a7b d4be c38f 073e e93d 0b3e 967d 16be
000001c0: 5fdc d83d 6d3f 5dbe 3dc1 8e3c e523 b03d
000001d0: 1e7d 32be f3e1 11be e6fe 98bd adde 1c3e
000001e0: e33a 3bbd c741 21be 1494 70bd 2842 79be
000001f0: 1d41 003e 34da b03c 1b9c 89bd c801 acbe
00000200: 176c 2cbe d3fe 363e 7a87 1b3e 1c7f 0ebe
00000210: 7b57 603d 9ef4 163e 1fda a33d af70 a2be
00000220: bc80 253d ca5b 1c3e 02ad 0b3e 8491 563d
00000230: b3b6 aabe 2fbb f8bc c82a 18be 0e24 91bd
00000240: 6e63 873d 6f7e 4f3e 3a4b 93bb 3997 4abd
00000250: 8559 803d ea95 543d cd82 85bd 36d6 dfbc
00000260: f2cc 713e 0d30 a83e cca6 c6be 5e8d 3cbe
00000270: 3b9d 99be fbae b3bc a46d 61be 5651 9abd
00000280: 834d a63c 3c11 0dbe b48a a53a 5b3a 863e
00000290: f3ab 8e3e e057 153f 0f09 1f3f db06 c4be
000002a0: c9da 21be fd68 7abc d86e 9cbd 8bb3 2e3d
000002b0: 5b6f 913e 8290 7e3d 6896 a0bc d1e9 46bc
000002c0: 25ba 2a3e 88c2 05bc b0cb 0ebe 5c4f 133e
000002d0: bf75 1cbe 93e6 0f3e eef4 babe 34f9 97bd
000002e0: 7071 8a3e 7644 d13e 7964 e83b dea6 8fbe
000002f0: 0680 a63b 3dbb b53e 6102 95be 90a2 273e
00000300: fef7 673e ec35 573e 811c d3bc d9dc 1bbe
00000310: 320e 043e 1982 cebe f033 303c 6ad1 da3d
00000320: ac48 8f3d cf79 923e 26ca 693e a205 c7bd
00000330: cf11 2e3d 8ef5 013e bee8 863d fbb0 0ebe
00000340: 3bf8 493c bfd2 333d 07b0 2c3e 6aab 6f3d
00000350: d43d 0d3e d13f 33be b4db f03d 1cb1 09be
00000360: bacb 24be 1824 f9bc ad05 b1bd 41d5 4fbd
00000370: 7db4 aabd c437 823e e057 b73d 8736 083e
00000380: 7c28 9cbe d084 1bbb 8f21 1bbe 0f51 f6bd
00000390: 3a89 423d 0fd0 863b 8b53 07bd f7ca 48be
000003a0: 79f2 64bd a747 66be 2bf9 ed3d 4f5b cdbe
000003b0: 6c5b 373e da0d c9be b8f9 d43d dc00 5fbe
000003c0: c574 12bd b2e7 f6bd 07ac 6ebe f4a9 80be
000003d0: 85dc 5cbd 8d8b f1bd 20bf 433d 1023 3d3e
000003e0: ade8 2a3d b9b3 003b 7a3d 08bf cf60 9abe
000003f0: fcdd d03c 9f24 9abd 2b80 e73c b233 28be
